…
I0813 21:16:14.699286  7338 net.cpp:313] The NetState phase (0) differed from the phase (1) specified by a rule in layer loss3/top-5
I0813 21:16:14.700150  7338 net.cpp:49] Initializing net from parameters: 
name: "GoogleNet"
state {
  phase: TRAIN
}
layer {
  name: "data"
  type: "Data"
  top: "data"
  top: "label"
  include {
    phase: TRAIN
  }
  transform_param {
    mirror: true
    crop_size: 224
    mean_value: 104
    mean_value: 117
    mean_value: 123
  }
  data_param {
    source: "/home/chenyao/ilsvrc12/ilsvrc12_train_lmdb"
    batch_size: 32
    backend: LMDB
  }
}
layer {
  name: "conv1/7x7_s2"
  type: "Convolution"
  bottom: "data"
  top: "conv1/7x7_s2"
  param {
    lr_mult: 1
    decay_mult: 1
  }
  param {
    lr_mult: 2
    decay_mult: 0
  }
  convolution_param {
    num_output: 64
    pad: 3
    kernel_size: 7
    stride: 2
    weight_filler {
      type: "xavier"
    }
    bias_filler {
      type: "constant"
      value: 0.2
    }
  }
}
layer {
  name: "conv1/relu_7x7"
  type: "ReLU"
  bottom: "conv1/7x7_s2"
  top: "conv1/7x7_s2"
}
layer {
  name: "pool1/3x3_s2"
  type: "Pooling"
  bottom: "conv1/7x7_s2"
  top: "pool1/3x3_s2"
  pooling_param {
    pool: MAX
    kernel_size: 3
    stride: 2
  }
}
layer {
  name: "pool1/norm1"
  type: "LRN"
  bottom: "pool1/3x3_s2"
  top: "pool1/norm1"
  lrn_param {
    local_size: 5
    alpha: 0.0001
    beta: 0.75
  }
}
layer {
  name: "conv2/3x3_reduce"
  type: "Convolution"
  bottom: "pool1/norm1"
  top: "conv2/3x3_reduce"
  param {
    lr_mult: 1
    decay_mult: 1
  }
  param {
    lr_mult: 2
    decay_mult: 0
  }
  convolution_param {
    num_output: 64
    kernel_size: 1
    weight_filler {
      type: "xavier"
    }
    bias_filler {
      type: "constant"
      value: 0.2
    }
  }
}
layer {
  name: "conv2/relu_3x3_reduce"
  type: "ReLU"
  bottom: "conv2/3x3_reduce"
  top: "conv2/3x3_reduce"
}
layer {
  name: "conv2/3x3"
  type: "Convolution"
  bottom: "conv2/3x3_reduce"
  top: "conv2/3x3"
  param {
    lr_mult: 1
    decay_mult: 1
  }
  param {
    lr_mult: 2
    decay_mult: 0
  }
  convolution_param {
    num_output: 192
    pad: 1
    kernel_size: 3
    weight_filler {
      type: "xavier"
    }
    bias_filler {
      type: "constant"
      value: 0.2
    }
  }
}
layer {
  name: "conv2/relu_3x3"
  type: "ReLU"
  bottom: "conv2/3x3"
  top: "conv2/3x3"
}
layer {
  name: "conv2/norm2"
  type: "LRN"
  bottom: "conv2/3x3"
  top: "conv2/norm2"
  lrn_param {
    local_size: 5
    alpha: 0.0001
    beta: 0.75
  }
}
layer {
  name: "pool2/3x3_s2"
  type: "Pooling"
  bottom: "conv2/norm2"
  top: "pool2/3x3_s2"
  pooling_param {
    pool: MAX
    kernel_size: 3
    stride: 2
  }
}
layer {
  name: "inception_3a/1x1"
  type: "Convolution"
  bottom: "pool2/3x3_s2"
  top: "inception_3a/1x1"
  param {
    lr_mult: 1
    decay_mult: 1
  }
  param {
    lr_mult: 2
    decay_mult: 0
  }
  convolution_param {
    num_output: 64
    kernel_size: 1
    weight_filler {
      type: "xavier"
    }
    bias_filler {
      type: "constant"
      value: 0.2
    }
  }
}
layer {
  name: "inception_3a/relu_1x1"
  type: "ReLU"
  bottom: "inception_3a/1x1"
  top: "inception_3a/1x1"
}
layer {
  name: "inception_3a/3x3_reduce"
  type: "Convolution"
  bottom: "pool2/3x3_s2"
  top: "inception_3a/3x3_reduce"
  param {
    lr_mult: 1
    decay_mult: 1
  }
  param {
    lr_mult: 2
    decay_mult: 0
  }
  convolution_param {
    num_output: 96
    kernel_size: 1
    weight_filler {
      type: "xavier"
    }
    bias_filler {
      type: "constant"
      value: 0.2
    }
  }
}
layer {
  name: "inception_3a/relu_3x3_reduce"
  type: "ReLU"
  bottom: "inception_3a/3x3_reduce"
  top: "inception_3a/3x3_reduce"
}
layer {
  name: "inception_3a/3x3"
  type: "Convolution"
  bottom: "inception_3a/3x3_reduce"
  top: "inception_3a/3x3"
  param {
    lr_mult: 1
    decay_mult: 1
  }
  param {
    lr_mult: 2
    decay_mult: 0
  }
  convolution_param {
    num_output: 128
    pad: 1
    kernel_size: 3
    weight_filler {
      type: "xavier"
    }
    bias_filler {
      type: "constant"
      value: 0.2
    }
  }
}
layer {
  name: "inception_3a/relu_3x3"
  type: "ReLU"
  bottom: "inception_3a/3x3"
  top: "inception_3a/3x3"
}
layer {
  name: "inception_3a/5x5_reduce"
  type: "Convolution"
  bottom: "pool2/3x3_s2"
  top: "inception_3a/5x5_reduce"
  param {
    lr_mult: 1
    decay_mult: 1
  }
  param {
    lr_mult: 2
    decay_mult: 0
  }
  convolution_param {
    num_output: 16
    kernel_size: 1
    weight_filler {
      type: "xavier"
    }
    bias_filler {
      type: "constant"
      value: 0.2
    }
  }
}
layer {
  name: "inception_3a/relu_5x5_reduce"
  type: "ReLU"
  bottom: "inception_3a/5x5_reduce"
  top: "inception_3a/5x5_reduce"
}
layer {
  name: "inception_3a/5x5"
  type: "Convolution"
  bottom: "inception_3a/5x5_reduce"
  top: "inception_3a/5x5"
  param {
    lr_mult: 1
    decay_mult: 1
  }
  param {
    lr_mult: 2
    decay_mult: 0
  }
  convolution_param {
    num_output: 32
    pad: 2
    kernel_size: 5
    weight_filler {
      type: "xavier"
    }
    bias_filler {
      type: "constant"
      value: 0.2
    }
  }
}
layer {
  name: "inception_3a/relu_5x5"
  type: "ReLU"
  bottom: "inception_3a/5x5"
  top: "inception_3a/5x5"
}
layer {
  name: "inception_3a/pool"
  type: "Pooling"
  bottom: "pool2/3x3_s2"
  top: "inception_3a/pool"
  pooling_param {
    pool: MAX
    kernel_size: 3
    stride: 1
    pad: 1
  }
}
layer {
  name: "inception_3a/pool_proj"
  type: "Convolution"
  bottom: "inception_3a/pool"
  top: "inception_3a/pool_proj"
  param {
    lr_mult: 1
    decay_mult: 1
  }
  param {
    lr_mult: 2
    decay_mult: 0
  }
  convolution_param {
    num_output: 32
    kernel_size: 1
    weight_filler {
      type: "xavier"
    }
    bias_filler {
      type: "constant"
      value: 0.2
    }
  }
}
layer {
  name: "inception_3a/relu_pool_proj"
  type: "ReLU"
  bottom: "inception_3a/pool_proj"
  top: "inception_3a/pool_proj"
}
layer {
  name: "inception_3a/output"
  type: "Concat"
  bottom: "inception_3a/1x1"
  bottom: "inception_3a/3x3"
  bottom: "inception_3a/5x5"
  bottom: "inception_3a/pool_proj"
  top: "inception_3a/output"
}
layer {
  name: "inception_3b/1x1"
  type: "Convolution"
  bottom: "inception_3a/output"
  top: "inception_3b/1x1"
  param {
    lr_mult: 1
    decay_mult: 1
  }
  param {
    lr_mult: 2
    decay_mult: 0
  }
  convolution_param {
    num_output: 128
    kernel_size: 1
    weight_filler {
      type: "xavier"
    }
    bias_filler {
      type: "constant"
      value: 0.2
    }
  }
}
layer {
  name: "inception_3b/relu_1x1"
  type: "ReLU"
  bottom: "inception_3b/1x1"
  top: "inception_3b/1x1"
}
layer {
  name: "inception_3b/3x3_reduce"
  type: "Convolution"
  bottom: "inception_3a/output"
  top: "inception_3b/3x3_reduce"
  param {
    lr_mult: 1
    decay_mult: 1
  }
  param {
    lr_mult: 2
    decay_mult: 0
  }
  convolution_param {
    num_output: 128
    kernel_size: 1
    weight_filler {
      type: "xavier"
    }
    bias_filler {
      type: "constant"
      value: 0.2
    }
  }
}
layer {
  name: "inception_3b/relu_3x3_reduce"
  type: "ReLU"
  bottom: "inception_3b/3x3_reduce"
  top: "inception_3b/3x3_reduce"
}
layer {
  name: "inception_3b/3x3"
  type: "Convolution"
  bottom: "inception_3b/3x3_reduce"
  top: "inception_3b/3x3"
  param {
    lr_mult: 1
    decay_mult: 1
  }
  param {
    lr_mult: 2
    decay_mult: 0
  }
  convolution_param {
    num_output: 192
    pad: 1
    kernel_size: 3
    weight_filler {
      type: "xavier"
    }
    bias_filler {
      type: "constant"
      value: 0.2
    }
  }
}
layer {
  name: "inception_3b/relu_3x3"
  type: "ReLU"
  bottom: "inception_3b/3x3"
  top: "inception_3b/3x3"
}
layer {
  name: "inception_3b/5x5_reduce"
  type: "Convolution"
  bottom: "inception_3a/output"
  top: "inception_3b/5x5_reduce"
  param {
    lr_mult: 1
    decay_mult: 1
  }
  param {
    lr_mult: 2
    decay_mult: 0
  }
  convolution_param {
    num_output: 32
    kernel_size: 1
    weight_filler {
      type: "xavier"
    }
    bias_filler {
      type: "constant"
      value: 0.2
    }
  }
}
layer {
  name: "inception_3b/relu_5x5_reduce"
  type: "ReLU"
  bottom: "inception_3b/5x5_reduce"
  top: "inception_3b/5x5_reduce"
}
layer {
  name: "inception_3b/5x5"
  type: "Convolution"
  bottom: "inception_3b/5x5_reduce"
  top: "inception_3b/5x5"
  param {
    lr_mult: 1
    decay_mult: 1
  }
  param {
    lr_mult: 2
    decay_mult: 0
  }
  convolution_param {
    num_output: 96
    pad: 2
    kernel_size: 5
    weight_filler {
      type: "xavier"
    }
    bias_filler {
      type: "constant"
      value: 0.2
    }
  }
}
layer {
  name: "inception_3b/relu_5x5"
  type: "ReLU"
  bottom: "inception_3b/5x5"
  top: "inception_3b/5x5"
}
layer {
  name: "inception_3b/pool"
  type: "Pooling"
  bottom: "inception_3a/output"
  top: "inception_3b/pool"
  pooling_param {
    pool: MAX
    kernel_size: 3
    stride: 1
    pad: 1
  }
}
layer {
  name: "inception_3b/pool_proj"
  type: "Convolution"
  bottom: "inception_3b/pool"
  top: "inception_3b/pool_proj"
  param {
    lr_mult: 1
    decay_mult: 1
  }
  param {
    lr_mult: 2
    decay_mult: 0
  }
  convolution_param {
    num_output: 64
    kernel_size: 1
    weight_filler {
      type: "xavier"
    }
    bias_filler {
      type: "constant"
      value: 0.2
    }
  }
}
layer {
  name: "inception_3b/relu_pool_proj"
  type: "ReLU"
  bottom: "inception_3b/pool_proj"
  top: "inception_3b/pool_proj"
}
layer {
  name: "inception_3b/output"
  type: "Concat"
  bottom: "inception_3b/1x1"
  bottom: "inception_3b/3x3"
  bottom: "inception_3b/5x5"
  bottom: "inception_3b/pool_proj"
  top: "inception_3b/output"
}
layer {
  name: "pool3/3x3_s2"
  type: "Pooling"
  bottom: "inception_3b/output"
  top: "pool3/3x3_s2"
  pooling_param {
    pool: MAX
    kernel_size: 3
    stride: 2
  }
}
layer {
  name: "inception_4a/1x1"
  type: "Convolution"
  bottom: "pool3/3x3_s2"
  top: "inception_4a/1x1"
  param {
    lr_mult: 1
    decay_mult: 1
  }
  param {
    lr_mult: 2
    decay_mult: 0
  }
  convolution_param {
    num_output: 192
    kernel_size: 1
    weight_filler {
      type: "xavier"
    }
    bias_filler {
      type: "constant"
      value: 0.2
    }
  }
}
layer {
  name: "inception_4a/relu_1x1"
  type: "ReLU"
  bottom: "inception_4a/1x1"
  top: "inception_4a/1x1"
}
layer {
  name: "inception_4a/3x3_reduce"
  type: "Convolution"
  bottom: "pool3/3x3_s2"
  top: "inception_4a/3x3_reduce"
  param {
    lr_mult: 1
    decay_mult: 1
  }
  param {
    lr_mult: 2
    decay_mult: 0
  }
  convolution_param {
    num_output: 96
    kernel_size: 1
    weight_filler {
      type: "xavier"
    }
    bias_filler {
      type: "constant"
      value: 0.2
    }
  }
}
layer {
  name: "inception_4a/relu_3x3_reduce"
  type: "ReLU"
  bottom: "inception_4a/3x3_reduce"
  top: "inception_4a/3x3_reduce"
}
layer {
  name: "inception_4a/3x3"
  type: "Convolution"
  bottom: "inception_4a/3x3_reduce"
  top: "inception_4a/3x3"
  param {
    lr_mult: 1
    decay_mult: 1
  }
  param {
    lr_mult: 2
    decay_mult: 0
  }
  convolution_param {
    num_output: 208
    pad: 1
    kernel_size: 3
    weight_filler {
      type: "xavier"
    }
    bias_filler {
      type: "constant"
      value: 0.2
    }
  }
}
layer {
  name: "inception_4a/relu_3x3"
  type: "ReLU"
  bottom: "inception_4a/3x3"
  top: "inception_4a/3x3"
}
layer {
  name: "inception_4a/5x5_reduce"
  type: "Convolution"
  bottom: "pool3/3x3_s2"
  top: "inception_4a/5x5_reduce"
  param {
    lr_mult: 1
    decay_mult: 1
  }
  param {
    lr_mult: 2
    decay_mult: 0
  }
  convolution_param {
    num_output: 16
    kernel_size: 1
    weight_filler {
      type: "xavier"
    }
    bias_filler {
      type: "constant"
      value: 0.2
    }
  }
}
layer {
  name: "inception_4a/relu_5x5_reduce"
  type: "ReLU"
  bottom: "inception_4a/5x5_reduce"
  top: "inception_4a/5x5_reduce"
}
layer {
  name: "inception_4a/5x5"
  type: "Convolution"
  bottom: "inception_4a/5x5_reduce"
  top: "inception_4a/5x5"
  param {
    lr_mult: 1
    decay_mult: 1
  }
  param {
    lr_mult: 2
    decay_mult: 0
  }
  convolution_param {
    num_output: 48
    pad: 2
    kernel_size: 5
    weight_filler {
      type: "xavier"
    }
    bias_filler {
      type: "constant"
      value: 0.2
    }
  }
}
layer {
  name: "inception_4a/relu_5x5"
  type: "ReLU"
  bottom: "inception_4a/5x5"
  top: "inception_4a/5x5"
}
layer {
  name: "inception_4a/pool"
  type: "Pooling"
  bottom: "pool3/3x3_s2"
  top: "inception_4a/pool"
  pooling_param {
    pool: MAX
    kernel_size: 3
    stride: 1
    pad: 1
  }
}
layer {
  name: "inception_4a/pool_proj"
  type: "Convolution"
  bottom: "inception_4a/pool"
  top: "inception_4a/pool_proj"
  param {
    lr_mult: 1
    decay_mult: 1
  }
  param {
    lr_mult: 2
    decay_mult: 0
  }
  convolution_param {
    num_output: 64
    kernel_size: 1
    weight_filler {
      type: "xavier"
    }
    bias_filler {
      type: "constant"
      value: 0.2
    }
  }
}
layer {
  name: "inception_4a/relu_pool_proj"
  type: "ReLU"
  bottom: "inception_4a/pool_proj"
  top: "inception_4a/pool_proj"
}
layer {
  name: "inception_4a/output"
  type: "Concat"
  bottom: "inception_4a/1x1"
  bottom: "inception_4a/3x3"
  bottom: "inception_4a/5x5"
  bottom: "inception_4a/pool_proj"
  top: "inception_4a/output"
}
layer {
  name: "loss1/ave_pool"
  type: "Pooling"
  bottom: "inception_4a/output"
  top: "loss1/ave_pool"
  pooling_param {
    pool: AVE
    kernel_size: 5
    stride: 3
  }
}
layer {
  name: "loss1/conv"
  type: "Convolution"
  bottom: "loss1/ave_pool"
  top: "loss1/conv"
  param {
    lr_mult: 1
    decay_mult: 1
  }
  param {
    lr_mult: 2
    decay_mult: 0
  }
  convolution_param {
    num_output: 128
    kernel_size: 1
    weight_filler {
      type: "xavier"
    }
    bias_filler {
      type: "constant"
      value: 0.2
    }
  }
}
layer {
  name: "loss1/relu_conv"
  type: "ReLU"
  bottom: "loss1/conv"
  top: "loss1/conv"
}
layer {
  name: "loss1/fc"
  type: "InnerProduct"
  bottom: "loss1/conv"
  top: "loss1/fc"
  param {
    lr_mult: 1
    decay_mult: 1
  }
  param {
    lr_mult: 2
    decay_mult: 0
  }
  inner_product_param {
    num_output: 1024
    weight_filler {
      type: "xavier"
    }
    bias_filler {
      type: "constant"
      value: 0.2
    }
  }
}
layer {
  name: "loss1/relu_fc"
  type: "ReLU"
  bottom: "loss1/fc"
  top: "loss1/fc"
}
layer {
  name: "loss1/drop_fc"
  type: "Dropout"
  bottom: "loss1/fc"
  top: "loss1/fc"
  dropout_param {
    dropout_ratio: 0.7
  }
}
layer {
  name: "loss1/classifier"
  type: "InnerProduct"
  bottom: "loss1/fc"
  top: "loss1/classifier"
  param {
    lr_mult: 1
    decay_mult: 1
  }
  param {
    lr_mult: 2
    decay_mult: 0
  }
  inner_product_param {
    num_output: 1000
    weight_filler {
      type: "xavier"
    }
    bias_filler {
      type: "constant"
      value: 0
    }
  }
}
layer {
  name: "loss1/loss"
  type: "SoftmaxWithLoss"
  bottom: "loss1/classifier"
  bottom: "label"
  top: "loss1/loss1"
  loss_weight: 0.3
}
layer {
  name: "inception_4b/1x1"
  type: "Convolution"
  bottom: "inception_4a/output"
  top: "inception_4b/1x1"
  param {
    lr_mult: 1
    decay_mult: 1
  }
  param {
    lr_mult: 2
    decay_mult: 0
  }
  convolution_param {
    num_output: 160
    kernel_size: 1
    weight_filler {
      type: "xavier"
    }
    bias_filler {
      type: "constant"
      value: 0.2
    }
  }
}
layer {
  name: "inception_4b/relu_1x1"
  type: "ReLU"
  bottom: "inception_4b/1x1"
  top: "inception_4b/1x1"
}
layer {
  name: "inception_4b/3x3_reduce"
  type: "Convolution"
  bottom: "inception_4a/output"
  top: "inception_4b/3x3_reduce"
  param {
    lr_mult: 1
    decay_mult: 1
  }
  param {
    lr_mult: 2
    decay_mult: 0
  }
  convolution_param {
    num_output: 112
    kernel_size: 1
    weight_filler {
      type: "xavier"
    }
    bias_filler {
      type: "constant"
      value: 0.2
    }
  }
}
layer {
  name: "inception_4b/relu_3x3_reduce"
  type: "ReLU"
  bottom: "inception_4b/3x3_reduce"
  top: "inception_4b/3x3_reduce"
}
layer {
  name: "inception_4b/3x3"
  type: "Convolution"
  bottom: "inception_4b/3x3_reduce"
  top: "inception_4b/3x3"
  param {
    lr_mult: 1
    decay_mult: 1
  }
  param {
    lr_mult: 2
    decay_mult: 0
  }
  convolution_param {
    num_output: 224
    pad: 1
    kernel_size: 3
    weight_filler {
      type: "xavier"
    }
    bias_filler {
      type: "constant"
      value: 0.2
    }
  }
}
layer {
  name: "inception_4b/relu_3x3"
  type: "ReLU"
  bottom: "inception_4b/3x3"
  top: "inception_4b/3x3"
}
layer {
  name: "inception_4b/5x5_reduce"
  type: "Convolution"
  bottom: "inception_4a/output"
  top: "inception_4b/5x5_reduce"
  param {
    lr_mult: 1
    decay_mult: 1
  }
  param {
    lr_mult: 2
    decay_mult: 0
  }
  convolution_param {
    num_output: 24
    kernel_size: 1
    weight_filler {
      type: "xavier"
    }
    bias_filler {
      type: "constant"
      value: 0.2
    }
  }
}
layer {
  name: "inception_4b/relu_5x5_reduce"
  type: "ReLU"
  bottom: "inception_4b/5x5_reduce"
  top: "inception_4b/5x5_reduce"
}
layer {
  name: "inception_4b/5x5"
  type: "Convolution"
  bottom: "inception_4b/5x5_reduce"
  top: "inception_4b/5x5"
  param {
    lr_mult: 1
    decay_mult: 1
  }
  param {
    lr_mult: 2
    decay_mult: 0
  }
  convolution_param {
    num_output: 64
    pad: 2
    kernel_size: 5
    weight_filler {
      type: "xavier"
    }
    bias_filler {
      type: "constant"
      value: 0.2
    }
  }
}
layer {
  name: "inception_4b/relu_5x5"
  type: "ReLU"
  bottom: "inception_4b/5x5"
  top: "inception_4b/5x5"
}
layer {
  name: "inception_4b/pool"
  type: "Pooling"
  bottom: "inception_4a/output"
  top: "inception_4b/pool"
  pooling_param {
    pool: MAX
    kernel_size: 3
    stride: 1
    pad: 1
  }
}
layer {
  name: "inception_4b/pool_proj"
  type: "Convolution"
  bottom: "inception_4b/pool"
  top: "inception_4b/pool_proj"
  param {
    lr_mult: 1
    decay_mult: 1
  }
  param {
    lr_mult: 2
    decay_mult: 0
  }
  convolution_param {
    num_output: 64
    kernel_size: 1
    weight_filler {
      type: "xavier"
    }
    bias_filler {
      type: "constant"
      value: 0.2
    }
  }
}
layer {
  name: "inception_4b/relu_pool_proj"
  type: "ReLU"
  bottom: "inception_4b/pool_proj"
  top: "inception_4b/pool_proj"
}
layer {
  name: "inception_4b/output"
  type: "Concat"
  bottom: "inception_4b/1x1"
  bottom: "inception_4b/3x3"
  bottom: "inception_4b/5x5"
  bottom: "inception_4b/pool_proj"
  top: "inception_4b/output"
}
layer {
  name: "inception_4c/1x1"
  type: "Convolution"
  bottom: "inception_4b/output"
  top: "inception_4c/1x1"
  param {
    lr_mult: 1
    decay_mult: 1
  }
  param {
    lr_mult: 2
    decay_mult: 0
  }
  convolution_param {
    num_output: 128
    kernel_size: 1
    weight_filler {
      type: "xavier"
    }
    bias_filler {
      type: "constant"
      value: 0.2
    }
  }
}
layer {
  name: "inception_4c/relu_1x1"
  type: "ReLU"
  bottom: "inception_4c/1x1"
  top: "inception_4c/1x1"
}
layer {
  name: "inception_4c/3x3_reduce"
  type: "Convolution"
  bottom: "inception_4b/output"
  top: "inception_4c/3x3_reduce"
  param {
    lr_mult: 1
    decay_mult: 1
  }
  param {
    lr_mult: 2
    decay_mult: 0
  }
  convolution_param {
    num_output: 128
    kernel_size: 1
    weight_filler {
      type: "xavier"
    }
    bias_filler {
      type: "constant"
      value: 0.2
    }
  }
}
layer {
  name: "inception_4c/relu_3x3_reduce"
  type: "ReLU"
  bottom: "inception_4c/3x3_reduce"
  top: "inception_4c/3x3_reduce"
}
layer {
  name: "inception_4c/3x3"
  type: "Convolution"
  bottom: "inception_4c/3x3_reduce"
  top: "inception_4c/3x3"
  param {
    lr_mult: 1
    decay_mult: 1
  }
  param {
    lr_mult: 2
    decay_mult: 0
  }
  convolution_param {
    num_output: 256
    pad: 1
    kernel_size: 3
    weight_filler {
      type: "xavier"
    }
    bias_filler {
      type: "constant"
      value: 0.2
    }
  }
}
layer {
  name: "inception_4c/relu_3x3"
  type: "ReLU"
  bottom: "inception_4c/3x3"
  top: "inception_4c/3x3"
}
layer {
  name: "inception_4c/5x5_reduce"
  type: "Convolution"
  bottom: "inception_4b/output"
  top: "inception_4c/5x5_reduce"
  param {
    lr_mult: 1
    decay_mult: 1
  }
  param {
    lr_mult: 2
    decay_mult: 0
  }
  convolution_param {
    num_output: 24
    kernel_size: 1
    weight_filler {
      type: "xavier"
    }
    bias_filler {
      type: "constant"
      value: 0.2
    }
  }
}
layer {
  name: "inception_4c/relu_5x5_reduce"
  type: "ReLU"
  bottom: "inception_4c/5x5_reduce"
  top: "inception_4c/5x5_reduce"
}
layer {
  name: "inception_4c/5x5"
  type: "Convolution"
  bottom: "inception_4c/5x5_reduce"
  top: "inception_4c/5x5"
  param {
    lr_mult: 1
    decay_mult: 1
  }
  param {
    lr_mult: 2
    decay_mult: 0
  }
  convolution_param {
    num_output: 64
    pad: 2
    kernel_size: 5
    weight_filler {
      type: "xavier"
    }
    bias_filler {
      type: "constant"
      value: 0.2
    }
  }
}
layer {
  name: "inception_4c/relu_5x5"
  type: "ReLU"
  bottom: "inception_4c/5x5"
  top: "inception_4c/5x5"
}
layer {
  name: "inception_4c/pool"
  type: "Pooling"
  bottom: "inception_4b/output"
  top: "inception_4c/pool"
  pooling_param {
    pool: MAX
    kernel_size: 3
    stride: 1
    pad: 1
  }
}
layer {
  name: "inception_4c/pool_proj"
  type: "Convolution"
  bottom: "inception_4c/pool"
  top: "inception_4c/pool_proj"
  param {
    lr_mult: 1
    decay_mult: 1
  }
  param {
    lr_mult: 2
    decay_mult: 0
  }
  convolution_param {
    num_output: 64
    kernel_size: 1
    weight_filler {
      type: "xavier"
    }
    bias_filler {
      type: "constant"
      value: 0.2
    }
  }
}
layer {
  name: "inception_4c/relu_pool_proj"
  type: "ReLU"
  bottom: "inception_4c/pool_proj"
  top: "inception_4c/pool_proj"
}
layer {
  name: "inception_4c/output"
  type: "Concat"
  bottom: "inception_4c/1x1"
  bottom: "inception_4c/3x3"
  bottom: "inception_4c/5x5"
  bottom: "inception_4c/pool_proj"
  top: "inception_4c/output"
}
layer {
  name: "inception_4d/1x1"
  type: "Convolution"
  bottom: "inception_4c/output"
  top: "inception_4d/1x1"
  param {
    lr_mult: 1
    decay_mult: 1
  }
  param {
    lr_mult: 2
    decay_mult: 0
  }
  convolution_param {
    num_output: 112
    kernel_size: 1
    weight_filler {
      type: "xavier"
    }
    bias_filler {
      type: "constant"
      value: 0.2
    }
  }
}
layer {
  name: "inception_4d/relu_1x1"
  type: "ReLU"
  bottom: "inception_4d/1x1"
  top: "inception_4d/1x1"
}
layer {
  name: "inception_4d/3x3_reduce"
  type: "Convolution"
  bottom: "inception_4c/output"
  top: "inception_4d/3x3_reduce"
  param {
    lr_mult: 1
    decay_mult: 1
  }
  param {
    lr_mult: 2
    decay_mult: 0
  }
  convolution_param {
    num_output: 144
    kernel_size: 1
    weight_filler {
      type: "xavier"
    }
    bias_filler {
      type: "constant"
      value: 0.2
    }
  }
}
layer {
  name: "inception_4d/relu_3x3_reduce"
  type: "ReLU"
  bottom: "inception_4d/3x3_reduce"
  top: "inception_4d/3x3_reduce"
}
layer {
  name: "inception_4d/3x3"
  type: "Convolution"
  bottom: "inception_4d/3x3_reduce"
  top: "inception_4d/3x3"
  param {
    lr_mult: 1
    decay_mult: 1
  }
  param {
    lr_mult: 2
    decay_mult: 0
  }
  convolution_param {
    num_output: 288
    pad: 1
    kernel_size: 3
    weight_filler {
      type: "xavier"
    }
    bias_filler {
      type: "constant"
      value: 0.2
    }
  }
}
layer {
  name: "inception_4d/relu_3x3"
  type: "ReLU"
  bottom: "inception_4d/3x3"
  top: "inception_4d/3x3"
}
layer {
  name: "inception_4d/5x5_reduce"
  type: "Convolution"
  bottom: "inception_4c/output"
  top: "inception_4d/5x5_reduce"
  param {
    lr_mult: 1
    decay_mult: 1
  }
  param {
    lr_mult: 2
    decay_mult: 0
  }
  convolution_param {
    num_output: 32
    kernel_size: 1
    weight_filler {
      type: "xavier"
    }
    bias_filler {
      type: "constant"
      value: 0.2
    }
  }
}
layer {
  name: "inception_4d/relu_5x5_reduce"
  type: "ReLU"
  bottom: "inception_4d/5x5_reduce"
  top: "inception_4d/5x5_reduce"
}
layer {
  name: "inception_4d/5x5"
  type: "Convolution"
  bottom: "inception_4d/5x5_reduce"
  top: "inception_4d/5x5"
  param {
    lr_mult: 1
    decay_mult: 1
  }
  param {
    lr_mult: 2
    decay_mult: 0
  }
  convolution_param {
    num_output: 64
    pad: 2
    kernel_size: 5
    weight_filler {
      type: "xavier"
    }
    bias_filler {
      type: "constant"
      value: 0.2
    }
  }
}
layer {
  name: "inception_4d/relu_5x5"
  type: "ReLU"
  bottom: "inception_4d/5x5"
  top: "inception_4d/5x5"
}
layer {
  name: "inception_4d/pool"
  type: "Pooling"
  bottom: "inception_4c/output"
  top: "inception_4d/pool"
  pooling_param {
    pool: MAX
    kernel_size: 3
    stride: 1
    pad: 1
  }
}
layer {
  name: "inception_4d/pool_proj"
  type: "Convolution"
  bottom: "inception_4d/pool"
  top: "inception_4d/pool_proj"
  param {
    lr_mult: 1
    decay_mult: 1
  }
  param {
    lr_mult: 2
    decay_mult: 0
  }
  convolution_param {
    num_output: 64
    kernel_size: 1
    weight_filler {
      type: "xavier"
    }
    bias_filler {
      type: "constant"
      value: 0.2
    }
  }
}
layer {
  name: "inception_4d/relu_pool_proj"
  type: "ReLU"
  bottom: "inception_4d/pool_proj"
  top: "inception_4d/pool_proj"
}
layer {
  name: "inception_4d/output"
  type: "Concat"
  bottom: "inception_4d/1x1"
  bottom: "inception_4d/3x3"
  bottom: "inception_4d/5x5"
  bottom: "inception_4d/pool_proj"
  top: "inception_4d/output"
}
layer {
  name: "loss2/ave_pool"
  type: "Pooling"
  bottom: "inception_4d/output"
  top: "loss2/ave_pool"
  pooling_param {
    pool: AVE
    kernel_size: 5
    stride: 3
  }
}
layer {
  name: "loss2/conv"
  type: "Convolution"
  bottom: "loss2/ave_pool"
  top: "loss2/conv"
  param {
    lr_mult: 1
    decay_mult: 1
  }
  param {
    lr_mult: 2
    decay_mult: 0
  }
  convolution_param {
    num_output: 128
    kernel_size: 1
    weight_filler {
      type: "xavier"
    }
    bias_filler {
      type: "constant"
      value: 0.2
    }
  }
}
layer {
  name: "loss2/relu_conv"
  type: "ReLU"
  bottom: "loss2/conv"
  top: "loss2/conv"
}
layer {
  name: "loss2/fc"
  type: "InnerProduct"
  bottom: "loss2/conv"
  top: "loss2/fc"
  param {
    lr_mult: 1
    decay_mult: 1
  }
  param {
    lr_mult: 2
    decay_mult: 0
  }
  inner_product_param {
    num_output: 1024
    weight_filler {
      type: "xavier"
    }
    bias_filler {
      type: "constant"
      value: 0.2
    }
  }
}
layer {
  name: "loss2/relu_fc"
  type: "ReLU"
  bottom: "loss2/fc"
  top: "loss2/fc"
}
layer {
  name: "loss2/drop_fc"
  type: "Dropout"
  bottom: "loss2/fc"
  top: "loss2/fc"
  dropout_param {
    dropout_ratio: 0.7
  }
}
layer {
  name: "loss2/classifier"
  type: "InnerProduct"
  bottom: "loss2/fc"
  top: "loss2/classifier"
  param {
    lr_mult: 1
    decay_mult: 1
  }
  param {
    lr_mult: 2
    decay_mult: 0
  }
  inner_product_param {
    num_output: 1000
    weight_filler {
      type: "xavier"
    }
    bias_filler {
      type: "constant"
      value: 0
    }
  }
}
layer {
  name: "loss2/loss"
  type: "SoftmaxWithLoss"
  bottom: "loss2/classifier"
  bottom: "label"
  top: "loss2/loss1"
  loss_weight: 0.3
}
layer {
  name: "inception_4e/1x1"
  type: "Convolution"
  bottom: "inception_4d/output"
  top: "inception_4e/1x1"
  param {
    lr_mult: 1
    decay_mult: 1
  }
  param {
    lr_mult: 2
    decay_mult: 0
  }
  convolution_param {
    num_output: 256
    kernel_size: 1
    weight_filler {
      type: "xavier"
    }
    bias_filler {
      type: "constant"
      value: 0.2
    }
  }
}
layer {
  name: "inception_4e/relu_1x1"
  type: "ReLU"
  bottom: "inception_4e/1x1"
  top: "inception_4e/1x1"
}
layer {
  name: "inception_4e/3x3_reduce"
  type: "Convolution"
  bottom: "inception_4d/output"
  top: "inception_4e/3x3_reduce"
  param {
    lr_mult: 1
    decay_mult: 1
  }
  param {
    lr_mult: 2
    decay_mult: 0
  }
  convolution_param {
    num_output: 160
    kernel_size: 1
    weight_filler {
      type: "xavier"
    }
    bias_filler {
      type: "constant"
      value: 0.2
    }
  }
}
layer {
  name: "inception_4e/relu_3x3_reduce"
  type: "ReLU"
  bottom: "inception_4e/3x3_reduce"
  top: "inception_4e/3x3_reduce"
}
layer {
  name: "inception_4e/3x3"
  type: "Convolution"
  bottom: "inception_4e/3x3_reduce"
  top: "inception_4e/3x3"
  param {
    lr_mult: 1
    decay_mult: 1
  }
  param {
    lr_mult: 2
    decay_mult: 0
  }
  convolution_param {
    num_output: 320
    pad: 1
    kernel_size: 3
    weight_filler {
      type: "xavier"
    }
    bias_filler {
      type: "constant"
      value: 0.2
    }
  }
}
layer {
  name: "inception_4e/relu_3x3"
  type: "ReLU"
  bottom: "inception_4e/3x3"
  top: "inception_4e/3x3"
}
layer {
  name: "inception_4e/5x5_reduce"
  type: "Convolution"
  bottom: "inception_4d/output"
  top: "inception_4e/5x5_reduce"
  param {
    lr_mult: 1
    decay_mult: 1
  }
  param {
    lr_mult: 2
    decay_mult: 0
  }
  convolution_param {
    num_output: 32
    kernel_size: 1
    weight_filler {
      type: "xavier"
    }
    bias_filler {
      type: "constant"
      value: 0.2
    }
  }
}
layer {
  name: "inception_4e/relu_5x5_reduce"
  type: "ReLU"
  bottom: "inception_4e/5x5_reduce"
  top: "inception_4e/5x5_reduce"
}
layer {
  name: "inception_4e/5x5"
  type: "Convolution"
  bottom: "inception_4e/5x5_reduce"
  top: "inception_4e/5x5"
  param {
    lr_mult: 1
    decay_mult: 1
  }
  param {
    lr_mult: 2
    decay_mult: 0
  }
  convolution_param {
    num_output: 128
    pad: 2
    kernel_size: 5
    weight_filler {
      type: "xavier"
    }
    bias_filler {
      type: "constant"
      value: 0.2
    }
  }
}
layer {
  name: "inception_4e/relu_5x5"
  type: "ReLU"
  bottom: "inception_4e/5x5"
  top: "inception_4e/5x5"
}
layer {
  name: "inception_4e/pool"
  type: "Pooling"
  bottom: "inception_4d/output"
  top: "inception_4e/pool"
  pooling_param {
    pool: MAX
    kernel_size: 3
    strid
I0813 21:16:14.700837  7338 layer_factory.hpp:77] Creating layer data
I0813 21:16:14.701481  7338 net.cpp:91] Creating Layer data
I0813 21:16:14.701503  7338 net.cpp:443] data -> data
I0813 21:16:14.701541  7338 net.cpp:443] data -> label
I0813 21:16:14.703282  7342 db_lmdb.cpp:35] Opened lmdb /home/chenyao/ilsvrc12/ilsvrc12_train_lmdb
I0813 21:16:14.718549  7338 data_layer.cpp:41] output data size: 32,3,224,224
I0813 21:16:14.758136  7338 net.cpp:141] Setting up data
I0813 21:16:14.758201  7338 net.cpp:148] Top shape: 32 3 224 224 (4816896)
I0813 21:16:14.758208  7338 net.cpp:148] Top shape: 32 (32)
I0813 21:16:14.758213  7338 net.cpp:156] Memory required for data: 19267712
I0813 21:16:14.758227  7338 layer_factory.hpp:77] Creating layer label_data_1_split
I0813 21:16:14.758254  7338 net.cpp:91] Creating Layer label_data_1_split
I0813 21:16:14.758262  7338 net.cpp:469] label_data_1_split <- label
I0813 21:16:14.758278  7338 net.cpp:443] label_data_1_split -> label_data_1_split_0
I0813 21:16:14.758291  7338 net.cpp:443] label_data_1_split -> label_data_1_split_1
I0813 21:16:14.758298  7338 net.cpp:443] label_data_1_split -> label_data_1_split_2
I0813 21:16:14.758419  7338 net.cpp:141] Setting up label_data_1_split
I0813 21:16:14.758427  7338 net.cpp:148] Top shape: 32 (32)
I0813 21:16:14.758432  7338 net.cpp:148] Top shape: 32 (32)
I0813 21:16:14.758437  7338 net.cpp:148] Top shape: 32 (32)
I0813 21:16:14.758441  7338 net.cpp:156] Memory required for data: 19268096
I0813 21:16:14.758446  7338 layer_factory.hpp:77] Creating layer conv1/7x7_s2
I0813 21:16:14.758471  7338 net.cpp:91] Creating Layer conv1/7x7_s2
I0813 21:16:14.758476  7338 net.cpp:469] conv1/7x7_s2 <- data
I0813 21:16:14.758486  7338 net.cpp:443] conv1/7x7_s2 -> conv1/7x7_s2
I0813 21:16:14.938642  7338 net.cpp:141] Setting up conv1/7x7_s2
I0813 21:16:14.938705  7338 net.cpp:148] Top shape: 32 64 112 112 (25690112)
I0813 21:16:14.938720  7338 net.cpp:156] Memory required for data: 122028544
I0813 21:16:14.938740  7338 layer_factory.hpp:77] Creating layer conv1/relu_7x7
I0813 21:16:14.938756  7338 net.cpp:91] Creating Layer conv1/relu_7x7
I0813 21:16:14.938763  7338 net.cpp:469] conv1/relu_7x7 <- conv1/7x7_s2
I0813 21:16:14.938771  7338 net.cpp:430] conv1/relu_7x7 -> conv1/7x7_s2 (in-place)
I0813 21:16:14.939088  7338 net.cpp:141] Setting up conv1/relu_7x7
I0813 21:16:14.939102  7338 net.cpp:148] Top shape: 32 64 112 112 (25690112)
I0813 21:16:14.939106  7338 net.cpp:156] Memory required for data: 224788992
I0813 21:16:14.939110  7338 layer_factory.hpp:77] Creating layer pool1/3x3_s2
I0813 21:16:14.939122  7338 net.cpp:91] Creating Layer pool1/3x3_s2
I0813 21:16:14.939126  7338 net.cpp:469] pool1/3x3_s2 <- conv1/7x7_s2
I0813 21:16:14.939133  7338 net.cpp:443] pool1/3x3_s2 -> pool1/3x3_s2
I0813 21:16:14.939190  7338 net.cpp:141] Setting up pool1/3x3_s2
I0813 21:16:14.939198  7338 net.cpp:148] Top shape: 32 64 56 56 (6422528)
I0813 21:16:14.939201  7338 net.cpp:156] Memory required for data: 250479104
I0813 21:16:14.939205  7338 layer_factory.hpp:77] Creating layer pool1/norm1
I0813 21:16:14.939218  7338 net.cpp:91] Creating Layer pool1/norm1
I0813 21:16:14.939221  7338 net.cpp:469] pool1/norm1 <- pool1/3x3_s2
I0813 21:16:14.939227  7338 net.cpp:443] pool1/norm1 -> pool1/norm1
I0813 21:16:14.939388  7338 net.cpp:141] Setting up pool1/norm1
I0813 21:16:14.939399  7338 net.cpp:148] Top shape: 32 64 56 56 (6422528)
I0813 21:16:14.939402  7338 net.cpp:156] Memory required for data: 276169216
I0813 21:16:14.939406  7338 layer_factory.hpp:77] Creating layer conv2/3x3_reduce
I0813 21:16:14.939422  7338 net.cpp:91] Creating Layer conv2/3x3_reduce
I0813 21:16:14.939426  7338 net.cpp:469] conv2/3x3_reduce <- pool1/norm1
I0813 21:16:14.939432  7338 net.cpp:443] conv2/3x3_reduce -> conv2/3x3_reduce
I0813 21:16:14.941006  7338 net.cpp:141] Setting up conv2/3x3_reduce
I0813 21:16:14.941022  7338 net.cpp:148] Top shape: 32 64 56 56 (6422528)
I0813 21:16:14.941027  7338 net.cpp:156] Memory required for data: 301859328
I0813 21:16:14.941036  7338 layer_factory.hpp:77] Creating layer conv2/relu_3x3_reduce
I0813 21:16:14.941046  7338 net.cpp:91] Creating Layer conv2/relu_3x3_reduce
I0813 21:16:14.941051  7338 net.cpp:469] conv2/relu_3x3_reduce <- conv2/3x3_reduce
I0813 21:16:14.941056  7338 net.cpp:430] conv2/relu_3x3_reduce -> conv2/3x3_reduce (in-place)
I0813 21:16:14.941395  7338 net.cpp:141] Setting up conv2/relu_3x3_reduce
I0813 21:16:14.941408  7338 net.cpp:148] Top shape: 32 64 56 56 (6422528)
I0813 21:16:14.941412  7338 net.cpp:156] Memory required for data: 327549440
I0813 21:16:14.941416  7338 layer_factory.hpp:77] Creating layer conv2/3x3
I0813 21:16:14.941431  7338 net.cpp:91] Creating Layer conv2/3x3
I0813 21:16:14.941437  7338 net.cpp:469] conv2/3x3 <- conv2/3x3_reduce
I0813 21:16:14.941442  7338 net.cpp:443] conv2/3x3 -> conv2/3x3
I0813 21:16:14.943837  7338 net.cpp:141] Setting up conv2/3x3
I0813 21:16:14.943855  7338 net.cpp:148] Top shape: 32 192 56 56 (19267584)
I0813 21:16:14.943859  7338 net.cpp:156] Memory required for data: 404619776
I0813 21:16:14.943868  7338 layer_factory.hpp:77] Creating layer conv2/relu_3x3
I0813 21:16:14.943876  7338 net.cpp:91] Creating Layer conv2/relu_3x3
I0813 21:16:14.943881  7338 net.cpp:469] conv2/relu_3x3 <- conv2/3x3
I0813 21:16:14.943886  7338 net.cpp:430] conv2/relu_3x3 -> conv2/3x3 (in-place)
I0813 21:16:14.944206  7338 net.cpp:141] Setting up conv2/relu_3x3
I0813 21:16:14.944219  7338 net.cpp:148] Top shape: 32 192 56 56 (19267584)
I0813 21:16:14.944223  7338 net.cpp:156] Memory required for data: 481690112
I0813 21:16:14.944228  7338 layer_factory.hpp:77] Creating layer conv2/norm2
I0813 21:16:14.944238  7338 net.cpp:91] Creating Layer conv2/norm2
I0813 21:16:14.944243  7338 net.cpp:469] conv2/norm2 <- conv2/3x3
I0813 21:16:14.944248  7338 net.cpp:443] conv2/norm2 -> conv2/norm2
I0813 21:16:14.944427  7338 net.cpp:141] Setting up conv2/norm2
I0813 21:16:14.944445  7338 net.cpp:148] Top shape: 32 192 56 56 (19267584)
I0813 21:16:14.944449  7338 net.cpp:156] Memory required for data: 558760448
I0813 21:16:14.944453  7338 layer_factory.hpp:77] Creating layer pool2/3x3_s2
I0813 21:16:14.944463  7338 net.cpp:91] Creating Layer pool2/3x3_s2
I0813 21:16:14.944468  7338 net.cpp:469] pool2/3x3_s2 <- conv2/norm2
I0813 21:16:14.944473  7338 net.cpp:443] pool2/3x3_s2 -> pool2/3x3_s2
I0813 21:16:14.944509  7338 net.cpp:141] Setting up pool2/3x3_s2
I0813 21:16:14.944515  7338 net.cpp:148] Top shape: 32 192 28 28 (4816896)
I0813 21:16:14.944519  7338 net.cpp:156] Memory required for data: 578028032
I0813 21:16:14.944522  7338 layer_factory.hpp:77] Creating layer pool2/3x3_s2_pool2/3x3_s2_0_split
I0813 21:16:14.944530  7338 net.cpp:91] Creating Layer pool2/3x3_s2_pool2/3x3_s2_0_split
I0813 21:16:14.944533  7338 net.cpp:469] pool2/3x3_s2_pool2/3x3_s2_0_split <- pool2/3x3_s2
I0813 21:16:14.944540  7338 net.cpp:443] pool2/3x3_s2_pool2/3x3_s2_0_split -> pool2/3x3_s2_pool2/3x3_s2_0_split_0
I0813 21:16:14.944547  7338 net.cpp:443] pool2/3x3_s2_pool2/3x3_s2_0_split -> pool2/3x3_s2_pool2/3x3_s2_0_split_1
I0813 21:16:14.944553  7338 net.cpp:443] pool2/3x3_s2_pool2/3x3_s2_0_split -> pool2/3x3_s2_pool2/3x3_s2_0_split_2
I0813 21:16:14.944558  7338 net.cpp:443] pool2/3x3_s2_pool2/3x3_s2_0_split -> pool2/3x3_s2_pool2/3x3_s2_0_split_3
I0813 21:16:14.944607  7338 net.cpp:141] Setting up pool2/3x3_s2_pool2/3x3_s2_0_split
I0813 21:16:14.944614  7338 net.cpp:148] Top shape: 32 192 28 28 (4816896)
I0813 21:16:14.944618  7338 net.cpp:148] Top shape: 32 192 28 28 (4816896)
I0813 21:16:14.944622  7338 net.cpp:148] Top shape: 32 192 28 28 (4816896)
I0813 21:16:14.944627  7338 net.cpp:148] Top shape: 32 192 28 28 (4816896)
I0813 21:16:14.944629  7338 net.cpp:156] Memory required for data: 655098368
I0813 21:16:14.944633  7338 layer_factory.hpp:77] Creating layer inception_3a/1x1
I0813 21:16:14.944645  7338 net.cpp:91] Creating Layer inception_3a/1x1
I0813 21:16:14.944650  7338 net.cpp:469] inception_3a/1x1 <- pool2/3x3_s2_pool2/3x3_s2_0_split_0
I0813 21:16:14.944658  7338 net.cpp:443] inception_3a/1x1 -> inception_3a/1x1
I0813 21:16:14.946311  7338 net.cpp:141] Setting up inception_3a/1x1
I0813 21:16:14.946327  7338 net.cpp:148] Top shape: 32 64 28 28 (1605632)
I0813 21:16:14.946332  7338 net.cpp:156] Memory required for data: 661520896
I0813 21:16:14.946338  7338 layer_factory.hpp:77] Creating layer inception_3a/relu_1x1
I0813 21:16:14.946346  7338 net.cpp:91] Creating Layer inception_3a/relu_1x1
I0813 21:16:14.946350  7338 net.cpp:469] inception_3a/relu_1x1 <- inception_3a/1x1
I0813 21:16:14.946357  7338 net.cpp:430] inception_3a/relu_1x1 -> inception_3a/1x1 (in-place)
I0813 21:16:14.946671  7338 net.cpp:141] Setting up inception_3a/relu_1x1
I0813 21:16:14.946684  7338 net.cpp:148] Top shape: 32 64 28 28 (1605632)
I0813 21:16:14.946688  7338 net.cpp:156] Memory required for data: 667943424
I0813 21:16:14.946692  7338 layer_factory.hpp:77] Creating layer inception_3a/3x3_reduce
I0813 21:16:14.946707  7338 net.cpp:91] Creating Layer inception_3a/3x3_reduce
I0813 21:16:14.946712  7338 net.cpp:469] inception_3a/3x3_reduce <- pool2/3x3_s2_pool2/3x3_s2_0_split_1
I0813 21:16:14.946717  7338 net.cpp:443] inception_3a/3x3_reduce -> inception_3a/3x3_reduce
I0813 21:16:14.948433  7338 net.cpp:141] Setting up inception_3a/3x3_reduce
I0813 21:16:14.948448  7338 net.cpp:148] Top shape: 32 96 28 28 (2408448)
I0813 21:16:14.948453  7338 net.cpp:156] Memory required for data: 677577216
I0813 21:16:14.948462  7338 layer_factory.hpp:77] Creating layer inception_3a/relu_3x3_reduce
I0813 21:16:14.948473  7338 net.cpp:91] Creating Layer inception_3a/relu_3x3_reduce
I0813 21:16:14.948478  7338 net.cpp:469] inception_3a/relu_3x3_reduce <- inception_3a/3x3_reduce
I0813 21:16:14.948483  7338 net.cpp:430] inception_3a/relu_3x3_reduce -> inception_3a/3x3_reduce (in-place)
I0813 21:16:14.948789  7338 net.cpp:141] Setting up inception_3a/relu_3x3_reduce
I0813 21:16:14.948807  7338 net.cpp:148] Top shape: 32 96 28 28 (2408448)
I0813 21:16:14.948818  7338 net.cpp:156] Memory required for data: 687211008
I0813 21:16:14.948822  7338 layer_factory.hpp:77] Creating layer inception_3a/3x3
I0813 21:16:14.948837  7338 net.cpp:91] Creating Layer inception_3a/3x3
I0813 21:16:14.948842  7338 net.cpp:469] inception_3a/3x3 <- inception_3a/3x3_reduce
I0813 21:16:14.948848  7338 net.cpp:443] inception_3a/3x3 -> inception_3a/3x3
I0813 21:16:14.950495  7338 net.cpp:141] Setting up inception_3a/3x3
I0813 21:16:14.950512  7338 net.cpp:148] Top shape: 32 128 28 28 (3211264)
I0813 21:16:14.950516  7338 net.cpp:156] Memory required for data: 700056064
I0813 21:16:14.950523  7338 layer_factory.hpp:77] Creating layer inception_3a/relu_3x3
I0813 21:16:14.950531  7338 net.cpp:91] Creating Layer inception_3a/relu_3x3
I0813 21:16:14.950534  7338 net.cpp:469] inception_3a/relu_3x3 <- inception_3a/3x3
I0813 21:16:14.950542  7338 net.cpp:430] inception_3a/relu_3x3 -> inception_3a/3x3 (in-place)
I0813 21:16:14.950697  7338 net.cpp:141] Setting up inception_3a/relu_3x3
I0813 21:16:14.950707  7338 net.cpp:148] Top shape: 32 128 28 28 (3211264)
I0813 21:16:14.950711  7338 net.cpp:156] Memory required for data: 712901120
I0813 21:16:14.950716  7338 layer_factory.hpp:77] Creating layer inception_3a/5x5_reduce
I0813 21:16:14.950728  7338 net.cpp:91] Creating Layer inception_3a/5x5_reduce
I0813 21:16:14.950732  7338 net.cpp:469] inception_3a/5x5_reduce <- pool2/3x3_s2_pool2/3x3_s2_0_split_2
I0813 21:16:14.950740  7338 net.cpp:443] inception_3a/5x5_reduce -> inception_3a/5x5_reduce
I0813 21:16:14.951740  7338 net.cpp:141] Setting up inception_3a/5x5_reduce
I0813 21:16:14.951755  7338 net.cpp:148] Top shape: 32 16 28 28 (401408)
I0813 21:16:14.951761  7338 net.cpp:156] Memory required for data: 714506752
I0813 21:16:14.951767  7338 layer_factory.hpp:77] Creating layer inception_3a/relu_5x5_reduce
I0813 21:16:14.951774  7338 net.cpp:91] Creating Layer inception_3a/relu_5x5_reduce
I0813 21:16:14.951779  7338 net.cpp:469] inception_3a/relu_5x5_reduce <- inception_3a/5x5_reduce
I0813 21:16:14.951784  7338 net.cpp:430] inception_3a/relu_5x5_reduce -> inception_3a/5x5_reduce (in-place)
I0813 21:16:14.952263  7338 net.cpp:141] Setting up inception_3a/relu_5x5_reduce
I0813 21:16:14.952276  7338 net.cpp:148] Top shape: 32 16 28 28 (401408)
I0813 21:16:14.952282  7338 net.cpp:156] Memory required for data: 716112384
I0813 21:16:14.952287  7338 layer_factory.hpp:77] Creating layer inception_3a/5x5
I0813 21:16:14.952297  7338 net.cpp:91] Creating Layer inception_3a/5x5
I0813 21:16:14.952302  7338 net.cpp:469] inception_3a/5x5 <- inception_3a/5x5_reduce
I0813 21:16:14.952311  7338 net.cpp:443] inception_3a/5x5 -> inception_3a/5x5
I0813 21:16:14.953232  7338 net.cpp:141] Setting up inception_3a/5x5
I0813 21:16:14.953248  7338 net.cpp:148] Top shape: 32 32 28 28 (802816)
I0813 21:16:14.953251  7338 net.cpp:156] Memory required for data: 719323648
I0813 21:16:14.953258  7338 layer_factory.hpp:77] Creating layer inception_3a/relu_5x5
I0813 21:16:14.953268  7338 net.cpp:91] Creating Layer inception_3a/relu_5x5
I0813 21:16:14.953272  7338 net.cpp:469] inception_3a/relu_5x5 <- inception_3a/5x5
I0813 21:16:14.953277  7338 net.cpp:430] inception_3a/relu_5x5 -> inception_3a/5x5 (in-place)
I0813 21:16:14.953591  7338 net.cpp:141] Setting up inception_3a/relu_5x5
I0813 21:16:14.953604  7338 net.cpp:148] Top shape: 32 32 28 28 (802816)
I0813 21:16:14.953608  7338 net.cpp:156] Memory required for data: 722534912
I0813 21:16:14.953613  7338 layer_factory.hpp:77] Creating layer inception_3a/pool
I0813 21:16:14.953620  7338 net.cpp:91] Creating Layer inception_3a/pool
I0813 21:16:14.953624  7338 net.cpp:469] inception_3a/pool <- pool2/3x3_s2_pool2/3x3_s2_0_split_3
I0813 21:16:14.953632  7338 net.cpp:443] inception_3a/pool -> inception_3a/pool
I0813 21:16:14.953672  7338 net.cpp:141] Setting up inception_3a/pool
I0813 21:16:14.953680  7338 net.cpp:148] Top shape: 32 192 28 28 (4816896)
I0813 21:16:14.953683  7338 net.cpp:156] Memory required for data: 741802496
I0813 21:16:14.953691  7338 layer_factory.hpp:77] Creating layer inception_3a/pool_proj
I0813 21:16:14.953711  7338 net.cpp:91] Creating Layer inception_3a/pool_proj
I0813 21:16:14.953716  7338 net.cpp:469] inception_3a/pool_proj <- inception_3a/pool
I0813 21:16:14.953723  7338 net.cpp:443] inception_3a/pool_proj -> inception_3a/pool_proj
I0813 21:16:14.954727  7338 net.cpp:141] Setting up inception_3a/pool_proj
I0813 21:16:14.954742  7338 net.cpp:148] Top shape: 32 32 28 28 (802816)
I0813 21:16:14.954746  7338 net.cpp:156] Memory required for data: 745013760
I0813 21:16:14.954758  7338 layer_factory.hpp:77] Creating layer inception_3a/relu_pool_proj
I0813 21:16:14.954766  7338 net.cpp:91] Creating Layer inception_3a/relu_pool_proj
I0813 21:16:14.954771  7338 net.cpp:469] inception_3a/relu_pool_proj <- inception_3a/pool_proj
I0813 21:16:14.954777  7338 net.cpp:430] inception_3a/relu_pool_proj -> inception_3a/pool_proj (in-place)
I0813 21:16:14.954927  7338 net.cpp:141] Setting up inception_3a/relu_pool_proj
I0813 21:16:14.954941  7338 net.cpp:148] Top shape: 32 32 28 28 (802816)
I0813 21:16:14.954944  7338 net.cpp:156] Memory required for data: 748225024
I0813 21:16:14.954948  7338 layer_factory.hpp:77] Creating layer inception_3a/output
I0813 21:16:14.954963  7338 net.cpp:91] Creating Layer inception_3a/output
I0813 21:16:14.954967  7338 net.cpp:469] inception_3a/output <- inception_3a/1x1
I0813 21:16:14.954972  7338 net.cpp:469] inception_3a/output <- inception_3a/3x3
I0813 21:16:14.954977  7338 net.cpp:469] inception_3a/output <- inception_3a/5x5
I0813 21:16:14.954982  7338 net.cpp:469] inception_3a/output <- inception_3a/pool_proj
I0813 21:16:14.954987  7338 net.cpp:443] inception_3a/output -> inception_3a/output
I0813 21:16:14.955016  7338 net.cpp:141] Setting up inception_3a/output
I0813 21:16:14.955024  7338 net.cpp:148] Top shape: 32 256 28 28 (6422528)
I0813 21:16:14.955027  7338 net.cpp:156] Memory required for data: 773915136
I0813 21:16:14.955030  7338 layer_factory.hpp:77] Creating layer inception_3a/output_inception_3a/output_0_split
I0813 21:16:14.955037  7338 net.cpp:91] Creating Layer inception_3a/output_inception_3a/output_0_split
I0813 21:16:14.955040  7338 net.cpp:469] inception_3a/output_inception_3a/output_0_split <- inception_3a/output
I0813 21:16:14.955047  7338 net.cpp:443] inception_3a/output_inception_3a/output_0_split -> inception_3a/output_inception_3a/output_0_split_0
I0813 21:16:14.955054  7338 net.cpp:443] inception_3a/output_inception_3a/output_0_split -> inception_3a/output_inception_3a/output_0_split_1
I0813 21:16:14.955060  7338 net.cpp:443] inception_3a/output_inception_3a/output_0_split -> inception_3a/output_inception_3a/output_0_split_2
I0813 21:16:14.955065  7338 net.cpp:443] inception_3a/output_inception_3a/output_0_split -> inception_3a/output_inception_3a/output_0_split_3
I0813 21:16:14.955117  7338 net.cpp:141] Setting up inception_3a/output_inception_3a/output_0_split
I0813 21:16:14.955124  7338 net.cpp:148] Top shape: 32 256 28 28 (6422528)
I0813 21:16:14.955128  7338 net.cpp:148] Top shape: 32 256 28 28 (6422528)
I0813 21:16:14.955132  7338 net.cpp:148] Top shape: 32 256 28 28 (6422528)
I0813 21:16:14.955137  7338 net.cpp:148] Top shape: 32 256 28 28 (6422528)
I0813 21:16:14.955139  7338 net.cpp:156] Memory required for data: 876675584
I0813 21:16:14.955142  7338 layer_factory.hpp:77] Creating layer inception_3b/1x1
I0813 21:16:14.955153  7338 net.cpp:91] Creating Layer inception_3b/1x1
I0813 21:16:14.955158  7338 net.cpp:469] inception_3b/1x1 <- inception_3a/output_inception_3a/output_0_split_0
I0813 21:16:14.955165  7338 net.cpp:443] inception_3b/1x1 -> inception_3b/1x1
I0813 21:16:14.956336  7338 net.cpp:141] Setting up inception_3b/1x1
I0813 21:16:14.956351  7338 net.cpp:148] Top shape: 32 128 28 28 (3211264)
I0813 21:16:14.956356  7338 net.cpp:156] Memory required for data: 889520640
I0813 21:16:14.956362  7338 layer_factory.hpp:77] Creating layer inception_3b/relu_1x1
I0813 21:16:14.956370  7338 net.cpp:91] Creating Layer inception_3b/relu_1x1
I0813 21:16:14.956380  7338 net.cpp:469] inception_3b/relu_1x1 <- inception_3b/1x1
I0813 21:16:14.956392  7338 net.cpp:430] inception_3b/relu_1x1 -> inception_3b/1x1 (in-place)
I0813 21:16:14.956701  7338 net.cpp:141] Setting up inception_3b/relu_1x1
I0813 21:16:14.956717  7338 net.cpp:148] Top shape: 32 128 28 28 (3211264)
I0813 21:16:14.956720  7338 net.cpp:156] Memory required for data: 902365696
I0813 21:16:14.956725  7338 layer_factory.hpp:77] Creating layer inception_3b/3x3_reduce
I0813 21:16:14.956737  7338 net.cpp:91] Creating Layer inception_3b/3x3_reduce
I0813 21:16:14.956743  7338 net.cpp:469] inception_3b/3x3_reduce <- inception_3a/output_inception_3a/output_0_split_1
I0813 21:16:14.956749  7338 net.cpp:443] inception_3b/3x3_reduce -> inception_3b/3x3_reduce
I0813 21:16:14.957773  7338 net.cpp:141] Setting up inception_3b/3x3_reduce
I0813 21:16:14.957788  7338 net.cpp:148] Top shape: 32 128 28 28 (3211264)
I0813 21:16:14.957792  7338 net.cpp:156] Memory required for data: 915210752
I0813 21:16:14.957799  7338 layer_factory.hpp:77] Creating layer inception_3b/relu_3x3_reduce
I0813 21:16:14.957808  7338 net.cpp:91] Creating Layer inception_3b/relu_3x3_reduce
I0813 21:16:14.957813  7338 net.cpp:469] inception_3b/relu_3x3_reduce <- inception_3b/3x3_reduce
I0813 21:16:14.957818  7338 net.cpp:430] inception_3b/relu_3x3_reduce -> inception_3b/3x3_reduce (in-place)
I0813 21:16:14.958127  7338 net.cpp:141] Setting up inception_3b/relu_3x3_reduce
I0813 21:16:14.958140  7338 net.cpp:148] Top shape: 32 128 28 28 (3211264)
I0813 21:16:14.958144  7338 net.cpp:156] Memory required for data: 928055808
I0813 21:16:14.958148  7338 layer_factory.hpp:77] Creating layer inception_3b/3x3
I0813 21:16:14.958164  7338 net.cpp:91] Creating Layer inception_3b/3x3
I0813 21:16:14.958169  7338 net.cpp:469] inception_3b/3x3 <- inception_3b/3x3_reduce
I0813 21:16:14.958176  7338 net.cpp:443] inception_3b/3x3 -> inception_3b/3x3
I0813 21:16:14.961133  7338 net.cpp:141] Setting up inception_3b/3x3
I0813 21:16:14.961149  7338 net.cpp:148] Top shape: 32 192 28 28 (4816896)
I0813 21:16:14.961154  7338 net.cpp:156] Memory required for data: 947323392
I0813 21:16:14.961160  7338 layer_factory.hpp:77] Creating layer inception_3b/relu_3x3
I0813 21:16:14.961170  7338 net.cpp:91] Creating Layer inception_3b/relu_3x3
I0813 21:16:14.961175  7338 net.cpp:469] inception_3b/relu_3x3 <- inception_3b/3x3
I0813 21:16:14.961180  7338 net.cpp:430] inception_3b/relu_3x3 -> inception_3b/3x3 (in-place)
I0813 21:16:14.961336  7338 net.cpp:141] Setting up inception_3b/relu_3x3
I0813 21:16:14.961346  7338 net.cpp:148] Top shape: 32 192 28 28 (4816896)
I0813 21:16:14.961350  7338 net.cpp:156] Memory required for data: 966590976
I0813 21:16:14.961354  7338 layer_factory.hpp:77] Creating layer inception_3b/5x5_reduce
I0813 21:16:14.961367  7338 net.cpp:91] Creating Layer inception_3b/5x5_reduce
I0813 21:16:14.961372  7338 net.cpp:469] inception_3b/5x5_reduce <- inception_3a/output_inception_3a/output_0_split_2
I0813 21:16:14.961380  7338 net.cpp:443] inception_3b/5x5_reduce -> inception_3b/5x5_reduce
I0813 21:16:14.962419  7338 net.cpp:141] Setting up inception_3b/5x5_reduce
I0813 21:16:14.962433  7338 net.cpp:148] Top shape: 32 32 28 28 (802816)
I0813 21:16:14.962437  7338 net.cpp:156] Memory required for data: 969802240
I0813 21:16:14.962445  7338 layer_factory.hpp:77] Creating layer inception_3b/relu_5x5_reduce
I0813 21:16:14.962453  7338 net.cpp:91] Creating Layer inception_3b/relu_5x5_reduce
I0813 21:16:14.962458  7338 net.cpp:469] inception_3b/relu_5x5_reduce <- inception_3b/5x5_reduce
I0813 21:16:14.962465  7338 net.cpp:430] inception_3b/relu_5x5_reduce -> inception_3b/5x5_reduce (in-place)
I0813 21:16:14.962788  7338 net.cpp:141] Setting up inception_3b/relu_5x5_reduce
I0813 21:16:14.962801  7338 net.cpp:148] Top shape: 32 32 28 28 (802816)
I0813 21:16:14.962805  7338 net.cpp:156] Memory required for data: 973013504
I0813 21:16:14.962810  7338 layer_factory.hpp:77] Creating layer inception_3b/5x5
I0813 21:16:14.962821  7338 net.cpp:91] Creating Layer inception_3b/5x5
I0813 21:16:14.962831  7338 net.cpp:469] inception_3b/5x5 <- inception_3b/5x5_reduce
I0813 21:16:14.962846  7338 net.cpp:443] inception_3b/5x5 -> inception_3b/5x5
I0813 21:16:14.964766  7338 net.cpp:141] Setting up inception_3b/5x5
I0813 21:16:14.964784  7338 net.cpp:148] Top shape: 32 96 28 28 (2408448)
I0813 21:16:14.964789  7338 net.cpp:156] Memory required for data: 982647296
I0813 21:16:14.964795  7338 layer_factory.hpp:77] Creating layer inception_3b/relu_5x5
I0813 21:16:14.964803  7338 net.cpp:91] Creating Layer inception_3b/relu_5x5
I0813 21:16:14.964807  7338 net.cpp:469] inception_3b/relu_5x5 <- inception_3b/5x5
I0813 21:16:14.964812  7338 net.cpp:430] inception_3b/relu_5x5 -> inception_3b/5x5 (in-place)
I0813 21:16:14.965157  7338 net.cpp:141] Setting up inception_3b/relu_5x5
I0813 21:16:14.965171  7338 net.cpp:148] Top shape: 32 96 28 28 (2408448)
I0813 21:16:14.965175  7338 net.cpp:156] Memory required for data: 992281088
I0813 21:16:14.965180  7338 layer_factory.hpp:77] Creating layer inception_3b/pool
I0813 21:16:14.965188  7338 net.cpp:91] Creating Layer inception_3b/pool
I0813 21:16:14.965193  7338 net.cpp:469] inception_3b/pool <- inception_3a/output_inception_3a/output_0_split_3
I0813 21:16:14.965198  7338 net.cpp:443] inception_3b/pool -> inception_3b/pool
I0813 21:16:14.965242  7338 net.cpp:141] Setting up inception_3b/pool
I0813 21:16:14.965250  7338 net.cpp:148] Top shape: 32 256 28 28 (6422528)
I0813 21:16:14.965253  7338 net.cpp:156] Memory required for data: 1017971200
I0813 21:16:14.965257  7338 layer_factory.hpp:77] Creating layer inception_3b/pool_proj
I0813 21:16:14.965268  7338 net.cpp:91] Creating Layer inception_3b/pool_proj
I0813 21:16:14.965272  7338 net.cpp:469] inception_3b/pool_proj <- inception_3b/pool
I0813 21:16:14.965281  7338 net.cpp:443] inception_3b/pool_proj -> inception_3b/pool_proj
I0813 21:16:14.966388  7338 net.cpp:141] Setting up inception_3b/pool_proj
I0813 21:16:14.966403  7338 net.cpp:148] Top shape: 32 64 28 28 (1605632)
I0813 21:16:14.966408  7338 net.cpp:156] Memory required for data: 1024393728
I0813 21:16:14.966414  7338 layer_factory.hpp:77] Creating layer inception_3b/relu_pool_proj
I0813 21:16:14.966423  7338 net.cpp:91] Creating Layer inception_3b/relu_pool_proj
I0813 21:16:14.966428  7338 net.cpp:469] inception_3b/relu_pool_proj <- inception_3b/pool_proj
I0813 21:16:14.966434  7338 net.cpp:430] inception_3b/relu_pool_proj -> inception_3b/pool_proj (in-place)
I0813 21:16:14.966765  7338 net.cpp:141] Setting up inception_3b/relu_pool_proj
I0813 21:16:14.966779  7338 net.cpp:148] Top shape: 32 64 28 28 (1605632)
I0813 21:16:14.966784  7338 net.cpp:156] Memory required for data: 1030816256
I0813 21:16:14.966787  7338 layer_factory.hpp:77] Creating layer inception_3b/output
I0813 21:16:14.966797  7338 net.cpp:91] Creating Layer inception_3b/output
I0813 21:16:14.966802  7338 net.cpp:469] inception_3b/output <- inception_3b/1x1
I0813 21:16:14.966807  7338 net.cpp:469] inception_3b/output <- inception_3b/3x3
I0813 21:16:14.966811  7338 net.cpp:469] inception_3b/output <- inception_3b/5x5
I0813 21:16:14.966815  7338 net.cpp:469] inception_3b/output <- inception_3b/pool_proj
I0813 21:16:14.966820  7338 net.cpp:443] inception_3b/output -> inception_3b/output
I0813 21:16:14.966853  7338 net.cpp:141] Setting up inception_3b/output
I0813 21:16:14.966861  7338 net.cpp:148] Top shape: 32 480 28 28 (12042240)
I0813 21:16:14.966863  7338 net.cpp:156] Memory required for data: 1078985216
I0813 21:16:14.966867  7338 layer_factory.hpp:77] Creating layer pool3/3x3_s2
I0813 21:16:14.966873  7338 net.cpp:91] Creating Layer pool3/3x3_s2
I0813 21:16:14.966877  7338 net.cpp:469] pool3/3x3_s2 <- inception_3b/output
I0813 21:16:14.966884  7338 net.cpp:443] pool3/3x3_s2 -> pool3/3x3_s2
I0813 21:16:14.966920  7338 net.cpp:141] Setting up pool3/3x3_s2
I0813 21:16:14.966928  7338 net.cpp:148] Top shape: 32 480 14 14 (3010560)
I0813 21:16:14.966930  7338 net.cpp:156] Memory required for data: 1091027456
I0813 21:16:14.966934  7338 layer_factory.hpp:77] Creating layer pool3/3x3_s2_pool3/3x3_s2_0_split
I0813 21:16:14.966946  7338 net.cpp:91] Creating Layer pool3/3x3_s2_pool3/3x3_s2_0_split
I0813 21:16:14.966958  7338 net.cpp:469] pool3/3x3_s2_pool3/3x3_s2_0_split <- pool3/3x3_s2
I0813 21:16:14.966969  7338 net.cpp:443] pool3/3x3_s2_pool3/3x3_s2_0_split -> pool3/3x3_s2_pool3/3x3_s2_0_split_0
I0813 21:16:14.966975  7338 net.cpp:443] pool3/3x3_s2_pool3/3x3_s2_0_split -> pool3/3x3_s2_pool3/3x3_s2_0_split_1
I0813 21:16:14.966981  7338 net.cpp:443] pool3/3x3_s2_pool3/3x3_s2_0_split -> pool3/3x3_s2_pool3/3x3_s2_0_split_2
I0813 21:16:14.966987  7338 net.cpp:443] pool3/3x3_s2_pool3/3x3_s2_0_split -> pool3/3x3_s2_pool3/3x3_s2_0_split_3
I0813 21:16:14.967039  7338 net.cpp:141] Setting up pool3/3x3_s2_pool3/3x3_s2_0_split
I0813 21:16:14.967046  7338 net.cpp:148] Top shape: 32 480 14 14 (3010560)
I0813 21:16:14.967051  7338 net.cpp:148] Top shape: 32 480 14 14 (3010560)
I0813 21:16:14.967054  7338 net.cpp:148] Top shape: 32 480 14 14 (3010560)
I0813 21:16:14.967058  7338 net.cpp:148] Top shape: 32 480 14 14 (3010560)
I0813 21:16:14.967061  7338 net.cpp:156] Memory required for data: 1139196416
I0813 21:16:14.967066  7338 layer_factory.hpp:77] Creating layer inception_4a/1x1
I0813 21:16:14.967075  7338 net.cpp:91] Creating Layer inception_4a/1x1
I0813 21:16:14.967080  7338 net.cpp:469] inception_4a/1x1 <- pool3/3x3_s2_pool3/3x3_s2_0_split_0
I0813 21:16:14.967087  7338 net.cpp:443] inception_4a/1x1 -> inception_4a/1x1
I0813 21:16:14.968924  7338 net.cpp:141] Setting up inception_4a/1x1
I0813 21:16:14.968940  7338 net.cpp:148] Top shape: 32 192 14 14 (1204224)
I0813 21:16:14.968945  7338 net.cpp:156] Memory required for data: 1144013312
I0813 21:16:14.968951  7338 layer_factory.hpp:77] Creating layer inception_4a/relu_1x1
I0813 21:16:14.968961  7338 net.cpp:91] Creating Layer inception_4a/relu_1x1
I0813 21:16:14.968966  7338 net.cpp:469] inception_4a/relu_1x1 <- inception_4a/1x1
I0813 21:16:14.968971  7338 net.cpp:430] inception_4a/relu_1x1 -> inception_4a/1x1 (in-place)
I0813 21:16:14.969298  7338 net.cpp:141] Setting up inception_4a/relu_1x1
I0813 21:16:14.969312  7338 net.cpp:148] Top shape: 32 192 14 14 (1204224)
I0813 21:16:14.969316  7338 net.cpp:156] Memory required for data: 1148830208
I0813 21:16:14.969321  7338 layer_factory.hpp:77] Creating layer inception_4a/3x3_reduce
I0813 21:16:14.969333  7338 net.cpp:91] Creating Layer inception_4a/3x3_reduce
I0813 21:16:14.969338  7338 net.cpp:469] inception_4a/3x3_reduce <- pool3/3x3_s2_pool3/3x3_s2_0_split_1
I0813 21:16:14.969347  7338 net.cpp:443] inception_4a/3x3_reduce -> inception_4a/3x3_reduce
I0813 21:16:14.970500  7338 net.cpp:141] Setting up inception_4a/3x3_reduce
I0813 21:16:14.970515  7338 net.cpp:148] Top shape: 32 96 14 14 (602112)
I0813 21:16:14.970518  7338 net.cpp:156] Memory required for data: 1151238656
I0813 21:16:14.970531  7338 layer_factory.hpp:77] Creating layer inception_4a/relu_3x3_reduce
I0813 21:16:14.970538  7338 net.cpp:91] Creating Layer inception_4a/relu_3x3_reduce
I0813 21:16:14.970543  7338 net.cpp:469] inception_4a/relu_3x3_reduce <- inception_4a/3x3_reduce
I0813 21:16:14.970551  7338 net.cpp:430] inception_4a/relu_3x3_reduce -> inception_4a/3x3_reduce (in-place)
I0813 21:16:14.970872  7338 net.cpp:141] Setting up inception_4a/relu_3x3_reduce
I0813 21:16:14.970886  7338 net.cpp:148] Top shape: 32 96 14 14 (602112)
I0813 21:16:14.970890  7338 net.cpp:156] Memory required for data: 1153647104
I0813 21:16:14.970894  7338 layer_factory.hpp:77] Creating layer inception_4a/3x3
I0813 21:16:14.970906  7338 net.cpp:91] Creating Layer inception_4a/3x3
I0813 21:16:14.970911  7338 net.cpp:469] inception_4a/3x3 <- inception_4a/3x3_reduce
I0813 21:16:14.970919  7338 net.cpp:443] inception_4a/3x3 -> inception_4a/3x3
I0813 21:16:14.973858  7338 net.cpp:141] Setting up inception_4a/3x3
I0813 21:16:14.973875  7338 net.cpp:148] Top shape: 32 208 14 14 (1304576)
I0813 21:16:14.973878  7338 net.cpp:156] Memory required for data: 1158865408
I0813 21:16:14.973886  7338 layer_factory.hpp:77] Creating layer inception_4a/relu_3x3
I0813 21:16:14.973894  7338 net.cpp:91] Creating Layer inception_4a/relu_3x3
I0813 21:16:14.973904  7338 net.cpp:469] inception_4a/relu_3x3 <- inception_4a/3x3
I0813 21:16:14.973917  7338 net.cpp:430] inception_4a/relu_3x3 -> inception_4a/3x3 (in-place)
I0813 21:16:14.974076  7338 net.cpp:141] Setting up inception_4a/relu_3x3
I0813 21:16:14.974093  7338 net.cpp:148] Top shape: 32 208 14 14 (1304576)
I0813 21:16:14.974097  7338 net.cpp:156] Memory required for data: 1164083712
I0813 21:16:14.974102  7338 layer_factory.hpp:77] Creating layer inception_4a/5x5_reduce
I0813 21:16:14.974112  7338 net.cpp:91] Creating Layer inception_4a/5x5_reduce
I0813 21:16:14.974118  7338 net.cpp:469] inception_4a/5x5_reduce <- pool3/3x3_s2_pool3/3x3_s2_0_split_2
I0813 21:16:14.974124  7338 net.cpp:443] inception_4a/5x5_reduce -> inception_4a/5x5_reduce
I0813 21:16:14.975193  7338 net.cpp:141] Setting up inception_4a/5x5_reduce
I0813 21:16:14.975208  7338 net.cpp:148] Top shape: 32 16 14 14 (100352)
I0813 21:16:14.975213  7338 net.cpp:156] Memory required for data: 1164485120
I0813 21:16:14.975219  7338 layer_factory.hpp:77] Creating layer inception_4a/relu_5x5_reduce
I0813 21:16:14.975226  7338 net.cpp:91] Creating Layer inception_4a/relu_5x5_reduce
I0813 21:16:14.975231  7338 net.cpp:469] inception_4a/relu_5x5_reduce <- inception_4a/5x5_reduce
I0813 21:16:14.975239  7338 net.cpp:430] inception_4a/relu_5x5_reduce -> inception_4a/5x5_reduce (in-place)
I0813 21:16:14.975560  7338 net.cpp:141] Setting up inception_4a/relu_5x5_reduce
I0813 21:16:14.975574  7338 net.cpp:148] Top shape: 32 16 14 14 (100352)
I0813 21:16:14.975579  7338 net.cpp:156] Memory required for data: 1164886528
I0813 21:16:14.975582  7338 layer_factory.hpp:77] Creating layer inception_4a/5x5
I0813 21:16:14.975594  7338 net.cpp:91] Creating Layer inception_4a/5x5
I0813 21:16:14.975600  7338 net.cpp:469] inception_4a/5x5 <- inception_4a/5x5_reduce
I0813 21:16:14.975608  7338 net.cpp:443] inception_4a/5x5 -> inception_4a/5x5
I0813 21:16:14.976588  7338 net.cpp:141] Setting up inception_4a/5x5
I0813 21:16:14.976601  7338 net.cpp:148] Top shape: 32 48 14 14 (301056)
I0813 21:16:14.976605  7338 net.cpp:156] Memory required for data: 1166090752
I0813 21:16:14.976613  7338 layer_factory.hpp:77] Creating layer inception_4a/relu_5x5
I0813 21:16:14.976621  7338 net.cpp:91] Creating Layer inception_4a/relu_5x5
I0813 21:16:14.976626  7338 net.cpp:469] inception_4a/relu_5x5 <- inception_4a/5x5
I0813 21:16:14.976632  7338 net.cpp:430] inception_4a/relu_5x5 -> inception_4a/5x5 (in-place)
I0813 21:16:14.976953  7338 net.cpp:141] Setting up inception_4a/relu_5x5
I0813 21:16:14.976966  7338 net.cpp:148] Top shape: 32 48 14 14 (301056)
I0813 21:16:14.976970  7338 net.cpp:156] Memory required for data: 1167294976
I0813 21:16:14.976974  7338 layer_factory.hpp:77] Creating layer inception_4a/pool
I0813 21:16:14.976984  7338 net.cpp:91] Creating Layer inception_4a/pool
I0813 21:16:14.976989  7338 net.cpp:469] inception_4a/pool <- pool3/3x3_s2_pool3/3x3_s2_0_split_3
I0813 21:16:14.976994  7338 net.cpp:443] inception_4a/pool -> inception_4a/pool
I0813 21:16:14.977041  7338 net.cpp:141] Setting up inception_4a/pool
I0813 21:16:14.977049  7338 net.cpp:148] Top shape: 32 480 14 14 (3010560)
I0813 21:16:14.977052  7338 net.cpp:156] Memory required for data: 1179337216
I0813 21:16:14.977056  7338 layer_factory.hpp:77] Creating layer inception_4a/pool_proj
I0813 21:16:14.977067  7338 net.cpp:91] Creating Layer inception_4a/pool_proj
I0813 21:16:14.977072  7338 net.cpp:469] inception_4a/pool_proj <- inception_4a/pool
I0813 21:16:14.977084  7338 net.cpp:443] inception_4a/pool_proj -> inception_4a/pool_proj
I0813 21:16:14.978284  7338 net.cpp:141] Setting up inception_4a/pool_proj
I0813 21:16:14.978298  7338 net.cpp:148] Top shape: 32 64 14 14 (401408)
I0813 21:16:14.978302  7338 net.cpp:156] Memory required for data: 1180942848
I0813 21:16:14.978309  7338 layer_factory.hpp:77] Creating layer inception_4a/relu_pool_proj
I0813 21:16:14.978318  7338 net.cpp:91] Creating Layer inception_4a/relu_pool_proj
I0813 21:16:14.978323  7338 net.cpp:469] inception_4a/relu_pool_proj <- inception_4a/pool_proj
I0813 21:16:14.978333  7338 net.cpp:430] inception_4a/relu_pool_proj -> inception_4a/pool_proj (in-place)
I0813 21:16:14.978497  7338 net.cpp:141] Setting up inception_4a/relu_pool_proj
I0813 21:16:14.978508  7338 net.cpp:148] Top shape: 32 64 14 14 (401408)
I0813 21:16:14.978513  7338 net.cpp:156] Memory required for data: 1182548480
I0813 21:16:14.978516  7338 layer_factory.hpp:77] Creating layer inception_4a/output
I0813 21:16:14.978525  7338 net.cpp:91] Creating Layer inception_4a/output
I0813 21:16:14.978530  7338 net.cpp:469] inception_4a/output <- inception_4a/1x1
I0813 21:16:14.978535  7338 net.cpp:469] inception_4a/output <- inception_4a/3x3
I0813 21:16:14.978539  7338 net.cpp:469] inception_4a/output <- inception_4a/5x5
I0813 21:16:14.978543  7338 net.cpp:469] inception_4a/output <- inception_4a/pool_proj
I0813 21:16:14.978549  7338 net.cpp:443] inception_4a/output -> inception_4a/output
I0813 21:16:14.978579  7338 net.cpp:141] Setting up inception_4a/output
I0813 21:16:14.978586  7338 net.cpp:148] Top shape: 32 512 14 14 (3211264)
I0813 21:16:14.978590  7338 net.cpp:156] Memory required for data: 1195393536
I0813 21:16:14.978593  7338 layer_factory.hpp:77] Creating layer inception_4a/output_inception_4a/output_0_split
I0813 21:16:14.978600  7338 net.cpp:91] Creating Layer inception_4a/output_inception_4a/output_0_split
I0813 21:16:14.978603  7338 net.cpp:469] inception_4a/output_inception_4a/output_0_split <- inception_4a/output
I0813 21:16:14.978610  7338 net.cpp:443] inception_4a/output_inception_4a/output_0_split -> inception_4a/output_inception_4a/output_0_split_0
I0813 21:16:14.978616  7338 net.cpp:443] inception_4a/output_inception_4a/output_0_split -> inception_4a/output_inception_4a/output_0_split_1
I0813 21:16:14.978622  7338 net.cpp:443] inception_4a/output_inception_4a/output_0_split -> inception_4a/output_inception_4a/output_0_split_2
I0813 21:16:14.978631  7338 net.cpp:443] inception_4a/output_inception_4a/output_0_split -> inception_4a/output_inception_4a/output_0_split_3
I0813 21:16:14.978636  7338 net.cpp:443] inception_4a/output_inception_4a/output_0_split -> inception_4a/output_inception_4a/output_0_split_4
I0813 21:16:14.978704  7338 net.cpp:141] Setting up inception_4a/output_inception_4a/output_0_split
I0813 21:16:14.978711  7338 net.cpp:148] Top shape: 32 512 14 14 (3211264)
I0813 21:16:14.978716  7338 net.cpp:148] Top shape: 32 512 14 14 (3211264)
I0813 21:16:14.978720  7338 net.cpp:148] Top shape: 32 512 14 14 (3211264)
I0813 21:16:14.978724  7338 net.cpp:148] Top shape: 32 512 14 14 (3211264)
I0813 21:16:14.978729  7338 net.cpp:148] Top shape: 32 512 14 14 (3211264)
I0813 21:16:14.978731  7338 net.cpp:156] Memory required for data: 1259618816
I0813 21:16:14.978734  7338 layer_factory.hpp:77] Creating layer loss1/ave_pool
I0813 21:16:14.978740  7338 net.cpp:91] Creating Layer loss1/ave_pool
I0813 21:16:14.978744  7338 net.cpp:469] loss1/ave_pool <- inception_4a/output_inception_4a/output_0_split_0
I0813 21:16:14.978751  7338 net.cpp:443] loss1/ave_pool -> loss1/ave_pool
I0813 21:16:14.979105  7338 net.cpp:141] Setting up loss1/ave_pool
I0813 21:16:14.979120  7338 net.cpp:148] Top shape: 32 512 4 4 (262144)
I0813 21:16:14.979123  7338 net.cpp:156] Memory required for data: 1260667392
I0813 21:16:14.979127  7338 layer_factory.hpp:77] Creating layer loss1/conv
I0813 21:16:14.979140  7338 net.cpp:91] Creating Layer loss1/conv
I0813 21:16:14.979145  7338 net.cpp:469] loss1/conv <- loss1/ave_pool
I0813 21:16:14.979152  7338 net.cpp:443] loss1/conv -> loss1/conv
I0813 21:16:14.980585  7338 net.cpp:141] Setting up loss1/conv
I0813 21:16:14.980600  7338 net.cpp:148] Top shape: 32 128 4 4 (65536)
I0813 21:16:14.980604  7338 net.cpp:156] Memory required for data: 1260929536
I0813 21:16:14.980612  7338 layer_factory.hpp:77] Creating layer loss1/relu_conv
I0813 21:16:14.980620  7338 net.cpp:91] Creating Layer loss1/relu_conv
I0813 21:16:14.980625  7338 net.cpp:469] loss1/relu_conv <- loss1/conv
I0813 21:16:14.980630  7338 net.cpp:430] loss1/relu_conv -> loss1/conv (in-place)
I0813 21:16:14.980793  7338 net.cpp:141] Setting up loss1/relu_conv
I0813 21:16:14.980810  7338 net.cpp:148] Top shape: 32 128 4 4 (65536)
I0813 21:16:14.980815  7338 net.cpp:156] Memory required for data: 1261191680
I0813 21:16:14.980819  7338 layer_factory.hpp:77] Creating layer loss1/fc
I0813 21:16:14.980839  7338 net.cpp:91] Creating Layer loss1/fc
I0813 21:16:14.980844  7338 net.cpp:469] loss1/fc <- loss1/conv
I0813 21:16:14.980850  7338 net.cpp:443] loss1/fc -> loss1/fc
I0813 21:16:14.997192  7338 net.cpp:141] Setting up loss1/fc
I0813 21:16:14.997211  7338 net.cpp:148] Top shape: 32 1024 (32768)
I0813 21:16:14.997215  7338 net.cpp:156] Memory required for data: 1261322752
I0813 21:16:14.997222  7338 layer_factory.hpp:77] Creating layer loss1/relu_fc
I0813 21:16:14.997233  7338 net.cpp:91] Creating Layer loss1/relu_fc
I0813 21:16:14.997237  7338 net.cpp:469] loss1/relu_fc <- loss1/fc
I0813 21:16:14.997243  7338 net.cpp:430] loss1/relu_fc -> loss1/fc (in-place)
I0813 21:16:14.997579  7338 net.cpp:141] Setting up loss1/relu_fc
I0813 21:16:14.997596  7338 net.cpp:148] Top shape: 32 1024 (32768)
I0813 21:16:14.997599  7338 net.cpp:156] Memory required for data: 1261453824
I0813 21:16:14.997603  7338 layer_factory.hpp:77] Creating layer loss1/drop_fc
I0813 21:16:14.997627  7338 net.cpp:91] Creating Layer loss1/drop_fc
I0813 21:16:14.997632  7338 net.cpp:469] loss1/drop_fc <- loss1/fc
I0813 21:16:14.997637  7338 net.cpp:430] loss1/drop_fc -> loss1/fc (in-place)
I0813 21:16:14.997674  7338 net.cpp:141] Setting up loss1/drop_fc
I0813 21:16:14.997681  7338 net.cpp:148] Top shape: 32 1024 (32768)
I0813 21:16:14.997685  7338 net.cpp:156] Memory required for data: 1261584896
I0813 21:16:14.997689  7338 layer_factory.hpp:77] Creating layer loss1/classifier
I0813 21:16:14.997697  7338 net.cpp:91] Creating Layer loss1/classifier
I0813 21:16:14.997701  7338 net.cpp:469] loss1/classifier <- loss1/fc
I0813 21:16:14.997709  7338 net.cpp:443] loss1/classifier -> loss1/classifier
I0813 21:16:15.005733  7338 net.cpp:141] Setting up loss1/classifier
I0813 21:16:15.005749  7338 net.cpp:148] Top shape: 32 1000 (32000)
I0813 21:16:15.005753  7338 net.cpp:156] Memory required for data: 1261712896
I0813 21:16:15.005759  7338 layer_factory.hpp:77] Creating layer loss1/loss
I0813 21:16:15.005770  7338 net.cpp:91] Creating Layer loss1/loss
I0813 21:16:15.005774  7338 net.cpp:469] loss1/loss <- loss1/classifier
I0813 21:16:15.005780  7338 net.cpp:469] loss1/loss <- label_data_1_split_0
I0813 21:16:15.005785  7338 net.cpp:443] loss1/loss -> loss1/loss1
I0813 21:16:15.005797  7338 layer_factory.hpp:77] Creating layer loss1/loss
I0813 21:16:15.006677  7338 net.cpp:141] Setting up loss1/loss
I0813 21:16:15.006691  7338 net.cpp:148] Top shape: (1)
I0813 21:16:15.006695  7338 net.cpp:151]     with loss weight 0.3
I0813 21:16:15.006722  7338 net.cpp:156] Memory required for data: 1261712900
I0813 21:16:15.006726  7338 layer_factory.hpp:77] Creating layer inception_4b/1x1
I0813 21:16:15.006741  7338 net.cpp:91] Creating Layer inception_4b/1x1
I0813 21:16:15.006745  7338 net.cpp:469] inception_4b/1x1 <- inception_4a/output_inception_4a/output_0_split_1
I0813 21:16:15.006754  7338 net.cpp:443] inception_4b/1x1 -> inception_4b/1x1
I0813 21:16:15.008509  7338 net.cpp:141] Setting up inception_4b/1x1
I0813 21:16:15.008524  7338 net.cpp:148] Top shape: 32 160 14 14 (1003520)
I0813 21:16:15.008529  7338 net.cpp:156] Memory required for data: 1265726980
I0813 21:16:15.008536  7338 layer_factory.hpp:77] Creating layer inception_4b/relu_1x1
I0813 21:16:15.008543  7338 net.cpp:91] Creating Layer inception_4b/relu_1x1
I0813 21:16:15.008548  7338 net.cpp:469] inception_4b/relu_1x1 <- inception_4b/1x1
I0813 21:16:15.008553  7338 net.cpp:430] inception_4b/relu_1x1 -> inception_4b/1x1 (in-place)
I0813 21:16:15.008880  7338 net.cpp:141] Setting up inception_4b/relu_1x1
I0813 21:16:15.008893  7338 net.cpp:148] Top shape: 32 160 14 14 (1003520)
I0813 21:16:15.008898  7338 net.cpp:156] Memory required for data: 1269741060
I0813 21:16:15.008903  7338 layer_factory.hpp:77] Creating layer inception_4b/3x3_reduce
I0813 21:16:15.008929  7338 net.cpp:91] Creating Layer inception_4b/3x3_reduce
I0813 21:16:15.008934  7338 net.cpp:469] inception_4b/3x3_reduce <- inception_4a/output_inception_4a/output_0_split_2
I0813 21:16:15.008941  7338 net.cpp:443] inception_4b/3x3_reduce -> inception_4b/3x3_reduce
I0813 21:16:15.010206  7338 net.cpp:141] Setting up inception_4b/3x3_reduce
I0813 21:16:15.010223  7338 net.cpp:148] Top shape: 32 112 14 14 (702464)
I0813 21:16:15.010228  7338 net.cpp:156] Memory required for data: 1272550916
I0813 21:16:15.010236  7338 layer_factory.hpp:77] Creating layer inception_4b/relu_3x3_reduce
I0813 21:16:15.010242  7338 net.cpp:91] Creating Layer inception_4b/relu_3x3_reduce
I0813 21:16:15.010247  7338 net.cpp:469] inception_4b/relu_3x3_reduce <- inception_4b/3x3_reduce
I0813 21:16:15.010255  7338 net.cpp:430] inception_4b/relu_3x3_reduce -> inception_4b/3x3_reduce (in-place)
I0813 21:16:15.010586  7338 net.cpp:141] Setting up inception_4b/relu_3x3_reduce
I0813 21:16:15.010601  7338 net.cpp:148] Top shape: 32 112 14 14 (702464)
I0813 21:16:15.010604  7338 net.cpp:156] Memory required for data: 1275360772
I0813 21:16:15.010609  7338 layer_factory.hpp:77] Creating layer inception_4b/3x3
I0813 21:16:15.010622  7338 net.cpp:91] Creating Layer inception_4b/3x3
I0813 21:16:15.010627  7338 net.cpp:469] inception_4b/3x3 <- inception_4b/3x3_reduce
I0813 21:16:15.010635  7338 net.cpp:443] inception_4b/3x3 -> inception_4b/3x3
I0813 21:16:15.013640  7338 net.cpp:141] Setting up inception_4b/3x3
I0813 21:16:15.013659  7338 net.cpp:148] Top shape: 32 224 14 14 (1404928)
I0813 21:16:15.013662  7338 net.cpp:156] Memory required for data: 1280980484
I0813 21:16:15.013669  7338 layer_factory.hpp:77] Creating layer inception_4b/relu_3x3
I0813 21:16:15.013677  7338 net.cpp:91] Creating Layer inception_4b/relu_3x3
I0813 21:16:15.013682  7338 net.cpp:469] inception_4b/relu_3x3 <- inception_4b/3x3
I0813 21:16:15.013687  7338 net.cpp:430] inception_4b/relu_3x3 -> inception_4b/3x3 (in-place)
I0813 21:16:15.013855  7338 net.cpp:141] Setting up inception_4b/relu_3x3
I0813 21:16:15.013867  7338 net.cpp:148] Top shape: 32 224 14 14 (1404928)
I0813 21:16:15.013871  7338 net.cpp:156] Memory required for data: 1286600196
I0813 21:16:15.013875  7338 layer_factory.hpp:77] Creating layer inception_4b/5x5_reduce
I0813 21:16:15.013887  7338 net.cpp:91] Creating Layer inception_4b/5x5_reduce
I0813 21:16:15.013892  7338 net.cpp:469] inception_4b/5x5_reduce <- inception_4a/output_inception_4a/output_0_split_3
I0813 21:16:15.013898  7338 net.cpp:443] inception_4b/5x5_reduce -> inception_4b/5x5_reduce
I0813 21:16:15.015035  7338 net.cpp:141] Setting up inception_4b/5x5_reduce
I0813 21:16:15.015050  7338 net.cpp:148] Top shape: 32 24 14 14 (150528)
I0813 21:16:15.015054  7338 net.cpp:156] Memory required for data: 1287202308
I0813 21:16:15.015061  7338 layer_factory.hpp:77] Creating layer inception_4b/relu_5x5_reduce
I0813 21:16:15.015069  7338 net.cpp:91] Creating Layer inception_4b/relu_5x5_reduce
I0813 21:16:15.015074  7338 net.cpp:469] inception_4b/relu_5x5_reduce <- inception_4b/5x5_reduce
I0813 21:16:15.015081  7338 net.cpp:430] inception_4b/relu_5x5_reduce -> inception_4b/5x5_reduce (in-place)
I0813 21:16:15.015411  7338 net.cpp:141] Setting up inception_4b/relu_5x5_reduce
I0813 21:16:15.015424  7338 net.cpp:148] Top shape: 32 24 14 14 (150528)
I0813 21:16:15.015429  7338 net.cpp:156] Memory required for data: 1287804420
I0813 21:16:15.015432  7338 layer_factory.hpp:77] Creating layer inception_4b/5x5
I0813 21:16:15.015444  7338 net.cpp:91] Creating Layer inception_4b/5x5
I0813 21:16:15.015450  7338 net.cpp:469] inception_4b/5x5 <- inception_4b/5x5_reduce
I0813 21:16:15.015457  7338 net.cpp:443] inception_4b/5x5 -> inception_4b/5x5
I0813 21:16:15.016665  7338 net.cpp:141] Setting up inception_4b/5x5
I0813 21:16:15.016681  7338 net.cpp:148] Top shape: 32 64 14 14 (401408)
I0813 21:16:15.016685  7338 net.cpp:156] Memory required for data: 1289410052
I0813 21:16:15.016691  7338 layer_factory.hpp:77] Creating layer inception_4b/relu_5x5
I0813 21:16:15.016705  7338 net.cpp:91] Creating Layer inception_4b/relu_5x5
I0813 21:16:15.016717  7338 net.cpp:469] inception_4b/relu_5x5 <- inception_4b/5x5
I0813 21:16:15.016729  7338 net.cpp:430] inception_4b/relu_5x5 -> inception_4b/5x5 (in-place)
I0813 21:16:15.017129  7338 net.cpp:141] Setting up inception_4b/relu_5x5
I0813 21:16:15.017144  7338 net.cpp:148] Top shape: 32 64 14 14 (401408)
I0813 21:16:15.017148  7338 net.cpp:156] Memory required for data: 1291015684
I0813 21:16:15.017153  7338 layer_factory.hpp:77] Creating layer inception_4b/pool
I0813 21:16:15.017160  7338 net.cpp:91] Creating Layer inception_4b/pool
I0813 21:16:15.017165  7338 net.cpp:469] inception_4b/pool <- inception_4a/output_inception_4a/output_0_split_4
I0813 21:16:15.017171  7338 net.cpp:443] inception_4b/pool -> inception_4b/pool
I0813 21:16:15.017230  7338 net.cpp:141] Setting up inception_4b/pool
I0813 21:16:15.017238  7338 net.cpp:148] Top shape: 32 512 14 14 (3211264)
I0813 21:16:15.017242  7338 net.cpp:156] Memory required for data: 1303860740
I0813 21:16:15.017246  7338 layer_factory.hpp:77] Creating layer inception_4b/pool_proj
I0813 21:16:15.017257  7338 net.cpp:91] Creating Layer inception_4b/pool_proj
I0813 21:16:15.017261  7338 net.cpp:469] inception_4b/pool_proj <- inception_4b/pool
I0813 21:16:15.017269  7338 net.cpp:443] inception_4b/pool_proj -> inception_4b/pool_proj
I0813 21:16:15.018518  7338 net.cpp:141] Setting up inception_4b/pool_proj
I0813 21:16:15.018532  7338 net.cpp:148] Top shape: 32 64 14 14 (401408)
I0813 21:16:15.018537  7338 net.cpp:156] Memory required for data: 1305466372
I0813 21:16:15.018543  7338 layer_factory.hpp:77] Creating layer inception_4b/relu_pool_proj
I0813 21:16:15.018553  7338 net.cpp:91] Creating Layer inception_4b/relu_pool_proj
I0813 21:16:15.018558  7338 net.cpp:469] inception_4b/relu_pool_proj <- inception_4b/pool_proj
I0813 21:16:15.018563  7338 net.cpp:430] inception_4b/relu_pool_proj -> inception_4b/pool_proj (in-place)
I0813 21:16:15.018769  7338 net.cpp:141] Setting up inception_4b/relu_pool_proj
I0813 21:16:15.018780  7338 net.cpp:148] Top shape: 32 64 14 14 (401408)
I0813 21:16:15.018785  7338 net.cpp:156] Memory required for data: 1307072004
I0813 21:16:15.018790  7338 layer_factory.hpp:77] Creating layer inception_4b/output
I0813 21:16:15.018796  7338 net.cpp:91] Creating Layer inception_4b/output
I0813 21:16:15.018800  7338 net.cpp:469] inception_4b/output <- inception_4b/1x1
I0813 21:16:15.018806  7338 net.cpp:469] inception_4b/output <- inception_4b/3x3
I0813 21:16:15.018810  7338 net.cpp:469] inception_4b/output <- inception_4b/5x5
I0813 21:16:15.018815  7338 net.cpp:469] inception_4b/output <- inception_4b/pool_proj
I0813 21:16:15.018820  7338 net.cpp:443] inception_4b/output -> inception_4b/output
I0813 21:16:15.018851  7338 net.cpp:141] Setting up inception_4b/output
I0813 21:16:15.018858  7338 net.cpp:148] Top shape: 32 512 14 14 (3211264)
I0813 21:16:15.018862  7338 net.cpp:156] Memory required for data: 1319917060
I0813 21:16:15.018865  7338 layer_factory.hpp:77] Creating layer inception_4b/output_inception_4b/output_0_split
I0813 21:16:15.018872  7338 net.cpp:91] Creating Layer inception_4b/output_inception_4b/output_0_split
I0813 21:16:15.018877  7338 net.cpp:469] inception_4b/output_inception_4b/output_0_split <- inception_4b/output
I0813 21:16:15.018882  7338 net.cpp:443] inception_4b/output_inception_4b/output_0_split -> inception_4b/output_inception_4b/output_0_split_0
I0813 21:16:15.018887  7338 net.cpp:443] inception_4b/output_inception_4b/output_0_split -> inception_4b/output_inception_4b/output_0_split_1
I0813 21:16:15.018894  7338 net.cpp:443] inception_4b/output_inception_4b/output_0_split -> inception_4b/output_inception_4b/output_0_split_2
I0813 21:16:15.018899  7338 net.cpp:443] inception_4b/output_inception_4b/output_0_split -> inception_4b/output_inception_4b/output_0_split_3
I0813 21:16:15.018955  7338 net.cpp:141] Setting up inception_4b/output_inception_4b/output_0_split
I0813 21:16:15.018961  7338 net.cpp:148] Top shape: 32 512 14 14 (3211264)
I0813 21:16:15.018971  7338 net.cpp:148] Top shape: 32 512 14 14 (3211264)
I0813 21:16:15.018982  7338 net.cpp:148] Top shape: 32 512 14 14 (3211264)
I0813 21:16:15.018986  7338 net.cpp:148] Top shape: 32 512 14 14 (3211264)
I0813 21:16:15.018990  7338 net.cpp:156] Memory required for data: 1371297284
I0813 21:16:15.018993  7338 layer_factory.hpp:77] Creating layer inception_4c/1x1
I0813 21:16:15.019006  7338 net.cpp:91] Creating Layer inception_4c/1x1
I0813 21:16:15.019011  7338 net.cpp:469] inception_4c/1x1 <- inception_4b/output_inception_4b/output_0_split_0
I0813 21:16:15.019018  7338 net.cpp:443] inception_4c/1x1 -> inception_4c/1x1
I0813 21:16:15.020475  7338 net.cpp:141] Setting up inception_4c/1x1
I0813 21:16:15.020489  7338 net.cpp:148] Top shape: 32 128 14 14 (802816)
I0813 21:16:15.020494  7338 net.cpp:156] Memory required for data: 1374508548
I0813 21:16:15.020501  7338 layer_factory.hpp:77] Creating layer inception_4c/relu_1x1
I0813 21:16:15.020510  7338 net.cpp:91] Creating Layer inception_4c/relu_1x1
I0813 21:16:15.020515  7338 net.cpp:469] inception_4c/relu_1x1 <- inception_4c/1x1
I0813 21:16:15.020520  7338 net.cpp:430] inception_4c/relu_1x1 -> inception_4c/1x1 (in-place)
I0813 21:16:15.020850  7338 net.cpp:141] Setting up inception_4c/relu_1x1
I0813 21:16:15.020867  7338 net.cpp:148] Top shape: 32 128 14 14 (802816)
I0813 21:16:15.020871  7338 net.cpp:156] Memory required for data: 1377719812
I0813 21:16:15.020875  7338 layer_factory.hpp:77] Creating layer inception_4c/3x3_reduce
I0813 21:16:15.020886  7338 net.cpp:91] Creating Layer inception_4c/3x3_reduce
I0813 21:16:15.020892  7338 net.cpp:469] inception_4c/3x3_reduce <- inception_4b/output_inception_4b/output_0_split_1
I0813 21:16:15.020898  7338 net.cpp:443] inception_4c/3x3_reduce -> inception_4c/3x3_reduce
I0813 21:16:15.023005  7338 net.cpp:141] Setting up inception_4c/3x3_reduce
I0813 21:16:15.023020  7338 net.cpp:148] Top shape: 32 128 14 14 (802816)
I0813 21:16:15.023025  7338 net.cpp:156] Memory required for data: 1380931076
I0813 21:16:15.023032  7338 layer_factory.hpp:77] Creating layer inception_4c/relu_3x3_reduce
I0813 21:16:15.023039  7338 net.cpp:91] Creating Layer inception_4c/relu_3x3_reduce
I0813 21:16:15.023044  7338 net.cpp:469] inception_4c/relu_3x3_reduce <- inception_4c/3x3_reduce
I0813 21:16:15.023051  7338 net.cpp:430] inception_4c/relu_3x3_reduce -> inception_4c/3x3_reduce (in-place)
I0813 21:16:15.023383  7338 net.cpp:141] Setting up inception_4c/relu_3x3_reduce
I0813 21:16:15.023398  7338 net.cpp:148] Top shape: 32 128 14 14 (802816)
I0813 21:16:15.023402  7338 net.cpp:156] Memory required for data: 1384142340
I0813 21:16:15.023407  7338 layer_factory.hpp:77] Creating layer inception_4c/3x3
I0813 21:16:15.023419  7338 net.cpp:91] Creating Layer inception_4c/3x3
I0813 21:16:15.023424  7338 net.cpp:469] inception_4c/3x3 <- inception_4c/3x3_reduce
I0813 21:16:15.023430  7338 net.cpp:443] inception_4c/3x3 -> inception_4c/3x3
I0813 21:16:15.027287  7338 net.cpp:141] Setting up inception_4c/3x3
I0813 21:16:15.027305  7338 net.cpp:148] Top shape: 32 256 14 14 (1605632)
I0813 21:16:15.027309  7338 net.cpp:156] Memory required for data: 1390564868
I0813 21:16:15.027331  7338 layer_factory.hpp:77] Creating layer inception_4c/relu_3x3
I0813 21:16:15.027339  7338 net.cpp:91] Creating Layer inception_4c/relu_3x3
I0813 21:16:15.027344  7338 net.cpp:469] inception_4c/relu_3x3 <- inception_4c/3x3
I0813 21:16:15.027349  7338 net.cpp:430] inception_4c/relu_3x3 -> inception_4c/3x3 (in-place)
I0813 21:16:15.027514  7338 net.cpp:141] Setting up inception_4c/relu_3x3
I0813 21:16:15.027525  7338 net.cpp:148] Top shape: 32 256 14 14 (1605632)
I0813 21:16:15.027529  7338 net.cpp:156] Memory required for data: 1396987396
I0813 21:16:15.027534  7338 layer_factory.hpp:77] Creating layer inception_4c/5x5_reduce
I0813 21:16:15.027545  7338 net.cpp:91] Creating Layer inception_4c/5x5_reduce
I0813 21:16:15.027550  7338 net.cpp:469] inception_4c/5x5_reduce <- inception_4b/output_inception_4b/output_0_split_2
I0813 21:16:15.027564  7338 net.cpp:443] inception_4c/5x5_reduce -> inception_4c/5x5_reduce
I0813 21:16:15.028729  7338 net.cpp:141] Setting up inception_4c/5x5_reduce
I0813 21:16:15.028744  7338 net.cpp:148] Top shape: 32 24 14 14 (150528)
I0813 21:16:15.028748  7338 net.cpp:156] Memory required for data: 1397589508
I0813 21:16:15.028755  7338 layer_factory.hpp:77] Creating layer inception_4c/relu_5x5_reduce
I0813 21:16:15.028762  7338 net.cpp:91] Creating Layer inception_4c/relu_5x5_reduce
I0813 21:16:15.028767  7338 net.cpp:469] inception_4c/relu_5x5_reduce <- inception_4c/5x5_reduce
I0813 21:16:15.028774  7338 net.cpp:430] inception_4c/relu_5x5_reduce -> inception_4c/5x5_reduce (in-place)
I0813 21:16:15.029116  7338 net.cpp:141] Setting up inception_4c/relu_5x5_reduce
I0813 21:16:15.029139  7338 net.cpp:148] Top shape: 32 24 14 14 (150528)
I0813 21:16:15.029142  7338 net.cpp:156] Memory required for data: 1398191620
I0813 21:16:15.029146  7338 layer_factory.hpp:77] Creating layer inception_4c/5x5
I0813 21:16:15.029158  7338 net.cpp:91] Creating Layer inception_4c/5x5
I0813 21:16:15.029163  7338 net.cpp:469] inception_4c/5x5 <- inception_4c/5x5_reduce
I0813 21:16:15.029170  7338 net.cpp:443] inception_4c/5x5 -> inception_4c/5x5
I0813 21:16:15.030316  7338 net.cpp:141] Setting up inception_4c/5x5
I0813 21:16:15.030331  7338 net.cpp:148] Top shape: 32 64 14 14 (401408)
I0813 21:16:15.030335  7338 net.cpp:156] Memory required for data: 1399797252
I0813 21:16:15.030341  7338 layer_factory.hpp:77] Creating layer inception_4c/relu_5x5
I0813 21:16:15.030349  7338 net.cpp:91] Creating Layer inception_4c/relu_5x5
I0813 21:16:15.030354  7338 net.cpp:469] inception_4c/relu_5x5 <- inception_4c/5x5
I0813 21:16:15.030360  7338 net.cpp:430] inception_4c/relu_5x5 -> inception_4c/5x5 (in-place)
I0813 21:16:15.030694  7338 net.cpp:141] Setting up inception_4c/relu_5x5
I0813 21:16:15.030707  7338 net.cpp:148] Top shape: 32 64 14 14 (401408)
I0813 21:16:15.030711  7338 net.cpp:156] Memory required for data: 1401402884
I0813 21:16:15.030715  7338 layer_factory.hpp:77] Creating layer inception_4c/pool
I0813 21:16:15.030725  7338 net.cpp:91] Creating Layer inception_4c/pool
I0813 21:16:15.030730  7338 net.cpp:469] inception_4c/pool <- inception_4b/output_inception_4b/output_0_split_3
I0813 21:16:15.030735  7338 net.cpp:443] inception_4c/pool -> inception_4c/pool
I0813 21:16:15.030787  7338 net.cpp:141] Setting up inception_4c/pool
I0813 21:16:15.030794  7338 net.cpp:148] Top shape: 32 512 14 14 (3211264)
I0813 21:16:15.030798  7338 net.cpp:156] Memory required for data: 1414247940
I0813 21:16:15.030802  7338 layer_factory.hpp:77] Creating layer inception_4c/pool_proj
I0813 21:16:15.030812  7338 net.cpp:91] Creating Layer inception_4c/pool_proj
I0813 21:16:15.030817  7338 net.cpp:469] inception_4c/pool_proj <- inception_4c/pool
I0813 21:16:15.030825  7338 net.cpp:443] inception_4c/pool_proj -> inception_4c/pool_proj
I0813 21:16:15.032099  7338 net.cpp:141] Setting up inception_4c/pool_proj
I0813 21:16:15.032114  7338 net.cpp:148] Top shape: 32 64 14 14 (401408)
I0813 21:16:15.032119  7338 net.cpp:156] Memory required for data: 1415853572
I0813 21:16:15.032125  7338 layer_factory.hpp:77] Creating layer inception_4c/relu_pool_proj
I0813 21:16:15.032135  7338 net.cpp:91] Creating Layer inception_4c/relu_pool_proj
I0813 21:16:15.032140  7338 net.cpp:469] inception_4c/relu_pool_proj <- inception_4c/pool_proj
I0813 21:16:15.032145  7338 net.cpp:430] inception_4c/relu_pool_proj -> inception_4c/pool_proj (in-place)
I0813 21:16:15.032318  7338 net.cpp:141] Setting up inception_4c/relu_pool_proj
I0813 21:16:15.032328  7338 net.cpp:148] Top shape: 32 64 14 14 (401408)
I0813 21:16:15.032332  7338 net.cpp:156] Memory required for data: 1417459204
I0813 21:16:15.032336  7338 layer_factory.hpp:77] Creating layer inception_4c/output
I0813 21:16:15.032344  7338 net.cpp:91] Creating Layer inception_4c/output
I0813 21:16:15.032349  7338 net.cpp:469] inception_4c/output <- inception_4c/1x1
I0813 21:16:15.032354  7338 net.cpp:469] inception_4c/output <- inception_4c/3x3
I0813 21:16:15.032363  7338 net.cpp:469] inception_4c/output <- inception_4c/5x5
I0813 21:16:15.032374  7338 net.cpp:469] inception_4c/output <- inception_4c/pool_proj
I0813 21:16:15.032380  7338 net.cpp:443] inception_4c/output -> inception_4c/output
I0813 21:16:15.032415  7338 net.cpp:141] Setting up inception_4c/output
I0813 21:16:15.032423  7338 net.cpp:148] Top shape: 32 512 14 14 (3211264)
I0813 21:16:15.032426  7338 net.cpp:156] Memory required for data: 1430304260
I0813 21:16:15.032429  7338 layer_factory.hpp:77] Creating layer inception_4c/output_inception_4c/output_0_split
I0813 21:16:15.032436  7338 net.cpp:91] Creating Layer inception_4c/output_inception_4c/output_0_split
I0813 21:16:15.032440  7338 net.cpp:469] inception_4c/output_inception_4c/output_0_split <- inception_4c/output
I0813 21:16:15.032447  7338 net.cpp:443] inception_4c/output_inception_4c/output_0_split -> inception_4c/output_inception_4c/output_0_split_0
I0813 21:16:15.032454  7338 net.cpp:443] inception_4c/output_inception_4c/output_0_split -> inception_4c/output_inception_4c/output_0_split_1
I0813 21:16:15.032460  7338 net.cpp:443] inception_4c/output_inception_4c/output_0_split -> inception_4c/output_inception_4c/output_0_split_2
I0813 21:16:15.032467  7338 net.cpp:443] inception_4c/output_inception_4c/output_0_split -> inception_4c/output_inception_4c/output_0_split_3
I0813 21:16:15.032531  7338 net.cpp:141] Setting up inception_4c/output_inception_4c/output_0_split
I0813 21:16:15.032538  7338 net.cpp:148] Top shape: 32 512 14 14 (3211264)
I0813 21:16:15.032543  7338 net.cpp:148] Top shape: 32 512 14 14 (3211264)
I0813 21:16:15.032547  7338 net.cpp:148] Top shape: 32 512 14 14 (3211264)
I0813 21:16:15.032552  7338 net.cpp:148] Top shape: 32 512 14 14 (3211264)
I0813 21:16:15.032554  7338 net.cpp:156] Memory required for data: 1481684484
I0813 21:16:15.032558  7338 layer_factory.hpp:77] Creating layer inception_4d/1x1
I0813 21:16:15.032572  7338 net.cpp:91] Creating Layer inception_4d/1x1
I0813 21:16:15.032575  7338 net.cpp:469] inception_4d/1x1 <- inception_4c/output_inception_4c/output_0_split_0
I0813 21:16:15.032582  7338 net.cpp:443] inception_4d/1x1 -> inception_4d/1x1
I0813 21:16:15.034024  7338 net.cpp:141] Setting up inception_4d/1x1
I0813 21:16:15.034041  7338 net.cpp:148] Top shape: 32 112 14 14 (702464)
I0813 21:16:15.034046  7338 net.cpp:156] Memory required for data: 1484494340
I0813 21:16:15.034054  7338 layer_factory.hpp:77] Creating layer inception_4d/relu_1x1
I0813 21:16:15.034060  7338 net.cpp:91] Creating Layer inception_4d/relu_1x1
I0813 21:16:15.034065  7338 net.cpp:469] inception_4d/relu_1x1 <- inception_4d/1x1
I0813 21:16:15.034070  7338 net.cpp:430] inception_4d/relu_1x1 -> inception_4d/1x1 (in-place)
I0813 21:16:15.034410  7338 net.cpp:141] Setting up inception_4d/relu_1x1
I0813 21:16:15.034425  7338 net.cpp:148] Top shape: 32 112 14 14 (702464)
I0813 21:16:15.034428  7338 net.cpp:156] Memory required for data: 1487304196
I0813 21:16:15.034432  7338 layer_factory.hpp:77] Creating layer inception_4d/3x3_reduce
I0813 21:16:15.034446  7338 net.cpp:91] Creating Layer inception_4d/3x3_reduce
I0813 21:16:15.034451  7338 net.cpp:469] inception_4d/3x3_reduce <- inception_4c/output_inception_4c/output_0_split_1
I0813 21:16:15.034458  7338 net.cpp:443] inception_4d/3x3_reduce -> inception_4d/3x3_reduce
I0813 21:16:15.035868  7338 net.cpp:141] Setting up inception_4d/3x3_reduce
I0813 21:16:15.035883  7338 net.cpp:148] Top shape: 32 144 14 14 (903168)
I0813 21:16:15.035887  7338 net.cpp:156] Memory required for data: 1490916868
I0813 21:16:15.035893  7338 layer_factory.hpp:77] Creating layer inception_4d/relu_3x3_reduce
I0813 21:16:15.035902  7338 net.cpp:91] Creating Layer inception_4d/relu_3x3_reduce
I0813 21:16:15.035907  7338 net.cpp:469] inception_4d/relu_3x3_reduce <- inception_4d/3x3_reduce
I0813 21:16:15.035913  7338 net.cpp:430] inception_4d/relu_3x3_reduce -> inception_4d/3x3_reduce (in-place)
I0813 21:16:15.036253  7338 net.cpp:141] Setting up inception_4d/relu_3x3_reduce
I0813 21:16:15.036267  7338 net.cpp:148] Top shape: 32 144 14 14 (903168)
I0813 21:16:15.036275  7338 net.cpp:156] Memory required for data: 1494529540
I0813 21:16:15.036288  7338 layer_factory.hpp:77] Creating layer inception_4d/3x3
I0813 21:16:15.036300  7338 net.cpp:91] Creating Layer inception_4d/3x3
I0813 21:16:15.036305  7338 net.cpp:469] inception_4d/3x3 <- inception_4d/3x3_reduce
I0813 21:16:15.036314  7338 net.cpp:443] inception_4d/3x3 -> inception_4d/3x3
I0813 21:16:15.040423  7338 net.cpp:141] Setting up inception_4d/3x3
I0813 21:16:15.040439  7338 net.cpp:148] Top shape: 32 288 14 14 (1806336)
I0813 21:16:15.040443  7338 net.cpp:156] Memory required for data: 1501754884
I0813 21:16:15.040451  7338 layer_factory.hpp:77] Creating layer inception_4d/relu_3x3
I0813 21:16:15.040457  7338 net.cpp:91] Creating Layer inception_4d/relu_3x3
I0813 21:16:15.040462  7338 net.cpp:469] inception_4d/relu_3x3 <- inception_4d/3x3
I0813 21:16:15.040469  7338 net.cpp:430] inception_4d/relu_3x3 -> inception_4d/3x3 (in-place)
I0813 21:16:15.040639  7338 net.cpp:141] Setting up inception_4d/relu_3x3
I0813 21:16:15.040650  7338 net.cpp:148] Top shape: 32 288 14 14 (1806336)
I0813 21:16:15.040654  7338 net.cpp:156] Memory required for data: 1508980228
I0813 21:16:15.040658  7338 layer_factory.hpp:77] Creating layer inception_4d/5x5_reduce
I0813 21:16:15.040670  7338 net.cpp:91] Creating Layer inception_4d/5x5_reduce
I0813 21:16:15.040675  7338 net.cpp:469] inception_4d/5x5_reduce <- inception_4c/output_inception_4c/output_0_split_2
I0813 21:16:15.040684  7338 net.cpp:443] inception_4d/5x5_reduce -> inception_4d/5x5_reduce
I0813 21:16:15.042071  7338 net.cpp:141] Setting up inception_4d/5x5_reduce
I0813 21:16:15.042088  7338 net.cpp:148] Top shape: 32 32 14 14 (200704)
I0813 21:16:15.042091  7338 net.cpp:156] Memory required for data: 1509783044
I0813 21:16:15.042098  7338 layer_factory.hpp:77] Creating layer inception_4d/relu_5x5_reduce
I0813 21:16:15.042109  7338 net.cpp:91] Creating Layer inception_4d/relu_5x5_reduce
I0813 21:16:15.042114  7338 net.cpp:469] inception_4d/relu_5x5_reduce <- inception_4d/5x5_reduce
I0813 21:16:15.042119  7338 net.cpp:430] inception_4d/relu_5x5_reduce -> inception_4d/5x5_reduce (in-place)
I0813 21:16:15.042462  7338 net.cpp:141] Setting up inception_4d/relu_5x5_reduce
I0813 21:16:15.042475  7338 net.cpp:148] Top shape: 32 32 14 14 (200704)
I0813 21:16:15.042480  7338 net.cpp:156] Memory required for data: 1510585860
I0813 21:16:15.042484  7338 layer_factory.hpp:77] Creating layer inception_4d/5x5
I0813 21:16:15.042496  7338 net.cpp:91] Creating Layer inception_4d/5x5
I0813 21:16:15.042501  7338 net.cpp:469] inception_4d/5x5 <- inception_4d/5x5_reduce
I0813 21:16:15.042510  7338 net.cpp:443] inception_4d/5x5 -> inception_4d/5x5
I0813 21:16:15.043942  7338 net.cpp:141] Setting up inception_4d/5x5
I0813 21:16:15.043957  7338 net.cpp:148] Top shape: 32 64 14 14 (401408)
I0813 21:16:15.043962  7338 net.cpp:156] Memory required for data: 1512191492
I0813 21:16:15.043968  7338 layer_factory.hpp:77] Creating layer inception_4d/relu_5x5
I0813 21:16:15.043977  7338 net.cpp:91] Creating Layer inception_4d/relu_5x5
I0813 21:16:15.043982  7338 net.cpp:469] inception_4d/relu_5x5 <- inception_4d/5x5
I0813 21:16:15.043988  7338 net.cpp:430] inception_4d/relu_5x5 -> inception_4d/5x5 (in-place)
I0813 21:16:15.044325  7338 net.cpp:141] Setting up inception_4d/relu_5x5
I0813 21:16:15.044342  7338 net.cpp:148] Top shape: 32 64 14 14 (401408)
I0813 21:16:15.044345  7338 net.cpp:156] Memory required for data: 1513797124
I0813 21:16:15.044349  7338 layer_factory.hpp:77] Creating layer inception_4d/pool
I0813 21:16:15.044356  7338 net.cpp:91] Creating Layer inception_4d/pool
I0813 21:16:15.044361  7338 net.cpp:469] inception_4d/pool <- inception_4c/output_inception_4c/output_0_split_3
I0813 21:16:15.044368  7338 net.cpp:443] inception_4d/pool -> inception_4d/pool
I0813 21:16:15.044421  7338 net.cpp:141] Setting up inception_4d/pool
I0813 21:16:15.044430  7338 net.cpp:148] Top shape: 32 512 14 14 (3211264)
I0813 21:16:15.044432  7338 net.cpp:156] Memory required for data: 1526642180
I0813 21:16:15.044441  7338 layer_factory.hpp:77] Creating layer inception_4d/pool_proj
I0813 21:16:15.044464  7338 net.cpp:91] Creating Layer inception_4d/pool_proj
I0813 21:16:15.044469  7338 net.cpp:469] inception_4d/pool_proj <- inception_4d/pool
I0813 21:16:15.044477  7338 net.cpp:443] inception_4d/pool_proj -> inception_4d/pool_proj
I0813 21:16:15.045791  7338 net.cpp:141] Setting up inception_4d/pool_proj
I0813 21:16:15.045806  7338 net.cpp:148] Top shape: 32 64 14 14 (401408)
I0813 21:16:15.045811  7338 net.cpp:156] Memory required for data: 1528247812
I0813 21:16:15.045819  7338 layer_factory.hpp:77] Creating layer inception_4d/relu_pool_proj
I0813 21:16:15.045827  7338 net.cpp:91] Creating Layer inception_4d/relu_pool_proj
I0813 21:16:15.045832  7338 net.cpp:469] inception_4d/relu_pool_proj <- inception_4d/pool_proj
I0813 21:16:15.045840  7338 net.cpp:430] inception_4d/relu_pool_proj -> inception_4d/pool_proj (in-place)
I0813 21:16:15.046015  7338 net.cpp:141] Setting up inception_4d/relu_pool_proj
I0813 21:16:15.046026  7338 net.cpp:148] Top shape: 32 64 14 14 (401408)
I0813 21:16:15.046030  7338 net.cpp:156] Memory required for data: 1529853444
I0813 21:16:15.046034  7338 layer_factory.hpp:77] Creating layer inception_4d/output
I0813 21:16:15.046041  7338 net.cpp:91] Creating Layer inception_4d/output
I0813 21:16:15.046046  7338 net.cpp:469] inception_4d/output <- inception_4d/1x1
I0813 21:16:15.046051  7338 net.cpp:469] inception_4d/output <- inception_4d/3x3
I0813 21:16:15.046054  7338 net.cpp:469] inception_4d/output <- inception_4d/5x5
I0813 21:16:15.046059  7338 net.cpp:469] inception_4d/output <- inception_4d/pool_proj
I0813 21:16:15.046066  7338 net.cpp:443] inception_4d/output -> inception_4d/output
I0813 21:16:15.046100  7338 net.cpp:141] Setting up inception_4d/output
I0813 21:16:15.046108  7338 net.cpp:148] Top shape: 32 528 14 14 (3311616)
I0813 21:16:15.046111  7338 net.cpp:156] Memory required for data: 1543099908
I0813 21:16:15.046114  7338 layer_factory.hpp:77] Creating layer inception_4d/output_inception_4d/output_0_split
I0813 21:16:15.046125  7338 net.cpp:91] Creating Layer inception_4d/output_inception_4d/output_0_split
I0813 21:16:15.046129  7338 net.cpp:469] inception_4d/output_inception_4d/output_0_split <- inception_4d/output
I0813 21:16:15.046134  7338 net.cpp:443] inception_4d/output_inception_4d/output_0_split -> inception_4d/output_inception_4d/output_0_split_0
I0813 21:16:15.046144  7338 net.cpp:443] inception_4d/output_inception_4d/output_0_split -> inception_4d/output_inception_4d/output_0_split_1
I0813 21:16:15.046149  7338 net.cpp:443] inception_4d/output_inception_4d/output_0_split -> inception_4d/output_inception_4d/output_0_split_2
I0813 21:16:15.046155  7338 net.cpp:443] inception_4d/output_inception_4d/output_0_split -> inception_4d/output_inception_4d/output_0_split_3
I0813 21:16:15.046160  7338 net.cpp:443] inception_4d/output_inception_4d/output_0_split -> inception_4d/output_inception_4d/output_0_split_4
I0813 21:16:15.046241  7338 net.cpp:141] Setting up inception_4d/output_inception_4d/output_0_split
I0813 21:16:15.046248  7338 net.cpp:148] Top shape: 32 528 14 14 (3311616)
I0813 21:16:15.046252  7338 net.cpp:148] Top shape: 32 528 14 14 (3311616)
I0813 21:16:15.046257  7338 net.cpp:148] Top shape: 32 528 14 14 (3311616)
I0813 21:16:15.046260  7338 net.cpp:148] Top shape: 32 528 14 14 (3311616)
I0813 21:16:15.046264  7338 net.cpp:148] Top shape: 32 528 14 14 (3311616)
I0813 21:16:15.046267  7338 net.cpp:156] Memory required for data: 1609332228
I0813 21:16:15.046270  7338 layer_factory.hpp:77] Creating layer loss2/ave_pool
I0813 21:16:15.046279  7338 net.cpp:91] Creating Layer loss2/ave_pool
I0813 21:16:15.046283  7338 net.cpp:469] loss2/ave_pool <- inception_4d/output_inception_4d/output_0_split_0
I0813 21:16:15.046289  7338 net.cpp:443] loss2/ave_pool -> loss2/ave_pool
I0813 21:16:15.046648  7338 net.cpp:141] Setting up loss2/ave_pool
I0813 21:16:15.046661  7338 net.cpp:148] Top shape: 32 528 4 4 (270336)
I0813 21:16:15.046664  7338 net.cpp:156] Memory required for data: 1610413572
I0813 21:16:15.046674  7338 layer_factory.hpp:77] Creating layer loss2/conv
I0813 21:16:15.046696  7338 net.cpp:91] Creating Layer loss2/conv
I0813 21:16:15.046702  7338 net.cpp:469] loss2/conv <- loss2/ave_pool
I0813 21:16:15.046708  7338 net.cpp:443] loss2/conv -> loss2/conv
I0813 21:16:15.048851  7338 net.cpp:141] Setting up loss2/conv
I0813 21:16:15.048866  7338 net.cpp:148] Top shape: 32 128 4 4 (65536)
I0813 21:16:15.048871  7338 net.cpp:156] Memory required for data: 1610675716
I0813 21:16:15.048877  7338 layer_factory.hpp:77] Creating layer loss2/relu_conv
I0813 21:16:15.048884  7338 net.cpp:91] Creating Layer loss2/relu_conv
I0813 21:16:15.048889  7338 net.cpp:469] loss2/relu_conv <- loss2/conv
I0813 21:16:15.048897  7338 net.cpp:430] loss2/relu_conv -> loss2/conv (in-place)
I0813 21:16:15.049068  7338 net.cpp:141] Setting up loss2/relu_conv
I0813 21:16:15.049085  7338 net.cpp:148] Top shape: 32 128 4 4 (65536)
I0813 21:16:15.049090  7338 net.cpp:156] Memory required for data: 1610937860
I0813 21:16:15.049094  7338 layer_factory.hpp:77] Creating layer loss2/fc
I0813 21:16:15.049106  7338 net.cpp:91] Creating Layer loss2/fc
I0813 21:16:15.049110  7338 net.cpp:469] loss2/fc <- loss2/conv
I0813 21:16:15.049116  7338 net.cpp:443] loss2/fc -> loss2/fc
I0813 21:16:15.065286  7338 net.cpp:141] Setting up loss2/fc
I0813 21:16:15.065306  7338 net.cpp:148] Top shape: 32 1024 (32768)
I0813 21:16:15.065310  7338 net.cpp:156] Memory required for data: 1611068932
I0813 21:16:15.065318  7338 layer_factory.hpp:77] Creating layer loss2/relu_fc
I0813 21:16:15.065325  7338 net.cpp:91] Creating Layer loss2/relu_fc
I0813 21:16:15.065330  7338 net.cpp:469] loss2/relu_fc <- loss2/fc
I0813 21:16:15.065337  7338 net.cpp:430] loss2/relu_fc -> loss2/fc (in-place)
I0813 21:16:15.065698  7338 net.cpp:141] Setting up loss2/relu_fc
I0813 21:16:15.065712  7338 net.cpp:148] Top shape: 32 1024 (32768)
I0813 21:16:15.065716  7338 net.cpp:156] Memory required for data: 1611200004
I0813 21:16:15.065721  7338 layer_factory.hpp:77] Creating layer loss2/drop_fc
I0813 21:16:15.065728  7338 net.cpp:91] Creating Layer loss2/drop_fc
I0813 21:16:15.065733  7338 net.cpp:469] loss2/drop_fc <- loss2/fc
I0813 21:16:15.065740  7338 net.cpp:430] loss2/drop_fc -> loss2/fc (in-place)
I0813 21:16:15.065775  7338 net.cpp:141] Setting up loss2/drop_fc
I0813 21:16:15.065783  7338 net.cpp:148] Top shape: 32 1024 (32768)
I0813 21:16:15.065785  7338 net.cpp:156] Memory required for data: 1611331076
I0813 21:16:15.065789  7338 layer_factory.hpp:77] Creating layer loss2/classifier
I0813 21:16:15.065800  7338 net.cpp:91] Creating Layer loss2/classifier
I0813 21:16:15.065804  7338 net.cpp:469] loss2/classifier <- loss2/fc
I0813 21:16:15.065812  7338 net.cpp:443] loss2/classifier -> loss2/classifier
I0813 21:16:15.073858  7338 net.cpp:141] Setting up loss2/classifier
I0813 21:16:15.073873  7338 net.cpp:148] Top shape: 32 1000 (32000)
I0813 21:16:15.073878  7338 net.cpp:156] Memory required for data: 1611459076
I0813 21:16:15.073884  7338 layer_factory.hpp:77] Creating layer loss2/loss
I0813 21:16:15.073892  7338 net.cpp:91] Creating Layer loss2/loss
I0813 21:16:15.073897  7338 net.cpp:469] loss2/loss <- loss2/classifier
I0813 21:16:15.073902  7338 net.cpp:469] loss2/loss <- label_data_1_split_1
I0813 21:16:15.073910  7338 net.cpp:443] loss2/loss -> loss2/loss1
I0813 21:16:15.073920  7338 layer_factory.hpp:77] Creating layer loss2/loss
I0813 21:16:15.074823  7338 net.cpp:141] Setting up loss2/loss
I0813 21:16:15.074837  7338 net.cpp:148] Top shape: (1)
I0813 21:16:15.074841  7338 net.cpp:151]     with loss weight 0.3
I0813 21:16:15.074858  7338 net.cpp:156] Memory required for data: 1611459080
I0813 21:16:15.074862  7338 layer_factory.hpp:77] Creating layer inception_4e/1x1
I0813 21:16:15.074875  7338 net.cpp:91] Creating Layer inception_4e/1x1
I0813 21:16:15.074882  7338 net.cpp:469] inception_4e/1x1 <- inception_4d/output_inception_4d/output_0_split_1
I0813 21:16:15.074888  7338 net.cpp:443] inception_4e/1x1 -> inception_4e/1x1
I0813 21:16:15.076925  7338 net.cpp:141] Setting up inception_4e/1x1
I0813 21:16:15.076949  7338 net.cpp:148] Top shape: 32 256 14 14 (1605632)
I0813 21:16:15.076954  7338 net.cpp:156] Memory required for data: 1617881608
I0813 21:16:15.076961  7338 layer_factory.hpp:77] Creating layer inception_4e/relu_1x1
I0813 21:16:15.076982  7338 net.cpp:91] Creating Layer inception_4e/relu_1x1
I0813 21:16:15.076987  7338 net.cpp:469] inception_4e/relu_1x1 <- inception_4e/1x1
I0813 21:16:15.076992  7338 net.cpp:430] inception_4e/relu_1x1 -> inception_4e/1x1 (in-place)
I0813 21:16:15.077348  7338 net.cpp:141] Setting up inception_4e/relu_1x1
I0813 21:16:15.077363  7338 net.cpp:148] Top shape: 32 256 14 14 (1605632)
I0813 21:16:15.077368  7338 net.cpp:156] Memory required for data: 1624304136
I0813 21:16:15.077371  7338 layer_factory.hpp:77] Creating layer inception_4e/3x3_reduce
I0813 21:16:15.077386  7338 net.cpp:91] Creating Layer inception_4e/3x3_reduce
I0813 21:16:15.077391  7338 net.cpp:469] inception_4e/3x3_reduce <- inception_4d/output_inception_4d/output_0_split_2
I0813 21:16:15.077399  7338 net.cpp:443] inception_4e/3x3_reduce -> inception_4e/3x3_reduce
I0813 21:16:15.079489  7338 net.cpp:141] Setting up inception_4e/3x3_reduce
I0813 21:16:15.079504  7338 net.cpp:148] Top shape: 32 160 14 14 (1003520)
I0813 21:16:15.079509  7338 net.cpp:156] Memory required for data: 1628318216
I0813 21:16:15.079515  7338 layer_factory.hpp:77] Creating layer inception_4e/relu_3x3_reduce
I0813 21:16:15.079522  7338 net.cpp:91] Creating Layer inception_4e/relu_3x3_reduce
I0813 21:16:15.079527  7338 net.cpp:469] inception_4e/relu_3x3_reduce <- inception_4e/3x3_reduce
I0813 21:16:15.079535  7338 net.cpp:430] inception_4e/relu_3x3_reduce -> inception_4e/3x3_reduce (in-place)
I0813 21:16:15.079880  7338 net.cpp:141] Setting up inception_4e/relu_3x3_reduce
I0813 21:16:15.079895  7338 net.cpp:148] Top shape: 32 160 14 14 (1003520)
I0813 21:16:15.079898  7338 net.cpp:156] Memory required for data: 1632332296
I0813 21:16:15.079902  7338 layer_factory.hpp:77] Creating layer inception_4e/3x3
I0813 21:16:15.079916  7338 net.cpp:91] Creating Layer inception_4e/3x3
I0813 21:16:15.079921  7338 net.cpp:469] inception_4e/3x3 <- inception_4e/3x3_reduce
I0813 21:16:15.079928  7338 net.cpp:443] inception_4e/3x3 -> inception_4e/3x3
I0813 21:16:15.084938  7338 net.cpp:141] Setting up inception_4e/3x3
I0813 21:16:15.084954  7338 net.cpp:148] Top shape: 32 320 14 14 (2007040)
I0813 21:16:15.084959  7338 net.cpp:156] Memory required for data: 1640360456
I0813 21:16:15.084965  7338 layer_factory.hpp:77] Creating layer inception_4e/relu_3x3
I0813 21:16:15.084975  7338 net.cpp:91] Creating Layer inception_4e/relu_3x3
I0813 21:16:15.084980  7338 net.cpp:469] inception_4e/relu_3x3 <- inception_4e/3x3
I0813 21:16:15.084985  7338 net.cpp:430] inception_4e/relu_3x3 -> inception_4e/3x3 (in-place)
I0813 21:16:15.085178  7338 net.cpp:141] Setting up inception_4e/relu_3x3
I0813 21:16:15.085191  7338 net.cpp:148] Top shape: 32 320 14 14 (2007040)
I0813 21:16:15.085196  7338 net.cpp:156] Memory required for data: 1648388616
I0813 21:16:15.085198  7338 layer_factory.hpp:77] Creating layer inception_4e/5x5_reduce
I0813 21:16:15.085211  7338 net.cpp:91] Creating Layer inception_4e/5x5_reduce
I0813 21:16:15.085216  7338 net.cpp:469] inception_4e/5x5_reduce <- inception_4d/output_inception_4d/output_0_split_3
I0813 21:16:15.085224  7338 net.cpp:443] inception_4e/5x5_reduce -> inception_4e/5x5_reduce
I0813 21:16:15.086454  7338 net.cpp:141] Setting up inception_4e/5x5_reduce
I0813 21:16:15.086469  7338 net.cpp:148] Top shape: 32 32 14 14 (200704)
I0813 21:16:15.086473  7338 net.cpp:156] Memory required for data: 1649191432
I0813 21:16:15.086480  7338 layer_factory.hpp:77] Creating layer inception_4e/relu_5x5_reduce
I0813 21:16:15.086489  7338 net.cpp:91] Creating Layer inception_4e/relu_5x5_reduce
I0813 21:16:15.086494  7338 net.cpp:469] inception_4e/relu_5x5_reduce <- inception_4e/5x5_reduce
I0813 21:16:15.086499  7338 net.cpp:430] inception_4e/relu_5x5_reduce -> inception_4e/5x5_reduce (in-place)
I0813 21:16:15.086875  7338 net.cpp:141] Setting up inception_4e/relu_5x5_reduce
I0813 21:16:15.086896  7338 net.cpp:148] Top shape: 32 32 14 14 (200704)
I0813 21:16:15.086901  7338 net.cpp:156] Memory required for data: 1649994248
I0813 21:16:15.086905  7338 layer_factory.hpp:77] Creating layer inception_4e/5x5
I0813 21:16:15.086938  7338 net.cpp:91] Creating Layer inception_4e/5x5
I0813 21:16:15.086944  7338 net.cpp:469] inception_4e/5x5 <- inception_4e/5x5_reduce
I0813 21:16:15.086951  7338 net.cpp:443] inception_4e/5x5 -> inception_4e/5x5
I0813 21:16:15.088714  7338 net.cpp:141] Setting up inception_4e/5x5
I0813 21:16:15.088729  7338 net.cpp:148] Top shape: 32 128 14 14 (802816)
I0813 21:16:15.088733  7338 net.cpp:156] Memory required for data: 1653205512
I0813 21:16:15.088742  7338 layer_factory.hpp:77] Creating layer inception_4e/relu_5x5
I0813 21:16:15.088748  7338 net.cpp:91] Creating Layer inception_4e/relu_5x5
I0813 21:16:15.088753  7338 net.cpp:469] inception_4e/relu_5x5 <- inception_4e/5x5
I0813 21:16:15.088760  7338 net.cpp:430] inception_4e/relu_5x5 -> inception_4e/5x5 (in-place)
I0813 21:16:15.089112  7338 net.cpp:141] Setting up inception_4e/relu_5x5
I0813 21:16:15.089126  7338 net.cpp:148] Top shape: 32 128 14 14 (802816)
I0813 21:16:15.089130  7338 net.cpp:156] Memory required for data: 1656416776
I0813 21:16:15.089134  7338 layer_factory.hpp:77] Creating layer inception_4e/pool
I0813 21:16:15.089143  7338 net.cpp:91] Creating Layer inception_4e/pool
I0813 21:16:15.089148  7338 net.cpp:469] inception_4e/pool <- inception_4d/output_inception_4d/output_0_split_4
I0813 21:16:15.089156  7338 net.cpp:443] inception_4e/pool -> inception_4e/pool
I0813 21:16:15.089212  7338 net.cpp:141] Setting up inception_4e/pool
I0813 21:16:15.089222  7338 net.cpp:148] Top shape: 32 528 14 14 (3311616)
I0813 21:16:15.089226  7338 net.cpp:156] Memory required for data: 1669663240
I0813 21:16:15.089229  7338 layer_factory.hpp:77] Creating layer inception_4e/pool_proj
I0813 21:16:15.089244  7338 net.cpp:91] Creating Layer inception_4e/pool_proj
I0813 21:16:15.089249  7338 net.cpp:469] inception_4e/pool_proj <- inception_4e/pool
I0813 21:16:15.089256  7338 net.cpp:443] inception_4e/pool_proj -> inception_4e/pool_proj
I0813 21:16:15.090796  7338 net.cpp:141] Setting up inception_4e/pool_proj
I0813 21:16:15.090811  7338 net.cpp:148] Top shape: 32 128 14 14 (802816)
I0813 21:16:15.090814  7338 net.cpp:156] Memory required for data: 1672874504
I0813 21:16:15.090821  7338 layer_factory.hpp:77] Creating layer inception_4e/relu_pool_proj
I0813 21:16:15.090831  7338 net.cpp:91] Creating Layer inception_4e/relu_pool_proj
I0813 21:16:15.090836  7338 net.cpp:469] inception_4e/relu_pool_proj <- inception_4e/pool_proj
I0813 21:16:15.090840  7338 net.cpp:430] inception_4e/relu_pool_proj -> inception_4e/pool_proj (in-place)
I0813 21:16:15.091017  7338 net.cpp:141] Setting up inception_4e/relu_pool_proj
I0813 21:16:15.091027  7338 net.cpp:148] Top shape: 32 128 14 14 (802816)
I0813 21:16:15.091030  7338 net.cpp:156] Memory required for data: 1676085768
I0813 21:16:15.091034  7338 layer_factory.hpp:77] Creating layer inception_4e/output
I0813 21:16:15.091044  7338 net.cpp:91] Creating Layer inception_4e/output
I0813 21:16:15.091048  7338 net.cpp:469] inception_4e/output <- inception_4e/1x1
I0813 21:16:15.091053  7338 net.cpp:469] inception_4e/output <- inception_4e/3x3
I0813 21:16:15.091058  7338 net.cpp:469] inception_4e/output <- inception_4e/5x5
I0813 21:16:15.091063  7338 net.cpp:469] inception_4e/output <- inception_4e/pool_proj
I0813 21:16:15.091068  7338 net.cpp:443] inception_4e/output -> inception_4e/output
I0813 21:16:15.091105  7338 net.cpp:141] Setting up inception_4e/output
I0813 21:16:15.091114  7338 net.cpp:148] Top shape: 32 832 14 14 (5218304)
I0813 21:16:15.091116  7338 net.cpp:156] Memory required for data: 1696958984
I0813 21:16:15.091120  7338 layer_factory.hpp:77] Creating layer pool4/3x3_s2
I0813 21:16:15.091127  7338 net.cpp:91] Creating Layer pool4/3x3_s2
I0813 21:16:15.091131  7338 net.cpp:469] pool4/3x3_s2 <- inception_4e/output
I0813 21:16:15.091143  7338 net.cpp:443] pool4/3x3_s2 -> pool4/3x3_s2
I0813 21:16:15.091199  7338 net.cpp:141] Setting up pool4/3x3_s2
I0813 21:16:15.091207  7338 net.cpp:148] Top shape: 32 832 7 7 (1304576)
I0813 21:16:15.091210  7338 net.cpp:156] Memory required for data: 1702177288
I0813 21:16:15.091214  7338 layer_factory.hpp:77] Creating layer pool4/3x3_s2_pool4/3x3_s2_0_split
I0813 21:16:15.091220  7338 net.cpp:91] Creating Layer pool4/3x3_s2_pool4/3x3_s2_0_split
I0813 21:16:15.091224  7338 net.cpp:469] pool4/3x3_s2_pool4/3x3_s2_0_split <- pool4/3x3_s2
I0813 21:16:15.091231  7338 net.cpp:443] pool4/3x3_s2_pool4/3x3_s2_0_split -> pool4/3x3_s2_pool4/3x3_s2_0_split_0
I0813 21:16:15.091238  7338 net.cpp:443] pool4/3x3_s2_pool4/3x3_s2_0_split -> pool4/3x3_s2_pool4/3x3_s2_0_split_1
I0813 21:16:15.091244  7338 net.cpp:443] pool4/3x3_s2_pool4/3x3_s2_0_split -> pool4/3x3_s2_pool4/3x3_s2_0_split_2
I0813 21:16:15.091249  7338 net.cpp:443] pool4/3x3_s2_pool4/3x3_s2_0_split -> pool4/3x3_s2_pool4/3x3_s2_0_split_3
I0813 21:16:15.091317  7338 net.cpp:141] Setting up pool4/3x3_s2_pool4/3x3_s2_0_split
I0813 21:16:15.091325  7338 net.cpp:148] Top shape: 32 832 7 7 (1304576)
I0813 21:16:15.091331  7338 net.cpp:148] Top shape: 32 832 7 7 (1304576)
I0813 21:16:15.091334  7338 net.cpp:148] Top shape: 32 832 7 7 (1304576)
I0813 21:16:15.091338  7338 net.cpp:148] Top shape: 32 832 7 7 (1304576)
I0813 21:16:15.091341  7338 net.cpp:156] Memory required for data: 1723050504
I0813 21:16:15.091344  7338 layer_factory.hpp:77] Creating layer inception_5a/1x1
I0813 21:16:15.091356  7338 net.cpp:91] Creating Layer inception_5a/1x1
I0813 21:16:15.091361  7338 net.cpp:469] inception_5a/1x1 <- pool4/3x3_s2_pool4/3x3_s2_0_split_0
I0813 21:16:15.091367  7338 net.cpp:443] inception_5a/1x1 -> inception_5a/1x1
I0813 21:16:15.094375  7338 net.cpp:141] Setting up inception_5a/1x1
I0813 21:16:15.094391  7338 net.cpp:148] Top shape: 32 256 7 7 (401408)
I0813 21:16:15.094398  7338 net.cpp:156] Memory required for data: 1724656136
I0813 21:16:15.094404  7338 layer_factory.hpp:77] Creating layer inception_5a/relu_1x1
I0813 21:16:15.094413  7338 net.cpp:91] Creating Layer inception_5a/relu_1x1
I0813 21:16:15.094418  7338 net.cpp:469] inception_5a/relu_1x1 <- inception_5a/1x1
I0813 21:16:15.094422  7338 net.cpp:430] inception_5a/relu_1x1 -> inception_5a/1x1 (in-place)
I0813 21:16:15.094768  7338 net.cpp:141] Setting up inception_5a/relu_1x1
I0813 21:16:15.094781  7338 net.cpp:148] Top shape: 32 256 7 7 (401408)
I0813 21:16:15.094785  7338 net.cpp:156] Memory required for data: 1726261768
I0813 21:16:15.094789  7338 layer_factory.hpp:77] Creating layer inception_5a/3x3_reduce
I0813 21:16:15.094804  7338 net.cpp:91] Creating Layer inception_5a/3x3_reduce
I0813 21:16:15.094808  7338 net.cpp:469] inception_5a/3x3_reduce <- pool4/3x3_s2_pool4/3x3_s2_0_split_1
I0813 21:16:15.094815  7338 net.cpp:443] inception_5a/3x3_reduce -> inception_5a/3x3_reduce
I0813 21:16:15.097398  7338 net.cpp:141] Setting up inception_5a/3x3_reduce
I0813 21:16:15.097417  7338 net.cpp:148] Top shape: 32 160 7 7 (250880)
I0813 21:16:15.097422  7338 net.cpp:156] Memory required for data: 1727265288
I0813 21:16:15.097429  7338 layer_factory.hpp:77] Creating layer inception_5a/relu_3x3_reduce
I0813 21:16:15.097435  7338 net.cpp:91] Creating Layer inception_5a/relu_3x3_reduce
I0813 21:16:15.097440  7338 net.cpp:469] inception_5a/relu_3x3_reduce <- inception_5a/3x3_reduce
I0813 21:16:15.097446  7338 net.cpp:430] inception_5a/relu_3x3_reduce -> inception_5a/3x3_reduce (in-place)
I0813 21:16:15.097802  7338 net.cpp:141] Setting up inception_5a/relu_3x3_reduce
I0813 21:16:15.097816  7338 net.cpp:148] Top shape: 32 160 7 7 (250880)
I0813 21:16:15.097820  7338 net.cpp:156] Memory required for data: 1728268808
I0813 21:16:15.097825  7338 layer_factory.hpp:77] Creating layer inception_5a/3x3
I0813 21:16:15.097838  7338 net.cpp:91] Creating Layer inception_5a/3x3
I0813 21:16:15.097843  7338 net.cpp:469] inception_5a/3x3 <- inception_5a/3x3_reduce
I0813 21:16:15.097851  7338 net.cpp:443] inception_5a/3x3 -> inception_5a/3x3
I0813 21:16:15.102658  7338 net.cpp:141] Setting up inception_5a/3x3
I0813 21:16:15.102681  7338 net.cpp:148] Top shape: 32 320 7 7 (501760)
I0813 21:16:15.102686  7338 net.cpp:156] Memory required for data: 1730275848
I0813 21:16:15.102694  7338 layer_factory.hpp:77] Creating layer inception_5a/relu_3x3
I0813 21:16:15.102702  7338 net.cpp:91] Creating Layer inception_5a/relu_3x3
I0813 21:16:15.102707  7338 net.cpp:469] inception_5a/relu_3x3 <- inception_5a/3x3
I0813 21:16:15.102713  7338 net.cpp:430] inception_5a/relu_3x3 -> inception_5a/3x3 (in-place)
I0813 21:16:15.102893  7338 net.cpp:141] Setting up inception_5a/relu_3x3
I0813 21:16:15.102905  7338 net.cpp:148] Top shape: 32 320 7 7 (501760)
I0813 21:16:15.102908  7338 net.cpp:156] Memory required for data: 1732282888
I0813 21:16:15.102912  7338 layer_factory.hpp:77] Creating layer inception_5a/5x5_reduce
I0813 21:16:15.102926  7338 net.cpp:91] Creating Layer inception_5a/5x5_reduce
I0813 21:16:15.102931  7338 net.cpp:469] inception_5a/5x5_reduce <- pool4/3x3_s2_pool4/3x3_s2_0_split_2
I0813 21:16:15.102938  7338 net.cpp:443] inception_5a/5x5_reduce -> inception_5a/5x5_reduce
I0813 21:16:15.104269  7338 net.cpp:141] Setting up inception_5a/5x5_reduce
I0813 21:16:15.104284  7338 net.cpp:148] Top shape: 32 32 7 7 (50176)
I0813 21:16:15.104287  7338 net.cpp:156] Memory required for data: 1732483592
I0813 21:16:15.104295  7338 layer_factory.hpp:77] Creating layer inception_5a/relu_5x5_reduce
I0813 21:16:15.104302  7338 net.cpp:91] Creating Layer inception_5a/relu_5x5_reduce
I0813 21:16:15.104307  7338 net.cpp:469] inception_5a/relu_5x5_reduce <- inception_5a/5x5_reduce
I0813 21:16:15.104313  7338 net.cpp:430] inception_5a/relu_5x5_reduce -> inception_5a/5x5_reduce (in-place)
I0813 21:16:15.104661  7338 net.cpp:141] Setting up inception_5a/relu_5x5_reduce
I0813 21:16:15.104677  7338 net.cpp:148] Top shape: 32 32 7 7 (50176)
I0813 21:16:15.104681  7338 net.cpp:156] Memory required for data: 1732684296
I0813 21:16:15.104686  7338 layer_factory.hpp:77] Creating layer inception_5a/5x5
I0813 21:16:15.104698  7338 net.cpp:91] Creating Layer inception_5a/5x5
I0813 21:16:15.104704  7338 net.cpp:469] inception_5a/5x5 <- inception_5a/5x5_reduce
I0813 21:16:15.104712  7338 net.cpp:443] inception_5a/5x5 -> inception_5a/5x5
I0813 21:16:15.106490  7338 net.cpp:141] Setting up inception_5a/5x5
I0813 21:16:15.106506  7338 net.cpp:148] Top shape: 32 128 7 7 (200704)
I0813 21:16:15.106510  7338 net.cpp:156] Memory required for data: 1733487112
I0813 21:16:15.106518  7338 layer_factory.hpp:77] Creating layer inception_5a/relu_5x5
I0813 21:16:15.106524  7338 net.cpp:91] Creating Layer inception_5a/relu_5x5
I0813 21:16:15.106529  7338 net.cpp:469] inception_5a/relu_5x5 <- inception_5a/5x5
I0813 21:16:15.106537  7338 net.cpp:430] inception_5a/relu_5x5 -> inception_5a/5x5 (in-place)
I0813 21:16:15.106890  7338 net.cpp:141] Setting up inception_5a/relu_5x5
I0813 21:16:15.106904  7338 net.cpp:148] Top shape: 32 128 7 7 (200704)
I0813 21:16:15.106907  7338 net.cpp:156] Memory required for data: 1734289928
I0813 21:16:15.106911  7338 layer_factory.hpp:77] Creating layer inception_5a/pool
I0813 21:16:15.106920  7338 net.cpp:91] Creating Layer inception_5a/pool
I0813 21:16:15.106925  7338 net.cpp:469] inception_5a/pool <- pool4/3x3_s2_pool4/3x3_s2_0_split_3
I0813 21:16:15.106932  7338 net.cpp:443] inception_5a/pool -> inception_5a/pool
I0813 21:16:15.106988  7338 net.cpp:141] Setting up inception_5a/pool
I0813 21:16:15.106998  7338 net.cpp:148] Top shape: 32 832 7 7 (1304576)
I0813 21:16:15.107002  7338 net.cpp:156] Memory required for data: 1739508232
I0813 21:16:15.107005  7338 layer_factory.hpp:77] Creating layer inception_5a/pool_proj
I0813 21:16:15.107015  7338 net.cpp:91] Creating Layer inception_5a/pool_proj
I0813 21:16:15.107019  7338 net.cpp:469] inception_5a/pool_proj <- inception_5a/pool
I0813 21:16:15.107028  7338 net.cpp:443] inception_5a/pool_proj -> inception_5a/pool_proj
I0813 21:16:15.109416  7338 net.cpp:141] Setting up inception_5a/pool_proj
I0813 21:16:15.109436  7338 net.cpp:148] Top shape: 32 128 7 7 (200704)
I0813 21:16:15.109448  7338 net.cpp:156] Memory required for data: 1740311048
I0813 21:16:15.109457  7338 layer_factory.hpp:77] Creating layer inception_5a/relu_pool_proj
I0813 21:16:15.109463  7338 net.cpp:91] Creating Layer inception_5a/relu_pool_proj
I0813 21:16:15.109468  7338 net.cpp:469] inception_5a/relu_pool_proj <- inception_5a/pool_proj
I0813 21:16:15.109474  7338 net.cpp:430] inception_5a/relu_pool_proj -> inception_5a/pool_proj (in-place)
I0813 21:16:15.109832  7338 net.cpp:141] Setting up inception_5a/relu_pool_proj
I0813 21:16:15.109845  7338 net.cpp:148] Top shape: 32 128 7 7 (200704)
I0813 21:16:15.109849  7338 net.cpp:156] Memory required for data: 1741113864
I0813 21:16:15.109853  7338 layer_factory.hpp:77] Creating layer inception_5a/output
I0813 21:16:15.109863  7338 net.cpp:91] Creating Layer inception_5a/output
I0813 21:16:15.109868  7338 net.cpp:469] inception_5a/output <- inception_5a/1x1
I0813 21:16:15.109872  7338 net.cpp:469] inception_5a/output <- inception_5a/3x3
I0813 21:16:15.109877  7338 net.cpp:469] inception_5a/output <- inception_5a/5x5
I0813 21:16:15.109881  7338 net.cpp:469] inception_5a/output <- inception_5a/pool_proj
I0813 21:16:15.109886  7338 net.cpp:443] inception_5a/output -> inception_5a/output
I0813 21:16:15.109927  7338 net.cpp:141] Setting up inception_5a/output
I0813 21:16:15.109935  7338 net.cpp:148] Top shape: 32 832 7 7 (1304576)
I0813 21:16:15.109938  7338 net.cpp:156] Memory required for data: 1746332168
I0813 21:16:15.109941  7338 layer_factory.hpp:77] Creating layer inception_5a/output_inception_5a/output_0_split
I0813 21:16:15.109948  7338 net.cpp:91] Creating Layer inception_5a/output_inception_5a/output_0_split
I0813 21:16:15.109952  7338 net.cpp:469] inception_5a/output_inception_5a/output_0_split <- inception_5a/output
I0813 21:16:15.109959  7338 net.cpp:443] inception_5a/output_inception_5a/output_0_split -> inception_5a/output_inception_5a/output_0_split_0
I0813 21:16:15.109966  7338 net.cpp:443] inception_5a/output_inception_5a/output_0_split -> inception_5a/output_inception_5a/output_0_split_1
I0813 21:16:15.109972  7338 net.cpp:443] inception_5a/output_inception_5a/output_0_split -> inception_5a/output_inception_5a/output_0_split_2
I0813 21:16:15.109980  7338 net.cpp:443] inception_5a/output_inception_5a/output_0_split -> inception_5a/output_inception_5a/output_0_split_3
I0813 21:16:15.110052  7338 net.cpp:141] Setting up inception_5a/output_inception_5a/output_0_split
I0813 21:16:15.110059  7338 net.cpp:148] Top shape: 32 832 7 7 (1304576)
I0813 21:16:15.110064  7338 net.cpp:148] Top shape: 32 832 7 7 (1304576)
I0813 21:16:15.110067  7338 net.cpp:148] Top shape: 32 832 7 7 (1304576)
I0813 21:16:15.110071  7338 net.cpp:148] Top shape: 32 832 7 7 (1304576)
I0813 21:16:15.110075  7338 net.cpp:156] Memory required for data: 1767205384
I0813 21:16:15.110079  7338 layer_factory.hpp:77] Creating layer inception_5b/1x1
I0813 21:16:15.110090  7338 net.cpp:91] Creating Layer inception_5b/1x1
I0813 21:16:15.110095  7338 net.cpp:469] inception_5b/1x1 <- inception_5a/output_inception_5a/output_0_split_0
I0813 21:16:15.110102  7338 net.cpp:443] inception_5b/1x1 -> inception_5b/1x1
I0813 21:16:15.113839  7338 net.cpp:141] Setting up inception_5b/1x1
I0813 21:16:15.113855  7338 net.cpp:148] Top shape: 32 384 7 7 (602112)
I0813 21:16:15.113860  7338 net.cpp:156] Memory required for data: 1769613832
I0813 21:16:15.113867  7338 layer_factory.hpp:77] Creating layer inception_5b/relu_1x1
I0813 21:16:15.113876  7338 net.cpp:91] Creating Layer inception_5b/relu_1x1
I0813 21:16:15.113881  7338 net.cpp:469] inception_5b/relu_1x1 <- inception_5b/1x1
I0813 21:16:15.113888  7338 net.cpp:430] inception_5b/relu_1x1 -> inception_5b/1x1 (in-place)
I0813 21:16:15.114240  7338 net.cpp:141] Setting up inception_5b/relu_1x1
I0813 21:16:15.114254  7338 net.cpp:148] Top shape: 32 384 7 7 (602112)
I0813 21:16:15.114259  7338 net.cpp:156] Memory required for data: 1772022280
I0813 21:16:15.114262  7338 layer_factory.hpp:77] Creating layer inception_5b/3x3_reduce
I0813 21:16:15.114279  7338 net.cpp:91] Creating Layer inception_5b/3x3_reduce
I0813 21:16:15.114290  7338 net.cpp:469] inception_5b/3x3_reduce <- inception_5a/output_inception_5a/output_0_split_1
I0813 21:16:15.114298  7338 net.cpp:443] inception_5b/3x3_reduce -> inception_5b/3x3_reduce
I0813 21:16:15.116853  7338 net.cpp:141] Setting up inception_5b/3x3_reduce
I0813 21:16:15.116868  7338 net.cpp:148] Top shape: 32 192 7 7 (301056)
I0813 21:16:15.116873  7338 net.cpp:156] Memory required for data: 1773226504
I0813 21:16:15.116880  7338 layer_factory.hpp:77] Creating layer inception_5b/relu_3x3_reduce
I0813 21:16:15.116889  7338 net.cpp:91] Creating Layer inception_5b/relu_3x3_reduce
I0813 21:16:15.116895  7338 net.cpp:469] inception_5b/relu_3x3_reduce <- inception_5b/3x3_reduce
I0813 21:16:15.116901  7338 net.cpp:430] inception_5b/relu_3x3_reduce -> inception_5b/3x3_reduce (in-place)
I0813 21:16:15.117270  7338 net.cpp:141] Setting up inception_5b/relu_3x3_reduce
I0813 21:16:15.117285  7338 net.cpp:148] Top shape: 32 192 7 7 (301056)
I0813 21:16:15.117290  7338 net.cpp:156] Memory required for data: 1774430728
I0813 21:16:15.117293  7338 layer_factory.hpp:77] Creating layer inception_5b/3x3
I0813 21:16:15.117306  7338 net.cpp:91] Creating Layer inception_5b/3x3
I0813 21:16:15.117312  7338 net.cpp:469] inception_5b/3x3 <- inception_5b/3x3_reduce
I0813 21:16:15.117321  7338 net.cpp:443] inception_5b/3x3 -> inception_5b/3x3
I0813 21:16:15.123675  7338 net.cpp:141] Setting up inception_5b/3x3
I0813 21:16:15.123694  7338 net.cpp:148] Top shape: 32 384 7 7 (602112)
I0813 21:16:15.123699  7338 net.cpp:156] Memory required for data: 1776839176
I0813 21:16:15.123706  7338 layer_factory.hpp:77] Creating layer inception_5b/relu_3x3
I0813 21:16:15.123713  7338 net.cpp:91] Creating Layer inception_5b/relu_3x3
I0813 21:16:15.123718  7338 net.cpp:469] inception_5b/relu_3x3 <- inception_5b/3x3
I0813 21:16:15.123724  7338 net.cpp:430] inception_5b/relu_3x3 -> inception_5b/3x3 (in-place)
I0813 21:16:15.123905  7338 net.cpp:141] Setting up inception_5b/relu_3x3
I0813 21:16:15.123916  7338 net.cpp:148] Top shape: 32 384 7 7 (602112)
I0813 21:16:15.123919  7338 net.cpp:156] Memory required for data: 1779247624
I0813 21:16:15.123924  7338 layer_factory.hpp:77] Creating layer inception_5b/5x5_reduce
I0813 21:16:15.123935  7338 net.cpp:91] Creating Layer inception_5b/5x5_reduce
I0813 21:16:15.123940  7338 net.cpp:469] inception_5b/5x5_reduce <- inception_5a/output_inception_5a/output_0_split_2
I0813 21:16:15.123949  7338 net.cpp:443] inception_5b/5x5_reduce -> inception_5b/5x5_reduce
I0813 21:16:15.125635  7338 net.cpp:141] Setting up inception_5b/5x5_reduce
I0813 21:16:15.125651  7338 net.cpp:148] Top shape: 32 48 7 7 (75264)
I0813 21:16:15.125656  7338 net.cpp:156] Memory required for data: 1779548680
I0813 21:16:15.125663  7338 layer_factory.hpp:77] Creating layer inception_5b/relu_5x5_reduce
I0813 21:16:15.125671  7338 net.cpp:91] Creating Layer inception_5b/relu_5x5_reduce
I0813 21:16:15.125675  7338 net.cpp:469] inception_5b/relu_5x5_reduce <- inception_5b/5x5_reduce
I0813 21:16:15.125684  7338 net.cpp:430] inception_5b/relu_5x5_reduce -> inception_5b/5x5_reduce (in-place)
I0813 21:16:15.126032  7338 net.cpp:141] Setting up inception_5b/relu_5x5_reduce
I0813 21:16:15.126049  7338 net.cpp:148] Top shape: 32 48 7 7 (75264)
I0813 21:16:15.126054  7338 net.cpp:156] Memory required for data: 1779849736
I0813 21:16:15.126057  7338 layer_factory.hpp:77] Creating layer inception_5b/5x5
I0813 21:16:15.126070  7338 net.cpp:91] Creating Layer inception_5b/5x5
I0813 21:16:15.126075  7338 net.cpp:469] inception_5b/5x5 <- inception_5b/5x5_reduce
I0813 21:16:15.126082  7338 net.cpp:443] inception_5b/5x5 -> inception_5b/5x5
I0813 21:16:15.127993  7338 net.cpp:141] Setting up inception_5b/5x5
I0813 21:16:15.128008  7338 net.cpp:148] Top shape: 32 128 7 7 (200704)
I0813 21:16:15.128012  7338 net.cpp:156] Memory required for data: 1780652552
I0813 21:16:15.128020  7338 layer_factory.hpp:77] Creating layer inception_5b/relu_5x5
I0813 21:16:15.128031  7338 net.cpp:91] Creating Layer inception_5b/relu_5x5
I0813 21:16:15.128044  7338 net.cpp:469] inception_5b/relu_5x5 <- inception_5b/5x5
I0813 21:16:15.128052  7338 net.cpp:430] inception_5b/relu_5x5 -> inception_5b/5x5 (in-place)
I0813 21:16:15.128408  7338 net.cpp:141] Setting up inception_5b/relu_5x5
I0813 21:16:15.128422  7338 net.cpp:148] Top shape: 32 128 7 7 (200704)
I0813 21:16:15.128425  7338 net.cpp:156] Memory required for data: 1781455368
I0813 21:16:15.128429  7338 layer_factory.hpp:77] Creating layer inception_5b/pool
I0813 21:16:15.128438  7338 net.cpp:91] Creating Layer inception_5b/pool
I0813 21:16:15.128443  7338 net.cpp:469] inception_5b/pool <- inception_5a/output_inception_5a/output_0_split_3
I0813 21:16:15.128451  7338 net.cpp:443] inception_5b/pool -> inception_5b/pool
I0813 21:16:15.128509  7338 net.cpp:141] Setting up inception_5b/pool
I0813 21:16:15.128517  7338 net.cpp:148] Top shape: 32 832 7 7 (1304576)
I0813 21:16:15.128521  7338 net.cpp:156] Memory required for data: 1786673672
I0813 21:16:15.128525  7338 layer_factory.hpp:77] Creating layer inception_5b/pool_proj
I0813 21:16:15.128537  7338 net.cpp:91] Creating Layer inception_5b/pool_proj
I0813 21:16:15.128541  7338 net.cpp:469] inception_5b/pool_proj <- inception_5b/pool
I0813 21:16:15.128548  7338 net.cpp:443] inception_5b/pool_proj -> inception_5b/pool_proj
I0813 21:16:15.130980  7338 net.cpp:141] Setting up inception_5b/pool_proj
I0813 21:16:15.130995  7338 net.cpp:148] Top shape: 32 128 7 7 (200704)
I0813 21:16:15.131000  7338 net.cpp:156] Memory required for data: 1787476488
I0813 21:16:15.131006  7338 layer_factory.hpp:77] Creating layer inception_5b/relu_pool_proj
I0813 21:16:15.131016  7338 net.cpp:91] Creating Layer inception_5b/relu_pool_proj
I0813 21:16:15.131021  7338 net.cpp:469] inception_5b/relu_pool_proj <- inception_5b/pool_proj
I0813 21:16:15.131027  7338 net.cpp:430] inception_5b/relu_pool_proj -> inception_5b/pool_proj (in-place)
I0813 21:16:15.131206  7338 net.cpp:141] Setting up inception_5b/relu_pool_proj
I0813 21:16:15.131217  7338 net.cpp:148] Top shape: 32 128 7 7 (200704)
I0813 21:16:15.131219  7338 net.cpp:156] Memory required for data: 1788279304
I0813 21:16:15.131223  7338 layer_factory.hpp:77] Creating layer inception_5b/output
I0813 21:16:15.131232  7338 net.cpp:91] Creating Layer inception_5b/output
I0813 21:16:15.131237  7338 net.cpp:469] inception_5b/output <- inception_5b/1x1
I0813 21:16:15.131242  7338 net.cpp:469] inception_5b/output <- inception_5b/3x3
I0813 21:16:15.131247  7338 net.cpp:469] inception_5b/output <- inception_5b/5x5
I0813 21:16:15.131250  7338 net.cpp:469] inception_5b/output <- inception_5b/pool_proj
I0813 21:16:15.131258  7338 net.cpp:443] inception_5b/output -> inception_5b/output
I0813 21:16:15.131295  7338 net.cpp:141] Setting up inception_5b/output
I0813 21:16:15.131302  7338 net.cpp:148] Top shape: 32 1024 7 7 (1605632)
I0813 21:16:15.131306  7338 net.cpp:156] Memory required for data: 1794701832
I0813 21:16:15.131309  7338 layer_factory.hpp:77] Creating layer pool5/7x7_s1
I0813 21:16:15.131319  7338 net.cpp:91] Creating Layer pool5/7x7_s1
I0813 21:16:15.131323  7338 net.cpp:469] pool5/7x7_s1 <- inception_5b/output
I0813 21:16:15.131328  7338 net.cpp:443] pool5/7x7_s1 -> pool5/7x7_s1
I0813 21:16:15.131711  7338 net.cpp:141] Setting up pool5/7x7_s1
I0813 21:16:15.131724  7338 net.cpp:148] Top shape: 32 1024 1 1 (32768)
I0813 21:16:15.131728  7338 net.cpp:156] Memory required for data: 1794832904
I0813 21:16:15.131732  7338 layer_factory.hpp:77] Creating layer pool5/drop_7x7_s1
I0813 21:16:15.131742  7338 net.cpp:91] Creating Layer pool5/drop_7x7_s1
I0813 21:16:15.131747  7338 net.cpp:469] pool5/drop_7x7_s1 <- pool5/7x7_s1
I0813 21:16:15.131752  7338 net.cpp:430] pool5/drop_7x7_s1 -> pool5/7x7_s1 (in-place)
I0813 21:16:15.131791  7338 net.cpp:141] Setting up pool5/drop_7x7_s1
I0813 21:16:15.131798  7338 net.cpp:148] Top shape: 32 1024 1 1 (32768)
I0813 21:16:15.131803  7338 net.cpp:156] Memory required for data: 1794963976
I0813 21:16:15.131805  7338 layer_factory.hpp:77] Creating layer loss3/classifier
I0813 21:16:15.131825  7338 net.cpp:91] Creating Layer loss3/classifier
I0813 21:16:15.131830  7338 net.cpp:469] loss3/classifier <- pool5/7x7_s1
I0813 21:16:15.131839  7338 net.cpp:443] loss3/classifier -> loss3/classifier
I0813 21:16:15.139838  7338 net.cpp:141] Setting up loss3/classifier
I0813 21:16:15.139854  7338 net.cpp:148] Top shape: 32 1000 (32000)
I0813 21:16:15.139858  7338 net.cpp:156] Memory required for data: 1795091976
I0813 21:16:15.139864  7338 layer_factory.hpp:77] Creating layer loss3/loss3
I0813 21:16:15.139873  7338 net.cpp:91] Creating Layer loss3/loss3
I0813 21:16:15.139878  7338 net.cpp:469] loss3/loss3 <- loss3/classifier
I0813 21:16:15.139883  7338 net.cpp:469] loss3/loss3 <- label_data_1_split_2
I0813 21:16:15.139888  7338 net.cpp:443] loss3/loss3 -> loss3/loss3
…
