…
I0813 20:53:26.383595   859 net.cpp:313] The NetState phase (0) differed from the phase (1) specified by a rule in layer accuracy
I0813 20:53:26.384495   859 net.cpp:49] Initializing net from parameters: 
name: "shufflenet"
state {
  phase: TRAIN
}
layer {
  name: "data"
  type: "Data"
  top: "data"
  top: "label"
  include {
    phase: TRAIN
  }
  transform_param {
    scale: 0.017
    mirror: false
    crop_size: 224
    mean_value: 103.94
    mean_value: 116.78
    mean_value: 123.68
  }
  data_param {
    source: "/home/chenyao/ilsvrc12/ilsvrc12_train_lmdb"
    batch_size: 80
    backend: LMDB
  }
}
layer {
  name: "conv1"
  type: "Convolution"
  bottom: "data"
  top: "conv1"
  convolution_param {
    num_output: 24
    bias_term: false
    pad: 1
    kernel_size: 3
    stride: 2
    weight_filler {
      type: "msra"
    }
  }
}
layer {
  name: "conv1_bn"
  type: "BatchNorm"
  bottom: "conv1"
  top: "conv1"
  param {
    lr_mult: 0
    decay_mult: 0
  }
  param {
    lr_mult: 0
    decay_mult: 0
  }
  param {
    lr_mult: 0
    decay_mult: 0
  }
}
layer {
  name: "conv1_scale"
  type: "Scale"
  bottom: "conv1"
  top: "conv1"
  scale_param {
    filler {
      value: 1
    }
    bias_term: true
    bias_filler {
      value: 0
    }
  }
}
layer {
  name: "conv1_relu"
  type: "ReLU"
  bottom: "conv1"
  top: "conv1"
}
layer {
  name: "pool1"
  type: "Pooling"
  bottom: "conv1"
  top: "pool1"
  pooling_param {
    pool: MAX
    kernel_size: 3
    stride: 2
  }
}
layer {
  name: "resx1_match_conv"
  type: "Pooling"
  bottom: "pool1"
  top: "resx1_match_conv"
  pooling_param {
    pool: AVE
    kernel_size: 3
    stride: 2
  }
}
layer {
  name: "resx1_conv1"
  type: "Convolution"
  bottom: "pool1"
  top: "resx1_conv1"
  convolution_param {
    num_output: 54
    bias_term: false
    pad: 0
    kernel_size: 1
    stride: 1
    weight_filler {
      type: "msra"
    }
  }
}
layer {
  name: "resx1_conv1_bn"
  type: "BatchNorm"
  bottom: "resx1_conv1"
  top: "resx1_conv1"
  param {
    lr_mult: 0
    decay_mult: 0
  }
  param {
    lr_mult: 0
    decay_mult: 0
  }
  param {
    lr_mult: 0
    decay_mult: 0
  }
}
layer {
  name: "resx1_conv1_scale"
  type: "Scale"
  bottom: "resx1_conv1"
  top: "resx1_conv1"
  scale_param {
    filler {
      value: 1
    }
    bias_term: true
    bias_filler {
      value: 0
    }
  }
}
layer {
  name: "resx1_conv1_relu"
  type: "ReLU"
  bottom: "resx1_conv1"
  top: "resx1_conv1"
}
layer {
  name: "resx1_conv2"
  type: "ConvolutionDepthwise"
  bottom: "resx1_conv1"
  top: "resx1_conv2"
  convolution_param {
    num_output: 54
    bias_term: false
    pad: 1
    kernel_size: 3
    stride: 2
    weight_filler {
      type: "msra"
    }
  }
}
layer {
  name: "resx1_conv2_bn"
  type: "BatchNorm"
  bottom: "resx1_conv2"
  top: "resx1_conv2"
  param {
    lr_mult: 0
    decay_mult: 0
  }
  param {
    lr_mult: 0
    decay_mult: 0
  }
  param {
    lr_mult: 0
    decay_mult: 0
  }
}
layer {
  name: "resx1_conv2_scale"
  type: "Scale"
  bottom: "resx1_conv2"
  top: "resx1_conv2"
  scale_param {
    filler {
      value: 1
    }
    bias_term: true
    bias_filler {
      value: 0
    }
  }
}
layer {
  name: "resx1_conv3"
  type: "Convolution"
  bottom: "resx1_conv2"
  top: "resx1_conv3"
  convolution_param {
    num_output: 216
    bias_term: false
    pad: 0
    kernel_size: 1
    group: 3
    stride: 1
    weight_filler {
      type: "msra"
    }
  }
}
layer {
  name: "resx1_conv3_bn"
  type: "BatchNorm"
  bottom: "resx1_conv3"
  top: "resx1_conv3"
  param {
    lr_mult: 0
    decay_mult: 0
  }
  param {
    lr_mult: 0
    decay_mult: 0
  }
  param {
    lr_mult: 0
    decay_mult: 0
  }
}
layer {
  name: "resx1_conv3_scale"
  type: "Scale"
  bottom: "resx1_conv3"
  top: "resx1_conv3"
  scale_param {
    filler {
      value: 1
    }
    bias_term: true
    bias_filler {
      value: 0
    }
  }
}
layer {
  name: "resx1_concat"
  type: "Concat"
  bottom: "resx1_match_conv"
  bottom: "resx1_conv3"
  top: "resx1_concat"
}
layer {
  name: "resx1_concat_relu"
  type: "ReLU"
  bottom: "resx1_concat"
  top: "resx1_concat"
}
layer {
  name: "resx2_conv1"
  type: "Convolution"
  bottom: "resx1_concat"
  top: "resx2_conv1"
  convolution_param {
    num_output: 60
    bias_term: false
    pad: 0
    kernel_size: 1
    group: 3
    stride: 1
    weight_filler {
      type: "msra"
    }
  }
}
layer {
  name: "resx2_conv1_bn"
  type: "BatchNorm"
  bottom: "resx2_conv1"
  top: "resx2_conv1"
  param {
    lr_mult: 0
    decay_mult: 0
  }
  param {
    lr_mult: 0
    decay_mult: 0
  }
  param {
    lr_mult: 0
    decay_mult: 0
  }
}
layer {
  name: "resx2_conv1_scale"
  type: "Scale"
  bottom: "resx2_conv1"
  top: "resx2_conv1"
  scale_param {
    filler {
      value: 1
    }
    bias_term: true
    bias_filler {
      value: 0
    }
  }
}
layer {
  name: "resx2_conv1_relu"
  type: "ReLU"
  bottom: "resx2_conv1"
  top: "resx2_conv1"
}
layer {
  name: "shuffle2"
  type: "ShuffleChannel"
  bottom: "resx2_conv1"
  top: "shuffle2"
  shuffle_channel_param {
    group: 3
  }
}
layer {
  name: "resx2_conv2"
  type: "ConvolutionDepthwise"
  bottom: "shuffle2"
  top: "resx2_conv2"
  convolution_param {
    num_output: 60
    bias_term: false
    pad: 1
    kernel_size: 3
    stride: 1
    weight_filler {
      type: "msra"
    }
  }
}
layer {
  name: "resx2_conv2_bn"
  type: "BatchNorm"
  bottom: "resx2_conv2"
  top: "resx2_conv2"
  param {
    lr_mult: 0
    decay_mult: 0
  }
  param {
    lr_mult: 0
    decay_mult: 0
  }
  param {
    lr_mult: 0
    decay_mult: 0
  }
}
layer {
  name: "resx2_conv2_scale"
  type: "Scale"
  bottom: "resx2_conv2"
  top: "resx2_conv2"
  scale_param {
    filler {
      value: 1
    }
    bias_term: true
    bias_filler {
      value: 0
    }
  }
}
layer {
  name: "resx2_conv3"
  type: "Convolution"
  bottom: "resx2_conv2"
  top: "resx2_conv3"
  convolution_param {
    num_output: 240
    bias_term: false
    pad: 0
    kernel_size: 1
    group: 3
    stride: 1
    weight_filler {
      type: "msra"
    }
  }
}
layer {
  name: "resx2_conv3_bn"
  type: "BatchNorm"
  bottom: "resx2_conv3"
  top: "resx2_conv3"
  param {
    lr_mult: 0
    decay_mult: 0
  }
  param {
    lr_mult: 0
    decay_mult: 0
  }
  param {
    lr_mult: 0
    decay_mult: 0
  }
}
layer {
  name: "resx2_conv3_scale"
  type: "Scale"
  bottom: "resx2_conv3"
  top: "resx2_conv3"
  scale_param {
    filler {
      value: 1
    }
    bias_term: true
    bias_filler {
      value: 0
    }
  }
}
layer {
  name: "resx2_elewise"
  type: "Eltwise"
  bottom: "resx1_concat"
  bottom: "resx2_conv3"
  top: "resx2_elewise"
  eltwise_param {
    operation: SUM
  }
}
layer {
  name: "resx2_elewise_relu"
  type: "ReLU"
  bottom: "resx2_elewise"
  top: "resx2_elewise"
}
layer {
  name: "resx3_conv1"
  type: "Convolution"
  bottom: "resx2_elewise"
  top: "resx3_conv1"
  convolution_param {
    num_output: 60
    bias_term: false
    pad: 0
    kernel_size: 1
    group: 3
    stride: 1
    weight_filler {
      type: "msra"
    }
  }
}
layer {
  name: "resx3_conv1_bn"
  type: "BatchNorm"
  bottom: "resx3_conv1"
  top: "resx3_conv1"
  param {
    lr_mult: 0
    decay_mult: 0
  }
  param {
    lr_mult: 0
    decay_mult: 0
  }
  param {
    lr_mult: 0
    decay_mult: 0
  }
}
layer {
  name: "resx3_conv1_scale"
  type: "Scale"
  bottom: "resx3_conv1"
  top: "resx3_conv1"
  scale_param {
    filler {
      value: 1
    }
    bias_term: true
    bias_filler {
      value: 0
    }
  }
}
layer {
  name: "resx3_conv1_relu"
  type: "ReLU"
  bottom: "resx3_conv1"
  top: "resx3_conv1"
}
layer {
  name: "shuffle3"
  type: "ShuffleChannel"
  bottom: "resx3_conv1"
  top: "shuffle3"
  shuffle_channel_param {
    group: 3
  }
}
layer {
  name: "resx3_conv2"
  type: "ConvolutionDepthwise"
  bottom: "shuffle3"
  top: "resx3_conv2"
  convolution_param {
    num_output: 60
    bias_term: false
    pad: 1
    kernel_size: 3
    stride: 1
    weight_filler {
      type: "msra"
    }
  }
}
layer {
  name: "resx3_conv2_bn"
  type: "BatchNorm"
  bottom: "resx3_conv2"
  top: "resx3_conv2"
  param {
    lr_mult: 0
    decay_mult: 0
  }
  param {
    lr_mult: 0
    decay_mult: 0
  }
  param {
    lr_mult: 0
    decay_mult: 0
  }
}
layer {
  name: "resx3_conv2_scale"
  type: "Scale"
  bottom: "resx3_conv2"
  top: "resx3_conv2"
  scale_param {
    filler {
      value: 1
    }
    bias_term: true
    bias_filler {
      value: 0
    }
  }
}
layer {
  name: "resx3_conv3"
  type: "Convolution"
  bottom: "resx3_conv2"
  top: "resx3_conv3"
  convolution_param {
    num_output: 240
    bias_term: false
    pad: 0
    kernel_size: 1
    group: 3
    stride: 1
    weight_filler {
      type: "msra"
    }
  }
}
layer {
  name: "resx3_conv3_bn"
  type: "BatchNorm"
  bottom: "resx3_conv3"
  top: "resx3_conv3"
  param {
    lr_mult: 0
    decay_mult: 0
  }
  param {
    lr_mult: 0
    decay_mult: 0
  }
  param {
    lr_mult: 0
    decay_mult: 0
  }
}
layer {
  name: "resx3_conv3_scale"
  type: "Scale"
  bottom: "resx3_conv3"
  top: "resx3_conv3"
  scale_param {
    filler {
      value: 1
    }
    bias_term: true
    bias_filler {
      value: 0
    }
  }
}
layer {
  name: "resx3_elewise"
  type: "Eltwise"
  bottom: "resx2_elewise"
  bottom: "resx3_conv3"
  top: "resx3_elewise"
  eltwise_param {
    operation: SUM
  }
}
layer {
  name: "resx3_elewise_relu"
  type: "ReLU"
  bottom: "resx3_elewise"
  top: "resx3_elewise"
}
layer {
  name: "resx4_conv1"
  type: "Convolution"
  bottom: "resx3_elewise"
  top: "resx4_conv1"
  convolution_param {
    num_output: 60
    bias_term: false
    pad: 0
    kernel_size: 1
    group: 3
    stride: 1
    weight_filler {
      type: "msra"
    }
  }
}
layer {
  name: "resx4_conv1_bn"
  type: "BatchNorm"
  bottom: "resx4_conv1"
  top: "resx4_conv1"
  param {
    lr_mult: 0
    decay_mult: 0
  }
  param {
    lr_mult: 0
    decay_mult: 0
  }
  param {
    lr_mult: 0
    decay_mult: 0
  }
}
layer {
  name: "resx4_conv1_scale"
  type: "Scale"
  bottom: "resx4_conv1"
  top: "resx4_conv1"
  scale_param {
    filler {
      value: 1
    }
    bias_term: true
    bias_filler {
      value: 0
    }
  }
}
layer {
  name: "resx4_conv1_relu"
  type: "ReLU"
  bottom: "resx4_conv1"
  top: "resx4_conv1"
}
layer {
  name: "shuffle4"
  type: "ShuffleChannel"
  bottom: "resx4_conv1"
  top: "shuffle4"
  shuffle_channel_param {
    group: 3
  }
}
layer {
  name: "resx4_conv2"
  type: "ConvolutionDepthwise"
  bottom: "shuffle4"
  top: "resx4_conv2"
  convolution_param {
    num_output: 60
    bias_term: false
    pad: 1
    kernel_size: 3
    stride: 1
    weight_filler {
      type: "msra"
    }
  }
}
layer {
  name: "resx4_conv2_bn"
  type: "BatchNorm"
  bottom: "resx4_conv2"
  top: "resx4_conv2"
  param {
    lr_mult: 0
    decay_mult: 0
  }
  param {
    lr_mult: 0
    decay_mult: 0
  }
  param {
    lr_mult: 0
    decay_mult: 0
  }
}
layer {
  name: "resx4_conv2_scale"
  type: "Scale"
  bottom: "resx4_conv2"
  top: "resx4_conv2"
  scale_param {
    filler {
      value: 1
    }
    bias_term: true
    bias_filler {
      value: 0
    }
  }
}
layer {
  name: "resx4_conv3"
  type: "Convolution"
  bottom: "resx4_conv2"
  top: "resx4_conv3"
  convolution_param {
    num_output: 240
    bias_term: false
    pad: 0
    kernel_size: 1
    group: 3
    stride: 1
    weight_filler {
      type: "msra"
    }
  }
}
layer {
  name: "resx4_conv3_bn"
  type: "BatchNorm"
  bottom: "resx4_conv3"
  top: "resx4_conv3"
  param {
    lr_mult: 0
    decay_mult: 0
  }
  param {
    lr_mult: 0
    decay_mult: 0
  }
  param {
    lr_mult: 0
    decay_mult: 0
  }
}
layer {
  name: "resx4_conv3_scale"
  type: "Scale"
  bottom: "resx4_conv3"
  top: "resx4_conv3"
  scale_param {
    filler {
      value: 1
    }
    bias_term: true
    bias_filler {
      value: 0
    }
  }
}
layer {
  name: "resx4_elewise"
  type: "Eltwise"
  bottom: "resx3_elewise"
  bottom: "resx4_conv3"
  top: "resx4_elewise"
  eltwise_param {
    operation: SUM
  }
}
layer {
  name: "resx4_elewise_relu"
  type: "ReLU"
  bottom: "resx4_elewise"
  top: "resx4_elewise"
}
layer {
  name: "resx5_match_conv"
  type: "Pooling"
  bottom: "resx4_elewise"
  top: "resx5_match_conv"
  pooling_param {
    pool: AVE
    kernel_size: 3
    stride: 2
  }
}
layer {
  name: "resx5_conv1"
  type: "Convolution"
  bottom: "resx4_elewise"
  top: "resx5_conv1"
  convolution_param {
    num_output: 60
    bias_term: false
    pad: 0
    kernel_size: 1
    group: 3
    stride: 1
    weight_filler {
      type: "msra"
    }
  }
}
layer {
  name: "resx5_conv1_bn"
  type: "BatchNorm"
  bottom: "resx5_conv1"
  top: "resx5_conv1"
  param {
    lr_mult: 0
    decay_mult: 0
  }
  param {
    lr_mult: 0
    decay_mult: 0
  }
  param {
    lr_mult: 0
    decay_mult: 0
  }
}
layer {
  name: "resx5_conv1_scale"
  type: "Scale"
  bottom: "resx5_conv1"
  top: "resx5_conv1"
  scale_param {
    filler {
      value: 1
    }
    bias_term: true
    bias_filler {
      value: 0
    }
  }
}
layer {
  name: "resx5_conv1_relu"
  type: "ReLU"
  bottom: "resx5_conv1"
  top: "resx5_conv1"
}
layer {
  name: "shuffle5"
  type: "ShuffleChannel"
  bottom: "resx5_conv1"
  top: "shuffle5"
  shuffle_channel_param {
    group: 3
  }
}
layer {
  name: "resx5_conv2"
  type: "ConvolutionDepthwise"
  bottom: "shuffle5"
  top: "resx5_conv2"
  convolution_param {
    num_output: 60
    bias_term: false
    pad: 1
    kernel_size: 3
    stride: 2
    weight_filler {
      type: "msra"
    }
  }
}
layer {
  name: "resx5_conv2_bn"
  type: "BatchNorm"
  bottom: "resx5_conv2"
  top: "resx5_conv2"
  param {
    lr_mult: 0
    decay_mult: 0
  }
  param {
    lr_mult: 0
    decay_mult: 0
  }
  param {
    lr_mult: 0
    decay_mult: 0
  }
}
layer {
  name: "resx5_conv2_scale"
  type: "Scale"
  bottom: "resx5_conv2"
  top: "resx5_conv2"
  scale_param {
    filler {
      value: 1
    }
    bias_term: true
    bias_filler {
      value: 0
    }
  }
}
layer {
  name: "resx5_conv3"
  type: "Convolution"
  bottom: "resx5_conv2"
  top: "resx5_conv3"
  convolution_param {
    num_output: 240
    bias_term: false
    pad: 0
    kernel_size: 1
    group: 3
    stride: 1
    weight_filler {
      type: "msra"
    }
  }
}
layer {
  name: "resx5_conv3_bn"
  type: "BatchNorm"
  bottom: "resx5_conv3"
  top: "resx5_conv3"
  param {
    lr_mult: 0
    decay_mult: 0
  }
  param {
    lr_mult: 0
    decay_mult: 0
  }
  param {
    lr_mult: 0
    decay_mult: 0
  }
}
layer {
  name: "resx5_conv3_scale"
  type: "Scale"
  bottom: "resx5_conv3"
  top: "resx5_conv3"
  scale_param {
    filler {
      value: 1
    }
    bias_term: true
    bias_filler {
      value: 0
    }
  }
}
layer {
  name: "resx5_concat"
  type: "Concat"
  bottom: "resx5_match_conv"
  bottom: "resx5_conv3"
  top: "resx5_concat"
}
layer {
  name: "resx5_concat_relu"
  type: "ReLU"
  bottom: "resx5_concat"
  top: "resx5_concat"
}
layer {
  name: "resx6_conv1"
  type: "Convolution"
  bottom: "resx5_concat"
  top: "resx6_conv1"
  convolution_param {
    num_output: 120
    bias_term: false
    pad: 0
    kernel_size: 1
    group: 3
    stride: 1
    weight_filler {
      type: "msra"
    }
  }
}
layer {
  name: "resx6_conv1_bn"
  type: "BatchNorm"
  bottom: "resx6_conv1"
  top: "resx6_conv1"
  param {
    lr_mult: 0
    decay_mult: 0
  }
  param {
    lr_mult: 0
    decay_mult: 0
  }
  param {
    lr_mult: 0
    decay_mult: 0
  }
}
layer {
  name: "resx6_conv1_scale"
  type: "Scale"
  bottom: "resx6_conv1"
  top: "resx6_conv1"
  scale_param {
    filler {
      value: 1
    }
    bias_term: true
    bias_filler {
      value: 0
    }
  }
}
layer {
  name: "resx6_conv1_relu"
  type: "ReLU"
  bottom: "resx6_conv1"
  top: "resx6_conv1"
}
layer {
  name: "shuffle6"
  type: "ShuffleChannel"
  bottom: "resx6_conv1"
  top: "shuffle6"
  shuffle_channel_param {
    group: 3
  }
}
layer {
  name: "resx6_conv2"
  type: "ConvolutionDepthwise"
  bottom: "shuffle6"
  top: "resx6_conv2"
  convolution_param {
    num_output: 120
    bias_term: false
    pad: 1
    kernel_size: 3
    stride: 1
    weight_filler {
      type: "msra"
    }
  }
}
layer {
  name: "resx6_conv2_bn"
  type: "BatchNorm"
  bottom: "resx6_conv2"
  top: "resx6_conv2"
  param {
    lr_mult: 0
    decay_mult: 0
  }
  param {
    lr_mult: 0
    decay_mult: 0
  }
  param {
    lr_mult: 0
    decay_mult: 0
  }
}
layer {
  name: "resx6_conv2_scale"
  type: "Scale"
  bottom: "resx6_conv2"
  top: "resx6_conv2"
  scale_param {
    filler {
      value: 1
    }
    bias_term: true
    bias_filler {
      value: 0
    }
  }
}
layer {
  name: "resx6_conv3"
  type: "Convolution"
  bottom: "resx6_conv2"
  top: "resx6_conv3"
  convolution_param {
    num_output: 480
    bias_term: false
    pad: 0
    kernel_size: 1
    group: 3
    stride: 1
    weight_filler {
      type: "msra"
    }
  }
}
layer {
  name: "resx6_conv3_bn"
  type: "BatchNorm"
  bottom: "resx6_conv3"
  top: "resx6_conv3"
  param {
    lr_mult: 0
    decay_mult: 0
  }
  param {
    lr_mult: 0
    decay_mult: 0
  }
  param {
    lr_mult: 0
    decay_mult: 0
  }
}
layer {
  name: "resx6_conv3_scale"
  type: "Scale"
  bottom: "resx6_conv3"
  top: "resx6_conv3"
  scale_param {
    filler {
      value: 1
    }
    bias_term: true
    bias_filler {
      value: 0
    }
  }
}
layer {
  name: "resx6_elewise"
  type: "Eltwise"
  bottom: "resx5_concat"
  bottom: "resx6_conv3"
  top: "resx6_elewise"
  eltwise_param {
    operation: SUM
  }
}
layer {
  name: "resx6_elewise_relu"
  type: "ReLU"
  bottom: "resx6_elewise"
  top: "resx6_elewise"
}
layer {
  name: "resx7_conv1"
  type: "Convolution"
  bottom: "resx6_elewise"
  top: "resx7_conv1"
  convolution_param {
    num_output: 120
    bias_term: false
    pad: 0
    kernel_size: 1
    group: 3
    stride: 1
    weight_filler {
      type: "msra"
    }
  }
}
layer {
  name: "resx7_conv1_bn"
  type: "BatchNorm"
  bottom: "resx7_conv1"
  top: "resx7_conv1"
  param {
    lr_mult: 0
    decay_mult: 0
  }
  param {
    lr_mult: 0
    decay_mult: 0
  }
  param {
    lr_mult: 0
    decay_mult: 0
  }
}
layer {
  name: "resx7_conv1_scale"
  type: "Scale"
  bottom: "resx7_conv1"
  top: "resx7_conv1"
  scale_param {
    filler {
      value: 1
    }
    bias_term: true
    bias_filler {
      value: 0
    }
  }
}
layer {
  name: "resx7_conv1_relu"
  type: "ReLU"
  bottom: "resx7_conv1"
  top: "resx7_conv1"
}
layer {
  name: "shuffle7"
  type: "ShuffleChannel"
  bottom: "resx7_conv1"
  top: "shuffle7"
  shuffle_channel_param {
    group: 3
  }
}
layer {
  name: "resx7_conv2"
  type: "ConvolutionDepthwise"
  bottom: "shuffle7"
  top: "resx7_conv2"
  convolution_param {
    num_output: 120
    bias_term: false
    pad: 1
    kernel_size: 3
    stride: 1
    weight_filler {
      type: "msra"
    }
  }
}
layer {
  name: "resx7_conv2_bn"
  type: "BatchNorm"
  bottom: "resx7_conv2"
  top: "resx7_conv2"
  param {
    lr_mult: 0
    decay_mult: 0
  }
  param {
    lr_mult: 0
    decay_mult: 0
  }
  param {
    lr_mult: 0
    decay_mult: 0
  }
}
layer {
  name: "resx7_conv2_scale"
  type: "Scale"
  bottom: "resx7_conv2"
  top: "resx7_conv2"
  scale_param {
    filler {
      value: 1
    }
    bias_term: true
    bias_filler {
      value: 0
    }
  }
}
layer {
  name: "resx7_conv3"
  type: "Convolution"
  bottom: "resx7_conv2"
  top: "resx7_conv3"
  convolution_param {
    num_output: 480
    bias_term: false
    pad: 0
    kernel_size: 1
    group: 3
    stride: 1
    weight_filler {
      type: "msra"
    }
  }
}
layer {
  name: "resx7_conv3_bn"
  type: "BatchNorm"
  bottom: "resx7_conv3"
  top: "resx7_conv3"
  param {
    lr_mult: 0
    decay_mult: 0
  }
  param {
    lr_mult: 0
    decay_mult: 0
  }
  param {
    lr_mult: 0
    decay_mult: 0
  }
}
layer {
  name: "resx7_conv3_scale"
  type: "Scale"
  bottom: "resx7_conv3"
  top: "resx7_conv3"
  scale_param {
    filler {
      value: 1
    }
    bias_term: true
    bias_filler {
      value: 0
    }
  }
}
layer {
  name: "resx7_elewise"
  type: "Eltwise"
  bottom: "resx6_elewise"
  bottom: "resx7_conv3"
  top: "resx7_elewise"
  eltwise_param {
    operation: SUM
  }
}
layer {
  name: "resx7_elewise_relu"
  type: "ReLU"
  bottom: "resx7_elewise"
  top: "resx7_elewise"
}
layer {
  name: "resx8_conv1"
  type: "Convolution"
  bottom: "resx7_elewise"
  top: "resx8_conv1"
  convolution_param {
    num_output: 120
    bias_term: false
    pad: 0
    kernel_size: 1
    group: 3
    stride: 1
    weight_filler {
      type: "msra"
    }
  }
}
layer {
  name: "resx8_conv1_bn"
  type: "BatchNorm"
  bottom: "resx8_conv1"
  top: "resx8_conv1"
  param {
    lr_mult: 0
    decay_mult: 0
  }
  param {
    lr_mult: 0
    decay_mult: 0
  }
  param {
    lr_mult: 0
    decay_mult: 0
  }
}
layer {
  name: "resx8_conv1_scale"
  type: "Scale"
  bottom: "resx8_conv1"
  top: "resx8_conv1"
  scale_param {
    filler {
      value: 1
    }
    bias_term: true
    bias_filler {
      value: 0
    }
  }
}
layer {
  name: "resx8_conv1_relu"
  type: "ReLU"
  bottom: "resx8_conv1"
  top: "resx8_conv1"
}
layer {
  name: "shuffle8"
  type: "ShuffleChannel"
  bottom: "resx8_conv1"
  top: "shuffle8"
  shuffle_channel_param {
    group: 3
  }
}
layer {
  name: "resx8_conv2"
  type: "ConvolutionDepthwise"
  bottom: "shuffle8"
  top: "resx8_conv2"
  convolution_param {
    num_output: 120
    bias_term: false
    pad: 1
    kernel_size: 3
    stride: 1
    weight_filler {
      type: "msra"
    }
  }
}
layer {
  name: "resx8_conv2_bn"
  type: "BatchNorm"
  bottom: "resx8_conv2"
  top: "resx8_conv2"
  param {
    lr_mult: 0
    decay_mult: 0
  }
  param {
    lr_mult: 0
    decay_mult: 0
  }
  param {
    lr_mult: 0
    decay_mult: 0
  }
}
layer {
  name: "resx8_conv2_scale"
  type: "Scale"
  bottom: "resx8_conv2"
  top: "resx8_conv2"
  scale_param {
    filler {
      value: 1
    }
    bias_term: true
    bias_filler {
      value: 0
    }
  }
}
layer {
  name: "resx8_conv3"
  type: "Convolution"
  bottom: "resx8_conv2"
  top: "resx8_conv3"
  convolution_param {
    num_output: 480
    bias_term: false
    pad: 0
    kernel_size: 1
    group: 3
    stride: 1
    weight_filler {
      type: "msra"
    }
  }
}
layer {
  name: "resx8_conv3_bn"
  type: "BatchNorm"
  bottom: "resx8_conv3"
  top: "resx8_conv3"
  param {
    lr_mult: 0
    decay_mult: 0
  }
  param {
    lr_mult: 0
    decay_mult: 0
  }
  param {
    lr_mult: 0
    decay_mult: 0
  }
}
layer {
  name: "resx8_conv3_scale"
  type: "Scale"
  bottom: "resx8_conv3"
  top: "resx8_conv3"
  scale_param {
    filler {
      value: 1
    }
    bias_term: true
    bias_filler {
      value: 0
    }
  }
}
layer {
  name: "resx8_elewise"
  type: "Eltwise"
  bottom: "resx7_elewise"
  bottom: "resx8_conv3"
  top: "resx8_elewise"
  eltwise_param {
    operation: SUM
  }
}
layer {
  name: "resx8_elewise_relu"
  type: "ReLU"
  bottom: "resx8_elewise"
  top: "resx8_elewise"
}
layer {
  name: "resx9_conv1"
  type: "Convolution"
  bottom: "resx8_elewise"
  top: "resx9_conv1"
  convolution_param {
    num_output: 120
    bias_term: false
    pad: 0
    kernel_size: 1
    group: 3
    stride: 1
    weight_filler {
      type: "msra"
    }
  }
}
layer {
  name: "resx9_conv1_bn"
  type: "BatchNorm"
  bottom: "resx9_conv1"
  top: "resx9_conv1"
  param {
    lr_mult: 0
    decay_mult: 0
  }
  param {
    lr_mult: 0
    decay_mult: 0
  }
  param {
    lr_mult: 0
    decay_mult: 0
  }
}
layer {
  name: "resx9_conv1_scale"
  type: "Scale"
  bottom: "resx9_conv1"
  top: "resx9_conv1"
  scale_param {
    filler {
      value: 1
    }
    bias_term: true
    bias_filler {
      value: 0
    }
  }
}
layer {
  name: "resx9_conv1_relu"
  type: "ReLU"
  bottom: "resx9_conv1"
  top: "resx9_conv1"
}
layer {
  name: "shuffle9"
  type: "ShuffleChannel"
  bottom: "resx9_conv1"
  top: "shuffle9"
  shuffle_channel_param {
    group: 3
  }
}
layer {
  name: "resx9_conv2"
  type: "ConvolutionDepthwise"
  bottom: "shuffle9"
  top: "resx9_conv2"
  convolution_param {
    num_output: 120
    bias_term: false
    pad: 1
    kernel_size: 3
    stride: 1
    weight_filler {
      type: "msra"
    }
  }
}
layer {
  name: "resx9_conv2_bn"
  type: "BatchNorm"
  bottom: "resx9_conv2"
  top: "resx9_conv2"
  param {
    lr_mult: 0
    decay_mult: 0
  }
  param {
    lr_mult: 0
    decay_mult: 0
  }
  param {
    lr_mult: 0
    decay_mult: 0
  }
}
layer {
  name: "resx9_conv2_scale"
  type: "Scale"
  bottom: "resx9_conv2"
  top: "resx9_conv2"
  scale_param {
    filler {
      value: 1
    }
    bias_term: true
    bias_filler {
      value: 0
    }
  }
}
layer {
  name: "resx9_conv3"
  type: "Convolution"
  bottom: "resx9_conv2"
  top: "resx9_conv3"
  convolution_param {
    num_output: 480
    bias_term: false
    pad: 0
    kernel_size: 1
    group: 3
    stride: 1
    weight_filler {
      type: "msra"
    }
  }
}
layer {
  name: "resx9_conv3_bn"
  type: "BatchNorm"
  bottom: "resx9_conv3"
  top: "resx9_conv3"
  param {
    lr_mult: 0
    decay_mult: 0
  }
  param {
    lr_mult: 0
    decay_mult: 0
  }
  param {
    lr_mult: 0
    decay_mult: 0
  }
}
layer {
  name: "resx9_conv3_scale"
  type: "Scale"
  bottom: "resx9_conv3"
  top: "resx9_conv3"
  scale_param {
    filler {
      value: 1
    }
    bias_term: true
    bias_filler {
      value: 0
    }
  }
}
layer {
  name: "resx9_elewise"
  type: "Eltwise"
  bottom: "resx8_elewise"
  bottom: "resx9_conv3"
  top: "resx9_elewise"
  eltwise_param {
    operation: SUM
  }
}
layer {
  name: "resx9_elewise_relu"
  type: "ReLU"
  bottom: "resx9_elewise"
  top: "resx9_elewise"
}
layer {
  name: "resx10_conv1"
  type: "Convolution"
  bottom: "resx9_elewise"
  top: "resx10_conv1"
  convolution_param {
    num_output: 120
    bias_term: false
    pad: 0
    kernel_size: 1
    group: 3
    stride: 1
    weight_filler {
      type: "msra"
    }
  }
}
layer {
  name: "resx10_conv1_bn"
  type: "BatchNorm"
  bottom: "resx10_conv1"
  top: "resx10_conv1"
  param {
    lr_mult: 0
    decay_mult: 0
  }
  param {
    lr_mult: 0
    decay_mult: 0
  }
  param {
    lr_mult: 0
    decay_mult: 0
  }
}
layer {
  name: "resx10_conv1_scale"
  type: "Scale"
  bottom: "resx10_conv1"
  top: "resx10_conv1"
  scale_param {
    filler {
      value: 1
    }
    bias_term: true
    bias_filler {
      value: 0
    }
  }
}
layer {
  name: "resx10_conv1_relu"
  type: "ReLU"
  bottom: "resx10_conv1"
  top: "resx10_conv1"
}
layer {
  name: "shuffle10"
  type: "ShuffleChannel"
  bottom: "resx10_conv1"
  top: "shuffle10"
  shuffle_channel_param {
    group: 3
  }
}
layer {
  name: "resx10_conv2"
  type: "ConvolutionDepthwise"
  bottom: "shuffle10"
  top: "resx10_conv2"
  convolution_param {
    num_output: 120
    bias_term: false
    pad: 1
    kernel_size: 3
    stride: 1
    weight_filler {
      type: "msra"
    }
  }
}
layer {
  name: "resx10_conv2_bn"
  type: "BatchNorm"
  bottom: "resx10_conv2"
  top: "resx10_conv2"
  param {
    lr_mult: 0
    decay_mult: 0
  }
  param {
    lr_mult: 0
    decay_mult: 0
  }
  param {
    lr_mult: 0
    decay_mult: 0
  }
}
layer {
  name: "resx10_conv2_scale"
  type: "Scale"
  bottom: "resx10_conv2"
  top: "resx10_conv2"
  scale_param {
    filler {
      value: 1
    }
    bias_term: true
    bias_filler {
      value: 0
    }
  }
}
layer {
  name: "resx10_conv3"
  type: "Convolution"
  bottom: "resx10_conv2"
  top: "resx10_conv3"
  convolution_param {
    num_output: 480
    bias_term: false
    pad: 0
    kernel_size: 1
    group: 3
    stride: 1
    weight_filler {
      type: "msra"
    }
  }
}
layer {
  name: "resx10_conv3_bn"
  type: "BatchNorm"
  bottom: "resx10_conv3"
  top: "resx10_conv3"
  param {
    lr_mult: 0
    decay_mult: 0
  }
  param {
    lr_mult: 0
    decay_mult: 0
  }
  param {
    lr_mult: 0
    decay_mult: 0
  }
}
layer {
  name: "resx10_conv3_scale"
  type: "Scale"
  bottom: "resx10_conv3"
  top: "resx10_conv3"
  scale_param {
    filler {
      value: 1
    }
    bias_term: true
    bias_filler {
      value: 0
    }
  }
}
layer {
  name: "resx10_elewise"
  type: "Eltwise"
  bottom: "resx9_elewise"
  bottom: "resx10_conv3"
  top: "resx10_elewise"
  eltwise_param {
    operation: SUM
  }
}
layer {
  name: "resx10_elewise_relu"
  type: "ReLU"
  bottom: "resx10_elewise"
  top: "resx10_elewise"
}
layer {
  name: "resx11_conv1"
  type: "Convolution"
  bottom: "resx10_elewise"
  top: "resx11_conv1"
  convolution_param {
    num_output: 120
    bias_term: false
    pad: 0
    kernel_size: 1
    group: 3
    stride: 1
    weight_filler {
      type: "msra"
    }
  }
}
layer {
  name: "resx11_conv1_bn"
  type: "BatchNorm"
  bottom: "resx11_conv1"
  top: "resx11_conv1"
  param {
    lr_mult: 0
    decay_mult: 0
  }
  param {
    lr_mult: 0
    decay_mult: 0
  }
  param {
    lr_mult: 0
    decay_mult: 0
  }
}
layer {
  name: "resx11_conv1_scale"
  type: "Scale"
  bottom: "resx11_conv1"
  top: "resx11_conv1"
  scale_param {
    filler {
      value: 1
    }
    bias_term: true
    bias_filler {
      value: 0
    }
  }
}
layer {
  name: "resx11_conv1_relu"
  type: "ReLU"
  bottom: "resx11_conv1"
  top: "resx11_conv1"
}
layer {
  name: "shuffle11"
  type: "ShuffleChannel"
  bottom: "resx11_conv1"
  top: "shuffle11"
  shuffle_channel_param {
    group: 3
  }
}
layer {
  name: "resx11_conv2"
  type: "ConvolutionDepthwise"
  bottom: "shuffle11"
  top: "resx11_conv2"
  convolution_param {
    num_output: 120
    bias_term: false
    pad: 1
    kernel_size: 3
    stride: 1
    weight_filler {
      type: "msra"
    }
  }
}
layer {
  name: "resx11_conv2_bn"
  type: "BatchNorm"
  bottom: "resx11_conv2"
  top: "resx11_conv2"
  param {
    lr_mult: 0
    decay_mult: 0
  }
  param {
    lr_mult: 0
    decay_mult: 0
  }
  param {
    lr_mult: 0
    decay_mult: 0
  }
}
layer {
  name: "resx11_conv2_scale"
  type: "Scale"
  bottom: "resx11_conv2"
  top: "resx11_conv2"
  scale_param {
    filler {
      value: 1
    }
    bias_term: true
    bias_filler {
      value: 0
    }
  }
}
layer {
  name: "resx11_conv3"
  type: "Convolution"
  bottom: "resx11_conv2"
  top: "resx11_conv3"
  convolution_param {
    num_output: 480
    bias_term: false
    pad: 0
    kernel_size:
I0813 20:53:26.385280   859 layer_factory.hpp:77] Creating layer data
I0813 20:53:26.385735   859 net.cpp:91] Creating Layer data
I0813 20:53:26.385751   859 net.cpp:443] data -> data
I0813 20:53:26.385787   859 net.cpp:443] data -> label
I0813 20:53:26.387609   865 db_lmdb.cpp:35] Opened lmdb /home/chenyao/ilsvrc12/ilsvrc12_train_lmdb
I0813 20:53:26.400245   859 data_layer.cpp:41] output data size: 80,3,224,224
I0813 20:53:26.490926   859 net.cpp:141] Setting up data
I0813 20:53:26.490983   859 net.cpp:148] Top shape: 80 3 224 224 (12042240)
I0813 20:53:26.490989   859 net.cpp:148] Top shape: 80 (80)
I0813 20:53:26.490993   859 net.cpp:156] Memory required for data: 48169280
I0813 20:53:26.491006   859 layer_factory.hpp:77] Creating layer conv1
I0813 20:53:26.491040   859 net.cpp:91] Creating Layer conv1
I0813 20:53:26.491047   859 net.cpp:469] conv1 <- data
I0813 20:53:26.491062   859 net.cpp:443] conv1 -> conv1
I0813 20:53:26.685508   859 net.cpp:141] Setting up conv1
I0813 20:53:26.685559   859 net.cpp:148] Top shape: 80 24 112 112 (24084480)
I0813 20:53:26.685564   859 net.cpp:156] Memory required for data: 144507200
I0813 20:53:26.685582   859 layer_factory.hpp:77] Creating layer conv1_bn
I0813 20:53:26.685601   859 net.cpp:91] Creating Layer conv1_bn
I0813 20:53:26.685619   859 net.cpp:469] conv1_bn <- conv1
I0813 20:53:26.685626   859 net.cpp:430] conv1_bn -> conv1 (in-place)
I0813 20:53:26.686421   859 net.cpp:141] Setting up conv1_bn
I0813 20:53:26.686437   859 net.cpp:148] Top shape: 80 24 112 112 (24084480)
I0813 20:53:26.686441   859 net.cpp:156] Memory required for data: 240845120
I0813 20:53:26.686455   859 layer_factory.hpp:77] Creating layer conv1_scale
I0813 20:53:26.686466   859 net.cpp:91] Creating Layer conv1_scale
I0813 20:53:26.686470   859 net.cpp:469] conv1_scale <- conv1
I0813 20:53:26.686476   859 net.cpp:430] conv1_scale -> conv1 (in-place)
I0813 20:53:26.686524   859 layer_factory.hpp:77] Creating layer conv1_scale
I0813 20:53:26.686622   859 net.cpp:141] Setting up conv1_scale
I0813 20:53:26.686631   859 net.cpp:148] Top shape: 80 24 112 112 (24084480)
I0813 20:53:26.686635   859 net.cpp:156] Memory required for data: 337183040
I0813 20:53:26.686645   859 layer_factory.hpp:77] Creating layer conv1_relu
I0813 20:53:26.686653   859 net.cpp:91] Creating Layer conv1_relu
I0813 20:53:26.686658   859 net.cpp:469] conv1_relu <- conv1
I0813 20:53:26.686663   859 net.cpp:430] conv1_relu -> conv1 (in-place)
I0813 20:53:26.686987   859 net.cpp:141] Setting up conv1_relu
I0813 20:53:26.687013   859 net.cpp:148] Top shape: 80 24 112 112 (24084480)
I0813 20:53:26.687017   859 net.cpp:156] Memory required for data: 433520960
I0813 20:53:26.687021   859 layer_factory.hpp:77] Creating layer pool1
I0813 20:53:26.687032   859 net.cpp:91] Creating Layer pool1
I0813 20:53:26.687036   859 net.cpp:469] pool1 <- conv1
I0813 20:53:26.687042   859 net.cpp:443] pool1 -> pool1
I0813 20:53:26.687095   859 net.cpp:141] Setting up pool1
I0813 20:53:26.687104   859 net.cpp:148] Top shape: 80 24 56 56 (6021120)
I0813 20:53:26.687108   859 net.cpp:156] Memory required for data: 457605440
I0813 20:53:26.687111   859 layer_factory.hpp:77] Creating layer pool1_pool1_0_split
I0813 20:53:26.687124   859 net.cpp:91] Creating Layer pool1_pool1_0_split
I0813 20:53:26.687127   859 net.cpp:469] pool1_pool1_0_split <- pool1
I0813 20:53:26.687132   859 net.cpp:443] pool1_pool1_0_split -> pool1_pool1_0_split_0
I0813 20:53:26.687139   859 net.cpp:443] pool1_pool1_0_split -> pool1_pool1_0_split_1
I0813 20:53:26.687167   859 net.cpp:141] Setting up pool1_pool1_0_split
I0813 20:53:26.687175   859 net.cpp:148] Top shape: 80 24 56 56 (6021120)
I0813 20:53:26.687178   859 net.cpp:148] Top shape: 80 24 56 56 (6021120)
I0813 20:53:26.687181   859 net.cpp:156] Memory required for data: 505774400
I0813 20:53:26.687186   859 layer_factory.hpp:77] Creating layer resx1_match_conv
I0813 20:53:26.687192   859 net.cpp:91] Creating Layer resx1_match_conv
I0813 20:53:26.687196   859 net.cpp:469] resx1_match_conv <- pool1_pool1_0_split_0
I0813 20:53:26.687201   859 net.cpp:443] resx1_match_conv -> resx1_match_conv
I0813 20:53:26.687352   859 net.cpp:141] Setting up resx1_match_conv
I0813 20:53:26.687363   859 net.cpp:148] Top shape: 80 24 28 28 (1505280)
I0813 20:53:26.687367   859 net.cpp:156] Memory required for data: 511795520
I0813 20:53:26.687371   859 layer_factory.hpp:77] Creating layer resx1_conv1
I0813 20:53:26.687386   859 net.cpp:91] Creating Layer resx1_conv1
I0813 20:53:26.687389   859 net.cpp:469] resx1_conv1 <- pool1_pool1_0_split_1
I0813 20:53:26.687396   859 net.cpp:443] resx1_conv1 -> resx1_conv1
I0813 20:53:26.688940   859 net.cpp:141] Setting up resx1_conv1
I0813 20:53:26.688956   859 net.cpp:148] Top shape: 80 54 56 56 (13547520)
I0813 20:53:26.688961   859 net.cpp:156] Memory required for data: 565985600
I0813 20:53:26.688966   859 layer_factory.hpp:77] Creating layer resx1_conv1_bn
I0813 20:53:26.688974   859 net.cpp:91] Creating Layer resx1_conv1_bn
I0813 20:53:26.688978   859 net.cpp:469] resx1_conv1_bn <- resx1_conv1
I0813 20:53:26.688983   859 net.cpp:430] resx1_conv1_bn -> resx1_conv1 (in-place)
I0813 20:53:26.689162   859 net.cpp:141] Setting up resx1_conv1_bn
I0813 20:53:26.689174   859 net.cpp:148] Top shape: 80 54 56 56 (13547520)
I0813 20:53:26.689177   859 net.cpp:156] Memory required for data: 620175680
I0813 20:53:26.689190   859 layer_factory.hpp:77] Creating layer resx1_conv1_scale
I0813 20:53:26.689201   859 net.cpp:91] Creating Layer resx1_conv1_scale
I0813 20:53:26.689205   859 net.cpp:469] resx1_conv1_scale <- resx1_conv1
I0813 20:53:26.689211   859 net.cpp:430] resx1_conv1_scale -> resx1_conv1 (in-place)
I0813 20:53:26.689249   859 layer_factory.hpp:77] Creating layer resx1_conv1_scale
I0813 20:53:26.689365   859 net.cpp:141] Setting up resx1_conv1_scale
I0813 20:53:26.689376   859 net.cpp:148] Top shape: 80 54 56 56 (13547520)
I0813 20:53:26.689380   859 net.cpp:156] Memory required for data: 674365760
I0813 20:53:26.689386   859 layer_factory.hpp:77] Creating layer resx1_conv1_relu
I0813 20:53:26.689394   859 net.cpp:91] Creating Layer resx1_conv1_relu
I0813 20:53:26.689399   859 net.cpp:469] resx1_conv1_relu <- resx1_conv1
I0813 20:53:26.689404   859 net.cpp:430] resx1_conv1_relu -> resx1_conv1 (in-place)
I0813 20:53:26.689558   859 net.cpp:141] Setting up resx1_conv1_relu
I0813 20:53:26.689570   859 net.cpp:148] Top shape: 80 54 56 56 (13547520)
I0813 20:53:26.689574   859 net.cpp:156] Memory required for data: 728555840
I0813 20:53:26.689582   859 layer_factory.hpp:77] Creating layer resx1_conv2
I0813 20:53:26.689597   859 net.cpp:91] Creating Layer resx1_conv2
I0813 20:53:26.689602   859 net.cpp:469] resx1_conv2 <- resx1_conv1
I0813 20:53:26.689610   859 net.cpp:443] resx1_conv2 -> resx1_conv2
I0813 20:53:26.689951   859 net.cpp:141] Setting up resx1_conv2
I0813 20:53:26.689965   859 net.cpp:148] Top shape: 80 54 28 28 (3386880)
I0813 20:53:26.689970   859 net.cpp:156] Memory required for data: 742103360
I0813 20:53:26.689975   859 layer_factory.hpp:77] Creating layer resx1_conv2_bn
I0813 20:53:26.689985   859 net.cpp:91] Creating Layer resx1_conv2_bn
I0813 20:53:26.689990   859 net.cpp:469] resx1_conv2_bn <- resx1_conv2
I0813 20:53:26.689996   859 net.cpp:430] resx1_conv2_bn -> resx1_conv2 (in-place)
I0813 20:53:26.690150   859 net.cpp:141] Setting up resx1_conv2_bn
I0813 20:53:26.690160   859 net.cpp:148] Top shape: 80 54 28 28 (3386880)
I0813 20:53:26.690162   859 net.cpp:156] Memory required for data: 755650880
I0813 20:53:26.690171   859 layer_factory.hpp:77] Creating layer resx1_conv2_scale
I0813 20:53:26.690179   859 net.cpp:91] Creating Layer resx1_conv2_scale
I0813 20:53:26.690183   859 net.cpp:469] resx1_conv2_scale <- resx1_conv2
I0813 20:53:26.690188   859 net.cpp:430] resx1_conv2_scale -> resx1_conv2 (in-place)
I0813 20:53:26.690224   859 layer_factory.hpp:77] Creating layer resx1_conv2_scale
I0813 20:53:26.690320   859 net.cpp:141] Setting up resx1_conv2_scale
I0813 20:53:26.690328   859 net.cpp:148] Top shape: 80 54 28 28 (3386880)
I0813 20:53:26.690332   859 net.cpp:156] Memory required for data: 769198400
I0813 20:53:26.690343   859 layer_factory.hpp:77] Creating layer resx1_conv3
I0813 20:53:26.690354   859 net.cpp:91] Creating Layer resx1_conv3
I0813 20:53:26.690358   859 net.cpp:469] resx1_conv3 <- resx1_conv2
I0813 20:53:26.690364   859 net.cpp:443] resx1_conv3 -> resx1_conv3
I0813 20:53:26.692806   859 net.cpp:141] Setting up resx1_conv3
I0813 20:53:26.692829   859 net.cpp:148] Top shape: 80 216 28 28 (13547520)
I0813 20:53:26.692834   859 net.cpp:156] Memory required for data: 823388480
I0813 20:53:26.692840   859 layer_factory.hpp:77] Creating layer resx1_conv3_bn
I0813 20:53:26.692853   859 net.cpp:91] Creating Layer resx1_conv3_bn
I0813 20:53:26.692858   859 net.cpp:469] resx1_conv3_bn <- resx1_conv3
I0813 20:53:26.692865   859 net.cpp:430] resx1_conv3_bn -> resx1_conv3 (in-place)
I0813 20:53:26.693028   859 net.cpp:141] Setting up resx1_conv3_bn
I0813 20:53:26.693037   859 net.cpp:148] Top shape: 80 216 28 28 (13547520)
I0813 20:53:26.693040   859 net.cpp:156] Memory required for data: 877578560
I0813 20:53:26.693048   859 layer_factory.hpp:77] Creating layer resx1_conv3_scale
I0813 20:53:26.693058   859 net.cpp:91] Creating Layer resx1_conv3_scale
I0813 20:53:26.693063   859 net.cpp:469] resx1_conv3_scale <- resx1_conv3
I0813 20:53:26.693068   859 net.cpp:430] resx1_conv3_scale -> resx1_conv3 (in-place)
I0813 20:53:26.693114   859 layer_factory.hpp:77] Creating layer resx1_conv3_scale
I0813 20:53:26.693212   859 net.cpp:141] Setting up resx1_conv3_scale
I0813 20:53:26.693220   859 net.cpp:148] Top shape: 80 216 28 28 (13547520)
I0813 20:53:26.693224   859 net.cpp:156] Memory required for data: 931768640
I0813 20:53:26.693230   859 layer_factory.hpp:77] Creating layer resx1_concat
I0813 20:53:26.693244   859 net.cpp:91] Creating Layer resx1_concat
I0813 20:53:26.693249   859 net.cpp:469] resx1_concat <- resx1_match_conv
I0813 20:53:26.693253   859 net.cpp:469] resx1_concat <- resx1_conv3
I0813 20:53:26.693259   859 net.cpp:443] resx1_concat -> resx1_concat
I0813 20:53:26.693289   859 net.cpp:141] Setting up resx1_concat
I0813 20:53:26.693297   859 net.cpp:148] Top shape: 80 240 28 28 (15052800)
I0813 20:53:26.693300   859 net.cpp:156] Memory required for data: 991979840
I0813 20:53:26.693305   859 layer_factory.hpp:77] Creating layer resx1_concat_relu
I0813 20:53:26.693310   859 net.cpp:91] Creating Layer resx1_concat_relu
I0813 20:53:26.693315   859 net.cpp:469] resx1_concat_relu <- resx1_concat
I0813 20:53:26.693325   859 net.cpp:430] resx1_concat_relu -> resx1_concat (in-place)
I0813 20:53:26.693478   859 net.cpp:141] Setting up resx1_concat_relu
I0813 20:53:26.693490   859 net.cpp:148] Top shape: 80 240 28 28 (15052800)
I0813 20:53:26.693493   859 net.cpp:156] Memory required for data: 1052191040
I0813 20:53:26.693497   859 layer_factory.hpp:77] Creating layer resx1_concat_resx1_concat_relu_0_split
I0813 20:53:26.693505   859 net.cpp:91] Creating Layer resx1_concat_resx1_concat_relu_0_split
I0813 20:53:26.693508   859 net.cpp:469] resx1_concat_resx1_concat_relu_0_split <- resx1_concat
I0813 20:53:26.693516   859 net.cpp:443] resx1_concat_resx1_concat_relu_0_split -> resx1_concat_resx1_concat_relu_0_split_0
I0813 20:53:26.693521   859 net.cpp:443] resx1_concat_resx1_concat_relu_0_split -> resx1_concat_resx1_concat_relu_0_split_1
I0813 20:53:26.693557   859 net.cpp:141] Setting up resx1_concat_resx1_concat_relu_0_split
I0813 20:53:26.693565   859 net.cpp:148] Top shape: 80 240 28 28 (15052800)
I0813 20:53:26.693569   859 net.cpp:148] Top shape: 80 240 28 28 (15052800)
I0813 20:53:26.693572   859 net.cpp:156] Memory required for data: 1172613440
I0813 20:53:26.693577   859 layer_factory.hpp:77] Creating layer resx2_conv1
I0813 20:53:26.693586   859 net.cpp:91] Creating Layer resx2_conv1
I0813 20:53:26.693590   859 net.cpp:469] resx2_conv1 <- resx1_concat_resx1_concat_relu_0_split_0
I0813 20:53:26.693596   859 net.cpp:443] resx2_conv1 -> resx2_conv1
I0813 20:53:26.696023   859 net.cpp:141] Setting up resx2_conv1
I0813 20:53:26.696038   859 net.cpp:148] Top shape: 80 60 28 28 (3763200)
I0813 20:53:26.696043   859 net.cpp:156] Memory required for data: 1187666240
I0813 20:53:26.696049   859 layer_factory.hpp:77] Creating layer resx2_conv1_bn
I0813 20:53:26.696059   859 net.cpp:91] Creating Layer resx2_conv1_bn
I0813 20:53:26.696063   859 net.cpp:469] resx2_conv1_bn <- resx2_conv1
I0813 20:53:26.696070   859 net.cpp:430] resx2_conv1_bn -> resx2_conv1 (in-place)
I0813 20:53:26.696231   859 net.cpp:141] Setting up resx2_conv1_bn
I0813 20:53:26.696240   859 net.cpp:148] Top shape: 80 60 28 28 (3763200)
I0813 20:53:26.696244   859 net.cpp:156] Memory required for data: 1202719040
I0813 20:53:26.696251   859 layer_factory.hpp:77] Creating layer resx2_conv1_scale
I0813 20:53:26.696261   859 net.cpp:91] Creating Layer resx2_conv1_scale
I0813 20:53:26.696266   859 net.cpp:469] resx2_conv1_scale <- resx2_conv1
I0813 20:53:26.696271   859 net.cpp:430] resx2_conv1_scale -> resx2_conv1 (in-place)
I0813 20:53:26.696308   859 layer_factory.hpp:77] Creating layer resx2_conv1_scale
I0813 20:53:26.696408   859 net.cpp:141] Setting up resx2_conv1_scale
I0813 20:53:26.696416   859 net.cpp:148] Top shape: 80 60 28 28 (3763200)
I0813 20:53:26.696419   859 net.cpp:156] Memory required for data: 1217771840
I0813 20:53:26.696425   859 layer_factory.hpp:77] Creating layer resx2_conv1_relu
I0813 20:53:26.696432   859 net.cpp:91] Creating Layer resx2_conv1_relu
I0813 20:53:26.696435   859 net.cpp:469] resx2_conv1_relu <- resx2_conv1
I0813 20:53:26.696442   859 net.cpp:430] resx2_conv1_relu -> resx2_conv1 (in-place)
I0813 20:53:26.696590   859 net.cpp:141] Setting up resx2_conv1_relu
I0813 20:53:26.696602   859 net.cpp:148] Top shape: 80 60 28 28 (3763200)
I0813 20:53:26.696605   859 net.cpp:156] Memory required for data: 1232824640
I0813 20:53:26.696609   859 layer_factory.hpp:77] Creating layer shuffle2
I0813 20:53:26.696619   859 net.cpp:91] Creating Layer shuffle2
I0813 20:53:26.696622   859 net.cpp:469] shuffle2 <- resx2_conv1
I0813 20:53:26.696630   859 net.cpp:443] shuffle2 -> shuffle2
I0813 20:53:26.696657   859 net.cpp:141] Setting up shuffle2
I0813 20:53:26.696666   859 net.cpp:148] Top shape: 80 60 28 28 (3763200)
I0813 20:53:26.696668   859 net.cpp:156] Memory required for data: 1247877440
I0813 20:53:26.696671   859 layer_factory.hpp:77] Creating layer resx2_conv2
I0813 20:53:26.696686   859 net.cpp:91] Creating Layer resx2_conv2
I0813 20:53:26.696691   859 net.cpp:469] resx2_conv2 <- shuffle2
I0813 20:53:26.696697   859 net.cpp:443] resx2_conv2 -> resx2_conv2
I0813 20:53:26.696822   859 net.cpp:141] Setting up resx2_conv2
I0813 20:53:26.696841   859 net.cpp:148] Top shape: 80 60 28 28 (3763200)
I0813 20:53:26.696844   859 net.cpp:156] Memory required for data: 1262930240
I0813 20:53:26.696849   859 layer_factory.hpp:77] Creating layer resx2_conv2_bn
I0813 20:53:26.696859   859 net.cpp:91] Creating Layer resx2_conv2_bn
I0813 20:53:26.696863   859 net.cpp:469] resx2_conv2_bn <- resx2_conv2
I0813 20:53:26.696871   859 net.cpp:430] resx2_conv2_bn -> resx2_conv2 (in-place)
I0813 20:53:26.697019   859 net.cpp:141] Setting up resx2_conv2_bn
I0813 20:53:26.697028   859 net.cpp:148] Top shape: 80 60 28 28 (3763200)
I0813 20:53:26.697031   859 net.cpp:156] Memory required for data: 1277983040
I0813 20:53:26.697046   859 layer_factory.hpp:77] Creating layer resx2_conv2_scale
I0813 20:53:26.697054   859 net.cpp:91] Creating Layer resx2_conv2_scale
I0813 20:53:26.697058   859 net.cpp:469] resx2_conv2_scale <- resx2_conv2
I0813 20:53:26.697065   859 net.cpp:430] resx2_conv2_scale -> resx2_conv2 (in-place)
I0813 20:53:26.697120   859 layer_factory.hpp:77] Creating layer resx2_conv2_scale
I0813 20:53:26.697223   859 net.cpp:141] Setting up resx2_conv2_scale
I0813 20:53:26.697232   859 net.cpp:148] Top shape: 80 60 28 28 (3763200)
I0813 20:53:26.697235   859 net.cpp:156] Memory required for data: 1293035840
I0813 20:53:26.697242   859 layer_factory.hpp:77] Creating layer resx2_conv3
I0813 20:53:26.697253   859 net.cpp:91] Creating Layer resx2_conv3
I0813 20:53:26.697257   859 net.cpp:469] resx2_conv3 <- resx2_conv2
I0813 20:53:26.697263   859 net.cpp:443] resx2_conv3 -> resx2_conv3
I0813 20:53:26.699908   859 net.cpp:141] Setting up resx2_conv3
I0813 20:53:26.699923   859 net.cpp:148] Top shape: 80 240 28 28 (15052800)
I0813 20:53:26.699928   859 net.cpp:156] Memory required for data: 1353247040
I0813 20:53:26.699934   859 layer_factory.hpp:77] Creating layer resx2_conv3_bn
I0813 20:53:26.699944   859 net.cpp:91] Creating Layer resx2_conv3_bn
I0813 20:53:26.699949   859 net.cpp:469] resx2_conv3_bn <- resx2_conv3
I0813 20:53:26.699954   859 net.cpp:430] resx2_conv3_bn -> resx2_conv3 (in-place)
I0813 20:53:26.700116   859 net.cpp:141] Setting up resx2_conv3_bn
I0813 20:53:26.700125   859 net.cpp:148] Top shape: 80 240 28 28 (15052800)
I0813 20:53:26.700129   859 net.cpp:156] Memory required for data: 1413458240
I0813 20:53:26.700136   859 layer_factory.hpp:77] Creating layer resx2_conv3_scale
I0813 20:53:26.700145   859 net.cpp:91] Creating Layer resx2_conv3_scale
I0813 20:53:26.700150   859 net.cpp:469] resx2_conv3_scale <- resx2_conv3
I0813 20:53:26.700155   859 net.cpp:430] resx2_conv3_scale -> resx2_conv3 (in-place)
I0813 20:53:26.700193   859 layer_factory.hpp:77] Creating layer resx2_conv3_scale
I0813 20:53:26.700297   859 net.cpp:141] Setting up resx2_conv3_scale
I0813 20:53:26.700305   859 net.cpp:148] Top shape: 80 240 28 28 (15052800)
I0813 20:53:26.700309   859 net.cpp:156] Memory required for data: 1473669440
I0813 20:53:26.700314   859 layer_factory.hpp:77] Creating layer resx2_elewise
I0813 20:53:26.700325   859 net.cpp:91] Creating Layer resx2_elewise
I0813 20:53:26.700330   859 net.cpp:469] resx2_elewise <- resx1_concat_resx1_concat_relu_0_split_1
I0813 20:53:26.700336   859 net.cpp:469] resx2_elewise <- resx2_conv3
I0813 20:53:26.700342   859 net.cpp:443] resx2_elewise -> resx2_elewise
I0813 20:53:26.700371   859 net.cpp:141] Setting up resx2_elewise
I0813 20:53:26.700378   859 net.cpp:148] Top shape: 80 240 28 28 (15052800)
I0813 20:53:26.700381   859 net.cpp:156] Memory required for data: 1533880640
I0813 20:53:26.700386   859 layer_factory.hpp:77] Creating layer resx2_elewise_relu
I0813 20:53:26.700392   859 net.cpp:91] Creating Layer resx2_elewise_relu
I0813 20:53:26.700395   859 net.cpp:469] resx2_elewise_relu <- resx2_elewise
I0813 20:53:26.700399   859 net.cpp:430] resx2_elewise_relu -> resx2_elewise (in-place)
I0813 20:53:26.700543   859 net.cpp:141] Setting up resx2_elewise_relu
I0813 20:53:26.700554   859 net.cpp:148] Top shape: 80 240 28 28 (15052800)
I0813 20:53:26.700562   859 net.cpp:156] Memory required for data: 1594091840
I0813 20:53:26.700572   859 layer_factory.hpp:77] Creating layer resx2_elewise_resx2_elewise_relu_0_split
I0813 20:53:26.700578   859 net.cpp:91] Creating Layer resx2_elewise_resx2_elewise_relu_0_split
I0813 20:53:26.700582   859 net.cpp:469] resx2_elewise_resx2_elewise_relu_0_split <- resx2_elewise
I0813 20:53:26.700589   859 net.cpp:443] resx2_elewise_resx2_elewise_relu_0_split -> resx2_elewise_resx2_elewise_relu_0_split_0
I0813 20:53:26.700595   859 net.cpp:443] resx2_elewise_resx2_elewise_relu_0_split -> resx2_elewise_resx2_elewise_relu_0_split_1
I0813 20:53:26.700631   859 net.cpp:141] Setting up resx2_elewise_resx2_elewise_relu_0_split
I0813 20:53:26.700639   859 net.cpp:148] Top shape: 80 240 28 28 (15052800)
I0813 20:53:26.700644   859 net.cpp:148] Top shape: 80 240 28 28 (15052800)
I0813 20:53:26.700646   859 net.cpp:156] Memory required for data: 1714514240
I0813 20:53:26.700650   859 layer_factory.hpp:77] Creating layer resx3_conv1
I0813 20:53:26.700664   859 net.cpp:91] Creating Layer resx3_conv1
I0813 20:53:26.700669   859 net.cpp:469] resx3_conv1 <- resx2_elewise_resx2_elewise_relu_0_split_0
I0813 20:53:26.700673   859 net.cpp:443] resx3_conv1 -> resx3_conv1
I0813 20:53:26.703130   859 net.cpp:141] Setting up resx3_conv1
I0813 20:53:26.703146   859 net.cpp:148] Top shape: 80 60 28 28 (3763200)
I0813 20:53:26.703150   859 net.cpp:156] Memory required for data: 1729567040
I0813 20:53:26.703156   859 layer_factory.hpp:77] Creating layer resx3_conv1_bn
I0813 20:53:26.703166   859 net.cpp:91] Creating Layer resx3_conv1_bn
I0813 20:53:26.703171   859 net.cpp:469] resx3_conv1_bn <- resx3_conv1
I0813 20:53:26.703178   859 net.cpp:430] resx3_conv1_bn -> resx3_conv1 (in-place)
I0813 20:53:26.703338   859 net.cpp:141] Setting up resx3_conv1_bn
I0813 20:53:26.703347   859 net.cpp:148] Top shape: 80 60 28 28 (3763200)
I0813 20:53:26.703351   859 net.cpp:156] Memory required for data: 1744619840
I0813 20:53:26.703357   859 layer_factory.hpp:77] Creating layer resx3_conv1_scale
I0813 20:53:26.703367   859 net.cpp:91] Creating Layer resx3_conv1_scale
I0813 20:53:26.703372   859 net.cpp:469] resx3_conv1_scale <- resx3_conv1
I0813 20:53:26.703377   859 net.cpp:430] resx3_conv1_scale -> resx3_conv1 (in-place)
I0813 20:53:26.703414   859 layer_factory.hpp:77] Creating layer resx3_conv1_scale
I0813 20:53:26.703516   859 net.cpp:141] Setting up resx3_conv1_scale
I0813 20:53:26.703524   859 net.cpp:148] Top shape: 80 60 28 28 (3763200)
I0813 20:53:26.703527   859 net.cpp:156] Memory required for data: 1759672640
I0813 20:53:26.703533   859 layer_factory.hpp:77] Creating layer resx3_conv1_relu
I0813 20:53:26.703541   859 net.cpp:91] Creating Layer resx3_conv1_relu
I0813 20:53:26.703544   859 net.cpp:469] resx3_conv1_relu <- resx3_conv1
I0813 20:53:26.703555   859 net.cpp:430] resx3_conv1_relu -> resx3_conv1 (in-place)
I0813 20:53:26.703697   859 net.cpp:141] Setting up resx3_conv1_relu
I0813 20:53:26.703707   859 net.cpp:148] Top shape: 80 60 28 28 (3763200)
I0813 20:53:26.703711   859 net.cpp:156] Memory required for data: 1774725440
I0813 20:53:26.703716   859 layer_factory.hpp:77] Creating layer shuffle3
I0813 20:53:26.703722   859 net.cpp:91] Creating Layer shuffle3
I0813 20:53:26.703727   859 net.cpp:469] shuffle3 <- resx3_conv1
I0813 20:53:26.703733   859 net.cpp:443] shuffle3 -> shuffle3
I0813 20:53:26.703759   859 net.cpp:141] Setting up shuffle3
I0813 20:53:26.703765   859 net.cpp:148] Top shape: 80 60 28 28 (3763200)
I0813 20:53:26.703769   859 net.cpp:156] Memory required for data: 1789778240
I0813 20:53:26.703773   859 layer_factory.hpp:77] Creating layer resx3_conv2
I0813 20:53:26.703783   859 net.cpp:91] Creating Layer resx3_conv2
I0813 20:53:26.703786   859 net.cpp:469] resx3_conv2 <- shuffle3
I0813 20:53:26.703794   859 net.cpp:443] resx3_conv2 -> resx3_conv2
I0813 20:53:26.703905   859 net.cpp:141] Setting up resx3_conv2
I0813 20:53:26.703917   859 net.cpp:148] Top shape: 80 60 28 28 (3763200)
I0813 20:53:26.703920   859 net.cpp:156] Memory required for data: 1804831040
I0813 20:53:26.703929   859 layer_factory.hpp:77] Creating layer resx3_conv2_bn
I0813 20:53:26.703945   859 net.cpp:91] Creating Layer resx3_conv2_bn
I0813 20:53:26.703950   859 net.cpp:469] resx3_conv2_bn <- resx3_conv2
I0813 20:53:26.703956   859 net.cpp:430] resx3_conv2_bn -> resx3_conv2 (in-place)
I0813 20:53:26.704111   859 net.cpp:141] Setting up resx3_conv2_bn
I0813 20:53:26.704120   859 net.cpp:148] Top shape: 80 60 28 28 (3763200)
I0813 20:53:26.704123   859 net.cpp:156] Memory required for data: 1819883840
I0813 20:53:26.704130   859 layer_factory.hpp:77] Creating layer resx3_conv2_scale
I0813 20:53:26.704140   859 net.cpp:91] Creating Layer resx3_conv2_scale
I0813 20:53:26.704144   859 net.cpp:469] resx3_conv2_scale <- resx3_conv2
I0813 20:53:26.704150   859 net.cpp:430] resx3_conv2_scale -> resx3_conv2 (in-place)
I0813 20:53:26.704186   859 layer_factory.hpp:77] Creating layer resx3_conv2_scale
I0813 20:53:26.704288   859 net.cpp:141] Setting up resx3_conv2_scale
I0813 20:53:26.704295   859 net.cpp:148] Top shape: 80 60 28 28 (3763200)
I0813 20:53:26.704299   859 net.cpp:156] Memory required for data: 1834936640
I0813 20:53:26.704304   859 layer_factory.hpp:77] Creating layer resx3_conv3
I0813 20:53:26.704315   859 net.cpp:91] Creating Layer resx3_conv3
I0813 20:53:26.704319   859 net.cpp:469] resx3_conv3 <- resx3_conv2
I0813 20:53:26.704326   859 net.cpp:443] resx3_conv3 -> resx3_conv3
I0813 20:53:26.706853   859 net.cpp:141] Setting up resx3_conv3
I0813 20:53:26.706871   859 net.cpp:148] Top shape: 80 240 28 28 (15052800)
I0813 20:53:26.706874   859 net.cpp:156] Memory required for data: 1895147840
I0813 20:53:26.706881   859 layer_factory.hpp:77] Creating layer resx3_conv3_bn
I0813 20:53:26.706892   859 net.cpp:91] Creating Layer resx3_conv3_bn
I0813 20:53:26.706897   859 net.cpp:469] resx3_conv3_bn <- resx3_conv3
I0813 20:53:26.706902   859 net.cpp:430] resx3_conv3_bn -> resx3_conv3 (in-place)
I0813 20:53:26.707070   859 net.cpp:141] Setting up resx3_conv3_bn
I0813 20:53:26.707079   859 net.cpp:148] Top shape: 80 240 28 28 (15052800)
I0813 20:53:26.707082   859 net.cpp:156] Memory required for data: 1955359040
I0813 20:53:26.707089   859 layer_factory.hpp:77] Creating layer resx3_conv3_scale
I0813 20:53:26.707098   859 net.cpp:91] Creating Layer resx3_conv3_scale
I0813 20:53:26.707103   859 net.cpp:469] resx3_conv3_scale <- resx3_conv3
I0813 20:53:26.707108   859 net.cpp:430] resx3_conv3_scale -> resx3_conv3 (in-place)
I0813 20:53:26.707149   859 layer_factory.hpp:77] Creating layer resx3_conv3_scale
I0813 20:53:26.707254   859 net.cpp:141] Setting up resx3_conv3_scale
I0813 20:53:26.707262   859 net.cpp:148] Top shape: 80 240 28 28 (15052800)
I0813 20:53:26.707265   859 net.cpp:156] Memory required for data: 2015570240
I0813 20:53:26.707271   859 layer_factory.hpp:77] Creating layer resx3_elewise
I0813 20:53:26.707279   859 net.cpp:91] Creating Layer resx3_elewise
I0813 20:53:26.707283   859 net.cpp:469] resx3_elewise <- resx2_elewise_resx2_elewise_relu_0_split_1
I0813 20:53:26.707288   859 net.cpp:469] resx3_elewise <- resx3_conv3
I0813 20:53:26.707293   859 net.cpp:443] resx3_elewise -> resx3_elewise
I0813 20:53:26.707319   859 net.cpp:141] Setting up resx3_elewise
I0813 20:53:26.707325   859 net.cpp:148] Top shape: 80 240 28 28 (15052800)
I0813 20:53:26.707329   859 net.cpp:156] Memory required for data: 2075781440
I0813 20:53:26.707332   859 layer_factory.hpp:77] Creating layer resx3_elewise_relu
I0813 20:53:26.707340   859 net.cpp:91] Creating Layer resx3_elewise_relu
I0813 20:53:26.707345   859 net.cpp:469] resx3_elewise_relu <- resx3_elewise
I0813 20:53:26.707350   859 net.cpp:430] resx3_elewise_relu -> resx3_elewise (in-place)
I0813 20:53:26.707494   859 net.cpp:141] Setting up resx3_elewise_relu
I0813 20:53:26.707506   859 net.cpp:148] Top shape: 80 240 28 28 (15052800)
I0813 20:53:26.707510   859 net.cpp:156] Memory required for data: 2135992640
I0813 20:53:26.707515   859 layer_factory.hpp:77] Creating layer resx3_elewise_resx3_elewise_relu_0_split
I0813 20:53:26.707525   859 net.cpp:91] Creating Layer resx3_elewise_resx3_elewise_relu_0_split
I0813 20:53:26.707535   859 net.cpp:469] resx3_elewise_resx3_elewise_relu_0_split <- resx3_elewise
I0813 20:53:26.707540   859 net.cpp:443] resx3_elewise_resx3_elewise_relu_0_split -> resx3_elewise_resx3_elewise_relu_0_split_0
I0813 20:53:26.707546   859 net.cpp:443] resx3_elewise_resx3_elewise_relu_0_split -> resx3_elewise_resx3_elewise_relu_0_split_1
I0813 20:53:26.707587   859 net.cpp:141] Setting up resx3_elewise_resx3_elewise_relu_0_split
I0813 20:53:26.707593   859 net.cpp:148] Top shape: 80 240 28 28 (15052800)
I0813 20:53:26.707597   859 net.cpp:148] Top shape: 80 240 28 28 (15052800)
I0813 20:53:26.707602   859 net.cpp:156] Memory required for data: 2256415040
I0813 20:53:26.707604   859 layer_factory.hpp:77] Creating layer resx4_conv1
I0813 20:53:26.707628   859 net.cpp:91] Creating Layer resx4_conv1
I0813 20:53:26.707633   859 net.cpp:469] resx4_conv1 <- resx3_elewise_resx3_elewise_relu_0_split_0
I0813 20:53:26.707640   859 net.cpp:443] resx4_conv1 -> resx4_conv1
I0813 20:53:26.710602   859 net.cpp:141] Setting up resx4_conv1
I0813 20:53:26.710618   859 net.cpp:148] Top shape: 80 60 28 28 (3763200)
I0813 20:53:26.710623   859 net.cpp:156] Memory required for data: 2271467840
I0813 20:53:26.710628   859 layer_factory.hpp:77] Creating layer resx4_conv1_bn
I0813 20:53:26.710638   859 net.cpp:91] Creating Layer resx4_conv1_bn
I0813 20:53:26.710642   859 net.cpp:469] resx4_conv1_bn <- resx4_conv1
I0813 20:53:26.710649   859 net.cpp:430] resx4_conv1_bn -> resx4_conv1 (in-place)
I0813 20:53:26.710820   859 net.cpp:141] Setting up resx4_conv1_bn
I0813 20:53:26.710829   859 net.cpp:148] Top shape: 80 60 28 28 (3763200)
I0813 20:53:26.710834   859 net.cpp:156] Memory required for data: 2286520640
I0813 20:53:26.710840   859 layer_factory.hpp:77] Creating layer resx4_conv1_scale
I0813 20:53:26.710849   859 net.cpp:91] Creating Layer resx4_conv1_scale
I0813 20:53:26.710852   859 net.cpp:469] resx4_conv1_scale <- resx4_conv1
I0813 20:53:26.710857   859 net.cpp:430] resx4_conv1_scale -> resx4_conv1 (in-place)
I0813 20:53:26.710898   859 layer_factory.hpp:77] Creating layer resx4_conv1_scale
I0813 20:53:26.711002   859 net.cpp:141] Setting up resx4_conv1_scale
I0813 20:53:26.711012   859 net.cpp:148] Top shape: 80 60 28 28 (3763200)
I0813 20:53:26.711016   859 net.cpp:156] Memory required for data: 2301573440
I0813 20:53:26.711031   859 layer_factory.hpp:77] Creating layer resx4_conv1_relu
I0813 20:53:26.711038   859 net.cpp:91] Creating Layer resx4_conv1_relu
I0813 20:53:26.711042   859 net.cpp:469] resx4_conv1_relu <- resx4_conv1
I0813 20:53:26.711048   859 net.cpp:430] resx4_conv1_relu -> resx4_conv1 (in-place)
I0813 20:53:26.711190   859 net.cpp:141] Setting up resx4_conv1_relu
I0813 20:53:26.711201   859 net.cpp:148] Top shape: 80 60 28 28 (3763200)
I0813 20:53:26.711205   859 net.cpp:156] Memory required for data: 2316626240
I0813 20:53:26.711208   859 layer_factory.hpp:77] Creating layer shuffle4
I0813 20:53:26.711217   859 net.cpp:91] Creating Layer shuffle4
I0813 20:53:26.711221   859 net.cpp:469] shuffle4 <- resx4_conv1
I0813 20:53:26.711226   859 net.cpp:443] shuffle4 -> shuffle4
I0813 20:53:26.711254   859 net.cpp:141] Setting up shuffle4
I0813 20:53:26.711261   859 net.cpp:148] Top shape: 80 60 28 28 (3763200)
I0813 20:53:26.711264   859 net.cpp:156] Memory required for data: 2331679040
I0813 20:53:26.711268   859 layer_factory.hpp:77] Creating layer resx4_conv2
I0813 20:53:26.711278   859 net.cpp:91] Creating Layer resx4_conv2
I0813 20:53:26.711282   859 net.cpp:469] resx4_conv2 <- shuffle4
I0813 20:53:26.711287   859 net.cpp:443] resx4_conv2 -> resx4_conv2
I0813 20:53:26.711406   859 net.cpp:141] Setting up resx4_conv2
I0813 20:53:26.711418   859 net.cpp:148] Top shape: 80 60 28 28 (3763200)
I0813 20:53:26.711421   859 net.cpp:156] Memory required for data: 2346731840
I0813 20:53:26.711427   859 layer_factory.hpp:77] Creating layer resx4_conv2_bn
I0813 20:53:26.711436   859 net.cpp:91] Creating Layer resx4_conv2_bn
I0813 20:53:26.711446   859 net.cpp:469] resx4_conv2_bn <- resx4_conv2
I0813 20:53:26.711455   859 net.cpp:430] resx4_conv2_bn -> resx4_conv2 (in-place)
I0813 20:53:26.711617   859 net.cpp:141] Setting up resx4_conv2_bn
I0813 20:53:26.711625   859 net.cpp:148] Top shape: 80 60 28 28 (3763200)
I0813 20:53:26.711628   859 net.cpp:156] Memory required for data: 2361784640
I0813 20:53:26.711635   859 layer_factory.hpp:77] Creating layer resx4_conv2_scale
I0813 20:53:26.711643   859 net.cpp:91] Creating Layer resx4_conv2_scale
I0813 20:53:26.711647   859 net.cpp:469] resx4_conv2_scale <- resx4_conv2
I0813 20:53:26.711652   859 net.cpp:430] resx4_conv2_scale -> resx4_conv2 (in-place)
I0813 20:53:26.711691   859 layer_factory.hpp:77] Creating layer resx4_conv2_scale
I0813 20:53:26.711798   859 net.cpp:141] Setting up resx4_conv2_scale
I0813 20:53:26.711808   859 net.cpp:148] Top shape: 80 60 28 28 (3763200)
I0813 20:53:26.711812   859 net.cpp:156] Memory required for data: 2376837440
I0813 20:53:26.711818   859 layer_factory.hpp:77] Creating layer resx4_conv3
I0813 20:53:26.711827   859 net.cpp:91] Creating Layer resx4_conv3
I0813 20:53:26.711830   859 net.cpp:469] resx4_conv3 <- resx4_conv2
I0813 20:53:26.711838   859 net.cpp:443] resx4_conv3 -> resx4_conv3
I0813 20:53:26.714190   859 net.cpp:141] Setting up resx4_conv3
I0813 20:53:26.714205   859 net.cpp:148] Top shape: 80 240 28 28 (15052800)
I0813 20:53:26.714210   859 net.cpp:156] Memory required for data: 2437048640
I0813 20:53:26.714216   859 layer_factory.hpp:77] Creating layer resx4_conv3_bn
I0813 20:53:26.714226   859 net.cpp:91] Creating Layer resx4_conv3_bn
I0813 20:53:26.714231   859 net.cpp:469] resx4_conv3_bn <- resx4_conv3
I0813 20:53:26.714238   859 net.cpp:430] resx4_conv3_bn -> resx4_conv3 (in-place)
I0813 20:53:26.714404   859 net.cpp:141] Setting up resx4_conv3_bn
I0813 20:53:26.714412   859 net.cpp:148] Top shape: 80 240 28 28 (15052800)
I0813 20:53:26.714416   859 net.cpp:156] Memory required for data: 2497259840
I0813 20:53:26.714423   859 layer_factory.hpp:77] Creating layer resx4_conv3_scale
I0813 20:53:26.714434   859 net.cpp:91] Creating Layer resx4_conv3_scale
I0813 20:53:26.714439   859 net.cpp:469] resx4_conv3_scale <- resx4_conv3
I0813 20:53:26.714444   859 net.cpp:430] resx4_conv3_scale -> resx4_conv3 (in-place)
I0813 20:53:26.714485   859 layer_factory.hpp:77] Creating layer resx4_conv3_scale
I0813 20:53:26.714587   859 net.cpp:141] Setting up resx4_conv3_scale
I0813 20:53:26.714596   859 net.cpp:148] Top shape: 80 240 28 28 (15052800)
I0813 20:53:26.714599   859 net.cpp:156] Memory required for data: 2557471040
I0813 20:53:26.714606   859 layer_factory.hpp:77] Creating layer resx4_elewise
I0813 20:53:26.714614   859 net.cpp:91] Creating Layer resx4_elewise
I0813 20:53:26.714619   859 net.cpp:469] resx4_elewise <- resx3_elewise_resx3_elewise_relu_0_split_1
I0813 20:53:26.714623   859 net.cpp:469] resx4_elewise <- resx4_conv3
I0813 20:53:26.714629   859 net.cpp:443] resx4_elewise -> resx4_elewise
I0813 20:53:26.714654   859 net.cpp:141] Setting up resx4_elewise
I0813 20:53:26.714661   859 net.cpp:148] Top shape: 80 240 28 28 (15052800)
I0813 20:53:26.714664   859 net.cpp:156] Memory required for data: 2617682240
I0813 20:53:26.714668   859 layer_factory.hpp:77] Creating layer resx4_elewise_relu
I0813 20:53:26.714674   859 net.cpp:91] Creating Layer resx4_elewise_relu
I0813 20:53:26.714679   859 net.cpp:469] resx4_elewise_relu <- resx4_elewise
I0813 20:53:26.714682   859 net.cpp:430] resx4_elewise_relu -> resx4_elewise (in-place)
I0813 20:53:26.714993   859 net.cpp:141] Setting up resx4_elewise_relu
I0813 20:53:26.715005   859 net.cpp:148] Top shape: 80 240 28 28 (15052800)
I0813 20:53:26.715009   859 net.cpp:156] Memory required for data: 2677893440
I0813 20:53:26.715013   859 layer_factory.hpp:77] Creating layer resx4_elewise_resx4_elewise_relu_0_split
I0813 20:53:26.715019   859 net.cpp:91] Creating Layer resx4_elewise_resx4_elewise_relu_0_split
I0813 20:53:26.715024   859 net.cpp:469] resx4_elewise_resx4_elewise_relu_0_split <- resx4_elewise
I0813 20:53:26.715035   859 net.cpp:443] resx4_elewise_resx4_elewise_relu_0_split -> resx4_elewise_resx4_elewise_relu_0_split_0
I0813 20:53:26.715052   859 net.cpp:443] resx4_elewise_resx4_elewise_relu_0_split -> resx4_elewise_resx4_elewise_relu_0_split_1
I0813 20:53:26.715093   859 net.cpp:141] Setting up resx4_elewise_resx4_elewise_relu_0_split
I0813 20:53:26.715102   859 net.cpp:148] Top shape: 80 240 28 28 (15052800)
I0813 20:53:26.715106   859 net.cpp:148] Top shape: 80 240 28 28 (15052800)
I0813 20:53:26.715109   859 net.cpp:156] Memory required for data: 2798315840
I0813 20:53:26.715113   859 layer_factory.hpp:77] Creating layer resx5_match_conv
I0813 20:53:26.715121   859 net.cpp:91] Creating Layer resx5_match_conv
I0813 20:53:26.715126   859 net.cpp:469] resx5_match_conv <- resx4_elewise_resx4_elewise_relu_0_split_0
I0813 20:53:26.715136   859 net.cpp:443] resx5_match_conv -> resx5_match_conv
I0813 20:53:26.715464   859 net.cpp:141] Setting up resx5_match_conv
I0813 20:53:26.715477   859 net.cpp:148] Top shape: 80 240 14 14 (3763200)
I0813 20:53:26.715481   859 net.cpp:156] Memory required for data: 2813368640
I0813 20:53:26.715486   859 layer_factory.hpp:77] Creating layer resx5_conv1
I0813 20:53:26.715505   859 net.cpp:91] Creating Layer resx5_conv1
I0813 20:53:26.715510   859 net.cpp:469] resx5_conv1 <- resx4_elewise_resx4_elewise_relu_0_split_1
I0813 20:53:26.715517   859 net.cpp:443] resx5_conv1 -> resx5_conv1
I0813 20:53:26.717877   859 net.cpp:141] Setting up resx5_conv1
I0813 20:53:26.717892   859 net.cpp:148] Top shape: 80 60 28 28 (3763200)
I0813 20:53:26.717896   859 net.cpp:156] Memory required for data: 2828421440
I0813 20:53:26.717903   859 layer_factory.hpp:77] Creating layer resx5_conv1_bn
I0813 20:53:26.717913   859 net.cpp:91] Creating Layer resx5_conv1_bn
I0813 20:53:26.717918   859 net.cpp:469] resx5_conv1_bn <- resx5_conv1
I0813 20:53:26.717923   859 net.cpp:430] resx5_conv1_bn -> resx5_conv1 (in-place)
I0813 20:53:26.718096   859 net.cpp:141] Setting up resx5_conv1_bn
I0813 20:53:26.718104   859 net.cpp:148] Top shape: 80 60 28 28 (3763200)
I0813 20:53:26.718107   859 net.cpp:156] Memory required for data: 2843474240
I0813 20:53:26.718114   859 layer_factory.hpp:77] Creating layer resx5_conv1_scale
I0813 20:53:26.718122   859 net.cpp:91] Creating Layer resx5_conv1_scale
I0813 20:53:26.718127   859 net.cpp:469] resx5_conv1_scale <- resx5_conv1
I0813 20:53:26.718132   859 net.cpp:430] resx5_conv1_scale -> resx5_conv1 (in-place)
I0813 20:53:26.718173   859 layer_factory.hpp:77] Creating layer resx5_conv1_scale
I0813 20:53:26.718281   859 net.cpp:141] Setting up resx5_conv1_scale
I0813 20:53:26.718291   859 net.cpp:148] Top shape: 80 60 28 28 (3763200)
I0813 20:53:26.718293   859 net.cpp:156] Memory required for data: 2858527040
I0813 20:53:26.718299   859 layer_factory.hpp:77] Creating layer resx5_conv1_relu
I0813 20:53:26.718307   859 net.cpp:91] Creating Layer resx5_conv1_relu
I0813 20:53:26.718310   859 net.cpp:469] resx5_conv1_relu <- resx5_conv1
I0813 20:53:26.718314   859 net.cpp:430] resx5_conv1_relu -> resx5_conv1 (in-place)
I0813 20:53:26.718466   859 net.cpp:141] Setting up resx5_conv1_relu
I0813 20:53:26.718477   859 net.cpp:148] Top shape: 80 60 28 28 (3763200)
I0813 20:53:26.718480   859 net.cpp:156] Memory required for data: 2873579840
I0813 20:53:26.718484   859 layer_factory.hpp:77] Creating layer shuffle5
I0813 20:53:26.718492   859 net.cpp:91] Creating Layer shuffle5
I0813 20:53:26.718495   859 net.cpp:469] shuffle5 <- resx5_conv1
I0813 20:53:26.718500   859 net.cpp:443] shuffle5 -> shuffle5
I0813 20:53:26.718533   859 net.cpp:141] Setting up shuffle5
I0813 20:53:26.718540   859 net.cpp:148] Top shape: 80 60 28 28 (3763200)
I0813 20:53:26.718544   859 net.cpp:156] Memory required for data: 2888632640
I0813 20:53:26.718547   859 layer_factory.hpp:77] Creating layer resx5_conv2
I0813 20:53:26.718556   859 net.cpp:91] Creating Layer resx5_conv2
I0813 20:53:26.718561   859 net.cpp:469] resx5_conv2 <- shuffle5
I0813 20:53:26.718566   859 net.cpp:443] resx5_conv2 -> resx5_conv2
I0813 20:53:26.718691   859 net.cpp:141] Setting up resx5_conv2
I0813 20:53:26.718703   859 net.cpp:148] Top shape: 80 60 14 14 (940800)
I0813 20:53:26.718713   859 net.cpp:156] Memory required for data: 2892395840
I0813 20:53:26.718719   859 layer_factory.hpp:77] Creating layer resx5_conv2_bn
I0813 20:53:26.718730   859 net.cpp:91] Creating Layer resx5_conv2_bn
I0813 20:53:26.718734   859 net.cpp:469] resx5_conv2_bn <- resx5_conv2
I0813 20:53:26.718739   859 net.cpp:430] resx5_conv2_bn -> resx5_conv2 (in-place)
I0813 20:53:26.718902   859 net.cpp:141] Setting up resx5_conv2_bn
I0813 20:53:26.718910   859 net.cpp:148] Top shape: 80 60 14 14 (940800)
I0813 20:53:26.718914   859 net.cpp:156] Memory required for data: 2896159040
I0813 20:53:26.718921   859 layer_factory.hpp:77] Creating layer resx5_conv2_scale
I0813 20:53:26.718930   859 net.cpp:91] Creating Layer resx5_conv2_scale
I0813 20:53:26.718933   859 net.cpp:469] resx5_conv2_scale <- resx5_conv2
I0813 20:53:26.718938   859 net.cpp:430] resx5_conv2_scale -> resx5_conv2 (in-place)
I0813 20:53:26.718979   859 layer_factory.hpp:77] Creating layer resx5_conv2_scale
I0813 20:53:26.719081   859 net.cpp:141] Setting up resx5_conv2_scale
I0813 20:53:26.719089   859 net.cpp:148] Top shape: 80 60 14 14 (940800)
I0813 20:53:26.719092   859 net.cpp:156] Memory required for data: 2899922240
I0813 20:53:26.719099   859 layer_factory.hpp:77] Creating layer resx5_conv3
I0813 20:53:26.719108   859 net.cpp:91] Creating Layer resx5_conv3
I0813 20:53:26.719112   859 net.cpp:469] resx5_conv3 <- resx5_conv2
I0813 20:53:26.719118   859 net.cpp:443] resx5_conv3 -> resx5_conv3
I0813 20:53:26.721860   859 net.cpp:141] Setting up resx5_conv3
I0813 20:53:26.721876   859 net.cpp:148] Top shape: 80 240 14 14 (3763200)
I0813 20:53:26.721880   859 net.cpp:156] Memory required for data: 2914975040
I0813 20:53:26.721886   859 layer_factory.hpp:77] Creating layer resx5_conv3_bn
I0813 20:53:26.721896   859 net.cpp:91] Creating Layer resx5_conv3_bn
I0813 20:53:26.721901   859 net.cpp:469] resx5_conv3_bn <- resx5_conv3
I0813 20:53:26.721906   859 net.cpp:430] resx5_conv3_bn -> resx5_conv3 (in-place)
I0813 20:53:26.722076   859 net.cpp:141] Setting up resx5_conv3_bn
I0813 20:53:26.722085   859 net.cpp:148] Top shape: 80 240 14 14 (3763200)
I0813 20:53:26.722088   859 net.cpp:156] Memory required for data: 2930027840
I0813 20:53:26.722095   859 layer_factory.hpp:77] Creating layer resx5_conv3_scale
I0813 20:53:26.722103   859 net.cpp:91] Creating Layer resx5_conv3_scale
I0813 20:53:26.722107   859 net.cpp:469] resx5_conv3_scale <- resx5_conv3
I0813 20:53:26.722112   859 net.cpp:430] resx5_conv3_scale -> resx5_conv3 (in-place)
I0813 20:53:26.722153   859 layer_factory.hpp:77] Creating layer resx5_conv3_scale
I0813 20:53:26.722262   859 net.cpp:141] Setting up resx5_conv3_scale
I0813 20:53:26.722270   859 net.cpp:148] Top shape: 80 240 14 14 (3763200)
I0813 20:53:26.722275   859 net.cpp:156] Memory required for data: 2945080640
I0813 20:53:26.722280   859 layer_factory.hpp:77] Creating layer resx5_concat
I0813 20:53:26.722286   859 net.cpp:91] Creating Layer resx5_concat
I0813 20:53:26.722290   859 net.cpp:469] resx5_concat <- resx5_match_conv
I0813 20:53:26.722295   859 net.cpp:469] resx5_concat <- resx5_conv3
I0813 20:53:26.722301   859 net.cpp:443] resx5_concat -> resx5_concat
I0813 20:53:26.722327   859 net.cpp:141] Setting up resx5_concat
I0813 20:53:26.722334   859 net.cpp:148] Top shape: 80 480 14 14 (7526400)
I0813 20:53:26.722337   859 net.cpp:156] Memory required for data: 2975186240
I0813 20:53:26.722342   859 layer_factory.hpp:77] Creating layer resx5_concat_relu
I0813 20:53:26.722348   859 net.cpp:91] Creating Layer resx5_concat_relu
I0813 20:53:26.722352   859 net.cpp:469] resx5_concat_relu <- resx5_concat
I0813 20:53:26.722357   859 net.cpp:430] resx5_concat_relu -> resx5_concat (in-place)
I0813 20:53:26.722502   859 net.cpp:141] Setting up resx5_concat_relu
I0813 20:53:26.722512   859 net.cpp:148] Top shape: 80 480 14 14 (7526400)
I0813 20:53:26.722515   859 net.cpp:156] Memory required for data: 3005291840
I0813 20:53:26.722523   859 layer_factory.hpp:77] Creating layer resx5_concat_resx5_concat_relu_0_split
I0813 20:53:26.722537   859 net.cpp:91] Creating Layer resx5_concat_resx5_concat_relu_0_split
I0813 20:53:26.722542   859 net.cpp:469] resx5_concat_resx5_concat_relu_0_split <- resx5_concat
I0813 20:53:26.722546   859 net.cpp:443] resx5_concat_resx5_concat_relu_0_split -> resx5_concat_resx5_concat_relu_0_split_0
I0813 20:53:26.722553   859 net.cpp:443] resx5_concat_resx5_concat_relu_0_split -> resx5_concat_resx5_concat_relu_0_split_1
I0813 20:53:26.722594   859 net.cpp:141] Setting up resx5_concat_resx5_concat_relu_0_split
I0813 20:53:26.722600   859 net.cpp:148] Top shape: 80 480 14 14 (7526400)
I0813 20:53:26.722604   859 net.cpp:148] Top shape: 80 480 14 14 (7526400)
I0813 20:53:26.722609   859 net.cpp:156] Memory required for data: 3065503040
I0813 20:53:26.722611   859 layer_factory.hpp:77] Creating layer resx6_conv1
I0813 20:53:26.722622   859 net.cpp:91] Creating Layer resx6_conv1
I0813 20:53:26.722626   859 net.cpp:469] resx6_conv1 <- resx5_concat_resx5_concat_relu_0_split_0
I0813 20:53:26.722633   859 net.cpp:443] resx6_conv1 -> resx6_conv1
I0813 20:53:26.726102   859 net.cpp:141] Setting up resx6_conv1
I0813 20:53:26.726119   859 net.cpp:148] Top shape: 80 120 14 14 (1881600)
I0813 20:53:26.726122   859 net.cpp:156] Memory required for data: 3073029440
I0813 20:53:26.726130   859 layer_factory.hpp:77] Creating layer resx6_conv1_bn
I0813 20:53:26.726138   859 net.cpp:91] Creating Layer resx6_conv1_bn
I0813 20:53:26.726143   859 net.cpp:469] resx6_conv1_bn <- resx6_conv1
I0813 20:53:26.726148   859 net.cpp:430] resx6_conv1_bn -> resx6_conv1 (in-place)
I0813 20:53:26.726332   859 net.cpp:141] Setting up resx6_conv1_bn
I0813 20:53:26.726341   859 net.cpp:148] Top shape: 80 120 14 14 (1881600)
I0813 20:53:26.726344   859 net.cpp:156] Memory required for data: 3080555840
I0813 20:53:26.726351   859 layer_factory.hpp:77] Creating layer resx6_conv1_scale
I0813 20:53:26.726359   859 net.cpp:91] Creating Layer resx6_conv1_scale
I0813 20:53:26.726363   859 net.cpp:469] resx6_conv1_scale <- resx6_conv1
I0813 20:53:26.726368   859 net.cpp:430] resx6_conv1_scale -> resx6_conv1 (in-place)
I0813 20:53:26.726411   859 layer_factory.hpp:77] Creating layer resx6_conv1_scale
I0813 20:53:26.726517   859 net.cpp:141] Setting up resx6_conv1_scale
I0813 20:53:26.726526   859 net.cpp:148] Top shape: 80 120 14 14 (1881600)
I0813 20:53:26.726531   859 net.cpp:156] Memory required for data: 3088082240
I0813 20:53:26.726536   859 layer_factory.hpp:77] Creating layer resx6_conv1_relu
I0813 20:53:26.726543   859 net.cpp:91] Creating Layer resx6_conv1_relu
I0813 20:53:26.726547   859 net.cpp:469] resx6_conv1_relu <- resx6_conv1
I0813 20:53:26.726552   859 net.cpp:430] resx6_conv1_relu -> resx6_conv1 (in-place)
I0813 20:53:26.726698   859 net.cpp:141] Setting up resx6_conv1_relu
I0813 20:53:26.726711   859 net.cpp:148] Top shape: 80 120 14 14 (1881600)
I0813 20:53:26.726714   859 net.cpp:156] Memory required for data: 3095608640
I0813 20:53:26.726718   859 layer_factory.hpp:77] Creating layer shuffle6
I0813 20:53:26.726725   859 net.cpp:91] Creating Layer shuffle6
I0813 20:53:26.726729   859 net.cpp:469] shuffle6 <- resx6_conv1
I0813 20:53:26.726734   859 net.cpp:443] shuffle6 -> shuffle6
I0813 20:53:26.726764   859 net.cpp:141] Setting up shuffle6
I0813 20:53:26.726771   859 net.cpp:148] Top shape: 80 120 14 14 (1881600)
I0813 20:53:26.726774   859 net.cpp:156] Memory required for data: 3103135040
I0813 20:53:26.726778   859 layer_factory.hpp:77] Creating layer resx6_conv2
I0813 20:53:26.726788   859 net.cpp:91] Creating Layer resx6_conv2
I0813 20:53:26.726791   859 net.cpp:469] resx6_conv2 <- shuffle6
I0813 20:53:26.726797   859 net.cpp:443] resx6_conv2 -> resx6_conv2
I0813 20:53:26.726932   859 net.cpp:141] Setting up resx6_conv2
I0813 20:53:26.726943   859 net.cpp:148] Top shape: 80 120 14 14 (1881600)
I0813 20:53:26.726946   859 net.cpp:156] Memory required for data: 3110661440
I0813 20:53:26.726953   859 layer_factory.hpp:77] Creating layer resx6_conv2_bn
I0813 20:53:26.726966   859 net.cpp:91] Creating Layer resx6_conv2_bn
I0813 20:53:26.726976   859 net.cpp:469] resx6_conv2_bn <- resx6_conv2
I0813 20:53:26.726981   859 net.cpp:430] resx6_conv2_bn -> resx6_conv2 (in-place)
I0813 20:53:26.727156   859 net.cpp:141] Setting up resx6_conv2_bn
I0813 20:53:26.727164   859 net.cpp:148] Top shape: 80 120 14 14 (1881600)
I0813 20:53:26.727169   859 net.cpp:156] Memory required for data: 3118187840
I0813 20:53:26.727175   859 layer_factory.hpp:77] Creating layer resx6_conv2_scale
I0813 20:53:26.727183   859 net.cpp:91] Creating Layer resx6_conv2_scale
I0813 20:53:26.727187   859 net.cpp:469] resx6_conv2_scale <- resx6_conv2
I0813 20:53:26.727192   859 net.cpp:430] resx6_conv2_scale -> resx6_conv2 (in-place)
I0813 20:53:26.727236   859 layer_factory.hpp:77] Creating layer resx6_conv2_scale
I0813 20:53:26.727356   859 net.cpp:141] Setting up resx6_conv2_scale
I0813 20:53:26.727365   859 net.cpp:148] Top shape: 80 120 14 14 (1881600)
I0813 20:53:26.727367   859 net.cpp:156] Memory required for data: 3125714240
I0813 20:53:26.727373   859 layer_factory.hpp:77] Creating layer resx6_conv3
I0813 20:53:26.727385   859 net.cpp:91] Creating Layer resx6_conv3
I0813 20:53:26.727388   859 net.cpp:469] resx6_conv3 <- resx6_conv2
I0813 20:53:26.727393   859 net.cpp:443] resx6_conv3 -> resx6_conv3
I0813 20:53:26.730821   859 net.cpp:141] Setting up resx6_conv3
I0813 20:53:26.730837   859 net.cpp:148] Top shape: 80 480 14 14 (7526400)
I0813 20:53:26.730841   859 net.cpp:156] Memory required for data: 3155819840
I0813 20:53:26.730849   859 layer_factory.hpp:77] Creating layer resx6_conv3_bn
I0813 20:53:26.730857   859 net.cpp:91] Creating Layer resx6_conv3_bn
I0813 20:53:26.730862   859 net.cpp:469] resx6_conv3_bn <- resx6_conv3
I0813 20:53:26.730867   859 net.cpp:430] resx6_conv3_bn -> resx6_conv3 (in-place)
I0813 20:53:26.731057   859 net.cpp:141] Setting up resx6_conv3_bn
I0813 20:53:26.731065   859 net.cpp:148] Top shape: 80 480 14 14 (7526400)
I0813 20:53:26.731070   859 net.cpp:156] Memory required for data: 3185925440
I0813 20:53:26.731076   859 layer_factory.hpp:77] Creating layer resx6_conv3_scale
I0813 20:53:26.731084   859 net.cpp:91] Creating Layer resx6_conv3_scale
I0813 20:53:26.731088   859 net.cpp:469] resx6_conv3_scale <- resx6_conv3
I0813 20:53:26.731093   859 net.cpp:430] resx6_conv3_scale -> resx6_conv3 (in-place)
I0813 20:53:26.731138   859 layer_factory.hpp:77] Creating layer resx6_conv3_scale
I0813 20:53:26.731250   859 net.cpp:141] Setting up resx6_conv3_scale
I0813 20:53:26.731257   859 net.cpp:148] Top shape: 80 480 14 14 (7526400)
I0813 20:53:26.731261   859 net.cpp:156] Memory required for data: 3216031040
I0813 20:53:26.731266   859 layer_factory.hpp:77] Creating layer resx6_elewise
I0813 20:53:26.731273   859 net.cpp:91] Creating Layer resx6_elewise
I0813 20:53:26.731277   859 net.cpp:469] resx6_elewise <- resx5_concat_resx5_concat_relu_0_split_1
I0813 20:53:26.731282   859 net.cpp:469] resx6_elewise <- resx6_conv3
I0813 20:53:26.731287   859 net.cpp:443] resx6_elewise -> resx6_elewise
I0813 20:53:26.731314   859 net.cpp:141] Setting up resx6_elewise
I0813 20:53:26.731322   859 net.cpp:148] Top shape: 80 480 14 14 (7526400)
I0813 20:53:26.731324   859 net.cpp:156] Memory required for data: 3246136640
I0813 20:53:26.731328   859 layer_factory.hpp:77] Creating layer resx6_elewise_relu
I0813 20:53:26.731335   859 net.cpp:91] Creating Layer resx6_elewise_relu
I0813 20:53:26.731339   859 net.cpp:469] resx6_elewise_relu <- resx6_elewise
I0813 20:53:26.731344   859 net.cpp:430] resx6_elewise_relu -> resx6_elewise (in-place)
I0813 20:53:26.731500   859 net.cpp:141] Setting up resx6_elewise_relu
I0813 20:53:26.731511   859 net.cpp:148] Top shape: 80 480 14 14 (7526400)
I0813 20:53:26.731514   859 net.cpp:156] Memory required for data: 3276242240
I0813 20:53:26.731518   859 layer_factory.hpp:77] Creating layer resx6_elewise_resx6_elewise_relu_0_split
I0813 20:53:26.731526   859 net.cpp:91] Creating Layer resx6_elewise_resx6_elewise_relu_0_split
I0813 20:53:26.731535   859 net.cpp:469] resx6_elewise_resx6_elewise_relu_0_split <- resx6_elewise
I0813 20:53:26.731545   859 net.cpp:443] resx6_elewise_resx6_elewise_relu_0_split -> resx6_elewise_resx6_elewise_relu_0_split_0
I0813 20:53:26.731552   859 net.cpp:443] resx6_elewise_resx6_elewise_relu_0_split -> resx6_elewise_resx6_elewise_relu_0_split_1
I0813 20:53:26.731595   859 net.cpp:141] Setting up resx6_elewise_resx6_elewise_relu_0_split
I0813 20:53:26.731601   859 net.cpp:148] Top shape: 80 480 14 14 (7526400)
I0813 20:53:26.731606   859 net.cpp:148] Top shape: 80 480 14 14 (7526400)
I0813 20:53:26.731608   859 net.cpp:156] Memory required for data: 3336453440
I0813 20:53:26.731612   859 layer_factory.hpp:77] Creating layer resx7_conv1
I0813 20:53:26.731624   859 net.cpp:91] Creating Layer resx7_conv1
I0813 20:53:26.731629   859 net.cpp:469] resx7_conv1 <- resx6_elewise_resx6_elewise_relu_0_split_0
I0813 20:53:26.731637   859 net.cpp:443] resx7_conv1 -> resx7_conv1
I0813 20:53:26.734750   859 net.cpp:141] Setting up resx7_conv1
I0813 20:53:26.734766   859 net.cpp:148] Top shape: 80 120 14 14 (1881600)
I0813 20:53:26.734771   859 net.cpp:156] Memory required for data: 3343979840
I0813 20:53:26.734776   859 layer_factory.hpp:77] Creating layer resx7_conv1_bn
I0813 20:53:26.734786   859 net.cpp:91] Creating Layer resx7_conv1_bn
I0813 20:53:26.734791   859 net.cpp:469] resx7_conv1_bn <- resx7_conv1
I0813 20:53:26.734798   859 net.cpp:430] resx7_conv1_bn -> resx7_conv1 (in-place)
I0813 20:53:26.734979   859 net.cpp:141] Setting up resx7_conv1_bn
I0813 20:53:26.734987   859 net.cpp:148] Top shape: 80 120 14 14 (1881600)
I0813 20:53:26.734990   859 net.cpp:156] Memory required for data: 3351506240
I0813 20:53:26.734998   859 layer_factory.hpp:77] Creating layer resx7_conv1_scale
I0813 20:53:26.735008   859 net.cpp:91] Creating Layer resx7_conv1_scale
I0813 20:53:26.735013   859 net.cpp:469] resx7_conv1_scale <- resx7_conv1
I0813 20:53:26.735018   859 net.cpp:430] resx7_conv1_scale -> resx7_conv1 (in-place)
I0813 20:53:26.735059   859 layer_factory.hpp:77] Creating layer resx7_conv1_scale
I0813 20:53:26.735168   859 net.cpp:141] Setting up resx7_conv1_scale
I0813 20:53:26.735177   859 net.cpp:148] Top shape: 80 120 14 14 (1881600)
I0813 20:53:26.735179   859 net.cpp:156] Memory required for data: 3359032640
I0813 20:53:26.735185   859 layer_factory.hpp:77] Creating layer resx7_conv1_relu
I0813 20:53:26.735193   859 net.cpp:91] Creating Layer resx7_conv1_relu
I0813 20:53:26.735196   859 net.cpp:469] resx7_conv1_relu <- resx7_conv1
I0813 20:53:26.735203   859 net.cpp:430] resx7_conv1_relu -> resx7_conv1 (in-place)
I0813 20:53:26.735347   859 net.cpp:141] Setting up resx7_conv1_relu
I0813 20:53:26.735357   859 net.cpp:148] Top shape: 80 120 14 14 (1881600)
I0813 20:53:26.735361   859 net.cpp:156] Memory required for data: 3366559040
I0813 20:53:26.735365   859 layer_factory.hpp:77] Creating layer shuffle7
I0813 20:53:26.735374   859 net.cpp:91] Creating Layer shuffle7
I0813 20:53:26.735378   859 net.cpp:469] shuffle7 <- resx7_conv1
I0813 20:53:26.735383   859 net.cpp:443] shuffle7 -> shuffle7
I0813 20:53:26.735412   859 net.cpp:141] Setting up shuffle7
I0813 20:53:26.735419   859 net.cpp:148] Top shape: 80 120 14 14 (1881600)
I0813 20:53:26.735422   859 net.cpp:156] Memory required for data: 3374085440
I0813 20:53:26.735425   859 layer_factory.hpp:77] Creating layer resx7_conv2
I0813 20:53:26.735436   859 net.cpp:91] Creating Layer resx7_conv2
I0813 20:53:26.735442   859 net.cpp:469] resx7_conv2 <- shuffle7
I0813 20:53:26.735448   859 net.cpp:443] resx7_conv2 -> resx7_conv2
I0813 20:53:26.735596   859 net.cpp:141] Setting up resx7_conv2
I0813 20:53:26.735607   859 net.cpp:148] Top shape: 80 120 14 14 (1881600)
I0813 20:53:26.735611   859 net.cpp:156] Memory required for data: 3381611840
I0813 20:53:26.735616   859 layer_factory.hpp:77] Creating layer resx7_conv2_bn
I0813 20:53:26.735623   859 net.cpp:91] Creating Layer resx7_conv2_bn
I0813 20:53:26.735630   859 net.cpp:469] resx7_conv2_bn <- resx7_conv2
I0813 20:53:26.735635   859 net.cpp:430] resx7_conv2_bn -> resx7_conv2 (in-place)
I0813 20:53:26.735822   859 net.cpp:141] Setting up resx7_conv2_bn
I0813 20:53:26.735831   859 net.cpp:148] Top shape: 80 120 14 14 (1881600)
I0813 20:53:26.735834   859 net.cpp:156] Memory required for data: 3389138240
I0813 20:53:26.735841   859 layer_factory.hpp:77] Creating layer resx7_conv2_scale
I0813 20:53:26.735848   859 net.cpp:91] Creating Layer resx7_conv2_scale
I0813 20:53:26.735852   859 net.cpp:469] resx7_conv2_scale <- resx7_conv2
I0813 20:53:26.735857   859 net.cpp:430] resx7_conv2_scale -> resx7_conv2 (in-place)
I0813 20:53:26.735900   859 layer_factory.hpp:77] Creating layer resx7_conv2_scale
I0813 20:53:26.736008   859 net.cpp:141] Setting up resx7_conv2_scale
I0813 20:53:26.736016   859 net.cpp:148] Top shape: 80 120 14 14 (1881600)
I0813 20:53:26.736019   859 net.cpp:156] Memory required for data: 3396664640
I0813 20:53:26.736026   859 layer_factory.hpp:77] Creating layer resx7_conv3
I0813 20:53:26.736035   859 net.cpp:91] Creating Layer resx7_conv3
I0813 20:53:26.736039   859 net.cpp:469] resx7_conv3 <- resx7_conv2
I0813 20:53:26.736047   859 net.cpp:443] resx7_conv3 -> resx7_conv3
I0813 20:53:26.738979   859 net.cpp:141] Setting up resx7_conv3
I0813 20:53:26.738994   859 net.cpp:148] Top shape: 80 480 14 14 (7526400)
I0813 20:53:26.738998   859 net.cpp:156] Memory required for data: 3426770240
I0813 20:53:26.739004   859 layer_factory.hpp:77] Creating layer resx7_conv3_bn
I0813 20:53:26.739012   859 net.cpp:91] Creating Layer resx7_conv3_bn
I0813 20:53:26.739017   859 net.cpp:469] resx7_conv3_bn <- resx7_conv3
I0813 20:53:26.739024   859 net.cpp:430] resx7_conv3_bn -> resx7_conv3 (in-place)
I0813 20:53:26.739217   859 net.cpp:141] Setting up resx7_conv3_bn
I0813 20:53:26.739224   859 net.cpp:148] Top shape: 80 480 14 14 (7526400)
I0813 20:53:26.739228   859 net.cpp:156] Memory required for data: 3456875840
I0813 20:53:26.739256   859 layer_factory.hpp:77] Creating layer resx7_conv3_scale
I0813 20:53:26.739267   859 net.cpp:91] Creating Layer resx7_conv3_scale
I0813 20:53:26.739271   859 net.cpp:469] resx7_conv3_scale <- resx7_conv3
I0813 20:53:26.739276   859 net.cpp:430] resx7_conv3_scale -> resx7_conv3 (in-place)
I0813 20:53:26.739323   859 layer_factory.hpp:77] Creating layer resx7_conv3_scale
I0813 20:53:26.739439   859 net.cpp:141] Setting up resx7_conv3_scale
I0813 20:53:26.739447   859 net.cpp:148] Top shape: 80 480 14 14 (7526400)
I0813 20:53:26.739451   859 net.cpp:156] Memory required for data: 3486981440
I0813 20:53:26.739457   859 layer_factory.hpp:77] Creating layer resx7_elewise
I0813 20:53:26.739464   859 net.cpp:91] Creating Layer resx7_elewise
I0813 20:53:26.739468   859 net.cpp:469] resx7_elewise <- resx6_elewise_resx6_elewise_relu_0_split_1
I0813 20:53:26.739472   859 net.cpp:469] resx7_elewise <- resx7_conv3
I0813 20:53:26.739480   859 net.cpp:443] resx7_elewise -> resx7_elewise
I0813 20:53:26.739506   859 net.cpp:141] Setting up resx7_elewise
I0813 20:53:26.739516   859 net.cpp:148] Top shape: 80 480 14 14 (7526400)
I0813 20:53:26.739518   859 net.cpp:156] Memory required for data: 3517087040
I0813 20:53:26.739521   859 layer_factory.hpp:77] Creating layer resx7_elewise_relu
I0813 20:53:26.739528   859 net.cpp:91] Creating Layer resx7_elewise_relu
I0813 20:53:26.739532   859 net.cpp:469] resx7_elewise_relu <- resx7_elewise
I0813 20:53:26.739537   859 net.cpp:430] resx7_elewise_relu -> resx7_elewise (in-place)
I0813 20:53:26.739701   859 net.cpp:141] Setting up resx7_elewise_relu
I0813 20:53:26.739711   859 net.cpp:148] Top shape: 80 480 14 14 (7526400)
I0813 20:53:26.739714   859 net.cpp:156] Memory required for data: 3547192640
I0813 20:53:26.739718   859 layer_factory.hpp:77] Creating layer resx7_elewise_resx7_elewise_relu_0_split
I0813 20:53:26.739724   859 net.cpp:91] Creating Layer resx7_elewise_resx7_elewise_relu_0_split
I0813 20:53:26.739728   859 net.cpp:469] resx7_elewise_resx7_elewise_relu_0_split <- resx7_elewise
I0813 20:53:26.739733   859 net.cpp:443] resx7_elewise_resx7_elewise_relu_0_split -> resx7_elewise_resx7_elewise_relu_0_split_0
I0813 20:53:26.739745   859 net.cpp:443] resx7_elewise_resx7_elewise_relu_0_split -> resx7_elewise_resx7_elewise_relu_0_split_1
I0813 20:53:26.739794   859 net.cpp:141] Setting up resx7_elewise_resx7_elewise_relu_0_split
I0813 20:53:26.739800   859 net.cpp:148] Top shape: 80 480 14 14 (7526400)
I0813 20:53:26.739804   859 net.cpp:148] Top shape: 80 480 14 14 (7526400)
I0813 20:53:26.739809   859 net.cpp:156] Memory required for data: 3607403840
I0813 20:53:26.739811   859 layer_factory.hpp:77] Creating layer resx8_conv1
I0813 20:53:26.739822   859 net.cpp:91] Creating Layer resx8_conv1
I0813 20:53:26.739826   859 net.cpp:469] resx8_conv1 <- resx7_elewise_resx7_elewise_relu_0_split_0
I0813 20:53:26.739835   859 net.cpp:443] resx8_conv1 -> resx8_conv1
I0813 20:53:26.742741   859 net.cpp:141] Setting up resx8_conv1
I0813 20:53:26.742756   859 net.cpp:148] Top shape: 80 120 14 14 (1881600)
I0813 20:53:26.742760   859 net.cpp:156] Memory required for data: 3614930240
I0813 20:53:26.742766   859 layer_factory.hpp:77] Creating layer resx8_conv1_bn
I0813 20:53:26.742776   859 net.cpp:91] Creating Layer resx8_conv1_bn
I0813 20:53:26.742780   859 net.cpp:469] resx8_conv1_bn <- resx8_conv1
I0813 20:53:26.742786   859 net.cpp:430] resx8_conv1_bn -> resx8_conv1 (in-place)
I0813 20:53:26.742972   859 net.cpp:141] Setting up resx8_conv1_bn
I0813 20:53:26.742980   859 net.cpp:148] Top shape: 80 120 14 14 (1881600)
I0813 20:53:26.742985   859 net.cpp:156] Memory required for data: 3622456640
I0813 20:53:26.742991   859 layer_factory.hpp:77] Creating layer resx8_conv1_scale
I0813 20:53:26.743001   859 net.cpp:91] Creating Layer resx8_conv1_scale
I0813 20:53:26.743005   859 net.cpp:469] resx8_conv1_scale <- resx8_conv1
I0813 20:53:26.743010   859 net.cpp:430] resx8_conv1_scale -> resx8_conv1 (in-place)
I0813 20:53:26.743052   859 layer_factory.hpp:77] Creating layer resx8_conv1_scale
I0813 20:53:26.743163   859 net.cpp:141] Setting up resx8_conv1_scale
I0813 20:53:26.743170   859 net.cpp:148] Top shape: 80 120 14 14 (1881600)
I0813 20:53:26.743175   859 net.cpp:156] Memory required for data: 3629983040
I0813 20:53:26.743180   859 layer_factory.hpp:77] Creating layer resx8_conv1_relu
I0813 20:53:26.743188   859 net.cpp:91] Creating Layer resx8_conv1_relu
I0813 20:53:26.743192   859 net.cpp:469] resx8_conv1_relu <- resx8_conv1
I0813 20:53:26.743197   859 net.cpp:430] resx8_conv1_relu -> resx8_conv1 (in-place)
I0813 20:53:26.743351   859 net.cpp:141] Setting up resx8_conv1_relu
I0813 20:53:26.743362   859 net.cpp:148] Top shape: 80 120 14 14 (1881600)
I0813 20:53:26.743366   859 net.cpp:156] Memory required for data: 3637509440
I0813 20:53:26.743369   859 layer_factory.hpp:77] Creating layer shuffle8
I0813 20:53:26.743378   859 net.cpp:91] Creating Layer shuffle8
I0813 20:53:26.743383   859 net.cpp:469] shuffle8 <- resx8_conv1
I0813 20:53:26.743389   859 net.cpp:443] shuffle8 -> shuffle8
I0813 20:53:26.743419   859 net.cpp:141] Setting up shuffle8
I0813 20:53:26.743427   859 net.cpp:148] Top shape: 80 120 14 14 (1881600)
I0813 20:53:26.743430   859 net.cpp:156] Memory required for data: 3645035840
I0813 20:53:26.743433   859 layer_factory.hpp:77] Creating layer resx8_conv2
I0813 20:53:26.743443   859 net.cpp:91] Creating Layer resx8_conv2
I0813 20:53:26.743448   859 net.cpp:469] resx8_conv2 <- shuffle8
I0813 20:53:26.743454   859 net.cpp:443] resx8_conv2 -> resx8_conv2
I0813 20:53:26.743773   859 net.cpp:141] Setting up resx8_conv2
I0813 20:53:26.743789   859 net.cpp:148] Top shape: 80 120 14 14 (1881600)
I0813 20:53:26.743793   859 net.cpp:156] Memory required for data: 3652562240
I0813 20:53:26.743798   859 layer_factory.hpp:77] Creating layer resx8_conv2_bn
I0813 20:53:26.743806   859 net.cpp:91] Creating Layer resx8_conv2_bn
I0813 20:53:26.743810   859 net.cpp:469] resx8_conv2_bn <- resx8_conv2
I0813 20:53:26.743818   859 net.cpp:430] resx8_conv2_bn -> resx8_conv2 (in-place)
I0813 20:53:26.744000   859 net.cpp:141] Setting up resx8_conv2_bn
I0813 20:53:26.744009   859 net.cpp:148] Top shape: 80 120 14 14 (1881600)
I0813 20:53:26.744016   859 net.cpp:156] Memory required for data: 3660088640
I0813 20:53:26.744029   859 layer_factory.hpp:77] Creating layer resx8_conv2_scale
I0813 20:53:26.744037   859 net.cpp:91] Creating Layer resx8_conv2_scale
I0813 20:53:26.744041   859 net.cpp:469] resx8_conv2_scale <- resx8_conv2
I0813 20:53:26.744048   859 net.cpp:430] resx8_conv2_scale -> resx8_conv2 (in-place)
I0813 20:53:26.744089   859 layer_factory.hpp:77] Creating layer resx8_conv2_scale
I0813 20:53:26.744201   859 net.cpp:141] Setting up resx8_conv2_scale
I0813 20:53:26.744210   859 net.cpp:148] Top shape: 80 120 14 14 (1881600)
I0813 20:53:26.744212   859 net.cpp:156] Memory required for data: 3667615040
I0813 20:53:26.744218   859 layer_factory.hpp:77] Creating layer resx8_conv3
I0813 20:53:26.744230   859 net.cpp:91] Creating Layer resx8_conv3
I0813 20:53:26.744233   859 net.cpp:469] resx8_conv3 <- resx8_conv2
I0813 20:53:26.744240   859 net.cpp:443] resx8_conv3 -> resx8_conv3
I0813 20:53:26.747021   859 net.cpp:141] Setting up resx8_conv3
I0813 20:53:26.747038   859 net.cpp:148] Top shape: 80 480 14 14 (7526400)
I0813 20:53:26.747042   859 net.cpp:156] Memory required for data: 3697720640
I0813 20:53:26.747048   859 layer_factory.hpp:77] Creating layer resx8_conv3_bn
I0813 20:53:26.747056   859 net.cpp:91] Creating Layer resx8_conv3_bn
I0813 20:53:26.747061   859 net.cpp:469] resx8_conv3_bn <- resx8_conv3
I0813 20:53:26.747068   859 net.cpp:430] resx8_conv3_bn -> resx8_conv3 (in-place)
I0813 20:53:26.747272   859 net.cpp:141] Setting up resx8_conv3_bn
I0813 20:53:26.747280   859 net.cpp:148] Top shape: 80 480 14 14 (7526400)
I0813 20:53:26.747283   859 net.cpp:156] Memory required for data: 3727826240
I0813 20:53:26.747292   859 layer_factory.hpp:77] Creating layer resx8_conv3_scale
I0813 20:53:26.747299   859 net.cpp:91] Creating Layer resx8_conv3_scale
I0813 20:53:26.747303   859 net.cpp:469] resx8_conv3_scale <- resx8_conv3
I0813 20:53:26.747310   859 net.cpp:430] resx8_conv3_scale -> resx8_conv3 (in-place)
I0813 20:53:26.747352   859 layer_factory.hpp:77] Creating layer resx8_conv3_scale
I0813 20:53:26.747467   859 net.cpp:141] Setting up resx8_conv3_scale
I0813 20:53:26.747474   859 net.cpp:148] Top shape: 80 480 14 14 (7526400)
I0813 20:53:26.747478   859 net.cpp:156] Memory required for data: 3757931840
I0813 20:53:26.747483   859 layer_factory.hpp:77] Creating layer resx8_elewise
I0813 20:53:26.747491   859 net.cpp:91] Creating Layer resx8_elewise
I0813 20:53:26.747495   859 net.cpp:469] resx8_elewise <- resx7_elewise_resx7_elewise_relu_0_split_1
I0813 20:53:26.747501   859 net.cpp:469] resx8_elewise <- resx8_conv3
I0813 20:53:26.747508   859 net.cpp:443] resx8_elewise -> resx8_elewise
I0813 20:53:26.747535   859 net.cpp:141] Setting up resx8_elewise
I0813 20:53:26.747541   859 net.cpp:148] Top shape: 80 480 14 14 (7526400)
I0813 20:53:26.747545   859 net.cpp:156] Memory required for data: 3788037440
I0813 20:53:26.747548   859 layer_factory.hpp:77] Creating layer resx8_elewise_relu
I0813 20:53:26.747555   859 net.cpp:91] Creating Layer resx8_elewise_relu
I0813 20:53:26.747558   859 net.cpp:469] resx8_elewise_relu <- resx8_elewise
I0813 20:53:26.747565   859 net.cpp:430] resx8_elewise_relu -> resx8_elewise (in-place)
I0813 20:53:26.747902   859 net.cpp:141] Setting up resx8_elewise_relu
I0813 20:53:26.747915   859 net.cpp:148] Top shape: 80 480 14 14 (7526400)
I0813 20:53:26.747920   859 net.cpp:156] Memory required for data: 3818143040
I0813 20:53:26.747925   859 layer_factory.hpp:77] Creating layer resx8_elewise_resx8_elewise_relu_0_split
I0813 20:53:26.747931   859 net.cpp:91] Creating Layer resx8_elewise_resx8_elewise_relu_0_split
I0813 20:53:26.747936   859 net.cpp:469] resx8_elewise_resx8_elewise_relu_0_split <- resx8_elewise
I0813 20:53:26.747942   859 net.cpp:443] resx8_elewise_resx8_elewise_relu_0_split -> resx8_elewise_resx8_elewise_relu_0_split_0
I0813 20:53:26.747951   859 net.cpp:443] resx8_elewise_resx8_elewise_relu_0_split -> resx8_elewise_resx8_elewise_relu_0_split_1
I0813 20:53:26.747994   859 net.cpp:141] Setting up resx8_elewise_resx8_elewise_relu_0_split
I0813 20:53:26.748008   859 net.cpp:148] Top shape: 80 480 14 14 (7526400)
I0813 20:53:26.748018   859 net.cpp:148] Top shape: 80 480 14 14 (7526400)
I0813 20:53:26.748023   859 net.cpp:156] Memory required for data: 3878354240
I0813 20:53:26.748026   859 layer_factory.hpp:77] Creating layer resx9_conv1
I0813 20:53:26.748035   859 net.cpp:91] Creating Layer resx9_conv1
I0813 20:53:26.748040   859 net.cpp:469] resx9_conv1 <- resx8_elewise_resx8_elewise_relu_0_split_0
I0813 20:53:26.748047   859 net.cpp:443] resx9_conv1 -> resx9_conv1
I0813 20:53:26.750870   859 net.cpp:141] Setting up resx9_conv1
I0813 20:53:26.750885   859 net.cpp:148] Top shape: 80 120 14 14 (1881600)
I0813 20:53:26.750890   859 net.cpp:156] Memory required for data: 3885880640
I0813 20:53:26.750895   859 layer_factory.hpp:77] Creating layer resx9_conv1_bn
I0813 20:53:26.750905   859 net.cpp:91] Creating Layer resx9_conv1_bn
I0813 20:53:26.750910   859 net.cpp:469] resx9_conv1_bn <- resx9_conv1
I0813 20:53:26.750917   859 net.cpp:430] resx9_conv1_bn -> resx9_conv1 (in-place)
I0813 20:53:26.751106   859 net.cpp:141] Setting up resx9_conv1_bn
I0813 20:53:26.751114   859 net.cpp:148] Top shape: 80 120 14 14 (1881600)
I0813 20:53:26.751118   859 net.cpp:156] Memory required for data: 3893407040
I0813 20:53:26.751126   859 layer_factory.hpp:77] Creating layer resx9_conv1_scale
I0813 20:53:26.751135   859 net.cpp:91] Creating Layer resx9_conv1_scale
I0813 20:53:26.751139   859 net.cpp:469] resx9_conv1_scale <- resx9_conv1
I0813 20:53:26.751144   859 net.cpp:430] resx9_conv1_scale -> resx9_conv1 (in-place)
I0813 20:53:26.751188   859 layer_factory.hpp:77] Creating layer resx9_conv1_scale
I0813 20:53:26.751305   859 net.cpp:141] Setting up resx9_conv1_scale
I0813 20:53:26.751313   859 net.cpp:148] Top shape: 80 120 14 14 (1881600)
I0813 20:53:26.751317   859 net.cpp:156] Memory required for data: 3900933440
I0813 20:53:26.751322   859 layer_factory.hpp:77] Creating layer resx9_conv1_relu
I0813 20:53:26.751328   859 net.cpp:91] Creating Layer resx9_conv1_relu
I0813 20:53:26.751332   859 net.cpp:469] resx9_conv1_relu <- resx9_conv1
I0813 20:53:26.751338   859 net.cpp:430] resx9_conv1_relu -> resx9_conv1 (in-place)
I0813 20:53:26.751660   859 net.cpp:141] Setting up resx9_conv1_relu
I0813 20:53:26.751673   859 net.cpp:148] Top shape: 80 120 14 14 (1881600)
I0813 20:53:26.751677   859 net.cpp:156] Memory required for data: 3908459840
I0813 20:53:26.751680   859 layer_factory.hpp:77] Creating layer shuffle9
I0813 20:53:26.751688   859 net.cpp:91] Creating Layer shuffle9
I0813 20:53:26.751691   859 net.cpp:469] shuffle9 <- resx9_conv1
I0813 20:53:26.751699   859 net.cpp:443] shuffle9 -> shuffle9
I0813 20:53:26.751740   859 net.cpp:141] Setting up shuffle9
I0813 20:53:26.751749   859 net.cpp:148] Top shape: 80 120 14 14 (1881600)
I0813 20:53:26.751752   859 net.cpp:156] Memory required for data: 3915986240
I0813 20:53:26.751755   859 layer_factory.hpp:77] Creating layer resx9_conv2
I0813 20:53:26.751766   859 net.cpp:91] Creating Layer resx9_conv2
I0813 20:53:26.751770   859 net.cpp:469] resx9_conv2 <- shuffle9
I0813 20:53:26.751777   859 net.cpp:443] resx9_conv2 -> resx9_conv2
I0813 20:53:26.751926   859 net.cpp:141] Setting up resx9_conv2
I0813 20:53:26.751937   859 net.cpp:148] Top shape: 80 120 14 14 (1881600)
I0813 20:53:26.751941   859 net.cpp:156] Memory required for data: 3923512640
I0813 20:53:26.751946   859 layer_factory.hpp:77] Creating layer resx9_conv2_bn
I0813 20:53:26.751956   859 net.cpp:91] Creating Layer resx9_conv2_bn
I0813 20:53:26.751960   859 net.cpp:469] resx9_conv2_bn <- resx9_conv2
I0813 20:53:26.751966   859 net.cpp:430] resx9_conv2_bn -> resx9_conv2 (in-place)
I0813 20:53:26.752162   859 net.cpp:141] Setting up resx9_conv2_bn
I0813 20:53:26.752171   859 net.cpp:148] Top shape: 80 120 14 14 (1881600)
I0813 20:53:26.752174   859 net.cpp:156] Memory required for data: 3931039040
I0813 20:53:26.752182   859 layer_factory.hpp:77] Creating layer resx9_conv2_scale
I0813 20:53:26.752192   859 net.cpp:91] Creating Layer resx9_conv2_scale
I0813 20:53:26.752202   859 net.cpp:469] resx9_conv2_scale <- resx9_conv2
I0813 20:53:26.752214   859 net.cpp:430] resx9_conv2_scale -> resx9_conv2 (in-place)
I0813 20:53:26.752259   859 layer_factory.hpp:77] Creating layer resx9_conv2_scale
I0813 20:53:26.752377   859 net.cpp:141] Setting up resx9_conv2_scale
I0813 20:53:26.752401   859 net.cpp:148] Top shape: 80 120 14 14 (1881600)
I0813 20:53:26.752406   859 net.cpp:156] Memory required for data: 3938565440
I0813 20:53:26.752413   859 layer_factory.hpp:77] Creating layer resx9_conv3
I0813 20:53:26.752440   859 net.cpp:91] Creating Layer resx9_conv3
I0813 20:53:26.752445   859 net.cpp:469] resx9_conv3 <- resx9_conv2
I0813 20:53:26.752451   859 net.cpp:443] resx9_conv3 -> resx9_conv3
I0813 20:53:26.755250   859 net.cpp:141] Setting up resx9_conv3
I0813 20:53:26.755265   859 net.cpp:148] Top shape: 80 480 14 14 (7526400)
I0813 20:53:26.755270   859 net.cpp:156] Memory required for data: 3968671040
I0813 20:53:26.755276   859 layer_factory.hpp:77] Creating layer resx9_conv3_bn
I0813 20:53:26.755286   859 net.cpp:91] Creating Layer resx9_conv3_bn
I0813 20:53:26.755290   859 net.cpp:469] resx9_conv3_bn <- resx9_conv3
I0813 20:53:26.755296   859 net.cpp:430] resx9_conv3_bn -> resx9_conv3 (in-place)
I0813 20:53:26.755499   859 net.cpp:141] Setting up resx9_conv3_bn
I0813 20:53:26.755507   859 net.cpp:148] Top shape: 80 480 14 14 (7526400)
I0813 20:53:26.755511   859 net.cpp:156] Memory required for data: 3998776640
I0813 20:53:26.755518   859 layer_factory.hpp:77] Creating layer resx9_conv3_scale
I0813 20:53:26.755528   859 net.cpp:91] Creating Layer resx9_conv3_scale
I0813 20:53:26.755532   859 net.cpp:469] resx9_conv3_scale <- resx9_conv3
I0813 20:53:26.755537   859 net.cpp:430] resx9_conv3_scale -> resx9_conv3 (in-place)
I0813 20:53:26.755583   859 layer_factory.hpp:77] Creating layer resx9_conv3_scale
I0813 20:53:26.755702   859 net.cpp:141] Setting up resx9_conv3_scale
I0813 20:53:26.755709   859 net.cpp:148] Top shape: 80 480 14 14 (7526400)
I0813 20:53:26.755712   859 net.cpp:156] Memory required for data: 4028882240
I0813 20:53:26.755718   859 layer_factory.hpp:77] Creating layer resx9_elewise
I0813 20:53:26.755726   859 net.cpp:91] Creating Layer resx9_elewise
I0813 20:53:26.755730   859 net.cpp:469] resx9_elewise <- resx8_elewise_resx8_elewise_relu_0_split_1
I0813 20:53:26.755734   859 net.cpp:469] resx9_elewise <- resx9_conv3
I0813 20:53:26.755741   859 net.cpp:443] resx9_elewise -> resx9_elewise
I0813 20:53:26.755767   859 net.cpp:141] Setting up resx9_elewise
I0813 20:53:26.755774   859 net.cpp:148] Top shape: 80 480 14 14 (7526400)
I0813 20:53:26.755777   859 net.cpp:156] Memory required for data: 4058987840
I0813 20:53:26.755780   859 layer_factory.hpp:77] Creating layer resx9_elewise_relu
I0813 20:53:26.755789   859 net.cpp:91] Creating Layer resx9_elewise_relu
I0813 20:53:26.755794   859 net.cpp:469] resx9_elewise_relu <- resx9_elewise
I0813 20:53:26.755797   859 net.cpp:430] resx9_elewise_relu -> resx9_elewise (in-place)
I0813 20:53:26.756292   859 net.cpp:141] Setting up resx9_elewise_relu
I0813 20:53:26.756305   859 net.cpp:148] Top shape: 80 480 14 14 (7526400)
I0813 20:53:26.756309   859 net.cpp:156] Memory required for data: 4089093440
I0813 20:53:26.756314   859 layer_factory.hpp:77] Creating layer resx9_elewise_resx9_elewise_relu_0_split
I0813 20:53:26.756321   859 net.cpp:91] Creating Layer resx9_elewise_resx9_elewise_relu_0_split
I0813 20:53:26.756326   859 net.cpp:469] resx9_elewise_resx9_elewise_relu_0_split <- resx9_elewise
I0813 20:53:26.756331   859 net.cpp:443] resx9_elewise_resx9_elewise_relu_0_split -> resx9_elewise_resx9_elewise_relu_0_split_0
I0813 20:53:26.756337   859 net.cpp:443] resx9_elewise_resx9_elewise_relu_0_split -> resx9_elewise_resx9_elewise_relu_0_split_1
I0813 20:53:26.756630   859 net.cpp:141] Setting up resx9_elewise_resx9_elewise_relu_0_split
I0813 20:53:26.756640   859 net.cpp:148] Top shape: 80 480 14 14 (7526400)
I0813 20:53:26.756644   859 net.cpp:148] Top shape: 80 480 14 14 (7526400)
I0813 20:53:26.756652   859 net.cpp:156] Memory required for data: 4149304640
I0813 20:53:26.756662   859 layer_factory.hpp:77] Creating layer resx10_conv1
I0813 20:53:26.756673   859 net.cpp:91] Creating Layer resx10_conv1
I0813 20:53:26.756678   859 net.cpp:469] resx10_conv1 <- resx9_elewise_resx9_elewise_relu_0_split_0
I0813 20:53:26.756685   859 net.cpp:443] resx10_conv1 -> resx10_conv1
I0813 20:53:26.759500   859 net.cpp:141] Setting up resx10_conv1
I0813 20:53:26.759516   859 net.cpp:148] Top shape: 80 120 14 14 (1881600)
I0813 20:53:26.759519   859 net.cpp:156] Memory required for data: 4156831040
I0813 20:53:26.759526   859 layer_factory.hpp:77] Creating layer resx10_conv1_bn
I0813 20:53:26.759534   859 net.cpp:91] Creating Layer resx10_conv1_bn
I0813 20:53:26.759539   859 net.cpp:469] resx10_conv1_bn <- resx10_conv1
I0813 20:53:26.759544   859 net.cpp:430] resx10_conv1_bn -> resx10_conv1 (in-place)
I0813 20:53:26.759758   859 net.cpp:141] Setting up resx10_conv1_bn
I0813 20:53:26.759766   859 net.cpp:148] Top shape: 80 120 14 14 (1881600)
I0813 20:53:26.759770   859 net.cpp:156] Memory required for data: 4164357440
I0813 20:53:26.759778   859 layer_factory.hpp:77] Creating layer resx10_conv1_scale
I0813 20:53:26.759786   859 net.cpp:91] Creating Layer resx10_conv1_scale
I0813 20:53:26.759791   859 net.cpp:469] resx10_conv1_scale <- resx10_conv1
I0813 20:53:26.759796   859 net.cpp:430] resx10_conv1_scale -> resx10_conv1 (in-place)
I0813 20:53:26.759840   859 layer_factory.hpp:77] Creating layer resx10_conv1_scale
I0813 20:53:26.759954   859 net.cpp:141] Setting up resx10_conv1_scale
I0813 20:53:26.759961   859 net.cpp:148] Top shape: 80 120 14 14 (1881600)
I0813 20:53:26.759965   859 net.cpp:156] Memory required for data: 4171883840
I0813 20:53:26.759971   859 layer_factory.hpp:77] Creating layer resx10_conv1_relu
I0813 20:53:26.759979   859 net.cpp:91] Creating Layer resx10_conv1_relu
I0813 20:53:26.759984   859 net.cpp:469] resx10_conv1_relu <- resx10_conv1
I0813 20:53:26.759987   859 net.cpp:430] resx10_conv1_relu -> resx10_conv1 (in-place)
I0813 20:53:26.760306   859 net.cpp:141] Setting up resx10_conv1_relu
I0813 20:53:26.760319   859 net.cpp:148] Top shape: 80 120 14 14 (1881600)
I0813 20:53:26.760324   859 net.cpp:156] Memory required for data: 4179410240
I0813 20:53:26.760329   859 layer_factory.hpp:77] Creating layer shuffle10
I0813 20:53:26.760336   859 net.cpp:91] Creating Layer shuffle10
I0813 20:53:26.760340   859 net.cpp:469] shuffle10 <- resx10_conv1
I0813 20:53:26.760345   859 net.cpp:443] shuffle10 -> shuffle10
I0813 20:53:26.760380   859 net.cpp:141] Setting up shuffle10
I0813 20:53:26.760386   859 net.cpp:148] Top shape: 80 120 14 14 (1881600)
I0813 20:53:26.760390   859 net.cpp:156] Memory required for data: 4186936640
I0813 20:53:26.760393   859 layer_factory.hpp:77] Creating layer resx10_conv2
I0813 20:53:26.760403   859 net.cpp:91] Creating Layer resx10_conv2
I0813 20:53:26.760407   859 net.cpp:469] resx10_conv2 <- shuffle10
I0813 20:53:26.760412   859 net.cpp:443] resx10_conv2 -> resx10_conv2
I0813 20:53:26.760551   859 net.cpp:141] Setting up resx10_conv2
I0813 20:53:26.760562   859 net.cpp:148] Top shape: 80 120 14 14 (1881600)
I0813 20:53:26.760565   859 net.cpp:156] Memory required for data: 4194463040
I0813 20:53:26.760571   859 layer_factory.hpp:77] Creating layer resx10_conv2_bn
I0813 20:53:26.760581   859 net.cpp:91] Creating Layer resx10_conv2_bn
I0813 20:53:26.760584   859 net.cpp:469] resx10_conv2_bn <- resx10_conv2
I0813 20:53:26.760589   859 net.cpp:430] resx10_conv2_bn -> resx10_conv2 (in-place)
I0813 20:53:26.760778   859 net.cpp:141] Setting up resx10_conv2_bn
I0813 20:53:26.760787   859 net.cpp:148] Top shape: 80 120 14 14 (1881600)
I0813 20:53:26.760789   859 net.cpp:156] Memory required for data: 4201989440
I0813 20:53:26.760797   859 layer_factory.hpp:77] Creating layer resx10_conv2_scale
I0813 20:53:26.760804   859 net.cpp:91] Creating Layer resx10_conv2_scale
I0813 20:53:26.760808   859 net.cpp:469] resx10_conv2_scale <- resx10_conv2
I0813 20:53:26.760813   859 net.cpp:430] resx10_conv2_scale -> resx10_conv2 (in-place)
I0813 20:53:26.760870   859 layer_factory.hpp:77] Creating layer resx10_conv2_scale
I0813 20:53:26.760987   859 net.cpp:141] Setting up resx10_conv2_scale
I0813 20:53:26.760994   859 net.cpp:148] Top shape: 80 120 14 14 (1881600)
I0813 20:53:26.760998   859 net.cpp:156] Memory required for data: 4209515840
I0813 20:53:26.761003   859 layer_factory.hpp:77] Creating layer resx10_conv3
I0813 20:53:26.761013   859 net.cpp:91] Creating Layer resx10_conv3
I0813 20:53:26.761015   859 net.cpp:469] resx10_conv3 <- resx10_conv2
I0813 20:53:26.761023   859 net.cpp:443] resx10_conv3 -> resx10_conv3
I0813 20:53:26.763823   859 net.cpp:141] Setting up resx10_conv3
I0813 20:53:26.763839   859 net.cpp:148] Top shape: 80 480 14 14 (7526400)
I0813 20:53:26.763842   859 net.cpp:156] Memory required for data: 4239621440
I0813 20:53:26.763849   859 layer_factory.hpp:77] Creating layer resx10_conv3_bn
I0813 20:53:26.763859   859 net.cpp:91] Creating Layer resx10_conv3_bn
I0813 20:53:26.763864   859 net.cpp:469] resx10_conv3_bn <- resx10_conv3
I0813 20:53:26.763869   859 net.cpp:430] resx10_conv3_bn -> resx10_conv3 (in-place)
I0813 20:53:26.764065   859 net.cpp:141] Setting up resx10_conv3_bn
I0813 20:53:26.764072   859 net.cpp:148] Top shape: 80 480 14 14 (7526400)
I0813 20:53:26.764075   859 net.cpp:156] Memory required for data: 4269727040
I0813 20:53:26.764082   859 layer_factory.hpp:77] Creating layer resx10_conv3_scale
I0813 20:53:26.764091   859 net.cpp:91] Creating Layer resx10_conv3_scale
I0813 20:53:26.764094   859 net.cpp:469] resx10_conv3_scale <- resx10_conv3
I0813 20:53:26.764099   859 net.cpp:430] resx10_conv3_scale -> resx10_conv3 (in-place)
I0813 20:53:26.764147   859 layer_factory.hpp:77] Creating layer resx10_conv3_scale
I0813 20:53:26.764264   859 net.cpp:141] Setting up resx10_conv3_scale
I0813 20:53:26.764272   859 net.cpp:148] Top shape: 80 480 14 14 (7526400)
I0813 20:53:26.764276   859 net.cpp:156] Memory required for data: 4299832640
I0813 20:53:26.764281   859 layer_factory.hpp:77] Creating layer resx10_elewise
I0813 20:53:26.764288   859 net.cpp:91] Creating Layer resx10_elewise
I0813 20:53:26.764292   859 net.cpp:469] resx10_elewise <- resx9_elewise_resx9_elewise_relu_0_split_1
I0813 20:53:26.764297   859 net.cpp:469] resx10_elewise <- resx10_conv3
I0813 20:53:26.764304   859 net.cpp:443] resx10_elewise -> resx10_elewise
I0813 20:53:26.764330   859 net.cpp:141] Setting up resx10_elewise
I0813 20:53:26.764338   859 net.cpp:148] Top shape: 80 480 14 14 (7526400)
I0813 20:53:26.764341   859 net.cpp:156] Memory required for data: 4329938240
I0813 20:53:26.764345   859 layer_factory.hpp:77] Creating layer resx10_elewise_relu
I0813 20:53:26.764351   859 net.cpp:91] Creating Layer resx10_elewise_relu
I0813 20:53:26.764355   859 net.cpp:469] resx10_elewise_relu <- resx10_elewise
I0813 20:53:26.764359   859 net.cpp:430] resx10_elewise_relu -> resx10_elewise (in-place)
I0813 20:53:26.764683   859 net.cpp:141] Setting up resx10_elewise_relu
I0813 20:53:26.764696   859 net.cpp:148] Top shape: 80 480 14 14 (7526400)
I0813 20:53:26.764699   859 net.cpp:156] Memory required for data: 4360043840
I0813 20:53:26.764703   859 layer_factory.hpp:77] Creating layer resx10_elewise_resx10_elewise_relu_0_split
I0813 20:53:26.764713   859 net.cpp:91] Creating Layer resx10_elewise_resx10_elewise_relu_0_split
I0813 20:53:26.764717   859 net.cpp:469] resx10_elewise_resx10_elewise_relu_0_split <- resx10_elewise
I0813 20:53:26.764722   859 net.cpp:443] resx10_elewise_resx10_elewise_relu_0_split -> resx10_elewise_resx10_elewise_relu_0_split_0
I0813 20:53:26.764729   859 net.cpp:443] resx10_elewise_resx10_elewise_relu_0_split -> resx10_elewise_resx10_elewise_relu_0_split_1
I0813 20:53:26.764775   859 net.cpp:141] Setting up resx10_elewise_resx10_elewise_relu_0_split
I0813 20:53:26.764781   859 net.cpp:148] Top shape: 80 480 14 14 (7526400)
I0813 20:53:26.764786   859 net.cpp:148] Top shape: 80 480 14 14 (7526400)
I0813 20:53:26.764788   859 net.cpp:156] Memory required for data: 4420255040
I0813 20:53:26.764796   859 layer_factory.hpp:77] Creating layer resx11_conv1
I0813 20:53:26.764816   859 net.cpp:91] Creating Layer resx11_conv1
I0813 20:53:26.764822   859 net.cpp:469] resx11_conv1 <- resx10_elewise_resx10_elewise_relu_0_split_0
I0813 20:53:26.764828   859 net.cpp:443] resx11_conv1 -> resx11_conv1
I0813 20:53:26.767624   859 net.cpp:141] Setting up resx11_conv1
I0813 20:53:26.767640   859 net.cpp:148] Top shape: 80 120 14 14 (1881600)
I0813 20:53:26.767644   859 net.cpp:156] Memory required for data: 4427781440
I0813 20:53:26.767650   859 layer_factory.hpp:77] Creating layer resx11_conv1_bn
I0813 20:53:26.767658   859 net.cpp:91] Creating Layer resx11_conv1_bn
I0813 20:53:26.767663   859 net.cpp:469] resx11_conv1_bn <- resx11_conv1
I0813 20:53:26.767670   859 net.cpp:430] resx11_conv1_bn -> resx11_conv1 (in-place)
I0813 20:53:26.767889   859 net.cpp:141] Setting up resx11_conv1_bn
I0813 20:53:26.767896   859 net.cpp:148] Top shape: 80 120 14 14 (1881600)
I0813 20:53:26.767900   859 net.cpp:156] Memory required for data: 4435307840
I0813 20:53:26.767909   859 layer_factory.hpp:77] Creating layer resx11_conv1_scale
I0813 20:53:26.767916   859 net.cpp:91] Creating Layer resx11_conv1_scale
I0813 20:53:26.767920   859 net.cpp:469] resx11_conv1_scale <- resx11_conv1
I0813 20:53:26.767927   859 net.cpp:430] resx11_conv1_scale -> resx11_conv1 (in-place)
I0813 20:53:26.767971   859 layer_factory.hpp:77] Creating layer resx11_conv1_scale
I0813 20:53:26.768093   859 net.cpp:141] Setting up resx11_conv1_scale
I0813 20:53:26.768101   859 net.cpp:148] Top shape: 80 120 14 14 (1881600)
I0813 20:53:26.768105   859 net.cpp:156] Memory required for data: 4442834240
I0813 20:53:26.768111   859 layer_factory.hpp:77] Creating layer resx11_conv1_relu
I0813 20:53:26.768117   859 net.cpp:91] Creating Layer resx11_conv1_relu
I0813 20:53:26.768121   859 net.cpp:469] resx11_conv1_relu <- resx11_conv1
I0813 20:53:26.768129   859 net.cpp:430] resx11_conv1_relu -> resx11_conv1 (in-place)
I0813 20:53:26.768671   859 net.cpp:141] Setting up resx11_conv1_relu
I0813 20:53:26.768683   859 net.cpp:148] Top shape: 80 120 14 14 (1881600)
I0813 20:53:26.768687   859 net.cpp:156] Memory required for data: 4450360640
I0813 20:53:26.768690   859 layer_factory.hpp:77] Creating layer shuffle11
I0813 20:53:26.768697   859 net.cpp:91] Creating Layer shuffle11
I0813 20:53:26.768702   859 net.cpp:469] shuffle11 <- resx11_conv1
I0813 20:53:26.768708   859 net.cpp:443] shuffle11 -> shuffle11
I0813 20:53:26.768744   859 net.cpp:141] Setting up shuffle11
I0813 20:53:26.768751   859 net.cpp:148] Top shape: 80 120 14 14 (1881600)
I0813 20:53:26.768755   859 net.cpp:156] Memory required for data: 4457887040
I0813 20:53:26.768759   859 layer_factory.hpp:77] Creating layer resx11_conv2
I0813 20:53:26.768766   859 net.cpp:91] Creating Layer resx11_conv2
I0813 20:53:26.768770   859 net.cpp:469] resx11_conv2 <- shuffle11
I0813 20:53:26.768777   859 net.cpp:443] resx11_conv2 -> resx11_conv2
I0813 20:53:26.768921   859 net.cpp:141] Setting up resx11_conv2
I0813 20:53:26.768932   859 net.cpp:148] Top shape: 80 120 14 14 (1881600)
I0813 20:53:26.768935   859 net.cpp:156] Memory required for data: 4465413440
I0813 20:53:26.768941   859 layer_factory.hpp:77] Creating layer resx11_conv2_bn
I0813 20:53:26.768949   859 net.cpp:91] Creating Layer resx11_conv2_bn
I0813 20:53:26.768952   859 net.cpp:469] resx11_conv2_bn <- resx11_conv2
I0813 20:53:26.768959   859 net.cpp:430] resx11_conv2_bn -> resx11_conv2 (in-place)
I0813 20:53:26.769342   859 net.cpp:141] Setting up resx11_conv2_bn
I0813 20:53:26.769353   859 net.cpp:148] Top shape: 80 120 14 14 (1881600)
I0813 20:53:26.769357   859 net.cpp:156] Memory required for data: 4472939840
I0813 20:53:26.769366   859 layer_factory.hpp:77] Creating layer resx11_conv2_scale
I0813 20:53:26.769374   859 net.cpp:91] Creating Layer resx11_conv2_scale
I0813 20:53:26.769378   859 net.cpp:469] resx11_conv2_scale <- resx11_conv2
I0813 20:53:26.769385   859 net.cpp:430] resx11_conv2_scale -> resx11_conv2 (in-place)
I0813 20:53:26.769433   859 layer_factory.hpp:77] Creating layer resx11_conv2_scale
I0813 20:53:26.769578   859 net.cpp:141] Setting up resx11_conv2_scale
I0813 20:53:26.769587   859 net.cpp:148] Top shape: 80 120 14 14 (1881600)
I0813 20:53:26.769590   859 net.cpp:156] Memory required for data: 4480466240
I0813 20:53:26.769598   859 layer_factory.hpp:77] Creating layer resx11_conv3
I0813 20:53:26.769608   859 net.cpp:91] Creating Layer resx11_conv3
I0813 20:53:26.769611   859 net.cpp:469] resx11_conv3 <- resx11_conv2
I0813 20:53:26.769618   859 net.cpp:443] resx11_conv3 -> resx11_conv3
I0813 20:53:26.772487   859 net.cpp:141] Setting up resx11_conv3
I0813 20:53:26.772509   859 net.cpp:148] Top shape: 80 480 14 14 (7526400)
I0813 20:53:26.772513   859 net.cpp:156] Memory required for data: 4510571840
I0813 20:53:26.772521   859 layer_factory.hpp:77] Creating layer resx11_conv3_bn
I0813 20:53:26.772531   859 net.cpp:91] Creating Layer resx11_conv3_bn
I0813 20:53:26.772536   859 net.cpp:469] resx11_conv3_bn <- resx11_conv3
I0813 20:53:26.772542   859 net.cpp:430] resx11_conv3_bn -> resx11_conv3 (in-place)
I0813 20:53:26.772765   859 net.cpp:141] Setting up resx11_conv3_bn
I0813 20:53:26.772773   859 net.cpp:148] Top shape: 80 480 14 14 (7526400)
I0813 20:53:26.772778   859 net.cpp:156] Memory required for data: 4540677440
I0813 20:53:26.772785   859 layer_factory.hpp:77] Creating layer resx11_conv3_scale
I0813 20:53:26.772796   859 net.cpp:91] Creating Layer resx11_conv3_scale
I0813 20:53:26.772800   859 net.cpp:469] resx11_conv3_scale <- resx11_conv3
I0813 20:53:26.772805   859 net.cpp:430] resx11_conv3_scale -> resx11_conv3 (in-place)
I0813 20:53:26.772853   859 layer_factory.hpp:77] Creating layer resx11_conv3_scale
I0813 20:53:26.772974   859 net.cpp:141] Setting up resx11_conv3_scale
I0813 20:53:26.772981   859 net.cpp:148] Top shape: 80 480 14 14 (7526400)
I0813 20:53:26.772984   859 net.cpp:156] Memory required for data: 4570783040
I0813 20:53:26.772990   859 layer_factory.hpp:77] Creating layer resx11_elewise
I0813 20:53:26.773000   859 net.cpp:91] Creating Layer resx11_elewise
I0813 20:53:26.773005   859 net.cpp:469] resx11_elewise <- resx10_elewise_resx10_elewise_relu_0_split_1
I0813 20:53:26.773010   859 net.cpp:469] resx11_elewise <- resx11_conv3
I0813 20:53:26.773016   859 net.cpp:443] resx11_elewise -> resx11_elewise
I0813 20:53:26.773043   859 net.cpp:141] Setting up resx11_elewise
I0813 20:53:26.773051   859 net.cpp:148] Top shape: 80 480 14 14 (7526400)
I0813 20:53:26.773053   859 net.cpp:156] Memory required for data: 4600888640
I0813 20:53:26.773057   859 layer_factory.hpp:77] Creating layer resx11_elewise_relu
I0813 20:53:26.773064   859 net.cpp:91] Creating Layer resx11_elewise_relu
I0813 20:53:26.773068   859 net.cpp:469] resx11_elewise_relu <- resx11_elewise
I0813 20:53:26.773073   859 net.cpp:430] resx11_elewise_relu -> resx11_elewise (in-place)
I0813 20:53:26.773619   859 net.cpp:141] Setting up resx11_elewise_relu
I0813 20:53:26.773633   859 net.cpp:148] Top shape: 80 480 14 14 (7526400)
I0813 20:53:26.773636   859 net.cpp:156] Memory required for data: 4630994240
I0813 20:53:26.773639   859 layer_factory.hpp:77] Creating layer resx11_elewise_resx11_elewise_relu_0_split
I0813 20:53:26.773648   859 net.cpp:91] Creating Layer resx11_elewise_resx11_elewise_relu_0_split
I0813 20:53:26.773653   859 net.cpp:469] resx11_elewise_resx11_elewise_relu_0_split <- resx11_elewise
I0813 20:53:26.773658   859 net.cpp:443] resx11_elewise_resx11_elewise_relu_0_split -> resx11_elewise_resx11_elewise_relu_0_split_0
I0813 20:53:26.773664   859 net.cpp:443] resx11_elewise_resx11_elewise_relu_0_split -> resx11_elewise_resx11_elewise_relu_0_split_1
I0813 20:53:26.773710   859 net.cpp:141] Setting up resx11_elewise_resx11_elewise_relu_0_split
I0813 20:53:26.773717   859 net.cpp:148] Top shape: 80 480 14 14 (7526400)
I0813 20:53:26.773721   859 net.cpp:148] Top shape: 80 480 14 14 (7526400)
I0813 20:53:26.773725   859 net.cpp:156] Memory required for data: 4691205440
I0813 20:53:26.773728   859 layer_factory.hpp:77] Creating layer resx12_conv1
I0813 20:53:26.773742   859 net.cpp:91] Creating Layer resx12_conv1
I0813 20:53:26.773753   859 net.cpp:469] resx12_conv1 <- resx11_elewise_resx11_elewise_relu_0_split_0
I0813 20:53:26.773761   859 net.cpp:443] resx12_conv1 -> resx12_conv1
I0813 20:53:26.776562   859 net.cpp:141] Setting up resx12_conv1
I0813 20:53:26.776576   859 net.cpp:148] Top shape: 80 120 14 14 (1881600)
I0813 20:53:26.776581   859 net.cpp:156] Memory required for data: 4698731840
I0813 20:53:26.776585   859 layer_factory.hpp:77] Creating layer resx12_conv1_bn
I0813 20:53:26.776595   859 net.cpp:91] Creating Layer resx12_conv1_bn
I0813 20:53:26.776599   859 net.cpp:469] resx12_conv1_bn <- resx12_conv1
I0813 20:53:26.776605   859 net.cpp:430] resx12_conv1_bn -> resx12_conv1 (in-place)
I0813 20:53:26.776808   859 net.cpp:141] Setting up resx12_conv1_bn
I0813 20:53:26.776816   859 net.cpp:148] Top shape: 80 120 14 14 (1881600)
I0813 20:53:26.776819   859 net.cpp:156] Memory required for data: 4706258240
I0813 20:53:26.776826   859 layer_factory.hpp:77] Creating layer resx12_conv1_scale
I0813 20:53:26.776834   859 net.cpp:91] Creating Layer resx12_conv1_scale
I0813 20:53:26.776837   859 net.cpp:469] resx12_conv1_scale <- resx12_conv1
I0813 20:53:26.776842   859 net.cpp:430] resx12_conv1_scale -> resx12_conv1 (in-place)
I0813 20:53:26.776888   859 layer_factory.hpp:77] Creating layer resx12_conv1_scale
I0813 20:53:26.777009   859 net.cpp:141] Setting up resx12_conv1_scale
I0813 20:53:26.777017   859 net.cpp:148] Top shape: 80 120 14 14 (1881600)
I0813 20:53:26.777021   859 net.cpp:156] Memory required for data: 4713784640
I0813 20:53:26.777027   859 layer_factory.hpp:77] Creating layer resx12_conv1_relu
I0813 20:53:26.777034   859 net.cpp:91] Creating Layer resx12_conv1_relu
I0813 20:53:26.777037   859 net.cpp:469] resx12_conv1_relu <- resx12_conv1
I0813 20:53:26.777042   859 net.cpp:430] resx12_conv1_relu -> resx12_conv1 (in-place)
I0813 20:53:26.777436   859 net.cpp:141] Setting up resx12_conv1_relu
I0813 20:53:26.777449   859 net.cpp:148] Top shape: 80 120 14 14 (1881600)
I0813 20:53:26.777453   859 net.cpp:156] Memory required for data: 4721311040
I0813 20:53:26.777457   859 layer_factory.hpp:77] Creating layer shuffle12
I0813 20:53:26.777465   859 net.cpp:91] Creating Layer shuffle12
I0813 20:53:26.777469   859 net.cpp:469] shuffle12 <- resx12_conv1
I0813 20:53:26.777475   859 net.cpp:443] shuffle12 -> shuffle12
I0813 20:53:26.777508   859 net.cpp:141] Setting up shuffle12
I0813 20:53:26.777515   859 net.cpp:148] Top shape: 80 120 14 14 (1881600)
I0813 20:53:26.777518   859 net.cpp:156] Memory required for data: 4728837440
I0813 20:53:26.777523   859 layer_factory.hpp:77] Creating layer resx12_conv2
I0813 20:53:26.777530   859 net.cpp:91] Creating Layer resx12_conv2
I0813 20:53:26.777534   859 net.cpp:469] resx12_conv2 <- shuffle12
I0813 20:53:26.777540   859 net.cpp:443] resx12_conv2 -> resx12_conv2
I0813 20:53:26.777683   859 net.cpp:141] Setting up resx12_conv2
I0813 20:53:26.777694   859 net.cpp:148] Top shape: 80 120 14 14 (1881600)
I0813 20:53:26.777698   859 net.cpp:156] Memory required for data: 4736363840
I0813 20:53:26.777704   859 layer_factory.hpp:77] Creating layer resx12_conv2_bn
I0813 20:53:26.777714   859 net.cpp:91] Creating Layer resx12_conv2_bn
I0813 20:53:26.777719   859 net.cpp:469] resx12_conv2_bn <- resx12_conv2
I0813 20:53:26.777724   859 net.cpp:430] resx12_conv2_bn -> resx12_conv2 (in-place)
I0813 20:53:26.777910   859 net.cpp:141] Setting up resx12_conv2_bn
I0813 20:53:26.777918   859 net.cpp:148] Top shape: 80 120 14 14 (1881600)
I0813 20:53:26.777921   859 net.cpp:156] Memory required for data: 4743890240
I0813 20:53:26.777930   859 layer_factory.hpp:77] Creating layer resx12_conv2_scale
I0813 20:53:26.777937   859 net.cpp:91] Creating Layer resx12_conv2_scale
I0813 20:53:26.777941   859 net.cpp:469] resx12_conv2_scale <- resx12_conv2
I0813 20:53:26.777946   859 net.cpp:430] resx12_conv2_scale -> resx12_conv2 (in-place)
I0813 20:53:26.777993   859 layer_factory.hpp:77] Creating layer resx12_conv2_scale
I0813 20:53:26.778123   859 net.cpp:141] Setting up resx12_conv2_scale
I0813 20:53:26.778137   859 net.cpp:148] Top shape: 80 120 14 14 (1881600)
I0813 20:53:26.778141   859 net.cpp:156] Memory required for data: 4751416640
I0813 20:53:26.778147   859 layer_factory.hpp:77] Creating layer resx12_conv3
I0813 20:53:26.778159   859 net.cpp:91] Creating Layer resx12_conv3
I0813 20:53:26.778163   859 net.cpp:469] resx12_conv3 <- resx12_conv2
I0813 20:53:26.778169   859 net.cpp:443] resx12_conv3 -> resx12_conv3
I0813 20:53:26.781806   859 net.cpp:141] Setting up resx12_conv3
I0813 20:53:26.781821   859 net.cpp:148] Top shape: 80 480 14 14 (7526400)
I0813 20:53:26.781826   859 net.cpp:156] Memory required for data: 4781522240
I0813 20:53:26.781831   859 layer_factory.hpp:77] Creating layer resx12_conv3_bn
I0813 20:53:26.781841   859 net.cpp:91] Creating Layer resx12_conv3_bn
I0813 20:53:26.781846   859 net.cpp:469] resx12_conv3_bn <- resx12_conv3
I0813 20:53:26.781852   859 net.cpp:430] resx12_conv3_bn -> resx12_conv3 (in-place)
I0813 20:53:26.782058   859 net.cpp:141] Setting up resx12_conv3_bn
I0813 20:53:26.782065   859 net.cpp:148] Top shape: 80 480 14 14 (7526400)
I0813 20:53:26.782068   859 net.cpp:156] Memory required for data: 4811627840
I0813 20:53:26.782075   859 layer_factory.hpp:77] Creating layer resx12_conv3_scale
I0813 20:53:26.782084   859 net.cpp:91] Creating Layer resx12_conv3_scale
I0813 20:53:26.782089   859 net.cpp:469] resx12_conv3_scale <- resx12_conv3
I0813 20:53:26.782094   859 net.cpp:430] resx12_conv3_scale -> resx12_conv3 (in-place)
I0813 20:53:26.782140   859 layer_factory.hpp:77] Creating layer resx12_conv3_scale
I0813 20:53:26.782263   859 net.cpp:141] Setting up resx12_conv3_scale
I0813 20:53:26.782272   859 net.cpp:148] Top shape: 80 480 14 14 (7526400)
I0813 20:53:26.782275   859 net.cpp:156] Memory required for data: 4841733440
I0813 20:53:26.782281   859 layer_factory.hpp:77] Creating layer resx12_elewise
I0813 20:53:26.782289   859 net.cpp:91] Creating Layer resx12_elewise
I0813 20:53:26.782294   859 net.cpp:469] resx12_elewise <- resx11_elewise_resx11_elewise_relu_0_split_1
I0813 20:53:26.782297   859 net.cpp:469] resx12_elewise <- resx12_conv3
I0813 20:53:26.782305   859 net.cpp:443] resx12_elewise -> resx12_elewise
I0813 20:53:26.782331   859 net.cpp:141] Setting up resx12_elewise
I0813 20:53:26.782338   859 net.cpp:148] Top shape: 80 480 14 14 (7526400)
I0813 20:53:26.782341   859 net.cpp:156] Memory required for data: 4871839040
I0813 20:53:26.782346   859 layer_factory.hpp:77] Creating layer resx12_elewise_relu
I0813 20:53:26.782352   859 net.cpp:91] Creating Layer resx12_elewise_relu
I0813 20:53:26.782357   859 net.cpp:469] resx12_elewise_relu <- resx12_elewise
I0813 20:53:26.782361   859 net.cpp:430] resx12_elewise_relu -> resx12_elewise (in-place)
I0813 20:53:26.782516   859 net.cpp:141] Setting up resx12_elewise_relu
I0813 20:53:26.782526   859 net.cpp:148] Top shape: 80 480 14 14 (7526400)
I0813 20:53:26.782529   859 net.cpp:156] Memory required for data: 4901944640
I0813 20:53:26.782533   859 layer_factory.hpp:77] Creating layer resx12_elewise_resx12_elewise_relu_0_split
I0813 20:53:26.782541   859 net.cpp:91] Creating Layer resx12_elewise_resx12_elewise_relu_0_split
I0813 20:53:26.782544   859 net.cpp:469] resx12_elewise_resx12_elewise_relu_0_split <- resx12_elewise
I0813 20:53:26.782552   859 net.cpp:443] resx12_elewise_resx12_elewise_relu_0_split -> resx12_elewise_resx12_elewise_relu_0_split_0
I0813 20:53:26.782558   859 net.cpp:443] resx12_elewise_resx12_elewise_relu_0_split -> resx12_elewise_resx12_elewise_relu_0_split_1
I0813 20:53:26.782601   859 net.cpp:141] Setting up resx12_elewise_resx12_elewise_relu_0_split
I0813 20:53:26.782608   859 net.cpp:148] Top shape: 80 480 14 14 (7526400)
I0813 20:53:26.782613   859 net.cpp:148] Top shape: 80 480 14 14 (7526400)
I0813 20:53:26.782615   859 net.cpp:156] Memory required for data: 4962155840
I0813 20:53:26.782619   859 layer_factory.hpp:77] Creating layer resx13_match_conv
I0813 20:53:26.782629   859 net.cpp:91] Creating Layer resx13_match_conv
I0813 20:53:26.782635   859 net.cpp:469] resx13_match_conv <- resx12_elewise_resx12_elewise_relu_0_split_0
I0813 20:53:26.782646   859 net.cpp:443] resx13_match_conv -> resx13_match_conv
I0813 20:53:26.782990   859 net.cpp:141] Setting up resx13_match_conv
I0813 20:53:26.783004   859 net.cpp:148] Top shape: 80 480 7 7 (1881600)
I0813 20:53:26.783008   859 net.cpp:156] Memory required for data: 4969682240
I0813 20:53:26.783012   859 layer_factory.hpp:77] Creating layer resx13_conv1
I0813 20:53:26.783021   859 net.cpp:91] Creating Layer resx13_conv1
I0813 20:53:26.783026   859 net.cpp:469] resx13_conv1 <- resx12_elewise_resx12_elewise_relu_0_split_1
I0813 20:53:26.783035   859 net.cpp:443] resx13_conv1 -> resx13_conv1
I0813 20:53:26.785842   859 net.cpp:141] Setting up resx13_conv1
I0813 20:53:26.785856   859 net.cpp:148] Top shape: 80 120 14 14 (1881600)
I0813 20:53:26.785861   859 net.cpp:156] Memory required for data: 4977208640
I0813 20:53:26.785866   859 layer_factory.hpp:77] Creating layer resx13_conv1_bn
I0813 20:53:26.785876   859 net.cpp:91] Creating Layer resx13_conv1_bn
I0813 20:53:26.785881   859 net.cpp:469] resx13_conv1_bn <- resx13_conv1
I0813 20:53:26.785887   859 net.cpp:430] resx13_conv1_bn -> resx13_conv1 (in-place)
I0813 20:53:26.786090   859 net.cpp:141] Setting up resx13_conv1_bn
I0813 20:53:26.786098   859 net.cpp:148] Top shape: 80 120 14 14 (1881600)
I0813 20:53:26.786103   859 net.cpp:156] Memory required for data: 4984735040
I0813 20:53:26.786109   859 layer_factory.hpp:77] Creating layer resx13_conv1_scale
I0813 20:53:26.786118   859 net.cpp:91] Creating Layer resx13_conv1_scale
I0813 20:53:26.786123   859 net.cpp:469] resx13_conv1_scale <- resx13_conv1
I0813 20:53:26.786128   859 net.cpp:430] resx13_conv1_scale -> resx13_conv1 (in-place)
I0813 20:53:26.786173   859 layer_factory.hpp:77] Creating layer resx13_conv1_scale
I0813 20:53:26.786296   859 net.cpp:141] Setting up resx13_conv1_scale
I0813 20:53:26.786303   859 net.cpp:148] Top shape: 80 120 14 14 (1881600)
I0813 20:53:26.786308   859 net.cpp:156] Memory required for data: 4992261440
I0813 20:53:26.786314   859 layer_factory.hpp:77] Creating layer resx13_conv1_relu
I0813 20:53:26.786319   859 net.cpp:91] Creating Layer resx13_conv1_relu
I0813 20:53:26.786324   859 net.cpp:469] resx13_conv1_relu <- resx13_conv1
I0813 20:53:26.786330   859 net.cpp:430] resx13_conv1_relu -> resx13_conv1 (in-place)
I0813 20:53:26.786660   859 net.cpp:141] Setting up resx13_conv1_relu
I0813 20:53:26.786672   859 net.cpp:148] Top shape: 80 120 14 14 (1881600)
I0813 20:53:26.786676   859 net.cpp:156] Memory required for data: 4999787840
I0813 20:53:26.786680   859 layer_factory.hpp:77] Creating layer shuffle13
I0813 20:53:26.786687   859 net.cpp:91] Creating Layer shuffle13
I0813 20:53:26.786691   859 net.cpp:469] shuffle13 <- resx13_conv1
I0813 20:53:26.786698   859 net.cpp:443] shuffle13 -> shuffle13
I0813 20:53:26.786732   859 net.cpp:141] Setting up shuffle13
I0813 20:53:26.786742   859 net.cpp:148] Top shape: 80 120 14 14 (1881600)
I0813 20:53:26.786746   859 net.cpp:156] Memory required for data: 5007314240
I0813 20:53:26.786749   859 layer_factory.hpp:77] Creating layer resx13_conv2
I0813 20:53:26.786756   859 net.cpp:91] Creating Layer resx13_conv2
I0813 20:53:26.786761   859 net.cpp:469] resx13_conv2 <- shuffle13
I0813 20:53:26.786767   859 net.cpp:443] resx13_conv2 -> resx13_conv2
I0813 20:53:26.787098   859 net.cpp:141] Setting up resx13_conv2
I0813 20:53:26.787111   859 net.cpp:148] Top shape: 80 120 7 7 (470400)
I0813 20:53:26.787116   859 net.cpp:156] Memory required for data: 5009195840
I0813 20:53:26.787122   859 layer_factory.hpp:77] Creating layer resx13_conv2_bn
I0813 20:53:26.787130   859 net.cpp:91] Creating Layer resx13_conv2_bn
I0813 20:53:26.787134   859 net.cpp:469] resx13_conv2_bn <- resx13_conv2
I0813 20:53:26.787142   859 net.cpp:430] resx13_conv2_bn -> resx13_conv2 (in-place)
I0813 20:53:26.787351   859 net.cpp:141] Setting up resx13_conv2_bn
I0813 20:53:26.787359   859 net.cpp:148] Top shape: 80 120 7 7 (470400)
I0813 20:53:26.787364   859 net.cpp:156] Memory required for data: 5011077440
I0813 20:53:26.787379   859 layer_factory.hpp:77] Creating layer resx13_conv2_scale
I0813 20:53:26.787389   859 net.cpp:91] Creating Layer resx13_conv2_scale
I0813 20:53:26.787395   859 net.cpp:469] resx13_conv2_scale <- resx13_conv2
I0813 20:53:26.787400   859 net.cpp:430] resx13_conv2_scale -> resx13_conv2 (in-place)
I0813 20:53:26.787446   859 layer_factory.hpp:77] Creating layer resx13_conv2_scale
I0813 20:53:26.787569   859 net.cpp:141] Setting up resx13_conv2_scale
I0813 20:53:26.787577   859 net.cpp:148] Top shape: 80 120 7 7 (470400)
I0813 20:53:26.787580   859 net.cpp:156] Memory required for data: 5012959040
I0813 20:53:26.787586   859 layer_factory.hpp:77] Creating layer resx13_conv3
I0813 20:53:26.787597   859 net.cpp:91] Creating Layer resx13_conv3
I0813 20:53:26.787602   859 net.cpp:469] resx13_conv3 <- resx13_conv2
I0813 20:53:26.787609   859 net.cpp:443] resx13_conv3 -> resx13_conv3
I0813 20:53:26.790580   859 net.cpp:141] Setting up resx13_conv3
I0813 20:53:26.790596   859 net.cpp:148] Top shape: 80 480 7 7 (1881600)
I0813 20:53:26.790599   859 net.cpp:156] Memory required for data: 5020485440
I0813 20:53:26.790604   859 layer_factory.hpp:77] Creating layer resx13_conv3_bn
I0813 20:53:26.790614   859 net.cpp:91] Creating Layer resx13_conv3_bn
I0813 20:53:26.790618   859 net.cpp:469] resx13_conv3_bn <- resx13_conv3
I0813 20:53:26.790626   859 net.cpp:430] resx13_conv3_bn -> resx13_conv3 (in-place)
I0813 20:53:26.790843   859 net.cpp:141] Setting up resx13_conv3_bn
I0813 20:53:26.790851   859 net.cpp:148] Top shape: 80 480 7 7 (1881600)
I0813 20:53:26.790854   859 net.cpp:156] Memory required for data: 5028011840
I0813 20:53:26.790863   859 layer_factory.hpp:77] Creating layer resx13_conv3_scale
I0813 20:53:26.790873   859 net.cpp:91] Creating Layer resx13_conv3_scale
I0813 20:53:26.790876   859 net.cpp:469] resx13_conv3_scale <- resx13_conv3
I0813 20:53:26.790881   859 net.cpp:430] resx13_conv3_scale -> resx13_conv3 (in-place)
I0813 20:53:26.790931   859 layer_factory.hpp:77] Creating layer resx13_conv3_scale
I0813 20:53:26.791290   859 net.cpp:141] Setting up resx13_conv3_scale
I0813 20:53:26.791299   859 net.cpp:148] Top shape: 80 480 7 7 (1881600)
I0813 20:53:26.791303   859 net.cpp:156] Memory required for data: 5035538240
I0813 20:53:26.791309   859 layer_factory.hpp:77] Creating layer resx13_concat
I0813 20:53:26.791319   859 net.cpp:91] Creating Layer resx13_concat
I0813 20:53:26.791324   859 net.cpp:469] resx13_concat <- resx13_match_conv
I0813 20:53:26.791329   859 net.cpp:469] resx13_concat <- resx13_conv3
I0813 20:53:26.791334   859 net.cpp:443] resx13_concat -> resx13_concat
I0813 20:53:26.791365   859 net.cpp:141] Setting up resx13_concat
I0813 20:53:26.791373   859 net.cpp:148] Top shape: 80 960 7 7 (3763200)
I0813 20:53:26.791376   859 net.cpp:156] Memory required for data: 5050591040
I0813 20:53:26.791380   859 layer_factory.hpp:77] Creating layer resx13_concat_relu
I0813 20:53:26.791388   859 net.cpp:91] Creating Layer resx13_concat_relu
I0813 20:53:26.791393   859 net.cpp:469] resx13_concat_relu <- resx13_concat
I0813 20:53:26.791396   859 net.cpp:430] resx13_concat_relu -> resx13_concat (in-place)
I0813 20:53:26.791741   859 net.cpp:141] Setting up resx13_concat_relu
I0813 20:53:26.791754   859 net.cpp:148] Top shape: 80 960 7 7 (3763200)
I0813 20:53:26.791757   859 net.cpp:156] Memory required for data: 5065643840
I0813 20:53:26.791761   859 layer_factory.hpp:77] Creating layer resx13_concat_resx13_concat_relu_0_split
I0813 20:53:26.791767   859 net.cpp:91] Creating Layer resx13_concat_resx13_concat_relu_0_split
I0813 20:53:26.791771   859 net.cpp:469] resx13_concat_resx13_concat_relu_0_split <- resx13_concat
I0813 20:53:26.791776   859 net.cpp:443] resx13_concat_resx13_concat_relu_0_split -> resx13_concat_resx13_concat_relu_0_split_0
I0813 20:53:26.791785   859 net.cpp:443] resx13_concat_resx13_concat_relu_0_split -> resx13_concat_resx13_concat_relu_0_split_1
I0813 20:53:26.791832   859 net.cpp:141] Setting up resx13_concat_resx13_concat_relu_0_split
I0813 20:53:26.791844   859 net.cpp:148] Top shape: 80 960 7 7 (3763200)
I0813 20:53:26.791854   859 net.cpp:148] Top shape: 80 960 7 7 (3763200)
I0813 20:53:26.791858   859 net.cpp:156] Memory required for data: 5095749440
I0813 20:53:26.791862   859 layer_factory.hpp:77] Creating layer resx14_conv1
I0813 20:53:26.791872   859 net.cpp:91] Creating Layer resx14_conv1
I0813 20:53:26.791877   859 net.cpp:469] resx14_conv1 <- resx13_concat_resx13_concat_relu_0_split_0
I0813 20:53:26.791884   859 net.cpp:443] resx14_conv1 -> resx14_conv1
I0813 20:53:26.796906   859 net.cpp:141] Setting up resx14_conv1
I0813 20:53:26.796924   859 net.cpp:148] Top shape: 80 240 7 7 (940800)
I0813 20:53:26.796928   859 net.cpp:156] Memory required for data: 5099512640
I0813 20:53:26.796934   859 layer_factory.hpp:77] Creating layer resx14_conv1_bn
I0813 20:53:26.796944   859 net.cpp:91] Creating Layer resx14_conv1_bn
I0813 20:53:26.796949   859 net.cpp:469] resx14_conv1_bn <- resx14_conv1
I0813 20:53:26.796954   859 net.cpp:430] resx14_conv1_bn -> resx14_conv1 (in-place)
I0813 20:53:26.797188   859 net.cpp:141] Setting up resx14_conv1_bn
I0813 20:53:26.797197   859 net.cpp:148] Top shape: 80 240 7 7 (940800)
I0813 20:53:26.797200   859 net.cpp:156] Memory required for data: 5103275840
I0813 20:53:26.797207   859 layer_factory.hpp:77] Creating layer resx14_conv1_scale
I0813 20:53:26.797215   859 net.cpp:91] Creating Layer resx14_conv1_scale
I0813 20:53:26.797219   859 net.cpp:469] resx14_conv1_scale <- resx14_conv1
I0813 20:53:26.797224   859 net.cpp:430] resx14_conv1_scale -> resx14_conv1 (in-place)
I0813 20:53:26.797273   859 layer_factory.hpp:77] Creating layer resx14_conv1_scale
I0813 20:53:26.797404   859 net.cpp:141] Setting up resx14_conv1_scale
I0813 20:53:26.797411   859 net.cpp:148] Top shape: 80 240 7 7 (940800)
I0813 20:53:26.797415   859 net.cpp:156] Memory required for data: 5107039040
I0813 20:53:26.797421   859 layer_factory.hpp:77] Creating layer resx14_conv1_relu
I0813 20:53:26.797428   859 net.cpp:91] Creating Layer resx14_conv1_relu
I0813 20:53:26.797432   859 net.cpp:469] resx14_conv1_relu <- resx14_conv1
I0813 20:53:26.797437   859 net.cpp:430] resx14_conv1_relu -> resx14_conv1 (in-place)
I0813 20:53:26.797773   859 net.cpp:141] Setting up resx14_conv1_relu
I0813 20:53:26.797786   859 net.cpp:148] Top shape: 80 240 7 7 (940800)
I0813 20:53:26.797790   859 net.cpp:156] Memory required for data: 5110802240
I0813 20:53:26.797793   859 layer_factory.hpp:77] Creating layer shuffle14
I0813 20:53:26.797803   859 net.cpp:91] Creating Layer shuffle14
I0813 20:53:26.797807   859 net.cpp:469] shuffle14 <- resx14_conv1
I0813 20:53:26.797814   859 net.cpp:443] shuffle14 -> shuffle14
I0813 20:53:26.797850   859 net.cpp:141] Setting up shuffle14
I0813 20:53:26.797857   859 net.cpp:148] Top shape: 80 240 7 7 (940800)
I0813 20:53:26.797860   859 net.cpp:156] Memory required for data: 5114565440
I0813 20:53:26.797864   859 layer_factory.hpp:77] Creating layer resx14_conv2
I0813 20:53:26.797874   859 net.cpp:91] Creating Layer resx14_conv2
I0813 20:53:26.797878   859 net.cpp:469] resx14_conv2 <- shuffle14
I0813 20:53:26.797885   859 net.cpp:443] resx14_conv2 -> resx14_conv2
I0813 20:53:26.798077   859 net.cpp:141] Setting up resx14_conv2
I0813 20:53:26.798087   859 net.cpp:148] Top shape: 80 240 7 7 (940800)
I0813 20:53:26.798091   859 net.cpp:156] Memory required for data: 5118328640
I0813 20:53:26.798096   859 layer_factory.hpp:77] Creating layer resx14_conv2_bn
I0813 20:53:26.798106   859 net.cpp:91] Creating Layer resx14_conv2_bn
I0813 20:53:26.798110   859 net.cpp:469] resx14_conv2_bn <- resx14_conv2
I0813 20:53:26.798117   859 net.cpp:430] resx14_conv2_bn -> resx14_conv2 (in-place)
I0813 20:53:26.798326   859 net.cpp:141] Setting up resx14_conv2_bn
I0813 20:53:26.798333   859 net.cpp:148] Top shape: 80 240 7 7 (940800)
I0813 20:53:26.798336   859 net.cpp:156] Memory required for data: 5122091840
I0813 20:53:26.798344   859 layer_factory.hpp:77] Creating layer resx14_conv2_scale
I0813 20:53:26.798353   859 net.cpp:91] Creating Layer resx14_conv2_scale
I0813 20:53:26.798362   859 net.cpp:469] resx14_conv2_scale <- resx14_conv2
I0813 20:53:26.798373   859 net.cpp:430] resx14_conv2_scale -> resx14_conv2 (in-place)
I0813 20:53:26.798420   859 layer_factory.hpp:77] Creating layer resx14_conv2_scale
I0813 20:53:26.798548   859 net.cpp:141] Setting up resx14_conv2_scale
I0813 20:53:26.798557   859 net.cpp:148] Top shape: 80 240 7 7 (940800)
I0813 20:53:26.798562   859 net.cpp:156] Memory required for data: 5125855040
I0813 20:53:26.798568   859 layer_factory.hpp:77] Creating layer resx14_conv3
I0813 20:53:26.798578   859 net.cpp:91] Creating Layer resx14_conv3
I0813 20:53:26.798583   859 net.cpp:469] resx14_conv3 <- resx14_conv2
I0813 20:53:26.798588   859 net.cpp:443] resx14_conv3 -> resx14_conv3
I0813 20:53:26.802816   859 net.cpp:141] Setting up resx14_conv3
I0813 20:53:26.802831   859 net.cpp:148] Top shape: 80 960 7 7 (3763200)
I0813 20:53:26.802835   859 net.cpp:156] Memory required for data: 5140907840
I0813 20:53:26.802841   859 layer_factory.hpp:77] Creating layer resx14_conv3_bn
I0813 20:53:26.802851   859 net.cpp:91] Creating Layer resx14_conv3_bn
I0813 20:53:26.802855   859 net.cpp:469] resx14_conv3_bn <- resx14_conv3
I0813 20:53:26.802862   859 net.cpp:430] resx14_conv3_bn -> resx14_conv3 (in-place)
I0813 20:53:26.803083   859 net.cpp:141] Setting up resx14_conv3_bn
I0813 20:53:26.803092   859 net.cpp:148] Top shape: 80 960 7 7 (3763200)
I0813 20:53:26.803094   859 net.cpp:156] Memory required for data: 5155960640
I0813 20:53:26.803102   859 layer_factory.hpp:77] Creating layer resx14_conv3_scale
I0813 20:53:26.803112   859 net.cpp:91] Creating Layer resx14_conv3_scale
I0813 20:53:26.803115   859 net.cpp:469] resx14_conv3_scale <- resx14_conv3
I0813 20:53:26.803120   859 net.cpp:430] resx14_conv3_scale -> resx14_conv3 (in-place)
I0813 20:53:26.803169   859 layer_factory.hpp:77] Creating layer resx14_conv3_scale
I0813 20:53:26.803302   859 net.cpp:141] Setting up resx14_conv3_scale
I0813 20:53:26.803308   859 net.cpp:148] Top shape: 80 960 7 7 (3763200)
I0813 20:53:26.803313   859 net.cpp:156] Memory required for data: 5171013440
I0813 20:53:26.803355   859 layer_factory.hpp:77] Creating layer resx14_elewise
I0813 20:53:26.803365   859 net.cpp:91] Creating Layer resx14_elewise
I0813 20:53:26.803369   859 net.cpp:469] resx14_elewise <- resx13_concat_resx13_concat_relu_0_split_1
I0813 20:53:26.803375   859 net.cpp:469] resx14_elewise <- resx14_conv3
I0813 20:53:26.803380   859 net.cpp:443] resx14_elewise -> resx14_elewise
I0813 20:53:26.803414   859 net.cpp:141] Setting up resx14_elewise
I0813 20:53:26.803422   859 net.cpp:148] Top shape: 80 960 7 7 (3763200)
I0813 20:53:26.803426   859 net.cpp:156] Memory required for data: 5186066240
I0813 20:53:26.803428   859 layer_factory.hpp:77] Creating layer resx14_elewise_relu
I0813 20:53:26.803436   859 net.cpp:91] Creating Layer resx14_elewise_relu
I0813 20:53:26.803439   859 net.cpp:469] resx14_elewise_relu <- resx14_elewise
I0813 20:53:26.803443   859 net.cpp:430] resx14_elewise_relu -> resx14_elewise (in-place)
I0813 20:53:26.803783   859 net.cpp:141] Setting up resx14_elewise_relu
I0813 20:53:26.803795   859 net.cpp:148] Top shape: 80 960 7 7 (3763200)
I0813 20:53:26.803799   859 net.cpp:156] Memory required for data: 5201119040
I0813 20:53:26.803803   859 layer_factory.hpp:77] Creating layer resx14_elewise_resx14_elewise_relu_0_split
I0813 20:53:26.803812   859 net.cpp:91] Creating Layer resx14_elewise_resx14_elewise_relu_0_split
I0813 20:53:26.803817   859 net.cpp:469] resx14_elewise_resx14_elewise_relu_0_split <- resx14_elewise
I0813 20:53:26.803824   859 net.cpp:443] resx14_elewise_resx14_elewise_relu_0_split -> resx14_elewise_resx14_elewise_relu_0_split_0
I0813 20:53:26.803830   859 net.cpp:443] resx14_elewise_resx14_elewise_relu_0_split -> resx14_elewise_resx14_elewise_relu_0_split_1
I0813 20:53:26.803879   859 net.cpp:141] Setting up resx14_elewise_resx14_elewise_relu_0_split
I0813 20:53:26.803885   859 net.cpp:148] Top shape: 80 960 7 7 (3763200)
I0813 20:53:26.803889   859 net.cpp:148] Top shape: 80 960 7 7 (3763200)
I0813 20:53:26.803896   859 net.cpp:156] Memory required for data: 5231224640
I0813 20:53:26.803905   859 layer_factory.hpp:77] Creating layer resx15_conv1
I0813 20:53:26.803916   859 net.cpp:91] Creating Layer resx15_conv1
I0813 20:53:26.803920   859 net.cpp:469] resx15_conv1 <- resx14_elewise_resx14_elewise_relu_0_split_0
I0813 20:53:26.803928   859 net.cpp:443] resx15_conv1 -> resx15_conv1
I0813 20:53:26.808420   859 net.cpp:141] Setting up resx15_conv1
I0813 20:53:26.808436   859 net.cpp:148] Top shape: 80 240 7 7 (940800)
I0813 20:53:26.808440   859 net.cpp:156] Memory required for data: 5234987840
I0813 20:53:26.808446   859 layer_factory.hpp:77] Creating layer resx15_conv1_bn
I0813 20:53:26.808457   859 net.cpp:91] Creating Layer resx15_conv1_bn
I0813 20:53:26.808461   859 net.cpp:469] resx15_conv1_bn <- resx15_conv1
I0813 20:53:26.808467   859 net.cpp:430] resx15_conv1_bn -> resx15_conv1 (in-place)
I0813 20:53:26.808704   859 net.cpp:141] Setting up resx15_conv1_bn
I0813 20:53:26.808713   859 net.cpp:148] Top shape: 80 240 7 7 (940800)
I0813 20:53:26.808717   859 net.cpp:156] Memory required for data: 5238751040
I0813 20:53:26.808723   859 layer_factory.hpp:77] Creating layer resx15_conv1_scale
I0813 20:53:26.808733   859 net.cpp:91] Creating Layer resx15_conv1_scale
I0813 20:53:26.808738   859 net.cpp:469] resx15_conv1_scale <- resx15_conv1
I0813 20:53:26.808743   859 net.cpp:430] resx15_conv1_scale -> resx15_conv1 (in-place)
I0813 20:53:26.808789   859 layer_factory.hpp:77] Creating layer resx15_conv1_scale
I0813 20:53:26.808919   859 net.cpp:141] Setting up resx15_conv1_scale
I0813 20:53:26.808926   859 net.cpp:148] Top shape: 80 240 7 7 (940800)
I0813 20:53:26.808930   859 net.cpp:156] Memory required for data: 5242514240
I0813 20:53:26.808936   859 layer_factory.hpp:77] Creating layer resx15_conv1_relu
I0813 20:53:26.808945   859 net.cpp:91] Creating Layer resx15_conv1_relu
I0813 20:53:26.808949   859 net.cpp:469] resx15_conv1_relu <- resx15_conv1
I0813 20:53:26.808954   859 net.cpp:430] resx15_conv1_relu -> resx15_conv1 (in-place)
I0813 20:53:26.809499   859 net.cpp:141] Setting up resx15_conv1_relu
I0813 20:53:26.809514   859 net.cpp:148] Top shape: 80 240 7 7 (940800)
I0813 20:53:26.809518   859 net.cpp:156] Memory required for data: 5246277440
I0813 20:53:26.809522   859 layer_factory.hpp:77] Creating layer shuffle15
I0813 20:53:26.809530   859 net.cpp:91] Creating Layer shuffle15
I0813 20:53:26.809533   859 net.cpp:469] shuffle15 <- resx15_conv1
I0813 20:53:26.809540   859 net.cpp:443] shuffle15 -> shuffle15
I0813 20:53:26.809588   859 net.cpp:141] Setting up shuffle15
I0813 20:53:26.809597   859 net.cpp:148] Top shape: 80 240 7 7 (940800)
I0813 20:53:26.809599   859 net.cpp:156] Memory required for data: 5250040640
I0813 20:53:26.809603   859 layer_factory.hpp:77] Creating layer resx15_conv2
I0813 20:53:26.809617   859 net.cpp:91] Creating Layer resx15_conv2
I0813 20:53:26.809620   859 net.cpp:469] resx15_conv2 <- shuffle15
I0813 20:53:26.809626   859 net.cpp:443] resx15_conv2 -> resx15_conv2
I0813 20:53:26.809808   859 net.cpp:141] Setting up resx15_conv2
I0813 20:53:26.809818   859 net.cpp:148] Top shape: 80 240 7 7 (940800)
I0813 20:53:26.809821   859 net.cpp:156] Memory required for data: 5253803840
I0813 20:53:26.809828   859 layer_factory.hpp:77] Creating layer resx15_conv2_bn
I0813 20:53:26.809836   859 net.cpp:91] Creating Layer resx15_conv2_bn
I0813 20:53:26.809840   859 net.cpp:469] resx15_conv2_bn <- resx15_conv2
I0813 20:53:26.809845   859 net.cpp:430] resx15_conv2_bn -> resx15_conv2 (in-place)
I0813 20:53:26.810063   859 net.cpp:141] Setting up resx15_conv2_bn
I0813 20:53:26.810071   859 net.cpp:148] Top shape: 80 240 7 7 (940800)
I0813 20:53:26.810075   859 net.cpp:156] Memory required for data: 5257567040
I0813 20:53:26.810082   859 layer_factory.hpp:77] Creating layer resx15_conv2_scale
I0813 20:53:26.810089   859 net.cpp:91] Creating Layer resx15_conv2_scale
I0813 20:53:26.810093   859 net.cpp:469] resx15_conv2_scale <- resx15_conv2
I0813 20:53:26.810102   859 net.cpp:430] resx15_conv2_scale -> resx15_conv2 (in-place)
I0813 20:53:26.810158   859 layer_factory.hpp:77] Creating layer resx15_conv2_scale
I0813 20:53:26.810288   859 net.cpp:141] Setting up resx15_conv2_scale
I0813 20:53:26.810297   859 net.cpp:148] Top shape: 80 240 7 7 (940800)
I0813 20:53:26.810299   859 net.cpp:156] Memory required for data: 5261330240
I0813 20:53:26.810307   859 layer_factory.hpp:77] Creating layer resx15_conv3
I0813 20:53:26.810317   859 net.cpp:91] Creating Layer resx15_conv3
I0813 20:53:26.810320   859 net.cpp:469] resx15_conv3 <- resx15_conv2
I0813 20:53:26.810326   859 net.cpp:443] resx15_conv3 -> resx15_conv3
I0813 20:53:26.815263   859 net.cpp:141] Setting up resx15_conv3
I0813 20:53:26.815286   859 net.cpp:148] Top shape: 80 960 7 7 (3763200)
I0813 20:53:26.815291   859 net.cpp:156] Memory required for data: 5276383040
I0813 20:53:26.815297   859 layer_factory.hpp:77] Creating layer resx15_conv3_bn
I0813 20:53:26.815310   859 net.cpp:91] Creating Layer resx15_conv3_bn
I0813 20:53:26.815315   859 net.cpp:469] resx15_conv3_bn <- resx15_conv3
I0813 20:53:26.815321   859 net.cpp:430] resx15_conv3_bn -> resx15_conv3 (in-place)
I0813 20:53:26.815558   859 net.cpp:141] Setting up resx15_conv3_bn
I0813 20:53:26.815567   859 net.cpp:148] Top shape: 80 960 7 7 (3763200)
I0813 20:53:26.815569   859 net.cpp:156] Memory required for data: 5291435840
I0813 20:53:26.815577   859 layer_factory.hpp:77] Creating layer resx15_conv3_scale
I0813 20:53:26.815587   859 net.cpp:91] Creating Layer resx15_conv3_scale
I0813 20:53:26.815592   859 net.cpp:469] resx15_conv3_scale <- resx15_conv3
I0813 20:53:26.815596   859 net.cpp:430] resx15_conv3_scale -> resx15_conv3 (in-place)
I0813 20:53:26.815646   859 layer_factory.hpp:77] Creating layer resx15_conv3_scale
I0813 20:53:26.815783   859 net.cpp:141] Setting up resx15_conv3_scale
I0813 20:53:26.815790   859 net.cpp:148] Top shape: 80 960 7 7 (3763200)
I0813 20:53:26.815793   859 net.cpp:156] Memory required for data: 5306488640
I0813 20:53:26.815799   859 layer_factory.hpp:77] Creating layer resx15_elewise
I0813 20:53:26.815809   859 net.cpp:91] Creating Layer resx15_elewise
I0813 20:53:26.815814   859 net.cpp:469] resx15_elewise <- resx14_elewise_resx14_elewise_relu_0_split_1
I0813 20:53:26.815817   859 net.cpp:469] resx15_elewise <- resx15_conv3
I0813 20:53:26.815824   859 net.cpp:443] resx15_elewise -> resx15_elewise
I0813 20:53:26.815855   859 net.cpp:141] Setting up resx15_elewise
I0813 20:53:26.815862   859 net.cpp:148] Top shape: 80 960 7 7 (3763200)
I0813 20:53:26.815865   859 net.cpp:156] Memory required for data: 5321541440
I0813 20:53:26.815868   859 layer_factory.hpp:77] Creating layer resx15_elewise_relu
I0813 20:53:26.815877   859 net.cpp:91] Creating Layer resx15_elewise_relu
I0813 20:53:26.815882   859 net.cpp:469] resx15_elewise_relu <- resx15_elewise
I0813 20:53:26.815886   859 net.cpp:430] resx15_elewise_relu -> resx15_elewise (in-place)
I0813 20:53:26.816221   859 net.cpp:141] Setting up resx15_elewise_relu
I0813 20:53:26.816234   859 net.cpp:148] Top shape: 80 960 7 7 (3763200)
I0813 20:53:26.816238   859 net.cpp:156] Memory required for data: 5336594240
I0813 20:53:26.816241   859 layer_factory.hpp:77] Creating layer resx15_elewise_resx15_elewise_relu_0_split
I0813 20:53:26.816251   859 net.cpp:91] Creating Layer resx15_elewise_resx15_elewise_relu_0_split
I0813 20:53:26.816254   859 net.cpp:469] resx15_elewise_resx15_elewise_relu_0_split <- resx15_elewise
I0813 20:53:26.816260   859 net.cpp:443] resx15_elewise_resx15_elewise_relu_0_split -> resx15_elewise_resx15_elewise_relu_0_split_0
I0813 20:53:26.816267   859 net.cpp:443] resx15_elewise_resx15_elewise_relu_0_split -> resx15_elewise_resx15_elewise_relu_0_split_1
I0813 20:53:26.816318   859 net.cpp:141] Setting up resx15_elewise_resx15_elewise_relu_0_split
I0813 20:53:26.816325   859 net.cpp:148] Top shape: 80 960 7 7 (3763200)
I0813 20:53:26.816329   859 net.cpp:148] Top shape: 80 960 7 7 (3763200)
I0813 20:53:26.816332   859 net.cpp:156] Memory required for data: 5366699840
I0813 20:53:26.816341   859 layer_factory.hpp:77] Creating layer resx16_conv1
I0813 20:53:26.816359   859 net.cpp:91] Creating Layer resx16_conv1
I0813 20:53:26.816365   859 net.cpp:469] resx16_conv1 <- resx15_elewise_resx15_elewise_relu_0_split_0
I0813 20:53:26.816371   859 net.cpp:443] resx16_conv1 -> resx16_conv1
I0813 20:53:26.820830   859 net.cpp:141] Setting up resx16_conv1
I0813 20:53:26.820845   859 net.cpp:148] Top shape: 80 240 7 7 (940800)
I0813 20:53:26.820849   859 net.cpp:156] Memory required for data: 5370463040
I0813 20:53:26.820855   859 layer_factory.hpp:77] Creating layer resx16_conv1_bn
I0813 20:53:26.820864   859 net.cpp:91] Creating Layer resx16_conv1_bn
I0813 20:53:26.820869   859 net.cpp:469] resx16_conv1_bn <- resx16_conv1
I0813 20:53:26.820874   859 net.cpp:430] resx16_conv1_bn -> resx16_conv1 (in-place)
I0813 20:53:26.821107   859 net.cpp:141] Setting up resx16_conv1_bn
I0813 20:53:26.821116   859 net.cpp:148] Top shape: 80 240 7 7 (940800)
I0813 20:53:26.821120   859 net.cpp:156] Memory required for data: 5374226240
I0813 20:53:26.821126   859 layer_factory.hpp:77] Creating layer resx16_conv1_scale
I0813 20:53:26.821136   859 net.cpp:91] Creating Layer resx16_conv1_scale
I0813 20:53:26.821141   859 net.cpp:469] resx16_conv1_scale <- resx16_conv1
I0813 20:53:26.821146   859 net.cpp:430] resx16_conv1_scale -> resx16_conv1 (in-place)
I0813 20:53:26.821198   859 layer_factory.hpp:77] Creating layer resx16_conv1_scale
I0813 20:53:26.821332   859 net.cpp:141] Setting up resx16_conv1_scale
I0813 20:53:26.821341   859 net.cpp:148] Top shape: 80 240 7 7 (940800)
I0813 20:53:26.821343   859 net.cpp:156] Memory required for data: 5377989440
I0813 20:53:26.821350   859 layer_factory.hpp:77] Creating layer resx16_conv1_relu
I0813 20:53:26.821357   859 net.cpp:91] Creating Layer resx16_conv1_relu
I0813 20:53:26.821362   859 net.cpp:469] resx16_conv1_relu <- resx16_conv1
I0813 20:53:26.821367   859 net.cpp:430] resx16_conv1_relu -> resx16_conv1 (in-place)
I0813 20:53:26.821702   859 net.cpp:141] Setting up resx16_conv1_relu
I0813 20:53:26.821713   859 net.cpp:148] Top shape: 80 240 7 7 (940800)
I0813 20:53:26.821719   859 net.cpp:156] Memory required for data: 5381752640
I0813 20:53:26.821723   859 layer_factory.hpp:77] Creating layer shuffle16
I0813 20:53:26.821730   859 net.cpp:91] Creating Layer shuffle16
I0813 20:53:26.821735   859 net.cpp:469] shuffle16 <- resx16_conv1
I0813 20:53:26.821740   859 net.cpp:443] shuffle16 -> shuffle16
I0813 20:53:26.821779   859 net.cpp:141] Setting up shuffle16
I0813 20:53:26.821785   859 net.cpp:148] Top shape: 80 240 7 7 (940800)
I0813 20:53:26.821789   859 net.cpp:156] Memory required for data: 5385515840
I0813 20:53:26.821792   859 layer_factory.hpp:77] Creating layer resx16_conv2
I0813 20:53:26.821802   859 net.cpp:91] Creating Layer resx16_conv2
I0813 20:53:26.821806   859 net.cpp:469] resx16_conv2 <- shuffle16
I0813 20:53:26.821811   859 net.cpp:443] resx16_conv2 -> resx16_conv2
I0813 20:53:26.822010   859 net.cpp:141] Setting up resx16_conv2
I0813 20:53:26.822021   859 net.cpp:148] Top shape: 80 240 7 7 (940800)
I0813 20:53:26.822024   859 net.cpp:156] Memory required for data: 5389279040
I0813 20:53:26.822029   859 layer_factory.hpp:77] Creating layer resx16_conv2_bn
I0813 20:53:26.822039   859 net.cpp:91] Creating Layer resx16_conv2_bn
I0813 20:53:26.822044   859 net.cpp:469] resx16_conv2_bn <- resx16_conv2
I0813 20:53:26.822048   859 net.cpp:430] resx16_conv2_bn -> resx16_conv2 (in-place)
I0813 20:53:26.822269   859 net.cpp:141] Setting up resx16_conv2_bn
I0813 20:53:26.822278   859 net.cpp:148] Top shape: 80 240 7 7 (940800)
I0813 20:53:26.822280   859 net.cpp:156] Memory required for data: 5393042240
I0813 20:53:26.822288   859 layer_factory.hpp:77] Creating layer resx16_conv2_scale
I0813 20:53:26.822295   859 net.cpp:91] Creating Layer resx16_conv2_scale
I0813 20:53:26.822299   859 net.cpp:469] resx16_conv2_scale <- resx16_conv2
I0813 20:53:26.822304   859 net.cpp:430] resx16_conv2_scale -> resx16_conv2 (in-place)
I0813 20:53:26.822355   859 layer_factory.hpp:77] Creating layer resx16_conv2_scale
I0813 20:53:26.822497   859 net.cpp:141] Setting up resx16_conv2_scale
I0813 20:53:26.822511   859 net.cpp:148] Top shape: 80 240 7 7 (940800)
I0813 20:53:26.822515   859 net.cpp:156] Memory required for data: 5396805440
I0813 20:53:26.822521   859 layer_factory.hpp:77] Creating layer resx16_conv3
I0813 20:53:26.822532   859 net.cpp:91] Creating Layer resx16_conv3
I0813 20:53:26.822536   859 net.cpp:469] resx16_conv3 <- resx16_conv2
I0813 20:53:26.822542   859 net.cpp:443] resx16_conv3 -> resx16_conv3
I0813 20:53:26.826841   859 net.cpp:141] Setting up resx16_conv3
I0813 20:53:26.826856   859 net.cpp:148] Top shape: 80 960 7 7 (3763200)
I0813 20:53:26.826860   859 net.cpp:156] Memory required for data: 5411858240
I0813 20:53:26.826866   859 layer_factory.hpp:77] Creating layer resx16_conv3_bn
I0813 20:53:26.826879   859 net.cpp:91] Creating Layer resx16_conv3_bn
I0813 20:53:26.826884   859 net.cpp:469] resx16_conv3_bn <- resx16_conv3
I0813 20:53:26.826890   859 net.cpp:430] resx16_conv3_bn -> resx16_conv3 (in-place)
I0813 20:53:26.827126   859 net.cpp:141] Setting up resx16_conv3_bn
I0813 20:53:26.827134   859 net.cpp:148] Top shape: 80 960 7 7 (3763200)
I0813 20:53:26.827137   859 net.cpp:156] Memory required for data: 5426911040
I0813 20:53:26.827145   859 layer_factory.hpp:77] Creating layer resx16_conv3_scale
I0813 20:53:26.827153   859 net.cpp:91] Creating Layer resx16_conv3_scale
I0813 20:53:26.827157   859 net.cpp:469] resx16_conv3_scale <- resx16_conv3
I0813 20:53:26.827162   859 net.cpp:430] resx16_conv3_scale -> resx16_conv3 (in-place)
I0813 20:53:26.827216   859 layer_factory.hpp:77] Creating layer resx16_conv3_scale
I0813 20:53:26.827359   859 net.cpp:141] Setting up resx16_conv3_scale
I0813 20:53:26.827368   859 net.cpp:148] Top shape: 80 960 7 7 (3763200)
I0813 20:53:26.827371   859 net.cpp:156] Memory required for data: 5441963840
I0813 20:53:26.827378   859 layer_factory.hpp:77] Creating layer resx16_elewise
I0813 20:53:26.827385   859 net.cpp:91] Creating Layer resx16_elewise
I0813 20:53:26.827389   859 net.cpp:469] resx16_elewise <- resx15_elewise_resx15_elewise_relu_0_split_1
I0813 20:53:26.827394   859 net.cpp:469] resx16_elewise <- resx16_conv3
I0813 20:53:26.827400   859 net.cpp:443] resx16_elewise -> resx16_elewise
I0813 20:53:26.827431   859 net.cpp:141] Setting up resx16_elewise
I0813 20:53:26.827440   859 net.cpp:148] Top shape: 80 960 7 7 (3763200)
I0813 20:53:26.827443   859 net.cpp:156] Memory required for data: 5457016640
I0813 20:53:26.827447   859 layer_factory.hpp:77] Creating layer resx16_elewise_relu
I0813 20:53:26.827453   859 net.cpp:91] Creating Layer resx16_elewise_relu
I0813 20:53:26.827457   859 net.cpp:469] resx16_elewise_relu <- resx16_elewise
I0813 20:53:26.827462   859 net.cpp:430] resx16_elewise_relu -> resx16_elewise (in-place)
I0813 20:53:26.827626   859 net.cpp:141] Setting up resx16_elewise_relu
I0813 20:53:26.827636   859 net.cpp:148] Top shape: 80 960 7 7 (3763200)
I0813 20:53:26.827639   859 net.cpp:156] Memory required for data: 5472069440
I0813 20:53:26.827643   859 layer_factory.hpp:77] Creating layer pool_ave
I0813 20:53:26.827652   859 net.cpp:91] Creating Layer pool_ave
I0813 20:53:26.827656   859 net.cpp:469] pool_ave <- resx16_elewise
I0813 20:53:26.827664   859 net.cpp:443] pool_ave -> pool_ave
I0813 20:53:26.828039   859 net.cpp:141] Setting up pool_ave
I0813 20:53:26.828052   859 net.cpp:148] Top shape: 80 960 1 1 (76800)
I0813 20:53:26.828057   859 net.cpp:156] Memory required for data: 5472376640
I0813 20:53:26.828060   859 layer_factory.hpp:77] Creating layer fc1000
I0813 20:53:26.828073   859 net.cpp:91] Creating Layer fc1000
I0813 20:53:26.828078   859 net.cpp:469] fc1000 <- pool_ave
I0813 20:53:26.828086   859 net.cpp:443] fc1000 -> fc1000
I0813 20:53:26.854297   859 net.cpp:141] Setting up fc1000
I0813 20:53:26.854356   859 net.cpp:148] Top shape: 80 1000 1 1 (80000)
I0813 20:53:26.854360   859 net.cpp:156] Memory required for data: 5472696640
I0813 20:53:26.854372   859 layer_factory.hpp:77] Creating layer loss
I0813 20:53:26.854398   859 net.cpp:91] Creating Layer loss
I0813 20:53:26.854414   859 net.cpp:469] loss <- fc1000
I0813 20:53:26.854421   859 net.cpp:469] loss <- label
I0813 20:53:26.854430   859 net.cpp:443] loss -> loss
I0813 20:53:26.854445   859 layer_factory.hpp:77] Creating layer loss
…
