…
I0818 15:27:45.714408 17010 net.cpp:313] The NetState phase (0) differed from the phase (1) specified by a rule in layer accuracy
I0818 15:27:45.715260 17010 net.cpp:49] Initializing net from parameters: 
name: "shufflenet"
state {
  phase: TRAIN
}
layer {
  name: "data"
  type: "Data"
  top: "data"
  top: "label"
  include {
    phase: TRAIN
  }
  transform_param {
    scale: 0.017
    mirror: false
    crop_size: 224
    mean_value: 103.94
    mean_value: 116.78
    mean_value: 123.68
  }
  data_param {
    source: "/home/chenyao/ilsvrc12/ilsvrc12_train_lmdb"
    batch_size: 80
    backend: LMDB
  }
}
layer {
  name: "conv1"
  type: "Convolution"
  bottom: "data"
  top: "conv1"
  convolution_param {
    num_output: 24
    bias_term: false
    pad: 1
    kernel_size: 3
    stride: 2
    weight_filler {
      type: "msra"
    }
  }
}
layer {
  name: "conv1_bn"
  type: "BatchNorm"
  bottom: "conv1"
  top: "conv1"
  param {
    lr_mult: 0
    decay_mult: 0
  }
  param {
    lr_mult: 0
    decay_mult: 0
  }
  param {
    lr_mult: 0
    decay_mult: 0
  }
}
layer {
  name: "conv1_scale"
  type: "Scale"
  bottom: "conv1"
  top: "conv1"
  scale_param {
    filler {
      value: 1
    }
    bias_term: true
    bias_filler {
      value: 0
    }
  }
}
layer {
  name: "conv1_relu"
  type: "ReLU"
  bottom: "conv1"
  top: "conv1"
}
layer {
  name: "pool1"
  type: "Pooling"
  bottom: "conv1"
  top: "pool1"
  pooling_param {
    pool: MAX
    kernel_size: 3
    stride: 2
  }
}
layer {
  name: "resx1_match_conv"
  type: "Pooling"
  bottom: "pool1"
  top: "resx1_match_conv"
  pooling_param {
    pool: AVE
    kernel_size: 3
    stride: 2
  }
}
layer {
  name: "resx1_conv1"
  type: "Convolution"
  bottom: "pool1"
  top: "resx1_conv1"
  convolution_param {
    num_output: 54
    bias_term: false
    pad: 0
    kernel_size: 1
    stride: 1
    weight_filler {
      type: "msra"
    }
  }
}
layer {
  name: "resx1_conv1_bn"
  type: "BatchNorm"
  bottom: "resx1_conv1"
  top: "resx1_conv1"
  param {
    lr_mult: 0
    decay_mult: 0
  }
  param {
    lr_mult: 0
    decay_mult: 0
  }
  param {
    lr_mult: 0
    decay_mult: 0
  }
}
layer {
  name: "resx1_conv1_scale"
  type: "Scale"
  bottom: "resx1_conv1"
  top: "resx1_conv1"
  scale_param {
    filler {
      value: 1
    }
    bias_term: true
    bias_filler {
      value: 0
    }
  }
}
layer {
  name: "resx1_conv1_relu"
  type: "ReLU"
  bottom: "resx1_conv1"
  top: "resx1_conv1"
}
layer {
  name: "resx1_conv2"
  type: "ConvolutionDepthwise"
  bottom: "resx1_conv1"
  top: "resx1_conv2"
  convolution_param {
    num_output: 54
    bias_term: false
    pad: 1
    kernel_size: 3
    stride: 2
    weight_filler {
      type: "msra"
    }
  }
}
layer {
  name: "resx1_conv2_bn"
  type: "BatchNorm"
  bottom: "resx1_conv2"
  top: "resx1_conv2"
  param {
    lr_mult: 0
    decay_mult: 0
  }
  param {
    lr_mult: 0
    decay_mult: 0
  }
  param {
    lr_mult: 0
    decay_mult: 0
  }
}
layer {
  name: "resx1_conv2_scale"
  type: "Scale"
  bottom: "resx1_conv2"
  top: "resx1_conv2"
  scale_param {
    filler {
      value: 1
    }
    bias_term: true
    bias_filler {
      value: 0
    }
  }
}
layer {
  name: "resx1_conv3"
  type: "Convolution"
  bottom: "resx1_conv2"
  top: "resx1_conv3"
  convolution_param {
    num_output: 216
    bias_term: false
    pad: 0
    kernel_size: 1
    group: 3
    stride: 1
    weight_filler {
      type: "msra"
    }
  }
}
layer {
  name: "resx1_conv3_bn"
  type: "BatchNorm"
  bottom: "resx1_conv3"
  top: "resx1_conv3"
  param {
    lr_mult: 0
    decay_mult: 0
  }
  param {
    lr_mult: 0
    decay_mult: 0
  }
  param {
    lr_mult: 0
    decay_mult: 0
  }
}
layer {
  name: "resx1_conv3_scale"
  type: "Scale"
  bottom: "resx1_conv3"
  top: "resx1_conv3"
  scale_param {
    filler {
      value: 1
    }
    bias_term: true
    bias_filler {
      value: 0
    }
  }
}
layer {
  name: "resx1_concat"
  type: "Concat"
  bottom: "resx1_match_conv"
  bottom: "resx1_conv3"
  top: "resx1_concat"
}
layer {
  name: "resx1_concat_relu"
  type: "ReLU"
  bottom: "resx1_concat"
  top: "resx1_concat"
}
layer {
  name: "resx2_conv1"
  type: "Convolution"
  bottom: "resx1_concat"
  top: "resx2_conv1"
  convolution_param {
    num_output: 60
    bias_term: false
    pad: 0
    kernel_size: 1
    group: 3
    stride: 1
    weight_filler {
      type: "msra"
    }
  }
}
layer {
  name: "resx2_conv1_bn"
  type: "BatchNorm"
  bottom: "resx2_conv1"
  top: "resx2_conv1"
  param {
    lr_mult: 0
    decay_mult: 0
  }
  param {
    lr_mult: 0
    decay_mult: 0
  }
  param {
    lr_mult: 0
    decay_mult: 0
  }
}
layer {
  name: "resx2_conv1_scale"
  type: "Scale"
  bottom: "resx2_conv1"
  top: "resx2_conv1"
  scale_param {
    filler {
      value: 1
    }
    bias_term: true
    bias_filler {
      value: 0
    }
  }
}
layer {
  name: "resx2_conv1_relu"
  type: "ReLU"
  bottom: "resx2_conv1"
  top: "resx2_conv1"
}
layer {
  name: "shuffle2"
  type: "ShuffleChannel"
  bottom: "resx2_conv1"
  top: "shuffle2"
  shuffle_channel_param {
    group: 3
  }
}
layer {
  name: "resx2_conv2"
  type: "ConvolutionDepthwise"
  bottom: "shuffle2"
  top: "resx2_conv2"
  convolution_param {
    num_output: 60
    bias_term: false
    pad: 1
    kernel_size: 3
    stride: 1
    weight_filler {
      type: "msra"
    }
  }
}
layer {
  name: "resx2_conv2_bn"
  type: "BatchNorm"
  bottom: "resx2_conv2"
  top: "resx2_conv2"
  param {
    lr_mult: 0
    decay_mult: 0
  }
  param {
    lr_mult: 0
    decay_mult: 0
  }
  param {
    lr_mult: 0
    decay_mult: 0
  }
}
layer {
  name: "resx2_conv2_scale"
  type: "Scale"
  bottom: "resx2_conv2"
  top: "resx2_conv2"
  scale_param {
    filler {
      value: 1
    }
    bias_term: true
    bias_filler {
      value: 0
    }
  }
}
layer {
  name: "resx2_conv3"
  type: "Convolution"
  bottom: "resx2_conv2"
  top: "resx2_conv3"
  convolution_param {
    num_output: 240
    bias_term: false
    pad: 0
    kernel_size: 1
    group: 3
    stride: 1
    weight_filler {
      type: "msra"
    }
  }
}
layer {
  name: "resx2_conv3_bn"
  type: "BatchNorm"
  bottom: "resx2_conv3"
  top: "resx2_conv3"
  param {
    lr_mult: 0
    decay_mult: 0
  }
  param {
    lr_mult: 0
    decay_mult: 0
  }
  param {
    lr_mult: 0
    decay_mult: 0
  }
}
layer {
  name: "resx2_conv3_scale"
  type: "Scale"
  bottom: "resx2_conv3"
  top: "resx2_conv3"
  scale_param {
    filler {
      value: 1
    }
    bias_term: true
    bias_filler {
      value: 0
    }
  }
}
layer {
  name: "resx2_elewise"
  type: "Eltwise"
  bottom: "resx1_concat"
  bottom: "resx2_conv3"
  top: "resx2_elewise"
  eltwise_param {
    operation: SUM
  }
}
layer {
  name: "resx2_elewise_relu"
  type: "ReLU"
  bottom: "resx2_elewise"
  top: "resx2_elewise"
}
layer {
  name: "resx3_conv1"
  type: "Convolution"
  bottom: "resx2_elewise"
  top: "resx3_conv1"
  convolution_param {
    num_output: 60
    bias_term: false
    pad: 0
    kernel_size: 1
    group: 3
    stride: 1
    weight_filler {
      type: "msra"
    }
  }
}
layer {
  name: "resx3_conv1_bn"
  type: "BatchNorm"
  bottom: "resx3_conv1"
  top: "resx3_conv1"
  param {
    lr_mult: 0
    decay_mult: 0
  }
  param {
    lr_mult: 0
    decay_mult: 0
  }
  param {
    lr_mult: 0
    decay_mult: 0
  }
}
layer {
  name: "resx3_conv1_scale"
  type: "Scale"
  bottom: "resx3_conv1"
  top: "resx3_conv1"
  scale_param {
    filler {
      value: 1
    }
    bias_term: true
    bias_filler {
      value: 0
    }
  }
}
layer {
  name: "resx3_conv1_relu"
  type: "ReLU"
  bottom: "resx3_conv1"
  top: "resx3_conv1"
}
layer {
  name: "shuffle3"
  type: "ShuffleChannel"
  bottom: "resx3_conv1"
  top: "shuffle3"
  shuffle_channel_param {
    group: 3
  }
}
layer {
  name: "resx3_conv2"
  type: "ConvolutionDepthwise"
  bottom: "shuffle3"
  top: "resx3_conv2"
  convolution_param {
    num_output: 60
    bias_term: false
    pad: 1
    kernel_size: 3
    stride: 1
    weight_filler {
      type: "msra"
    }
  }
}
layer {
  name: "resx3_conv2_bn"
  type: "BatchNorm"
  bottom: "resx3_conv2"
  top: "resx3_conv2"
  param {
    lr_mult: 0
    decay_mult: 0
  }
  param {
    lr_mult: 0
    decay_mult: 0
  }
  param {
    lr_mult: 0
    decay_mult: 0
  }
}
layer {
  name: "resx3_conv2_scale"
  type: "Scale"
  bottom: "resx3_conv2"
  top: "resx3_conv2"
  scale_param {
    filler {
      value: 1
    }
    bias_term: true
    bias_filler {
      value: 0
    }
  }
}
layer {
  name: "resx3_conv3"
  type: "Convolution"
  bottom: "resx3_conv2"
  top: "resx3_conv3"
  convolution_param {
    num_output: 240
    bias_term: false
    pad: 0
    kernel_size: 1
    group: 3
    stride: 1
    weight_filler {
      type: "msra"
    }
  }
}
layer {
  name: "resx3_conv3_bn"
  type: "BatchNorm"
  bottom: "resx3_conv3"
  top: "resx3_conv3"
  param {
    lr_mult: 0
    decay_mult: 0
  }
  param {
    lr_mult: 0
    decay_mult: 0
  }
  param {
    lr_mult: 0
    decay_mult: 0
  }
}
layer {
  name: "resx3_conv3_scale"
  type: "Scale"
  bottom: "resx3_conv3"
  top: "resx3_conv3"
  scale_param {
    filler {
      value: 1
    }
    bias_term: true
    bias_filler {
      value: 0
    }
  }
}
layer {
  name: "resx3_elewise"
  type: "Eltwise"
  bottom: "resx2_elewise"
  bottom: "resx3_conv3"
  top: "resx3_elewise"
  eltwise_param {
    operation: SUM
  }
}
layer {
  name: "resx3_elewise_relu"
  type: "ReLU"
  bottom: "resx3_elewise"
  top: "resx3_elewise"
}
layer {
  name: "resx4_conv1"
  type: "Convolution"
  bottom: "resx3_elewise"
  top: "resx4_conv1"
  convolution_param {
    num_output: 60
    bias_term: false
    pad: 0
    kernel_size: 1
    group: 3
    stride: 1
    weight_filler {
      type: "msra"
    }
  }
}
layer {
  name: "resx4_conv1_bn"
  type: "BatchNorm"
  bottom: "resx4_conv1"
  top: "resx4_conv1"
  param {
    lr_mult: 0
    decay_mult: 0
  }
  param {
    lr_mult: 0
    decay_mult: 0
  }
  param {
    lr_mult: 0
    decay_mult: 0
  }
}
layer {
  name: "resx4_conv1_scale"
  type: "Scale"
  bottom: "resx4_conv1"
  top: "resx4_conv1"
  scale_param {
    filler {
      value: 1
    }
    bias_term: true
    bias_filler {
      value: 0
    }
  }
}
layer {
  name: "resx4_conv1_relu"
  type: "ReLU"
  bottom: "resx4_conv1"
  top: "resx4_conv1"
}
layer {
  name: "shuffle4"
  type: "ShuffleChannel"
  bottom: "resx4_conv1"
  top: "shuffle4"
  shuffle_channel_param {
    group: 3
  }
}
layer {
  name: "resx4_conv2"
  type: "ConvolutionDepthwise"
  bottom: "shuffle4"
  top: "resx4_conv2"
  convolution_param {
    num_output: 60
    bias_term: false
    pad: 1
    kernel_size: 3
    stride: 1
    weight_filler {
      type: "msra"
    }
  }
}
layer {
  name: "resx4_conv2_bn"
  type: "BatchNorm"
  bottom: "resx4_conv2"
  top: "resx4_conv2"
  param {
    lr_mult: 0
    decay_mult: 0
  }
  param {
    lr_mult: 0
    decay_mult: 0
  }
  param {
    lr_mult: 0
    decay_mult: 0
  }
}
layer {
  name: "resx4_conv2_scale"
  type: "Scale"
  bottom: "resx4_conv2"
  top: "resx4_conv2"
  scale_param {
    filler {
      value: 1
    }
    bias_term: true
    bias_filler {
      value: 0
    }
  }
}
layer {
  name: "resx4_conv3"
  type: "Convolution"
  bottom: "resx4_conv2"
  top: "resx4_conv3"
  convolution_param {
    num_output: 240
    bias_term: false
    pad: 0
    kernel_size: 1
    group: 3
    stride: 1
    weight_filler {
      type: "msra"
    }
  }
}
layer {
  name: "resx4_conv3_bn"
  type: "BatchNorm"
  bottom: "resx4_conv3"
  top: "resx4_conv3"
  param {
    lr_mult: 0
    decay_mult: 0
  }
  param {
    lr_mult: 0
    decay_mult: 0
  }
  param {
    lr_mult: 0
    decay_mult: 0
  }
}
layer {
  name: "resx4_conv3_scale"
  type: "Scale"
  bottom: "resx4_conv3"
  top: "resx4_conv3"
  scale_param {
    filler {
      value: 1
    }
    bias_term: true
    bias_filler {
      value: 0
    }
  }
}
layer {
  name: "resx4_elewise"
  type: "Eltwise"
  bottom: "resx3_elewise"
  bottom: "resx4_conv3"
  top: "resx4_elewise"
  eltwise_param {
    operation: SUM
  }
}
layer {
  name: "resx4_elewise_relu"
  type: "ReLU"
  bottom: "resx4_elewise"
  top: "resx4_elewise"
}
layer {
  name: "resx5_match_conv"
  type: "Pooling"
  bottom: "resx4_elewise"
  top: "resx5_match_conv"
  pooling_param {
    pool: AVE
    kernel_size: 3
    stride: 2
  }
}
layer {
  name: "resx5_conv1"
  type: "Convolution"
  bottom: "resx4_elewise"
  top: "resx5_conv1"
  convolution_param {
    num_output: 60
    bias_term: false
    pad: 0
    kernel_size: 1
    group: 3
    stride: 1
    weight_filler {
      type: "msra"
    }
  }
}
layer {
  name: "resx5_conv1_bn"
  type: "BatchNorm"
  bottom: "resx5_conv1"
  top: "resx5_conv1"
  param {
    lr_mult: 0
    decay_mult: 0
  }
  param {
    lr_mult: 0
    decay_mult: 0
  }
  param {
    lr_mult: 0
    decay_mult: 0
  }
}
layer {
  name: "resx5_conv1_scale"
  type: "Scale"
  bottom: "resx5_conv1"
  top: "resx5_conv1"
  scale_param {
    filler {
      value: 1
    }
    bias_term: true
    bias_filler {
      value: 0
    }
  }
}
layer {
  name: "resx5_conv1_relu"
  type: "ReLU"
  bottom: "resx5_conv1"
  top: "resx5_conv1"
}
layer {
  name: "shuffle5"
  type: "ShuffleChannel"
  bottom: "resx5_conv1"
  top: "shuffle5"
  shuffle_channel_param {
    group: 3
  }
}
layer {
  name: "resx5_conv2"
  type: "ConvolutionDepthwise"
  bottom: "shuffle5"
  top: "resx5_conv2"
  convolution_param {
    num_output: 60
    bias_term: false
    pad: 1
    kernel_size: 3
    stride: 2
    weight_filler {
      type: "msra"
    }
  }
}
layer {
  name: "resx5_conv2_bn"
  type: "BatchNorm"
  bottom: "resx5_conv2"
  top: "resx5_conv2"
  param {
    lr_mult: 0
    decay_mult: 0
  }
  param {
    lr_mult: 0
    decay_mult: 0
  }
  param {
    lr_mult: 0
    decay_mult: 0
  }
}
layer {
  name: "resx5_conv2_scale"
  type: "Scale"
  bottom: "resx5_conv2"
  top: "resx5_conv2"
  scale_param {
    filler {
      value: 1
    }
    bias_term: true
    bias_filler {
      value: 0
    }
  }
}
layer {
  name: "resx5_conv3"
  type: "Convolution"
  bottom: "resx5_conv2"
  top: "resx5_conv3"
  convolution_param {
    num_output: 240
    bias_term: false
    pad: 0
    kernel_size: 1
    group: 3
    stride: 1
    weight_filler {
      type: "msra"
    }
  }
}
layer {
  name: "resx5_conv3_bn"
  type: "BatchNorm"
  bottom: "resx5_conv3"
  top: "resx5_conv3"
  param {
    lr_mult: 0
    decay_mult: 0
  }
  param {
    lr_mult: 0
    decay_mult: 0
  }
  param {
    lr_mult: 0
    decay_mult: 0
  }
}
layer {
  name: "resx5_conv3_scale"
  type: "Scale"
  bottom: "resx5_conv3"
  top: "resx5_conv3"
  scale_param {
    filler {
      value: 1
    }
    bias_term: true
    bias_filler {
      value: 0
    }
  }
}
layer {
  name: "resx5_concat"
  type: "Concat"
  bottom: "resx5_match_conv"
  bottom: "resx5_conv3"
  top: "resx5_concat"
}
layer {
  name: "resx5_concat_relu"
  type: "ReLU"
  bottom: "resx5_concat"
  top: "resx5_concat"
}
layer {
  name: "resx6_conv1"
  type: "Convolution"
  bottom: "resx5_concat"
  top: "resx6_conv1"
  convolution_param {
    num_output: 120
    bias_term: false
    pad: 0
    kernel_size: 1
    group: 3
    stride: 1
    weight_filler {
      type: "msra"
    }
  }
}
layer {
  name: "resx6_conv1_bn"
  type: "BatchNorm"
  bottom: "resx6_conv1"
  top: "resx6_conv1"
  param {
    lr_mult: 0
    decay_mult: 0
  }
  param {
    lr_mult: 0
    decay_mult: 0
  }
  param {
    lr_mult: 0
    decay_mult: 0
  }
}
layer {
  name: "resx6_conv1_scale"
  type: "Scale"
  bottom: "resx6_conv1"
  top: "resx6_conv1"
  scale_param {
    filler {
      value: 1
    }
    bias_term: true
    bias_filler {
      value: 0
    }
  }
}
layer {
  name: "resx6_conv1_relu"
  type: "ReLU"
  bottom: "resx6_conv1"
  top: "resx6_conv1"
}
layer {
  name: "shuffle6"
  type: "ShuffleChannel"
  bottom: "resx6_conv1"
  top: "shuffle6"
  shuffle_channel_param {
    group: 3
  }
}
layer {
  name: "resx6_conv2"
  type: "ConvolutionDepthwise"
  bottom: "shuffle6"
  top: "resx6_conv2"
  convolution_param {
    num_output: 120
    bias_term: false
    pad: 1
    kernel_size: 3
    stride: 1
    weight_filler {
      type: "msra"
    }
  }
}
layer {
  name: "resx6_conv2_bn"
  type: "BatchNorm"
  bottom: "resx6_conv2"
  top: "resx6_conv2"
  param {
    lr_mult: 0
    decay_mult: 0
  }
  param {
    lr_mult: 0
    decay_mult: 0
  }
  param {
    lr_mult: 0
    decay_mult: 0
  }
}
layer {
  name: "resx6_conv2_scale"
  type: "Scale"
  bottom: "resx6_conv2"
  top: "resx6_conv2"
  scale_param {
    filler {
      value: 1
    }
    bias_term: true
    bias_filler {
      value: 0
    }
  }
}
layer {
  name: "resx6_conv3"
  type: "Convolution"
  bottom: "resx6_conv2"
  top: "resx6_conv3"
  convolution_param {
    num_output: 480
    bias_term: false
    pad: 0
    kernel_size: 1
    group: 3
    stride: 1
    weight_filler {
      type: "msra"
    }
  }
}
layer {
  name: "resx6_conv3_bn"
  type: "BatchNorm"
  bottom: "resx6_conv3"
  top: "resx6_conv3"
  param {
    lr_mult: 0
    decay_mult: 0
  }
  param {
    lr_mult: 0
    decay_mult: 0
  }
  param {
    lr_mult: 0
    decay_mult: 0
  }
}
layer {
  name: "resx6_conv3_scale"
  type: "Scale"
  bottom: "resx6_conv3"
  top: "resx6_conv3"
  scale_param {
    filler {
      value: 1
    }
    bias_term: true
    bias_filler {
      value: 0
    }
  }
}
layer {
  name: "resx6_elewise"
  type: "Eltwise"
  bottom: "resx5_concat"
  bottom: "resx6_conv3"
  top: "resx6_elewise"
  eltwise_param {
    operation: SUM
  }
}
layer {
  name: "resx6_elewise_relu"
  type: "ReLU"
  bottom: "resx6_elewise"
  top: "resx6_elewise"
}
layer {
  name: "resx7_conv1"
  type: "Convolution"
  bottom: "resx6_elewise"
  top: "resx7_conv1"
  convolution_param {
    num_output: 120
    bias_term: false
    pad: 0
    kernel_size: 1
    group: 3
    stride: 1
    weight_filler {
      type: "msra"
    }
  }
}
layer {
  name: "resx7_conv1_bn"
  type: "BatchNorm"
  bottom: "resx7_conv1"
  top: "resx7_conv1"
  param {
    lr_mult: 0
    decay_mult: 0
  }
  param {
    lr_mult: 0
    decay_mult: 0
  }
  param {
    lr_mult: 0
    decay_mult: 0
  }
}
layer {
  name: "resx7_conv1_scale"
  type: "Scale"
  bottom: "resx7_conv1"
  top: "resx7_conv1"
  scale_param {
    filler {
      value: 1
    }
    bias_term: true
    bias_filler {
      value: 0
    }
  }
}
layer {
  name: "resx7_conv1_relu"
  type: "ReLU"
  bottom: "resx7_conv1"
  top: "resx7_conv1"
}
layer {
  name: "shuffle7"
  type: "ShuffleChannel"
  bottom: "resx7_conv1"
  top: "shuffle7"
  shuffle_channel_param {
    group: 3
  }
}
layer {
  name: "resx7_conv2"
  type: "ConvolutionDepthwise"
  bottom: "shuffle7"
  top: "resx7_conv2"
  convolution_param {
    num_output: 120
    bias_term: false
    pad: 1
    kernel_size: 3
    stride: 1
    weight_filler {
      type: "msra"
    }
  }
}
layer {
  name: "resx7_conv2_bn"
  type: "BatchNorm"
  bottom: "resx7_conv2"
  top: "resx7_conv2"
  param {
    lr_mult: 0
    decay_mult: 0
  }
  param {
    lr_mult: 0
    decay_mult: 0
  }
  param {
    lr_mult: 0
    decay_mult: 0
  }
}
layer {
  name: "resx7_conv2_scale"
  type: "Scale"
  bottom: "resx7_conv2"
  top: "resx7_conv2"
  scale_param {
    filler {
      value: 1
    }
    bias_term: true
    bias_filler {
      value: 0
    }
  }
}
layer {
  name: "resx7_conv3"
  type: "Convolution"
  bottom: "resx7_conv2"
  top: "resx7_conv3"
  convolution_param {
    num_output: 480
    bias_term: false
    pad: 0
    kernel_size: 1
    group: 3
    stride: 1
    weight_filler {
      type: "msra"
    }
  }
}
layer {
  name: "resx7_conv3_bn"
  type: "BatchNorm"
  bottom: "resx7_conv3"
  top: "resx7_conv3"
  param {
    lr_mult: 0
    decay_mult: 0
  }
  param {
    lr_mult: 0
    decay_mult: 0
  }
  param {
    lr_mult: 0
    decay_mult: 0
  }
}
layer {
  name: "resx7_conv3_scale"
  type: "Scale"
  bottom: "resx7_conv3"
  top: "resx7_conv3"
  scale_param {
    filler {
      value: 1
    }
    bias_term: true
    bias_filler {
      value: 0
    }
  }
}
layer {
  name: "resx7_elewise"
  type: "Eltwise"
  bottom: "resx6_elewise"
  bottom: "resx7_conv3"
  top: "resx7_elewise"
  eltwise_param {
    operation: SUM
  }
}
layer {
  name: "resx7_elewise_relu"
  type: "ReLU"
  bottom: "resx7_elewise"
  top: "resx7_elewise"
}
layer {
  name: "resx8_conv1"
  type: "Convolution"
  bottom: "resx7_elewise"
  top: "resx8_conv1"
  convolution_param {
    num_output: 120
    bias_term: false
    pad: 0
    kernel_size: 1
    group: 3
    stride: 1
    weight_filler {
      type: "msra"
    }
  }
}
layer {
  name: "resx8_conv1_bn"
  type: "BatchNorm"
  bottom: "resx8_conv1"
  top: "resx8_conv1"
  param {
    lr_mult: 0
    decay_mult: 0
  }
  param {
    lr_mult: 0
    decay_mult: 0
  }
  param {
    lr_mult: 0
    decay_mult: 0
  }
}
layer {
  name: "resx8_conv1_scale"
  type: "Scale"
  bottom: "resx8_conv1"
  top: "resx8_conv1"
  scale_param {
    filler {
      value: 1
    }
    bias_term: true
    bias_filler {
      value: 0
    }
  }
}
layer {
  name: "resx8_conv1_relu"
  type: "ReLU"
  bottom: "resx8_conv1"
  top: "resx8_conv1"
}
layer {
  name: "shuffle8"
  type: "ShuffleChannel"
  bottom: "resx8_conv1"
  top: "shuffle8"
  shuffle_channel_param {
    group: 3
  }
}
layer {
  name: "resx8_conv2"
  type: "ConvolutionDepthwise"
  bottom: "shuffle8"
  top: "resx8_conv2"
  convolution_param {
    num_output: 120
    bias_term: false
    pad: 1
    kernel_size: 3
    stride: 1
    weight_filler {
      type: "msra"
    }
  }
}
layer {
  name: "resx8_conv2_bn"
  type: "BatchNorm"
  bottom: "resx8_conv2"
  top: "resx8_conv2"
  param {
    lr_mult: 0
    decay_mult: 0
  }
  param {
    lr_mult: 0
    decay_mult: 0
  }
  param {
    lr_mult: 0
    decay_mult: 0
  }
}
layer {
  name: "resx8_conv2_scale"
  type: "Scale"
  bottom: "resx8_conv2"
  top: "resx8_conv2"
  scale_param {
    filler {
      value: 1
    }
    bias_term: true
    bias_filler {
      value: 0
    }
  }
}
layer {
  name: "resx8_conv3"
  type: "Convolution"
  bottom: "resx8_conv2"
  top: "resx8_conv3"
  convolution_param {
    num_output: 480
    bias_term: false
    pad: 0
    kernel_size: 1
    group: 3
    stride: 1
    weight_filler {
      type: "msra"
    }
  }
}
layer {
  name: "resx8_conv3_bn"
  type: "BatchNorm"
  bottom: "resx8_conv3"
  top: "resx8_conv3"
  param {
    lr_mult: 0
    decay_mult: 0
  }
  param {
    lr_mult: 0
    decay_mult: 0
  }
  param {
    lr_mult: 0
    decay_mult: 0
  }
}
layer {
  name: "resx8_conv3_scale"
  type: "Scale"
  bottom: "resx8_conv3"
  top: "resx8_conv3"
  scale_param {
    filler {
      value: 1
    }
    bias_term: true
    bias_filler {
      value: 0
    }
  }
}
layer {
  name: "resx8_elewise"
  type: "Eltwise"
  bottom: "resx7_elewise"
  bottom: "resx8_conv3"
  top: "resx8_elewise"
  eltwise_param {
    operation: SUM
  }
}
layer {
  name: "resx8_elewise_relu"
  type: "ReLU"
  bottom: "resx8_elewise"
  top: "resx8_elewise"
}
layer {
  name: "resx9_conv1"
  type: "Convolution"
  bottom: "resx8_elewise"
  top: "resx9_conv1"
  convolution_param {
    num_output: 120
    bias_term: false
    pad: 0
    kernel_size: 1
    group: 3
    stride: 1
    weight_filler {
      type: "msra"
    }
  }
}
layer {
  name: "resx9_conv1_bn"
  type: "BatchNorm"
  bottom: "resx9_conv1"
  top: "resx9_conv1"
  param {
    lr_mult: 0
    decay_mult: 0
  }
  param {
    lr_mult: 0
    decay_mult: 0
  }
  param {
    lr_mult: 0
    decay_mult: 0
  }
}
layer {
  name: "resx9_conv1_scale"
  type: "Scale"
  bottom: "resx9_conv1"
  top: "resx9_conv1"
  scale_param {
    filler {
      value: 1
    }
    bias_term: true
    bias_filler {
      value: 0
    }
  }
}
layer {
  name: "resx9_conv1_relu"
  type: "ReLU"
  bottom: "resx9_conv1"
  top: "resx9_conv1"
}
layer {
  name: "shuffle9"
  type: "ShuffleChannel"
  bottom: "resx9_conv1"
  top: "shuffle9"
  shuffle_channel_param {
    group: 3
  }
}
layer {
  name: "resx9_conv2"
  type: "ConvolutionDepthwise"
  bottom: "shuffle9"
  top: "resx9_conv2"
  convolution_param {
    num_output: 120
    bias_term: false
    pad: 1
    kernel_size: 3
    stride: 1
    weight_filler {
      type: "msra"
    }
  }
}
layer {
  name: "resx9_conv2_bn"
  type: "BatchNorm"
  bottom: "resx9_conv2"
  top: "resx9_conv2"
  param {
    lr_mult: 0
    decay_mult: 0
  }
  param {
    lr_mult: 0
    decay_mult: 0
  }
  param {
    lr_mult: 0
    decay_mult: 0
  }
}
layer {
  name: "resx9_conv2_scale"
  type: "Scale"
  bottom: "resx9_conv2"
  top: "resx9_conv2"
  scale_param {
    filler {
      value: 1
    }
    bias_term: true
    bias_filler {
      value: 0
    }
  }
}
layer {
  name: "resx9_conv3"
  type: "Convolution"
  bottom: "resx9_conv2"
  top: "resx9_conv3"
  convolution_param {
    num_output: 480
    bias_term: false
    pad: 0
    kernel_size: 1
    group: 3
    stride: 1
    weight_filler {
      type: "msra"
    }
  }
}
layer {
  name: "resx9_conv3_bn"
  type: "BatchNorm"
  bottom: "resx9_conv3"
  top: "resx9_conv3"
  param {
    lr_mult: 0
    decay_mult: 0
  }
  param {
    lr_mult: 0
    decay_mult: 0
  }
  param {
    lr_mult: 0
    decay_mult: 0
  }
}
layer {
  name: "resx9_conv3_scale"
  type: "Scale"
  bottom: "resx9_conv3"
  top: "resx9_conv3"
  scale_param {
    filler {
      value: 1
    }
    bias_term: true
    bias_filler {
      value: 0
    }
  }
}
layer {
  name: "resx9_elewise"
  type: "Eltwise"
  bottom: "resx8_elewise"
  bottom: "resx9_conv3"
  top: "resx9_elewise"
  eltwise_param {
    operation: SUM
  }
}
layer {
  name: "resx9_elewise_relu"
  type: "ReLU"
  bottom: "resx9_elewise"
  top: "resx9_elewise"
}
layer {
  name: "resx10_conv1"
  type: "Convolution"
  bottom: "resx9_elewise"
  top: "resx10_conv1"
  convolution_param {
    num_output: 120
    bias_term: false
    pad: 0
    kernel_size: 1
    group: 3
    stride: 1
    weight_filler {
      type: "msra"
    }
  }
}
layer {
  name: "resx10_conv1_bn"
  type: "BatchNorm"
  bottom: "resx10_conv1"
  top: "resx10_conv1"
  param {
    lr_mult: 0
    decay_mult: 0
  }
  param {
    lr_mult: 0
    decay_mult: 0
  }
  param {
    lr_mult: 0
    decay_mult: 0
  }
}
layer {
  name: "resx10_conv1_scale"
  type: "Scale"
  bottom: "resx10_conv1"
  top: "resx10_conv1"
  scale_param {
    filler {
      value: 1
    }
    bias_term: true
    bias_filler {
      value: 0
    }
  }
}
layer {
  name: "resx10_conv1_relu"
  type: "ReLU"
  bottom: "resx10_conv1"
  top: "resx10_conv1"
}
layer {
  name: "shuffle10"
  type: "ShuffleChannel"
  bottom: "resx10_conv1"
  top: "shuffle10"
  shuffle_channel_param {
    group: 3
  }
}
layer {
  name: "resx10_conv2"
  type: "ConvolutionDepthwise"
  bottom: "shuffle10"
  top: "resx10_conv2"
  convolution_param {
    num_output: 120
    bias_term: false
    pad: 1
    kernel_size: 3
    stride: 1
    weight_filler {
      type: "msra"
    }
  }
}
layer {
  name: "resx10_conv2_bn"
  type: "BatchNorm"
  bottom: "resx10_conv2"
  top: "resx10_conv2"
  param {
    lr_mult: 0
    decay_mult: 0
  }
  param {
    lr_mult: 0
    decay_mult: 0
  }
  param {
    lr_mult: 0
    decay_mult: 0
  }
}
layer {
  name: "resx10_conv2_scale"
  type: "Scale"
  bottom: "resx10_conv2"
  top: "resx10_conv2"
  scale_param {
    filler {
      value: 1
    }
    bias_term: true
    bias_filler {
      value: 0
    }
  }
}
layer {
  name: "resx10_conv3"
  type: "Convolution"
  bottom: "resx10_conv2"
  top: "resx10_conv3"
  convolution_param {
    num_output: 480
    bias_term: false
    pad: 0
    kernel_size: 1
    group: 3
    stride: 1
    weight_filler {
      type: "msra"
    }
  }
}
layer {
  name: "resx10_conv3_bn"
  type: "BatchNorm"
  bottom: "resx10_conv3"
  top: "resx10_conv3"
  param {
    lr_mult: 0
    decay_mult: 0
  }
  param {
    lr_mult: 0
    decay_mult: 0
  }
  param {
    lr_mult: 0
    decay_mult: 0
  }
}
layer {
  name: "resx10_conv3_scale"
  type: "Scale"
  bottom: "resx10_conv3"
  top: "resx10_conv3"
  scale_param {
    filler {
      value: 1
    }
    bias_term: true
    bias_filler {
      value: 0
    }
  }
}
layer {
  name: "resx10_elewise"
  type: "Eltwise"
  bottom: "resx9_elewise"
  bottom: "resx10_conv3"
  top: "resx10_elewise"
  eltwise_param {
    operation: SUM
  }
}
layer {
  name: "resx10_elewise_relu"
  type: "ReLU"
  bottom: "resx10_elewise"
  top: "resx10_elewise"
}
layer {
  name: "resx11_conv1"
  type: "Convolution"
  bottom: "resx10_elewise"
  top: "resx11_conv1"
  convolution_param {
    num_output: 120
    bias_term: false
    pad: 0
    kernel_size: 1
    group: 3
    stride: 1
    weight_filler {
      type: "msra"
    }
  }
}
layer {
  name: "resx11_conv1_bn"
  type: "BatchNorm"
  bottom: "resx11_conv1"
  top: "resx11_conv1"
  param {
    lr_mult: 0
    decay_mult: 0
  }
  param {
    lr_mult: 0
    decay_mult: 0
  }
  param {
    lr_mult: 0
    decay_mult: 0
  }
}
layer {
  name: "resx11_conv1_scale"
  type: "Scale"
  bottom: "resx11_conv1"
  top: "resx11_conv1"
  scale_param {
    filler {
      value: 1
    }
    bias_term: true
    bias_filler {
      value: 0
    }
  }
}
layer {
  name: "resx11_conv1_relu"
  type: "ReLU"
  bottom: "resx11_conv1"
  top: "resx11_conv1"
}
layer {
  name: "shuffle11"
  type: "ShuffleChannel"
  bottom: "resx11_conv1"
  top: "shuffle11"
  shuffle_channel_param {
    group: 3
  }
}
layer {
  name: "resx11_conv2"
  type: "ConvolutionDepthwise"
  bottom: "shuffle11"
  top: "resx11_conv2"
  convolution_param {
    num_output: 120
    bias_term: false
    pad: 1
    kernel_size: 3
    stride: 1
    weight_filler {
      type: "msra"
    }
  }
}
layer {
  name: "resx11_conv2_bn"
  type: "BatchNorm"
  bottom: "resx11_conv2"
  top: "resx11_conv2"
  param {
    lr_mult: 0
    decay_mult: 0
  }
  param {
    lr_mult: 0
    decay_mult: 0
  }
  param {
    lr_mult: 0
    decay_mult: 0
  }
}
layer {
  name: "resx11_conv2_scale"
  type: "Scale"
  bottom: "resx11_conv2"
  top: "resx11_conv2"
  scale_param {
    filler {
      value: 1
    }
    bias_term: true
    bias_filler {
      value: 0
    }
  }
}
layer {
  name: "resx11_conv3"
  type: "Convolution"
  bottom: "resx11_conv2"
  top: "resx11_conv3"
  convolution_param {
    num_output: 480
    bias_term: false
    pad: 0
    kernel_size:
I0818 15:27:45.716382 17010 layer_factory.hpp:77] Creating layer data
I0818 15:27:45.717520 17010 net.cpp:91] Creating Layer data
I0818 15:27:45.717545 17010 net.cpp:443] data -> data
I0818 15:27:45.717573 17010 net.cpp:443] data -> label
I0818 15:27:45.727509 17033 db_lmdb.cpp:35] Opened lmdb /home/chenyao/ilsvrc12/ilsvrc12_train_lmdb
I0818 15:27:46.108165 17010 data_layer.cpp:41] output data size: 80,3,224,224
I0818 15:27:46.200044 17010 net.cpp:141] Setting up data
I0818 15:27:46.200095 17010 net.cpp:148] Top shape: 80 3 224 224 (12042240)
I0818 15:27:46.200103 17010 net.cpp:148] Top shape: 80 (80)
I0818 15:27:46.200106 17010 net.cpp:156] Memory required for data: 48169280
I0818 15:27:46.200117 17010 layer_factory.hpp:77] Creating layer conv1
I0818 15:27:46.200151 17010 net.cpp:91] Creating Layer conv1
I0818 15:27:46.200158 17010 net.cpp:469] conv1 <- data
I0818 15:27:46.200171 17010 net.cpp:443] conv1 -> conv1
I0818 15:27:46.467222 17034 blocking_queue.cpp:50] Waiting for data
I0818 15:27:47.783385 17010 net.cpp:141] Setting up conv1
I0818 15:27:47.783437 17010 net.cpp:148] Top shape: 80 24 112 112 (24084480)
I0818 15:27:47.783443 17010 net.cpp:156] Memory required for data: 144507200
I0818 15:27:47.783459 17010 layer_factory.hpp:77] Creating layer conv1_bn
I0818 15:27:47.792554 17010 net.cpp:91] Creating Layer conv1_bn
I0818 15:27:47.792584 17010 net.cpp:469] conv1_bn <- conv1
I0818 15:27:47.792604 17010 net.cpp:430] conv1_bn -> conv1 (in-place)
I0818 15:27:47.793603 17010 net.cpp:141] Setting up conv1_bn
I0818 15:27:47.793620 17010 net.cpp:148] Top shape: 80 24 112 112 (24084480)
I0818 15:27:47.793624 17010 net.cpp:156] Memory required for data: 240845120
I0818 15:27:47.793637 17010 layer_factory.hpp:77] Creating layer conv1_scale
I0818 15:27:47.801187 17010 net.cpp:91] Creating Layer conv1_scale
I0818 15:27:47.801209 17010 net.cpp:469] conv1_scale <- conv1
I0818 15:27:47.801215 17010 net.cpp:430] conv1_scale -> conv1 (in-place)
I0818 15:27:47.801276 17010 layer_factory.hpp:77] Creating layer conv1_scale
I0818 15:27:47.801398 17010 net.cpp:141] Setting up conv1_scale
I0818 15:27:47.801409 17010 net.cpp:148] Top shape: 80 24 112 112 (24084480)
I0818 15:27:47.801412 17010 net.cpp:156] Memory required for data: 337183040
I0818 15:27:47.801420 17010 layer_factory.hpp:77] Creating layer conv1_relu
I0818 15:27:47.801432 17010 net.cpp:91] Creating Layer conv1_relu
I0818 15:27:47.801437 17010 net.cpp:469] conv1_relu <- conv1
I0818 15:27:47.801441 17010 net.cpp:430] conv1_relu -> conv1 (in-place)
I0818 15:27:47.801784 17010 net.cpp:141] Setting up conv1_relu
I0818 15:27:47.801800 17010 net.cpp:148] Top shape: 80 24 112 112 (24084480)
I0818 15:27:47.801805 17010 net.cpp:156] Memory required for data: 433520960
I0818 15:27:47.801808 17010 layer_factory.hpp:77] Creating layer pool1
I0818 15:27:47.801820 17010 net.cpp:91] Creating Layer pool1
I0818 15:27:47.801823 17010 net.cpp:469] pool1 <- conv1
I0818 15:27:47.801828 17010 net.cpp:443] pool1 -> pool1
I0818 15:27:47.801884 17010 net.cpp:141] Setting up pool1
I0818 15:27:47.801893 17010 net.cpp:148] Top shape: 80 24 56 56 (6021120)
I0818 15:27:47.801898 17010 net.cpp:156] Memory required for data: 457605440
I0818 15:27:47.801900 17010 layer_factory.hpp:77] Creating layer pool1_pool1_0_split
I0818 15:27:47.801909 17010 net.cpp:91] Creating Layer pool1_pool1_0_split
I0818 15:27:47.801913 17010 net.cpp:469] pool1_pool1_0_split <- pool1
I0818 15:27:47.801920 17010 net.cpp:443] pool1_pool1_0_split -> pool1_pool1_0_split_0
I0818 15:27:47.801928 17010 net.cpp:443] pool1_pool1_0_split -> pool1_pool1_0_split_1
I0818 15:27:47.801964 17010 net.cpp:141] Setting up pool1_pool1_0_split
I0818 15:27:47.801972 17010 net.cpp:148] Top shape: 80 24 56 56 (6021120)
I0818 15:27:47.801977 17010 net.cpp:148] Top shape: 80 24 56 56 (6021120)
I0818 15:27:47.801980 17010 net.cpp:156] Memory required for data: 505774400
I0818 15:27:47.801983 17010 layer_factory.hpp:77] Creating layer resx1_match_conv
I0818 15:27:47.801990 17010 net.cpp:91] Creating Layer resx1_match_conv
I0818 15:27:47.801993 17010 net.cpp:469] resx1_match_conv <- pool1_pool1_0_split_0
I0818 15:27:47.801998 17010 net.cpp:443] resx1_match_conv -> resx1_match_conv
I0818 15:27:47.806224 17010 net.cpp:141] Setting up resx1_match_conv
I0818 15:27:47.806244 17010 net.cpp:148] Top shape: 80 24 28 28 (1505280)
I0818 15:27:47.806249 17010 net.cpp:156] Memory required for data: 511795520
I0818 15:27:47.806253 17010 layer_factory.hpp:77] Creating layer resx1_conv1
I0818 15:27:47.806269 17010 net.cpp:91] Creating Layer resx1_conv1
I0818 15:27:47.806274 17010 net.cpp:469] resx1_conv1 <- pool1_pool1_0_split_1
I0818 15:27:47.806282 17010 net.cpp:443] resx1_conv1 -> resx1_conv1
I0818 15:27:47.807835 17010 net.cpp:141] Setting up resx1_conv1
I0818 15:27:47.807853 17010 net.cpp:148] Top shape: 80 54 56 56 (13547520)
I0818 15:27:47.807857 17010 net.cpp:156] Memory required for data: 565985600
I0818 15:27:47.807863 17010 layer_factory.hpp:77] Creating layer resx1_conv1_bn
I0818 15:27:47.807874 17010 net.cpp:91] Creating Layer resx1_conv1_bn
I0818 15:27:47.807878 17010 net.cpp:469] resx1_conv1_bn <- resx1_conv1
I0818 15:27:47.807884 17010 net.cpp:430] resx1_conv1_bn -> resx1_conv1 (in-place)
I0818 15:27:47.808049 17010 net.cpp:141] Setting up resx1_conv1_bn
I0818 15:27:47.808059 17010 net.cpp:148] Top shape: 80 54 56 56 (13547520)
I0818 15:27:47.808063 17010 net.cpp:156] Memory required for data: 620175680
I0818 15:27:47.808073 17010 layer_factory.hpp:77] Creating layer resx1_conv1_scale
I0818 15:27:47.808082 17010 net.cpp:91] Creating Layer resx1_conv1_scale
I0818 15:27:47.808086 17010 net.cpp:469] resx1_conv1_scale <- resx1_conv1
I0818 15:27:47.808091 17010 net.cpp:430] resx1_conv1_scale -> resx1_conv1 (in-place)
I0818 15:27:47.808130 17010 layer_factory.hpp:77] Creating layer resx1_conv1_scale
I0818 15:27:47.808239 17010 net.cpp:141] Setting up resx1_conv1_scale
I0818 15:27:47.808256 17010 net.cpp:148] Top shape: 80 54 56 56 (13547520)
I0818 15:27:47.808260 17010 net.cpp:156] Memory required for data: 674365760
I0818 15:27:47.808265 17010 layer_factory.hpp:77] Creating layer resx1_conv1_relu
I0818 15:27:47.808272 17010 net.cpp:91] Creating Layer resx1_conv1_relu
I0818 15:27:47.808276 17010 net.cpp:469] resx1_conv1_relu <- resx1_conv1
I0818 15:27:47.808282 17010 net.cpp:430] resx1_conv1_relu -> resx1_conv1 (in-place)
I0818 15:27:47.808428 17010 net.cpp:141] Setting up resx1_conv1_relu
I0818 15:27:47.808439 17010 net.cpp:148] Top shape: 80 54 56 56 (13547520)
I0818 15:27:47.808442 17010 net.cpp:156] Memory required for data: 728555840
I0818 15:27:47.808446 17010 layer_factory.hpp:77] Creating layer resx1_conv2
I0818 15:27:47.808456 17010 net.cpp:91] Creating Layer resx1_conv2
I0818 15:27:47.808461 17010 net.cpp:469] resx1_conv2 <- resx1_conv1
I0818 15:27:47.808467 17010 net.cpp:443] resx1_conv2 -> resx1_conv2
I0818 15:27:47.808806 17010 net.cpp:141] Setting up resx1_conv2
I0818 15:27:47.808823 17010 net.cpp:148] Top shape: 80 54 28 28 (3386880)
I0818 15:27:47.808827 17010 net.cpp:156] Memory required for data: 742103360
I0818 15:27:47.808833 17010 layer_factory.hpp:77] Creating layer resx1_conv2_bn
I0818 15:27:47.808845 17010 net.cpp:91] Creating Layer resx1_conv2_bn
I0818 15:27:47.808848 17010 net.cpp:469] resx1_conv2_bn <- resx1_conv2
I0818 15:27:47.808853 17010 net.cpp:430] resx1_conv2_bn -> resx1_conv2 (in-place)
I0818 15:27:47.809017 17010 net.cpp:141] Setting up resx1_conv2_bn
I0818 15:27:47.809026 17010 net.cpp:148] Top shape: 80 54 28 28 (3386880)
I0818 15:27:47.809029 17010 net.cpp:156] Memory required for data: 755650880
I0818 15:27:47.809036 17010 layer_factory.hpp:77] Creating layer resx1_conv2_scale
I0818 15:27:47.809047 17010 net.cpp:91] Creating Layer resx1_conv2_scale
I0818 15:27:47.809052 17010 net.cpp:469] resx1_conv2_scale <- resx1_conv2
I0818 15:27:47.809057 17010 net.cpp:430] resx1_conv2_scale -> resx1_conv2 (in-place)
I0818 15:27:47.809283 17010 layer_factory.hpp:77] Creating layer resx1_conv2_scale
I0818 15:27:47.809397 17010 net.cpp:141] Setting up resx1_conv2_scale
I0818 15:27:47.809407 17010 net.cpp:148] Top shape: 80 54 28 28 (3386880)
I0818 15:27:47.809412 17010 net.cpp:156] Memory required for data: 769198400
I0818 15:27:47.809422 17010 layer_factory.hpp:77] Creating layer resx1_conv3
I0818 15:27:47.809440 17010 net.cpp:91] Creating Layer resx1_conv3
I0818 15:27:47.809445 17010 net.cpp:469] resx1_conv3 <- resx1_conv2
I0818 15:27:47.809451 17010 net.cpp:443] resx1_conv3 -> resx1_conv3
I0818 15:27:47.811961 17010 net.cpp:141] Setting up resx1_conv3
I0818 15:27:47.811980 17010 net.cpp:148] Top shape: 80 216 28 28 (13547520)
I0818 15:27:47.811985 17010 net.cpp:156] Memory required for data: 823388480
I0818 15:27:47.811990 17010 layer_factory.hpp:77] Creating layer resx1_conv3_bn
I0818 15:27:47.812002 17010 net.cpp:91] Creating Layer resx1_conv3_bn
I0818 15:27:47.812007 17010 net.cpp:469] resx1_conv3_bn <- resx1_conv3
I0818 15:27:47.812013 17010 net.cpp:430] resx1_conv3_bn -> resx1_conv3 (in-place)
I0818 15:27:47.812358 17010 net.cpp:141] Setting up resx1_conv3_bn
I0818 15:27:47.812371 17010 net.cpp:148] Top shape: 80 216 28 28 (13547520)
I0818 15:27:47.812374 17010 net.cpp:156] Memory required for data: 877578560
I0818 15:27:47.812381 17010 layer_factory.hpp:77] Creating layer resx1_conv3_scale
I0818 15:27:47.812391 17010 net.cpp:91] Creating Layer resx1_conv3_scale
I0818 15:27:47.812394 17010 net.cpp:469] resx1_conv3_scale <- resx1_conv3
I0818 15:27:47.812400 17010 net.cpp:430] resx1_conv3_scale -> resx1_conv3 (in-place)
I0818 15:27:47.812443 17010 layer_factory.hpp:77] Creating layer resx1_conv3_scale
I0818 15:27:47.812559 17010 net.cpp:141] Setting up resx1_conv3_scale
I0818 15:27:47.812568 17010 net.cpp:148] Top shape: 80 216 28 28 (13547520)
I0818 15:27:47.812572 17010 net.cpp:156] Memory required for data: 931768640
I0818 15:27:47.812578 17010 layer_factory.hpp:77] Creating layer resx1_concat
I0818 15:27:47.812703 17010 net.cpp:91] Creating Layer resx1_concat
I0818 15:27:47.812723 17010 net.cpp:469] resx1_concat <- resx1_match_conv
I0818 15:27:47.812729 17010 net.cpp:469] resx1_concat <- resx1_conv3
I0818 15:27:47.812734 17010 net.cpp:443] resx1_concat -> resx1_concat
I0818 15:27:47.812772 17010 net.cpp:141] Setting up resx1_concat
I0818 15:27:47.812779 17010 net.cpp:148] Top shape: 80 240 28 28 (15052800)
I0818 15:27:47.812785 17010 net.cpp:156] Memory required for data: 991979840
I0818 15:27:47.812789 17010 layer_factory.hpp:77] Creating layer resx1_concat_relu
I0818 15:27:47.812795 17010 net.cpp:91] Creating Layer resx1_concat_relu
I0818 15:27:47.812799 17010 net.cpp:469] resx1_concat_relu <- resx1_concat
I0818 15:27:47.812804 17010 net.cpp:430] resx1_concat_relu -> resx1_concat (in-place)
I0818 15:27:47.812963 17010 net.cpp:141] Setting up resx1_concat_relu
I0818 15:27:47.812978 17010 net.cpp:148] Top shape: 80 240 28 28 (15052800)
I0818 15:27:47.812981 17010 net.cpp:156] Memory required for data: 1052191040
I0818 15:27:47.812984 17010 layer_factory.hpp:77] Creating layer resx1_concat_resx1_concat_relu_0_split
I0818 15:27:47.812993 17010 net.cpp:91] Creating Layer resx1_concat_resx1_concat_relu_0_split
I0818 15:27:47.812995 17010 net.cpp:469] resx1_concat_resx1_concat_relu_0_split <- resx1_concat
I0818 15:27:47.813001 17010 net.cpp:443] resx1_concat_resx1_concat_relu_0_split -> resx1_concat_resx1_concat_relu_0_split_0
I0818 15:27:47.813007 17010 net.cpp:443] resx1_concat_resx1_concat_relu_0_split -> resx1_concat_resx1_concat_relu_0_split_1
I0818 15:27:47.813045 17010 net.cpp:141] Setting up resx1_concat_resx1_concat_relu_0_split
I0818 15:27:47.813053 17010 net.cpp:148] Top shape: 80 240 28 28 (15052800)
I0818 15:27:47.813057 17010 net.cpp:148] Top shape: 80 240 28 28 (15052800)
I0818 15:27:47.813060 17010 net.cpp:156] Memory required for data: 1172613440
I0818 15:27:47.813064 17010 layer_factory.hpp:77] Creating layer resx2_conv1
I0818 15:27:47.813084 17010 net.cpp:91] Creating Layer resx2_conv1
I0818 15:27:47.813091 17010 net.cpp:469] resx2_conv1 <- resx1_concat_resx1_concat_relu_0_split_0
I0818 15:27:47.813099 17010 net.cpp:443] resx2_conv1 -> resx2_conv1
I0818 15:27:47.815644 17010 net.cpp:141] Setting up resx2_conv1
I0818 15:27:47.815661 17010 net.cpp:148] Top shape: 80 60 28 28 (3763200)
I0818 15:27:47.815665 17010 net.cpp:156] Memory required for data: 1187666240
I0818 15:27:47.815671 17010 layer_factory.hpp:77] Creating layer resx2_conv1_bn
I0818 15:27:47.815681 17010 net.cpp:91] Creating Layer resx2_conv1_bn
I0818 15:27:47.815686 17010 net.cpp:469] resx2_conv1_bn <- resx2_conv1
I0818 15:27:47.815691 17010 net.cpp:430] resx2_conv1_bn -> resx2_conv1 (in-place)
I0818 15:27:47.815857 17010 net.cpp:141] Setting up resx2_conv1_bn
I0818 15:27:47.815867 17010 net.cpp:148] Top shape: 80 60 28 28 (3763200)
I0818 15:27:47.815871 17010 net.cpp:156] Memory required for data: 1202719040
I0818 15:27:47.815877 17010 layer_factory.hpp:77] Creating layer resx2_conv1_scale
I0818 15:27:47.815887 17010 net.cpp:91] Creating Layer resx2_conv1_scale
I0818 15:27:47.815891 17010 net.cpp:469] resx2_conv1_scale <- resx2_conv1
I0818 15:27:47.815896 17010 net.cpp:430] resx2_conv1_scale -> resx2_conv1 (in-place)
I0818 15:27:47.815935 17010 layer_factory.hpp:77] Creating layer resx2_conv1_scale
I0818 15:27:47.816037 17010 net.cpp:141] Setting up resx2_conv1_scale
I0818 15:27:47.816046 17010 net.cpp:148] Top shape: 80 60 28 28 (3763200)
I0818 15:27:47.816051 17010 net.cpp:156] Memory required for data: 1217771840
I0818 15:27:47.816056 17010 layer_factory.hpp:77] Creating layer resx2_conv1_relu
I0818 15:27:47.816066 17010 net.cpp:91] Creating Layer resx2_conv1_relu
I0818 15:27:47.816069 17010 net.cpp:469] resx2_conv1_relu <- resx2_conv1
I0818 15:27:47.816074 17010 net.cpp:430] resx2_conv1_relu -> resx2_conv1 (in-place)
I0818 15:27:47.816231 17010 net.cpp:141] Setting up resx2_conv1_relu
I0818 15:27:47.816243 17010 net.cpp:148] Top shape: 80 60 28 28 (3763200)
I0818 15:27:47.816247 17010 net.cpp:156] Memory required for data: 1232824640
I0818 15:27:47.816256 17010 layer_factory.hpp:77] Creating layer shuffle2
I0818 15:27:47.816278 17010 net.cpp:91] Creating Layer shuffle2
I0818 15:27:47.816283 17010 net.cpp:469] shuffle2 <- resx2_conv1
I0818 15:27:47.816288 17010 net.cpp:443] shuffle2 -> shuffle2
I0818 15:27:47.816321 17010 net.cpp:141] Setting up shuffle2
I0818 15:27:47.816329 17010 net.cpp:148] Top shape: 80 60 28 28 (3763200)
I0818 15:27:47.816332 17010 net.cpp:156] Memory required for data: 1247877440
I0818 15:27:47.816335 17010 layer_factory.hpp:77] Creating layer resx2_conv2
I0818 15:27:47.816344 17010 net.cpp:91] Creating Layer resx2_conv2
I0818 15:27:47.816347 17010 net.cpp:469] resx2_conv2 <- shuffle2
I0818 15:27:47.816354 17010 net.cpp:443] resx2_conv2 -> resx2_conv2
I0818 15:27:47.816493 17010 net.cpp:141] Setting up resx2_conv2
I0818 15:27:47.816505 17010 net.cpp:148] Top shape: 80 60 28 28 (3763200)
I0818 15:27:47.816509 17010 net.cpp:156] Memory required for data: 1262930240
I0818 15:27:47.816514 17010 layer_factory.hpp:77] Creating layer resx2_conv2_bn
I0818 15:27:47.816521 17010 net.cpp:91] Creating Layer resx2_conv2_bn
I0818 15:27:47.816525 17010 net.cpp:469] resx2_conv2_bn <- resx2_conv2
I0818 15:27:47.816531 17010 net.cpp:430] resx2_conv2_bn -> resx2_conv2 (in-place)
I0818 15:27:47.816687 17010 net.cpp:141] Setting up resx2_conv2_bn
I0818 15:27:47.816695 17010 net.cpp:148] Top shape: 80 60 28 28 (3763200)
I0818 15:27:47.816699 17010 net.cpp:156] Memory required for data: 1277983040
I0818 15:27:47.816714 17010 layer_factory.hpp:77] Creating layer resx2_conv2_scale
I0818 15:27:47.816721 17010 net.cpp:91] Creating Layer resx2_conv2_scale
I0818 15:27:47.816725 17010 net.cpp:469] resx2_conv2_scale <- resx2_conv2
I0818 15:27:47.816730 17010 net.cpp:430] resx2_conv2_scale -> resx2_conv2 (in-place)
I0818 15:27:47.816771 17010 layer_factory.hpp:77] Creating layer resx2_conv2_scale
I0818 15:27:47.816872 17010 net.cpp:141] Setting up resx2_conv2_scale
I0818 15:27:47.816881 17010 net.cpp:148] Top shape: 80 60 28 28 (3763200)
I0818 15:27:47.816884 17010 net.cpp:156] Memory required for data: 1293035840
I0818 15:27:47.816890 17010 layer_factory.hpp:77] Creating layer resx2_conv3
I0818 15:27:47.816901 17010 net.cpp:91] Creating Layer resx2_conv3
I0818 15:27:47.816905 17010 net.cpp:469] resx2_conv3 <- resx2_conv2
I0818 15:27:47.816912 17010 net.cpp:443] resx2_conv3 -> resx2_conv3
I0818 15:27:47.819623 17010 net.cpp:141] Setting up resx2_conv3
I0818 15:27:47.819641 17010 net.cpp:148] Top shape: 80 240 28 28 (15052800)
I0818 15:27:47.819646 17010 net.cpp:156] Memory required for data: 1353247040
I0818 15:27:47.819651 17010 layer_factory.hpp:77] Creating layer resx2_conv3_bn
I0818 15:27:47.819661 17010 net.cpp:91] Creating Layer resx2_conv3_bn
I0818 15:27:47.819665 17010 net.cpp:469] resx2_conv3_bn <- resx2_conv3
I0818 15:27:47.819672 17010 net.cpp:430] resx2_conv3_bn -> resx2_conv3 (in-place)
I0818 15:27:47.819833 17010 net.cpp:141] Setting up resx2_conv3_bn
I0818 15:27:47.819842 17010 net.cpp:148] Top shape: 80 240 28 28 (15052800)
I0818 15:27:47.819845 17010 net.cpp:156] Memory required for data: 1413458240
I0818 15:27:47.819852 17010 layer_factory.hpp:77] Creating layer resx2_conv3_scale
I0818 15:27:47.819862 17010 net.cpp:91] Creating Layer resx2_conv3_scale
I0818 15:27:47.819866 17010 net.cpp:469] resx2_conv3_scale <- resx2_conv3
I0818 15:27:47.819871 17010 net.cpp:430] resx2_conv3_scale -> resx2_conv3 (in-place)
I0818 15:27:47.819911 17010 layer_factory.hpp:77] Creating layer resx2_conv3_scale
I0818 15:27:47.820013 17010 net.cpp:141] Setting up resx2_conv3_scale
I0818 15:27:47.820020 17010 net.cpp:148] Top shape: 80 240 28 28 (15052800)
I0818 15:27:47.820024 17010 net.cpp:156] Memory required for data: 1473669440
I0818 15:27:47.820029 17010 layer_factory.hpp:77] Creating layer resx2_elewise
I0818 15:27:47.820046 17010 net.cpp:91] Creating Layer resx2_elewise
I0818 15:27:47.820051 17010 net.cpp:469] resx2_elewise <- resx1_concat_resx1_concat_relu_0_split_1
I0818 15:27:47.820056 17010 net.cpp:469] resx2_elewise <- resx2_conv3
I0818 15:27:47.820066 17010 net.cpp:443] resx2_elewise -> resx2_elewise
I0818 15:27:47.820104 17010 net.cpp:141] Setting up resx2_elewise
I0818 15:27:47.820112 17010 net.cpp:148] Top shape: 80 240 28 28 (15052800)
I0818 15:27:47.820116 17010 net.cpp:156] Memory required for data: 1533880640
I0818 15:27:47.820119 17010 layer_factory.hpp:77] Creating layer resx2_elewise_relu
I0818 15:27:47.820125 17010 net.cpp:91] Creating Layer resx2_elewise_relu
I0818 15:27:47.820129 17010 net.cpp:469] resx2_elewise_relu <- resx2_elewise
I0818 15:27:47.820133 17010 net.cpp:430] resx2_elewise_relu -> resx2_elewise (in-place)
I0818 15:27:47.820283 17010 net.cpp:141] Setting up resx2_elewise_relu
I0818 15:27:47.820296 17010 net.cpp:148] Top shape: 80 240 28 28 (15052800)
I0818 15:27:47.820299 17010 net.cpp:156] Memory required for data: 1594091840
I0818 15:27:47.820302 17010 layer_factory.hpp:77] Creating layer resx2_elewise_resx2_elewise_relu_0_split
I0818 15:27:47.820312 17010 net.cpp:91] Creating Layer resx2_elewise_resx2_elewise_relu_0_split
I0818 15:27:47.820315 17010 net.cpp:469] resx2_elewise_resx2_elewise_relu_0_split <- resx2_elewise
I0818 15:27:47.820322 17010 net.cpp:443] resx2_elewise_resx2_elewise_relu_0_split -> resx2_elewise_resx2_elewise_relu_0_split_0
I0818 15:27:47.820327 17010 net.cpp:443] resx2_elewise_resx2_elewise_relu_0_split -> resx2_elewise_resx2_elewise_relu_0_split_1
I0818 15:27:47.820366 17010 net.cpp:141] Setting up resx2_elewise_resx2_elewise_relu_0_split
I0818 15:27:47.820374 17010 net.cpp:148] Top shape: 80 240 28 28 (15052800)
I0818 15:27:47.820377 17010 net.cpp:148] Top shape: 80 240 28 28 (15052800)
I0818 15:27:47.820380 17010 net.cpp:156] Memory required for data: 1714514240
I0818 15:27:47.820384 17010 layer_factory.hpp:77] Creating layer resx3_conv1
I0818 15:27:47.820394 17010 net.cpp:91] Creating Layer resx3_conv1
I0818 15:27:47.820399 17010 net.cpp:469] resx3_conv1 <- resx2_elewise_resx2_elewise_relu_0_split_0
I0818 15:27:47.820405 17010 net.cpp:443] resx3_conv1 -> resx3_conv1
I0818 15:27:47.822916 17010 net.cpp:141] Setting up resx3_conv1
I0818 15:27:47.822934 17010 net.cpp:148] Top shape: 80 60 28 28 (3763200)
I0818 15:27:47.822938 17010 net.cpp:156] Memory required for data: 1729567040
I0818 15:27:47.822943 17010 layer_factory.hpp:77] Creating layer resx3_conv1_bn
I0818 15:27:47.822952 17010 net.cpp:91] Creating Layer resx3_conv1_bn
I0818 15:27:47.822955 17010 net.cpp:469] resx3_conv1_bn <- resx3_conv1
I0818 15:27:47.822963 17010 net.cpp:430] resx3_conv1_bn -> resx3_conv1 (in-place)
I0818 15:27:47.823133 17010 net.cpp:141] Setting up resx3_conv1_bn
I0818 15:27:47.823143 17010 net.cpp:148] Top shape: 80 60 28 28 (3763200)
I0818 15:27:47.823146 17010 net.cpp:156] Memory required for data: 1744619840
I0818 15:27:47.823153 17010 layer_factory.hpp:77] Creating layer resx3_conv1_scale
I0818 15:27:47.823161 17010 net.cpp:91] Creating Layer resx3_conv1_scale
I0818 15:27:47.823165 17010 net.cpp:469] resx3_conv1_scale <- resx3_conv1
I0818 15:27:47.823173 17010 net.cpp:430] resx3_conv1_scale -> resx3_conv1 (in-place)
I0818 15:27:47.823211 17010 layer_factory.hpp:77] Creating layer resx3_conv1_scale
I0818 15:27:47.823315 17010 net.cpp:141] Setting up resx3_conv1_scale
I0818 15:27:47.823324 17010 net.cpp:148] Top shape: 80 60 28 28 (3763200)
I0818 15:27:47.823328 17010 net.cpp:156] Memory required for data: 1759672640
I0818 15:27:47.823334 17010 layer_factory.hpp:77] Creating layer resx3_conv1_relu
I0818 15:27:47.823341 17010 net.cpp:91] Creating Layer resx3_conv1_relu
I0818 15:27:47.823344 17010 net.cpp:469] resx3_conv1_relu <- resx3_conv1
I0818 15:27:47.823351 17010 net.cpp:430] resx3_conv1_relu -> resx3_conv1 (in-place)
I0818 15:27:47.823501 17010 net.cpp:141] Setting up resx3_conv1_relu
I0818 15:27:47.823513 17010 net.cpp:148] Top shape: 80 60 28 28 (3763200)
I0818 15:27:47.823516 17010 net.cpp:156] Memory required for data: 1774725440
I0818 15:27:47.823520 17010 layer_factory.hpp:77] Creating layer shuffle3
I0818 15:27:47.823529 17010 net.cpp:91] Creating Layer shuffle3
I0818 15:27:47.823534 17010 net.cpp:469] shuffle3 <- resx3_conv1
I0818 15:27:47.823542 17010 net.cpp:443] shuffle3 -> shuffle3
I0818 15:27:47.823580 17010 net.cpp:141] Setting up shuffle3
I0818 15:27:47.823587 17010 net.cpp:148] Top shape: 80 60 28 28 (3763200)
I0818 15:27:47.823590 17010 net.cpp:156] Memory required for data: 1789778240
I0818 15:27:47.823593 17010 layer_factory.hpp:77] Creating layer resx3_conv2
I0818 15:27:47.823604 17010 net.cpp:91] Creating Layer resx3_conv2
I0818 15:27:47.823608 17010 net.cpp:469] resx3_conv2 <- shuffle3
I0818 15:27:47.823613 17010 net.cpp:443] resx3_conv2 -> resx3_conv2
I0818 15:27:47.823734 17010 net.cpp:141] Setting up resx3_conv2
I0818 15:27:47.823746 17010 net.cpp:148] Top shape: 80 60 28 28 (3763200)
I0818 15:27:47.823750 17010 net.cpp:156] Memory required for data: 1804831040
I0818 15:27:47.823755 17010 layer_factory.hpp:77] Creating layer resx3_conv2_bn
I0818 15:27:47.823765 17010 net.cpp:91] Creating Layer resx3_conv2_bn
I0818 15:27:47.823768 17010 net.cpp:469] resx3_conv2_bn <- resx3_conv2
I0818 15:27:47.823773 17010 net.cpp:430] resx3_conv2_bn -> resx3_conv2 (in-place)
I0818 15:27:47.823930 17010 net.cpp:141] Setting up resx3_conv2_bn
I0818 15:27:47.823938 17010 net.cpp:148] Top shape: 80 60 28 28 (3763200)
I0818 15:27:47.823942 17010 net.cpp:156] Memory required for data: 1819883840
I0818 15:27:47.823948 17010 layer_factory.hpp:77] Creating layer resx3_conv2_scale
I0818 15:27:47.823958 17010 net.cpp:91] Creating Layer resx3_conv2_scale
I0818 15:27:47.823962 17010 net.cpp:469] resx3_conv2_scale <- resx3_conv2
I0818 15:27:47.823967 17010 net.cpp:430] resx3_conv2_scale -> resx3_conv2 (in-place)
I0818 15:27:47.824007 17010 layer_factory.hpp:77] Creating layer resx3_conv2_scale
I0818 15:27:47.824120 17010 net.cpp:141] Setting up resx3_conv2_scale
I0818 15:27:47.824128 17010 net.cpp:148] Top shape: 80 60 28 28 (3763200)
I0818 15:27:47.824132 17010 net.cpp:156] Memory required for data: 1834936640
I0818 15:27:47.824138 17010 layer_factory.hpp:77] Creating layer resx3_conv3
I0818 15:27:47.824151 17010 net.cpp:91] Creating Layer resx3_conv3
I0818 15:27:47.824154 17010 net.cpp:469] resx3_conv3 <- resx3_conv2
I0818 15:27:47.824160 17010 net.cpp:443] resx3_conv3 -> resx3_conv3
I0818 15:27:47.826736 17010 net.cpp:141] Setting up resx3_conv3
I0818 15:27:47.826755 17010 net.cpp:148] Top shape: 80 240 28 28 (15052800)
I0818 15:27:47.826758 17010 net.cpp:156] Memory required for data: 1895147840
I0818 15:27:47.826764 17010 layer_factory.hpp:77] Creating layer resx3_conv3_bn
I0818 15:27:47.826774 17010 net.cpp:91] Creating Layer resx3_conv3_bn
I0818 15:27:47.826779 17010 net.cpp:469] resx3_conv3_bn <- resx3_conv3
I0818 15:27:47.826786 17010 net.cpp:430] resx3_conv3_bn -> resx3_conv3 (in-place)
I0818 15:27:47.826956 17010 net.cpp:141] Setting up resx3_conv3_bn
I0818 15:27:47.826964 17010 net.cpp:148] Top shape: 80 240 28 28 (15052800)
I0818 15:27:47.826967 17010 net.cpp:156] Memory required for data: 1955359040
I0818 15:27:47.826975 17010 layer_factory.hpp:77] Creating layer resx3_conv3_scale
I0818 15:27:47.826984 17010 net.cpp:91] Creating Layer resx3_conv3_scale
I0818 15:27:47.826989 17010 net.cpp:469] resx3_conv3_scale <- resx3_conv3
I0818 15:27:47.826994 17010 net.cpp:430] resx3_conv3_scale -> resx3_conv3 (in-place)
I0818 15:27:47.827034 17010 layer_factory.hpp:77] Creating layer resx3_conv3_scale
I0818 15:27:47.827142 17010 net.cpp:141] Setting up resx3_conv3_scale
I0818 15:27:47.827150 17010 net.cpp:148] Top shape: 80 240 28 28 (15052800)
I0818 15:27:47.827154 17010 net.cpp:156] Memory required for data: 2015570240
I0818 15:27:47.827159 17010 layer_factory.hpp:77] Creating layer resx3_elewise
I0818 15:27:47.827167 17010 net.cpp:91] Creating Layer resx3_elewise
I0818 15:27:47.827172 17010 net.cpp:469] resx3_elewise <- resx2_elewise_resx2_elewise_relu_0_split_1
I0818 15:27:47.827178 17010 net.cpp:469] resx3_elewise <- resx3_conv3
I0818 15:27:47.827183 17010 net.cpp:443] resx3_elewise -> resx3_elewise
I0818 15:27:47.827206 17010 net.cpp:141] Setting up resx3_elewise
I0818 15:27:47.827214 17010 net.cpp:148] Top shape: 80 240 28 28 (15052800)
I0818 15:27:47.827221 17010 net.cpp:156] Memory required for data: 2075781440
I0818 15:27:47.827232 17010 layer_factory.hpp:77] Creating layer resx3_elewise_relu
I0818 15:27:47.827241 17010 net.cpp:91] Creating Layer resx3_elewise_relu
I0818 15:27:47.827245 17010 net.cpp:469] resx3_elewise_relu <- resx3_elewise
I0818 15:27:47.827250 17010 net.cpp:430] resx3_elewise_relu -> resx3_elewise (in-place)
I0818 15:27:47.827401 17010 net.cpp:141] Setting up resx3_elewise_relu
I0818 15:27:47.827412 17010 net.cpp:148] Top shape: 80 240 28 28 (15052800)
I0818 15:27:47.827416 17010 net.cpp:156] Memory required for data: 2135992640
I0818 15:27:47.827420 17010 layer_factory.hpp:77] Creating layer resx3_elewise_resx3_elewise_relu_0_split
I0818 15:27:47.827426 17010 net.cpp:91] Creating Layer resx3_elewise_resx3_elewise_relu_0_split
I0818 15:27:47.827430 17010 net.cpp:469] resx3_elewise_resx3_elewise_relu_0_split <- resx3_elewise
I0818 15:27:47.827437 17010 net.cpp:443] resx3_elewise_resx3_elewise_relu_0_split -> resx3_elewise_resx3_elewise_relu_0_split_0
I0818 15:27:47.827443 17010 net.cpp:443] resx3_elewise_resx3_elewise_relu_0_split -> resx3_elewise_resx3_elewise_relu_0_split_1
I0818 15:27:47.827482 17010 net.cpp:141] Setting up resx3_elewise_resx3_elewise_relu_0_split
I0818 15:27:47.827491 17010 net.cpp:148] Top shape: 80 240 28 28 (15052800)
I0818 15:27:47.827497 17010 net.cpp:148] Top shape: 80 240 28 28 (15052800)
I0818 15:27:47.827498 17010 net.cpp:156] Memory required for data: 2256415040
I0818 15:27:47.827502 17010 layer_factory.hpp:77] Creating layer resx4_conv1
I0818 15:27:47.827512 17010 net.cpp:91] Creating Layer resx4_conv1
I0818 15:27:47.827515 17010 net.cpp:469] resx4_conv1 <- resx3_elewise_resx3_elewise_relu_0_split_0
I0818 15:27:47.827522 17010 net.cpp:443] resx4_conv1 -> resx4_conv1
I0818 15:27:47.830296 17010 net.cpp:141] Setting up resx4_conv1
I0818 15:27:47.830312 17010 net.cpp:148] Top shape: 80 60 28 28 (3763200)
I0818 15:27:47.830317 17010 net.cpp:156] Memory required for data: 2271467840
I0818 15:27:47.830322 17010 layer_factory.hpp:77] Creating layer resx4_conv1_bn
I0818 15:27:47.830332 17010 net.cpp:91] Creating Layer resx4_conv1_bn
I0818 15:27:47.830337 17010 net.cpp:469] resx4_conv1_bn <- resx4_conv1
I0818 15:27:47.830343 17010 net.cpp:430] resx4_conv1_bn -> resx4_conv1 (in-place)
I0818 15:27:47.830518 17010 net.cpp:141] Setting up resx4_conv1_bn
I0818 15:27:47.830526 17010 net.cpp:148] Top shape: 80 60 28 28 (3763200)
I0818 15:27:47.830529 17010 net.cpp:156] Memory required for data: 2286520640
I0818 15:27:47.830536 17010 layer_factory.hpp:77] Creating layer resx4_conv1_scale
I0818 15:27:47.830545 17010 net.cpp:91] Creating Layer resx4_conv1_scale
I0818 15:27:47.830550 17010 net.cpp:469] resx4_conv1_scale <- resx4_conv1
I0818 15:27:47.830555 17010 net.cpp:430] resx4_conv1_scale -> resx4_conv1 (in-place)
I0818 15:27:47.830595 17010 layer_factory.hpp:77] Creating layer resx4_conv1_scale
I0818 15:27:47.830706 17010 net.cpp:141] Setting up resx4_conv1_scale
I0818 15:27:47.830715 17010 net.cpp:148] Top shape: 80 60 28 28 (3763200)
I0818 15:27:47.830718 17010 net.cpp:156] Memory required for data: 2301573440
I0818 15:27:47.830732 17010 layer_factory.hpp:77] Creating layer resx4_conv1_relu
I0818 15:27:47.830739 17010 net.cpp:91] Creating Layer resx4_conv1_relu
I0818 15:27:47.830744 17010 net.cpp:469] resx4_conv1_relu <- resx4_conv1
I0818 15:27:47.830749 17010 net.cpp:430] resx4_conv1_relu -> resx4_conv1 (in-place)
I0818 15:27:47.830896 17010 net.cpp:141] Setting up resx4_conv1_relu
I0818 15:27:47.830907 17010 net.cpp:148] Top shape: 80 60 28 28 (3763200)
I0818 15:27:47.830911 17010 net.cpp:156] Memory required for data: 2316626240
I0818 15:27:47.830915 17010 layer_factory.hpp:77] Creating layer shuffle4
I0818 15:27:47.830924 17010 net.cpp:91] Creating Layer shuffle4
I0818 15:27:47.830929 17010 net.cpp:469] shuffle4 <- resx4_conv1
I0818 15:27:47.830935 17010 net.cpp:443] shuffle4 -> shuffle4
I0818 15:27:47.830963 17010 net.cpp:141] Setting up shuffle4
I0818 15:27:47.830971 17010 net.cpp:148] Top shape: 80 60 28 28 (3763200)
I0818 15:27:47.830978 17010 net.cpp:156] Memory required for data: 2331679040
I0818 15:27:47.830987 17010 layer_factory.hpp:77] Creating layer resx4_conv2
I0818 15:27:47.830997 17010 net.cpp:91] Creating Layer resx4_conv2
I0818 15:27:47.831001 17010 net.cpp:469] resx4_conv2 <- shuffle4
I0818 15:27:47.831008 17010 net.cpp:443] resx4_conv2 -> resx4_conv2
I0818 15:27:47.831131 17010 net.cpp:141] Setting up resx4_conv2
I0818 15:27:47.831143 17010 net.cpp:148] Top shape: 80 60 28 28 (3763200)
I0818 15:27:47.831147 17010 net.cpp:156] Memory required for data: 2346731840
I0818 15:27:47.831152 17010 layer_factory.hpp:77] Creating layer resx4_conv2_bn
I0818 15:27:47.831161 17010 net.cpp:91] Creating Layer resx4_conv2_bn
I0818 15:27:47.831166 17010 net.cpp:469] resx4_conv2_bn <- resx4_conv2
I0818 15:27:47.831171 17010 net.cpp:430] resx4_conv2_bn -> resx4_conv2 (in-place)
I0818 15:27:47.831333 17010 net.cpp:141] Setting up resx4_conv2_bn
I0818 15:27:47.831341 17010 net.cpp:148] Top shape: 80 60 28 28 (3763200)
I0818 15:27:47.831346 17010 net.cpp:156] Memory required for data: 2361784640
I0818 15:27:47.831351 17010 layer_factory.hpp:77] Creating layer resx4_conv2_scale
I0818 15:27:47.831360 17010 net.cpp:91] Creating Layer resx4_conv2_scale
I0818 15:27:47.831364 17010 net.cpp:469] resx4_conv2_scale <- resx4_conv2
I0818 15:27:47.831369 17010 net.cpp:430] resx4_conv2_scale -> resx4_conv2 (in-place)
I0818 15:27:47.831408 17010 layer_factory.hpp:77] Creating layer resx4_conv2_scale
I0818 15:27:47.831518 17010 net.cpp:141] Setting up resx4_conv2_scale
I0818 15:27:47.831526 17010 net.cpp:148] Top shape: 80 60 28 28 (3763200)
I0818 15:27:47.831529 17010 net.cpp:156] Memory required for data: 2376837440
I0818 15:27:47.831535 17010 layer_factory.hpp:77] Creating layer resx4_conv3
I0818 15:27:47.831545 17010 net.cpp:91] Creating Layer resx4_conv3
I0818 15:27:47.831549 17010 net.cpp:469] resx4_conv3 <- resx4_conv2
I0818 15:27:47.831555 17010 net.cpp:443] resx4_conv3 -> resx4_conv3
I0818 15:27:47.833921 17010 net.cpp:141] Setting up resx4_conv3
I0818 15:27:47.833938 17010 net.cpp:148] Top shape: 80 240 28 28 (15052800)
I0818 15:27:47.833942 17010 net.cpp:156] Memory required for data: 2437048640
I0818 15:27:47.833948 17010 layer_factory.hpp:77] Creating layer resx4_conv3_bn
I0818 15:27:47.833958 17010 net.cpp:91] Creating Layer resx4_conv3_bn
I0818 15:27:47.833962 17010 net.cpp:469] resx4_conv3_bn <- resx4_conv3
I0818 15:27:47.833968 17010 net.cpp:430] resx4_conv3_bn -> resx4_conv3 (in-place)
I0818 15:27:47.834141 17010 net.cpp:141] Setting up resx4_conv3_bn
I0818 15:27:47.834151 17010 net.cpp:148] Top shape: 80 240 28 28 (15052800)
I0818 15:27:47.834153 17010 net.cpp:156] Memory required for data: 2497259840
I0818 15:27:47.834161 17010 layer_factory.hpp:77] Creating layer resx4_conv3_scale
I0818 15:27:47.834169 17010 net.cpp:91] Creating Layer resx4_conv3_scale
I0818 15:27:47.834173 17010 net.cpp:469] resx4_conv3_scale <- resx4_conv3
I0818 15:27:47.834178 17010 net.cpp:430] resx4_conv3_scale -> resx4_conv3 (in-place)
I0818 15:27:47.834218 17010 layer_factory.hpp:77] Creating layer resx4_conv3_scale
I0818 15:27:47.834326 17010 net.cpp:141] Setting up resx4_conv3_scale
I0818 15:27:47.834333 17010 net.cpp:148] Top shape: 80 240 28 28 (15052800)
I0818 15:27:47.834336 17010 net.cpp:156] Memory required for data: 2557471040
I0818 15:27:47.834342 17010 layer_factory.hpp:77] Creating layer resx4_elewise
I0818 15:27:47.834350 17010 net.cpp:91] Creating Layer resx4_elewise
I0818 15:27:47.834355 17010 net.cpp:469] resx4_elewise <- resx3_elewise_resx3_elewise_relu_0_split_1
I0818 15:27:47.834359 17010 net.cpp:469] resx4_elewise <- resx4_conv3
I0818 15:27:47.834364 17010 net.cpp:443] resx4_elewise -> resx4_elewise
I0818 15:27:47.834390 17010 net.cpp:141] Setting up resx4_elewise
I0818 15:27:47.834398 17010 net.cpp:148] Top shape: 80 240 28 28 (15052800)
I0818 15:27:47.834401 17010 net.cpp:156] Memory required for data: 2617682240
I0818 15:27:47.834404 17010 layer_factory.hpp:77] Creating layer resx4_elewise_relu
I0818 15:27:47.834415 17010 net.cpp:91] Creating Layer resx4_elewise_relu
I0818 15:27:47.834425 17010 net.cpp:469] resx4_elewise_relu <- resx4_elewise
I0818 15:27:47.834432 17010 net.cpp:430] resx4_elewise_relu -> resx4_elewise (in-place)
I0818 15:27:47.834751 17010 net.cpp:141] Setting up resx4_elewise_relu
I0818 15:27:47.834766 17010 net.cpp:148] Top shape: 80 240 28 28 (15052800)
I0818 15:27:47.834770 17010 net.cpp:156] Memory required for data: 2677893440
I0818 15:27:47.834774 17010 layer_factory.hpp:77] Creating layer resx4_elewise_resx4_elewise_relu_0_split
I0818 15:27:47.834782 17010 net.cpp:91] Creating Layer resx4_elewise_resx4_elewise_relu_0_split
I0818 15:27:47.834787 17010 net.cpp:469] resx4_elewise_resx4_elewise_relu_0_split <- resx4_elewise
I0818 15:27:47.834792 17010 net.cpp:443] resx4_elewise_resx4_elewise_relu_0_split -> resx4_elewise_resx4_elewise_relu_0_split_0
I0818 15:27:47.834801 17010 net.cpp:443] resx4_elewise_resx4_elewise_relu_0_split -> resx4_elewise_resx4_elewise_relu_0_split_1
I0818 15:27:47.834844 17010 net.cpp:141] Setting up resx4_elewise_resx4_elewise_relu_0_split
I0818 15:27:47.834852 17010 net.cpp:148] Top shape: 80 240 28 28 (15052800)
I0818 15:27:47.834857 17010 net.cpp:148] Top shape: 80 240 28 28 (15052800)
I0818 15:27:47.834861 17010 net.cpp:156] Memory required for data: 2798315840
I0818 15:27:47.834863 17010 layer_factory.hpp:77] Creating layer resx5_match_conv
I0818 15:27:47.834872 17010 net.cpp:91] Creating Layer resx5_match_conv
I0818 15:27:47.834877 17010 net.cpp:469] resx5_match_conv <- resx4_elewise_resx4_elewise_relu_0_split_0
I0818 15:27:47.834882 17010 net.cpp:443] resx5_match_conv -> resx5_match_conv
I0818 15:27:47.835222 17010 net.cpp:141] Setting up resx5_match_conv
I0818 15:27:47.835237 17010 net.cpp:148] Top shape: 80 240 14 14 (3763200)
I0818 15:27:47.835240 17010 net.cpp:156] Memory required for data: 2813368640
I0818 15:27:47.835244 17010 layer_factory.hpp:77] Creating layer resx5_conv1
I0818 15:27:47.835260 17010 net.cpp:91] Creating Layer resx5_conv1
I0818 15:27:47.835266 17010 net.cpp:469] resx5_conv1 <- resx4_elewise_resx4_elewise_relu_0_split_1
I0818 15:27:47.835274 17010 net.cpp:443] resx5_conv1 -> resx5_conv1
I0818 15:27:47.837672 17010 net.cpp:141] Setting up resx5_conv1
I0818 15:27:47.837688 17010 net.cpp:148] Top shape: 80 60 28 28 (3763200)
I0818 15:27:47.837693 17010 net.cpp:156] Memory required for data: 2828421440
I0818 15:27:47.837699 17010 layer_factory.hpp:77] Creating layer resx5_conv1_bn
I0818 15:27:47.837708 17010 net.cpp:91] Creating Layer resx5_conv1_bn
I0818 15:27:47.837713 17010 net.cpp:469] resx5_conv1_bn <- resx5_conv1
I0818 15:27:47.837720 17010 net.cpp:430] resx5_conv1_bn -> resx5_conv1 (in-place)
I0818 15:27:47.837898 17010 net.cpp:141] Setting up resx5_conv1_bn
I0818 15:27:47.837906 17010 net.cpp:148] Top shape: 80 60 28 28 (3763200)
I0818 15:27:47.837910 17010 net.cpp:156] Memory required for data: 2843474240
I0818 15:27:47.837918 17010 layer_factory.hpp:77] Creating layer resx5_conv1_scale
I0818 15:27:47.837926 17010 net.cpp:91] Creating Layer resx5_conv1_scale
I0818 15:27:47.837931 17010 net.cpp:469] resx5_conv1_scale <- resx5_conv1
I0818 15:27:47.837936 17010 net.cpp:430] resx5_conv1_scale -> resx5_conv1 (in-place)
I0818 15:27:47.837978 17010 layer_factory.hpp:77] Creating layer resx5_conv1_scale
I0818 15:27:47.838095 17010 net.cpp:141] Setting up resx5_conv1_scale
I0818 15:27:47.838104 17010 net.cpp:148] Top shape: 80 60 28 28 (3763200)
I0818 15:27:47.838109 17010 net.cpp:156] Memory required for data: 2858527040
I0818 15:27:47.838114 17010 layer_factory.hpp:77] Creating layer resx5_conv1_relu
I0818 15:27:47.838120 17010 net.cpp:91] Creating Layer resx5_conv1_relu
I0818 15:27:47.838124 17010 net.cpp:469] resx5_conv1_relu <- resx5_conv1
I0818 15:27:47.838130 17010 net.cpp:430] resx5_conv1_relu -> resx5_conv1 (in-place)
I0818 15:27:47.838282 17010 net.cpp:141] Setting up resx5_conv1_relu
I0818 15:27:47.838294 17010 net.cpp:148] Top shape: 80 60 28 28 (3763200)
I0818 15:27:47.838297 17010 net.cpp:156] Memory required for data: 2873579840
I0818 15:27:47.838305 17010 layer_factory.hpp:77] Creating layer shuffle5
I0818 15:27:47.838320 17010 net.cpp:91] Creating Layer shuffle5
I0818 15:27:47.838325 17010 net.cpp:469] shuffle5 <- resx5_conv1
I0818 15:27:47.838330 17010 net.cpp:443] shuffle5 -> shuffle5
I0818 15:27:47.838361 17010 net.cpp:141] Setting up shuffle5
I0818 15:27:47.838368 17010 net.cpp:148] Top shape: 80 60 28 28 (3763200)
I0818 15:27:47.838371 17010 net.cpp:156] Memory required for data: 2888632640
I0818 15:27:47.838376 17010 layer_factory.hpp:77] Creating layer resx5_conv2
I0818 15:27:47.838384 17010 net.cpp:91] Creating Layer resx5_conv2
I0818 15:27:47.838389 17010 net.cpp:469] resx5_conv2 <- shuffle5
I0818 15:27:47.838395 17010 net.cpp:443] resx5_conv2 -> resx5_conv2
I0818 15:27:47.838517 17010 net.cpp:141] Setting up resx5_conv2
I0818 15:27:47.838529 17010 net.cpp:148] Top shape: 80 60 14 14 (940800)
I0818 15:27:47.838532 17010 net.cpp:156] Memory required for data: 2892395840
I0818 15:27:47.838537 17010 layer_factory.hpp:77] Creating layer resx5_conv2_bn
I0818 15:27:47.838547 17010 net.cpp:91] Creating Layer resx5_conv2_bn
I0818 15:27:47.838551 17010 net.cpp:469] resx5_conv2_bn <- resx5_conv2
I0818 15:27:47.838557 17010 net.cpp:430] resx5_conv2_bn -> resx5_conv2 (in-place)
I0818 15:27:47.838723 17010 net.cpp:141] Setting up resx5_conv2_bn
I0818 15:27:47.838732 17010 net.cpp:148] Top shape: 80 60 14 14 (940800)
I0818 15:27:47.838734 17010 net.cpp:156] Memory required for data: 2896159040
I0818 15:27:47.838745 17010 layer_factory.hpp:77] Creating layer resx5_conv2_scale
I0818 15:27:47.838753 17010 net.cpp:91] Creating Layer resx5_conv2_scale
I0818 15:27:47.838757 17010 net.cpp:469] resx5_conv2_scale <- resx5_conv2
I0818 15:27:47.838762 17010 net.cpp:430] resx5_conv2_scale -> resx5_conv2 (in-place)
I0818 15:27:47.838805 17010 layer_factory.hpp:77] Creating layer resx5_conv2_scale
I0818 15:27:47.838910 17010 net.cpp:141] Setting up resx5_conv2_scale
I0818 15:27:47.838918 17010 net.cpp:148] Top shape: 80 60 14 14 (940800)
I0818 15:27:47.838922 17010 net.cpp:156] Memory required for data: 2899922240
I0818 15:27:47.838927 17010 layer_factory.hpp:77] Creating layer resx5_conv3
I0818 15:27:47.838937 17010 net.cpp:91] Creating Layer resx5_conv3
I0818 15:27:47.838942 17010 net.cpp:469] resx5_conv3 <- resx5_conv2
I0818 15:27:47.838948 17010 net.cpp:443] resx5_conv3 -> resx5_conv3
I0818 15:27:47.841701 17010 net.cpp:141] Setting up resx5_conv3
I0818 15:27:47.841717 17010 net.cpp:148] Top shape: 80 240 14 14 (3763200)
I0818 15:27:47.841722 17010 net.cpp:156] Memory required for data: 2914975040
I0818 15:27:47.841727 17010 layer_factory.hpp:77] Creating layer resx5_conv3_bn
I0818 15:27:47.841737 17010 net.cpp:91] Creating Layer resx5_conv3_bn
I0818 15:27:47.841742 17010 net.cpp:469] resx5_conv3_bn <- resx5_conv3
I0818 15:27:47.841748 17010 net.cpp:430] resx5_conv3_bn -> resx5_conv3 (in-place)
I0818 15:27:47.841931 17010 net.cpp:141] Setting up resx5_conv3_bn
I0818 15:27:47.841940 17010 net.cpp:148] Top shape: 80 240 14 14 (3763200)
I0818 15:27:47.841943 17010 net.cpp:156] Memory required for data: 2930027840
I0818 15:27:47.841950 17010 layer_factory.hpp:77] Creating layer resx5_conv3_scale
I0818 15:27:47.841959 17010 net.cpp:91] Creating Layer resx5_conv3_scale
I0818 15:27:47.841964 17010 net.cpp:469] resx5_conv3_scale <- resx5_conv3
I0818 15:27:47.841969 17010 net.cpp:430] resx5_conv3_scale -> resx5_conv3 (in-place)
I0818 15:27:47.842010 17010 layer_factory.hpp:77] Creating layer resx5_conv3_scale
I0818 15:27:47.842114 17010 net.cpp:141] Setting up resx5_conv3_scale
I0818 15:27:47.842123 17010 net.cpp:148] Top shape: 80 240 14 14 (3763200)
I0818 15:27:47.842125 17010 net.cpp:156] Memory required for data: 2945080640
I0818 15:27:47.842131 17010 layer_factory.hpp:77] Creating layer resx5_concat
I0818 15:27:47.842137 17010 net.cpp:91] Creating Layer resx5_concat
I0818 15:27:47.842141 17010 net.cpp:469] resx5_concat <- resx5_match_conv
I0818 15:27:47.842145 17010 net.cpp:469] resx5_concat <- resx5_conv3
I0818 15:27:47.842151 17010 net.cpp:443] resx5_concat -> resx5_concat
I0818 15:27:47.842182 17010 net.cpp:141] Setting up resx5_concat
I0818 15:27:47.842195 17010 net.cpp:148] Top shape: 80 480 14 14 (7526400)
I0818 15:27:47.842200 17010 net.cpp:156] Memory required for data: 2975186240
I0818 15:27:47.842202 17010 layer_factory.hpp:77] Creating layer resx5_concat_relu
I0818 15:27:47.842211 17010 net.cpp:91] Creating Layer resx5_concat_relu
I0818 15:27:47.842216 17010 net.cpp:469] resx5_concat_relu <- resx5_concat
I0818 15:27:47.842219 17010 net.cpp:430] resx5_concat_relu -> resx5_concat (in-place)
I0818 15:27:47.842371 17010 net.cpp:141] Setting up resx5_concat_relu
I0818 15:27:47.842381 17010 net.cpp:148] Top shape: 80 480 14 14 (7526400)
I0818 15:27:47.842386 17010 net.cpp:156] Memory required for data: 3005291840
I0818 15:27:47.842388 17010 layer_factory.hpp:77] Creating layer resx5_concat_resx5_concat_relu_0_split
I0818 15:27:47.842396 17010 net.cpp:91] Creating Layer resx5_concat_resx5_concat_relu_0_split
I0818 15:27:47.842401 17010 net.cpp:469] resx5_concat_resx5_concat_relu_0_split <- resx5_concat
I0818 15:27:47.842407 17010 net.cpp:443] resx5_concat_resx5_concat_relu_0_split -> resx5_concat_resx5_concat_relu_0_split_0
I0818 15:27:47.842414 17010 net.cpp:443] resx5_concat_resx5_concat_relu_0_split -> resx5_concat_resx5_concat_relu_0_split_1
I0818 15:27:47.842454 17010 net.cpp:141] Setting up resx5_concat_resx5_concat_relu_0_split
I0818 15:27:47.842461 17010 net.cpp:148] Top shape: 80 480 14 14 (7526400)
I0818 15:27:47.842465 17010 net.cpp:148] Top shape: 80 480 14 14 (7526400)
I0818 15:27:47.842468 17010 net.cpp:156] Memory required for data: 3065503040
I0818 15:27:47.842473 17010 layer_factory.hpp:77] Creating layer resx6_conv1
I0818 15:27:47.842483 17010 net.cpp:91] Creating Layer resx6_conv1
I0818 15:27:47.842486 17010 net.cpp:469] resx6_conv1 <- resx5_concat_resx5_concat_relu_0_split_0
I0818 15:27:47.842494 17010 net.cpp:443] resx6_conv1 -> resx6_conv1
I0818 15:27:47.845968 17010 net.cpp:141] Setting up resx6_conv1
I0818 15:27:47.845984 17010 net.cpp:148] Top shape: 80 120 14 14 (1881600)
I0818 15:27:47.845988 17010 net.cpp:156] Memory required for data: 3073029440
I0818 15:27:47.845994 17010 layer_factory.hpp:77] Creating layer resx6_conv1_bn
I0818 15:27:47.846004 17010 net.cpp:91] Creating Layer resx6_conv1_bn
I0818 15:27:47.846009 17010 net.cpp:469] resx6_conv1_bn <- resx6_conv1
I0818 15:27:47.846016 17010 net.cpp:430] resx6_conv1_bn -> resx6_conv1 (in-place)
I0818 15:27:47.846199 17010 net.cpp:141] Setting up resx6_conv1_bn
I0818 15:27:47.846207 17010 net.cpp:148] Top shape: 80 120 14 14 (1881600)
I0818 15:27:47.846210 17010 net.cpp:156] Memory required for data: 3080555840
I0818 15:27:47.846217 17010 layer_factory.hpp:77] Creating layer resx6_conv1_scale
I0818 15:27:47.846226 17010 net.cpp:91] Creating Layer resx6_conv1_scale
I0818 15:27:47.846230 17010 net.cpp:469] resx6_conv1_scale <- resx6_conv1
I0818 15:27:47.846235 17010 net.cpp:430] resx6_conv1_scale -> resx6_conv1 (in-place)
I0818 15:27:47.846277 17010 layer_factory.hpp:77] Creating layer resx6_conv1_scale
I0818 15:27:47.846387 17010 net.cpp:141] Setting up resx6_conv1_scale
I0818 15:27:47.846395 17010 net.cpp:148] Top shape: 80 120 14 14 (1881600)
I0818 15:27:47.846400 17010 net.cpp:156] Memory required for data: 3088082240
I0818 15:27:47.846405 17010 layer_factory.hpp:77] Creating layer resx6_conv1_relu
I0818 15:27:47.846411 17010 net.cpp:91] Creating Layer resx6_conv1_relu
I0818 15:27:47.846415 17010 net.cpp:469] resx6_conv1_relu <- resx6_conv1
I0818 15:27:47.846421 17010 net.cpp:430] resx6_conv1_relu -> resx6_conv1 (in-place)
I0818 15:27:47.846575 17010 net.cpp:141] Setting up resx6_conv1_relu
I0818 15:27:47.846586 17010 net.cpp:148] Top shape: 80 120 14 14 (1881600)
I0818 15:27:47.846590 17010 net.cpp:156] Memory required for data: 3095608640
I0818 15:27:47.846595 17010 layer_factory.hpp:77] Creating layer shuffle6
I0818 15:27:47.846601 17010 net.cpp:91] Creating Layer shuffle6
I0818 15:27:47.846604 17010 net.cpp:469] shuffle6 <- resx6_conv1
I0818 15:27:47.846611 17010 net.cpp:443] shuffle6 -> shuffle6
I0818 15:27:47.846647 17010 net.cpp:141] Setting up shuffle6
I0818 15:27:47.846660 17010 net.cpp:148] Top shape: 80 120 14 14 (1881600)
I0818 15:27:47.846664 17010 net.cpp:156] Memory required for data: 3103135040
I0818 15:27:47.846668 17010 layer_factory.hpp:77] Creating layer resx6_conv2
I0818 15:27:47.846676 17010 net.cpp:91] Creating Layer resx6_conv2
I0818 15:27:47.846681 17010 net.cpp:469] resx6_conv2 <- shuffle6
I0818 15:27:47.846688 17010 net.cpp:443] resx6_conv2 -> resx6_conv2
I0818 15:27:47.846825 17010 net.cpp:141] Setting up resx6_conv2
I0818 15:27:47.846837 17010 net.cpp:148] Top shape: 80 120 14 14 (1881600)
I0818 15:27:47.846840 17010 net.cpp:156] Memory required for data: 3110661440
I0818 15:27:47.846845 17010 layer_factory.hpp:77] Creating layer resx6_conv2_bn
I0818 15:27:47.846854 17010 net.cpp:91] Creating Layer resx6_conv2_bn
I0818 15:27:47.846858 17010 net.cpp:469] resx6_conv2_bn <- resx6_conv2
I0818 15:27:47.846866 17010 net.cpp:430] resx6_conv2_bn -> resx6_conv2 (in-place)
I0818 15:27:47.847036 17010 net.cpp:141] Setting up resx6_conv2_bn
I0818 15:27:47.847044 17010 net.cpp:148] Top shape: 80 120 14 14 (1881600)
I0818 15:27:47.847048 17010 net.cpp:156] Memory required for data: 3118187840
I0818 15:27:47.847054 17010 layer_factory.hpp:77] Creating layer resx6_conv2_scale
I0818 15:27:47.847064 17010 net.cpp:91] Creating Layer resx6_conv2_scale
I0818 15:27:47.847069 17010 net.cpp:469] resx6_conv2_scale <- resx6_conv2
I0818 15:27:47.847074 17010 net.cpp:430] resx6_conv2_scale -> resx6_conv2 (in-place)
I0818 15:27:47.847116 17010 layer_factory.hpp:77] Creating layer resx6_conv2_scale
I0818 15:27:47.847226 17010 net.cpp:141] Setting up resx6_conv2_scale
I0818 15:27:47.847234 17010 net.cpp:148] Top shape: 80 120 14 14 (1881600)
I0818 15:27:47.847239 17010 net.cpp:156] Memory required for data: 3125714240
I0818 15:27:47.847244 17010 layer_factory.hpp:77] Creating layer resx6_conv3
I0818 15:27:47.847254 17010 net.cpp:91] Creating Layer resx6_conv3
I0818 15:27:47.847259 17010 net.cpp:469] resx6_conv3 <- resx6_conv2
I0818 15:27:47.847263 17010 net.cpp:443] resx6_conv3 -> resx6_conv3
I0818 15:27:47.850545 17010 net.cpp:141] Setting up resx6_conv3
I0818 15:27:47.850564 17010 net.cpp:148] Top shape: 80 480 14 14 (7526400)
I0818 15:27:47.850569 17010 net.cpp:156] Memory required for data: 3155819840
I0818 15:27:47.850574 17010 layer_factory.hpp:77] Creating layer resx6_conv3_bn
I0818 15:27:47.850584 17010 net.cpp:91] Creating Layer resx6_conv3_bn
I0818 15:27:47.850589 17010 net.cpp:469] resx6_conv3_bn <- resx6_conv3
I0818 15:27:47.850596 17010 net.cpp:430] resx6_conv3_bn -> resx6_conv3 (in-place)
I0818 15:27:47.850797 17010 net.cpp:141] Setting up resx6_conv3_bn
I0818 15:27:47.850806 17010 net.cpp:148] Top shape: 80 480 14 14 (7526400)
I0818 15:27:47.850811 17010 net.cpp:156] Memory required for data: 3185925440
I0818 15:27:47.850817 17010 layer_factory.hpp:77] Creating layer resx6_conv3_scale
I0818 15:27:47.850827 17010 net.cpp:91] Creating Layer resx6_conv3_scale
I0818 15:27:47.850831 17010 net.cpp:469] resx6_conv3_scale <- resx6_conv3
I0818 15:27:47.850836 17010 net.cpp:430] resx6_conv3_scale -> resx6_conv3 (in-place)
I0818 15:27:47.850883 17010 layer_factory.hpp:77] Creating layer resx6_conv3_scale
I0818 15:27:47.851009 17010 net.cpp:141] Setting up resx6_conv3_scale
I0818 15:27:47.851019 17010 net.cpp:148] Top shape: 80 480 14 14 (7526400)
I0818 15:27:47.851022 17010 net.cpp:156] Memory required for data: 3216031040
I0818 15:27:47.851028 17010 layer_factory.hpp:77] Creating layer resx6_elewise
I0818 15:27:47.851034 17010 net.cpp:91] Creating Layer resx6_elewise
I0818 15:27:47.851038 17010 net.cpp:469] resx6_elewise <- resx5_concat_resx5_concat_relu_0_split_1
I0818 15:27:47.851043 17010 net.cpp:469] resx6_elewise <- resx6_conv3
I0818 15:27:47.851049 17010 net.cpp:443] resx6_elewise -> resx6_elewise
I0818 15:27:47.851074 17010 net.cpp:141] Setting up resx6_elewise
I0818 15:27:47.851081 17010 net.cpp:148] Top shape: 80 480 14 14 (7526400)
I0818 15:27:47.851085 17010 net.cpp:156] Memory required for data: 3246136640
I0818 15:27:47.851092 17010 layer_factory.hpp:77] Creating layer resx6_elewise_relu
I0818 15:27:47.851105 17010 net.cpp:91] Creating Layer resx6_elewise_relu
I0818 15:27:47.851110 17010 net.cpp:469] resx6_elewise_relu <- resx6_elewise
I0818 15:27:47.851114 17010 net.cpp:430] resx6_elewise_relu -> resx6_elewise (in-place)
I0818 15:27:47.851289 17010 net.cpp:141] Setting up resx6_elewise_relu
I0818 15:27:47.851300 17010 net.cpp:148] Top shape: 80 480 14 14 (7526400)
I0818 15:27:47.851305 17010 net.cpp:156] Memory required for data: 3276242240
I0818 15:27:47.851308 17010 layer_factory.hpp:77] Creating layer resx6_elewise_resx6_elewise_relu_0_split
I0818 15:27:47.851316 17010 net.cpp:91] Creating Layer resx6_elewise_resx6_elewise_relu_0_split
I0818 15:27:47.851320 17010 net.cpp:469] resx6_elewise_resx6_elewise_relu_0_split <- resx6_elewise
I0818 15:27:47.851327 17010 net.cpp:443] resx6_elewise_resx6_elewise_relu_0_split -> resx6_elewise_resx6_elewise_relu_0_split_0
I0818 15:27:47.851335 17010 net.cpp:443] resx6_elewise_resx6_elewise_relu_0_split -> resx6_elewise_resx6_elewise_relu_0_split_1
I0818 15:27:47.851378 17010 net.cpp:141] Setting up resx6_elewise_resx6_elewise_relu_0_split
I0818 15:27:47.851385 17010 net.cpp:148] Top shape: 80 480 14 14 (7526400)
I0818 15:27:47.851392 17010 net.cpp:148] Top shape: 80 480 14 14 (7526400)
I0818 15:27:47.851395 17010 net.cpp:156] Memory required for data: 3336453440
I0818 15:27:47.851398 17010 layer_factory.hpp:77] Creating layer resx7_conv1
I0818 15:27:47.851408 17010 net.cpp:91] Creating Layer resx7_conv1
I0818 15:27:47.851411 17010 net.cpp:469] resx7_conv1 <- resx6_elewise_resx6_elewise_relu_0_split_0
I0818 15:27:47.851419 17010 net.cpp:443] resx7_conv1 -> resx7_conv1
I0818 15:27:47.854714 17010 net.cpp:141] Setting up resx7_conv1
I0818 15:27:47.854732 17010 net.cpp:148] Top shape: 80 120 14 14 (1881600)
I0818 15:27:47.854737 17010 net.cpp:156] Memory required for data: 3343979840
I0818 15:27:47.854742 17010 layer_factory.hpp:77] Creating layer resx7_conv1_bn
I0818 15:27:47.854749 17010 net.cpp:91] Creating Layer resx7_conv1_bn
I0818 15:27:47.854753 17010 net.cpp:469] resx7_conv1_bn <- resx7_conv1
I0818 15:27:47.854760 17010 net.cpp:430] resx7_conv1_bn -> resx7_conv1 (in-place)
I0818 15:27:47.854953 17010 net.cpp:141] Setting up resx7_conv1_bn
I0818 15:27:47.854961 17010 net.cpp:148] Top shape: 80 120 14 14 (1881600)
I0818 15:27:47.854964 17010 net.cpp:156] Memory required for data: 3351506240
I0818 15:27:47.854971 17010 layer_factory.hpp:77] Creating layer resx7_conv1_scale
I0818 15:27:47.854980 17010 net.cpp:91] Creating Layer resx7_conv1_scale
I0818 15:27:47.854985 17010 net.cpp:469] resx7_conv1_scale <- resx7_conv1
I0818 15:27:47.854990 17010 net.cpp:430] resx7_conv1_scale -> resx7_conv1 (in-place)
I0818 15:27:47.855036 17010 layer_factory.hpp:77] Creating layer resx7_conv1_scale
I0818 15:27:47.855149 17010 net.cpp:141] Setting up resx7_conv1_scale
I0818 15:27:47.855156 17010 net.cpp:148] Top shape: 80 120 14 14 (1881600)
I0818 15:27:47.855160 17010 net.cpp:156] Memory required for data: 3359032640
I0818 15:27:47.855166 17010 layer_factory.hpp:77] Creating layer resx7_conv1_relu
I0818 15:27:47.855175 17010 net.cpp:91] Creating Layer resx7_conv1_relu
I0818 15:27:47.855178 17010 net.cpp:469] resx7_conv1_relu <- resx7_conv1
I0818 15:27:47.855183 17010 net.cpp:430] resx7_conv1_relu -> resx7_conv1 (in-place)
I0818 15:27:47.855352 17010 net.cpp:141] Setting up resx7_conv1_relu
I0818 15:27:47.855363 17010 net.cpp:148] Top shape: 80 120 14 14 (1881600)
I0818 15:27:47.855367 17010 net.cpp:156] Memory required for data: 3366559040
I0818 15:27:47.855371 17010 layer_factory.hpp:77] Creating layer shuffle7
I0818 15:27:47.855379 17010 net.cpp:91] Creating Layer shuffle7
I0818 15:27:47.855383 17010 net.cpp:469] shuffle7 <- resx7_conv1
I0818 15:27:47.855389 17010 net.cpp:443] shuffle7 -> shuffle7
I0818 15:27:47.855422 17010 net.cpp:141] Setting up shuffle7
I0818 15:27:47.855429 17010 net.cpp:148] Top shape: 80 120 14 14 (1881600)
I0818 15:27:47.855433 17010 net.cpp:156] Memory required for data: 3374085440
I0818 15:27:47.855442 17010 layer_factory.hpp:77] Creating layer resx7_conv2
I0818 15:27:47.855458 17010 net.cpp:91] Creating Layer resx7_conv2
I0818 15:27:47.855463 17010 net.cpp:469] resx7_conv2 <- shuffle7
I0818 15:27:47.855468 17010 net.cpp:443] resx7_conv2 -> resx7_conv2
I0818 15:27:47.855633 17010 net.cpp:141] Setting up resx7_conv2
I0818 15:27:47.855643 17010 net.cpp:148] Top shape: 80 120 14 14 (1881600)
I0818 15:27:47.855648 17010 net.cpp:156] Memory required for data: 3381611840
I0818 15:27:47.855653 17010 layer_factory.hpp:77] Creating layer resx7_conv2_bn
I0818 15:27:47.855661 17010 net.cpp:91] Creating Layer resx7_conv2_bn
I0818 15:27:47.855665 17010 net.cpp:469] resx7_conv2_bn <- resx7_conv2
I0818 15:27:47.855670 17010 net.cpp:430] resx7_conv2_bn -> resx7_conv2 (in-place)
I0818 15:27:47.855851 17010 net.cpp:141] Setting up resx7_conv2_bn
I0818 15:27:47.855859 17010 net.cpp:148] Top shape: 80 120 14 14 (1881600)
I0818 15:27:47.855862 17010 net.cpp:156] Memory required for data: 3389138240
I0818 15:27:47.855870 17010 layer_factory.hpp:77] Creating layer resx7_conv2_scale
I0818 15:27:47.855878 17010 net.cpp:91] Creating Layer resx7_conv2_scale
I0818 15:27:47.855882 17010 net.cpp:469] resx7_conv2_scale <- resx7_conv2
I0818 15:27:47.855887 17010 net.cpp:430] resx7_conv2_scale -> resx7_conv2 (in-place)
I0818 15:27:47.855928 17010 layer_factory.hpp:77] Creating layer resx7_conv2_scale
I0818 15:27:47.856046 17010 net.cpp:141] Setting up resx7_conv2_scale
I0818 15:27:47.856055 17010 net.cpp:148] Top shape: 80 120 14 14 (1881600)
I0818 15:27:47.856058 17010 net.cpp:156] Memory required for data: 3396664640
I0818 15:27:47.856063 17010 layer_factory.hpp:77] Creating layer resx7_conv3
I0818 15:27:47.856075 17010 net.cpp:91] Creating Layer resx7_conv3
I0818 15:27:47.856079 17010 net.cpp:469] resx7_conv3 <- resx7_conv2
I0818 15:27:47.856084 17010 net.cpp:443] resx7_conv3 -> resx7_conv3
I0818 15:27:47.859025 17010 net.cpp:141] Setting up resx7_conv3
I0818 15:27:47.859042 17010 net.cpp:148] Top shape: 80 480 14 14 (7526400)
I0818 15:27:47.859046 17010 net.cpp:156] Memory required for data: 3426770240
I0818 15:27:47.859052 17010 layer_factory.hpp:77] Creating layer resx7_conv3_bn
I0818 15:27:47.859068 17010 net.cpp:91] Creating Layer resx7_conv3_bn
I0818 15:27:47.859073 17010 net.cpp:469] resx7_conv3_bn <- resx7_conv3
I0818 15:27:47.859079 17010 net.cpp:430] resx7_conv3_bn -> resx7_conv3 (in-place)
I0818 15:27:47.859290 17010 net.cpp:141] Setting up resx7_conv3_bn
I0818 15:27:47.859298 17010 net.cpp:148] Top shape: 80 480 14 14 (7526400)
I0818 15:27:47.859302 17010 net.cpp:156] Memory required for data: 3456875840
I0818 15:27:47.859330 17010 layer_factory.hpp:77] Creating layer resx7_conv3_scale
I0818 15:27:47.859338 17010 net.cpp:91] Creating Layer resx7_conv3_scale
I0818 15:27:47.859342 17010 net.cpp:469] resx7_conv3_scale <- resx7_conv3
I0818 15:27:47.859347 17010 net.cpp:430] resx7_conv3_scale -> resx7_conv3 (in-place)
I0818 15:27:47.859396 17010 layer_factory.hpp:77] Creating layer resx7_conv3_scale
I0818 15:27:47.859511 17010 net.cpp:141] Setting up resx7_conv3_scale
I0818 15:27:47.859519 17010 net.cpp:148] Top shape: 80 480 14 14 (7526400)
I0818 15:27:47.859522 17010 net.cpp:156] Memory required for data: 3486981440
I0818 15:27:47.859529 17010 layer_factory.hpp:77] Creating layer resx7_elewise
I0818 15:27:47.859534 17010 net.cpp:91] Creating Layer resx7_elewise
I0818 15:27:47.859539 17010 net.cpp:469] resx7_elewise <- resx6_elewise_resx6_elewise_relu_0_split_1
I0818 15:27:47.859544 17010 net.cpp:469] resx7_elewise <- resx7_conv3
I0818 15:27:47.859549 17010 net.cpp:443] resx7_elewise -> resx7_elewise
I0818 15:27:47.859575 17010 net.cpp:141] Setting up resx7_elewise
I0818 15:27:47.859582 17010 net.cpp:148] Top shape: 80 480 14 14 (7526400)
I0818 15:27:47.859586 17010 net.cpp:156] Memory required for data: 3517087040
I0818 15:27:47.859588 17010 layer_factory.hpp:77] Creating layer resx7_elewise_relu
I0818 15:27:47.859594 17010 net.cpp:91] Creating Layer resx7_elewise_relu
I0818 15:27:47.859598 17010 net.cpp:469] resx7_elewise_relu <- resx7_elewise
I0818 15:27:47.859613 17010 net.cpp:430] resx7_elewise_relu -> resx7_elewise (in-place)
I0818 15:27:47.859767 17010 net.cpp:141] Setting up resx7_elewise_relu
I0818 15:27:47.859777 17010 net.cpp:148] Top shape: 80 480 14 14 (7526400)
I0818 15:27:47.859781 17010 net.cpp:156] Memory required for data: 3547192640
I0818 15:27:47.859784 17010 layer_factory.hpp:77] Creating layer resx7_elewise_resx7_elewise_relu_0_split
I0818 15:27:47.859791 17010 net.cpp:91] Creating Layer resx7_elewise_resx7_elewise_relu_0_split
I0818 15:27:47.859797 17010 net.cpp:469] resx7_elewise_resx7_elewise_relu_0_split <- resx7_elewise
I0818 15:27:47.859802 17010 net.cpp:443] resx7_elewise_resx7_elewise_relu_0_split -> resx7_elewise_resx7_elewise_relu_0_split_0
I0818 15:27:47.859807 17010 net.cpp:443] resx7_elewise_resx7_elewise_relu_0_split -> resx7_elewise_resx7_elewise_relu_0_split_1
I0818 15:27:47.859850 17010 net.cpp:141] Setting up resx7_elewise_resx7_elewise_relu_0_split
I0818 15:27:47.859858 17010 net.cpp:148] Top shape: 80 480 14 14 (7526400)
I0818 15:27:47.859861 17010 net.cpp:148] Top shape: 80 480 14 14 (7526400)
I0818 15:27:47.859864 17010 net.cpp:156] Memory required for data: 3607403840
I0818 15:27:47.859868 17010 layer_factory.hpp:77] Creating layer resx8_conv1
I0818 15:27:47.859877 17010 net.cpp:91] Creating Layer resx8_conv1
I0818 15:27:47.859881 17010 net.cpp:469] resx8_conv1 <- resx7_elewise_resx7_elewise_relu_0_split_0
I0818 15:27:47.859887 17010 net.cpp:443] resx8_conv1 -> resx8_conv1
I0818 15:27:47.862798 17010 net.cpp:141] Setting up resx8_conv1
I0818 15:27:47.862817 17010 net.cpp:148] Top shape: 80 120 14 14 (1881600)
I0818 15:27:47.862820 17010 net.cpp:156] Memory required for data: 3614930240
I0818 15:27:47.862825 17010 layer_factory.hpp:77] Creating layer resx8_conv1_bn
I0818 15:27:47.862833 17010 net.cpp:91] Creating Layer resx8_conv1_bn
I0818 15:27:47.862838 17010 net.cpp:469] resx8_conv1_bn <- resx8_conv1
I0818 15:27:47.862844 17010 net.cpp:430] resx8_conv1_bn -> resx8_conv1 (in-place)
I0818 15:27:47.863035 17010 net.cpp:141] Setting up resx8_conv1_bn
I0818 15:27:47.863044 17010 net.cpp:148] Top shape: 80 120 14 14 (1881600)
I0818 15:27:47.863046 17010 net.cpp:156] Memory required for data: 3622456640
I0818 15:27:47.863054 17010 layer_factory.hpp:77] Creating layer resx8_conv1_scale
I0818 15:27:47.863060 17010 net.cpp:91] Creating Layer resx8_conv1_scale
I0818 15:27:47.863065 17010 net.cpp:469] resx8_conv1_scale <- resx8_conv1
I0818 15:27:47.863070 17010 net.cpp:430] resx8_conv1_scale -> resx8_conv1 (in-place)
I0818 15:27:47.863111 17010 layer_factory.hpp:77] Creating layer resx8_conv1_scale
I0818 15:27:47.863226 17010 net.cpp:141] Setting up resx8_conv1_scale
I0818 15:27:47.863234 17010 net.cpp:148] Top shape: 80 120 14 14 (1881600)
I0818 15:27:47.863237 17010 net.cpp:156] Memory required for data: 3629983040
I0818 15:27:47.863243 17010 layer_factory.hpp:77] Creating layer resx8_conv1_relu
I0818 15:27:47.863250 17010 net.cpp:91] Creating Layer resx8_conv1_relu
I0818 15:27:47.863252 17010 net.cpp:469] resx8_conv1_relu <- resx8_conv1
I0818 15:27:47.863260 17010 net.cpp:430] resx8_conv1_relu -> resx8_conv1 (in-place)
I0818 15:27:47.863417 17010 net.cpp:141] Setting up resx8_conv1_relu
I0818 15:27:47.863428 17010 net.cpp:148] Top shape: 80 120 14 14 (1881600)
I0818 15:27:47.863431 17010 net.cpp:156] Memory required for data: 3637509440
I0818 15:27:47.863435 17010 layer_factory.hpp:77] Creating layer shuffle8
I0818 15:27:47.863441 17010 net.cpp:91] Creating Layer shuffle8
I0818 15:27:47.863445 17010 net.cpp:469] shuffle8 <- resx8_conv1
I0818 15:27:47.863452 17010 net.cpp:443] shuffle8 -> shuffle8
I0818 15:27:47.863485 17010 net.cpp:141] Setting up shuffle8
I0818 15:27:47.863492 17010 net.cpp:148] Top shape: 80 120 14 14 (1881600)
I0818 15:27:47.863497 17010 net.cpp:156] Memory required for data: 3645035840
I0818 15:27:47.863499 17010 layer_factory.hpp:77] Creating layer resx8_conv2
I0818 15:27:47.863507 17010 net.cpp:91] Creating Layer resx8_conv2
I0818 15:27:47.863510 17010 net.cpp:469] resx8_conv2 <- shuffle8
I0818 15:27:47.863521 17010 net.cpp:443] resx8_conv2 -> resx8_conv2
I0818 15:27:47.863855 17010 net.cpp:141] Setting up resx8_conv2
I0818 15:27:47.863869 17010 net.cpp:148] Top shape: 80 120 14 14 (1881600)
I0818 15:27:47.863873 17010 net.cpp:156] Memory required for data: 3652562240
I0818 15:27:47.863878 17010 layer_factory.hpp:77] Creating layer resx8_conv2_bn
I0818 15:27:47.863888 17010 net.cpp:91] Creating Layer resx8_conv2_bn
I0818 15:27:47.863893 17010 net.cpp:469] resx8_conv2_bn <- resx8_conv2
I0818 15:27:47.863898 17010 net.cpp:430] resx8_conv2_bn -> resx8_conv2 (in-place)
I0818 15:27:47.864094 17010 net.cpp:141] Setting up resx8_conv2_bn
I0818 15:27:47.864102 17010 net.cpp:148] Top shape: 80 120 14 14 (1881600)
I0818 15:27:47.864105 17010 net.cpp:156] Memory required for data: 3660088640
I0818 15:27:47.864112 17010 layer_factory.hpp:77] Creating layer resx8_conv2_scale
I0818 15:27:47.864120 17010 net.cpp:91] Creating Layer resx8_conv2_scale
I0818 15:27:47.864123 17010 net.cpp:469] resx8_conv2_scale <- resx8_conv2
I0818 15:27:47.864128 17010 net.cpp:430] resx8_conv2_scale -> resx8_conv2 (in-place)
I0818 15:27:47.864172 17010 layer_factory.hpp:77] Creating layer resx8_conv2_scale
I0818 15:27:47.864286 17010 net.cpp:141] Setting up resx8_conv2_scale
I0818 15:27:47.864295 17010 net.cpp:148] Top shape: 80 120 14 14 (1881600)
I0818 15:27:47.864297 17010 net.cpp:156] Memory required for data: 3667615040
I0818 15:27:47.864303 17010 layer_factory.hpp:77] Creating layer resx8_conv3
I0818 15:27:47.864315 17010 net.cpp:91] Creating Layer resx8_conv3
I0818 15:27:47.864318 17010 net.cpp:469] resx8_conv3 <- resx8_conv2
I0818 15:27:47.864326 17010 net.cpp:443] resx8_conv3 -> resx8_conv3
I0818 15:27:47.867120 17010 net.cpp:141] Setting up resx8_conv3
I0818 15:27:47.867136 17010 net.cpp:148] Top shape: 80 480 14 14 (7526400)
I0818 15:27:47.867141 17010 net.cpp:156] Memory required for data: 3697720640
I0818 15:27:47.867146 17010 layer_factory.hpp:77] Creating layer resx8_conv3_bn
I0818 15:27:47.867154 17010 net.cpp:91] Creating Layer resx8_conv3_bn
I0818 15:27:47.867159 17010 net.cpp:469] resx8_conv3_bn <- resx8_conv3
I0818 15:27:47.867164 17010 net.cpp:430] resx8_conv3_bn -> resx8_conv3 (in-place)
I0818 15:27:47.867360 17010 net.cpp:141] Setting up resx8_conv3_bn
I0818 15:27:47.867368 17010 net.cpp:148] Top shape: 80 480 14 14 (7526400)
I0818 15:27:47.867372 17010 net.cpp:156] Memory required for data: 3727826240
I0818 15:27:47.867378 17010 layer_factory.hpp:77] Creating layer resx8_conv3_scale
I0818 15:27:47.867386 17010 net.cpp:91] Creating Layer resx8_conv3_scale
I0818 15:27:47.867389 17010 net.cpp:469] resx8_conv3_scale <- resx8_conv3
I0818 15:27:47.867394 17010 net.cpp:430] resx8_conv3_scale -> resx8_conv3 (in-place)
I0818 15:27:47.867442 17010 layer_factory.hpp:77] Creating layer resx8_conv3_scale
I0818 15:27:47.867559 17010 net.cpp:141] Setting up resx8_conv3_scale
I0818 15:27:47.867568 17010 net.cpp:148] Top shape: 80 480 14 14 (7526400)
I0818 15:27:47.867571 17010 net.cpp:156] Memory required for data: 3757931840
I0818 15:27:47.867578 17010 layer_factory.hpp:77] Creating layer resx8_elewise
I0818 15:27:47.867583 17010 net.cpp:91] Creating Layer resx8_elewise
I0818 15:27:47.867588 17010 net.cpp:469] resx8_elewise <- resx7_elewise_resx7_elewise_relu_0_split_1
I0818 15:27:47.867593 17010 net.cpp:469] resx8_elewise <- resx8_conv3
I0818 15:27:47.867596 17010 net.cpp:443] resx8_elewise -> resx8_elewise
I0818 15:27:47.867625 17010 net.cpp:141] Setting up resx8_elewise
I0818 15:27:47.867632 17010 net.cpp:148] Top shape: 80 480 14 14 (7526400)
I0818 15:27:47.867635 17010 net.cpp:156] Memory required for data: 3788037440
I0818 15:27:47.867640 17010 layer_factory.hpp:77] Creating layer resx8_elewise_relu
I0818 15:27:47.867646 17010 net.cpp:91] Creating Layer resx8_elewise_relu
I0818 15:27:47.867650 17010 net.cpp:469] resx8_elewise_relu <- resx8_elewise
I0818 15:27:47.867655 17010 net.cpp:430] resx8_elewise_relu -> resx8_elewise (in-place)
I0818 15:27:47.867981 17010 net.cpp:141] Setting up resx8_elewise_relu
I0818 15:27:47.868000 17010 net.cpp:148] Top shape: 80 480 14 14 (7526400)
I0818 15:27:47.868017 17010 net.cpp:156] Memory required for data: 3818143040
I0818 15:27:47.868021 17010 layer_factory.hpp:77] Creating layer resx8_elewise_resx8_elewise_relu_0_split
I0818 15:27:47.868027 17010 net.cpp:91] Creating Layer resx8_elewise_resx8_elewise_relu_0_split
I0818 15:27:47.868031 17010 net.cpp:469] resx8_elewise_resx8_elewise_relu_0_split <- resx8_elewise
I0818 15:27:47.868038 17010 net.cpp:443] resx8_elewise_resx8_elewise_relu_0_split -> resx8_elewise_resx8_elewise_relu_0_split_0
I0818 15:27:47.868046 17010 net.cpp:443] resx8_elewise_resx8_elewise_relu_0_split -> resx8_elewise_resx8_elewise_relu_0_split_1
I0818 15:27:47.868093 17010 net.cpp:141] Setting up resx8_elewise_resx8_elewise_relu_0_split
I0818 15:27:47.868101 17010 net.cpp:148] Top shape: 80 480 14 14 (7526400)
I0818 15:27:47.868105 17010 net.cpp:148] Top shape: 80 480 14 14 (7526400)
I0818 15:27:47.868108 17010 net.cpp:156] Memory required for data: 3878354240
I0818 15:27:47.868111 17010 layer_factory.hpp:77] Creating layer resx9_conv1
I0818 15:27:47.868122 17010 net.cpp:91] Creating Layer resx9_conv1
I0818 15:27:47.868126 17010 net.cpp:469] resx9_conv1 <- resx8_elewise_resx8_elewise_relu_0_split_0
I0818 15:27:47.868131 17010 net.cpp:443] resx9_conv1 -> resx9_conv1
I0818 15:27:47.870968 17010 net.cpp:141] Setting up resx9_conv1
I0818 15:27:47.870983 17010 net.cpp:148] Top shape: 80 120 14 14 (1881600)
I0818 15:27:47.870988 17010 net.cpp:156] Memory required for data: 3885880640
I0818 15:27:47.870993 17010 layer_factory.hpp:77] Creating layer resx9_conv1_bn
I0818 15:27:47.871001 17010 net.cpp:91] Creating Layer resx9_conv1_bn
I0818 15:27:47.871004 17010 net.cpp:469] resx9_conv1_bn <- resx9_conv1
I0818 15:27:47.871011 17010 net.cpp:430] resx9_conv1_bn -> resx9_conv1 (in-place)
I0818 15:27:47.871206 17010 net.cpp:141] Setting up resx9_conv1_bn
I0818 15:27:47.871213 17010 net.cpp:148] Top shape: 80 120 14 14 (1881600)
I0818 15:27:47.871217 17010 net.cpp:156] Memory required for data: 3893407040
I0818 15:27:47.871223 17010 layer_factory.hpp:77] Creating layer resx9_conv1_scale
I0818 15:27:47.871230 17010 net.cpp:91] Creating Layer resx9_conv1_scale
I0818 15:27:47.871234 17010 net.cpp:469] resx9_conv1_scale <- resx9_conv1
I0818 15:27:47.871240 17010 net.cpp:430] resx9_conv1_scale -> resx9_conv1 (in-place)
I0818 15:27:47.871284 17010 layer_factory.hpp:77] Creating layer resx9_conv1_scale
I0818 15:27:47.871402 17010 net.cpp:141] Setting up resx9_conv1_scale
I0818 15:27:47.871410 17010 net.cpp:148] Top shape: 80 120 14 14 (1881600)
I0818 15:27:47.871413 17010 net.cpp:156] Memory required for data: 3900933440
I0818 15:27:47.871419 17010 layer_factory.hpp:77] Creating layer resx9_conv1_relu
I0818 15:27:47.871426 17010 net.cpp:91] Creating Layer resx9_conv1_relu
I0818 15:27:47.871430 17010 net.cpp:469] resx9_conv1_relu <- resx9_conv1
I0818 15:27:47.871434 17010 net.cpp:430] resx9_conv1_relu -> resx9_conv1 (in-place)
I0818 15:27:47.871757 17010 net.cpp:141] Setting up resx9_conv1_relu
I0818 15:27:47.871770 17010 net.cpp:148] Top shape: 80 120 14 14 (1881600)
I0818 15:27:47.871774 17010 net.cpp:156] Memory required for data: 3908459840
I0818 15:27:47.871778 17010 layer_factory.hpp:77] Creating layer shuffle9
I0818 15:27:47.871786 17010 net.cpp:91] Creating Layer shuffle9
I0818 15:27:47.871790 17010 net.cpp:469] shuffle9 <- resx9_conv1
I0818 15:27:47.871796 17010 net.cpp:443] shuffle9 -> shuffle9
I0818 15:27:47.871839 17010 net.cpp:141] Setting up shuffle9
I0818 15:27:47.871846 17010 net.cpp:148] Top shape: 80 120 14 14 (1881600)
I0818 15:27:47.871850 17010 net.cpp:156] Memory required for data: 3915986240
I0818 15:27:47.871853 17010 layer_factory.hpp:77] Creating layer resx9_conv2
I0818 15:27:47.871860 17010 net.cpp:91] Creating Layer resx9_conv2
I0818 15:27:47.871865 17010 net.cpp:469] resx9_conv2 <- shuffle9
I0818 15:27:47.871870 17010 net.cpp:443] resx9_conv2 -> resx9_conv2
I0818 15:27:47.872015 17010 net.cpp:141] Setting up resx9_conv2
I0818 15:27:47.872026 17010 net.cpp:148] Top shape: 80 120 14 14 (1881600)
I0818 15:27:47.872038 17010 net.cpp:156] Memory required for data: 3923512640
I0818 15:27:47.872045 17010 layer_factory.hpp:77] Creating layer resx9_conv2_bn
I0818 15:27:47.872051 17010 net.cpp:91] Creating Layer resx9_conv2_bn
I0818 15:27:47.872056 17010 net.cpp:469] resx9_conv2_bn <- resx9_conv2
I0818 15:27:47.872061 17010 net.cpp:430] resx9_conv2_bn -> resx9_conv2 (in-place)
I0818 15:27:47.872246 17010 net.cpp:141] Setting up resx9_conv2_bn
I0818 15:27:47.872254 17010 net.cpp:148] Top shape: 80 120 14 14 (1881600)
I0818 15:27:47.872257 17010 net.cpp:156] Memory required for data: 3931039040
I0818 15:27:47.872264 17010 layer_factory.hpp:77] Creating layer resx9_conv2_scale
I0818 15:27:47.872272 17010 net.cpp:91] Creating Layer resx9_conv2_scale
I0818 15:27:47.872275 17010 net.cpp:469] resx9_conv2_scale <- resx9_conv2
I0818 15:27:47.872282 17010 net.cpp:430] resx9_conv2_scale -> resx9_conv2 (in-place)
I0818 15:27:47.872321 17010 layer_factory.hpp:77] Creating layer resx9_conv2_scale
I0818 15:27:47.872437 17010 net.cpp:141] Setting up resx9_conv2_scale
I0818 15:27:47.872444 17010 net.cpp:148] Top shape: 80 120 14 14 (1881600)
I0818 15:27:47.872447 17010 net.cpp:156] Memory required for data: 3938565440
I0818 15:27:47.872452 17010 layer_factory.hpp:77] Creating layer resx9_conv3
I0818 15:27:47.872478 17010 net.cpp:91] Creating Layer resx9_conv3
I0818 15:27:47.872483 17010 net.cpp:469] resx9_conv3 <- resx9_conv2
I0818 15:27:47.872489 17010 net.cpp:443] resx9_conv3 -> resx9_conv3
I0818 15:27:47.875306 17010 net.cpp:141] Setting up resx9_conv3
I0818 15:27:47.875324 17010 net.cpp:148] Top shape: 80 480 14 14 (7526400)
I0818 15:27:47.875329 17010 net.cpp:156] Memory required for data: 3968671040
I0818 15:27:47.875334 17010 layer_factory.hpp:77] Creating layer resx9_conv3_bn
I0818 15:27:47.875341 17010 net.cpp:91] Creating Layer resx9_conv3_bn
I0818 15:27:47.875345 17010 net.cpp:469] resx9_conv3_bn <- resx9_conv3
I0818 15:27:47.875352 17010 net.cpp:430] resx9_conv3_bn -> resx9_conv3 (in-place)
I0818 15:27:47.875555 17010 net.cpp:141] Setting up resx9_conv3_bn
I0818 15:27:47.875563 17010 net.cpp:148] Top shape: 80 480 14 14 (7526400)
I0818 15:27:47.875567 17010 net.cpp:156] Memory required for data: 3998776640
I0818 15:27:47.875573 17010 layer_factory.hpp:77] Creating layer resx9_conv3_scale
I0818 15:27:47.875581 17010 net.cpp:91] Creating Layer resx9_conv3_scale
I0818 15:27:47.875584 17010 net.cpp:469] resx9_conv3_scale <- resx9_conv3
I0818 15:27:47.875591 17010 net.cpp:430] resx9_conv3_scale -> resx9_conv3 (in-place)
I0818 15:27:47.875636 17010 layer_factory.hpp:77] Creating layer resx9_conv3_scale
I0818 15:27:47.875756 17010 net.cpp:141] Setting up resx9_conv3_scale
I0818 15:27:47.875764 17010 net.cpp:148] Top shape: 80 480 14 14 (7526400)
I0818 15:27:47.875767 17010 net.cpp:156] Memory required for data: 4028882240
I0818 15:27:47.875772 17010 layer_factory.hpp:77] Creating layer resx9_elewise
I0818 15:27:47.875783 17010 net.cpp:91] Creating Layer resx9_elewise
I0818 15:27:47.875787 17010 net.cpp:469] resx9_elewise <- resx8_elewise_resx8_elewise_relu_0_split_1
I0818 15:27:47.875792 17010 net.cpp:469] resx9_elewise <- resx9_conv3
I0818 15:27:47.875798 17010 net.cpp:443] resx9_elewise -> resx9_elewise
I0818 15:27:47.875828 17010 net.cpp:141] Setting up resx9_elewise
I0818 15:27:47.875834 17010 net.cpp:148] Top shape: 80 480 14 14 (7526400)
I0818 15:27:47.875838 17010 net.cpp:156] Memory required for data: 4058987840
I0818 15:27:47.875840 17010 layer_factory.hpp:77] Creating layer resx9_elewise_relu
I0818 15:27:47.875846 17010 net.cpp:91] Creating Layer resx9_elewise_relu
I0818 15:27:47.875850 17010 net.cpp:469] resx9_elewise_relu <- resx9_elewise
I0818 15:27:47.875854 17010 net.cpp:430] resx9_elewise_relu -> resx9_elewise (in-place)
I0818 15:27:47.876355 17010 net.cpp:141] Setting up resx9_elewise_relu
I0818 15:27:47.876369 17010 net.cpp:148] Top shape: 80 480 14 14 (7526400)
I0818 15:27:47.876374 17010 net.cpp:156] Memory required for data: 4089093440
I0818 15:27:47.876377 17010 layer_factory.hpp:77] Creating layer resx9_elewise_resx9_elewise_relu_0_split
I0818 15:27:47.876394 17010 net.cpp:91] Creating Layer resx9_elewise_resx9_elewise_relu_0_split
I0818 15:27:47.876399 17010 net.cpp:469] resx9_elewise_resx9_elewise_relu_0_split <- resx9_elewise
I0818 15:27:47.876404 17010 net.cpp:443] resx9_elewise_resx9_elewise_relu_0_split -> resx9_elewise_resx9_elewise_relu_0_split_0
I0818 15:27:47.876411 17010 net.cpp:443] resx9_elewise_resx9_elewise_relu_0_split -> resx9_elewise_resx9_elewise_relu_0_split_1
I0818 15:27:47.876461 17010 net.cpp:141] Setting up resx9_elewise_resx9_elewise_relu_0_split
I0818 15:27:47.876467 17010 net.cpp:148] Top shape: 80 480 14 14 (7526400)
I0818 15:27:47.876471 17010 net.cpp:148] Top shape: 80 480 14 14 (7526400)
I0818 15:27:47.876474 17010 net.cpp:156] Memory required for data: 4149304640
I0818 15:27:47.876477 17010 layer_factory.hpp:77] Creating layer resx10_conv1
I0818 15:27:47.876487 17010 net.cpp:91] Creating Layer resx10_conv1
I0818 15:27:47.876492 17010 net.cpp:469] resx10_conv1 <- resx9_elewise_resx9_elewise_relu_0_split_0
I0818 15:27:47.876498 17010 net.cpp:443] resx10_conv1 -> resx10_conv1
I0818 15:27:47.879323 17010 net.cpp:141] Setting up resx10_conv1
I0818 15:27:47.879338 17010 net.cpp:148] Top shape: 80 120 14 14 (1881600)
I0818 15:27:47.879343 17010 net.cpp:156] Memory required for data: 4156831040
I0818 15:27:47.879348 17010 layer_factory.hpp:77] Creating layer resx10_conv1_bn
I0818 15:27:47.879357 17010 net.cpp:91] Creating Layer resx10_conv1_bn
I0818 15:27:47.879376 17010 net.cpp:469] resx10_conv1_bn <- resx10_conv1
I0818 15:27:47.879381 17010 net.cpp:430] resx10_conv1_bn -> resx10_conv1 (in-place)
I0818 15:27:47.879580 17010 net.cpp:141] Setting up resx10_conv1_bn
I0818 15:27:47.879587 17010 net.cpp:148] Top shape: 80 120 14 14 (1881600)
I0818 15:27:47.879591 17010 net.cpp:156] Memory required for data: 4164357440
I0818 15:27:47.879597 17010 layer_factory.hpp:77] Creating layer resx10_conv1_scale
I0818 15:27:47.879604 17010 net.cpp:91] Creating Layer resx10_conv1_scale
I0818 15:27:47.879608 17010 net.cpp:469] resx10_conv1_scale <- resx10_conv1
I0818 15:27:47.879613 17010 net.cpp:430] resx10_conv1_scale -> resx10_conv1 (in-place)
I0818 15:27:47.879658 17010 layer_factory.hpp:77] Creating layer resx10_conv1_scale
I0818 15:27:47.879777 17010 net.cpp:141] Setting up resx10_conv1_scale
I0818 15:27:47.879786 17010 net.cpp:148] Top shape: 80 120 14 14 (1881600)
I0818 15:27:47.879788 17010 net.cpp:156] Memory required for data: 4171883840
I0818 15:27:47.879794 17010 layer_factory.hpp:77] Creating layer resx10_conv1_relu
I0818 15:27:47.879801 17010 net.cpp:91] Creating Layer resx10_conv1_relu
I0818 15:27:47.879803 17010 net.cpp:469] resx10_conv1_relu <- resx10_conv1
I0818 15:27:47.879808 17010 net.cpp:430] resx10_conv1_relu -> resx10_conv1 (in-place)
I0818 15:27:47.880141 17010 net.cpp:141] Setting up resx10_conv1_relu
I0818 15:27:47.880153 17010 net.cpp:148] Top shape: 80 120 14 14 (1881600)
I0818 15:27:47.880157 17010 net.cpp:156] Memory required for data: 4179410240
I0818 15:27:47.880162 17010 layer_factory.hpp:77] Creating layer shuffle10
I0818 15:27:47.880167 17010 net.cpp:91] Creating Layer shuffle10
I0818 15:27:47.880172 17010 net.cpp:469] shuffle10 <- resx10_conv1
I0818 15:27:47.880178 17010 net.cpp:443] shuffle10 -> shuffle10
I0818 15:27:47.880213 17010 net.cpp:141] Setting up shuffle10
I0818 15:27:47.880220 17010 net.cpp:148] Top shape: 80 120 14 14 (1881600)
I0818 15:27:47.880223 17010 net.cpp:156] Memory required for data: 4186936640
I0818 15:27:47.880226 17010 layer_factory.hpp:77] Creating layer resx10_conv2
I0818 15:27:47.880235 17010 net.cpp:91] Creating Layer resx10_conv2
I0818 15:27:47.880240 17010 net.cpp:469] resx10_conv2 <- shuffle10
I0818 15:27:47.880247 17010 net.cpp:443] resx10_conv2 -> resx10_conv2
I0818 15:27:47.880389 17010 net.cpp:141] Setting up resx10_conv2
I0818 15:27:47.880400 17010 net.cpp:148] Top shape: 80 120 14 14 (1881600)
I0818 15:27:47.880403 17010 net.cpp:156] Memory required for data: 4194463040
I0818 15:27:47.880409 17010 layer_factory.hpp:77] Creating layer resx10_conv2_bn
I0818 15:27:47.880425 17010 net.cpp:91] Creating Layer resx10_conv2_bn
I0818 15:27:47.880430 17010 net.cpp:469] resx10_conv2_bn <- resx10_conv2
I0818 15:27:47.880436 17010 net.cpp:430] resx10_conv2_bn -> resx10_conv2 (in-place)
I0818 15:27:47.880626 17010 net.cpp:141] Setting up resx10_conv2_bn
I0818 15:27:47.880635 17010 net.cpp:148] Top shape: 80 120 14 14 (1881600)
I0818 15:27:47.880637 17010 net.cpp:156] Memory required for data: 4201989440
I0818 15:27:47.880645 17010 layer_factory.hpp:77] Creating layer resx10_conv2_scale
I0818 15:27:47.880653 17010 net.cpp:91] Creating Layer resx10_conv2_scale
I0818 15:27:47.880657 17010 net.cpp:469] resx10_conv2_scale <- resx10_conv2
I0818 15:27:47.880661 17010 net.cpp:430] resx10_conv2_scale -> resx10_conv2 (in-place)
I0818 15:27:47.880705 17010 layer_factory.hpp:77] Creating layer resx10_conv2_scale
I0818 15:27:47.880823 17010 net.cpp:141] Setting up resx10_conv2_scale
I0818 15:27:47.880832 17010 net.cpp:148] Top shape: 80 120 14 14 (1881600)
I0818 15:27:47.880836 17010 net.cpp:156] Memory required for data: 4209515840
I0818 15:27:47.880841 17010 layer_factory.hpp:77] Creating layer resx10_conv3
I0818 15:27:47.880851 17010 net.cpp:91] Creating Layer resx10_conv3
I0818 15:27:47.880856 17010 net.cpp:469] resx10_conv3 <- resx10_conv2
I0818 15:27:47.880861 17010 net.cpp:443] resx10_conv3 -> resx10_conv3
I0818 15:27:47.883685 17010 net.cpp:141] Setting up resx10_conv3
I0818 15:27:47.883700 17010 net.cpp:148] Top shape: 80 480 14 14 (7526400)
I0818 15:27:47.883704 17010 net.cpp:156] Memory required for data: 4239621440
I0818 15:27:47.883710 17010 layer_factory.hpp:77] Creating layer resx10_conv3_bn
I0818 15:27:47.883718 17010 net.cpp:91] Creating Layer resx10_conv3_bn
I0818 15:27:47.883724 17010 net.cpp:469] resx10_conv3_bn <- resx10_conv3
I0818 15:27:47.883729 17010 net.cpp:430] resx10_conv3_bn -> resx10_conv3 (in-place)
I0818 15:27:47.883934 17010 net.cpp:141] Setting up resx10_conv3_bn
I0818 15:27:47.883941 17010 net.cpp:148] Top shape: 80 480 14 14 (7526400)
I0818 15:27:47.883945 17010 net.cpp:156] Memory required for data: 4269727040
I0818 15:27:47.883954 17010 layer_factory.hpp:77] Creating layer resx10_conv3_scale
I0818 15:27:47.883961 17010 net.cpp:91] Creating Layer resx10_conv3_scale
I0818 15:27:47.883965 17010 net.cpp:469] resx10_conv3_scale <- resx10_conv3
I0818 15:27:47.883970 17010 net.cpp:430] resx10_conv3_scale -> resx10_conv3 (in-place)
I0818 15:27:47.884017 17010 layer_factory.hpp:77] Creating layer resx10_conv3_scale
I0818 15:27:47.884140 17010 net.cpp:141] Setting up resx10_conv3_scale
I0818 15:27:47.884148 17010 net.cpp:148] Top shape: 80 480 14 14 (7526400)
I0818 15:27:47.884151 17010 net.cpp:156] Memory required for data: 4299832640
I0818 15:27:47.884157 17010 layer_factory.hpp:77] Creating layer resx10_elewise
I0818 15:27:47.884165 17010 net.cpp:91] Creating Layer resx10_elewise
I0818 15:27:47.884169 17010 net.cpp:469] resx10_elewise <- resx9_elewise_resx9_elewise_relu_0_split_1
I0818 15:27:47.884173 17010 net.cpp:469] resx10_elewise <- resx10_conv3
I0818 15:27:47.884178 17010 net.cpp:443] resx10_elewise -> resx10_elewise
I0818 15:27:47.884208 17010 net.cpp:141] Setting up resx10_elewise
I0818 15:27:47.884215 17010 net.cpp:148] Top shape: 80 480 14 14 (7526400)
I0818 15:27:47.884218 17010 net.cpp:156] Memory required for data: 4329938240
I0818 15:27:47.884222 17010 layer_factory.hpp:77] Creating layer resx10_elewise_relu
I0818 15:27:47.884227 17010 net.cpp:91] Creating Layer resx10_elewise_relu
I0818 15:27:47.884230 17010 net.cpp:469] resx10_elewise_relu <- resx10_elewise
I0818 15:27:47.884235 17010 net.cpp:430] resx10_elewise_relu -> resx10_elewise (in-place)
I0818 15:27:47.884564 17010 net.cpp:141] Setting up resx10_elewise_relu
I0818 15:27:47.884578 17010 net.cpp:148] Top shape: 80 480 14 14 (7526400)
I0818 15:27:47.884582 17010 net.cpp:156] Memory required for data: 4360043840
I0818 15:27:47.884585 17010 layer_factory.hpp:77] Creating layer resx10_elewise_resx10_elewise_relu_0_split
I0818 15:27:47.884591 17010 net.cpp:91] Creating Layer resx10_elewise_resx10_elewise_relu_0_split
I0818 15:27:47.884604 17010 net.cpp:469] resx10_elewise_resx10_elewise_relu_0_split <- resx10_elewise
I0818 15:27:47.884613 17010 net.cpp:443] resx10_elewise_resx10_elewise_relu_0_split -> resx10_elewise_resx10_elewise_relu_0_split_0
I0818 15:27:47.884619 17010 net.cpp:443] resx10_elewise_resx10_elewise_relu_0_split -> resx10_elewise_resx10_elewise_relu_0_split_1
I0818 15:27:47.884666 17010 net.cpp:141] Setting up resx10_elewise_resx10_elewise_relu_0_split
I0818 15:27:47.884675 17010 net.cpp:148] Top shape: 80 480 14 14 (7526400)
I0818 15:27:47.884677 17010 net.cpp:148] Top shape: 80 480 14 14 (7526400)
I0818 15:27:47.884681 17010 net.cpp:156] Memory required for data: 4420255040
I0818 15:27:47.884685 17010 layer_factory.hpp:77] Creating layer resx11_conv1
I0818 15:27:47.884696 17010 net.cpp:91] Creating Layer resx11_conv1
I0818 15:27:47.884699 17010 net.cpp:469] resx11_conv1 <- resx10_elewise_resx10_elewise_relu_0_split_0
I0818 15:27:47.884706 17010 net.cpp:443] resx11_conv1 -> resx11_conv1
I0818 15:27:47.887517 17010 net.cpp:141] Setting up resx11_conv1
I0818 15:27:47.887532 17010 net.cpp:148] Top shape: 80 120 14 14 (1881600)
I0818 15:27:47.887537 17010 net.cpp:156] Memory required for data: 4427781440
I0818 15:27:47.887542 17010 layer_factory.hpp:77] Creating layer resx11_conv1_bn
I0818 15:27:47.887552 17010 net.cpp:91] Creating Layer resx11_conv1_bn
I0818 15:27:47.887555 17010 net.cpp:469] resx11_conv1_bn <- resx11_conv1
I0818 15:27:47.887560 17010 net.cpp:430] resx11_conv1_bn -> resx11_conv1 (in-place)
I0818 15:27:47.887765 17010 net.cpp:141] Setting up resx11_conv1_bn
I0818 15:27:47.887773 17010 net.cpp:148] Top shape: 80 120 14 14 (1881600)
I0818 15:27:47.887776 17010 net.cpp:156] Memory required for data: 4435307840
I0818 15:27:47.887784 17010 layer_factory.hpp:77] Creating layer resx11_conv1_scale
I0818 15:27:47.887790 17010 net.cpp:91] Creating Layer resx11_conv1_scale
I0818 15:27:47.887794 17010 net.cpp:469] resx11_conv1_scale <- resx11_conv1
I0818 15:27:47.887799 17010 net.cpp:430] resx11_conv1_scale -> resx11_conv1 (in-place)
I0818 15:27:47.887846 17010 layer_factory.hpp:77] Creating layer resx11_conv1_scale
I0818 15:27:47.887969 17010 net.cpp:141] Setting up resx11_conv1_scale
I0818 15:27:47.887977 17010 net.cpp:148] Top shape: 80 120 14 14 (1881600)
I0818 15:27:47.887980 17010 net.cpp:156] Memory required for data: 4442834240
I0818 15:27:47.887986 17010 layer_factory.hpp:77] Creating layer resx11_conv1_relu
I0818 15:27:47.887991 17010 net.cpp:91] Creating Layer resx11_conv1_relu
I0818 15:27:47.887995 17010 net.cpp:469] resx11_conv1_relu <- resx11_conv1
I0818 15:27:47.888000 17010 net.cpp:430] resx11_conv1_relu -> resx11_conv1 (in-place)
I0818 15:27:47.888500 17010 net.cpp:141] Setting up resx11_conv1_relu
I0818 15:27:47.888514 17010 net.cpp:148] Top shape: 80 120 14 14 (1881600)
I0818 15:27:47.888517 17010 net.cpp:156] Memory required for data: 4450360640
I0818 15:27:47.888521 17010 layer_factory.hpp:77] Creating layer shuffle11
I0818 15:27:47.888527 17010 net.cpp:91] Creating Layer shuffle11
I0818 15:27:47.888532 17010 net.cpp:469] shuffle11 <- resx11_conv1
I0818 15:27:47.888537 17010 net.cpp:443] shuffle11 -> shuffle11
I0818 15:27:47.888576 17010 net.cpp:141] Setting up shuffle11
I0818 15:27:47.888583 17010 net.cpp:148] Top shape: 80 120 14 14 (1881600)
I0818 15:27:47.888587 17010 net.cpp:156] Memory required for data: 4457887040
I0818 15:27:47.888591 17010 layer_factory.hpp:77] Creating layer resx11_conv2
I0818 15:27:47.888598 17010 net.cpp:91] Creating Layer resx11_conv2
I0818 15:27:47.888602 17010 net.cpp:469] resx11_conv2 <- shuffle11
I0818 15:27:47.888608 17010 net.cpp:443] resx11_conv2 -> resx11_conv2
I0818 15:27:47.888753 17010 net.cpp:141] Setting up resx11_conv2
I0818 15:27:47.888764 17010 net.cpp:148] Top shape: 80 120 14 14 (1881600)
I0818 15:27:47.888768 17010 net.cpp:156] Memory required for data: 4465413440
I0818 15:27:47.888773 17010 layer_factory.hpp:77] Creating layer resx11_conv2_bn
I0818 15:27:47.888782 17010 net.cpp:91] Creating Layer resx11_conv2_bn
I0818 15:27:47.888790 17010 net.cpp:469] resx11_conv2_bn <- resx11_conv2
I0818 15:27:47.888800 17010 net.cpp:430] resx11_conv2_bn -> resx11_conv2 (in-place)
I0818 15:27:47.889003 17010 net.cpp:141] Setting up resx11_conv2_bn
I0818 15:27:47.889010 17010 net.cpp:148] Top shape: 80 120 14 14 (1881600)
I0818 15:27:47.889014 17010 net.cpp:156] Memory required for data: 4472939840
I0818 15:27:47.889020 17010 layer_factory.hpp:77] Creating layer resx11_conv2_scale
I0818 15:27:47.889026 17010 net.cpp:91] Creating Layer resx11_conv2_scale
I0818 15:27:47.889030 17010 net.cpp:469] resx11_conv2_scale <- resx11_conv2
I0818 15:27:47.889035 17010 net.cpp:430] resx11_conv2_scale -> resx11_conv2 (in-place)
I0818 15:27:47.889093 17010 layer_factory.hpp:77] Creating layer resx11_conv2_scale
I0818 15:27:47.889223 17010 net.cpp:141] Setting up resx11_conv2_scale
I0818 15:27:47.889230 17010 net.cpp:148] Top shape: 80 120 14 14 (1881600)
I0818 15:27:47.889235 17010 net.cpp:156] Memory required for data: 4480466240
I0818 15:27:47.889256 17010 layer_factory.hpp:77] Creating layer resx11_conv3
I0818 15:27:47.889266 17010 net.cpp:91] Creating Layer resx11_conv3
I0818 15:27:47.889269 17010 net.cpp:469] resx11_conv3 <- resx11_conv2
I0818 15:27:47.889274 17010 net.cpp:443] resx11_conv3 -> resx11_conv3
I0818 15:27:47.892172 17010 net.cpp:141] Setting up resx11_conv3
I0818 15:27:47.892190 17010 net.cpp:148] Top shape: 80 480 14 14 (7526400)
I0818 15:27:47.892194 17010 net.cpp:156] Memory required for data: 4510571840
I0818 15:27:47.892200 17010 layer_factory.hpp:77] Creating layer resx11_conv3_bn
I0818 15:27:47.892208 17010 net.cpp:91] Creating Layer resx11_conv3_bn
I0818 15:27:47.892212 17010 net.cpp:469] resx11_conv3_bn <- resx11_conv3
I0818 15:27:47.892220 17010 net.cpp:430] resx11_conv3_bn -> resx11_conv3 (in-place)
I0818 15:27:47.892434 17010 net.cpp:141] Setting up resx11_conv3_bn
I0818 15:27:47.892442 17010 net.cpp:148] Top shape: 80 480 14 14 (7526400)
I0818 15:27:47.892446 17010 net.cpp:156] Memory required for data: 4540677440
I0818 15:27:47.892452 17010 layer_factory.hpp:77] Creating layer resx11_conv3_scale
I0818 15:27:47.892459 17010 net.cpp:91] Creating Layer resx11_conv3_scale
I0818 15:27:47.892463 17010 net.cpp:469] resx11_conv3_scale <- resx11_conv3
I0818 15:27:47.892469 17010 net.cpp:430] resx11_conv3_scale -> resx11_conv3 (in-place)
I0818 15:27:47.892518 17010 layer_factory.hpp:77] Creating layer resx11_conv3_scale
I0818 15:27:47.892642 17010 net.cpp:141] Setting up resx11_conv3_scale
I0818 15:27:47.892649 17010 net.cpp:148] Top shape: 80 480 14 14 (7526400)
I0818 15:27:47.892652 17010 net.cpp:156] Memory required for data: 4570783040
I0818 15:27:47.892658 17010 layer_factory.hpp:77] Creating layer resx11_elewise
I0818 15:27:47.892664 17010 net.cpp:91] Creating Layer resx11_elewise
I0818 15:27:47.892668 17010 net.cpp:469] resx11_elewise <- resx10_elewise_resx10_elewise_relu_0_split_1
I0818 15:27:47.892673 17010 net.cpp:469] resx11_elewise <- resx11_conv3
I0818 15:27:47.892680 17010 net.cpp:443] resx11_elewise -> resx11_elewise
I0818 15:27:47.892711 17010 net.cpp:141] Setting up resx11_elewise
I0818 15:27:47.892719 17010 net.cpp:148] Top shape: 80 480 14 14 (7526400)
I0818 15:27:47.892721 17010 net.cpp:156] Memory required for data: 4600888640
I0818 15:27:47.892724 17010 layer_factory.hpp:77] Creating layer resx11_elewise_relu
I0818 15:27:47.892730 17010 net.cpp:91] Creating Layer resx11_elewise_relu
I0818 15:27:47.892735 17010 net.cpp:469] resx11_elewise_relu <- resx11_elewise
I0818 15:27:47.892740 17010 net.cpp:430] resx11_elewise_relu -> resx11_elewise (in-place)
I0818 15:27:47.893108 17010 net.cpp:141] Setting up resx11_elewise_relu
I0818 15:27:47.893121 17010 net.cpp:148] Top shape: 80 480 14 14 (7526400)
I0818 15:27:47.893126 17010 net.cpp:156] Memory required for data: 4630994240
I0818 15:27:47.893129 17010 layer_factory.hpp:77] Creating layer resx11_elewise_resx11_elewise_relu_0_split
I0818 15:27:47.893137 17010 net.cpp:91] Creating Layer resx11_elewise_resx11_elewise_relu_0_split
I0818 15:27:47.893148 17010 net.cpp:469] resx11_elewise_resx11_elewise_relu_0_split <- resx11_elewise
I0818 15:27:47.893162 17010 net.cpp:443] resx11_elewise_resx11_elewise_relu_0_split -> resx11_elewise_resx11_elewise_relu_0_split_0
I0818 15:27:47.893169 17010 net.cpp:443] resx11_elewise_resx11_elewise_relu_0_split -> resx11_elewise_resx11_elewise_relu_0_split_1
I0818 15:27:47.893216 17010 net.cpp:141] Setting up resx11_elewise_resx11_elewise_relu_0_split
I0818 15:27:47.893224 17010 net.cpp:148] Top shape: 80 480 14 14 (7526400)
I0818 15:27:47.893227 17010 net.cpp:148] Top shape: 80 480 14 14 (7526400)
I0818 15:27:47.893230 17010 net.cpp:156] Memory required for data: 4691205440
I0818 15:27:47.893234 17010 layer_factory.hpp:77] Creating layer resx12_conv1
I0818 15:27:47.893244 17010 net.cpp:91] Creating Layer resx12_conv1
I0818 15:27:47.893247 17010 net.cpp:469] resx12_conv1 <- resx11_elewise_resx11_elewise_relu_0_split_0
I0818 15:27:47.893255 17010 net.cpp:443] resx12_conv1 -> resx12_conv1
I0818 15:27:47.896081 17010 net.cpp:141] Setting up resx12_conv1
I0818 15:27:47.896095 17010 net.cpp:148] Top shape: 80 120 14 14 (1881600)
I0818 15:27:47.896100 17010 net.cpp:156] Memory required for data: 4698731840
I0818 15:27:47.896105 17010 layer_factory.hpp:77] Creating layer resx12_conv1_bn
I0818 15:27:47.896113 17010 net.cpp:91] Creating Layer resx12_conv1_bn
I0818 15:27:47.896117 17010 net.cpp:469] resx12_conv1_bn <- resx12_conv1
I0818 15:27:47.896124 17010 net.cpp:430] resx12_conv1_bn -> resx12_conv1 (in-place)
I0818 15:27:47.896332 17010 net.cpp:141] Setting up resx12_conv1_bn
I0818 15:27:47.896340 17010 net.cpp:148] Top shape: 80 120 14 14 (1881600)
I0818 15:27:47.896343 17010 net.cpp:156] Memory required for data: 4706258240
I0818 15:27:47.896350 17010 layer_factory.hpp:77] Creating layer resx12_conv1_scale
I0818 15:27:47.896358 17010 net.cpp:91] Creating Layer resx12_conv1_scale
I0818 15:27:47.896363 17010 net.cpp:469] resx12_conv1_scale <- resx12_conv1
I0818 15:27:47.896368 17010 net.cpp:430] resx12_conv1_scale -> resx12_conv1 (in-place)
I0818 15:27:47.896414 17010 layer_factory.hpp:77] Creating layer resx12_conv1_scale
I0818 15:27:47.896549 17010 net.cpp:141] Setting up resx12_conv1_scale
I0818 15:27:47.896558 17010 net.cpp:148] Top shape: 80 120 14 14 (1881600)
I0818 15:27:47.896560 17010 net.cpp:156] Memory required for data: 4713784640
I0818 15:27:47.896566 17010 layer_factory.hpp:77] Creating layer resx12_conv1_relu
I0818 15:27:47.896572 17010 net.cpp:91] Creating Layer resx12_conv1_relu
I0818 15:27:47.896576 17010 net.cpp:469] resx12_conv1_relu <- resx12_conv1
I0818 15:27:47.896582 17010 net.cpp:430] resx12_conv1_relu -> resx12_conv1 (in-place)
I0818 15:27:47.896975 17010 net.cpp:141] Setting up resx12_conv1_relu
I0818 15:27:47.896988 17010 net.cpp:148] Top shape: 80 120 14 14 (1881600)
I0818 15:27:47.896992 17010 net.cpp:156] Memory required for data: 4721311040
I0818 15:27:47.896996 17010 layer_factory.hpp:77] Creating layer shuffle12
I0818 15:27:47.897002 17010 net.cpp:91] Creating Layer shuffle12
I0818 15:27:47.897006 17010 net.cpp:469] shuffle12 <- resx12_conv1
I0818 15:27:47.897012 17010 net.cpp:443] shuffle12 -> shuffle12
I0818 15:27:47.897047 17010 net.cpp:141] Setting up shuffle12
I0818 15:27:47.897054 17010 net.cpp:148] Top shape: 80 120 14 14 (1881600)
I0818 15:27:47.897058 17010 net.cpp:156] Memory required for data: 4728837440
I0818 15:27:47.897061 17010 layer_factory.hpp:77] Creating layer resx12_conv2
I0818 15:27:47.897068 17010 net.cpp:91] Creating Layer resx12_conv2
I0818 15:27:47.897073 17010 net.cpp:469] resx12_conv2 <- shuffle12
I0818 15:27:47.897083 17010 net.cpp:443] resx12_conv2 -> resx12_conv2
I0818 15:27:47.897234 17010 net.cpp:141] Setting up resx12_conv2
I0818 15:27:47.897245 17010 net.cpp:148] Top shape: 80 120 14 14 (1881600)
I0818 15:27:47.897249 17010 net.cpp:156] Memory required for data: 4736363840
I0818 15:27:47.897254 17010 layer_factory.hpp:77] Creating layer resx12_conv2_bn
I0818 15:27:47.897264 17010 net.cpp:91] Creating Layer resx12_conv2_bn
I0818 15:27:47.897267 17010 net.cpp:469] resx12_conv2_bn <- resx12_conv2
I0818 15:27:47.897277 17010 net.cpp:430] resx12_conv2_bn -> resx12_conv2 (in-place)
I0818 15:27:47.897476 17010 net.cpp:141] Setting up resx12_conv2_bn
I0818 15:27:47.897485 17010 net.cpp:148] Top shape: 80 120 14 14 (1881600)
I0818 15:27:47.897488 17010 net.cpp:156] Memory required for data: 4743890240
I0818 15:27:47.897495 17010 layer_factory.hpp:77] Creating layer resx12_conv2_scale
I0818 15:27:47.897501 17010 net.cpp:91] Creating Layer resx12_conv2_scale
I0818 15:27:47.897505 17010 net.cpp:469] resx12_conv2_scale <- resx12_conv2
I0818 15:27:47.897512 17010 net.cpp:430] resx12_conv2_scale -> resx12_conv2 (in-place)
I0818 15:27:47.897559 17010 layer_factory.hpp:77] Creating layer resx12_conv2_scale
I0818 15:27:47.897686 17010 net.cpp:141] Setting up resx12_conv2_scale
I0818 15:27:47.897693 17010 net.cpp:148] Top shape: 80 120 14 14 (1881600)
I0818 15:27:47.897696 17010 net.cpp:156] Memory required for data: 4751416640
I0818 15:27:47.897701 17010 layer_factory.hpp:77] Creating layer resx12_conv3
I0818 15:27:47.897711 17010 net.cpp:91] Creating Layer resx12_conv3
I0818 15:27:47.897716 17010 net.cpp:469] resx12_conv3 <- resx12_conv2
I0818 15:27:47.897720 17010 net.cpp:443] resx12_conv3 -> resx12_conv3
I0818 15:27:47.901306 17010 net.cpp:141] Setting up resx12_conv3
I0818 15:27:47.901322 17010 net.cpp:148] Top shape: 80 480 14 14 (7526400)
I0818 15:27:47.901326 17010 net.cpp:156] Memory required for data: 4781522240
I0818 15:27:47.901331 17010 layer_factory.hpp:77] Creating layer resx12_conv3_bn
I0818 15:27:47.901338 17010 net.cpp:91] Creating Layer resx12_conv3_bn
I0818 15:27:47.901343 17010 net.cpp:469] resx12_conv3_bn <- resx12_conv3
I0818 15:27:47.901350 17010 net.cpp:430] resx12_conv3_bn -> resx12_conv3 (in-place)
I0818 15:27:47.901566 17010 net.cpp:141] Setting up resx12_conv3_bn
I0818 15:27:47.901574 17010 net.cpp:148] Top shape: 80 480 14 14 (7526400)
I0818 15:27:47.901577 17010 net.cpp:156] Memory required for data: 4811627840
I0818 15:27:47.901584 17010 layer_factory.hpp:77] Creating layer resx12_conv3_scale
I0818 15:27:47.901592 17010 net.cpp:91] Creating Layer resx12_conv3_scale
I0818 15:27:47.901595 17010 net.cpp:469] resx12_conv3_scale <- resx12_conv3
I0818 15:27:47.901602 17010 net.cpp:430] resx12_conv3_scale -> resx12_conv3 (in-place)
I0818 15:27:47.901649 17010 layer_factory.hpp:77] Creating layer resx12_conv3_scale
I0818 15:27:47.901777 17010 net.cpp:141] Setting up resx12_conv3_scale
I0818 15:27:47.901783 17010 net.cpp:148] Top shape: 80 480 14 14 (7526400)
I0818 15:27:47.901787 17010 net.cpp:156] Memory required for data: 4841733440
I0818 15:27:47.901793 17010 layer_factory.hpp:77] Creating layer resx12_elewise
I0818 15:27:47.901800 17010 net.cpp:91] Creating Layer resx12_elewise
I0818 15:27:47.901804 17010 net.cpp:469] resx12_elewise <- resx11_elewise_resx11_elewise_relu_0_split_1
I0818 15:27:47.901809 17010 net.cpp:469] resx12_elewise <- resx12_conv3
I0818 15:27:47.901814 17010 net.cpp:443] resx12_elewise -> resx12_elewise
I0818 15:27:47.901844 17010 net.cpp:141] Setting up resx12_elewise
I0818 15:27:47.901850 17010 net.cpp:148] Top shape: 80 480 14 14 (7526400)
I0818 15:27:47.901854 17010 net.cpp:156] Memory required for data: 4871839040
I0818 15:27:47.901857 17010 layer_factory.hpp:77] Creating layer resx12_elewise_relu
I0818 15:27:47.901862 17010 net.cpp:91] Creating Layer resx12_elewise_relu
I0818 15:27:47.901866 17010 net.cpp:469] resx12_elewise_relu <- resx12_elewise
I0818 15:27:47.901872 17010 net.cpp:430] resx12_elewise_relu -> resx12_elewise (in-place)
I0818 15:27:47.902024 17010 net.cpp:141] Setting up resx12_elewise_relu
I0818 15:27:47.902034 17010 net.cpp:148] Top shape: 80 480 14 14 (7526400)
I0818 15:27:47.902037 17010 net.cpp:156] Memory required for data: 4901944640
I0818 15:27:47.902041 17010 layer_factory.hpp:77] Creating layer resx12_elewise_resx12_elewise_relu_0_split
I0818 15:27:47.902046 17010 net.cpp:91] Creating Layer resx12_elewise_resx12_elewise_relu_0_split
I0818 15:27:47.902050 17010 net.cpp:469] resx12_elewise_resx12_elewise_relu_0_split <- resx12_elewise
I0818 15:27:47.902061 17010 net.cpp:443] resx12_elewise_resx12_elewise_relu_0_split -> resx12_elewise_resx12_elewise_relu_0_split_0
I0818 15:27:47.902073 17010 net.cpp:443] resx12_elewise_resx12_elewise_relu_0_split -> resx12_elewise_resx12_elewise_relu_0_split_1
I0818 15:27:47.902120 17010 net.cpp:141] Setting up resx12_elewise_resx12_elewise_relu_0_split
I0818 15:27:47.902129 17010 net.cpp:148] Top shape: 80 480 14 14 (7526400)
I0818 15:27:47.902133 17010 net.cpp:148] Top shape: 80 480 14 14 (7526400)
I0818 15:27:47.902137 17010 net.cpp:156] Memory required for data: 4962155840
I0818 15:27:47.902139 17010 layer_factory.hpp:77] Creating layer resx13_match_conv
I0818 15:27:47.902146 17010 net.cpp:91] Creating Layer resx13_match_conv
I0818 15:27:47.902150 17010 net.cpp:469] resx13_match_conv <- resx12_elewise_resx12_elewise_relu_0_split_0
I0818 15:27:47.902156 17010 net.cpp:443] resx13_match_conv -> resx13_match_conv
I0818 15:27:47.902511 17010 net.cpp:141] Setting up resx13_match_conv
I0818 15:27:47.902524 17010 net.cpp:148] Top shape: 80 480 7 7 (1881600)
I0818 15:27:47.902529 17010 net.cpp:156] Memory required for data: 4969682240
I0818 15:27:47.902532 17010 layer_factory.hpp:77] Creating layer resx13_conv1
I0818 15:27:47.902542 17010 net.cpp:91] Creating Layer resx13_conv1
I0818 15:27:47.902546 17010 net.cpp:469] resx13_conv1 <- resx12_elewise_resx12_elewise_relu_0_split_1
I0818 15:27:47.902552 17010 net.cpp:443] resx13_conv1 -> resx13_conv1
I0818 15:27:47.905395 17010 net.cpp:141] Setting up resx13_conv1
I0818 15:27:47.905409 17010 net.cpp:148] Top shape: 80 120 14 14 (1881600)
I0818 15:27:47.905413 17010 net.cpp:156] Memory required for data: 4977208640
I0818 15:27:47.905418 17010 layer_factory.hpp:77] Creating layer resx13_conv1_bn
I0818 15:27:47.905424 17010 net.cpp:91] Creating Layer resx13_conv1_bn
I0818 15:27:47.905429 17010 net.cpp:469] resx13_conv1_bn <- resx13_conv1
I0818 15:27:47.905436 17010 net.cpp:430] resx13_conv1_bn -> resx13_conv1 (in-place)
I0818 15:27:47.905652 17010 net.cpp:141] Setting up resx13_conv1_bn
I0818 15:27:47.905659 17010 net.cpp:148] Top shape: 80 120 14 14 (1881600)
I0818 15:27:47.905663 17010 net.cpp:156] Memory required for data: 4984735040
I0818 15:27:47.905669 17010 layer_factory.hpp:77] Creating layer resx13_conv1_scale
I0818 15:27:47.905678 17010 net.cpp:91] Creating Layer resx13_conv1_scale
I0818 15:27:47.905683 17010 net.cpp:469] resx13_conv1_scale <- resx13_conv1
I0818 15:27:47.905686 17010 net.cpp:430] resx13_conv1_scale -> resx13_conv1 (in-place)
I0818 15:27:47.905733 17010 layer_factory.hpp:77] Creating layer resx13_conv1_scale
I0818 15:27:47.905861 17010 net.cpp:141] Setting up resx13_conv1_scale
I0818 15:27:47.905869 17010 net.cpp:148] Top shape: 80 120 14 14 (1881600)
I0818 15:27:47.905872 17010 net.cpp:156] Memory required for data: 4992261440
I0818 15:27:47.905877 17010 layer_factory.hpp:77] Creating layer resx13_conv1_relu
I0818 15:27:47.905885 17010 net.cpp:91] Creating Layer resx13_conv1_relu
I0818 15:27:47.905889 17010 net.cpp:469] resx13_conv1_relu <- resx13_conv1
I0818 15:27:47.905894 17010 net.cpp:430] resx13_conv1_relu -> resx13_conv1 (in-place)
I0818 15:27:47.906224 17010 net.cpp:141] Setting up resx13_conv1_relu
I0818 15:27:47.906236 17010 net.cpp:148] Top shape: 80 120 14 14 (1881600)
I0818 15:27:47.906240 17010 net.cpp:156] Memory required for data: 4999787840
I0818 15:27:47.906244 17010 layer_factory.hpp:77] Creating layer shuffle13
I0818 15:27:47.906252 17010 net.cpp:91] Creating Layer shuffle13
I0818 15:27:47.906256 17010 net.cpp:469] shuffle13 <- resx13_conv1
I0818 15:27:47.906262 17010 net.cpp:443] shuffle13 -> shuffle13
I0818 15:27:47.906299 17010 net.cpp:141] Setting up shuffle13
I0818 15:27:47.906306 17010 net.cpp:148] Top shape: 80 120 14 14 (1881600)
I0818 15:27:47.906311 17010 net.cpp:156] Memory required for data: 5007314240
I0818 15:27:47.906313 17010 layer_factory.hpp:77] Creating layer resx13_conv2
I0818 15:27:47.906322 17010 net.cpp:91] Creating Layer resx13_conv2
I0818 15:27:47.906325 17010 net.cpp:469] resx13_conv2 <- shuffle13
I0818 15:27:47.906334 17010 net.cpp:443] resx13_conv2 -> resx13_conv2
I0818 15:27:47.906669 17010 net.cpp:141] Setting up resx13_conv2
I0818 15:27:47.906682 17010 net.cpp:148] Top shape: 80 120 7 7 (470400)
I0818 15:27:47.906687 17010 net.cpp:156] Memory required for data: 5009195840
I0818 15:27:47.906692 17010 layer_factory.hpp:77] Creating layer resx13_conv2_bn
I0818 15:27:47.906699 17010 net.cpp:91] Creating Layer resx13_conv2_bn
I0818 15:27:47.906703 17010 net.cpp:469] resx13_conv2_bn <- resx13_conv2
I0818 15:27:47.906708 17010 net.cpp:430] resx13_conv2_bn -> resx13_conv2 (in-place)
I0818 15:27:47.906929 17010 net.cpp:141] Setting up resx13_conv2_bn
I0818 15:27:47.906936 17010 net.cpp:148] Top shape: 80 120 7 7 (470400)
I0818 15:27:47.906939 17010 net.cpp:156] Memory required for data: 5011077440
I0818 15:27:47.906946 17010 layer_factory.hpp:77] Creating layer resx13_conv2_scale
I0818 15:27:47.906955 17010 net.cpp:91] Creating Layer resx13_conv2_scale
I0818 15:27:47.906958 17010 net.cpp:469] resx13_conv2_scale <- resx13_conv2
I0818 15:27:47.906963 17010 net.cpp:430] resx13_conv2_scale -> resx13_conv2 (in-place)
I0818 15:27:47.907011 17010 layer_factory.hpp:77] Creating layer resx13_conv2_scale
I0818 15:27:47.907140 17010 net.cpp:141] Setting up resx13_conv2_scale
I0818 15:27:47.907147 17010 net.cpp:148] Top shape: 80 120 7 7 (470400)
I0818 15:27:47.907150 17010 net.cpp:156] Memory required for data: 5012959040
I0818 15:27:47.907156 17010 layer_factory.hpp:77] Creating layer resx13_conv3
I0818 15:27:47.907167 17010 net.cpp:91] Creating Layer resx13_conv3
I0818 15:27:47.907171 17010 net.cpp:469] resx13_conv3 <- resx13_conv2
I0818 15:27:47.907177 17010 net.cpp:443] resx13_conv3 -> resx13_conv3
I0818 15:27:47.910122 17010 net.cpp:141] Setting up resx13_conv3
I0818 15:27:47.910137 17010 net.cpp:148] Top shape: 80 480 7 7 (1881600)
I0818 15:27:47.910141 17010 net.cpp:156] Memory required for data: 5020485440
I0818 15:27:47.910146 17010 layer_factory.hpp:77] Creating layer resx13_conv3_bn
I0818 15:27:47.910156 17010 net.cpp:91] Creating Layer resx13_conv3_bn
I0818 15:27:47.910159 17010 net.cpp:469] resx13_conv3_bn <- resx13_conv3
I0818 15:27:47.910164 17010 net.cpp:430] resx13_conv3_bn -> resx13_conv3 (in-place)
I0818 15:27:47.910387 17010 net.cpp:141] Setting up resx13_conv3_bn
I0818 15:27:47.910394 17010 net.cpp:148] Top shape: 80 480 7 7 (1881600)
I0818 15:27:47.910398 17010 net.cpp:156] Memory required for data: 5028011840
I0818 15:27:47.910405 17010 layer_factory.hpp:77] Creating layer resx13_conv3_scale
I0818 15:27:47.910414 17010 net.cpp:91] Creating Layer resx13_conv3_scale
I0818 15:27:47.910418 17010 net.cpp:469] resx13_conv3_scale <- resx13_conv3
I0818 15:27:47.910423 17010 net.cpp:430] resx13_conv3_scale -> resx13_conv3 (in-place)
I0818 15:27:47.910470 17010 layer_factory.hpp:77] Creating layer resx13_conv3_scale
I0818 15:27:47.910604 17010 net.cpp:141] Setting up resx13_conv3_scale
I0818 15:27:47.910610 17010 net.cpp:148] Top shape: 80 480 7 7 (1881600)
I0818 15:27:47.910614 17010 net.cpp:156] Memory required for data: 5035538240
I0818 15:27:47.910619 17010 layer_factory.hpp:77] Creating layer resx13_concat
I0818 15:27:47.910627 17010 net.cpp:91] Creating Layer resx13_concat
I0818 15:27:47.910631 17010 net.cpp:469] resx13_concat <- resx13_match_conv
I0818 15:27:47.910635 17010 net.cpp:469] resx13_concat <- resx13_conv3
I0818 15:27:47.910640 17010 net.cpp:443] resx13_concat -> resx13_concat
I0818 15:27:47.910672 17010 net.cpp:141] Setting up resx13_concat
I0818 15:27:47.910679 17010 net.cpp:148] Top shape: 80 960 7 7 (3763200)
I0818 15:27:47.910682 17010 net.cpp:156] Memory required for data: 5050591040
I0818 15:27:47.910686 17010 layer_factory.hpp:77] Creating layer resx13_concat_relu
I0818 15:27:47.910691 17010 net.cpp:91] Creating Layer resx13_concat_relu
I0818 15:27:47.910696 17010 net.cpp:469] resx13_concat_relu <- resx13_concat
I0818 15:27:47.910701 17010 net.cpp:430] resx13_concat_relu -> resx13_concat (in-place)
I0818 15:27:47.911031 17010 net.cpp:141] Setting up resx13_concat_relu
I0818 15:27:47.911042 17010 net.cpp:148] Top shape: 80 960 7 7 (3763200)
I0818 15:27:47.911056 17010 net.cpp:156] Memory required for data: 5065643840
I0818 15:27:47.911061 17010 layer_factory.hpp:77] Creating layer resx13_concat_resx13_concat_relu_0_split
I0818 15:27:47.911067 17010 net.cpp:91] Creating Layer resx13_concat_resx13_concat_relu_0_split
I0818 15:27:47.911072 17010 net.cpp:469] resx13_concat_resx13_concat_relu_0_split <- resx13_concat
I0818 15:27:47.911077 17010 net.cpp:443] resx13_concat_resx13_concat_relu_0_split -> resx13_concat_resx13_concat_relu_0_split_0
I0818 15:27:47.911083 17010 net.cpp:443] resx13_concat_resx13_concat_relu_0_split -> resx13_concat_resx13_concat_relu_0_split_1
I0818 15:27:47.911134 17010 net.cpp:141] Setting up resx13_concat_resx13_concat_relu_0_split
I0818 15:27:47.911140 17010 net.cpp:148] Top shape: 80 960 7 7 (3763200)
I0818 15:27:47.911144 17010 net.cpp:148] Top shape: 80 960 7 7 (3763200)
I0818 15:27:47.911147 17010 net.cpp:156] Memory required for data: 5095749440
I0818 15:27:47.911150 17010 layer_factory.hpp:77] Creating layer resx14_conv1
I0818 15:27:47.911160 17010 net.cpp:91] Creating Layer resx14_conv1
I0818 15:27:47.911164 17010 net.cpp:469] resx14_conv1 <- resx13_concat_resx13_concat_relu_0_split_0
I0818 15:27:47.911170 17010 net.cpp:443] resx14_conv1 -> resx14_conv1
I0818 15:27:47.916076 17010 net.cpp:141] Setting up resx14_conv1
I0818 15:27:47.916091 17010 net.cpp:148] Top shape: 80 240 7 7 (940800)
I0818 15:27:47.916095 17010 net.cpp:156] Memory required for data: 5099512640
I0818 15:27:47.916100 17010 layer_factory.hpp:77] Creating layer resx14_conv1_bn
I0818 15:27:47.916110 17010 net.cpp:91] Creating Layer resx14_conv1_bn
I0818 15:27:47.916113 17010 net.cpp:469] resx14_conv1_bn <- resx14_conv1
I0818 15:27:47.916121 17010 net.cpp:430] resx14_conv1_bn -> resx14_conv1 (in-place)
I0818 15:27:47.916340 17010 net.cpp:141] Setting up resx14_conv1_bn
I0818 15:27:47.916348 17010 net.cpp:148] Top shape: 80 240 7 7 (940800)
I0818 15:27:47.916352 17010 net.cpp:156] Memory required for data: 5103275840
I0818 15:27:47.916358 17010 layer_factory.hpp:77] Creating layer resx14_conv1_scale
I0818 15:27:47.916366 17010 net.cpp:91] Creating Layer resx14_conv1_scale
I0818 15:27:47.916370 17010 net.cpp:469] resx14_conv1_scale <- resx14_conv1
I0818 15:27:47.916375 17010 net.cpp:430] resx14_conv1_scale -> resx14_conv1 (in-place)
I0818 15:27:47.916422 17010 layer_factory.hpp:77] Creating layer resx14_conv1_scale
I0818 15:27:47.916553 17010 net.cpp:141] Setting up resx14_conv1_scale
I0818 15:27:47.916561 17010 net.cpp:148] Top shape: 80 240 7 7 (940800)
I0818 15:27:47.916564 17010 net.cpp:156] Memory required for data: 5107039040
I0818 15:27:47.916570 17010 layer_factory.hpp:77] Creating layer resx14_conv1_relu
I0818 15:27:47.916575 17010 net.cpp:91] Creating Layer resx14_conv1_relu
I0818 15:27:47.916579 17010 net.cpp:469] resx14_conv1_relu <- resx14_conv1
I0818 15:27:47.916585 17010 net.cpp:430] resx14_conv1_relu -> resx14_conv1 (in-place)
I0818 15:27:47.916934 17010 net.cpp:141] Setting up resx14_conv1_relu
I0818 15:27:47.916946 17010 net.cpp:148] Top shape: 80 240 7 7 (940800)
I0818 15:27:47.916950 17010 net.cpp:156] Memory required for data: 5110802240
I0818 15:27:47.916954 17010 layer_factory.hpp:77] Creating layer shuffle14
I0818 15:27:47.916960 17010 net.cpp:91] Creating Layer shuffle14
I0818 15:27:47.916963 17010 net.cpp:469] shuffle14 <- resx14_conv1
I0818 15:27:47.916970 17010 net.cpp:443] shuffle14 -> shuffle14
I0818 15:27:47.917008 17010 net.cpp:141] Setting up shuffle14
I0818 15:27:47.917016 17010 net.cpp:148] Top shape: 80 240 7 7 (940800)
I0818 15:27:47.917018 17010 net.cpp:156] Memory required for data: 5114565440
I0818 15:27:47.917022 17010 layer_factory.hpp:77] Creating layer resx14_conv2
I0818 15:27:47.917029 17010 net.cpp:91] Creating Layer resx14_conv2
I0818 15:27:47.917033 17010 net.cpp:469] resx14_conv2 <- shuffle14
I0818 15:27:47.917039 17010 net.cpp:443] resx14_conv2 -> resx14_conv2
I0818 15:27:47.917229 17010 net.cpp:141] Setting up resx14_conv2
I0818 15:27:47.917240 17010 net.cpp:148] Top shape: 80 240 7 7 (940800)
I0818 15:27:47.917248 17010 net.cpp:156] Memory required for data: 5118328640
I0818 15:27:47.917258 17010 layer_factory.hpp:77] Creating layer resx14_conv2_bn
I0818 15:27:47.917265 17010 net.cpp:91] Creating Layer resx14_conv2_bn
I0818 15:27:47.917269 17010 net.cpp:469] resx14_conv2_bn <- resx14_conv2
I0818 15:27:47.917275 17010 net.cpp:430] resx14_conv2_bn -> resx14_conv2 (in-place)
I0818 15:27:47.917491 17010 net.cpp:141] Setting up resx14_conv2_bn
I0818 15:27:47.917500 17010 net.cpp:148] Top shape: 80 240 7 7 (940800)
I0818 15:27:47.917502 17010 net.cpp:156] Memory required for data: 5122091840
I0818 15:27:47.917508 17010 layer_factory.hpp:77] Creating layer resx14_conv2_scale
I0818 15:27:47.917515 17010 net.cpp:91] Creating Layer resx14_conv2_scale
I0818 15:27:47.917520 17010 net.cpp:469] resx14_conv2_scale <- resx14_conv2
I0818 15:27:47.917526 17010 net.cpp:430] resx14_conv2_scale -> resx14_conv2 (in-place)
I0818 15:27:47.917572 17010 layer_factory.hpp:77] Creating layer resx14_conv2_scale
I0818 15:27:47.917703 17010 net.cpp:141] Setting up resx14_conv2_scale
I0818 15:27:47.917711 17010 net.cpp:148] Top shape: 80 240 7 7 (940800)
I0818 15:27:47.917714 17010 net.cpp:156] Memory required for data: 5125855040
I0818 15:27:47.917719 17010 layer_factory.hpp:77] Creating layer resx14_conv3
I0818 15:27:47.917729 17010 net.cpp:91] Creating Layer resx14_conv3
I0818 15:27:47.917733 17010 net.cpp:469] resx14_conv3 <- resx14_conv2
I0818 15:27:47.917740 17010 net.cpp:443] resx14_conv3 -> resx14_conv3
I0818 15:27:47.921982 17010 net.cpp:141] Setting up resx14_conv3
I0818 15:27:47.921996 17010 net.cpp:148] Top shape: 80 960 7 7 (3763200)
I0818 15:27:47.922000 17010 net.cpp:156] Memory required for data: 5140907840
I0818 15:27:47.922005 17010 layer_factory.hpp:77] Creating layer resx14_conv3_bn
I0818 15:27:47.922014 17010 net.cpp:91] Creating Layer resx14_conv3_bn
I0818 15:27:47.922019 17010 net.cpp:469] resx14_conv3_bn <- resx14_conv3
I0818 15:27:47.922024 17010 net.cpp:430] resx14_conv3_bn -> resx14_conv3 (in-place)
I0818 15:27:47.922253 17010 net.cpp:141] Setting up resx14_conv3_bn
I0818 15:27:47.922260 17010 net.cpp:148] Top shape: 80 960 7 7 (3763200)
I0818 15:27:47.922264 17010 net.cpp:156] Memory required for data: 5155960640
I0818 15:27:47.922271 17010 layer_factory.hpp:77] Creating layer resx14_conv3_scale
I0818 15:27:47.922284 17010 net.cpp:91] Creating Layer resx14_conv3_scale
I0818 15:27:47.922288 17010 net.cpp:469] resx14_conv3_scale <- resx14_conv3
I0818 15:27:47.922293 17010 net.cpp:430] resx14_conv3_scale -> resx14_conv3 (in-place)
I0818 15:27:47.922344 17010 layer_factory.hpp:77] Creating layer resx14_conv3_scale
I0818 15:27:47.922479 17010 net.cpp:141] Setting up resx14_conv3_scale
I0818 15:27:47.922487 17010 net.cpp:148] Top shape: 80 960 7 7 (3763200)
I0818 15:27:47.922489 17010 net.cpp:156] Memory required for data: 5171013440
I0818 15:27:47.922529 17010 layer_factory.hpp:77] Creating layer resx14_elewise
I0818 15:27:47.922538 17010 net.cpp:91] Creating Layer resx14_elewise
I0818 15:27:47.922543 17010 net.cpp:469] resx14_elewise <- resx13_concat_resx13_concat_relu_0_split_1
I0818 15:27:47.922546 17010 net.cpp:469] resx14_elewise <- resx14_conv3
I0818 15:27:47.922551 17010 net.cpp:443] resx14_elewise -> resx14_elewise
I0818 15:27:47.922585 17010 net.cpp:141] Setting up resx14_elewise
I0818 15:27:47.922592 17010 net.cpp:148] Top shape: 80 960 7 7 (3763200)
I0818 15:27:47.922595 17010 net.cpp:156] Memory required for data: 5186066240
I0818 15:27:47.922600 17010 layer_factory.hpp:77] Creating layer resx14_elewise_relu
I0818 15:27:47.922606 17010 net.cpp:91] Creating Layer resx14_elewise_relu
I0818 15:27:47.922610 17010 net.cpp:469] resx14_elewise_relu <- resx14_elewise
I0818 15:27:47.922614 17010 net.cpp:430] resx14_elewise_relu -> resx14_elewise (in-place)
I0818 15:27:47.922947 17010 net.cpp:141] Setting up resx14_elewise_relu
I0818 15:27:47.922960 17010 net.cpp:148] Top shape: 80 960 7 7 (3763200)
I0818 15:27:47.922963 17010 net.cpp:156] Memory required for data: 5201119040
I0818 15:27:47.922971 17010 layer_factory.hpp:77] Creating layer resx14_elewise_resx14_elewise_relu_0_split
I0818 15:27:47.922982 17010 net.cpp:91] Creating Layer resx14_elewise_resx14_elewise_relu_0_split
I0818 15:27:47.922987 17010 net.cpp:469] resx14_elewise_resx14_elewise_relu_0_split <- resx14_elewise
I0818 15:27:47.922993 17010 net.cpp:443] resx14_elewise_resx14_elewise_relu_0_split -> resx14_elewise_resx14_elewise_relu_0_split_0
I0818 15:27:47.923001 17010 net.cpp:443] resx14_elewise_resx14_elewise_relu_0_split -> resx14_elewise_resx14_elewise_relu_0_split_1
I0818 15:27:47.923051 17010 net.cpp:141] Setting up resx14_elewise_resx14_elewise_relu_0_split
I0818 15:27:47.923058 17010 net.cpp:148] Top shape: 80 960 7 7 (3763200)
I0818 15:27:47.923063 17010 net.cpp:148] Top shape: 80 960 7 7 (3763200)
I0818 15:27:47.923065 17010 net.cpp:156] Memory required for data: 5231224640
I0818 15:27:47.923069 17010 layer_factory.hpp:77] Creating layer resx15_conv1
I0818 15:27:47.923079 17010 net.cpp:91] Creating Layer resx15_conv1
I0818 15:27:47.923084 17010 net.cpp:469] resx15_conv1 <- resx14_elewise_resx14_elewise_relu_0_split_0
I0818 15:27:47.923089 17010 net.cpp:443] resx15_conv1 -> resx15_conv1
I0818 15:27:47.927310 17010 net.cpp:141] Setting up resx15_conv1
I0818 15:27:47.927325 17010 net.cpp:148] Top shape: 80 240 7 7 (940800)
I0818 15:27:47.927330 17010 net.cpp:156] Memory required for data: 5234987840
I0818 15:27:47.927335 17010 layer_factory.hpp:77] Creating layer resx15_conv1_bn
I0818 15:27:47.927342 17010 net.cpp:91] Creating Layer resx15_conv1_bn
I0818 15:27:47.927347 17010 net.cpp:469] resx15_conv1_bn <- resx15_conv1
I0818 15:27:47.927355 17010 net.cpp:430] resx15_conv1_bn -> resx15_conv1 (in-place)
I0818 15:27:47.927575 17010 net.cpp:141] Setting up resx15_conv1_bn
I0818 15:27:47.927583 17010 net.cpp:148] Top shape: 80 240 7 7 (940800)
I0818 15:27:47.927587 17010 net.cpp:156] Memory required for data: 5238751040
I0818 15:27:47.927593 17010 layer_factory.hpp:77] Creating layer resx15_conv1_scale
I0818 15:27:47.927600 17010 net.cpp:91] Creating Layer resx15_conv1_scale
I0818 15:27:47.927603 17010 net.cpp:469] resx15_conv1_scale <- resx15_conv1
I0818 15:27:47.927610 17010 net.cpp:430] resx15_conv1_scale -> resx15_conv1 (in-place)
I0818 15:27:47.927656 17010 layer_factory.hpp:77] Creating layer resx15_conv1_scale
I0818 15:27:47.927788 17010 net.cpp:141] Setting up resx15_conv1_scale
I0818 15:27:47.927795 17010 net.cpp:148] Top shape: 80 240 7 7 (940800)
I0818 15:27:47.927798 17010 net.cpp:156] Memory required for data: 5242514240
I0818 15:27:47.927804 17010 layer_factory.hpp:77] Creating layer resx15_conv1_relu
I0818 15:27:47.927809 17010 net.cpp:91] Creating Layer resx15_conv1_relu
I0818 15:27:47.927814 17010 net.cpp:469] resx15_conv1_relu <- resx15_conv1
I0818 15:27:47.927819 17010 net.cpp:430] resx15_conv1_relu -> resx15_conv1 (in-place)
I0818 15:27:47.928153 17010 net.cpp:141] Setting up resx15_conv1_relu
I0818 15:27:47.928165 17010 net.cpp:148] Top shape: 80 240 7 7 (940800)
I0818 15:27:47.928169 17010 net.cpp:156] Memory required for data: 5246277440
I0818 15:27:47.928174 17010 layer_factory.hpp:77] Creating layer shuffle15
I0818 15:27:47.928179 17010 net.cpp:91] Creating Layer shuffle15
I0818 15:27:47.928184 17010 net.cpp:469] shuffle15 <- resx15_conv1
I0818 15:27:47.928190 17010 net.cpp:443] shuffle15 -> shuffle15
…
I0818 15:27:48.138650 17010 net.cpp:91] Creating Layer resx11_conv1
I0818 15:27:48.138654 17010 net.cpp:469] resx11_conv1 <- resx10_elewise_resx10_elewise_relu_0_split_0
I0818 15:27:48.138661 17010 net.cpp:443] resx11_conv1 -> resx11_conv1
I0818 15:27:48.142272 17010 net.cpp:141] Setting up resx11_conv1
I0818 15:27:48.142287 17010 net.cpp:148] Top shape: 40 120 14 14 (940800)
I0818 15:27:48.142292 17010 net.cpp:156] Memory required for data: 2213891040
I0818 15:27:48.142297 17010 layer_factory.hpp:77] Creating layer resx11_conv1_bn
I0818 15:27:48.142304 17010 net.cpp:91] Creating Layer resx11_conv1_bn
I0818 15:27:48.142308 17010 net.cpp:469] resx11_conv1_bn <- resx11_conv1
I0818 15:27:48.142313 17010 net.cpp:430] resx11_conv1_bn -> resx11_conv1 (in-place)
I0818 15:27:48.142510 17010 net.cpp:141] Setting up resx11_conv1_bn
I0818 15:27:48.142518 17010 net.cpp:148] Top shape: 40 120 14 14 (940800)
I0818 15:27:48.142521 17010 net.cpp:156] Memory required for data: 2217654240
I0818 15:27:48.142529 17010 layer_factory.hpp:77] Creating layer resx11_conv1_scale
I0818 15:27:48.142537 17010 net.cpp:91] Creating Layer resx11_conv1_scale
I0818 15:27:48.142541 17010 net.cpp:469] resx11_conv1_scale <- resx11_conv1
I0818 15:27:48.142546 17010 net.cpp:430] resx11_conv1_scale -> resx11_conv1 (in-place)
I0818 15:27:48.142588 17010 layer_factory.hpp:77] Creating layer resx11_conv1_scale
I0818 15:27:48.142704 17010 net.cpp:141] Setting up resx11_conv1_scale
I0818 15:27:48.142711 17010 net.cpp:148] Top shape: 40 120 14 14 (940800)
I0818 15:27:48.142714 17010 net.cpp:156] Memory required for data: 2221417440
I0818 15:27:48.142720 17010 layer_factory.hpp:77] Creating layer resx11_conv1_relu
I0818 15:27:48.142727 17010 net.cpp:91] Creating Layer resx11_conv1_relu
I0818 15:27:48.142731 17010 net.cpp:469] resx11_conv1_relu <- resx11_conv1
I0818 15:27:48.142735 17010 net.cpp:430] resx11_conv1_relu -> resx11_conv1 (in-place)
I0818 15:27:48.143091 17010 net.cpp:141] Setting up resx11_conv1_relu
I0818 15:27:48.143105 17010 net.cpp:148] Top shape: 40 120 14 14 (940800)
I0818 15:27:48.143110 17010 net.cpp:156] Memory required for data: 2225180640
I0818 15:27:48.143112 17010 layer_factory.hpp:77] Creating layer shuffle11
I0818 15:27:48.143118 17010 net.cpp:91] Creating Layer shuffle11
I0818 15:27:48.143122 17010 net.cpp:469] shuffle11 <- resx11_conv1
I0818 15:27:48.143131 17010 net.cpp:443] shuffle11 -> shuffle11
I0818 15:27:48.143169 17010 net.cpp:141] Setting up shuffle11
I0818 15:27:48.143177 17010 net.cpp:148] Top shape: 40 120 14 14 (940800)
I0818 15:27:48.143179 17010 net.cpp:156] Memory required for data: 2228943840
I0818 15:27:48.143182 17010 layer_factory.hpp:77] Creating layer resx11_conv2
I0818 15:27:48.143190 17010 net.cpp:91] Creating Layer resx11_conv2
I0818 15:27:48.143194 17010 net.cpp:469] resx11_conv2 <- shuffle11
I0818 15:27:48.143199 17010 net.cpp:443] resx11_conv2 -> resx11_conv2
I0818 15:27:48.143352 17010 net.cpp:141] Setting up resx11_conv2
I0818 15:27:48.143362 17010 net.cpp:148] Top shape: 40 120 14 14 (940800)
I0818 15:27:48.143364 17010 net.cpp:156] Memory required for data: 2232707040
I0818 15:27:48.143369 17010 layer_factory.hpp:77] Creating layer resx11_conv2_bn
I0818 15:27:48.143378 17010 net.cpp:91] Creating Layer resx11_conv2_bn
I0818 15:27:48.143381 17010 net.cpp:469] resx11_conv2_bn <- resx11_conv2
I0818 15:27:48.143385 17010 net.cpp:430] resx11_conv2_bn -> resx11_conv2 (in-place)
I0818 15:27:48.143575 17010 net.cpp:141] Setting up resx11_conv2_bn
I0818 15:27:48.143582 17010 net.cpp:148] Top shape: 40 120 14 14 (940800)
I0818 15:27:48.143585 17010 net.cpp:156] Memory required for data: 2236470240
I0818 15:27:48.143592 17010 layer_factory.hpp:77] Creating layer resx11_conv2_scale
I0818 15:27:48.143599 17010 net.cpp:91] Creating Layer resx11_conv2_scale
I0818 15:27:48.143604 17010 net.cpp:469] resx11_conv2_scale <- resx11_conv2
I0818 15:27:48.143607 17010 net.cpp:430] resx11_conv2_scale -> resx11_conv2 (in-place)
I0818 15:27:48.143649 17010 layer_factory.hpp:77] Creating layer resx11_conv2_scale
I0818 15:27:48.143776 17010 net.cpp:141] Setting up resx11_conv2_scale
I0818 15:27:48.143784 17010 net.cpp:148] Top shape: 40 120 14 14 (940800)
I0818 15:27:48.143786 17010 net.cpp:156] Memory required for data: 2240233440
I0818 15:27:48.143792 17010 layer_factory.hpp:77] Creating layer resx11_conv3
I0818 15:27:48.143802 17010 net.cpp:91] Creating Layer resx11_conv3
I0818 15:27:48.143806 17010 net.cpp:469] resx11_conv3 <- resx11_conv2
I0818 15:27:48.143812 17010 net.cpp:443] resx11_conv3 -> resx11_conv3
I0818 15:27:48.146965 17010 net.cpp:141] Setting up resx11_conv3
I0818 15:27:48.146978 17010 net.cpp:148] Top shape: 40 480 14 14 (3763200)
I0818 15:27:48.146984 17010 net.cpp:156] Memory required for data: 2255286240
I0818 15:27:48.146989 17010 layer_factory.hpp:77] Creating layer resx11_conv3_bn
I0818 15:27:48.146996 17010 net.cpp:91] Creating Layer resx11_conv3_bn
I0818 15:27:48.147001 17010 net.cpp:469] resx11_conv3_bn <- resx11_conv3
I0818 15:27:48.147006 17010 net.cpp:430] resx11_conv3_bn -> resx11_conv3 (in-place)
I0818 15:27:48.147229 17010 net.cpp:141] Setting up resx11_conv3_bn
I0818 15:27:48.147238 17010 net.cpp:148] Top shape: 40 480 14 14 (3763200)
I0818 15:27:48.147240 17010 net.cpp:156] Memory required for data: 2270339040
I0818 15:27:48.147248 17010 layer_factory.hpp:77] Creating layer resx11_conv3_scale
I0818 15:27:48.147254 17010 net.cpp:91] Creating Layer resx11_conv3_scale
I0818 15:27:48.147258 17010 net.cpp:469] resx11_conv3_scale <- resx11_conv3
I0818 15:27:48.147264 17010 net.cpp:430] resx11_conv3_scale -> resx11_conv3 (in-place)
I0818 15:27:48.147320 17010 layer_factory.hpp:77] Creating layer resx11_conv3_scale
I0818 15:27:48.147451 17010 net.cpp:141] Setting up resx11_conv3_scale
I0818 15:27:48.147459 17010 net.cpp:148] Top shape: 40 480 14 14 (3763200)
I0818 15:27:48.147462 17010 net.cpp:156] Memory required for data: 2285391840
I0818 15:27:48.147469 17010 layer_factory.hpp:77] Creating layer resx11_elewise
I0818 15:27:48.147475 17010 net.cpp:91] Creating Layer resx11_elewise
I0818 15:27:48.147477 17010 net.cpp:469] resx11_elewise <- resx10_elewise_resx10_elewise_relu_0_split_1
I0818 15:27:48.147481 17010 net.cpp:469] resx11_elewise <- resx11_conv3
I0818 15:27:48.147488 17010 net.cpp:443] resx11_elewise -> resx11_elewise
I0818 15:27:48.147513 17010 net.cpp:141] Setting up resx11_elewise
I0818 15:27:48.147519 17010 net.cpp:148] Top shape: 40 480 14 14 (3763200)
I0818 15:27:48.147531 17010 net.cpp:156] Memory required for data: 2300444640
I0818 15:27:48.147534 17010 layer_factory.hpp:77] Creating layer resx11_elewise_relu
I0818 15:27:48.147539 17010 net.cpp:91] Creating Layer resx11_elewise_relu
I0818 15:27:48.147543 17010 net.cpp:469] resx11_elewise_relu <- resx11_elewise
I0818 15:27:48.147547 17010 net.cpp:430] resx11_elewise_relu -> resx11_elewise (in-place)
I0818 15:27:48.147910 17010 net.cpp:141] Setting up resx11_elewise_relu
I0818 15:27:48.147922 17010 net.cpp:148] Top shape: 40 480 14 14 (3763200)
I0818 15:27:48.147927 17010 net.cpp:156] Memory required for data: 2315497440
I0818 15:27:48.147930 17010 layer_factory.hpp:77] Creating layer resx11_elewise_resx11_elewise_relu_0_split
I0818 15:27:48.147938 17010 net.cpp:91] Creating Layer resx11_elewise_resx11_elewise_relu_0_split
I0818 15:27:48.147941 17010 net.cpp:469] resx11_elewise_resx11_elewise_relu_0_split <- resx11_elewise
I0818 15:27:48.147946 17010 net.cpp:443] resx11_elewise_resx11_elewise_relu_0_split -> resx11_elewise_resx11_elewise_relu_0_split_0
I0818 15:27:48.147954 17010 net.cpp:443] resx11_elewise_resx11_elewise_relu_0_split -> resx11_elewise_resx11_elewise_relu_0_split_1
I0818 15:27:48.147997 17010 net.cpp:141] Setting up resx11_elewise_resx11_elewise_relu_0_split
I0818 15:27:48.148005 17010 net.cpp:148] Top shape: 40 480 14 14 (3763200)
I0818 15:27:48.148007 17010 net.cpp:148] Top shape: 40 480 14 14 (3763200)
I0818 15:27:48.148010 17010 net.cpp:156] Memory required for data: 2345603040
I0818 15:27:48.148015 17010 layer_factory.hpp:77] Creating layer resx12_conv1
I0818 15:27:48.148023 17010 net.cpp:91] Creating Layer resx12_conv1
I0818 15:27:48.148028 17010 net.cpp:469] resx12_conv1 <- resx11_elewise_resx11_elewise_relu_0_split_0
I0818 15:27:48.148035 17010 net.cpp:443] resx12_conv1 -> resx12_conv1
I0818 15:27:48.151371 17010 net.cpp:141] Setting up resx12_conv1
I0818 15:27:48.151384 17010 net.cpp:148] Top shape: 40 120 14 14 (940800)
I0818 15:27:48.151388 17010 net.cpp:156] Memory required for data: 2349366240
I0818 15:27:48.151393 17010 layer_factory.hpp:77] Creating layer resx12_conv1_bn
I0818 15:27:48.151402 17010 net.cpp:91] Creating Layer resx12_conv1_bn
I0818 15:27:48.151407 17010 net.cpp:469] resx12_conv1_bn <- resx12_conv1
I0818 15:27:48.151412 17010 net.cpp:430] resx12_conv1_bn -> resx12_conv1 (in-place)
I0818 15:27:48.151604 17010 net.cpp:141] Setting up resx12_conv1_bn
I0818 15:27:48.151612 17010 net.cpp:148] Top shape: 40 120 14 14 (940800)
I0818 15:27:48.151615 17010 net.cpp:156] Memory required for data: 2353129440
I0818 15:27:48.151621 17010 layer_factory.hpp:77] Creating layer resx12_conv1_scale
I0818 15:27:48.151628 17010 net.cpp:91] Creating Layer resx12_conv1_scale
I0818 15:27:48.151631 17010 net.cpp:469] resx12_conv1_scale <- resx12_conv1
I0818 15:27:48.151636 17010 net.cpp:430] resx12_conv1_scale -> resx12_conv1 (in-place)
I0818 15:27:48.151681 17010 layer_factory.hpp:77] Creating layer resx12_conv1_scale
I0818 15:27:48.151796 17010 net.cpp:141] Setting up resx12_conv1_scale
I0818 15:27:48.151803 17010 net.cpp:148] Top shape: 40 120 14 14 (940800)
I0818 15:27:48.151806 17010 net.cpp:156] Memory required for data: 2356892640
I0818 15:27:48.151813 17010 layer_factory.hpp:77] Creating layer resx12_conv1_relu
I0818 15:27:48.151818 17010 net.cpp:91] Creating Layer resx12_conv1_relu
I0818 15:27:48.151821 17010 net.cpp:469] resx12_conv1_relu <- resx12_conv1
I0818 15:27:48.151825 17010 net.cpp:430] resx12_conv1_relu -> resx12_conv1 (in-place)
I0818 15:27:48.152191 17010 net.cpp:141] Setting up resx12_conv1_relu
I0818 15:27:48.152204 17010 net.cpp:148] Top shape: 40 120 14 14 (940800)
I0818 15:27:48.152207 17010 net.cpp:156] Memory required for data: 2360655840
I0818 15:27:48.152212 17010 layer_factory.hpp:77] Creating layer shuffle12
I0818 15:27:48.152220 17010 net.cpp:91] Creating Layer shuffle12
I0818 15:27:48.152225 17010 net.cpp:469] shuffle12 <- resx12_conv1
I0818 15:27:48.152231 17010 net.cpp:443] shuffle12 -> shuffle12
I0818 15:27:48.152266 17010 net.cpp:141] Setting up shuffle12
I0818 15:27:48.152278 17010 net.cpp:148] Top shape: 40 120 14 14 (940800)
I0818 15:27:48.152281 17010 net.cpp:156] Memory required for data: 2364419040
I0818 15:27:48.152284 17010 layer_factory.hpp:77] Creating layer resx12_conv2
I0818 15:27:48.152293 17010 net.cpp:91] Creating Layer resx12_conv2
I0818 15:27:48.152297 17010 net.cpp:469] resx12_conv2 <- shuffle12
I0818 15:27:48.152303 17010 net.cpp:443] resx12_conv2 -> resx12_conv2
I0818 15:27:48.152453 17010 net.cpp:141] Setting up resx12_conv2
I0818 15:27:48.152463 17010 net.cpp:148] Top shape: 40 120 14 14 (940800)
I0818 15:27:48.152467 17010 net.cpp:156] Memory required for data: 2368182240
I0818 15:27:48.152472 17010 layer_factory.hpp:77] Creating layer resx12_conv2_bn
I0818 15:27:48.152479 17010 net.cpp:91] Creating Layer resx12_conv2_bn
I0818 15:27:48.152483 17010 net.cpp:469] resx12_conv2_bn <- resx12_conv2
I0818 15:27:48.152489 17010 net.cpp:430] resx12_conv2_bn -> resx12_conv2 (in-place)
I0818 15:27:48.152678 17010 net.cpp:141] Setting up resx12_conv2_bn
I0818 15:27:48.152684 17010 net.cpp:148] Top shape: 40 120 14 14 (940800)
I0818 15:27:48.152688 17010 net.cpp:156] Memory required for data: 2371945440
I0818 15:27:48.152693 17010 layer_factory.hpp:77] Creating layer resx12_conv2_scale
I0818 15:27:48.152701 17010 net.cpp:91] Creating Layer resx12_conv2_scale
I0818 15:27:48.152705 17010 net.cpp:469] resx12_conv2_scale <- resx12_conv2
I0818 15:27:48.152710 17010 net.cpp:430] resx12_conv2_scale -> resx12_conv2 (in-place)
I0818 15:27:48.152751 17010 layer_factory.hpp:77] Creating layer resx12_conv2_scale
I0818 15:27:48.152868 17010 net.cpp:141] Setting up resx12_conv2_scale
I0818 15:27:48.152875 17010 net.cpp:148] Top shape: 40 120 14 14 (940800)
I0818 15:27:48.152878 17010 net.cpp:156] Memory required for data: 2375708640
I0818 15:27:48.152884 17010 layer_factory.hpp:77] Creating layer resx12_conv3
I0818 15:27:48.152894 17010 net.cpp:91] Creating Layer resx12_conv3
I0818 15:27:48.152897 17010 net.cpp:469] resx12_conv3 <- resx12_conv2
I0818 15:27:48.152902 17010 net.cpp:443] resx12_conv3 -> resx12_conv3
I0818 15:27:48.156018 17010 net.cpp:141] Setting up resx12_conv3
I0818 15:27:48.156031 17010 net.cpp:148] Top shape: 40 480 14 14 (3763200)
I0818 15:27:48.156035 17010 net.cpp:156] Memory required for data: 2390761440
I0818 15:27:48.156040 17010 layer_factory.hpp:77] Creating layer resx12_conv3_bn
I0818 15:27:48.156049 17010 net.cpp:91] Creating Layer resx12_conv3_bn
I0818 15:27:48.156054 17010 net.cpp:469] resx12_conv3_bn <- resx12_conv3
I0818 15:27:48.156059 17010 net.cpp:430] resx12_conv3_bn -> resx12_conv3 (in-place)
I0818 15:27:48.156281 17010 net.cpp:141] Setting up resx12_conv3_bn
I0818 15:27:48.156288 17010 net.cpp:148] Top shape: 40 480 14 14 (3763200)
I0818 15:27:48.156291 17010 net.cpp:156] Memory required for data: 2405814240
I0818 15:27:48.156298 17010 layer_factory.hpp:77] Creating layer resx12_conv3_scale
I0818 15:27:48.156306 17010 net.cpp:91] Creating Layer resx12_conv3_scale
I0818 15:27:48.156311 17010 net.cpp:469] resx12_conv3_scale <- resx12_conv3
I0818 15:27:48.156316 17010 net.cpp:430] resx12_conv3_scale -> resx12_conv3 (in-place)
I0818 15:27:48.156371 17010 layer_factory.hpp:77] Creating layer resx12_conv3_scale
I0818 15:27:48.156507 17010 net.cpp:141] Setting up resx12_conv3_scale
I0818 15:27:48.156515 17010 net.cpp:148] Top shape: 40 480 14 14 (3763200)
I0818 15:27:48.156519 17010 net.cpp:156] Memory required for data: 2420867040
I0818 15:27:48.156524 17010 layer_factory.hpp:77] Creating layer resx12_elewise
I0818 15:27:48.156533 17010 net.cpp:91] Creating Layer resx12_elewise
I0818 15:27:48.156538 17010 net.cpp:469] resx12_elewise <- resx11_elewise_resx11_elewise_relu_0_split_1
I0818 15:27:48.156541 17010 net.cpp:469] resx12_elewise <- resx12_conv3
I0818 15:27:48.156545 17010 net.cpp:443] resx12_elewise -> resx12_elewise
I0818 15:27:48.156572 17010 net.cpp:141] Setting up resx12_elewise
I0818 15:27:48.156579 17010 net.cpp:148] Top shape: 40 480 14 14 (3763200)
I0818 15:27:48.156581 17010 net.cpp:156] Memory required for data: 2435919840
I0818 15:27:48.156594 17010 layer_factory.hpp:77] Creating layer resx12_elewise_relu
I0818 15:27:48.156600 17010 net.cpp:91] Creating Layer resx12_elewise_relu
I0818 15:27:48.156605 17010 net.cpp:469] resx12_elewise_relu <- resx12_elewise
I0818 15:27:48.156608 17010 net.cpp:430] resx12_elewise_relu -> resx12_elewise (in-place)
I0818 15:27:48.156976 17010 net.cpp:141] Setting up resx12_elewise_relu
I0818 15:27:48.156988 17010 net.cpp:148] Top shape: 40 480 14 14 (3763200)
I0818 15:27:48.156992 17010 net.cpp:156] Memory required for data: 2450972640
I0818 15:27:48.156996 17010 layer_factory.hpp:77] Creating layer resx12_elewise_resx12_elewise_relu_0_split
I0818 15:27:48.157001 17010 net.cpp:91] Creating Layer resx12_elewise_resx12_elewise_relu_0_split
I0818 15:27:48.157006 17010 net.cpp:469] resx12_elewise_resx12_elewise_relu_0_split <- resx12_elewise
I0818 15:27:48.157011 17010 net.cpp:443] resx12_elewise_resx12_elewise_relu_0_split -> resx12_elewise_resx12_elewise_relu_0_split_0
I0818 15:27:48.157018 17010 net.cpp:443] resx12_elewise_resx12_elewise_relu_0_split -> resx12_elewise_resx12_elewise_relu_0_split_1
I0818 15:27:48.157063 17010 net.cpp:141] Setting up resx12_elewise_resx12_elewise_relu_0_split
I0818 15:27:48.157069 17010 net.cpp:148] Top shape: 40 480 14 14 (3763200)
I0818 15:27:48.157073 17010 net.cpp:148] Top shape: 40 480 14 14 (3763200)
I0818 15:27:48.157088 17010 net.cpp:156] Memory required for data: 2481078240
I0818 15:27:48.157091 17010 layer_factory.hpp:77] Creating layer resx13_match_conv
I0818 15:27:48.157100 17010 net.cpp:91] Creating Layer resx13_match_conv
I0818 15:27:48.157104 17010 net.cpp:469] resx13_match_conv <- resx12_elewise_resx12_elewise_relu_0_split_0
I0818 15:27:48.157109 17010 net.cpp:443] resx13_match_conv -> resx13_match_conv
I0818 15:27:48.157315 17010 net.cpp:141] Setting up resx13_match_conv
I0818 15:27:48.157325 17010 net.cpp:148] Top shape: 40 480 7 7 (940800)
I0818 15:27:48.157330 17010 net.cpp:156] Memory required for data: 2484841440
I0818 15:27:48.157332 17010 layer_factory.hpp:77] Creating layer resx13_conv1
I0818 15:27:48.157341 17010 net.cpp:91] Creating Layer resx13_conv1
I0818 15:27:48.157346 17010 net.cpp:469] resx13_conv1 <- resx12_elewise_resx12_elewise_relu_0_split_1
I0818 15:27:48.157351 17010 net.cpp:443] resx13_conv1 -> resx13_conv1
I0818 15:27:48.160630 17010 net.cpp:141] Setting up resx13_conv1
I0818 15:27:48.160645 17010 net.cpp:148] Top shape: 40 120 14 14 (940800)
I0818 15:27:48.160648 17010 net.cpp:156] Memory required for data: 2488604640
I0818 15:27:48.160655 17010 layer_factory.hpp:77] Creating layer resx13_conv1_bn
I0818 15:27:48.160662 17010 net.cpp:91] Creating Layer resx13_conv1_bn
I0818 15:27:48.160666 17010 net.cpp:469] resx13_conv1_bn <- resx13_conv1
I0818 15:27:48.160672 17010 net.cpp:430] resx13_conv1_bn -> resx13_conv1 (in-place)
I0818 15:27:48.160873 17010 net.cpp:141] Setting up resx13_conv1_bn
I0818 15:27:48.160881 17010 net.cpp:148] Top shape: 40 120 14 14 (940800)
I0818 15:27:48.160884 17010 net.cpp:156] Memory required for data: 2492367840
I0818 15:27:48.160892 17010 layer_factory.hpp:77] Creating layer resx13_conv1_scale
I0818 15:27:48.160897 17010 net.cpp:91] Creating Layer resx13_conv1_scale
I0818 15:27:48.160902 17010 net.cpp:469] resx13_conv1_scale <- resx13_conv1
I0818 15:27:48.160907 17010 net.cpp:430] resx13_conv1_scale -> resx13_conv1 (in-place)
I0818 15:27:48.160948 17010 layer_factory.hpp:77] Creating layer resx13_conv1_scale
I0818 15:27:48.161067 17010 net.cpp:141] Setting up resx13_conv1_scale
I0818 15:27:48.161073 17010 net.cpp:148] Top shape: 40 120 14 14 (940800)
I0818 15:27:48.161082 17010 net.cpp:156] Memory required for data: 2496131040
I0818 15:27:48.161087 17010 layer_factory.hpp:77] Creating layer resx13_conv1_relu
I0818 15:27:48.161092 17010 net.cpp:91] Creating Layer resx13_conv1_relu
I0818 15:27:48.161097 17010 net.cpp:469] resx13_conv1_relu <- resx13_conv1
I0818 15:27:48.161101 17010 net.cpp:430] resx13_conv1_relu -> resx13_conv1 (in-place)
I0818 15:27:48.161285 17010 net.cpp:141] Setting up resx13_conv1_relu
I0818 15:27:48.161298 17010 net.cpp:148] Top shape: 40 120 14 14 (940800)
I0818 15:27:48.161306 17010 net.cpp:156] Memory required for data: 2499894240
I0818 15:27:48.161310 17010 layer_factory.hpp:77] Creating layer shuffle13
I0818 15:27:48.161316 17010 net.cpp:91] Creating Layer shuffle13
I0818 15:27:48.161320 17010 net.cpp:469] shuffle13 <- resx13_conv1
I0818 15:27:48.161326 17010 net.cpp:443] shuffle13 -> shuffle13
I0818 15:27:48.161362 17010 net.cpp:141] Setting up shuffle13
I0818 15:27:48.161368 17010 net.cpp:148] Top shape: 40 120 14 14 (940800)
I0818 15:27:48.161371 17010 net.cpp:156] Memory required for data: 2503657440
I0818 15:27:48.161376 17010 layer_factory.hpp:77] Creating layer resx13_conv2
I0818 15:27:48.161382 17010 net.cpp:91] Creating Layer resx13_conv2
I0818 15:27:48.161386 17010 net.cpp:469] resx13_conv2 <- shuffle13
I0818 15:27:48.161393 17010 net.cpp:443] resx13_conv2 -> resx13_conv2
I0818 15:27:48.161576 17010 net.cpp:141] Setting up resx13_conv2
I0818 15:27:48.161586 17010 net.cpp:148] Top shape: 40 120 7 7 (235200)
I0818 15:27:48.161590 17010 net.cpp:156] Memory required for data: 2504598240
I0818 15:27:48.161595 17010 layer_factory.hpp:77] Creating layer resx13_conv2_bn
I0818 15:27:48.161602 17010 net.cpp:91] Creating Layer resx13_conv2_bn
I0818 15:27:48.161607 17010 net.cpp:469] resx13_conv2_bn <- resx13_conv2
I0818 15:27:48.161612 17010 net.cpp:430] resx13_conv2_bn -> resx13_conv2 (in-place)
I0818 15:27:48.161818 17010 net.cpp:141] Setting up resx13_conv2_bn
I0818 15:27:48.161824 17010 net.cpp:148] Top shape: 40 120 7 7 (235200)
I0818 15:27:48.161828 17010 net.cpp:156] Memory required for data: 2505539040
I0818 15:27:48.161834 17010 layer_factory.hpp:77] Creating layer resx13_conv2_scale
I0818 15:27:48.161844 17010 net.cpp:91] Creating Layer resx13_conv2_scale
I0818 15:27:48.161849 17010 net.cpp:469] resx13_conv2_scale <- resx13_conv2
I0818 15:27:48.161852 17010 net.cpp:430] resx13_conv2_scale -> resx13_conv2 (in-place)
I0818 15:27:48.161895 17010 layer_factory.hpp:77] Creating layer resx13_conv2_scale
I0818 15:27:48.162010 17010 net.cpp:141] Setting up resx13_conv2_scale
I0818 15:27:48.162017 17010 net.cpp:148] Top shape: 40 120 7 7 (235200)
I0818 15:27:48.162021 17010 net.cpp:156] Memory required for data: 2506479840
I0818 15:27:48.162026 17010 layer_factory.hpp:77] Creating layer resx13_conv3
I0818 15:27:48.162037 17010 net.cpp:91] Creating Layer resx13_conv3
I0818 15:27:48.162041 17010 net.cpp:469] resx13_conv3 <- resx13_conv2
I0818 15:27:48.162046 17010 net.cpp:443] resx13_conv3 -> resx13_conv3
I0818 15:27:48.165383 17010 net.cpp:141] Setting up resx13_conv3
I0818 15:27:48.165397 17010 net.cpp:148] Top shape: 40 480 7 7 (940800)
I0818 15:27:48.165401 17010 net.cpp:156] Memory required for data: 2510243040
I0818 15:27:48.165406 17010 layer_factory.hpp:77] Creating layer resx13_conv3_bn
I0818 15:27:48.165415 17010 net.cpp:91] Creating Layer resx13_conv3_bn
I0818 15:27:48.165419 17010 net.cpp:469] resx13_conv3_bn <- resx13_conv3
I0818 15:27:48.165424 17010 net.cpp:430] resx13_conv3_bn -> resx13_conv3 (in-place)
I0818 15:27:48.165658 17010 net.cpp:141] Setting up resx13_conv3_bn
I0818 15:27:48.165665 17010 net.cpp:148] Top shape: 40 480 7 7 (940800)
I0818 15:27:48.165668 17010 net.cpp:156] Memory required for data: 2514006240
I0818 15:27:48.165675 17010 layer_factory.hpp:77] Creating layer resx13_conv3_scale
I0818 15:27:48.165681 17010 net.cpp:91] Creating Layer resx13_conv3_scale
I0818 15:27:48.165685 17010 net.cpp:469] resx13_conv3_scale <- resx13_conv3
I0818 15:27:48.165690 17010 net.cpp:430] resx13_conv3_scale -> resx13_conv3 (in-place)
I0818 15:27:48.165750 17010 layer_factory.hpp:77] Creating layer resx13_conv3_scale
I0818 15:27:48.165891 17010 net.cpp:141] Setting up resx13_conv3_scale
I0818 15:27:48.165899 17010 net.cpp:148] Top shape: 40 480 7 7 (940800)
I0818 15:27:48.165902 17010 net.cpp:156] Memory required for data: 2517769440
I0818 15:27:48.165907 17010 layer_factory.hpp:77] Creating layer resx13_concat
I0818 15:27:48.165913 17010 net.cpp:91] Creating Layer resx13_concat
I0818 15:27:48.165925 17010 net.cpp:469] resx13_concat <- resx13_match_conv
I0818 15:27:48.165933 17010 net.cpp:469] resx13_concat <- resx13_conv3
I0818 15:27:48.165938 17010 net.cpp:443] resx13_concat -> resx13_concat
I0818 15:27:48.165967 17010 net.cpp:141] Setting up resx13_concat
I0818 15:27:48.165973 17010 net.cpp:148] Top shape: 40 960 7 7 (1881600)
I0818 15:27:48.165977 17010 net.cpp:156] Memory required for data: 2525295840
I0818 15:27:48.165980 17010 layer_factory.hpp:77] Creating layer resx13_concat_relu
I0818 15:27:48.165987 17010 net.cpp:91] Creating Layer resx13_concat_relu
I0818 15:27:48.165990 17010 net.cpp:469] resx13_concat_relu <- resx13_concat
I0818 15:27:48.165995 17010 net.cpp:430] resx13_concat_relu -> resx13_concat (in-place)
I0818 15:27:48.166358 17010 net.cpp:141] Setting up resx13_concat_relu
I0818 15:27:48.166370 17010 net.cpp:148] Top shape: 40 960 7 7 (1881600)
I0818 15:27:48.166374 17010 net.cpp:156] Memory required for data: 2532822240
I0818 15:27:48.166378 17010 layer_factory.hpp:77] Creating layer resx13_concat_resx13_concat_relu_0_split
I0818 15:27:48.166384 17010 net.cpp:91] Creating Layer resx13_concat_resx13_concat_relu_0_split
I0818 15:27:48.166388 17010 net.cpp:469] resx13_concat_resx13_concat_relu_0_split <- resx13_concat
I0818 15:27:48.166395 17010 net.cpp:443] resx13_concat_resx13_concat_relu_0_split -> resx13_concat_resx13_concat_relu_0_split_0
I0818 15:27:48.166401 17010 net.cpp:443] resx13_concat_resx13_concat_relu_0_split -> resx13_concat_resx13_concat_relu_0_split_1
I0818 15:27:48.166447 17010 net.cpp:141] Setting up resx13_concat_resx13_concat_relu_0_split
I0818 15:27:48.166453 17010 net.cpp:148] Top shape: 40 960 7 7 (1881600)
I0818 15:27:48.166457 17010 net.cpp:148] Top shape: 40 960 7 7 (1881600)
I0818 15:27:48.166460 17010 net.cpp:156] Memory required for data: 2547875040
I0818 15:27:48.166463 17010 layer_factory.hpp:77] Creating layer resx14_conv1
I0818 15:27:48.166474 17010 net.cpp:91] Creating Layer resx14_conv1
I0818 15:27:48.166479 17010 net.cpp:469] resx14_conv1 <- resx13_concat_resx13_concat_relu_0_split_0
I0818 15:27:48.166484 17010 net.cpp:443] resx14_conv1 -> resx14_conv1
I0818 15:27:48.171095 17010 net.cpp:141] Setting up resx14_conv1
I0818 15:27:48.171110 17010 net.cpp:148] Top shape: 40 240 7 7 (470400)
I0818 15:27:48.171114 17010 net.cpp:156] Memory required for data: 2549756640
I0818 15:27:48.171119 17010 layer_factory.hpp:77] Creating layer resx14_conv1_bn
I0818 15:27:48.171128 17010 net.cpp:91] Creating Layer resx14_conv1_bn
I0818 15:27:48.171133 17010 net.cpp:469] resx14_conv1_bn <- resx14_conv1
I0818 15:27:48.171140 17010 net.cpp:430] resx14_conv1_bn -> resx14_conv1 (in-place)
I0818 15:27:48.171362 17010 net.cpp:141] Setting up resx14_conv1_bn
I0818 15:27:48.171370 17010 net.cpp:148] Top shape: 40 240 7 7 (470400)
I0818 15:27:48.171373 17010 net.cpp:156] Memory required for data: 2551638240
I0818 15:27:48.171380 17010 layer_factory.hpp:77] Creating layer resx14_conv1_scale
I0818 15:27:48.171387 17010 net.cpp:91] Creating Layer resx14_conv1_scale
I0818 15:27:48.171391 17010 net.cpp:469] resx14_conv1_scale <- resx14_conv1
I0818 15:27:48.171396 17010 net.cpp:430] resx14_conv1_scale -> resx14_conv1 (in-place)
I0818 15:27:48.171437 17010 layer_factory.hpp:77] Creating layer resx14_conv1_scale
I0818 15:27:48.171557 17010 net.cpp:141] Setting up resx14_conv1_scale
I0818 15:27:48.171564 17010 net.cpp:148] Top shape: 40 240 7 7 (470400)
I0818 15:27:48.171568 17010 net.cpp:156] Memory required for data: 2553519840
I0818 15:27:48.171574 17010 layer_factory.hpp:77] Creating layer resx14_conv1_relu
I0818 15:27:48.171581 17010 net.cpp:91] Creating Layer resx14_conv1_relu
I0818 15:27:48.171583 17010 net.cpp:469] resx14_conv1_relu <- resx14_conv1
I0818 15:27:48.171589 17010 net.cpp:430] resx14_conv1_relu -> resx14_conv1 (in-place)
I0818 15:27:48.171957 17010 net.cpp:141] Setting up resx14_conv1_relu
I0818 15:27:48.171969 17010 net.cpp:148] Top shape: 40 240 7 7 (470400)
I0818 15:27:48.171973 17010 net.cpp:156] Memory required for data: 2555401440
I0818 15:27:48.171980 17010 layer_factory.hpp:77] Creating layer shuffle14
I0818 15:27:48.171990 17010 net.cpp:91] Creating Layer shuffle14
I0818 15:27:48.171995 17010 net.cpp:469] shuffle14 <- resx14_conv1
I0818 15:27:48.172000 17010 net.cpp:443] shuffle14 -> shuffle14
I0818 15:27:48.172034 17010 net.cpp:141] Setting up shuffle14
I0818 15:27:48.172040 17010 net.cpp:148] Top shape: 40 240 7 7 (470400)
I0818 15:27:48.172044 17010 net.cpp:156] Memory required for data: 2557283040
I0818 15:27:48.172047 17010 layer_factory.hpp:77] Creating layer resx14_conv2
I0818 15:27:48.172053 17010 net.cpp:91] Creating Layer resx14_conv2
I0818 15:27:48.172057 17010 net.cpp:469] resx14_conv2 <- shuffle14
I0818 15:27:48.172063 17010 net.cpp:443] resx14_conv2 -> resx14_conv2
I0818 15:27:48.172266 17010 net.cpp:141] Setting up resx14_conv2
I0818 15:27:48.172276 17010 net.cpp:148] Top shape: 40 240 7 7 (470400)
I0818 15:27:48.172281 17010 net.cpp:156] Memory required for data: 2559164640
I0818 15:27:48.172286 17010 layer_factory.hpp:77] Creating layer resx14_conv2_bn
I0818 15:27:48.172292 17010 net.cpp:91] Creating Layer resx14_conv2_bn
I0818 15:27:48.172297 17010 net.cpp:469] resx14_conv2_bn <- resx14_conv2
I0818 15:27:48.172302 17010 net.cpp:430] resx14_conv2_bn -> resx14_conv2 (in-place)
I0818 15:27:48.172502 17010 net.cpp:141] Setting up resx14_conv2_bn
I0818 15:27:48.172508 17010 net.cpp:148] Top shape: 40 240 7 7 (470400)
I0818 15:27:48.172511 17010 net.cpp:156] Memory required for data: 2561046240
I0818 15:27:48.172518 17010 layer_factory.hpp:77] Creating layer resx14_conv2_scale
I0818 15:27:48.172524 17010 net.cpp:91] Creating Layer resx14_conv2_scale
I0818 15:27:48.172528 17010 net.cpp:469] resx14_conv2_scale <- resx14_conv2
I0818 15:27:48.172534 17010 net.cpp:430] resx14_conv2_scale -> resx14_conv2 (in-place)
I0818 15:27:48.172574 17010 layer_factory.hpp:77] Creating layer resx14_conv2_scale
I0818 15:27:48.172693 17010 net.cpp:141] Setting up resx14_conv2_scale
I0818 15:27:48.172700 17010 net.cpp:148] Top shape: 40 240 7 7 (470400)
I0818 15:27:48.172703 17010 net.cpp:156] Memory required for data: 2562927840
I0818 15:27:48.172709 17010 layer_factory.hpp:77] Creating layer resx14_conv3
I0818 15:27:48.172719 17010 net.cpp:91] Creating Layer resx14_conv3
I0818 15:27:48.172722 17010 net.cpp:469] resx14_conv3 <- resx14_conv2
I0818 15:27:48.172729 17010 net.cpp:443] resx14_conv3 -> resx14_conv3
I0818 15:27:48.177374 17010 net.cpp:141] Setting up resx14_conv3
I0818 15:27:48.177389 17010 net.cpp:148] Top shape: 40 960 7 7 (1881600)
I0818 15:27:48.177393 17010 net.cpp:156] Memory required for data: 2570454240
I0818 15:27:48.177398 17010 layer_factory.hpp:77] Creating layer resx14_conv3_bn
I0818 15:27:48.177407 17010 net.cpp:91] Creating Layer resx14_conv3_bn
I0818 15:27:48.177412 17010 net.cpp:469] resx14_conv3_bn <- resx14_conv3
I0818 15:27:48.177417 17010 net.cpp:430] resx14_conv3_bn -> resx14_conv3 (in-place)
I0818 15:27:48.177667 17010 net.cpp:141] Setting up resx14_conv3_bn
I0818 15:27:48.177675 17010 net.cpp:148] Top shape: 40 960 7 7 (1881600)
I0818 15:27:48.177680 17010 net.cpp:156] Memory required for data: 2577980640
I0818 15:27:48.177685 17010 layer_factory.hpp:77] Creating layer resx14_conv3_scale
I0818 15:27:48.177692 17010 net.cpp:91] Creating Layer resx14_conv3_scale
I0818 15:27:48.177696 17010 net.cpp:469] resx14_conv3_scale <- resx14_conv3
I0818 15:27:48.177702 17010 net.cpp:430] resx14_conv3_scale -> resx14_conv3 (in-place)
I0818 15:27:48.177765 17010 layer_factory.hpp:77] Creating layer resx14_conv3_scale
I0818 15:27:48.177911 17010 net.cpp:141] Setting up resx14_conv3_scale
I0818 15:27:48.177918 17010 net.cpp:148] Top shape: 40 960 7 7 (1881600)
I0818 15:27:48.177922 17010 net.cpp:156] Memory required for data: 2585507040
I0818 15:27:48.177963 17010 layer_factory.hpp:77] Creating layer resx14_elewise
I0818 15:27:48.177971 17010 net.cpp:91] Creating Layer resx14_elewise
I0818 15:27:48.177976 17010 net.cpp:469] resx14_elewise <- resx13_concat_resx13_concat_relu_0_split_1
I0818 15:27:48.177981 17010 net.cpp:469] resx14_elewise <- resx14_conv3
I0818 15:27:48.177991 17010 net.cpp:443] resx14_elewise -> resx14_elewise
I0818 15:27:48.178026 17010 net.cpp:141] Setting up resx14_elewise
I0818 15:27:48.178033 17010 net.cpp:148] Top shape: 40 960 7 7 (1881600)
I0818 15:27:48.178036 17010 net.cpp:156] Memory required for data: 2593033440
I0818 15:27:48.178041 17010 layer_factory.hpp:77] Creating layer resx14_elewise_relu
I0818 15:27:48.178048 17010 net.cpp:91] Creating Layer resx14_elewise_relu
I0818 15:27:48.178052 17010 net.cpp:469] resx14_elewise_relu <- resx14_elewise
I0818 15:27:48.178056 17010 net.cpp:430] resx14_elewise_relu -> resx14_elewise (in-place)
I0818 15:27:48.178431 17010 net.cpp:141] Setting up resx14_elewise_relu
I0818 15:27:48.178444 17010 net.cpp:148] Top shape: 40 960 7 7 (1881600)
I0818 15:27:48.178448 17010 net.cpp:156] Memory required for data: 2600559840
I0818 15:27:48.178452 17010 layer_factory.hpp:77] Creating layer resx14_elewise_resx14_elewise_relu_0_split
I0818 15:27:48.178457 17010 net.cpp:91] Creating Layer resx14_elewise_resx14_elewise_relu_0_split
I0818 15:27:48.178462 17010 net.cpp:469] resx14_elewise_resx14_elewise_relu_0_split <- resx14_elewise
I0818 15:27:48.178467 17010 net.cpp:443] resx14_elewise_resx14_elewise_relu_0_split -> resx14_elewise_resx14_elewise_relu_0_split_0
I0818 15:27:48.178472 17010 net.cpp:443] resx14_elewise_resx14_elewise_relu_0_split -> resx14_elewise_resx14_elewise_relu_0_split_1
I0818 15:27:48.178519 17010 net.cpp:141] Setting up resx14_elewise_resx14_elewise_relu_0_split
I0818 15:27:48.178526 17010 net.cpp:148] Top shape: 40 960 7 7 (1881600)
I0818 15:27:48.178530 17010 net.cpp:148] Top shape: 40 960 7 7 (1881600)
I0818 15:27:48.178534 17010 net.cpp:156] Memory required for data: 2615612640
I0818 15:27:48.178536 17010 layer_factory.hpp:77] Creating layer resx15_conv1
I0818 15:27:48.178545 17010 net.cpp:91] Creating Layer resx15_conv1
I0818 15:27:48.178550 17010 net.cpp:469] resx15_conv1 <- resx14_elewise_resx14_elewise_relu_0_split_0
I0818 15:27:48.178556 17010 net.cpp:443] resx15_conv1 -> resx15_conv1
I0818 15:27:48.183838 17010 net.cpp:141] Setting up resx15_conv1
I0818 15:27:48.183854 17010 net.cpp:148] Top shape: 40 240 7 7 (470400)
I0818 15:27:48.183858 17010 net.cpp:156] Memory required for data: 2617494240
I0818 15:27:48.183863 17010 layer_factory.hpp:77] Creating layer resx15_conv1_bn
I0818 15:27:48.183871 17010 net.cpp:91] Creating Layer resx15_conv1_bn
I0818 15:27:48.183876 17010 net.cpp:469] resx15_conv1_bn <- resx15_conv1
I0818 15:27:48.183886 17010 net.cpp:430] resx15_conv1_bn -> resx15_conv1 (in-place)
I0818 15:27:48.184103 17010 net.cpp:141] Setting up resx15_conv1_bn
I0818 15:27:48.184110 17010 net.cpp:148] Top shape: 40 240 7 7 (470400)
I0818 15:27:48.184113 17010 net.cpp:156] Memory required for data: 2619375840
I0818 15:27:48.184120 17010 layer_factory.hpp:77] Creating layer resx15_conv1_scale
I0818 15:27:48.184126 17010 net.cpp:91] Creating Layer resx15_conv1_scale
I0818 15:27:48.184130 17010 net.cpp:469] resx15_conv1_scale <- resx15_conv1
I0818 15:27:48.184137 17010 net.cpp:430] resx15_conv1_scale -> resx15_conv1 (in-place)
I0818 15:27:48.184180 17010 layer_factory.hpp:77] Creating layer resx15_conv1_scale
I0818 15:27:48.184305 17010 net.cpp:141] Setting up resx15_conv1_scale
I0818 15:27:48.184314 17010 net.cpp:148] Top shape: 40 240 7 7 (470400)
I0818 15:27:48.184316 17010 net.cpp:156] Memory required for data: 2621257440
I0818 15:27:48.184322 17010 layer_factory.hpp:77] Creating layer resx15_conv1_relu
I0818 15:27:48.184329 17010 net.cpp:91] Creating Layer resx15_conv1_relu
I0818 15:27:48.184331 17010 net.cpp:469] resx15_conv1_relu <- resx15_conv1
I0818 15:27:48.184337 17010 net.cpp:430] resx15_conv1_relu -> resx15_conv1 (in-place)
I0818 15:27:48.184731 17010 net.cpp:141] Setting up resx15_conv1_relu
I0818 15:27:48.184742 17010 net.cpp:148] Top shape: 40 240 7 7 (470400)
I0818 15:27:48.184746 17010 net.cpp:156] Memory required for data: 2623139040
I0818 15:27:48.184749 17010 layer_factory.hpp:77] Creating layer shuffle15
I0818 15:27:48.184756 17010 net.cpp:91] Creating Layer shuffle15
I0818 15:27:48.184764 17010 net.cpp:469] shuffle15 <- resx15_conv1
I0818 15:27:48.184775 17010 net.cpp:443] shuffle15 -> shuffle15
I0818 15:27:48.184808 17010 net.cpp:141] Setting up shuffle15
I0818 15:27:48.184814 17010 net.cpp:148] Top shape: 40 240 7 7 (470400)
I0818 15:27:48.184818 17010 net.cpp:156] Memory required for data: 2625020640
I0818 15:27:48.184823 17010 layer_factory.hpp:77] Creating layer resx15_conv2
I0818 15:27:48.184830 17010 net.cpp:91] Creating Layer resx15_conv2
I0818 15:27:48.184834 17010 net.cpp:469] resx15_conv2 <- shuffle15
I0818 15:27:48.184841 17010 net.cpp:443] resx15_conv2 -> resx15_conv2
I0818 15:27:48.185046 17010 net.cpp:141] Setting up resx15_conv2
I0818 15:27:48.185056 17010 net.cpp:148] Top shape: 40 240 7 7 (470400)
I0818 15:27:48.185060 17010 net.cpp:156] Memory required for data: 2626902240
I0818 15:27:48.185065 17010 layer_factory.hpp:77] Creating layer resx15_conv2_bn
I0818 15:27:48.185072 17010 net.cpp:91] Creating Layer resx15_conv2_bn
I0818 15:27:48.185081 17010 net.cpp:469] resx15_conv2_bn <- resx15_conv2
I0818 15:27:48.185086 17010 net.cpp:430] resx15_conv2_bn -> resx15_conv2 (in-place)
I0818 15:27:48.185292 17010 net.cpp:141] Setting up resx15_conv2_bn
I0818 15:27:48.185300 17010 net.cpp:148] Top shape: 40 240 7 7 (470400)
I0818 15:27:48.185303 17010 net.cpp:156] Memory required for data: 2628783840
I0818 15:27:48.185309 17010 layer_factory.hpp:77] Creating layer resx15_conv2_scale
I0818 15:27:48.185317 17010 net.cpp:91] Creating Layer resx15_conv2_scale
I0818 15:27:48.185320 17010 net.cpp:469] resx15_conv2_scale <- resx15_conv2
I0818 15:27:48.185324 17010 net.cpp:430] resx15_conv2_scale -> resx15_conv2 (in-place)
I0818 15:27:48.185369 17010 layer_factory.hpp:77] Creating layer resx15_conv2_scale
I0818 15:27:48.185487 17010 net.cpp:141] Setting up resx15_conv2_scale
I0818 15:27:48.185497 17010 net.cpp:148] Top shape: 40 240 7 7 (470400)
I0818 15:27:48.185499 17010 net.cpp:156] Memory required for data: 2630665440
I0818 15:27:48.185505 17010 layer_factory.hpp:77] Creating layer resx15_conv3
I0818 15:27:48.185513 17010 net.cpp:91] Creating Layer resx15_conv3
I0818 15:27:48.185516 17010 net.cpp:469] resx15_conv3 <- resx15_conv2
I0818 15:27:48.185523 17010 net.cpp:443] resx15_conv3 -> resx15_conv3
I0818 15:27:48.190287 17010 net.cpp:141] Setting up resx15_conv3
I0818 15:27:48.190301 17010 net.cpp:148] Top shape: 40 960 7 7 (1881600)
I0818 15:27:48.190305 17010 net.cpp:156] Memory required for data: 2638191840
I0818 15:27:48.190310 17010 layer_factory.hpp:77] Creating layer resx15_conv3_bn
I0818 15:27:48.190320 17010 net.cpp:91] Creating Layer resx15_conv3_bn
I0818 15:27:48.190325 17010 net.cpp:469] resx15_conv3_bn <- resx15_conv3
I0818 15:27:48.190330 17010 net.cpp:430] resx15_conv3_bn -> resx15_conv3 (in-place)
I0818 15:27:48.190567 17010 net.cpp:141] Setting up resx15_conv3_bn
I0818 15:27:48.190575 17010 net.cpp:148] Top shape: 40 960 7 7 (1881600)
I0818 15:27:48.190578 17010 net.cpp:156] Memory required for data: 2645718240
I0818 15:27:48.190585 17010 layer_factory.hpp:77] Creating layer resx15_conv3_scale
I0818 15:27:48.190592 17010 net.cpp:91] Creating Layer resx15_conv3_scale
I0818 15:27:48.190595 17010 net.cpp:469] resx15_conv3_scale <- resx15_conv3
I0818 15:27:48.190600 17010 net.cpp:430] resx15_conv3_scale -> resx15_conv3 (in-place)
I0818 15:27:48.190660 17010 layer_factory.hpp:77] Creating layer resx15_conv3_scale
I0818 15:27:48.190806 17010 net.cpp:141] Setting up resx15_conv3_scale
I0818 15:27:48.190816 17010 net.cpp:148] Top shape: 40 960 7 7 (1881600)
I0818 15:27:48.190819 17010 net.cpp:156] Memory required for data: 2653244640
I0818 15:27:48.190824 17010 layer_factory.hpp:77] Creating layer resx15_elewise
I0818 15:27:48.190830 17010 net.cpp:91] Creating Layer resx15_elewise
I0818 15:27:48.190834 17010 net.cpp:469] resx15_elewise <- resx14_elewise_resx14_elewise_relu_0_split_1
I0818 15:27:48.190838 17010 net.cpp:469] resx15_elewise <- resx15_conv3
I0818 15:27:48.190843 17010 net.cpp:443] resx15_elewise -> resx15_elewise
I0818 15:27:48.190876 17010 net.cpp:141] Setting up resx15_elewise
I0818 15:27:48.190888 17010 net.cpp:148] Top shape: 40 960 7 7 (1881600)
I0818 15:27:48.190891 17010 net.cpp:156] Memory required for data: 2660771040
I0818 15:27:48.190896 17010 layer_factory.hpp:77] Creating layer resx15_elewise_relu
I0818 15:27:48.190901 17010 net.cpp:91] Creating Layer resx15_elewise_relu
I0818 15:27:48.190906 17010 net.cpp:469] resx15_elewise_relu <- resx15_elewise
I0818 15:27:48.190909 17010 net.cpp:430] resx15_elewise_relu -> resx15_elewise (in-place)
I0818 15:27:48.191284 17010 net.cpp:141] Setting up resx15_elewise_relu
I0818 15:27:48.191296 17010 net.cpp:148] Top shape: 40 960 7 7 (1881600)
I0818 15:27:48.191300 17010 net.cpp:156] Memory required for data: 2668297440
I0818 15:27:48.191303 17010 layer_factory.hpp:77] Creating layer resx15_elewise_resx15_elewise_relu_0_split
I0818 15:27:48.191309 17010 net.cpp:91] Creating Layer resx15_elewise_resx15_elewise_relu_0_split
I0818 15:27:48.191313 17010 net.cpp:469] resx15_elewise_resx15_elewise_relu_0_split <- resx15_elewise
I0818 15:27:48.191320 17010 net.cpp:443] resx15_elewise_resx15_elewise_relu_0_split -> resx15_elewise_resx15_elewise_relu_0_split_0
I0818 15:27:48.191326 17010 net.cpp:443] resx15_elewise_resx15_elewise_relu_0_split -> resx15_elewise_resx15_elewise_relu_0_split_1
I0818 15:27:48.191373 17010 net.cpp:141] Setting up resx15_elewise_resx15_elewise_relu_0_split
I0818 15:27:48.191382 17010 net.cpp:148] Top shape: 40 960 7 7 (1881600)
I0818 15:27:48.191386 17010 net.cpp:148] Top shape: 40 960 7 7 (1881600)
I0818 15:27:48.191390 17010 net.cpp:156] Memory required for data: 2683350240
I0818 15:27:48.191392 17010 layer_factory.hpp:77] Creating layer resx16_conv1
I0818 15:27:48.191401 17010 net.cpp:91] Creating Layer resx16_conv1
I0818 15:27:48.191406 17010 net.cpp:469] resx16_conv1 <- resx15_elewise_resx15_elewise_relu_0_split_0
I0818 15:27:48.191411 17010 net.cpp:443] resx16_conv1 -> resx16_conv1
I0818 15:27:48.195951 17010 net.cpp:141] Setting up resx16_conv1
I0818 15:27:48.195966 17010 net.cpp:148] Top shape: 40 240 7 7 (470400)
I0818 15:27:48.195969 17010 net.cpp:156] Memory required for data: 2685231840
I0818 15:27:48.195974 17010 layer_factory.hpp:77] Creating layer resx16_conv1_bn
I0818 15:27:48.195982 17010 net.cpp:91] Creating Layer resx16_conv1_bn
I0818 15:27:48.195987 17010 net.cpp:469] resx16_conv1_bn <- resx16_conv1
I0818 15:27:48.195993 17010 net.cpp:430] resx16_conv1_bn -> resx16_conv1 (in-place)
I0818 15:27:48.196202 17010 net.cpp:141] Setting up resx16_conv1_bn
I0818 15:27:48.196208 17010 net.cpp:148] Top shape: 40 240 7 7 (470400)
I0818 15:27:48.196211 17010 net.cpp:156] Memory required for data: 2687113440
I0818 15:27:48.196219 17010 layer_factory.hpp:77] Creating layer resx16_conv1_scale
I0818 15:27:48.196228 17010 net.cpp:91] Creating Layer resx16_conv1_scale
I0818 15:27:48.196231 17010 net.cpp:469] resx16_conv1_scale <- resx16_conv1
I0818 15:27:48.196235 17010 net.cpp:430] resx16_conv1_scale -> resx16_conv1 (in-place)
I0818 15:27:48.196279 17010 layer_factory.hpp:77] Creating layer resx16_conv1_scale
I0818 15:27:48.196403 17010 net.cpp:141] Setting up resx16_conv1_scale
I0818 15:27:48.196411 17010 net.cpp:148] Top shape: 40 240 7 7 (470400)
I0818 15:27:48.196414 17010 net.cpp:156] Memory required for data: 2688995040
I0818 15:27:48.196419 17010 layer_factory.hpp:77] Creating layer resx16_conv1_relu
I0818 15:27:48.196425 17010 net.cpp:91] Creating Layer resx16_conv1_relu
I0818 15:27:48.196429 17010 net.cpp:469] resx16_conv1_relu <- resx16_conv1
I0818 15:27:48.196434 17010 net.cpp:430] resx16_conv1_relu -> resx16_conv1 (in-place)
I0818 15:27:48.196805 17010 net.cpp:141] Setting up resx16_conv1_relu
I0818 15:27:48.196817 17010 net.cpp:148] Top shape: 40 240 7 7 (470400)
I0818 15:27:48.196821 17010 net.cpp:156] Memory required for data: 2690876640
I0818 15:27:48.196826 17010 layer_factory.hpp:77] Creating layer shuffle16
I0818 15:27:48.196832 17010 net.cpp:91] Creating Layer shuffle16
I0818 15:27:48.196835 17010 net.cpp:469] shuffle16 <- resx16_conv1
I0818 15:27:48.196842 17010 net.cpp:443] shuffle16 -> shuffle16
I0818 15:27:48.196884 17010 net.cpp:141] Setting up shuffle16
I0818 15:27:48.196893 17010 net.cpp:148] Top shape: 40 240 7 7 (470400)
I0818 15:27:48.196897 17010 net.cpp:156] Memory required for data: 2692758240
I0818 15:27:48.196899 17010 layer_factory.hpp:77] Creating layer resx16_conv2
I0818 15:27:48.196907 17010 net.cpp:91] Creating Layer resx16_conv2
I0818 15:27:48.196909 17010 net.cpp:469] resx16_conv2 <- shuffle16
I0818 15:27:48.196918 17010 net.cpp:443] resx16_conv2 -> resx16_conv2
I0818 15:27:48.197120 17010 net.cpp:141] Setting up resx16_conv2
I0818 15:27:48.197131 17010 net.cpp:148] Top shape: 40 240 7 7 (470400)
I0818 15:27:48.197134 17010 net.cpp:156] Memory required for data: 2694639840
I0818 15:27:48.197139 17010 layer_factory.hpp:77] Creating layer resx16_conv2_bn
I0818 15:27:48.197146 17010 net.cpp:91] Creating Layer resx16_conv2_bn
I0818 15:27:48.197150 17010 net.cpp:469] resx16_conv2_bn <- resx16_conv2
I0818 15:27:48.197156 17010 net.cpp:430] resx16_conv2_bn -> resx16_conv2 (in-place)
I0818 15:27:48.197360 17010 net.cpp:141] Setting up resx16_conv2_bn
I0818 15:27:48.197366 17010 net.cpp:148] Top shape: 40 240 7 7 (470400)
I0818 15:27:48.197369 17010 net.cpp:156] Memory required for data: 2696521440
I0818 15:27:48.197376 17010 layer_factory.hpp:77] Creating layer resx16_conv2_scale
I0818 15:27:48.197382 17010 net.cpp:91] Creating Layer resx16_conv2_scale
I0818 15:27:48.197386 17010 net.cpp:469] resx16_conv2_scale <- resx16_conv2
I0818 15:27:48.197391 17010 net.cpp:430] resx16_conv2_scale -> resx16_conv2 (in-place)
I0818 15:27:48.197432 17010 layer_factory.hpp:77] Creating layer resx16_conv2_scale
I0818 15:27:48.197554 17010 net.cpp:141] Setting up resx16_conv2_scale
I0818 15:27:48.197561 17010 net.cpp:148] Top shape: 40 240 7 7 (470400)
I0818 15:27:48.197564 17010 net.cpp:156] Memory required for data: 2698403040
I0818 15:27:48.197569 17010 layer_factory.hpp:77] Creating layer resx16_conv3
I0818 15:27:48.197579 17010 net.cpp:91] Creating Layer resx16_conv3
I0818 15:27:48.197583 17010 net.cpp:469] resx16_conv3 <- resx16_conv2
I0818 15:27:48.197590 17010 net.cpp:443] resx16_conv3 -> resx16_conv3
I0818 15:27:48.202858 17010 net.cpp:141] Setting up resx16_conv3
I0818 15:27:48.202874 17010 net.cpp:148] Top shape: 40 960 7 7 (1881600)
I0818 15:27:48.202878 17010 net.cpp:156] Memory required for data: 2705929440
I0818 15:27:48.202884 17010 layer_factory.hpp:77] Creating layer resx16_conv3_bn
I0818 15:27:48.202891 17010 net.cpp:91] Creating Layer resx16_conv3_bn
I0818 15:27:48.202895 17010 net.cpp:469] resx16_conv3_bn <- resx16_conv3
I0818 15:27:48.202901 17010 net.cpp:430] resx16_conv3_bn -> resx16_conv3 (in-place)
I0818 15:27:48.203150 17010 net.cpp:141] Setting up resx16_conv3_bn
I0818 15:27:48.203157 17010 net.cpp:148] Top shape: 40 960 7 7 (1881600)
I0818 15:27:48.203161 17010 net.cpp:156] Memory required for data: 2713455840
I0818 15:27:48.203167 17010 layer_factory.hpp:77] Creating layer resx16_conv3_scale
I0818 15:27:48.203173 17010 net.cpp:91] Creating Layer resx16_conv3_scale
I0818 15:27:48.203177 17010 net.cpp:469] resx16_conv3_scale <- resx16_conv3
I0818 15:27:48.203183 17010 net.cpp:430] resx16_conv3_scale -> resx16_conv3 (in-place)
I0818 15:27:48.203243 17010 layer_factory.hpp:77] Creating layer resx16_conv3_scale
I0818 15:27:48.203393 17010 net.cpp:141] Setting up resx16_conv3_scale
I0818 15:27:48.203402 17010 net.cpp:148] Top shape: 40 960 7 7 (1881600)
I0818 15:27:48.203404 17010 net.cpp:156] Memory required for data: 2720982240
I0818 15:27:48.203410 17010 layer_factory.hpp:77] Creating layer resx16_elewise
I0818 15:27:48.203418 17010 net.cpp:91] Creating Layer resx16_elewise
I0818 15:27:48.203421 17010 net.cpp:469] resx16_elewise <- resx15_elewise_resx15_elewise_relu_0_split_1
I0818 15:27:48.203425 17010 net.cpp:469] resx16_elewise <- resx16_conv3
I0818 15:27:48.203431 17010 net.cpp:443] resx16_elewise -> resx16_elewise
I0818 15:27:48.203462 17010 net.cpp:141] Setting up resx16_elewise
I0818 15:27:48.203469 17010 net.cpp:148] Top shape: 40 960 7 7 (1881600)
I0818 15:27:48.203475 17010 net.cpp:156] Memory required for data: 2728508640
I0818 15:27:48.203483 17010 layer_factory.hpp:77] Creating layer resx16_elewise_relu
I0818 15:27:48.203490 17010 net.cpp:91] Creating Layer resx16_elewise_relu
I0818 15:27:48.203493 17010 net.cpp:469] resx16_elewise_relu <- resx16_elewise
I0818 15:27:48.203497 17010 net.cpp:430] resx16_elewise_relu -> resx16_elewise (in-place)
I0818 15:27:48.203877 17010 net.cpp:141] Setting up resx16_elewise_relu
I0818 15:27:48.203889 17010 net.cpp:148] Top shape: 40 960 7 7 (1881600)
I0818 15:27:48.203893 17010 net.cpp:156] Memory required for data: 2736035040
I0818 15:27:48.203897 17010 layer_factory.hpp:77] Creating layer pool_ave
I0818 15:27:48.203905 17010 net.cpp:91] Creating Layer pool_ave
I0818 15:27:48.203910 17010 net.cpp:469] pool_ave <- resx16_elewise
I0818 15:27:48.203917 17010 net.cpp:443] pool_ave -> pool_ave
I0818 15:27:48.204126 17010 net.cpp:141] Setting up pool_ave
I0818 15:27:48.204136 17010 net.cpp:148] Top shape: 40 960 1 1 (38400)
I0818 15:27:48.204139 17010 net.cpp:156] Memory required for data: 2736188640
I0818 15:27:48.204144 17010 layer_factory.hpp:77] Creating layer fc1000
I0818 15:27:48.204154 17010 net.cpp:91] Creating Layer fc1000
I0818 15:27:48.204157 17010 net.cpp:469] fc1000 <- pool_ave
I0818 15:27:48.204164 17010 net.cpp:443] fc1000 -> fc1000
I0818 15:27:48.230095 17010 net.cpp:141] Setting up fc1000
I0818 15:27:48.230132 17010 net.cpp:148] Top shape: 40 1000 1 1 (40000)
I0818 15:27:48.230136 17010 net.cpp:156] Memory required for data: 2736348640
I0818 15:27:48.230145 17010 layer_factory.hpp:77] Creating layer fc1000_fc1000_0_split
I0818 15:27:48.230154 17010 net.cpp:91] Creating Layer fc1000_fc1000_0_split
I0818 15:27:48.230159 17010 net.cpp:469] fc1000_fc1000_0_split <- fc1000
I0818 15:27:48.230168 17010 net.cpp:443] fc1000_fc1000_0_split -> fc1000_fc1000_0_split_0
I0818 15:27:48.230177 17010 net.cpp:443] fc1000_fc1000_0_split -> fc1000_fc1000_0_split_1
I0818 15:27:48.230224 17010 net.cpp:141] Setting up fc1000_fc1000_0_split
I0818 15:27:48.230231 17010 net.cpp:148] Top shape: 40 1000 1 1 (40000)
I0818 15:27:48.230234 17010 net.cpp:148] Top shape: 40 1000 1 1 (40000)
I0818 15:27:48.230237 17010 net.cpp:156] Memory required for data: 2736668640
I0818 15:27:48.230243 17010 layer_factory.hpp:77] Creating layer accuracy
I0818 15:27:48.241291 17010 net.cpp:91] Creating Layer accuracy
I0818 15:27:48.241313 17010 net.cpp:469] accuracy <- fc1000_fc1000_0_split_0
I0818 15:27:48.241327 17010 net.cpp:469] accuracy <- label_data_1_split_0
I0818 15:27:48.241343 17010 net.cpp:443] accuracy -> accuracy
…
