…
I0813 21:10:37.979812 23709 net.cpp:313] The NetState phase (0) differed from the phase (1) specified by a rule in layer loss3/top-5
I0813 21:10:37.980679 23709 net.cpp:49] Initializing net from parameters: 
name: "GoogleNet"
state {
  phase: TRAIN
}
layer {
  name: "data"
  type: "Data"
  top: "data"
  top: "label"
  include {
    phase: TRAIN
  }
  transform_param {
    mirror: true
    crop_size: 224
    mean_value: 104
    mean_value: 117
    mean_value: 123
  }
  data_param {
    source: "/home/chenyao/ilsvrc12/ilsvrc12_train_lmdb"
    batch_size: 32
    backend: LMDB
  }
}
layer {
  name: "conv1/7x7_s2"
  type: "Convolution"
  bottom: "data"
  top: "conv1/7x7_s2"
  param {
    lr_mult: 1
    decay_mult: 1
  }
  param {
    lr_mult: 2
    decay_mult: 0
  }
  convolution_param {
    num_output: 64
    pad: 3
    kernel_size: 7
    stride: 2
    weight_filler {
      type: "xavier"
    }
    bias_filler {
      type: "constant"
      value: 0.2
    }
  }
}
layer {
  name: "conv1/relu_7x7"
  type: "ReLU"
  bottom: "conv1/7x7_s2"
  top: "conv1/7x7_s2"
}
layer {
  name: "pool1/3x3_s2"
  type: "Pooling"
  bottom: "conv1/7x7_s2"
  top: "pool1/3x3_s2"
  pooling_param {
    pool: MAX
    kernel_size: 3
    stride: 2
  }
}
layer {
  name: "pool1/norm1"
  type: "LRN"
  bottom: "pool1/3x3_s2"
  top: "pool1/norm1"
  lrn_param {
    local_size: 5
    alpha: 0.0001
    beta: 0.75
  }
}
layer {
  name: "conv2/3x3_reduce"
  type: "Convolution"
  bottom: "pool1/norm1"
  top: "conv2/3x3_reduce"
  param {
    lr_mult: 1
    decay_mult: 1
  }
  param {
    lr_mult: 2
    decay_mult: 0
  }
  convolution_param {
    num_output: 64
    kernel_size: 1
    weight_filler {
      type: "xavier"
    }
    bias_filler {
      type: "constant"
      value: 0.2
    }
  }
}
layer {
  name: "conv2/relu_3x3_reduce"
  type: "ReLU"
  bottom: "conv2/3x3_reduce"
  top: "conv2/3x3_reduce"
}
layer {
  name: "conv2/3x3"
  type: "Convolution"
  bottom: "conv2/3x3_reduce"
  top: "conv2/3x3"
  param {
    lr_mult: 1
    decay_mult: 1
  }
  param {
    lr_mult: 2
    decay_mult: 0
  }
  convolution_param {
    num_output: 192
    pad: 1
    kernel_size: 3
    weight_filler {
      type: "xavier"
    }
    bias_filler {
      type: "constant"
      value: 0.2
    }
  }
}
layer {
  name: "conv2/relu_3x3"
  type: "ReLU"
  bottom: "conv2/3x3"
  top: "conv2/3x3"
}
layer {
  name: "conv2/norm2"
  type: "LRN"
  bottom: "conv2/3x3"
  top: "conv2/norm2"
  lrn_param {
    local_size: 5
    alpha: 0.0001
    beta: 0.75
  }
}
layer {
  name: "pool2/3x3_s2"
  type: "Pooling"
  bottom: "conv2/norm2"
  top: "pool2/3x3_s2"
  pooling_param {
    pool: MAX
    kernel_size: 3
    stride: 2
  }
}
layer {
  name: "inception_3a/1x1"
  type: "Convolution"
  bottom: "pool2/3x3_s2"
  top: "inception_3a/1x1"
  param {
    lr_mult: 1
    decay_mult: 1
  }
  param {
    lr_mult: 2
    decay_mult: 0
  }
  convolution_param {
    num_output: 64
    kernel_size: 1
    weight_filler {
      type: "xavier"
    }
    bias_filler {
      type: "constant"
      value: 0.2
    }
  }
}
layer {
  name: "inception_3a/relu_1x1"
  type: "ReLU"
  bottom: "inception_3a/1x1"
  top: "inception_3a/1x1"
}
layer {
  name: "inception_3a/3x3_reduce"
  type: "Convolution"
  bottom: "pool2/3x3_s2"
  top: "inception_3a/3x3_reduce"
  param {
    lr_mult: 1
    decay_mult: 1
  }
  param {
    lr_mult: 2
    decay_mult: 0
  }
  convolution_param {
    num_output: 96
    kernel_size: 1
    weight_filler {
      type: "xavier"
    }
    bias_filler {
      type: "constant"
      value: 0.2
    }
  }
}
layer {
  name: "inception_3a/relu_3x3_reduce"
  type: "ReLU"
  bottom: "inception_3a/3x3_reduce"
  top: "inception_3a/3x3_reduce"
}
layer {
  name: "inception_3a/3x3"
  type: "Convolution"
  bottom: "inception_3a/3x3_reduce"
  top: "inception_3a/3x3"
  param {
    lr_mult: 1
    decay_mult: 1
  }
  param {
    lr_mult: 2
    decay_mult: 0
  }
  convolution_param {
    num_output: 128
    pad: 1
    kernel_size: 3
    weight_filler {
      type: "xavier"
    }
    bias_filler {
      type: "constant"
      value: 0.2
    }
  }
}
layer {
  name: "inception_3a/relu_3x3"
  type: "ReLU"
  bottom: "inception_3a/3x3"
  top: "inception_3a/3x3"
}
layer {
  name: "inception_3a/5x5_reduce"
  type: "Convolution"
  bottom: "pool2/3x3_s2"
  top: "inception_3a/5x5_reduce"
  param {
    lr_mult: 1
    decay_mult: 1
  }
  param {
    lr_mult: 2
    decay_mult: 0
  }
  convolution_param {
    num_output: 16
    kernel_size: 1
    weight_filler {
      type: "xavier"
    }
    bias_filler {
      type: "constant"
      value: 0.2
    }
  }
}
layer {
  name: "inception_3a/relu_5x5_reduce"
  type: "ReLU"
  bottom: "inception_3a/5x5_reduce"
  top: "inception_3a/5x5_reduce"
}
layer {
  name: "inception_3a/5x5"
  type: "Convolution"
  bottom: "inception_3a/5x5_reduce"
  top: "inception_3a/5x5"
  param {
    lr_mult: 1
    decay_mult: 1
  }
  param {
    lr_mult: 2
    decay_mult: 0
  }
  convolution_param {
    num_output: 32
    pad: 2
    kernel_size: 5
    weight_filler {
      type: "xavier"
    }
    bias_filler {
      type: "constant"
      value: 0.2
    }
  }
}
layer {
  name: "inception_3a/relu_5x5"
  type: "ReLU"
  bottom: "inception_3a/5x5"
  top: "inception_3a/5x5"
}
layer {
  name: "inception_3a/pool"
  type: "Pooling"
  bottom: "pool2/3x3_s2"
  top: "inception_3a/pool"
  pooling_param {
    pool: MAX
    kernel_size: 3
    stride: 1
    pad: 1
  }
}
layer {
  name: "inception_3a/pool_proj"
  type: "Convolution"
  bottom: "inception_3a/pool"
  top: "inception_3a/pool_proj"
  param {
    lr_mult: 1
    decay_mult: 1
  }
  param {
    lr_mult: 2
    decay_mult: 0
  }
  convolution_param {
    num_output: 32
    kernel_size: 1
    weight_filler {
      type: "xavier"
    }
    bias_filler {
      type: "constant"
      value: 0.2
    }
  }
}
layer {
  name: "inception_3a/relu_pool_proj"
  type: "ReLU"
  bottom: "inception_3a/pool_proj"
  top: "inception_3a/pool_proj"
}
layer {
  name: "inception_3a/output"
  type: "Concat"
  bottom: "inception_3a/1x1"
  bottom: "inception_3a/3x3"
  bottom: "inception_3a/5x5"
  bottom: "inception_3a/pool_proj"
  top: "inception_3a/output"
}
layer {
  name: "inception_3b/1x1"
  type: "Convolution"
  bottom: "inception_3a/output"
  top: "inception_3b/1x1"
  param {
    lr_mult: 1
    decay_mult: 1
  }
  param {
    lr_mult: 2
    decay_mult: 0
  }
  convolution_param {
    num_output: 128
    kernel_size: 1
    weight_filler {
      type: "xavier"
    }
    bias_filler {
      type: "constant"
      value: 0.2
    }
  }
}
layer {
  name: "inception_3b/relu_1x1"
  type: "ReLU"
  bottom: "inception_3b/1x1"
  top: "inception_3b/1x1"
}
layer {
  name: "inception_3b/3x3_reduce"
  type: "Convolution"
  bottom: "inception_3a/output"
  top: "inception_3b/3x3_reduce"
  param {
    lr_mult: 1
    decay_mult: 1
  }
  param {
    lr_mult: 2
    decay_mult: 0
  }
  convolution_param {
    num_output: 128
    kernel_size: 1
    weight_filler {
      type: "xavier"
    }
    bias_filler {
      type: "constant"
      value: 0.2
    }
  }
}
layer {
  name: "inception_3b/relu_3x3_reduce"
  type: "ReLU"
  bottom: "inception_3b/3x3_reduce"
  top: "inception_3b/3x3_reduce"
}
layer {
  name: "inception_3b/3x3"
  type: "Convolution"
  bottom: "inception_3b/3x3_reduce"
  top: "inception_3b/3x3"
  param {
    lr_mult: 1
    decay_mult: 1
  }
  param {
    lr_mult: 2
    decay_mult: 0
  }
  convolution_param {
    num_output: 192
    pad: 1
    kernel_size: 3
    weight_filler {
      type: "xavier"
    }
    bias_filler {
      type: "constant"
      value: 0.2
    }
  }
}
layer {
  name: "inception_3b/relu_3x3"
  type: "ReLU"
  bottom: "inception_3b/3x3"
  top: "inception_3b/3x3"
}
layer {
  name: "inception_3b/5x5_reduce"
  type: "Convolution"
  bottom: "inception_3a/output"
  top: "inception_3b/5x5_reduce"
  param {
    lr_mult: 1
    decay_mult: 1
  }
  param {
    lr_mult: 2
    decay_mult: 0
  }
  convolution_param {
    num_output: 32
    kernel_size: 1
    weight_filler {
      type: "xavier"
    }
    bias_filler {
      type: "constant"
      value: 0.2
    }
  }
}
layer {
  name: "inception_3b/relu_5x5_reduce"
  type: "ReLU"
  bottom: "inception_3b/5x5_reduce"
  top: "inception_3b/5x5_reduce"
}
layer {
  name: "inception_3b/5x5"
  type: "Convolution"
  bottom: "inception_3b/5x5_reduce"
  top: "inception_3b/5x5"
  param {
    lr_mult: 1
    decay_mult: 1
  }
  param {
    lr_mult: 2
    decay_mult: 0
  }
  convolution_param {
    num_output: 96
    pad: 2
    kernel_size: 5
    weight_filler {
      type: "xavier"
    }
    bias_filler {
      type: "constant"
      value: 0.2
    }
  }
}
layer {
  name: "inception_3b/relu_5x5"
  type: "ReLU"
  bottom: "inception_3b/5x5"
  top: "inception_3b/5x5"
}
layer {
  name: "inception_3b/pool"
  type: "Pooling"
  bottom: "inception_3a/output"
  top: "inception_3b/pool"
  pooling_param {
    pool: MAX
    kernel_size: 3
    stride: 1
    pad: 1
  }
}
layer {
  name: "inception_3b/pool_proj"
  type: "Convolution"
  bottom: "inception_3b/pool"
  top: "inception_3b/pool_proj"
  param {
    lr_mult: 1
    decay_mult: 1
  }
  param {
    lr_mult: 2
    decay_mult: 0
  }
  convolution_param {
    num_output: 64
    kernel_size: 1
    weight_filler {
      type: "xavier"
    }
    bias_filler {
      type: "constant"
      value: 0.2
    }
  }
}
layer {
  name: "inception_3b/relu_pool_proj"
  type: "ReLU"
  bottom: "inception_3b/pool_proj"
  top: "inception_3b/pool_proj"
}
layer {
  name: "inception_3b/output"
  type: "Concat"
  bottom: "inception_3b/1x1"
  bottom: "inception_3b/3x3"
  bottom: "inception_3b/5x5"
  bottom: "inception_3b/pool_proj"
  top: "inception_3b/output"
}
layer {
  name: "pool3/3x3_s2"
  type: "Pooling"
  bottom: "inception_3b/output"
  top: "pool3/3x3_s2"
  pooling_param {
    pool: MAX
    kernel_size: 3
    stride: 2
  }
}
layer {
  name: "inception_4a/1x1"
  type: "Convolution"
  bottom: "pool3/3x3_s2"
  top: "inception_4a/1x1"
  param {
    lr_mult: 1
    decay_mult: 1
  }
  param {
    lr_mult: 2
    decay_mult: 0
  }
  convolution_param {
    num_output: 192
    kernel_size: 1
    weight_filler {
      type: "xavier"
    }
    bias_filler {
      type: "constant"
      value: 0.2
    }
  }
}
layer {
  name: "inception_4a/relu_1x1"
  type: "ReLU"
  bottom: "inception_4a/1x1"
  top: "inception_4a/1x1"
}
layer {
  name: "inception_4a/3x3_reduce"
  type: "Convolution"
  bottom: "pool3/3x3_s2"
  top: "inception_4a/3x3_reduce"
  param {
    lr_mult: 1
    decay_mult: 1
  }
  param {
    lr_mult: 2
    decay_mult: 0
  }
  convolution_param {
    num_output: 96
    kernel_size: 1
    weight_filler {
      type: "xavier"
    }
    bias_filler {
      type: "constant"
      value: 0.2
    }
  }
}
layer {
  name: "inception_4a/relu_3x3_reduce"
  type: "ReLU"
  bottom: "inception_4a/3x3_reduce"
  top: "inception_4a/3x3_reduce"
}
layer {
  name: "inception_4a/3x3"
  type: "Convolution"
  bottom: "inception_4a/3x3_reduce"
  top: "inception_4a/3x3"
  param {
    lr_mult: 1
    decay_mult: 1
  }
  param {
    lr_mult: 2
    decay_mult: 0
  }
  convolution_param {
    num_output: 208
    pad: 1
    kernel_size: 3
    weight_filler {
      type: "xavier"
    }
    bias_filler {
      type: "constant"
      value: 0.2
    }
  }
}
layer {
  name: "inception_4a/relu_3x3"
  type: "ReLU"
  bottom: "inception_4a/3x3"
  top: "inception_4a/3x3"
}
layer {
  name: "inception_4a/5x5_reduce"
  type: "Convolution"
  bottom: "pool3/3x3_s2"
  top: "inception_4a/5x5_reduce"
  param {
    lr_mult: 1
    decay_mult: 1
  }
  param {
    lr_mult: 2
    decay_mult: 0
  }
  convolution_param {
    num_output: 16
    kernel_size: 1
    weight_filler {
      type: "xavier"
    }
    bias_filler {
      type: "constant"
      value: 0.2
    }
  }
}
layer {
  name: "inception_4a/relu_5x5_reduce"
  type: "ReLU"
  bottom: "inception_4a/5x5_reduce"
  top: "inception_4a/5x5_reduce"
}
layer {
  name: "inception_4a/5x5"
  type: "Convolution"
  bottom: "inception_4a/5x5_reduce"
  top: "inception_4a/5x5"
  param {
    lr_mult: 1
    decay_mult: 1
  }
  param {
    lr_mult: 2
    decay_mult: 0
  }
  convolution_param {
    num_output: 48
    pad: 2
    kernel_size: 5
    weight_filler {
      type: "xavier"
    }
    bias_filler {
      type: "constant"
      value: 0.2
    }
  }
}
layer {
  name: "inception_4a/relu_5x5"
  type: "ReLU"
  bottom: "inception_4a/5x5"
  top: "inception_4a/5x5"
}
layer {
  name: "inception_4a/pool"
  type: "Pooling"
  bottom: "pool3/3x3_s2"
  top: "inception_4a/pool"
  pooling_param {
    pool: MAX
    kernel_size: 3
    stride: 1
    pad: 1
  }
}
layer {
  name: "inception_4a/pool_proj"
  type: "Convolution"
  bottom: "inception_4a/pool"
  top: "inception_4a/pool_proj"
  param {
    lr_mult: 1
    decay_mult: 1
  }
  param {
    lr_mult: 2
    decay_mult: 0
  }
  convolution_param {
    num_output: 64
    kernel_size: 1
    weight_filler {
      type: "xavier"
    }
    bias_filler {
      type: "constant"
      value: 0.2
    }
  }
}
layer {
  name: "inception_4a/relu_pool_proj"
  type: "ReLU"
  bottom: "inception_4a/pool_proj"
  top: "inception_4a/pool_proj"
}
layer {
  name: "inception_4a/output"
  type: "Concat"
  bottom: "inception_4a/1x1"
  bottom: "inception_4a/3x3"
  bottom: "inception_4a/5x5"
  bottom: "inception_4a/pool_proj"
  top: "inception_4a/output"
}
layer {
  name: "loss1/ave_pool"
  type: "Pooling"
  bottom: "inception_4a/output"
  top: "loss1/ave_pool"
  pooling_param {
    pool: AVE
    kernel_size: 5
    stride: 3
  }
}
layer {
  name: "loss1/conv"
  type: "Convolution"
  bottom: "loss1/ave_pool"
  top: "loss1/conv"
  param {
    lr_mult: 1
    decay_mult: 1
  }
  param {
    lr_mult: 2
    decay_mult: 0
  }
  convolution_param {
    num_output: 128
    kernel_size: 1
    weight_filler {
      type: "xavier"
    }
    bias_filler {
      type: "constant"
      value: 0.2
    }
  }
}
layer {
  name: "loss1/relu_conv"
  type: "ReLU"
  bottom: "loss1/conv"
  top: "loss1/conv"
}
layer {
  name: "loss1/fc"
  type: "InnerProduct"
  bottom: "loss1/conv"
  top: "loss1/fc"
  param {
    lr_mult: 1
    decay_mult: 1
  }
  param {
    lr_mult: 2
    decay_mult: 0
  }
  inner_product_param {
    num_output: 1024
    weight_filler {
      type: "xavier"
    }
    bias_filler {
      type: "constant"
      value: 0.2
    }
  }
}
layer {
  name: "loss1/relu_fc"
  type: "ReLU"
  bottom: "loss1/fc"
  top: "loss1/fc"
}
layer {
  name: "loss1/drop_fc"
  type: "Dropout"
  bottom: "loss1/fc"
  top: "loss1/fc"
  dropout_param {
    dropout_ratio: 0.7
  }
}
layer {
  name: "loss1/classifier"
  type: "InnerProduct"
  bottom: "loss1/fc"
  top: "loss1/classifier"
  param {
    lr_mult: 1
    decay_mult: 1
  }
  param {
    lr_mult: 2
    decay_mult: 0
  }
  inner_product_param {
    num_output: 1000
    weight_filler {
      type: "xavier"
    }
    bias_filler {
      type: "constant"
      value: 0
    }
  }
}
layer {
  name: "loss1/loss"
  type: "SoftmaxWithLoss"
  bottom: "loss1/classifier"
  bottom: "label"
  top: "loss1/loss1"
  loss_weight: 0.3
}
layer {
  name: "inception_4b/1x1"
  type: "Convolution"
  bottom: "inception_4a/output"
  top: "inception_4b/1x1"
  param {
    lr_mult: 1
    decay_mult: 1
  }
  param {
    lr_mult: 2
    decay_mult: 0
  }
  convolution_param {
    num_output: 160
    kernel_size: 1
    weight_filler {
      type: "xavier"
    }
    bias_filler {
      type: "constant"
      value: 0.2
    }
  }
}
layer {
  name: "inception_4b/relu_1x1"
  type: "ReLU"
  bottom: "inception_4b/1x1"
  top: "inception_4b/1x1"
}
layer {
  name: "inception_4b/3x3_reduce"
  type: "Convolution"
  bottom: "inception_4a/output"
  top: "inception_4b/3x3_reduce"
  param {
    lr_mult: 1
    decay_mult: 1
  }
  param {
    lr_mult: 2
    decay_mult: 0
  }
  convolution_param {
    num_output: 112
    kernel_size: 1
    weight_filler {
      type: "xavier"
    }
    bias_filler {
      type: "constant"
      value: 0.2
    }
  }
}
layer {
  name: "inception_4b/relu_3x3_reduce"
  type: "ReLU"
  bottom: "inception_4b/3x3_reduce"
  top: "inception_4b/3x3_reduce"
}
layer {
  name: "inception_4b/3x3"
  type: "Convolution"
  bottom: "inception_4b/3x3_reduce"
  top: "inception_4b/3x3"
  param {
    lr_mult: 1
    decay_mult: 1
  }
  param {
    lr_mult: 2
    decay_mult: 0
  }
  convolution_param {
    num_output: 224
    pad: 1
    kernel_size: 3
    weight_filler {
      type: "xavier"
    }
    bias_filler {
      type: "constant"
      value: 0.2
    }
  }
}
layer {
  name: "inception_4b/relu_3x3"
  type: "ReLU"
  bottom: "inception_4b/3x3"
  top: "inception_4b/3x3"
}
layer {
  name: "inception_4b/5x5_reduce"
  type: "Convolution"
  bottom: "inception_4a/output"
  top: "inception_4b/5x5_reduce"
  param {
    lr_mult: 1
    decay_mult: 1
  }
  param {
    lr_mult: 2
    decay_mult: 0
  }
  convolution_param {
    num_output: 24
    kernel_size: 1
    weight_filler {
      type: "xavier"
    }
    bias_filler {
      type: "constant"
      value: 0.2
    }
  }
}
layer {
  name: "inception_4b/relu_5x5_reduce"
  type: "ReLU"
  bottom: "inception_4b/5x5_reduce"
  top: "inception_4b/5x5_reduce"
}
layer {
  name: "inception_4b/5x5"
  type: "Convolution"
  bottom: "inception_4b/5x5_reduce"
  top: "inception_4b/5x5"
  param {
    lr_mult: 1
    decay_mult: 1
  }
  param {
    lr_mult: 2
    decay_mult: 0
  }
  convolution_param {
    num_output: 64
    pad: 2
    kernel_size: 5
    weight_filler {
      type: "xavier"
    }
    bias_filler {
      type: "constant"
      value: 0.2
    }
  }
}
layer {
  name: "inception_4b/relu_5x5"
  type: "ReLU"
  bottom: "inception_4b/5x5"
  top: "inception_4b/5x5"
}
layer {
  name: "inception_4b/pool"
  type: "Pooling"
  bottom: "inception_4a/output"
  top: "inception_4b/pool"
  pooling_param {
    pool: MAX
    kernel_size: 3
    stride: 1
    pad: 1
  }
}
layer {
  name: "inception_4b/pool_proj"
  type: "Convolution"
  bottom: "inception_4b/pool"
  top: "inception_4b/pool_proj"
  param {
    lr_mult: 1
    decay_mult: 1
  }
  param {
    lr_mult: 2
    decay_mult: 0
  }
  convolution_param {
    num_output: 64
    kernel_size: 1
    weight_filler {
      type: "xavier"
    }
    bias_filler {
      type: "constant"
      value: 0.2
    }
  }
}
layer {
  name: "inception_4b/relu_pool_proj"
  type: "ReLU"
  bottom: "inception_4b/pool_proj"
  top: "inception_4b/pool_proj"
}
layer {
  name: "inception_4b/output"
  type: "Concat"
  bottom: "inception_4b/1x1"
  bottom: "inception_4b/3x3"
  bottom: "inception_4b/5x5"
  bottom: "inception_4b/pool_proj"
  top: "inception_4b/output"
}
layer {
  name: "inception_4c/1x1"
  type: "Convolution"
  bottom: "inception_4b/output"
  top: "inception_4c/1x1"
  param {
    lr_mult: 1
    decay_mult: 1
  }
  param {
    lr_mult: 2
    decay_mult: 0
  }
  convolution_param {
    num_output: 128
    kernel_size: 1
    weight_filler {
      type: "xavier"
    }
    bias_filler {
      type: "constant"
      value: 0.2
    }
  }
}
layer {
  name: "inception_4c/relu_1x1"
  type: "ReLU"
  bottom: "inception_4c/1x1"
  top: "inception_4c/1x1"
}
layer {
  name: "inception_4c/3x3_reduce"
  type: "Convolution"
  bottom: "inception_4b/output"
  top: "inception_4c/3x3_reduce"
  param {
    lr_mult: 1
    decay_mult: 1
  }
  param {
    lr_mult: 2
    decay_mult: 0
  }
  convolution_param {
    num_output: 128
    kernel_size: 1
    weight_filler {
      type: "xavier"
    }
    bias_filler {
      type: "constant"
      value: 0.2
    }
  }
}
layer {
  name: "inception_4c/relu_3x3_reduce"
  type: "ReLU"
  bottom: "inception_4c/3x3_reduce"
  top: "inception_4c/3x3_reduce"
}
layer {
  name: "inception_4c/3x3"
  type: "Convolution"
  bottom: "inception_4c/3x3_reduce"
  top: "inception_4c/3x3"
  param {
    lr_mult: 1
    decay_mult: 1
  }
  param {
    lr_mult: 2
    decay_mult: 0
  }
  convolution_param {
    num_output: 256
    pad: 1
    kernel_size: 3
    weight_filler {
      type: "xavier"
    }
    bias_filler {
      type: "constant"
      value: 0.2
    }
  }
}
layer {
  name: "inception_4c/relu_3x3"
  type: "ReLU"
  bottom: "inception_4c/3x3"
  top: "inception_4c/3x3"
}
layer {
  name: "inception_4c/5x5_reduce"
  type: "Convolution"
  bottom: "inception_4b/output"
  top: "inception_4c/5x5_reduce"
  param {
    lr_mult: 1
    decay_mult: 1
  }
  param {
    lr_mult: 2
    decay_mult: 0
  }
  convolution_param {
    num_output: 24
    kernel_size: 1
    weight_filler {
      type: "xavier"
    }
    bias_filler {
      type: "constant"
      value: 0.2
    }
  }
}
layer {
  name: "inception_4c/relu_5x5_reduce"
  type: "ReLU"
  bottom: "inception_4c/5x5_reduce"
  top: "inception_4c/5x5_reduce"
}
layer {
  name: "inception_4c/5x5"
  type: "Convolution"
  bottom: "inception_4c/5x5_reduce"
  top: "inception_4c/5x5"
  param {
    lr_mult: 1
    decay_mult: 1
  }
  param {
    lr_mult: 2
    decay_mult: 0
  }
  convolution_param {
    num_output: 64
    pad: 2
    kernel_size: 5
    weight_filler {
      type: "xavier"
    }
    bias_filler {
      type: "constant"
      value: 0.2
    }
  }
}
layer {
  name: "inception_4c/relu_5x5"
  type: "ReLU"
  bottom: "inception_4c/5x5"
  top: "inception_4c/5x5"
}
layer {
  name: "inception_4c/pool"
  type: "Pooling"
  bottom: "inception_4b/output"
  top: "inception_4c/pool"
  pooling_param {
    pool: MAX
    kernel_size: 3
    stride: 1
    pad: 1
  }
}
layer {
  name: "inception_4c/pool_proj"
  type: "Convolution"
  bottom: "inception_4c/pool"
  top: "inception_4c/pool_proj"
  param {
    lr_mult: 1
    decay_mult: 1
  }
  param {
    lr_mult: 2
    decay_mult: 0
  }
  convolution_param {
    num_output: 64
    kernel_size: 1
    weight_filler {
      type: "xavier"
    }
    bias_filler {
      type: "constant"
      value: 0.2
    }
  }
}
layer {
  name: "inception_4c/relu_pool_proj"
  type: "ReLU"
  bottom: "inception_4c/pool_proj"
  top: "inception_4c/pool_proj"
}
layer {
  name: "inception_4c/output"
  type: "Concat"
  bottom: "inception_4c/1x1"
  bottom: "inception_4c/3x3"
  bottom: "inception_4c/5x5"
  bottom: "inception_4c/pool_proj"
  top: "inception_4c/output"
}
layer {
  name: "inception_4d/1x1"
  type: "Convolution"
  bottom: "inception_4c/output"
  top: "inception_4d/1x1"
  param {
    lr_mult: 1
    decay_mult: 1
  }
  param {
    lr_mult: 2
    decay_mult: 0
  }
  convolution_param {
    num_output: 112
    kernel_size: 1
    weight_filler {
      type: "xavier"
    }
    bias_filler {
      type: "constant"
      value: 0.2
    }
  }
}
layer {
  name: "inception_4d/relu_1x1"
  type: "ReLU"
  bottom: "inception_4d/1x1"
  top: "inception_4d/1x1"
}
layer {
  name: "inception_4d/3x3_reduce"
  type: "Convolution"
  bottom: "inception_4c/output"
  top: "inception_4d/3x3_reduce"
  param {
    lr_mult: 1
    decay_mult: 1
  }
  param {
    lr_mult: 2
    decay_mult: 0
  }
  convolution_param {
    num_output: 144
    kernel_size: 1
    weight_filler {
      type: "xavier"
    }
    bias_filler {
      type: "constant"
      value: 0.2
    }
  }
}
layer {
  name: "inception_4d/relu_3x3_reduce"
  type: "ReLU"
  bottom: "inception_4d/3x3_reduce"
  top: "inception_4d/3x3_reduce"
}
layer {
  name: "inception_4d/3x3"
  type: "Convolution"
  bottom: "inception_4d/3x3_reduce"
  top: "inception_4d/3x3"
  param {
    lr_mult: 1
    decay_mult: 1
  }
  param {
    lr_mult: 2
    decay_mult: 0
  }
  convolution_param {
    num_output: 288
    pad: 1
    kernel_size: 3
    weight_filler {
      type: "xavier"
    }
    bias_filler {
      type: "constant"
      value: 0.2
    }
  }
}
layer {
  name: "inception_4d/relu_3x3"
  type: "ReLU"
  bottom: "inception_4d/3x3"
  top: "inception_4d/3x3"
}
layer {
  name: "inception_4d/5x5_reduce"
  type: "Convolution"
  bottom: "inception_4c/output"
  top: "inception_4d/5x5_reduce"
  param {
    lr_mult: 1
    decay_mult: 1
  }
  param {
    lr_mult: 2
    decay_mult: 0
  }
  convolution_param {
    num_output: 32
    kernel_size: 1
    weight_filler {
      type: "xavier"
    }
    bias_filler {
      type: "constant"
      value: 0.2
    }
  }
}
layer {
  name: "inception_4d/relu_5x5_reduce"
  type: "ReLU"
  bottom: "inception_4d/5x5_reduce"
  top: "inception_4d/5x5_reduce"
}
layer {
  name: "inception_4d/5x5"
  type: "Convolution"
  bottom: "inception_4d/5x5_reduce"
  top: "inception_4d/5x5"
  param {
    lr_mult: 1
    decay_mult: 1
  }
  param {
    lr_mult: 2
    decay_mult: 0
  }
  convolution_param {
    num_output: 64
    pad: 2
    kernel_size: 5
    weight_filler {
      type: "xavier"
    }
    bias_filler {
      type: "constant"
      value: 0.2
    }
  }
}
layer {
  name: "inception_4d/relu_5x5"
  type: "ReLU"
  bottom: "inception_4d/5x5"
  top: "inception_4d/5x5"
}
layer {
  name: "inception_4d/pool"
  type: "Pooling"
  bottom: "inception_4c/output"
  top: "inception_4d/pool"
  pooling_param {
    pool: MAX
    kernel_size: 3
    stride: 1
    pad: 1
  }
}
layer {
  name: "inception_4d/pool_proj"
  type: "Convolution"
  bottom: "inception_4d/pool"
  top: "inception_4d/pool_proj"
  param {
    lr_mult: 1
    decay_mult: 1
  }
  param {
    lr_mult: 2
    decay_mult: 0
  }
  convolution_param {
    num_output: 64
    kernel_size: 1
    weight_filler {
      type: "xavier"
    }
    bias_filler {
      type: "constant"
      value: 0.2
    }
  }
}
layer {
  name: "inception_4d/relu_pool_proj"
  type: "ReLU"
  bottom: "inception_4d/pool_proj"
  top: "inception_4d/pool_proj"
}
layer {
  name: "inception_4d/output"
  type: "Concat"
  bottom: "inception_4d/1x1"
  bottom: "inception_4d/3x3"
  bottom: "inception_4d/5x5"
  bottom: "inception_4d/pool_proj"
  top: "inception_4d/output"
}
layer {
  name: "loss2/ave_pool"
  type: "Pooling"
  bottom: "inception_4d/output"
  top: "loss2/ave_pool"
  pooling_param {
    pool: AVE
    kernel_size: 5
    stride: 3
  }
}
layer {
  name: "loss2/conv"
  type: "Convolution"
  bottom: "loss2/ave_pool"
  top: "loss2/conv"
  param {
    lr_mult: 1
    decay_mult: 1
  }
  param {
    lr_mult: 2
    decay_mult: 0
  }
  convolution_param {
    num_output: 128
    kernel_size: 1
    weight_filler {
      type: "xavier"
    }
    bias_filler {
      type: "constant"
      value: 0.2
    }
  }
}
layer {
  name: "loss2/relu_conv"
  type: "ReLU"
  bottom: "loss2/conv"
  top: "loss2/conv"
}
layer {
  name: "loss2/fc"
  type: "InnerProduct"
  bottom: "loss2/conv"
  top: "loss2/fc"
  param {
    lr_mult: 1
    decay_mult: 1
  }
  param {
    lr_mult: 2
    decay_mult: 0
  }
  inner_product_param {
    num_output: 1024
    weight_filler {
      type: "xavier"
    }
    bias_filler {
      type: "constant"
      value: 0.2
    }
  }
}
layer {
  name: "loss2/relu_fc"
  type: "ReLU"
  bottom: "loss2/fc"
  top: "loss2/fc"
}
layer {
  name: "loss2/drop_fc"
  type: "Dropout"
  bottom: "loss2/fc"
  top: "loss2/fc"
  dropout_param {
    dropout_ratio: 0.7
  }
}
layer {
  name: "loss2/classifier"
  type: "InnerProduct"
  bottom: "loss2/fc"
  top: "loss2/classifier"
  param {
    lr_mult: 1
    decay_mult: 1
  }
  param {
    lr_mult: 2
    decay_mult: 0
  }
  inner_product_param {
    num_output: 1000
    weight_filler {
      type: "xavier"
    }
    bias_filler {
      type: "constant"
      value: 0
    }
  }
}
layer {
  name: "loss2/loss"
  type: "SoftmaxWithLoss"
  bottom: "loss2/classifier"
  bottom: "label"
  top: "loss2/loss1"
  loss_weight: 0.3
}
layer {
  name: "inception_4e/1x1"
  type: "Convolution"
  bottom: "inception_4d/output"
  top: "inception_4e/1x1"
  param {
    lr_mult: 1
    decay_mult: 1
  }
  param {
    lr_mult: 2
    decay_mult: 0
  }
  convolution_param {
    num_output: 256
    kernel_size: 1
    weight_filler {
      type: "xavier"
    }
    bias_filler {
      type: "constant"
      value: 0.2
    }
  }
}
layer {
  name: "inception_4e/relu_1x1"
  type: "ReLU"
  bottom: "inception_4e/1x1"
  top: "inception_4e/1x1"
}
layer {
  name: "inception_4e/3x3_reduce"
  type: "Convolution"
  bottom: "inception_4d/output"
  top: "inception_4e/3x3_reduce"
  param {
    lr_mult: 1
    decay_mult: 1
  }
  param {
    lr_mult: 2
    decay_mult: 0
  }
  convolution_param {
    num_output: 160
    kernel_size: 1
    weight_filler {
      type: "xavier"
    }
    bias_filler {
      type: "constant"
      value: 0.2
    }
  }
}
layer {
  name: "inception_4e/relu_3x3_reduce"
  type: "ReLU"
  bottom: "inception_4e/3x3_reduce"
  top: "inception_4e/3x3_reduce"
}
layer {
  name: "inception_4e/3x3"
  type: "Convolution"
  bottom: "inception_4e/3x3_reduce"
  top: "inception_4e/3x3"
  param {
    lr_mult: 1
    decay_mult: 1
  }
  param {
    lr_mult: 2
    decay_mult: 0
  }
  convolution_param {
    num_output: 320
    pad: 1
    kernel_size: 3
    weight_filler {
      type: "xavier"
    }
    bias_filler {
      type: "constant"
      value: 0.2
    }
  }
}
layer {
  name: "inception_4e/relu_3x3"
  type: "ReLU"
  bottom: "inception_4e/3x3"
  top: "inception_4e/3x3"
}
layer {
  name: "inception_4e/5x5_reduce"
  type: "Convolution"
  bottom: "inception_4d/output"
  top: "inception_4e/5x5_reduce"
  param {
    lr_mult: 1
    decay_mult: 1
  }
  param {
    lr_mult: 2
    decay_mult: 0
  }
  convolution_param {
    num_output: 32
    kernel_size: 1
    weight_filler {
      type: "xavier"
    }
    bias_filler {
      type: "constant"
      value: 0.2
    }
  }
}
layer {
  name: "inception_4e/relu_5x5_reduce"
  type: "ReLU"
  bottom: "inception_4e/5x5_reduce"
  top: "inception_4e/5x5_reduce"
}
layer {
  name: "inception_4e/5x5"
  type: "Convolution"
  bottom: "inception_4e/5x5_reduce"
  top: "inception_4e/5x5"
  param {
    lr_mult: 1
    decay_mult: 1
  }
  param {
    lr_mult: 2
    decay_mult: 0
  }
  convolution_param {
    num_output: 128
    pad: 2
    kernel_size: 5
    weight_filler {
      type: "xavier"
    }
    bias_filler {
      type: "constant"
      value: 0.2
    }
  }
}
layer {
  name: "inception_4e/relu_5x5"
  type: "ReLU"
  bottom: "inception_4e/5x5"
  top: "inception_4e/5x5"
}
layer {
  name: "inception_4e/pool"
  type: "Pooling"
  bottom: "inception_4d/output"
  top: "inception_4e/pool"
  pooling_param {
    pool: MAX
    kernel_size: 3
    strid
I0813 21:10:37.981534 23709 layer_factory.hpp:77] Creating layer data
I0813 21:10:37.981988 23709 net.cpp:91] Creating Layer data
I0813 21:10:37.982003 23709 net.cpp:443] data -> data
I0813 21:10:37.982038 23709 net.cpp:443] data -> label
I0813 21:10:37.983091 23715 db_lmdb.cpp:35] Opened lmdb /home/chenyao/ilsvrc12/ilsvrc12_train_lmdb
I0813 21:10:37.996512 23709 data_layer.cpp:41] output data size: 32,3,224,224
I0813 21:10:38.036108 23709 net.cpp:141] Setting up data
I0813 21:10:38.036175 23709 net.cpp:148] Top shape: 32 3 224 224 (4816896)
I0813 21:10:38.036181 23709 net.cpp:148] Top shape: 32 (32)
I0813 21:10:38.036186 23709 net.cpp:156] Memory required for data: 19267712
I0813 21:10:38.036200 23709 layer_factory.hpp:77] Creating layer label_data_1_split
I0813 21:10:38.036231 23709 net.cpp:91] Creating Layer label_data_1_split
I0813 21:10:38.036239 23709 net.cpp:469] label_data_1_split <- label
I0813 21:10:38.036255 23709 net.cpp:443] label_data_1_split -> label_data_1_split_0
I0813 21:10:38.036268 23709 net.cpp:443] label_data_1_split -> label_data_1_split_1
I0813 21:10:38.036274 23709 net.cpp:443] label_data_1_split -> label_data_1_split_2
I0813 21:10:38.036375 23709 net.cpp:141] Setting up label_data_1_split
I0813 21:10:38.036386 23709 net.cpp:148] Top shape: 32 (32)
I0813 21:10:38.036391 23709 net.cpp:148] Top shape: 32 (32)
I0813 21:10:38.036396 23709 net.cpp:148] Top shape: 32 (32)
I0813 21:10:38.036399 23709 net.cpp:156] Memory required for data: 19268096
I0813 21:10:38.036404 23709 layer_factory.hpp:77] Creating layer conv1/7x7_s2
I0813 21:10:38.036437 23709 net.cpp:91] Creating Layer conv1/7x7_s2
I0813 21:10:38.036442 23709 net.cpp:469] conv1/7x7_s2 <- data
I0813 21:10:38.036450 23709 net.cpp:443] conv1/7x7_s2 -> conv1/7x7_s2
I0813 21:10:38.037369 23709 net.cpp:141] Setting up conv1/7x7_s2
I0813 21:10:38.037397 23709 net.cpp:148] Top shape: 32 64 112 112 (25690112)
I0813 21:10:38.037412 23709 net.cpp:156] Memory required for data: 122028544
I0813 21:10:38.037427 23709 layer_factory.hpp:77] Creating layer conv1/relu_7x7
I0813 21:10:38.037439 23709 net.cpp:91] Creating Layer conv1/relu_7x7
I0813 21:10:38.037443 23709 net.cpp:469] conv1/relu_7x7 <- conv1/7x7_s2
I0813 21:10:38.037448 23709 net.cpp:430] conv1/relu_7x7 -> conv1/7x7_s2 (in-place)
I0813 21:10:38.037463 23709 net.cpp:141] Setting up conv1/relu_7x7
I0813 21:10:38.037468 23709 net.cpp:148] Top shape: 32 64 112 112 (25690112)
I0813 21:10:38.037472 23709 net.cpp:156] Memory required for data: 224788992
I0813 21:10:38.037475 23709 layer_factory.hpp:77] Creating layer pool1/3x3_s2
I0813 21:10:38.037484 23709 net.cpp:91] Creating Layer pool1/3x3_s2
I0813 21:10:38.037488 23709 net.cpp:469] pool1/3x3_s2 <- conv1/7x7_s2
I0813 21:10:38.037495 23709 net.cpp:443] pool1/3x3_s2 -> pool1/3x3_s2
I0813 21:10:38.037539 23709 net.cpp:141] Setting up pool1/3x3_s2
I0813 21:10:38.037547 23709 net.cpp:148] Top shape: 32 64 56 56 (6422528)
I0813 21:10:38.037550 23709 net.cpp:156] Memory required for data: 250479104
I0813 21:10:38.037554 23709 layer_factory.hpp:77] Creating layer pool1/norm1
I0813 21:10:38.037564 23709 net.cpp:91] Creating Layer pool1/norm1
I0813 21:10:38.037570 23709 net.cpp:469] pool1/norm1 <- pool1/3x3_s2
I0813 21:10:38.037575 23709 net.cpp:443] pool1/norm1 -> pool1/norm1
I0813 21:10:38.037619 23709 net.cpp:141] Setting up pool1/norm1
I0813 21:10:38.037627 23709 net.cpp:148] Top shape: 32 64 56 56 (6422528)
I0813 21:10:38.037631 23709 net.cpp:156] Memory required for data: 276169216
I0813 21:10:38.037634 23709 layer_factory.hpp:77] Creating layer conv2/3x3_reduce
I0813 21:10:38.037647 23709 net.cpp:91] Creating Layer conv2/3x3_reduce
I0813 21:10:38.037652 23709 net.cpp:469] conv2/3x3_reduce <- pool1/norm1
I0813 21:10:38.037657 23709 net.cpp:443] conv2/3x3_reduce -> conv2/3x3_reduce
I0813 21:10:38.038527 23709 net.cpp:141] Setting up conv2/3x3_reduce
I0813 21:10:38.038542 23709 net.cpp:148] Top shape: 32 64 56 56 (6422528)
I0813 21:10:38.038547 23709 net.cpp:156] Memory required for data: 301859328
I0813 21:10:38.038555 23709 layer_factory.hpp:77] Creating layer conv2/relu_3x3_reduce
I0813 21:10:38.038563 23709 net.cpp:91] Creating Layer conv2/relu_3x3_reduce
I0813 21:10:38.038566 23709 net.cpp:469] conv2/relu_3x3_reduce <- conv2/3x3_reduce
I0813 21:10:38.038574 23709 net.cpp:430] conv2/relu_3x3_reduce -> conv2/3x3_reduce (in-place)
I0813 21:10:38.038581 23709 net.cpp:141] Setting up conv2/relu_3x3_reduce
I0813 21:10:38.038588 23709 net.cpp:148] Top shape: 32 64 56 56 (6422528)
I0813 21:10:38.038590 23709 net.cpp:156] Memory required for data: 327549440
I0813 21:10:38.038594 23709 layer_factory.hpp:77] Creating layer conv2/3x3
I0813 21:10:38.038607 23709 net.cpp:91] Creating Layer conv2/3x3
I0813 21:10:38.038612 23709 net.cpp:469] conv2/3x3 <- conv2/3x3_reduce
I0813 21:10:38.038619 23709 net.cpp:443] conv2/3x3 -> conv2/3x3
I0813 21:10:38.042821 23709 net.cpp:141] Setting up conv2/3x3
I0813 21:10:38.042845 23709 net.cpp:148] Top shape: 32 192 56 56 (19267584)
I0813 21:10:38.042850 23709 net.cpp:156] Memory required for data: 404619776
I0813 21:10:38.042861 23709 layer_factory.hpp:77] Creating layer conv2/relu_3x3
I0813 21:10:38.042870 23709 net.cpp:91] Creating Layer conv2/relu_3x3
I0813 21:10:38.042874 23709 net.cpp:469] conv2/relu_3x3 <- conv2/3x3
I0813 21:10:38.042881 23709 net.cpp:430] conv2/relu_3x3 -> conv2/3x3 (in-place)
I0813 21:10:38.042888 23709 net.cpp:141] Setting up conv2/relu_3x3
I0813 21:10:38.042893 23709 net.cpp:148] Top shape: 32 192 56 56 (19267584)
I0813 21:10:38.042897 23709 net.cpp:156] Memory required for data: 481690112
I0813 21:10:38.042901 23709 layer_factory.hpp:77] Creating layer conv2/norm2
I0813 21:10:38.042909 23709 net.cpp:91] Creating Layer conv2/norm2
I0813 21:10:38.042914 23709 net.cpp:469] conv2/norm2 <- conv2/3x3
I0813 21:10:38.042919 23709 net.cpp:443] conv2/norm2 -> conv2/norm2
I0813 21:10:38.042958 23709 net.cpp:141] Setting up conv2/norm2
I0813 21:10:38.042973 23709 net.cpp:148] Top shape: 32 192 56 56 (19267584)
I0813 21:10:38.042975 23709 net.cpp:156] Memory required for data: 558760448
I0813 21:10:38.042979 23709 layer_factory.hpp:77] Creating layer pool2/3x3_s2
I0813 21:10:38.042986 23709 net.cpp:91] Creating Layer pool2/3x3_s2
I0813 21:10:38.042990 23709 net.cpp:469] pool2/3x3_s2 <- conv2/norm2
I0813 21:10:38.042997 23709 net.cpp:443] pool2/3x3_s2 -> pool2/3x3_s2
I0813 21:10:38.043027 23709 net.cpp:141] Setting up pool2/3x3_s2
I0813 21:10:38.043035 23709 net.cpp:148] Top shape: 32 192 28 28 (4816896)
I0813 21:10:38.043038 23709 net.cpp:156] Memory required for data: 578028032
I0813 21:10:38.043042 23709 layer_factory.hpp:77] Creating layer pool2/3x3_s2_pool2/3x3_s2_0_split
I0813 21:10:38.043048 23709 net.cpp:91] Creating Layer pool2/3x3_s2_pool2/3x3_s2_0_split
I0813 21:10:38.043052 23709 net.cpp:469] pool2/3x3_s2_pool2/3x3_s2_0_split <- pool2/3x3_s2
I0813 21:10:38.043057 23709 net.cpp:443] pool2/3x3_s2_pool2/3x3_s2_0_split -> pool2/3x3_s2_pool2/3x3_s2_0_split_0
I0813 21:10:38.043063 23709 net.cpp:443] pool2/3x3_s2_pool2/3x3_s2_0_split -> pool2/3x3_s2_pool2/3x3_s2_0_split_1
I0813 21:10:38.043069 23709 net.cpp:443] pool2/3x3_s2_pool2/3x3_s2_0_split -> pool2/3x3_s2_pool2/3x3_s2_0_split_2
I0813 21:10:38.043079 23709 net.cpp:443] pool2/3x3_s2_pool2/3x3_s2_0_split -> pool2/3x3_s2_pool2/3x3_s2_0_split_3
I0813 21:10:38.043123 23709 net.cpp:141] Setting up pool2/3x3_s2_pool2/3x3_s2_0_split
I0813 21:10:38.043130 23709 net.cpp:148] Top shape: 32 192 28 28 (4816896)
I0813 21:10:38.043134 23709 net.cpp:148] Top shape: 32 192 28 28 (4816896)
I0813 21:10:38.043138 23709 net.cpp:148] Top shape: 32 192 28 28 (4816896)
I0813 21:10:38.043143 23709 net.cpp:148] Top shape: 32 192 28 28 (4816896)
I0813 21:10:38.043145 23709 net.cpp:156] Memory required for data: 655098368
I0813 21:10:38.043149 23709 layer_factory.hpp:77] Creating layer inception_3a/1x1
I0813 21:10:38.043160 23709 net.cpp:91] Creating Layer inception_3a/1x1
I0813 21:10:38.043165 23709 net.cpp:469] inception_3a/1x1 <- pool2/3x3_s2_pool2/3x3_s2_0_split_0
I0813 21:10:38.043174 23709 net.cpp:443] inception_3a/1x1 -> inception_3a/1x1
I0813 21:10:38.044013 23709 net.cpp:141] Setting up inception_3a/1x1
I0813 21:10:38.044028 23709 net.cpp:148] Top shape: 32 64 28 28 (1605632)
I0813 21:10:38.044033 23709 net.cpp:156] Memory required for data: 661520896
I0813 21:10:38.044039 23709 layer_factory.hpp:77] Creating layer inception_3a/relu_1x1
I0813 21:10:38.044046 23709 net.cpp:91] Creating Layer inception_3a/relu_1x1
I0813 21:10:38.044050 23709 net.cpp:469] inception_3a/relu_1x1 <- inception_3a/1x1
I0813 21:10:38.044056 23709 net.cpp:430] inception_3a/relu_1x1 -> inception_3a/1x1 (in-place)
I0813 21:10:38.044064 23709 net.cpp:141] Setting up inception_3a/relu_1x1
I0813 21:10:38.044068 23709 net.cpp:148] Top shape: 32 64 28 28 (1605632)
I0813 21:10:38.044071 23709 net.cpp:156] Memory required for data: 667943424
I0813 21:10:38.044075 23709 layer_factory.hpp:77] Creating layer inception_3a/3x3_reduce
I0813 21:10:38.044086 23709 net.cpp:91] Creating Layer inception_3a/3x3_reduce
I0813 21:10:38.044091 23709 net.cpp:469] inception_3a/3x3_reduce <- pool2/3x3_s2_pool2/3x3_s2_0_split_1
I0813 21:10:38.044100 23709 net.cpp:443] inception_3a/3x3_reduce -> inception_3a/3x3_reduce
I0813 21:10:38.045001 23709 net.cpp:141] Setting up inception_3a/3x3_reduce
I0813 21:10:38.045014 23709 net.cpp:148] Top shape: 32 96 28 28 (2408448)
I0813 21:10:38.045018 23709 net.cpp:156] Memory required for data: 677577216
I0813 21:10:38.045027 23709 layer_factory.hpp:77] Creating layer inception_3a/relu_3x3_reduce
I0813 21:10:38.045038 23709 net.cpp:91] Creating Layer inception_3a/relu_3x3_reduce
I0813 21:10:38.045043 23709 net.cpp:469] inception_3a/relu_3x3_reduce <- inception_3a/3x3_reduce
I0813 21:10:38.045049 23709 net.cpp:430] inception_3a/relu_3x3_reduce -> inception_3a/3x3_reduce (in-place)
I0813 21:10:38.045056 23709 net.cpp:141] Setting up inception_3a/relu_3x3_reduce
I0813 21:10:38.045065 23709 net.cpp:148] Top shape: 32 96 28 28 (2408448)
I0813 21:10:38.045074 23709 net.cpp:156] Memory required for data: 687211008
I0813 21:10:38.045087 23709 layer_factory.hpp:77] Creating layer inception_3a/3x3
I0813 21:10:38.045099 23709 net.cpp:91] Creating Layer inception_3a/3x3
I0813 21:10:38.045104 23709 net.cpp:469] inception_3a/3x3 <- inception_3a/3x3_reduce
I0813 21:10:38.045109 23709 net.cpp:443] inception_3a/3x3 -> inception_3a/3x3
I0813 21:10:38.045934 23709 net.cpp:141] Setting up inception_3a/3x3
I0813 21:10:38.045944 23709 net.cpp:148] Top shape: 32 128 28 28 (3211264)
I0813 21:10:38.045948 23709 net.cpp:156] Memory required for data: 700056064
I0813 21:10:38.045954 23709 layer_factory.hpp:77] Creating layer inception_3a/relu_3x3
I0813 21:10:38.045960 23709 net.cpp:91] Creating Layer inception_3a/relu_3x3
I0813 21:10:38.045965 23709 net.cpp:469] inception_3a/relu_3x3 <- inception_3a/3x3
I0813 21:10:38.045972 23709 net.cpp:430] inception_3a/relu_3x3 -> inception_3a/3x3 (in-place)
I0813 21:10:38.045979 23709 net.cpp:141] Setting up inception_3a/relu_3x3
I0813 21:10:38.045984 23709 net.cpp:148] Top shape: 32 128 28 28 (3211264)
I0813 21:10:38.045986 23709 net.cpp:156] Memory required for data: 712901120
I0813 21:10:38.045990 23709 layer_factory.hpp:77] Creating layer inception_3a/5x5_reduce
I0813 21:10:38.046000 23709 net.cpp:91] Creating Layer inception_3a/5x5_reduce
I0813 21:10:38.046003 23709 net.cpp:469] inception_3a/5x5_reduce <- pool2/3x3_s2_pool2/3x3_s2_0_split_2
I0813 21:10:38.046010 23709 net.cpp:443] inception_3a/5x5_reduce -> inception_3a/5x5_reduce
I0813 21:10:38.046210 23709 net.cpp:141] Setting up inception_3a/5x5_reduce
I0813 21:10:38.046219 23709 net.cpp:148] Top shape: 32 16 28 28 (401408)
I0813 21:10:38.046222 23709 net.cpp:156] Memory required for data: 714506752
I0813 21:10:38.046229 23709 layer_factory.hpp:77] Creating layer inception_3a/relu_5x5_reduce
I0813 21:10:38.046236 23709 net.cpp:91] Creating Layer inception_3a/relu_5x5_reduce
I0813 21:10:38.046239 23709 net.cpp:469] inception_3a/relu_5x5_reduce <- inception_3a/5x5_reduce
I0813 21:10:38.046247 23709 net.cpp:430] inception_3a/relu_5x5_reduce -> inception_3a/5x5_reduce (in-place)
I0813 21:10:38.046252 23709 net.cpp:141] Setting up inception_3a/relu_5x5_reduce
I0813 21:10:38.046257 23709 net.cpp:148] Top shape: 32 16 28 28 (401408)
I0813 21:10:38.046260 23709 net.cpp:156] Memory required for data: 716112384
I0813 21:10:38.046264 23709 layer_factory.hpp:77] Creating layer inception_3a/5x5
I0813 21:10:38.046274 23709 net.cpp:91] Creating Layer inception_3a/5x5
I0813 21:10:38.046278 23709 net.cpp:469] inception_3a/5x5 <- inception_3a/5x5_reduce
I0813 21:10:38.046284 23709 net.cpp:443] inception_3a/5x5 -> inception_3a/5x5
I0813 21:10:38.046527 23709 net.cpp:141] Setting up inception_3a/5x5
I0813 21:10:38.046536 23709 net.cpp:148] Top shape: 32 32 28 28 (802816)
I0813 21:10:38.046540 23709 net.cpp:156] Memory required for data: 719323648
I0813 21:10:38.046546 23709 layer_factory.hpp:77] Creating layer inception_3a/relu_5x5
I0813 21:10:38.046553 23709 net.cpp:91] Creating Layer inception_3a/relu_5x5
I0813 21:10:38.046558 23709 net.cpp:469] inception_3a/relu_5x5 <- inception_3a/5x5
I0813 21:10:38.046563 23709 net.cpp:430] inception_3a/relu_5x5 -> inception_3a/5x5 (in-place)
I0813 21:10:38.046568 23709 net.cpp:141] Setting up inception_3a/relu_5x5
I0813 21:10:38.046573 23709 net.cpp:148] Top shape: 32 32 28 28 (802816)
I0813 21:10:38.046576 23709 net.cpp:156] Memory required for data: 722534912
I0813 21:10:38.046581 23709 layer_factory.hpp:77] Creating layer inception_3a/pool
I0813 21:10:38.046586 23709 net.cpp:91] Creating Layer inception_3a/pool
I0813 21:10:38.046591 23709 net.cpp:469] inception_3a/pool <- pool2/3x3_s2_pool2/3x3_s2_0_split_3
I0813 21:10:38.046600 23709 net.cpp:443] inception_3a/pool -> inception_3a/pool
I0813 21:10:38.046629 23709 net.cpp:141] Setting up inception_3a/pool
I0813 21:10:38.046635 23709 net.cpp:148] Top shape: 32 192 28 28 (4816896)
I0813 21:10:38.046638 23709 net.cpp:156] Memory required for data: 741802496
I0813 21:10:38.046648 23709 layer_factory.hpp:77] Creating layer inception_3a/pool_proj
I0813 21:10:38.046664 23709 net.cpp:91] Creating Layer inception_3a/pool_proj
I0813 21:10:38.046669 23709 net.cpp:469] inception_3a/pool_proj <- inception_3a/pool
I0813 21:10:38.046674 23709 net.cpp:443] inception_3a/pool_proj -> inception_3a/pool_proj
I0813 21:10:38.046875 23709 net.cpp:141] Setting up inception_3a/pool_proj
I0813 21:10:38.046882 23709 net.cpp:148] Top shape: 32 32 28 28 (802816)
I0813 21:10:38.046886 23709 net.cpp:156] Memory required for data: 745013760
I0813 21:10:38.046897 23709 layer_factory.hpp:77] Creating layer inception_3a/relu_pool_proj
I0813 21:10:38.046903 23709 net.cpp:91] Creating Layer inception_3a/relu_pool_proj
I0813 21:10:38.046908 23709 net.cpp:469] inception_3a/relu_pool_proj <- inception_3a/pool_proj
I0813 21:10:38.046913 23709 net.cpp:430] inception_3a/relu_pool_proj -> inception_3a/pool_proj (in-place)
I0813 21:10:38.046919 23709 net.cpp:141] Setting up inception_3a/relu_pool_proj
I0813 21:10:38.046923 23709 net.cpp:148] Top shape: 32 32 28 28 (802816)
I0813 21:10:38.046927 23709 net.cpp:156] Memory required for data: 748225024
I0813 21:10:38.046931 23709 layer_factory.hpp:77] Creating layer inception_3a/output
I0813 21:10:38.046946 23709 net.cpp:91] Creating Layer inception_3a/output
I0813 21:10:38.046949 23709 net.cpp:469] inception_3a/output <- inception_3a/1x1
I0813 21:10:38.046953 23709 net.cpp:469] inception_3a/output <- inception_3a/3x3
I0813 21:10:38.046958 23709 net.cpp:469] inception_3a/output <- inception_3a/5x5
I0813 21:10:38.046962 23709 net.cpp:469] inception_3a/output <- inception_3a/pool_proj
I0813 21:10:38.046969 23709 net.cpp:443] inception_3a/output -> inception_3a/output
I0813 21:10:38.046995 23709 net.cpp:141] Setting up inception_3a/output
I0813 21:10:38.047003 23709 net.cpp:148] Top shape: 32 256 28 28 (6422528)
I0813 21:10:38.047006 23709 net.cpp:156] Memory required for data: 773915136
I0813 21:10:38.047010 23709 layer_factory.hpp:77] Creating layer inception_3a/output_inception_3a/output_0_split
I0813 21:10:38.047016 23709 net.cpp:91] Creating Layer inception_3a/output_inception_3a/output_0_split
I0813 21:10:38.047034 23709 net.cpp:469] inception_3a/output_inception_3a/output_0_split <- inception_3a/output
I0813 21:10:38.047039 23709 net.cpp:443] inception_3a/output_inception_3a/output_0_split -> inception_3a/output_inception_3a/output_0_split_0
I0813 21:10:38.047045 23709 net.cpp:443] inception_3a/output_inception_3a/output_0_split -> inception_3a/output_inception_3a/output_0_split_1
I0813 21:10:38.047053 23709 net.cpp:443] inception_3a/output_inception_3a/output_0_split -> inception_3a/output_inception_3a/output_0_split_2
I0813 21:10:38.047060 23709 net.cpp:443] inception_3a/output_inception_3a/output_0_split -> inception_3a/output_inception_3a/output_0_split_3
I0813 21:10:38.047106 23709 net.cpp:141] Setting up inception_3a/output_inception_3a/output_0_split
I0813 21:10:38.047111 23709 net.cpp:148] Top shape: 32 256 28 28 (6422528)
I0813 21:10:38.047116 23709 net.cpp:148] Top shape: 32 256 28 28 (6422528)
I0813 21:10:38.047121 23709 net.cpp:148] Top shape: 32 256 28 28 (6422528)
I0813 21:10:38.047124 23709 net.cpp:148] Top shape: 32 256 28 28 (6422528)
I0813 21:10:38.047127 23709 net.cpp:156] Memory required for data: 876675584
I0813 21:10:38.047132 23709 layer_factory.hpp:77] Creating layer inception_3b/1x1
I0813 21:10:38.047142 23709 net.cpp:91] Creating Layer inception_3b/1x1
I0813 21:10:38.047145 23709 net.cpp:469] inception_3b/1x1 <- inception_3a/output_inception_3a/output_0_split_0
I0813 21:10:38.047153 23709 net.cpp:443] inception_3b/1x1 -> inception_3b/1x1
I0813 21:10:38.047508 23709 net.cpp:141] Setting up inception_3b/1x1
I0813 21:10:38.047518 23709 net.cpp:148] Top shape: 32 128 28 28 (3211264)
I0813 21:10:38.047520 23709 net.cpp:156] Memory required for data: 889520640
I0813 21:10:38.047528 23709 layer_factory.hpp:77] Creating layer inception_3b/relu_1x1
I0813 21:10:38.047535 23709 net.cpp:91] Creating Layer inception_3b/relu_1x1
I0813 21:10:38.047544 23709 net.cpp:469] inception_3b/relu_1x1 <- inception_3b/1x1
I0813 21:10:38.047554 23709 net.cpp:430] inception_3b/relu_1x1 -> inception_3b/1x1 (in-place)
I0813 21:10:38.047560 23709 net.cpp:141] Setting up inception_3b/relu_1x1
I0813 21:10:38.047565 23709 net.cpp:148] Top shape: 32 128 28 28 (3211264)
I0813 21:10:38.047569 23709 net.cpp:156] Memory required for data: 902365696
I0813 21:10:38.047572 23709 layer_factory.hpp:77] Creating layer inception_3b/3x3_reduce
I0813 21:10:38.047582 23709 net.cpp:91] Creating Layer inception_3b/3x3_reduce
I0813 21:10:38.047586 23709 net.cpp:469] inception_3b/3x3_reduce <- inception_3a/output_inception_3a/output_0_split_1
I0813 21:10:38.047593 23709 net.cpp:443] inception_3b/3x3_reduce -> inception_3b/3x3_reduce
I0813 21:10:38.047955 23709 net.cpp:141] Setting up inception_3b/3x3_reduce
I0813 21:10:38.047966 23709 net.cpp:148] Top shape: 32 128 28 28 (3211264)
I0813 21:10:38.047971 23709 net.cpp:156] Memory required for data: 915210752
I0813 21:10:38.047976 23709 layer_factory.hpp:77] Creating layer inception_3b/relu_3x3_reduce
I0813 21:10:38.047982 23709 net.cpp:91] Creating Layer inception_3b/relu_3x3_reduce
I0813 21:10:38.047987 23709 net.cpp:469] inception_3b/relu_3x3_reduce <- inception_3b/3x3_reduce
I0813 21:10:38.047992 23709 net.cpp:430] inception_3b/relu_3x3_reduce -> inception_3b/3x3_reduce (in-place)
I0813 21:10:38.047998 23709 net.cpp:141] Setting up inception_3b/relu_3x3_reduce
I0813 21:10:38.048003 23709 net.cpp:148] Top shape: 32 128 28 28 (3211264)
I0813 21:10:38.048007 23709 net.cpp:156] Memory required for data: 928055808
I0813 21:10:38.048010 23709 layer_factory.hpp:77] Creating layer inception_3b/3x3
I0813 21:10:38.048022 23709 net.cpp:91] Creating Layer inception_3b/3x3
I0813 21:10:38.048027 23709 net.cpp:469] inception_3b/3x3 <- inception_3b/3x3_reduce
I0813 21:10:38.048035 23709 net.cpp:443] inception_3b/3x3 -> inception_3b/3x3
I0813 21:10:38.050566 23709 net.cpp:141] Setting up inception_3b/3x3
I0813 21:10:38.050583 23709 net.cpp:148] Top shape: 32 192 28 28 (4816896)
I0813 21:10:38.050588 23709 net.cpp:156] Memory required for data: 947323392
I0813 21:10:38.050596 23709 layer_factory.hpp:77] Creating layer inception_3b/relu_3x3
I0813 21:10:38.050603 23709 net.cpp:91] Creating Layer inception_3b/relu_3x3
I0813 21:10:38.050608 23709 net.cpp:469] inception_3b/relu_3x3 <- inception_3b/3x3
I0813 21:10:38.050616 23709 net.cpp:430] inception_3b/relu_3x3 -> inception_3b/3x3 (in-place)
I0813 21:10:38.050622 23709 net.cpp:141] Setting up inception_3b/relu_3x3
I0813 21:10:38.050628 23709 net.cpp:148] Top shape: 32 192 28 28 (4816896)
I0813 21:10:38.050632 23709 net.cpp:156] Memory required for data: 966590976
I0813 21:10:38.050637 23709 layer_factory.hpp:77] Creating layer inception_3b/5x5_reduce
I0813 21:10:38.050648 23709 net.cpp:91] Creating Layer inception_3b/5x5_reduce
I0813 21:10:38.050653 23709 net.cpp:469] inception_3b/5x5_reduce <- inception_3a/output_inception_3a/output_0_split_2
I0813 21:10:38.050662 23709 net.cpp:443] inception_3b/5x5_reduce -> inception_3b/5x5_reduce
I0813 21:10:38.050915 23709 net.cpp:141] Setting up inception_3b/5x5_reduce
I0813 21:10:38.050925 23709 net.cpp:148] Top shape: 32 32 28 28 (802816)
I0813 21:10:38.050928 23709 net.cpp:156] Memory required for data: 969802240
I0813 21:10:38.050938 23709 layer_factory.hpp:77] Creating layer inception_3b/relu_5x5_reduce
I0813 21:10:38.050945 23709 net.cpp:91] Creating Layer inception_3b/relu_5x5_reduce
I0813 21:10:38.050951 23709 net.cpp:469] inception_3b/relu_5x5_reduce <- inception_3b/5x5_reduce
I0813 21:10:38.050956 23709 net.cpp:430] inception_3b/relu_5x5_reduce -> inception_3b/5x5_reduce (in-place)
I0813 21:10:38.050966 23709 net.cpp:141] Setting up inception_3b/relu_5x5_reduce
I0813 21:10:38.050971 23709 net.cpp:148] Top shape: 32 32 28 28 (802816)
I0813 21:10:38.050974 23709 net.cpp:156] Memory required for data: 973013504
I0813 21:10:38.050978 23709 layer_factory.hpp:77] Creating layer inception_3b/5x5
I0813 21:10:38.050987 23709 net.cpp:91] Creating Layer inception_3b/5x5
I0813 21:10:38.050997 23709 net.cpp:469] inception_3b/5x5 <- inception_3b/5x5_reduce
I0813 21:10:38.051012 23709 net.cpp:443] inception_3b/5x5 -> inception_3b/5x5
I0813 21:10:38.052350 23709 net.cpp:141] Setting up inception_3b/5x5
I0813 21:10:38.052367 23709 net.cpp:148] Top shape: 32 96 28 28 (2408448)
I0813 21:10:38.052371 23709 net.cpp:156] Memory required for data: 982647296
I0813 21:10:38.052378 23709 layer_factory.hpp:77] Creating layer inception_3b/relu_5x5
I0813 21:10:38.052386 23709 net.cpp:91] Creating Layer inception_3b/relu_5x5
I0813 21:10:38.052392 23709 net.cpp:469] inception_3b/relu_5x5 <- inception_3b/5x5
I0813 21:10:38.052397 23709 net.cpp:430] inception_3b/relu_5x5 -> inception_3b/5x5 (in-place)
I0813 21:10:38.052405 23709 net.cpp:141] Setting up inception_3b/relu_5x5
I0813 21:10:38.052410 23709 net.cpp:148] Top shape: 32 96 28 28 (2408448)
I0813 21:10:38.052414 23709 net.cpp:156] Memory required for data: 992281088
I0813 21:10:38.052419 23709 layer_factory.hpp:77] Creating layer inception_3b/pool
I0813 21:10:38.052425 23709 net.cpp:91] Creating Layer inception_3b/pool
I0813 21:10:38.052430 23709 net.cpp:469] inception_3b/pool <- inception_3a/output_inception_3a/output_0_split_3
I0813 21:10:38.052438 23709 net.cpp:443] inception_3b/pool -> inception_3b/pool
I0813 21:10:38.052474 23709 net.cpp:141] Setting up inception_3b/pool
I0813 21:10:38.052480 23709 net.cpp:148] Top shape: 32 256 28 28 (6422528)
I0813 21:10:38.052484 23709 net.cpp:156] Memory required for data: 1017971200
I0813 21:10:38.052489 23709 layer_factory.hpp:77] Creating layer inception_3b/pool_proj
I0813 21:10:38.052501 23709 net.cpp:91] Creating Layer inception_3b/pool_proj
I0813 21:10:38.052506 23709 net.cpp:469] inception_3b/pool_proj <- inception_3b/pool
I0813 21:10:38.052513 23709 net.cpp:443] inception_3b/pool_proj -> inception_3b/pool_proj
I0813 21:10:38.052819 23709 net.cpp:141] Setting up inception_3b/pool_proj
I0813 21:10:38.052829 23709 net.cpp:148] Top shape: 32 64 28 28 (1605632)
I0813 21:10:38.052834 23709 net.cpp:156] Memory required for data: 1024393728
I0813 21:10:38.052840 23709 layer_factory.hpp:77] Creating layer inception_3b/relu_pool_proj
I0813 21:10:38.052846 23709 net.cpp:91] Creating Layer inception_3b/relu_pool_proj
I0813 21:10:38.052851 23709 net.cpp:469] inception_3b/relu_pool_proj <- inception_3b/pool_proj
I0813 21:10:38.052860 23709 net.cpp:430] inception_3b/relu_pool_proj -> inception_3b/pool_proj (in-place)
I0813 21:10:38.052866 23709 net.cpp:141] Setting up inception_3b/relu_pool_proj
I0813 21:10:38.052871 23709 net.cpp:148] Top shape: 32 64 28 28 (1605632)
I0813 21:10:38.052875 23709 net.cpp:156] Memory required for data: 1030816256
I0813 21:10:38.052881 23709 layer_factory.hpp:77] Creating layer inception_3b/output
I0813 21:10:38.052886 23709 net.cpp:91] Creating Layer inception_3b/output
I0813 21:10:38.052891 23709 net.cpp:469] inception_3b/output <- inception_3b/1x1
I0813 21:10:38.052896 23709 net.cpp:469] inception_3b/output <- inception_3b/3x3
I0813 21:10:38.052901 23709 net.cpp:469] inception_3b/output <- inception_3b/5x5
I0813 21:10:38.052906 23709 net.cpp:469] inception_3b/output <- inception_3b/pool_proj
I0813 21:10:38.052911 23709 net.cpp:443] inception_3b/output -> inception_3b/output
I0813 21:10:38.052934 23709 net.cpp:141] Setting up inception_3b/output
I0813 21:10:38.052942 23709 net.cpp:148] Top shape: 32 480 28 28 (12042240)
I0813 21:10:38.052945 23709 net.cpp:156] Memory required for data: 1078985216
I0813 21:10:38.052949 23709 layer_factory.hpp:77] Creating layer pool3/3x3_s2
I0813 21:10:38.052958 23709 net.cpp:91] Creating Layer pool3/3x3_s2
I0813 21:10:38.052963 23709 net.cpp:469] pool3/3x3_s2 <- inception_3b/output
I0813 21:10:38.052969 23709 net.cpp:443] pool3/3x3_s2 -> pool3/3x3_s2
I0813 21:10:38.053001 23709 net.cpp:141] Setting up pool3/3x3_s2
I0813 21:10:38.053007 23709 net.cpp:148] Top shape: 32 480 14 14 (3010560)
I0813 21:10:38.053011 23709 net.cpp:156] Memory required for data: 1091027456
I0813 21:10:38.053015 23709 layer_factory.hpp:77] Creating layer pool3/3x3_s2_pool3/3x3_s2_0_split
I0813 21:10:38.053026 23709 net.cpp:91] Creating Layer pool3/3x3_s2_pool3/3x3_s2_0_split
I0813 21:10:38.053036 23709 net.cpp:469] pool3/3x3_s2_pool3/3x3_s2_0_split <- pool3/3x3_s2
I0813 21:10:38.053042 23709 net.cpp:443] pool3/3x3_s2_pool3/3x3_s2_0_split -> pool3/3x3_s2_pool3/3x3_s2_0_split_0
I0813 21:10:38.053051 23709 net.cpp:443] pool3/3x3_s2_pool3/3x3_s2_0_split -> pool3/3x3_s2_pool3/3x3_s2_0_split_1
I0813 21:10:38.053058 23709 net.cpp:443] pool3/3x3_s2_pool3/3x3_s2_0_split -> pool3/3x3_s2_pool3/3x3_s2_0_split_2
I0813 21:10:38.053064 23709 net.cpp:443] pool3/3x3_s2_pool3/3x3_s2_0_split -> pool3/3x3_s2_pool3/3x3_s2_0_split_3
I0813 21:10:38.053282 23709 net.cpp:141] Setting up pool3/3x3_s2_pool3/3x3_s2_0_split
I0813 21:10:38.053295 23709 net.cpp:148] Top shape: 32 480 14 14 (3010560)
I0813 21:10:38.053300 23709 net.cpp:148] Top shape: 32 480 14 14 (3010560)
I0813 21:10:38.053305 23709 net.cpp:148] Top shape: 32 480 14 14 (3010560)
I0813 21:10:38.053309 23709 net.cpp:148] Top shape: 32 480 14 14 (3010560)
I0813 21:10:38.053313 23709 net.cpp:156] Memory required for data: 1139196416
I0813 21:10:38.053318 23709 layer_factory.hpp:77] Creating layer inception_4a/1x1
I0813 21:10:38.053333 23709 net.cpp:91] Creating Layer inception_4a/1x1
I0813 21:10:38.053339 23709 net.cpp:469] inception_4a/1x1 <- pool3/3x3_s2_pool3/3x3_s2_0_split_0
I0813 21:10:38.053345 23709 net.cpp:443] inception_4a/1x1 -> inception_4a/1x1
I0813 21:10:38.054152 23709 net.cpp:141] Setting up inception_4a/1x1
I0813 21:10:38.054162 23709 net.cpp:148] Top shape: 32 192 14 14 (1204224)
I0813 21:10:38.054167 23709 net.cpp:156] Memory required for data: 1144013312
I0813 21:10:38.054173 23709 layer_factory.hpp:77] Creating layer inception_4a/relu_1x1
I0813 21:10:38.054180 23709 net.cpp:91] Creating Layer inception_4a/relu_1x1
I0813 21:10:38.054185 23709 net.cpp:469] inception_4a/relu_1x1 <- inception_4a/1x1
I0813 21:10:38.054193 23709 net.cpp:430] inception_4a/relu_1x1 -> inception_4a/1x1 (in-place)
I0813 21:10:38.054199 23709 net.cpp:141] Setting up inception_4a/relu_1x1
I0813 21:10:38.054205 23709 net.cpp:148] Top shape: 32 192 14 14 (1204224)
I0813 21:10:38.054208 23709 net.cpp:156] Memory required for data: 1148830208
I0813 21:10:38.054214 23709 layer_factory.hpp:77] Creating layer inception_4a/3x3_reduce
I0813 21:10:38.054221 23709 net.cpp:91] Creating Layer inception_4a/3x3_reduce
I0813 21:10:38.054226 23709 net.cpp:469] inception_4a/3x3_reduce <- pool3/3x3_s2_pool3/3x3_s2_0_split_1
I0813 21:10:38.054239 23709 net.cpp:443] inception_4a/3x3_reduce -> inception_4a/3x3_reduce
I0813 21:10:38.054752 23709 net.cpp:141] Setting up inception_4a/3x3_reduce
I0813 21:10:38.054764 23709 net.cpp:148] Top shape: 32 96 14 14 (602112)
I0813 21:10:38.054767 23709 net.cpp:156] Memory required for data: 1151238656
I0813 21:10:38.054780 23709 layer_factory.hpp:77] Creating layer inception_4a/relu_3x3_reduce
I0813 21:10:38.054786 23709 net.cpp:91] Creating Layer inception_4a/relu_3x3_reduce
I0813 21:10:38.054793 23709 net.cpp:469] inception_4a/relu_3x3_reduce <- inception_4a/3x3_reduce
I0813 21:10:38.054798 23709 net.cpp:430] inception_4a/relu_3x3_reduce -> inception_4a/3x3_reduce (in-place)
I0813 21:10:38.054805 23709 net.cpp:141] Setting up inception_4a/relu_3x3_reduce
I0813 21:10:38.054811 23709 net.cpp:148] Top shape: 32 96 14 14 (602112)
I0813 21:10:38.054814 23709 net.cpp:156] Memory required for data: 1153647104
I0813 21:10:38.054818 23709 layer_factory.hpp:77] Creating layer inception_4a/3x3
I0813 21:10:38.054827 23709 net.cpp:91] Creating Layer inception_4a/3x3
I0813 21:10:38.054831 23709 net.cpp:469] inception_4a/3x3 <- inception_4a/3x3_reduce
I0813 21:10:38.054841 23709 net.cpp:443] inception_4a/3x3 -> inception_4a/3x3
I0813 21:10:38.056870 23709 net.cpp:141] Setting up inception_4a/3x3
I0813 21:10:38.056886 23709 net.cpp:148] Top shape: 32 208 14 14 (1304576)
I0813 21:10:38.056890 23709 net.cpp:156] Memory required for data: 1158865408
I0813 21:10:38.056898 23709 layer_factory.hpp:77] Creating layer inception_4a/relu_3x3
I0813 21:10:38.056905 23709 net.cpp:91] Creating Layer inception_4a/relu_3x3
I0813 21:10:38.056916 23709 net.cpp:469] inception_4a/relu_3x3 <- inception_4a/3x3
I0813 21:10:38.056931 23709 net.cpp:430] inception_4a/relu_3x3 -> inception_4a/3x3 (in-place)
I0813 21:10:38.056939 23709 net.cpp:141] Setting up inception_4a/relu_3x3
I0813 21:10:38.056946 23709 net.cpp:148] Top shape: 32 208 14 14 (1304576)
I0813 21:10:38.056949 23709 net.cpp:156] Memory required for data: 1164083712
I0813 21:10:38.056953 23709 layer_factory.hpp:77] Creating layer inception_4a/5x5_reduce
I0813 21:10:38.056962 23709 net.cpp:91] Creating Layer inception_4a/5x5_reduce
I0813 21:10:38.056967 23709 net.cpp:469] inception_4a/5x5_reduce <- pool3/3x3_s2_pool3/3x3_s2_0_split_2
I0813 21:10:38.056977 23709 net.cpp:443] inception_4a/5x5_reduce -> inception_4a/5x5_reduce
I0813 21:10:38.057236 23709 net.cpp:141] Setting up inception_4a/5x5_reduce
I0813 21:10:38.057248 23709 net.cpp:148] Top shape: 32 16 14 14 (100352)
I0813 21:10:38.057252 23709 net.cpp:156] Memory required for data: 1164485120
I0813 21:10:38.057260 23709 layer_factory.hpp:77] Creating layer inception_4a/relu_5x5_reduce
I0813 21:10:38.057266 23709 net.cpp:91] Creating Layer inception_4a/relu_5x5_reduce
I0813 21:10:38.057271 23709 net.cpp:469] inception_4a/relu_5x5_reduce <- inception_4a/5x5_reduce
I0813 21:10:38.057279 23709 net.cpp:430] inception_4a/relu_5x5_reduce -> inception_4a/5x5_reduce (in-place)
I0813 21:10:38.057286 23709 net.cpp:141] Setting up inception_4a/relu_5x5_reduce
I0813 21:10:38.057291 23709 net.cpp:148] Top shape: 32 16 14 14 (100352)
I0813 21:10:38.057296 23709 net.cpp:156] Memory required for data: 1164886528
I0813 21:10:38.057299 23709 layer_factory.hpp:77] Creating layer inception_4a/5x5
I0813 21:10:38.057310 23709 net.cpp:91] Creating Layer inception_4a/5x5
I0813 21:10:38.057315 23709 net.cpp:469] inception_4a/5x5 <- inception_4a/5x5_reduce
I0813 21:10:38.057322 23709 net.cpp:443] inception_4a/5x5 -> inception_4a/5x5
I0813 21:10:38.057643 23709 net.cpp:141] Setting up inception_4a/5x5
I0813 21:10:38.057657 23709 net.cpp:148] Top shape: 32 48 14 14 (301056)
I0813 21:10:38.057662 23709 net.cpp:156] Memory required for data: 1166090752
I0813 21:10:38.057668 23709 layer_factory.hpp:77] Creating layer inception_4a/relu_5x5
I0813 21:10:38.057675 23709 net.cpp:91] Creating Layer inception_4a/relu_5x5
I0813 21:10:38.057680 23709 net.cpp:469] inception_4a/relu_5x5 <- inception_4a/5x5
I0813 21:10:38.057688 23709 net.cpp:430] inception_4a/relu_5x5 -> inception_4a/5x5 (in-place)
I0813 21:10:38.057695 23709 net.cpp:141] Setting up inception_4a/relu_5x5
I0813 21:10:38.057700 23709 net.cpp:148] Top shape: 32 48 14 14 (301056)
I0813 21:10:38.057704 23709 net.cpp:156] Memory required for data: 1167294976
I0813 21:10:38.057709 23709 layer_factory.hpp:77] Creating layer inception_4a/pool
I0813 21:10:38.057715 23709 net.cpp:91] Creating Layer inception_4a/pool
I0813 21:10:38.057720 23709 net.cpp:469] inception_4a/pool <- pool3/3x3_s2_pool3/3x3_s2_0_split_3
I0813 21:10:38.057725 23709 net.cpp:443] inception_4a/pool -> inception_4a/pool
I0813 21:10:38.057760 23709 net.cpp:141] Setting up inception_4a/pool
I0813 21:10:38.057768 23709 net.cpp:148] Top shape: 32 480 14 14 (3010560)
I0813 21:10:38.057771 23709 net.cpp:156] Memory required for data: 1179337216
I0813 21:10:38.057776 23709 layer_factory.hpp:77] Creating layer inception_4a/pool_proj
I0813 21:10:38.057787 23709 net.cpp:91] Creating Layer inception_4a/pool_proj
I0813 21:10:38.057792 23709 net.cpp:469] inception_4a/pool_proj <- inception_4a/pool
I0813 21:10:38.057801 23709 net.cpp:443] inception_4a/pool_proj -> inception_4a/pool_proj
I0813 21:10:38.058199 23709 net.cpp:141] Setting up inception_4a/pool_proj
I0813 21:10:38.058214 23709 net.cpp:148] Top shape: 32 64 14 14 (401408)
I0813 21:10:38.058219 23709 net.cpp:156] Memory required for data: 1180942848
I0813 21:10:38.058225 23709 layer_factory.hpp:77] Creating layer inception_4a/relu_pool_proj
I0813 21:10:38.058233 23709 net.cpp:91] Creating Layer inception_4a/relu_pool_proj
I0813 21:10:38.058238 23709 net.cpp:469] inception_4a/relu_pool_proj <- inception_4a/pool_proj
I0813 21:10:38.058248 23709 net.cpp:430] inception_4a/relu_pool_proj -> inception_4a/pool_proj (in-place)
I0813 21:10:38.058264 23709 net.cpp:141] Setting up inception_4a/relu_pool_proj
I0813 21:10:38.058269 23709 net.cpp:148] Top shape: 32 64 14 14 (401408)
I0813 21:10:38.058272 23709 net.cpp:156] Memory required for data: 1182548480
I0813 21:10:38.058277 23709 layer_factory.hpp:77] Creating layer inception_4a/output
I0813 21:10:38.058284 23709 net.cpp:91] Creating Layer inception_4a/output
I0813 21:10:38.058289 23709 net.cpp:469] inception_4a/output <- inception_4a/1x1
I0813 21:10:38.058293 23709 net.cpp:469] inception_4a/output <- inception_4a/3x3
I0813 21:10:38.058298 23709 net.cpp:469] inception_4a/output <- inception_4a/5x5
I0813 21:10:38.058303 23709 net.cpp:469] inception_4a/output <- inception_4a/pool_proj
I0813 21:10:38.058308 23709 net.cpp:443] inception_4a/output -> inception_4a/output
I0813 21:10:38.058332 23709 net.cpp:141] Setting up inception_4a/output
I0813 21:10:38.058341 23709 net.cpp:148] Top shape: 32 512 14 14 (3211264)
I0813 21:10:38.058344 23709 net.cpp:156] Memory required for data: 1195393536
I0813 21:10:38.058348 23709 layer_factory.hpp:77] Creating layer inception_4a/output_inception_4a/output_0_split
I0813 21:10:38.058354 23709 net.cpp:91] Creating Layer inception_4a/output_inception_4a/output_0_split
I0813 21:10:38.058358 23709 net.cpp:469] inception_4a/output_inception_4a/output_0_split <- inception_4a/output
I0813 21:10:38.058367 23709 net.cpp:443] inception_4a/output_inception_4a/output_0_split -> inception_4a/output_inception_4a/output_0_split_0
I0813 21:10:38.058374 23709 net.cpp:443] inception_4a/output_inception_4a/output_0_split -> inception_4a/output_inception_4a/output_0_split_1
I0813 21:10:38.058380 23709 net.cpp:443] inception_4a/output_inception_4a/output_0_split -> inception_4a/output_inception_4a/output_0_split_2
I0813 21:10:38.058387 23709 net.cpp:443] inception_4a/output_inception_4a/output_0_split -> inception_4a/output_inception_4a/output_0_split_3
I0813 21:10:38.058393 23709 net.cpp:443] inception_4a/output_inception_4a/output_0_split -> inception_4a/output_inception_4a/output_0_split_4
I0813 21:10:38.058457 23709 net.cpp:141] Setting up inception_4a/output_inception_4a/output_0_split
I0813 21:10:38.058465 23709 net.cpp:148] Top shape: 32 512 14 14 (3211264)
I0813 21:10:38.058470 23709 net.cpp:148] Top shape: 32 512 14 14 (3211264)
I0813 21:10:38.058475 23709 net.cpp:148] Top shape: 32 512 14 14 (3211264)
I0813 21:10:38.058478 23709 net.cpp:148] Top shape: 32 512 14 14 (3211264)
I0813 21:10:38.058483 23709 net.cpp:148] Top shape: 32 512 14 14 (3211264)
I0813 21:10:38.058486 23709 net.cpp:156] Memory required for data: 1259618816
I0813 21:10:38.058491 23709 layer_factory.hpp:77] Creating layer loss1/ave_pool
I0813 21:10:38.058499 23709 net.cpp:91] Creating Layer loss1/ave_pool
I0813 21:10:38.058503 23709 net.cpp:469] loss1/ave_pool <- inception_4a/output_inception_4a/output_0_split_0
I0813 21:10:38.058511 23709 net.cpp:443] loss1/ave_pool -> loss1/ave_pool
I0813 21:10:38.058531 23709 net.cpp:141] Setting up loss1/ave_pool
I0813 21:10:38.058537 23709 net.cpp:148] Top shape: 32 512 4 4 (262144)
I0813 21:10:38.058540 23709 net.cpp:156] Memory required for data: 1260667392
I0813 21:10:38.058544 23709 layer_factory.hpp:77] Creating layer loss1/conv
I0813 21:10:38.058554 23709 net.cpp:91] Creating Layer loss1/conv
I0813 21:10:38.058559 23709 net.cpp:469] loss1/conv <- loss1/ave_pool
I0813 21:10:38.058568 23709 net.cpp:443] loss1/conv -> loss1/conv
I0813 21:10:38.059203 23709 net.cpp:141] Setting up loss1/conv
I0813 21:10:38.059213 23709 net.cpp:148] Top shape: 32 128 4 4 (65536)
I0813 21:10:38.059217 23709 net.cpp:156] Memory required for data: 1260929536
I0813 21:10:38.059224 23709 layer_factory.hpp:77] Creating layer loss1/relu_conv
I0813 21:10:38.059233 23709 net.cpp:91] Creating Layer loss1/relu_conv
I0813 21:10:38.059238 23709 net.cpp:469] loss1/relu_conv <- loss1/conv
I0813 21:10:38.059244 23709 net.cpp:430] loss1/relu_conv -> loss1/conv (in-place)
I0813 21:10:38.059255 23709 net.cpp:141] Setting up loss1/relu_conv
I0813 21:10:38.059267 23709 net.cpp:148] Top shape: 32 128 4 4 (65536)
I0813 21:10:38.059270 23709 net.cpp:156] Memory required for data: 1261191680
I0813 21:10:38.059274 23709 layer_factory.hpp:77] Creating layer loss1/fc
I0813 21:10:38.059293 23709 net.cpp:91] Creating Layer loss1/fc
I0813 21:10:38.059298 23709 net.cpp:469] loss1/fc <- loss1/conv
I0813 21:10:38.059303 23709 net.cpp:443] loss1/fc -> loss1/fc
I0813 21:10:38.076165 23709 net.cpp:141] Setting up loss1/fc
I0813 21:10:38.076187 23709 net.cpp:148] Top shape: 32 1024 (32768)
I0813 21:10:38.076192 23709 net.cpp:156] Memory required for data: 1261322752
I0813 21:10:38.076200 23709 layer_factory.hpp:77] Creating layer loss1/relu_fc
I0813 21:10:38.076207 23709 net.cpp:91] Creating Layer loss1/relu_fc
I0813 21:10:38.076212 23709 net.cpp:469] loss1/relu_fc <- loss1/fc
I0813 21:10:38.076220 23709 net.cpp:430] loss1/relu_fc -> loss1/fc (in-place)
I0813 21:10:38.076227 23709 net.cpp:141] Setting up loss1/relu_fc
I0813 21:10:38.076232 23709 net.cpp:148] Top shape: 32 1024 (32768)
I0813 21:10:38.076236 23709 net.cpp:156] Memory required for data: 1261453824
I0813 21:10:38.076241 23709 layer_factory.hpp:77] Creating layer loss1/drop_fc
I0813 21:10:38.076256 23709 net.cpp:91] Creating Layer loss1/drop_fc
I0813 21:10:38.076259 23709 net.cpp:469] loss1/drop_fc <- loss1/fc
I0813 21:10:38.076264 23709 net.cpp:430] loss1/drop_fc -> loss1/fc (in-place)
I0813 21:10:38.076292 23709 net.cpp:141] Setting up loss1/drop_fc
I0813 21:10:38.076299 23709 net.cpp:148] Top shape: 32 1024 (32768)
I0813 21:10:38.076303 23709 net.cpp:156] Memory required for data: 1261584896
I0813 21:10:38.076308 23709 layer_factory.hpp:77] Creating layer loss1/classifier
I0813 21:10:38.076318 23709 net.cpp:91] Creating Layer loss1/classifier
I0813 21:10:38.076323 23709 net.cpp:469] loss1/classifier <- loss1/fc
I0813 21:10:38.076329 23709 net.cpp:443] loss1/classifier -> loss1/classifier
I0813 21:10:38.084591 23709 net.cpp:141] Setting up loss1/classifier
I0813 21:10:38.084609 23709 net.cpp:148] Top shape: 32 1000 (32000)
I0813 21:10:38.084612 23709 net.cpp:156] Memory required for data: 1261712896
I0813 21:10:38.084619 23709 layer_factory.hpp:77] Creating layer loss1/loss
I0813 21:10:38.084630 23709 net.cpp:91] Creating Layer loss1/loss
I0813 21:10:38.084635 23709 net.cpp:469] loss1/loss <- loss1/classifier
I0813 21:10:38.084640 23709 net.cpp:469] loss1/loss <- label_data_1_split_0
I0813 21:10:38.084645 23709 net.cpp:443] loss1/loss -> loss1/loss1
I0813 21:10:38.084664 23709 layer_factory.hpp:77] Creating layer loss1/loss
I0813 21:10:38.085428 23709 net.cpp:141] Setting up loss1/loss
I0813 21:10:38.085443 23709 net.cpp:148] Top shape: (1)
I0813 21:10:38.085448 23709 net.cpp:151]     with loss weight 0.3
I0813 21:10:38.085474 23709 net.cpp:156] Memory required for data: 1261712900
I0813 21:10:38.085479 23709 layer_factory.hpp:77] Creating layer inception_4b/1x1
I0813 21:10:38.085491 23709 net.cpp:91] Creating Layer inception_4b/1x1
I0813 21:10:38.085497 23709 net.cpp:469] inception_4b/1x1 <- inception_4a/output_inception_4a/output_0_split_1
I0813 21:10:38.085505 23709 net.cpp:443] inception_4b/1x1 -> inception_4b/1x1
I0813 21:10:38.086189 23709 net.cpp:141] Setting up inception_4b/1x1
I0813 21:10:38.086199 23709 net.cpp:148] Top shape: 32 160 14 14 (1003520)
I0813 21:10:38.086203 23709 net.cpp:156] Memory required for data: 1265726980
I0813 21:10:38.086210 23709 layer_factory.hpp:77] Creating layer inception_4b/relu_1x1
I0813 21:10:38.086217 23709 net.cpp:91] Creating Layer inception_4b/relu_1x1
I0813 21:10:38.086221 23709 net.cpp:469] inception_4b/relu_1x1 <- inception_4b/1x1
I0813 21:10:38.086227 23709 net.cpp:430] inception_4b/relu_1x1 -> inception_4b/1x1 (in-place)
I0813 21:10:38.086233 23709 net.cpp:141] Setting up inception_4b/relu_1x1
I0813 21:10:38.086238 23709 net.cpp:148] Top shape: 32 160 14 14 (1003520)
I0813 21:10:38.086241 23709 net.cpp:156] Memory required for data: 1269741060
I0813 21:10:38.086246 23709 layer_factory.hpp:77] Creating layer inception_4b/3x3_reduce
I0813 21:10:38.086269 23709 net.cpp:91] Creating Layer inception_4b/3x3_reduce
I0813 21:10:38.086274 23709 net.cpp:469] inception_4b/3x3_reduce <- inception_4a/output_inception_4a/output_0_split_2
I0813 21:10:38.086283 23709 net.cpp:443] inception_4b/3x3_reduce -> inception_4b/3x3_reduce
I0813 21:10:38.086809 23709 net.cpp:141] Setting up inception_4b/3x3_reduce
I0813 21:10:38.086819 23709 net.cpp:148] Top shape: 32 112 14 14 (702464)
I0813 21:10:38.086822 23709 net.cpp:156] Memory required for data: 1272550916
I0813 21:10:38.086828 23709 layer_factory.hpp:77] Creating layer inception_4b/relu_3x3_reduce
I0813 21:10:38.086834 23709 net.cpp:91] Creating Layer inception_4b/relu_3x3_reduce
I0813 21:10:38.086839 23709 net.cpp:469] inception_4b/relu_3x3_reduce <- inception_4b/3x3_reduce
I0813 21:10:38.086844 23709 net.cpp:430] inception_4b/relu_3x3_reduce -> inception_4b/3x3_reduce (in-place)
I0813 21:10:38.086850 23709 net.cpp:141] Setting up inception_4b/relu_3x3_reduce
I0813 21:10:38.086854 23709 net.cpp:148] Top shape: 32 112 14 14 (702464)
I0813 21:10:38.086858 23709 net.cpp:156] Memory required for data: 1275360772
I0813 21:10:38.086861 23709 layer_factory.hpp:77] Creating layer inception_4b/3x3
I0813 21:10:38.086876 23709 net.cpp:91] Creating Layer inception_4b/3x3
I0813 21:10:38.086881 23709 net.cpp:469] inception_4b/3x3 <- inception_4b/3x3_reduce
I0813 21:10:38.086889 23709 net.cpp:443] inception_4b/3x3 -> inception_4b/3x3
I0813 21:10:38.091552 23709 net.cpp:141] Setting up inception_4b/3x3
I0813 21:10:38.091568 23709 net.cpp:148] Top shape: 32 224 14 14 (1404928)
I0813 21:10:38.091572 23709 net.cpp:156] Memory required for data: 1280980484
I0813 21:10:38.091579 23709 layer_factory.hpp:77] Creating layer inception_4b/relu_3x3
I0813 21:10:38.091586 23709 net.cpp:91] Creating Layer inception_4b/relu_3x3
I0813 21:10:38.091591 23709 net.cpp:469] inception_4b/relu_3x3 <- inception_4b/3x3
I0813 21:10:38.091598 23709 net.cpp:430] inception_4b/relu_3x3 -> inception_4b/3x3 (in-place)
I0813 21:10:38.091604 23709 net.cpp:141] Setting up inception_4b/relu_3x3
I0813 21:10:38.091609 23709 net.cpp:148] Top shape: 32 224 14 14 (1404928)
I0813 21:10:38.091612 23709 net.cpp:156] Memory required for data: 1286600196
I0813 21:10:38.091616 23709 layer_factory.hpp:77] Creating layer inception_4b/5x5_reduce
I0813 21:10:38.091627 23709 net.cpp:91] Creating Layer inception_4b/5x5_reduce
I0813 21:10:38.091632 23709 net.cpp:469] inception_4b/5x5_reduce <- inception_4a/output_inception_4a/output_0_split_3
I0813 21:10:38.091640 23709 net.cpp:443] inception_4b/5x5_reduce -> inception_4b/5x5_reduce
I0813 21:10:38.091908 23709 net.cpp:141] Setting up inception_4b/5x5_reduce
I0813 21:10:38.091917 23709 net.cpp:148] Top shape: 32 24 14 14 (150528)
I0813 21:10:38.091922 23709 net.cpp:156] Memory required for data: 1287202308
I0813 21:10:38.091928 23709 layer_factory.hpp:77] Creating layer inception_4b/relu_5x5_reduce
I0813 21:10:38.091933 23709 net.cpp:91] Creating Layer inception_4b/relu_5x5_reduce
I0813 21:10:38.091938 23709 net.cpp:469] inception_4b/relu_5x5_reduce <- inception_4b/5x5_reduce
I0813 21:10:38.091943 23709 net.cpp:430] inception_4b/relu_5x5_reduce -> inception_4b/5x5_reduce (in-place)
I0813 21:10:38.091951 23709 net.cpp:141] Setting up inception_4b/relu_5x5_reduce
I0813 21:10:38.091956 23709 net.cpp:148] Top shape: 32 24 14 14 (150528)
I0813 21:10:38.091959 23709 net.cpp:156] Memory required for data: 1287804420
I0813 21:10:38.091964 23709 layer_factory.hpp:77] Creating layer inception_4b/5x5
I0813 21:10:38.091972 23709 net.cpp:91] Creating Layer inception_4b/5x5
I0813 21:10:38.091976 23709 net.cpp:469] inception_4b/5x5 <- inception_4b/5x5_reduce
I0813 21:10:38.091984 23709 net.cpp:443] inception_4b/5x5 -> inception_4b/5x5
I0813 21:10:38.092402 23709 net.cpp:141] Setting up inception_4b/5x5
I0813 21:10:38.092411 23709 net.cpp:148] Top shape: 32 64 14 14 (401408)
I0813 21:10:38.092416 23709 net.cpp:156] Memory required for data: 1289410052
I0813 21:10:38.092422 23709 layer_factory.hpp:77] Creating layer inception_4b/relu_5x5
I0813 21:10:38.092432 23709 net.cpp:91] Creating Layer inception_4b/relu_5x5
I0813 21:10:38.092444 23709 net.cpp:469] inception_4b/relu_5x5 <- inception_4b/5x5
I0813 21:10:38.092449 23709 net.cpp:430] inception_4b/relu_5x5 -> inception_4b/5x5 (in-place)
I0813 21:10:38.092455 23709 net.cpp:141] Setting up inception_4b/relu_5x5
I0813 21:10:38.092460 23709 net.cpp:148] Top shape: 32 64 14 14 (401408)
I0813 21:10:38.092463 23709 net.cpp:156] Memory required for data: 1291015684
I0813 21:10:38.092468 23709 layer_factory.hpp:77] Creating layer inception_4b/pool
I0813 21:10:38.092475 23709 net.cpp:91] Creating Layer inception_4b/pool
I0813 21:10:38.092480 23709 net.cpp:469] inception_4b/pool <- inception_4a/output_inception_4a/output_0_split_4
I0813 21:10:38.092485 23709 net.cpp:443] inception_4b/pool -> inception_4b/pool
I0813 21:10:38.092527 23709 net.cpp:141] Setting up inception_4b/pool
I0813 21:10:38.092535 23709 net.cpp:148] Top shape: 32 512 14 14 (3211264)
I0813 21:10:38.092538 23709 net.cpp:156] Memory required for data: 1303860740
I0813 21:10:38.092542 23709 layer_factory.hpp:77] Creating layer inception_4b/pool_proj
I0813 21:10:38.092553 23709 net.cpp:91] Creating Layer inception_4b/pool_proj
I0813 21:10:38.092558 23709 net.cpp:469] inception_4b/pool_proj <- inception_4b/pool
I0813 21:10:38.092566 23709 net.cpp:443] inception_4b/pool_proj -> inception_4b/pool_proj
I0813 21:10:38.092939 23709 net.cpp:141] Setting up inception_4b/pool_proj
I0813 21:10:38.092948 23709 net.cpp:148] Top shape: 32 64 14 14 (401408)
I0813 21:10:38.092952 23709 net.cpp:156] Memory required for data: 1305466372
I0813 21:10:38.092958 23709 layer_factory.hpp:77] Creating layer inception_4b/relu_pool_proj
I0813 21:10:38.092967 23709 net.cpp:91] Creating Layer inception_4b/relu_pool_proj
I0813 21:10:38.092970 23709 net.cpp:469] inception_4b/relu_pool_proj <- inception_4b/pool_proj
I0813 21:10:38.092975 23709 net.cpp:430] inception_4b/relu_pool_proj -> inception_4b/pool_proj (in-place)
I0813 21:10:38.092981 23709 net.cpp:141] Setting up inception_4b/relu_pool_proj
I0813 21:10:38.092986 23709 net.cpp:148] Top shape: 32 64 14 14 (401408)
I0813 21:10:38.092989 23709 net.cpp:156] Memory required for data: 1307072004
I0813 21:10:38.092993 23709 layer_factory.hpp:77] Creating layer inception_4b/output
I0813 21:10:38.092999 23709 net.cpp:91] Creating Layer inception_4b/output
I0813 21:10:38.093003 23709 net.cpp:469] inception_4b/output <- inception_4b/1x1
I0813 21:10:38.093008 23709 net.cpp:469] inception_4b/output <- inception_4b/3x3
I0813 21:10:38.093013 23709 net.cpp:469] inception_4b/output <- inception_4b/5x5
I0813 21:10:38.093016 23709 net.cpp:469] inception_4b/output <- inception_4b/pool_proj
I0813 21:10:38.093022 23709 net.cpp:443] inception_4b/output -> inception_4b/output
I0813 21:10:38.093044 23709 net.cpp:141] Setting up inception_4b/output
I0813 21:10:38.093050 23709 net.cpp:148] Top shape: 32 512 14 14 (3211264)
I0813 21:10:38.093052 23709 net.cpp:156] Memory required for data: 1319917060
I0813 21:10:38.093056 23709 layer_factory.hpp:77] Creating layer inception_4b/output_inception_4b/output_0_split
I0813 21:10:38.093065 23709 net.cpp:91] Creating Layer inception_4b/output_inception_4b/output_0_split
I0813 21:10:38.093068 23709 net.cpp:469] inception_4b/output_inception_4b/output_0_split <- inception_4b/output
I0813 21:10:38.093082 23709 net.cpp:443] inception_4b/output_inception_4b/output_0_split -> inception_4b/output_inception_4b/output_0_split_0
I0813 21:10:38.093093 23709 net.cpp:443] inception_4b/output_inception_4b/output_0_split -> inception_4b/output_inception_4b/output_0_split_1
I0813 21:10:38.093099 23709 net.cpp:443] inception_4b/output_inception_4b/output_0_split -> inception_4b/output_inception_4b/output_0_split_2
I0813 21:10:38.093106 23709 net.cpp:443] inception_4b/output_inception_4b/output_0_split -> inception_4b/output_inception_4b/output_0_split_3
I0813 21:10:38.093152 23709 net.cpp:141] Setting up inception_4b/output_inception_4b/output_0_split
I0813 21:10:38.093158 23709 net.cpp:148] Top shape: 32 512 14 14 (3211264)
I0813 21:10:38.093168 23709 net.cpp:148] Top shape: 32 512 14 14 (3211264)
I0813 21:10:38.093178 23709 net.cpp:148] Top shape: 32 512 14 14 (3211264)
I0813 21:10:38.093181 23709 net.cpp:148] Top shape: 32 512 14 14 (3211264)
I0813 21:10:38.093185 23709 net.cpp:156] Memory required for data: 1371297284
I0813 21:10:38.093189 23709 layer_factory.hpp:77] Creating layer inception_4c/1x1
I0813 21:10:38.093199 23709 net.cpp:91] Creating Layer inception_4c/1x1
I0813 21:10:38.093204 23709 net.cpp:469] inception_4c/1x1 <- inception_4b/output_inception_4b/output_0_split_0
I0813 21:10:38.093211 23709 net.cpp:443] inception_4c/1x1 -> inception_4c/1x1
I0813 21:10:38.093785 23709 net.cpp:141] Setting up inception_4c/1x1
I0813 21:10:38.093794 23709 net.cpp:148] Top shape: 32 128 14 14 (802816)
I0813 21:10:38.093797 23709 net.cpp:156] Memory required for data: 1374508548
I0813 21:10:38.093803 23709 layer_factory.hpp:77] Creating layer inception_4c/relu_1x1
I0813 21:10:38.093811 23709 net.cpp:91] Creating Layer inception_4c/relu_1x1
I0813 21:10:38.093814 23709 net.cpp:469] inception_4c/relu_1x1 <- inception_4c/1x1
I0813 21:10:38.093819 23709 net.cpp:430] inception_4c/relu_1x1 -> inception_4c/1x1 (in-place)
I0813 21:10:38.093825 23709 net.cpp:141] Setting up inception_4c/relu_1x1
I0813 21:10:38.093829 23709 net.cpp:148] Top shape: 32 128 14 14 (802816)
I0813 21:10:38.093833 23709 net.cpp:156] Memory required for data: 1377719812
I0813 21:10:38.093837 23709 layer_factory.hpp:77] Creating layer inception_4c/3x3_reduce
I0813 21:10:38.093847 23709 net.cpp:91] Creating Layer inception_4c/3x3_reduce
I0813 21:10:38.093852 23709 net.cpp:469] inception_4c/3x3_reduce <- inception_4b/output_inception_4b/output_0_split_1
I0813 21:10:38.093858 23709 net.cpp:443] inception_4c/3x3_reduce -> inception_4c/3x3_reduce
I0813 21:10:38.095098 23709 net.cpp:141] Setting up inception_4c/3x3_reduce
I0813 21:10:38.095113 23709 net.cpp:148] Top shape: 32 128 14 14 (802816)
I0813 21:10:38.095116 23709 net.cpp:156] Memory required for data: 1380931076
I0813 21:10:38.095122 23709 layer_factory.hpp:77] Creating layer inception_4c/relu_3x3_reduce
I0813 21:10:38.095131 23709 net.cpp:91] Creating Layer inception_4c/relu_3x3_reduce
I0813 21:10:38.095136 23709 net.cpp:469] inception_4c/relu_3x3_reduce <- inception_4c/3x3_reduce
I0813 21:10:38.095142 23709 net.cpp:430] inception_4c/relu_3x3_reduce -> inception_4c/3x3_reduce (in-place)
I0813 21:10:38.095149 23709 net.cpp:141] Setting up inception_4c/relu_3x3_reduce
I0813 21:10:38.095155 23709 net.cpp:148] Top shape: 32 128 14 14 (802816)
I0813 21:10:38.095157 23709 net.cpp:156] Memory required for data: 1384142340
I0813 21:10:38.095161 23709 layer_factory.hpp:77] Creating layer inception_4c/3x3
I0813 21:10:38.095171 23709 net.cpp:91] Creating Layer inception_4c/3x3
I0813 21:10:38.095175 23709 net.cpp:469] inception_4c/3x3 <- inception_4c/3x3_reduce
I0813 21:10:38.095181 23709 net.cpp:443] inception_4c/3x3 -> inception_4c/3x3
I0813 21:10:38.097967 23709 net.cpp:141] Setting up inception_4c/3x3
I0813 21:10:38.097983 23709 net.cpp:148] Top shape: 32 256 14 14 (1605632)
I0813 21:10:38.097988 23709 net.cpp:156] Memory required for data: 1390564868
I0813 21:10:38.098009 23709 layer_factory.hpp:77] Creating layer inception_4c/relu_3x3
I0813 21:10:38.098019 23709 net.cpp:91] Creating Layer inception_4c/relu_3x3
I0813 21:10:38.098024 23709 net.cpp:469] inception_4c/relu_3x3 <- inception_4c/3x3
I0813 21:10:38.098036 23709 net.cpp:430] inception_4c/relu_3x3 -> inception_4c/3x3 (in-place)
I0813 21:10:38.098044 23709 net.cpp:141] Setting up inception_4c/relu_3x3
I0813 21:10:38.098049 23709 net.cpp:148] Top shape: 32 256 14 14 (1605632)
I0813 21:10:38.098053 23709 net.cpp:156] Memory required for data: 1396987396
I0813 21:10:38.098057 23709 layer_factory.hpp:77] Creating layer inception_4c/5x5_reduce
I0813 21:10:38.098065 23709 net.cpp:91] Creating Layer inception_4c/5x5_reduce
I0813 21:10:38.098070 23709 net.cpp:469] inception_4c/5x5_reduce <- inception_4b/output_inception_4b/output_0_split_2
I0813 21:10:38.098085 23709 net.cpp:443] inception_4c/5x5_reduce -> inception_4c/5x5_reduce
I0813 21:10:38.098368 23709 net.cpp:141] Setting up inception_4c/5x5_reduce
I0813 21:10:38.098378 23709 net.cpp:148] Top shape: 32 24 14 14 (150528)
I0813 21:10:38.098382 23709 net.cpp:156] Memory required for data: 1397589508
I0813 21:10:38.098388 23709 layer_factory.hpp:77] Creating layer inception_4c/relu_5x5_reduce
I0813 21:10:38.098395 23709 net.cpp:91] Creating Layer inception_4c/relu_5x5_reduce
I0813 21:10:38.098400 23709 net.cpp:469] inception_4c/relu_5x5_reduce <- inception_4c/5x5_reduce
I0813 21:10:38.098405 23709 net.cpp:430] inception_4c/relu_5x5_reduce -> inception_4c/5x5_reduce (in-place)
I0813 21:10:38.098412 23709 net.cpp:141] Setting up inception_4c/relu_5x5_reduce
I0813 21:10:38.098417 23709 net.cpp:148] Top shape: 32 24 14 14 (150528)
I0813 21:10:38.098420 23709 net.cpp:156] Memory required for data: 1398191620
I0813 21:10:38.098424 23709 layer_factory.hpp:77] Creating layer inception_4c/5x5
I0813 21:10:38.098434 23709 net.cpp:91] Creating Layer inception_4c/5x5
I0813 21:10:38.098438 23709 net.cpp:469] inception_4c/5x5 <- inception_4c/5x5_reduce
I0813 21:10:38.098446 23709 net.cpp:443] inception_4c/5x5 -> inception_4c/5x5
I0813 21:10:38.098882 23709 net.cpp:141] Setting up inception_4c/5x5
I0813 21:10:38.098892 23709 net.cpp:148] Top shape: 32 64 14 14 (401408)
I0813 21:10:38.098896 23709 net.cpp:156] Memory required for data: 1399797252
I0813 21:10:38.098902 23709 layer_factory.hpp:77] Creating layer inception_4c/relu_5x5
I0813 21:10:38.098911 23709 net.cpp:91] Creating Layer inception_4c/relu_5x5
I0813 21:10:38.098914 23709 net.cpp:469] inception_4c/relu_5x5 <- inception_4c/5x5
I0813 21:10:38.098922 23709 net.cpp:430] inception_4c/relu_5x5 -> inception_4c/5x5 (in-place)
I0813 21:10:38.098928 23709 net.cpp:141] Setting up inception_4c/relu_5x5
I0813 21:10:38.098933 23709 net.cpp:148] Top shape: 32 64 14 14 (401408)
I0813 21:10:38.098937 23709 net.cpp:156] Memory required for data: 1401402884
I0813 21:10:38.098942 23709 layer_factory.hpp:77] Creating layer inception_4c/pool
I0813 21:10:38.098948 23709 net.cpp:91] Creating Layer inception_4c/pool
I0813 21:10:38.098951 23709 net.cpp:469] inception_4c/pool <- inception_4b/output_inception_4b/output_0_split_3
I0813 21:10:38.098958 23709 net.cpp:443] inception_4c/pool -> inception_4c/pool
I0813 21:10:38.098994 23709 net.cpp:141] Setting up inception_4c/pool
I0813 21:10:38.099000 23709 net.cpp:148] Top shape: 32 512 14 14 (3211264)
I0813 21:10:38.099004 23709 net.cpp:156] Memory required for data: 1414247940
I0813 21:10:38.099007 23709 layer_factory.hpp:77] Creating layer inception_4c/pool_proj
I0813 21:10:38.099017 23709 net.cpp:91] Creating Layer inception_4c/pool_proj
I0813 21:10:38.099022 23709 net.cpp:469] inception_4c/pool_proj <- inception_4c/pool
I0813 21:10:38.099030 23709 net.cpp:443] inception_4c/pool_proj -> inception_4c/pool_proj
I0813 21:10:38.099424 23709 net.cpp:141] Setting up inception_4c/pool_proj
I0813 21:10:38.099433 23709 net.cpp:148] Top shape: 32 64 14 14 (401408)
I0813 21:10:38.099437 23709 net.cpp:156] Memory required for data: 1415853572
I0813 21:10:38.099443 23709 layer_factory.hpp:77] Creating layer inception_4c/relu_pool_proj
I0813 21:10:38.099457 23709 net.cpp:91] Creating Layer inception_4c/relu_pool_proj
I0813 21:10:38.099462 23709 net.cpp:469] inception_4c/relu_pool_proj <- inception_4c/pool_proj
I0813 21:10:38.099467 23709 net.cpp:430] inception_4c/relu_pool_proj -> inception_4c/pool_proj (in-place)
I0813 21:10:38.099472 23709 net.cpp:141] Setting up inception_4c/relu_pool_proj
I0813 21:10:38.099478 23709 net.cpp:148] Top shape: 32 64 14 14 (401408)
I0813 21:10:38.099481 23709 net.cpp:156] Memory required for data: 1417459204
I0813 21:10:38.099484 23709 layer_factory.hpp:77] Creating layer inception_4c/output
I0813 21:10:38.099493 23709 net.cpp:91] Creating Layer inception_4c/output
I0813 21:10:38.099498 23709 net.cpp:469] inception_4c/output <- inception_4c/1x1
I0813 21:10:38.099503 23709 net.cpp:469] inception_4c/output <- inception_4c/3x3
I0813 21:10:38.099511 23709 net.cpp:469] inception_4c/output <- inception_4c/5x5
I0813 21:10:38.099520 23709 net.cpp:469] inception_4c/output <- inception_4c/pool_proj
I0813 21:10:38.099526 23709 net.cpp:443] inception_4c/output -> inception_4c/output
I0813 21:10:38.099548 23709 net.cpp:141] Setting up inception_4c/output
I0813 21:10:38.099555 23709 net.cpp:148] Top shape: 32 512 14 14 (3211264)
I0813 21:10:38.099558 23709 net.cpp:156] Memory required for data: 1430304260
I0813 21:10:38.099562 23709 layer_factory.hpp:77] Creating layer inception_4c/output_inception_4c/output_0_split
I0813 21:10:38.099571 23709 net.cpp:91] Creating Layer inception_4c/output_inception_4c/output_0_split
I0813 21:10:38.099575 23709 net.cpp:469] inception_4c/output_inception_4c/output_0_split <- inception_4c/output
I0813 21:10:38.099582 23709 net.cpp:443] inception_4c/output_inception_4c/output_0_split -> inception_4c/output_inception_4c/output_0_split_0
I0813 21:10:38.099589 23709 net.cpp:443] inception_4c/output_inception_4c/output_0_split -> inception_4c/output_inception_4c/output_0_split_1
I0813 21:10:38.099596 23709 net.cpp:443] inception_4c/output_inception_4c/output_0_split -> inception_4c/output_inception_4c/output_0_split_2
I0813 21:10:38.099601 23709 net.cpp:443] inception_4c/output_inception_4c/output_0_split -> inception_4c/output_inception_4c/output_0_split_3
I0813 21:10:38.099649 23709 net.cpp:141] Setting up inception_4c/output_inception_4c/output_0_split
I0813 21:10:38.099656 23709 net.cpp:148] Top shape: 32 512 14 14 (3211264)
I0813 21:10:38.099661 23709 net.cpp:148] Top shape: 32 512 14 14 (3211264)
I0813 21:10:38.099665 23709 net.cpp:148] Top shape: 32 512 14 14 (3211264)
I0813 21:10:38.099669 23709 net.cpp:148] Top shape: 32 512 14 14 (3211264)
I0813 21:10:38.099673 23709 net.cpp:156] Memory required for data: 1481684484
I0813 21:10:38.099678 23709 layer_factory.hpp:77] Creating layer inception_4d/1x1
I0813 21:10:38.099687 23709 net.cpp:91] Creating Layer inception_4d/1x1
I0813 21:10:38.099691 23709 net.cpp:469] inception_4d/1x1 <- inception_4c/output_inception_4c/output_0_split_0
I0813 21:10:38.099699 23709 net.cpp:443] inception_4d/1x1 -> inception_4d/1x1
I0813 21:10:38.100253 23709 net.cpp:141] Setting up inception_4d/1x1
I0813 21:10:38.100263 23709 net.cpp:148] Top shape: 32 112 14 14 (702464)
I0813 21:10:38.100267 23709 net.cpp:156] Memory required for data: 1484494340
I0813 21:10:38.100273 23709 layer_factory.hpp:77] Creating layer inception_4d/relu_1x1
I0813 21:10:38.100281 23709 net.cpp:91] Creating Layer inception_4d/relu_1x1
I0813 21:10:38.100284 23709 net.cpp:469] inception_4d/relu_1x1 <- inception_4d/1x1
I0813 21:10:38.100289 23709 net.cpp:430] inception_4d/relu_1x1 -> inception_4d/1x1 (in-place)
I0813 21:10:38.100296 23709 net.cpp:141] Setting up inception_4d/relu_1x1
I0813 21:10:38.100301 23709 net.cpp:148] Top shape: 32 112 14 14 (702464)
I0813 21:10:38.100304 23709 net.cpp:156] Memory required for data: 1487304196
I0813 21:10:38.100308 23709 layer_factory.hpp:77] Creating layer inception_4d/3x3_reduce
I0813 21:10:38.100318 23709 net.cpp:91] Creating Layer inception_4d/3x3_reduce
I0813 21:10:38.100325 23709 net.cpp:469] inception_4d/3x3_reduce <- inception_4c/output_inception_4c/output_0_split_1
I0813 21:10:38.100332 23709 net.cpp:443] inception_4d/3x3_reduce -> inception_4d/3x3_reduce
I0813 21:10:38.101012 23709 net.cpp:141] Setting up inception_4d/3x3_reduce
I0813 21:10:38.101022 23709 net.cpp:148] Top shape: 32 144 14 14 (903168)
I0813 21:10:38.101025 23709 net.cpp:156] Memory required for data: 1490916868
I0813 21:10:38.101032 23709 layer_factory.hpp:77] Creating layer inception_4d/relu_3x3_reduce
I0813 21:10:38.101038 23709 net.cpp:91] Creating Layer inception_4d/relu_3x3_reduce
I0813 21:10:38.101042 23709 net.cpp:469] inception_4d/relu_3x3_reduce <- inception_4d/3x3_reduce
I0813 21:10:38.101049 23709 net.cpp:430] inception_4d/relu_3x3_reduce -> inception_4d/3x3_reduce (in-place)
I0813 21:10:38.101056 23709 net.cpp:141] Setting up inception_4d/relu_3x3_reduce
I0813 21:10:38.101061 23709 net.cpp:148] Top shape: 32 144 14 14 (903168)
I0813 21:10:38.101068 23709 net.cpp:156] Memory required for data: 1494529540
I0813 21:10:38.101085 23709 layer_factory.hpp:77] Creating layer inception_4d/3x3
I0813 21:10:38.101094 23709 net.cpp:91] Creating Layer inception_4d/3x3
I0813 21:10:38.101099 23709 net.cpp:469] inception_4d/3x3 <- inception_4d/3x3_reduce
I0813 21:10:38.101107 23709 net.cpp:443] inception_4d/3x3 -> inception_4d/3x3
I0813 21:10:38.104440 23709 net.cpp:141] Setting up inception_4d/3x3
I0813 21:10:38.104455 23709 net.cpp:148] Top shape: 32 288 14 14 (1806336)
I0813 21:10:38.104460 23709 net.cpp:156] Memory required for data: 1501754884
I0813 21:10:38.104466 23709 layer_factory.hpp:77] Creating layer inception_4d/relu_3x3
I0813 21:10:38.104473 23709 net.cpp:91] Creating Layer inception_4d/relu_3x3
I0813 21:10:38.104478 23709 net.cpp:469] inception_4d/relu_3x3 <- inception_4d/3x3
I0813 21:10:38.104485 23709 net.cpp:430] inception_4d/relu_3x3 -> inception_4d/3x3 (in-place)
I0813 21:10:38.104491 23709 net.cpp:141] Setting up inception_4d/relu_3x3
I0813 21:10:38.104496 23709 net.cpp:148] Top shape: 32 288 14 14 (1806336)
I0813 21:10:38.104501 23709 net.cpp:156] Memory required for data: 1508980228
I0813 21:10:38.104504 23709 layer_factory.hpp:77] Creating layer inception_4d/5x5_reduce
I0813 21:10:38.104516 23709 net.cpp:91] Creating Layer inception_4d/5x5_reduce
I0813 21:10:38.104521 23709 net.cpp:469] inception_4d/5x5_reduce <- inception_4c/output_inception_4c/output_0_split_2
I0813 21:10:38.104528 23709 net.cpp:443] inception_4d/5x5_reduce -> inception_4d/5x5_reduce
I0813 21:10:38.104840 23709 net.cpp:141] Setting up inception_4d/5x5_reduce
I0813 21:10:38.104851 23709 net.cpp:148] Top shape: 32 32 14 14 (200704)
I0813 21:10:38.104854 23709 net.cpp:156] Memory required for data: 1509783044
I0813 21:10:38.104861 23709 layer_factory.hpp:77] Creating layer inception_4d/relu_5x5_reduce
I0813 21:10:38.104866 23709 net.cpp:91] Creating Layer inception_4d/relu_5x5_reduce
I0813 21:10:38.104871 23709 net.cpp:469] inception_4d/relu_5x5_reduce <- inception_4d/5x5_reduce
I0813 21:10:38.104876 23709 net.cpp:430] inception_4d/relu_5x5_reduce -> inception_4d/5x5_reduce (in-place)
I0813 21:10:38.104883 23709 net.cpp:141] Setting up inception_4d/relu_5x5_reduce
I0813 21:10:38.104888 23709 net.cpp:148] Top shape: 32 32 14 14 (200704)
I0813 21:10:38.104892 23709 net.cpp:156] Memory required for data: 1510585860
I0813 21:10:38.104897 23709 layer_factory.hpp:77] Creating layer inception_4d/5x5
I0813 21:10:38.104907 23709 net.cpp:91] Creating Layer inception_4d/5x5
I0813 21:10:38.104912 23709 net.cpp:469] inception_4d/5x5 <- inception_4d/5x5_reduce
I0813 21:10:38.104919 23709 net.cpp:443] inception_4d/5x5 -> inception_4d/5x5
I0813 21:10:38.105451 23709 net.cpp:141] Setting up inception_4d/5x5
I0813 21:10:38.105463 23709 net.cpp:148] Top shape: 32 64 14 14 (401408)
I0813 21:10:38.105468 23709 net.cpp:156] Memory required for data: 1512191492
I0813 21:10:38.105473 23709 layer_factory.hpp:77] Creating layer inception_4d/relu_5x5
I0813 21:10:38.105479 23709 net.cpp:91] Creating Layer inception_4d/relu_5x5
I0813 21:10:38.105484 23709 net.cpp:469] inception_4d/relu_5x5 <- inception_4d/5x5
I0813 21:10:38.105489 23709 net.cpp:430] inception_4d/relu_5x5 -> inception_4d/5x5 (in-place)
I0813 21:10:38.105497 23709 net.cpp:141] Setting up inception_4d/relu_5x5
I0813 21:10:38.105502 23709 net.cpp:148] Top shape: 32 64 14 14 (401408)
I0813 21:10:38.105506 23709 net.cpp:156] Memory required for data: 1513797124
I0813 21:10:38.105510 23709 layer_factory.hpp:77] Creating layer inception_4d/pool
I0813 21:10:38.105516 23709 net.cpp:91] Creating Layer inception_4d/pool
I0813 21:10:38.105521 23709 net.cpp:469] inception_4d/pool <- inception_4c/output_inception_4c/output_0_split_3
I0813 21:10:38.105526 23709 net.cpp:443] inception_4d/pool -> inception_4d/pool
I0813 21:10:38.105562 23709 net.cpp:141] Setting up inception_4d/pool
I0813 21:10:38.105568 23709 net.cpp:148] Top shape: 32 512 14 14 (3211264)
I0813 21:10:38.105572 23709 net.cpp:156] Memory required for data: 1526642180
I0813 21:10:38.105581 23709 layer_factory.hpp:77] Creating layer inception_4d/pool_proj
I0813 21:10:38.105597 23709 net.cpp:91] Creating Layer inception_4d/pool_proj
I0813 21:10:38.105602 23709 net.cpp:469] inception_4d/pool_proj <- inception_4d/pool
I0813 21:10:38.105625 23709 net.cpp:443] inception_4d/pool_proj -> inception_4d/pool_proj
I0813 21:10:38.106031 23709 net.cpp:141] Setting up inception_4d/pool_proj
I0813 21:10:38.106040 23709 net.cpp:148] Top shape: 32 64 14 14 (401408)
I0813 21:10:38.106045 23709 net.cpp:156] Memory required for data: 1528247812
I0813 21:10:38.106051 23709 layer_factory.hpp:77] Creating layer inception_4d/relu_pool_proj
I0813 21:10:38.106060 23709 net.cpp:91] Creating Layer inception_4d/relu_pool_proj
I0813 21:10:38.106065 23709 net.cpp:469] inception_4d/relu_pool_proj <- inception_4d/pool_proj
I0813 21:10:38.106070 23709 net.cpp:430] inception_4d/relu_pool_proj -> inception_4d/pool_proj (in-place)
I0813 21:10:38.106076 23709 net.cpp:141] Setting up inception_4d/relu_pool_proj
I0813 21:10:38.106081 23709 net.cpp:148] Top shape: 32 64 14 14 (401408)
I0813 21:10:38.106084 23709 net.cpp:156] Memory required for data: 1529853444
I0813 21:10:38.106088 23709 layer_factory.hpp:77] Creating layer inception_4d/output
I0813 21:10:38.106094 23709 net.cpp:91] Creating Layer inception_4d/output
I0813 21:10:38.106101 23709 net.cpp:469] inception_4d/output <- inception_4d/1x1
I0813 21:10:38.106106 23709 net.cpp:469] inception_4d/output <- inception_4d/3x3
I0813 21:10:38.106111 23709 net.cpp:469] inception_4d/output <- inception_4d/5x5
I0813 21:10:38.106115 23709 net.cpp:469] inception_4d/output <- inception_4d/pool_proj
I0813 21:10:38.106120 23709 net.cpp:443] inception_4d/output -> inception_4d/output
I0813 21:10:38.106142 23709 net.cpp:141] Setting up inception_4d/output
I0813 21:10:38.106148 23709 net.cpp:148] Top shape: 32 528 14 14 (3311616)
I0813 21:10:38.106153 23709 net.cpp:156] Memory required for data: 1543099908
I0813 21:10:38.106156 23709 layer_factory.hpp:77] Creating layer inception_4d/output_inception_4d/output_0_split
I0813 21:10:38.106164 23709 net.cpp:91] Creating Layer inception_4d/output_inception_4d/output_0_split
I0813 21:10:38.106168 23709 net.cpp:469] inception_4d/output_inception_4d/output_0_split <- inception_4d/output
I0813 21:10:38.106174 23709 net.cpp:443] inception_4d/output_inception_4d/output_0_split -> inception_4d/output_inception_4d/output_0_split_0
I0813 21:10:38.106184 23709 net.cpp:443] inception_4d/output_inception_4d/output_0_split -> inception_4d/output_inception_4d/output_0_split_1
I0813 21:10:38.106189 23709 net.cpp:443] inception_4d/output_inception_4d/output_0_split -> inception_4d/output_inception_4d/output_0_split_2
I0813 21:10:38.106195 23709 net.cpp:443] inception_4d/output_inception_4d/output_0_split -> inception_4d/output_inception_4d/output_0_split_3
I0813 21:10:38.106201 23709 net.cpp:443] inception_4d/output_inception_4d/output_0_split -> inception_4d/output_inception_4d/output_0_split_4
I0813 21:10:38.106262 23709 net.cpp:141] Setting up inception_4d/output_inception_4d/output_0_split
I0813 21:10:38.106269 23709 net.cpp:148] Top shape: 32 528 14 14 (3311616)
I0813 21:10:38.106273 23709 net.cpp:148] Top shape: 32 528 14 14 (3311616)
I0813 21:10:38.106277 23709 net.cpp:148] Top shape: 32 528 14 14 (3311616)
I0813 21:10:38.106281 23709 net.cpp:148] Top shape: 32 528 14 14 (3311616)
I0813 21:10:38.106287 23709 net.cpp:148] Top shape: 32 528 14 14 (3311616)
I0813 21:10:38.106289 23709 net.cpp:156] Memory required for data: 1609332228
I0813 21:10:38.106293 23709 layer_factory.hpp:77] Creating layer loss2/ave_pool
I0813 21:10:38.106302 23709 net.cpp:91] Creating Layer loss2/ave_pool
I0813 21:10:38.106305 23709 net.cpp:469] loss2/ave_pool <- inception_4d/output_inception_4d/output_0_split_0
I0813 21:10:38.106312 23709 net.cpp:443] loss2/ave_pool -> loss2/ave_pool
I0813 21:10:38.106333 23709 net.cpp:141] Setting up loss2/ave_pool
I0813 21:10:38.106339 23709 net.cpp:148] Top shape: 32 528 4 4 (270336)
I0813 21:10:38.106343 23709 net.cpp:156] Memory required for data: 1610413572
I0813 21:10:38.106351 23709 layer_factory.hpp:77] Creating layer loss2/conv
I0813 21:10:38.106370 23709 net.cpp:91] Creating Layer loss2/conv
I0813 21:10:38.106376 23709 net.cpp:469] loss2/conv <- loss2/ave_pool
I0813 21:10:38.106384 23709 net.cpp:443] loss2/conv -> loss2/conv
I0813 21:10:38.107604 23709 net.cpp:141] Setting up loss2/conv
I0813 21:10:38.107620 23709 net.cpp:148] Top shape: 32 128 4 4 (65536)
I0813 21:10:38.107625 23709 net.cpp:156] Memory required for data: 1610675716
I0813 21:10:38.107631 23709 layer_factory.hpp:77] Creating layer loss2/relu_conv
I0813 21:10:38.107638 23709 net.cpp:91] Creating Layer loss2/relu_conv
I0813 21:10:38.107643 23709 net.cpp:469] loss2/relu_conv <- loss2/conv
I0813 21:10:38.107648 23709 net.cpp:430] loss2/relu_conv -> loss2/conv (in-place)
I0813 21:10:38.107656 23709 net.cpp:141] Setting up loss2/relu_conv
I0813 21:10:38.107661 23709 net.cpp:148] Top shape: 32 128 4 4 (65536)
I0813 21:10:38.107664 23709 net.cpp:156] Memory required for data: 1610937860
I0813 21:10:38.107668 23709 layer_factory.hpp:77] Creating layer loss2/fc
I0813 21:10:38.107679 23709 net.cpp:91] Creating Layer loss2/fc
I0813 21:10:38.107684 23709 net.cpp:469] loss2/fc <- loss2/conv
I0813 21:10:38.107691 23709 net.cpp:443] loss2/fc -> loss2/fc
I0813 21:10:38.124164 23709 net.cpp:141] Setting up loss2/fc
I0813 21:10:38.124182 23709 net.cpp:148] Top shape: 32 1024 (32768)
I0813 21:10:38.124187 23709 net.cpp:156] Memory required for data: 1611068932
I0813 21:10:38.124194 23709 layer_factory.hpp:77] Creating layer loss2/relu_fc
I0813 21:10:38.124202 23709 net.cpp:91] Creating Layer loss2/relu_fc
I0813 21:10:38.124207 23709 net.cpp:469] loss2/relu_fc <- loss2/fc
I0813 21:10:38.124212 23709 net.cpp:430] loss2/relu_fc -> loss2/fc (in-place)
I0813 21:10:38.124219 23709 net.cpp:141] Setting up loss2/relu_fc
I0813 21:10:38.124224 23709 net.cpp:148] Top shape: 32 1024 (32768)
I0813 21:10:38.124228 23709 net.cpp:156] Memory required for data: 1611200004
I0813 21:10:38.124231 23709 layer_factory.hpp:77] Creating layer loss2/drop_fc
I0813 21:10:38.124239 23709 net.cpp:91] Creating Layer loss2/drop_fc
I0813 21:10:38.124243 23709 net.cpp:469] loss2/drop_fc <- loss2/fc
I0813 21:10:38.124248 23709 net.cpp:430] loss2/drop_fc -> loss2/fc (in-place)
I0813 21:10:38.124274 23709 net.cpp:141] Setting up loss2/drop_fc
I0813 21:10:38.124280 23709 net.cpp:148] Top shape: 32 1024 (32768)
I0813 21:10:38.124284 23709 net.cpp:156] Memory required for data: 1611331076
I0813 21:10:38.124287 23709 layer_factory.hpp:77] Creating layer loss2/classifier
I0813 21:10:38.124294 23709 net.cpp:91] Creating Layer loss2/classifier
I0813 21:10:38.124299 23709 net.cpp:469] loss2/classifier <- loss2/fc
I0813 21:10:38.124305 23709 net.cpp:443] loss2/classifier -> loss2/classifier
I0813 21:10:38.132195 23709 net.cpp:141] Setting up loss2/classifier
I0813 21:10:38.132211 23709 net.cpp:148] Top shape: 32 1000 (32000)
I0813 21:10:38.132215 23709 net.cpp:156] Memory required for data: 1611459076
I0813 21:10:38.132222 23709 layer_factory.hpp:77] Creating layer loss2/loss
I0813 21:10:38.132232 23709 net.cpp:91] Creating Layer loss2/loss
I0813 21:10:38.132237 23709 net.cpp:469] loss2/loss <- loss2/classifier
I0813 21:10:38.132242 23709 net.cpp:469] loss2/loss <- label_data_1_split_1
I0813 21:10:38.132248 23709 net.cpp:443] loss2/loss -> loss2/loss1
I0813 21:10:38.132258 23709 layer_factory.hpp:77] Creating layer loss2/loss
I0813 21:10:38.132928 23709 net.cpp:141] Setting up loss2/loss
I0813 21:10:38.132943 23709 net.cpp:148] Top shape: (1)
I0813 21:10:38.132947 23709 net.cpp:151]     with loss weight 0.3
I0813 21:10:38.132961 23709 net.cpp:156] Memory required for data: 1611459080
I0813 21:10:38.132964 23709 layer_factory.hpp:77] Creating layer inception_4e/1x1
I0813 21:10:38.132975 23709 net.cpp:91] Creating Layer inception_4e/1x1
I0813 21:10:38.132980 23709 net.cpp:469] inception_4e/1x1 <- inception_4d/output_inception_4d/output_0_split_1
I0813 21:10:38.132987 23709 net.cpp:443] inception_4e/1x1 -> inception_4e/1x1
I0813 21:10:38.134023 23709 net.cpp:141] Setting up inception_4e/1x1
I0813 21:10:38.134042 23709 net.cpp:148] Top shape: 32 256 14 14 (1605632)
I0813 21:10:38.134047 23709 net.cpp:156] Memory required for data: 1617881608
I0813 21:10:38.134053 23709 layer_factory.hpp:77] Creating layer inception_4e/relu_1x1
I0813 21:10:38.134060 23709 net.cpp:91] Creating Layer inception_4e/relu_1x1
I0813 21:10:38.134064 23709 net.cpp:469] inception_4e/relu_1x1 <- inception_4e/1x1
I0813 21:10:38.134073 23709 net.cpp:430] inception_4e/relu_1x1 -> inception_4e/1x1 (in-place)
I0813 21:10:38.134078 23709 net.cpp:141] Setting up inception_4e/relu_1x1
I0813 21:10:38.134083 23709 net.cpp:148] Top shape: 32 256 14 14 (1605632)
I0813 21:10:38.134088 23709 net.cpp:156] Memory required for data: 1624304136
I0813 21:10:38.134090 23709 layer_factory.hpp:77] Creating layer inception_4e/3x3_reduce
I0813 21:10:38.134099 23709 net.cpp:91] Creating Layer inception_4e/3x3_reduce
I0813 21:10:38.134104 23709 net.cpp:469] inception_4e/3x3_reduce <- inception_4d/output_inception_4d/output_0_split_2
I0813 21:10:38.134117 23709 net.cpp:443] inception_4e/3x3_reduce -> inception_4e/3x3_reduce
I0813 21:10:38.135390 23709 net.cpp:141] Setting up inception_4e/3x3_reduce
I0813 21:10:38.135404 23709 net.cpp:148] Top shape: 32 160 14 14 (1003520)
I0813 21:10:38.135408 23709 net.cpp:156] Memory required for data: 1628318216
I0813 21:10:38.135416 23709 layer_factory.hpp:77] Creating layer inception_4e/relu_3x3_reduce
I0813 21:10:38.135421 23709 net.cpp:91] Creating Layer inception_4e/relu_3x3_reduce
I0813 21:10:38.135426 23709 net.cpp:469] inception_4e/relu_3x3_reduce <- inception_4e/3x3_reduce
I0813 21:10:38.135433 23709 net.cpp:430] inception_4e/relu_3x3_reduce -> inception_4e/3x3_reduce (in-place)
I0813 21:10:38.135442 23709 net.cpp:141] Setting up inception_4e/relu_3x3_reduce
I0813 21:10:38.135445 23709 net.cpp:148] Top shape: 32 160 14 14 (1003520)
I0813 21:10:38.135449 23709 net.cpp:156] Memory required for data: 1632332296
I0813 21:10:38.135452 23709 layer_factory.hpp:77] Creating layer inception_4e/3x3
I0813 21:10:38.135463 23709 net.cpp:91] Creating Layer inception_4e/3x3
I0813 21:10:38.135468 23709 net.cpp:469] inception_4e/3x3 <- inception_4e/3x3_reduce
I0813 21:10:38.135474 23709 net.cpp:443] inception_4e/3x3 -> inception_4e/3x3
I0813 21:10:38.139273 23709 net.cpp:141] Setting up inception_4e/3x3
I0813 21:10:38.139288 23709 net.cpp:148] Top shape: 32 320 14 14 (2007040)
I0813 21:10:38.139292 23709 net.cpp:156] Memory required for data: 1640360456
I0813 21:10:38.139299 23709 layer_factory.hpp:77] Creating layer inception_4e/relu_3x3
I0813 21:10:38.139305 23709 net.cpp:91] Creating Layer inception_4e/relu_3x3
I0813 21:10:38.139312 23709 net.cpp:469] inception_4e/relu_3x3 <- inception_4e/3x3
I0813 21:10:38.139318 23709 net.cpp:430] inception_4e/relu_3x3 -> inception_4e/3x3 (in-place)
I0813 21:10:38.139324 23709 net.cpp:141] Setting up inception_4e/relu_3x3
I0813 21:10:38.139329 23709 net.cpp:148] Top shape: 32 320 14 14 (2007040)
I0813 21:10:38.139333 23709 net.cpp:156] Memory required for data: 1648388616
I0813 21:10:38.139338 23709 layer_factory.hpp:77] Creating layer inception_4e/5x5_reduce
I0813 21:10:38.139348 23709 net.cpp:91] Creating Layer inception_4e/5x5_reduce
I0813 21:10:38.139353 23709 net.cpp:469] inception_4e/5x5_reduce <- inception_4d/output_inception_4d/output_0_split_3
I0813 21:10:38.139358 23709 net.cpp:443] inception_4e/5x5_reduce -> inception_4e/5x5_reduce
I0813 21:10:38.139652 23709 net.cpp:141] Setting up inception_4e/5x5_reduce
I0813 21:10:38.139662 23709 net.cpp:148] Top shape: 32 32 14 14 (200704)
I0813 21:10:38.139665 23709 net.cpp:156] Memory required for data: 1649191432
I0813 21:10:38.139672 23709 layer_factory.hpp:77] Creating layer inception_4e/relu_5x5_reduce
I0813 21:10:38.139678 23709 net.cpp:91] Creating Layer inception_4e/relu_5x5_reduce
I0813 21:10:38.139683 23709 net.cpp:469] inception_4e/relu_5x5_reduce <- inception_4e/5x5_reduce
I0813 21:10:38.139690 23709 net.cpp:430] inception_4e/relu_5x5_reduce -> inception_4e/5x5_reduce (in-place)
I0813 21:10:38.139700 23709 net.cpp:141] Setting up inception_4e/relu_5x5_reduce
I0813 21:10:38.139711 23709 net.cpp:148] Top shape: 32 32 14 14 (200704)
I0813 21:10:38.139715 23709 net.cpp:156] Memory required for data: 1649994248
I0813 21:10:38.139719 23709 layer_factory.hpp:77] Creating layer inception_4e/5x5
I0813 21:10:38.139750 23709 net.cpp:91] Creating Layer inception_4e/5x5
I0813 21:10:38.139755 23709 net.cpp:469] inception_4e/5x5 <- inception_4e/5x5_reduce
I0813 21:10:38.139761 23709 net.cpp:443] inception_4e/5x5 -> inception_4e/5x5
I0813 21:10:38.140553 23709 net.cpp:141] Setting up inception_4e/5x5
I0813 21:10:38.140563 23709 net.cpp:148] Top shape: 32 128 14 14 (802816)
I0813 21:10:38.140566 23709 net.cpp:156] Memory required for data: 1653205512
I0813 21:10:38.140573 23709 layer_factory.hpp:77] Creating layer inception_4e/relu_5x5
I0813 21:10:38.140580 23709 net.cpp:91] Creating Layer inception_4e/relu_5x5
I0813 21:10:38.140585 23709 net.cpp:469] inception_4e/relu_5x5 <- inception_4e/5x5
I0813 21:10:38.140590 23709 net.cpp:430] inception_4e/relu_5x5 -> inception_4e/5x5 (in-place)
I0813 21:10:38.140595 23709 net.cpp:141] Setting up inception_4e/relu_5x5
I0813 21:10:38.140600 23709 net.cpp:148] Top shape: 32 128 14 14 (802816)
I0813 21:10:38.140604 23709 net.cpp:156] Memory required for data: 1656416776
I0813 21:10:38.140607 23709 layer_factory.hpp:77] Creating layer inception_4e/pool
I0813 21:10:38.140619 23709 net.cpp:91] Creating Layer inception_4e/pool
I0813 21:10:38.140624 23709 net.cpp:469] inception_4e/pool <- inception_4d/output_inception_4d/output_0_split_4
I0813 21:10:38.140628 23709 net.cpp:443] inception_4e/pool -> inception_4e/pool
I0813 21:10:38.140662 23709 net.cpp:141] Setting up inception_4e/pool
I0813 21:10:38.140671 23709 net.cpp:148] Top shape: 32 528 14 14 (3311616)
I0813 21:10:38.140676 23709 net.cpp:156] Memory required for data: 1669663240
I0813 21:10:38.140678 23709 layer_factory.hpp:77] Creating layer inception_4e/pool_proj
I0813 21:10:38.140688 23709 net.cpp:91] Creating Layer inception_4e/pool_proj
I0813 21:10:38.140692 23709 net.cpp:469] inception_4e/pool_proj <- inception_4e/pool
I0813 21:10:38.140698 23709 net.cpp:443] inception_4e/pool_proj -> inception_4e/pool_proj
I0813 21:10:38.141288 23709 net.cpp:141] Setting up inception_4e/pool_proj
I0813 21:10:38.141297 23709 net.cpp:148] Top shape: 32 128 14 14 (802816)
I0813 21:10:38.141301 23709 net.cpp:156] Memory required for data: 1672874504
I0813 21:10:38.141307 23709 layer_factory.hpp:77] Creating layer inception_4e/relu_pool_proj
I0813 21:10:38.141314 23709 net.cpp:91] Creating Layer inception_4e/relu_pool_proj
I0813 21:10:38.141319 23709 net.cpp:469] inception_4e/relu_pool_proj <- inception_4e/pool_proj
I0813 21:10:38.141324 23709 net.cpp:430] inception_4e/relu_pool_proj -> inception_4e/pool_proj (in-place)
I0813 21:10:38.141330 23709 net.cpp:141] Setting up inception_4e/relu_pool_proj
I0813 21:10:38.141335 23709 net.cpp:148] Top shape: 32 128 14 14 (802816)
I0813 21:10:38.141337 23709 net.cpp:156] Memory required for data: 1676085768
I0813 21:10:38.141341 23709 layer_factory.hpp:77] Creating layer inception_4e/output
I0813 21:10:38.141350 23709 net.cpp:91] Creating Layer inception_4e/output
I0813 21:10:38.141353 23709 net.cpp:469] inception_4e/output <- inception_4e/1x1
I0813 21:10:38.141358 23709 net.cpp:469] inception_4e/output <- inception_4e/3x3
I0813 21:10:38.141362 23709 net.cpp:469] inception_4e/output <- inception_4e/5x5
I0813 21:10:38.141367 23709 net.cpp:469] inception_4e/output <- inception_4e/pool_proj
I0813 21:10:38.141372 23709 net.cpp:443] inception_4e/output -> inception_4e/output
I0813 21:10:38.141396 23709 net.cpp:141] Setting up inception_4e/output
I0813 21:10:38.141402 23709 net.cpp:148] Top shape: 32 832 14 14 (5218304)
I0813 21:10:38.141404 23709 net.cpp:156] Memory required for data: 1696958984
I0813 21:10:38.141408 23709 layer_factory.hpp:77] Creating layer pool4/3x3_s2
I0813 21:10:38.141414 23709 net.cpp:91] Creating Layer pool4/3x3_s2
I0813 21:10:38.141418 23709 net.cpp:469] pool4/3x3_s2 <- inception_4e/output
I0813 21:10:38.141429 23709 net.cpp:443] pool4/3x3_s2 -> pool4/3x3_s2
I0813 21:10:38.141468 23709 net.cpp:141] Setting up pool4/3x3_s2
I0813 21:10:38.141474 23709 net.cpp:148] Top shape: 32 832 7 7 (1304576)
I0813 21:10:38.141477 23709 net.cpp:156] Memory required for data: 1702177288
I0813 21:10:38.141481 23709 layer_factory.hpp:77] Creating layer pool4/3x3_s2_pool4/3x3_s2_0_split
I0813 21:10:38.141489 23709 net.cpp:91] Creating Layer pool4/3x3_s2_pool4/3x3_s2_0_split
I0813 21:10:38.141494 23709 net.cpp:469] pool4/3x3_s2_pool4/3x3_s2_0_split <- pool4/3x3_s2
I0813 21:10:38.141499 23709 net.cpp:443] pool4/3x3_s2_pool4/3x3_s2_0_split -> pool4/3x3_s2_pool4/3x3_s2_0_split_0
I0813 21:10:38.141507 23709 net.cpp:443] pool4/3x3_s2_pool4/3x3_s2_0_split -> pool4/3x3_s2_pool4/3x3_s2_0_split_1
I0813 21:10:38.141513 23709 net.cpp:443] pool4/3x3_s2_pool4/3x3_s2_0_split -> pool4/3x3_s2_pool4/3x3_s2_0_split_2
I0813 21:10:38.141518 23709 net.cpp:443] pool4/3x3_s2_pool4/3x3_s2_0_split -> pool4/3x3_s2_pool4/3x3_s2_0_split_3
I0813 21:10:38.141564 23709 net.cpp:141] Setting up pool4/3x3_s2_pool4/3x3_s2_0_split
I0813 21:10:38.141571 23709 net.cpp:148] Top shape: 32 832 7 7 (1304576)
I0813 21:10:38.141575 23709 net.cpp:148] Top shape: 32 832 7 7 (1304576)
I0813 21:10:38.141579 23709 net.cpp:148] Top shape: 32 832 7 7 (1304576)
I0813 21:10:38.141583 23709 net.cpp:148] Top shape: 32 832 7 7 (1304576)
I0813 21:10:38.141587 23709 net.cpp:156] Memory required for data: 1723050504
I0813 21:10:38.141590 23709 layer_factory.hpp:77] Creating layer inception_5a/1x1
I0813 21:10:38.141600 23709 net.cpp:91] Creating Layer inception_5a/1x1
I0813 21:10:38.141604 23709 net.cpp:469] inception_5a/1x1 <- pool4/3x3_s2_pool4/3x3_s2_0_split_0
I0813 21:10:38.141613 23709 net.cpp:443] inception_5a/1x1 -> inception_5a/1x1
I0813 21:10:38.143641 23709 net.cpp:141] Setting up inception_5a/1x1
I0813 21:10:38.143656 23709 net.cpp:148] Top shape: 32 256 7 7 (401408)
I0813 21:10:38.143659 23709 net.cpp:156] Memory required for data: 1724656136
I0813 21:10:38.143666 23709 layer_factory.hpp:77] Creating layer inception_5a/relu_1x1
I0813 21:10:38.143676 23709 net.cpp:91] Creating Layer inception_5a/relu_1x1
I0813 21:10:38.143681 23709 net.cpp:469] inception_5a/relu_1x1 <- inception_5a/1x1
I0813 21:10:38.143685 23709 net.cpp:430] inception_5a/relu_1x1 -> inception_5a/1x1 (in-place)
I0813 21:10:38.143692 23709 net.cpp:141] Setting up inception_5a/relu_1x1
I0813 21:10:38.143697 23709 net.cpp:148] Top shape: 32 256 7 7 (401408)
I0813 21:10:38.143700 23709 net.cpp:156] Memory required for data: 1726261768
I0813 21:10:38.143704 23709 layer_factory.hpp:77] Creating layer inception_5a/3x3_reduce
I0813 21:10:38.143714 23709 net.cpp:91] Creating Layer inception_5a/3x3_reduce
I0813 21:10:38.143718 23709 net.cpp:469] inception_5a/3x3_reduce <- pool4/3x3_s2_pool4/3x3_s2_0_split_1
I0813 21:10:38.143726 23709 net.cpp:443] inception_5a/3x3_reduce -> inception_5a/3x3_reduce
I0813 21:10:38.145295 23709 net.cpp:141] Setting up inception_5a/3x3_reduce
I0813 21:10:38.145309 23709 net.cpp:148] Top shape: 32 160 7 7 (250880)
I0813 21:10:38.145313 23709 net.cpp:156] Memory required for data: 1727265288
I0813 21:10:38.145320 23709 layer_factory.hpp:77] Creating layer inception_5a/relu_3x3_reduce
I0813 21:10:38.145328 23709 net.cpp:91] Creating Layer inception_5a/relu_3x3_reduce
I0813 21:10:38.145332 23709 net.cpp:469] inception_5a/relu_3x3_reduce <- inception_5a/3x3_reduce
I0813 21:10:38.145337 23709 net.cpp:430] inception_5a/relu_3x3_reduce -> inception_5a/3x3_reduce (in-place)
I0813 21:10:38.145346 23709 net.cpp:141] Setting up inception_5a/relu_3x3_reduce
I0813 21:10:38.145351 23709 net.cpp:148] Top shape: 32 160 7 7 (250880)
I0813 21:10:38.145355 23709 net.cpp:156] Memory required for data: 1728268808
I0813 21:10:38.145359 23709 layer_factory.hpp:77] Creating layer inception_5a/3x3
I0813 21:10:38.145368 23709 net.cpp:91] Creating Layer inception_5a/3x3
I0813 21:10:38.145372 23709 net.cpp:469] inception_5a/3x3 <- inception_5a/3x3_reduce
I0813 21:10:38.145380 23709 net.cpp:443] inception_5a/3x3 -> inception_5a/3x3
I0813 21:10:38.149194 23709 net.cpp:141] Setting up inception_5a/3x3
I0813 21:10:38.149214 23709 net.cpp:148] Top shape: 32 320 7 7 (501760)
I0813 21:10:38.149219 23709 net.cpp:156] Memory required for data: 1730275848
I0813 21:10:38.149225 23709 layer_factory.hpp:77] Creating layer inception_5a/relu_3x3
I0813 21:10:38.149232 23709 net.cpp:91] Creating Layer inception_5a/relu_3x3
I0813 21:10:38.149236 23709 net.cpp:469] inception_5a/relu_3x3 <- inception_5a/3x3
I0813 21:10:38.149245 23709 net.cpp:430] inception_5a/relu_3x3 -> inception_5a/3x3 (in-place)
I0813 21:10:38.149251 23709 net.cpp:141] Setting up inception_5a/relu_3x3
I0813 21:10:38.149256 23709 net.cpp:148] Top shape: 32 320 7 7 (501760)
I0813 21:10:38.149260 23709 net.cpp:156] Memory required for data: 1732282888
I0813 21:10:38.149263 23709 layer_factory.hpp:77] Creating layer inception_5a/5x5_reduce
I0813 21:10:38.149272 23709 net.cpp:91] Creating Layer inception_5a/5x5_reduce
I0813 21:10:38.149277 23709 net.cpp:469] inception_5a/5x5_reduce <- pool4/3x3_s2_pool4/3x3_s2_0_split_2
I0813 21:10:38.149287 23709 net.cpp:443] inception_5a/5x5_reduce -> inception_5a/5x5_reduce
I0813 21:10:38.149646 23709 net.cpp:141] Setting up inception_5a/5x5_reduce
I0813 21:10:38.149657 23709 net.cpp:148] Top shape: 32 32 7 7 (50176)
I0813 21:10:38.149659 23709 net.cpp:156] Memory required for data: 1732483592
I0813 21:10:38.149665 23709 layer_factory.hpp:77] Creating layer inception_5a/relu_5x5_reduce
I0813 21:10:38.149672 23709 net.cpp:91] Creating Layer inception_5a/relu_5x5_reduce
I0813 21:10:38.149677 23709 net.cpp:469] inception_5a/relu_5x5_reduce <- inception_5a/5x5_reduce
I0813 21:10:38.149682 23709 net.cpp:430] inception_5a/relu_5x5_reduce -> inception_5a/5x5_reduce (in-place)
I0813 21:10:38.149688 23709 net.cpp:141] Setting up inception_5a/relu_5x5_reduce
I0813 21:10:38.149693 23709 net.cpp:148] Top shape: 32 32 7 7 (50176)
I0813 21:10:38.149696 23709 net.cpp:156] Memory required for data: 1732684296
I0813 21:10:38.149699 23709 layer_factory.hpp:77] Creating layer inception_5a/5x5
I0813 21:10:38.149711 23709 net.cpp:91] Creating Layer inception_5a/5x5
I0813 21:10:38.149718 23709 net.cpp:469] inception_5a/5x5 <- inception_5a/5x5_reduce
I0813 21:10:38.149724 23709 net.cpp:443] inception_5a/5x5 -> inception_5a/5x5
I0813 21:10:38.150519 23709 net.cpp:141] Setting up inception_5a/5x5
I0813 21:10:38.150529 23709 net.cpp:148] Top shape: 32 128 7 7 (200704)
I0813 21:10:38.150532 23709 net.cpp:156] Memory required for data: 1733487112
I0813 21:10:38.150538 23709 layer_factory.hpp:77] Creating layer inception_5a/relu_5x5
I0813 21:10:38.150550 23709 net.cpp:91] Creating Layer inception_5a/relu_5x5
I0813 21:10:38.150555 23709 net.cpp:469] inception_5a/relu_5x5 <- inception_5a/5x5
I0813 21:10:38.150560 23709 net.cpp:430] inception_5a/relu_5x5 -> inception_5a/5x5 (in-place)
I0813 21:10:38.150566 23709 net.cpp:141] Setting up inception_5a/relu_5x5
I0813 21:10:38.150570 23709 net.cpp:148] Top shape: 32 128 7 7 (200704)
I0813 21:10:38.150574 23709 net.cpp:156] Memory required for data: 1734289928
I0813 21:10:38.150578 23709 layer_factory.hpp:77] Creating layer inception_5a/pool
I0813 21:10:38.150586 23709 net.cpp:91] Creating Layer inception_5a/pool
I0813 21:10:38.150590 23709 net.cpp:469] inception_5a/pool <- pool4/3x3_s2_pool4/3x3_s2_0_split_3
I0813 21:10:38.150596 23709 net.cpp:443] inception_5a/pool -> inception_5a/pool
I0813 21:10:38.150631 23709 net.cpp:141] Setting up inception_5a/pool
I0813 21:10:38.150638 23709 net.cpp:148] Top shape: 32 832 7 7 (1304576)
I0813 21:10:38.150641 23709 net.cpp:156] Memory required for data: 1739508232
I0813 21:10:38.150645 23709 layer_factory.hpp:77] Creating layer inception_5a/pool_proj
I0813 21:10:38.150655 23709 net.cpp:91] Creating Layer inception_5a/pool_proj
I0813 21:10:38.150660 23709 net.cpp:469] inception_5a/pool_proj <- inception_5a/pool
I0813 21:10:38.150665 23709 net.cpp:443] inception_5a/pool_proj -> inception_5a/pool_proj
I0813 21:10:38.152058 23709 net.cpp:141] Setting up inception_5a/pool_proj
I0813 21:10:38.152076 23709 net.cpp:148] Top shape: 32 128 7 7 (200704)
I0813 21:10:38.152086 23709 net.cpp:156] Memory required for data: 1740311048
I0813 21:10:38.152092 23709 layer_factory.hpp:77] Creating layer inception_5a/relu_pool_proj
I0813 21:10:38.152098 23709 net.cpp:91] Creating Layer inception_5a/relu_pool_proj
I0813 21:10:38.152106 23709 net.cpp:469] inception_5a/relu_pool_proj <- inception_5a/pool_proj
I0813 21:10:38.152112 23709 net.cpp:430] inception_5a/relu_pool_proj -> inception_5a/pool_proj (in-place)
I0813 21:10:38.152118 23709 net.cpp:141] Setting up inception_5a/relu_pool_proj
I0813 21:10:38.152123 23709 net.cpp:148] Top shape: 32 128 7 7 (200704)
I0813 21:10:38.152127 23709 net.cpp:156] Memory required for data: 1741113864
I0813 21:10:38.152130 23709 layer_factory.hpp:77] Creating layer inception_5a/output
I0813 21:10:38.152137 23709 net.cpp:91] Creating Layer inception_5a/output
I0813 21:10:38.152140 23709 net.cpp:469] inception_5a/output <- inception_5a/1x1
I0813 21:10:38.152145 23709 net.cpp:469] inception_5a/output <- inception_5a/3x3
I0813 21:10:38.152149 23709 net.cpp:469] inception_5a/output <- inception_5a/5x5
I0813 21:10:38.152153 23709 net.cpp:469] inception_5a/output <- inception_5a/pool_proj
I0813 21:10:38.152158 23709 net.cpp:443] inception_5a/output -> inception_5a/output
I0813 21:10:38.152184 23709 net.cpp:141] Setting up inception_5a/output
I0813 21:10:38.152190 23709 net.cpp:148] Top shape: 32 832 7 7 (1304576)
I0813 21:10:38.152194 23709 net.cpp:156] Memory required for data: 1746332168
I0813 21:10:38.152197 23709 layer_factory.hpp:77] Creating layer inception_5a/output_inception_5a/output_0_split
I0813 21:10:38.152205 23709 net.cpp:91] Creating Layer inception_5a/output_inception_5a/output_0_split
I0813 21:10:38.152209 23709 net.cpp:469] inception_5a/output_inception_5a/output_0_split <- inception_5a/output
I0813 21:10:38.152215 23709 net.cpp:443] inception_5a/output_inception_5a/output_0_split -> inception_5a/output_inception_5a/output_0_split_0
I0813 21:10:38.152221 23709 net.cpp:443] inception_5a/output_inception_5a/output_0_split -> inception_5a/output_inception_5a/output_0_split_1
I0813 21:10:38.152227 23709 net.cpp:443] inception_5a/output_inception_5a/output_0_split -> inception_5a/output_inception_5a/output_0_split_2
I0813 21:10:38.152233 23709 net.cpp:443] inception_5a/output_inception_5a/output_0_split -> inception_5a/output_inception_5a/output_0_split_3
I0813 21:10:38.152282 23709 net.cpp:141] Setting up inception_5a/output_inception_5a/output_0_split
I0813 21:10:38.152289 23709 net.cpp:148] Top shape: 32 832 7 7 (1304576)
I0813 21:10:38.152293 23709 net.cpp:148] Top shape: 32 832 7 7 (1304576)
I0813 21:10:38.152297 23709 net.cpp:148] Top shape: 32 832 7 7 (1304576)
I0813 21:10:38.152302 23709 net.cpp:148] Top shape: 32 832 7 7 (1304576)
I0813 21:10:38.152304 23709 net.cpp:156] Memory required for data: 1767205384
I0813 21:10:38.152308 23709 layer_factory.hpp:77] Creating layer inception_5b/1x1
I0813 21:10:38.152318 23709 net.cpp:91] Creating Layer inception_5b/1x1
I0813 21:10:38.152323 23709 net.cpp:469] inception_5b/1x1 <- inception_5a/output_inception_5a/output_0_split_0
I0813 21:10:38.152333 23709 net.cpp:443] inception_5b/1x1 -> inception_5b/1x1
I0813 21:10:38.155098 23709 net.cpp:141] Setting up inception_5b/1x1
I0813 21:10:38.155114 23709 net.cpp:148] Top shape: 32 384 7 7 (602112)
I0813 21:10:38.155118 23709 net.cpp:156] Memory required for data: 1769613832
I0813 21:10:38.155124 23709 layer_factory.hpp:77] Creating layer inception_5b/relu_1x1
I0813 21:10:38.155131 23709 net.cpp:91] Creating Layer inception_5b/relu_1x1
I0813 21:10:38.155136 23709 net.cpp:469] inception_5b/relu_1x1 <- inception_5b/1x1
I0813 21:10:38.155141 23709 net.cpp:430] inception_5b/relu_1x1 -> inception_5b/1x1 (in-place)
I0813 21:10:38.155148 23709 net.cpp:141] Setting up inception_5b/relu_1x1
I0813 21:10:38.155153 23709 net.cpp:148] Top shape: 32 384 7 7 (602112)
I0813 21:10:38.155158 23709 net.cpp:156] Memory required for data: 1772022280
I0813 21:10:38.155161 23709 layer_factory.hpp:77] Creating layer inception_5b/3x3_reduce
I0813 21:10:38.155175 23709 net.cpp:91] Creating Layer inception_5b/3x3_reduce
I0813 21:10:38.155186 23709 net.cpp:469] inception_5b/3x3_reduce <- inception_5a/output_inception_5a/output_0_split_1
I0813 21:10:38.155194 23709 net.cpp:443] inception_5b/3x3_reduce -> inception_5b/3x3_reduce
I0813 21:10:38.156919 23709 net.cpp:141] Setting up inception_5b/3x3_reduce
I0813 21:10:38.156934 23709 net.cpp:148] Top shape: 32 192 7 7 (301056)
I0813 21:10:38.156937 23709 net.cpp:156] Memory required for data: 1773226504
I0813 21:10:38.156944 23709 layer_factory.hpp:77] Creating layer inception_5b/relu_3x3_reduce
I0813 21:10:38.156950 23709 net.cpp:91] Creating Layer inception_5b/relu_3x3_reduce
I0813 21:10:38.156955 23709 net.cpp:469] inception_5b/relu_3x3_reduce <- inception_5b/3x3_reduce
I0813 21:10:38.156960 23709 net.cpp:430] inception_5b/relu_3x3_reduce -> inception_5b/3x3_reduce (in-place)
I0813 21:10:38.156967 23709 net.cpp:141] Setting up inception_5b/relu_3x3_reduce
I0813 21:10:38.156972 23709 net.cpp:148] Top shape: 32 192 7 7 (301056)
I0813 21:10:38.156975 23709 net.cpp:156] Memory required for data: 1774430728
I0813 21:10:38.156980 23709 layer_factory.hpp:77] Creating layer inception_5b/3x3
I0813 21:10:38.156991 23709 net.cpp:91] Creating Layer inception_5b/3x3
I0813 21:10:38.156996 23709 net.cpp:469] inception_5b/3x3 <- inception_5b/3x3_reduce
I0813 21:10:38.157002 23709 net.cpp:443] inception_5b/3x3 -> inception_5b/3x3
I0813 21:10:38.162540 23709 net.cpp:141] Setting up inception_5b/3x3
I0813 21:10:38.162564 23709 net.cpp:148] Top shape: 32 384 7 7 (602112)
I0813 21:10:38.162567 23709 net.cpp:156] Memory required for data: 1776839176
I0813 21:10:38.162575 23709 layer_factory.hpp:77] Creating layer inception_5b/relu_3x3
I0813 21:10:38.162581 23709 net.cpp:91] Creating Layer inception_5b/relu_3x3
I0813 21:10:38.162586 23709 net.cpp:469] inception_5b/relu_3x3 <- inception_5b/3x3
I0813 21:10:38.162591 23709 net.cpp:430] inception_5b/relu_3x3 -> inception_5b/3x3 (in-place)
I0813 21:10:38.162600 23709 net.cpp:141] Setting up inception_5b/relu_3x3
I0813 21:10:38.162605 23709 net.cpp:148] Top shape: 32 384 7 7 (602112)
I0813 21:10:38.162607 23709 net.cpp:156] Memory required for data: 1779247624
I0813 21:10:38.162611 23709 layer_factory.hpp:77] Creating layer inception_5b/5x5_reduce
I0813 21:10:38.162622 23709 net.cpp:91] Creating Layer inception_5b/5x5_reduce
I0813 21:10:38.162627 23709 net.cpp:469] inception_5b/5x5_reduce <- inception_5a/output_inception_5a/output_0_split_2
I0813 21:10:38.162633 23709 net.cpp:443] inception_5b/5x5_reduce -> inception_5b/5x5_reduce
I0813 21:10:38.163080 23709 net.cpp:141] Setting up inception_5b/5x5_reduce
I0813 21:10:38.163089 23709 net.cpp:148] Top shape: 32 48 7 7 (75264)
I0813 21:10:38.163094 23709 net.cpp:156] Memory required for data: 1779548680
I0813 21:10:38.163100 23709 layer_factory.hpp:77] Creating layer inception_5b/relu_5x5_reduce
I0813 21:10:38.163105 23709 net.cpp:91] Creating Layer inception_5b/relu_5x5_reduce
I0813 21:10:38.163110 23709 net.cpp:469] inception_5b/relu_5x5_reduce <- inception_5b/5x5_reduce
I0813 21:10:38.163117 23709 net.cpp:430] inception_5b/relu_5x5_reduce -> inception_5b/5x5_reduce (in-place)
I0813 21:10:38.163123 23709 net.cpp:141] Setting up inception_5b/relu_5x5_reduce
I0813 21:10:38.163128 23709 net.cpp:148] Top shape: 32 48 7 7 (75264)
I0813 21:10:38.163131 23709 net.cpp:156] Memory required for data: 1779849736
I0813 21:10:38.163136 23709 layer_factory.hpp:77] Creating layer inception_5b/5x5
I0813 21:10:38.163146 23709 net.cpp:91] Creating Layer inception_5b/5x5
I0813 21:10:38.163149 23709 net.cpp:469] inception_5b/5x5 <- inception_5b/5x5_reduce
I0813 21:10:38.163156 23709 net.cpp:443] inception_5b/5x5 -> inception_5b/5x5
I0813 21:10:38.164254 23709 net.cpp:141] Setting up inception_5b/5x5
I0813 21:10:38.164263 23709 net.cpp:148] Top shape: 32 128 7 7 (200704)
I0813 21:10:38.164268 23709 net.cpp:156] Memory required for data: 1780652552
I0813 21:10:38.164273 23709 layer_factory.hpp:77] Creating layer inception_5b/relu_5x5
I0813 21:10:38.164283 23709 net.cpp:91] Creating Layer inception_5b/relu_5x5
I0813 21:10:38.164294 23709 net.cpp:469] inception_5b/relu_5x5 <- inception_5b/5x5
I0813 21:10:38.164300 23709 net.cpp:430] inception_5b/relu_5x5 -> inception_5b/5x5 (in-place)
I0813 21:10:38.164307 23709 net.cpp:141] Setting up inception_5b/relu_5x5
I0813 21:10:38.164312 23709 net.cpp:148] Top shape: 32 128 7 7 (200704)
I0813 21:10:38.164315 23709 net.cpp:156] Memory required for data: 1781455368
I0813 21:10:38.164319 23709 layer_factory.hpp:77] Creating layer inception_5b/pool
I0813 21:10:38.164326 23709 net.cpp:91] Creating Layer inception_5b/pool
I0813 21:10:38.164330 23709 net.cpp:469] inception_5b/pool <- inception_5a/output_inception_5a/output_0_split_3
I0813 21:10:38.164335 23709 net.cpp:443] inception_5b/pool -> inception_5b/pool
I0813 21:10:38.164372 23709 net.cpp:141] Setting up inception_5b/pool
I0813 21:10:38.164379 23709 net.cpp:148] Top shape: 32 832 7 7 (1304576)
I0813 21:10:38.164382 23709 net.cpp:156] Memory required for data: 1786673672
I0813 21:10:38.164386 23709 layer_factory.hpp:77] Creating layer inception_5b/pool_proj
I0813 21:10:38.164397 23709 net.cpp:91] Creating Layer inception_5b/pool_proj
I0813 21:10:38.164400 23709 net.cpp:469] inception_5b/pool_proj <- inception_5b/pool
I0813 21:10:38.164408 23709 net.cpp:443] inception_5b/pool_proj -> inception_5b/pool_proj
I0813 21:10:38.165815 23709 net.cpp:141] Setting up inception_5b/pool_proj
I0813 21:10:38.165829 23709 net.cpp:148] Top shape: 32 128 7 7 (200704)
I0813 21:10:38.165833 23709 net.cpp:156] Memory required for data: 1787476488
I0813 21:10:38.165840 23709 layer_factory.hpp:77] Creating layer inception_5b/relu_pool_proj
I0813 21:10:38.165846 23709 net.cpp:91] Creating Layer inception_5b/relu_pool_proj
I0813 21:10:38.165851 23709 net.cpp:469] inception_5b/relu_pool_proj <- inception_5b/pool_proj
I0813 21:10:38.165858 23709 net.cpp:430] inception_5b/relu_pool_proj -> inception_5b/pool_proj (in-place)
I0813 21:10:38.165863 23709 net.cpp:141] Setting up inception_5b/relu_pool_proj
I0813 21:10:38.165868 23709 net.cpp:148] Top shape: 32 128 7 7 (200704)
I0813 21:10:38.165873 23709 net.cpp:156] Memory required for data: 1788279304
I0813 21:10:38.165875 23709 layer_factory.hpp:77] Creating layer inception_5b/output
I0813 21:10:38.165881 23709 net.cpp:91] Creating Layer inception_5b/output
I0813 21:10:38.165885 23709 net.cpp:469] inception_5b/output <- inception_5b/1x1
I0813 21:10:38.165890 23709 net.cpp:469] inception_5b/output <- inception_5b/3x3
I0813 21:10:38.165894 23709 net.cpp:469] inception_5b/output <- inception_5b/5x5
I0813 21:10:38.165899 23709 net.cpp:469] inception_5b/output <- inception_5b/pool_proj
I0813 21:10:38.165906 23709 net.cpp:443] inception_5b/output -> inception_5b/output
I0813 21:10:38.165931 23709 net.cpp:141] Setting up inception_5b/output
I0813 21:10:38.165938 23709 net.cpp:148] Top shape: 32 1024 7 7 (1605632)
I0813 21:10:38.165941 23709 net.cpp:156] Memory required for data: 1794701832
I0813 21:10:38.165946 23709 layer_factory.hpp:77] Creating layer pool5/7x7_s1
I0813 21:10:38.165952 23709 net.cpp:91] Creating Layer pool5/7x7_s1
I0813 21:10:38.165956 23709 net.cpp:469] pool5/7x7_s1 <- inception_5b/output
I0813 21:10:38.165961 23709 net.cpp:443] pool5/7x7_s1 -> pool5/7x7_s1
I0813 21:10:38.165984 23709 net.cpp:141] Setting up pool5/7x7_s1
I0813 21:10:38.165992 23709 net.cpp:148] Top shape: 32 1024 1 1 (32768)
I0813 21:10:38.165995 23709 net.cpp:156] Memory required for data: 1794832904
I0813 21:10:38.165998 23709 layer_factory.hpp:77] Creating layer pool5/drop_7x7_s1
I0813 21:10:38.166005 23709 net.cpp:91] Creating Layer pool5/drop_7x7_s1
I0813 21:10:38.166009 23709 net.cpp:469] pool5/drop_7x7_s1 <- pool5/7x7_s1
I0813 21:10:38.166014 23709 net.cpp:430] pool5/drop_7x7_s1 -> pool5/7x7_s1 (in-place)
I0813 21:10:38.166035 23709 net.cpp:141] Setting up pool5/drop_7x7_s1
I0813 21:10:38.166041 23709 net.cpp:148] Top shape: 32 1024 1 1 (32768)
I0813 21:10:38.166044 23709 net.cpp:156] Memory required for data: 1794963976
I0813 21:10:38.166049 23709 layer_factory.hpp:77] Creating layer loss3/classifier
I0813 21:10:38.166069 23709 net.cpp:91] Creating Layer loss3/classifier
I0813 21:10:38.166074 23709 net.cpp:469] loss3/classifier <- pool5/7x7_s1
I0813 21:10:38.166079 23709 net.cpp:443] loss3/classifier -> loss3/classifier
I0813 21:10:38.174002 23709 net.cpp:141] Setting up loss3/classifier
I0813 21:10:38.174017 23709 net.cpp:148] Top shape: 32 1000 (32000)
I0813 21:10:38.174021 23709 net.cpp:156] Memory required for data: 1795091976
I0813 21:10:38.174028 23709 layer_factory.hpp:77] Creating layer loss3/loss3
I0813 21:10:38.174037 23709 net.cpp:91] Creating Layer loss3/loss3
I0813 21:10:38.174042 23709 net.cpp:469] loss3/loss3 <- loss3/classifier
I0813 21:10:38.174047 23709 net.cpp:469] loss3/loss3 <- label_data_1_split_2
I0813 21:10:38.174052 23709 net.cpp:443] loss3/loss3 -> loss3/loss3
…
