…
I0813 20:57:31.562170 16938 net.cpp:313] The NetState phase (0) differed from the phase (1) specified by a rule in layer accuracy
I0813 20:57:31.563048 16938 net.cpp:49] Initializing net from parameters: 
name: "shufflenet"
state {
  phase: TRAIN
}
layer {
  name: "data"
  type: "Data"
  top: "data"
  top: "label"
  include {
    phase: TRAIN
  }
  transform_param {
    scale: 0.017
    mirror: false
    crop_size: 224
    mean_value: 103.94
    mean_value: 116.78
    mean_value: 123.68
  }
  data_param {
    source: "/home/chenyao/ilsvrc12/ilsvrc12_train_lmdb"
    batch_size: 80
    backend: LMDB
  }
}
layer {
  name: "conv1"
  type: "Convolution"
  bottom: "data"
  top: "conv1"
  convolution_param {
    num_output: 24
    bias_term: false
    pad: 1
    kernel_size: 3
    stride: 2
    weight_filler {
      type: "msra"
    }
  }
}
layer {
  name: "conv1_bn"
  type: "BatchNorm"
  bottom: "conv1"
  top: "conv1"
  param {
    lr_mult: 0
    decay_mult: 0
  }
  param {
    lr_mult: 0
    decay_mult: 0
  }
  param {
    lr_mult: 0
    decay_mult: 0
  }
}
layer {
  name: "conv1_scale"
  type: "Scale"
  bottom: "conv1"
  top: "conv1"
  scale_param {
    filler {
      value: 1
    }
    bias_term: true
    bias_filler {
      value: 0
    }
  }
}
layer {
  name: "conv1_relu"
  type: "ReLU"
  bottom: "conv1"
  top: "conv1"
}
layer {
  name: "pool1"
  type: "Pooling"
  bottom: "conv1"
  top: "pool1"
  pooling_param {
    pool: MAX
    kernel_size: 3
    stride: 2
  }
}
layer {
  name: "resx1_match_conv"
  type: "Pooling"
  bottom: "pool1"
  top: "resx1_match_conv"
  pooling_param {
    pool: AVE
    kernel_size: 3
    stride: 2
  }
}
layer {
  name: "resx1_conv1"
  type: "Convolution"
  bottom: "pool1"
  top: "resx1_conv1"
  convolution_param {
    num_output: 54
    bias_term: false
    pad: 0
    kernel_size: 1
    stride: 1
    weight_filler {
      type: "msra"
    }
  }
}
layer {
  name: "resx1_conv1_bn"
  type: "BatchNorm"
  bottom: "resx1_conv1"
  top: "resx1_conv1"
  param {
    lr_mult: 0
    decay_mult: 0
  }
  param {
    lr_mult: 0
    decay_mult: 0
  }
  param {
    lr_mult: 0
    decay_mult: 0
  }
}
layer {
  name: "resx1_conv1_scale"
  type: "Scale"
  bottom: "resx1_conv1"
  top: "resx1_conv1"
  scale_param {
    filler {
      value: 1
    }
    bias_term: true
    bias_filler {
      value: 0
    }
  }
}
layer {
  name: "resx1_conv1_relu"
  type: "ReLU"
  bottom: "resx1_conv1"
  top: "resx1_conv1"
}
layer {
  name: "resx1_conv2"
  type: "ConvolutionDepthwise"
  bottom: "resx1_conv1"
  top: "resx1_conv2"
  convolution_param {
    num_output: 54
    bias_term: false
    pad: 1
    kernel_size: 3
    stride: 2
    weight_filler {
      type: "msra"
    }
  }
}
layer {
  name: "resx1_conv2_bn"
  type: "BatchNorm"
  bottom: "resx1_conv2"
  top: "resx1_conv2"
  param {
    lr_mult: 0
    decay_mult: 0
  }
  param {
    lr_mult: 0
    decay_mult: 0
  }
  param {
    lr_mult: 0
    decay_mult: 0
  }
}
layer {
  name: "resx1_conv2_scale"
  type: "Scale"
  bottom: "resx1_conv2"
  top: "resx1_conv2"
  scale_param {
    filler {
      value: 1
    }
    bias_term: true
    bias_filler {
      value: 0
    }
  }
}
layer {
  name: "resx1_conv3"
  type: "Convolution"
  bottom: "resx1_conv2"
  top: "resx1_conv3"
  convolution_param {
    num_output: 216
    bias_term: false
    pad: 0
    kernel_size: 1
    group: 3
    stride: 1
    weight_filler {
      type: "msra"
    }
  }
}
layer {
  name: "resx1_conv3_bn"
  type: "BatchNorm"
  bottom: "resx1_conv3"
  top: "resx1_conv3"
  param {
    lr_mult: 0
    decay_mult: 0
  }
  param {
    lr_mult: 0
    decay_mult: 0
  }
  param {
    lr_mult: 0
    decay_mult: 0
  }
}
layer {
  name: "resx1_conv3_scale"
  type: "Scale"
  bottom: "resx1_conv3"
  top: "resx1_conv3"
  scale_param {
    filler {
      value: 1
    }
    bias_term: true
    bias_filler {
      value: 0
    }
  }
}
layer {
  name: "resx1_concat"
  type: "Concat"
  bottom: "resx1_match_conv"
  bottom: "resx1_conv3"
  top: "resx1_concat"
}
layer {
  name: "resx1_concat_relu"
  type: "ReLU"
  bottom: "resx1_concat"
  top: "resx1_concat"
}
layer {
  name: "resx2_conv1"
  type: "Convolution"
  bottom: "resx1_concat"
  top: "resx2_conv1"
  convolution_param {
    num_output: 60
    bias_term: false
    pad: 0
    kernel_size: 1
    group: 3
    stride: 1
    weight_filler {
      type: "msra"
    }
  }
}
layer {
  name: "resx2_conv1_bn"
  type: "BatchNorm"
  bottom: "resx2_conv1"
  top: "resx2_conv1"
  param {
    lr_mult: 0
    decay_mult: 0
  }
  param {
    lr_mult: 0
    decay_mult: 0
  }
  param {
    lr_mult: 0
    decay_mult: 0
  }
}
layer {
  name: "resx2_conv1_scale"
  type: "Scale"
  bottom: "resx2_conv1"
  top: "resx2_conv1"
  scale_param {
    filler {
      value: 1
    }
    bias_term: true
    bias_filler {
      value: 0
    }
  }
}
layer {
  name: "resx2_conv1_relu"
  type: "ReLU"
  bottom: "resx2_conv1"
  top: "resx2_conv1"
}
layer {
  name: "shuffle2"
  type: "ShuffleChannel"
  bottom: "resx2_conv1"
  top: "shuffle2"
  shuffle_channel_param {
    group: 3
  }
}
layer {
  name: "resx2_conv2"
  type: "ConvolutionDepthwise"
  bottom: "shuffle2"
  top: "resx2_conv2"
  convolution_param {
    num_output: 60
    bias_term: false
    pad: 1
    kernel_size: 3
    stride: 1
    weight_filler {
      type: "msra"
    }
  }
}
layer {
  name: "resx2_conv2_bn"
  type: "BatchNorm"
  bottom: "resx2_conv2"
  top: "resx2_conv2"
  param {
    lr_mult: 0
    decay_mult: 0
  }
  param {
    lr_mult: 0
    decay_mult: 0
  }
  param {
    lr_mult: 0
    decay_mult: 0
  }
}
layer {
  name: "resx2_conv2_scale"
  type: "Scale"
  bottom: "resx2_conv2"
  top: "resx2_conv2"
  scale_param {
    filler {
      value: 1
    }
    bias_term: true
    bias_filler {
      value: 0
    }
  }
}
layer {
  name: "resx2_conv3"
  type: "Convolution"
  bottom: "resx2_conv2"
  top: "resx2_conv3"
  convolution_param {
    num_output: 240
    bias_term: false
    pad: 0
    kernel_size: 1
    group: 3
    stride: 1
    weight_filler {
      type: "msra"
    }
  }
}
layer {
  name: "resx2_conv3_bn"
  type: "BatchNorm"
  bottom: "resx2_conv3"
  top: "resx2_conv3"
  param {
    lr_mult: 0
    decay_mult: 0
  }
  param {
    lr_mult: 0
    decay_mult: 0
  }
  param {
    lr_mult: 0
    decay_mult: 0
  }
}
layer {
  name: "resx2_conv3_scale"
  type: "Scale"
  bottom: "resx2_conv3"
  top: "resx2_conv3"
  scale_param {
    filler {
      value: 1
    }
    bias_term: true
    bias_filler {
      value: 0
    }
  }
}
layer {
  name: "resx2_elewise"
  type: "Eltwise"
  bottom: "resx1_concat"
  bottom: "resx2_conv3"
  top: "resx2_elewise"
  eltwise_param {
    operation: SUM
  }
}
layer {
  name: "resx2_elewise_relu"
  type: "ReLU"
  bottom: "resx2_elewise"
  top: "resx2_elewise"
}
layer {
  name: "resx3_conv1"
  type: "Convolution"
  bottom: "resx2_elewise"
  top: "resx3_conv1"
  convolution_param {
    num_output: 60
    bias_term: false
    pad: 0
    kernel_size: 1
    group: 3
    stride: 1
    weight_filler {
      type: "msra"
    }
  }
}
layer {
  name: "resx3_conv1_bn"
  type: "BatchNorm"
  bottom: "resx3_conv1"
  top: "resx3_conv1"
  param {
    lr_mult: 0
    decay_mult: 0
  }
  param {
    lr_mult: 0
    decay_mult: 0
  }
  param {
    lr_mult: 0
    decay_mult: 0
  }
}
layer {
  name: "resx3_conv1_scale"
  type: "Scale"
  bottom: "resx3_conv1"
  top: "resx3_conv1"
  scale_param {
    filler {
      value: 1
    }
    bias_term: true
    bias_filler {
      value: 0
    }
  }
}
layer {
  name: "resx3_conv1_relu"
  type: "ReLU"
  bottom: "resx3_conv1"
  top: "resx3_conv1"
}
layer {
  name: "shuffle3"
  type: "ShuffleChannel"
  bottom: "resx3_conv1"
  top: "shuffle3"
  shuffle_channel_param {
    group: 3
  }
}
layer {
  name: "resx3_conv2"
  type: "ConvolutionDepthwise"
  bottom: "shuffle3"
  top: "resx3_conv2"
  convolution_param {
    num_output: 60
    bias_term: false
    pad: 1
    kernel_size: 3
    stride: 1
    weight_filler {
      type: "msra"
    }
  }
}
layer {
  name: "resx3_conv2_bn"
  type: "BatchNorm"
  bottom: "resx3_conv2"
  top: "resx3_conv2"
  param {
    lr_mult: 0
    decay_mult: 0
  }
  param {
    lr_mult: 0
    decay_mult: 0
  }
  param {
    lr_mult: 0
    decay_mult: 0
  }
}
layer {
  name: "resx3_conv2_scale"
  type: "Scale"
  bottom: "resx3_conv2"
  top: "resx3_conv2"
  scale_param {
    filler {
      value: 1
    }
    bias_term: true
    bias_filler {
      value: 0
    }
  }
}
layer {
  name: "resx3_conv3"
  type: "Convolution"
  bottom: "resx3_conv2"
  top: "resx3_conv3"
  convolution_param {
    num_output: 240
    bias_term: false
    pad: 0
    kernel_size: 1
    group: 3
    stride: 1
    weight_filler {
      type: "msra"
    }
  }
}
layer {
  name: "resx3_conv3_bn"
  type: "BatchNorm"
  bottom: "resx3_conv3"
  top: "resx3_conv3"
  param {
    lr_mult: 0
    decay_mult: 0
  }
  param {
    lr_mult: 0
    decay_mult: 0
  }
  param {
    lr_mult: 0
    decay_mult: 0
  }
}
layer {
  name: "resx3_conv3_scale"
  type: "Scale"
  bottom: "resx3_conv3"
  top: "resx3_conv3"
  scale_param {
    filler {
      value: 1
    }
    bias_term: true
    bias_filler {
      value: 0
    }
  }
}
layer {
  name: "resx3_elewise"
  type: "Eltwise"
  bottom: "resx2_elewise"
  bottom: "resx3_conv3"
  top: "resx3_elewise"
  eltwise_param {
    operation: SUM
  }
}
layer {
  name: "resx3_elewise_relu"
  type: "ReLU"
  bottom: "resx3_elewise"
  top: "resx3_elewise"
}
layer {
  name: "resx4_conv1"
  type: "Convolution"
  bottom: "resx3_elewise"
  top: "resx4_conv1"
  convolution_param {
    num_output: 60
    bias_term: false
    pad: 0
    kernel_size: 1
    group: 3
    stride: 1
    weight_filler {
      type: "msra"
    }
  }
}
layer {
  name: "resx4_conv1_bn"
  type: "BatchNorm"
  bottom: "resx4_conv1"
  top: "resx4_conv1"
  param {
    lr_mult: 0
    decay_mult: 0
  }
  param {
    lr_mult: 0
    decay_mult: 0
  }
  param {
    lr_mult: 0
    decay_mult: 0
  }
}
layer {
  name: "resx4_conv1_scale"
  type: "Scale"
  bottom: "resx4_conv1"
  top: "resx4_conv1"
  scale_param {
    filler {
      value: 1
    }
    bias_term: true
    bias_filler {
      value: 0
    }
  }
}
layer {
  name: "resx4_conv1_relu"
  type: "ReLU"
  bottom: "resx4_conv1"
  top: "resx4_conv1"
}
layer {
  name: "shuffle4"
  type: "ShuffleChannel"
  bottom: "resx4_conv1"
  top: "shuffle4"
  shuffle_channel_param {
    group: 3
  }
}
layer {
  name: "resx4_conv2"
  type: "ConvolutionDepthwise"
  bottom: "shuffle4"
  top: "resx4_conv2"
  convolution_param {
    num_output: 60
    bias_term: false
    pad: 1
    kernel_size: 3
    stride: 1
    weight_filler {
      type: "msra"
    }
  }
}
layer {
  name: "resx4_conv2_bn"
  type: "BatchNorm"
  bottom: "resx4_conv2"
  top: "resx4_conv2"
  param {
    lr_mult: 0
    decay_mult: 0
  }
  param {
    lr_mult: 0
    decay_mult: 0
  }
  param {
    lr_mult: 0
    decay_mult: 0
  }
}
layer {
  name: "resx4_conv2_scale"
  type: "Scale"
  bottom: "resx4_conv2"
  top: "resx4_conv2"
  scale_param {
    filler {
      value: 1
    }
    bias_term: true
    bias_filler {
      value: 0
    }
  }
}
layer {
  name: "resx4_conv3"
  type: "Convolution"
  bottom: "resx4_conv2"
  top: "resx4_conv3"
  convolution_param {
    num_output: 240
    bias_term: false
    pad: 0
    kernel_size: 1
    group: 3
    stride: 1
    weight_filler {
      type: "msra"
    }
  }
}
layer {
  name: "resx4_conv3_bn"
  type: "BatchNorm"
  bottom: "resx4_conv3"
  top: "resx4_conv3"
  param {
    lr_mult: 0
    decay_mult: 0
  }
  param {
    lr_mult: 0
    decay_mult: 0
  }
  param {
    lr_mult: 0
    decay_mult: 0
  }
}
layer {
  name: "resx4_conv3_scale"
  type: "Scale"
  bottom: "resx4_conv3"
  top: "resx4_conv3"
  scale_param {
    filler {
      value: 1
    }
    bias_term: true
    bias_filler {
      value: 0
    }
  }
}
layer {
  name: "resx4_elewise"
  type: "Eltwise"
  bottom: "resx3_elewise"
  bottom: "resx4_conv3"
  top: "resx4_elewise"
  eltwise_param {
    operation: SUM
  }
}
layer {
  name: "resx4_elewise_relu"
  type: "ReLU"
  bottom: "resx4_elewise"
  top: "resx4_elewise"
}
layer {
  name: "resx5_match_conv"
  type: "Pooling"
  bottom: "resx4_elewise"
  top: "resx5_match_conv"
  pooling_param {
    pool: AVE
    kernel_size: 3
    stride: 2
  }
}
layer {
  name: "resx5_conv1"
  type: "Convolution"
  bottom: "resx4_elewise"
  top: "resx5_conv1"
  convolution_param {
    num_output: 60
    bias_term: false
    pad: 0
    kernel_size: 1
    group: 3
    stride: 1
    weight_filler {
      type: "msra"
    }
  }
}
layer {
  name: "resx5_conv1_bn"
  type: "BatchNorm"
  bottom: "resx5_conv1"
  top: "resx5_conv1"
  param {
    lr_mult: 0
    decay_mult: 0
  }
  param {
    lr_mult: 0
    decay_mult: 0
  }
  param {
    lr_mult: 0
    decay_mult: 0
  }
}
layer {
  name: "resx5_conv1_scale"
  type: "Scale"
  bottom: "resx5_conv1"
  top: "resx5_conv1"
  scale_param {
    filler {
      value: 1
    }
    bias_term: true
    bias_filler {
      value: 0
    }
  }
}
layer {
  name: "resx5_conv1_relu"
  type: "ReLU"
  bottom: "resx5_conv1"
  top: "resx5_conv1"
}
layer {
  name: "shuffle5"
  type: "ShuffleChannel"
  bottom: "resx5_conv1"
  top: "shuffle5"
  shuffle_channel_param {
    group: 3
  }
}
layer {
  name: "resx5_conv2"
  type: "ConvolutionDepthwise"
  bottom: "shuffle5"
  top: "resx5_conv2"
  convolution_param {
    num_output: 60
    bias_term: false
    pad: 1
    kernel_size: 3
    stride: 2
    weight_filler {
      type: "msra"
    }
  }
}
layer {
  name: "resx5_conv2_bn"
  type: "BatchNorm"
  bottom: "resx5_conv2"
  top: "resx5_conv2"
  param {
    lr_mult: 0
    decay_mult: 0
  }
  param {
    lr_mult: 0
    decay_mult: 0
  }
  param {
    lr_mult: 0
    decay_mult: 0
  }
}
layer {
  name: "resx5_conv2_scale"
  type: "Scale"
  bottom: "resx5_conv2"
  top: "resx5_conv2"
  scale_param {
    filler {
      value: 1
    }
    bias_term: true
    bias_filler {
      value: 0
    }
  }
}
layer {
  name: "resx5_conv3"
  type: "Convolution"
  bottom: "resx5_conv2"
  top: "resx5_conv3"
  convolution_param {
    num_output: 240
    bias_term: false
    pad: 0
    kernel_size: 1
    group: 3
    stride: 1
    weight_filler {
      type: "msra"
    }
  }
}
layer {
  name: "resx5_conv3_bn"
  type: "BatchNorm"
  bottom: "resx5_conv3"
  top: "resx5_conv3"
  param {
    lr_mult: 0
    decay_mult: 0
  }
  param {
    lr_mult: 0
    decay_mult: 0
  }
  param {
    lr_mult: 0
    decay_mult: 0
  }
}
layer {
  name: "resx5_conv3_scale"
  type: "Scale"
  bottom: "resx5_conv3"
  top: "resx5_conv3"
  scale_param {
    filler {
      value: 1
    }
    bias_term: true
    bias_filler {
      value: 0
    }
  }
}
layer {
  name: "resx5_concat"
  type: "Concat"
  bottom: "resx5_match_conv"
  bottom: "resx5_conv3"
  top: "resx5_concat"
}
layer {
  name: "resx5_concat_relu"
  type: "ReLU"
  bottom: "resx5_concat"
  top: "resx5_concat"
}
layer {
  name: "resx6_conv1"
  type: "Convolution"
  bottom: "resx5_concat"
  top: "resx6_conv1"
  convolution_param {
    num_output: 120
    bias_term: false
    pad: 0
    kernel_size: 1
    group: 3
    stride: 1
    weight_filler {
      type: "msra"
    }
  }
}
layer {
  name: "resx6_conv1_bn"
  type: "BatchNorm"
  bottom: "resx6_conv1"
  top: "resx6_conv1"
  param {
    lr_mult: 0
    decay_mult: 0
  }
  param {
    lr_mult: 0
    decay_mult: 0
  }
  param {
    lr_mult: 0
    decay_mult: 0
  }
}
layer {
  name: "resx6_conv1_scale"
  type: "Scale"
  bottom: "resx6_conv1"
  top: "resx6_conv1"
  scale_param {
    filler {
      value: 1
    }
    bias_term: true
    bias_filler {
      value: 0
    }
  }
}
layer {
  name: "resx6_conv1_relu"
  type: "ReLU"
  bottom: "resx6_conv1"
  top: "resx6_conv1"
}
layer {
  name: "shuffle6"
  type: "ShuffleChannel"
  bottom: "resx6_conv1"
  top: "shuffle6"
  shuffle_channel_param {
    group: 3
  }
}
layer {
  name: "resx6_conv2"
  type: "ConvolutionDepthwise"
  bottom: "shuffle6"
  top: "resx6_conv2"
  convolution_param {
    num_output: 120
    bias_term: false
    pad: 1
    kernel_size: 3
    stride: 1
    weight_filler {
      type: "msra"
    }
  }
}
layer {
  name: "resx6_conv2_bn"
  type: "BatchNorm"
  bottom: "resx6_conv2"
  top: "resx6_conv2"
  param {
    lr_mult: 0
    decay_mult: 0
  }
  param {
    lr_mult: 0
    decay_mult: 0
  }
  param {
    lr_mult: 0
    decay_mult: 0
  }
}
layer {
  name: "resx6_conv2_scale"
  type: "Scale"
  bottom: "resx6_conv2"
  top: "resx6_conv2"
  scale_param {
    filler {
      value: 1
    }
    bias_term: true
    bias_filler {
      value: 0
    }
  }
}
layer {
  name: "resx6_conv3"
  type: "Convolution"
  bottom: "resx6_conv2"
  top: "resx6_conv3"
  convolution_param {
    num_output: 480
    bias_term: false
    pad: 0
    kernel_size: 1
    group: 3
    stride: 1
    weight_filler {
      type: "msra"
    }
  }
}
layer {
  name: "resx6_conv3_bn"
  type: "BatchNorm"
  bottom: "resx6_conv3"
  top: "resx6_conv3"
  param {
    lr_mult: 0
    decay_mult: 0
  }
  param {
    lr_mult: 0
    decay_mult: 0
  }
  param {
    lr_mult: 0
    decay_mult: 0
  }
}
layer {
  name: "resx6_conv3_scale"
  type: "Scale"
  bottom: "resx6_conv3"
  top: "resx6_conv3"
  scale_param {
    filler {
      value: 1
    }
    bias_term: true
    bias_filler {
      value: 0
    }
  }
}
layer {
  name: "resx6_elewise"
  type: "Eltwise"
  bottom: "resx5_concat"
  bottom: "resx6_conv3"
  top: "resx6_elewise"
  eltwise_param {
    operation: SUM
  }
}
layer {
  name: "resx6_elewise_relu"
  type: "ReLU"
  bottom: "resx6_elewise"
  top: "resx6_elewise"
}
layer {
  name: "resx7_conv1"
  type: "Convolution"
  bottom: "resx6_elewise"
  top: "resx7_conv1"
  convolution_param {
    num_output: 120
    bias_term: false
    pad: 0
    kernel_size: 1
    group: 3
    stride: 1
    weight_filler {
      type: "msra"
    }
  }
}
layer {
  name: "resx7_conv1_bn"
  type: "BatchNorm"
  bottom: "resx7_conv1"
  top: "resx7_conv1"
  param {
    lr_mult: 0
    decay_mult: 0
  }
  param {
    lr_mult: 0
    decay_mult: 0
  }
  param {
    lr_mult: 0
    decay_mult: 0
  }
}
layer {
  name: "resx7_conv1_scale"
  type: "Scale"
  bottom: "resx7_conv1"
  top: "resx7_conv1"
  scale_param {
    filler {
      value: 1
    }
    bias_term: true
    bias_filler {
      value: 0
    }
  }
}
layer {
  name: "resx7_conv1_relu"
  type: "ReLU"
  bottom: "resx7_conv1"
  top: "resx7_conv1"
}
layer {
  name: "shuffle7"
  type: "ShuffleChannel"
  bottom: "resx7_conv1"
  top: "shuffle7"
  shuffle_channel_param {
    group: 3
  }
}
layer {
  name: "resx7_conv2"
  type: "ConvolutionDepthwise"
  bottom: "shuffle7"
  top: "resx7_conv2"
  convolution_param {
    num_output: 120
    bias_term: false
    pad: 1
    kernel_size: 3
    stride: 1
    weight_filler {
      type: "msra"
    }
  }
}
layer {
  name: "resx7_conv2_bn"
  type: "BatchNorm"
  bottom: "resx7_conv2"
  top: "resx7_conv2"
  param {
    lr_mult: 0
    decay_mult: 0
  }
  param {
    lr_mult: 0
    decay_mult: 0
  }
  param {
    lr_mult: 0
    decay_mult: 0
  }
}
layer {
  name: "resx7_conv2_scale"
  type: "Scale"
  bottom: "resx7_conv2"
  top: "resx7_conv2"
  scale_param {
    filler {
      value: 1
    }
    bias_term: true
    bias_filler {
      value: 0
    }
  }
}
layer {
  name: "resx7_conv3"
  type: "Convolution"
  bottom: "resx7_conv2"
  top: "resx7_conv3"
  convolution_param {
    num_output: 480
    bias_term: false
    pad: 0
    kernel_size: 1
    group: 3
    stride: 1
    weight_filler {
      type: "msra"
    }
  }
}
layer {
  name: "resx7_conv3_bn"
  type: "BatchNorm"
  bottom: "resx7_conv3"
  top: "resx7_conv3"
  param {
    lr_mult: 0
    decay_mult: 0
  }
  param {
    lr_mult: 0
    decay_mult: 0
  }
  param {
    lr_mult: 0
    decay_mult: 0
  }
}
layer {
  name: "resx7_conv3_scale"
  type: "Scale"
  bottom: "resx7_conv3"
  top: "resx7_conv3"
  scale_param {
    filler {
      value: 1
    }
    bias_term: true
    bias_filler {
      value: 0
    }
  }
}
layer {
  name: "resx7_elewise"
  type: "Eltwise"
  bottom: "resx6_elewise"
  bottom: "resx7_conv3"
  top: "resx7_elewise"
  eltwise_param {
    operation: SUM
  }
}
layer {
  name: "resx7_elewise_relu"
  type: "ReLU"
  bottom: "resx7_elewise"
  top: "resx7_elewise"
}
layer {
  name: "resx8_conv1"
  type: "Convolution"
  bottom: "resx7_elewise"
  top: "resx8_conv1"
  convolution_param {
    num_output: 120
    bias_term: false
    pad: 0
    kernel_size: 1
    group: 3
    stride: 1
    weight_filler {
      type: "msra"
    }
  }
}
layer {
  name: "resx8_conv1_bn"
  type: "BatchNorm"
  bottom: "resx8_conv1"
  top: "resx8_conv1"
  param {
    lr_mult: 0
    decay_mult: 0
  }
  param {
    lr_mult: 0
    decay_mult: 0
  }
  param {
    lr_mult: 0
    decay_mult: 0
  }
}
layer {
  name: "resx8_conv1_scale"
  type: "Scale"
  bottom: "resx8_conv1"
  top: "resx8_conv1"
  scale_param {
    filler {
      value: 1
    }
    bias_term: true
    bias_filler {
      value: 0
    }
  }
}
layer {
  name: "resx8_conv1_relu"
  type: "ReLU"
  bottom: "resx8_conv1"
  top: "resx8_conv1"
}
layer {
  name: "shuffle8"
  type: "ShuffleChannel"
  bottom: "resx8_conv1"
  top: "shuffle8"
  shuffle_channel_param {
    group: 3
  }
}
layer {
  name: "resx8_conv2"
  type: "ConvolutionDepthwise"
  bottom: "shuffle8"
  top: "resx8_conv2"
  convolution_param {
    num_output: 120
    bias_term: false
    pad: 1
    kernel_size: 3
    stride: 1
    weight_filler {
      type: "msra"
    }
  }
}
layer {
  name: "resx8_conv2_bn"
  type: "BatchNorm"
  bottom: "resx8_conv2"
  top: "resx8_conv2"
  param {
    lr_mult: 0
    decay_mult: 0
  }
  param {
    lr_mult: 0
    decay_mult: 0
  }
  param {
    lr_mult: 0
    decay_mult: 0
  }
}
layer {
  name: "resx8_conv2_scale"
  type: "Scale"
  bottom: "resx8_conv2"
  top: "resx8_conv2"
  scale_param {
    filler {
      value: 1
    }
    bias_term: true
    bias_filler {
      value: 0
    }
  }
}
layer {
  name: "resx8_conv3"
  type: "Convolution"
  bottom: "resx8_conv2"
  top: "resx8_conv3"
  convolution_param {
    num_output: 480
    bias_term: false
    pad: 0
    kernel_size: 1
    group: 3
    stride: 1
    weight_filler {
      type: "msra"
    }
  }
}
layer {
  name: "resx8_conv3_bn"
  type: "BatchNorm"
  bottom: "resx8_conv3"
  top: "resx8_conv3"
  param {
    lr_mult: 0
    decay_mult: 0
  }
  param {
    lr_mult: 0
    decay_mult: 0
  }
  param {
    lr_mult: 0
    decay_mult: 0
  }
}
layer {
  name: "resx8_conv3_scale"
  type: "Scale"
  bottom: "resx8_conv3"
  top: "resx8_conv3"
  scale_param {
    filler {
      value: 1
    }
    bias_term: true
    bias_filler {
      value: 0
    }
  }
}
layer {
  name: "resx8_elewise"
  type: "Eltwise"
  bottom: "resx7_elewise"
  bottom: "resx8_conv3"
  top: "resx8_elewise"
  eltwise_param {
    operation: SUM
  }
}
layer {
  name: "resx8_elewise_relu"
  type: "ReLU"
  bottom: "resx8_elewise"
  top: "resx8_elewise"
}
layer {
  name: "resx9_conv1"
  type: "Convolution"
  bottom: "resx8_elewise"
  top: "resx9_conv1"
  convolution_param {
    num_output: 120
    bias_term: false
    pad: 0
    kernel_size: 1
    group: 3
    stride: 1
    weight_filler {
      type: "msra"
    }
  }
}
layer {
  name: "resx9_conv1_bn"
  type: "BatchNorm"
  bottom: "resx9_conv1"
  top: "resx9_conv1"
  param {
    lr_mult: 0
    decay_mult: 0
  }
  param {
    lr_mult: 0
    decay_mult: 0
  }
  param {
    lr_mult: 0
    decay_mult: 0
  }
}
layer {
  name: "resx9_conv1_scale"
  type: "Scale"
  bottom: "resx9_conv1"
  top: "resx9_conv1"
  scale_param {
    filler {
      value: 1
    }
    bias_term: true
    bias_filler {
      value: 0
    }
  }
}
layer {
  name: "resx9_conv1_relu"
  type: "ReLU"
  bottom: "resx9_conv1"
  top: "resx9_conv1"
}
layer {
  name: "shuffle9"
  type: "ShuffleChannel"
  bottom: "resx9_conv1"
  top: "shuffle9"
  shuffle_channel_param {
    group: 3
  }
}
layer {
  name: "resx9_conv2"
  type: "ConvolutionDepthwise"
  bottom: "shuffle9"
  top: "resx9_conv2"
  convolution_param {
    num_output: 120
    bias_term: false
    pad: 1
    kernel_size: 3
    stride: 1
    weight_filler {
      type: "msra"
    }
  }
}
layer {
  name: "resx9_conv2_bn"
  type: "BatchNorm"
  bottom: "resx9_conv2"
  top: "resx9_conv2"
  param {
    lr_mult: 0
    decay_mult: 0
  }
  param {
    lr_mult: 0
    decay_mult: 0
  }
  param {
    lr_mult: 0
    decay_mult: 0
  }
}
layer {
  name: "resx9_conv2_scale"
  type: "Scale"
  bottom: "resx9_conv2"
  top: "resx9_conv2"
  scale_param {
    filler {
      value: 1
    }
    bias_term: true
    bias_filler {
      value: 0
    }
  }
}
layer {
  name: "resx9_conv3"
  type: "Convolution"
  bottom: "resx9_conv2"
  top: "resx9_conv3"
  convolution_param {
    num_output: 480
    bias_term: false
    pad: 0
    kernel_size: 1
    group: 3
    stride: 1
    weight_filler {
      type: "msra"
    }
  }
}
layer {
  name: "resx9_conv3_bn"
  type: "BatchNorm"
  bottom: "resx9_conv3"
  top: "resx9_conv3"
  param {
    lr_mult: 0
    decay_mult: 0
  }
  param {
    lr_mult: 0
    decay_mult: 0
  }
  param {
    lr_mult: 0
    decay_mult: 0
  }
}
layer {
  name: "resx9_conv3_scale"
  type: "Scale"
  bottom: "resx9_conv3"
  top: "resx9_conv3"
  scale_param {
    filler {
      value: 1
    }
    bias_term: true
    bias_filler {
      value: 0
    }
  }
}
layer {
  name: "resx9_elewise"
  type: "Eltwise"
  bottom: "resx8_elewise"
  bottom: "resx9_conv3"
  top: "resx9_elewise"
  eltwise_param {
    operation: SUM
  }
}
layer {
  name: "resx9_elewise_relu"
  type: "ReLU"
  bottom: "resx9_elewise"
  top: "resx9_elewise"
}
layer {
  name: "resx10_conv1"
  type: "Convolution"
  bottom: "resx9_elewise"
  top: "resx10_conv1"
  convolution_param {
    num_output: 120
    bias_term: false
    pad: 0
    kernel_size: 1
    group: 3
    stride: 1
    weight_filler {
      type: "msra"
    }
  }
}
layer {
  name: "resx10_conv1_bn"
  type: "BatchNorm"
  bottom: "resx10_conv1"
  top: "resx10_conv1"
  param {
    lr_mult: 0
    decay_mult: 0
  }
  param {
    lr_mult: 0
    decay_mult: 0
  }
  param {
    lr_mult: 0
    decay_mult: 0
  }
}
layer {
  name: "resx10_conv1_scale"
  type: "Scale"
  bottom: "resx10_conv1"
  top: "resx10_conv1"
  scale_param {
    filler {
      value: 1
    }
    bias_term: true
    bias_filler {
      value: 0
    }
  }
}
layer {
  name: "resx10_conv1_relu"
  type: "ReLU"
  bottom: "resx10_conv1"
  top: "resx10_conv1"
}
layer {
  name: "shuffle10"
  type: "ShuffleChannel"
  bottom: "resx10_conv1"
  top: "shuffle10"
  shuffle_channel_param {
    group: 3
  }
}
layer {
  name: "resx10_conv2"
  type: "ConvolutionDepthwise"
  bottom: "shuffle10"
  top: "resx10_conv2"
  convolution_param {
    num_output: 120
    bias_term: false
    pad: 1
    kernel_size: 3
    stride: 1
    weight_filler {
      type: "msra"
    }
  }
}
layer {
  name: "resx10_conv2_bn"
  type: "BatchNorm"
  bottom: "resx10_conv2"
  top: "resx10_conv2"
  param {
    lr_mult: 0
    decay_mult: 0
  }
  param {
    lr_mult: 0
    decay_mult: 0
  }
  param {
    lr_mult: 0
    decay_mult: 0
  }
}
layer {
  name: "resx10_conv2_scale"
  type: "Scale"
  bottom: "resx10_conv2"
  top: "resx10_conv2"
  scale_param {
    filler {
      value: 1
    }
    bias_term: true
    bias_filler {
      value: 0
    }
  }
}
layer {
  name: "resx10_conv3"
  type: "Convolution"
  bottom: "resx10_conv2"
  top: "resx10_conv3"
  convolution_param {
    num_output: 480
    bias_term: false
    pad: 0
    kernel_size: 1
    group: 3
    stride: 1
    weight_filler {
      type: "msra"
    }
  }
}
layer {
  name: "resx10_conv3_bn"
  type: "BatchNorm"
  bottom: "resx10_conv3"
  top: "resx10_conv3"
  param {
    lr_mult: 0
    decay_mult: 0
  }
  param {
    lr_mult: 0
    decay_mult: 0
  }
  param {
    lr_mult: 0
    decay_mult: 0
  }
}
layer {
  name: "resx10_conv3_scale"
  type: "Scale"
  bottom: "resx10_conv3"
  top: "resx10_conv3"
  scale_param {
    filler {
      value: 1
    }
    bias_term: true
    bias_filler {
      value: 0
    }
  }
}
layer {
  name: "resx10_elewise"
  type: "Eltwise"
  bottom: "resx9_elewise"
  bottom: "resx10_conv3"
  top: "resx10_elewise"
  eltwise_param {
    operation: SUM
  }
}
layer {
  name: "resx10_elewise_relu"
  type: "ReLU"
  bottom: "resx10_elewise"
  top: "resx10_elewise"
}
layer {
  name: "resx11_conv1"
  type: "Convolution"
  bottom: "resx10_elewise"
  top: "resx11_conv1"
  convolution_param {
    num_output: 120
    bias_term: false
    pad: 0
    kernel_size: 1
    group: 3
    stride: 1
    weight_filler {
      type: "msra"
    }
  }
}
layer {
  name: "resx11_conv1_bn"
  type: "BatchNorm"
  bottom: "resx11_conv1"
  top: "resx11_conv1"
  param {
    lr_mult: 0
    decay_mult: 0
  }
  param {
    lr_mult: 0
    decay_mult: 0
  }
  param {
    lr_mult: 0
    decay_mult: 0
  }
}
layer {
  name: "resx11_conv1_scale"
  type: "Scale"
  bottom: "resx11_conv1"
  top: "resx11_conv1"
  scale_param {
    filler {
      value: 1
    }
    bias_term: true
    bias_filler {
      value: 0
    }
  }
}
layer {
  name: "resx11_conv1_relu"
  type: "ReLU"
  bottom: "resx11_conv1"
  top: "resx11_conv1"
}
layer {
  name: "shuffle11"
  type: "ShuffleChannel"
  bottom: "resx11_conv1"
  top: "shuffle11"
  shuffle_channel_param {
    group: 3
  }
}
layer {
  name: "resx11_conv2"
  type: "ConvolutionDepthwise"
  bottom: "shuffle11"
  top: "resx11_conv2"
  convolution_param {
    num_output: 120
    bias_term: false
    pad: 1
    kernel_size: 3
    stride: 1
    weight_filler {
      type: "msra"
    }
  }
}
layer {
  name: "resx11_conv2_bn"
  type: "BatchNorm"
  bottom: "resx11_conv2"
  top: "resx11_conv2"
  param {
    lr_mult: 0
    decay_mult: 0
  }
  param {
    lr_mult: 0
    decay_mult: 0
  }
  param {
    lr_mult: 0
    decay_mult: 0
  }
}
layer {
  name: "resx11_conv2_scale"
  type: "Scale"
  bottom: "resx11_conv2"
  top: "resx11_conv2"
  scale_param {
    filler {
      value: 1
    }
    bias_term: true
    bias_filler {
      value: 0
    }
  }
}
layer {
  name: "resx11_conv3"
  type: "Convolution"
  bottom: "resx11_conv2"
  top: "resx11_conv3"
  convolution_param {
    num_output: 480
    bias_term: false
    pad: 0
    kernel_size:
I0813 20:57:31.563738 16938 layer_factory.hpp:77] Creating layer data
I0813 20:57:31.564152 16938 net.cpp:91] Creating Layer data
I0813 20:57:31.564165 16938 net.cpp:443] data -> data
I0813 20:57:31.564211 16938 net.cpp:443] data -> label
I0813 20:57:31.565814 16956 db_lmdb.cpp:35] Opened lmdb /home/chenyao/ilsvrc12/ilsvrc12_train_lmdb
I0813 20:57:31.577873 16938 data_layer.cpp:41] output data size: 80,3,224,224
I0813 20:57:31.664602 16938 net.cpp:141] Setting up data
I0813 20:57:31.664659 16938 net.cpp:148] Top shape: 80 3 224 224 (12042240)
I0813 20:57:31.664665 16938 net.cpp:148] Top shape: 80 (80)
I0813 20:57:31.664669 16938 net.cpp:156] Memory required for data: 48169280
I0813 20:57:31.664681 16938 layer_factory.hpp:77] Creating layer conv1
I0813 20:57:31.664712 16938 net.cpp:91] Creating Layer conv1
I0813 20:57:31.664719 16938 net.cpp:469] conv1 <- data
I0813 20:57:31.664733 16938 net.cpp:443] conv1 -> conv1
I0813 20:57:31.665910 16938 net.cpp:141] Setting up conv1
I0813 20:57:31.665923 16938 net.cpp:148] Top shape: 80 24 112 112 (24084480)
I0813 20:57:31.665927 16938 net.cpp:156] Memory required for data: 144507200
I0813 20:57:31.665937 16938 layer_factory.hpp:77] Creating layer conv1_bn
I0813 20:57:31.665946 16938 net.cpp:91] Creating Layer conv1_bn
I0813 20:57:31.665951 16938 net.cpp:469] conv1_bn <- conv1
I0813 20:57:31.665956 16938 net.cpp:430] conv1_bn -> conv1 (in-place)
I0813 20:57:31.666656 16938 net.cpp:141] Setting up conv1_bn
I0813 20:57:31.666667 16938 net.cpp:148] Top shape: 80 24 112 112 (24084480)
I0813 20:57:31.666671 16938 net.cpp:156] Memory required for data: 240845120
I0813 20:57:31.666682 16938 layer_factory.hpp:77] Creating layer conv1_scale
I0813 20:57:31.666692 16938 net.cpp:91] Creating Layer conv1_scale
I0813 20:57:31.666697 16938 net.cpp:469] conv1_scale <- conv1
I0813 20:57:31.666702 16938 net.cpp:430] conv1_scale -> conv1 (in-place)
I0813 20:57:31.666760 16938 layer_factory.hpp:77] Creating layer conv1_scale
I0813 20:57:31.673316 16938 net.cpp:141] Setting up conv1_scale
I0813 20:57:31.673331 16938 net.cpp:148] Top shape: 80 24 112 112 (24084480)
I0813 20:57:31.673334 16938 net.cpp:156] Memory required for data: 337183040
I0813 20:57:31.673342 16938 layer_factory.hpp:77] Creating layer conv1_relu
I0813 20:57:31.673352 16938 net.cpp:91] Creating Layer conv1_relu
I0813 20:57:31.673357 16938 net.cpp:469] conv1_relu <- conv1
I0813 20:57:31.673363 16938 net.cpp:430] conv1_relu -> conv1 (in-place)
I0813 20:57:31.673377 16938 net.cpp:141] Setting up conv1_relu
I0813 20:57:31.673391 16938 net.cpp:148] Top shape: 80 24 112 112 (24084480)
I0813 20:57:31.673394 16938 net.cpp:156] Memory required for data: 433520960
I0813 20:57:31.673398 16938 layer_factory.hpp:77] Creating layer pool1
I0813 20:57:31.673404 16938 net.cpp:91] Creating Layer pool1
I0813 20:57:31.673408 16938 net.cpp:469] pool1 <- conv1
I0813 20:57:31.673413 16938 net.cpp:443] pool1 -> pool1
I0813 20:57:31.673455 16938 net.cpp:141] Setting up pool1
I0813 20:57:31.673461 16938 net.cpp:148] Top shape: 80 24 56 56 (6021120)
I0813 20:57:31.673465 16938 net.cpp:156] Memory required for data: 457605440
I0813 20:57:31.673468 16938 layer_factory.hpp:77] Creating layer pool1_pool1_0_split
I0813 20:57:31.673478 16938 net.cpp:91] Creating Layer pool1_pool1_0_split
I0813 20:57:31.673482 16938 net.cpp:469] pool1_pool1_0_split <- pool1
I0813 20:57:31.673486 16938 net.cpp:443] pool1_pool1_0_split -> pool1_pool1_0_split_0
I0813 20:57:31.673492 16938 net.cpp:443] pool1_pool1_0_split -> pool1_pool1_0_split_1
I0813 20:57:31.673514 16938 net.cpp:141] Setting up pool1_pool1_0_split
I0813 20:57:31.673521 16938 net.cpp:148] Top shape: 80 24 56 56 (6021120)
I0813 20:57:31.673523 16938 net.cpp:148] Top shape: 80 24 56 56 (6021120)
I0813 20:57:31.673527 16938 net.cpp:156] Memory required for data: 505774400
I0813 20:57:31.673529 16938 layer_factory.hpp:77] Creating layer resx1_match_conv
I0813 20:57:31.673535 16938 net.cpp:91] Creating Layer resx1_match_conv
I0813 20:57:31.673538 16938 net.cpp:469] resx1_match_conv <- pool1_pool1_0_split_0
I0813 20:57:31.673544 16938 net.cpp:443] resx1_match_conv -> resx1_match_conv
I0813 20:57:31.673558 16938 net.cpp:141] Setting up resx1_match_conv
I0813 20:57:31.673563 16938 net.cpp:148] Top shape: 80 24 28 28 (1505280)
I0813 20:57:31.673566 16938 net.cpp:156] Memory required for data: 511795520
I0813 20:57:31.673569 16938 layer_factory.hpp:77] Creating layer resx1_conv1
I0813 20:57:31.673579 16938 net.cpp:91] Creating Layer resx1_conv1
I0813 20:57:31.673583 16938 net.cpp:469] resx1_conv1 <- pool1_pool1_0_split_1
I0813 20:57:31.673588 16938 net.cpp:443] resx1_conv1 -> resx1_conv1
I0813 20:57:31.674453 16938 net.cpp:141] Setting up resx1_conv1
I0813 20:57:31.674464 16938 net.cpp:148] Top shape: 80 54 56 56 (13547520)
I0813 20:57:31.674468 16938 net.cpp:156] Memory required for data: 565985600
I0813 20:57:31.674474 16938 layer_factory.hpp:77] Creating layer resx1_conv1_bn
I0813 20:57:31.674479 16938 net.cpp:91] Creating Layer resx1_conv1_bn
I0813 20:57:31.674484 16938 net.cpp:469] resx1_conv1_bn <- resx1_conv1
I0813 20:57:31.674490 16938 net.cpp:430] resx1_conv1_bn -> resx1_conv1 (in-place)
I0813 20:57:31.674619 16938 net.cpp:141] Setting up resx1_conv1_bn
I0813 20:57:31.674625 16938 net.cpp:148] Top shape: 80 54 56 56 (13547520)
I0813 20:57:31.674628 16938 net.cpp:156] Memory required for data: 620175680
I0813 20:57:31.674638 16938 layer_factory.hpp:77] Creating layer resx1_conv1_scale
I0813 20:57:31.674646 16938 net.cpp:91] Creating Layer resx1_conv1_scale
I0813 20:57:31.674649 16938 net.cpp:469] resx1_conv1_scale <- resx1_conv1
I0813 20:57:31.674654 16938 net.cpp:430] resx1_conv1_scale -> resx1_conv1 (in-place)
I0813 20:57:31.674681 16938 layer_factory.hpp:77] Creating layer resx1_conv1_scale
I0813 20:57:31.674762 16938 net.cpp:141] Setting up resx1_conv1_scale
I0813 20:57:31.674769 16938 net.cpp:148] Top shape: 80 54 56 56 (13547520)
I0813 20:57:31.674772 16938 net.cpp:156] Memory required for data: 674365760
I0813 20:57:31.674777 16938 layer_factory.hpp:77] Creating layer resx1_conv1_relu
I0813 20:57:31.674784 16938 net.cpp:91] Creating Layer resx1_conv1_relu
I0813 20:57:31.674787 16938 net.cpp:469] resx1_conv1_relu <- resx1_conv1
I0813 20:57:31.674793 16938 net.cpp:430] resx1_conv1_relu -> resx1_conv1 (in-place)
I0813 20:57:31.674798 16938 net.cpp:141] Setting up resx1_conv1_relu
I0813 20:57:31.674801 16938 net.cpp:148] Top shape: 80 54 56 56 (13547520)
I0813 20:57:31.674804 16938 net.cpp:156] Memory required for data: 728555840
I0813 20:57:31.674811 16938 layer_factory.hpp:77] Creating layer resx1_conv2
I0813 20:57:31.674824 16938 net.cpp:91] Creating Layer resx1_conv2
I0813 20:57:31.674829 16938 net.cpp:469] resx1_conv2 <- resx1_conv1
I0813 20:57:31.674832 16938 net.cpp:443] resx1_conv2 -> resx1_conv2
I0813 20:57:31.675114 16938 net.cpp:141] Setting up resx1_conv2
I0813 20:57:31.675127 16938 net.cpp:148] Top shape: 80 54 28 28 (3386880)
I0813 20:57:31.675130 16938 net.cpp:156] Memory required for data: 742103360
I0813 20:57:31.675135 16938 layer_factory.hpp:77] Creating layer resx1_conv2_bn
I0813 20:57:31.675143 16938 net.cpp:91] Creating Layer resx1_conv2_bn
I0813 20:57:31.675146 16938 net.cpp:469] resx1_conv2_bn <- resx1_conv2
I0813 20:57:31.675153 16938 net.cpp:430] resx1_conv2_bn -> resx1_conv2 (in-place)
I0813 20:57:31.675284 16938 net.cpp:141] Setting up resx1_conv2_bn
I0813 20:57:31.675290 16938 net.cpp:148] Top shape: 80 54 28 28 (3386880)
I0813 20:57:31.675293 16938 net.cpp:156] Memory required for data: 755650880
I0813 20:57:31.675300 16938 layer_factory.hpp:77] Creating layer resx1_conv2_scale
I0813 20:57:31.675308 16938 net.cpp:91] Creating Layer resx1_conv2_scale
I0813 20:57:31.675312 16938 net.cpp:469] resx1_conv2_scale <- resx1_conv2
I0813 20:57:31.675317 16938 net.cpp:430] resx1_conv2_scale -> resx1_conv2 (in-place)
I0813 20:57:31.675344 16938 layer_factory.hpp:77] Creating layer resx1_conv2_scale
I0813 20:57:31.675424 16938 net.cpp:141] Setting up resx1_conv2_scale
I0813 20:57:31.675431 16938 net.cpp:148] Top shape: 80 54 28 28 (3386880)
I0813 20:57:31.675433 16938 net.cpp:156] Memory required for data: 769198400
I0813 20:57:31.675441 16938 layer_factory.hpp:77] Creating layer resx1_conv3
I0813 20:57:31.675451 16938 net.cpp:91] Creating Layer resx1_conv3
I0813 20:57:31.675453 16938 net.cpp:469] resx1_conv3 <- resx1_conv2
I0813 20:57:31.675459 16938 net.cpp:443] resx1_conv3 -> resx1_conv3
I0813 20:57:31.675663 16938 net.cpp:141] Setting up resx1_conv3
I0813 20:57:31.675670 16938 net.cpp:148] Top shape: 80 216 28 28 (13547520)
I0813 20:57:31.675673 16938 net.cpp:156] Memory required for data: 823388480
I0813 20:57:31.675678 16938 layer_factory.hpp:77] Creating layer resx1_conv3_bn
I0813 20:57:31.675686 16938 net.cpp:91] Creating Layer resx1_conv3_bn
I0813 20:57:31.675689 16938 net.cpp:469] resx1_conv3_bn <- resx1_conv3
I0813 20:57:31.675694 16938 net.cpp:430] resx1_conv3_bn -> resx1_conv3 (in-place)
I0813 20:57:31.675817 16938 net.cpp:141] Setting up resx1_conv3_bn
I0813 20:57:31.675822 16938 net.cpp:148] Top shape: 80 216 28 28 (13547520)
I0813 20:57:31.675825 16938 net.cpp:156] Memory required for data: 877578560
I0813 20:57:31.675832 16938 layer_factory.hpp:77] Creating layer resx1_conv3_scale
I0813 20:57:31.675838 16938 net.cpp:91] Creating Layer resx1_conv3_scale
I0813 20:57:31.675842 16938 net.cpp:469] resx1_conv3_scale <- resx1_conv3
I0813 20:57:31.675845 16938 net.cpp:430] resx1_conv3_scale -> resx1_conv3 (in-place)
I0813 20:57:31.675873 16938 layer_factory.hpp:77] Creating layer resx1_conv3_scale
I0813 20:57:31.675950 16938 net.cpp:141] Setting up resx1_conv3_scale
I0813 20:57:31.675956 16938 net.cpp:148] Top shape: 80 216 28 28 (13547520)
I0813 20:57:31.675958 16938 net.cpp:156] Memory required for data: 931768640
I0813 20:57:31.675963 16938 layer_factory.hpp:77] Creating layer resx1_concat
I0813 20:57:31.675974 16938 net.cpp:91] Creating Layer resx1_concat
I0813 20:57:31.675981 16938 net.cpp:469] resx1_concat <- resx1_match_conv
I0813 20:57:31.675984 16938 net.cpp:469] resx1_concat <- resx1_conv3
I0813 20:57:31.675988 16938 net.cpp:443] resx1_concat -> resx1_concat
I0813 20:57:31.676005 16938 net.cpp:141] Setting up resx1_concat
I0813 20:57:31.676010 16938 net.cpp:148] Top shape: 80 240 28 28 (15052800)
I0813 20:57:31.676013 16938 net.cpp:156] Memory required for data: 991979840
I0813 20:57:31.676017 16938 layer_factory.hpp:77] Creating layer resx1_concat_relu
I0813 20:57:31.676023 16938 net.cpp:91] Creating Layer resx1_concat_relu
I0813 20:57:31.676026 16938 net.cpp:469] resx1_concat_relu <- resx1_concat
I0813 20:57:31.676034 16938 net.cpp:430] resx1_concat_relu -> resx1_concat (in-place)
I0813 20:57:31.676048 16938 net.cpp:141] Setting up resx1_concat_relu
I0813 20:57:31.676051 16938 net.cpp:148] Top shape: 80 240 28 28 (15052800)
I0813 20:57:31.676054 16938 net.cpp:156] Memory required for data: 1052191040
I0813 20:57:31.676062 16938 layer_factory.hpp:77] Creating layer resx1_concat_resx1_concat_relu_0_split
I0813 20:57:31.676079 16938 net.cpp:91] Creating Layer resx1_concat_resx1_concat_relu_0_split
I0813 20:57:31.676081 16938 net.cpp:469] resx1_concat_resx1_concat_relu_0_split <- resx1_concat
I0813 20:57:31.676085 16938 net.cpp:443] resx1_concat_resx1_concat_relu_0_split -> resx1_concat_resx1_concat_relu_0_split_0
I0813 20:57:31.676090 16938 net.cpp:443] resx1_concat_resx1_concat_relu_0_split -> resx1_concat_resx1_concat_relu_0_split_1
I0813 20:57:31.676115 16938 net.cpp:141] Setting up resx1_concat_resx1_concat_relu_0_split
I0813 20:57:31.676120 16938 net.cpp:148] Top shape: 80 240 28 28 (15052800)
I0813 20:57:31.676125 16938 net.cpp:148] Top shape: 80 240 28 28 (15052800)
I0813 20:57:31.676127 16938 net.cpp:156] Memory required for data: 1172613440
I0813 20:57:31.676131 16938 layer_factory.hpp:77] Creating layer resx2_conv1
I0813 20:57:31.676139 16938 net.cpp:91] Creating Layer resx2_conv1
I0813 20:57:31.676142 16938 net.cpp:469] resx2_conv1 <- resx1_concat_resx1_concat_relu_0_split_0
I0813 20:57:31.676147 16938 net.cpp:443] resx2_conv1 -> resx2_conv1
I0813 20:57:31.676373 16938 net.cpp:141] Setting up resx2_conv1
I0813 20:57:31.676380 16938 net.cpp:148] Top shape: 80 60 28 28 (3763200)
I0813 20:57:31.676383 16938 net.cpp:156] Memory required for data: 1187666240
I0813 20:57:31.676388 16938 layer_factory.hpp:77] Creating layer resx2_conv1_bn
I0813 20:57:31.676393 16938 net.cpp:91] Creating Layer resx2_conv1_bn
I0813 20:57:31.676396 16938 net.cpp:469] resx2_conv1_bn <- resx2_conv1
I0813 20:57:31.676401 16938 net.cpp:430] resx2_conv1_bn -> resx2_conv1 (in-place)
I0813 20:57:31.676527 16938 net.cpp:141] Setting up resx2_conv1_bn
I0813 20:57:31.676533 16938 net.cpp:148] Top shape: 80 60 28 28 (3763200)
I0813 20:57:31.676537 16938 net.cpp:156] Memory required for data: 1202719040
I0813 20:57:31.676542 16938 layer_factory.hpp:77] Creating layer resx2_conv1_scale
I0813 20:57:31.676548 16938 net.cpp:91] Creating Layer resx2_conv1_scale
I0813 20:57:31.676551 16938 net.cpp:469] resx2_conv1_scale <- resx2_conv1
I0813 20:57:31.676555 16938 net.cpp:430] resx2_conv1_scale -> resx2_conv1 (in-place)
I0813 20:57:31.676584 16938 layer_factory.hpp:77] Creating layer resx2_conv1_scale
I0813 20:57:31.676658 16938 net.cpp:141] Setting up resx2_conv1_scale
I0813 20:57:31.676666 16938 net.cpp:148] Top shape: 80 60 28 28 (3763200)
I0813 20:57:31.676669 16938 net.cpp:156] Memory required for data: 1217771840
I0813 20:57:31.676674 16938 layer_factory.hpp:77] Creating layer resx2_conv1_relu
I0813 20:57:31.676679 16938 net.cpp:91] Creating Layer resx2_conv1_relu
I0813 20:57:31.676682 16938 net.cpp:469] resx2_conv1_relu <- resx2_conv1
I0813 20:57:31.676687 16938 net.cpp:430] resx2_conv1_relu -> resx2_conv1 (in-place)
I0813 20:57:31.676692 16938 net.cpp:141] Setting up resx2_conv1_relu
I0813 20:57:31.676695 16938 net.cpp:148] Top shape: 80 60 28 28 (3763200)
I0813 20:57:31.676698 16938 net.cpp:156] Memory required for data: 1232824640
I0813 20:57:31.676702 16938 layer_factory.hpp:77] Creating layer shuffle2
I0813 20:57:31.676712 16938 net.cpp:91] Creating Layer shuffle2
I0813 20:57:31.676717 16938 net.cpp:469] shuffle2 <- resx2_conv1
I0813 20:57:31.676722 16938 net.cpp:443] shuffle2 -> shuffle2
I0813 20:57:31.676739 16938 net.cpp:141] Setting up shuffle2
I0813 20:57:31.676744 16938 net.cpp:148] Top shape: 80 60 28 28 (3763200)
I0813 20:57:31.676748 16938 net.cpp:156] Memory required for data: 1247877440
I0813 20:57:31.676750 16938 layer_factory.hpp:77] Creating layer resx2_conv2
I0813 20:57:31.676756 16938 net.cpp:91] Creating Layer resx2_conv2
I0813 20:57:31.676759 16938 net.cpp:469] resx2_conv2 <- shuffle2
I0813 20:57:31.676765 16938 net.cpp:443] resx2_conv2 -> resx2_conv2
I0813 20:57:31.676854 16938 net.cpp:141] Setting up resx2_conv2
I0813 20:57:31.676872 16938 net.cpp:148] Top shape: 80 60 28 28 (3763200)
I0813 20:57:31.676874 16938 net.cpp:156] Memory required for data: 1262930240
I0813 20:57:31.676879 16938 layer_factory.hpp:77] Creating layer resx2_conv2_bn
I0813 20:57:31.676885 16938 net.cpp:91] Creating Layer resx2_conv2_bn
I0813 20:57:31.676889 16938 net.cpp:469] resx2_conv2_bn <- resx2_conv2
I0813 20:57:31.676895 16938 net.cpp:430] resx2_conv2_bn -> resx2_conv2 (in-place)
I0813 20:57:31.677022 16938 net.cpp:141] Setting up resx2_conv2_bn
I0813 20:57:31.677028 16938 net.cpp:148] Top shape: 80 60 28 28 (3763200)
I0813 20:57:31.677031 16938 net.cpp:156] Memory required for data: 1277983040
I0813 20:57:31.677042 16938 layer_factory.hpp:77] Creating layer resx2_conv2_scale
I0813 20:57:31.677049 16938 net.cpp:91] Creating Layer resx2_conv2_scale
I0813 20:57:31.677053 16938 net.cpp:469] resx2_conv2_scale <- resx2_conv2
I0813 20:57:31.677057 16938 net.cpp:430] resx2_conv2_scale -> resx2_conv2 (in-place)
I0813 20:57:31.677502 16938 layer_factory.hpp:77] Creating layer resx2_conv2_scale
I0813 20:57:31.677597 16938 net.cpp:141] Setting up resx2_conv2_scale
I0813 20:57:31.677604 16938 net.cpp:148] Top shape: 80 60 28 28 (3763200)
I0813 20:57:31.677608 16938 net.cpp:156] Memory required for data: 1293035840
I0813 20:57:31.677613 16938 layer_factory.hpp:77] Creating layer resx2_conv3
I0813 20:57:31.677623 16938 net.cpp:91] Creating Layer resx2_conv3
I0813 20:57:31.677628 16938 net.cpp:469] resx2_conv3 <- resx2_conv2
I0813 20:57:31.677634 16938 net.cpp:443] resx2_conv3 -> resx2_conv3
I0813 20:57:31.677883 16938 net.cpp:141] Setting up resx2_conv3
I0813 20:57:31.677891 16938 net.cpp:148] Top shape: 80 240 28 28 (15052800)
I0813 20:57:31.677893 16938 net.cpp:156] Memory required for data: 1353247040
I0813 20:57:31.677898 16938 layer_factory.hpp:77] Creating layer resx2_conv3_bn
I0813 20:57:31.677906 16938 net.cpp:91] Creating Layer resx2_conv3_bn
I0813 20:57:31.677909 16938 net.cpp:469] resx2_conv3_bn <- resx2_conv3
I0813 20:57:31.677913 16938 net.cpp:430] resx2_conv3_bn -> resx2_conv3 (in-place)
I0813 20:57:31.678037 16938 net.cpp:141] Setting up resx2_conv3_bn
I0813 20:57:31.678043 16938 net.cpp:148] Top shape: 80 240 28 28 (15052800)
I0813 20:57:31.678046 16938 net.cpp:156] Memory required for data: 1413458240
I0813 20:57:31.678052 16938 layer_factory.hpp:77] Creating layer resx2_conv3_scale
I0813 20:57:31.678061 16938 net.cpp:91] Creating Layer resx2_conv3_scale
I0813 20:57:31.678066 16938 net.cpp:469] resx2_conv3_scale <- resx2_conv3
I0813 20:57:31.678069 16938 net.cpp:430] resx2_conv3_scale -> resx2_conv3 (in-place)
I0813 20:57:31.678097 16938 layer_factory.hpp:77] Creating layer resx2_conv3_scale
I0813 20:57:31.678176 16938 net.cpp:141] Setting up resx2_conv3_scale
I0813 20:57:31.678182 16938 net.cpp:148] Top shape: 80 240 28 28 (15052800)
I0813 20:57:31.678185 16938 net.cpp:156] Memory required for data: 1473669440
I0813 20:57:31.678190 16938 layer_factory.hpp:77] Creating layer resx2_elewise
I0813 20:57:31.678205 16938 net.cpp:91] Creating Layer resx2_elewise
I0813 20:57:31.678210 16938 net.cpp:469] resx2_elewise <- resx1_concat_resx1_concat_relu_0_split_1
I0813 20:57:31.678213 16938 net.cpp:469] resx2_elewise <- resx2_conv3
I0813 20:57:31.678217 16938 net.cpp:443] resx2_elewise -> resx2_elewise
I0813 20:57:31.678239 16938 net.cpp:141] Setting up resx2_elewise
I0813 20:57:31.678244 16938 net.cpp:148] Top shape: 80 240 28 28 (15052800)
I0813 20:57:31.678247 16938 net.cpp:156] Memory required for data: 1533880640
I0813 20:57:31.678251 16938 layer_factory.hpp:77] Creating layer resx2_elewise_relu
I0813 20:57:31.678256 16938 net.cpp:91] Creating Layer resx2_elewise_relu
I0813 20:57:31.678259 16938 net.cpp:469] resx2_elewise_relu <- resx2_elewise
I0813 20:57:31.678263 16938 net.cpp:430] resx2_elewise_relu -> resx2_elewise (in-place)
I0813 20:57:31.678267 16938 net.cpp:141] Setting up resx2_elewise_relu
I0813 20:57:31.678272 16938 net.cpp:148] Top shape: 80 240 28 28 (15052800)
I0813 20:57:31.678278 16938 net.cpp:156] Memory required for data: 1594091840
I0813 20:57:31.678290 16938 layer_factory.hpp:77] Creating layer resx2_elewise_resx2_elewise_relu_0_split
I0813 20:57:31.678295 16938 net.cpp:91] Creating Layer resx2_elewise_resx2_elewise_relu_0_split
I0813 20:57:31.678298 16938 net.cpp:469] resx2_elewise_resx2_elewise_relu_0_split <- resx2_elewise
I0813 20:57:31.678303 16938 net.cpp:443] resx2_elewise_resx2_elewise_relu_0_split -> resx2_elewise_resx2_elewise_relu_0_split_0
I0813 20:57:31.678308 16938 net.cpp:443] resx2_elewise_resx2_elewise_relu_0_split -> resx2_elewise_resx2_elewise_relu_0_split_1
I0813 20:57:31.678330 16938 net.cpp:141] Setting up resx2_elewise_resx2_elewise_relu_0_split
I0813 20:57:31.678335 16938 net.cpp:148] Top shape: 80 240 28 28 (15052800)
I0813 20:57:31.678339 16938 net.cpp:148] Top shape: 80 240 28 28 (15052800)
I0813 20:57:31.678342 16938 net.cpp:156] Memory required for data: 1714514240
I0813 20:57:31.678345 16938 layer_factory.hpp:77] Creating layer resx3_conv1
I0813 20:57:31.678354 16938 net.cpp:91] Creating Layer resx3_conv1
I0813 20:57:31.678357 16938 net.cpp:469] resx3_conv1 <- resx2_elewise_resx2_elewise_relu_0_split_0
I0813 20:57:31.678361 16938 net.cpp:443] resx3_conv1 -> resx3_conv1
I0813 20:57:31.678589 16938 net.cpp:141] Setting up resx3_conv1
I0813 20:57:31.678596 16938 net.cpp:148] Top shape: 80 60 28 28 (3763200)
I0813 20:57:31.678599 16938 net.cpp:156] Memory required for data: 1729567040
I0813 20:57:31.678603 16938 layer_factory.hpp:77] Creating layer resx3_conv1_bn
I0813 20:57:31.678609 16938 net.cpp:91] Creating Layer resx3_conv1_bn
I0813 20:57:31.678612 16938 net.cpp:469] resx3_conv1_bn <- resx3_conv1
I0813 20:57:31.678617 16938 net.cpp:430] resx3_conv1_bn -> resx3_conv1 (in-place)
I0813 20:57:31.678738 16938 net.cpp:141] Setting up resx3_conv1_bn
I0813 20:57:31.678745 16938 net.cpp:148] Top shape: 80 60 28 28 (3763200)
I0813 20:57:31.678747 16938 net.cpp:156] Memory required for data: 1744619840
I0813 20:57:31.678753 16938 layer_factory.hpp:77] Creating layer resx3_conv1_scale
I0813 20:57:31.678758 16938 net.cpp:91] Creating Layer resx3_conv1_scale
I0813 20:57:31.678762 16938 net.cpp:469] resx3_conv1_scale <- resx3_conv1
I0813 20:57:31.678766 16938 net.cpp:430] resx3_conv1_scale -> resx3_conv1 (in-place)
I0813 20:57:31.678794 16938 layer_factory.hpp:77] Creating layer resx3_conv1_scale
I0813 20:57:31.678872 16938 net.cpp:141] Setting up resx3_conv1_scale
I0813 20:57:31.678879 16938 net.cpp:148] Top shape: 80 60 28 28 (3763200)
I0813 20:57:31.678882 16938 net.cpp:156] Memory required for data: 1759672640
I0813 20:57:31.678887 16938 layer_factory.hpp:77] Creating layer resx3_conv1_relu
I0813 20:57:31.678892 16938 net.cpp:91] Creating Layer resx3_conv1_relu
I0813 20:57:31.678895 16938 net.cpp:469] resx3_conv1_relu <- resx3_conv1
I0813 20:57:31.678900 16938 net.cpp:430] resx3_conv1_relu -> resx3_conv1 (in-place)
I0813 20:57:31.678905 16938 net.cpp:141] Setting up resx3_conv1_relu
I0813 20:57:31.678910 16938 net.cpp:148] Top shape: 80 60 28 28 (3763200)
I0813 20:57:31.678912 16938 net.cpp:156] Memory required for data: 1774725440
I0813 20:57:31.678915 16938 layer_factory.hpp:77] Creating layer shuffle3
I0813 20:57:31.678922 16938 net.cpp:91] Creating Layer shuffle3
I0813 20:57:31.678925 16938 net.cpp:469] shuffle3 <- resx3_conv1
I0813 20:57:31.678930 16938 net.cpp:443] shuffle3 -> shuffle3
I0813 20:57:31.678946 16938 net.cpp:141] Setting up shuffle3
I0813 20:57:31.678951 16938 net.cpp:148] Top shape: 80 60 28 28 (3763200)
I0813 20:57:31.678954 16938 net.cpp:156] Memory required for data: 1789778240
I0813 20:57:31.678957 16938 layer_factory.hpp:77] Creating layer resx3_conv2
I0813 20:57:31.678964 16938 net.cpp:91] Creating Layer resx3_conv2
I0813 20:57:31.678968 16938 net.cpp:469] resx3_conv2 <- shuffle3
I0813 20:57:31.678972 16938 net.cpp:443] resx3_conv2 -> resx3_conv2
I0813 20:57:31.679056 16938 net.cpp:141] Setting up resx3_conv2
I0813 20:57:31.679065 16938 net.cpp:148] Top shape: 80 60 28 28 (3763200)
I0813 20:57:31.679069 16938 net.cpp:156] Memory required for data: 1804831040
I0813 20:57:31.679076 16938 layer_factory.hpp:77] Creating layer resx3_conv2_bn
I0813 20:57:31.679088 16938 net.cpp:91] Creating Layer resx3_conv2_bn
I0813 20:57:31.679092 16938 net.cpp:469] resx3_conv2_bn <- resx3_conv2
I0813 20:57:31.679097 16938 net.cpp:430] resx3_conv2_bn -> resx3_conv2 (in-place)
I0813 20:57:31.679219 16938 net.cpp:141] Setting up resx3_conv2_bn
I0813 20:57:31.679224 16938 net.cpp:148] Top shape: 80 60 28 28 (3763200)
I0813 20:57:31.679227 16938 net.cpp:156] Memory required for data: 1819883840
I0813 20:57:31.679234 16938 layer_factory.hpp:77] Creating layer resx3_conv2_scale
I0813 20:57:31.679245 16938 net.cpp:91] Creating Layer resx3_conv2_scale
I0813 20:57:31.679250 16938 net.cpp:469] resx3_conv2_scale <- resx3_conv2
I0813 20:57:31.679253 16938 net.cpp:430] resx3_conv2_scale -> resx3_conv2 (in-place)
I0813 20:57:31.679280 16938 layer_factory.hpp:77] Creating layer resx3_conv2_scale
I0813 20:57:31.679358 16938 net.cpp:141] Setting up resx3_conv2_scale
I0813 20:57:31.679363 16938 net.cpp:148] Top shape: 80 60 28 28 (3763200)
I0813 20:57:31.679366 16938 net.cpp:156] Memory required for data: 1834936640
I0813 20:57:31.679371 16938 layer_factory.hpp:77] Creating layer resx3_conv3
I0813 20:57:31.679380 16938 net.cpp:91] Creating Layer resx3_conv3
I0813 20:57:31.679384 16938 net.cpp:469] resx3_conv3 <- resx3_conv2
I0813 20:57:31.679389 16938 net.cpp:443] resx3_conv3 -> resx3_conv3
I0813 20:57:31.679615 16938 net.cpp:141] Setting up resx3_conv3
I0813 20:57:31.679622 16938 net.cpp:148] Top shape: 80 240 28 28 (15052800)
I0813 20:57:31.679625 16938 net.cpp:156] Memory required for data: 1895147840
I0813 20:57:31.679637 16938 layer_factory.hpp:77] Creating layer resx3_conv3_bn
I0813 20:57:31.679643 16938 net.cpp:91] Creating Layer resx3_conv3_bn
I0813 20:57:31.679646 16938 net.cpp:469] resx3_conv3_bn <- resx3_conv3
I0813 20:57:31.679656 16938 net.cpp:430] resx3_conv3_bn -> resx3_conv3 (in-place)
I0813 20:57:31.679780 16938 net.cpp:141] Setting up resx3_conv3_bn
I0813 20:57:31.679785 16938 net.cpp:148] Top shape: 80 240 28 28 (15052800)
I0813 20:57:31.679788 16938 net.cpp:156] Memory required for data: 1955359040
I0813 20:57:31.679795 16938 layer_factory.hpp:77] Creating layer resx3_conv3_scale
I0813 20:57:31.679800 16938 net.cpp:91] Creating Layer resx3_conv3_scale
I0813 20:57:31.679802 16938 net.cpp:469] resx3_conv3_scale <- resx3_conv3
I0813 20:57:31.679808 16938 net.cpp:430] resx3_conv3_scale -> resx3_conv3 (in-place)
I0813 20:57:31.679833 16938 layer_factory.hpp:77] Creating layer resx3_conv3_scale
I0813 20:57:31.679913 16938 net.cpp:141] Setting up resx3_conv3_scale
I0813 20:57:31.679919 16938 net.cpp:148] Top shape: 80 240 28 28 (15052800)
I0813 20:57:31.679922 16938 net.cpp:156] Memory required for data: 2015570240
I0813 20:57:31.679926 16938 layer_factory.hpp:77] Creating layer resx3_elewise
I0813 20:57:31.679934 16938 net.cpp:91] Creating Layer resx3_elewise
I0813 20:57:31.679937 16938 net.cpp:469] resx3_elewise <- resx2_elewise_resx2_elewise_relu_0_split_1
I0813 20:57:31.679941 16938 net.cpp:469] resx3_elewise <- resx3_conv3
I0813 20:57:31.679945 16938 net.cpp:443] resx3_elewise -> resx3_elewise
I0813 20:57:31.679963 16938 net.cpp:141] Setting up resx3_elewise
I0813 20:57:31.679968 16938 net.cpp:148] Top shape: 80 240 28 28 (15052800)
I0813 20:57:31.679971 16938 net.cpp:156] Memory required for data: 2075781440
I0813 20:57:31.679975 16938 layer_factory.hpp:77] Creating layer resx3_elewise_relu
I0813 20:57:31.679980 16938 net.cpp:91] Creating Layer resx3_elewise_relu
I0813 20:57:31.679983 16938 net.cpp:469] resx3_elewise_relu <- resx3_elewise
I0813 20:57:31.679988 16938 net.cpp:430] resx3_elewise_relu -> resx3_elewise (in-place)
I0813 20:57:31.679993 16938 net.cpp:141] Setting up resx3_elewise_relu
I0813 20:57:31.679997 16938 net.cpp:148] Top shape: 80 240 28 28 (15052800)
I0813 20:57:31.680001 16938 net.cpp:156] Memory required for data: 2135992640
I0813 20:57:31.680003 16938 layer_factory.hpp:77] Creating layer resx3_elewise_resx3_elewise_relu_0_split
I0813 20:57:31.680011 16938 net.cpp:91] Creating Layer resx3_elewise_resx3_elewise_relu_0_split
I0813 20:57:31.680019 16938 net.cpp:469] resx3_elewise_resx3_elewise_relu_0_split <- resx3_elewise
I0813 20:57:31.680024 16938 net.cpp:443] resx3_elewise_resx3_elewise_relu_0_split -> resx3_elewise_resx3_elewise_relu_0_split_0
I0813 20:57:31.680028 16938 net.cpp:443] resx3_elewise_resx3_elewise_relu_0_split -> resx3_elewise_resx3_elewise_relu_0_split_1
I0813 20:57:31.680053 16938 net.cpp:141] Setting up resx3_elewise_resx3_elewise_relu_0_split
I0813 20:57:31.680058 16938 net.cpp:148] Top shape: 80 240 28 28 (15052800)
I0813 20:57:31.680063 16938 net.cpp:148] Top shape: 80 240 28 28 (15052800)
I0813 20:57:31.680065 16938 net.cpp:156] Memory required for data: 2256415040
I0813 20:57:31.680068 16938 layer_factory.hpp:77] Creating layer resx4_conv1
I0813 20:57:31.680074 16938 net.cpp:91] Creating Layer resx4_conv1
I0813 20:57:31.680078 16938 net.cpp:469] resx4_conv1 <- resx3_elewise_resx3_elewise_relu_0_split_0
I0813 20:57:31.680083 16938 net.cpp:443] resx4_conv1 -> resx4_conv1
I0813 20:57:31.680320 16938 net.cpp:141] Setting up resx4_conv1
I0813 20:57:31.680327 16938 net.cpp:148] Top shape: 80 60 28 28 (3763200)
I0813 20:57:31.680331 16938 net.cpp:156] Memory required for data: 2271467840
I0813 20:57:31.680335 16938 layer_factory.hpp:77] Creating layer resx4_conv1_bn
I0813 20:57:31.680342 16938 net.cpp:91] Creating Layer resx4_conv1_bn
I0813 20:57:31.680346 16938 net.cpp:469] resx4_conv1_bn <- resx4_conv1
I0813 20:57:31.680351 16938 net.cpp:430] resx4_conv1_bn -> resx4_conv1 (in-place)
I0813 20:57:31.680475 16938 net.cpp:141] Setting up resx4_conv1_bn
I0813 20:57:31.680481 16938 net.cpp:148] Top shape: 80 60 28 28 (3763200)
I0813 20:57:31.680485 16938 net.cpp:156] Memory required for data: 2286520640
I0813 20:57:31.680490 16938 layer_factory.hpp:77] Creating layer resx4_conv1_scale
I0813 20:57:31.680497 16938 net.cpp:91] Creating Layer resx4_conv1_scale
I0813 20:57:31.680501 16938 net.cpp:469] resx4_conv1_scale <- resx4_conv1
I0813 20:57:31.680505 16938 net.cpp:430] resx4_conv1_scale -> resx4_conv1 (in-place)
I0813 20:57:31.680532 16938 layer_factory.hpp:77] Creating layer resx4_conv1_scale
I0813 20:57:31.680613 16938 net.cpp:141] Setting up resx4_conv1_scale
I0813 20:57:31.680619 16938 net.cpp:148] Top shape: 80 60 28 28 (3763200)
I0813 20:57:31.680622 16938 net.cpp:156] Memory required for data: 2301573440
I0813 20:57:31.680635 16938 layer_factory.hpp:77] Creating layer resx4_conv1_relu
I0813 20:57:31.680640 16938 net.cpp:91] Creating Layer resx4_conv1_relu
I0813 20:57:31.680644 16938 net.cpp:469] resx4_conv1_relu <- resx4_conv1
I0813 20:57:31.680649 16938 net.cpp:430] resx4_conv1_relu -> resx4_conv1 (in-place)
I0813 20:57:31.680654 16938 net.cpp:141] Setting up resx4_conv1_relu
I0813 20:57:31.680657 16938 net.cpp:148] Top shape: 80 60 28 28 (3763200)
I0813 20:57:31.680660 16938 net.cpp:156] Memory required for data: 2316626240
I0813 20:57:31.680663 16938 layer_factory.hpp:77] Creating layer shuffle4
I0813 20:57:31.680668 16938 net.cpp:91] Creating Layer shuffle4
I0813 20:57:31.680671 16938 net.cpp:469] shuffle4 <- resx4_conv1
I0813 20:57:31.680675 16938 net.cpp:443] shuffle4 -> shuffle4
I0813 20:57:31.680692 16938 net.cpp:141] Setting up shuffle4
I0813 20:57:31.680697 16938 net.cpp:148] Top shape: 80 60 28 28 (3763200)
I0813 20:57:31.680701 16938 net.cpp:156] Memory required for data: 2331679040
I0813 20:57:31.680704 16938 layer_factory.hpp:77] Creating layer resx4_conv2
I0813 20:57:31.680711 16938 net.cpp:91] Creating Layer resx4_conv2
I0813 20:57:31.680714 16938 net.cpp:469] resx4_conv2 <- shuffle4
I0813 20:57:31.680718 16938 net.cpp:443] resx4_conv2 -> resx4_conv2
I0813 20:57:31.680806 16938 net.cpp:141] Setting up resx4_conv2
I0813 20:57:31.680814 16938 net.cpp:148] Top shape: 80 60 28 28 (3763200)
I0813 20:57:31.680817 16938 net.cpp:156] Memory required for data: 2346731840
I0813 20:57:31.680822 16938 layer_factory.hpp:77] Creating layer resx4_conv2_bn
I0813 20:57:31.680830 16938 net.cpp:91] Creating Layer resx4_conv2_bn
I0813 20:57:31.680836 16938 net.cpp:469] resx4_conv2_bn <- resx4_conv2
I0813 20:57:31.680846 16938 net.cpp:430] resx4_conv2_bn -> resx4_conv2 (in-place)
I0813 20:57:31.680970 16938 net.cpp:141] Setting up resx4_conv2_bn
I0813 20:57:31.680976 16938 net.cpp:148] Top shape: 80 60 28 28 (3763200)
I0813 20:57:31.680980 16938 net.cpp:156] Memory required for data: 2361784640
I0813 20:57:31.680986 16938 layer_factory.hpp:77] Creating layer resx4_conv2_scale
I0813 20:57:31.680992 16938 net.cpp:91] Creating Layer resx4_conv2_scale
I0813 20:57:31.680995 16938 net.cpp:469] resx4_conv2_scale <- resx4_conv2
I0813 20:57:31.681000 16938 net.cpp:430] resx4_conv2_scale -> resx4_conv2 (in-place)
I0813 20:57:31.681032 16938 layer_factory.hpp:77] Creating layer resx4_conv2_scale
I0813 20:57:31.681121 16938 net.cpp:141] Setting up resx4_conv2_scale
I0813 20:57:31.681129 16938 net.cpp:148] Top shape: 80 60 28 28 (3763200)
I0813 20:57:31.681133 16938 net.cpp:156] Memory required for data: 2376837440
I0813 20:57:31.681138 16938 layer_factory.hpp:77] Creating layer resx4_conv3
I0813 20:57:31.681146 16938 net.cpp:91] Creating Layer resx4_conv3
I0813 20:57:31.681150 16938 net.cpp:469] resx4_conv3 <- resx4_conv2
I0813 20:57:31.681156 16938 net.cpp:443] resx4_conv3 -> resx4_conv3
I0813 20:57:31.681388 16938 net.cpp:141] Setting up resx4_conv3
I0813 20:57:31.681396 16938 net.cpp:148] Top shape: 80 240 28 28 (15052800)
I0813 20:57:31.681398 16938 net.cpp:156] Memory required for data: 2437048640
I0813 20:57:31.681402 16938 layer_factory.hpp:77] Creating layer resx4_conv3_bn
I0813 20:57:31.681409 16938 net.cpp:91] Creating Layer resx4_conv3_bn
I0813 20:57:31.681413 16938 net.cpp:469] resx4_conv3_bn <- resx4_conv3
I0813 20:57:31.681417 16938 net.cpp:430] resx4_conv3_bn -> resx4_conv3 (in-place)
I0813 20:57:31.681538 16938 net.cpp:141] Setting up resx4_conv3_bn
I0813 20:57:31.681545 16938 net.cpp:148] Top shape: 80 240 28 28 (15052800)
I0813 20:57:31.681547 16938 net.cpp:156] Memory required for data: 2497259840
I0813 20:57:31.681553 16938 layer_factory.hpp:77] Creating layer resx4_conv3_scale
I0813 20:57:31.681560 16938 net.cpp:91] Creating Layer resx4_conv3_scale
I0813 20:57:31.681565 16938 net.cpp:469] resx4_conv3_scale <- resx4_conv3
I0813 20:57:31.681568 16938 net.cpp:430] resx4_conv3_scale -> resx4_conv3 (in-place)
I0813 20:57:31.681594 16938 layer_factory.hpp:77] Creating layer resx4_conv3_scale
I0813 20:57:31.681671 16938 net.cpp:141] Setting up resx4_conv3_scale
I0813 20:57:31.681677 16938 net.cpp:148] Top shape: 80 240 28 28 (15052800)
I0813 20:57:31.681680 16938 net.cpp:156] Memory required for data: 2557471040
I0813 20:57:31.681685 16938 layer_factory.hpp:77] Creating layer resx4_elewise
I0813 20:57:31.681691 16938 net.cpp:91] Creating Layer resx4_elewise
I0813 20:57:31.681696 16938 net.cpp:469] resx4_elewise <- resx3_elewise_resx3_elewise_relu_0_split_1
I0813 20:57:31.681700 16938 net.cpp:469] resx4_elewise <- resx4_conv3
I0813 20:57:31.681704 16938 net.cpp:443] resx4_elewise -> resx4_elewise
I0813 20:57:31.681720 16938 net.cpp:141] Setting up resx4_elewise
I0813 20:57:31.681725 16938 net.cpp:148] Top shape: 80 240 28 28 (15052800)
I0813 20:57:31.681728 16938 net.cpp:156] Memory required for data: 2617682240
I0813 20:57:31.681731 16938 layer_factory.hpp:77] Creating layer resx4_elewise_relu
I0813 20:57:31.681737 16938 net.cpp:91] Creating Layer resx4_elewise_relu
I0813 20:57:31.681740 16938 net.cpp:469] resx4_elewise_relu <- resx4_elewise
I0813 20:57:31.681744 16938 net.cpp:430] resx4_elewise_relu -> resx4_elewise (in-place)
I0813 20:57:31.681749 16938 net.cpp:141] Setting up resx4_elewise_relu
I0813 20:57:31.681753 16938 net.cpp:148] Top shape: 80 240 28 28 (15052800)
I0813 20:57:31.681756 16938 net.cpp:156] Memory required for data: 2677893440
I0813 20:57:31.681759 16938 layer_factory.hpp:77] Creating layer resx4_elewise_resx4_elewise_relu_0_split
I0813 20:57:31.681763 16938 net.cpp:91] Creating Layer resx4_elewise_resx4_elewise_relu_0_split
I0813 20:57:31.681771 16938 net.cpp:469] resx4_elewise_resx4_elewise_relu_0_split <- resx4_elewise
I0813 20:57:31.681789 16938 net.cpp:443] resx4_elewise_resx4_elewise_relu_0_split -> resx4_elewise_resx4_elewise_relu_0_split_0
I0813 20:57:31.681803 16938 net.cpp:443] resx4_elewise_resx4_elewise_relu_0_split -> resx4_elewise_resx4_elewise_relu_0_split_1
I0813 20:57:31.681828 16938 net.cpp:141] Setting up resx4_elewise_resx4_elewise_relu_0_split
I0813 20:57:31.681833 16938 net.cpp:148] Top shape: 80 240 28 28 (15052800)
I0813 20:57:31.681838 16938 net.cpp:148] Top shape: 80 240 28 28 (15052800)
I0813 20:57:31.681839 16938 net.cpp:156] Memory required for data: 2798315840
I0813 20:57:31.681843 16938 layer_factory.hpp:77] Creating layer resx5_match_conv
I0813 20:57:31.681850 16938 net.cpp:91] Creating Layer resx5_match_conv
I0813 20:57:31.681854 16938 net.cpp:469] resx5_match_conv <- resx4_elewise_resx4_elewise_relu_0_split_0
I0813 20:57:31.681859 16938 net.cpp:443] resx5_match_conv -> resx5_match_conv
I0813 20:57:31.681874 16938 net.cpp:141] Setting up resx5_match_conv
I0813 20:57:31.681879 16938 net.cpp:148] Top shape: 80 240 14 14 (3763200)
I0813 20:57:31.681881 16938 net.cpp:156] Memory required for data: 2813368640
I0813 20:57:31.681885 16938 layer_factory.hpp:77] Creating layer resx5_conv1
I0813 20:57:31.681901 16938 net.cpp:91] Creating Layer resx5_conv1
I0813 20:57:31.681905 16938 net.cpp:469] resx5_conv1 <- resx4_elewise_resx4_elewise_relu_0_split_1
I0813 20:57:31.681910 16938 net.cpp:443] resx5_conv1 -> resx5_conv1
I0813 20:57:31.682143 16938 net.cpp:141] Setting up resx5_conv1
I0813 20:57:31.682150 16938 net.cpp:148] Top shape: 80 60 28 28 (3763200)
I0813 20:57:31.682153 16938 net.cpp:156] Memory required for data: 2828421440
I0813 20:57:31.682159 16938 layer_factory.hpp:77] Creating layer resx5_conv1_bn
I0813 20:57:31.682166 16938 net.cpp:91] Creating Layer resx5_conv1_bn
I0813 20:57:31.682170 16938 net.cpp:469] resx5_conv1_bn <- resx5_conv1
I0813 20:57:31.682174 16938 net.cpp:430] resx5_conv1_bn -> resx5_conv1 (in-place)
I0813 20:57:31.682301 16938 net.cpp:141] Setting up resx5_conv1_bn
I0813 20:57:31.682308 16938 net.cpp:148] Top shape: 80 60 28 28 (3763200)
I0813 20:57:31.682312 16938 net.cpp:156] Memory required for data: 2843474240
I0813 20:57:31.682317 16938 layer_factory.hpp:77] Creating layer resx5_conv1_scale
I0813 20:57:31.682324 16938 net.cpp:91] Creating Layer resx5_conv1_scale
I0813 20:57:31.682327 16938 net.cpp:469] resx5_conv1_scale <- resx5_conv1
I0813 20:57:31.682332 16938 net.cpp:430] resx5_conv1_scale -> resx5_conv1 (in-place)
I0813 20:57:31.682358 16938 layer_factory.hpp:77] Creating layer resx5_conv1_scale
I0813 20:57:31.682435 16938 net.cpp:141] Setting up resx5_conv1_scale
I0813 20:57:31.682441 16938 net.cpp:148] Top shape: 80 60 28 28 (3763200)
I0813 20:57:31.682445 16938 net.cpp:156] Memory required for data: 2858527040
I0813 20:57:31.682449 16938 layer_factory.hpp:77] Creating layer resx5_conv1_relu
I0813 20:57:31.682456 16938 net.cpp:91] Creating Layer resx5_conv1_relu
I0813 20:57:31.682459 16938 net.cpp:469] resx5_conv1_relu <- resx5_conv1
I0813 20:57:31.682463 16938 net.cpp:430] resx5_conv1_relu -> resx5_conv1 (in-place)
I0813 20:57:31.682468 16938 net.cpp:141] Setting up resx5_conv1_relu
I0813 20:57:31.682472 16938 net.cpp:148] Top shape: 80 60 28 28 (3763200)
I0813 20:57:31.682476 16938 net.cpp:156] Memory required for data: 2873579840
I0813 20:57:31.682478 16938 layer_factory.hpp:77] Creating layer shuffle5
I0813 20:57:31.682484 16938 net.cpp:91] Creating Layer shuffle5
I0813 20:57:31.682488 16938 net.cpp:469] shuffle5 <- resx5_conv1
I0813 20:57:31.682492 16938 net.cpp:443] shuffle5 -> shuffle5
I0813 20:57:31.682507 16938 net.cpp:141] Setting up shuffle5
I0813 20:57:31.682513 16938 net.cpp:148] Top shape: 80 60 28 28 (3763200)
I0813 20:57:31.682518 16938 net.cpp:156] Memory required for data: 2888632640
I0813 20:57:31.682520 16938 layer_factory.hpp:77] Creating layer resx5_conv2
I0813 20:57:31.682526 16938 net.cpp:91] Creating Layer resx5_conv2
I0813 20:57:31.682529 16938 net.cpp:469] resx5_conv2 <- shuffle5
I0813 20:57:31.682533 16938 net.cpp:443] resx5_conv2 -> resx5_conv2
I0813 20:57:31.682626 16938 net.cpp:141] Setting up resx5_conv2
I0813 20:57:31.682634 16938 net.cpp:148] Top shape: 80 60 14 14 (940800)
I0813 20:57:31.682642 16938 net.cpp:156] Memory required for data: 2892395840
I0813 20:57:31.682647 16938 layer_factory.hpp:77] Creating layer resx5_conv2_bn
I0813 20:57:31.682653 16938 net.cpp:91] Creating Layer resx5_conv2_bn
I0813 20:57:31.682658 16938 net.cpp:469] resx5_conv2_bn <- resx5_conv2
I0813 20:57:31.682663 16938 net.cpp:430] resx5_conv2_bn -> resx5_conv2 (in-place)
I0813 20:57:31.682785 16938 net.cpp:141] Setting up resx5_conv2_bn
I0813 20:57:31.682790 16938 net.cpp:148] Top shape: 80 60 14 14 (940800)
I0813 20:57:31.682793 16938 net.cpp:156] Memory required for data: 2896159040
I0813 20:57:31.682799 16938 layer_factory.hpp:77] Creating layer resx5_conv2_scale
I0813 20:57:31.682806 16938 net.cpp:91] Creating Layer resx5_conv2_scale
I0813 20:57:31.682808 16938 net.cpp:469] resx5_conv2_scale <- resx5_conv2
I0813 20:57:31.682813 16938 net.cpp:430] resx5_conv2_scale -> resx5_conv2 (in-place)
I0813 20:57:31.682845 16938 layer_factory.hpp:77] Creating layer resx5_conv2_scale
I0813 20:57:31.682921 16938 net.cpp:141] Setting up resx5_conv2_scale
I0813 20:57:31.682927 16938 net.cpp:148] Top shape: 80 60 14 14 (940800)
I0813 20:57:31.682930 16938 net.cpp:156] Memory required for data: 2899922240
I0813 20:57:31.682935 16938 layer_factory.hpp:77] Creating layer resx5_conv3
I0813 20:57:31.682943 16938 net.cpp:91] Creating Layer resx5_conv3
I0813 20:57:31.682947 16938 net.cpp:469] resx5_conv3 <- resx5_conv2
I0813 20:57:31.682953 16938 net.cpp:443] resx5_conv3 -> resx5_conv3
I0813 20:57:31.683187 16938 net.cpp:141] Setting up resx5_conv3
I0813 20:57:31.683194 16938 net.cpp:148] Top shape: 80 240 14 14 (3763200)
I0813 20:57:31.683197 16938 net.cpp:156] Memory required for data: 2914975040
I0813 20:57:31.683202 16938 layer_factory.hpp:77] Creating layer resx5_conv3_bn
I0813 20:57:31.683208 16938 net.cpp:91] Creating Layer resx5_conv3_bn
I0813 20:57:31.683212 16938 net.cpp:469] resx5_conv3_bn <- resx5_conv3
I0813 20:57:31.683217 16938 net.cpp:430] resx5_conv3_bn -> resx5_conv3 (in-place)
I0813 20:57:31.683336 16938 net.cpp:141] Setting up resx5_conv3_bn
I0813 20:57:31.683342 16938 net.cpp:148] Top shape: 80 240 14 14 (3763200)
I0813 20:57:31.683346 16938 net.cpp:156] Memory required for data: 2930027840
I0813 20:57:31.683351 16938 layer_factory.hpp:77] Creating layer resx5_conv3_scale
I0813 20:57:31.683359 16938 net.cpp:91] Creating Layer resx5_conv3_scale
I0813 20:57:31.683363 16938 net.cpp:469] resx5_conv3_scale <- resx5_conv3
I0813 20:57:31.683367 16938 net.cpp:430] resx5_conv3_scale -> resx5_conv3 (in-place)
I0813 20:57:31.683393 16938 layer_factory.hpp:77] Creating layer resx5_conv3_scale
I0813 20:57:31.683467 16938 net.cpp:141] Setting up resx5_conv3_scale
I0813 20:57:31.683473 16938 net.cpp:148] Top shape: 80 240 14 14 (3763200)
I0813 20:57:31.683476 16938 net.cpp:156] Memory required for data: 2945080640
I0813 20:57:31.683481 16938 layer_factory.hpp:77] Creating layer resx5_concat
I0813 20:57:31.683486 16938 net.cpp:91] Creating Layer resx5_concat
I0813 20:57:31.683490 16938 net.cpp:469] resx5_concat <- resx5_match_conv
I0813 20:57:31.683493 16938 net.cpp:469] resx5_concat <- resx5_conv3
I0813 20:57:31.683499 16938 net.cpp:443] resx5_concat -> resx5_concat
I0813 20:57:31.683514 16938 net.cpp:141] Setting up resx5_concat
I0813 20:57:31.683519 16938 net.cpp:148] Top shape: 80 480 14 14 (7526400)
I0813 20:57:31.683522 16938 net.cpp:156] Memory required for data: 2975186240
I0813 20:57:31.683526 16938 layer_factory.hpp:77] Creating layer resx5_concat_relu
I0813 20:57:31.683532 16938 net.cpp:91] Creating Layer resx5_concat_relu
I0813 20:57:31.683535 16938 net.cpp:469] resx5_concat_relu <- resx5_concat
I0813 20:57:31.683539 16938 net.cpp:430] resx5_concat_relu -> resx5_concat (in-place)
I0813 20:57:31.683544 16938 net.cpp:141] Setting up resx5_concat_relu
I0813 20:57:31.683547 16938 net.cpp:148] Top shape: 80 480 14 14 (7526400)
I0813 20:57:31.683550 16938 net.cpp:156] Memory required for data: 3005291840
I0813 20:57:31.683557 16938 layer_factory.hpp:77] Creating layer resx5_concat_resx5_concat_relu_0_split
I0813 20:57:31.683567 16938 net.cpp:91] Creating Layer resx5_concat_resx5_concat_relu_0_split
I0813 20:57:31.683570 16938 net.cpp:469] resx5_concat_resx5_concat_relu_0_split <- resx5_concat
I0813 20:57:31.683574 16938 net.cpp:443] resx5_concat_resx5_concat_relu_0_split -> resx5_concat_resx5_concat_relu_0_split_0
I0813 20:57:31.683579 16938 net.cpp:443] resx5_concat_resx5_concat_relu_0_split -> resx5_concat_resx5_concat_relu_0_split_1
I0813 20:57:31.683603 16938 net.cpp:141] Setting up resx5_concat_resx5_concat_relu_0_split
I0813 20:57:31.683607 16938 net.cpp:148] Top shape: 80 480 14 14 (7526400)
I0813 20:57:31.683611 16938 net.cpp:148] Top shape: 80 480 14 14 (7526400)
I0813 20:57:31.683614 16938 net.cpp:156] Memory required for data: 3065503040
I0813 20:57:31.683617 16938 layer_factory.hpp:77] Creating layer resx6_conv1
I0813 20:57:31.683625 16938 net.cpp:91] Creating Layer resx6_conv1
I0813 20:57:31.683629 16938 net.cpp:469] resx6_conv1 <- resx5_concat_resx5_concat_relu_0_split_0
I0813 20:57:31.683634 16938 net.cpp:443] resx6_conv1 -> resx6_conv1
I0813 20:57:31.684728 16938 net.cpp:141] Setting up resx6_conv1
I0813 20:57:31.684741 16938 net.cpp:148] Top shape: 80 120 14 14 (1881600)
I0813 20:57:31.684743 16938 net.cpp:156] Memory required for data: 3073029440
I0813 20:57:31.684748 16938 layer_factory.hpp:77] Creating layer resx6_conv1_bn
I0813 20:57:31.684754 16938 net.cpp:91] Creating Layer resx6_conv1_bn
I0813 20:57:31.684758 16938 net.cpp:469] resx6_conv1_bn <- resx6_conv1
I0813 20:57:31.684764 16938 net.cpp:430] resx6_conv1_bn -> resx6_conv1 (in-place)
I0813 20:57:31.684895 16938 net.cpp:141] Setting up resx6_conv1_bn
I0813 20:57:31.684902 16938 net.cpp:148] Top shape: 80 120 14 14 (1881600)
I0813 20:57:31.684906 16938 net.cpp:156] Memory required for data: 3080555840
I0813 20:57:31.684911 16938 layer_factory.hpp:77] Creating layer resx6_conv1_scale
I0813 20:57:31.684917 16938 net.cpp:91] Creating Layer resx6_conv1_scale
I0813 20:57:31.684921 16938 net.cpp:469] resx6_conv1_scale <- resx6_conv1
I0813 20:57:31.684931 16938 net.cpp:430] resx6_conv1_scale -> resx6_conv1 (in-place)
I0813 20:57:31.684959 16938 layer_factory.hpp:77] Creating layer resx6_conv1_scale
I0813 20:57:31.685040 16938 net.cpp:141] Setting up resx6_conv1_scale
I0813 20:57:31.685046 16938 net.cpp:148] Top shape: 80 120 14 14 (1881600)
I0813 20:57:31.685050 16938 net.cpp:156] Memory required for data: 3088082240
I0813 20:57:31.685055 16938 layer_factory.hpp:77] Creating layer resx6_conv1_relu
I0813 20:57:31.685060 16938 net.cpp:91] Creating Layer resx6_conv1_relu
I0813 20:57:31.685065 16938 net.cpp:469] resx6_conv1_relu <- resx6_conv1
I0813 20:57:31.685070 16938 net.cpp:430] resx6_conv1_relu -> resx6_conv1 (in-place)
I0813 20:57:31.685075 16938 net.cpp:141] Setting up resx6_conv1_relu
I0813 20:57:31.685086 16938 net.cpp:148] Top shape: 80 120 14 14 (1881600)
I0813 20:57:31.685089 16938 net.cpp:156] Memory required for data: 3095608640
I0813 20:57:31.685092 16938 layer_factory.hpp:77] Creating layer shuffle6
I0813 20:57:31.685097 16938 net.cpp:91] Creating Layer shuffle6
I0813 20:57:31.685101 16938 net.cpp:469] shuffle6 <- resx6_conv1
I0813 20:57:31.685107 16938 net.cpp:443] shuffle6 -> shuffle6
I0813 20:57:31.685124 16938 net.cpp:141] Setting up shuffle6
I0813 20:57:31.685129 16938 net.cpp:148] Top shape: 80 120 14 14 (1881600)
I0813 20:57:31.685132 16938 net.cpp:156] Memory required for data: 3103135040
I0813 20:57:31.685135 16938 layer_factory.hpp:77] Creating layer resx6_conv2
I0813 20:57:31.685143 16938 net.cpp:91] Creating Layer resx6_conv2
I0813 20:57:31.685148 16938 net.cpp:469] resx6_conv2 <- shuffle6
I0813 20:57:31.685151 16938 net.cpp:443] resx6_conv2 -> resx6_conv2
I0813 20:57:31.685256 16938 net.cpp:141] Setting up resx6_conv2
I0813 20:57:31.685264 16938 net.cpp:148] Top shape: 80 120 14 14 (1881600)
I0813 20:57:31.685268 16938 net.cpp:156] Memory required for data: 3110661440
I0813 20:57:31.685272 16938 layer_factory.hpp:77] Creating layer resx6_conv2_bn
I0813 20:57:31.685287 16938 net.cpp:91] Creating Layer resx6_conv2_bn
I0813 20:57:31.685297 16938 net.cpp:469] resx6_conv2_bn <- resx6_conv2
I0813 20:57:31.685303 16938 net.cpp:430] resx6_conv2_bn -> resx6_conv2 (in-place)
I0813 20:57:31.685430 16938 net.cpp:141] Setting up resx6_conv2_bn
I0813 20:57:31.685436 16938 net.cpp:148] Top shape: 80 120 14 14 (1881600)
I0813 20:57:31.685438 16938 net.cpp:156] Memory required for data: 3118187840
I0813 20:57:31.685446 16938 layer_factory.hpp:77] Creating layer resx6_conv2_scale
I0813 20:57:31.685452 16938 net.cpp:91] Creating Layer resx6_conv2_scale
I0813 20:57:31.685456 16938 net.cpp:469] resx6_conv2_scale <- resx6_conv2
I0813 20:57:31.685461 16938 net.cpp:430] resx6_conv2_scale -> resx6_conv2 (in-place)
I0813 20:57:31.685492 16938 layer_factory.hpp:77] Creating layer resx6_conv2_scale
I0813 20:57:31.685570 16938 net.cpp:141] Setting up resx6_conv2_scale
I0813 20:57:31.685576 16938 net.cpp:148] Top shape: 80 120 14 14 (1881600)
I0813 20:57:31.685580 16938 net.cpp:156] Memory required for data: 3125714240
I0813 20:57:31.685585 16938 layer_factory.hpp:77] Creating layer resx6_conv3
I0813 20:57:31.685593 16938 net.cpp:91] Creating Layer resx6_conv3
I0813 20:57:31.685597 16938 net.cpp:469] resx6_conv3 <- resx6_conv2
I0813 20:57:31.685603 16938 net.cpp:443] resx6_conv3 -> resx6_conv3
I0813 20:57:31.686179 16938 net.cpp:141] Setting up resx6_conv3
I0813 20:57:31.686187 16938 net.cpp:148] Top shape: 80 480 14 14 (7526400)
I0813 20:57:31.686189 16938 net.cpp:156] Memory required for data: 3155819840
I0813 20:57:31.686193 16938 layer_factory.hpp:77] Creating layer resx6_conv3_bn
I0813 20:57:31.686200 16938 net.cpp:91] Creating Layer resx6_conv3_bn
I0813 20:57:31.686204 16938 net.cpp:469] resx6_conv3_bn <- resx6_conv3
I0813 20:57:31.686208 16938 net.cpp:430] resx6_conv3_bn -> resx6_conv3 (in-place)
I0813 20:57:31.686337 16938 net.cpp:141] Setting up resx6_conv3_bn
I0813 20:57:31.686343 16938 net.cpp:148] Top shape: 80 480 14 14 (7526400)
I0813 20:57:31.686347 16938 net.cpp:156] Memory required for data: 3185925440
I0813 20:57:31.686352 16938 layer_factory.hpp:77] Creating layer resx6_conv3_scale
I0813 20:57:31.686359 16938 net.cpp:91] Creating Layer resx6_conv3_scale
I0813 20:57:31.686362 16938 net.cpp:469] resx6_conv3_scale <- resx6_conv3
I0813 20:57:31.686367 16938 net.cpp:430] resx6_conv3_scale -> resx6_conv3 (in-place)
I0813 20:57:31.686395 16938 layer_factory.hpp:77] Creating layer resx6_conv3_scale
I0813 20:57:31.686480 16938 net.cpp:141] Setting up resx6_conv3_scale
I0813 20:57:31.686487 16938 net.cpp:148] Top shape: 80 480 14 14 (7526400)
I0813 20:57:31.686491 16938 net.cpp:156] Memory required for data: 3216031040
I0813 20:57:31.686496 16938 layer_factory.hpp:77] Creating layer resx6_elewise
I0813 20:57:31.686502 16938 net.cpp:91] Creating Layer resx6_elewise
I0813 20:57:31.686506 16938 net.cpp:469] resx6_elewise <- resx5_concat_resx5_concat_relu_0_split_1
I0813 20:57:31.686511 16938 net.cpp:469] resx6_elewise <- resx6_conv3
I0813 20:57:31.686517 16938 net.cpp:443] resx6_elewise -> resx6_elewise
I0813 20:57:31.686534 16938 net.cpp:141] Setting up resx6_elewise
I0813 20:57:31.686540 16938 net.cpp:148] Top shape: 80 480 14 14 (7526400)
I0813 20:57:31.686542 16938 net.cpp:156] Memory required for data: 3246136640
I0813 20:57:31.686547 16938 layer_factory.hpp:77] Creating layer resx6_elewise_relu
I0813 20:57:31.686550 16938 net.cpp:91] Creating Layer resx6_elewise_relu
I0813 20:57:31.686554 16938 net.cpp:469] resx6_elewise_relu <- resx6_elewise
I0813 20:57:31.686559 16938 net.cpp:430] resx6_elewise_relu -> resx6_elewise (in-place)
I0813 20:57:31.686564 16938 net.cpp:141] Setting up resx6_elewise_relu
I0813 20:57:31.686568 16938 net.cpp:148] Top shape: 80 480 14 14 (7526400)
I0813 20:57:31.686571 16938 net.cpp:156] Memory required for data: 3276242240
I0813 20:57:31.686574 16938 layer_factory.hpp:77] Creating layer resx6_elewise_resx6_elewise_relu_0_split
I0813 20:57:31.686579 16938 net.cpp:91] Creating Layer resx6_elewise_resx6_elewise_relu_0_split
I0813 20:57:31.686585 16938 net.cpp:469] resx6_elewise_resx6_elewise_relu_0_split <- resx6_elewise
I0813 20:57:31.686594 16938 net.cpp:443] resx6_elewise_resx6_elewise_relu_0_split -> resx6_elewise_resx6_elewise_relu_0_split_0
I0813 20:57:31.686599 16938 net.cpp:443] resx6_elewise_resx6_elewise_relu_0_split -> resx6_elewise_resx6_elewise_relu_0_split_1
I0813 20:57:31.686625 16938 net.cpp:141] Setting up resx6_elewise_resx6_elewise_relu_0_split
I0813 20:57:31.686630 16938 net.cpp:148] Top shape: 80 480 14 14 (7526400)
I0813 20:57:31.686633 16938 net.cpp:148] Top shape: 80 480 14 14 (7526400)
I0813 20:57:31.686636 16938 net.cpp:156] Memory required for data: 3336453440
I0813 20:57:31.686640 16938 layer_factory.hpp:77] Creating layer resx7_conv1
I0813 20:57:31.686645 16938 net.cpp:91] Creating Layer resx7_conv1
I0813 20:57:31.686650 16938 net.cpp:469] resx7_conv1 <- resx6_elewise_resx6_elewise_relu_0_split_0
I0813 20:57:31.686655 16938 net.cpp:443] resx7_conv1 -> resx7_conv1
I0813 20:57:31.687229 16938 net.cpp:141] Setting up resx7_conv1
I0813 20:57:31.687237 16938 net.cpp:148] Top shape: 80 120 14 14 (1881600)
I0813 20:57:31.687239 16938 net.cpp:156] Memory required for data: 3343979840
I0813 20:57:31.687244 16938 layer_factory.hpp:77] Creating layer resx7_conv1_bn
I0813 20:57:31.687250 16938 net.cpp:91] Creating Layer resx7_conv1_bn
I0813 20:57:31.687253 16938 net.cpp:469] resx7_conv1_bn <- resx7_conv1
I0813 20:57:31.687258 16938 net.cpp:430] resx7_conv1_bn -> resx7_conv1 (in-place)
I0813 20:57:31.687383 16938 net.cpp:141] Setting up resx7_conv1_bn
I0813 20:57:31.687389 16938 net.cpp:148] Top shape: 80 120 14 14 (1881600)
I0813 20:57:31.687392 16938 net.cpp:156] Memory required for data: 3351506240
I0813 20:57:31.687398 16938 layer_factory.hpp:77] Creating layer resx7_conv1_scale
I0813 20:57:31.687407 16938 net.cpp:91] Creating Layer resx7_conv1_scale
I0813 20:57:31.687409 16938 net.cpp:469] resx7_conv1_scale <- resx7_conv1
I0813 20:57:31.687413 16938 net.cpp:430] resx7_conv1_scale -> resx7_conv1 (in-place)
I0813 20:57:31.687440 16938 layer_factory.hpp:77] Creating layer resx7_conv1_scale
I0813 20:57:31.687520 16938 net.cpp:141] Setting up resx7_conv1_scale
I0813 20:57:31.687525 16938 net.cpp:148] Top shape: 80 120 14 14 (1881600)
I0813 20:57:31.687530 16938 net.cpp:156] Memory required for data: 3359032640
I0813 20:57:31.687535 16938 layer_factory.hpp:77] Creating layer resx7_conv1_relu
I0813 20:57:31.687539 16938 net.cpp:91] Creating Layer resx7_conv1_relu
I0813 20:57:31.687542 16938 net.cpp:469] resx7_conv1_relu <- resx7_conv1
I0813 20:57:31.687547 16938 net.cpp:430] resx7_conv1_relu -> resx7_conv1 (in-place)
I0813 20:57:31.687552 16938 net.cpp:141] Setting up resx7_conv1_relu
I0813 20:57:31.687556 16938 net.cpp:148] Top shape: 80 120 14 14 (1881600)
I0813 20:57:31.687563 16938 net.cpp:156] Memory required for data: 3366559040
I0813 20:57:31.687566 16938 layer_factory.hpp:77] Creating layer shuffle7
I0813 20:57:31.687573 16938 net.cpp:91] Creating Layer shuffle7
I0813 20:57:31.687577 16938 net.cpp:469] shuffle7 <- resx7_conv1
I0813 20:57:31.687580 16938 net.cpp:443] shuffle7 -> shuffle7
I0813 20:57:31.687598 16938 net.cpp:141] Setting up shuffle7
I0813 20:57:31.687603 16938 net.cpp:148] Top shape: 80 120 14 14 (1881600)
I0813 20:57:31.687607 16938 net.cpp:156] Memory required for data: 3374085440
I0813 20:57:31.687610 16938 layer_factory.hpp:77] Creating layer resx7_conv2
I0813 20:57:31.687616 16938 net.cpp:91] Creating Layer resx7_conv2
I0813 20:57:31.687619 16938 net.cpp:469] resx7_conv2 <- shuffle7
I0813 20:57:31.687623 16938 net.cpp:443] resx7_conv2 -> resx7_conv2
I0813 20:57:31.687728 16938 net.cpp:141] Setting up resx7_conv2
I0813 20:57:31.687737 16938 net.cpp:148] Top shape: 80 120 14 14 (1881600)
I0813 20:57:31.687741 16938 net.cpp:156] Memory required for data: 3381611840
I0813 20:57:31.687744 16938 layer_factory.hpp:77] Creating layer resx7_conv2_bn
I0813 20:57:31.687752 16938 net.cpp:91] Creating Layer resx7_conv2_bn
I0813 20:57:31.687755 16938 net.cpp:469] resx7_conv2_bn <- resx7_conv2
I0813 20:57:31.687759 16938 net.cpp:430] resx7_conv2_bn -> resx7_conv2 (in-place)
I0813 20:57:31.687906 16938 net.cpp:141] Setting up resx7_conv2_bn
I0813 20:57:31.687912 16938 net.cpp:148] Top shape: 80 120 14 14 (1881600)
I0813 20:57:31.687916 16938 net.cpp:156] Memory required for data: 3389138240
I0813 20:57:31.687922 16938 layer_factory.hpp:77] Creating layer resx7_conv2_scale
I0813 20:57:31.687927 16938 net.cpp:91] Creating Layer resx7_conv2_scale
I0813 20:57:31.687930 16938 net.cpp:469] resx7_conv2_scale <- resx7_conv2
I0813 20:57:31.687934 16938 net.cpp:430] resx7_conv2_scale -> resx7_conv2 (in-place)
I0813 20:57:31.687965 16938 layer_factory.hpp:77] Creating layer resx7_conv2_scale
I0813 20:57:31.688045 16938 net.cpp:141] Setting up resx7_conv2_scale
I0813 20:57:31.688050 16938 net.cpp:148] Top shape: 80 120 14 14 (1881600)
I0813 20:57:31.688053 16938 net.cpp:156] Memory required for data: 3396664640
I0813 20:57:31.688058 16938 layer_factory.hpp:77] Creating layer resx7_conv3
I0813 20:57:31.688066 16938 net.cpp:91] Creating Layer resx7_conv3
I0813 20:57:31.688071 16938 net.cpp:469] resx7_conv3 <- resx7_conv2
I0813 20:57:31.688076 16938 net.cpp:443] resx7_conv3 -> resx7_conv3
I0813 20:57:31.688653 16938 net.cpp:141] Setting up resx7_conv3
I0813 20:57:31.688660 16938 net.cpp:148] Top shape: 80 480 14 14 (7526400)
I0813 20:57:31.688663 16938 net.cpp:156] Memory required for data: 3426770240
I0813 20:57:31.688668 16938 layer_factory.hpp:77] Creating layer resx7_conv3_bn
I0813 20:57:31.688673 16938 net.cpp:91] Creating Layer resx7_conv3_bn
I0813 20:57:31.688676 16938 net.cpp:469] resx7_conv3_bn <- resx7_conv3
I0813 20:57:31.688681 16938 net.cpp:430] resx7_conv3_bn -> resx7_conv3 (in-place)
I0813 20:57:31.688812 16938 net.cpp:141] Setting up resx7_conv3_bn
I0813 20:57:31.688818 16938 net.cpp:148] Top shape: 80 480 14 14 (7526400)
I0813 20:57:31.688822 16938 net.cpp:156] Memory required for data: 3456875840
I0813 20:57:31.688839 16938 layer_factory.hpp:77] Creating layer resx7_conv3_scale
I0813 20:57:31.688845 16938 net.cpp:91] Creating Layer resx7_conv3_scale
I0813 20:57:31.688849 16938 net.cpp:469] resx7_conv3_scale <- resx7_conv3
I0813 20:57:31.688853 16938 net.cpp:430] resx7_conv3_scale -> resx7_conv3 (in-place)
I0813 20:57:31.688885 16938 layer_factory.hpp:77] Creating layer resx7_conv3_scale
I0813 20:57:31.688971 16938 net.cpp:141] Setting up resx7_conv3_scale
I0813 20:57:31.688977 16938 net.cpp:148] Top shape: 80 480 14 14 (7526400)
I0813 20:57:31.688979 16938 net.cpp:156] Memory required for data: 3486981440
I0813 20:57:31.688984 16938 layer_factory.hpp:77] Creating layer resx7_elewise
I0813 20:57:31.688990 16938 net.cpp:91] Creating Layer resx7_elewise
I0813 20:57:31.688993 16938 net.cpp:469] resx7_elewise <- resx6_elewise_resx6_elewise_relu_0_split_1
I0813 20:57:31.688997 16938 net.cpp:469] resx7_elewise <- resx7_conv3
I0813 20:57:31.689002 16938 net.cpp:443] resx7_elewise -> resx7_elewise
I0813 20:57:31.689018 16938 net.cpp:141] Setting up resx7_elewise
I0813 20:57:31.689023 16938 net.cpp:148] Top shape: 80 480 14 14 (7526400)
I0813 20:57:31.689026 16938 net.cpp:156] Memory required for data: 3517087040
I0813 20:57:31.689029 16938 layer_factory.hpp:77] Creating layer resx7_elewise_relu
I0813 20:57:31.689035 16938 net.cpp:91] Creating Layer resx7_elewise_relu
I0813 20:57:31.689038 16938 net.cpp:469] resx7_elewise_relu <- resx7_elewise
I0813 20:57:31.689043 16938 net.cpp:430] resx7_elewise_relu -> resx7_elewise (in-place)
I0813 20:57:31.689047 16938 net.cpp:141] Setting up resx7_elewise_relu
I0813 20:57:31.689051 16938 net.cpp:148] Top shape: 80 480 14 14 (7526400)
I0813 20:57:31.689054 16938 net.cpp:156] Memory required for data: 3547192640
I0813 20:57:31.689057 16938 layer_factory.hpp:77] Creating layer resx7_elewise_resx7_elewise_relu_0_split
I0813 20:57:31.689061 16938 net.cpp:91] Creating Layer resx7_elewise_resx7_elewise_relu_0_split
I0813 20:57:31.689064 16938 net.cpp:469] resx7_elewise_resx7_elewise_relu_0_split <- resx7_elewise
I0813 20:57:31.689070 16938 net.cpp:443] resx7_elewise_resx7_elewise_relu_0_split -> resx7_elewise_resx7_elewise_relu_0_split_0
I0813 20:57:31.689491 16938 net.cpp:443] resx7_elewise_resx7_elewise_relu_0_split -> resx7_elewise_resx7_elewise_relu_0_split_1
I0813 20:57:31.689537 16938 net.cpp:141] Setting up resx7_elewise_resx7_elewise_relu_0_split
I0813 20:57:31.689543 16938 net.cpp:148] Top shape: 80 480 14 14 (7526400)
I0813 20:57:31.689548 16938 net.cpp:148] Top shape: 80 480 14 14 (7526400)
I0813 20:57:31.689550 16938 net.cpp:156] Memory required for data: 3607403840
I0813 20:57:31.689554 16938 layer_factory.hpp:77] Creating layer resx8_conv1
I0813 20:57:31.689568 16938 net.cpp:91] Creating Layer resx8_conv1
I0813 20:57:31.689571 16938 net.cpp:469] resx8_conv1 <- resx7_elewise_resx7_elewise_relu_0_split_0
I0813 20:57:31.689576 16938 net.cpp:443] resx8_conv1 -> resx8_conv1
I0813 20:57:31.690173 16938 net.cpp:141] Setting up resx8_conv1
I0813 20:57:31.690181 16938 net.cpp:148] Top shape: 80 120 14 14 (1881600)
I0813 20:57:31.690184 16938 net.cpp:156] Memory required for data: 3614930240
I0813 20:57:31.690188 16938 layer_factory.hpp:77] Creating layer resx8_conv1_bn
I0813 20:57:31.690196 16938 net.cpp:91] Creating Layer resx8_conv1_bn
I0813 20:57:31.690199 16938 net.cpp:469] resx8_conv1_bn <- resx8_conv1
I0813 20:57:31.690203 16938 net.cpp:430] resx8_conv1_bn -> resx8_conv1 (in-place)
I0813 20:57:31.690331 16938 net.cpp:141] Setting up resx8_conv1_bn
I0813 20:57:31.690337 16938 net.cpp:148] Top shape: 80 120 14 14 (1881600)
I0813 20:57:31.690340 16938 net.cpp:156] Memory required for data: 3622456640
I0813 20:57:31.690346 16938 layer_factory.hpp:77] Creating layer resx8_conv1_scale
I0813 20:57:31.690353 16938 net.cpp:91] Creating Layer resx8_conv1_scale
I0813 20:57:31.690356 16938 net.cpp:469] resx8_conv1_scale <- resx8_conv1
I0813 20:57:31.690361 16938 net.cpp:430] resx8_conv1_scale -> resx8_conv1 (in-place)
I0813 20:57:31.690390 16938 layer_factory.hpp:77] Creating layer resx8_conv1_scale
I0813 20:57:31.690469 16938 net.cpp:141] Setting up resx8_conv1_scale
I0813 20:57:31.690474 16938 net.cpp:148] Top shape: 80 120 14 14 (1881600)
I0813 20:57:31.690477 16938 net.cpp:156] Memory required for data: 3629983040
I0813 20:57:31.690482 16938 layer_factory.hpp:77] Creating layer resx8_conv1_relu
I0813 20:57:31.690487 16938 net.cpp:91] Creating Layer resx8_conv1_relu
I0813 20:57:31.690492 16938 net.cpp:469] resx8_conv1_relu <- resx8_conv1
I0813 20:57:31.690496 16938 net.cpp:430] resx8_conv1_relu -> resx8_conv1 (in-place)
I0813 20:57:31.690501 16938 net.cpp:141] Setting up resx8_conv1_relu
I0813 20:57:31.690505 16938 net.cpp:148] Top shape: 80 120 14 14 (1881600)
I0813 20:57:31.690508 16938 net.cpp:156] Memory required for data: 3637509440
I0813 20:57:31.690511 16938 layer_factory.hpp:77] Creating layer shuffle8
I0813 20:57:31.690516 16938 net.cpp:91] Creating Layer shuffle8
I0813 20:57:31.690520 16938 net.cpp:469] shuffle8 <- resx8_conv1
I0813 20:57:31.690523 16938 net.cpp:443] shuffle8 -> shuffle8
I0813 20:57:31.690541 16938 net.cpp:141] Setting up shuffle8
I0813 20:57:31.690546 16938 net.cpp:148] Top shape: 80 120 14 14 (1881600)
I0813 20:57:31.690549 16938 net.cpp:156] Memory required for data: 3645035840
I0813 20:57:31.690552 16938 layer_factory.hpp:77] Creating layer resx8_conv2
I0813 20:57:31.690557 16938 net.cpp:91] Creating Layer resx8_conv2
I0813 20:57:31.690560 16938 net.cpp:469] resx8_conv2 <- shuffle8
I0813 20:57:31.690565 16938 net.cpp:443] resx8_conv2 -> resx8_conv2
I0813 20:57:31.690671 16938 net.cpp:141] Setting up resx8_conv2
I0813 20:57:31.690681 16938 net.cpp:148] Top shape: 80 120 14 14 (1881600)
I0813 20:57:31.690685 16938 net.cpp:156] Memory required for data: 3652562240
I0813 20:57:31.690690 16938 layer_factory.hpp:77] Creating layer resx8_conv2_bn
I0813 20:57:31.690695 16938 net.cpp:91] Creating Layer resx8_conv2_bn
I0813 20:57:31.690697 16938 net.cpp:469] resx8_conv2_bn <- resx8_conv2
I0813 20:57:31.690703 16938 net.cpp:430] resx8_conv2_bn -> resx8_conv2 (in-place)
I0813 20:57:31.690840 16938 net.cpp:141] Setting up resx8_conv2_bn
I0813 20:57:31.690846 16938 net.cpp:148] Top shape: 80 120 14 14 (1881600)
I0813 20:57:31.690853 16938 net.cpp:156] Memory required for data: 3660088640
I0813 20:57:31.690863 16938 layer_factory.hpp:77] Creating layer resx8_conv2_scale
I0813 20:57:31.690870 16938 net.cpp:91] Creating Layer resx8_conv2_scale
I0813 20:57:31.690873 16938 net.cpp:469] resx8_conv2_scale <- resx8_conv2
I0813 20:57:31.690878 16938 net.cpp:430] resx8_conv2_scale -> resx8_conv2 (in-place)
I0813 20:57:31.690907 16938 layer_factory.hpp:77] Creating layer resx8_conv2_scale
I0813 20:57:31.690987 16938 net.cpp:141] Setting up resx8_conv2_scale
I0813 20:57:31.690994 16938 net.cpp:148] Top shape: 80 120 14 14 (1881600)
I0813 20:57:31.690996 16938 net.cpp:156] Memory required for data: 3667615040
I0813 20:57:31.691001 16938 layer_factory.hpp:77] Creating layer resx8_conv3
I0813 20:57:31.691009 16938 net.cpp:91] Creating Layer resx8_conv3
I0813 20:57:31.691013 16938 net.cpp:469] resx8_conv3 <- resx8_conv2
I0813 20:57:31.691020 16938 net.cpp:443] resx8_conv3 -> resx8_conv3
I0813 20:57:31.691592 16938 net.cpp:141] Setting up resx8_conv3
I0813 20:57:31.691599 16938 net.cpp:148] Top shape: 80 480 14 14 (7526400)
I0813 20:57:31.691602 16938 net.cpp:156] Memory required for data: 3697720640
I0813 20:57:31.691606 16938 layer_factory.hpp:77] Creating layer resx8_conv3_bn
I0813 20:57:31.691612 16938 net.cpp:91] Creating Layer resx8_conv3_bn
I0813 20:57:31.691615 16938 net.cpp:469] resx8_conv3_bn <- resx8_conv3
I0813 20:57:31.691619 16938 net.cpp:430] resx8_conv3_bn -> resx8_conv3 (in-place)
I0813 20:57:31.691752 16938 net.cpp:141] Setting up resx8_conv3_bn
I0813 20:57:31.691758 16938 net.cpp:148] Top shape: 80 480 14 14 (7526400)
I0813 20:57:31.691761 16938 net.cpp:156] Memory required for data: 3727826240
I0813 20:57:31.691767 16938 layer_factory.hpp:77] Creating layer resx8_conv3_scale
I0813 20:57:31.691772 16938 net.cpp:91] Creating Layer resx8_conv3_scale
I0813 20:57:31.691776 16938 net.cpp:469] resx8_conv3_scale <- resx8_conv3
I0813 20:57:31.691781 16938 net.cpp:430] resx8_conv3_scale -> resx8_conv3 (in-place)
I0813 20:57:31.691812 16938 layer_factory.hpp:77] Creating layer resx8_conv3_scale
I0813 20:57:31.691889 16938 net.cpp:141] Setting up resx8_conv3_scale
I0813 20:57:31.691895 16938 net.cpp:148] Top shape: 80 480 14 14 (7526400)
I0813 20:57:31.691898 16938 net.cpp:156] Memory required for data: 3757931840
I0813 20:57:31.691903 16938 layer_factory.hpp:77] Creating layer resx8_elewise
I0813 20:57:31.691910 16938 net.cpp:91] Creating Layer resx8_elewise
I0813 20:57:31.691912 16938 net.cpp:469] resx8_elewise <- resx7_elewise_resx7_elewise_relu_0_split_1
I0813 20:57:31.691916 16938 net.cpp:469] resx8_elewise <- resx8_conv3
I0813 20:57:31.691921 16938 net.cpp:443] resx8_elewise -> resx8_elewise
I0813 20:57:31.691938 16938 net.cpp:141] Setting up resx8_elewise
I0813 20:57:31.691943 16938 net.cpp:148] Top shape: 80 480 14 14 (7526400)
I0813 20:57:31.691946 16938 net.cpp:156] Memory required for data: 3788037440
I0813 20:57:31.691951 16938 layer_factory.hpp:77] Creating layer resx8_elewise_relu
I0813 20:57:31.691954 16938 net.cpp:91] Creating Layer resx8_elewise_relu
I0813 20:57:31.691963 16938 net.cpp:469] resx8_elewise_relu <- resx8_elewise
I0813 20:57:31.691967 16938 net.cpp:430] resx8_elewise_relu -> resx8_elewise (in-place)
I0813 20:57:31.691972 16938 net.cpp:141] Setting up resx8_elewise_relu
I0813 20:57:31.691975 16938 net.cpp:148] Top shape: 80 480 14 14 (7526400)
I0813 20:57:31.691978 16938 net.cpp:156] Memory required for data: 3818143040
I0813 20:57:31.691982 16938 layer_factory.hpp:77] Creating layer resx8_elewise_resx8_elewise_relu_0_split
I0813 20:57:31.691987 16938 net.cpp:91] Creating Layer resx8_elewise_resx8_elewise_relu_0_split
I0813 20:57:31.691989 16938 net.cpp:469] resx8_elewise_resx8_elewise_relu_0_split <- resx8_elewise
I0813 20:57:31.691993 16938 net.cpp:443] resx8_elewise_resx8_elewise_relu_0_split -> resx8_elewise_resx8_elewise_relu_0_split_0
I0813 20:57:31.691999 16938 net.cpp:443] resx8_elewise_resx8_elewise_relu_0_split -> resx8_elewise_resx8_elewise_relu_0_split_1
I0813 20:57:31.692023 16938 net.cpp:141] Setting up resx8_elewise_resx8_elewise_relu_0_split
I0813 20:57:31.692031 16938 net.cpp:148] Top shape: 80 480 14 14 (7526400)
I0813 20:57:31.692039 16938 net.cpp:148] Top shape: 80 480 14 14 (7526400)
I0813 20:57:31.692044 16938 net.cpp:156] Memory required for data: 3878354240
I0813 20:57:31.692046 16938 layer_factory.hpp:77] Creating layer resx9_conv1
I0813 20:57:31.692054 16938 net.cpp:91] Creating Layer resx9_conv1
I0813 20:57:31.692059 16938 net.cpp:469] resx9_conv1 <- resx8_elewise_resx8_elewise_relu_0_split_0
I0813 20:57:31.692062 16938 net.cpp:443] resx9_conv1 -> resx9_conv1
I0813 20:57:31.692637 16938 net.cpp:141] Setting up resx9_conv1
I0813 20:57:31.692644 16938 net.cpp:148] Top shape: 80 120 14 14 (1881600)
I0813 20:57:31.692647 16938 net.cpp:156] Memory required for data: 3885880640
I0813 20:57:31.692651 16938 layer_factory.hpp:77] Creating layer resx9_conv1_bn
I0813 20:57:31.692657 16938 net.cpp:91] Creating Layer resx9_conv1_bn
I0813 20:57:31.692661 16938 net.cpp:469] resx9_conv1_bn <- resx9_conv1
I0813 20:57:31.692664 16938 net.cpp:430] resx9_conv1_bn -> resx9_conv1 (in-place)
I0813 20:57:31.692793 16938 net.cpp:141] Setting up resx9_conv1_bn
I0813 20:57:31.692800 16938 net.cpp:148] Top shape: 80 120 14 14 (1881600)
I0813 20:57:31.692803 16938 net.cpp:156] Memory required for data: 3893407040
I0813 20:57:31.692809 16938 layer_factory.hpp:77] Creating layer resx9_conv1_scale
I0813 20:57:31.692816 16938 net.cpp:91] Creating Layer resx9_conv1_scale
I0813 20:57:31.692818 16938 net.cpp:469] resx9_conv1_scale <- resx9_conv1
I0813 20:57:31.692823 16938 net.cpp:430] resx9_conv1_scale -> resx9_conv1 (in-place)
I0813 20:57:31.692852 16938 layer_factory.hpp:77] Creating layer resx9_conv1_scale
I0813 20:57:31.692935 16938 net.cpp:141] Setting up resx9_conv1_scale
I0813 20:57:31.692942 16938 net.cpp:148] Top shape: 80 120 14 14 (1881600)
I0813 20:57:31.692945 16938 net.cpp:156] Memory required for data: 3900933440
I0813 20:57:31.692950 16938 layer_factory.hpp:77] Creating layer resx9_conv1_relu
I0813 20:57:31.692955 16938 net.cpp:91] Creating Layer resx9_conv1_relu
I0813 20:57:31.692958 16938 net.cpp:469] resx9_conv1_relu <- resx9_conv1
I0813 20:57:31.692962 16938 net.cpp:430] resx9_conv1_relu -> resx9_conv1 (in-place)
I0813 20:57:31.692967 16938 net.cpp:141] Setting up resx9_conv1_relu
I0813 20:57:31.692971 16938 net.cpp:148] Top shape: 80 120 14 14 (1881600)
I0813 20:57:31.692975 16938 net.cpp:156] Memory required for data: 3908459840
I0813 20:57:31.692977 16938 layer_factory.hpp:77] Creating layer shuffle9
I0813 20:57:31.692983 16938 net.cpp:91] Creating Layer shuffle9
I0813 20:57:31.692986 16938 net.cpp:469] shuffle9 <- resx9_conv1
I0813 20:57:31.692991 16938 net.cpp:443] shuffle9 -> shuffle9
I0813 20:57:31.693012 16938 net.cpp:141] Setting up shuffle9
I0813 20:57:31.693019 16938 net.cpp:148] Top shape: 80 120 14 14 (1881600)
I0813 20:57:31.693022 16938 net.cpp:156] Memory required for data: 3915986240
I0813 20:57:31.693027 16938 layer_factory.hpp:77] Creating layer resx9_conv2
I0813 20:57:31.693032 16938 net.cpp:91] Creating Layer resx9_conv2
I0813 20:57:31.693035 16938 net.cpp:469] resx9_conv2 <- shuffle9
I0813 20:57:31.693040 16938 net.cpp:443] resx9_conv2 -> resx9_conv2
I0813 20:57:31.693322 16938 net.cpp:141] Setting up resx9_conv2
I0813 20:57:31.693336 16938 net.cpp:148] Top shape: 80 120 14 14 (1881600)
I0813 20:57:31.693338 16938 net.cpp:156] Memory required for data: 3923512640
I0813 20:57:31.693343 16938 layer_factory.hpp:77] Creating layer resx9_conv2_bn
I0813 20:57:31.693351 16938 net.cpp:91] Creating Layer resx9_conv2_bn
I0813 20:57:31.693356 16938 net.cpp:469] resx9_conv2_bn <- resx9_conv2
I0813 20:57:31.693361 16938 net.cpp:430] resx9_conv2_bn -> resx9_conv2 (in-place)
I0813 20:57:31.693503 16938 net.cpp:141] Setting up resx9_conv2_bn
I0813 20:57:31.693511 16938 net.cpp:148] Top shape: 80 120 14 14 (1881600)
I0813 20:57:31.693513 16938 net.cpp:156] Memory required for data: 3931039040
I0813 20:57:31.693519 16938 layer_factory.hpp:77] Creating layer resx9_conv2_scale
I0813 20:57:31.693526 16938 net.cpp:91] Creating Layer resx9_conv2_scale
I0813 20:57:31.693533 16938 net.cpp:469] resx9_conv2_scale <- resx9_conv2
I0813 20:57:31.693554 16938 net.cpp:430] resx9_conv2_scale -> resx9_conv2 (in-place)
I0813 20:57:31.693585 16938 layer_factory.hpp:77] Creating layer resx9_conv2_scale
I0813 20:57:31.693666 16938 net.cpp:141] Setting up resx9_conv2_scale
I0813 20:57:31.693672 16938 net.cpp:148] Top shape: 80 120 14 14 (1881600)
I0813 20:57:31.693675 16938 net.cpp:156] Memory required for data: 3938565440
I0813 20:57:31.693681 16938 layer_factory.hpp:77] Creating layer resx9_conv3
I0813 20:57:31.693696 16938 net.cpp:91] Creating Layer resx9_conv3
I0813 20:57:31.693701 16938 net.cpp:469] resx9_conv3 <- resx9_conv2
I0813 20:57:31.693707 16938 net.cpp:443] resx9_conv3 -> resx9_conv3
I0813 20:57:31.694286 16938 net.cpp:141] Setting up resx9_conv3
I0813 20:57:31.694293 16938 net.cpp:148] Top shape: 80 480 14 14 (7526400)
I0813 20:57:31.694296 16938 net.cpp:156] Memory required for data: 3968671040
I0813 20:57:31.694301 16938 layer_factory.hpp:77] Creating layer resx9_conv3_bn
I0813 20:57:31.694308 16938 net.cpp:91] Creating Layer resx9_conv3_bn
I0813 20:57:31.694311 16938 net.cpp:469] resx9_conv3_bn <- resx9_conv3
I0813 20:57:31.694315 16938 net.cpp:430] resx9_conv3_bn -> resx9_conv3 (in-place)
I0813 20:57:31.694447 16938 net.cpp:141] Setting up resx9_conv3_bn
I0813 20:57:31.694458 16938 net.cpp:148] Top shape: 80 480 14 14 (7526400)
I0813 20:57:31.694461 16938 net.cpp:156] Memory required for data: 3998776640
I0813 20:57:31.694468 16938 layer_factory.hpp:77] Creating layer resx9_conv3_scale
I0813 20:57:31.694475 16938 net.cpp:91] Creating Layer resx9_conv3_scale
I0813 20:57:31.694478 16938 net.cpp:469] resx9_conv3_scale <- resx9_conv3
I0813 20:57:31.694483 16938 net.cpp:430] resx9_conv3_scale -> resx9_conv3 (in-place)
I0813 20:57:31.694515 16938 layer_factory.hpp:77] Creating layer resx9_conv3_scale
I0813 20:57:31.694597 16938 net.cpp:141] Setting up resx9_conv3_scale
I0813 20:57:31.694603 16938 net.cpp:148] Top shape: 80 480 14 14 (7526400)
I0813 20:57:31.694607 16938 net.cpp:156] Memory required for data: 4028882240
I0813 20:57:31.694612 16938 layer_factory.hpp:77] Creating layer resx9_elewise
I0813 20:57:31.694618 16938 net.cpp:91] Creating Layer resx9_elewise
I0813 20:57:31.694622 16938 net.cpp:469] resx9_elewise <- resx8_elewise_resx8_elewise_relu_0_split_1
I0813 20:57:31.694627 16938 net.cpp:469] resx9_elewise <- resx9_conv3
I0813 20:57:31.694635 16938 net.cpp:443] resx9_elewise -> resx9_elewise
I0813 20:57:31.694653 16938 net.cpp:141] Setting up resx9_elewise
I0813 20:57:31.694658 16938 net.cpp:148] Top shape: 80 480 14 14 (7526400)
I0813 20:57:31.694660 16938 net.cpp:156] Memory required for data: 4058987840
I0813 20:57:31.694664 16938 layer_factory.hpp:77] Creating layer resx9_elewise_relu
I0813 20:57:31.694669 16938 net.cpp:91] Creating Layer resx9_elewise_relu
I0813 20:57:31.694671 16938 net.cpp:469] resx9_elewise_relu <- resx9_elewise
I0813 20:57:31.694676 16938 net.cpp:430] resx9_elewise_relu -> resx9_elewise (in-place)
I0813 20:57:31.694681 16938 net.cpp:141] Setting up resx9_elewise_relu
I0813 20:57:31.694685 16938 net.cpp:148] Top shape: 80 480 14 14 (7526400)
I0813 20:57:31.694689 16938 net.cpp:156] Memory required for data: 4089093440
I0813 20:57:31.694691 16938 layer_factory.hpp:77] Creating layer resx9_elewise_resx9_elewise_relu_0_split
I0813 20:57:31.694696 16938 net.cpp:91] Creating Layer resx9_elewise_resx9_elewise_relu_0_split
I0813 20:57:31.694700 16938 net.cpp:469] resx9_elewise_resx9_elewise_relu_0_split <- resx9_elewise
I0813 20:57:31.694703 16938 net.cpp:443] resx9_elewise_resx9_elewise_relu_0_split -> resx9_elewise_resx9_elewise_relu_0_split_0
I0813 20:57:31.694708 16938 net.cpp:443] resx9_elewise_resx9_elewise_relu_0_split -> resx9_elewise_resx9_elewise_relu_0_split_1
I0813 20:57:31.694731 16938 net.cpp:141] Setting up resx9_elewise_resx9_elewise_relu_0_split
I0813 20:57:31.694736 16938 net.cpp:148] Top shape: 80 480 14 14 (7526400)
I0813 20:57:31.694741 16938 net.cpp:148] Top shape: 80 480 14 14 (7526400)
I0813 20:57:31.694746 16938 net.cpp:156] Memory required for data: 4149304640
I0813 20:57:31.694754 16938 layer_factory.hpp:77] Creating layer resx10_conv1
I0813 20:57:31.694761 16938 net.cpp:91] Creating Layer resx10_conv1
I0813 20:57:31.694766 16938 net.cpp:469] resx10_conv1 <- resx9_elewise_resx9_elewise_relu_0_split_0
I0813 20:57:31.694772 16938 net.cpp:443] resx10_conv1 -> resx10_conv1
I0813 20:57:31.695343 16938 net.cpp:141] Setting up resx10_conv1
I0813 20:57:31.695350 16938 net.cpp:148] Top shape: 80 120 14 14 (1881600)
I0813 20:57:31.695353 16938 net.cpp:156] Memory required for data: 4156831040
I0813 20:57:31.695358 16938 layer_factory.hpp:77] Creating layer resx10_conv1_bn
I0813 20:57:31.695365 16938 net.cpp:91] Creating Layer resx10_conv1_bn
I0813 20:57:31.695369 16938 net.cpp:469] resx10_conv1_bn <- resx10_conv1
I0813 20:57:31.695374 16938 net.cpp:430] resx10_conv1_bn -> resx10_conv1 (in-place)
I0813 20:57:31.695502 16938 net.cpp:141] Setting up resx10_conv1_bn
I0813 20:57:31.695508 16938 net.cpp:148] Top shape: 80 120 14 14 (1881600)
I0813 20:57:31.695513 16938 net.cpp:156] Memory required for data: 4164357440
I0813 20:57:31.695518 16938 layer_factory.hpp:77] Creating layer resx10_conv1_scale
I0813 20:57:31.695525 16938 net.cpp:91] Creating Layer resx10_conv1_scale
I0813 20:57:31.695529 16938 net.cpp:469] resx10_conv1_scale <- resx10_conv1
I0813 20:57:31.695533 16938 net.cpp:430] resx10_conv1_scale -> resx10_conv1 (in-place)
I0813 20:57:31.695561 16938 layer_factory.hpp:77] Creating layer resx10_conv1_scale
I0813 20:57:31.695641 16938 net.cpp:141] Setting up resx10_conv1_scale
I0813 20:57:31.695648 16938 net.cpp:148] Top shape: 80 120 14 14 (1881600)
I0813 20:57:31.695652 16938 net.cpp:156] Memory required for data: 4171883840
I0813 20:57:31.695657 16938 layer_factory.hpp:77] Creating layer resx10_conv1_relu
I0813 20:57:31.695662 16938 net.cpp:91] Creating Layer resx10_conv1_relu
I0813 20:57:31.695664 16938 net.cpp:469] resx10_conv1_relu <- resx10_conv1
I0813 20:57:31.695670 16938 net.cpp:430] resx10_conv1_relu -> resx10_conv1 (in-place)
I0813 20:57:31.695674 16938 net.cpp:141] Setting up resx10_conv1_relu
I0813 20:57:31.695678 16938 net.cpp:148] Top shape: 80 120 14 14 (1881600)
I0813 20:57:31.695682 16938 net.cpp:156] Memory required for data: 4179410240
I0813 20:57:31.695685 16938 layer_factory.hpp:77] Creating layer shuffle10
I0813 20:57:31.695690 16938 net.cpp:91] Creating Layer shuffle10
I0813 20:57:31.695693 16938 net.cpp:469] shuffle10 <- resx10_conv1
I0813 20:57:31.695698 16938 net.cpp:443] shuffle10 -> shuffle10
I0813 20:57:31.695715 16938 net.cpp:141] Setting up shuffle10
I0813 20:57:31.695720 16938 net.cpp:148] Top shape: 80 120 14 14 (1881600)
I0813 20:57:31.695724 16938 net.cpp:156] Memory required for data: 4186936640
I0813 20:57:31.695726 16938 layer_factory.hpp:77] Creating layer resx10_conv2
I0813 20:57:31.695732 16938 net.cpp:91] Creating Layer resx10_conv2
I0813 20:57:31.695736 16938 net.cpp:469] resx10_conv2 <- shuffle10
I0813 20:57:31.695740 16938 net.cpp:443] resx10_conv2 -> resx10_conv2
I0813 20:57:31.695845 16938 net.cpp:141] Setting up resx10_conv2
I0813 20:57:31.695853 16938 net.cpp:148] Top shape: 80 120 14 14 (1881600)
I0813 20:57:31.695858 16938 net.cpp:156] Memory required for data: 4194463040
I0813 20:57:31.695861 16938 layer_factory.hpp:77] Creating layer resx10_conv2_bn
I0813 20:57:31.695868 16938 net.cpp:91] Creating Layer resx10_conv2_bn
I0813 20:57:31.695873 16938 net.cpp:469] resx10_conv2_bn <- resx10_conv2
I0813 20:57:31.695876 16938 net.cpp:430] resx10_conv2_bn -> resx10_conv2 (in-place)
I0813 20:57:31.696007 16938 net.cpp:141] Setting up resx10_conv2_bn
I0813 20:57:31.696014 16938 net.cpp:148] Top shape: 80 120 14 14 (1881600)
I0813 20:57:31.696017 16938 net.cpp:156] Memory required for data: 4201989440
I0813 20:57:31.696023 16938 layer_factory.hpp:77] Creating layer resx10_conv2_scale
I0813 20:57:31.696028 16938 net.cpp:91] Creating Layer resx10_conv2_scale
I0813 20:57:31.696033 16938 net.cpp:469] resx10_conv2_scale <- resx10_conv2
I0813 20:57:31.696040 16938 net.cpp:430] resx10_conv2_scale -> resx10_conv2 (in-place)
I0813 20:57:31.696085 16938 layer_factory.hpp:77] Creating layer resx10_conv2_scale
I0813 20:57:31.696166 16938 net.cpp:141] Setting up resx10_conv2_scale
I0813 20:57:31.696173 16938 net.cpp:148] Top shape: 80 120 14 14 (1881600)
I0813 20:57:31.696177 16938 net.cpp:156] Memory required for data: 4209515840
I0813 20:57:31.696182 16938 layer_factory.hpp:77] Creating layer resx10_conv3
I0813 20:57:31.696190 16938 net.cpp:91] Creating Layer resx10_conv3
I0813 20:57:31.696194 16938 net.cpp:469] resx10_conv3 <- resx10_conv2
I0813 20:57:31.696198 16938 net.cpp:443] resx10_conv3 -> resx10_conv3
I0813 20:57:31.696776 16938 net.cpp:141] Setting up resx10_conv3
I0813 20:57:31.696784 16938 net.cpp:148] Top shape: 80 480 14 14 (7526400)
I0813 20:57:31.696786 16938 net.cpp:156] Memory required for data: 4239621440
I0813 20:57:31.696790 16938 layer_factory.hpp:77] Creating layer resx10_conv3_bn
I0813 20:57:31.696797 16938 net.cpp:91] Creating Layer resx10_conv3_bn
I0813 20:57:31.696800 16938 net.cpp:469] resx10_conv3_bn <- resx10_conv3
I0813 20:57:31.696805 16938 net.cpp:430] resx10_conv3_bn -> resx10_conv3 (in-place)
I0813 20:57:31.696935 16938 net.cpp:141] Setting up resx10_conv3_bn
I0813 20:57:31.696941 16938 net.cpp:148] Top shape: 80 480 14 14 (7526400)
I0813 20:57:31.696944 16938 net.cpp:156] Memory required for data: 4269727040
I0813 20:57:31.696950 16938 layer_factory.hpp:77] Creating layer resx10_conv3_scale
I0813 20:57:31.696955 16938 net.cpp:91] Creating Layer resx10_conv3_scale
I0813 20:57:31.696959 16938 net.cpp:469] resx10_conv3_scale <- resx10_conv3
I0813 20:57:31.696964 16938 net.cpp:430] resx10_conv3_scale -> resx10_conv3 (in-place)
I0813 20:57:31.696995 16938 layer_factory.hpp:77] Creating layer resx10_conv3_scale
I0813 20:57:31.697072 16938 net.cpp:141] Setting up resx10_conv3_scale
I0813 20:57:31.697084 16938 net.cpp:148] Top shape: 80 480 14 14 (7526400)
I0813 20:57:31.697088 16938 net.cpp:156] Memory required for data: 4299832640
I0813 20:57:31.697093 16938 layer_factory.hpp:77] Creating layer resx10_elewise
I0813 20:57:31.697101 16938 net.cpp:91] Creating Layer resx10_elewise
I0813 20:57:31.697105 16938 net.cpp:469] resx10_elewise <- resx9_elewise_resx9_elewise_relu_0_split_1
I0813 20:57:31.697109 16938 net.cpp:469] resx10_elewise <- resx10_conv3
I0813 20:57:31.697114 16938 net.cpp:443] resx10_elewise -> resx10_elewise
I0813 20:57:31.697295 16938 net.cpp:141] Setting up resx10_elewise
I0813 20:57:31.697304 16938 net.cpp:148] Top shape: 80 480 14 14 (7526400)
I0813 20:57:31.697307 16938 net.cpp:156] Memory required for data: 4329938240
I0813 20:57:31.697311 16938 layer_factory.hpp:77] Creating layer resx10_elewise_relu
I0813 20:57:31.697316 16938 net.cpp:91] Creating Layer resx10_elewise_relu
I0813 20:57:31.697320 16938 net.cpp:469] resx10_elewise_relu <- resx10_elewise
I0813 20:57:31.697325 16938 net.cpp:430] resx10_elewise_relu -> resx10_elewise (in-place)
I0813 20:57:31.697330 16938 net.cpp:141] Setting up resx10_elewise_relu
I0813 20:57:31.697335 16938 net.cpp:148] Top shape: 80 480 14 14 (7526400)
I0813 20:57:31.697337 16938 net.cpp:156] Memory required for data: 4360043840
I0813 20:57:31.697341 16938 layer_factory.hpp:77] Creating layer resx10_elewise_resx10_elewise_relu_0_split
I0813 20:57:31.697346 16938 net.cpp:91] Creating Layer resx10_elewise_resx10_elewise_relu_0_split
I0813 20:57:31.697350 16938 net.cpp:469] resx10_elewise_resx10_elewise_relu_0_split <- resx10_elewise
I0813 20:57:31.697353 16938 net.cpp:443] resx10_elewise_resx10_elewise_relu_0_split -> resx10_elewise_resx10_elewise_relu_0_split_0
I0813 20:57:31.697358 16938 net.cpp:443] resx10_elewise_resx10_elewise_relu_0_split -> resx10_elewise_resx10_elewise_relu_0_split_1
I0813 20:57:31.697386 16938 net.cpp:141] Setting up resx10_elewise_resx10_elewise_relu_0_split
I0813 20:57:31.697391 16938 net.cpp:148] Top shape: 80 480 14 14 (7526400)
I0813 20:57:31.697396 16938 net.cpp:148] Top shape: 80 480 14 14 (7526400)
I0813 20:57:31.697398 16938 net.cpp:156] Memory required for data: 4420255040
I0813 20:57:31.697409 16938 layer_factory.hpp:77] Creating layer resx11_conv1
I0813 20:57:31.697423 16938 net.cpp:91] Creating Layer resx11_conv1
I0813 20:57:31.697427 16938 net.cpp:469] resx11_conv1 <- resx10_elewise_resx10_elewise_relu_0_split_0
I0813 20:57:31.697432 16938 net.cpp:443] resx11_conv1 -> resx11_conv1
I0813 20:57:31.698029 16938 net.cpp:141] Setting up resx11_conv1
I0813 20:57:31.698035 16938 net.cpp:148] Top shape: 80 120 14 14 (1881600)
I0813 20:57:31.698038 16938 net.cpp:156] Memory required for data: 4427781440
I0813 20:57:31.698043 16938 layer_factory.hpp:77] Creating layer resx11_conv1_bn
I0813 20:57:31.698050 16938 net.cpp:91] Creating Layer resx11_conv1_bn
I0813 20:57:31.698052 16938 net.cpp:469] resx11_conv1_bn <- resx11_conv1
I0813 20:57:31.698056 16938 net.cpp:430] resx11_conv1_bn -> resx11_conv1 (in-place)
I0813 20:57:31.698187 16938 net.cpp:141] Setting up resx11_conv1_bn
I0813 20:57:31.698194 16938 net.cpp:148] Top shape: 80 120 14 14 (1881600)
I0813 20:57:31.698196 16938 net.cpp:156] Memory required for data: 4435307840
I0813 20:57:31.698202 16938 layer_factory.hpp:77] Creating layer resx11_conv1_scale
I0813 20:57:31.698209 16938 net.cpp:91] Creating Layer resx11_conv1_scale
I0813 20:57:31.698211 16938 net.cpp:469] resx11_conv1_scale <- resx11_conv1
I0813 20:57:31.698216 16938 net.cpp:430] resx11_conv1_scale -> resx11_conv1 (in-place)
I0813 20:57:31.698246 16938 layer_factory.hpp:77] Creating layer resx11_conv1_scale
I0813 20:57:31.698325 16938 net.cpp:141] Setting up resx11_conv1_scale
I0813 20:57:31.698331 16938 net.cpp:148] Top shape: 80 120 14 14 (1881600)
I0813 20:57:31.698335 16938 net.cpp:156] Memory required for data: 4442834240
I0813 20:57:31.698340 16938 layer_factory.hpp:77] Creating layer resx11_conv1_relu
I0813 20:57:31.698345 16938 net.cpp:91] Creating Layer resx11_conv1_relu
I0813 20:57:31.698348 16938 net.cpp:469] resx11_conv1_relu <- resx11_conv1
I0813 20:57:31.698352 16938 net.cpp:430] resx11_conv1_relu -> resx11_conv1 (in-place)
I0813 20:57:31.698357 16938 net.cpp:141] Setting up resx11_conv1_relu
I0813 20:57:31.698361 16938 net.cpp:148] Top shape: 80 120 14 14 (1881600)
I0813 20:57:31.698364 16938 net.cpp:156] Memory required for data: 4450360640
I0813 20:57:31.698367 16938 layer_factory.hpp:77] Creating layer shuffle11
I0813 20:57:31.698372 16938 net.cpp:91] Creating Layer shuffle11
I0813 20:57:31.698375 16938 net.cpp:469] shuffle11 <- resx11_conv1
I0813 20:57:31.698381 16938 net.cpp:443] shuffle11 -> shuffle11
I0813 20:57:31.698400 16938 net.cpp:141] Setting up shuffle11
I0813 20:57:31.698405 16938 net.cpp:148] Top shape: 80 120 14 14 (1881600)
I0813 20:57:31.698407 16938 net.cpp:156] Memory required for data: 4457887040
I0813 20:57:31.698410 16938 layer_factory.hpp:77] Creating layer resx11_conv2
I0813 20:57:31.698416 16938 net.cpp:91] Creating Layer resx11_conv2
I0813 20:57:31.698421 16938 net.cpp:469] resx11_conv2 <- shuffle11
I0813 20:57:31.698426 16938 net.cpp:443] resx11_conv2 -> resx11_conv2
I0813 20:57:31.698532 16938 net.cpp:141] Setting up resx11_conv2
I0813 20:57:31.698540 16938 net.cpp:148] Top shape: 80 120 14 14 (1881600)
I0813 20:57:31.698544 16938 net.cpp:156] Memory required for data: 4465413440
I0813 20:57:31.698549 16938 layer_factory.hpp:77] Creating layer resx11_conv2_bn
I0813 20:57:31.698555 16938 net.cpp:91] Creating Layer resx11_conv2_bn
I0813 20:57:31.698559 16938 net.cpp:469] resx11_conv2_bn <- resx11_conv2
I0813 20:57:31.698563 16938 net.cpp:430] resx11_conv2_bn -> resx11_conv2 (in-place)
I0813 20:57:31.698693 16938 net.cpp:141] Setting up resx11_conv2_bn
I0813 20:57:31.698699 16938 net.cpp:148] Top shape: 80 120 14 14 (1881600)
I0813 20:57:31.698703 16938 net.cpp:156] Memory required for data: 4472939840
I0813 20:57:31.698707 16938 layer_factory.hpp:77] Creating layer resx11_conv2_scale
I0813 20:57:31.698715 16938 net.cpp:91] Creating Layer resx11_conv2_scale
I0813 20:57:31.698719 16938 net.cpp:469] resx11_conv2_scale <- resx11_conv2
I0813 20:57:31.698724 16938 net.cpp:430] resx11_conv2_scale -> resx11_conv2 (in-place)
I0813 20:57:31.698755 16938 layer_factory.hpp:77] Creating layer resx11_conv2_scale
I0813 20:57:31.698844 16938 net.cpp:141] Setting up resx11_conv2_scale
I0813 20:57:31.698851 16938 net.cpp:148] Top shape: 80 120 14 14 (1881600)
I0813 20:57:31.698854 16938 net.cpp:156] Memory required for data: 4480466240
I0813 20:57:31.698860 16938 layer_factory.hpp:77] Creating layer resx11_conv3
I0813 20:57:31.698868 16938 net.cpp:91] Creating Layer resx11_conv3
I0813 20:57:31.698873 16938 net.cpp:469] resx11_conv3 <- resx11_conv2
I0813 20:57:31.698879 16938 net.cpp:443] resx11_conv3 -> resx11_conv3
I0813 20:57:31.699453 16938 net.cpp:141] Setting up resx11_conv3
I0813 20:57:31.699460 16938 net.cpp:148] Top shape: 80 480 14 14 (7526400)
I0813 20:57:31.699463 16938 net.cpp:156] Memory required for data: 4510571840
I0813 20:57:31.699467 16938 layer_factory.hpp:77] Creating layer resx11_conv3_bn
I0813 20:57:31.699473 16938 net.cpp:91] Creating Layer resx11_conv3_bn
I0813 20:57:31.699476 16938 net.cpp:469] resx11_conv3_bn <- resx11_conv3
I0813 20:57:31.699482 16938 net.cpp:430] resx11_conv3_bn -> resx11_conv3 (in-place)
I0813 20:57:31.699615 16938 net.cpp:141] Setting up resx11_conv3_bn
I0813 20:57:31.699621 16938 net.cpp:148] Top shape: 80 480 14 14 (7526400)
I0813 20:57:31.699625 16938 net.cpp:156] Memory required for data: 4540677440
I0813 20:57:31.699630 16938 layer_factory.hpp:77] Creating layer resx11_conv3_scale
I0813 20:57:31.699635 16938 net.cpp:91] Creating Layer resx11_conv3_scale
I0813 20:57:31.699638 16938 net.cpp:469] resx11_conv3_scale <- resx11_conv3
I0813 20:57:31.699645 16938 net.cpp:430] resx11_conv3_scale -> resx11_conv3 (in-place)
I0813 20:57:31.699671 16938 layer_factory.hpp:77] Creating layer resx11_conv3_scale
I0813 20:57:31.699753 16938 net.cpp:141] Setting up resx11_conv3_scale
I0813 20:57:31.699759 16938 net.cpp:148] Top shape: 80 480 14 14 (7526400)
I0813 20:57:31.699762 16938 net.cpp:156] Memory required for data: 4570783040
I0813 20:57:31.699767 16938 layer_factory.hpp:77] Creating layer resx11_elewise
I0813 20:57:31.699772 16938 net.cpp:91] Creating Layer resx11_elewise
I0813 20:57:31.699776 16938 net.cpp:469] resx11_elewise <- resx10_elewise_resx10_elewise_relu_0_split_1
I0813 20:57:31.699779 16938 net.cpp:469] resx11_elewise <- resx11_conv3
I0813 20:57:31.699785 16938 net.cpp:443] resx11_elewise -> resx11_elewise
I0813 20:57:31.699803 16938 net.cpp:141] Setting up resx11_elewise
I0813 20:57:31.699808 16938 net.cpp:148] Top shape: 80 480 14 14 (7526400)
I0813 20:57:31.699811 16938 net.cpp:156] Memory required for data: 4600888640
I0813 20:57:31.699815 16938 layer_factory.hpp:77] Creating layer resx11_elewise_relu
I0813 20:57:31.699820 16938 net.cpp:91] Creating Layer resx11_elewise_relu
I0813 20:57:31.699823 16938 net.cpp:469] resx11_elewise_relu <- resx11_elewise
I0813 20:57:31.699827 16938 net.cpp:430] resx11_elewise_relu -> resx11_elewise (in-place)
I0813 20:57:31.699831 16938 net.cpp:141] Setting up resx11_elewise_relu
I0813 20:57:31.699836 16938 net.cpp:148] Top shape: 80 480 14 14 (7526400)
I0813 20:57:31.699838 16938 net.cpp:156] Memory required for data: 4630994240
I0813 20:57:31.699841 16938 layer_factory.hpp:77] Creating layer resx11_elewise_resx11_elewise_relu_0_split
I0813 20:57:31.699846 16938 net.cpp:91] Creating Layer resx11_elewise_resx11_elewise_relu_0_split
I0813 20:57:31.699848 16938 net.cpp:469] resx11_elewise_resx11_elewise_relu_0_split <- resx11_elewise
I0813 20:57:31.699854 16938 net.cpp:443] resx11_elewise_resx11_elewise_relu_0_split -> resx11_elewise_resx11_elewise_relu_0_split_0
I0813 20:57:31.699859 16938 net.cpp:443] resx11_elewise_resx11_elewise_relu_0_split -> resx11_elewise_resx11_elewise_relu_0_split_1
I0813 20:57:31.699883 16938 net.cpp:141] Setting up resx11_elewise_resx11_elewise_relu_0_split
I0813 20:57:31.699888 16938 net.cpp:148] Top shape: 80 480 14 14 (7526400)
I0813 20:57:31.699892 16938 net.cpp:148] Top shape: 80 480 14 14 (7526400)
I0813 20:57:31.699895 16938 net.cpp:156] Memory required for data: 4691205440
I0813 20:57:31.699898 16938 layer_factory.hpp:77] Creating layer resx12_conv1
I0813 20:57:31.699909 16938 net.cpp:91] Creating Layer resx12_conv1
I0813 20:57:31.699921 16938 net.cpp:469] resx12_conv1 <- resx11_elewise_resx11_elewise_relu_0_split_0
I0813 20:57:31.699926 16938 net.cpp:443] resx12_conv1 -> resx12_conv1
I0813 20:57:31.700502 16938 net.cpp:141] Setting up resx12_conv1
I0813 20:57:31.700510 16938 net.cpp:148] Top shape: 80 120 14 14 (1881600)
I0813 20:57:31.700512 16938 net.cpp:156] Memory required for data: 4698731840
I0813 20:57:31.700516 16938 layer_factory.hpp:77] Creating layer resx12_conv1_bn
I0813 20:57:31.700521 16938 net.cpp:91] Creating Layer resx12_conv1_bn
I0813 20:57:31.700525 16938 net.cpp:469] resx12_conv1_bn <- resx12_conv1
I0813 20:57:31.700531 16938 net.cpp:430] resx12_conv1_bn -> resx12_conv1 (in-place)
I0813 20:57:31.700661 16938 net.cpp:141] Setting up resx12_conv1_bn
I0813 20:57:31.700667 16938 net.cpp:148] Top shape: 80 120 14 14 (1881600)
I0813 20:57:31.700670 16938 net.cpp:156] Memory required for data: 4706258240
I0813 20:57:31.700675 16938 layer_factory.hpp:77] Creating layer resx12_conv1_scale
I0813 20:57:31.700681 16938 net.cpp:91] Creating Layer resx12_conv1_scale
I0813 20:57:31.700685 16938 net.cpp:469] resx12_conv1_scale <- resx12_conv1
I0813 20:57:31.700690 16938 net.cpp:430] resx12_conv1_scale -> resx12_conv1 (in-place)
I0813 20:57:31.700716 16938 layer_factory.hpp:77] Creating layer resx12_conv1_scale
I0813 20:57:31.700799 16938 net.cpp:141] Setting up resx12_conv1_scale
I0813 20:57:31.700805 16938 net.cpp:148] Top shape: 80 120 14 14 (1881600)
I0813 20:57:31.700809 16938 net.cpp:156] Memory required for data: 4713784640
I0813 20:57:31.700814 16938 layer_factory.hpp:77] Creating layer resx12_conv1_relu
I0813 20:57:31.700819 16938 net.cpp:91] Creating Layer resx12_conv1_relu
I0813 20:57:31.700822 16938 net.cpp:469] resx12_conv1_relu <- resx12_conv1
I0813 20:57:31.700827 16938 net.cpp:430] resx12_conv1_relu -> resx12_conv1 (in-place)
I0813 20:57:31.700832 16938 net.cpp:141] Setting up resx12_conv1_relu
I0813 20:57:31.700836 16938 net.cpp:148] Top shape: 80 120 14 14 (1881600)
I0813 20:57:31.700839 16938 net.cpp:156] Memory required for data: 4721311040
I0813 20:57:31.700842 16938 layer_factory.hpp:77] Creating layer shuffle12
I0813 20:57:31.700847 16938 net.cpp:91] Creating Layer shuffle12
I0813 20:57:31.700850 16938 net.cpp:469] shuffle12 <- resx12_conv1
I0813 20:57:31.700855 16938 net.cpp:443] shuffle12 -> shuffle12
I0813 20:57:31.700871 16938 net.cpp:141] Setting up shuffle12
I0813 20:57:31.700876 16938 net.cpp:148] Top shape: 80 120 14 14 (1881600)
I0813 20:57:31.700880 16938 net.cpp:156] Memory required for data: 4728837440
I0813 20:57:31.700882 16938 layer_factory.hpp:77] Creating layer resx12_conv2
I0813 20:57:31.700891 16938 net.cpp:91] Creating Layer resx12_conv2
I0813 20:57:31.700893 16938 net.cpp:469] resx12_conv2 <- shuffle12
I0813 20:57:31.700897 16938 net.cpp:443] resx12_conv2 -> resx12_conv2
I0813 20:57:31.701004 16938 net.cpp:141] Setting up resx12_conv2
I0813 20:57:31.701012 16938 net.cpp:148] Top shape: 80 120 14 14 (1881600)
I0813 20:57:31.701015 16938 net.cpp:156] Memory required for data: 4736363840
I0813 20:57:31.701020 16938 layer_factory.hpp:77] Creating layer resx12_conv2_bn
I0813 20:57:31.701027 16938 net.cpp:91] Creating Layer resx12_conv2_bn
I0813 20:57:31.701031 16938 net.cpp:469] resx12_conv2_bn <- resx12_conv2
I0813 20:57:31.701036 16938 net.cpp:430] resx12_conv2_bn -> resx12_conv2 (in-place)
I0813 20:57:31.701179 16938 net.cpp:141] Setting up resx12_conv2_bn
I0813 20:57:31.701187 16938 net.cpp:148] Top shape: 80 120 14 14 (1881600)
I0813 20:57:31.701190 16938 net.cpp:156] Memory required for data: 4743890240
I0813 20:57:31.701196 16938 layer_factory.hpp:77] Creating layer resx12_conv2_scale
I0813 20:57:31.701203 16938 net.cpp:91] Creating Layer resx12_conv2_scale
I0813 20:57:31.701207 16938 net.cpp:469] resx12_conv2_scale <- resx12_conv2
I0813 20:57:31.701211 16938 net.cpp:430] resx12_conv2_scale -> resx12_conv2 (in-place)
I0813 20:57:31.701242 16938 layer_factory.hpp:77] Creating layer resx12_conv2_scale
I0813 20:57:31.701330 16938 net.cpp:141] Setting up resx12_conv2_scale
I0813 20:57:31.701341 16938 net.cpp:148] Top shape: 80 120 14 14 (1881600)
I0813 20:57:31.701345 16938 net.cpp:156] Memory required for data: 4751416640
I0813 20:57:31.701350 16938 layer_factory.hpp:77] Creating layer resx12_conv3
I0813 20:57:31.701359 16938 net.cpp:91] Creating Layer resx12_conv3
I0813 20:57:31.701362 16938 net.cpp:469] resx12_conv3 <- resx12_conv2
I0813 20:57:31.701366 16938 net.cpp:443] resx12_conv3 -> resx12_conv3
I0813 20:57:31.702463 16938 net.cpp:141] Setting up resx12_conv3
I0813 20:57:31.702476 16938 net.cpp:148] Top shape: 80 480 14 14 (7526400)
I0813 20:57:31.702478 16938 net.cpp:156] Memory required for data: 4781522240
I0813 20:57:31.702483 16938 layer_factory.hpp:77] Creating layer resx12_conv3_bn
I0813 20:57:31.702489 16938 net.cpp:91] Creating Layer resx12_conv3_bn
I0813 20:57:31.702493 16938 net.cpp:469] resx12_conv3_bn <- resx12_conv3
I0813 20:57:31.702497 16938 net.cpp:430] resx12_conv3_bn -> resx12_conv3 (in-place)
I0813 20:57:31.702641 16938 net.cpp:141] Setting up resx12_conv3_bn
I0813 20:57:31.702647 16938 net.cpp:148] Top shape: 80 480 14 14 (7526400)
I0813 20:57:31.702651 16938 net.cpp:156] Memory required for data: 4811627840
I0813 20:57:31.702656 16938 layer_factory.hpp:77] Creating layer resx12_conv3_scale
I0813 20:57:31.702662 16938 net.cpp:91] Creating Layer resx12_conv3_scale
I0813 20:57:31.702666 16938 net.cpp:469] resx12_conv3_scale <- resx12_conv3
I0813 20:57:31.702669 16938 net.cpp:430] resx12_conv3_scale -> resx12_conv3 (in-place)
I0813 20:57:31.702702 16938 layer_factory.hpp:77] Creating layer resx12_conv3_scale
I0813 20:57:31.702791 16938 net.cpp:141] Setting up resx12_conv3_scale
I0813 20:57:31.702798 16938 net.cpp:148] Top shape: 80 480 14 14 (7526400)
I0813 20:57:31.702801 16938 net.cpp:156] Memory required for data: 4841733440
I0813 20:57:31.702806 16938 layer_factory.hpp:77] Creating layer resx12_elewise
I0813 20:57:31.702812 16938 net.cpp:91] Creating Layer resx12_elewise
I0813 20:57:31.702816 16938 net.cpp:469] resx12_elewise <- resx11_elewise_resx11_elewise_relu_0_split_1
I0813 20:57:31.702821 16938 net.cpp:469] resx12_elewise <- resx12_conv3
I0813 20:57:31.702824 16938 net.cpp:443] resx12_elewise -> resx12_elewise
I0813 20:57:31.702843 16938 net.cpp:141] Setting up resx12_elewise
I0813 20:57:31.702849 16938 net.cpp:148] Top shape: 80 480 14 14 (7526400)
I0813 20:57:31.702852 16938 net.cpp:156] Memory required for data: 4871839040
I0813 20:57:31.702855 16938 layer_factory.hpp:77] Creating layer resx12_elewise_relu
I0813 20:57:31.702862 16938 net.cpp:91] Creating Layer resx12_elewise_relu
I0813 20:57:31.702865 16938 net.cpp:469] resx12_elewise_relu <- resx12_elewise
I0813 20:57:31.702868 16938 net.cpp:430] resx12_elewise_relu -> resx12_elewise (in-place)
I0813 20:57:31.702873 16938 net.cpp:141] Setting up resx12_elewise_relu
I0813 20:57:31.702877 16938 net.cpp:148] Top shape: 80 480 14 14 (7526400)
I0813 20:57:31.702880 16938 net.cpp:156] Memory required for data: 4901944640
I0813 20:57:31.702883 16938 layer_factory.hpp:77] Creating layer resx12_elewise_resx12_elewise_relu_0_split
I0813 20:57:31.702888 16938 net.cpp:91] Creating Layer resx12_elewise_resx12_elewise_relu_0_split
I0813 20:57:31.702891 16938 net.cpp:469] resx12_elewise_resx12_elewise_relu_0_split <- resx12_elewise
I0813 20:57:31.702896 16938 net.cpp:443] resx12_elewise_resx12_elewise_relu_0_split -> resx12_elewise_resx12_elewise_relu_0_split_0
I0813 20:57:31.702901 16938 net.cpp:443] resx12_elewise_resx12_elewise_relu_0_split -> resx12_elewise_resx12_elewise_relu_0_split_1
I0813 20:57:31.702924 16938 net.cpp:141] Setting up resx12_elewise_resx12_elewise_relu_0_split
I0813 20:57:31.702929 16938 net.cpp:148] Top shape: 80 480 14 14 (7526400)
I0813 20:57:31.702934 16938 net.cpp:148] Top shape: 80 480 14 14 (7526400)
I0813 20:57:31.702936 16938 net.cpp:156] Memory required for data: 4962155840
I0813 20:57:31.702939 16938 layer_factory.hpp:77] Creating layer resx13_match_conv
I0813 20:57:31.702946 16938 net.cpp:91] Creating Layer resx13_match_conv
I0813 20:57:31.702953 16938 net.cpp:469] resx13_match_conv <- resx12_elewise_resx12_elewise_relu_0_split_0
I0813 20:57:31.702963 16938 net.cpp:443] resx13_match_conv -> resx13_match_conv
I0813 20:57:31.702980 16938 net.cpp:141] Setting up resx13_match_conv
I0813 20:57:31.702986 16938 net.cpp:148] Top shape: 80 480 7 7 (1881600)
I0813 20:57:31.702988 16938 net.cpp:156] Memory required for data: 4969682240
I0813 20:57:31.702991 16938 layer_factory.hpp:77] Creating layer resx13_conv1
I0813 20:57:31.702999 16938 net.cpp:91] Creating Layer resx13_conv1
I0813 20:57:31.703003 16938 net.cpp:469] resx13_conv1 <- resx12_elewise_resx12_elewise_relu_0_split_1
I0813 20:57:31.703011 16938 net.cpp:443] resx13_conv1 -> resx13_conv1
I0813 20:57:31.703586 16938 net.cpp:141] Setting up resx13_conv1
I0813 20:57:31.703593 16938 net.cpp:148] Top shape: 80 120 14 14 (1881600)
I0813 20:57:31.703596 16938 net.cpp:156] Memory required for data: 4977208640
I0813 20:57:31.703600 16938 layer_factory.hpp:77] Creating layer resx13_conv1_bn
I0813 20:57:31.703605 16938 net.cpp:91] Creating Layer resx13_conv1_bn
I0813 20:57:31.703609 16938 net.cpp:469] resx13_conv1_bn <- resx13_conv1
I0813 20:57:31.703613 16938 net.cpp:430] resx13_conv1_bn -> resx13_conv1 (in-place)
I0813 20:57:31.703747 16938 net.cpp:141] Setting up resx13_conv1_bn
I0813 20:57:31.703753 16938 net.cpp:148] Top shape: 80 120 14 14 (1881600)
I0813 20:57:31.703757 16938 net.cpp:156] Memory required for data: 4984735040
I0813 20:57:31.703763 16938 layer_factory.hpp:77] Creating layer resx13_conv1_scale
I0813 20:57:31.703768 16938 net.cpp:91] Creating Layer resx13_conv1_scale
I0813 20:57:31.703771 16938 net.cpp:469] resx13_conv1_scale <- resx13_conv1
I0813 20:57:31.703775 16938 net.cpp:430] resx13_conv1_scale -> resx13_conv1 (in-place)
I0813 20:57:31.703805 16938 layer_factory.hpp:77] Creating layer resx13_conv1_scale
I0813 20:57:31.703888 16938 net.cpp:141] Setting up resx13_conv1_scale
I0813 20:57:31.703894 16938 net.cpp:148] Top shape: 80 120 14 14 (1881600)
I0813 20:57:31.703897 16938 net.cpp:156] Memory required for data: 4992261440
I0813 20:57:31.703902 16938 layer_factory.hpp:77] Creating layer resx13_conv1_relu
I0813 20:57:31.703907 16938 net.cpp:91] Creating Layer resx13_conv1_relu
I0813 20:57:31.703910 16938 net.cpp:469] resx13_conv1_relu <- resx13_conv1
I0813 20:57:31.703914 16938 net.cpp:430] resx13_conv1_relu -> resx13_conv1 (in-place)
I0813 20:57:31.703919 16938 net.cpp:141] Setting up resx13_conv1_relu
I0813 20:57:31.703923 16938 net.cpp:148] Top shape: 80 120 14 14 (1881600)
I0813 20:57:31.703927 16938 net.cpp:156] Memory required for data: 4999787840
I0813 20:57:31.703929 16938 layer_factory.hpp:77] Creating layer shuffle13
I0813 20:57:31.703935 16938 net.cpp:91] Creating Layer shuffle13
I0813 20:57:31.703938 16938 net.cpp:469] shuffle13 <- resx13_conv1
I0813 20:57:31.703943 16938 net.cpp:443] shuffle13 -> shuffle13
I0813 20:57:31.703961 16938 net.cpp:141] Setting up shuffle13
I0813 20:57:31.703966 16938 net.cpp:148] Top shape: 80 120 14 14 (1881600)
I0813 20:57:31.703969 16938 net.cpp:156] Memory required for data: 5007314240
I0813 20:57:31.703972 16938 layer_factory.hpp:77] Creating layer resx13_conv2
I0813 20:57:31.703980 16938 net.cpp:91] Creating Layer resx13_conv2
I0813 20:57:31.703984 16938 net.cpp:469] resx13_conv2 <- shuffle13
I0813 20:57:31.703989 16938 net.cpp:443] resx13_conv2 -> resx13_conv2
I0813 20:57:31.704258 16938 net.cpp:141] Setting up resx13_conv2
I0813 20:57:31.704269 16938 net.cpp:148] Top shape: 80 120 7 7 (470400)
I0813 20:57:31.704273 16938 net.cpp:156] Memory required for data: 5009195840
I0813 20:57:31.704277 16938 layer_factory.hpp:77] Creating layer resx13_conv2_bn
I0813 20:57:31.704289 16938 net.cpp:91] Creating Layer resx13_conv2_bn
I0813 20:57:31.704293 16938 net.cpp:469] resx13_conv2_bn <- resx13_conv2
I0813 20:57:31.704298 16938 net.cpp:430] resx13_conv2_bn -> resx13_conv2 (in-place)
I0813 20:57:31.704442 16938 net.cpp:141] Setting up resx13_conv2_bn
I0813 20:57:31.704447 16938 net.cpp:148] Top shape: 80 120 7 7 (470400)
I0813 20:57:31.704450 16938 net.cpp:156] Memory required for data: 5011077440
I0813 20:57:31.704465 16938 layer_factory.hpp:77] Creating layer resx13_conv2_scale
I0813 20:57:31.704473 16938 net.cpp:91] Creating Layer resx13_conv2_scale
I0813 20:57:31.704475 16938 net.cpp:469] resx13_conv2_scale <- resx13_conv2
I0813 20:57:31.704480 16938 net.cpp:430] resx13_conv2_scale -> resx13_conv2 (in-place)
I0813 20:57:31.704514 16938 layer_factory.hpp:77] Creating layer resx13_conv2_scale
I0813 20:57:31.704596 16938 net.cpp:141] Setting up resx13_conv2_scale
I0813 20:57:31.704604 16938 net.cpp:148] Top shape: 80 120 7 7 (470400)
I0813 20:57:31.704607 16938 net.cpp:156] Memory required for data: 5012959040
I0813 20:57:31.704615 16938 layer_factory.hpp:77] Creating layer resx13_conv3
I0813 20:57:31.704622 16938 net.cpp:91] Creating Layer resx13_conv3
I0813 20:57:31.704627 16938 net.cpp:469] resx13_conv3 <- resx13_conv2
I0813 20:57:31.704632 16938 net.cpp:443] resx13_conv3 -> resx13_conv3
I0813 20:57:31.705379 16938 net.cpp:141] Setting up resx13_conv3
I0813 20:57:31.705390 16938 net.cpp:148] Top shape: 80 480 7 7 (1881600)
I0813 20:57:31.705394 16938 net.cpp:156] Memory required for data: 5020485440
I0813 20:57:31.705399 16938 layer_factory.hpp:77] Creating layer resx13_conv3_bn
I0813 20:57:31.705407 16938 net.cpp:91] Creating Layer resx13_conv3_bn
I0813 20:57:31.705411 16938 net.cpp:469] resx13_conv3_bn <- resx13_conv3
I0813 20:57:31.705415 16938 net.cpp:430] resx13_conv3_bn -> resx13_conv3 (in-place)
I0813 20:57:31.705561 16938 net.cpp:141] Setting up resx13_conv3_bn
I0813 20:57:31.705567 16938 net.cpp:148] Top shape: 80 480 7 7 (1881600)
I0813 20:57:31.705570 16938 net.cpp:156] Memory required for data: 5028011840
I0813 20:57:31.705577 16938 layer_factory.hpp:77] Creating layer resx13_conv3_scale
I0813 20:57:31.705585 16938 net.cpp:91] Creating Layer resx13_conv3_scale
I0813 20:57:31.705588 16938 net.cpp:469] resx13_conv3_scale <- resx13_conv3
I0813 20:57:31.705592 16938 net.cpp:430] resx13_conv3_scale -> resx13_conv3 (in-place)
I0813 20:57:31.705634 16938 layer_factory.hpp:77] Creating layer resx13_conv3_scale
I0813 20:57:31.705723 16938 net.cpp:141] Setting up resx13_conv3_scale
I0813 20:57:31.705730 16938 net.cpp:148] Top shape: 80 480 7 7 (1881600)
I0813 20:57:31.705734 16938 net.cpp:156] Memory required for data: 5035538240
I0813 20:57:31.705739 16938 layer_factory.hpp:77] Creating layer resx13_concat
I0813 20:57:31.705744 16938 net.cpp:91] Creating Layer resx13_concat
I0813 20:57:31.705746 16938 net.cpp:469] resx13_concat <- resx13_match_conv
I0813 20:57:31.705750 16938 net.cpp:469] resx13_concat <- resx13_conv3
I0813 20:57:31.705756 16938 net.cpp:443] resx13_concat -> resx13_concat
I0813 20:57:31.705775 16938 net.cpp:141] Setting up resx13_concat
I0813 20:57:31.705780 16938 net.cpp:148] Top shape: 80 960 7 7 (3763200)
I0813 20:57:31.705782 16938 net.cpp:156] Memory required for data: 5050591040
I0813 20:57:31.705785 16938 layer_factory.hpp:77] Creating layer resx13_concat_relu
I0813 20:57:31.705792 16938 net.cpp:91] Creating Layer resx13_concat_relu
I0813 20:57:31.705796 16938 net.cpp:469] resx13_concat_relu <- resx13_concat
I0813 20:57:31.705799 16938 net.cpp:430] resx13_concat_relu -> resx13_concat (in-place)
I0813 20:57:31.705804 16938 net.cpp:141] Setting up resx13_concat_relu
I0813 20:57:31.705808 16938 net.cpp:148] Top shape: 80 960 7 7 (3763200)
I0813 20:57:31.705811 16938 net.cpp:156] Memory required for data: 5065643840
I0813 20:57:31.705814 16938 layer_factory.hpp:77] Creating layer resx13_concat_resx13_concat_relu_0_split
I0813 20:57:31.705819 16938 net.cpp:91] Creating Layer resx13_concat_resx13_concat_relu_0_split
I0813 20:57:31.705822 16938 net.cpp:469] resx13_concat_resx13_concat_relu_0_split <- resx13_concat
I0813 20:57:31.705826 16938 net.cpp:443] resx13_concat_resx13_concat_relu_0_split -> resx13_concat_resx13_concat_relu_0_split_0
I0813 20:57:31.705832 16938 net.cpp:443] resx13_concat_resx13_concat_relu_0_split -> resx13_concat_resx13_concat_relu_0_split_1
I0813 20:57:31.705857 16938 net.cpp:141] Setting up resx13_concat_resx13_concat_relu_0_split
I0813 20:57:31.705865 16938 net.cpp:148] Top shape: 80 960 7 7 (3763200)
I0813 20:57:31.705874 16938 net.cpp:148] Top shape: 80 960 7 7 (3763200)
I0813 20:57:31.705878 16938 net.cpp:156] Memory required for data: 5095749440
I0813 20:57:31.705880 16938 layer_factory.hpp:77] Creating layer resx14_conv1
I0813 20:57:31.705888 16938 net.cpp:91] Creating Layer resx14_conv1
I0813 20:57:31.705893 16938 net.cpp:469] resx14_conv1 <- resx13_concat_resx13_concat_relu_0_split_0
I0813 20:57:31.705898 16938 net.cpp:443] resx14_conv1 -> resx14_conv1
I0813 20:57:31.708339 16938 net.cpp:141] Setting up resx14_conv1
I0813 20:57:31.708351 16938 net.cpp:148] Top shape: 80 240 7 7 (940800)
I0813 20:57:31.708355 16938 net.cpp:156] Memory required for data: 5099512640
I0813 20:57:31.708359 16938 layer_factory.hpp:77] Creating layer resx14_conv1_bn
I0813 20:57:31.708366 16938 net.cpp:91] Creating Layer resx14_conv1_bn
I0813 20:57:31.708369 16938 net.cpp:469] resx14_conv1_bn <- resx14_conv1
I0813 20:57:31.708376 16938 net.cpp:430] resx14_conv1_bn -> resx14_conv1 (in-place)
I0813 20:57:31.708515 16938 net.cpp:141] Setting up resx14_conv1_bn
I0813 20:57:31.708523 16938 net.cpp:148] Top shape: 80 240 7 7 (940800)
I0813 20:57:31.708525 16938 net.cpp:156] Memory required for data: 5103275840
I0813 20:57:31.708531 16938 layer_factory.hpp:77] Creating layer resx14_conv1_scale
I0813 20:57:31.708537 16938 net.cpp:91] Creating Layer resx14_conv1_scale
I0813 20:57:31.708541 16938 net.cpp:469] resx14_conv1_scale <- resx14_conv1
I0813 20:57:31.708545 16938 net.cpp:430] resx14_conv1_scale -> resx14_conv1 (in-place)
I0813 20:57:31.708575 16938 layer_factory.hpp:77] Creating layer resx14_conv1_scale
I0813 20:57:31.708662 16938 net.cpp:141] Setting up resx14_conv1_scale
I0813 20:57:31.708669 16938 net.cpp:148] Top shape: 80 240 7 7 (940800)
I0813 20:57:31.708673 16938 net.cpp:156] Memory required for data: 5107039040
I0813 20:57:31.708678 16938 layer_factory.hpp:77] Creating layer resx14_conv1_relu
I0813 20:57:31.708683 16938 net.cpp:91] Creating Layer resx14_conv1_relu
I0813 20:57:31.708686 16938 net.cpp:469] resx14_conv1_relu <- resx14_conv1
I0813 20:57:31.708690 16938 net.cpp:430] resx14_conv1_relu -> resx14_conv1 (in-place)
I0813 20:57:31.708695 16938 net.cpp:141] Setting up resx14_conv1_relu
I0813 20:57:31.708699 16938 net.cpp:148] Top shape: 80 240 7 7 (940800)
I0813 20:57:31.708703 16938 net.cpp:156] Memory required for data: 5110802240
I0813 20:57:31.708705 16938 layer_factory.hpp:77] Creating layer shuffle14
I0813 20:57:31.708712 16938 net.cpp:91] Creating Layer shuffle14
I0813 20:57:31.708715 16938 net.cpp:469] shuffle14 <- resx14_conv1
I0813 20:57:31.708720 16938 net.cpp:443] shuffle14 -> shuffle14
I0813 20:57:31.708739 16938 net.cpp:141] Setting up shuffle14
I0813 20:57:31.708745 16938 net.cpp:148] Top shape: 80 240 7 7 (940800)
I0813 20:57:31.708747 16938 net.cpp:156] Memory required for data: 5114565440
I0813 20:57:31.708750 16938 layer_factory.hpp:77] Creating layer resx14_conv2
I0813 20:57:31.708756 16938 net.cpp:91] Creating Layer resx14_conv2
I0813 20:57:31.708760 16938 net.cpp:469] resx14_conv2 <- shuffle14
I0813 20:57:31.708766 16938 net.cpp:443] resx14_conv2 -> resx14_conv2
I0813 20:57:31.708899 16938 net.cpp:141] Setting up resx14_conv2
I0813 20:57:31.708909 16938 net.cpp:148] Top shape: 80 240 7 7 (940800)
I0813 20:57:31.708911 16938 net.cpp:156] Memory required for data: 5118328640
I0813 20:57:31.708916 16938 layer_factory.hpp:77] Creating layer resx14_conv2_bn
I0813 20:57:31.708923 16938 net.cpp:91] Creating Layer resx14_conv2_bn
I0813 20:57:31.708927 16938 net.cpp:469] resx14_conv2_bn <- resx14_conv2
I0813 20:57:31.708931 16938 net.cpp:430] resx14_conv2_bn -> resx14_conv2 (in-place)
I0813 20:57:31.709065 16938 net.cpp:141] Setting up resx14_conv2_bn
I0813 20:57:31.709072 16938 net.cpp:148] Top shape: 80 240 7 7 (940800)
I0813 20:57:31.709080 16938 net.cpp:156] Memory required for data: 5122091840
I0813 20:57:31.709087 16938 layer_factory.hpp:77] Creating layer resx14_conv2_scale
I0813 20:57:31.709095 16938 net.cpp:91] Creating Layer resx14_conv2_scale
I0813 20:57:31.709102 16938 net.cpp:469] resx14_conv2_scale <- resx14_conv2
I0813 20:57:31.709112 16938 net.cpp:430] resx14_conv2_scale -> resx14_conv2 (in-place)
I0813 20:57:31.709142 16938 layer_factory.hpp:77] Creating layer resx14_conv2_scale
I0813 20:57:31.709225 16938 net.cpp:141] Setting up resx14_conv2_scale
I0813 20:57:31.709231 16938 net.cpp:148] Top shape: 80 240 7 7 (940800)
I0813 20:57:31.709234 16938 net.cpp:156] Memory required for data: 5125855040
I0813 20:57:31.709239 16938 layer_factory.hpp:77] Creating layer resx14_conv3
I0813 20:57:31.709249 16938 net.cpp:91] Creating Layer resx14_conv3
I0813 20:57:31.709252 16938 net.cpp:469] resx14_conv3 <- resx14_conv2
I0813 20:57:31.709257 16938 net.cpp:443] resx14_conv3 -> resx14_conv3
I0813 20:57:31.711192 16938 net.cpp:141] Setting up resx14_conv3
I0813 20:57:31.711199 16938 net.cpp:148] Top shape: 80 960 7 7 (3763200)
I0813 20:57:31.711202 16938 net.cpp:156] Memory required for data: 5140907840
I0813 20:57:31.711207 16938 layer_factory.hpp:77] Creating layer resx14_conv3_bn
I0813 20:57:31.711212 16938 net.cpp:91] Creating Layer resx14_conv3_bn
I0813 20:57:31.711215 16938 net.cpp:469] resx14_conv3_bn <- resx14_conv3
I0813 20:57:31.711222 16938 net.cpp:430] resx14_conv3_bn -> resx14_conv3 (in-place)
I0813 20:57:31.711364 16938 net.cpp:141] Setting up resx14_conv3_bn
I0813 20:57:31.711371 16938 net.cpp:148] Top shape: 80 960 7 7 (3763200)
I0813 20:57:31.711374 16938 net.cpp:156] Memory required for data: 5155960640
I0813 20:57:31.711380 16938 layer_factory.hpp:77] Creating layer resx14_conv3_scale
I0813 20:57:31.711386 16938 net.cpp:91] Creating Layer resx14_conv3_scale
I0813 20:57:31.711390 16938 net.cpp:469] resx14_conv3_scale <- resx14_conv3
I0813 20:57:31.711395 16938 net.cpp:430] resx14_conv3_scale -> resx14_conv3 (in-place)
I0813 20:57:31.711424 16938 layer_factory.hpp:77] Creating layer resx14_conv3_scale
I0813 20:57:31.711508 16938 net.cpp:141] Setting up resx14_conv3_scale
I0813 20:57:31.711514 16938 net.cpp:148] Top shape: 80 960 7 7 (3763200)
I0813 20:57:31.711519 16938 net.cpp:156] Memory required for data: 5171013440
I0813 20:57:31.711541 16938 layer_factory.hpp:77] Creating layer resx14_elewise
I0813 20:57:31.711547 16938 net.cpp:91] Creating Layer resx14_elewise
I0813 20:57:31.711551 16938 net.cpp:469] resx14_elewise <- resx13_concat_resx13_concat_relu_0_split_1
I0813 20:57:31.711556 16938 net.cpp:469] resx14_elewise <- resx14_conv3
I0813 20:57:31.711560 16938 net.cpp:443] resx14_elewise -> resx14_elewise
I0813 20:57:31.711581 16938 net.cpp:141] Setting up resx14_elewise
I0813 20:57:31.711586 16938 net.cpp:148] Top shape: 80 960 7 7 (3763200)
I0813 20:57:31.711589 16938 net.cpp:156] Memory required for data: 5186066240
I0813 20:57:31.711593 16938 layer_factory.hpp:77] Creating layer resx14_elewise_relu
I0813 20:57:31.711598 16938 net.cpp:91] Creating Layer resx14_elewise_relu
I0813 20:57:31.711601 16938 net.cpp:469] resx14_elewise_relu <- resx14_elewise
I0813 20:57:31.711608 16938 net.cpp:430] resx14_elewise_relu -> resx14_elewise (in-place)
I0813 20:57:31.711613 16938 net.cpp:141] Setting up resx14_elewise_relu
I0813 20:57:31.711617 16938 net.cpp:148] Top shape: 80 960 7 7 (3763200)
I0813 20:57:31.711621 16938 net.cpp:156] Memory required for data: 5201119040
I0813 20:57:31.711624 16938 layer_factory.hpp:77] Creating layer resx14_elewise_resx14_elewise_relu_0_split
I0813 20:57:31.711628 16938 net.cpp:91] Creating Layer resx14_elewise_resx14_elewise_relu_0_split
I0813 20:57:31.711632 16938 net.cpp:469] resx14_elewise_resx14_elewise_relu_0_split <- resx14_elewise
I0813 20:57:31.711635 16938 net.cpp:443] resx14_elewise_resx14_elewise_relu_0_split -> resx14_elewise_resx14_elewise_relu_0_split_0
I0813 20:57:31.711640 16938 net.cpp:443] resx14_elewise_resx14_elewise_relu_0_split -> resx14_elewise_resx14_elewise_relu_0_split_1
I0813 20:57:31.711668 16938 net.cpp:141] Setting up resx14_elewise_resx14_elewise_relu_0_split
I0813 20:57:31.711673 16938 net.cpp:148] Top shape: 80 960 7 7 (3763200)
I0813 20:57:31.711676 16938 net.cpp:148] Top shape: 80 960 7 7 (3763200)
I0813 20:57:31.711683 16938 net.cpp:156] Memory required for data: 5231224640
I0813 20:57:31.711690 16938 layer_factory.hpp:77] Creating layer resx15_conv1
I0813 20:57:31.711699 16938 net.cpp:91] Creating Layer resx15_conv1
I0813 20:57:31.711702 16938 net.cpp:469] resx15_conv1 <- resx14_elewise_resx14_elewise_relu_0_split_0
I0813 20:57:31.711706 16938 net.cpp:443] resx15_conv1 -> resx15_conv1
I0813 20:57:31.713788 16938 net.cpp:141] Setting up resx15_conv1
I0813 20:57:31.713798 16938 net.cpp:148] Top shape: 80 240 7 7 (940800)
I0813 20:57:31.713801 16938 net.cpp:156] Memory required for data: 5234987840
I0813 20:57:31.713806 16938 layer_factory.hpp:77] Creating layer resx15_conv1_bn
I0813 20:57:31.713812 16938 net.cpp:91] Creating Layer resx15_conv1_bn
I0813 20:57:31.713816 16938 net.cpp:469] resx15_conv1_bn <- resx15_conv1
I0813 20:57:31.713820 16938 net.cpp:430] resx15_conv1_bn -> resx15_conv1 (in-place)
I0813 20:57:31.713958 16938 net.cpp:141] Setting up resx15_conv1_bn
I0813 20:57:31.713963 16938 net.cpp:148] Top shape: 80 240 7 7 (940800)
I0813 20:57:31.713966 16938 net.cpp:156] Memory required for data: 5238751040
I0813 20:57:31.713973 16938 layer_factory.hpp:77] Creating layer resx15_conv1_scale
I0813 20:57:31.713979 16938 net.cpp:91] Creating Layer resx15_conv1_scale
I0813 20:57:31.713982 16938 net.cpp:469] resx15_conv1_scale <- resx15_conv1
I0813 20:57:31.713986 16938 net.cpp:430] resx15_conv1_scale -> resx15_conv1 (in-place)
I0813 20:57:31.714018 16938 layer_factory.hpp:77] Creating layer resx15_conv1_scale
I0813 20:57:31.714103 16938 net.cpp:141] Setting up resx15_conv1_scale
I0813 20:57:31.714112 16938 net.cpp:148] Top shape: 80 240 7 7 (940800)
I0813 20:57:31.714114 16938 net.cpp:156] Memory required for data: 5242514240
I0813 20:57:31.714120 16938 layer_factory.hpp:77] Creating layer resx15_conv1_relu
I0813 20:57:31.714125 16938 net.cpp:91] Creating Layer resx15_conv1_relu
I0813 20:57:31.714128 16938 net.cpp:469] resx15_conv1_relu <- resx15_conv1
I0813 20:57:31.714133 16938 net.cpp:430] resx15_conv1_relu -> resx15_conv1 (in-place)
I0813 20:57:31.714138 16938 net.cpp:141] Setting up resx15_conv1_relu
I0813 20:57:31.714141 16938 net.cpp:148] Top shape: 80 240 7 7 (940800)
I0813 20:57:31.714144 16938 net.cpp:156] Memory required for data: 5246277440
I0813 20:57:31.714148 16938 layer_factory.hpp:77] Creating layer shuffle15
I0813 20:57:31.714151 16938 net.cpp:91] Creating Layer shuffle15
I0813 20:57:31.714154 16938 net.cpp:469] shuffle15 <- resx15_conv1
I0813 20:57:31.714160 16938 net.cpp:443] shuffle15 -> shuffle15
I0813 20:57:31.714179 16938 net.cpp:141] Setting up shuffle15
I0813 20:57:31.714184 16938 net.cpp:148] Top shape: 80 240 7 7 (940800)
I0813 20:57:31.714187 16938 net.cpp:156] Memory required for data: 5250040640
I0813 20:57:31.714190 16938 layer_factory.hpp:77] Creating layer resx15_conv2
I0813 20:57:31.714196 16938 net.cpp:91] Creating Layer resx15_conv2
I0813 20:57:31.714200 16938 net.cpp:469] resx15_conv2 <- shuffle15
I0813 20:57:31.714206 16938 net.cpp:443] resx15_conv2 -> resx15_conv2
I0813 20:57:31.714340 16938 net.cpp:141] Setting up resx15_conv2
I0813 20:57:31.714349 16938 net.cpp:148] Top shape: 80 240 7 7 (940800)
I0813 20:57:31.714352 16938 net.cpp:156] Memory required for data: 5253803840
I0813 20:57:31.714357 16938 layer_factory.hpp:77] Creating layer resx15_conv2_bn
I0813 20:57:31.714363 16938 net.cpp:91] Creating Layer resx15_conv2_bn
I0813 20:57:31.714367 16938 net.cpp:469] resx15_conv2_bn <- resx15_conv2
I0813 20:57:31.714373 16938 net.cpp:430] resx15_conv2_bn -> resx15_conv2 (in-place)
I0813 20:57:31.714505 16938 net.cpp:141] Setting up resx15_conv2_bn
I0813 20:57:31.714511 16938 net.cpp:148] Top shape: 80 240 7 7 (940800)
I0813 20:57:31.714514 16938 net.cpp:156] Memory required for data: 5257567040
I0813 20:57:31.714520 16938 layer_factory.hpp:77] Creating layer resx15_conv2_scale
I0813 20:57:31.714526 16938 net.cpp:91] Creating Layer resx15_conv2_scale
I0813 20:57:31.714529 16938 net.cpp:469] resx15_conv2_scale <- resx15_conv2
I0813 20:57:31.714540 16938 net.cpp:430] resx15_conv2_scale -> resx15_conv2 (in-place)
I0813 20:57:31.714574 16938 layer_factory.hpp:77] Creating layer resx15_conv2_scale
I0813 20:57:31.714658 16938 net.cpp:141] Setting up resx15_conv2_scale
I0813 20:57:31.714663 16938 net.cpp:148] Top shape: 80 240 7 7 (940800)
I0813 20:57:31.714666 16938 net.cpp:156] Memory required for data: 5261330240
I0813 20:57:31.714671 16938 layer_factory.hpp:77] Creating layer resx15_conv3
I0813 20:57:31.714680 16938 net.cpp:91] Creating Layer resx15_conv3
I0813 20:57:31.714684 16938 net.cpp:469] resx15_conv3 <- resx15_conv2
I0813 20:57:31.714689 16938 net.cpp:443] resx15_conv3 -> resx15_conv3
I0813 20:57:31.717151 16938 net.cpp:141] Setting up resx15_conv3
I0813 20:57:31.717164 16938 net.cpp:148] Top shape: 80 960 7 7 (3763200)
I0813 20:57:31.717166 16938 net.cpp:156] Memory required for data: 5276383040
I0813 20:57:31.717172 16938 layer_factory.hpp:77] Creating layer resx15_conv3_bn
I0813 20:57:31.717180 16938 net.cpp:91] Creating Layer resx15_conv3_bn
I0813 20:57:31.717183 16938 net.cpp:469] resx15_conv3_bn <- resx15_conv3
I0813 20:57:31.717188 16938 net.cpp:430] resx15_conv3_bn -> resx15_conv3 (in-place)
I0813 20:57:31.717332 16938 net.cpp:141] Setting up resx15_conv3_bn
I0813 20:57:31.717339 16938 net.cpp:148] Top shape: 80 960 7 7 (3763200)
I0813 20:57:31.717342 16938 net.cpp:156] Memory required for data: 5291435840
I0813 20:57:31.717350 16938 layer_factory.hpp:77] Creating layer resx15_conv3_scale
I0813 20:57:31.717356 16938 net.cpp:91] Creating Layer resx15_conv3_scale
I0813 20:57:31.717360 16938 net.cpp:469] resx15_conv3_scale <- resx15_conv3
I0813 20:57:31.717365 16938 net.cpp:430] resx15_conv3_scale -> resx15_conv3 (in-place)
I0813 20:57:31.717396 16938 layer_factory.hpp:77] Creating layer resx15_conv3_scale
I0813 20:57:31.717483 16938 net.cpp:141] Setting up resx15_conv3_scale
I0813 20:57:31.717491 16938 net.cpp:148] Top shape: 80 960 7 7 (3763200)
I0813 20:57:31.717494 16938 net.cpp:156] Memory required for data: 5306488640
I0813 20:57:31.717499 16938 layer_factory.hpp:77] Creating layer resx15_elewise
I0813 20:57:31.717504 16938 net.cpp:91] Creating Layer resx15_elewise
I0813 20:57:31.717509 16938 net.cpp:469] resx15_elewise <- resx14_elewise_resx14_elewise_relu_0_split_1
I0813 20:57:31.717512 16938 net.cpp:469] resx15_elewise <- resx15_conv3
I0813 20:57:31.717519 16938 net.cpp:443] resx15_elewise -> resx15_elewise
I0813 20:57:31.717536 16938 net.cpp:141] Setting up resx15_elewise
I0813 20:57:31.717541 16938 net.cpp:148] Top shape: 80 960 7 7 (3763200)
I0813 20:57:31.717545 16938 net.cpp:156] Memory required for data: 5321541440
I0813 20:57:31.717547 16938 layer_factory.hpp:77] Creating layer resx15_elewise_relu
I0813 20:57:31.717555 16938 net.cpp:91] Creating Layer resx15_elewise_relu
I0813 20:57:31.717557 16938 net.cpp:469] resx15_elewise_relu <- resx15_elewise
I0813 20:57:31.717561 16938 net.cpp:430] resx15_elewise_relu -> resx15_elewise (in-place)
I0813 20:57:31.717566 16938 net.cpp:141] Setting up resx15_elewise_relu
I0813 20:57:31.717571 16938 net.cpp:148] Top shape: 80 960 7 7 (3763200)
I0813 20:57:31.717573 16938 net.cpp:156] Memory required for data: 5336594240
I0813 20:57:31.717576 16938 layer_factory.hpp:77] Creating layer resx15_elewise_resx15_elewise_relu_0_split
I0813 20:57:31.717581 16938 net.cpp:91] Creating Layer resx15_elewise_resx15_elewise_relu_0_split
I0813 20:57:31.717583 16938 net.cpp:469] resx15_elewise_resx15_elewise_relu_0_split <- resx15_elewise
I0813 20:57:31.717587 16938 net.cpp:443] resx15_elewise_resx15_elewise_relu_0_split -> resx15_elewise_resx15_elewise_relu_0_split_0
I0813 20:57:31.717592 16938 net.cpp:443] resx15_elewise_resx15_elewise_relu_0_split -> resx15_elewise_resx15_elewise_relu_0_split_1
I0813 20:57:31.717618 16938 net.cpp:141] Setting up resx15_elewise_resx15_elewise_relu_0_split
I0813 20:57:31.717623 16938 net.cpp:148] Top shape: 80 960 7 7 (3763200)
I0813 20:57:31.717628 16938 net.cpp:148] Top shape: 80 960 7 7 (3763200)
I0813 20:57:31.717630 16938 net.cpp:156] Memory required for data: 5366699840
I0813 20:57:31.717638 16938 layer_factory.hpp:77] Creating layer resx16_conv1
I0813 20:57:31.717651 16938 net.cpp:91] Creating Layer resx16_conv1
I0813 20:57:31.717655 16938 net.cpp:469] resx16_conv1 <- resx15_elewise_resx15_elewise_relu_0_split_0
I0813 20:57:31.717660 16938 net.cpp:443] resx16_conv1 -> resx16_conv1
I0813 20:57:31.719601 16938 net.cpp:141] Setting up resx16_conv1
I0813 20:57:31.719609 16938 net.cpp:148] Top shape: 80 240 7 7 (940800)
I0813 20:57:31.719611 16938 net.cpp:156] Memory required for data: 5370463040
I0813 20:57:31.719616 16938 layer_factory.hpp:77] Creating layer resx16_conv1_bn
I0813 20:57:31.719624 16938 net.cpp:91] Creating Layer resx16_conv1_bn
I0813 20:57:31.719626 16938 net.cpp:469] resx16_conv1_bn <- resx16_conv1
I0813 20:57:31.719631 16938 net.cpp:430] resx16_conv1_bn -> resx16_conv1 (in-place)
I0813 20:57:31.719769 16938 net.cpp:141] Setting up resx16_conv1_bn
I0813 20:57:31.719775 16938 net.cpp:148] Top shape: 80 240 7 7 (940800)
I0813 20:57:31.719779 16938 net.cpp:156] Memory required for data: 5374226240
I0813 20:57:31.719786 16938 layer_factory.hpp:77] Creating layer resx16_conv1_scale
I0813 20:57:31.719791 16938 net.cpp:91] Creating Layer resx16_conv1_scale
I0813 20:57:31.719795 16938 net.cpp:469] resx16_conv1_scale <- resx16_conv1
I0813 20:57:31.719799 16938 net.cpp:430] resx16_conv1_scale -> resx16_conv1 (in-place)
I0813 20:57:31.719828 16938 layer_factory.hpp:77] Creating layer resx16_conv1_scale
I0813 20:57:31.719911 16938 net.cpp:141] Setting up resx16_conv1_scale
I0813 20:57:31.719918 16938 net.cpp:148] Top shape: 80 240 7 7 (940800)
I0813 20:57:31.719920 16938 net.cpp:156] Memory required for data: 5377989440
I0813 20:57:31.719925 16938 layer_factory.hpp:77] Creating layer resx16_conv1_relu
I0813 20:57:31.719931 16938 net.cpp:91] Creating Layer resx16_conv1_relu
I0813 20:57:31.719935 16938 net.cpp:469] resx16_conv1_relu <- resx16_conv1
I0813 20:57:31.719939 16938 net.cpp:430] resx16_conv1_relu -> resx16_conv1 (in-place)
I0813 20:57:31.719944 16938 net.cpp:141] Setting up resx16_conv1_relu
I0813 20:57:31.719949 16938 net.cpp:148] Top shape: 80 240 7 7 (940800)
I0813 20:57:31.719951 16938 net.cpp:156] Memory required for data: 5381752640
I0813 20:57:31.719954 16938 layer_factory.hpp:77] Creating layer shuffle16
I0813 20:57:31.719959 16938 net.cpp:91] Creating Layer shuffle16
I0813 20:57:31.719962 16938 net.cpp:469] shuffle16 <- resx16_conv1
I0813 20:57:31.719966 16938 net.cpp:443] shuffle16 -> shuffle16
I0813 20:57:31.719985 16938 net.cpp:141] Setting up shuffle16
I0813 20:57:31.719990 16938 net.cpp:148] Top shape: 80 240 7 7 (940800)
I0813 20:57:31.719992 16938 net.cpp:156] Memory required for data: 5385515840
I0813 20:57:31.719995 16938 layer_factory.hpp:77] Creating layer resx16_conv2
I0813 20:57:31.720001 16938 net.cpp:91] Creating Layer resx16_conv2
I0813 20:57:31.720005 16938 net.cpp:469] resx16_conv2 <- shuffle16
I0813 20:57:31.720010 16938 net.cpp:443] resx16_conv2 -> resx16_conv2
I0813 20:57:31.720150 16938 net.cpp:141] Setting up resx16_conv2
I0813 20:57:31.720160 16938 net.cpp:148] Top shape: 80 240 7 7 (940800)
I0813 20:57:31.720162 16938 net.cpp:156] Memory required for data: 5389279040
I0813 20:57:31.720166 16938 layer_factory.hpp:77] Creating layer resx16_conv2_bn
I0813 20:57:31.720172 16938 net.cpp:91] Creating Layer resx16_conv2_bn
I0813 20:57:31.720176 16938 net.cpp:469] resx16_conv2_bn <- resx16_conv2
I0813 20:57:31.720181 16938 net.cpp:430] resx16_conv2_bn -> resx16_conv2 (in-place)
I0813 20:57:31.720322 16938 net.cpp:141] Setting up resx16_conv2_bn
I0813 20:57:31.720329 16938 net.cpp:148] Top shape: 80 240 7 7 (940800)
I0813 20:57:31.720331 16938 net.cpp:156] Memory required for data: 5393042240
I0813 20:57:31.720337 16938 layer_factory.hpp:77] Creating layer resx16_conv2_scale
I0813 20:57:31.720343 16938 net.cpp:91] Creating Layer resx16_conv2_scale
I0813 20:57:31.720346 16938 net.cpp:469] resx16_conv2_scale <- resx16_conv2
I0813 20:57:31.720352 16938 net.cpp:430] resx16_conv2_scale -> resx16_conv2 (in-place)
I0813 20:57:31.720381 16938 layer_factory.hpp:77] Creating layer resx16_conv2_scale
I0813 20:57:31.720468 16938 net.cpp:141] Setting up resx16_conv2_scale
I0813 20:57:31.720479 16938 net.cpp:148] Top shape: 80 240 7 7 (940800)
I0813 20:57:31.720482 16938 net.cpp:156] Memory required for data: 5396805440
I0813 20:57:31.720489 16938 layer_factory.hpp:77] Creating layer resx16_conv3
I0813 20:57:31.720496 16938 net.cpp:91] Creating Layer resx16_conv3
I0813 20:57:31.720499 16938 net.cpp:469] resx16_conv3 <- resx16_conv2
I0813 20:57:31.720506 16938 net.cpp:443] resx16_conv3 -> resx16_conv3
I0813 20:57:31.722529 16938 net.cpp:141] Setting up resx16_conv3
I0813 20:57:31.722538 16938 net.cpp:148] Top shape: 80 960 7 7 (3763200)
I0813 20:57:31.722542 16938 net.cpp:156] Memory required for data: 5411858240
I0813 20:57:31.722546 16938 layer_factory.hpp:77] Creating layer resx16_conv3_bn
I0813 20:57:31.722551 16938 net.cpp:91] Creating Layer resx16_conv3_bn
I0813 20:57:31.722554 16938 net.cpp:469] resx16_conv3_bn <- resx16_conv3
I0813 20:57:31.722559 16938 net.cpp:430] resx16_conv3_bn -> resx16_conv3 (in-place)
I0813 20:57:31.722703 16938 net.cpp:141] Setting up resx16_conv3_bn
I0813 20:57:31.722710 16938 net.cpp:148] Top shape: 80 960 7 7 (3763200)
I0813 20:57:31.722713 16938 net.cpp:156] Memory required for data: 5426911040
I0813 20:57:31.722719 16938 layer_factory.hpp:77] Creating layer resx16_conv3_scale
I0813 20:57:31.722725 16938 net.cpp:91] Creating Layer resx16_conv3_scale
I0813 20:57:31.722728 16938 net.cpp:469] resx16_conv3_scale <- resx16_conv3
I0813 20:57:31.722733 16938 net.cpp:430] resx16_conv3_scale -> resx16_conv3 (in-place)
I0813 20:57:31.722765 16938 layer_factory.hpp:77] Creating layer resx16_conv3_scale
I0813 20:57:31.722852 16938 net.cpp:141] Setting up resx16_conv3_scale
I0813 20:57:31.722859 16938 net.cpp:148] Top shape: 80 960 7 7 (3763200)
I0813 20:57:31.722862 16938 net.cpp:156] Memory required for data: 5441963840
I0813 20:57:31.722867 16938 layer_factory.hpp:77] Creating layer resx16_elewise
I0813 20:57:31.722872 16938 net.cpp:91] Creating Layer resx16_elewise
I0813 20:57:31.722877 16938 net.cpp:469] resx16_elewise <- resx15_elewise_resx15_elewise_relu_0_split_1
I0813 20:57:31.722880 16938 net.cpp:469] resx16_elewise <- resx16_conv3
I0813 20:57:31.722884 16938 net.cpp:443] resx16_elewise -> resx16_elewise
I0813 20:57:31.722905 16938 net.cpp:141] Setting up resx16_elewise
I0813 20:57:31.722910 16938 net.cpp:148] Top shape: 80 960 7 7 (3763200)
I0813 20:57:31.722913 16938 net.cpp:156] Memory required for data: 5457016640
I0813 20:57:31.722916 16938 layer_factory.hpp:77] Creating layer resx16_elewise_relu
I0813 20:57:31.722923 16938 net.cpp:91] Creating Layer resx16_elewise_relu
I0813 20:57:31.722926 16938 net.cpp:469] resx16_elewise_relu <- resx16_elewise
I0813 20:57:31.722930 16938 net.cpp:430] resx16_elewise_relu -> resx16_elewise (in-place)
I0813 20:57:31.722935 16938 net.cpp:141] Setting up resx16_elewise_relu
I0813 20:57:31.722939 16938 net.cpp:148] Top shape: 80 960 7 7 (3763200)
I0813 20:57:31.722942 16938 net.cpp:156] Memory required for data: 5472069440
I0813 20:57:31.722945 16938 layer_factory.hpp:77] Creating layer pool_ave
I0813 20:57:31.722950 16938 net.cpp:91] Creating Layer pool_ave
I0813 20:57:31.722954 16938 net.cpp:469] pool_ave <- resx16_elewise
I0813 20:57:31.722959 16938 net.cpp:443] pool_ave -> pool_ave
I0813 20:57:31.722976 16938 net.cpp:141] Setting up pool_ave
I0813 20:57:31.722982 16938 net.cpp:148] Top shape: 80 960 1 1 (76800)
I0813 20:57:31.722985 16938 net.cpp:156] Memory required for data: 5472376640
I0813 20:57:31.722988 16938 layer_factory.hpp:77] Creating layer fc1000
I0813 20:57:31.722995 16938 net.cpp:91] Creating Layer fc1000
I0813 20:57:31.722998 16938 net.cpp:469] fc1000 <- pool_ave
I0813 20:57:31.723004 16938 net.cpp:443] fc1000 -> fc1000
I0813 20:57:31.747998 16938 net.cpp:141] Setting up fc1000
I0813 20:57:31.748013 16938 net.cpp:148] Top shape: 80 1000 1 1 (80000)
I0813 20:57:31.748016 16938 net.cpp:156] Memory required for data: 5472696640
I0813 20:57:31.748023 16938 layer_factory.hpp:77] Creating layer loss
I0813 20:57:31.748034 16938 net.cpp:91] Creating Layer loss
I0813 20:57:31.748044 16938 net.cpp:469] loss <- fc1000
I0813 20:57:31.748047 16938 net.cpp:469] loss <- label
I0813 20:57:31.748055 16938 net.cpp:443] loss -> loss
I0813 20:57:31.748064 16938 layer_factory.hpp:77] Creating layer loss
…
