…
I0813 16:21:40.623427 30567 net.cpp:313] The NetState phase (0) differed from the phase (1) specified by a rule in layer accuracy
I0813 16:21:40.624317 30567 net.cpp:49] Initializing net from parameters: 
name: "shufflenet"
state {
  phase: TRAIN
}
layer {
  name: "data"
  type: "Data"
  top: "data"
  top: "label"
  include {
    phase: TRAIN
  }
  transform_param {
    scale: 0.017
    mirror: false
    crop_size: 224
    mean_value: 103.94
    mean_value: 116.78
    mean_value: 123.68
  }
  data_param {
    source: "/home/chenyao/ilsvrc12/ilsvrc12_train_lmdb"
    batch_size: 70
    backend: LMDB
  }
}
layer {
  name: "conv1"
  type: "Convolution"
  bottom: "data"
  top: "conv1"
  convolution_param {
    num_output: 24
    bias_term: false
    pad: 1
    kernel_size: 3
    stride: 2
    weight_filler {
      type: "msra"
    }
  }
}
layer {
  name: "conv1_bn"
  type: "BatchNorm"
  bottom: "conv1"
  top: "conv1"
  param {
    lr_mult: 0
    decay_mult: 0
  }
  param {
    lr_mult: 0
    decay_mult: 0
  }
  param {
    lr_mult: 0
    decay_mult: 0
  }
}
layer {
  name: "conv1_scale"
  type: "Scale"
  bottom: "conv1"
  top: "conv1"
  scale_param {
    filler {
      value: 1
    }
    bias_term: true
    bias_filler {
      value: 0
    }
  }
}
layer {
  name: "conv1_relu"
  type: "ReLU"
  bottom: "conv1"
  top: "conv1"
}
layer {
  name: "pool1"
  type: "Pooling"
  bottom: "conv1"
  top: "pool1"
  pooling_param {
    pool: MAX
    kernel_size: 3
    stride: 2
  }
}
layer {
  name: "resx1_match_conv"
  type: "Pooling"
  bottom: "pool1"
  top: "resx1_match_conv"
  pooling_param {
    pool: AVE
    kernel_size: 3
    stride: 2
  }
}
layer {
  name: "resx1_conv1"
  type: "Convolution"
  bottom: "pool1"
  top: "resx1_conv1"
  convolution_param {
    num_output: 54
    bias_term: false
    pad: 0
    kernel_size: 1
    stride: 1
    weight_filler {
      type: "msra"
    }
  }
}
layer {
  name: "resx1_conv1_bn"
  type: "BatchNorm"
  bottom: "resx1_conv1"
  top: "resx1_conv1"
  param {
    lr_mult: 0
    decay_mult: 0
  }
  param {
    lr_mult: 0
    decay_mult: 0
  }
  param {
    lr_mult: 0
    decay_mult: 0
  }
}
layer {
  name: "resx1_conv1_scale"
  type: "Scale"
  bottom: "resx1_conv1"
  top: "resx1_conv1"
  scale_param {
    filler {
      value: 1
    }
    bias_term: true
    bias_filler {
      value: 0
    }
  }
}
layer {
  name: "resx1_conv1_relu"
  type: "ReLU"
  bottom: "resx1_conv1"
  top: "resx1_conv1"
}
layer {
  name: "resx1_conv2"
  type: "ConvolutionDepthwise"
  bottom: "resx1_conv1"
  top: "resx1_conv2"
  convolution_param {
    num_output: 54
    bias_term: false
    pad: 1
    kernel_size: 3
    stride: 2
    weight_filler {
      type: "msra"
    }
  }
}
layer {
  name: "resx1_conv2_bn"
  type: "BatchNorm"
  bottom: "resx1_conv2"
  top: "resx1_conv2"
  param {
    lr_mult: 0
    decay_mult: 0
  }
  param {
    lr_mult: 0
    decay_mult: 0
  }
  param {
    lr_mult: 0
    decay_mult: 0
  }
}
layer {
  name: "resx1_conv2_scale"
  type: "Scale"
  bottom: "resx1_conv2"
  top: "resx1_conv2"
  scale_param {
    filler {
      value: 1
    }
    bias_term: true
    bias_filler {
      value: 0
    }
  }
}
layer {
  name: "resx1_conv3"
  type: "Convolution"
  bottom: "resx1_conv2"
  top: "resx1_conv3"
  convolution_param {
    num_output: 216
    bias_term: false
    pad: 0
    kernel_size: 1
    group: 3
    stride: 1
    weight_filler {
      type: "msra"
    }
  }
}
layer {
  name: "resx1_conv3_bn"
  type: "BatchNorm"
  bottom: "resx1_conv3"
  top: "resx1_conv3"
  param {
    lr_mult: 0
    decay_mult: 0
  }
  param {
    lr_mult: 0
    decay_mult: 0
  }
  param {
    lr_mult: 0
    decay_mult: 0
  }
}
layer {
  name: "resx1_conv3_scale"
  type: "Scale"
  bottom: "resx1_conv3"
  top: "resx1_conv3"
  scale_param {
    filler {
      value: 1
    }
    bias_term: true
    bias_filler {
      value: 0
    }
  }
}
layer {
  name: "resx1_concat"
  type: "Concat"
  bottom: "resx1_match_conv"
  bottom: "resx1_conv3"
  top: "resx1_concat"
}
layer {
  name: "resx1_concat_relu"
  type: "ReLU"
  bottom: "resx1_concat"
  top: "resx1_concat"
}
layer {
  name: "resx2_conv1"
  type: "Convolution"
  bottom: "resx1_concat"
  top: "resx2_conv1"
  convolution_param {
    num_output: 60
    bias_term: false
    pad: 0
    kernel_size: 1
    group: 3
    stride: 1
    weight_filler {
      type: "msra"
    }
  }
}
layer {
  name: "resx2_conv1_bn"
  type: "BatchNorm"
  bottom: "resx2_conv1"
  top: "resx2_conv1"
  param {
    lr_mult: 0
    decay_mult: 0
  }
  param {
    lr_mult: 0
    decay_mult: 0
  }
  param {
    lr_mult: 0
    decay_mult: 0
  }
}
layer {
  name: "resx2_conv1_scale"
  type: "Scale"
  bottom: "resx2_conv1"
  top: "resx2_conv1"
  scale_param {
    filler {
      value: 1
    }
    bias_term: true
    bias_filler {
      value: 0
    }
  }
}
layer {
  name: "resx2_conv1_relu"
  type: "ReLU"
  bottom: "resx2_conv1"
  top: "resx2_conv1"
}
layer {
  name: "shuffle2"
  type: "ShuffleChannel"
  bottom: "resx2_conv1"
  top: "resx2_conv1"
  shuffle_channel_param {
    group: 3
  }
}
layer {
  name: "resx2_conv2"
  type: "ConvolutionDepthwise"
  bottom: "resx2_conv1"
  top: "resx2_conv2"
  convolution_param {
    num_output: 60
    bias_term: false
    pad: 1
    kernel_size: 3
    stride: 1
    weight_filler {
      type: "msra"
    }
  }
}
layer {
  name: "resx2_conv2_bn"
  type: "BatchNorm"
  bottom: "resx2_conv2"
  top: "resx2_conv2"
  param {
    lr_mult: 0
    decay_mult: 0
  }
  param {
    lr_mult: 0
    decay_mult: 0
  }
  param {
    lr_mult: 0
    decay_mult: 0
  }
}
layer {
  name: "resx2_conv2_scale"
  type: "Scale"
  bottom: "resx2_conv2"
  top: "resx2_conv2"
  scale_param {
    filler {
      value: 1
    }
    bias_term: true
    bias_filler {
      value: 0
    }
  }
}
layer {
  name: "resx2_conv3"
  type: "Convolution"
  bottom: "resx2_conv2"
  top: "resx2_conv3"
  convolution_param {
    num_output: 240
    bias_term: false
    pad: 0
    kernel_size: 1
    group: 3
    stride: 1
    weight_filler {
      type: "msra"
    }
  }
}
layer {
  name: "resx2_conv3_bn"
  type: "BatchNorm"
  bottom: "resx2_conv3"
  top: "resx2_conv3"
  param {
    lr_mult: 0
    decay_mult: 0
  }
  param {
    lr_mult: 0
    decay_mult: 0
  }
  param {
    lr_mult: 0
    decay_mult: 0
  }
}
layer {
  name: "resx2_conv3_scale"
  type: "Scale"
  bottom: "resx2_conv3"
  top: "resx2_conv3"
  scale_param {
    filler {
      value: 1
    }
    bias_term: true
    bias_filler {
      value: 0
    }
  }
}
layer {
  name: "resx2_elewise"
  type: "Eltwise"
  bottom: "resx1_concat"
  bottom: "resx2_conv3"
  top: "resx2_elewise"
  eltwise_param {
    operation: SUM
  }
}
layer {
  name: "resx2_elewise_relu"
  type: "ReLU"
  bottom: "resx2_elewise"
  top: "resx2_elewise"
}
layer {
  name: "resx3_conv1"
  type: "Convolution"
  bottom: "resx2_elewise"
  top: "resx3_conv1"
  convolution_param {
    num_output: 60
    bias_term: false
    pad: 0
    kernel_size: 1
    group: 3
    stride: 1
    weight_filler {
      type: "msra"
    }
  }
}
layer {
  name: "resx3_conv1_bn"
  type: "BatchNorm"
  bottom: "resx3_conv1"
  top: "resx3_conv1"
  param {
    lr_mult: 0
    decay_mult: 0
  }
  param {
    lr_mult: 0
    decay_mult: 0
  }
  param {
    lr_mult: 0
    decay_mult: 0
  }
}
layer {
  name: "resx3_conv1_scale"
  type: "Scale"
  bottom: "resx3_conv1"
  top: "resx3_conv1"
  scale_param {
    filler {
      value: 1
    }
    bias_term: true
    bias_filler {
      value: 0
    }
  }
}
layer {
  name: "resx3_conv1_relu"
  type: "ReLU"
  bottom: "resx3_conv1"
  top: "resx3_conv1"
}
layer {
  name: "shuffle3"
  type: "ShuffleChannel"
  bottom: "resx3_conv1"
  top: "resx3_conv1"
  shuffle_channel_param {
    group: 3
  }
}
layer {
  name: "resx3_conv2"
  type: "ConvolutionDepthwise"
  bottom: "resx3_conv1"
  top: "resx3_conv2"
  convolution_param {
    num_output: 60
    bias_term: false
    pad: 1
    kernel_size: 3
    stride: 1
    weight_filler {
      type: "msra"
    }
  }
}
layer {
  name: "resx3_conv2_bn"
  type: "BatchNorm"
  bottom: "resx3_conv2"
  top: "resx3_conv2"
  param {
    lr_mult: 0
    decay_mult: 0
  }
  param {
    lr_mult: 0
    decay_mult: 0
  }
  param {
    lr_mult: 0
    decay_mult: 0
  }
}
layer {
  name: "resx3_conv2_scale"
  type: "Scale"
  bottom: "resx3_conv2"
  top: "resx3_conv2"
  scale_param {
    filler {
      value: 1
    }
    bias_term: true
    bias_filler {
      value: 0
    }
  }
}
layer {
  name: "resx3_conv3"
  type: "Convolution"
  bottom: "resx3_conv2"
  top: "resx3_conv3"
  convolution_param {
    num_output: 240
    bias_term: false
    pad: 0
    kernel_size: 1
    group: 3
    stride: 1
    weight_filler {
      type: "msra"
    }
  }
}
layer {
  name: "resx3_conv3_bn"
  type: "BatchNorm"
  bottom: "resx3_conv3"
  top: "resx3_conv3"
  param {
    lr_mult: 0
    decay_mult: 0
  }
  param {
    lr_mult: 0
    decay_mult: 0
  }
  param {
    lr_mult: 0
    decay_mult: 0
  }
}
layer {
  name: "resx3_conv3_scale"
  type: "Scale"
  bottom: "resx3_conv3"
  top: "resx3_conv3"
  scale_param {
    filler {
      value: 1
    }
    bias_term: true
    bias_filler {
      value: 0
    }
  }
}
layer {
  name: "resx3_elewise"
  type: "Eltwise"
  bottom: "resx2_elewise"
  bottom: "resx3_conv3"
  top: "resx3_elewise"
  eltwise_param {
    operation: SUM
  }
}
layer {
  name: "resx3_elewise_relu"
  type: "ReLU"
  bottom: "resx3_elewise"
  top: "resx3_elewise"
}
layer {
  name: "resx4_conv1"
  type: "Convolution"
  bottom: "resx3_elewise"
  top: "resx4_conv1"
  convolution_param {
    num_output: 60
    bias_term: false
    pad: 0
    kernel_size: 1
    group: 3
    stride: 1
    weight_filler {
      type: "msra"
    }
  }
}
layer {
  name: "resx4_conv1_bn"
  type: "BatchNorm"
  bottom: "resx4_conv1"
  top: "resx4_conv1"
  param {
    lr_mult: 0
    decay_mult: 0
  }
  param {
    lr_mult: 0
    decay_mult: 0
  }
  param {
    lr_mult: 0
    decay_mult: 0
  }
}
layer {
  name: "resx4_conv1_scale"
  type: "Scale"
  bottom: "resx4_conv1"
  top: "resx4_conv1"
  scale_param {
    filler {
      value: 1
    }
    bias_term: true
    bias_filler {
      value: 0
    }
  }
}
layer {
  name: "resx4_conv1_relu"
  type: "ReLU"
  bottom: "resx4_conv1"
  top: "resx4_conv1"
}
layer {
  name: "shuffle4"
  type: "ShuffleChannel"
  bottom: "resx4_conv1"
  top: "resx4_conv1"
  shuffle_channel_param {
    group: 3
  }
}
layer {
  name: "resx4_conv2"
  type: "ConvolutionDepthwise"
  bottom: "resx4_conv1"
  top: "resx4_conv2"
  convolution_param {
    num_output: 60
    bias_term: false
    pad: 1
    kernel_size: 3
    stride: 1
    weight_filler {
      type: "msra"
    }
  }
}
layer {
  name: "resx4_conv2_bn"
  type: "BatchNorm"
  bottom: "resx4_conv2"
  top: "resx4_conv2"
  param {
    lr_mult: 0
    decay_mult: 0
  }
  param {
    lr_mult: 0
    decay_mult: 0
  }
  param {
    lr_mult: 0
    decay_mult: 0
  }
}
layer {
  name: "resx4_conv2_scale"
  type: "Scale"
  bottom: "resx4_conv2"
  top: "resx4_conv2"
  scale_param {
    filler {
      value: 1
    }
    bias_term: true
    bias_filler {
      value: 0
    }
  }
}
layer {
  name: "resx4_conv3"
  type: "Convolution"
  bottom: "resx4_conv2"
  top: "resx4_conv3"
  convolution_param {
    num_output: 240
    bias_term: false
    pad: 0
    kernel_size: 1
    group: 3
    stride: 1
    weight_filler {
      type: "msra"
    }
  }
}
layer {
  name: "resx4_conv3_bn"
  type: "BatchNorm"
  bottom: "resx4_conv3"
  top: "resx4_conv3"
  param {
    lr_mult: 0
    decay_mult: 0
  }
  param {
    lr_mult: 0
    decay_mult: 0
  }
  param {
    lr_mult: 0
    decay_mult: 0
  }
}
layer {
  name: "resx4_conv3_scale"
  type: "Scale"
  bottom: "resx4_conv3"
  top: "resx4_conv3"
  scale_param {
    filler {
      value: 1
    }
    bias_term: true
    bias_filler {
      value: 0
    }
  }
}
layer {
  name: "resx4_elewise"
  type: "Eltwise"
  bottom: "resx3_elewise"
  bottom: "resx4_conv3"
  top: "resx4_elewise"
  eltwise_param {
    operation: SUM
  }
}
layer {
  name: "resx4_elewise_relu"
  type: "ReLU"
  bottom: "resx4_elewise"
  top: "resx4_elewise"
}
layer {
  name: "resx5_match_conv"
  type: "Pooling"
  bottom: "resx4_elewise"
  top: "resx5_match_conv"
  pooling_param {
    pool: AVE
    kernel_size: 3
    stride: 2
  }
}
layer {
  name: "resx5_conv1"
  type: "Convolution"
  bottom: "resx4_elewise"
  top: "resx5_conv1"
  convolution_param {
    num_output: 60
    bias_term: false
    pad: 0
    kernel_size: 1
    group: 3
    stride: 1
    weight_filler {
      type: "msra"
    }
  }
}
layer {
  name: "resx5_conv1_bn"
  type: "BatchNorm"
  bottom: "resx5_conv1"
  top: "resx5_conv1"
  param {
    lr_mult: 0
    decay_mult: 0
  }
  param {
    lr_mult: 0
    decay_mult: 0
  }
  param {
    lr_mult: 0
    decay_mult: 0
  }
}
layer {
  name: "resx5_conv1_scale"
  type: "Scale"
  bottom: "resx5_conv1"
  top: "resx5_conv1"
  scale_param {
    filler {
      value: 1
    }
    bias_term: true
    bias_filler {
      value: 0
    }
  }
}
layer {
  name: "resx5_conv1_relu"
  type: "ReLU"
  bottom: "resx5_conv1"
  top: "resx5_conv1"
}
layer {
  name: "shuffle5"
  type: "ShuffleChannel"
  bottom: "resx5_conv1"
  top: "resx5_conv1"
  shuffle_channel_param {
    group: 3
  }
}
layer {
  name: "resx5_conv2"
  type: "ConvolutionDepthwise"
  bottom: "resx5_conv1"
  top: "resx5_conv2"
  convolution_param {
    num_output: 60
    bias_term: false
    pad: 1
    kernel_size: 3
    stride: 2
    weight_filler {
      type: "msra"
    }
  }
}
layer {
  name: "resx5_conv2_bn"
  type: "BatchNorm"
  bottom: "resx5_conv2"
  top: "resx5_conv2"
  param {
    lr_mult: 0
    decay_mult: 0
  }
  param {
    lr_mult: 0
    decay_mult: 0
  }
  param {
    lr_mult: 0
    decay_mult: 0
  }
}
layer {
  name: "resx5_conv2_scale"
  type: "Scale"
  bottom: "resx5_conv2"
  top: "resx5_conv2"
  scale_param {
    filler {
      value: 1
    }
    bias_term: true
    bias_filler {
      value: 0
    }
  }
}
layer {
  name: "resx5_conv3"
  type: "Convolution"
  bottom: "resx5_conv2"
  top: "resx5_conv3"
  convolution_param {
    num_output: 240
    bias_term: false
    pad: 0
    kernel_size: 1
    group: 3
    stride: 1
    weight_filler {
      type: "msra"
    }
  }
}
layer {
  name: "resx5_conv3_bn"
  type: "BatchNorm"
  bottom: "resx5_conv3"
  top: "resx5_conv3"
  param {
    lr_mult: 0
    decay_mult: 0
  }
  param {
    lr_mult: 0
    decay_mult: 0
  }
  param {
    lr_mult: 0
    decay_mult: 0
  }
}
layer {
  name: "resx5_conv3_scale"
  type: "Scale"
  bottom: "resx5_conv3"
  top: "resx5_conv3"
  scale_param {
    filler {
      value: 1
    }
    bias_term: true
    bias_filler {
      value: 0
    }
  }
}
layer {
  name: "resx5_concat"
  type: "Concat"
  bottom: "resx5_match_conv"
  bottom: "resx5_conv3"
  top: "resx5_concat"
}
layer {
  name: "resx5_concat_relu"
  type: "ReLU"
  bottom: "resx5_concat"
  top: "resx5_concat"
}
layer {
  name: "resx6_conv1"
  type: "Convolution"
  bottom: "resx5_concat"
  top: "resx6_conv1"
  convolution_param {
    num_output: 120
    bias_term: false
    pad: 0
    kernel_size: 1
    group: 3
    stride: 1
    weight_filler {
      type: "msra"
    }
  }
}
layer {
  name: "resx6_conv1_bn"
  type: "BatchNorm"
  bottom: "resx6_conv1"
  top: "resx6_conv1"
  param {
    lr_mult: 0
    decay_mult: 0
  }
  param {
    lr_mult: 0
    decay_mult: 0
  }
  param {
    lr_mult: 0
    decay_mult: 0
  }
}
layer {
  name: "resx6_conv1_scale"
  type: "Scale"
  bottom: "resx6_conv1"
  top: "resx6_conv1"
  scale_param {
    filler {
      value: 1
    }
    bias_term: true
    bias_filler {
      value: 0
    }
  }
}
layer {
  name: "resx6_conv1_relu"
  type: "ReLU"
  bottom: "resx6_conv1"
  top: "resx6_conv1"
}
layer {
  name: "shuffle6"
  type: "ShuffleChannel"
  bottom: "resx6_conv1"
  top: "resx6_conv1"
  shuffle_channel_param {
    group: 3
  }
}
layer {
  name: "resx6_conv2"
  type: "ConvolutionDepthwise"
  bottom: "resx6_conv1"
  top: "resx6_conv2"
  convolution_param {
    num_output: 120
    bias_term: false
    pad: 1
    kernel_size: 3
    stride: 1
    weight_filler {
      type: "msra"
    }
  }
}
layer {
  name: "resx6_conv2_bn"
  type: "BatchNorm"
  bottom: "resx6_conv2"
  top: "resx6_conv2"
  param {
    lr_mult: 0
    decay_mult: 0
  }
  param {
    lr_mult: 0
    decay_mult: 0
  }
  param {
    lr_mult: 0
    decay_mult: 0
  }
}
layer {
  name: "resx6_conv2_scale"
  type: "Scale"
  bottom: "resx6_conv2"
  top: "resx6_conv2"
  scale_param {
    filler {
      value: 1
    }
    bias_term: true
    bias_filler {
      value: 0
    }
  }
}
layer {
  name: "resx6_conv3"
  type: "Convolution"
  bottom: "resx6_conv2"
  top: "resx6_conv3"
  convolution_param {
    num_output: 480
    bias_term: false
    pad: 0
    kernel_size: 1
    group: 3
    stride: 1
    weight_filler {
      type: "msra"
    }
  }
}
layer {
  name: "resx6_conv3_bn"
  type: "BatchNorm"
  bottom: "resx6_conv3"
  top: "resx6_conv3"
  param {
    lr_mult: 0
    decay_mult: 0
  }
  param {
    lr_mult: 0
    decay_mult: 0
  }
  param {
    lr_mult: 0
    decay_mult: 0
  }
}
layer {
  name: "resx6_conv3_scale"
  type: "Scale"
  bottom: "resx6_conv3"
  top: "resx6_conv3"
  scale_param {
    filler {
      value: 1
    }
    bias_term: true
    bias_filler {
      value: 0
    }
  }
}
layer {
  name: "resx6_elewise"
  type: "Eltwise"
  bottom: "resx5_concat"
  bottom: "resx6_conv3"
  top: "resx6_elewise"
  eltwise_param {
    operation: SUM
  }
}
layer {
  name: "resx6_elewise_relu"
  type: "ReLU"
  bottom: "resx6_elewise"
  top: "resx6_elewise"
}
layer {
  name: "resx7_conv1"
  type: "Convolution"
  bottom: "resx6_elewise"
  top: "resx7_conv1"
  convolution_param {
    num_output: 120
    bias_term: false
    pad: 0
    kernel_size: 1
    group: 3
    stride: 1
    weight_filler {
      type: "msra"
    }
  }
}
layer {
  name: "resx7_conv1_bn"
  type: "BatchNorm"
  bottom: "resx7_conv1"
  top: "resx7_conv1"
  param {
    lr_mult: 0
    decay_mult: 0
  }
  param {
    lr_mult: 0
    decay_mult: 0
  }
  param {
    lr_mult: 0
    decay_mult: 0
  }
}
layer {
  name: "resx7_conv1_scale"
  type: "Scale"
  bottom: "resx7_conv1"
  top: "resx7_conv1"
  scale_param {
    filler {
      value: 1
    }
    bias_term: true
    bias_filler {
      value: 0
    }
  }
}
layer {
  name: "resx7_conv1_relu"
  type: "ReLU"
  bottom: "resx7_conv1"
  top: "resx7_conv1"
}
layer {
  name: "shuffle7"
  type: "ShuffleChannel"
  bottom: "resx7_conv1"
  top: "resx7_conv1"
  shuffle_channel_param {
    group: 3
  }
}
layer {
  name: "resx7_conv2"
  type: "ConvolutionDepthwise"
  bottom: "resx7_conv1"
  top: "resx7_conv2"
  convolution_param {
    num_output: 120
    bias_term: false
    pad: 1
    kernel_size: 3
    stride: 1
    weight_filler {
      type: "msra"
    }
  }
}
layer {
  name: "resx7_conv2_bn"
  type: "BatchNorm"
  bottom: "resx7_conv2"
  top: "resx7_conv2"
  param {
    lr_mult: 0
    decay_mult: 0
  }
  param {
    lr_mult: 0
    decay_mult: 0
  }
  param {
    lr_mult: 0
    decay_mult: 0
  }
}
layer {
  name: "resx7_conv2_scale"
  type: "Scale"
  bottom: "resx7_conv2"
  top: "resx7_conv2"
  scale_param {
    filler {
      value: 1
    }
    bias_term: true
    bias_filler {
      value: 0
    }
  }
}
layer {
  name: "resx7_conv3"
  type: "Convolution"
  bottom: "resx7_conv2"
  top: "resx7_conv3"
  convolution_param {
    num_output: 480
    bias_term: false
    pad: 0
    kernel_size: 1
    group: 3
    stride: 1
    weight_filler {
      type: "msra"
    }
  }
}
layer {
  name: "resx7_conv3_bn"
  type: "BatchNorm"
  bottom: "resx7_conv3"
  top: "resx7_conv3"
  param {
    lr_mult: 0
    decay_mult: 0
  }
  param {
    lr_mult: 0
    decay_mult: 0
  }
  param {
    lr_mult: 0
    decay_mult: 0
  }
}
layer {
  name: "resx7_conv3_scale"
  type: "Scale"
  bottom: "resx7_conv3"
  top: "resx7_conv3"
  scale_param {
    filler {
      value: 1
    }
    bias_term: true
    bias_filler {
      value: 0
    }
  }
}
layer {
  name: "resx7_elewise"
  type: "Eltwise"
  bottom: "resx6_elewise"
  bottom: "resx7_conv3"
  top: "resx7_elewise"
  eltwise_param {
    operation: SUM
  }
}
layer {
  name: "resx7_elewise_relu"
  type: "ReLU"
  bottom: "resx7_elewise"
  top: "resx7_elewise"
}
layer {
  name: "resx8_conv1"
  type: "Convolution"
  bottom: "resx7_elewise"
  top: "resx8_conv1"
  convolution_param {
    num_output: 120
    bias_term: false
    pad: 0
    kernel_size: 1
    group: 3
    stride: 1
    weight_filler {
      type: "msra"
    }
  }
}
layer {
  name: "resx8_conv1_bn"
  type: "BatchNorm"
  bottom: "resx8_conv1"
  top: "resx8_conv1"
  param {
    lr_mult: 0
    decay_mult: 0
  }
  param {
    lr_mult: 0
    decay_mult: 0
  }
  param {
    lr_mult: 0
    decay_mult: 0
  }
}
layer {
  name: "resx8_conv1_scale"
  type: "Scale"
  bottom: "resx8_conv1"
  top: "resx8_conv1"
  scale_param {
    filler {
      value: 1
    }
    bias_term: true
    bias_filler {
      value: 0
    }
  }
}
layer {
  name: "resx8_conv1_relu"
  type: "ReLU"
  bottom: "resx8_conv1"
  top: "resx8_conv1"
}
layer {
  name: "shuffle8"
  type: "ShuffleChannel"
  bottom: "resx8_conv1"
  top: "resx8_conv1"
  shuffle_channel_param {
    group: 3
  }
}
layer {
  name: "resx8_conv2"
  type: "ConvolutionDepthwise"
  bottom: "resx8_conv1"
  top: "resx8_conv2"
  convolution_param {
    num_output: 120
    bias_term: false
    pad: 1
    kernel_size: 3
    stride: 1
    weight_filler {
      type: "msra"
    }
  }
}
layer {
  name: "resx8_conv2_bn"
  type: "BatchNorm"
  bottom: "resx8_conv2"
  top: "resx8_conv2"
  param {
    lr_mult: 0
    decay_mult: 0
  }
  param {
    lr_mult: 0
    decay_mult: 0
  }
  param {
    lr_mult: 0
    decay_mult: 0
  }
}
layer {
  name: "resx8_conv2_scale"
  type: "Scale"
  bottom: "resx8_conv2"
  top: "resx8_conv2"
  scale_param {
    filler {
      value: 1
    }
    bias_term: true
    bias_filler {
      value: 0
    }
  }
}
layer {
  name: "resx8_conv3"
  type: "Convolution"
  bottom: "resx8_conv2"
  top: "resx8_conv3"
  convolution_param {
    num_output: 480
    bias_term: false
    pad: 0
    kernel_size: 1
    group: 3
    stride: 1
    weight_filler {
      type: "msra"
    }
  }
}
layer {
  name: "resx8_conv3_bn"
  type: "BatchNorm"
  bottom: "resx8_conv3"
  top: "resx8_conv3"
  param {
    lr_mult: 0
    decay_mult: 0
  }
  param {
    lr_mult: 0
    decay_mult: 0
  }
  param {
    lr_mult: 0
    decay_mult: 0
  }
}
layer {
  name: "resx8_conv3_scale"
  type: "Scale"
  bottom: "resx8_conv3"
  top: "resx8_conv3"
  scale_param {
    filler {
      value: 1
    }
    bias_term: true
    bias_filler {
      value: 0
    }
  }
}
layer {
  name: "resx8_elewise"
  type: "Eltwise"
  bottom: "resx7_elewise"
  bottom: "resx8_conv3"
  top: "resx8_elewise"
  eltwise_param {
    operation: SUM
  }
}
layer {
  name: "resx8_elewise_relu"
  type: "ReLU"
  bottom: "resx8_elewise"
  top: "resx8_elewise"
}
layer {
  name: "resx9_conv1"
  type: "Convolution"
  bottom: "resx8_elewise"
  top: "resx9_conv1"
  convolution_param {
    num_output: 120
    bias_term: false
    pad: 0
    kernel_size: 1
    group: 3
    stride: 1
    weight_filler {
      type: "msra"
    }
  }
}
layer {
  name: "resx9_conv1_bn"
  type: "BatchNorm"
  bottom: "resx9_conv1"
  top: "resx9_conv1"
  param {
    lr_mult: 0
    decay_mult: 0
  }
  param {
    lr_mult: 0
    decay_mult: 0
  }
  param {
    lr_mult: 0
    decay_mult: 0
  }
}
layer {
  name: "resx9_conv1_scale"
  type: "Scale"
  bottom: "resx9_conv1"
  top: "resx9_conv1"
  scale_param {
    filler {
      value: 1
    }
    bias_term: true
    bias_filler {
      value: 0
    }
  }
}
layer {
  name: "resx9_conv1_relu"
  type: "ReLU"
  bottom: "resx9_conv1"
  top: "resx9_conv1"
}
layer {
  name: "shuffle9"
  type: "ShuffleChannel"
  bottom: "resx9_conv1"
  top: "resx9_conv1"
  shuffle_channel_param {
    group: 3
  }
}
layer {
  name: "resx9_conv2"
  type: "ConvolutionDepthwise"
  bottom: "resx9_conv1"
  top: "resx9_conv2"
  convolution_param {
    num_output: 120
    bias_term: false
    pad: 1
    kernel_size: 3
    stride: 1
    weight_filler {
      type: "msra"
    }
  }
}
layer {
  name: "resx9_conv2_bn"
  type: "BatchNorm"
  bottom: "resx9_conv2"
  top: "resx9_conv2"
  param {
    lr_mult: 0
    decay_mult: 0
  }
  param {
    lr_mult: 0
    decay_mult: 0
  }
  param {
    lr_mult: 0
    decay_mult: 0
  }
}
layer {
  name: "resx9_conv2_scale"
  type: "Scale"
  bottom: "resx9_conv2"
  top: "resx9_conv2"
  scale_param {
    filler {
      value: 1
    }
    bias_term: true
    bias_filler {
      value: 0
    }
  }
}
layer {
  name: "resx9_conv3"
  type: "Convolution"
  bottom: "resx9_conv2"
  top: "resx9_conv3"
  convolution_param {
    num_output: 480
    bias_term: false
    pad: 0
    kernel_size: 1
    group: 3
    stride: 1
    weight_filler {
      type: "msra"
    }
  }
}
layer {
  name: "resx9_conv3_bn"
  type: "BatchNorm"
  bottom: "resx9_conv3"
  top: "resx9_conv3"
  param {
    lr_mult: 0
    decay_mult: 0
  }
  param {
    lr_mult: 0
    decay_mult: 0
  }
  param {
    lr_mult: 0
    decay_mult: 0
  }
}
layer {
  name: "resx9_conv3_scale"
  type: "Scale"
  bottom: "resx9_conv3"
  top: "resx9_conv3"
  scale_param {
    filler {
      value: 1
    }
    bias_term: true
    bias_filler {
      value: 0
    }
  }
}
layer {
  name: "resx9_elewise"
  type: "Eltwise"
  bottom: "resx8_elewise"
  bottom: "resx9_conv3"
  top: "resx9_elewise"
  eltwise_param {
    operation: SUM
  }
}
layer {
  name: "resx9_elewise_relu"
  type: "ReLU"
  bottom: "resx9_elewise"
  top: "resx9_elewise"
}
layer {
  name: "resx10_conv1"
  type: "Convolution"
  bottom: "resx9_elewise"
  top: "resx10_conv1"
  convolution_param {
    num_output: 120
    bias_term: false
    pad: 0
    kernel_size: 1
    group: 3
    stride: 1
    weight_filler {
      type: "msra"
    }
  }
}
layer {
  name: "resx10_conv1_bn"
  type: "BatchNorm"
  bottom: "resx10_conv1"
  top: "resx10_conv1"
  param {
    lr_mult: 0
    decay_mult: 0
  }
  param {
    lr_mult: 0
    decay_mult: 0
  }
  param {
    lr_mult: 0
    decay_mult: 0
  }
}
layer {
  name: "resx10_conv1_scale"
  type: "Scale"
  bottom: "resx10_conv1"
  top: "resx10_conv1"
  scale_param {
    filler {
      value: 1
    }
    bias_term: true
    bias_filler {
      value: 0
    }
  }
}
layer {
  name: "resx10_conv1_relu"
  type: "ReLU"
  bottom: "resx10_conv1"
  top: "resx10_conv1"
}
layer {
  name: "shuffle10"
  type: "ShuffleChannel"
  bottom: "resx10_conv1"
  top: "resx10_conv1"
  shuffle_channel_param {
    group: 3
  }
}
layer {
  name: "resx10_conv2"
  type: "ConvolutionDepthwise"
  bottom: "resx10_conv1"
  top: "resx10_conv2"
  convolution_param {
    num_output: 120
    bias_term: false
    pad: 1
    kernel_size: 3
    stride: 1
    weight_filler {
      type: "msra"
    }
  }
}
layer {
  name: "resx10_conv2_bn"
  type: "BatchNorm"
  bottom: "resx10_conv2"
  top: "resx10_conv2"
  param {
    lr_mult: 0
    decay_mult: 0
  }
  param {
    lr_mult: 0
    decay_mult: 0
  }
  param {
    lr_mult: 0
    decay_mult: 0
  }
}
layer {
  name: "resx10_conv2_scale"
  type: "Scale"
  bottom: "resx10_conv2"
  top: "resx10_conv2"
  scale_param {
    filler {
      value: 1
    }
    bias_term: true
    bias_filler {
      value: 0
    }
  }
}
layer {
  name: "resx10_conv3"
  type: "Convolution"
  bottom: "resx10_conv2"
  top: "resx10_conv3"
  convolution_param {
    num_output: 480
    bias_term: false
    pad: 0
    kernel_size: 1
    group: 3
    stride: 1
    weight_filler {
      type: "msra"
    }
  }
}
layer {
  name: "resx10_conv3_bn"
  type: "BatchNorm"
  bottom: "resx10_conv3"
  top: "resx10_conv3"
  param {
    lr_mult: 0
    decay_mult: 0
  }
  param {
    lr_mult: 0
    decay_mult: 0
  }
  param {
    lr_mult: 0
    decay_mult: 0
  }
}
layer {
  name: "resx10_conv3_scale"
  type: "Scale"
  bottom: "resx10_conv3"
  top: "resx10_conv3"
  scale_param {
    filler {
      value: 1
    }
    bias_term: true
    bias_filler {
      value: 0
    }
  }
}
layer {
  name: "resx10_elewise"
  type: "Eltwise"
  bottom: "resx9_elewise"
  bottom: "resx10_conv3"
  top: "resx10_elewise"
  eltwise_param {
    operation: SUM
  }
}
layer {
  name: "resx10_elewise_relu"
  type: "ReLU"
  bottom: "resx10_elewise"
  top: "resx10_elewise"
}
layer {
  name: "resx11_conv1"
  type: "Convolution"
  bottom: "resx10_elewise"
  top: "resx11_conv1"
  convolution_param {
    num_output: 120
    bias_term: false
    pad: 0
    kernel_size: 1
    group: 3
    stride: 1
    weight_filler {
      type: "msra"
    }
  }
}
layer {
  name: "resx11_conv1_bn"
  type: "BatchNorm"
  bottom: "resx11_conv1"
  top: "resx11_conv1"
  param {
    lr_mult: 0
    decay_mult: 0
  }
  param {
    lr_mult: 0
    decay_mult: 0
  }
  param {
    lr_mult: 0
    decay_mult: 0
  }
}
layer {
  name: "resx11_conv1_scale"
  type: "Scale"
  bottom: "resx11_conv1"
  top: "resx11_conv1"
  scale_param {
    filler {
      value: 1
    }
    bias_term: true
    bias_filler {
      value: 0
    }
  }
}
layer {
  name: "resx11_conv1_relu"
  type: "ReLU"
  bottom: "resx11_conv1"
  top: "resx11_conv1"
}
layer {
  name: "shuffle11"
  type: "ShuffleChannel"
  bottom: "resx11_conv1"
  top: "resx11_conv1"
  shuffle_channel_param {
    group: 3
  }
}
layer {
  name: "resx11_conv2"
  type: "ConvolutionDepthwise"
  bottom: "resx11_conv1"
  top: "resx11_conv2"
  convolution_param {
    num_output: 120
    bias_term: false
    pad: 1
    kernel_size: 3
    stride: 1
    weight_filler {
      type: "msra"
    }
  }
}
layer {
  name: "resx11_conv2_bn"
  type: "BatchNorm"
  bottom: "resx11_conv2"
  top: "resx11_conv2"
  param {
    lr_mult: 0
    decay_mult: 0
  }
  param {
    lr_mult: 0
    decay_mult: 0
  }
  param {
    lr_mult: 0
    decay_mult: 0
  }
}
layer {
  name: "resx11_conv2_scale"
  type: "Scale"
  bottom: "resx11_conv2"
  top: "resx11_conv2"
  scale_param {
    filler {
      value: 1
    }
    bias_term: true
    bias_filler {
      value: 0
    }
  }
}
layer {
  name: "resx11_conv3"
  type: "Convolution"
  bottom: "resx11_conv2"
  top: "resx11_conv3"
  convolution_param {
    num_
I0813 16:21:40.624986 30567 layer_factory.hpp:77] Creating layer data
I0813 16:21:40.629315 30567 net.cpp:91] Creating Layer data
I0813 16:21:40.629333 30567 net.cpp:443] data -> data
I0813 16:21:40.629355 30567 net.cpp:443] data -> label
I0813 16:21:40.630537 30572 db_lmdb.cpp:35] Opened lmdb /home/chenyao/ilsvrc12/ilsvrc12_train_lmdb
I0813 16:21:40.630969 30567 data_layer.cpp:41] output data size: 70,3,224,224
I0813 16:21:40.954826 30567 net.cpp:141] Setting up data
I0813 16:21:40.954882 30567 net.cpp:148] Top shape: 70 3 224 224 (10536960)
I0813 16:21:40.954890 30567 net.cpp:148] Top shape: 70 (70)
I0813 16:21:40.954893 30567 net.cpp:156] Memory required for data: 42148120
I0813 16:21:40.954905 30567 layer_factory.hpp:77] Creating layer conv1
I0813 16:21:40.954932 30567 net.cpp:91] Creating Layer conv1
I0813 16:21:40.954938 30567 net.cpp:469] conv1 <- data
I0813 16:21:40.954951 30567 net.cpp:443] conv1 -> conv1
I0813 16:21:40.955036 30567 net.cpp:141] Setting up conv1
I0813 16:21:40.955044 30567 net.cpp:148] Top shape: 70 24 112 112 (21073920)
I0813 16:21:40.955047 30567 net.cpp:156] Memory required for data: 126443800
I0813 16:21:40.955058 30567 layer_factory.hpp:77] Creating layer conv1_bn
I0813 16:21:40.955071 30567 net.cpp:91] Creating Layer conv1_bn
I0813 16:21:40.955075 30567 net.cpp:469] conv1_bn <- conv1
I0813 16:21:40.955080 30567 net.cpp:430] conv1_bn -> conv1 (in-place)
I0813 16:21:40.955119 30567 net.cpp:141] Setting up conv1_bn
I0813 16:21:40.955127 30567 net.cpp:148] Top shape: 70 24 112 112 (21073920)
I0813 16:21:40.955130 30567 net.cpp:156] Memory required for data: 210739480
I0813 16:21:40.955139 30567 layer_factory.hpp:77] Creating layer conv1_scale
I0813 16:21:40.955149 30567 net.cpp:91] Creating Layer conv1_scale
I0813 16:21:40.955153 30567 net.cpp:469] conv1_scale <- conv1
I0813 16:21:40.955157 30567 net.cpp:430] conv1_scale -> conv1 (in-place)
I0813 16:21:40.955173 30567 layer_factory.hpp:77] Creating layer conv1_scale
I0813 16:21:40.955257 30567 net.cpp:141] Setting up conv1_scale
I0813 16:21:40.955265 30567 net.cpp:148] Top shape: 70 24 112 112 (21073920)
I0813 16:21:40.955267 30567 net.cpp:156] Memory required for data: 295035160
I0813 16:21:40.955276 30567 layer_factory.hpp:77] Creating layer conv1_relu
I0813 16:21:40.955282 30567 net.cpp:91] Creating Layer conv1_relu
I0813 16:21:40.955288 30567 net.cpp:469] conv1_relu <- conv1
I0813 16:21:40.955293 30567 net.cpp:430] conv1_relu -> conv1 (in-place)
I0813 16:21:40.955307 30567 net.cpp:141] Setting up conv1_relu
I0813 16:21:40.955319 30567 net.cpp:148] Top shape: 70 24 112 112 (21073920)
I0813 16:21:40.955322 30567 net.cpp:156] Memory required for data: 379330840
I0813 16:21:40.955325 30567 layer_factory.hpp:77] Creating layer pool1
I0813 16:21:40.955332 30567 net.cpp:91] Creating Layer pool1
I0813 16:21:40.955335 30567 net.cpp:469] pool1 <- conv1
I0813 16:21:40.955340 30567 net.cpp:443] pool1 -> pool1
I0813 16:21:40.955358 30567 net.cpp:141] Setting up pool1
I0813 16:21:40.955363 30567 net.cpp:148] Top shape: 70 24 56 56 (5268480)
I0813 16:21:40.955365 30567 net.cpp:156] Memory required for data: 400404760
I0813 16:21:40.955368 30567 layer_factory.hpp:77] Creating layer pool1_pool1_0_split
I0813 16:21:40.955379 30567 net.cpp:91] Creating Layer pool1_pool1_0_split
I0813 16:21:40.955381 30567 net.cpp:469] pool1_pool1_0_split <- pool1
I0813 16:21:40.955387 30567 net.cpp:443] pool1_pool1_0_split -> pool1_pool1_0_split_0
I0813 16:21:40.955394 30567 net.cpp:443] pool1_pool1_0_split -> pool1_pool1_0_split_1
I0813 16:21:40.955399 30567 net.cpp:141] Setting up pool1_pool1_0_split
I0813 16:21:40.955404 30567 net.cpp:148] Top shape: 70 24 56 56 (5268480)
I0813 16:21:40.955406 30567 net.cpp:148] Top shape: 70 24 56 56 (5268480)
I0813 16:21:40.955410 30567 net.cpp:156] Memory required for data: 442552600
I0813 16:21:40.955412 30567 layer_factory.hpp:77] Creating layer resx1_match_conv
I0813 16:21:40.955418 30567 net.cpp:91] Creating Layer resx1_match_conv
I0813 16:21:40.955421 30567 net.cpp:469] resx1_match_conv <- pool1_pool1_0_split_0
I0813 16:21:40.955426 30567 net.cpp:443] resx1_match_conv -> resx1_match_conv
I0813 16:21:40.955431 30567 net.cpp:141] Setting up resx1_match_conv
I0813 16:21:40.955435 30567 net.cpp:148] Top shape: 70 24 28 28 (1317120)
I0813 16:21:40.955438 30567 net.cpp:156] Memory required for data: 447821080
I0813 16:21:40.955441 30567 layer_factory.hpp:77] Creating layer resx1_conv1
I0813 16:21:40.955451 30567 net.cpp:91] Creating Layer resx1_conv1
I0813 16:21:40.955454 30567 net.cpp:469] resx1_conv1 <- pool1_pool1_0_split_1
I0813 16:21:40.955459 30567 net.cpp:443] resx1_conv1 -> resx1_conv1
I0813 16:21:40.955507 30567 net.cpp:141] Setting up resx1_conv1
I0813 16:21:40.955512 30567 net.cpp:148] Top shape: 70 54 56 56 (11854080)
I0813 16:21:40.955514 30567 net.cpp:156] Memory required for data: 495237400
I0813 16:21:40.955518 30567 layer_factory.hpp:77] Creating layer resx1_conv1_bn
I0813 16:21:40.955525 30567 net.cpp:91] Creating Layer resx1_conv1_bn
I0813 16:21:40.955529 30567 net.cpp:469] resx1_conv1_bn <- resx1_conv1
I0813 16:21:40.955534 30567 net.cpp:430] resx1_conv1_bn -> resx1_conv1 (in-place)
I0813 16:21:40.955546 30567 net.cpp:141] Setting up resx1_conv1_bn
I0813 16:21:40.955551 30567 net.cpp:148] Top shape: 70 54 56 56 (11854080)
I0813 16:21:40.955554 30567 net.cpp:156] Memory required for data: 542653720
I0813 16:21:40.955562 30567 layer_factory.hpp:77] Creating layer resx1_conv1_scale
I0813 16:21:40.955569 30567 net.cpp:91] Creating Layer resx1_conv1_scale
I0813 16:21:40.955571 30567 net.cpp:469] resx1_conv1_scale <- resx1_conv1
I0813 16:21:40.955586 30567 net.cpp:430] resx1_conv1_scale -> resx1_conv1 (in-place)
I0813 16:21:40.955595 30567 layer_factory.hpp:77] Creating layer resx1_conv1_scale
I0813 16:21:40.955615 30567 net.cpp:141] Setting up resx1_conv1_scale
I0813 16:21:40.955621 30567 net.cpp:148] Top shape: 70 54 56 56 (11854080)
I0813 16:21:40.955623 30567 net.cpp:156] Memory required for data: 590070040
I0813 16:21:40.955628 30567 layer_factory.hpp:77] Creating layer resx1_conv1_relu
I0813 16:21:40.955633 30567 net.cpp:91] Creating Layer resx1_conv1_relu
I0813 16:21:40.955636 30567 net.cpp:469] resx1_conv1_relu <- resx1_conv1
I0813 16:21:40.955641 30567 net.cpp:430] resx1_conv1_relu -> resx1_conv1 (in-place)
I0813 16:21:40.955644 30567 net.cpp:141] Setting up resx1_conv1_relu
I0813 16:21:40.955648 30567 net.cpp:148] Top shape: 70 54 56 56 (11854080)
I0813 16:21:40.955651 30567 net.cpp:156] Memory required for data: 637486360
I0813 16:21:40.955654 30567 layer_factory.hpp:77] Creating layer resx1_conv2
I0813 16:21:40.955669 30567 net.cpp:91] Creating Layer resx1_conv2
I0813 16:21:40.955672 30567 net.cpp:469] resx1_conv2 <- resx1_conv1
I0813 16:21:40.955678 30567 net.cpp:443] resx1_conv2 -> resx1_conv2
I0813 16:21:40.967655 30567 net.cpp:141] Setting up resx1_conv2
I0813 16:21:40.967674 30567 net.cpp:148] Top shape: 70 54 28 28 (2963520)
I0813 16:21:40.967679 30567 net.cpp:156] Memory required for data: 649340440
I0813 16:21:40.967684 30567 layer_factory.hpp:77] Creating layer resx1_conv2_bn
I0813 16:21:40.967694 30567 net.cpp:91] Creating Layer resx1_conv2_bn
I0813 16:21:40.967697 30567 net.cpp:469] resx1_conv2_bn <- resx1_conv2
I0813 16:21:40.967705 30567 net.cpp:430] resx1_conv2_bn -> resx1_conv2 (in-place)
I0813 16:21:40.967720 30567 net.cpp:141] Setting up resx1_conv2_bn
I0813 16:21:40.967725 30567 net.cpp:148] Top shape: 70 54 28 28 (2963520)
I0813 16:21:40.967728 30567 net.cpp:156] Memory required for data: 661194520
I0813 16:21:40.967734 30567 layer_factory.hpp:77] Creating layer resx1_conv2_scale
I0813 16:21:40.967742 30567 net.cpp:91] Creating Layer resx1_conv2_scale
I0813 16:21:40.967747 30567 net.cpp:469] resx1_conv2_scale <- resx1_conv2
I0813 16:21:40.967754 30567 net.cpp:430] resx1_conv2_scale -> resx1_conv2 (in-place)
I0813 16:21:40.967762 30567 layer_factory.hpp:77] Creating layer resx1_conv2_scale
I0813 16:21:40.967777 30567 net.cpp:141] Setting up resx1_conv2_scale
I0813 16:21:40.967782 30567 net.cpp:148] Top shape: 70 54 28 28 (2963520)
I0813 16:21:40.967785 30567 net.cpp:156] Memory required for data: 673048600
I0813 16:21:40.967800 30567 layer_factory.hpp:77] Creating layer resx1_conv3
I0813 16:21:40.967810 30567 net.cpp:91] Creating Layer resx1_conv3
I0813 16:21:40.967813 30567 net.cpp:469] resx1_conv3 <- resx1_conv2
I0813 16:21:40.967818 30567 net.cpp:443] resx1_conv3 -> resx1_conv3
I0813 16:21:40.967927 30567 net.cpp:141] Setting up resx1_conv3
I0813 16:21:40.967933 30567 net.cpp:148] Top shape: 70 216 28 28 (11854080)
I0813 16:21:40.967936 30567 net.cpp:156] Memory required for data: 720464920
I0813 16:21:40.967941 30567 layer_factory.hpp:77] Creating layer resx1_conv3_bn
I0813 16:21:40.967948 30567 net.cpp:91] Creating Layer resx1_conv3_bn
I0813 16:21:40.967952 30567 net.cpp:469] resx1_conv3_bn <- resx1_conv3
I0813 16:21:40.967958 30567 net.cpp:430] resx1_conv3_bn -> resx1_conv3 (in-place)
I0813 16:21:40.967972 30567 net.cpp:141] Setting up resx1_conv3_bn
I0813 16:21:40.967975 30567 net.cpp:148] Top shape: 70 216 28 28 (11854080)
I0813 16:21:40.967978 30567 net.cpp:156] Memory required for data: 767881240
I0813 16:21:40.967984 30567 layer_factory.hpp:77] Creating layer resx1_conv3_scale
I0813 16:21:40.967991 30567 net.cpp:91] Creating Layer resx1_conv3_scale
I0813 16:21:40.967994 30567 net.cpp:469] resx1_conv3_scale <- resx1_conv3
I0813 16:21:40.967998 30567 net.cpp:430] resx1_conv3_scale -> resx1_conv3 (in-place)
I0813 16:21:40.968005 30567 layer_factory.hpp:77] Creating layer resx1_conv3_scale
I0813 16:21:40.968021 30567 net.cpp:141] Setting up resx1_conv3_scale
I0813 16:21:40.968025 30567 net.cpp:148] Top shape: 70 216 28 28 (11854080)
I0813 16:21:40.968029 30567 net.cpp:156] Memory required for data: 815297560
I0813 16:21:40.968034 30567 layer_factory.hpp:77] Creating layer resx1_concat
I0813 16:21:40.968042 30567 net.cpp:91] Creating Layer resx1_concat
I0813 16:21:40.968046 30567 net.cpp:469] resx1_concat <- resx1_match_conv
I0813 16:21:40.968050 30567 net.cpp:469] resx1_concat <- resx1_conv3
I0813 16:21:40.968055 30567 net.cpp:443] resx1_concat -> resx1_concat
I0813 16:21:40.968061 30567 net.cpp:141] Setting up resx1_concat
I0813 16:21:40.968065 30567 net.cpp:148] Top shape: 70 240 28 28 (13171200)
I0813 16:21:40.968068 30567 net.cpp:156] Memory required for data: 867982360
I0813 16:21:40.968071 30567 layer_factory.hpp:77] Creating layer resx1_concat_relu
I0813 16:21:40.968077 30567 net.cpp:91] Creating Layer resx1_concat_relu
I0813 16:21:40.968081 30567 net.cpp:469] resx1_concat_relu <- resx1_concat
I0813 16:21:40.968086 30567 net.cpp:430] resx1_concat_relu -> resx1_concat (in-place)
I0813 16:21:40.968099 30567 net.cpp:141] Setting up resx1_concat_relu
I0813 16:21:40.968103 30567 net.cpp:148] Top shape: 70 240 28 28 (13171200)
I0813 16:21:40.968106 30567 net.cpp:156] Memory required for data: 920667160
I0813 16:21:40.968109 30567 layer_factory.hpp:77] Creating layer resx1_concat_resx1_concat_relu_0_split
I0813 16:21:40.968116 30567 net.cpp:91] Creating Layer resx1_concat_resx1_concat_relu_0_split
I0813 16:21:40.968118 30567 net.cpp:469] resx1_concat_resx1_concat_relu_0_split <- resx1_concat
I0813 16:21:40.968122 30567 net.cpp:443] resx1_concat_resx1_concat_relu_0_split -> resx1_concat_resx1_concat_relu_0_split_0
I0813 16:21:40.968127 30567 net.cpp:443] resx1_concat_resx1_concat_relu_0_split -> resx1_concat_resx1_concat_relu_0_split_1
I0813 16:21:40.968133 30567 net.cpp:141] Setting up resx1_concat_resx1_concat_relu_0_split
I0813 16:21:40.968137 30567 net.cpp:148] Top shape: 70 240 28 28 (13171200)
I0813 16:21:40.968140 30567 net.cpp:148] Top shape: 70 240 28 28 (13171200)
I0813 16:21:40.968143 30567 net.cpp:156] Memory required for data: 1026036760
I0813 16:21:40.968147 30567 layer_factory.hpp:77] Creating layer resx2_conv1
I0813 16:21:40.968155 30567 net.cpp:91] Creating Layer resx2_conv1
I0813 16:21:40.968159 30567 net.cpp:469] resx2_conv1 <- resx1_concat_resx1_concat_relu_0_split_0
I0813 16:21:40.968163 30567 net.cpp:443] resx2_conv1 -> resx2_conv1
I0813 16:21:40.968294 30567 net.cpp:141] Setting up resx2_conv1
I0813 16:21:40.968300 30567 net.cpp:148] Top shape: 70 60 28 28 (3292800)
I0813 16:21:40.968303 30567 net.cpp:156] Memory required for data: 1039207960
I0813 16:21:40.968307 30567 layer_factory.hpp:77] Creating layer resx2_conv1_bn
I0813 16:21:40.968315 30567 net.cpp:91] Creating Layer resx2_conv1_bn
I0813 16:21:40.968318 30567 net.cpp:469] resx2_conv1_bn <- resx2_conv1
I0813 16:21:40.968322 30567 net.cpp:430] resx2_conv1_bn -> resx2_conv1 (in-place)
I0813 16:21:40.968334 30567 net.cpp:141] Setting up resx2_conv1_bn
I0813 16:21:40.968338 30567 net.cpp:148] Top shape: 70 60 28 28 (3292800)
I0813 16:21:40.968341 30567 net.cpp:156] Memory required for data: 1052379160
I0813 16:21:40.968348 30567 layer_factory.hpp:77] Creating layer resx2_conv1_scale
I0813 16:21:40.968354 30567 net.cpp:91] Creating Layer resx2_conv1_scale
I0813 16:21:40.968358 30567 net.cpp:469] resx2_conv1_scale <- resx2_conv1
I0813 16:21:40.968361 30567 net.cpp:430] resx2_conv1_scale -> resx2_conv1 (in-place)
I0813 16:21:40.968369 30567 layer_factory.hpp:77] Creating layer resx2_conv1_scale
I0813 16:21:40.968382 30567 net.cpp:141] Setting up resx2_conv1_scale
I0813 16:21:40.968387 30567 net.cpp:148] Top shape: 70 60 28 28 (3292800)
I0813 16:21:40.968390 30567 net.cpp:156] Memory required for data: 1065550360
I0813 16:21:40.968394 30567 layer_factory.hpp:77] Creating layer resx2_conv1_relu
I0813 16:21:40.968401 30567 net.cpp:91] Creating Layer resx2_conv1_relu
I0813 16:21:40.968405 30567 net.cpp:469] resx2_conv1_relu <- resx2_conv1
I0813 16:21:40.968408 30567 net.cpp:430] resx2_conv1_relu -> resx2_conv1 (in-place)
I0813 16:21:40.968412 30567 net.cpp:141] Setting up resx2_conv1_relu
I0813 16:21:40.968416 30567 net.cpp:148] Top shape: 70 60 28 28 (3292800)
I0813 16:21:40.968420 30567 net.cpp:156] Memory required for data: 1078721560
I0813 16:21:40.968422 30567 layer_factory.hpp:77] Creating layer shuffle2
I0813 16:21:40.968431 30567 net.cpp:91] Creating Layer shuffle2
I0813 16:21:40.968435 30567 net.cpp:469] shuffle2 <- resx2_conv1
I0813 16:21:40.968438 30567 net.cpp:430] shuffle2 -> resx2_conv1 (in-place)
I0813 16:21:40.968444 30567 net.cpp:141] Setting up shuffle2
I0813 16:21:40.968448 30567 net.cpp:148] Top shape: 70 60 28 28 (3292800)
I0813 16:21:40.968451 30567 net.cpp:156] Memory required for data: 1091892760
I0813 16:21:40.968454 30567 layer_factory.hpp:77] Creating layer resx2_conv2
I0813 16:21:40.968462 30567 net.cpp:91] Creating Layer resx2_conv2
I0813 16:21:40.968466 30567 net.cpp:469] resx2_conv2 <- resx2_conv1
I0813 16:21:40.968471 30567 net.cpp:443] resx2_conv2 -> resx2_conv2
I0813 16:21:40.968525 30567 net.cpp:141] Setting up resx2_conv2
I0813 16:21:40.968538 30567 net.cpp:148] Top shape: 70 60 28 28 (3292800)
I0813 16:21:40.968541 30567 net.cpp:156] Memory required for data: 1105063960
I0813 16:21:40.968546 30567 layer_factory.hpp:77] Creating layer resx2_conv2_bn
I0813 16:21:40.968552 30567 net.cpp:91] Creating Layer resx2_conv2_bn
I0813 16:21:40.968555 30567 net.cpp:469] resx2_conv2_bn <- resx2_conv2
I0813 16:21:40.968565 30567 net.cpp:430] resx2_conv2_bn -> resx2_conv2 (in-place)
I0813 16:21:40.968577 30567 net.cpp:141] Setting up resx2_conv2_bn
I0813 16:21:40.968582 30567 net.cpp:148] Top shape: 70 60 28 28 (3292800)
I0813 16:21:40.968585 30567 net.cpp:156] Memory required for data: 1118235160
I0813 16:21:40.968597 30567 layer_factory.hpp:77] Creating layer resx2_conv2_scale
I0813 16:21:40.968603 30567 net.cpp:91] Creating Layer resx2_conv2_scale
I0813 16:21:40.968607 30567 net.cpp:469] resx2_conv2_scale <- resx2_conv2
I0813 16:21:40.968612 30567 net.cpp:430] resx2_conv2_scale -> resx2_conv2 (in-place)
I0813 16:21:40.968621 30567 layer_factory.hpp:77] Creating layer resx2_conv2_scale
I0813 16:21:40.968632 30567 net.cpp:141] Setting up resx2_conv2_scale
I0813 16:21:40.968637 30567 net.cpp:148] Top shape: 70 60 28 28 (3292800)
I0813 16:21:40.968641 30567 net.cpp:156] Memory required for data: 1131406360
I0813 16:21:40.968644 30567 layer_factory.hpp:77] Creating layer resx2_conv3
I0813 16:21:40.968655 30567 net.cpp:91] Creating Layer resx2_conv3
I0813 16:21:40.968659 30567 net.cpp:469] resx2_conv3 <- resx2_conv2
I0813 16:21:40.968663 30567 net.cpp:443] resx2_conv3 -> resx2_conv3
I0813 16:21:40.968791 30567 net.cpp:141] Setting up resx2_conv3
I0813 16:21:40.968797 30567 net.cpp:148] Top shape: 70 240 28 28 (13171200)
I0813 16:21:40.968801 30567 net.cpp:156] Memory required for data: 1184091160
I0813 16:21:40.968804 30567 layer_factory.hpp:77] Creating layer resx2_conv3_bn
I0813 16:21:40.968809 30567 net.cpp:91] Creating Layer resx2_conv3_bn
I0813 16:21:40.968812 30567 net.cpp:469] resx2_conv3_bn <- resx2_conv3
I0813 16:21:40.968818 30567 net.cpp:430] resx2_conv3_bn -> resx2_conv3 (in-place)
I0813 16:21:40.968829 30567 net.cpp:141] Setting up resx2_conv3_bn
I0813 16:21:40.968833 30567 net.cpp:148] Top shape: 70 240 28 28 (13171200)
I0813 16:21:40.968837 30567 net.cpp:156] Memory required for data: 1236775960
I0813 16:21:40.968842 30567 layer_factory.hpp:77] Creating layer resx2_conv3_scale
I0813 16:21:40.968848 30567 net.cpp:91] Creating Layer resx2_conv3_scale
I0813 16:21:40.968852 30567 net.cpp:469] resx2_conv3_scale <- resx2_conv3
I0813 16:21:40.968857 30567 net.cpp:430] resx2_conv3_scale -> resx2_conv3 (in-place)
I0813 16:21:40.968863 30567 layer_factory.hpp:77] Creating layer resx2_conv3_scale
I0813 16:21:40.968879 30567 net.cpp:141] Setting up resx2_conv3_scale
I0813 16:21:40.968883 30567 net.cpp:148] Top shape: 70 240 28 28 (13171200)
I0813 16:21:40.968886 30567 net.cpp:156] Memory required for data: 1289460760
I0813 16:21:40.968891 30567 layer_factory.hpp:77] Creating layer resx2_elewise
I0813 16:21:40.968901 30567 net.cpp:91] Creating Layer resx2_elewise
I0813 16:21:40.968905 30567 net.cpp:469] resx2_elewise <- resx1_concat_resx1_concat_relu_0_split_1
I0813 16:21:40.968909 30567 net.cpp:469] resx2_elewise <- resx2_conv3
I0813 16:21:40.968914 30567 net.cpp:443] resx2_elewise -> resx2_elewise
I0813 16:21:40.968924 30567 net.cpp:141] Setting up resx2_elewise
I0813 16:21:40.968928 30567 net.cpp:148] Top shape: 70 240 28 28 (13171200)
I0813 16:21:40.968931 30567 net.cpp:156] Memory required for data: 1342145560
I0813 16:21:40.968935 30567 layer_factory.hpp:77] Creating layer resx2_elewise_relu
I0813 16:21:40.968940 30567 net.cpp:91] Creating Layer resx2_elewise_relu
I0813 16:21:40.968942 30567 net.cpp:469] resx2_elewise_relu <- resx2_elewise
I0813 16:21:40.968946 30567 net.cpp:430] resx2_elewise_relu -> resx2_elewise (in-place)
I0813 16:21:40.968950 30567 net.cpp:141] Setting up resx2_elewise_relu
I0813 16:21:40.968955 30567 net.cpp:148] Top shape: 70 240 28 28 (13171200)
I0813 16:21:40.968961 30567 net.cpp:156] Memory required for data: 1394830360
I0813 16:21:40.968968 30567 layer_factory.hpp:77] Creating layer resx2_elewise_resx2_elewise_relu_0_split
I0813 16:21:40.968976 30567 net.cpp:91] Creating Layer resx2_elewise_resx2_elewise_relu_0_split
I0813 16:21:40.968978 30567 net.cpp:469] resx2_elewise_resx2_elewise_relu_0_split <- resx2_elewise
I0813 16:21:40.968982 30567 net.cpp:443] resx2_elewise_resx2_elewise_relu_0_split -> resx2_elewise_resx2_elewise_relu_0_split_0
I0813 16:21:40.968987 30567 net.cpp:443] resx2_elewise_resx2_elewise_relu_0_split -> resx2_elewise_resx2_elewise_relu_0_split_1
I0813 16:21:40.968993 30567 net.cpp:141] Setting up resx2_elewise_resx2_elewise_relu_0_split
I0813 16:21:40.968997 30567 net.cpp:148] Top shape: 70 240 28 28 (13171200)
I0813 16:21:40.969002 30567 net.cpp:148] Top shape: 70 240 28 28 (13171200)
I0813 16:21:40.969003 30567 net.cpp:156] Memory required for data: 1500199960
I0813 16:21:40.969007 30567 layer_factory.hpp:77] Creating layer resx3_conv1
I0813 16:21:40.969013 30567 net.cpp:91] Creating Layer resx3_conv1
I0813 16:21:40.969017 30567 net.cpp:469] resx3_conv1 <- resx2_elewise_resx2_elewise_relu_0_split_0
I0813 16:21:40.969023 30567 net.cpp:443] resx3_conv1 -> resx3_conv1
I0813 16:21:40.969322 30567 net.cpp:141] Setting up resx3_conv1
I0813 16:21:40.969332 30567 net.cpp:148] Top shape: 70 60 28 28 (3292800)
I0813 16:21:40.969336 30567 net.cpp:156] Memory required for data: 1513371160
I0813 16:21:40.969355 30567 layer_factory.hpp:77] Creating layer resx3_conv1_bn
I0813 16:21:40.969362 30567 net.cpp:91] Creating Layer resx3_conv1_bn
I0813 16:21:40.969365 30567 net.cpp:469] resx3_conv1_bn <- resx3_conv1
I0813 16:21:40.969370 30567 net.cpp:430] resx3_conv1_bn -> resx3_conv1 (in-place)
I0813 16:21:40.969383 30567 net.cpp:141] Setting up resx3_conv1_bn
I0813 16:21:40.969388 30567 net.cpp:148] Top shape: 70 60 28 28 (3292800)
I0813 16:21:40.969391 30567 net.cpp:156] Memory required for data: 1526542360
I0813 16:21:40.969398 30567 layer_factory.hpp:77] Creating layer resx3_conv1_scale
I0813 16:21:40.969404 30567 net.cpp:91] Creating Layer resx3_conv1_scale
I0813 16:21:40.969408 30567 net.cpp:469] resx3_conv1_scale <- resx3_conv1
I0813 16:21:40.969413 30567 net.cpp:430] resx3_conv1_scale -> resx3_conv1 (in-place)
I0813 16:21:40.969422 30567 layer_factory.hpp:77] Creating layer resx3_conv1_scale
I0813 16:21:40.969441 30567 net.cpp:141] Setting up resx3_conv1_scale
I0813 16:21:40.969446 30567 net.cpp:148] Top shape: 70 60 28 28 (3292800)
I0813 16:21:40.969450 30567 net.cpp:156] Memory required for data: 1539713560
I0813 16:21:40.969455 30567 layer_factory.hpp:77] Creating layer resx3_conv1_relu
I0813 16:21:40.969460 30567 net.cpp:91] Creating Layer resx3_conv1_relu
I0813 16:21:40.969463 30567 net.cpp:469] resx3_conv1_relu <- resx3_conv1
I0813 16:21:40.969468 30567 net.cpp:430] resx3_conv1_relu -> resx3_conv1 (in-place)
I0813 16:21:40.969473 30567 net.cpp:141] Setting up resx3_conv1_relu
I0813 16:21:40.969477 30567 net.cpp:148] Top shape: 70 60 28 28 (3292800)
I0813 16:21:40.969481 30567 net.cpp:156] Memory required for data: 1552884760
I0813 16:21:40.969485 30567 layer_factory.hpp:77] Creating layer shuffle3
I0813 16:21:40.969489 30567 net.cpp:91] Creating Layer shuffle3
I0813 16:21:40.969493 30567 net.cpp:469] shuffle3 <- resx3_conv1
I0813 16:21:40.969498 30567 net.cpp:430] shuffle3 -> resx3_conv1 (in-place)
I0813 16:21:40.969503 30567 net.cpp:141] Setting up shuffle3
I0813 16:21:40.969507 30567 net.cpp:148] Top shape: 70 60 28 28 (3292800)
I0813 16:21:40.969511 30567 net.cpp:156] Memory required for data: 1566055960
I0813 16:21:40.969514 30567 layer_factory.hpp:77] Creating layer resx3_conv2
I0813 16:21:40.969521 30567 net.cpp:91] Creating Layer resx3_conv2
I0813 16:21:40.969523 30567 net.cpp:469] resx3_conv2 <- resx3_conv1
I0813 16:21:40.969529 30567 net.cpp:443] resx3_conv2 -> resx3_conv2
I0813 16:21:40.969595 30567 net.cpp:141] Setting up resx3_conv2
I0813 16:21:40.969604 30567 net.cpp:148] Top shape: 70 60 28 28 (3292800)
I0813 16:21:40.969607 30567 net.cpp:156] Memory required for data: 1579227160
I0813 16:21:40.969620 30567 layer_factory.hpp:77] Creating layer resx3_conv2_bn
I0813 16:21:40.969629 30567 net.cpp:91] Creating Layer resx3_conv2_bn
I0813 16:21:40.969631 30567 net.cpp:469] resx3_conv2_bn <- resx3_conv2
I0813 16:21:40.969636 30567 net.cpp:430] resx3_conv2_bn -> resx3_conv2 (in-place)
I0813 16:21:40.969647 30567 net.cpp:141] Setting up resx3_conv2_bn
I0813 16:21:40.969651 30567 net.cpp:148] Top shape: 70 60 28 28 (3292800)
I0813 16:21:40.969655 30567 net.cpp:156] Memory required for data: 1592398360
I0813 16:21:40.969660 30567 layer_factory.hpp:77] Creating layer resx3_conv2_scale
I0813 16:21:40.969666 30567 net.cpp:91] Creating Layer resx3_conv2_scale
I0813 16:21:40.969668 30567 net.cpp:469] resx3_conv2_scale <- resx3_conv2
I0813 16:21:40.969673 30567 net.cpp:430] resx3_conv2_scale -> resx3_conv2 (in-place)
I0813 16:21:40.969681 30567 layer_factory.hpp:77] Creating layer resx3_conv2_scale
I0813 16:21:40.969693 30567 net.cpp:141] Setting up resx3_conv2_scale
I0813 16:21:40.969697 30567 net.cpp:148] Top shape: 70 60 28 28 (3292800)
I0813 16:21:40.969700 30567 net.cpp:156] Memory required for data: 1605569560
I0813 16:21:40.969705 30567 layer_factory.hpp:77] Creating layer resx3_conv3
I0813 16:21:40.969715 30567 net.cpp:91] Creating Layer resx3_conv3
I0813 16:21:40.969719 30567 net.cpp:469] resx3_conv3 <- resx3_conv2
I0813 16:21:40.969724 30567 net.cpp:443] resx3_conv3 -> resx3_conv3
I0813 16:21:40.969853 30567 net.cpp:141] Setting up resx3_conv3
I0813 16:21:40.969859 30567 net.cpp:148] Top shape: 70 240 28 28 (13171200)
I0813 16:21:40.969862 30567 net.cpp:156] Memory required for data: 1658254360
I0813 16:21:40.969866 30567 layer_factory.hpp:77] Creating layer resx3_conv3_bn
I0813 16:21:40.969871 30567 net.cpp:91] Creating Layer resx3_conv3_bn
I0813 16:21:40.969874 30567 net.cpp:469] resx3_conv3_bn <- resx3_conv3
I0813 16:21:40.969880 30567 net.cpp:430] resx3_conv3_bn -> resx3_conv3 (in-place)
I0813 16:21:40.969890 30567 net.cpp:141] Setting up resx3_conv3_bn
I0813 16:21:40.969895 30567 net.cpp:148] Top shape: 70 240 28 28 (13171200)
I0813 16:21:40.969898 30567 net.cpp:156] Memory required for data: 1710939160
I0813 16:21:40.969905 30567 layer_factory.hpp:77] Creating layer resx3_conv3_scale
I0813 16:21:40.969910 30567 net.cpp:91] Creating Layer resx3_conv3_scale
I0813 16:21:40.969913 30567 net.cpp:469] resx3_conv3_scale <- resx3_conv3
I0813 16:21:40.969918 30567 net.cpp:430] resx3_conv3_scale -> resx3_conv3 (in-place)
I0813 16:21:40.969926 30567 layer_factory.hpp:77] Creating layer resx3_conv3_scale
I0813 16:21:40.969941 30567 net.cpp:141] Setting up resx3_conv3_scale
I0813 16:21:40.969945 30567 net.cpp:148] Top shape: 70 240 28 28 (13171200)
I0813 16:21:40.969949 30567 net.cpp:156] Memory required for data: 1763623960
I0813 16:21:40.969954 30567 layer_factory.hpp:77] Creating layer resx3_elewise
I0813 16:21:40.969960 30567 net.cpp:91] Creating Layer resx3_elewise
I0813 16:21:40.969964 30567 net.cpp:469] resx3_elewise <- resx2_elewise_resx2_elewise_relu_0_split_1
I0813 16:21:40.969967 30567 net.cpp:469] resx3_elewise <- resx3_conv3
I0813 16:21:40.969971 30567 net.cpp:443] resx3_elewise -> resx3_elewise
I0813 16:21:40.969977 30567 net.cpp:141] Setting up resx3_elewise
I0813 16:21:40.969981 30567 net.cpp:148] Top shape: 70 240 28 28 (13171200)
I0813 16:21:40.969985 30567 net.cpp:156] Memory required for data: 1816308760
I0813 16:21:40.969987 30567 layer_factory.hpp:77] Creating layer resx3_elewise_relu
I0813 16:21:40.969992 30567 net.cpp:91] Creating Layer resx3_elewise_relu
I0813 16:21:40.969995 30567 net.cpp:469] resx3_elewise_relu <- resx3_elewise
I0813 16:21:40.970000 30567 net.cpp:430] resx3_elewise_relu -> resx3_elewise (in-place)
I0813 16:21:40.970003 30567 net.cpp:141] Setting up resx3_elewise_relu
I0813 16:21:40.970007 30567 net.cpp:148] Top shape: 70 240 28 28 (13171200)
I0813 16:21:40.970010 30567 net.cpp:156] Memory required for data: 1868993560
I0813 16:21:40.970013 30567 layer_factory.hpp:77] Creating layer resx3_elewise_resx3_elewise_relu_0_split
I0813 16:21:40.970021 30567 net.cpp:91] Creating Layer resx3_elewise_resx3_elewise_relu_0_split
I0813 16:21:40.970029 30567 net.cpp:469] resx3_elewise_resx3_elewise_relu_0_split <- resx3_elewise
I0813 16:21:40.970034 30567 net.cpp:443] resx3_elewise_resx3_elewise_relu_0_split -> resx3_elewise_resx3_elewise_relu_0_split_0
I0813 16:21:40.970041 30567 net.cpp:443] resx3_elewise_resx3_elewise_relu_0_split -> resx3_elewise_resx3_elewise_relu_0_split_1
I0813 16:21:40.970046 30567 net.cpp:141] Setting up resx3_elewise_resx3_elewise_relu_0_split
I0813 16:21:40.970049 30567 net.cpp:148] Top shape: 70 240 28 28 (13171200)
I0813 16:21:40.970053 30567 net.cpp:148] Top shape: 70 240 28 28 (13171200)
I0813 16:21:40.970057 30567 net.cpp:156] Memory required for data: 1974363160
I0813 16:21:40.970059 30567 layer_factory.hpp:77] Creating layer resx4_conv1
I0813 16:21:40.970065 30567 net.cpp:91] Creating Layer resx4_conv1
I0813 16:21:40.970069 30567 net.cpp:469] resx4_conv1 <- resx3_elewise_resx3_elewise_relu_0_split_0
I0813 16:21:40.970073 30567 net.cpp:443] resx4_conv1 -> resx4_conv1
I0813 16:21:40.970201 30567 net.cpp:141] Setting up resx4_conv1
I0813 16:21:40.970207 30567 net.cpp:148] Top shape: 70 60 28 28 (3292800)
I0813 16:21:40.970211 30567 net.cpp:156] Memory required for data: 1987534360
I0813 16:21:40.970214 30567 layer_factory.hpp:77] Creating layer resx4_conv1_bn
I0813 16:21:40.970219 30567 net.cpp:91] Creating Layer resx4_conv1_bn
I0813 16:21:40.970222 30567 net.cpp:469] resx4_conv1_bn <- resx4_conv1
I0813 16:21:40.970227 30567 net.cpp:430] resx4_conv1_bn -> resx4_conv1 (in-place)
I0813 16:21:40.970242 30567 net.cpp:141] Setting up resx4_conv1_bn
I0813 16:21:40.970247 30567 net.cpp:148] Top shape: 70 60 28 28 (3292800)
I0813 16:21:40.970249 30567 net.cpp:156] Memory required for data: 2000705560
I0813 16:21:40.970255 30567 layer_factory.hpp:77] Creating layer resx4_conv1_scale
I0813 16:21:40.970260 30567 net.cpp:91] Creating Layer resx4_conv1_scale
I0813 16:21:40.970263 30567 net.cpp:469] resx4_conv1_scale <- resx4_conv1
I0813 16:21:40.970269 30567 net.cpp:430] resx4_conv1_scale -> resx4_conv1 (in-place)
I0813 16:21:40.970275 30567 layer_factory.hpp:77] Creating layer resx4_conv1_scale
I0813 16:21:40.970290 30567 net.cpp:141] Setting up resx4_conv1_scale
I0813 16:21:40.970295 30567 net.cpp:148] Top shape: 70 60 28 28 (3292800)
I0813 16:21:40.970299 30567 net.cpp:156] Memory required for data: 2013876760
I0813 16:21:40.970310 30567 layer_factory.hpp:77] Creating layer resx4_conv1_relu
I0813 16:21:40.970316 30567 net.cpp:91] Creating Layer resx4_conv1_relu
I0813 16:21:40.970320 30567 net.cpp:469] resx4_conv1_relu <- resx4_conv1
I0813 16:21:40.970326 30567 net.cpp:430] resx4_conv1_relu -> resx4_conv1 (in-place)
I0813 16:21:40.970331 30567 net.cpp:141] Setting up resx4_conv1_relu
I0813 16:21:40.970335 30567 net.cpp:148] Top shape: 70 60 28 28 (3292800)
I0813 16:21:40.970337 30567 net.cpp:156] Memory required for data: 2027047960
I0813 16:21:40.970340 30567 layer_factory.hpp:77] Creating layer shuffle4
I0813 16:21:40.970345 30567 net.cpp:91] Creating Layer shuffle4
I0813 16:21:40.970350 30567 net.cpp:469] shuffle4 <- resx4_conv1
I0813 16:21:40.970352 30567 net.cpp:430] shuffle4 -> resx4_conv1 (in-place)
I0813 16:21:40.970357 30567 net.cpp:141] Setting up shuffle4
I0813 16:21:40.970361 30567 net.cpp:148] Top shape: 70 60 28 28 (3292800)
I0813 16:21:40.970365 30567 net.cpp:156] Memory required for data: 2040219160
I0813 16:21:40.970366 30567 layer_factory.hpp:77] Creating layer resx4_conv2
I0813 16:21:40.970372 30567 net.cpp:91] Creating Layer resx4_conv2
I0813 16:21:40.970376 30567 net.cpp:469] resx4_conv2 <- resx4_conv1
I0813 16:21:40.970379 30567 net.cpp:443] resx4_conv2 -> resx4_conv2
I0813 16:21:40.970429 30567 net.cpp:141] Setting up resx4_conv2
I0813 16:21:40.970438 30567 net.cpp:148] Top shape: 70 60 28 28 (3292800)
I0813 16:21:40.970440 30567 net.cpp:156] Memory required for data: 2053390360
I0813 16:21:40.970444 30567 layer_factory.hpp:77] Creating layer resx4_conv2_bn
I0813 16:21:40.970453 30567 net.cpp:91] Creating Layer resx4_conv2_bn
I0813 16:21:40.970459 30567 net.cpp:469] resx4_conv2_bn <- resx4_conv2
I0813 16:21:40.970468 30567 net.cpp:430] resx4_conv2_bn -> resx4_conv2 (in-place)
I0813 16:21:40.970480 30567 net.cpp:141] Setting up resx4_conv2_bn
I0813 16:21:40.970485 30567 net.cpp:148] Top shape: 70 60 28 28 (3292800)
I0813 16:21:40.970489 30567 net.cpp:156] Memory required for data: 2066561560
I0813 16:21:40.970494 30567 layer_factory.hpp:77] Creating layer resx4_conv2_scale
I0813 16:21:40.970500 30567 net.cpp:91] Creating Layer resx4_conv2_scale
I0813 16:21:40.970504 30567 net.cpp:469] resx4_conv2_scale <- resx4_conv2
I0813 16:21:40.970508 30567 net.cpp:430] resx4_conv2_scale -> resx4_conv2 (in-place)
I0813 16:21:40.970515 30567 layer_factory.hpp:77] Creating layer resx4_conv2_scale
I0813 16:21:40.970527 30567 net.cpp:141] Setting up resx4_conv2_scale
I0813 16:21:40.970532 30567 net.cpp:148] Top shape: 70 60 28 28 (3292800)
I0813 16:21:40.970535 30567 net.cpp:156] Memory required for data: 2079732760
I0813 16:21:40.970541 30567 layer_factory.hpp:77] Creating layer resx4_conv3
I0813 16:21:40.970546 30567 net.cpp:91] Creating Layer resx4_conv3
I0813 16:21:40.970551 30567 net.cpp:469] resx4_conv3 <- resx4_conv2
I0813 16:21:40.970556 30567 net.cpp:443] resx4_conv3 -> resx4_conv3
I0813 16:21:40.970683 30567 net.cpp:141] Setting up resx4_conv3
I0813 16:21:40.970688 30567 net.cpp:148] Top shape: 70 240 28 28 (13171200)
I0813 16:21:40.970690 30567 net.cpp:156] Memory required for data: 2132417560
I0813 16:21:40.970695 30567 layer_factory.hpp:77] Creating layer resx4_conv3_bn
I0813 16:21:40.970701 30567 net.cpp:91] Creating Layer resx4_conv3_bn
I0813 16:21:40.970705 30567 net.cpp:469] resx4_conv3_bn <- resx4_conv3
I0813 16:21:40.970708 30567 net.cpp:430] resx4_conv3_bn -> resx4_conv3 (in-place)
I0813 16:21:40.970719 30567 net.cpp:141] Setting up resx4_conv3_bn
I0813 16:21:40.970723 30567 net.cpp:148] Top shape: 70 240 28 28 (13171200)
I0813 16:21:40.970726 30567 net.cpp:156] Memory required for data: 2185102360
I0813 16:21:40.970733 30567 layer_factory.hpp:77] Creating layer resx4_conv3_scale
I0813 16:21:40.970738 30567 net.cpp:91] Creating Layer resx4_conv3_scale
I0813 16:21:40.970741 30567 net.cpp:469] resx4_conv3_scale <- resx4_conv3
I0813 16:21:40.970747 30567 net.cpp:430] resx4_conv3_scale -> resx4_conv3 (in-place)
I0813 16:21:40.970753 30567 layer_factory.hpp:77] Creating layer resx4_conv3_scale
I0813 16:21:40.970767 30567 net.cpp:141] Setting up resx4_conv3_scale
I0813 16:21:40.970772 30567 net.cpp:148] Top shape: 70 240 28 28 (13171200)
I0813 16:21:40.970775 30567 net.cpp:156] Memory required for data: 2237787160
I0813 16:21:40.970780 30567 layer_factory.hpp:77] Creating layer resx4_elewise
I0813 16:21:40.970785 30567 net.cpp:91] Creating Layer resx4_elewise
I0813 16:21:40.970788 30567 net.cpp:469] resx4_elewise <- resx3_elewise_resx3_elewise_relu_0_split_1
I0813 16:21:40.970793 30567 net.cpp:469] resx4_elewise <- resx4_conv3
I0813 16:21:40.970796 30567 net.cpp:443] resx4_elewise -> resx4_elewise
I0813 16:21:40.970801 30567 net.cpp:141] Setting up resx4_elewise
I0813 16:21:40.970805 30567 net.cpp:148] Top shape: 70 240 28 28 (13171200)
I0813 16:21:40.970808 30567 net.cpp:156] Memory required for data: 2290471960
I0813 16:21:40.970813 30567 layer_factory.hpp:77] Creating layer resx4_elewise_relu
I0813 16:21:40.970818 30567 net.cpp:91] Creating Layer resx4_elewise_relu
I0813 16:21:40.970821 30567 net.cpp:469] resx4_elewise_relu <- resx4_elewise
I0813 16:21:40.970825 30567 net.cpp:430] resx4_elewise_relu -> resx4_elewise (in-place)
I0813 16:21:40.970829 30567 net.cpp:141] Setting up resx4_elewise_relu
I0813 16:21:40.970834 30567 net.cpp:148] Top shape: 70 240 28 28 (13171200)
I0813 16:21:40.970836 30567 net.cpp:156] Memory required for data: 2343156760
I0813 16:21:40.970839 30567 layer_factory.hpp:77] Creating layer resx4_elewise_resx4_elewise_relu_0_split
I0813 16:21:40.970844 30567 net.cpp:91] Creating Layer resx4_elewise_resx4_elewise_relu_0_split
I0813 16:21:40.970846 30567 net.cpp:469] resx4_elewise_resx4_elewise_relu_0_split <- resx4_elewise
I0813 16:21:40.970859 30567 net.cpp:443] resx4_elewise_resx4_elewise_relu_0_split -> resx4_elewise_resx4_elewise_relu_0_split_0
I0813 16:21:40.970867 30567 net.cpp:443] resx4_elewise_resx4_elewise_relu_0_split -> resx4_elewise_resx4_elewise_relu_0_split_1
I0813 16:21:40.970872 30567 net.cpp:141] Setting up resx4_elewise_resx4_elewise_relu_0_split
I0813 16:21:40.970897 30567 net.cpp:148] Top shape: 70 240 28 28 (13171200)
I0813 16:21:40.970901 30567 net.cpp:148] Top shape: 70 240 28 28 (13171200)
I0813 16:21:40.970904 30567 net.cpp:156] Memory required for data: 2448526360
I0813 16:21:40.970908 30567 layer_factory.hpp:77] Creating layer resx5_match_conv
I0813 16:21:40.970916 30567 net.cpp:91] Creating Layer resx5_match_conv
I0813 16:21:40.970919 30567 net.cpp:469] resx5_match_conv <- resx4_elewise_resx4_elewise_relu_0_split_0
I0813 16:21:40.970923 30567 net.cpp:443] resx5_match_conv -> resx5_match_conv
I0813 16:21:40.970929 30567 net.cpp:141] Setting up resx5_match_conv
I0813 16:21:40.970935 30567 net.cpp:148] Top shape: 70 240 14 14 (3292800)
I0813 16:21:40.970938 30567 net.cpp:156] Memory required for data: 2461697560
I0813 16:21:40.970942 30567 layer_factory.hpp:77] Creating layer resx5_conv1
I0813 16:21:40.970953 30567 net.cpp:91] Creating Layer resx5_conv1
I0813 16:21:40.970957 30567 net.cpp:469] resx5_conv1 <- resx4_elewise_resx4_elewise_relu_0_split_1
I0813 16:21:40.970963 30567 net.cpp:443] resx5_conv1 -> resx5_conv1
I0813 16:21:40.971094 30567 net.cpp:141] Setting up resx5_conv1
I0813 16:21:40.971099 30567 net.cpp:148] Top shape: 70 60 28 28 (3292800)
I0813 16:21:40.971102 30567 net.cpp:156] Memory required for data: 2474868760
I0813 16:21:40.971107 30567 layer_factory.hpp:77] Creating layer resx5_conv1_bn
I0813 16:21:40.971114 30567 net.cpp:91] Creating Layer resx5_conv1_bn
I0813 16:21:40.971117 30567 net.cpp:469] resx5_conv1_bn <- resx5_conv1
I0813 16:21:40.971122 30567 net.cpp:430] resx5_conv1_bn -> resx5_conv1 (in-place)
I0813 16:21:40.971132 30567 net.cpp:141] Setting up resx5_conv1_bn
I0813 16:21:40.971137 30567 net.cpp:148] Top shape: 70 60 28 28 (3292800)
I0813 16:21:40.971139 30567 net.cpp:156] Memory required for data: 2488039960
I0813 16:21:40.971145 30567 layer_factory.hpp:77] Creating layer resx5_conv1_scale
I0813 16:21:40.971153 30567 net.cpp:91] Creating Layer resx5_conv1_scale
I0813 16:21:40.971155 30567 net.cpp:469] resx5_conv1_scale <- resx5_conv1
I0813 16:21:40.971159 30567 net.cpp:430] resx5_conv1_scale -> resx5_conv1 (in-place)
I0813 16:21:40.971166 30567 layer_factory.hpp:77] Creating layer resx5_conv1_scale
I0813 16:21:40.971180 30567 net.cpp:141] Setting up resx5_conv1_scale
I0813 16:21:40.971185 30567 net.cpp:148] Top shape: 70 60 28 28 (3292800)
I0813 16:21:40.971189 30567 net.cpp:156] Memory required for data: 2501211160
I0813 16:21:40.971194 30567 layer_factory.hpp:77] Creating layer resx5_conv1_relu
I0813 16:21:40.971199 30567 net.cpp:91] Creating Layer resx5_conv1_relu
I0813 16:21:40.971201 30567 net.cpp:469] resx5_conv1_relu <- resx5_conv1
I0813 16:21:40.971205 30567 net.cpp:430] resx5_conv1_relu -> resx5_conv1 (in-place)
I0813 16:21:40.971210 30567 net.cpp:141] Setting up resx5_conv1_relu
I0813 16:21:40.971213 30567 net.cpp:148] Top shape: 70 60 28 28 (3292800)
I0813 16:21:40.971216 30567 net.cpp:156] Memory required for data: 2514382360
I0813 16:21:40.971220 30567 layer_factory.hpp:77] Creating layer shuffle5
I0813 16:21:40.971225 30567 net.cpp:91] Creating Layer shuffle5
I0813 16:21:40.971227 30567 net.cpp:469] shuffle5 <- resx5_conv1
I0813 16:21:40.971232 30567 net.cpp:430] shuffle5 -> resx5_conv1 (in-place)
I0813 16:21:40.971236 30567 net.cpp:141] Setting up shuffle5
I0813 16:21:40.971240 30567 net.cpp:148] Top shape: 70 60 28 28 (3292800)
I0813 16:21:40.971243 30567 net.cpp:156] Memory required for data: 2527553560
I0813 16:21:40.971246 30567 layer_factory.hpp:77] Creating layer resx5_conv2
I0813 16:21:40.971252 30567 net.cpp:91] Creating Layer resx5_conv2
I0813 16:21:40.971256 30567 net.cpp:469] resx5_conv2 <- resx5_conv1
I0813 16:21:40.971261 30567 net.cpp:443] resx5_conv2 -> resx5_conv2
I0813 16:21:40.971316 30567 net.cpp:141] Setting up resx5_conv2
I0813 16:21:40.971325 30567 net.cpp:148] Top shape: 70 60 14 14 (823200)
I0813 16:21:40.971328 30567 net.cpp:156] Memory required for data: 2530846360
I0813 16:21:40.971333 30567 layer_factory.hpp:77] Creating layer resx5_conv2_bn
I0813 16:21:40.971338 30567 net.cpp:91] Creating Layer resx5_conv2_bn
I0813 16:21:40.971343 30567 net.cpp:469] resx5_conv2_bn <- resx5_conv2
I0813 16:21:40.971349 30567 net.cpp:430] resx5_conv2_bn -> resx5_conv2 (in-place)
I0813 16:21:40.971361 30567 net.cpp:141] Setting up resx5_conv2_bn
I0813 16:21:40.971365 30567 net.cpp:148] Top shape: 70 60 14 14 (823200)
I0813 16:21:40.971369 30567 net.cpp:156] Memory required for data: 2534139160
I0813 16:21:40.971374 30567 layer_factory.hpp:77] Creating layer resx5_conv2_scale
I0813 16:21:40.971379 30567 net.cpp:91] Creating Layer resx5_conv2_scale
I0813 16:21:40.971382 30567 net.cpp:469] resx5_conv2_scale <- resx5_conv2
I0813 16:21:40.971386 30567 net.cpp:430] resx5_conv2_scale -> resx5_conv2 (in-place)
I0813 16:21:40.971395 30567 layer_factory.hpp:77] Creating layer resx5_conv2_scale
I0813 16:21:40.971406 30567 net.cpp:141] Setting up resx5_conv2_scale
I0813 16:21:40.971412 30567 net.cpp:148] Top shape: 70 60 14 14 (823200)
I0813 16:21:40.971415 30567 net.cpp:156] Memory required for data: 2537431960
I0813 16:21:40.971420 30567 layer_factory.hpp:77] Creating layer resx5_conv3
I0813 16:21:40.971426 30567 net.cpp:91] Creating Layer resx5_conv3
I0813 16:21:40.971429 30567 net.cpp:469] resx5_conv3 <- resx5_conv2
I0813 16:21:40.971436 30567 net.cpp:443] resx5_conv3 -> resx5_conv3
I0813 16:21:40.971565 30567 net.cpp:141] Setting up resx5_conv3
I0813 16:21:40.971570 30567 net.cpp:148] Top shape: 70 240 14 14 (3292800)
I0813 16:21:40.971572 30567 net.cpp:156] Memory required for data: 2550603160
I0813 16:21:40.971576 30567 layer_factory.hpp:77] Creating layer resx5_conv3_bn
I0813 16:21:40.971581 30567 net.cpp:91] Creating Layer resx5_conv3_bn
I0813 16:21:40.971585 30567 net.cpp:469] resx5_conv3_bn <- resx5_conv3
I0813 16:21:40.971590 30567 net.cpp:430] resx5_conv3_bn -> resx5_conv3 (in-place)
I0813 16:21:40.971601 30567 net.cpp:141] Setting up resx5_conv3_bn
I0813 16:21:40.971604 30567 net.cpp:148] Top shape: 70 240 14 14 (3292800)
I0813 16:21:40.971607 30567 net.cpp:156] Memory required for data: 2563774360
I0813 16:21:40.971613 30567 layer_factory.hpp:77] Creating layer resx5_conv3_scale
I0813 16:21:40.971618 30567 net.cpp:91] Creating Layer resx5_conv3_scale
I0813 16:21:40.971621 30567 net.cpp:469] resx5_conv3_scale <- resx5_conv3
I0813 16:21:40.971626 30567 net.cpp:430] resx5_conv3_scale -> resx5_conv3 (in-place)
I0813 16:21:40.971633 30567 layer_factory.hpp:77] Creating layer resx5_conv3_scale
I0813 16:21:40.971649 30567 net.cpp:141] Setting up resx5_conv3_scale
I0813 16:21:40.971654 30567 net.cpp:148] Top shape: 70 240 14 14 (3292800)
I0813 16:21:40.971657 30567 net.cpp:156] Memory required for data: 2576945560
I0813 16:21:40.971662 30567 layer_factory.hpp:77] Creating layer resx5_concat
I0813 16:21:40.971666 30567 net.cpp:91] Creating Layer resx5_concat
I0813 16:21:40.971669 30567 net.cpp:469] resx5_concat <- resx5_match_conv
I0813 16:21:40.971675 30567 net.cpp:469] resx5_concat <- resx5_conv3
I0813 16:21:40.971679 30567 net.cpp:443] resx5_concat -> resx5_concat
I0813 16:21:40.971685 30567 net.cpp:141] Setting up resx5_concat
I0813 16:21:40.971689 30567 net.cpp:148] Top shape: 70 480 14 14 (6585600)
I0813 16:21:40.971693 30567 net.cpp:156] Memory required for data: 2603287960
I0813 16:21:40.971695 30567 layer_factory.hpp:77] Creating layer resx5_concat_relu
I0813 16:21:40.971699 30567 net.cpp:91] Creating Layer resx5_concat_relu
I0813 16:21:40.971704 30567 net.cpp:469] resx5_concat_relu <- resx5_concat
I0813 16:21:40.971709 30567 net.cpp:430] resx5_concat_relu -> resx5_concat (in-place)
I0813 16:21:40.971712 30567 net.cpp:141] Setting up resx5_concat_relu
I0813 16:21:40.971716 30567 net.cpp:148] Top shape: 70 480 14 14 (6585600)
I0813 16:21:40.971719 30567 net.cpp:156] Memory required for data: 2629630360
I0813 16:21:40.971730 30567 layer_factory.hpp:77] Creating layer resx5_concat_resx5_concat_relu_0_split
I0813 16:21:40.971735 30567 net.cpp:91] Creating Layer resx5_concat_resx5_concat_relu_0_split
I0813 16:21:40.971737 30567 net.cpp:469] resx5_concat_resx5_concat_relu_0_split <- resx5_concat
I0813 16:21:40.971742 30567 net.cpp:443] resx5_concat_resx5_concat_relu_0_split -> resx5_concat_resx5_concat_relu_0_split_0
I0813 16:21:40.971748 30567 net.cpp:443] resx5_concat_resx5_concat_relu_0_split -> resx5_concat_resx5_concat_relu_0_split_1
I0813 16:21:40.971755 30567 net.cpp:141] Setting up resx5_concat_resx5_concat_relu_0_split
I0813 16:21:40.971758 30567 net.cpp:148] Top shape: 70 480 14 14 (6585600)
I0813 16:21:40.971761 30567 net.cpp:148] Top shape: 70 480 14 14 (6585600)
I0813 16:21:40.971765 30567 net.cpp:156] Memory required for data: 2682315160
I0813 16:21:40.971767 30567 layer_factory.hpp:77] Creating layer resx6_conv1
I0813 16:21:40.971776 30567 net.cpp:91] Creating Layer resx6_conv1
I0813 16:21:40.971779 30567 net.cpp:469] resx6_conv1 <- resx5_concat_resx5_concat_relu_0_split_0
I0813 16:21:40.971783 30567 net.cpp:443] resx6_conv1 -> resx6_conv1
I0813 16:21:40.972266 30567 net.cpp:141] Setting up resx6_conv1
I0813 16:21:40.972271 30567 net.cpp:148] Top shape: 70 120 14 14 (1646400)
I0813 16:21:40.972275 30567 net.cpp:156] Memory required for data: 2688900760
I0813 16:21:40.972278 30567 layer_factory.hpp:77] Creating layer resx6_conv1_bn
I0813 16:21:40.972285 30567 net.cpp:91] Creating Layer resx6_conv1_bn
I0813 16:21:40.972288 30567 net.cpp:469] resx6_conv1_bn <- resx6_conv1
I0813 16:21:40.972292 30567 net.cpp:430] resx6_conv1_bn -> resx6_conv1 (in-place)
I0813 16:21:40.972304 30567 net.cpp:141] Setting up resx6_conv1_bn
I0813 16:21:40.972308 30567 net.cpp:148] Top shape: 70 120 14 14 (1646400)
I0813 16:21:40.972311 30567 net.cpp:156] Memory required for data: 2695486360
I0813 16:21:40.972319 30567 layer_factory.hpp:77] Creating layer resx6_conv1_scale
I0813 16:21:40.972326 30567 net.cpp:91] Creating Layer resx6_conv1_scale
I0813 16:21:40.972329 30567 net.cpp:469] resx6_conv1_scale <- resx6_conv1
I0813 16:21:40.972333 30567 net.cpp:430] resx6_conv1_scale -> resx6_conv1 (in-place)
I0813 16:21:40.972340 30567 layer_factory.hpp:77] Creating layer resx6_conv1_scale
I0813 16:21:40.972352 30567 net.cpp:141] Setting up resx6_conv1_scale
I0813 16:21:40.972355 30567 net.cpp:148] Top shape: 70 120 14 14 (1646400)
I0813 16:21:40.972358 30567 net.cpp:156] Memory required for data: 2702071960
I0813 16:21:40.972363 30567 layer_factory.hpp:77] Creating layer resx6_conv1_relu
I0813 16:21:40.972368 30567 net.cpp:91] Creating Layer resx6_conv1_relu
I0813 16:21:40.972370 30567 net.cpp:469] resx6_conv1_relu <- resx6_conv1
I0813 16:21:40.972376 30567 net.cpp:430] resx6_conv1_relu -> resx6_conv1 (in-place)
I0813 16:21:40.972380 30567 net.cpp:141] Setting up resx6_conv1_relu
I0813 16:21:40.972384 30567 net.cpp:148] Top shape: 70 120 14 14 (1646400)
I0813 16:21:40.972388 30567 net.cpp:156] Memory required for data: 2708657560
I0813 16:21:40.972390 30567 layer_factory.hpp:77] Creating layer shuffle6
I0813 16:21:40.972395 30567 net.cpp:91] Creating Layer shuffle6
I0813 16:21:40.972398 30567 net.cpp:469] shuffle6 <- resx6_conv1
I0813 16:21:40.972403 30567 net.cpp:430] shuffle6 -> resx6_conv1 (in-place)
I0813 16:21:40.972406 30567 net.cpp:141] Setting up shuffle6
I0813 16:21:40.972410 30567 net.cpp:148] Top shape: 70 120 14 14 (1646400)
I0813 16:21:40.972414 30567 net.cpp:156] Memory required for data: 2715243160
I0813 16:21:40.972416 30567 layer_factory.hpp:77] Creating layer resx6_conv2
I0813 16:21:40.972424 30567 net.cpp:91] Creating Layer resx6_conv2
I0813 16:21:40.972427 30567 net.cpp:469] resx6_conv2 <- resx6_conv1
I0813 16:21:40.972431 30567 net.cpp:443] resx6_conv2 -> resx6_conv2
I0813 16:21:40.972498 30567 net.cpp:141] Setting up resx6_conv2
I0813 16:21:40.972506 30567 net.cpp:148] Top shape: 70 120 14 14 (1646400)
I0813 16:21:40.972509 30567 net.cpp:156] Memory required for data: 2721828760
I0813 16:21:40.972517 30567 layer_factory.hpp:77] Creating layer resx6_conv2_bn
I0813 16:21:40.972529 30567 net.cpp:91] Creating Layer resx6_conv2_bn
I0813 16:21:40.972533 30567 net.cpp:469] resx6_conv2_bn <- resx6_conv2
I0813 16:21:40.972537 30567 net.cpp:430] resx6_conv2_bn -> resx6_conv2 (in-place)
I0813 16:21:40.972548 30567 net.cpp:141] Setting up resx6_conv2_bn
I0813 16:21:40.972553 30567 net.cpp:148] Top shape: 70 120 14 14 (1646400)
I0813 16:21:40.972555 30567 net.cpp:156] Memory required for data: 2728414360
I0813 16:21:40.972561 30567 layer_factory.hpp:77] Creating layer resx6_conv2_scale
I0813 16:21:40.972568 30567 net.cpp:91] Creating Layer resx6_conv2_scale
I0813 16:21:40.972570 30567 net.cpp:469] resx6_conv2_scale <- resx6_conv2
I0813 16:21:40.972574 30567 net.cpp:430] resx6_conv2_scale -> resx6_conv2 (in-place)
I0813 16:21:40.972581 30567 layer_factory.hpp:77] Creating layer resx6_conv2_scale
I0813 16:21:40.972594 30567 net.cpp:141] Setting up resx6_conv2_scale
I0813 16:21:40.972597 30567 net.cpp:148] Top shape: 70 120 14 14 (1646400)
I0813 16:21:40.972600 30567 net.cpp:156] Memory required for data: 2734999960
I0813 16:21:40.972605 30567 layer_factory.hpp:77] Creating layer resx6_conv3
I0813 16:21:40.972612 30567 net.cpp:91] Creating Layer resx6_conv3
I0813 16:21:40.972616 30567 net.cpp:469] resx6_conv3 <- resx6_conv2
I0813 16:21:40.972620 30567 net.cpp:443] resx6_conv3 -> resx6_conv3
I0813 16:21:40.973107 30567 net.cpp:141] Setting up resx6_conv3
I0813 16:21:40.973115 30567 net.cpp:148] Top shape: 70 480 14 14 (6585600)
I0813 16:21:40.973119 30567 net.cpp:156] Memory required for data: 2761342360
I0813 16:21:40.973122 30567 layer_factory.hpp:77] Creating layer resx6_conv3_bn
I0813 16:21:40.973129 30567 net.cpp:91] Creating Layer resx6_conv3_bn
I0813 16:21:40.973134 30567 net.cpp:469] resx6_conv3_bn <- resx6_conv3
I0813 16:21:40.973137 30567 net.cpp:430] resx6_conv3_bn -> resx6_conv3 (in-place)
I0813 16:21:40.973151 30567 net.cpp:141] Setting up resx6_conv3_bn
I0813 16:21:40.973155 30567 net.cpp:148] Top shape: 70 480 14 14 (6585600)
I0813 16:21:40.973158 30567 net.cpp:156] Memory required for data: 2787684760
I0813 16:21:40.973163 30567 layer_factory.hpp:77] Creating layer resx6_conv3_scale
I0813 16:21:40.973168 30567 net.cpp:91] Creating Layer resx6_conv3_scale
I0813 16:21:40.973172 30567 net.cpp:469] resx6_conv3_scale <- resx6_conv3
I0813 16:21:40.973177 30567 net.cpp:430] resx6_conv3_scale -> resx6_conv3 (in-place)
I0813 16:21:40.973186 30567 layer_factory.hpp:77] Creating layer resx6_conv3_scale
I0813 16:21:40.973203 30567 net.cpp:141] Setting up resx6_conv3_scale
I0813 16:21:40.973207 30567 net.cpp:148] Top shape: 70 480 14 14 (6585600)
I0813 16:21:40.973211 30567 net.cpp:156] Memory required for data: 2814027160
I0813 16:21:40.973215 30567 layer_factory.hpp:77] Creating layer resx6_elewise
I0813 16:21:40.973220 30567 net.cpp:91] Creating Layer resx6_elewise
I0813 16:21:40.973223 30567 net.cpp:469] resx6_elewise <- resx5_concat_resx5_concat_relu_0_split_1
I0813 16:21:40.973227 30567 net.cpp:469] resx6_elewise <- resx6_conv3
I0813 16:21:40.973232 30567 net.cpp:443] resx6_elewise -> resx6_elewise
I0813 16:21:40.973237 30567 net.cpp:141] Setting up resx6_elewise
I0813 16:21:40.973242 30567 net.cpp:148] Top shape: 70 480 14 14 (6585600)
I0813 16:21:40.973244 30567 net.cpp:156] Memory required for data: 2840369560
I0813 16:21:40.973248 30567 layer_factory.hpp:77] Creating layer resx6_elewise_relu
I0813 16:21:40.973253 30567 net.cpp:91] Creating Layer resx6_elewise_relu
I0813 16:21:40.973258 30567 net.cpp:469] resx6_elewise_relu <- resx6_elewise
I0813 16:21:40.973261 30567 net.cpp:430] resx6_elewise_relu -> resx6_elewise (in-place)
I0813 16:21:40.973265 30567 net.cpp:141] Setting up resx6_elewise_relu
I0813 16:21:40.973269 30567 net.cpp:148] Top shape: 70 480 14 14 (6585600)
I0813 16:21:40.973273 30567 net.cpp:156] Memory required for data: 2866711960
I0813 16:21:40.973275 30567 layer_factory.hpp:77] Creating layer resx6_elewise_resx6_elewise_relu_0_split
I0813 16:21:40.973279 30567 net.cpp:91] Creating Layer resx6_elewise_resx6_elewise_relu_0_split
I0813 16:21:40.973290 30567 net.cpp:469] resx6_elewise_resx6_elewise_relu_0_split <- resx6_elewise
I0813 16:21:40.973294 30567 net.cpp:443] resx6_elewise_resx6_elewise_relu_0_split -> resx6_elewise_resx6_elewise_relu_0_split_0
I0813 16:21:40.973299 30567 net.cpp:443] resx6_elewise_resx6_elewise_relu_0_split -> resx6_elewise_resx6_elewise_relu_0_split_1
I0813 16:21:40.973304 30567 net.cpp:141] Setting up resx6_elewise_resx6_elewise_relu_0_split
I0813 16:21:40.973309 30567 net.cpp:148] Top shape: 70 480 14 14 (6585600)
I0813 16:21:40.973312 30567 net.cpp:148] Top shape: 70 480 14 14 (6585600)
I0813 16:21:40.973315 30567 net.cpp:156] Memory required for data: 2919396760
I0813 16:21:40.973318 30567 layer_factory.hpp:77] Creating layer resx7_conv1
I0813 16:21:40.973325 30567 net.cpp:91] Creating Layer resx7_conv1
I0813 16:21:40.973330 30567 net.cpp:469] resx7_conv1 <- resx6_elewise_resx6_elewise_relu_0_split_0
I0813 16:21:40.973333 30567 net.cpp:443] resx7_conv1 -> resx7_conv1
I0813 16:21:40.973816 30567 net.cpp:141] Setting up resx7_conv1
I0813 16:21:40.973821 30567 net.cpp:148] Top shape: 70 120 14 14 (1646400)
I0813 16:21:40.973824 30567 net.cpp:156] Memory required for data: 2925982360
I0813 16:21:40.973829 30567 layer_factory.hpp:77] Creating layer resx7_conv1_bn
I0813 16:21:40.973835 30567 net.cpp:91] Creating Layer resx7_conv1_bn
I0813 16:21:40.973839 30567 net.cpp:469] resx7_conv1_bn <- resx7_conv1
I0813 16:21:40.973845 30567 net.cpp:430] resx7_conv1_bn -> resx7_conv1 (in-place)
I0813 16:21:40.973856 30567 net.cpp:141] Setting up resx7_conv1_bn
I0813 16:21:40.973860 30567 net.cpp:148] Top shape: 70 120 14 14 (1646400)
I0813 16:21:40.973863 30567 net.cpp:156] Memory required for data: 2932567960
I0813 16:21:40.973870 30567 layer_factory.hpp:77] Creating layer resx7_conv1_scale
I0813 16:21:40.973875 30567 net.cpp:91] Creating Layer resx7_conv1_scale
I0813 16:21:40.973878 30567 net.cpp:469] resx7_conv1_scale <- resx7_conv1
I0813 16:21:40.973882 30567 net.cpp:430] resx7_conv1_scale -> resx7_conv1 (in-place)
I0813 16:21:40.973891 30567 layer_factory.hpp:77] Creating layer resx7_conv1_scale
I0813 16:21:40.973902 30567 net.cpp:141] Setting up resx7_conv1_scale
I0813 16:21:40.973906 30567 net.cpp:148] Top shape: 70 120 14 14 (1646400)
I0813 16:21:40.973909 30567 net.cpp:156] Memory required for data: 2939153560
I0813 16:21:40.973914 30567 layer_factory.hpp:77] Creating layer resx7_conv1_relu
I0813 16:21:40.973920 30567 net.cpp:91] Creating Layer resx7_conv1_relu
I0813 16:21:40.973923 30567 net.cpp:469] resx7_conv1_relu <- resx7_conv1
I0813 16:21:40.973927 30567 net.cpp:430] resx7_conv1_relu -> resx7_conv1 (in-place)
I0813 16:21:40.973932 30567 net.cpp:141] Setting up resx7_conv1_relu
I0813 16:21:40.973935 30567 net.cpp:148] Top shape: 70 120 14 14 (1646400)
I0813 16:21:40.973938 30567 net.cpp:156] Memory required for data: 2945739160
I0813 16:21:40.973942 30567 layer_factory.hpp:77] Creating layer shuffle7
I0813 16:21:40.973947 30567 net.cpp:91] Creating Layer shuffle7
I0813 16:21:40.973949 30567 net.cpp:469] shuffle7 <- resx7_conv1
I0813 16:21:40.973958 30567 net.cpp:430] shuffle7 -> resx7_conv1 (in-place)
I0813 16:21:40.973963 30567 net.cpp:141] Setting up shuffle7
I0813 16:21:40.973965 30567 net.cpp:148] Top shape: 70 120 14 14 (1646400)
I0813 16:21:40.973968 30567 net.cpp:156] Memory required for data: 2952324760
I0813 16:21:40.973971 30567 layer_factory.hpp:77] Creating layer resx7_conv2
I0813 16:21:40.973978 30567 net.cpp:91] Creating Layer resx7_conv2
I0813 16:21:40.973980 30567 net.cpp:469] resx7_conv2 <- resx7_conv1
I0813 16:21:40.973986 30567 net.cpp:443] resx7_conv2 -> resx7_conv2
I0813 16:21:40.974048 30567 net.cpp:141] Setting up resx7_conv2
I0813 16:21:40.974056 30567 net.cpp:148] Top shape: 70 120 14 14 (1646400)
I0813 16:21:40.974058 30567 net.cpp:156] Memory required for data: 2958910360
I0813 16:21:40.974063 30567 layer_factory.hpp:77] Creating layer resx7_conv2_bn
I0813 16:21:40.974071 30567 net.cpp:91] Creating Layer resx7_conv2_bn
I0813 16:21:40.974078 30567 net.cpp:469] resx7_conv2_bn <- resx7_conv2
I0813 16:21:40.974087 30567 net.cpp:430] resx7_conv2_bn -> resx7_conv2 (in-place)
I0813 16:21:40.974098 30567 net.cpp:141] Setting up resx7_conv2_bn
I0813 16:21:40.974103 30567 net.cpp:148] Top shape: 70 120 14 14 (1646400)
I0813 16:21:40.974107 30567 net.cpp:156] Memory required for data: 2965495960
I0813 16:21:40.974112 30567 layer_factory.hpp:77] Creating layer resx7_conv2_scale
I0813 16:21:40.974117 30567 net.cpp:91] Creating Layer resx7_conv2_scale
I0813 16:21:40.974119 30567 net.cpp:469] resx7_conv2_scale <- resx7_conv2
I0813 16:21:40.974126 30567 net.cpp:430] resx7_conv2_scale -> resx7_conv2 (in-place)
I0813 16:21:40.974133 30567 layer_factory.hpp:77] Creating layer resx7_conv2_scale
I0813 16:21:40.974143 30567 net.cpp:141] Setting up resx7_conv2_scale
I0813 16:21:40.974148 30567 net.cpp:148] Top shape: 70 120 14 14 (1646400)
I0813 16:21:40.974150 30567 net.cpp:156] Memory required for data: 2972081560
I0813 16:21:40.974155 30567 layer_factory.hpp:77] Creating layer resx7_conv3
I0813 16:21:40.974164 30567 net.cpp:91] Creating Layer resx7_conv3
I0813 16:21:40.974167 30567 net.cpp:469] resx7_conv3 <- resx7_conv2
I0813 16:21:40.974172 30567 net.cpp:443] resx7_conv3 -> resx7_conv3
I0813 16:21:40.974653 30567 net.cpp:141] Setting up resx7_conv3
I0813 16:21:40.974658 30567 net.cpp:148] Top shape: 70 480 14 14 (6585600)
I0813 16:21:40.974661 30567 net.cpp:156] Memory required for data: 2998423960
I0813 16:21:40.974665 30567 layer_factory.hpp:77] Creating layer resx7_conv3_bn
I0813 16:21:40.974671 30567 net.cpp:91] Creating Layer resx7_conv3_bn
I0813 16:21:40.974680 30567 net.cpp:469] resx7_conv3_bn <- resx7_conv3
I0813 16:21:40.974685 30567 net.cpp:430] resx7_conv3_bn -> resx7_conv3 (in-place)
I0813 16:21:40.974709 30567 net.cpp:141] Setting up resx7_conv3_bn
I0813 16:21:40.974714 30567 net.cpp:148] Top shape: 70 480 14 14 (6585600)
I0813 16:21:40.974716 30567 net.cpp:156] Memory required for data: 3024766360
I0813 16:21:40.974738 30567 layer_factory.hpp:77] Creating layer resx7_conv3_scale
I0813 16:21:40.974745 30567 net.cpp:91] Creating Layer resx7_conv3_scale
I0813 16:21:40.974748 30567 net.cpp:469] resx7_conv3_scale <- resx7_conv3
I0813 16:21:40.974755 30567 net.cpp:430] resx7_conv3_scale -> resx7_conv3 (in-place)
I0813 16:21:40.974763 30567 layer_factory.hpp:77] Creating layer resx7_conv3_scale
I0813 16:21:40.974774 30567 net.cpp:141] Setting up resx7_conv3_scale
I0813 16:21:40.974778 30567 net.cpp:148] Top shape: 70 480 14 14 (6585600)
I0813 16:21:40.974781 30567 net.cpp:156] Memory required for data: 3051108760
I0813 16:21:40.974786 30567 layer_factory.hpp:77] Creating layer resx7_elewise
I0813 16:21:40.974792 30567 net.cpp:91] Creating Layer resx7_elewise
I0813 16:21:40.974797 30567 net.cpp:469] resx7_elewise <- resx6_elewise_resx6_elewise_relu_0_split_1
I0813 16:21:40.974800 30567 net.cpp:469] resx7_elewise <- resx7_conv3
I0813 16:21:40.974804 30567 net.cpp:443] resx7_elewise -> resx7_elewise
I0813 16:21:40.974809 30567 net.cpp:141] Setting up resx7_elewise
I0813 16:21:40.974813 30567 net.cpp:148] Top shape: 70 480 14 14 (6585600)
I0813 16:21:40.974817 30567 net.cpp:156] Memory required for data: 3077451160
I0813 16:21:40.974819 30567 layer_factory.hpp:77] Creating layer resx7_elewise_relu
I0813 16:21:40.974824 30567 net.cpp:91] Creating Layer resx7_elewise_relu
I0813 16:21:40.974828 30567 net.cpp:469] resx7_elewise_relu <- resx7_elewise
I0813 16:21:40.974831 30567 net.cpp:430] resx7_elewise_relu -> resx7_elewise (in-place)
I0813 16:21:40.974835 30567 net.cpp:141] Setting up resx7_elewise_relu
I0813 16:21:40.974839 30567 net.cpp:148] Top shape: 70 480 14 14 (6585600)
I0813 16:21:40.974843 30567 net.cpp:156] Memory required for data: 3103793560
I0813 16:21:40.974845 30567 layer_factory.hpp:77] Creating layer resx7_elewise_resx7_elewise_relu_0_split
I0813 16:21:40.974849 30567 net.cpp:91] Creating Layer resx7_elewise_resx7_elewise_relu_0_split
I0813 16:21:40.974853 30567 net.cpp:469] resx7_elewise_resx7_elewise_relu_0_split <- resx7_elewise
I0813 16:21:40.974858 30567 net.cpp:443] resx7_elewise_resx7_elewise_relu_0_split -> resx7_elewise_resx7_elewise_relu_0_split_0
I0813 16:21:40.974871 30567 net.cpp:443] resx7_elewise_resx7_elewise_relu_0_split -> resx7_elewise_resx7_elewise_relu_0_split_1
I0813 16:21:40.974876 30567 net.cpp:141] Setting up resx7_elewise_resx7_elewise_relu_0_split
I0813 16:21:40.974880 30567 net.cpp:148] Top shape: 70 480 14 14 (6585600)
I0813 16:21:40.974884 30567 net.cpp:148] Top shape: 70 480 14 14 (6585600)
I0813 16:21:40.974887 30567 net.cpp:156] Memory required for data: 3156478360
I0813 16:21:40.974890 30567 layer_factory.hpp:77] Creating layer resx8_conv1
I0813 16:21:40.974897 30567 net.cpp:91] Creating Layer resx8_conv1
I0813 16:21:40.974901 30567 net.cpp:469] resx8_conv1 <- resx7_elewise_resx7_elewise_relu_0_split_0
I0813 16:21:40.974905 30567 net.cpp:443] resx8_conv1 -> resx8_conv1
I0813 16:21:40.975389 30567 net.cpp:141] Setting up resx8_conv1
I0813 16:21:40.975395 30567 net.cpp:148] Top shape: 70 120 14 14 (1646400)
I0813 16:21:40.975397 30567 net.cpp:156] Memory required for data: 3163063960
I0813 16:21:40.975402 30567 layer_factory.hpp:77] Creating layer resx8_conv1_bn
I0813 16:21:40.975409 30567 net.cpp:91] Creating Layer resx8_conv1_bn
I0813 16:21:40.975412 30567 net.cpp:469] resx8_conv1_bn <- resx8_conv1
I0813 16:21:40.975416 30567 net.cpp:430] resx8_conv1_bn -> resx8_conv1 (in-place)
I0813 16:21:40.975427 30567 net.cpp:141] Setting up resx8_conv1_bn
I0813 16:21:40.975431 30567 net.cpp:148] Top shape: 70 120 14 14 (1646400)
I0813 16:21:40.975435 30567 net.cpp:156] Memory required for data: 3169649560
I0813 16:21:40.975440 30567 layer_factory.hpp:77] Creating layer resx8_conv1_scale
I0813 16:21:40.975446 30567 net.cpp:91] Creating Layer resx8_conv1_scale
I0813 16:21:40.975450 30567 net.cpp:469] resx8_conv1_scale <- resx8_conv1
I0813 16:21:40.975453 30567 net.cpp:430] resx8_conv1_scale -> resx8_conv1 (in-place)
I0813 16:21:40.975461 30567 layer_factory.hpp:77] Creating layer resx8_conv1_scale
I0813 16:21:40.975471 30567 net.cpp:141] Setting up resx8_conv1_scale
I0813 16:21:40.975476 30567 net.cpp:148] Top shape: 70 120 14 14 (1646400)
I0813 16:21:40.975478 30567 net.cpp:156] Memory required for data: 3176235160
I0813 16:21:40.975483 30567 layer_factory.hpp:77] Creating layer resx8_conv1_relu
I0813 16:21:40.975489 30567 net.cpp:91] Creating Layer resx8_conv1_relu
I0813 16:21:40.975492 30567 net.cpp:469] resx8_conv1_relu <- resx8_conv1
I0813 16:21:40.975497 30567 net.cpp:430] resx8_conv1_relu -> resx8_conv1 (in-place)
I0813 16:21:40.975500 30567 net.cpp:141] Setting up resx8_conv1_relu
I0813 16:21:40.975504 30567 net.cpp:148] Top shape: 70 120 14 14 (1646400)
I0813 16:21:40.975507 30567 net.cpp:156] Memory required for data: 3182820760
I0813 16:21:40.975510 30567 layer_factory.hpp:77] Creating layer shuffle8
I0813 16:21:40.975515 30567 net.cpp:91] Creating Layer shuffle8
I0813 16:21:40.975518 30567 net.cpp:469] shuffle8 <- resx8_conv1
I0813 16:21:40.975522 30567 net.cpp:430] shuffle8 -> resx8_conv1 (in-place)
I0813 16:21:40.975527 30567 net.cpp:141] Setting up shuffle8
I0813 16:21:40.975530 30567 net.cpp:148] Top shape: 70 120 14 14 (1646400)
I0813 16:21:40.975533 30567 net.cpp:156] Memory required for data: 3189406360
I0813 16:21:40.975536 30567 layer_factory.hpp:77] Creating layer resx8_conv2
I0813 16:21:40.975543 30567 net.cpp:91] Creating Layer resx8_conv2
I0813 16:21:40.975548 30567 net.cpp:469] resx8_conv2 <- resx8_conv1
I0813 16:21:40.975556 30567 net.cpp:443] resx8_conv2 -> resx8_conv2
I0813 16:21:40.975620 30567 net.cpp:141] Setting up resx8_conv2
I0813 16:21:40.975628 30567 net.cpp:148] Top shape: 70 120 14 14 (1646400)
I0813 16:21:40.975631 30567 net.cpp:156] Memory required for data: 3195991960
I0813 16:21:40.975636 30567 layer_factory.hpp:77] Creating layer resx8_conv2_bn
I0813 16:21:40.975641 30567 net.cpp:91] Creating Layer resx8_conv2_bn
I0813 16:21:40.975644 30567 net.cpp:469] resx8_conv2_bn <- resx8_conv2
I0813 16:21:40.975648 30567 net.cpp:430] resx8_conv2_bn -> resx8_conv2 (in-place)
I0813 16:21:40.975661 30567 net.cpp:141] Setting up resx8_conv2_bn
I0813 16:21:40.975668 30567 net.cpp:148] Top shape: 70 120 14 14 (1646400)
I0813 16:21:40.975677 30567 net.cpp:156] Memory required for data: 3202577560
I0813 16:21:40.975682 30567 layer_factory.hpp:77] Creating layer resx8_conv2_scale
I0813 16:21:40.975688 30567 net.cpp:91] Creating Layer resx8_conv2_scale
I0813 16:21:40.975692 30567 net.cpp:469] resx8_conv2_scale <- resx8_conv2
I0813 16:21:40.975697 30567 net.cpp:430] resx8_conv2_scale -> resx8_conv2 (in-place)
I0813 16:21:40.975703 30567 layer_factory.hpp:77] Creating layer resx8_conv2_scale
I0813 16:21:40.975714 30567 net.cpp:141] Setting up resx8_conv2_scale
I0813 16:21:40.975720 30567 net.cpp:148] Top shape: 70 120 14 14 (1646400)
I0813 16:21:40.975723 30567 net.cpp:156] Memory required for data: 3209163160
I0813 16:21:40.975728 30567 layer_factory.hpp:77] Creating layer resx8_conv3
I0813 16:21:40.975734 30567 net.cpp:91] Creating Layer resx8_conv3
I0813 16:21:40.975738 30567 net.cpp:469] resx8_conv3 <- resx8_conv2
I0813 16:21:40.975742 30567 net.cpp:443] resx8_conv3 -> resx8_conv3
I0813 16:21:40.976224 30567 net.cpp:141] Setting up resx8_conv3
I0813 16:21:40.976230 30567 net.cpp:148] Top shape: 70 480 14 14 (6585600)
I0813 16:21:40.976233 30567 net.cpp:156] Memory required for data: 3235505560
I0813 16:21:40.976238 30567 layer_factory.hpp:77] Creating layer resx8_conv3_bn
I0813 16:21:40.976243 30567 net.cpp:91] Creating Layer resx8_conv3_bn
I0813 16:21:40.976248 30567 net.cpp:469] resx8_conv3_bn <- resx8_conv3
I0813 16:21:40.976251 30567 net.cpp:430] resx8_conv3_bn -> resx8_conv3 (in-place)
I0813 16:21:40.976264 30567 net.cpp:141] Setting up resx8_conv3_bn
I0813 16:21:40.976269 30567 net.cpp:148] Top shape: 70 480 14 14 (6585600)
I0813 16:21:40.976271 30567 net.cpp:156] Memory required for data: 3261847960
I0813 16:21:40.976277 30567 layer_factory.hpp:77] Creating layer resx8_conv3_scale
I0813 16:21:40.976284 30567 net.cpp:91] Creating Layer resx8_conv3_scale
I0813 16:21:40.976287 30567 net.cpp:469] resx8_conv3_scale <- resx8_conv3
I0813 16:21:40.976291 30567 net.cpp:430] resx8_conv3_scale -> resx8_conv3 (in-place)
I0813 16:21:40.976300 30567 layer_factory.hpp:77] Creating layer resx8_conv3_scale
I0813 16:21:40.976316 30567 net.cpp:141] Setting up resx8_conv3_scale
I0813 16:21:40.976320 30567 net.cpp:148] Top shape: 70 480 14 14 (6585600)
I0813 16:21:40.976323 30567 net.cpp:156] Memory required for data: 3288190360
I0813 16:21:40.976328 30567 layer_factory.hpp:77] Creating layer resx8_elewise
I0813 16:21:40.976333 30567 net.cpp:91] Creating Layer resx8_elewise
I0813 16:21:40.976336 30567 net.cpp:469] resx8_elewise <- resx7_elewise_resx7_elewise_relu_0_split_1
I0813 16:21:40.976341 30567 net.cpp:469] resx8_elewise <- resx8_conv3
I0813 16:21:40.976346 30567 net.cpp:443] resx8_elewise -> resx8_elewise
I0813 16:21:40.976351 30567 net.cpp:141] Setting up resx8_elewise
I0813 16:21:40.976356 30567 net.cpp:148] Top shape: 70 480 14 14 (6585600)
I0813 16:21:40.976358 30567 net.cpp:156] Memory required for data: 3314532760
I0813 16:21:40.976361 30567 layer_factory.hpp:77] Creating layer resx8_elewise_relu
I0813 16:21:40.976366 30567 net.cpp:91] Creating Layer resx8_elewise_relu
I0813 16:21:40.976369 30567 net.cpp:469] resx8_elewise_relu <- resx8_elewise
I0813 16:21:40.976374 30567 net.cpp:430] resx8_elewise_relu -> resx8_elewise (in-place)
I0813 16:21:40.976379 30567 net.cpp:141] Setting up resx8_elewise_relu
I0813 16:21:40.976383 30567 net.cpp:148] Top shape: 70 480 14 14 (6585600)
I0813 16:21:40.976387 30567 net.cpp:156] Memory required for data: 3340875160
I0813 16:21:40.976389 30567 layer_factory.hpp:77] Creating layer resx8_elewise_resx8_elewise_relu_0_split
I0813 16:21:40.976393 30567 net.cpp:91] Creating Layer resx8_elewise_resx8_elewise_relu_0_split
I0813 16:21:40.976397 30567 net.cpp:469] resx8_elewise_resx8_elewise_relu_0_split <- resx8_elewise
I0813 16:21:40.976400 30567 net.cpp:443] resx8_elewise_resx8_elewise_relu_0_split -> resx8_elewise_resx8_elewise_relu_0_split_0
I0813 16:21:40.976405 30567 net.cpp:443] resx8_elewise_resx8_elewise_relu_0_split -> resx8_elewise_resx8_elewise_relu_0_split_1
I0813 16:21:40.976418 30567 net.cpp:141] Setting up resx8_elewise_resx8_elewise_relu_0_split
I0813 16:21:40.976423 30567 net.cpp:148] Top shape: 70 480 14 14 (6585600)
I0813 16:21:40.976425 30567 net.cpp:148] Top shape: 70 480 14 14 (6585600)
I0813 16:21:40.976428 30567 net.cpp:156] Memory required for data: 3393559960
I0813 16:21:40.976431 30567 layer_factory.hpp:77] Creating layer resx9_conv1
I0813 16:21:40.976439 30567 net.cpp:91] Creating Layer resx9_conv1
I0813 16:21:40.976444 30567 net.cpp:469] resx9_conv1 <- resx8_elewise_resx8_elewise_relu_0_split_0
I0813 16:21:40.976447 30567 net.cpp:443] resx9_conv1 -> resx9_conv1
I0813 16:21:40.976930 30567 net.cpp:141] Setting up resx9_conv1
I0813 16:21:40.976936 30567 net.cpp:148] Top shape: 70 120 14 14 (1646400)
I0813 16:21:40.976939 30567 net.cpp:156] Memory required for data: 3400145560
I0813 16:21:40.976943 30567 layer_factory.hpp:77] Creating layer resx9_conv1_bn
I0813 16:21:40.976951 30567 net.cpp:91] Creating Layer resx9_conv1_bn
I0813 16:21:40.976954 30567 net.cpp:469] resx9_conv1_bn <- resx9_conv1
I0813 16:21:40.976960 30567 net.cpp:430] resx9_conv1_bn -> resx9_conv1 (in-place)
I0813 16:21:40.976971 30567 net.cpp:141] Setting up resx9_conv1_bn
I0813 16:21:40.976975 30567 net.cpp:148] Top shape: 70 120 14 14 (1646400)
I0813 16:21:40.976979 30567 net.cpp:156] Memory required for data: 3406731160
I0813 16:21:40.976984 30567 layer_factory.hpp:77] Creating layer resx9_conv1_scale
I0813 16:21:40.976991 30567 net.cpp:91] Creating Layer resx9_conv1_scale
I0813 16:21:40.976994 30567 net.cpp:469] resx9_conv1_scale <- resx9_conv1
I0813 16:21:40.977000 30567 net.cpp:430] resx9_conv1_scale -> resx9_conv1 (in-place)
I0813 16:21:40.977006 30567 layer_factory.hpp:77] Creating layer resx9_conv1_scale
I0813 16:21:40.977017 30567 net.cpp:141] Setting up resx9_conv1_scale
I0813 16:21:40.977022 30567 net.cpp:148] Top shape: 70 120 14 14 (1646400)
I0813 16:21:40.977025 30567 net.cpp:156] Memory required for data: 3413316760
I0813 16:21:40.977030 30567 layer_factory.hpp:77] Creating layer resx9_conv1_relu
I0813 16:21:40.977038 30567 net.cpp:91] Creating Layer resx9_conv1_relu
I0813 16:21:40.977041 30567 net.cpp:469] resx9_conv1_relu <- resx9_conv1
I0813 16:21:40.977046 30567 net.cpp:430] resx9_conv1_relu -> resx9_conv1 (in-place)
I0813 16:21:40.977049 30567 net.cpp:141] Setting up resx9_conv1_relu
I0813 16:21:40.977053 30567 net.cpp:148] Top shape: 70 120 14 14 (1646400)
I0813 16:21:40.977072 30567 net.cpp:156] Memory required for data: 3419902360
I0813 16:21:40.977084 30567 layer_factory.hpp:77] Creating layer shuffle9
I0813 16:21:40.977099 30567 net.cpp:91] Creating Layer shuffle9
I0813 16:21:40.977102 30567 net.cpp:469] shuffle9 <- resx9_conv1
I0813 16:21:40.977107 30567 net.cpp:430] shuffle9 -> resx9_conv1 (in-place)
I0813 16:21:40.977113 30567 net.cpp:141] Setting up shuffle9
I0813 16:21:40.977116 30567 net.cpp:148] Top shape: 70 120 14 14 (1646400)
I0813 16:21:40.977119 30567 net.cpp:156] Memory required for data: 3426487960
I0813 16:21:40.977274 30567 layer_factory.hpp:77] Creating layer resx9_conv2
I0813 16:21:40.977284 30567 net.cpp:91] Creating Layer resx9_conv2
I0813 16:21:40.977288 30567 net.cpp:469] resx9_conv2 <- resx9_conv1
I0813 16:21:40.977295 30567 net.cpp:443] resx9_conv2 -> resx9_conv2
I0813 16:21:40.977366 30567 net.cpp:141] Setting up resx9_conv2
I0813 16:21:40.977375 30567 net.cpp:148] Top shape: 70 120 14 14 (1646400)
I0813 16:21:40.977380 30567 net.cpp:156] Memory required for data: 3433073560
I0813 16:21:40.977385 30567 layer_factory.hpp:77] Creating layer resx9_conv2_bn
I0813 16:21:40.977391 30567 net.cpp:91] Creating Layer resx9_conv2_bn
I0813 16:21:40.977396 30567 net.cpp:469] resx9_conv2_bn <- resx9_conv2
I0813 16:21:40.977399 30567 net.cpp:430] resx9_conv2_bn -> resx9_conv2 (in-place)
I0813 16:21:40.977411 30567 net.cpp:141] Setting up resx9_conv2_bn
I0813 16:21:40.977416 30567 net.cpp:148] Top shape: 70 120 14 14 (1646400)
I0813 16:21:40.977419 30567 net.cpp:156] Memory required for data: 3439659160
I0813 16:21:40.977428 30567 layer_factory.hpp:77] Creating layer resx9_conv2_scale
I0813 16:21:40.977440 30567 net.cpp:91] Creating Layer resx9_conv2_scale
I0813 16:21:40.977445 30567 net.cpp:469] resx9_conv2_scale <- resx9_conv2
I0813 16:21:40.977449 30567 net.cpp:430] resx9_conv2_scale -> resx9_conv2 (in-place)
I0813 16:21:40.977457 30567 layer_factory.hpp:77] Creating layer resx9_conv2_scale
I0813 16:21:40.977468 30567 net.cpp:141] Setting up resx9_conv2_scale
I0813 16:21:40.977473 30567 net.cpp:148] Top shape: 70 120 14 14 (1646400)
I0813 16:21:40.977476 30567 net.cpp:156] Memory required for data: 3446244760
I0813 16:21:40.977481 30567 layer_factory.hpp:77] Creating layer resx9_conv3
I0813 16:21:40.977496 30567 net.cpp:91] Creating Layer resx9_conv3
I0813 16:21:40.977501 30567 net.cpp:469] resx9_conv3 <- resx9_conv2
I0813 16:21:40.977506 30567 net.cpp:443] resx9_conv3 -> resx9_conv3
I0813 16:21:40.978001 30567 net.cpp:141] Setting up resx9_conv3
I0813 16:21:40.978008 30567 net.cpp:148] Top shape: 70 480 14 14 (6585600)
I0813 16:21:40.978010 30567 net.cpp:156] Memory required for data: 3472587160
I0813 16:21:40.978014 30567 layer_factory.hpp:77] Creating layer resx9_conv3_bn
I0813 16:21:40.978020 30567 net.cpp:91] Creating Layer resx9_conv3_bn
I0813 16:21:40.978024 30567 net.cpp:469] resx9_conv3_bn <- resx9_conv3
I0813 16:21:40.978029 30567 net.cpp:430] resx9_conv3_bn -> resx9_conv3 (in-place)
I0813 16:21:40.978041 30567 net.cpp:141] Setting up resx9_conv3_bn
I0813 16:21:40.978045 30567 net.cpp:148] Top shape: 70 480 14 14 (6585600)
I0813 16:21:40.978049 30567 net.cpp:156] Memory required for data: 3498929560
I0813 16:21:40.978054 30567 layer_factory.hpp:77] Creating layer resx9_conv3_scale
I0813 16:21:40.978060 30567 net.cpp:91] Creating Layer resx9_conv3_scale
I0813 16:21:40.978063 30567 net.cpp:469] resx9_conv3_scale <- resx9_conv3
I0813 16:21:40.978067 30567 net.cpp:430] resx9_conv3_scale -> resx9_conv3 (in-place)
I0813 16:21:40.978080 30567 layer_factory.hpp:77] Creating layer resx9_conv3_scale
I0813 16:21:40.978101 30567 net.cpp:141] Setting up resx9_conv3_scale
I0813 16:21:40.978104 30567 net.cpp:148] Top shape: 70 480 14 14 (6585600)
I0813 16:21:40.978107 30567 net.cpp:156] Memory required for data: 3525271960
I0813 16:21:40.978111 30567 layer_factory.hpp:77] Creating layer resx9_elewise
I0813 16:21:40.978116 30567 net.cpp:91] Creating Layer resx9_elewise
I0813 16:21:40.978121 30567 net.cpp:469] resx9_elewise <- resx8_elewise_resx8_elewise_relu_0_split_1
I0813 16:21:40.978123 30567 net.cpp:469] resx9_elewise <- resx9_conv3
I0813 16:21:40.978129 30567 net.cpp:443] resx9_elewise -> resx9_elewise
I0813 16:21:40.978135 30567 net.cpp:141] Setting up resx9_elewise
I0813 16:21:40.978139 30567 net.cpp:148] Top shape: 70 480 14 14 (6585600)
I0813 16:21:40.978142 30567 net.cpp:156] Memory required for data: 3551614360
I0813 16:21:40.978145 30567 layer_factory.hpp:77] Creating layer resx9_elewise_relu
I0813 16:21:40.978149 30567 net.cpp:91] Creating Layer resx9_elewise_relu
I0813 16:21:40.978152 30567 net.cpp:469] resx9_elewise_relu <- resx9_elewise
I0813 16:21:40.978157 30567 net.cpp:430] resx9_elewise_relu -> resx9_elewise (in-place)
I0813 16:21:40.978160 30567 net.cpp:141] Setting up resx9_elewise_relu
I0813 16:21:40.978164 30567 net.cpp:148] Top shape: 70 480 14 14 (6585600)
I0813 16:21:40.978168 30567 net.cpp:156] Memory required for data: 3577956760
I0813 16:21:40.978170 30567 layer_factory.hpp:77] Creating layer resx9_elewise_resx9_elewise_relu_0_split
I0813 16:21:40.978176 30567 net.cpp:91] Creating Layer resx9_elewise_resx9_elewise_relu_0_split
I0813 16:21:40.978179 30567 net.cpp:469] resx9_elewise_resx9_elewise_relu_0_split <- resx9_elewise
I0813 16:21:40.978183 30567 net.cpp:443] resx9_elewise_resx9_elewise_relu_0_split -> resx9_elewise_resx9_elewise_relu_0_split_0
I0813 16:21:40.978188 30567 net.cpp:443] resx9_elewise_resx9_elewise_relu_0_split -> resx9_elewise_resx9_elewise_relu_0_split_1
I0813 16:21:40.978193 30567 net.cpp:141] Setting up resx9_elewise_resx9_elewise_relu_0_split
I0813 16:21:40.978197 30567 net.cpp:148] Top shape: 70 480 14 14 (6585600)
I0813 16:21:40.978209 30567 net.cpp:148] Top shape: 70 480 14 14 (6585600)
I0813 16:21:40.978212 30567 net.cpp:156] Memory required for data: 3630641560
I0813 16:21:40.978215 30567 layer_factory.hpp:77] Creating layer resx10_conv1
I0813 16:21:40.978221 30567 net.cpp:91] Creating Layer resx10_conv1
I0813 16:21:40.978225 30567 net.cpp:469] resx10_conv1 <- resx9_elewise_resx9_elewise_relu_0_split_0
I0813 16:21:40.978232 30567 net.cpp:443] resx10_conv1 -> resx10_conv1
I0813 16:21:40.978715 30567 net.cpp:141] Setting up resx10_conv1
I0813 16:21:40.978723 30567 net.cpp:148] Top shape: 70 120 14 14 (1646400)
I0813 16:21:40.978725 30567 net.cpp:156] Memory required for data: 3637227160
I0813 16:21:40.978729 30567 layer_factory.hpp:77] Creating layer resx10_conv1_bn
I0813 16:21:40.978734 30567 net.cpp:91] Creating Layer resx10_conv1_bn
I0813 16:21:40.978739 30567 net.cpp:469] resx10_conv1_bn <- resx10_conv1
I0813 16:21:40.978744 30567 net.cpp:430] resx10_conv1_bn -> resx10_conv1 (in-place)
I0813 16:21:40.978755 30567 net.cpp:141] Setting up resx10_conv1_bn
I0813 16:21:40.978760 30567 net.cpp:148] Top shape: 70 120 14 14 (1646400)
I0813 16:21:40.978762 30567 net.cpp:156] Memory required for data: 3643812760
I0813 16:21:40.978767 30567 layer_factory.hpp:77] Creating layer resx10_conv1_scale
I0813 16:21:40.978775 30567 net.cpp:91] Creating Layer resx10_conv1_scale
I0813 16:21:40.978777 30567 net.cpp:469] resx10_conv1_scale <- resx10_conv1
I0813 16:21:40.978781 30567 net.cpp:430] resx10_conv1_scale -> resx10_conv1 (in-place)
I0813 16:21:40.978790 30567 layer_factory.hpp:77] Creating layer resx10_conv1_scale
I0813 16:21:40.978806 30567 net.cpp:141] Setting up resx10_conv1_scale
I0813 16:21:40.978811 30567 net.cpp:148] Top shape: 70 120 14 14 (1646400)
I0813 16:21:40.978813 30567 net.cpp:156] Memory required for data: 3650398360
I0813 16:21:40.978817 30567 layer_factory.hpp:77] Creating layer resx10_conv1_relu
I0813 16:21:40.978822 30567 net.cpp:91] Creating Layer resx10_conv1_relu
I0813 16:21:40.978826 30567 net.cpp:469] resx10_conv1_relu <- resx10_conv1
I0813 16:21:40.978829 30567 net.cpp:430] resx10_conv1_relu -> resx10_conv1 (in-place)
I0813 16:21:40.978833 30567 net.cpp:141] Setting up resx10_conv1_relu
I0813 16:21:40.978837 30567 net.cpp:148] Top shape: 70 120 14 14 (1646400)
I0813 16:21:40.978840 30567 net.cpp:156] Memory required for data: 3656983960
I0813 16:21:40.978843 30567 layer_factory.hpp:77] Creating layer shuffle10
I0813 16:21:40.978848 30567 net.cpp:91] Creating Layer shuffle10
I0813 16:21:40.978852 30567 net.cpp:469] shuffle10 <- resx10_conv1
I0813 16:21:40.978857 30567 net.cpp:430] shuffle10 -> resx10_conv1 (in-place)
I0813 16:21:40.978862 30567 net.cpp:141] Setting up shuffle10
I0813 16:21:40.978865 30567 net.cpp:148] Top shape: 70 120 14 14 (1646400)
I0813 16:21:40.978868 30567 net.cpp:156] Memory required for data: 3663569560
I0813 16:21:40.978871 30567 layer_factory.hpp:77] Creating layer resx10_conv2
I0813 16:21:40.978876 30567 net.cpp:91] Creating Layer resx10_conv2
I0813 16:21:40.978881 30567 net.cpp:469] resx10_conv2 <- resx10_conv1
I0813 16:21:40.978885 30567 net.cpp:443] resx10_conv2 -> resx10_conv2
I0813 16:21:40.978947 30567 net.cpp:141] Setting up resx10_conv2
I0813 16:21:40.978956 30567 net.cpp:148] Top shape: 70 120 14 14 (1646400)
I0813 16:21:40.978960 30567 net.cpp:156] Memory required for data: 3670155160
I0813 16:21:40.978963 30567 layer_factory.hpp:77] Creating layer resx10_conv2_bn
I0813 16:21:40.978970 30567 net.cpp:91] Creating Layer resx10_conv2_bn
I0813 16:21:40.978972 30567 net.cpp:469] resx10_conv2_bn <- resx10_conv2
I0813 16:21:40.978976 30567 net.cpp:430] resx10_conv2_bn -> resx10_conv2 (in-place)
I0813 16:21:40.978987 30567 net.cpp:141] Setting up resx10_conv2_bn
I0813 16:21:40.978992 30567 net.cpp:148] Top shape: 70 120 14 14 (1646400)
I0813 16:21:40.978994 30567 net.cpp:156] Memory required for data: 3676740760
I0813 16:21:40.979001 30567 layer_factory.hpp:77] Creating layer resx10_conv2_scale
I0813 16:21:40.979005 30567 net.cpp:91] Creating Layer resx10_conv2_scale
I0813 16:21:40.979012 30567 net.cpp:469] resx10_conv2_scale <- resx10_conv2
I0813 16:21:40.979020 30567 net.cpp:430] resx10_conv2_scale -> resx10_conv2 (in-place)
I0813 16:21:40.979027 30567 layer_factory.hpp:77] Creating layer resx10_conv2_scale
I0813 16:21:40.979038 30567 net.cpp:141] Setting up resx10_conv2_scale
I0813 16:21:40.979043 30567 net.cpp:148] Top shape: 70 120 14 14 (1646400)
I0813 16:21:40.979045 30567 net.cpp:156] Memory required for data: 3683326360
I0813 16:21:40.979050 30567 layer_factory.hpp:77] Creating layer resx10_conv3
I0813 16:21:40.979056 30567 net.cpp:91] Creating Layer resx10_conv3
I0813 16:21:40.979060 30567 net.cpp:469] resx10_conv3 <- resx10_conv2
I0813 16:21:40.979066 30567 net.cpp:443] resx10_conv3 -> resx10_conv3
I0813 16:21:40.979555 30567 net.cpp:141] Setting up resx10_conv3
I0813 16:21:40.979562 30567 net.cpp:148] Top shape: 70 480 14 14 (6585600)
I0813 16:21:40.979564 30567 net.cpp:156] Memory required for data: 3709668760
I0813 16:21:40.979568 30567 layer_factory.hpp:77] Creating layer resx10_conv3_bn
I0813 16:21:40.979575 30567 net.cpp:91] Creating Layer resx10_conv3_bn
I0813 16:21:40.979578 30567 net.cpp:469] resx10_conv3_bn <- resx10_conv3
I0813 16:21:40.979584 30567 net.cpp:430] resx10_conv3_bn -> resx10_conv3 (in-place)
I0813 16:21:40.979596 30567 net.cpp:141] Setting up resx10_conv3_bn
I0813 16:21:40.979600 30567 net.cpp:148] Top shape: 70 480 14 14 (6585600)
I0813 16:21:40.979604 30567 net.cpp:156] Memory required for data: 3736011160
I0813 16:21:40.979610 30567 layer_factory.hpp:77] Creating layer resx10_conv3_scale
I0813 16:21:40.979615 30567 net.cpp:91] Creating Layer resx10_conv3_scale
I0813 16:21:40.979619 30567 net.cpp:469] resx10_conv3_scale <- resx10_conv3
I0813 16:21:40.979627 30567 net.cpp:430] resx10_conv3_scale -> resx10_conv3 (in-place)
I0813 16:21:40.979636 30567 layer_factory.hpp:77] Creating layer resx10_conv3_scale
I0813 16:21:40.979647 30567 net.cpp:141] Setting up resx10_conv3_scale
I0813 16:21:40.979652 30567 net.cpp:148] Top shape: 70 480 14 14 (6585600)
I0813 16:21:40.979660 30567 net.cpp:156] Memory required for data: 3762353560
I0813 16:21:40.979665 30567 layer_factory.hpp:77] Creating layer resx10_elewise
I0813 16:21:40.979671 30567 net.cpp:91] Creating Layer resx10_elewise
I0813 16:21:40.979674 30567 net.cpp:469] resx10_elewise <- resx9_elewise_resx9_elewise_relu_0_split_1
I0813 16:21:40.979681 30567 net.cpp:469] resx10_elewise <- resx10_conv3
I0813 16:21:40.979684 30567 net.cpp:443] resx10_elewise -> resx10_elewise
I0813 16:21:40.979691 30567 net.cpp:141] Setting up resx10_elewise
I0813 16:21:40.979694 30567 net.cpp:148] Top shape: 70 480 14 14 (6585600)
I0813 16:21:40.979697 30567 net.cpp:156] Memory required for data: 3788695960
I0813 16:21:40.979701 30567 layer_factory.hpp:77] Creating layer resx10_elewise_relu
I0813 16:21:40.979706 30567 net.cpp:91] Creating Layer resx10_elewise_relu
I0813 16:21:40.979708 30567 net.cpp:469] resx10_elewise_relu <- resx10_elewise
I0813 16:21:40.979713 30567 net.cpp:430] resx10_elewise_relu -> resx10_elewise (in-place)
I0813 16:21:40.979718 30567 net.cpp:141] Setting up resx10_elewise_relu
I0813 16:21:40.979722 30567 net.cpp:148] Top shape: 70 480 14 14 (6585600)
I0813 16:21:40.979725 30567 net.cpp:156] Memory required for data: 3815038360
I0813 16:21:40.979728 30567 layer_factory.hpp:77] Creating layer resx10_elewise_resx10_elewise_relu_0_split
I0813 16:21:40.979732 30567 net.cpp:91] Creating Layer resx10_elewise_resx10_elewise_relu_0_split
I0813 16:21:40.979735 30567 net.cpp:469] resx10_elewise_resx10_elewise_relu_0_split <- resx10_elewise
I0813 16:21:40.979739 30567 net.cpp:443] resx10_elewise_resx10_elewise_relu_0_split -> resx10_elewise_resx10_elewise_relu_0_split_0
I0813 16:21:40.979744 30567 net.cpp:443] resx10_elewise_resx10_elewise_relu_0_split -> resx10_elewise_resx10_elewise_relu_0_split_1
I0813 16:21:40.979749 30567 net.cpp:141] Setting up resx10_elewise_resx10_elewise_relu_0_split
I0813 16:21:40.979753 30567 net.cpp:148] Top shape: 70 480 14 14 (6585600)
I0813 16:21:40.979760 30567 net.cpp:148] Top shape: 70 480 14 14 (6585600)
I0813 16:21:40.979768 30567 net.cpp:156] Memory required for data: 3867723160
I0813 16:21:40.979771 30567 layer_factory.hpp:77] Creating layer resx11_conv1
I0813 16:21:40.979777 30567 net.cpp:91] Creating Layer resx11_conv1
I0813 16:21:40.979781 30567 net.cpp:469] resx11_conv1 <- resx10_elewise_resx10_elewise_relu_0_split_0
I0813 16:21:40.979787 30567 net.cpp:443] resx11_conv1 -> resx11_conv1
I0813 16:21:40.980271 30567 net.cpp:141] Setting up resx11_conv1
I0813 16:21:40.980278 30567 net.cpp:148] Top shape: 70 120 14 14 (1646400)
I0813 16:21:40.980280 30567 net.cpp:156] Memory required for data: 3874308760
I0813 16:21:40.980284 30567 layer_factory.hpp:77] Creating layer resx11_conv1_bn
I0813 16:21:40.980289 30567 net.cpp:91] Creating Layer resx11_conv1_bn
I0813 16:21:40.980293 30567 net.cpp:469] resx11_conv1_bn <- resx11_conv1
I0813 16:21:40.980298 30567 net.cpp:430] resx11_conv1_bn -> resx11_conv1 (in-place)
I0813 16:21:40.980310 30567 net.cpp:141] Setting up resx11_conv1_bn
I0813 16:21:40.980315 30567 net.cpp:148] Top shape: 70 120 14 14 (1646400)
I0813 16:21:40.980319 30567 net.cpp:156] Memory required for data: 3880894360
I0813 16:21:40.980324 30567 layer_factory.hpp:77] Creating layer resx11_conv1_scale
I0813 16:21:40.980329 30567 net.cpp:91] Creating Layer resx11_conv1_scale
I0813 16:21:40.980331 30567 net.cpp:469] resx11_conv1_scale <- resx11_conv1
I0813 16:21:40.980337 30567 net.cpp:430] resx11_conv1_scale -> resx11_conv1 (in-place)
I0813 16:21:40.980345 30567 layer_factory.hpp:77] Creating layer resx11_conv1_scale
I0813 16:21:40.980360 30567 net.cpp:141] Setting up resx11_conv1_scale
I0813 16:21:40.980363 30567 net.cpp:148] Top shape: 70 120 14 14 (1646400)
I0813 16:21:40.980366 30567 net.cpp:156] Memory required for data: 3887479960
I0813 16:21:40.980371 30567 layer_factory.hpp:77] Creating layer resx11_conv1_relu
I0813 16:21:40.980376 30567 net.cpp:91] Creating Layer resx11_conv1_relu
I0813 16:21:40.980378 30567 net.cpp:469] resx11_conv1_relu <- resx11_conv1
I0813 16:21:40.980382 30567 net.cpp:430] resx11_conv1_relu -> resx11_conv1 (in-place)
I0813 16:21:40.980386 30567 net.cpp:141] Setting up resx11_conv1_relu
I0813 16:21:40.980391 30567 net.cpp:148] Top shape: 70 120 14 14 (1646400)
I0813 16:21:40.980393 30567 net.cpp:156] Memory required for data: 3894065560
I0813 16:21:40.980396 30567 layer_factory.hpp:77] Creating layer shuffle11
I0813 16:21:40.980403 30567 net.cpp:91] Creating Layer shuffle11
I0813 16:21:40.980406 30567 net.cpp:469] shuffle11 <- resx11_conv1
I0813 16:21:40.980409 30567 net.cpp:430] shuffle11 -> resx11_conv1 (in-place)
I0813 16:21:40.980414 30567 net.cpp:141] Setting up shuffle11
I0813 16:21:40.980417 30567 net.cpp:148] Top shape: 70 120 14 14 (1646400)
I0813 16:21:40.980420 30567 net.cpp:156] Memory required for data: 3900651160
I0813 16:21:40.980424 30567 layer_factory.hpp:77] Creating layer resx11_conv2
I0813 16:21:40.980430 30567 net.cpp:91] Creating Layer resx11_conv2
I0813 16:21:40.980434 30567 net.cpp:469] resx11_conv2 <- resx11_conv1
I0813 16:21:40.980438 30567 net.cpp:443] resx11_conv2 -> resx11_conv2
I0813 16:21:40.980499 30567 net.cpp:141] Setting up resx11_conv2
I0813 16:21:40.980507 30567 net.cpp:148] Top shape: 70 120 14 14 (1646400)
I0813 16:21:40.980510 30567 net.cpp:156] Memory required for data: 3907236760
I0813 16:21:40.980515 30567 layer_factory.hpp:77] Creating layer resx11_conv2_bn
I0813 16:21:40.980520 30567 net.cpp:91] Creating Layer resx11_conv2_bn
I0813 16:21:40.980525 30567 net.cpp:469] resx11_conv2_bn <- resx11_conv2
I0813 16:21:40.980530 30567 net.cpp:430] resx11_conv2_bn -> resx11_conv2 (in-place)
I0813 16:21:40.980540 30567 net.cpp:141] Setting up resx11_conv2_bn
I0813 16:21:40.980545 30567 net.cpp:148] Top shape: 70 120 14 14 (1646400)
I0813 16:21:40.980547 30567 net.cpp:156] Memory required for data: 3913822360
I0813 16:21:40.980553 30567 layer_factory.hpp:77] Creating layer resx11_conv2_scale
I0813 16:21:40.980558 30567 net.cpp:91] Creating Layer resx11_conv2_scale
I0813 16:21:40.980562 30567 net.cpp:469] resx11_conv2_scale <- resx11_conv2
I0813 16:21:40.980573 30567 net.cpp:430] resx11_conv2_scale -> resx11_conv2 (in-place)
I0813 16:21:40.980582 30567 layer_factory.hpp:77] Creating layer resx11_conv2_scale
I0813 16:21:40.980593 30567 net.cpp:141] Setting up resx11_conv2_scale
I0813 16:21:40.980598 30567 net.cpp:148] Top shape: 70 120 14 14 (1646400)
I0813 16:21:40.980602 30567 net.cpp:156] Memory required for data: 3920407960
I0813 16:21:40.980609 30567 layer_factory.hpp:77] Creating layer resx11_conv3
I0813 16:21:40.980618 30567 net.cpp:91] Creating Layer resx11_conv3
I0813 16:21:40.980623 30567 net.cpp:469] resx11_conv3 <- resx11_conv2
I0813 16:21:40.980628 30567 net.cpp:443] resx11_conv3 -> resx11_conv3
I0813 16:21:40.981118 30567 net.cpp:141] Setting up resx11_conv3
I0813 16:21:40.981127 30567 net.cpp:148] Top shape: 70 480 14 14 (6585600)
I0813 16:21:40.981129 30567 net.cpp:156] Memory required for data: 3946750360
I0813 16:21:40.981133 30567 layer_factory.hpp:77] Creating layer resx11_conv3_bn
I0813 16:21:40.981138 30567 net.cpp:91] Creating Layer resx11_conv3_bn
I0813 16:21:40.981142 30567 net.cpp:469] resx11_conv3_bn <- resx11_conv3
I0813 16:21:40.981148 30567 net.cpp:430] resx11_conv3_bn -> resx11_conv3 (in-place)
I0813 16:21:40.981166 30567 net.cpp:141] Setting up resx11_conv3_bn
I0813 16:21:40.981170 30567 net.cpp:148] Top shape: 70 480 14 14 (6585600)
I0813 16:21:40.981173 30567 net.cpp:156] Memory required for data: 3973092760
I0813 16:21:40.981180 30567 layer_factory.hpp:77] Creating layer resx11_conv3_scale
I0813 16:21:40.981187 30567 net.cpp:91] Creating Layer resx11_conv3_scale
I0813 16:21:40.981190 30567 net.cpp:469] resx11_conv3_scale <- resx11_conv3
I0813 16:21:40.981194 30567 net.cpp:430] resx11_conv3_scale -> resx11_conv3 (in-place)
I0813 16:21:40.981204 30567 layer_factory.hpp:77] Creating layer resx11_conv3_scale
I0813 16:21:40.981216 30567 net.cpp:141] Setting up resx11_conv3_scale
I0813 16:21:40.981220 30567 net.cpp:148] Top shape: 70 480 14 14 (6585600)
I0813 16:21:40.981223 30567 net.cpp:156] Memory required for data: 3999435160
I0813 16:21:40.981227 30567 layer_factory.hpp:77] Creating layer resx11_elewise
I0813 16:21:40.981235 30567 net.cpp:91] Creating Layer resx11_elewise
I0813 16:21:40.981237 30567 net.cpp:469] resx11_elewise <- resx10_elewise_resx10_elewise_relu_0_split_1
I0813 16:21:40.981241 30567 net.cpp:469] resx11_elewise <- resx11_conv3
I0813 16:21:40.981245 30567 net.cpp:443] resx11_elewise -> resx11_elewise
I0813 16:21:40.981251 30567 net.cpp:141] Setting up resx11_elewise
I0813 16:21:40.981256 30567 net.cpp:148] Top shape: 70 480 14 14 (6585600)
I0813 16:21:40.981259 30567 net.cpp:156] Memory required for data: 4025777560
I0813 16:21:40.981262 30567 layer_factory.hpp:77] Creating layer resx11_elewise_relu
I0813 16:21:40.981267 30567 net.cpp:91] Creating Layer resx11_elewise_relu
I0813 16:21:40.981271 30567 net.cpp:469] resx11_elewise_relu <- resx11_elewise
I0813 16:21:40.981274 30567 net.cpp:430] resx11_elewise_relu -> resx11_elewise (in-place)
I0813 16:21:40.981278 30567 net.cpp:141] Setting up resx11_elewise_relu
I0813 16:21:40.981282 30567 net.cpp:148] Top shape: 70 480 14 14 (6585600)
I0813 16:21:40.981286 30567 net.cpp:156] Memory required for data: 4052119960
I0813 16:21:40.981288 30567 layer_factory.hpp:77] Creating layer resx11_elewise_resx11_elewise_relu_0_split
I0813 16:21:40.981292 30567 net.cpp:91] Creating Layer resx11_elewise_resx11_elewise_relu_0_split
I0813 16:21:40.981295 30567 net.cpp:469] resx11_elewise_resx11_elewise_relu_0_split <- resx11_elewise
I0813 16:21:40.981302 30567 net.cpp:443] resx11_elewise_resx11_elewise_relu_0_split -> resx11_elewise_resx11_elewise_relu_0_split_0
I0813 16:21:40.981307 30567 net.cpp:443] resx11_elewise_resx11_elewise_relu_0_split -> resx11_elewise_resx11_elewise_relu_0_split_1
I0813 16:21:40.981312 30567 net.cpp:141] Setting up resx11_elewise_resx11_elewise_relu_0_split
I0813 16:21:40.981315 30567 net.cpp:148] Top shape: 70 480 14 14 (6585600)
I0813 16:21:40.981318 30567 net.cpp:148] Top shape: 70 480 14 14 (6585600)
I0813 16:21:40.981325 30567 net.cpp:156] Memory required for data: 4104804760
I0813 16:21:40.981333 30567 layer_factory.hpp:77] Creating layer resx12_conv1
I0813 16:21:40.981339 30567 net.cpp:91] Creating Layer resx12_conv1
I0813 16:21:40.981343 30567 net.cpp:469] resx12_conv1 <- resx11_elewise_resx11_elewise_relu_0_split_0
I0813 16:21:40.981348 30567 net.cpp:443] resx12_conv1 -> resx12_conv1
I0813 16:21:40.981827 30567 net.cpp:141] Setting up resx12_conv1
I0813 16:21:40.981833 30567 net.cpp:148] Top shape: 70 120 14 14 (1646400)
I0813 16:21:40.981837 30567 net.cpp:156] Memory required for data: 4111390360
I0813 16:21:40.981840 30567 layer_factory.hpp:77] Creating layer resx12_conv1_bn
I0813 16:21:40.981848 30567 net.cpp:91] Creating Layer resx12_conv1_bn
I0813 16:21:40.981850 30567 net.cpp:469] resx12_conv1_bn <- resx12_conv1
I0813 16:21:40.981854 30567 net.cpp:430] resx12_conv1_bn -> resx12_conv1 (in-place)
I0813 16:21:40.981866 30567 net.cpp:141] Setting up resx12_conv1_bn
I0813 16:21:40.981870 30567 net.cpp:148] Top shape: 70 120 14 14 (1646400)
I0813 16:21:40.981873 30567 net.cpp:156] Memory required for data: 4117975960
I0813 16:21:40.981878 30567 layer_factory.hpp:77] Creating layer resx12_conv1_scale
I0813 16:21:40.981885 30567 net.cpp:91] Creating Layer resx12_conv1_scale
I0813 16:21:40.981889 30567 net.cpp:469] resx12_conv1_scale <- resx12_conv1
I0813 16:21:40.981892 30567 net.cpp:430] resx12_conv1_scale -> resx12_conv1 (in-place)
I0813 16:21:40.981899 30567 layer_factory.hpp:77] Creating layer resx12_conv1_scale
I0813 16:21:40.981911 30567 net.cpp:141] Setting up resx12_conv1_scale
I0813 16:21:40.981915 30567 net.cpp:148] Top shape: 70 120 14 14 (1646400)
I0813 16:21:40.981919 30567 net.cpp:156] Memory required for data: 4124561560
I0813 16:21:40.981925 30567 layer_factory.hpp:77] Creating layer resx12_conv1_relu
I0813 16:21:40.981930 30567 net.cpp:91] Creating Layer resx12_conv1_relu
I0813 16:21:40.981933 30567 net.cpp:469] resx12_conv1_relu <- resx12_conv1
I0813 16:21:40.981937 30567 net.cpp:430] resx12_conv1_relu -> resx12_conv1 (in-place)
I0813 16:21:40.981941 30567 net.cpp:141] Setting up resx12_conv1_relu
I0813 16:21:40.981945 30567 net.cpp:148] Top shape: 70 120 14 14 (1646400)
I0813 16:21:40.981948 30567 net.cpp:156] Memory required for data: 4131147160
I0813 16:21:40.981951 30567 layer_factory.hpp:77] Creating layer shuffle12
I0813 16:21:40.981956 30567 net.cpp:91] Creating Layer shuffle12
I0813 16:21:40.981959 30567 net.cpp:469] shuffle12 <- resx12_conv1
I0813 16:21:40.981962 30567 net.cpp:430] shuffle12 -> resx12_conv1 (in-place)
I0813 16:21:40.981967 30567 net.cpp:141] Setting up shuffle12
I0813 16:21:40.981971 30567 net.cpp:148] Top shape: 70 120 14 14 (1646400)
I0813 16:21:40.981973 30567 net.cpp:156] Memory required for data: 4137732760
I0813 16:21:40.981976 30567 layer_factory.hpp:77] Creating layer resx12_conv2
I0813 16:21:40.981987 30567 net.cpp:91] Creating Layer resx12_conv2
I0813 16:21:40.981990 30567 net.cpp:469] resx12_conv2 <- resx12_conv1
I0813 16:21:40.981997 30567 net.cpp:443] resx12_conv2 -> resx12_conv2
I0813 16:21:40.982061 30567 net.cpp:141] Setting up resx12_conv2
I0813 16:21:40.982072 30567 net.cpp:148] Top shape: 70 120 14 14 (1646400)
I0813 16:21:40.982077 30567 net.cpp:156] Memory required for data: 4144318360
I0813 16:21:40.982082 30567 layer_factory.hpp:77] Creating layer resx12_conv2_bn
I0813 16:21:40.982089 30567 net.cpp:91] Creating Layer resx12_conv2_bn
I0813 16:21:40.982092 30567 net.cpp:469] resx12_conv2_bn <- resx12_conv2
I0813 16:21:40.982096 30567 net.cpp:430] resx12_conv2_bn -> resx12_conv2 (in-place)
I0813 16:21:40.982110 30567 net.cpp:141] Setting up resx12_conv2_bn
I0813 16:21:40.982115 30567 net.cpp:148] Top shape: 70 120 14 14 (1646400)
I0813 16:21:40.982117 30567 net.cpp:156] Memory required for data: 4150903960
I0813 16:21:40.982123 30567 layer_factory.hpp:77] Creating layer resx12_conv2_scale
I0813 16:21:40.982131 30567 net.cpp:91] Creating Layer resx12_conv2_scale
I0813 16:21:40.982134 30567 net.cpp:469] resx12_conv2_scale <- resx12_conv2
I0813 16:21:40.982138 30567 net.cpp:430] resx12_conv2_scale -> resx12_conv2 (in-place)
I0813 16:21:40.982152 30567 layer_factory.hpp:77] Creating layer resx12_conv2_scale
I0813 16:21:40.982165 30567 net.cpp:141] Setting up resx12_conv2_scale
I0813 16:21:40.982170 30567 net.cpp:148] Top shape: 70 120 14 14 (1646400)
I0813 16:21:40.982173 30567 net.cpp:156] Memory required for data: 4157489560
I0813 16:21:40.982178 30567 layer_factory.hpp:77] Creating layer resx12_conv3
I0813 16:21:40.982184 30567 net.cpp:91] Creating Layer resx12_conv3
I0813 16:21:40.982187 30567 net.cpp:469] resx12_conv3 <- resx12_conv2
I0813 16:21:40.982192 30567 net.cpp:443] resx12_conv3 -> resx12_conv3
I0813 16:21:40.982676 30567 net.cpp:141] Setting up resx12_conv3
I0813 16:21:40.982681 30567 net.cpp:148] Top shape: 70 480 14 14 (6585600)
I0813 16:21:40.982684 30567 net.cpp:156] Memory required for data: 4183831960
I0813 16:21:40.982688 30567 layer_factory.hpp:77] Creating layer resx12_conv3_bn
I0813 16:21:40.982695 30567 net.cpp:91] Creating Layer resx12_conv3_bn
I0813 16:21:40.982698 30567 net.cpp:469] resx12_conv3_bn <- resx12_conv3
I0813 16:21:40.982704 30567 net.cpp:430] resx12_conv3_bn -> resx12_conv3 (in-place)
I0813 16:21:40.982717 30567 net.cpp:141] Setting up resx12_conv3_bn
I0813 16:21:40.982722 30567 net.cpp:148] Top shape: 70 480 14 14 (6585600)
I0813 16:21:40.982724 30567 net.cpp:156] Memory required for data: 4210174360
I0813 16:21:40.982729 30567 layer_factory.hpp:77] Creating layer resx12_conv3_scale
I0813 16:21:40.982734 30567 net.cpp:91] Creating Layer resx12_conv3_scale
I0813 16:21:40.982738 30567 net.cpp:469] resx12_conv3_scale <- resx12_conv3
I0813 16:21:40.982746 30567 net.cpp:430] resx12_conv3_scale -> resx12_conv3 (in-place)
I0813 16:21:40.982754 30567 layer_factory.hpp:77] Creating layer resx12_conv3_scale
I0813 16:21:40.982765 30567 net.cpp:141] Setting up resx12_conv3_scale
I0813 16:21:40.982772 30567 net.cpp:148] Top shape: 70 480 14 14 (6585600)
I0813 16:21:40.982775 30567 net.cpp:156] Memory required for data: 4236516760
I0813 16:21:40.982779 30567 layer_factory.hpp:77] Creating layer resx12_elewise
I0813 16:21:40.982784 30567 net.cpp:91] Creating Layer resx12_elewise
I0813 16:21:40.982787 30567 net.cpp:469] resx12_elewise <- resx11_elewise_resx11_elewise_relu_0_split_1
I0813 16:21:40.982791 30567 net.cpp:469] resx12_elewise <- resx12_conv3
I0813 16:21:40.982795 30567 net.cpp:443] resx12_elewise -> resx12_elewise
I0813 16:21:40.982801 30567 net.cpp:141] Setting up resx12_elewise
I0813 16:21:40.982805 30567 net.cpp:148] Top shape: 70 480 14 14 (6585600)
I0813 16:21:40.982808 30567 net.cpp:156] Memory required for data: 4262859160
I0813 16:21:40.982811 30567 layer_factory.hpp:77] Creating layer resx12_elewise_relu
I0813 16:21:40.982817 30567 net.cpp:91] Creating Layer resx12_elewise_relu
I0813 16:21:40.982821 30567 net.cpp:469] resx12_elewise_relu <- resx12_elewise
I0813 16:21:40.982825 30567 net.cpp:430] resx12_elewise_relu -> resx12_elewise (in-place)
I0813 16:21:40.982830 30567 net.cpp:141] Setting up resx12_elewise_relu
I0813 16:21:40.982833 30567 net.cpp:148] Top shape: 70 480 14 14 (6585600)
I0813 16:21:40.982836 30567 net.cpp:156] Memory required for data: 4289201560
I0813 16:21:40.982839 30567 layer_factory.hpp:77] Creating layer resx12_elewise_resx12_elewise_relu_0_split
I0813 16:21:40.982843 30567 net.cpp:91] Creating Layer resx12_elewise_resx12_elewise_relu_0_split
I0813 16:21:40.982846 30567 net.cpp:469] resx12_elewise_resx12_elewise_relu_0_split <- resx12_elewise
I0813 16:21:40.982851 30567 net.cpp:443] resx12_elewise_resx12_elewise_relu_0_split -> resx12_elewise_resx12_elewise_relu_0_split_0
I0813 16:21:40.982856 30567 net.cpp:443] resx12_elewise_resx12_elewise_relu_0_split -> resx12_elewise_resx12_elewise_relu_0_split_1
I0813 16:21:40.982861 30567 net.cpp:141] Setting up resx12_elewise_resx12_elewise_relu_0_split
I0813 16:21:40.982864 30567 net.cpp:148] Top shape: 70 480 14 14 (6585600)
I0813 16:21:40.982867 30567 net.cpp:148] Top shape: 70 480 14 14 (6585600)
I0813 16:21:40.982870 30567 net.cpp:156] Memory required for data: 4341886360
I0813 16:21:40.982877 30567 layer_factory.hpp:77] Creating layer resx13_match_conv
I0813 16:21:40.982887 30567 net.cpp:91] Creating Layer resx13_match_conv
I0813 16:21:40.982889 30567 net.cpp:469] resx13_match_conv <- resx12_elewise_resx12_elewise_relu_0_split_0
I0813 16:21:40.982895 30567 net.cpp:443] resx13_match_conv -> resx13_match_conv
I0813 16:21:40.982900 30567 net.cpp:141] Setting up resx13_match_conv
I0813 16:21:40.982904 30567 net.cpp:148] Top shape: 70 480 7 7 (1646400)
I0813 16:21:40.982908 30567 net.cpp:156] Memory required for data: 4348471960
I0813 16:21:40.982910 30567 layer_factory.hpp:77] Creating layer resx13_conv1
I0813 16:21:40.982918 30567 net.cpp:91] Creating Layer resx13_conv1
I0813 16:21:40.982920 30567 net.cpp:469] resx13_conv1 <- resx12_elewise_resx12_elewise_relu_0_split_1
I0813 16:21:40.982924 30567 net.cpp:443] resx13_conv1 -> resx13_conv1
I0813 16:21:40.983408 30567 net.cpp:141] Setting up resx13_conv1
I0813 16:21:40.983414 30567 net.cpp:148] Top shape: 70 120 14 14 (1646400)
I0813 16:21:40.983417 30567 net.cpp:156] Memory required for data: 4355057560
I0813 16:21:40.983422 30567 layer_factory.hpp:77] Creating layer resx13_conv1_bn
I0813 16:21:40.983428 30567 net.cpp:91] Creating Layer resx13_conv1_bn
I0813 16:21:40.983431 30567 net.cpp:469] resx13_conv1_bn <- resx13_conv1
I0813 16:21:40.983435 30567 net.cpp:430] resx13_conv1_bn -> resx13_conv1 (in-place)
I0813 16:21:40.983448 30567 net.cpp:141] Setting up resx13_conv1_bn
I0813 16:21:40.983451 30567 net.cpp:148] Top shape: 70 120 14 14 (1646400)
I0813 16:21:40.983454 30567 net.cpp:156] Memory required for data: 4361643160
I0813 16:21:40.983459 30567 layer_factory.hpp:77] Creating layer resx13_conv1_scale
I0813 16:21:40.983465 30567 net.cpp:91] Creating Layer resx13_conv1_scale
I0813 16:21:40.983469 30567 net.cpp:469] resx13_conv1_scale <- resx13_conv1
I0813 16:21:40.983472 30567 net.cpp:430] resx13_conv1_scale -> resx13_conv1 (in-place)
I0813 16:21:40.983479 30567 layer_factory.hpp:77] Creating layer resx13_conv1_scale
I0813 16:21:40.983491 30567 net.cpp:141] Setting up resx13_conv1_scale
I0813 16:21:40.983500 30567 net.cpp:148] Top shape: 70 120 14 14 (1646400)
I0813 16:21:40.983505 30567 net.cpp:156] Memory required for data: 4368228760
I0813 16:21:40.983510 30567 layer_factory.hpp:77] Creating layer resx13_conv1_relu
I0813 16:21:40.983515 30567 net.cpp:91] Creating Layer resx13_conv1_relu
I0813 16:21:40.983518 30567 net.cpp:469] resx13_conv1_relu <- resx13_conv1
I0813 16:21:40.983522 30567 net.cpp:430] resx13_conv1_relu -> resx13_conv1 (in-place)
I0813 16:21:40.983526 30567 net.cpp:141] Setting up resx13_conv1_relu
I0813 16:21:40.983530 30567 net.cpp:148] Top shape: 70 120 14 14 (1646400)
I0813 16:21:40.983533 30567 net.cpp:156] Memory required for data: 4374814360
I0813 16:21:40.983536 30567 layer_factory.hpp:77] Creating layer shuffle13
I0813 16:21:40.983541 30567 net.cpp:91] Creating Layer shuffle13
I0813 16:21:40.983544 30567 net.cpp:469] shuffle13 <- resx13_conv1
I0813 16:21:40.983548 30567 net.cpp:430] shuffle13 -> resx13_conv1 (in-place)
I0813 16:21:40.983552 30567 net.cpp:141] Setting up shuffle13
I0813 16:21:40.983556 30567 net.cpp:148] Top shape: 70 120 14 14 (1646400)
I0813 16:21:40.983559 30567 net.cpp:156] Memory required for data: 4381399960
I0813 16:21:40.983562 30567 layer_factory.hpp:77] Creating layer resx13_conv2
I0813 16:21:40.983572 30567 net.cpp:91] Creating Layer resx13_conv2
I0813 16:21:40.983577 30567 net.cpp:469] resx13_conv2 <- resx13_conv1
I0813 16:21:40.983582 30567 net.cpp:443] resx13_conv2 -> resx13_conv2
I0813 16:21:40.983806 30567 net.cpp:141] Setting up resx13_conv2
I0813 16:21:40.983817 30567 net.cpp:148] Top shape: 70 120 7 7 (411600)
I0813 16:21:40.983820 30567 net.cpp:156] Memory required for data: 4383046360
I0813 16:21:40.983825 30567 layer_factory.hpp:77] Creating layer resx13_conv2_bn
I0813 16:21:40.983831 30567 net.cpp:91] Creating Layer resx13_conv2_bn
I0813 16:21:40.983835 30567 net.cpp:469] resx13_conv2_bn <- resx13_conv2
I0813 16:21:40.983841 30567 net.cpp:430] resx13_conv2_bn -> resx13_conv2 (in-place)
I0813 16:21:40.983858 30567 net.cpp:141] Setting up resx13_conv2_bn
I0813 16:21:40.983867 30567 net.cpp:148] Top shape: 70 120 7 7 (411600)
I0813 16:21:40.983871 30567 net.cpp:156] Memory required for data: 4384692760
I0813 16:21:40.983876 30567 layer_factory.hpp:77] Creating layer resx13_conv2_scale
I0813 16:21:40.983882 30567 net.cpp:91] Creating Layer resx13_conv2_scale
I0813 16:21:40.983886 30567 net.cpp:469] resx13_conv2_scale <- resx13_conv2
I0813 16:21:40.983889 30567 net.cpp:430] resx13_conv2_scale -> resx13_conv2 (in-place)
I0813 16:21:40.983898 30567 layer_factory.hpp:77] Creating layer resx13_conv2_scale
I0813 16:21:40.983911 30567 net.cpp:141] Setting up resx13_conv2_scale
I0813 16:21:40.983916 30567 net.cpp:148] Top shape: 70 120 7 7 (411600)
I0813 16:21:40.983918 30567 net.cpp:156] Memory required for data: 4386339160
I0813 16:21:40.983923 30567 layer_factory.hpp:77] Creating layer resx13_conv3
I0813 16:21:40.983929 30567 net.cpp:91] Creating Layer resx13_conv3
I0813 16:21:40.983933 30567 net.cpp:469] resx13_conv3 <- resx13_conv2
I0813 16:21:40.983937 30567 net.cpp:443] resx13_conv3 -> resx13_conv3
I0813 16:21:40.984422 30567 net.cpp:141] Setting up resx13_conv3
I0813 16:21:40.984428 30567 net.cpp:148] Top shape: 70 480 7 7 (1646400)
I0813 16:21:40.984431 30567 net.cpp:156] Memory required for data: 4392924760
I0813 16:21:40.984436 30567 layer_factory.hpp:77] Creating layer resx13_conv3_bn
I0813 16:21:40.984442 30567 net.cpp:91] Creating Layer resx13_conv3_bn
I0813 16:21:40.984446 30567 net.cpp:469] resx13_conv3_bn <- resx13_conv3
I0813 16:21:40.984450 30567 net.cpp:430] resx13_conv3_bn -> resx13_conv3 (in-place)
I0813 16:21:40.984464 30567 net.cpp:141] Setting up resx13_conv3_bn
I0813 16:21:40.984469 30567 net.cpp:148] Top shape: 70 480 7 7 (1646400)
I0813 16:21:40.984472 30567 net.cpp:156] Memory required for data: 4399510360
I0813 16:21:40.984478 30567 layer_factory.hpp:77] Creating layer resx13_conv3_scale
I0813 16:21:40.984483 30567 net.cpp:91] Creating Layer resx13_conv3_scale
I0813 16:21:40.984486 30567 net.cpp:469] resx13_conv3_scale <- resx13_conv3
I0813 16:21:40.984491 30567 net.cpp:430] resx13_conv3_scale -> resx13_conv3 (in-place)
I0813 16:21:40.984503 30567 layer_factory.hpp:77] Creating layer resx13_conv3_scale
I0813 16:21:40.984515 30567 net.cpp:141] Setting up resx13_conv3_scale
I0813 16:21:40.984519 30567 net.cpp:148] Top shape: 70 480 7 7 (1646400)
I0813 16:21:40.984522 30567 net.cpp:156] Memory required for data: 4406095960
I0813 16:21:40.984527 30567 layer_factory.hpp:77] Creating layer resx13_concat
I0813 16:21:40.984532 30567 net.cpp:91] Creating Layer resx13_concat
I0813 16:21:40.984535 30567 net.cpp:469] resx13_concat <- resx13_match_conv
I0813 16:21:40.984539 30567 net.cpp:469] resx13_concat <- resx13_conv3
I0813 16:21:40.984544 30567 net.cpp:443] resx13_concat -> resx13_concat
I0813 16:21:40.984550 30567 net.cpp:141] Setting up resx13_concat
I0813 16:21:40.984555 30567 net.cpp:148] Top shape: 70 960 7 7 (3292800)
I0813 16:21:40.984557 30567 net.cpp:156] Memory required for data: 4419267160
I0813 16:21:40.984560 30567 layer_factory.hpp:77] Creating layer resx13_concat_relu
I0813 16:21:40.984565 30567 net.cpp:91] Creating Layer resx13_concat_relu
I0813 16:21:40.984568 30567 net.cpp:469] resx13_concat_relu <- resx13_concat
I0813 16:21:40.984572 30567 net.cpp:430] resx13_concat_relu -> resx13_concat (in-place)
I0813 16:21:40.984576 30567 net.cpp:141] Setting up resx13_concat_relu
I0813 16:21:40.984580 30567 net.cpp:148] Top shape: 70 960 7 7 (3292800)
I0813 16:21:40.984583 30567 net.cpp:156] Memory required for data: 4432438360
I0813 16:21:40.984586 30567 layer_factory.hpp:77] Creating layer resx13_concat_resx13_concat_relu_0_split
I0813 16:21:40.984592 30567 net.cpp:91] Creating Layer resx13_concat_resx13_concat_relu_0_split
I0813 16:21:40.984596 30567 net.cpp:469] resx13_concat_resx13_concat_relu_0_split <- resx13_concat
I0813 16:21:40.984599 30567 net.cpp:443] resx13_concat_resx13_concat_relu_0_split -> resx13_concat_resx13_concat_relu_0_split_0
I0813 16:21:40.984607 30567 net.cpp:443] resx13_concat_resx13_concat_relu_0_split -> resx13_concat_resx13_concat_relu_0_split_1
I0813 16:21:40.984617 30567 net.cpp:141] Setting up resx13_concat_resx13_concat_relu_0_split
I0813 16:21:40.984623 30567 net.cpp:148] Top shape: 70 960 7 7 (3292800)
I0813 16:21:40.984627 30567 net.cpp:148] Top shape: 70 960 7 7 (3292800)
I0813 16:21:40.984629 30567 net.cpp:156] Memory required for data: 4458780760
I0813 16:21:40.984633 30567 layer_factory.hpp:77] Creating layer resx14_conv1
I0813 16:21:40.984639 30567 net.cpp:91] Creating Layer resx14_conv1
I0813 16:21:40.984642 30567 net.cpp:469] resx14_conv1 <- resx13_concat_resx13_concat_relu_0_split_0
I0813 16:21:40.984648 30567 net.cpp:443] resx14_conv1 -> resx14_conv1
I0813 16:21:40.986611 30567 net.cpp:141] Setting up resx14_conv1
I0813 16:21:40.986620 30567 net.cpp:148] Top shape: 70 240 7 7 (823200)
I0813 16:21:40.986624 30567 net.cpp:156] Memory required for data: 4462073560
I0813 16:21:40.986627 30567 layer_factory.hpp:77] Creating layer resx14_conv1_bn
I0813 16:21:40.986634 30567 net.cpp:91] Creating Layer resx14_conv1_bn
I0813 16:21:40.986637 30567 net.cpp:469] resx14_conv1_bn <- resx14_conv1
I0813 16:21:40.986642 30567 net.cpp:430] resx14_conv1_bn -> resx14_conv1 (in-place)
I0813 16:21:40.986655 30567 net.cpp:141] Setting up resx14_conv1_bn
I0813 16:21:40.986660 30567 net.cpp:148] Top shape: 70 240 7 7 (823200)
I0813 16:21:40.986662 30567 net.cpp:156] Memory required for data: 4465366360
I0813 16:21:40.986668 30567 layer_factory.hpp:77] Creating layer resx14_conv1_scale
I0813 16:21:40.986675 30567 net.cpp:91] Creating Layer resx14_conv1_scale
I0813 16:21:40.986678 30567 net.cpp:469] resx14_conv1_scale <- resx14_conv1
I0813 16:21:40.986682 30567 net.cpp:430] resx14_conv1_scale -> resx14_conv1 (in-place)
I0813 16:21:40.986691 30567 layer_factory.hpp:77] Creating layer resx14_conv1_scale
I0813 16:21:40.986703 30567 net.cpp:141] Setting up resx14_conv1_scale
I0813 16:21:40.986707 30567 net.cpp:148] Top shape: 70 240 7 7 (823200)
I0813 16:21:40.986711 30567 net.cpp:156] Memory required for data: 4468659160
I0813 16:21:40.986714 30567 layer_factory.hpp:77] Creating layer resx14_conv1_relu
I0813 16:21:40.986719 30567 net.cpp:91] Creating Layer resx14_conv1_relu
I0813 16:21:40.986723 30567 net.cpp:469] resx14_conv1_relu <- resx14_conv1
I0813 16:21:40.986728 30567 net.cpp:430] resx14_conv1_relu -> resx14_conv1 (in-place)
I0813 16:21:40.986732 30567 net.cpp:141] Setting up resx14_conv1_relu
I0813 16:21:40.986737 30567 net.cpp:148] Top shape: 70 240 7 7 (823200)
I0813 16:21:40.986739 30567 net.cpp:156] Memory required for data: 4471951960
I0813 16:21:40.986742 30567 layer_factory.hpp:77] Creating layer shuffle14
I0813 16:21:40.986747 30567 net.cpp:91] Creating Layer shuffle14
I0813 16:21:40.986750 30567 net.cpp:469] shuffle14 <- resx14_conv1
I0813 16:21:40.986755 30567 net.cpp:430] shuffle14 -> resx14_conv1 (in-place)
I0813 16:21:40.986760 30567 net.cpp:141] Setting up shuffle14
I0813 16:21:40.986763 30567 net.cpp:148] Top shape: 70 240 7 7 (823200)
I0813 16:21:40.986766 30567 net.cpp:156] Memory required for data: 4475244760
I0813 16:21:40.986769 30567 layer_factory.hpp:77] Creating layer resx14_conv2
I0813 16:21:40.986775 30567 net.cpp:91] Creating Layer resx14_conv2
I0813 16:21:40.986778 30567 net.cpp:469] resx14_conv2 <- resx14_conv1
I0813 16:21:40.986784 30567 net.cpp:443] resx14_conv2 -> resx14_conv2
I0813 16:21:40.986873 30567 net.cpp:141] Setting up resx14_conv2
I0813 16:21:40.986882 30567 net.cpp:148] Top shape: 70 240 7 7 (823200)
I0813 16:21:40.986886 30567 net.cpp:156] Memory required for data: 4478537560
I0813 16:21:40.986891 30567 layer_factory.hpp:77] Creating layer resx14_conv2_bn
I0813 16:21:40.986901 30567 net.cpp:91] Creating Layer resx14_conv2_bn
I0813 16:21:40.986905 30567 net.cpp:469] resx14_conv2_bn <- resx14_conv2
I0813 16:21:40.986909 30567 net.cpp:430] resx14_conv2_bn -> resx14_conv2 (in-place)
I0813 16:21:40.986920 30567 net.cpp:141] Setting up resx14_conv2_bn
I0813 16:21:40.986924 30567 net.cpp:148] Top shape: 70 240 7 7 (823200)
I0813 16:21:40.986930 30567 net.cpp:156] Memory required for data: 4481830360
I0813 16:21:40.986943 30567 layer_factory.hpp:77] Creating layer resx14_conv2_scale
I0813 16:21:40.986949 30567 net.cpp:91] Creating Layer resx14_conv2_scale
I0813 16:21:40.986953 30567 net.cpp:469] resx14_conv2_scale <- resx14_conv2
I0813 16:21:40.986956 30567 net.cpp:430] resx14_conv2_scale -> resx14_conv2 (in-place)
I0813 16:21:40.986963 30567 layer_factory.hpp:77] Creating layer resx14_conv2_scale
I0813 16:21:40.986974 30567 net.cpp:141] Setting up resx14_conv2_scale
I0813 16:21:40.986979 30567 net.cpp:148] Top shape: 70 240 7 7 (823200)
I0813 16:21:40.986981 30567 net.cpp:156] Memory required for data: 4485123160
I0813 16:21:40.986986 30567 layer_factory.hpp:77] Creating layer resx14_conv3
I0813 16:21:40.986994 30567 net.cpp:91] Creating Layer resx14_conv3
I0813 16:21:40.986999 30567 net.cpp:469] resx14_conv3 <- resx14_conv2
I0813 16:21:40.987002 30567 net.cpp:443] resx14_conv3 -> resx14_conv3
I0813 16:21:40.989130 30567 net.cpp:141] Setting up resx14_conv3
I0813 16:21:40.989140 30567 net.cpp:148] Top shape: 70 960 7 7 (3292800)
I0813 16:21:40.989143 30567 net.cpp:156] Memory required for data: 4498294360
I0813 16:21:40.989148 30567 layer_factory.hpp:77] Creating layer resx14_conv3_bn
I0813 16:21:40.989156 30567 net.cpp:91] Creating Layer resx14_conv3_bn
I0813 16:21:40.989161 30567 net.cpp:469] resx14_conv3_bn <- resx14_conv3
I0813 16:21:40.989164 30567 net.cpp:430] resx14_conv3_bn -> resx14_conv3 (in-place)
I0813 16:21:40.989179 30567 net.cpp:141] Setting up resx14_conv3_bn
I0813 16:21:40.989184 30567 net.cpp:148] Top shape: 70 960 7 7 (3292800)
I0813 16:21:40.989187 30567 net.cpp:156] Memory required for data: 4511465560
I0813 16:21:40.989193 30567 layer_factory.hpp:77] Creating layer resx14_conv3_scale
I0813 16:21:40.989199 30567 net.cpp:91] Creating Layer resx14_conv3_scale
I0813 16:21:40.989202 30567 net.cpp:469] resx14_conv3_scale <- resx14_conv3
I0813 16:21:40.989207 30567 net.cpp:430] resx14_conv3_scale -> resx14_conv3 (in-place)
I0813 16:21:40.989217 30567 layer_factory.hpp:77] Creating layer resx14_conv3_scale
I0813 16:21:40.989230 30567 net.cpp:141] Setting up resx14_conv3_scale
I0813 16:21:40.989235 30567 net.cpp:148] Top shape: 70 960 7 7 (3292800)
I0813 16:21:40.989238 30567 net.cpp:156] Memory required for data: 4524636760
I0813 16:21:40.989260 30567 layer_factory.hpp:77] Creating layer resx14_elewise
I0813 16:21:40.989266 30567 net.cpp:91] Creating Layer resx14_elewise
I0813 16:21:40.989270 30567 net.cpp:469] resx14_elewise <- resx13_concat_resx13_concat_relu_0_split_1
I0813 16:21:40.989274 30567 net.cpp:469] resx14_elewise <- resx14_conv3
I0813 16:21:40.989279 30567 net.cpp:443] resx14_elewise -> resx14_elewise
I0813 16:21:40.989285 30567 net.cpp:141] Setting up resx14_elewise
I0813 16:21:40.989289 30567 net.cpp:148] Top shape: 70 960 7 7 (3292800)
I0813 16:21:40.989292 30567 net.cpp:156] Memory required for data: 4537807960
I0813 16:21:40.989295 30567 layer_factory.hpp:77] Creating layer resx14_elewise_relu
I0813 16:21:40.989302 30567 net.cpp:91] Creating Layer resx14_elewise_relu
I0813 16:21:40.989305 30567 net.cpp:469] resx14_elewise_relu <- resx14_elewise
I0813 16:21:40.989310 30567 net.cpp:430] resx14_elewise_relu -> resx14_elewise (in-place)
I0813 16:21:40.989315 30567 net.cpp:141] Setting up resx14_elewise_relu
I0813 16:21:40.989318 30567 net.cpp:148] Top shape: 70 960 7 7 (3292800)
I0813 16:21:40.989321 30567 net.cpp:156] Memory required for data: 4550979160
I0813 16:21:40.989325 30567 layer_factory.hpp:77] Creating layer resx14_elewise_resx14_elewise_relu_0_split
I0813 16:21:40.989328 30567 net.cpp:91] Creating Layer resx14_elewise_resx14_elewise_relu_0_split
I0813 16:21:40.989331 30567 net.cpp:469] resx14_elewise_resx14_elewise_relu_0_split <- resx14_elewise
I0813 16:21:40.989336 30567 net.cpp:443] resx14_elewise_resx14_elewise_relu_0_split -> resx14_elewise_resx14_elewise_relu_0_split_0
I0813 16:21:40.989341 30567 net.cpp:443] resx14_elewise_resx14_elewise_relu_0_split -> resx14_elewise_resx14_elewise_relu_0_split_1
I0813 16:21:40.989349 30567 net.cpp:141] Setting up resx14_elewise_resx14_elewise_relu_0_split
I0813 16:21:40.989362 30567 net.cpp:148] Top shape: 70 960 7 7 (3292800)
I0813 16:21:40.989365 30567 net.cpp:148] Top shape: 70 960 7 7 (3292800)
I0813 16:21:40.989368 30567 net.cpp:156] Memory required for data: 4577321560
I0813 16:21:40.989372 30567 layer_factory.hpp:77] Creating layer resx15_conv1
I0813 16:21:40.989379 30567 net.cpp:91] Creating Layer resx15_conv1
I0813 16:21:40.989383 30567 net.cpp:469] resx15_conv1 <- resx14_elewise_resx14_elewise_relu_0_split_0
I0813 16:21:40.989388 30567 net.cpp:443] resx15_conv1 -> resx15_conv1
I0813 16:21:40.991313 30567 net.cpp:141] Setting up resx15_conv1
I0813 16:21:40.991320 30567 net.cpp:148] Top shape: 70 240 7 7 (823200)
I0813 16:21:40.991323 30567 net.cpp:156] Memory required for data: 4580614360
I0813 16:21:40.991328 30567 layer_factory.hpp:77] Creating layer resx15_conv1_bn
I0813 16:21:40.991335 30567 net.cpp:91] Creating Layer resx15_conv1_bn
I0813 16:21:40.991338 30567 net.cpp:469] resx15_conv1_bn <- resx15_conv1
I0813 16:21:40.991343 30567 net.cpp:430] resx15_conv1_bn -> resx15_conv1 (in-place)
I0813 16:21:40.991356 30567 net.cpp:141] Setting up resx15_conv1_bn
I0813 16:21:40.991360 30567 net.cpp:148] Top shape: 70 240 7 7 (823200)
I0813 16:21:40.991364 30567 net.cpp:156] Memory required for data: 4583907160
I0813 16:21:40.991369 30567 layer_factory.hpp:77] Creating layer resx15_conv1_scale
I0813 16:21:40.991375 30567 net.cpp:91] Creating Layer resx15_conv1_scale
I0813 16:21:40.991379 30567 net.cpp:469] resx15_conv1_scale <- resx15_conv1
I0813 16:21:40.991384 30567 net.cpp:430] resx15_conv1_scale -> resx15_conv1 (in-place)
I0813 16:21:40.991390 30567 layer_factory.hpp:77] Creating layer resx15_conv1_scale
I0813 16:21:40.991401 30567 net.cpp:141] Setting up resx15_conv1_scale
I0813 16:21:40.991407 30567 net.cpp:148] Top shape: 70 240 7 7 (823200)
I0813 16:21:40.991410 30567 net.cpp:156] Memory required for data: 4587199960
I0813 16:21:40.991415 30567 layer_factory.hpp:77] Creating layer resx15_conv1_relu
I0813 16:21:40.991420 30567 net.cpp:91] Creating Layer resx15_conv1_relu
I0813 16:21:40.991423 30567 net.cpp:469] resx15_conv1_relu <- resx15_conv1
I0813 16:21:40.991428 30567 net.cpp:430] resx15_conv1_relu -> resx15_conv1 (in-place)
I0813 16:21:40.991432 30567 net.cpp:141] Setting up resx15_conv1_relu
I0813 16:21:40.991436 30567 net.cpp:148] Top shape: 70 240 7 7 (823200)
I0813 16:21:40.991439 30567 net.cpp:156] Memory required for data: 4590492760
I0813 16:21:40.991443 30567 layer_factory.hpp:77] Creating layer shuffle15
I0813 16:21:40.991448 30567 net.cpp:91] Creating Layer shuffle15
I0813 16:21:40.991451 30567 net.cpp:469] shuffle15 <- resx15_conv1
I0813 16:21:40.991456 30567 net.cpp:430] shuffle15 -> resx15_conv1 (in-place)
I0813 16:21:40.991461 30567 net.cpp:141] Setting up shuffle15
I0813 16:21:40.991463 30567 net.cpp:148] Top shape: 70 240 7 7 (823200)
I0813 16:21:40.991466 30567 net.cpp:156] Memory required for data: 4593785560
I0813 16:21:40.991470 30567 layer_factory.hpp:77] Creating layer resx15_conv2
I0813 16:21:40.991477 30567 net.cpp:91] Creating Layer resx15_conv2
I0813 16:21:40.991480 30567 net.cpp:469] resx15_conv2 <- resx15_conv1
I0813 16:21:40.991484 30567 net.cpp:443] resx15_conv2 -> resx15_conv2
I0813 16:21:40.991576 30567 net.cpp:141] Setting up resx15_conv2
I0813 16:21:40.991585 30567 net.cpp:148] Top shape: 70 240 7 7 (823200)
I0813 16:21:40.991588 30567 net.cpp:156] Memory required for data: 4597078360
I0813 16:21:40.991592 30567 layer_factory.hpp:77] Creating layer resx15_conv2_bn
I0813 16:21:40.991598 30567 net.cpp:91] Creating Layer resx15_conv2_bn
I0813 16:21:40.991601 30567 net.cpp:469] resx15_conv2_bn <- resx15_conv2
I0813 16:21:40.991606 30567 net.cpp:430] resx15_conv2_bn -> resx15_conv2 (in-place)
I0813 16:21:40.991617 30567 net.cpp:141] Setting up resx15_conv2_bn
I0813 16:21:40.991621 30567 net.cpp:148] Top shape: 70 240 7 7 (823200)
I0813 16:21:40.991624 30567 net.cpp:156] Memory required for data: 4600371160
I0813 16:21:40.991631 30567 layer_factory.hpp:77] Creating layer resx15_conv2_scale
I0813 16:21:40.991644 30567 net.cpp:91] Creating Layer resx15_conv2_scale
I0813 16:21:40.991648 30567 net.cpp:469] resx15_conv2_scale <- resx15_conv2
I0813 16:21:40.991652 30567 net.cpp:430] resx15_conv2_scale -> resx15_conv2 (in-place)
I0813 16:21:40.991659 30567 layer_factory.hpp:77] Creating layer resx15_conv2_scale
I0813 16:21:40.991675 30567 net.cpp:141] Setting up resx15_conv2_scale
I0813 16:21:40.991680 30567 net.cpp:148] Top shape: 70 240 7 7 (823200)
I0813 16:21:40.991683 30567 net.cpp:156] Memory required for data: 4603663960
I0813 16:21:40.991688 30567 layer_factory.hpp:77] Creating layer resx15_conv3
I0813 16:21:40.991695 30567 net.cpp:91] Creating Layer resx15_conv3
I0813 16:21:40.991698 30567 net.cpp:469] resx15_conv3 <- resx15_conv2
I0813 16:21:40.991703 30567 net.cpp:443] resx15_conv3 -> resx15_conv3
I0813 16:21:40.993623 30567 net.cpp:141] Setting up resx15_conv3
I0813 16:21:40.993633 30567 net.cpp:148] Top shape: 70 960 7 7 (3292800)
I0813 16:21:40.993636 30567 net.cpp:156] Memory required for data: 4616835160
I0813 16:21:40.993640 30567 layer_factory.hpp:77] Creating layer resx15_conv3_bn
I0813 16:21:40.993645 30567 net.cpp:91] Creating Layer resx15_conv3_bn
I0813 16:21:40.993649 30567 net.cpp:469] resx15_conv3_bn <- resx15_conv3
I0813 16:21:40.993654 30567 net.cpp:430] resx15_conv3_bn -> resx15_conv3 (in-place)
I0813 16:21:40.993669 30567 net.cpp:141] Setting up resx15_conv3_bn
I0813 16:21:40.993674 30567 net.cpp:148] Top shape: 70 960 7 7 (3292800)
I0813 16:21:40.993677 30567 net.cpp:156] Memory required for data: 4630006360
I0813 16:21:40.993682 30567 layer_factory.hpp:77] Creating layer resx15_conv3_scale
I0813 16:21:40.993690 30567 net.cpp:91] Creating Layer resx15_conv3_scale
I0813 16:21:40.993692 30567 net.cpp:469] resx15_conv3_scale <- resx15_conv3
I0813 16:21:40.993696 30567 net.cpp:430] resx15_conv3_scale -> resx15_conv3 (in-place)
I0813 16:21:40.993706 30567 layer_factory.hpp:77] Creating layer resx15_conv3_scale
I0813 16:21:40.993721 30567 net.cpp:141] Setting up resx15_conv3_scale
I0813 16:21:40.993724 30567 net.cpp:148] Top shape: 70 960 7 7 (3292800)
I0813 16:21:40.993727 30567 net.cpp:156] Memory required for data: 4643177560
I0813 16:21:40.993731 30567 layer_factory.hpp:77] Creating layer resx15_elewise
I0813 16:21:40.993736 30567 net.cpp:91] Creating Layer resx15_elewise
I0813 16:21:40.993741 30567 net.cpp:469] resx15_elewise <- resx14_elewise_resx14_elewise_relu_0_split_1
I0813 16:21:40.993744 30567 net.cpp:469] resx15_elewise <- resx15_conv3
I0813 16:21:40.993748 30567 net.cpp:443] resx15_elewise -> resx15_elewise
I0813 16:21:40.993753 30567 net.cpp:141] Setting up resx15_elewise
I0813 16:21:40.993757 30567 net.cpp:148] Top shape: 70 960 7 7 (3292800)
I0813 16:21:40.993760 30567 net.cpp:156] Memory required for data: 4656348760
I0813 16:21:40.993763 30567 layer_factory.hpp:77] Creating layer resx15_elewise_relu
I0813 16:21:40.993768 30567 net.cpp:91] Creating Layer resx15_elewise_relu
I0813 16:21:40.993772 30567 net.cpp:469] resx15_elewise_relu <- resx15_elewise
I0813 16:21:40.993777 30567 net.cpp:430] resx15_elewise_relu -> resx15_elewise (in-place)
I0813 16:21:40.993782 30567 net.cpp:141] Setting up resx15_elewise_relu
I0813 16:21:40.993787 30567 net.cpp:148] Top shape: 70 960 7 7 (3292800)
I0813 16:21:40.993789 30567 net.cpp:156] Memory required for data: 4669519960
I0813 16:21:40.993793 30567 layer_factory.hpp:77] Creating layer resx15_elewise_resx15_elewise_relu_0_split
I0813 16:21:40.993796 30567 net.cpp:91] Creating Layer resx15_elewise_resx15_elewise_relu_0_split
I0813 16:21:40.993799 30567 net.cpp:469] resx15_elewise_resx15_elewise_relu_0_split <- resx15_elewise
I0813 16:21:40.993803 30567 net.cpp:443] resx15_elewise_resx15_elewise_relu_0_split -> resx15_elewise_resx15_elewise_relu_0_split_0
I0813 16:21:40.993808 30567 net.cpp:443] resx15_elewise_resx15_elewise_relu_0_split -> resx15_elewise_resx15_elewise_relu_0_split_1
I0813 16:21:40.993813 30567 net.cpp:141] Setting up resx15_elewise_resx15_elewise_relu_0_split
I0813 16:21:40.993821 30567 net.cpp:148] Top shape: 70 960 7 7 (3292800)
I0813 16:21:40.993829 30567 net.cpp:148] Top shape: 70 960 7 7 (3292800)
I0813 16:21:40.993832 30567 net.cpp:156] Memory required for data: 4695862360
I0813 16:21:40.993839 30567 layer_factory.hpp:77] Creating layer resx16_conv1
I0813 16:21:40.993846 30567 net.cpp:91] Creating Layer resx16_conv1
I0813 16:21:40.993854 30567 net.cpp:469] resx16_conv1 <- resx15_elewise_resx15_elewise_relu_0_split_0
I0813 16:21:40.993860 30567 net.cpp:443] resx16_conv1 -> resx16_conv1
I0813 16:21:40.995877 30567 net.cpp:141] Setting up resx16_conv1
I0813 16:21:40.995884 30567 net.cpp:148] Top shape: 70 240 7 7 (823200)
I0813 16:21:40.995887 30567 net.cpp:156] Memory required for data: 4699155160
I0813 16:21:40.995892 30567 layer_factory.hpp:77] Creating layer resx16_conv1_bn
I0813 16:21:40.995899 30567 net.cpp:91] Creating Layer resx16_conv1_bn
I0813 16:21:40.995903 30567 net.cpp:469] resx16_conv1_bn <- resx16_conv1
I0813 16:21:40.995906 30567 net.cpp:430] resx16_conv1_bn -> resx16_conv1 (in-place)
I0813 16:21:40.995920 30567 net.cpp:141] Setting up resx16_conv1_bn
I0813 16:21:40.995924 30567 net.cpp:148] Top shape: 70 240 7 7 (823200)
I0813 16:21:40.995928 30567 net.cpp:156] Memory required for data: 4702447960
I0813 16:21:40.995934 30567 layer_factory.hpp:77] Creating layer resx16_conv1_scale
I0813 16:21:40.995940 30567 net.cpp:91] Creating Layer resx16_conv1_scale
I0813 16:21:40.995944 30567 net.cpp:469] resx16_conv1_scale <- resx16_conv1
I0813 16:21:40.995947 30567 net.cpp:430] resx16_conv1_scale -> resx16_conv1 (in-place)
I0813 16:21:40.995955 30567 layer_factory.hpp:77] Creating layer resx16_conv1_scale
I0813 16:21:40.995967 30567 net.cpp:141] Setting up resx16_conv1_scale
I0813 16:21:40.995972 30567 net.cpp:148] Top shape: 70 240 7 7 (823200)
I0813 16:21:40.995975 30567 net.cpp:156] Memory required for data: 4705740760
I0813 16:21:40.995980 30567 layer_factory.hpp:77] Creating layer resx16_conv1_relu
I0813 16:21:40.995985 30567 net.cpp:91] Creating Layer resx16_conv1_relu
I0813 16:21:40.995987 30567 net.cpp:469] resx16_conv1_relu <- resx16_conv1
I0813 16:21:40.995993 30567 net.cpp:430] resx16_conv1_relu -> resx16_conv1 (in-place)
I0813 16:21:40.995997 30567 net.cpp:141] Setting up resx16_conv1_relu
I0813 16:21:40.996001 30567 net.cpp:148] Top shape: 70 240 7 7 (823200)
I0813 16:21:40.996004 30567 net.cpp:156] Memory required for data: 4709033560
I0813 16:21:40.996007 30567 layer_factory.hpp:77] Creating layer shuffle16
I0813 16:21:40.996012 30567 net.cpp:91] Creating Layer shuffle16
I0813 16:21:40.996016 30567 net.cpp:469] shuffle16 <- resx16_conv1
I0813 16:21:40.996021 30567 net.cpp:430] shuffle16 -> resx16_conv1 (in-place)
I0813 16:21:40.996026 30567 net.cpp:141] Setting up shuffle16
I0813 16:21:40.996029 30567 net.cpp:148] Top shape: 70 240 7 7 (823200)
I0813 16:21:40.996032 30567 net.cpp:156] Memory required for data: 4712326360
I0813 16:21:40.996035 30567 layer_factory.hpp:77] Creating layer resx16_conv2
I0813 16:21:40.996040 30567 net.cpp:91] Creating Layer resx16_conv2
I0813 16:21:40.996044 30567 net.cpp:469] resx16_conv2 <- resx16_conv1
I0813 16:21:40.996049 30567 net.cpp:443] resx16_conv2 -> resx16_conv2
I0813 16:21:40.996139 30567 net.cpp:141] Setting up resx16_conv2
I0813 16:21:40.996147 30567 net.cpp:148] Top shape: 70 240 7 7 (823200)
I0813 16:21:40.996150 30567 net.cpp:156] Memory required for data: 4715619160
I0813 16:21:40.996155 30567 layer_factory.hpp:77] Creating layer resx16_conv2_bn
I0813 16:21:40.996163 30567 net.cpp:91] Creating Layer resx16_conv2_bn
I0813 16:21:40.996166 30567 net.cpp:469] resx16_conv2_bn <- resx16_conv2
I0813 16:21:40.996171 30567 net.cpp:430] resx16_conv2_bn -> resx16_conv2 (in-place)
I0813 16:21:40.996182 30567 net.cpp:141] Setting up resx16_conv2_bn
I0813 16:21:40.996186 30567 net.cpp:148] Top shape: 70 240 7 7 (823200)
I0813 16:21:40.996189 30567 net.cpp:156] Memory required for data: 4718911960
I0813 16:21:40.996196 30567 layer_factory.hpp:77] Creating layer resx16_conv2_scale
I0813 16:21:40.996201 30567 net.cpp:91] Creating Layer resx16_conv2_scale
I0813 16:21:40.996212 30567 net.cpp:469] resx16_conv2_scale <- resx16_conv2
I0813 16:21:40.996217 30567 net.cpp:430] resx16_conv2_scale -> resx16_conv2 (in-place)
I0813 16:21:40.996223 30567 layer_factory.hpp:77] Creating layer resx16_conv2_scale
I0813 16:21:40.996234 30567 net.cpp:141] Setting up resx16_conv2_scale
I0813 16:21:40.996239 30567 net.cpp:148] Top shape: 70 240 7 7 (823200)
I0813 16:21:40.996243 30567 net.cpp:156] Memory required for data: 4722204760
I0813 16:21:40.996246 30567 layer_factory.hpp:77] Creating layer resx16_conv3
I0813 16:21:40.996254 30567 net.cpp:91] Creating Layer resx16_conv3
I0813 16:21:40.996258 30567 net.cpp:469] resx16_conv3 <- resx16_conv2
I0813 16:21:40.996263 30567 net.cpp:443] resx16_conv3 -> resx16_conv3
I0813 16:21:40.998396 30567 net.cpp:141] Setting up resx16_conv3
I0813 16:21:40.998407 30567 net.cpp:148] Top shape: 70 960 7 7 (3292800)
I0813 16:21:40.998410 30567 net.cpp:156] Memory required for data: 4735375960
I0813 16:21:40.998414 30567 layer_factory.hpp:77] Creating layer resx16_conv3_bn
I0813 16:21:40.998422 30567 net.cpp:91] Creating Layer resx16_conv3_bn
I0813 16:21:40.998431 30567 net.cpp:469] resx16_conv3_bn <- resx16_conv3
I0813 16:21:40.998438 30567 net.cpp:430] resx16_conv3_bn -> resx16_conv3 (in-place)
I0813 16:21:40.998455 30567 net.cpp:141] Setting up resx16_conv3_bn
I0813 16:21:40.998461 30567 net.cpp:148] Top shape: 70 960 7 7 (3292800)
I0813 16:21:40.998463 30567 net.cpp:156] Memory required for data: 4748547160
I0813 16:21:40.998469 30567 layer_factory.hpp:77] Creating layer resx16_conv3_scale
I0813 16:21:40.998474 30567 net.cpp:91] Creating Layer resx16_conv3_scale
I0813 16:21:40.998477 30567 net.cpp:469] resx16_conv3_scale <- resx16_conv3
I0813 16:21:40.998483 30567 net.cpp:430] resx16_conv3_scale -> resx16_conv3 (in-place)
I0813 16:21:40.998494 30567 layer_factory.hpp:77] Creating layer resx16_conv3_scale
I0813 16:21:40.998507 30567 net.cpp:141] Setting up resx16_conv3_scale
I0813 16:21:40.998510 30567 net.cpp:148] Top shape: 70 960 7 7 (3292800)
I0813 16:21:40.998513 30567 net.cpp:156] Memory required for data: 4761718360
I0813 16:21:40.998518 30567 layer_factory.hpp:77] Creating layer resx16_elewise
I0813 16:21:40.998524 30567 net.cpp:91] Creating Layer resx16_elewise
I0813 16:21:40.998528 30567 net.cpp:469] resx16_elewise <- resx15_elewise_resx15_elewise_relu_0_split_1
I0813 16:21:40.998533 30567 net.cpp:469] resx16_elewise <- resx16_conv3
I0813 16:21:40.998536 30567 net.cpp:443] resx16_elewise -> resx16_elewise
I0813 16:21:40.998543 30567 net.cpp:141] Setting up resx16_elewise
I0813 16:21:40.998546 30567 net.cpp:148] Top shape: 70 960 7 7 (3292800)
I0813 16:21:40.998549 30567 net.cpp:156] Memory required for data: 4774889560
I0813 16:21:40.998553 30567 layer_factory.hpp:77] Creating layer resx16_elewise_relu
I0813 16:21:40.998558 30567 net.cpp:91] Creating Layer resx16_elewise_relu
I0813 16:21:40.998560 30567 net.cpp:469] resx16_elewise_relu <- resx16_elewise
I0813 16:21:40.998564 30567 net.cpp:430] resx16_elewise_relu -> resx16_elewise (in-place)
I0813 16:21:40.998569 30567 net.cpp:141] Setting up resx16_elewise_relu
I0813 16:21:40.998572 30567 net.cpp:148] Top shape: 70 960 7 7 (3292800)
I0813 16:21:40.998575 30567 net.cpp:156] Memory required for data: 4788060760
I0813 16:21:40.998579 30567 layer_factory.hpp:77] Creating layer pool_ave
I0813 16:21:40.998584 30567 net.cpp:91] Creating Layer pool_ave
I0813 16:21:40.998586 30567 net.cpp:469] pool_ave <- resx16_elewise
I0813 16:21:40.998592 30567 net.cpp:443] pool_ave -> pool_ave
I0813 16:21:40.998598 30567 net.cpp:141] Setting up pool_ave
I0813 16:21:40.998602 30567 net.cpp:148] Top shape: 70 960 1 1 (67200)
I0813 16:21:40.998605 30567 net.cpp:156] Memory required for data: 4788329560
I0813 16:21:40.998608 30567 layer_factory.hpp:77] Creating layer fc1000
I0813 16:21:40.998616 30567 net.cpp:91] Creating Layer fc1000
I0813 16:21:40.998620 30567 net.cpp:469] fc1000 <- pool_ave
I0813 16:21:40.998625 30567 net.cpp:443] fc1000 -> fc1000
I0813 16:21:41.023844 30567 net.cpp:141] Setting up fc1000
I0813 16:21:41.023864 30567 net.cpp:148] Top shape: 70 1000 1 1 (70000)
I0813 16:21:41.023876 30567 net.cpp:156] Memory required for data: 4788609560
I0813 16:21:41.023882 30567 layer_factory.hpp:77] Creating layer loss
I0813 16:21:41.023888 30567 net.cpp:91] Creating Layer loss
I0813 16:21:41.023892 30567 net.cpp:469] loss <- fc1000
I0813 16:21:41.023896 30567 net.cpp:469] loss <- label
I0813 16:21:41.023903 30567 net.cpp:443] loss -> loss
I0813 16:21:41.023917 30567 layer_factory.hpp:77] Creating layer loss
…
