…
I0813 15:18:08.942203 30714 net.cpp:313] The NetState phase (0) differed from the phase (1) specified by a rule in layer accuracy
I0813 15:18:08.943087 30714 net.cpp:49] Initializing net from parameters: 
name: "shufflenet"
state {
  phase: TRAIN
}
layer {
  name: "data"
  type: "Data"
  top: "data"
  top: "label"
  include {
    phase: TRAIN
  }
  transform_param {
    scale: 0.017
    mirror: false
    crop_size: 224
    mean_value: 103.94
    mean_value: 116.78
    mean_value: 123.68
  }
  data_param {
    source: "/home/chenyao/ilsvrc12/ilsvrc12_train_lmdb"
    batch_size: 70
    backend: LMDB
  }
}
layer {
  name: "conv1"
  type: "Convolution"
  bottom: "data"
  top: "conv1"
  convolution_param {
    num_output: 24
    bias_term: false
    pad: 1
    kernel_size: 3
    stride: 2
    weight_filler {
      type: "msra"
    }
  }
}
layer {
  name: "conv1_bn"
  type: "BatchNorm"
  bottom: "conv1"
  top: "conv1"
  param {
    lr_mult: 0
    decay_mult: 0
  }
  param {
    lr_mult: 0
    decay_mult: 0
  }
  param {
    lr_mult: 0
    decay_mult: 0
  }
}
layer {
  name: "conv1_scale"
  type: "Scale"
  bottom: "conv1"
  top: "conv1"
  scale_param {
    filler {
      value: 1
    }
    bias_term: true
    bias_filler {
      value: 0
    }
  }
}
layer {
  name: "conv1_relu"
  type: "ReLU"
  bottom: "conv1"
  top: "conv1"
}
layer {
  name: "pool1"
  type: "Pooling"
  bottom: "conv1"
  top: "pool1"
  pooling_param {
    pool: MAX
    kernel_size: 3
    stride: 2
  }
}
layer {
  name: "resx1_match_conv"
  type: "Pooling"
  bottom: "pool1"
  top: "resx1_match_conv"
  pooling_param {
    pool: AVE
    kernel_size: 3
    stride: 2
  }
}
layer {
  name: "resx1_conv1"
  type: "Convolution"
  bottom: "pool1"
  top: "resx1_conv1"
  convolution_param {
    num_output: 54
    bias_term: false
    pad: 0
    kernel_size: 1
    stride: 1
    weight_filler {
      type: "msra"
    }
  }
}
layer {
  name: "resx1_conv1_bn"
  type: "BatchNorm"
  bottom: "resx1_conv1"
  top: "resx1_conv1"
  param {
    lr_mult: 0
    decay_mult: 0
  }
  param {
    lr_mult: 0
    decay_mult: 0
  }
  param {
    lr_mult: 0
    decay_mult: 0
  }
}
layer {
  name: "resx1_conv1_scale"
  type: "Scale"
  bottom: "resx1_conv1"
  top: "resx1_conv1"
  scale_param {
    filler {
      value: 1
    }
    bias_term: true
    bias_filler {
      value: 0
    }
  }
}
layer {
  name: "resx1_conv1_relu"
  type: "ReLU"
  bottom: "resx1_conv1"
  top: "resx1_conv1"
}
layer {
  name: "resx1_conv2"
  type: "ConvolutionDepthwise"
  bottom: "resx1_conv1"
  top: "resx1_conv2"
  convolution_param {
    num_output: 54
    bias_term: false
    pad: 1
    kernel_size: 3
    stride: 2
    weight_filler {
      type: "msra"
    }
  }
}
layer {
  name: "resx1_conv2_bn"
  type: "BatchNorm"
  bottom: "resx1_conv2"
  top: "resx1_conv2"
  param {
    lr_mult: 0
    decay_mult: 0
  }
  param {
    lr_mult: 0
    decay_mult: 0
  }
  param {
    lr_mult: 0
    decay_mult: 0
  }
}
layer {
  name: "resx1_conv2_scale"
  type: "Scale"
  bottom: "resx1_conv2"
  top: "resx1_conv2"
  scale_param {
    filler {
      value: 1
    }
    bias_term: true
    bias_filler {
      value: 0
    }
  }
}
layer {
  name: "resx1_conv3"
  type: "Convolution"
  bottom: "resx1_conv2"
  top: "resx1_conv3"
  convolution_param {
    num_output: 216
    bias_term: false
    pad: 0
    kernel_size: 1
    group: 3
    stride: 1
    weight_filler {
      type: "msra"
    }
  }
}
layer {
  name: "resx1_conv3_bn"
  type: "BatchNorm"
  bottom: "resx1_conv3"
  top: "resx1_conv3"
  param {
    lr_mult: 0
    decay_mult: 0
  }
  param {
    lr_mult: 0
    decay_mult: 0
  }
  param {
    lr_mult: 0
    decay_mult: 0
  }
}
layer {
  name: "resx1_conv3_scale"
  type: "Scale"
  bottom: "resx1_conv3"
  top: "resx1_conv3"
  scale_param {
    filler {
      value: 1
    }
    bias_term: true
    bias_filler {
      value: 0
    }
  }
}
layer {
  name: "resx1_concat"
  type: "Concat"
  bottom: "resx1_match_conv"
  bottom: "resx1_conv3"
  top: "resx1_concat"
}
layer {
  name: "resx1_concat_relu"
  type: "ReLU"
  bottom: "resx1_concat"
  top: "resx1_concat"
}
layer {
  name: "resx2_conv1"
  type: "Convolution"
  bottom: "resx1_concat"
  top: "resx2_conv1"
  convolution_param {
    num_output: 60
    bias_term: false
    pad: 0
    kernel_size: 1
    group: 3
    stride: 1
    weight_filler {
      type: "msra"
    }
  }
}
layer {
  name: "resx2_conv1_bn"
  type: "BatchNorm"
  bottom: "resx2_conv1"
  top: "resx2_conv1"
  param {
    lr_mult: 0
    decay_mult: 0
  }
  param {
    lr_mult: 0
    decay_mult: 0
  }
  param {
    lr_mult: 0
    decay_mult: 0
  }
}
layer {
  name: "resx2_conv1_scale"
  type: "Scale"
  bottom: "resx2_conv1"
  top: "resx2_conv1"
  scale_param {
    filler {
      value: 1
    }
    bias_term: true
    bias_filler {
      value: 0
    }
  }
}
layer {
  name: "resx2_conv1_relu"
  type: "ReLU"
  bottom: "resx2_conv1"
  top: "resx2_conv1"
}
layer {
  name: "shuffle2"
  type: "ShuffleChannel"
  bottom: "resx2_conv1"
  top: "resx2_conv1"
  shuffle_channel_param {
    group: 3
  }
}
layer {
  name: "resx2_conv2"
  type: "ConvolutionDepthwise"
  bottom: "resx2_conv1"
  top: "resx2_conv2"
  convolution_param {
    num_output: 60
    bias_term: false
    pad: 1
    kernel_size: 3
    stride: 1
    weight_filler {
      type: "msra"
    }
  }
}
layer {
  name: "resx2_conv2_bn"
  type: "BatchNorm"
  bottom: "resx2_conv2"
  top: "resx2_conv2"
  param {
    lr_mult: 0
    decay_mult: 0
  }
  param {
    lr_mult: 0
    decay_mult: 0
  }
  param {
    lr_mult: 0
    decay_mult: 0
  }
}
layer {
  name: "resx2_conv2_scale"
  type: "Scale"
  bottom: "resx2_conv2"
  top: "resx2_conv2"
  scale_param {
    filler {
      value: 1
    }
    bias_term: true
    bias_filler {
      value: 0
    }
  }
}
layer {
  name: "resx2_conv3"
  type: "Convolution"
  bottom: "resx2_conv2"
  top: "resx2_conv3"
  convolution_param {
    num_output: 240
    bias_term: false
    pad: 0
    kernel_size: 1
    group: 3
    stride: 1
    weight_filler {
      type: "msra"
    }
  }
}
layer {
  name: "resx2_conv3_bn"
  type: "BatchNorm"
  bottom: "resx2_conv3"
  top: "resx2_conv3"
  param {
    lr_mult: 0
    decay_mult: 0
  }
  param {
    lr_mult: 0
    decay_mult: 0
  }
  param {
    lr_mult: 0
    decay_mult: 0
  }
}
layer {
  name: "resx2_conv3_scale"
  type: "Scale"
  bottom: "resx2_conv3"
  top: "resx2_conv3"
  scale_param {
    filler {
      value: 1
    }
    bias_term: true
    bias_filler {
      value: 0
    }
  }
}
layer {
  name: "resx2_elewise"
  type: "Eltwise"
  bottom: "resx1_concat"
  bottom: "resx2_conv3"
  top: "resx2_elewise"
  eltwise_param {
    operation: SUM
  }
}
layer {
  name: "resx2_elewise_relu"
  type: "ReLU"
  bottom: "resx2_elewise"
  top: "resx2_elewise"
}
layer {
  name: "resx3_conv1"
  type: "Convolution"
  bottom: "resx2_elewise"
  top: "resx3_conv1"
  convolution_param {
    num_output: 60
    bias_term: false
    pad: 0
    kernel_size: 1
    group: 3
    stride: 1
    weight_filler {
      type: "msra"
    }
  }
}
layer {
  name: "resx3_conv1_bn"
  type: "BatchNorm"
  bottom: "resx3_conv1"
  top: "resx3_conv1"
  param {
    lr_mult: 0
    decay_mult: 0
  }
  param {
    lr_mult: 0
    decay_mult: 0
  }
  param {
    lr_mult: 0
    decay_mult: 0
  }
}
layer {
  name: "resx3_conv1_scale"
  type: "Scale"
  bottom: "resx3_conv1"
  top: "resx3_conv1"
  scale_param {
    filler {
      value: 1
    }
    bias_term: true
    bias_filler {
      value: 0
    }
  }
}
layer {
  name: "resx3_conv1_relu"
  type: "ReLU"
  bottom: "resx3_conv1"
  top: "resx3_conv1"
}
layer {
  name: "shuffle3"
  type: "ShuffleChannel"
  bottom: "resx3_conv1"
  top: "resx3_conv1"
  shuffle_channel_param {
    group: 3
  }
}
layer {
  name: "resx3_conv2"
  type: "ConvolutionDepthwise"
  bottom: "resx3_conv1"
  top: "resx3_conv2"
  convolution_param {
    num_output: 60
    bias_term: false
    pad: 1
    kernel_size: 3
    stride: 1
    weight_filler {
      type: "msra"
    }
  }
}
layer {
  name: "resx3_conv2_bn"
  type: "BatchNorm"
  bottom: "resx3_conv2"
  top: "resx3_conv2"
  param {
    lr_mult: 0
    decay_mult: 0
  }
  param {
    lr_mult: 0
    decay_mult: 0
  }
  param {
    lr_mult: 0
    decay_mult: 0
  }
}
layer {
  name: "resx3_conv2_scale"
  type: "Scale"
  bottom: "resx3_conv2"
  top: "resx3_conv2"
  scale_param {
    filler {
      value: 1
    }
    bias_term: true
    bias_filler {
      value: 0
    }
  }
}
layer {
  name: "resx3_conv3"
  type: "Convolution"
  bottom: "resx3_conv2"
  top: "resx3_conv3"
  convolution_param {
    num_output: 240
    bias_term: false
    pad: 0
    kernel_size: 1
    group: 3
    stride: 1
    weight_filler {
      type: "msra"
    }
  }
}
layer {
  name: "resx3_conv3_bn"
  type: "BatchNorm"
  bottom: "resx3_conv3"
  top: "resx3_conv3"
  param {
    lr_mult: 0
    decay_mult: 0
  }
  param {
    lr_mult: 0
    decay_mult: 0
  }
  param {
    lr_mult: 0
    decay_mult: 0
  }
}
layer {
  name: "resx3_conv3_scale"
  type: "Scale"
  bottom: "resx3_conv3"
  top: "resx3_conv3"
  scale_param {
    filler {
      value: 1
    }
    bias_term: true
    bias_filler {
      value: 0
    }
  }
}
layer {
  name: "resx3_elewise"
  type: "Eltwise"
  bottom: "resx2_elewise"
  bottom: "resx3_conv3"
  top: "resx3_elewise"
  eltwise_param {
    operation: SUM
  }
}
layer {
  name: "resx3_elewise_relu"
  type: "ReLU"
  bottom: "resx3_elewise"
  top: "resx3_elewise"
}
layer {
  name: "resx4_conv1"
  type: "Convolution"
  bottom: "resx3_elewise"
  top: "resx4_conv1"
  convolution_param {
    num_output: 60
    bias_term: false
    pad: 0
    kernel_size: 1
    group: 3
    stride: 1
    weight_filler {
      type: "msra"
    }
  }
}
layer {
  name: "resx4_conv1_bn"
  type: "BatchNorm"
  bottom: "resx4_conv1"
  top: "resx4_conv1"
  param {
    lr_mult: 0
    decay_mult: 0
  }
  param {
    lr_mult: 0
    decay_mult: 0
  }
  param {
    lr_mult: 0
    decay_mult: 0
  }
}
layer {
  name: "resx4_conv1_scale"
  type: "Scale"
  bottom: "resx4_conv1"
  top: "resx4_conv1"
  scale_param {
    filler {
      value: 1
    }
    bias_term: true
    bias_filler {
      value: 0
    }
  }
}
layer {
  name: "resx4_conv1_relu"
  type: "ReLU"
  bottom: "resx4_conv1"
  top: "resx4_conv1"
}
layer {
  name: "shuffle4"
  type: "ShuffleChannel"
  bottom: "resx4_conv1"
  top: "resx4_conv1"
  shuffle_channel_param {
    group: 3
  }
}
layer {
  name: "resx4_conv2"
  type: "ConvolutionDepthwise"
  bottom: "resx4_conv1"
  top: "resx4_conv2"
  convolution_param {
    num_output: 60
    bias_term: false
    pad: 1
    kernel_size: 3
    stride: 1
    weight_filler {
      type: "msra"
    }
  }
}
layer {
  name: "resx4_conv2_bn"
  type: "BatchNorm"
  bottom: "resx4_conv2"
  top: "resx4_conv2"
  param {
    lr_mult: 0
    decay_mult: 0
  }
  param {
    lr_mult: 0
    decay_mult: 0
  }
  param {
    lr_mult: 0
    decay_mult: 0
  }
}
layer {
  name: "resx4_conv2_scale"
  type: "Scale"
  bottom: "resx4_conv2"
  top: "resx4_conv2"
  scale_param {
    filler {
      value: 1
    }
    bias_term: true
    bias_filler {
      value: 0
    }
  }
}
layer {
  name: "resx4_conv3"
  type: "Convolution"
  bottom: "resx4_conv2"
  top: "resx4_conv3"
  convolution_param {
    num_output: 240
    bias_term: false
    pad: 0
    kernel_size: 1
    group: 3
    stride: 1
    weight_filler {
      type: "msra"
    }
  }
}
layer {
  name: "resx4_conv3_bn"
  type: "BatchNorm"
  bottom: "resx4_conv3"
  top: "resx4_conv3"
  param {
    lr_mult: 0
    decay_mult: 0
  }
  param {
    lr_mult: 0
    decay_mult: 0
  }
  param {
    lr_mult: 0
    decay_mult: 0
  }
}
layer {
  name: "resx4_conv3_scale"
  type: "Scale"
  bottom: "resx4_conv3"
  top: "resx4_conv3"
  scale_param {
    filler {
      value: 1
    }
    bias_term: true
    bias_filler {
      value: 0
    }
  }
}
layer {
  name: "resx4_elewise"
  type: "Eltwise"
  bottom: "resx3_elewise"
  bottom: "resx4_conv3"
  top: "resx4_elewise"
  eltwise_param {
    operation: SUM
  }
}
layer {
  name: "resx4_elewise_relu"
  type: "ReLU"
  bottom: "resx4_elewise"
  top: "resx4_elewise"
}
layer {
  name: "resx5_match_conv"
  type: "Pooling"
  bottom: "resx4_elewise"
  top: "resx5_match_conv"
  pooling_param {
    pool: AVE
    kernel_size: 3
    stride: 2
  }
}
layer {
  name: "resx5_conv1"
  type: "Convolution"
  bottom: "resx4_elewise"
  top: "resx5_conv1"
  convolution_param {
    num_output: 60
    bias_term: false
    pad: 0
    kernel_size: 1
    group: 3
    stride: 1
    weight_filler {
      type: "msra"
    }
  }
}
layer {
  name: "resx5_conv1_bn"
  type: "BatchNorm"
  bottom: "resx5_conv1"
  top: "resx5_conv1"
  param {
    lr_mult: 0
    decay_mult: 0
  }
  param {
    lr_mult: 0
    decay_mult: 0
  }
  param {
    lr_mult: 0
    decay_mult: 0
  }
}
layer {
  name: "resx5_conv1_scale"
  type: "Scale"
  bottom: "resx5_conv1"
  top: "resx5_conv1"
  scale_param {
    filler {
      value: 1
    }
    bias_term: true
    bias_filler {
      value: 0
    }
  }
}
layer {
  name: "resx5_conv1_relu"
  type: "ReLU"
  bottom: "resx5_conv1"
  top: "resx5_conv1"
}
layer {
  name: "shuffle5"
  type: "ShuffleChannel"
  bottom: "resx5_conv1"
  top: "resx5_conv1"
  shuffle_channel_param {
    group: 3
  }
}
layer {
  name: "resx5_conv2"
  type: "ConvolutionDepthwise"
  bottom: "resx5_conv1"
  top: "resx5_conv2"
  convolution_param {
    num_output: 60
    bias_term: false
    pad: 1
    kernel_size: 3
    stride: 2
    weight_filler {
      type: "msra"
    }
  }
}
layer {
  name: "resx5_conv2_bn"
  type: "BatchNorm"
  bottom: "resx5_conv2"
  top: "resx5_conv2"
  param {
    lr_mult: 0
    decay_mult: 0
  }
  param {
    lr_mult: 0
    decay_mult: 0
  }
  param {
    lr_mult: 0
    decay_mult: 0
  }
}
layer {
  name: "resx5_conv2_scale"
  type: "Scale"
  bottom: "resx5_conv2"
  top: "resx5_conv2"
  scale_param {
    filler {
      value: 1
    }
    bias_term: true
    bias_filler {
      value: 0
    }
  }
}
layer {
  name: "resx5_conv3"
  type: "Convolution"
  bottom: "resx5_conv2"
  top: "resx5_conv3"
  convolution_param {
    num_output: 240
    bias_term: false
    pad: 0
    kernel_size: 1
    group: 3
    stride: 1
    weight_filler {
      type: "msra"
    }
  }
}
layer {
  name: "resx5_conv3_bn"
  type: "BatchNorm"
  bottom: "resx5_conv3"
  top: "resx5_conv3"
  param {
    lr_mult: 0
    decay_mult: 0
  }
  param {
    lr_mult: 0
    decay_mult: 0
  }
  param {
    lr_mult: 0
    decay_mult: 0
  }
}
layer {
  name: "resx5_conv3_scale"
  type: "Scale"
  bottom: "resx5_conv3"
  top: "resx5_conv3"
  scale_param {
    filler {
      value: 1
    }
    bias_term: true
    bias_filler {
      value: 0
    }
  }
}
layer {
  name: "resx5_concat"
  type: "Concat"
  bottom: "resx5_match_conv"
  bottom: "resx5_conv3"
  top: "resx5_concat"
}
layer {
  name: "resx5_concat_relu"
  type: "ReLU"
  bottom: "resx5_concat"
  top: "resx5_concat"
}
layer {
  name: "resx6_conv1"
  type: "Convolution"
  bottom: "resx5_concat"
  top: "resx6_conv1"
  convolution_param {
    num_output: 120
    bias_term: false
    pad: 0
    kernel_size: 1
    group: 3
    stride: 1
    weight_filler {
      type: "msra"
    }
  }
}
layer {
  name: "resx6_conv1_bn"
  type: "BatchNorm"
  bottom: "resx6_conv1"
  top: "resx6_conv1"
  param {
    lr_mult: 0
    decay_mult: 0
  }
  param {
    lr_mult: 0
    decay_mult: 0
  }
  param {
    lr_mult: 0
    decay_mult: 0
  }
}
layer {
  name: "resx6_conv1_scale"
  type: "Scale"
  bottom: "resx6_conv1"
  top: "resx6_conv1"
  scale_param {
    filler {
      value: 1
    }
    bias_term: true
    bias_filler {
      value: 0
    }
  }
}
layer {
  name: "resx6_conv1_relu"
  type: "ReLU"
  bottom: "resx6_conv1"
  top: "resx6_conv1"
}
layer {
  name: "shuffle6"
  type: "ShuffleChannel"
  bottom: "resx6_conv1"
  top: "resx6_conv1"
  shuffle_channel_param {
    group: 3
  }
}
layer {
  name: "resx6_conv2"
  type: "ConvolutionDepthwise"
  bottom: "resx6_conv1"
  top: "resx6_conv2"
  convolution_param {
    num_output: 120
    bias_term: false
    pad: 1
    kernel_size: 3
    stride: 1
    weight_filler {
      type: "msra"
    }
  }
}
layer {
  name: "resx6_conv2_bn"
  type: "BatchNorm"
  bottom: "resx6_conv2"
  top: "resx6_conv2"
  param {
    lr_mult: 0
    decay_mult: 0
  }
  param {
    lr_mult: 0
    decay_mult: 0
  }
  param {
    lr_mult: 0
    decay_mult: 0
  }
}
layer {
  name: "resx6_conv2_scale"
  type: "Scale"
  bottom: "resx6_conv2"
  top: "resx6_conv2"
  scale_param {
    filler {
      value: 1
    }
    bias_term: true
    bias_filler {
      value: 0
    }
  }
}
layer {
  name: "resx6_conv3"
  type: "Convolution"
  bottom: "resx6_conv2"
  top: "resx6_conv3"
  convolution_param {
    num_output: 480
    bias_term: false
    pad: 0
    kernel_size: 1
    group: 3
    stride: 1
    weight_filler {
      type: "msra"
    }
  }
}
layer {
  name: "resx6_conv3_bn"
  type: "BatchNorm"
  bottom: "resx6_conv3"
  top: "resx6_conv3"
  param {
    lr_mult: 0
    decay_mult: 0
  }
  param {
    lr_mult: 0
    decay_mult: 0
  }
  param {
    lr_mult: 0
    decay_mult: 0
  }
}
layer {
  name: "resx6_conv3_scale"
  type: "Scale"
  bottom: "resx6_conv3"
  top: "resx6_conv3"
  scale_param {
    filler {
      value: 1
    }
    bias_term: true
    bias_filler {
      value: 0
    }
  }
}
layer {
  name: "resx6_elewise"
  type: "Eltwise"
  bottom: "resx5_concat"
  bottom: "resx6_conv3"
  top: "resx6_elewise"
  eltwise_param {
    operation: SUM
  }
}
layer {
  name: "resx6_elewise_relu"
  type: "ReLU"
  bottom: "resx6_elewise"
  top: "resx6_elewise"
}
layer {
  name: "resx7_conv1"
  type: "Convolution"
  bottom: "resx6_elewise"
  top: "resx7_conv1"
  convolution_param {
    num_output: 120
    bias_term: false
    pad: 0
    kernel_size: 1
    group: 3
    stride: 1
    weight_filler {
      type: "msra"
    }
  }
}
layer {
  name: "resx7_conv1_bn"
  type: "BatchNorm"
  bottom: "resx7_conv1"
  top: "resx7_conv1"
  param {
    lr_mult: 0
    decay_mult: 0
  }
  param {
    lr_mult: 0
    decay_mult: 0
  }
  param {
    lr_mult: 0
    decay_mult: 0
  }
}
layer {
  name: "resx7_conv1_scale"
  type: "Scale"
  bottom: "resx7_conv1"
  top: "resx7_conv1"
  scale_param {
    filler {
      value: 1
    }
    bias_term: true
    bias_filler {
      value: 0
    }
  }
}
layer {
  name: "resx7_conv1_relu"
  type: "ReLU"
  bottom: "resx7_conv1"
  top: "resx7_conv1"
}
layer {
  name: "shuffle7"
  type: "ShuffleChannel"
  bottom: "resx7_conv1"
  top: "resx7_conv1"
  shuffle_channel_param {
    group: 3
  }
}
layer {
  name: "resx7_conv2"
  type: "ConvolutionDepthwise"
  bottom: "resx7_conv1"
  top: "resx7_conv2"
  convolution_param {
    num_output: 120
    bias_term: false
    pad: 1
    kernel_size: 3
    stride: 1
    weight_filler {
      type: "msra"
    }
  }
}
layer {
  name: "resx7_conv2_bn"
  type: "BatchNorm"
  bottom: "resx7_conv2"
  top: "resx7_conv2"
  param {
    lr_mult: 0
    decay_mult: 0
  }
  param {
    lr_mult: 0
    decay_mult: 0
  }
  param {
    lr_mult: 0
    decay_mult: 0
  }
}
layer {
  name: "resx7_conv2_scale"
  type: "Scale"
  bottom: "resx7_conv2"
  top: "resx7_conv2"
  scale_param {
    filler {
      value: 1
    }
    bias_term: true
    bias_filler {
      value: 0
    }
  }
}
layer {
  name: "resx7_conv3"
  type: "Convolution"
  bottom: "resx7_conv2"
  top: "resx7_conv3"
  convolution_param {
    num_output: 480
    bias_term: false
    pad: 0
    kernel_size: 1
    group: 3
    stride: 1
    weight_filler {
      type: "msra"
    }
  }
}
layer {
  name: "resx7_conv3_bn"
  type: "BatchNorm"
  bottom: "resx7_conv3"
  top: "resx7_conv3"
  param {
    lr_mult: 0
    decay_mult: 0
  }
  param {
    lr_mult: 0
    decay_mult: 0
  }
  param {
    lr_mult: 0
    decay_mult: 0
  }
}
layer {
  name: "resx7_conv3_scale"
  type: "Scale"
  bottom: "resx7_conv3"
  top: "resx7_conv3"
  scale_param {
    filler {
      value: 1
    }
    bias_term: true
    bias_filler {
      value: 0
    }
  }
}
layer {
  name: "resx7_elewise"
  type: "Eltwise"
  bottom: "resx6_elewise"
  bottom: "resx7_conv3"
  top: "resx7_elewise"
  eltwise_param {
    operation: SUM
  }
}
layer {
  name: "resx7_elewise_relu"
  type: "ReLU"
  bottom: "resx7_elewise"
  top: "resx7_elewise"
}
layer {
  name: "resx8_conv1"
  type: "Convolution"
  bottom: "resx7_elewise"
  top: "resx8_conv1"
  convolution_param {
    num_output: 120
    bias_term: false
    pad: 0
    kernel_size: 1
    group: 3
    stride: 1
    weight_filler {
      type: "msra"
    }
  }
}
layer {
  name: "resx8_conv1_bn"
  type: "BatchNorm"
  bottom: "resx8_conv1"
  top: "resx8_conv1"
  param {
    lr_mult: 0
    decay_mult: 0
  }
  param {
    lr_mult: 0
    decay_mult: 0
  }
  param {
    lr_mult: 0
    decay_mult: 0
  }
}
layer {
  name: "resx8_conv1_scale"
  type: "Scale"
  bottom: "resx8_conv1"
  top: "resx8_conv1"
  scale_param {
    filler {
      value: 1
    }
    bias_term: true
    bias_filler {
      value: 0
    }
  }
}
layer {
  name: "resx8_conv1_relu"
  type: "ReLU"
  bottom: "resx8_conv1"
  top: "resx8_conv1"
}
layer {
  name: "shuffle8"
  type: "ShuffleChannel"
  bottom: "resx8_conv1"
  top: "resx8_conv1"
  shuffle_channel_param {
    group: 3
  }
}
layer {
  name: "resx8_conv2"
  type: "ConvolutionDepthwise"
  bottom: "resx8_conv1"
  top: "resx8_conv2"
  convolution_param {
    num_output: 120
    bias_term: false
    pad: 1
    kernel_size: 3
    stride: 1
    weight_filler {
      type: "msra"
    }
  }
}
layer {
  name: "resx8_conv2_bn"
  type: "BatchNorm"
  bottom: "resx8_conv2"
  top: "resx8_conv2"
  param {
    lr_mult: 0
    decay_mult: 0
  }
  param {
    lr_mult: 0
    decay_mult: 0
  }
  param {
    lr_mult: 0
    decay_mult: 0
  }
}
layer {
  name: "resx8_conv2_scale"
  type: "Scale"
  bottom: "resx8_conv2"
  top: "resx8_conv2"
  scale_param {
    filler {
      value: 1
    }
    bias_term: true
    bias_filler {
      value: 0
    }
  }
}
layer {
  name: "resx8_conv3"
  type: "Convolution"
  bottom: "resx8_conv2"
  top: "resx8_conv3"
  convolution_param {
    num_output: 480
    bias_term: false
    pad: 0
    kernel_size: 1
    group: 3
    stride: 1
    weight_filler {
      type: "msra"
    }
  }
}
layer {
  name: "resx8_conv3_bn"
  type: "BatchNorm"
  bottom: "resx8_conv3"
  top: "resx8_conv3"
  param {
    lr_mult: 0
    decay_mult: 0
  }
  param {
    lr_mult: 0
    decay_mult: 0
  }
  param {
    lr_mult: 0
    decay_mult: 0
  }
}
layer {
  name: "resx8_conv3_scale"
  type: "Scale"
  bottom: "resx8_conv3"
  top: "resx8_conv3"
  scale_param {
    filler {
      value: 1
    }
    bias_term: true
    bias_filler {
      value: 0
    }
  }
}
layer {
  name: "resx8_elewise"
  type: "Eltwise"
  bottom: "resx7_elewise"
  bottom: "resx8_conv3"
  top: "resx8_elewise"
  eltwise_param {
    operation: SUM
  }
}
layer {
  name: "resx8_elewise_relu"
  type: "ReLU"
  bottom: "resx8_elewise"
  top: "resx8_elewise"
}
layer {
  name: "resx9_conv1"
  type: "Convolution"
  bottom: "resx8_elewise"
  top: "resx9_conv1"
  convolution_param {
    num_output: 120
    bias_term: false
    pad: 0
    kernel_size: 1
    group: 3
    stride: 1
    weight_filler {
      type: "msra"
    }
  }
}
layer {
  name: "resx9_conv1_bn"
  type: "BatchNorm"
  bottom: "resx9_conv1"
  top: "resx9_conv1"
  param {
    lr_mult: 0
    decay_mult: 0
  }
  param {
    lr_mult: 0
    decay_mult: 0
  }
  param {
    lr_mult: 0
    decay_mult: 0
  }
}
layer {
  name: "resx9_conv1_scale"
  type: "Scale"
  bottom: "resx9_conv1"
  top: "resx9_conv1"
  scale_param {
    filler {
      value: 1
    }
    bias_term: true
    bias_filler {
      value: 0
    }
  }
}
layer {
  name: "resx9_conv1_relu"
  type: "ReLU"
  bottom: "resx9_conv1"
  top: "resx9_conv1"
}
layer {
  name: "shuffle9"
  type: "ShuffleChannel"
  bottom: "resx9_conv1"
  top: "resx9_conv1"
  shuffle_channel_param {
    group: 3
  }
}
layer {
  name: "resx9_conv2"
  type: "ConvolutionDepthwise"
  bottom: "resx9_conv1"
  top: "resx9_conv2"
  convolution_param {
    num_output: 120
    bias_term: false
    pad: 1
    kernel_size: 3
    stride: 1
    weight_filler {
      type: "msra"
    }
  }
}
layer {
  name: "resx9_conv2_bn"
  type: "BatchNorm"
  bottom: "resx9_conv2"
  top: "resx9_conv2"
  param {
    lr_mult: 0
    decay_mult: 0
  }
  param {
    lr_mult: 0
    decay_mult: 0
  }
  param {
    lr_mult: 0
    decay_mult: 0
  }
}
layer {
  name: "resx9_conv2_scale"
  type: "Scale"
  bottom: "resx9_conv2"
  top: "resx9_conv2"
  scale_param {
    filler {
      value: 1
    }
    bias_term: true
    bias_filler {
      value: 0
    }
  }
}
layer {
  name: "resx9_conv3"
  type: "Convolution"
  bottom: "resx9_conv2"
  top: "resx9_conv3"
  convolution_param {
    num_output: 480
    bias_term: false
    pad: 0
    kernel_size: 1
    group: 3
    stride: 1
    weight_filler {
      type: "msra"
    }
  }
}
layer {
  name: "resx9_conv3_bn"
  type: "BatchNorm"
  bottom: "resx9_conv3"
  top: "resx9_conv3"
  param {
    lr_mult: 0
    decay_mult: 0
  }
  param {
    lr_mult: 0
    decay_mult: 0
  }
  param {
    lr_mult: 0
    decay_mult: 0
  }
}
layer {
  name: "resx9_conv3_scale"
  type: "Scale"
  bottom: "resx9_conv3"
  top: "resx9_conv3"
  scale_param {
    filler {
      value: 1
    }
    bias_term: true
    bias_filler {
      value: 0
    }
  }
}
layer {
  name: "resx9_elewise"
  type: "Eltwise"
  bottom: "resx8_elewise"
  bottom: "resx9_conv3"
  top: "resx9_elewise"
  eltwise_param {
    operation: SUM
  }
}
layer {
  name: "resx9_elewise_relu"
  type: "ReLU"
  bottom: "resx9_elewise"
  top: "resx9_elewise"
}
layer {
  name: "resx10_conv1"
  type: "Convolution"
  bottom: "resx9_elewise"
  top: "resx10_conv1"
  convolution_param {
    num_output: 120
    bias_term: false
    pad: 0
    kernel_size: 1
    group: 3
    stride: 1
    weight_filler {
      type: "msra"
    }
  }
}
layer {
  name: "resx10_conv1_bn"
  type: "BatchNorm"
  bottom: "resx10_conv1"
  top: "resx10_conv1"
  param {
    lr_mult: 0
    decay_mult: 0
  }
  param {
    lr_mult: 0
    decay_mult: 0
  }
  param {
    lr_mult: 0
    decay_mult: 0
  }
}
layer {
  name: "resx10_conv1_scale"
  type: "Scale"
  bottom: "resx10_conv1"
  top: "resx10_conv1"
  scale_param {
    filler {
      value: 1
    }
    bias_term: true
    bias_filler {
      value: 0
    }
  }
}
layer {
  name: "resx10_conv1_relu"
  type: "ReLU"
  bottom: "resx10_conv1"
  top: "resx10_conv1"
}
layer {
  name: "shuffle10"
  type: "ShuffleChannel"
  bottom: "resx10_conv1"
  top: "resx10_conv1"
  shuffle_channel_param {
    group: 3
  }
}
layer {
  name: "resx10_conv2"
  type: "ConvolutionDepthwise"
  bottom: "resx10_conv1"
  top: "resx10_conv2"
  convolution_param {
    num_output: 120
    bias_term: false
    pad: 1
    kernel_size: 3
    stride: 1
    weight_filler {
      type: "msra"
    }
  }
}
layer {
  name: "resx10_conv2_bn"
  type: "BatchNorm"
  bottom: "resx10_conv2"
  top: "resx10_conv2"
  param {
    lr_mult: 0
    decay_mult: 0
  }
  param {
    lr_mult: 0
    decay_mult: 0
  }
  param {
    lr_mult: 0
    decay_mult: 0
  }
}
layer {
  name: "resx10_conv2_scale"
  type: "Scale"
  bottom: "resx10_conv2"
  top: "resx10_conv2"
  scale_param {
    filler {
      value: 1
    }
    bias_term: true
    bias_filler {
      value: 0
    }
  }
}
layer {
  name: "resx10_conv3"
  type: "Convolution"
  bottom: "resx10_conv2"
  top: "resx10_conv3"
  convolution_param {
    num_output: 480
    bias_term: false
    pad: 0
    kernel_size: 1
    group: 3
    stride: 1
    weight_filler {
      type: "msra"
    }
  }
}
layer {
  name: "resx10_conv3_bn"
  type: "BatchNorm"
  bottom: "resx10_conv3"
  top: "resx10_conv3"
  param {
    lr_mult: 0
    decay_mult: 0
  }
  param {
    lr_mult: 0
    decay_mult: 0
  }
  param {
    lr_mult: 0
    decay_mult: 0
  }
}
layer {
  name: "resx10_conv3_scale"
  type: "Scale"
  bottom: "resx10_conv3"
  top: "resx10_conv3"
  scale_param {
    filler {
      value: 1
    }
    bias_term: true
    bias_filler {
      value: 0
    }
  }
}
layer {
  name: "resx10_elewise"
  type: "Eltwise"
  bottom: "resx9_elewise"
  bottom: "resx10_conv3"
  top: "resx10_elewise"
  eltwise_param {
    operation: SUM
  }
}
layer {
  name: "resx10_elewise_relu"
  type: "ReLU"
  bottom: "resx10_elewise"
  top: "resx10_elewise"
}
layer {
  name: "resx11_conv1"
  type: "Convolution"
  bottom: "resx10_elewise"
  top: "resx11_conv1"
  convolution_param {
    num_output: 120
    bias_term: false
    pad: 0
    kernel_size: 1
    group: 3
    stride: 1
    weight_filler {
      type: "msra"
    }
  }
}
layer {
  name: "resx11_conv1_bn"
  type: "BatchNorm"
  bottom: "resx11_conv1"
  top: "resx11_conv1"
  param {
    lr_mult: 0
    decay_mult: 0
  }
  param {
    lr_mult: 0
    decay_mult: 0
  }
  param {
    lr_mult: 0
    decay_mult: 0
  }
}
layer {
  name: "resx11_conv1_scale"
  type: "Scale"
  bottom: "resx11_conv1"
  top: "resx11_conv1"
  scale_param {
    filler {
      value: 1
    }
    bias_term: true
    bias_filler {
      value: 0
    }
  }
}
layer {
  name: "resx11_conv1_relu"
  type: "ReLU"
  bottom: "resx11_conv1"
  top: "resx11_conv1"
}
layer {
  name: "shuffle11"
  type: "ShuffleChannel"
  bottom: "resx11_conv1"
  top: "resx11_conv1"
  shuffle_channel_param {
    group: 3
  }
}
layer {
  name: "resx11_conv2"
  type: "ConvolutionDepthwise"
  bottom: "resx11_conv1"
  top: "resx11_conv2"
  convolution_param {
    num_output: 120
    bias_term: false
    pad: 1
    kernel_size: 3
    stride: 1
    weight_filler {
      type: "msra"
    }
  }
}
layer {
  name: "resx11_conv2_bn"
  type: "BatchNorm"
  bottom: "resx11_conv2"
  top: "resx11_conv2"
  param {
    lr_mult: 0
    decay_mult: 0
  }
  param {
    lr_mult: 0
    decay_mult: 0
  }
  param {
    lr_mult: 0
    decay_mult: 0
  }
}
layer {
  name: "resx11_conv2_scale"
  type: "Scale"
  bottom: "resx11_conv2"
  top: "resx11_conv2"
  scale_param {
    filler {
      value: 1
    }
    bias_term: true
    bias_filler {
      value: 0
    }
  }
}
layer {
  name: "resx11_conv3"
  type: "Convolution"
  bottom: "resx11_conv2"
  top: "resx11_conv3"
  convolution_param {
    num_
I0813 15:18:08.943754 30714 layer_factory.hpp:77] Creating layer data
I0813 15:18:08.945755 30714 net.cpp:91] Creating Layer data
I0813 15:18:08.945771 30714 net.cpp:443] data -> data
I0813 15:18:08.945796 30714 net.cpp:443] data -> label
I0813 15:18:08.947700 30718 db_lmdb.cpp:35] Opened lmdb /home/chenyao/ilsvrc12/ilsvrc12_train_lmdb
I0813 15:18:08.948349 30714 data_layer.cpp:41] output data size: 70,3,224,224
I0813 15:18:09.259274 30714 net.cpp:141] Setting up data
I0813 15:18:09.259332 30714 net.cpp:148] Top shape: 70 3 224 224 (10536960)
I0813 15:18:09.259340 30714 net.cpp:148] Top shape: 70 (70)
I0813 15:18:09.259343 30714 net.cpp:156] Memory required for data: 42148120
I0813 15:18:09.259354 30714 layer_factory.hpp:77] Creating layer conv1
I0813 15:18:09.259385 30714 net.cpp:91] Creating Layer conv1
I0813 15:18:09.259392 30714 net.cpp:469] conv1 <- data
I0813 15:18:09.259408 30714 net.cpp:443] conv1 -> conv1
I0813 15:18:09.259495 30714 net.cpp:141] Setting up conv1
I0813 15:18:09.259501 30714 net.cpp:148] Top shape: 70 24 112 112 (21073920)
I0813 15:18:09.259505 30714 net.cpp:156] Memory required for data: 126443800
I0813 15:18:09.259516 30714 layer_factory.hpp:77] Creating layer conv1_bn
I0813 15:18:09.259529 30714 net.cpp:91] Creating Layer conv1_bn
I0813 15:18:09.259533 30714 net.cpp:469] conv1_bn <- conv1
I0813 15:18:09.259538 30714 net.cpp:430] conv1_bn -> conv1 (in-place)
I0813 15:18:09.259579 30714 net.cpp:141] Setting up conv1_bn
I0813 15:18:09.259587 30714 net.cpp:148] Top shape: 70 24 112 112 (21073920)
I0813 15:18:09.259589 30714 net.cpp:156] Memory required for data: 210739480
I0813 15:18:09.259599 30714 layer_factory.hpp:77] Creating layer conv1_scale
I0813 15:18:09.259608 30714 net.cpp:91] Creating Layer conv1_scale
I0813 15:18:09.259613 30714 net.cpp:469] conv1_scale <- conv1
I0813 15:18:09.259618 30714 net.cpp:430] conv1_scale -> conv1 (in-place)
I0813 15:18:09.259631 30714 layer_factory.hpp:77] Creating layer conv1_scale
I0813 15:18:09.259708 30714 net.cpp:141] Setting up conv1_scale
I0813 15:18:09.259716 30714 net.cpp:148] Top shape: 70 24 112 112 (21073920)
I0813 15:18:09.259721 30714 net.cpp:156] Memory required for data: 295035160
I0813 15:18:09.259727 30714 layer_factory.hpp:77] Creating layer conv1_relu
I0813 15:18:09.259735 30714 net.cpp:91] Creating Layer conv1_relu
I0813 15:18:09.259739 30714 net.cpp:469] conv1_relu <- conv1
I0813 15:18:09.259745 30714 net.cpp:430] conv1_relu -> conv1 (in-place)
I0813 15:18:09.259764 30714 net.cpp:141] Setting up conv1_relu
I0813 15:18:09.259778 30714 net.cpp:148] Top shape: 70 24 112 112 (21073920)
I0813 15:18:09.259781 30714 net.cpp:156] Memory required for data: 379330840
I0813 15:18:09.259784 30714 layer_factory.hpp:77] Creating layer pool1
I0813 15:18:09.259793 30714 net.cpp:91] Creating Layer pool1
I0813 15:18:09.259795 30714 net.cpp:469] pool1 <- conv1
I0813 15:18:09.259801 30714 net.cpp:443] pool1 -> pool1
I0813 15:18:09.259815 30714 net.cpp:141] Setting up pool1
I0813 15:18:09.259820 30714 net.cpp:148] Top shape: 70 24 56 56 (5268480)
I0813 15:18:09.259824 30714 net.cpp:156] Memory required for data: 400404760
I0813 15:18:09.259826 30714 layer_factory.hpp:77] Creating layer pool1_pool1_0_split
I0813 15:18:09.259835 30714 net.cpp:91] Creating Layer pool1_pool1_0_split
I0813 15:18:09.259838 30714 net.cpp:469] pool1_pool1_0_split <- pool1
I0813 15:18:09.259842 30714 net.cpp:443] pool1_pool1_0_split -> pool1_pool1_0_split_0
I0813 15:18:09.259848 30714 net.cpp:443] pool1_pool1_0_split -> pool1_pool1_0_split_1
I0813 15:18:09.259855 30714 net.cpp:141] Setting up pool1_pool1_0_split
I0813 15:18:09.259860 30714 net.cpp:148] Top shape: 70 24 56 56 (5268480)
I0813 15:18:09.259863 30714 net.cpp:148] Top shape: 70 24 56 56 (5268480)
I0813 15:18:09.259866 30714 net.cpp:156] Memory required for data: 442552600
I0813 15:18:09.259869 30714 layer_factory.hpp:77] Creating layer resx1_match_conv
I0813 15:18:09.259874 30714 net.cpp:91] Creating Layer resx1_match_conv
I0813 15:18:09.259877 30714 net.cpp:469] resx1_match_conv <- pool1_pool1_0_split_0
I0813 15:18:09.259884 30714 net.cpp:443] resx1_match_conv -> resx1_match_conv
I0813 15:18:09.259889 30714 net.cpp:141] Setting up resx1_match_conv
I0813 15:18:09.259893 30714 net.cpp:148] Top shape: 70 24 28 28 (1317120)
I0813 15:18:09.259896 30714 net.cpp:156] Memory required for data: 447821080
I0813 15:18:09.259899 30714 layer_factory.hpp:77] Creating layer resx1_conv1
I0813 15:18:09.259909 30714 net.cpp:91] Creating Layer resx1_conv1
I0813 15:18:09.259912 30714 net.cpp:469] resx1_conv1 <- pool1_pool1_0_split_1
I0813 15:18:09.259917 30714 net.cpp:443] resx1_conv1 -> resx1_conv1
I0813 15:18:09.259965 30714 net.cpp:141] Setting up resx1_conv1
I0813 15:18:09.259970 30714 net.cpp:148] Top shape: 70 54 56 56 (11854080)
I0813 15:18:09.259974 30714 net.cpp:156] Memory required for data: 495237400
I0813 15:18:09.259979 30714 layer_factory.hpp:77] Creating layer resx1_conv1_bn
I0813 15:18:09.259985 30714 net.cpp:91] Creating Layer resx1_conv1_bn
I0813 15:18:09.259989 30714 net.cpp:469] resx1_conv1_bn <- resx1_conv1
I0813 15:18:09.259994 30714 net.cpp:430] resx1_conv1_bn -> resx1_conv1 (in-place)
I0813 15:18:09.260006 30714 net.cpp:141] Setting up resx1_conv1_bn
I0813 15:18:09.260010 30714 net.cpp:148] Top shape: 70 54 56 56 (11854080)
I0813 15:18:09.260013 30714 net.cpp:156] Memory required for data: 542653720
I0813 15:18:09.260021 30714 layer_factory.hpp:77] Creating layer resx1_conv1_scale
I0813 15:18:09.260028 30714 net.cpp:91] Creating Layer resx1_conv1_scale
I0813 15:18:09.260032 30714 net.cpp:469] resx1_conv1_scale <- resx1_conv1
I0813 15:18:09.260036 30714 net.cpp:430] resx1_conv1_scale -> resx1_conv1 (in-place)
I0813 15:18:09.260043 30714 layer_factory.hpp:77] Creating layer resx1_conv1_scale
I0813 15:18:09.260064 30714 net.cpp:141] Setting up resx1_conv1_scale
I0813 15:18:09.260068 30714 net.cpp:148] Top shape: 70 54 56 56 (11854080)
I0813 15:18:09.260071 30714 net.cpp:156] Memory required for data: 590070040
I0813 15:18:09.260076 30714 layer_factory.hpp:77] Creating layer resx1_conv1_relu
I0813 15:18:09.260082 30714 net.cpp:91] Creating Layer resx1_conv1_relu
I0813 15:18:09.260085 30714 net.cpp:469] resx1_conv1_relu <- resx1_conv1
I0813 15:18:09.260092 30714 net.cpp:430] resx1_conv1_relu -> resx1_conv1 (in-place)
I0813 15:18:09.260095 30714 net.cpp:141] Setting up resx1_conv1_relu
I0813 15:18:09.260099 30714 net.cpp:148] Top shape: 70 54 56 56 (11854080)
I0813 15:18:09.260102 30714 net.cpp:156] Memory required for data: 637486360
I0813 15:18:09.260107 30714 layer_factory.hpp:77] Creating layer resx1_conv2
I0813 15:18:09.260128 30714 net.cpp:91] Creating Layer resx1_conv2
I0813 15:18:09.260130 30714 net.cpp:469] resx1_conv2 <- resx1_conv1
I0813 15:18:09.260138 30714 net.cpp:443] resx1_conv2 -> resx1_conv2
I0813 15:18:09.270928 30714 net.cpp:141] Setting up resx1_conv2
I0813 15:18:09.270944 30714 net.cpp:148] Top shape: 70 54 28 28 (2963520)
I0813 15:18:09.270949 30714 net.cpp:156] Memory required for data: 649340440
I0813 15:18:09.270956 30714 layer_factory.hpp:77] Creating layer resx1_conv2_bn
I0813 15:18:09.270964 30714 net.cpp:91] Creating Layer resx1_conv2_bn
I0813 15:18:09.270968 30714 net.cpp:469] resx1_conv2_bn <- resx1_conv2
I0813 15:18:09.270973 30714 net.cpp:430] resx1_conv2_bn -> resx1_conv2 (in-place)
I0813 15:18:09.270992 30714 net.cpp:141] Setting up resx1_conv2_bn
I0813 15:18:09.270998 30714 net.cpp:148] Top shape: 70 54 28 28 (2963520)
I0813 15:18:09.271000 30714 net.cpp:156] Memory required for data: 661194520
I0813 15:18:09.271008 30714 layer_factory.hpp:77] Creating layer resx1_conv2_scale
I0813 15:18:09.271014 30714 net.cpp:91] Creating Layer resx1_conv2_scale
I0813 15:18:09.271018 30714 net.cpp:469] resx1_conv2_scale <- resx1_conv2
I0813 15:18:09.271023 30714 net.cpp:430] resx1_conv2_scale -> resx1_conv2 (in-place)
I0813 15:18:09.271030 30714 layer_factory.hpp:77] Creating layer resx1_conv2_scale
I0813 15:18:09.271047 30714 net.cpp:141] Setting up resx1_conv2_scale
I0813 15:18:09.271052 30714 net.cpp:148] Top shape: 70 54 28 28 (2963520)
I0813 15:18:09.271055 30714 net.cpp:156] Memory required for data: 673048600
I0813 15:18:09.271064 30714 layer_factory.hpp:77] Creating layer resx1_conv3
I0813 15:18:09.271075 30714 net.cpp:91] Creating Layer resx1_conv3
I0813 15:18:09.271078 30714 net.cpp:469] resx1_conv3 <- resx1_conv2
I0813 15:18:09.271083 30714 net.cpp:443] resx1_conv3 -> resx1_conv3
I0813 15:18:09.271193 30714 net.cpp:141] Setting up resx1_conv3
I0813 15:18:09.271198 30714 net.cpp:148] Top shape: 70 216 28 28 (11854080)
I0813 15:18:09.271201 30714 net.cpp:156] Memory required for data: 720464920
I0813 15:18:09.271205 30714 layer_factory.hpp:77] Creating layer resx1_conv3_bn
I0813 15:18:09.271214 30714 net.cpp:91] Creating Layer resx1_conv3_bn
I0813 15:18:09.271217 30714 net.cpp:469] resx1_conv3_bn <- resx1_conv3
I0813 15:18:09.271221 30714 net.cpp:430] resx1_conv3_bn -> resx1_conv3 (in-place)
I0813 15:18:09.271234 30714 net.cpp:141] Setting up resx1_conv3_bn
I0813 15:18:09.271237 30714 net.cpp:148] Top shape: 70 216 28 28 (11854080)
I0813 15:18:09.271240 30714 net.cpp:156] Memory required for data: 767881240
I0813 15:18:09.271246 30714 layer_factory.hpp:77] Creating layer resx1_conv3_scale
I0813 15:18:09.271253 30714 net.cpp:91] Creating Layer resx1_conv3_scale
I0813 15:18:09.271257 30714 net.cpp:469] resx1_conv3_scale <- resx1_conv3
I0813 15:18:09.271263 30714 net.cpp:430] resx1_conv3_scale -> resx1_conv3 (in-place)
I0813 15:18:09.271270 30714 layer_factory.hpp:77] Creating layer resx1_conv3_scale
I0813 15:18:09.271284 30714 net.cpp:141] Setting up resx1_conv3_scale
I0813 15:18:09.271289 30714 net.cpp:148] Top shape: 70 216 28 28 (11854080)
I0813 15:18:09.271292 30714 net.cpp:156] Memory required for data: 815297560
I0813 15:18:09.271297 30714 layer_factory.hpp:77] Creating layer resx1_concat
I0813 15:18:09.271307 30714 net.cpp:91] Creating Layer resx1_concat
I0813 15:18:09.271311 30714 net.cpp:469] resx1_concat <- resx1_match_conv
I0813 15:18:09.271314 30714 net.cpp:469] resx1_concat <- resx1_conv3
I0813 15:18:09.271318 30714 net.cpp:443] resx1_concat -> resx1_concat
I0813 15:18:09.271332 30714 net.cpp:141] Setting up resx1_concat
I0813 15:18:09.271337 30714 net.cpp:148] Top shape: 70 240 28 28 (13171200)
I0813 15:18:09.271339 30714 net.cpp:156] Memory required for data: 867982360
I0813 15:18:09.271342 30714 layer_factory.hpp:77] Creating layer resx1_concat_relu
I0813 15:18:09.271347 30714 net.cpp:91] Creating Layer resx1_concat_relu
I0813 15:18:09.271351 30714 net.cpp:469] resx1_concat_relu <- resx1_concat
I0813 15:18:09.271356 30714 net.cpp:430] resx1_concat_relu -> resx1_concat (in-place)
I0813 15:18:09.271371 30714 net.cpp:141] Setting up resx1_concat_relu
I0813 15:18:09.271375 30714 net.cpp:148] Top shape: 70 240 28 28 (13171200)
I0813 15:18:09.271378 30714 net.cpp:156] Memory required for data: 920667160
I0813 15:18:09.271381 30714 layer_factory.hpp:77] Creating layer resx1_concat_resx1_concat_relu_0_split
I0813 15:18:09.271387 30714 net.cpp:91] Creating Layer resx1_concat_resx1_concat_relu_0_split
I0813 15:18:09.271390 30714 net.cpp:469] resx1_concat_resx1_concat_relu_0_split <- resx1_concat
I0813 15:18:09.271394 30714 net.cpp:443] resx1_concat_resx1_concat_relu_0_split -> resx1_concat_resx1_concat_relu_0_split_0
I0813 15:18:09.271399 30714 net.cpp:443] resx1_concat_resx1_concat_relu_0_split -> resx1_concat_resx1_concat_relu_0_split_1
I0813 15:18:09.271405 30714 net.cpp:141] Setting up resx1_concat_resx1_concat_relu_0_split
I0813 15:18:09.271409 30714 net.cpp:148] Top shape: 70 240 28 28 (13171200)
I0813 15:18:09.271412 30714 net.cpp:148] Top shape: 70 240 28 28 (13171200)
I0813 15:18:09.271415 30714 net.cpp:156] Memory required for data: 1026036760
I0813 15:18:09.271419 30714 layer_factory.hpp:77] Creating layer resx2_conv1
I0813 15:18:09.271430 30714 net.cpp:91] Creating Layer resx2_conv1
I0813 15:18:09.271433 30714 net.cpp:469] resx2_conv1 <- resx1_concat_resx1_concat_relu_0_split_0
I0813 15:18:09.271437 30714 net.cpp:443] resx2_conv1 -> resx2_conv1
I0813 15:18:09.271570 30714 net.cpp:141] Setting up resx2_conv1
I0813 15:18:09.271576 30714 net.cpp:148] Top shape: 70 60 28 28 (3292800)
I0813 15:18:09.271579 30714 net.cpp:156] Memory required for data: 1039207960
I0813 15:18:09.271584 30714 layer_factory.hpp:77] Creating layer resx2_conv1_bn
I0813 15:18:09.271589 30714 net.cpp:91] Creating Layer resx2_conv1_bn
I0813 15:18:09.271592 30714 net.cpp:469] resx2_conv1_bn <- resx2_conv1
I0813 15:18:09.271598 30714 net.cpp:430] resx2_conv1_bn -> resx2_conv1 (in-place)
I0813 15:18:09.271608 30714 net.cpp:141] Setting up resx2_conv1_bn
I0813 15:18:09.271613 30714 net.cpp:148] Top shape: 70 60 28 28 (3292800)
I0813 15:18:09.271616 30714 net.cpp:156] Memory required for data: 1052379160
I0813 15:18:09.271622 30714 layer_factory.hpp:77] Creating layer resx2_conv1_scale
I0813 15:18:09.271630 30714 net.cpp:91] Creating Layer resx2_conv1_scale
I0813 15:18:09.271632 30714 net.cpp:469] resx2_conv1_scale <- resx2_conv1
I0813 15:18:09.271638 30714 net.cpp:430] resx2_conv1_scale -> resx2_conv1 (in-place)
I0813 15:18:09.271646 30714 layer_factory.hpp:77] Creating layer resx2_conv1_scale
I0813 15:18:09.271661 30714 net.cpp:141] Setting up resx2_conv1_scale
I0813 15:18:09.271664 30714 net.cpp:148] Top shape: 70 60 28 28 (3292800)
I0813 15:18:09.271667 30714 net.cpp:156] Memory required for data: 1065550360
I0813 15:18:09.271673 30714 layer_factory.hpp:77] Creating layer resx2_conv1_relu
I0813 15:18:09.271678 30714 net.cpp:91] Creating Layer resx2_conv1_relu
I0813 15:18:09.271682 30714 net.cpp:469] resx2_conv1_relu <- resx2_conv1
I0813 15:18:09.271687 30714 net.cpp:430] resx2_conv1_relu -> resx2_conv1 (in-place)
I0813 15:18:09.271692 30714 net.cpp:141] Setting up resx2_conv1_relu
I0813 15:18:09.271695 30714 net.cpp:148] Top shape: 70 60 28 28 (3292800)
I0813 15:18:09.271698 30714 net.cpp:156] Memory required for data: 1078721560
I0813 15:18:09.271702 30714 layer_factory.hpp:77] Creating layer shuffle2
I0813 15:18:09.271708 30714 net.cpp:91] Creating Layer shuffle2
I0813 15:18:09.271711 30714 net.cpp:469] shuffle2 <- resx2_conv1
I0813 15:18:09.271716 30714 net.cpp:430] shuffle2 -> resx2_conv1 (in-place)
I0813 15:18:09.271723 30714 net.cpp:141] Setting up shuffle2
I0813 15:18:09.271726 30714 net.cpp:148] Top shape: 70 60 28 28 (3292800)
I0813 15:18:09.271729 30714 net.cpp:156] Memory required for data: 1091892760
I0813 15:18:09.271733 30714 layer_factory.hpp:77] Creating layer resx2_conv2
I0813 15:18:09.271740 30714 net.cpp:91] Creating Layer resx2_conv2
I0813 15:18:09.271744 30714 net.cpp:469] resx2_conv2 <- resx2_conv1
I0813 15:18:09.271749 30714 net.cpp:443] resx2_conv2 -> resx2_conv2
I0813 15:18:09.271806 30714 net.cpp:141] Setting up resx2_conv2
I0813 15:18:09.271819 30714 net.cpp:148] Top shape: 70 60 28 28 (3292800)
I0813 15:18:09.271822 30714 net.cpp:156] Memory required for data: 1105063960
I0813 15:18:09.271827 30714 layer_factory.hpp:77] Creating layer resx2_conv2_bn
I0813 15:18:09.271834 30714 net.cpp:91] Creating Layer resx2_conv2_bn
I0813 15:18:09.271837 30714 net.cpp:469] resx2_conv2_bn <- resx2_conv2
I0813 15:18:09.271842 30714 net.cpp:430] resx2_conv2_bn -> resx2_conv2 (in-place)
I0813 15:18:09.271864 30714 net.cpp:141] Setting up resx2_conv2_bn
I0813 15:18:09.271870 30714 net.cpp:148] Top shape: 70 60 28 28 (3292800)
I0813 15:18:09.271873 30714 net.cpp:156] Memory required for data: 1118235160
I0813 15:18:09.271886 30714 layer_factory.hpp:77] Creating layer resx2_conv2_scale
I0813 15:18:09.271893 30714 net.cpp:91] Creating Layer resx2_conv2_scale
I0813 15:18:09.271895 30714 net.cpp:469] resx2_conv2_scale <- resx2_conv2
I0813 15:18:09.271900 30714 net.cpp:430] resx2_conv2_scale -> resx2_conv2 (in-place)
I0813 15:18:09.271908 30714 layer_factory.hpp:77] Creating layer resx2_conv2_scale
I0813 15:18:09.271920 30714 net.cpp:141] Setting up resx2_conv2_scale
I0813 15:18:09.271925 30714 net.cpp:148] Top shape: 70 60 28 28 (3292800)
I0813 15:18:09.271929 30714 net.cpp:156] Memory required for data: 1131406360
I0813 15:18:09.271934 30714 layer_factory.hpp:77] Creating layer resx2_conv3
I0813 15:18:09.271940 30714 net.cpp:91] Creating Layer resx2_conv3
I0813 15:18:09.271944 30714 net.cpp:469] resx2_conv3 <- resx2_conv2
I0813 15:18:09.271948 30714 net.cpp:443] resx2_conv3 -> resx2_conv3
I0813 15:18:09.272078 30714 net.cpp:141] Setting up resx2_conv3
I0813 15:18:09.272083 30714 net.cpp:148] Top shape: 70 240 28 28 (13171200)
I0813 15:18:09.272086 30714 net.cpp:156] Memory required for data: 1184091160
I0813 15:18:09.272091 30714 layer_factory.hpp:77] Creating layer resx2_conv3_bn
I0813 15:18:09.272099 30714 net.cpp:91] Creating Layer resx2_conv3_bn
I0813 15:18:09.272101 30714 net.cpp:469] resx2_conv3_bn <- resx2_conv3
I0813 15:18:09.272106 30714 net.cpp:430] resx2_conv3_bn -> resx2_conv3 (in-place)
I0813 15:18:09.272119 30714 net.cpp:141] Setting up resx2_conv3_bn
I0813 15:18:09.272122 30714 net.cpp:148] Top shape: 70 240 28 28 (13171200)
I0813 15:18:09.272125 30714 net.cpp:156] Memory required for data: 1236775960
I0813 15:18:09.272135 30714 layer_factory.hpp:77] Creating layer resx2_conv3_scale
I0813 15:18:09.272140 30714 net.cpp:91] Creating Layer resx2_conv3_scale
I0813 15:18:09.272145 30714 net.cpp:469] resx2_conv3_scale <- resx2_conv3
I0813 15:18:09.272150 30714 net.cpp:430] resx2_conv3_scale -> resx2_conv3 (in-place)
I0813 15:18:09.272156 30714 layer_factory.hpp:77] Creating layer resx2_conv3_scale
I0813 15:18:09.272172 30714 net.cpp:141] Setting up resx2_conv3_scale
I0813 15:18:09.272178 30714 net.cpp:148] Top shape: 70 240 28 28 (13171200)
I0813 15:18:09.272181 30714 net.cpp:156] Memory required for data: 1289460760
I0813 15:18:09.272186 30714 layer_factory.hpp:77] Creating layer resx2_elewise
I0813 15:18:09.272195 30714 net.cpp:91] Creating Layer resx2_elewise
I0813 15:18:09.272198 30714 net.cpp:469] resx2_elewise <- resx1_concat_resx1_concat_relu_0_split_1
I0813 15:18:09.272202 30714 net.cpp:469] resx2_elewise <- resx2_conv3
I0813 15:18:09.272208 30714 net.cpp:443] resx2_elewise -> resx2_elewise
I0813 15:18:09.272218 30714 net.cpp:141] Setting up resx2_elewise
I0813 15:18:09.272222 30714 net.cpp:148] Top shape: 70 240 28 28 (13171200)
I0813 15:18:09.272225 30714 net.cpp:156] Memory required for data: 1342145560
I0813 15:18:09.272229 30714 layer_factory.hpp:77] Creating layer resx2_elewise_relu
I0813 15:18:09.272234 30714 net.cpp:91] Creating Layer resx2_elewise_relu
I0813 15:18:09.272238 30714 net.cpp:469] resx2_elewise_relu <- resx2_elewise
I0813 15:18:09.272241 30714 net.cpp:430] resx2_elewise_relu -> resx2_elewise (in-place)
I0813 15:18:09.272245 30714 net.cpp:141] Setting up resx2_elewise_relu
I0813 15:18:09.272249 30714 net.cpp:148] Top shape: 70 240 28 28 (13171200)
I0813 15:18:09.272256 30714 net.cpp:156] Memory required for data: 1394830360
I0813 15:18:09.272264 30714 layer_factory.hpp:77] Creating layer resx2_elewise_resx2_elewise_relu_0_split
I0813 15:18:09.272269 30714 net.cpp:91] Creating Layer resx2_elewise_resx2_elewise_relu_0_split
I0813 15:18:09.272271 30714 net.cpp:469] resx2_elewise_resx2_elewise_relu_0_split <- resx2_elewise
I0813 15:18:09.272275 30714 net.cpp:443] resx2_elewise_resx2_elewise_relu_0_split -> resx2_elewise_resx2_elewise_relu_0_split_0
I0813 15:18:09.272280 30714 net.cpp:443] resx2_elewise_resx2_elewise_relu_0_split -> resx2_elewise_resx2_elewise_relu_0_split_1
I0813 15:18:09.272287 30714 net.cpp:141] Setting up resx2_elewise_resx2_elewise_relu_0_split
I0813 15:18:09.272291 30714 net.cpp:148] Top shape: 70 240 28 28 (13171200)
I0813 15:18:09.272295 30714 net.cpp:148] Top shape: 70 240 28 28 (13171200)
I0813 15:18:09.272298 30714 net.cpp:156] Memory required for data: 1500199960
I0813 15:18:09.272301 30714 layer_factory.hpp:77] Creating layer resx3_conv1
I0813 15:18:09.272310 30714 net.cpp:91] Creating Layer resx3_conv1
I0813 15:18:09.272312 30714 net.cpp:469] resx3_conv1 <- resx2_elewise_resx2_elewise_relu_0_split_0
I0813 15:18:09.272317 30714 net.cpp:443] resx3_conv1 -> resx3_conv1
I0813 15:18:09.272447 30714 net.cpp:141] Setting up resx3_conv1
I0813 15:18:09.272454 30714 net.cpp:148] Top shape: 70 60 28 28 (3292800)
I0813 15:18:09.272456 30714 net.cpp:156] Memory required for data: 1513371160
I0813 15:18:09.272460 30714 layer_factory.hpp:77] Creating layer resx3_conv1_bn
I0813 15:18:09.272465 30714 net.cpp:91] Creating Layer resx3_conv1_bn
I0813 15:18:09.272469 30714 net.cpp:469] resx3_conv1_bn <- resx3_conv1
I0813 15:18:09.272472 30714 net.cpp:430] resx3_conv1_bn -> resx3_conv1 (in-place)
I0813 15:18:09.272483 30714 net.cpp:141] Setting up resx3_conv1_bn
I0813 15:18:09.272490 30714 net.cpp:148] Top shape: 70 60 28 28 (3292800)
I0813 15:18:09.272492 30714 net.cpp:156] Memory required for data: 1526542360
I0813 15:18:09.272497 30714 layer_factory.hpp:77] Creating layer resx3_conv1_scale
I0813 15:18:09.272503 30714 net.cpp:91] Creating Layer resx3_conv1_scale
I0813 15:18:09.272527 30714 net.cpp:469] resx3_conv1_scale <- resx3_conv1
I0813 15:18:09.272533 30714 net.cpp:430] resx3_conv1_scale -> resx3_conv1 (in-place)
I0813 15:18:09.272541 30714 layer_factory.hpp:77] Creating layer resx3_conv1_scale
I0813 15:18:09.272558 30714 net.cpp:141] Setting up resx3_conv1_scale
I0813 15:18:09.272563 30714 net.cpp:148] Top shape: 70 60 28 28 (3292800)
I0813 15:18:09.272567 30714 net.cpp:156] Memory required for data: 1539713560
I0813 15:18:09.272572 30714 layer_factory.hpp:77] Creating layer resx3_conv1_relu
I0813 15:18:09.272577 30714 net.cpp:91] Creating Layer resx3_conv1_relu
I0813 15:18:09.272579 30714 net.cpp:469] resx3_conv1_relu <- resx3_conv1
I0813 15:18:09.272583 30714 net.cpp:430] resx3_conv1_relu -> resx3_conv1 (in-place)
I0813 15:18:09.272588 30714 net.cpp:141] Setting up resx3_conv1_relu
I0813 15:18:09.272591 30714 net.cpp:148] Top shape: 70 60 28 28 (3292800)
I0813 15:18:09.272594 30714 net.cpp:156] Memory required for data: 1552884760
I0813 15:18:09.272598 30714 layer_factory.hpp:77] Creating layer shuffle3
I0813 15:18:09.272604 30714 net.cpp:91] Creating Layer shuffle3
I0813 15:18:09.272608 30714 net.cpp:469] shuffle3 <- resx3_conv1
I0813 15:18:09.272611 30714 net.cpp:430] shuffle3 -> resx3_conv1 (in-place)
I0813 15:18:09.272616 30714 net.cpp:141] Setting up shuffle3
I0813 15:18:09.272620 30714 net.cpp:148] Top shape: 70 60 28 28 (3292800)
I0813 15:18:09.272624 30714 net.cpp:156] Memory required for data: 1566055960
I0813 15:18:09.272626 30714 layer_factory.hpp:77] Creating layer resx3_conv2
I0813 15:18:09.272632 30714 net.cpp:91] Creating Layer resx3_conv2
I0813 15:18:09.272635 30714 net.cpp:469] resx3_conv2 <- resx3_conv1
I0813 15:18:09.272639 30714 net.cpp:443] resx3_conv2 -> resx3_conv2
I0813 15:18:09.272689 30714 net.cpp:141] Setting up resx3_conv2
I0813 15:18:09.272698 30714 net.cpp:148] Top shape: 70 60 28 28 (3292800)
I0813 15:18:09.272701 30714 net.cpp:156] Memory required for data: 1579227160
I0813 15:18:09.272713 30714 layer_factory.hpp:77] Creating layer resx3_conv2_bn
I0813 15:18:09.272722 30714 net.cpp:91] Creating Layer resx3_conv2_bn
I0813 15:18:09.272725 30714 net.cpp:469] resx3_conv2_bn <- resx3_conv2
I0813 15:18:09.272730 30714 net.cpp:430] resx3_conv2_bn -> resx3_conv2 (in-place)
I0813 15:18:09.272744 30714 net.cpp:141] Setting up resx3_conv2_bn
I0813 15:18:09.272749 30714 net.cpp:148] Top shape: 70 60 28 28 (3292800)
I0813 15:18:09.272753 30714 net.cpp:156] Memory required for data: 1592398360
I0813 15:18:09.272758 30714 layer_factory.hpp:77] Creating layer resx3_conv2_scale
I0813 15:18:09.272763 30714 net.cpp:91] Creating Layer resx3_conv2_scale
I0813 15:18:09.272768 30714 net.cpp:469] resx3_conv2_scale <- resx3_conv2
I0813 15:18:09.272771 30714 net.cpp:430] resx3_conv2_scale -> resx3_conv2 (in-place)
I0813 15:18:09.272780 30714 layer_factory.hpp:77] Creating layer resx3_conv2_scale
I0813 15:18:09.272794 30714 net.cpp:141] Setting up resx3_conv2_scale
I0813 15:18:09.272797 30714 net.cpp:148] Top shape: 70 60 28 28 (3292800)
I0813 15:18:09.272800 30714 net.cpp:156] Memory required for data: 1605569560
I0813 15:18:09.272805 30714 layer_factory.hpp:77] Creating layer resx3_conv3
I0813 15:18:09.272812 30714 net.cpp:91] Creating Layer resx3_conv3
I0813 15:18:09.272815 30714 net.cpp:469] resx3_conv3 <- resx3_conv2
I0813 15:18:09.272821 30714 net.cpp:443] resx3_conv3 -> resx3_conv3
I0813 15:18:09.272953 30714 net.cpp:141] Setting up resx3_conv3
I0813 15:18:09.272959 30714 net.cpp:148] Top shape: 70 240 28 28 (13171200)
I0813 15:18:09.272963 30714 net.cpp:156] Memory required for data: 1658254360
I0813 15:18:09.272966 30714 layer_factory.hpp:77] Creating layer resx3_conv3_bn
I0813 15:18:09.272971 30714 net.cpp:91] Creating Layer resx3_conv3_bn
I0813 15:18:09.272974 30714 net.cpp:469] resx3_conv3_bn <- resx3_conv3
I0813 15:18:09.272980 30714 net.cpp:430] resx3_conv3_bn -> resx3_conv3 (in-place)
I0813 15:18:09.272992 30714 net.cpp:141] Setting up resx3_conv3_bn
I0813 15:18:09.272996 30714 net.cpp:148] Top shape: 70 240 28 28 (13171200)
I0813 15:18:09.273000 30714 net.cpp:156] Memory required for data: 1710939160
I0813 15:18:09.273005 30714 layer_factory.hpp:77] Creating layer resx3_conv3_scale
I0813 15:18:09.273012 30714 net.cpp:91] Creating Layer resx3_conv3_scale
I0813 15:18:09.273015 30714 net.cpp:469] resx3_conv3_scale <- resx3_conv3
I0813 15:18:09.273020 30714 net.cpp:430] resx3_conv3_scale -> resx3_conv3 (in-place)
I0813 15:18:09.273027 30714 layer_factory.hpp:77] Creating layer resx3_conv3_scale
I0813 15:18:09.273042 30714 net.cpp:141] Setting up resx3_conv3_scale
I0813 15:18:09.273046 30714 net.cpp:148] Top shape: 70 240 28 28 (13171200)
I0813 15:18:09.273049 30714 net.cpp:156] Memory required for data: 1763623960
I0813 15:18:09.273054 30714 layer_factory.hpp:77] Creating layer resx3_elewise
I0813 15:18:09.273059 30714 net.cpp:91] Creating Layer resx3_elewise
I0813 15:18:09.273063 30714 net.cpp:469] resx3_elewise <- resx2_elewise_resx2_elewise_relu_0_split_1
I0813 15:18:09.273066 30714 net.cpp:469] resx3_elewise <- resx3_conv3
I0813 15:18:09.273072 30714 net.cpp:443] resx3_elewise -> resx3_elewise
I0813 15:18:09.273093 30714 net.cpp:141] Setting up resx3_elewise
I0813 15:18:09.273270 30714 net.cpp:148] Top shape: 70 240 28 28 (13171200)
I0813 15:18:09.273401 30714 net.cpp:156] Memory required for data: 1816308760
I0813 15:18:09.273404 30714 layer_factory.hpp:77] Creating layer resx3_elewise_relu
I0813 15:18:09.273411 30714 net.cpp:91] Creating Layer resx3_elewise_relu
I0813 15:18:09.273413 30714 net.cpp:469] resx3_elewise_relu <- resx3_elewise
I0813 15:18:09.273418 30714 net.cpp:430] resx3_elewise_relu -> resx3_elewise (in-place)
I0813 15:18:09.273424 30714 net.cpp:141] Setting up resx3_elewise_relu
I0813 15:18:09.273428 30714 net.cpp:148] Top shape: 70 240 28 28 (13171200)
I0813 15:18:09.273432 30714 net.cpp:156] Memory required for data: 1868993560
I0813 15:18:09.273435 30714 layer_factory.hpp:77] Creating layer resx3_elewise_resx3_elewise_relu_0_split
I0813 15:18:09.273444 30714 net.cpp:91] Creating Layer resx3_elewise_resx3_elewise_relu_0_split
I0813 15:18:09.273453 30714 net.cpp:469] resx3_elewise_resx3_elewise_relu_0_split <- resx3_elewise
I0813 15:18:09.273458 30714 net.cpp:443] resx3_elewise_resx3_elewise_relu_0_split -> resx3_elewise_resx3_elewise_relu_0_split_0
I0813 15:18:09.273463 30714 net.cpp:443] resx3_elewise_resx3_elewise_relu_0_split -> resx3_elewise_resx3_elewise_relu_0_split_1
I0813 15:18:09.273468 30714 net.cpp:141] Setting up resx3_elewise_resx3_elewise_relu_0_split
I0813 15:18:09.273473 30714 net.cpp:148] Top shape: 70 240 28 28 (13171200)
I0813 15:18:09.273476 30714 net.cpp:148] Top shape: 70 240 28 28 (13171200)
I0813 15:18:09.273479 30714 net.cpp:156] Memory required for data: 1974363160
I0813 15:18:09.273483 30714 layer_factory.hpp:77] Creating layer resx4_conv1
I0813 15:18:09.273492 30714 net.cpp:91] Creating Layer resx4_conv1
I0813 15:18:09.273496 30714 net.cpp:469] resx4_conv1 <- resx3_elewise_resx3_elewise_relu_0_split_0
I0813 15:18:09.273501 30714 net.cpp:443] resx4_conv1 -> resx4_conv1
I0813 15:18:09.273638 30714 net.cpp:141] Setting up resx4_conv1
I0813 15:18:09.273644 30714 net.cpp:148] Top shape: 70 60 28 28 (3292800)
I0813 15:18:09.273648 30714 net.cpp:156] Memory required for data: 1987534360
I0813 15:18:09.273653 30714 layer_factory.hpp:77] Creating layer resx4_conv1_bn
I0813 15:18:09.273659 30714 net.cpp:91] Creating Layer resx4_conv1_bn
I0813 15:18:09.273663 30714 net.cpp:469] resx4_conv1_bn <- resx4_conv1
I0813 15:18:09.273679 30714 net.cpp:430] resx4_conv1_bn -> resx4_conv1 (in-place)
I0813 15:18:09.273689 30714 net.cpp:141] Setting up resx4_conv1_bn
I0813 15:18:09.273692 30714 net.cpp:148] Top shape: 70 60 28 28 (3292800)
I0813 15:18:09.273695 30714 net.cpp:156] Memory required for data: 2000705560
I0813 15:18:09.273703 30714 layer_factory.hpp:77] Creating layer resx4_conv1_scale
I0813 15:18:09.273708 30714 net.cpp:91] Creating Layer resx4_conv1_scale
I0813 15:18:09.273712 30714 net.cpp:469] resx4_conv1_scale <- resx4_conv1
I0813 15:18:09.273715 30714 net.cpp:430] resx4_conv1_scale -> resx4_conv1 (in-place)
I0813 15:18:09.273725 30714 layer_factory.hpp:77] Creating layer resx4_conv1_scale
I0813 15:18:09.273739 30714 net.cpp:141] Setting up resx4_conv1_scale
I0813 15:18:09.273746 30714 net.cpp:148] Top shape: 70 60 28 28 (3292800)
I0813 15:18:09.273748 30714 net.cpp:156] Memory required for data: 2013876760
I0813 15:18:09.273761 30714 layer_factory.hpp:77] Creating layer resx4_conv1_relu
I0813 15:18:09.273766 30714 net.cpp:91] Creating Layer resx4_conv1_relu
I0813 15:18:09.273769 30714 net.cpp:469] resx4_conv1_relu <- resx4_conv1
I0813 15:18:09.273773 30714 net.cpp:430] resx4_conv1_relu -> resx4_conv1 (in-place)
I0813 15:18:09.273777 30714 net.cpp:141] Setting up resx4_conv1_relu
I0813 15:18:09.273782 30714 net.cpp:148] Top shape: 70 60 28 28 (3292800)
I0813 15:18:09.273784 30714 net.cpp:156] Memory required for data: 2027047960
I0813 15:18:09.273787 30714 layer_factory.hpp:77] Creating layer shuffle4
I0813 15:18:09.273793 30714 net.cpp:91] Creating Layer shuffle4
I0813 15:18:09.273797 30714 net.cpp:469] shuffle4 <- resx4_conv1
I0813 15:18:09.273802 30714 net.cpp:430] shuffle4 -> resx4_conv1 (in-place)
I0813 15:18:09.273807 30714 net.cpp:141] Setting up shuffle4
I0813 15:18:09.273810 30714 net.cpp:148] Top shape: 70 60 28 28 (3292800)
I0813 15:18:09.273813 30714 net.cpp:156] Memory required for data: 2040219160
I0813 15:18:09.273816 30714 layer_factory.hpp:77] Creating layer resx4_conv2
I0813 15:18:09.273823 30714 net.cpp:91] Creating Layer resx4_conv2
I0813 15:18:09.273825 30714 net.cpp:469] resx4_conv2 <- resx4_conv1
I0813 15:18:09.273829 30714 net.cpp:443] resx4_conv2 -> resx4_conv2
I0813 15:18:09.273883 30714 net.cpp:141] Setting up resx4_conv2
I0813 15:18:09.273892 30714 net.cpp:148] Top shape: 70 60 28 28 (3292800)
I0813 15:18:09.273895 30714 net.cpp:156] Memory required for data: 2053390360
I0813 15:18:09.273900 30714 layer_factory.hpp:77] Creating layer resx4_conv2_bn
I0813 15:18:09.273908 30714 net.cpp:91] Creating Layer resx4_conv2_bn
I0813 15:18:09.273916 30714 net.cpp:469] resx4_conv2_bn <- resx4_conv2
I0813 15:18:09.273926 30714 net.cpp:430] resx4_conv2_bn -> resx4_conv2 (in-place)
I0813 15:18:09.273952 30714 net.cpp:141] Setting up resx4_conv2_bn
I0813 15:18:09.273959 30714 net.cpp:148] Top shape: 70 60 28 28 (3292800)
I0813 15:18:09.273962 30714 net.cpp:156] Memory required for data: 2066561560
I0813 15:18:09.273968 30714 layer_factory.hpp:77] Creating layer resx4_conv2_scale
I0813 15:18:09.273977 30714 net.cpp:91] Creating Layer resx4_conv2_scale
I0813 15:18:09.273979 30714 net.cpp:469] resx4_conv2_scale <- resx4_conv2
I0813 15:18:09.273984 30714 net.cpp:430] resx4_conv2_scale -> resx4_conv2 (in-place)
I0813 15:18:09.273991 30714 layer_factory.hpp:77] Creating layer resx4_conv2_scale
I0813 15:18:09.274003 30714 net.cpp:141] Setting up resx4_conv2_scale
I0813 15:18:09.274008 30714 net.cpp:148] Top shape: 70 60 28 28 (3292800)
I0813 15:18:09.274010 30714 net.cpp:156] Memory required for data: 2079732760
I0813 15:18:09.274015 30714 layer_factory.hpp:77] Creating layer resx4_conv3
I0813 15:18:09.274022 30714 net.cpp:91] Creating Layer resx4_conv3
I0813 15:18:09.274025 30714 net.cpp:469] resx4_conv3 <- resx4_conv2
I0813 15:18:09.274030 30714 net.cpp:443] resx4_conv3 -> resx4_conv3
I0813 15:18:09.274158 30714 net.cpp:141] Setting up resx4_conv3
I0813 15:18:09.274163 30714 net.cpp:148] Top shape: 70 240 28 28 (13171200)
I0813 15:18:09.274166 30714 net.cpp:156] Memory required for data: 2132417560
I0813 15:18:09.274170 30714 layer_factory.hpp:77] Creating layer resx4_conv3_bn
I0813 15:18:09.274178 30714 net.cpp:91] Creating Layer resx4_conv3_bn
I0813 15:18:09.274180 30714 net.cpp:469] resx4_conv3_bn <- resx4_conv3
I0813 15:18:09.274184 30714 net.cpp:430] resx4_conv3_bn -> resx4_conv3 (in-place)
I0813 15:18:09.274196 30714 net.cpp:141] Setting up resx4_conv3_bn
I0813 15:18:09.274201 30714 net.cpp:148] Top shape: 70 240 28 28 (13171200)
I0813 15:18:09.274204 30714 net.cpp:156] Memory required for data: 2185102360
I0813 15:18:09.274209 30714 layer_factory.hpp:77] Creating layer resx4_conv3_scale
I0813 15:18:09.274230 30714 net.cpp:91] Creating Layer resx4_conv3_scale
I0813 15:18:09.274235 30714 net.cpp:469] resx4_conv3_scale <- resx4_conv3
I0813 15:18:09.274240 30714 net.cpp:430] resx4_conv3_scale -> resx4_conv3 (in-place)
I0813 15:18:09.274247 30714 layer_factory.hpp:77] Creating layer resx4_conv3_scale
I0813 15:18:09.274263 30714 net.cpp:141] Setting up resx4_conv3_scale
I0813 15:18:09.274269 30714 net.cpp:148] Top shape: 70 240 28 28 (13171200)
I0813 15:18:09.274272 30714 net.cpp:156] Memory required for data: 2237787160
I0813 15:18:09.274277 30714 layer_factory.hpp:77] Creating layer resx4_elewise
I0813 15:18:09.274283 30714 net.cpp:91] Creating Layer resx4_elewise
I0813 15:18:09.274286 30714 net.cpp:469] resx4_elewise <- resx3_elewise_resx3_elewise_relu_0_split_1
I0813 15:18:09.274291 30714 net.cpp:469] resx4_elewise <- resx4_conv3
I0813 15:18:09.274294 30714 net.cpp:443] resx4_elewise -> resx4_elewise
I0813 15:18:09.274300 30714 net.cpp:141] Setting up resx4_elewise
I0813 15:18:09.274304 30714 net.cpp:148] Top shape: 70 240 28 28 (13171200)
I0813 15:18:09.274307 30714 net.cpp:156] Memory required for data: 2290471960
I0813 15:18:09.274310 30714 layer_factory.hpp:77] Creating layer resx4_elewise_relu
I0813 15:18:09.274317 30714 net.cpp:91] Creating Layer resx4_elewise_relu
I0813 15:18:09.274320 30714 net.cpp:469] resx4_elewise_relu <- resx4_elewise
I0813 15:18:09.274405 30714 net.cpp:430] resx4_elewise_relu -> resx4_elewise (in-place)
I0813 15:18:09.274413 30714 net.cpp:141] Setting up resx4_elewise_relu
I0813 15:18:09.274417 30714 net.cpp:148] Top shape: 70 240 28 28 (13171200)
I0813 15:18:09.274420 30714 net.cpp:156] Memory required for data: 2343156760
I0813 15:18:09.274425 30714 layer_factory.hpp:77] Creating layer resx4_elewise_resx4_elewise_relu_0_split
I0813 15:18:09.274430 30714 net.cpp:91] Creating Layer resx4_elewise_resx4_elewise_relu_0_split
I0813 15:18:09.274432 30714 net.cpp:469] resx4_elewise_resx4_elewise_relu_0_split <- resx4_elewise
I0813 15:18:09.274441 30714 net.cpp:443] resx4_elewise_resx4_elewise_relu_0_split -> resx4_elewise_resx4_elewise_relu_0_split_0
I0813 15:18:09.274451 30714 net.cpp:443] resx4_elewise_resx4_elewise_relu_0_split -> resx4_elewise_resx4_elewise_relu_0_split_1
I0813 15:18:09.274457 30714 net.cpp:141] Setting up resx4_elewise_resx4_elewise_relu_0_split
I0813 15:18:09.274461 30714 net.cpp:148] Top shape: 70 240 28 28 (13171200)
I0813 15:18:09.274464 30714 net.cpp:148] Top shape: 70 240 28 28 (13171200)
I0813 15:18:09.274467 30714 net.cpp:156] Memory required for data: 2448526360
I0813 15:18:09.274471 30714 layer_factory.hpp:77] Creating layer resx5_match_conv
I0813 15:18:09.274477 30714 net.cpp:91] Creating Layer resx5_match_conv
I0813 15:18:09.274479 30714 net.cpp:469] resx5_match_conv <- resx4_elewise_resx4_elewise_relu_0_split_0
I0813 15:18:09.274485 30714 net.cpp:443] resx5_match_conv -> resx5_match_conv
I0813 15:18:09.274492 30714 net.cpp:141] Setting up resx5_match_conv
I0813 15:18:09.274497 30714 net.cpp:148] Top shape: 70 240 14 14 (3292800)
I0813 15:18:09.274499 30714 net.cpp:156] Memory required for data: 2461697560
I0813 15:18:09.274502 30714 layer_factory.hpp:77] Creating layer resx5_conv1
I0813 15:18:09.274516 30714 net.cpp:91] Creating Layer resx5_conv1
I0813 15:18:09.274520 30714 net.cpp:469] resx5_conv1 <- resx4_elewise_resx4_elewise_relu_0_split_1
I0813 15:18:09.274525 30714 net.cpp:443] resx5_conv1 -> resx5_conv1
I0813 15:18:09.274657 30714 net.cpp:141] Setting up resx5_conv1
I0813 15:18:09.274663 30714 net.cpp:148] Top shape: 70 60 28 28 (3292800)
I0813 15:18:09.274667 30714 net.cpp:156] Memory required for data: 2474868760
I0813 15:18:09.274672 30714 layer_factory.hpp:77] Creating layer resx5_conv1_bn
I0813 15:18:09.274677 30714 net.cpp:91] Creating Layer resx5_conv1_bn
I0813 15:18:09.274682 30714 net.cpp:469] resx5_conv1_bn <- resx5_conv1
I0813 15:18:09.274685 30714 net.cpp:430] resx5_conv1_bn -> resx5_conv1 (in-place)
I0813 15:18:09.274696 30714 net.cpp:141] Setting up resx5_conv1_bn
I0813 15:18:09.274701 30714 net.cpp:148] Top shape: 70 60 28 28 (3292800)
I0813 15:18:09.274704 30714 net.cpp:156] Memory required for data: 2488039960
I0813 15:18:09.274709 30714 layer_factory.hpp:77] Creating layer resx5_conv1_scale
I0813 15:18:09.274716 30714 net.cpp:91] Creating Layer resx5_conv1_scale
I0813 15:18:09.274720 30714 net.cpp:469] resx5_conv1_scale <- resx5_conv1
I0813 15:18:09.274724 30714 net.cpp:430] resx5_conv1_scale -> resx5_conv1 (in-place)
I0813 15:18:09.274731 30714 layer_factory.hpp:77] Creating layer resx5_conv1_scale
I0813 15:18:09.274745 30714 net.cpp:141] Setting up resx5_conv1_scale
I0813 15:18:09.274749 30714 net.cpp:148] Top shape: 70 60 28 28 (3292800)
I0813 15:18:09.274752 30714 net.cpp:156] Memory required for data: 2501211160
I0813 15:18:09.274757 30714 layer_factory.hpp:77] Creating layer resx5_conv1_relu
I0813 15:18:09.274766 30714 net.cpp:91] Creating Layer resx5_conv1_relu
I0813 15:18:09.274770 30714 net.cpp:469] resx5_conv1_relu <- resx5_conv1
I0813 15:18:09.274773 30714 net.cpp:430] resx5_conv1_relu -> resx5_conv1 (in-place)
I0813 15:18:09.274778 30714 net.cpp:141] Setting up resx5_conv1_relu
I0813 15:18:09.274782 30714 net.cpp:148] Top shape: 70 60 28 28 (3292800)
I0813 15:18:09.274785 30714 net.cpp:156] Memory required for data: 2514382360
I0813 15:18:09.274788 30714 layer_factory.hpp:77] Creating layer shuffle5
I0813 15:18:09.274793 30714 net.cpp:91] Creating Layer shuffle5
I0813 15:18:09.274796 30714 net.cpp:469] shuffle5 <- resx5_conv1
I0813 15:18:09.274802 30714 net.cpp:430] shuffle5 -> resx5_conv1 (in-place)
I0813 15:18:09.274807 30714 net.cpp:141] Setting up shuffle5
I0813 15:18:09.274811 30714 net.cpp:148] Top shape: 70 60 28 28 (3292800)
I0813 15:18:09.274813 30714 net.cpp:156] Memory required for data: 2527553560
I0813 15:18:09.274817 30714 layer_factory.hpp:77] Creating layer resx5_conv2
I0813 15:18:09.274822 30714 net.cpp:91] Creating Layer resx5_conv2
I0813 15:18:09.274826 30714 net.cpp:469] resx5_conv2 <- resx5_conv1
I0813 15:18:09.274830 30714 net.cpp:443] resx5_conv2 -> resx5_conv2
I0813 15:18:09.274889 30714 net.cpp:141] Setting up resx5_conv2
I0813 15:18:09.274899 30714 net.cpp:148] Top shape: 70 60 14 14 (823200)
I0813 15:18:09.274902 30714 net.cpp:156] Memory required for data: 2530846360
I0813 15:18:09.274906 30714 layer_factory.hpp:77] Creating layer resx5_conv2_bn
I0813 15:18:09.274916 30714 net.cpp:91] Creating Layer resx5_conv2_bn
I0813 15:18:09.274920 30714 net.cpp:469] resx5_conv2_bn <- resx5_conv2
I0813 15:18:09.274925 30714 net.cpp:430] resx5_conv2_bn -> resx5_conv2 (in-place)
I0813 15:18:09.274938 30714 net.cpp:141] Setting up resx5_conv2_bn
I0813 15:18:09.274942 30714 net.cpp:148] Top shape: 70 60 14 14 (823200)
I0813 15:18:09.274945 30714 net.cpp:156] Memory required for data: 2534139160
I0813 15:18:09.274951 30714 layer_factory.hpp:77] Creating layer resx5_conv2_scale
I0813 15:18:09.274956 30714 net.cpp:91] Creating Layer resx5_conv2_scale
I0813 15:18:09.274960 30714 net.cpp:469] resx5_conv2_scale <- resx5_conv2
I0813 15:18:09.274966 30714 net.cpp:430] resx5_conv2_scale -> resx5_conv2 (in-place)
I0813 15:18:09.274973 30714 layer_factory.hpp:77] Creating layer resx5_conv2_scale
I0813 15:18:09.274986 30714 net.cpp:141] Setting up resx5_conv2_scale
I0813 15:18:09.274996 30714 net.cpp:148] Top shape: 70 60 14 14 (823200)
I0813 15:18:09.274998 30714 net.cpp:156] Memory required for data: 2537431960
I0813 15:18:09.275003 30714 layer_factory.hpp:77] Creating layer resx5_conv3
I0813 15:18:09.275009 30714 net.cpp:91] Creating Layer resx5_conv3
I0813 15:18:09.275013 30714 net.cpp:469] resx5_conv3 <- resx5_conv2
I0813 15:18:09.275019 30714 net.cpp:443] resx5_conv3 -> resx5_conv3
I0813 15:18:09.275147 30714 net.cpp:141] Setting up resx5_conv3
I0813 15:18:09.275152 30714 net.cpp:148] Top shape: 70 240 14 14 (3292800)
I0813 15:18:09.275156 30714 net.cpp:156] Memory required for data: 2550603160
I0813 15:18:09.275161 30714 layer_factory.hpp:77] Creating layer resx5_conv3_bn
I0813 15:18:09.275166 30714 net.cpp:91] Creating Layer resx5_conv3_bn
I0813 15:18:09.275168 30714 net.cpp:469] resx5_conv3_bn <- resx5_conv3
I0813 15:18:09.275176 30714 net.cpp:430] resx5_conv3_bn -> resx5_conv3 (in-place)
I0813 15:18:09.275185 30714 net.cpp:141] Setting up resx5_conv3_bn
I0813 15:18:09.275189 30714 net.cpp:148] Top shape: 70 240 14 14 (3292800)
I0813 15:18:09.275192 30714 net.cpp:156] Memory required for data: 2563774360
I0813 15:18:09.275198 30714 layer_factory.hpp:77] Creating layer resx5_conv3_scale
I0813 15:18:09.275203 30714 net.cpp:91] Creating Layer resx5_conv3_scale
I0813 15:18:09.275207 30714 net.cpp:469] resx5_conv3_scale <- resx5_conv3
I0813 15:18:09.275212 30714 net.cpp:430] resx5_conv3_scale -> resx5_conv3 (in-place)
I0813 15:18:09.275218 30714 layer_factory.hpp:77] Creating layer resx5_conv3_scale
I0813 15:18:09.275231 30714 net.cpp:141] Setting up resx5_conv3_scale
I0813 15:18:09.275236 30714 net.cpp:148] Top shape: 70 240 14 14 (3292800)
I0813 15:18:09.275239 30714 net.cpp:156] Memory required for data: 2576945560
I0813 15:18:09.275244 30714 layer_factory.hpp:77] Creating layer resx5_concat
I0813 15:18:09.275250 30714 net.cpp:91] Creating Layer resx5_concat
I0813 15:18:09.275254 30714 net.cpp:469] resx5_concat <- resx5_match_conv
I0813 15:18:09.275259 30714 net.cpp:469] resx5_concat <- resx5_conv3
I0813 15:18:09.275262 30714 net.cpp:443] resx5_concat -> resx5_concat
I0813 15:18:09.275267 30714 net.cpp:141] Setting up resx5_concat
I0813 15:18:09.275271 30714 net.cpp:148] Top shape: 70 480 14 14 (6585600)
I0813 15:18:09.275275 30714 net.cpp:156] Memory required for data: 2603287960
I0813 15:18:09.275279 30714 layer_factory.hpp:77] Creating layer resx5_concat_relu
I0813 15:18:09.275285 30714 net.cpp:91] Creating Layer resx5_concat_relu
I0813 15:18:09.275287 30714 net.cpp:469] resx5_concat_relu <- resx5_concat
I0813 15:18:09.275291 30714 net.cpp:430] resx5_concat_relu -> resx5_concat (in-place)
I0813 15:18:09.275296 30714 net.cpp:141] Setting up resx5_concat_relu
I0813 15:18:09.275300 30714 net.cpp:148] Top shape: 70 480 14 14 (6585600)
I0813 15:18:09.275303 30714 net.cpp:156] Memory required for data: 2629630360
I0813 15:18:09.275315 30714 layer_factory.hpp:77] Creating layer resx5_concat_resx5_concat_relu_0_split
I0813 15:18:09.275319 30714 net.cpp:91] Creating Layer resx5_concat_resx5_concat_relu_0_split
I0813 15:18:09.275322 30714 net.cpp:469] resx5_concat_resx5_concat_relu_0_split <- resx5_concat
I0813 15:18:09.275327 30714 net.cpp:443] resx5_concat_resx5_concat_relu_0_split -> resx5_concat_resx5_concat_relu_0_split_0
I0813 15:18:09.275334 30714 net.cpp:443] resx5_concat_resx5_concat_relu_0_split -> resx5_concat_resx5_concat_relu_0_split_1
I0813 15:18:09.275339 30714 net.cpp:141] Setting up resx5_concat_resx5_concat_relu_0_split
I0813 15:18:09.275343 30714 net.cpp:148] Top shape: 70 480 14 14 (6585600)
I0813 15:18:09.275347 30714 net.cpp:148] Top shape: 70 480 14 14 (6585600)
I0813 15:18:09.275351 30714 net.cpp:156] Memory required for data: 2682315160
I0813 15:18:09.275353 30714 layer_factory.hpp:77] Creating layer resx6_conv1
I0813 15:18:09.275362 30714 net.cpp:91] Creating Layer resx6_conv1
I0813 15:18:09.275365 30714 net.cpp:469] resx6_conv1 <- resx5_concat_resx5_concat_relu_0_split_0
I0813 15:18:09.275369 30714 net.cpp:443] resx6_conv1 -> resx6_conv1
I0813 15:18:09.275856 30714 net.cpp:141] Setting up resx6_conv1
I0813 15:18:09.275862 30714 net.cpp:148] Top shape: 70 120 14 14 (1646400)
I0813 15:18:09.275866 30714 net.cpp:156] Memory required for data: 2688900760
I0813 15:18:09.275869 30714 layer_factory.hpp:77] Creating layer resx6_conv1_bn
I0813 15:18:09.275876 30714 net.cpp:91] Creating Layer resx6_conv1_bn
I0813 15:18:09.275880 30714 net.cpp:469] resx6_conv1_bn <- resx6_conv1
I0813 15:18:09.275884 30714 net.cpp:430] resx6_conv1_bn -> resx6_conv1 (in-place)
I0813 15:18:09.275897 30714 net.cpp:141] Setting up resx6_conv1_bn
I0813 15:18:09.275902 30714 net.cpp:148] Top shape: 70 120 14 14 (1646400)
I0813 15:18:09.275904 30714 net.cpp:156] Memory required for data: 2695486360
I0813 15:18:09.275918 30714 layer_factory.hpp:77] Creating layer resx6_conv1_scale
I0813 15:18:09.275926 30714 net.cpp:91] Creating Layer resx6_conv1_scale
I0813 15:18:09.275930 30714 net.cpp:469] resx6_conv1_scale <- resx6_conv1
I0813 15:18:09.275934 30714 net.cpp:430] resx6_conv1_scale -> resx6_conv1 (in-place)
I0813 15:18:09.275941 30714 layer_factory.hpp:77] Creating layer resx6_conv1_scale
I0813 15:18:09.275954 30714 net.cpp:141] Setting up resx6_conv1_scale
I0813 15:18:09.275957 30714 net.cpp:148] Top shape: 70 120 14 14 (1646400)
I0813 15:18:09.275960 30714 net.cpp:156] Memory required for data: 2702071960
I0813 15:18:09.275965 30714 layer_factory.hpp:77] Creating layer resx6_conv1_relu
I0813 15:18:09.275970 30714 net.cpp:91] Creating Layer resx6_conv1_relu
I0813 15:18:09.275974 30714 net.cpp:469] resx6_conv1_relu <- resx6_conv1
I0813 15:18:09.275979 30714 net.cpp:430] resx6_conv1_relu -> resx6_conv1 (in-place)
I0813 15:18:09.275985 30714 net.cpp:141] Setting up resx6_conv1_relu
I0813 15:18:09.275988 30714 net.cpp:148] Top shape: 70 120 14 14 (1646400)
I0813 15:18:09.275991 30714 net.cpp:156] Memory required for data: 2708657560
I0813 15:18:09.275995 30714 layer_factory.hpp:77] Creating layer shuffle6
I0813 15:18:09.276000 30714 net.cpp:91] Creating Layer shuffle6
I0813 15:18:09.276002 30714 net.cpp:469] shuffle6 <- resx6_conv1
I0813 15:18:09.276006 30714 net.cpp:430] shuffle6 -> resx6_conv1 (in-place)
I0813 15:18:09.276011 30714 net.cpp:141] Setting up shuffle6
I0813 15:18:09.276015 30714 net.cpp:148] Top shape: 70 120 14 14 (1646400)
I0813 15:18:09.276018 30714 net.cpp:156] Memory required for data: 2715243160
I0813 15:18:09.276021 30714 layer_factory.hpp:77] Creating layer resx6_conv2
I0813 15:18:09.276029 30714 net.cpp:91] Creating Layer resx6_conv2
I0813 15:18:09.276032 30714 net.cpp:469] resx6_conv2 <- resx6_conv1
I0813 15:18:09.276038 30714 net.cpp:443] resx6_conv2 -> resx6_conv2
I0813 15:18:09.276103 30714 net.cpp:141] Setting up resx6_conv2
I0813 15:18:09.276113 30714 net.cpp:148] Top shape: 70 120 14 14 (1646400)
I0813 15:18:09.276115 30714 net.cpp:156] Memory required for data: 2721828760
I0813 15:18:09.276124 30714 layer_factory.hpp:77] Creating layer resx6_conv2_bn
I0813 15:18:09.276134 30714 net.cpp:91] Creating Layer resx6_conv2_bn
I0813 15:18:09.276139 30714 net.cpp:469] resx6_conv2_bn <- resx6_conv2
I0813 15:18:09.276142 30714 net.cpp:430] resx6_conv2_bn -> resx6_conv2 (in-place)
I0813 15:18:09.276154 30714 net.cpp:141] Setting up resx6_conv2_bn
I0813 15:18:09.276159 30714 net.cpp:148] Top shape: 70 120 14 14 (1646400)
I0813 15:18:09.276161 30714 net.cpp:156] Memory required for data: 2728414360
I0813 15:18:09.276166 30714 layer_factory.hpp:77] Creating layer resx6_conv2_scale
I0813 15:18:09.276173 30714 net.cpp:91] Creating Layer resx6_conv2_scale
I0813 15:18:09.276176 30714 net.cpp:469] resx6_conv2_scale <- resx6_conv2
I0813 15:18:09.276180 30714 net.cpp:430] resx6_conv2_scale -> resx6_conv2 (in-place)
I0813 15:18:09.276188 30714 layer_factory.hpp:77] Creating layer resx6_conv2_scale
I0813 15:18:09.276199 30714 net.cpp:141] Setting up resx6_conv2_scale
I0813 15:18:09.276206 30714 net.cpp:148] Top shape: 70 120 14 14 (1646400)
I0813 15:18:09.276208 30714 net.cpp:156] Memory required for data: 2734999960
I0813 15:18:09.276213 30714 layer_factory.hpp:77] Creating layer resx6_conv3
I0813 15:18:09.276219 30714 net.cpp:91] Creating Layer resx6_conv3
I0813 15:18:09.276223 30714 net.cpp:469] resx6_conv3 <- resx6_conv2
I0813 15:18:09.276227 30714 net.cpp:443] resx6_conv3 -> resx6_conv3
I0813 15:18:09.276716 30714 net.cpp:141] Setting up resx6_conv3
I0813 15:18:09.276722 30714 net.cpp:148] Top shape: 70 480 14 14 (6585600)
I0813 15:18:09.276726 30714 net.cpp:156] Memory required for data: 2761342360
I0813 15:18:09.276731 30714 layer_factory.hpp:77] Creating layer resx6_conv3_bn
I0813 15:18:09.276736 30714 net.cpp:91] Creating Layer resx6_conv3_bn
I0813 15:18:09.276741 30714 net.cpp:469] resx6_conv3_bn <- resx6_conv3
I0813 15:18:09.276744 30714 net.cpp:430] resx6_conv3_bn -> resx6_conv3 (in-place)
I0813 15:18:09.276758 30714 net.cpp:141] Setting up resx6_conv3_bn
I0813 15:18:09.276763 30714 net.cpp:148] Top shape: 70 480 14 14 (6585600)
I0813 15:18:09.276767 30714 net.cpp:156] Memory required for data: 2787684760
I0813 15:18:09.276772 30714 layer_factory.hpp:77] Creating layer resx6_conv3_scale
I0813 15:18:09.276778 30714 net.cpp:91] Creating Layer resx6_conv3_scale
I0813 15:18:09.276782 30714 net.cpp:469] resx6_conv3_scale <- resx6_conv3
I0813 15:18:09.276785 30714 net.cpp:430] resx6_conv3_scale -> resx6_conv3 (in-place)
I0813 15:18:09.276794 30714 layer_factory.hpp:77] Creating layer resx6_conv3_scale
I0813 15:18:09.276808 30714 net.cpp:141] Setting up resx6_conv3_scale
I0813 15:18:09.276813 30714 net.cpp:148] Top shape: 70 480 14 14 (6585600)
I0813 15:18:09.276815 30714 net.cpp:156] Memory required for data: 2814027160
I0813 15:18:09.276820 30714 layer_factory.hpp:77] Creating layer resx6_elewise
I0813 15:18:09.276825 30714 net.cpp:91] Creating Layer resx6_elewise
I0813 15:18:09.276829 30714 net.cpp:469] resx6_elewise <- resx5_concat_resx5_concat_relu_0_split_1
I0813 15:18:09.276834 30714 net.cpp:469] resx6_elewise <- resx6_conv3
I0813 15:18:09.276839 30714 net.cpp:443] resx6_elewise -> resx6_elewise
I0813 15:18:09.276844 30714 net.cpp:141] Setting up resx6_elewise
I0813 15:18:09.276849 30714 net.cpp:148] Top shape: 70 480 14 14 (6585600)
I0813 15:18:09.276851 30714 net.cpp:156] Memory required for data: 2840369560
I0813 15:18:09.276854 30714 layer_factory.hpp:77] Creating layer resx6_elewise_relu
I0813 15:18:09.276859 30714 net.cpp:91] Creating Layer resx6_elewise_relu
I0813 15:18:09.276862 30714 net.cpp:469] resx6_elewise_relu <- resx6_elewise
I0813 15:18:09.276868 30714 net.cpp:430] resx6_elewise_relu -> resx6_elewise (in-place)
I0813 15:18:09.276872 30714 net.cpp:141] Setting up resx6_elewise_relu
I0813 15:18:09.276876 30714 net.cpp:148] Top shape: 70 480 14 14 (6585600)
I0813 15:18:09.276880 30714 net.cpp:156] Memory required for data: 2866711960
I0813 15:18:09.276882 30714 layer_factory.hpp:77] Creating layer resx6_elewise_resx6_elewise_relu_0_split
I0813 15:18:09.276887 30714 net.cpp:91] Creating Layer resx6_elewise_resx6_elewise_relu_0_split
I0813 15:18:09.276897 30714 net.cpp:469] resx6_elewise_resx6_elewise_relu_0_split <- resx6_elewise
I0813 15:18:09.276902 30714 net.cpp:443] resx6_elewise_resx6_elewise_relu_0_split -> resx6_elewise_resx6_elewise_relu_0_split_0
I0813 15:18:09.276906 30714 net.cpp:443] resx6_elewise_resx6_elewise_relu_0_split -> resx6_elewise_resx6_elewise_relu_0_split_1
I0813 15:18:09.276912 30714 net.cpp:141] Setting up resx6_elewise_resx6_elewise_relu_0_split
I0813 15:18:09.276916 30714 net.cpp:148] Top shape: 70 480 14 14 (6585600)
I0813 15:18:09.276919 30714 net.cpp:148] Top shape: 70 480 14 14 (6585600)
I0813 15:18:09.276922 30714 net.cpp:156] Memory required for data: 2919396760
I0813 15:18:09.276926 30714 layer_factory.hpp:77] Creating layer resx7_conv1
I0813 15:18:09.276933 30714 net.cpp:91] Creating Layer resx7_conv1
I0813 15:18:09.276937 30714 net.cpp:469] resx7_conv1 <- resx6_elewise_resx6_elewise_relu_0_split_0
I0813 15:18:09.276942 30714 net.cpp:443] resx7_conv1 -> resx7_conv1
I0813 15:18:09.277439 30714 net.cpp:141] Setting up resx7_conv1
I0813 15:18:09.277447 30714 net.cpp:148] Top shape: 70 120 14 14 (1646400)
I0813 15:18:09.277451 30714 net.cpp:156] Memory required for data: 2925982360
I0813 15:18:09.277456 30714 layer_factory.hpp:77] Creating layer resx7_conv1_bn
I0813 15:18:09.277462 30714 net.cpp:91] Creating Layer resx7_conv1_bn
I0813 15:18:09.277467 30714 net.cpp:469] resx7_conv1_bn <- resx7_conv1
I0813 15:18:09.277472 30714 net.cpp:430] resx7_conv1_bn -> resx7_conv1 (in-place)
I0813 15:18:09.277483 30714 net.cpp:141] Setting up resx7_conv1_bn
I0813 15:18:09.277488 30714 net.cpp:148] Top shape: 70 120 14 14 (1646400)
I0813 15:18:09.277492 30714 net.cpp:156] Memory required for data: 2932567960
I0813 15:18:09.277496 30714 layer_factory.hpp:77] Creating layer resx7_conv1_scale
I0813 15:18:09.277503 30714 net.cpp:91] Creating Layer resx7_conv1_scale
I0813 15:18:09.277508 30714 net.cpp:469] resx7_conv1_scale <- resx7_conv1
I0813 15:18:09.277523 30714 net.cpp:430] resx7_conv1_scale -> resx7_conv1 (in-place)
I0813 15:18:09.277531 30714 layer_factory.hpp:77] Creating layer resx7_conv1_scale
I0813 15:18:09.277544 30714 net.cpp:141] Setting up resx7_conv1_scale
I0813 15:18:09.277549 30714 net.cpp:148] Top shape: 70 120 14 14 (1646400)
I0813 15:18:09.277551 30714 net.cpp:156] Memory required for data: 2939153560
I0813 15:18:09.277556 30714 layer_factory.hpp:77] Creating layer resx7_conv1_relu
I0813 15:18:09.277562 30714 net.cpp:91] Creating Layer resx7_conv1_relu
I0813 15:18:09.277565 30714 net.cpp:469] resx7_conv1_relu <- resx7_conv1
I0813 15:18:09.277570 30714 net.cpp:430] resx7_conv1_relu -> resx7_conv1 (in-place)
I0813 15:18:09.277573 30714 net.cpp:141] Setting up resx7_conv1_relu
I0813 15:18:09.277577 30714 net.cpp:148] Top shape: 70 120 14 14 (1646400)
I0813 15:18:09.277580 30714 net.cpp:156] Memory required for data: 2945739160
I0813 15:18:09.277583 30714 layer_factory.hpp:77] Creating layer shuffle7
I0813 15:18:09.277590 30714 net.cpp:91] Creating Layer shuffle7
I0813 15:18:09.277593 30714 net.cpp:469] shuffle7 <- resx7_conv1
I0813 15:18:09.277597 30714 net.cpp:430] shuffle7 -> resx7_conv1 (in-place)
I0813 15:18:09.277602 30714 net.cpp:141] Setting up shuffle7
I0813 15:18:09.277606 30714 net.cpp:148] Top shape: 70 120 14 14 (1646400)
I0813 15:18:09.277608 30714 net.cpp:156] Memory required for data: 2952324760
I0813 15:18:09.277612 30714 layer_factory.hpp:77] Creating layer resx7_conv2
I0813 15:18:09.277619 30714 net.cpp:91] Creating Layer resx7_conv2
I0813 15:18:09.277623 30714 net.cpp:469] resx7_conv2 <- resx7_conv1
I0813 15:18:09.277627 30714 net.cpp:443] resx7_conv2 -> resx7_conv2
I0813 15:18:09.277691 30714 net.cpp:141] Setting up resx7_conv2
I0813 15:18:09.277699 30714 net.cpp:148] Top shape: 70 120 14 14 (1646400)
I0813 15:18:09.277704 30714 net.cpp:156] Memory required for data: 2958910360
I0813 15:18:09.277707 30714 layer_factory.hpp:77] Creating layer resx7_conv2_bn
I0813 15:18:09.277714 30714 net.cpp:91] Creating Layer resx7_conv2_bn
I0813 15:18:09.277721 30714 net.cpp:469] resx7_conv2_bn <- resx7_conv2
I0813 15:18:09.277731 30714 net.cpp:430] resx7_conv2_bn -> resx7_conv2 (in-place)
I0813 15:18:09.277745 30714 net.cpp:141] Setting up resx7_conv2_bn
I0813 15:18:09.277750 30714 net.cpp:148] Top shape: 70 120 14 14 (1646400)
I0813 15:18:09.277752 30714 net.cpp:156] Memory required for data: 2965495960
I0813 15:18:09.277758 30714 layer_factory.hpp:77] Creating layer resx7_conv2_scale
I0813 15:18:09.277765 30714 net.cpp:91] Creating Layer resx7_conv2_scale
I0813 15:18:09.277770 30714 net.cpp:469] resx7_conv2_scale <- resx7_conv2
I0813 15:18:09.277773 30714 net.cpp:430] resx7_conv2_scale -> resx7_conv2 (in-place)
I0813 15:18:09.277781 30714 layer_factory.hpp:77] Creating layer resx7_conv2_scale
I0813 15:18:09.277791 30714 net.cpp:141] Setting up resx7_conv2_scale
I0813 15:18:09.277796 30714 net.cpp:148] Top shape: 70 120 14 14 (1646400)
I0813 15:18:09.277798 30714 net.cpp:156] Memory required for data: 2972081560
I0813 15:18:09.277803 30714 layer_factory.hpp:77] Creating layer resx7_conv3
I0813 15:18:09.277811 30714 net.cpp:91] Creating Layer resx7_conv3
I0813 15:18:09.277814 30714 net.cpp:469] resx7_conv3 <- resx7_conv2
I0813 15:18:09.277819 30714 net.cpp:443] resx7_conv3 -> resx7_conv3
I0813 15:18:09.278304 30714 net.cpp:141] Setting up resx7_conv3
I0813 15:18:09.278311 30714 net.cpp:148] Top shape: 70 480 14 14 (6585600)
I0813 15:18:09.278314 30714 net.cpp:156] Memory required for data: 2998423960
I0813 15:18:09.278318 30714 layer_factory.hpp:77] Creating layer resx7_conv3_bn
I0813 15:18:09.278326 30714 net.cpp:91] Creating Layer resx7_conv3_bn
I0813 15:18:09.278328 30714 net.cpp:469] resx7_conv3_bn <- resx7_conv3
I0813 15:18:09.278334 30714 net.cpp:430] resx7_conv3_bn -> resx7_conv3 (in-place)
I0813 15:18:09.278347 30714 net.cpp:141] Setting up resx7_conv3_bn
I0813 15:18:09.278352 30714 net.cpp:148] Top shape: 70 480 14 14 (6585600)
I0813 15:18:09.278355 30714 net.cpp:156] Memory required for data: 3024766360
I0813 15:18:09.278373 30714 layer_factory.hpp:77] Creating layer resx7_conv3_scale
I0813 15:18:09.278380 30714 net.cpp:91] Creating Layer resx7_conv3_scale
I0813 15:18:09.278383 30714 net.cpp:469] resx7_conv3_scale <- resx7_conv3
I0813 15:18:09.278388 30714 net.cpp:430] resx7_conv3_scale -> resx7_conv3 (in-place)
I0813 15:18:09.278396 30714 layer_factory.hpp:77] Creating layer resx7_conv3_scale
I0813 15:18:09.278408 30714 net.cpp:141] Setting up resx7_conv3_scale
I0813 15:18:09.278411 30714 net.cpp:148] Top shape: 70 480 14 14 (6585600)
I0813 15:18:09.278414 30714 net.cpp:156] Memory required for data: 3051108760
I0813 15:18:09.278419 30714 layer_factory.hpp:77] Creating layer resx7_elewise
I0813 15:18:09.278424 30714 net.cpp:91] Creating Layer resx7_elewise
I0813 15:18:09.278429 30714 net.cpp:469] resx7_elewise <- resx6_elewise_resx6_elewise_relu_0_split_1
I0813 15:18:09.278431 30714 net.cpp:469] resx7_elewise <- resx7_conv3
I0813 15:18:09.278435 30714 net.cpp:443] resx7_elewise -> resx7_elewise
I0813 15:18:09.278441 30714 net.cpp:141] Setting up resx7_elewise
I0813 15:18:09.278445 30714 net.cpp:148] Top shape: 70 480 14 14 (6585600)
I0813 15:18:09.278448 30714 net.cpp:156] Memory required for data: 3077451160
I0813 15:18:09.278451 30714 layer_factory.hpp:77] Creating layer resx7_elewise_relu
I0813 15:18:09.278456 30714 net.cpp:91] Creating Layer resx7_elewise_relu
I0813 15:18:09.278460 30714 net.cpp:469] resx7_elewise_relu <- resx7_elewise
I0813 15:18:09.278463 30714 net.cpp:430] resx7_elewise_relu -> resx7_elewise (in-place)
I0813 15:18:09.278467 30714 net.cpp:141] Setting up resx7_elewise_relu
I0813 15:18:09.278471 30714 net.cpp:148] Top shape: 70 480 14 14 (6585600)
I0813 15:18:09.278475 30714 net.cpp:156] Memory required for data: 3103793560
I0813 15:18:09.278477 30714 layer_factory.hpp:77] Creating layer resx7_elewise_resx7_elewise_relu_0_split
I0813 15:18:09.278483 30714 net.cpp:91] Creating Layer resx7_elewise_resx7_elewise_relu_0_split
I0813 15:18:09.278487 30714 net.cpp:469] resx7_elewise_resx7_elewise_relu_0_split <- resx7_elewise
I0813 15:18:09.278491 30714 net.cpp:443] resx7_elewise_resx7_elewise_relu_0_split -> resx7_elewise_resx7_elewise_relu_0_split_0
I0813 15:18:09.278503 30714 net.cpp:443] resx7_elewise_resx7_elewise_relu_0_split -> resx7_elewise_resx7_elewise_relu_0_split_1
I0813 15:18:09.278509 30714 net.cpp:141] Setting up resx7_elewise_resx7_elewise_relu_0_split
I0813 15:18:09.278514 30714 net.cpp:148] Top shape: 70 480 14 14 (6585600)
I0813 15:18:09.278518 30714 net.cpp:148] Top shape: 70 480 14 14 (6585600)
I0813 15:18:09.278522 30714 net.cpp:156] Memory required for data: 3156478360
I0813 15:18:09.278524 30714 layer_factory.hpp:77] Creating layer resx8_conv1
I0813 15:18:09.278530 30714 net.cpp:91] Creating Layer resx8_conv1
I0813 15:18:09.278534 30714 net.cpp:469] resx8_conv1 <- resx7_elewise_resx7_elewise_relu_0_split_0
I0813 15:18:09.278540 30714 net.cpp:443] resx8_conv1 -> resx8_conv1
I0813 15:18:09.279031 30714 net.cpp:141] Setting up resx8_conv1
I0813 15:18:09.279037 30714 net.cpp:148] Top shape: 70 120 14 14 (1646400)
I0813 15:18:09.279040 30714 net.cpp:156] Memory required for data: 3163063960
I0813 15:18:09.279045 30714 layer_factory.hpp:77] Creating layer resx8_conv1_bn
I0813 15:18:09.279050 30714 net.cpp:91] Creating Layer resx8_conv1_bn
I0813 15:18:09.279053 30714 net.cpp:469] resx8_conv1_bn <- resx8_conv1
I0813 15:18:09.279059 30714 net.cpp:430] resx8_conv1_bn -> resx8_conv1 (in-place)
I0813 15:18:09.279070 30714 net.cpp:141] Setting up resx8_conv1_bn
I0813 15:18:09.279076 30714 net.cpp:148] Top shape: 70 120 14 14 (1646400)
I0813 15:18:09.279079 30714 net.cpp:156] Memory required for data: 3169649560
I0813 15:18:09.279084 30714 layer_factory.hpp:77] Creating layer resx8_conv1_scale
I0813 15:18:09.279089 30714 net.cpp:91] Creating Layer resx8_conv1_scale
I0813 15:18:09.279093 30714 net.cpp:469] resx8_conv1_scale <- resx8_conv1
I0813 15:18:09.279099 30714 net.cpp:430] resx8_conv1_scale -> resx8_conv1 (in-place)
I0813 15:18:09.279106 30714 layer_factory.hpp:77] Creating layer resx8_conv1_scale
I0813 15:18:09.279119 30714 net.cpp:141] Setting up resx8_conv1_scale
I0813 15:18:09.279124 30714 net.cpp:148] Top shape: 70 120 14 14 (1646400)
I0813 15:18:09.279127 30714 net.cpp:156] Memory required for data: 3176235160
I0813 15:18:09.279132 30714 layer_factory.hpp:77] Creating layer resx8_conv1_relu
I0813 15:18:09.279137 30714 net.cpp:91] Creating Layer resx8_conv1_relu
I0813 15:18:09.279140 30714 net.cpp:469] resx8_conv1_relu <- resx8_conv1
I0813 15:18:09.279145 30714 net.cpp:430] resx8_conv1_relu -> resx8_conv1 (in-place)
I0813 15:18:09.279148 30714 net.cpp:141] Setting up resx8_conv1_relu
I0813 15:18:09.279152 30714 net.cpp:148] Top shape: 70 120 14 14 (1646400)
I0813 15:18:09.279155 30714 net.cpp:156] Memory required for data: 3182820760
I0813 15:18:09.279158 30714 layer_factory.hpp:77] Creating layer shuffle8
I0813 15:18:09.279165 30714 net.cpp:91] Creating Layer shuffle8
I0813 15:18:09.279168 30714 net.cpp:469] shuffle8 <- resx8_conv1
I0813 15:18:09.279172 30714 net.cpp:430] shuffle8 -> resx8_conv1 (in-place)
I0813 15:18:09.279177 30714 net.cpp:141] Setting up shuffle8
I0813 15:18:09.279181 30714 net.cpp:148] Top shape: 70 120 14 14 (1646400)
I0813 15:18:09.279184 30714 net.cpp:156] Memory required for data: 3189406360
I0813 15:18:09.279187 30714 layer_factory.hpp:77] Creating layer resx8_conv2
I0813 15:18:09.279194 30714 net.cpp:91] Creating Layer resx8_conv2
I0813 15:18:09.279197 30714 net.cpp:469] resx8_conv2 <- resx8_conv1
I0813 15:18:09.279201 30714 net.cpp:443] resx8_conv2 -> resx8_conv2
I0813 15:18:09.279265 30714 net.cpp:141] Setting up resx8_conv2
I0813 15:18:09.279274 30714 net.cpp:148] Top shape: 70 120 14 14 (1646400)
I0813 15:18:09.279278 30714 net.cpp:156] Memory required for data: 3195991960
I0813 15:18:09.279283 30714 layer_factory.hpp:77] Creating layer resx8_conv2_bn
I0813 15:18:09.279287 30714 net.cpp:91] Creating Layer resx8_conv2_bn
I0813 15:18:09.279291 30714 net.cpp:469] resx8_conv2_bn <- resx8_conv2
I0813 15:18:09.279297 30714 net.cpp:430] resx8_conv2_bn -> resx8_conv2 (in-place)
I0813 15:18:09.279309 30714 net.cpp:141] Setting up resx8_conv2_bn
I0813 15:18:09.279316 30714 net.cpp:148] Top shape: 70 120 14 14 (1646400)
I0813 15:18:09.279323 30714 net.cpp:156] Memory required for data: 3202577560
I0813 15:18:09.279330 30714 layer_factory.hpp:77] Creating layer resx8_conv2_scale
I0813 15:18:09.279335 30714 net.cpp:91] Creating Layer resx8_conv2_scale
I0813 15:18:09.279338 30714 net.cpp:469] resx8_conv2_scale <- resx8_conv2
I0813 15:18:09.279342 30714 net.cpp:430] resx8_conv2_scale -> resx8_conv2 (in-place)
I0813 15:18:09.279350 30714 layer_factory.hpp:77] Creating layer resx8_conv2_scale
I0813 15:18:09.279361 30714 net.cpp:141] Setting up resx8_conv2_scale
I0813 15:18:09.279366 30714 net.cpp:148] Top shape: 70 120 14 14 (1646400)
I0813 15:18:09.279369 30714 net.cpp:156] Memory required for data: 3209163160
I0813 15:18:09.279373 30714 layer_factory.hpp:77] Creating layer resx8_conv3
I0813 15:18:09.279381 30714 net.cpp:91] Creating Layer resx8_conv3
I0813 15:18:09.279383 30714 net.cpp:469] resx8_conv3 <- resx8_conv2
I0813 15:18:09.279389 30714 net.cpp:443] resx8_conv3 -> resx8_conv3
I0813 15:18:09.279875 30714 net.cpp:141] Setting up resx8_conv3
I0813 15:18:09.279881 30714 net.cpp:148] Top shape: 70 480 14 14 (6585600)
I0813 15:18:09.279883 30714 net.cpp:156] Memory required for data: 3235505560
I0813 15:18:09.279887 30714 layer_factory.hpp:77] Creating layer resx8_conv3_bn
I0813 15:18:09.279892 30714 net.cpp:91] Creating Layer resx8_conv3_bn
I0813 15:18:09.279896 30714 net.cpp:469] resx8_conv3_bn <- resx8_conv3
I0813 15:18:09.279901 30714 net.cpp:430] resx8_conv3_bn -> resx8_conv3 (in-place)
I0813 15:18:09.279916 30714 net.cpp:141] Setting up resx8_conv3_bn
I0813 15:18:09.279919 30714 net.cpp:148] Top shape: 70 480 14 14 (6585600)
I0813 15:18:09.279922 30714 net.cpp:156] Memory required for data: 3261847960
I0813 15:18:09.279928 30714 layer_factory.hpp:77] Creating layer resx8_conv3_scale
I0813 15:18:09.279935 30714 net.cpp:91] Creating Layer resx8_conv3_scale
I0813 15:18:09.279939 30714 net.cpp:469] resx8_conv3_scale <- resx8_conv3
I0813 15:18:09.279943 30714 net.cpp:430] resx8_conv3_scale -> resx8_conv3 (in-place)
I0813 15:18:09.279952 30714 layer_factory.hpp:77] Creating layer resx8_conv3_scale
I0813 15:18:09.279964 30714 net.cpp:141] Setting up resx8_conv3_scale
I0813 15:18:09.279969 30714 net.cpp:148] Top shape: 70 480 14 14 (6585600)
I0813 15:18:09.279973 30714 net.cpp:156] Memory required for data: 3288190360
I0813 15:18:09.279976 30714 layer_factory.hpp:77] Creating layer resx8_elewise
I0813 15:18:09.279983 30714 net.cpp:91] Creating Layer resx8_elewise
I0813 15:18:09.279986 30714 net.cpp:469] resx8_elewise <- resx7_elewise_resx7_elewise_relu_0_split_1
I0813 15:18:09.279990 30714 net.cpp:469] resx8_elewise <- resx8_conv3
I0813 15:18:09.279994 30714 net.cpp:443] resx8_elewise -> resx8_elewise
I0813 15:18:09.280000 30714 net.cpp:141] Setting up resx8_elewise
I0813 15:18:09.280005 30714 net.cpp:148] Top shape: 70 480 14 14 (6585600)
I0813 15:18:09.280009 30714 net.cpp:156] Memory required for data: 3314532760
I0813 15:18:09.280011 30714 layer_factory.hpp:77] Creating layer resx8_elewise_relu
I0813 15:18:09.280016 30714 net.cpp:91] Creating Layer resx8_elewise_relu
I0813 15:18:09.280019 30714 net.cpp:469] resx8_elewise_relu <- resx8_elewise
I0813 15:18:09.280023 30714 net.cpp:430] resx8_elewise_relu -> resx8_elewise (in-place)
I0813 15:18:09.280028 30714 net.cpp:141] Setting up resx8_elewise_relu
I0813 15:18:09.280032 30714 net.cpp:148] Top shape: 70 480 14 14 (6585600)
I0813 15:18:09.280035 30714 net.cpp:156] Memory required for data: 3340875160
I0813 15:18:09.280038 30714 layer_factory.hpp:77] Creating layer resx8_elewise_resx8_elewise_relu_0_split
I0813 15:18:09.280042 30714 net.cpp:91] Creating Layer resx8_elewise_resx8_elewise_relu_0_split
I0813 15:18:09.280045 30714 net.cpp:469] resx8_elewise_resx8_elewise_relu_0_split <- resx8_elewise
I0813 15:18:09.280051 30714 net.cpp:443] resx8_elewise_resx8_elewise_relu_0_split -> resx8_elewise_resx8_elewise_relu_0_split_0
I0813 15:18:09.280055 30714 net.cpp:443] resx8_elewise_resx8_elewise_relu_0_split -> resx8_elewise_resx8_elewise_relu_0_split_1
I0813 15:18:09.280067 30714 net.cpp:141] Setting up resx8_elewise_resx8_elewise_relu_0_split
I0813 15:18:09.280072 30714 net.cpp:148] Top shape: 70 480 14 14 (6585600)
I0813 15:18:09.280076 30714 net.cpp:148] Top shape: 70 480 14 14 (6585600)
I0813 15:18:09.280078 30714 net.cpp:156] Memory required for data: 3393559960
I0813 15:18:09.280082 30714 layer_factory.hpp:77] Creating layer resx9_conv1
I0813 15:18:09.280089 30714 net.cpp:91] Creating Layer resx9_conv1
I0813 15:18:09.280092 30714 net.cpp:469] resx9_conv1 <- resx8_elewise_resx8_elewise_relu_0_split_0
I0813 15:18:09.280097 30714 net.cpp:443] resx9_conv1 -> resx9_conv1
I0813 15:18:09.280581 30714 net.cpp:141] Setting up resx9_conv1
I0813 15:18:09.280587 30714 net.cpp:148] Top shape: 70 120 14 14 (1646400)
I0813 15:18:09.280591 30714 net.cpp:156] Memory required for data: 3400145560
I0813 15:18:09.280594 30714 layer_factory.hpp:77] Creating layer resx9_conv1_bn
I0813 15:18:09.280604 30714 net.cpp:91] Creating Layer resx9_conv1_bn
I0813 15:18:09.280607 30714 net.cpp:469] resx9_conv1_bn <- resx9_conv1
I0813 15:18:09.280612 30714 net.cpp:430] resx9_conv1_bn -> resx9_conv1 (in-place)
I0813 15:18:09.280623 30714 net.cpp:141] Setting up resx9_conv1_bn
I0813 15:18:09.280627 30714 net.cpp:148] Top shape: 70 120 14 14 (1646400)
I0813 15:18:09.280630 30714 net.cpp:156] Memory required for data: 3406731160
I0813 15:18:09.280637 30714 layer_factory.hpp:77] Creating layer resx9_conv1_scale
I0813 15:18:09.280642 30714 net.cpp:91] Creating Layer resx9_conv1_scale
I0813 15:18:09.280647 30714 net.cpp:469] resx9_conv1_scale <- resx9_conv1
I0813 15:18:09.280650 30714 net.cpp:430] resx9_conv1_scale -> resx9_conv1 (in-place)
I0813 15:18:09.280656 30714 layer_factory.hpp:77] Creating layer resx9_conv1_scale
I0813 15:18:09.280668 30714 net.cpp:141] Setting up resx9_conv1_scale
I0813 15:18:09.280673 30714 net.cpp:148] Top shape: 70 120 14 14 (1646400)
I0813 15:18:09.280676 30714 net.cpp:156] Memory required for data: 3413316760
I0813 15:18:09.280680 30714 layer_factory.hpp:77] Creating layer resx9_conv1_relu
I0813 15:18:09.280692 30714 net.cpp:91] Creating Layer resx9_conv1_relu
I0813 15:18:09.280696 30714 net.cpp:469] resx9_conv1_relu <- resx9_conv1
I0813 15:18:09.280699 30714 net.cpp:430] resx9_conv1_relu -> resx9_conv1 (in-place)
I0813 15:18:09.280704 30714 net.cpp:141] Setting up resx9_conv1_relu
I0813 15:18:09.280709 30714 net.cpp:148] Top shape: 70 120 14 14 (1646400)
I0813 15:18:09.280711 30714 net.cpp:156] Memory required for data: 3419902360
I0813 15:18:09.280714 30714 layer_factory.hpp:77] Creating layer shuffle9
I0813 15:18:09.280719 30714 net.cpp:91] Creating Layer shuffle9
I0813 15:18:09.280722 30714 net.cpp:469] shuffle9 <- resx9_conv1
I0813 15:18:09.280730 30714 net.cpp:430] shuffle9 -> resx9_conv1 (in-place)
I0813 15:18:09.280735 30714 net.cpp:141] Setting up shuffle9
I0813 15:18:09.280738 30714 net.cpp:148] Top shape: 70 120 14 14 (1646400)
I0813 15:18:09.280741 30714 net.cpp:156] Memory required for data: 3426487960
I0813 15:18:09.280745 30714 layer_factory.hpp:77] Creating layer resx9_conv2
I0813 15:18:09.280750 30714 net.cpp:91] Creating Layer resx9_conv2
I0813 15:18:09.280753 30714 net.cpp:469] resx9_conv2 <- resx9_conv1
I0813 15:18:09.280760 30714 net.cpp:443] resx9_conv2 -> resx9_conv2
I0813 15:18:09.280825 30714 net.cpp:141] Setting up resx9_conv2
I0813 15:18:09.280834 30714 net.cpp:148] Top shape: 70 120 14 14 (1646400)
I0813 15:18:09.280838 30714 net.cpp:156] Memory required for data: 3433073560
I0813 15:18:09.280843 30714 layer_factory.hpp:77] Creating layer resx9_conv2_bn
I0813 15:18:09.280848 30714 net.cpp:91] Creating Layer resx9_conv2_bn
I0813 15:18:09.280851 30714 net.cpp:469] resx9_conv2_bn <- resx9_conv2
I0813 15:18:09.280856 30714 net.cpp:430] resx9_conv2_bn -> resx9_conv2 (in-place)
I0813 15:18:09.280869 30714 net.cpp:141] Setting up resx9_conv2_bn
I0813 15:18:09.280872 30714 net.cpp:148] Top shape: 70 120 14 14 (1646400)
I0813 15:18:09.280875 30714 net.cpp:156] Memory required for data: 3439659160
I0813 15:18:09.280884 30714 layer_factory.hpp:77] Creating layer resx9_conv2_scale
I0813 15:18:09.280895 30714 net.cpp:91] Creating Layer resx9_conv2_scale
I0813 15:18:09.280900 30714 net.cpp:469] resx9_conv2_scale <- resx9_conv2
I0813 15:18:09.280903 30714 net.cpp:430] resx9_conv2_scale -> resx9_conv2 (in-place)
I0813 15:18:09.280910 30714 layer_factory.hpp:77] Creating layer resx9_conv2_scale
I0813 15:18:09.280922 30714 net.cpp:141] Setting up resx9_conv2_scale
I0813 15:18:09.280927 30714 net.cpp:148] Top shape: 70 120 14 14 (1646400)
I0813 15:18:09.280930 30714 net.cpp:156] Memory required for data: 3446244760
I0813 15:18:09.280935 30714 layer_factory.hpp:77] Creating layer resx9_conv3
I0813 15:18:09.280949 30714 net.cpp:91] Creating Layer resx9_conv3
I0813 15:18:09.280953 30714 net.cpp:469] resx9_conv3 <- resx9_conv2
I0813 15:18:09.280958 30714 net.cpp:443] resx9_conv3 -> resx9_conv3
I0813 15:18:09.281457 30714 net.cpp:141] Setting up resx9_conv3
I0813 15:18:09.281466 30714 net.cpp:148] Top shape: 70 480 14 14 (6585600)
I0813 15:18:09.281468 30714 net.cpp:156] Memory required for data: 3472587160
I0813 15:18:09.281473 30714 layer_factory.hpp:77] Creating layer resx9_conv3_bn
I0813 15:18:09.281481 30714 net.cpp:91] Creating Layer resx9_conv3_bn
I0813 15:18:09.281484 30714 net.cpp:469] resx9_conv3_bn <- resx9_conv3
I0813 15:18:09.281488 30714 net.cpp:430] resx9_conv3_bn -> resx9_conv3 (in-place)
I0813 15:18:09.281502 30714 net.cpp:141] Setting up resx9_conv3_bn
I0813 15:18:09.281507 30714 net.cpp:148] Top shape: 70 480 14 14 (6585600)
I0813 15:18:09.281509 30714 net.cpp:156] Memory required for data: 3498929560
I0813 15:18:09.281515 30714 layer_factory.hpp:77] Creating layer resx9_conv3_scale
I0813 15:18:09.281522 30714 net.cpp:91] Creating Layer resx9_conv3_scale
I0813 15:18:09.281525 30714 net.cpp:469] resx9_conv3_scale <- resx9_conv3
I0813 15:18:09.281529 30714 net.cpp:430] resx9_conv3_scale -> resx9_conv3 (in-place)
I0813 15:18:09.281538 30714 layer_factory.hpp:77] Creating layer resx9_conv3_scale
I0813 15:18:09.281551 30714 net.cpp:141] Setting up resx9_conv3_scale
I0813 15:18:09.281555 30714 net.cpp:148] Top shape: 70 480 14 14 (6585600)
I0813 15:18:09.281558 30714 net.cpp:156] Memory required for data: 3525271960
I0813 15:18:09.281563 30714 layer_factory.hpp:77] Creating layer resx9_elewise
I0813 15:18:09.281569 30714 net.cpp:91] Creating Layer resx9_elewise
I0813 15:18:09.281571 30714 net.cpp:469] resx9_elewise <- resx8_elewise_resx8_elewise_relu_0_split_1
I0813 15:18:09.281575 30714 net.cpp:469] resx9_elewise <- resx9_conv3
I0813 15:18:09.281579 30714 net.cpp:443] resx9_elewise -> resx9_elewise
I0813 15:18:09.281585 30714 net.cpp:141] Setting up resx9_elewise
I0813 15:18:09.281589 30714 net.cpp:148] Top shape: 70 480 14 14 (6585600)
I0813 15:18:09.281592 30714 net.cpp:156] Memory required for data: 3551614360
I0813 15:18:09.281595 30714 layer_factory.hpp:77] Creating layer resx9_elewise_relu
I0813 15:18:09.281601 30714 net.cpp:91] Creating Layer resx9_elewise_relu
I0813 15:18:09.281605 30714 net.cpp:469] resx9_elewise_relu <- resx9_elewise
I0813 15:18:09.281610 30714 net.cpp:430] resx9_elewise_relu -> resx9_elewise (in-place)
I0813 15:18:09.281613 30714 net.cpp:141] Setting up resx9_elewise_relu
I0813 15:18:09.281617 30714 net.cpp:148] Top shape: 70 480 14 14 (6585600)
I0813 15:18:09.281620 30714 net.cpp:156] Memory required for data: 3577956760
I0813 15:18:09.281623 30714 layer_factory.hpp:77] Creating layer resx9_elewise_resx9_elewise_relu_0_split
I0813 15:18:09.281627 30714 net.cpp:91] Creating Layer resx9_elewise_resx9_elewise_relu_0_split
I0813 15:18:09.281630 30714 net.cpp:469] resx9_elewise_resx9_elewise_relu_0_split <- resx9_elewise
I0813 15:18:09.281635 30714 net.cpp:443] resx9_elewise_resx9_elewise_relu_0_split -> resx9_elewise_resx9_elewise_relu_0_split_0
I0813 15:18:09.281639 30714 net.cpp:443] resx9_elewise_resx9_elewise_relu_0_split -> resx9_elewise_resx9_elewise_relu_0_split_1
I0813 15:18:09.281644 30714 net.cpp:141] Setting up resx9_elewise_resx9_elewise_relu_0_split
I0813 15:18:09.281648 30714 net.cpp:148] Top shape: 70 480 14 14 (6585600)
I0813 15:18:09.281659 30714 net.cpp:148] Top shape: 70 480 14 14 (6585600)
I0813 15:18:09.281662 30714 net.cpp:156] Memory required for data: 3630641560
I0813 15:18:09.281666 30714 layer_factory.hpp:77] Creating layer resx10_conv1
I0813 15:18:09.281674 30714 net.cpp:91] Creating Layer resx10_conv1
I0813 15:18:09.281678 30714 net.cpp:469] resx10_conv1 <- resx9_elewise_resx9_elewise_relu_0_split_0
I0813 15:18:09.281683 30714 net.cpp:443] resx10_conv1 -> resx10_conv1
I0813 15:18:09.282233 30714 net.cpp:141] Setting up resx10_conv1
I0813 15:18:09.282243 30714 net.cpp:148] Top shape: 70 120 14 14 (1646400)
I0813 15:18:09.282246 30714 net.cpp:156] Memory required for data: 3637227160
I0813 15:18:09.282250 30714 layer_factory.hpp:77] Creating layer resx10_conv1_bn
I0813 15:18:09.282258 30714 net.cpp:91] Creating Layer resx10_conv1_bn
I0813 15:18:09.282263 30714 net.cpp:469] resx10_conv1_bn <- resx10_conv1
I0813 15:18:09.282268 30714 net.cpp:430] resx10_conv1_bn -> resx10_conv1 (in-place)
I0813 15:18:09.282280 30714 net.cpp:141] Setting up resx10_conv1_bn
I0813 15:18:09.282285 30714 net.cpp:148] Top shape: 70 120 14 14 (1646400)
I0813 15:18:09.282289 30714 net.cpp:156] Memory required for data: 3643812760
I0813 15:18:09.282294 30714 layer_factory.hpp:77] Creating layer resx10_conv1_scale
I0813 15:18:09.282301 30714 net.cpp:91] Creating Layer resx10_conv1_scale
I0813 15:18:09.282305 30714 net.cpp:469] resx10_conv1_scale <- resx10_conv1
I0813 15:18:09.282310 30714 net.cpp:430] resx10_conv1_scale -> resx10_conv1 (in-place)
I0813 15:18:09.282317 30714 layer_factory.hpp:77] Creating layer resx10_conv1_scale
I0813 15:18:09.282330 30714 net.cpp:141] Setting up resx10_conv1_scale
I0813 15:18:09.282335 30714 net.cpp:148] Top shape: 70 120 14 14 (1646400)
I0813 15:18:09.282337 30714 net.cpp:156] Memory required for data: 3650398360
I0813 15:18:09.282342 30714 layer_factory.hpp:77] Creating layer resx10_conv1_relu
I0813 15:18:09.282347 30714 net.cpp:91] Creating Layer resx10_conv1_relu
I0813 15:18:09.282351 30714 net.cpp:469] resx10_conv1_relu <- resx10_conv1
I0813 15:18:09.282354 30714 net.cpp:430] resx10_conv1_relu -> resx10_conv1 (in-place)
I0813 15:18:09.282359 30714 net.cpp:141] Setting up resx10_conv1_relu
I0813 15:18:09.282363 30714 net.cpp:148] Top shape: 70 120 14 14 (1646400)
I0813 15:18:09.282366 30714 net.cpp:156] Memory required for data: 3656983960
I0813 15:18:09.282369 30714 layer_factory.hpp:77] Creating layer shuffle10
I0813 15:18:09.282377 30714 net.cpp:91] Creating Layer shuffle10
I0813 15:18:09.282379 30714 net.cpp:469] shuffle10 <- resx10_conv1
I0813 15:18:09.282383 30714 net.cpp:430] shuffle10 -> resx10_conv1 (in-place)
I0813 15:18:09.282388 30714 net.cpp:141] Setting up shuffle10
I0813 15:18:09.282392 30714 net.cpp:148] Top shape: 70 120 14 14 (1646400)
I0813 15:18:09.282395 30714 net.cpp:156] Memory required for data: 3663569560
I0813 15:18:09.282398 30714 layer_factory.hpp:77] Creating layer resx10_conv2
I0813 15:18:09.282404 30714 net.cpp:91] Creating Layer resx10_conv2
I0813 15:18:09.282407 30714 net.cpp:469] resx10_conv2 <- resx10_conv1
I0813 15:18:09.282413 30714 net.cpp:443] resx10_conv2 -> resx10_conv2
I0813 15:18:09.282479 30714 net.cpp:141] Setting up resx10_conv2
I0813 15:18:09.282487 30714 net.cpp:148] Top shape: 70 120 14 14 (1646400)
I0813 15:18:09.282490 30714 net.cpp:156] Memory required for data: 3670155160
I0813 15:18:09.282495 30714 layer_factory.hpp:77] Creating layer resx10_conv2_bn
I0813 15:18:09.282502 30714 net.cpp:91] Creating Layer resx10_conv2_bn
I0813 15:18:09.282506 30714 net.cpp:469] resx10_conv2_bn <- resx10_conv2
I0813 15:18:09.282510 30714 net.cpp:430] resx10_conv2_bn -> resx10_conv2 (in-place)
I0813 15:18:09.282521 30714 net.cpp:141] Setting up resx10_conv2_bn
I0813 15:18:09.282526 30714 net.cpp:148] Top shape: 70 120 14 14 (1646400)
I0813 15:18:09.282529 30714 net.cpp:156] Memory required for data: 3676740760
I0813 15:18:09.282534 30714 layer_factory.hpp:77] Creating layer resx10_conv2_scale
I0813 15:18:09.282541 30714 net.cpp:91] Creating Layer resx10_conv2_scale
I0813 15:18:09.282548 30714 net.cpp:469] resx10_conv2_scale <- resx10_conv2
I0813 15:18:09.282557 30714 net.cpp:430] resx10_conv2_scale -> resx10_conv2 (in-place)
I0813 15:18:09.282564 30714 layer_factory.hpp:77] Creating layer resx10_conv2_scale
I0813 15:18:09.282574 30714 net.cpp:141] Setting up resx10_conv2_scale
I0813 15:18:09.282579 30714 net.cpp:148] Top shape: 70 120 14 14 (1646400)
I0813 15:18:09.282582 30714 net.cpp:156] Memory required for data: 3683326360
I0813 15:18:09.282588 30714 layer_factory.hpp:77] Creating layer resx10_conv3
I0813 15:18:09.282595 30714 net.cpp:91] Creating Layer resx10_conv3
I0813 15:18:09.282598 30714 net.cpp:469] resx10_conv3 <- resx10_conv2
I0813 15:18:09.282603 30714 net.cpp:443] resx10_conv3 -> resx10_conv3
I0813 15:18:09.283103 30714 net.cpp:141] Setting up resx10_conv3
I0813 15:18:09.283112 30714 net.cpp:148] Top shape: 70 480 14 14 (6585600)
I0813 15:18:09.283115 30714 net.cpp:156] Memory required for data: 3709668760
I0813 15:18:09.283119 30714 layer_factory.hpp:77] Creating layer resx10_conv3_bn
I0813 15:18:09.283125 30714 net.cpp:91] Creating Layer resx10_conv3_bn
I0813 15:18:09.283128 30714 net.cpp:469] resx10_conv3_bn <- resx10_conv3
I0813 15:18:09.283133 30714 net.cpp:430] resx10_conv3_bn -> resx10_conv3 (in-place)
I0813 15:18:09.283145 30714 net.cpp:141] Setting up resx10_conv3_bn
I0813 15:18:09.283149 30714 net.cpp:148] Top shape: 70 480 14 14 (6585600)
I0813 15:18:09.283152 30714 net.cpp:156] Memory required for data: 3736011160
I0813 15:18:09.283159 30714 layer_factory.hpp:77] Creating layer resx10_conv3_scale
I0813 15:18:09.283165 30714 net.cpp:91] Creating Layer resx10_conv3_scale
I0813 15:18:09.283169 30714 net.cpp:469] resx10_conv3_scale <- resx10_conv3
I0813 15:18:09.283174 30714 net.cpp:430] resx10_conv3_scale -> resx10_conv3 (in-place)
I0813 15:18:09.283182 30714 layer_factory.hpp:77] Creating layer resx10_conv3_scale
I0813 15:18:09.283196 30714 net.cpp:141] Setting up resx10_conv3_scale
I0813 15:18:09.283200 30714 net.cpp:148] Top shape: 70 480 14 14 (6585600)
I0813 15:18:09.283203 30714 net.cpp:156] Memory required for data: 3762353560
I0813 15:18:09.283208 30714 layer_factory.hpp:77] Creating layer resx10_elewise
I0813 15:18:09.283213 30714 net.cpp:91] Creating Layer resx10_elewise
I0813 15:18:09.283217 30714 net.cpp:469] resx10_elewise <- resx9_elewise_resx9_elewise_relu_0_split_1
I0813 15:18:09.283221 30714 net.cpp:469] resx10_elewise <- resx10_conv3
I0813 15:18:09.283226 30714 net.cpp:443] resx10_elewise -> resx10_elewise
I0813 15:18:09.283232 30714 net.cpp:141] Setting up resx10_elewise
I0813 15:18:09.283236 30714 net.cpp:148] Top shape: 70 480 14 14 (6585600)
I0813 15:18:09.283239 30714 net.cpp:156] Memory required for data: 3788695960
I0813 15:18:09.283242 30714 layer_factory.hpp:77] Creating layer resx10_elewise_relu
I0813 15:18:09.283247 30714 net.cpp:91] Creating Layer resx10_elewise_relu
I0813 15:18:09.283251 30714 net.cpp:469] resx10_elewise_relu <- resx10_elewise
I0813 15:18:09.283257 30714 net.cpp:430] resx10_elewise_relu -> resx10_elewise (in-place)
I0813 15:18:09.283260 30714 net.cpp:141] Setting up resx10_elewise_relu
I0813 15:18:09.283264 30714 net.cpp:148] Top shape: 70 480 14 14 (6585600)
I0813 15:18:09.283267 30714 net.cpp:156] Memory required for data: 3815038360
I0813 15:18:09.283270 30714 layer_factory.hpp:77] Creating layer resx10_elewise_resx10_elewise_relu_0_split
I0813 15:18:09.283275 30714 net.cpp:91] Creating Layer resx10_elewise_resx10_elewise_relu_0_split
I0813 15:18:09.283278 30714 net.cpp:469] resx10_elewise_resx10_elewise_relu_0_split <- resx10_elewise
I0813 15:18:09.283282 30714 net.cpp:443] resx10_elewise_resx10_elewise_relu_0_split -> resx10_elewise_resx10_elewise_relu_0_split_0
I0813 15:18:09.283288 30714 net.cpp:443] resx10_elewise_resx10_elewise_relu_0_split -> resx10_elewise_resx10_elewise_relu_0_split_1
I0813 15:18:09.283293 30714 net.cpp:141] Setting up resx10_elewise_resx10_elewise_relu_0_split
I0813 15:18:09.283296 30714 net.cpp:148] Top shape: 70 480 14 14 (6585600)
I0813 15:18:09.283303 30714 net.cpp:148] Top shape: 70 480 14 14 (6585600)
I0813 15:18:09.283310 30714 net.cpp:156] Memory required for data: 3867723160
I0813 15:18:09.283314 30714 layer_factory.hpp:77] Creating layer resx11_conv1
I0813 15:18:09.283321 30714 net.cpp:91] Creating Layer resx11_conv1
I0813 15:18:09.283325 30714 net.cpp:469] resx11_conv1 <- resx10_elewise_resx10_elewise_relu_0_split_0
I0813 15:18:09.283330 30714 net.cpp:443] resx11_conv1 -> resx11_conv1
I0813 15:18:09.283815 30714 net.cpp:141] Setting up resx11_conv1
I0813 15:18:09.283821 30714 net.cpp:148] Top shape: 70 120 14 14 (1646400)
I0813 15:18:09.283825 30714 net.cpp:156] Memory required for data: 3874308760
I0813 15:18:09.283829 30714 layer_factory.hpp:77] Creating layer resx11_conv1_bn
I0813 15:18:09.283836 30714 net.cpp:91] Creating Layer resx11_conv1_bn
I0813 15:18:09.283839 30714 net.cpp:469] resx11_conv1_bn <- resx11_conv1
I0813 15:18:09.283843 30714 net.cpp:430] resx11_conv1_bn -> resx11_conv1 (in-place)
I0813 15:18:09.283855 30714 net.cpp:141] Setting up resx11_conv1_bn
I0813 15:18:09.283859 30714 net.cpp:148] Top shape: 70 120 14 14 (1646400)
I0813 15:18:09.283862 30714 net.cpp:156] Memory required for data: 3880894360
I0813 15:18:09.283867 30714 layer_factory.hpp:77] Creating layer resx11_conv1_scale
I0813 15:18:09.283874 30714 net.cpp:91] Creating Layer resx11_conv1_scale
I0813 15:18:09.283877 30714 net.cpp:469] resx11_conv1_scale <- resx11_conv1
I0813 15:18:09.283884 30714 net.cpp:430] resx11_conv1_scale -> resx11_conv1 (in-place)
I0813 15:18:09.283890 30714 layer_factory.hpp:77] Creating layer resx11_conv1_scale
I0813 15:18:09.283901 30714 net.cpp:141] Setting up resx11_conv1_scale
I0813 15:18:09.283908 30714 net.cpp:148] Top shape: 70 120 14 14 (1646400)
I0813 15:18:09.283911 30714 net.cpp:156] Memory required for data: 3887479960
I0813 15:18:09.283916 30714 layer_factory.hpp:77] Creating layer resx11_conv1_relu
I0813 15:18:09.283921 30714 net.cpp:91] Creating Layer resx11_conv1_relu
I0813 15:18:09.283924 30714 net.cpp:469] resx11_conv1_relu <- resx11_conv1
I0813 15:18:09.283931 30714 net.cpp:430] resx11_conv1_relu -> resx11_conv1 (in-place)
I0813 15:18:09.283934 30714 net.cpp:141] Setting up resx11_conv1_relu
I0813 15:18:09.283938 30714 net.cpp:148] Top shape: 70 120 14 14 (1646400)
I0813 15:18:09.283941 30714 net.cpp:156] Memory required for data: 3894065560
I0813 15:18:09.283944 30714 layer_factory.hpp:77] Creating layer shuffle11
I0813 15:18:09.283949 30714 net.cpp:91] Creating Layer shuffle11
I0813 15:18:09.283952 30714 net.cpp:469] shuffle11 <- resx11_conv1
I0813 15:18:09.283957 30714 net.cpp:430] shuffle11 -> resx11_conv1 (in-place)
I0813 15:18:09.283962 30714 net.cpp:141] Setting up shuffle11
I0813 15:18:09.283965 30714 net.cpp:148] Top shape: 70 120 14 14 (1646400)
I0813 15:18:09.283968 30714 net.cpp:156] Memory required for data: 3900651160
I0813 15:18:09.283972 30714 layer_factory.hpp:77] Creating layer resx11_conv2
I0813 15:18:09.283977 30714 net.cpp:91] Creating Layer resx11_conv2
I0813 15:18:09.283982 30714 net.cpp:469] resx11_conv2 <- resx11_conv1
I0813 15:18:09.283987 30714 net.cpp:443] resx11_conv2 -> resx11_conv2
I0813 15:18:09.284051 30714 net.cpp:141] Setting up resx11_conv2
I0813 15:18:09.284060 30714 net.cpp:148] Top shape: 70 120 14 14 (1646400)
I0813 15:18:09.284063 30714 net.cpp:156] Memory required for data: 3907236760
I0813 15:18:09.284068 30714 layer_factory.hpp:77] Creating layer resx11_conv2_bn
I0813 15:18:09.284075 30714 net.cpp:91] Creating Layer resx11_conv2_bn
I0813 15:18:09.284077 30714 net.cpp:469] resx11_conv2_bn <- resx11_conv2
I0813 15:18:09.284082 30714 net.cpp:430] resx11_conv2_bn -> resx11_conv2 (in-place)
I0813 15:18:09.284093 30714 net.cpp:141] Setting up resx11_conv2_bn
I0813 15:18:09.284097 30714 net.cpp:148] Top shape: 70 120 14 14 (1646400)
I0813 15:18:09.284101 30714 net.cpp:156] Memory required for data: 3913822360
I0813 15:18:09.284106 30714 layer_factory.hpp:77] Creating layer resx11_conv2_scale
I0813 15:18:09.284113 30714 net.cpp:91] Creating Layer resx11_conv2_scale
I0813 15:18:09.284116 30714 net.cpp:469] resx11_conv2_scale <- resx11_conv2
I0813 15:18:09.284127 30714 net.cpp:430] resx11_conv2_scale -> resx11_conv2 (in-place)
I0813 15:18:09.284135 30714 layer_factory.hpp:77] Creating layer resx11_conv2_scale
I0813 15:18:09.284147 30714 net.cpp:141] Setting up resx11_conv2_scale
I0813 15:18:09.284152 30714 net.cpp:148] Top shape: 70 120 14 14 (1646400)
I0813 15:18:09.284154 30714 net.cpp:156] Memory required for data: 3920407960
I0813 15:18:09.284159 30714 layer_factory.hpp:77] Creating layer resx11_conv3
I0813 15:18:09.284166 30714 net.cpp:91] Creating Layer resx11_conv3
I0813 15:18:09.284170 30714 net.cpp:469] resx11_conv3 <- resx11_conv2
I0813 15:18:09.284175 30714 net.cpp:443] resx11_conv3 -> resx11_conv3
I0813 15:18:09.284659 30714 net.cpp:141] Setting up resx11_conv3
I0813 15:18:09.284665 30714 net.cpp:148] Top shape: 70 480 14 14 (6585600)
I0813 15:18:09.284668 30714 net.cpp:156] Memory required for data: 3946750360
I0813 15:18:09.284672 30714 layer_factory.hpp:77] Creating layer resx11_conv3_bn
I0813 15:18:09.284678 30714 net.cpp:91] Creating Layer resx11_conv3_bn
I0813 15:18:09.284682 30714 net.cpp:469] resx11_conv3_bn <- resx11_conv3
I0813 15:18:09.284687 30714 net.cpp:430] resx11_conv3_bn -> resx11_conv3 (in-place)
I0813 15:18:09.284699 30714 net.cpp:141] Setting up resx11_conv3_bn
I0813 15:18:09.284704 30714 net.cpp:148] Top shape: 70 480 14 14 (6585600)
I0813 15:18:09.284708 30714 net.cpp:156] Memory required for data: 3973092760
I0813 15:18:09.284713 30714 layer_factory.hpp:77] Creating layer resx11_conv3_scale
I0813 15:18:09.284719 30714 net.cpp:91] Creating Layer resx11_conv3_scale
I0813 15:18:09.284723 30714 net.cpp:469] resx11_conv3_scale <- resx11_conv3
I0813 15:18:09.284726 30714 net.cpp:430] resx11_conv3_scale -> resx11_conv3 (in-place)
I0813 15:18:09.284734 30714 layer_factory.hpp:77] Creating layer resx11_conv3_scale
I0813 15:18:09.284747 30714 net.cpp:141] Setting up resx11_conv3_scale
I0813 15:18:09.284752 30714 net.cpp:148] Top shape: 70 480 14 14 (6585600)
I0813 15:18:09.284754 30714 net.cpp:156] Memory required for data: 3999435160
I0813 15:18:09.284759 30714 layer_factory.hpp:77] Creating layer resx11_elewise
I0813 15:18:09.284765 30714 net.cpp:91] Creating Layer resx11_elewise
I0813 15:18:09.284768 30714 net.cpp:469] resx11_elewise <- resx10_elewise_resx10_elewise_relu_0_split_1
I0813 15:18:09.284771 30714 net.cpp:469] resx11_elewise <- resx11_conv3
I0813 15:18:09.284776 30714 net.cpp:443] resx11_elewise -> resx11_elewise
I0813 15:18:09.284781 30714 net.cpp:141] Setting up resx11_elewise
I0813 15:18:09.284785 30714 net.cpp:148] Top shape: 70 480 14 14 (6585600)
I0813 15:18:09.284788 30714 net.cpp:156] Memory required for data: 4025777560
I0813 15:18:09.284791 30714 layer_factory.hpp:77] Creating layer resx11_elewise_relu
I0813 15:18:09.284797 30714 net.cpp:91] Creating Layer resx11_elewise_relu
I0813 15:18:09.284801 30714 net.cpp:469] resx11_elewise_relu <- resx11_elewise
I0813 15:18:09.284806 30714 net.cpp:430] resx11_elewise_relu -> resx11_elewise (in-place)
I0813 15:18:09.284809 30714 net.cpp:141] Setting up resx11_elewise_relu
I0813 15:18:09.284813 30714 net.cpp:148] Top shape: 70 480 14 14 (6585600)
I0813 15:18:09.284816 30714 net.cpp:156] Memory required for data: 4052119960
I0813 15:18:09.284819 30714 layer_factory.hpp:77] Creating layer resx11_elewise_resx11_elewise_relu_0_split
I0813 15:18:09.284824 30714 net.cpp:91] Creating Layer resx11_elewise_resx11_elewise_relu_0_split
I0813 15:18:09.284827 30714 net.cpp:469] resx11_elewise_resx11_elewise_relu_0_split <- resx11_elewise
I0813 15:18:09.284832 30714 net.cpp:443] resx11_elewise_resx11_elewise_relu_0_split -> resx11_elewise_resx11_elewise_relu_0_split_0
I0813 15:18:09.284837 30714 net.cpp:443] resx11_elewise_resx11_elewise_relu_0_split -> resx11_elewise_resx11_elewise_relu_0_split_1
I0813 15:18:09.284842 30714 net.cpp:141] Setting up resx11_elewise_resx11_elewise_relu_0_split
I0813 15:18:09.284845 30714 net.cpp:148] Top shape: 70 480 14 14 (6585600)
I0813 15:18:09.284848 30714 net.cpp:148] Top shape: 70 480 14 14 (6585600)
I0813 15:18:09.284854 30714 net.cpp:156] Memory required for data: 4104804760
I0813 15:18:09.284862 30714 layer_factory.hpp:77] Creating layer resx12_conv1
I0813 15:18:09.284870 30714 net.cpp:91] Creating Layer resx12_conv1
I0813 15:18:09.284873 30714 net.cpp:469] resx12_conv1 <- resx11_elewise_resx11_elewise_relu_0_split_0
I0813 15:18:09.284878 30714 net.cpp:443] resx12_conv1 -> resx12_conv1
I0813 15:18:09.285375 30714 net.cpp:141] Setting up resx12_conv1
I0813 15:18:09.285384 30714 net.cpp:148] Top shape: 70 120 14 14 (1646400)
I0813 15:18:09.285387 30714 net.cpp:156] Memory required for data: 4111390360
I0813 15:18:09.285392 30714 layer_factory.hpp:77] Creating layer resx12_conv1_bn
I0813 15:18:09.285399 30714 net.cpp:91] Creating Layer resx12_conv1_bn
I0813 15:18:09.285403 30714 net.cpp:469] resx12_conv1_bn <- resx12_conv1
I0813 15:18:09.285409 30714 net.cpp:430] resx12_conv1_bn -> resx12_conv1 (in-place)
I0813 15:18:09.285421 30714 net.cpp:141] Setting up resx12_conv1_bn
I0813 15:18:09.285426 30714 net.cpp:148] Top shape: 70 120 14 14 (1646400)
I0813 15:18:09.285429 30714 net.cpp:156] Memory required for data: 4117975960
I0813 15:18:09.285434 30714 layer_factory.hpp:77] Creating layer resx12_conv1_scale
I0813 15:18:09.285442 30714 net.cpp:91] Creating Layer resx12_conv1_scale
I0813 15:18:09.285445 30714 net.cpp:469] resx12_conv1_scale <- resx12_conv1
I0813 15:18:09.285450 30714 net.cpp:430] resx12_conv1_scale -> resx12_conv1 (in-place)
I0813 15:18:09.285457 30714 layer_factory.hpp:77] Creating layer resx12_conv1_scale
I0813 15:18:09.285470 30714 net.cpp:141] Setting up resx12_conv1_scale
I0813 15:18:09.285475 30714 net.cpp:148] Top shape: 70 120 14 14 (1646400)
I0813 15:18:09.285477 30714 net.cpp:156] Memory required for data: 4124561560
I0813 15:18:09.285485 30714 layer_factory.hpp:77] Creating layer resx12_conv1_relu
I0813 15:18:09.285491 30714 net.cpp:91] Creating Layer resx12_conv1_relu
I0813 15:18:09.285495 30714 net.cpp:469] resx12_conv1_relu <- resx12_conv1
I0813 15:18:09.285498 30714 net.cpp:430] resx12_conv1_relu -> resx12_conv1 (in-place)
I0813 15:18:09.285502 30714 net.cpp:141] Setting up resx12_conv1_relu
I0813 15:18:09.285506 30714 net.cpp:148] Top shape: 70 120 14 14 (1646400)
I0813 15:18:09.285509 30714 net.cpp:156] Memory required for data: 4131147160
I0813 15:18:09.285512 30714 layer_factory.hpp:77] Creating layer shuffle12
I0813 15:18:09.285519 30714 net.cpp:91] Creating Layer shuffle12
I0813 15:18:09.285523 30714 net.cpp:469] shuffle12 <- resx12_conv1
I0813 15:18:09.285527 30714 net.cpp:430] shuffle12 -> resx12_conv1 (in-place)
I0813 15:18:09.285532 30714 net.cpp:141] Setting up shuffle12
I0813 15:18:09.285536 30714 net.cpp:148] Top shape: 70 120 14 14 (1646400)
I0813 15:18:09.285538 30714 net.cpp:156] Memory required for data: 4137732760
I0813 15:18:09.285542 30714 layer_factory.hpp:77] Creating layer resx12_conv2
I0813 15:18:09.285548 30714 net.cpp:91] Creating Layer resx12_conv2
I0813 15:18:09.285552 30714 net.cpp:469] resx12_conv2 <- resx12_conv1
I0813 15:18:09.285557 30714 net.cpp:443] resx12_conv2 -> resx12_conv2
I0813 15:18:09.285621 30714 net.cpp:141] Setting up resx12_conv2
I0813 15:18:09.285629 30714 net.cpp:148] Top shape: 70 120 14 14 (1646400)
I0813 15:18:09.285634 30714 net.cpp:156] Memory required for data: 4144318360
I0813 15:18:09.285637 30714 layer_factory.hpp:77] Creating layer resx12_conv2_bn
I0813 15:18:09.285645 30714 net.cpp:91] Creating Layer resx12_conv2_bn
I0813 15:18:09.285648 30714 net.cpp:469] resx12_conv2_bn <- resx12_conv2
I0813 15:18:09.285652 30714 net.cpp:430] resx12_conv2_bn -> resx12_conv2 (in-place)
I0813 15:18:09.285663 30714 net.cpp:141] Setting up resx12_conv2_bn
I0813 15:18:09.285667 30714 net.cpp:148] Top shape: 70 120 14 14 (1646400)
I0813 15:18:09.285670 30714 net.cpp:156] Memory required for data: 4150903960
I0813 15:18:09.285676 30714 layer_factory.hpp:77] Creating layer resx12_conv2_scale
I0813 15:18:09.285683 30714 net.cpp:91] Creating Layer resx12_conv2_scale
I0813 15:18:09.285686 30714 net.cpp:469] resx12_conv2_scale <- resx12_conv2
I0813 15:18:09.285691 30714 net.cpp:430] resx12_conv2_scale -> resx12_conv2 (in-place)
I0813 15:18:09.285706 30714 layer_factory.hpp:77] Creating layer resx12_conv2_scale
I0813 15:18:09.285717 30714 net.cpp:141] Setting up resx12_conv2_scale
I0813 15:18:09.285722 30714 net.cpp:148] Top shape: 70 120 14 14 (1646400)
I0813 15:18:09.285724 30714 net.cpp:156] Memory required for data: 4157489560
I0813 15:18:09.285729 30714 layer_factory.hpp:77] Creating layer resx12_conv3
I0813 15:18:09.285737 30714 net.cpp:91] Creating Layer resx12_conv3
I0813 15:18:09.285742 30714 net.cpp:469] resx12_conv3 <- resx12_conv2
I0813 15:18:09.285746 30714 net.cpp:443] resx12_conv3 -> resx12_conv3
I0813 15:18:09.286231 30714 net.cpp:141] Setting up resx12_conv3
I0813 15:18:09.286237 30714 net.cpp:148] Top shape: 70 480 14 14 (6585600)
I0813 15:18:09.286240 30714 net.cpp:156] Memory required for data: 4183831960
I0813 15:18:09.286244 30714 layer_factory.hpp:77] Creating layer resx12_conv3_bn
I0813 15:18:09.286252 30714 net.cpp:91] Creating Layer resx12_conv3_bn
I0813 15:18:09.286254 30714 net.cpp:469] resx12_conv3_bn <- resx12_conv3
I0813 15:18:09.286260 30714 net.cpp:430] resx12_conv3_bn -> resx12_conv3 (in-place)
I0813 15:18:09.286272 30714 net.cpp:141] Setting up resx12_conv3_bn
I0813 15:18:09.286278 30714 net.cpp:148] Top shape: 70 480 14 14 (6585600)
I0813 15:18:09.286280 30714 net.cpp:156] Memory required for data: 4210174360
I0813 15:18:09.286286 30714 layer_factory.hpp:77] Creating layer resx12_conv3_scale
I0813 15:18:09.286291 30714 net.cpp:91] Creating Layer resx12_conv3_scale
I0813 15:18:09.286294 30714 net.cpp:469] resx12_conv3_scale <- resx12_conv3
I0813 15:18:09.286299 30714 net.cpp:430] resx12_conv3_scale -> resx12_conv3 (in-place)
I0813 15:18:09.286309 30714 layer_factory.hpp:77] Creating layer resx12_conv3_scale
I0813 15:18:09.286319 30714 net.cpp:141] Setting up resx12_conv3_scale
I0813 15:18:09.286324 30714 net.cpp:148] Top shape: 70 480 14 14 (6585600)
I0813 15:18:09.286327 30714 net.cpp:156] Memory required for data: 4236516760
I0813 15:18:09.286331 30714 layer_factory.hpp:77] Creating layer resx12_elewise
I0813 15:18:09.286339 30714 net.cpp:91] Creating Layer resx12_elewise
I0813 15:18:09.286342 30714 net.cpp:469] resx12_elewise <- resx11_elewise_resx11_elewise_relu_0_split_1
I0813 15:18:09.286345 30714 net.cpp:469] resx12_elewise <- resx12_conv3
I0813 15:18:09.286350 30714 net.cpp:443] resx12_elewise -> resx12_elewise
I0813 15:18:09.286355 30714 net.cpp:141] Setting up resx12_elewise
I0813 15:18:09.286360 30714 net.cpp:148] Top shape: 70 480 14 14 (6585600)
I0813 15:18:09.286362 30714 net.cpp:156] Memory required for data: 4262859160
I0813 15:18:09.286365 30714 layer_factory.hpp:77] Creating layer resx12_elewise_relu
I0813 15:18:09.286370 30714 net.cpp:91] Creating Layer resx12_elewise_relu
I0813 15:18:09.286375 30714 net.cpp:469] resx12_elewise_relu <- resx12_elewise
I0813 15:18:09.286379 30714 net.cpp:430] resx12_elewise_relu -> resx12_elewise (in-place)
I0813 15:18:09.286383 30714 net.cpp:141] Setting up resx12_elewise_relu
I0813 15:18:09.286387 30714 net.cpp:148] Top shape: 70 480 14 14 (6585600)
I0813 15:18:09.286391 30714 net.cpp:156] Memory required for data: 4289201560
I0813 15:18:09.286393 30714 layer_factory.hpp:77] Creating layer resx12_elewise_resx12_elewise_relu_0_split
I0813 15:18:09.286398 30714 net.cpp:91] Creating Layer resx12_elewise_resx12_elewise_relu_0_split
I0813 15:18:09.286401 30714 net.cpp:469] resx12_elewise_resx12_elewise_relu_0_split <- resx12_elewise
I0813 15:18:09.286406 30714 net.cpp:443] resx12_elewise_resx12_elewise_relu_0_split -> resx12_elewise_resx12_elewise_relu_0_split_0
I0813 15:18:09.286411 30714 net.cpp:443] resx12_elewise_resx12_elewise_relu_0_split -> resx12_elewise_resx12_elewise_relu_0_split_1
I0813 15:18:09.286415 30714 net.cpp:141] Setting up resx12_elewise_resx12_elewise_relu_0_split
I0813 15:18:09.286419 30714 net.cpp:148] Top shape: 70 480 14 14 (6585600)
I0813 15:18:09.286423 30714 net.cpp:148] Top shape: 70 480 14 14 (6585600)
I0813 15:18:09.286427 30714 net.cpp:156] Memory required for data: 4341886360
I0813 15:18:09.286432 30714 layer_factory.hpp:77] Creating layer resx13_match_conv
I0813 15:18:09.286442 30714 net.cpp:91] Creating Layer resx13_match_conv
I0813 15:18:09.286447 30714 net.cpp:469] resx13_match_conv <- resx12_elewise_resx12_elewise_relu_0_split_0
I0813 15:18:09.286453 30714 net.cpp:443] resx13_match_conv -> resx13_match_conv
I0813 15:18:09.286458 30714 net.cpp:141] Setting up resx13_match_conv
I0813 15:18:09.286463 30714 net.cpp:148] Top shape: 70 480 7 7 (1646400)
I0813 15:18:09.286465 30714 net.cpp:156] Memory required for data: 4348471960
I0813 15:18:09.286468 30714 layer_factory.hpp:77] Creating layer resx13_conv1
I0813 15:18:09.286475 30714 net.cpp:91] Creating Layer resx13_conv1
I0813 15:18:09.286478 30714 net.cpp:469] resx13_conv1 <- resx12_elewise_resx12_elewise_relu_0_split_1
I0813 15:18:09.286484 30714 net.cpp:443] resx13_conv1 -> resx13_conv1
I0813 15:18:09.286968 30714 net.cpp:141] Setting up resx13_conv1
I0813 15:18:09.286974 30714 net.cpp:148] Top shape: 70 120 14 14 (1646400)
I0813 15:18:09.286978 30714 net.cpp:156] Memory required for data: 4355057560
I0813 15:18:09.286983 30714 layer_factory.hpp:77] Creating layer resx13_conv1_bn
I0813 15:18:09.286989 30714 net.cpp:91] Creating Layer resx13_conv1_bn
I0813 15:18:09.286993 30714 net.cpp:469] resx13_conv1_bn <- resx13_conv1
I0813 15:18:09.286996 30714 net.cpp:430] resx13_conv1_bn -> resx13_conv1 (in-place)
I0813 15:18:09.287009 30714 net.cpp:141] Setting up resx13_conv1_bn
I0813 15:18:09.287014 30714 net.cpp:148] Top shape: 70 120 14 14 (1646400)
I0813 15:18:09.287016 30714 net.cpp:156] Memory required for data: 4361643160
I0813 15:18:09.287022 30714 layer_factory.hpp:77] Creating layer resx13_conv1_scale
I0813 15:18:09.287029 30714 net.cpp:91] Creating Layer resx13_conv1_scale
I0813 15:18:09.287032 30714 net.cpp:469] resx13_conv1_scale <- resx13_conv1
I0813 15:18:09.287036 30714 net.cpp:430] resx13_conv1_scale -> resx13_conv1 (in-place)
I0813 15:18:09.287044 30714 layer_factory.hpp:77] Creating layer resx13_conv1_scale
I0813 15:18:09.287055 30714 net.cpp:141] Setting up resx13_conv1_scale
I0813 15:18:09.287060 30714 net.cpp:148] Top shape: 70 120 14 14 (1646400)
I0813 15:18:09.287062 30714 net.cpp:156] Memory required for data: 4368228760
I0813 15:18:09.287067 30714 layer_factory.hpp:77] Creating layer resx13_conv1_relu
I0813 15:18:09.287071 30714 net.cpp:91] Creating Layer resx13_conv1_relu
I0813 15:18:09.287075 30714 net.cpp:469] resx13_conv1_relu <- resx13_conv1
I0813 15:18:09.287081 30714 net.cpp:430] resx13_conv1_relu -> resx13_conv1 (in-place)
I0813 15:18:09.287084 30714 net.cpp:141] Setting up resx13_conv1_relu
I0813 15:18:09.287088 30714 net.cpp:148] Top shape: 70 120 14 14 (1646400)
I0813 15:18:09.287091 30714 net.cpp:156] Memory required for data: 4374814360
I0813 15:18:09.287094 30714 layer_factory.hpp:77] Creating layer shuffle13
I0813 15:18:09.287099 30714 net.cpp:91] Creating Layer shuffle13
I0813 15:18:09.287102 30714 net.cpp:469] shuffle13 <- resx13_conv1
I0813 15:18:09.287106 30714 net.cpp:430] shuffle13 -> resx13_conv1 (in-place)
I0813 15:18:09.287111 30714 net.cpp:141] Setting up shuffle13
I0813 15:18:09.287116 30714 net.cpp:148] Top shape: 70 120 14 14 (1646400)
I0813 15:18:09.287118 30714 net.cpp:156] Memory required for data: 4381399960
I0813 15:18:09.287122 30714 layer_factory.hpp:77] Creating layer resx13_conv2
I0813 15:18:09.287129 30714 net.cpp:91] Creating Layer resx13_conv2
I0813 15:18:09.287133 30714 net.cpp:469] resx13_conv2 <- resx13_conv1
I0813 15:18:09.287138 30714 net.cpp:443] resx13_conv2 -> resx13_conv2
I0813 15:18:09.287364 30714 net.cpp:141] Setting up resx13_conv2
I0813 15:18:09.287375 30714 net.cpp:148] Top shape: 70 120 7 7 (411600)
I0813 15:18:09.287379 30714 net.cpp:156] Memory required for data: 4383046360
I0813 15:18:09.287384 30714 layer_factory.hpp:77] Creating layer resx13_conv2_bn
I0813 15:18:09.287389 30714 net.cpp:91] Creating Layer resx13_conv2_bn
I0813 15:18:09.287394 30714 net.cpp:469] resx13_conv2_bn <- resx13_conv2
I0813 15:18:09.287400 30714 net.cpp:430] resx13_conv2_bn -> resx13_conv2 (in-place)
I0813 15:18:09.287415 30714 net.cpp:141] Setting up resx13_conv2_bn
I0813 15:18:09.287425 30714 net.cpp:148] Top shape: 70 120 7 7 (411600)
I0813 15:18:09.287427 30714 net.cpp:156] Memory required for data: 4384692760
I0813 15:18:09.287433 30714 layer_factory.hpp:77] Creating layer resx13_conv2_scale
I0813 15:18:09.287439 30714 net.cpp:91] Creating Layer resx13_conv2_scale
I0813 15:18:09.287442 30714 net.cpp:469] resx13_conv2_scale <- resx13_conv2
I0813 15:18:09.287446 30714 net.cpp:430] resx13_conv2_scale -> resx13_conv2 (in-place)
I0813 15:18:09.287456 30714 layer_factory.hpp:77] Creating layer resx13_conv2_scale
I0813 15:18:09.287467 30714 net.cpp:141] Setting up resx13_conv2_scale
I0813 15:18:09.287472 30714 net.cpp:148] Top shape: 70 120 7 7 (411600)
I0813 15:18:09.287475 30714 net.cpp:156] Memory required for data: 4386339160
I0813 15:18:09.287480 30714 layer_factory.hpp:77] Creating layer resx13_conv3
I0813 15:18:09.287487 30714 net.cpp:91] Creating Layer resx13_conv3
I0813 15:18:09.287490 30714 net.cpp:469] resx13_conv3 <- resx13_conv2
I0813 15:18:09.287495 30714 net.cpp:443] resx13_conv3 -> resx13_conv3
I0813 15:18:09.287981 30714 net.cpp:141] Setting up resx13_conv3
I0813 15:18:09.287987 30714 net.cpp:148] Top shape: 70 480 7 7 (1646400)
I0813 15:18:09.287991 30714 net.cpp:156] Memory required for data: 4392924760
I0813 15:18:09.287994 30714 layer_factory.hpp:77] Creating layer resx13_conv3_bn
I0813 15:18:09.288002 30714 net.cpp:91] Creating Layer resx13_conv3_bn
I0813 15:18:09.288004 30714 net.cpp:469] resx13_conv3_bn <- resx13_conv3
I0813 15:18:09.288008 30714 net.cpp:430] resx13_conv3_bn -> resx13_conv3 (in-place)
I0813 15:18:09.288022 30714 net.cpp:141] Setting up resx13_conv3_bn
I0813 15:18:09.288025 30714 net.cpp:148] Top shape: 70 480 7 7 (1646400)
I0813 15:18:09.288028 30714 net.cpp:156] Memory required for data: 4399510360
I0813 15:18:09.288034 30714 layer_factory.hpp:77] Creating layer resx13_conv3_scale
I0813 15:18:09.288040 30714 net.cpp:91] Creating Layer resx13_conv3_scale
I0813 15:18:09.288043 30714 net.cpp:469] resx13_conv3_scale <- resx13_conv3
I0813 15:18:09.288048 30714 net.cpp:430] resx13_conv3_scale -> resx13_conv3 (in-place)
I0813 15:18:09.288058 30714 layer_factory.hpp:77] Creating layer resx13_conv3_scale
I0813 15:18:09.288069 30714 net.cpp:141] Setting up resx13_conv3_scale
I0813 15:18:09.288074 30714 net.cpp:148] Top shape: 70 480 7 7 (1646400)
I0813 15:18:09.288076 30714 net.cpp:156] Memory required for data: 4406095960
I0813 15:18:09.288081 30714 layer_factory.hpp:77] Creating layer resx13_concat
I0813 15:18:09.288086 30714 net.cpp:91] Creating Layer resx13_concat
I0813 15:18:09.288090 30714 net.cpp:469] resx13_concat <- resx13_match_conv
I0813 15:18:09.288094 30714 net.cpp:469] resx13_concat <- resx13_conv3
I0813 15:18:09.288100 30714 net.cpp:443] resx13_concat -> resx13_concat
I0813 15:18:09.288105 30714 net.cpp:141] Setting up resx13_concat
I0813 15:18:09.288110 30714 net.cpp:148] Top shape: 70 960 7 7 (3292800)
I0813 15:18:09.288117 30714 net.cpp:156] Memory required for data: 4419267160
I0813 15:18:09.288121 30714 layer_factory.hpp:77] Creating layer resx13_concat_relu
I0813 15:18:09.288126 30714 net.cpp:91] Creating Layer resx13_concat_relu
I0813 15:18:09.288130 30714 net.cpp:469] resx13_concat_relu <- resx13_concat
I0813 15:18:09.288133 30714 net.cpp:430] resx13_concat_relu -> resx13_concat (in-place)
I0813 15:18:09.288138 30714 net.cpp:141] Setting up resx13_concat_relu
I0813 15:18:09.288142 30714 net.cpp:148] Top shape: 70 960 7 7 (3292800)
I0813 15:18:09.288146 30714 net.cpp:156] Memory required for data: 4432438360
I0813 15:18:09.288148 30714 layer_factory.hpp:77] Creating layer resx13_concat_resx13_concat_relu_0_split
I0813 15:18:09.288154 30714 net.cpp:91] Creating Layer resx13_concat_resx13_concat_relu_0_split
I0813 15:18:09.288157 30714 net.cpp:469] resx13_concat_resx13_concat_relu_0_split <- resx13_concat
I0813 15:18:09.288162 30714 net.cpp:443] resx13_concat_resx13_concat_relu_0_split -> resx13_concat_resx13_concat_relu_0_split_0
I0813 15:18:09.288170 30714 net.cpp:443] resx13_concat_resx13_concat_relu_0_split -> resx13_concat_resx13_concat_relu_0_split_1
I0813 15:18:09.288180 30714 net.cpp:141] Setting up resx13_concat_resx13_concat_relu_0_split
I0813 15:18:09.288187 30714 net.cpp:148] Top shape: 70 960 7 7 (3292800)
I0813 15:18:09.288189 30714 net.cpp:148] Top shape: 70 960 7 7 (3292800)
I0813 15:18:09.288192 30714 net.cpp:156] Memory required for data: 4458780760
I0813 15:18:09.288197 30714 layer_factory.hpp:77] Creating layer resx14_conv1
I0813 15:18:09.288203 30714 net.cpp:91] Creating Layer resx14_conv1
I0813 15:18:09.288206 30714 net.cpp:469] resx14_conv1 <- resx13_concat_resx13_concat_relu_0_split_0
I0813 15:18:09.288214 30714 net.cpp:443] resx14_conv1 -> resx14_conv1
I0813 15:18:09.290135 30714 net.cpp:141] Setting up resx14_conv1
I0813 15:18:09.290143 30714 net.cpp:148] Top shape: 70 240 7 7 (823200)
I0813 15:18:09.290148 30714 net.cpp:156] Memory required for data: 4462073560
I0813 15:18:09.290151 30714 layer_factory.hpp:77] Creating layer resx14_conv1_bn
I0813 15:18:09.290158 30714 net.cpp:91] Creating Layer resx14_conv1_bn
I0813 15:18:09.290160 30714 net.cpp:469] resx14_conv1_bn <- resx14_conv1
I0813 15:18:09.290166 30714 net.cpp:430] resx14_conv1_bn -> resx14_conv1 (in-place)
I0813 15:18:09.290179 30714 net.cpp:141] Setting up resx14_conv1_bn
I0813 15:18:09.290184 30714 net.cpp:148] Top shape: 70 240 7 7 (823200)
I0813 15:18:09.290187 30714 net.cpp:156] Memory required for data: 4465366360
I0813 15:18:09.290192 30714 layer_factory.hpp:77] Creating layer resx14_conv1_scale
I0813 15:18:09.290199 30714 net.cpp:91] Creating Layer resx14_conv1_scale
I0813 15:18:09.290202 30714 net.cpp:469] resx14_conv1_scale <- resx14_conv1
I0813 15:18:09.290208 30714 net.cpp:430] resx14_conv1_scale -> resx14_conv1 (in-place)
I0813 15:18:09.290217 30714 layer_factory.hpp:77] Creating layer resx14_conv1_scale
I0813 15:18:09.290228 30714 net.cpp:141] Setting up resx14_conv1_scale
I0813 15:18:09.290233 30714 net.cpp:148] Top shape: 70 240 7 7 (823200)
I0813 15:18:09.290236 30714 net.cpp:156] Memory required for data: 4468659160
I0813 15:18:09.290241 30714 layer_factory.hpp:77] Creating layer resx14_conv1_relu
I0813 15:18:09.290246 30714 net.cpp:91] Creating Layer resx14_conv1_relu
I0813 15:18:09.290249 30714 net.cpp:469] resx14_conv1_relu <- resx14_conv1
I0813 15:18:09.290254 30714 net.cpp:430] resx14_conv1_relu -> resx14_conv1 (in-place)
I0813 15:18:09.290262 30714 net.cpp:141] Setting up resx14_conv1_relu
I0813 15:18:09.290277 30714 net.cpp:148] Top shape: 70 240 7 7 (823200)
I0813 15:18:09.290282 30714 net.cpp:156] Memory required for data: 4471951960
I0813 15:18:09.290284 30714 layer_factory.hpp:77] Creating layer shuffle14
I0813 15:18:09.290290 30714 net.cpp:91] Creating Layer shuffle14
I0813 15:18:09.290293 30714 net.cpp:469] shuffle14 <- resx14_conv1
I0813 15:18:09.290298 30714 net.cpp:430] shuffle14 -> resx14_conv1 (in-place)
I0813 15:18:09.290305 30714 net.cpp:141] Setting up shuffle14
I0813 15:18:09.290309 30714 net.cpp:148] Top shape: 70 240 7 7 (823200)
I0813 15:18:09.290313 30714 net.cpp:156] Memory required for data: 4475244760
I0813 15:18:09.290315 30714 layer_factory.hpp:77] Creating layer resx14_conv2
I0813 15:18:09.290321 30714 net.cpp:91] Creating Layer resx14_conv2
I0813 15:18:09.290324 30714 net.cpp:469] resx14_conv2 <- resx14_conv1
I0813 15:18:09.290329 30714 net.cpp:443] resx14_conv2 -> resx14_conv2
I0813 15:18:09.290419 30714 net.cpp:141] Setting up resx14_conv2
I0813 15:18:09.290428 30714 net.cpp:148] Top shape: 70 240 7 7 (823200)
I0813 15:18:09.290431 30714 net.cpp:156] Memory required for data: 4478537560
I0813 15:18:09.290436 30714 layer_factory.hpp:77] Creating layer resx14_conv2_bn
I0813 15:18:09.290443 30714 net.cpp:91] Creating Layer resx14_conv2_bn
I0813 15:18:09.290447 30714 net.cpp:469] resx14_conv2_bn <- resx14_conv2
I0813 15:18:09.290452 30714 net.cpp:430] resx14_conv2_bn -> resx14_conv2 (in-place)
I0813 15:18:09.290462 30714 net.cpp:141] Setting up resx14_conv2_bn
I0813 15:18:09.290467 30714 net.cpp:148] Top shape: 70 240 7 7 (823200)
I0813 15:18:09.290473 30714 net.cpp:156] Memory required for data: 4481830360
I0813 15:18:09.290485 30714 layer_factory.hpp:77] Creating layer resx14_conv2_scale
I0813 15:18:09.290493 30714 net.cpp:91] Creating Layer resx14_conv2_scale
I0813 15:18:09.290495 30714 net.cpp:469] resx14_conv2_scale <- resx14_conv2
I0813 15:18:09.290501 30714 net.cpp:430] resx14_conv2_scale -> resx14_conv2 (in-place)
I0813 15:18:09.290508 30714 layer_factory.hpp:77] Creating layer resx14_conv2_scale
I0813 15:18:09.290519 30714 net.cpp:141] Setting up resx14_conv2_scale
I0813 15:18:09.290524 30714 net.cpp:148] Top shape: 70 240 7 7 (823200)
I0813 15:18:09.290526 30714 net.cpp:156] Memory required for data: 4485123160
I0813 15:18:09.290531 30714 layer_factory.hpp:77] Creating layer resx14_conv3
I0813 15:18:09.290540 30714 net.cpp:91] Creating Layer resx14_conv3
I0813 15:18:09.290544 30714 net.cpp:469] resx14_conv3 <- resx14_conv2
I0813 15:18:09.290549 30714 net.cpp:443] resx14_conv3 -> resx14_conv3
I0813 15:18:09.292465 30714 net.cpp:141] Setting up resx14_conv3
I0813 15:18:09.292472 30714 net.cpp:148] Top shape: 70 960 7 7 (3292800)
I0813 15:18:09.292475 30714 net.cpp:156] Memory required for data: 4498294360
I0813 15:18:09.292480 30714 layer_factory.hpp:77] Creating layer resx14_conv3_bn
I0813 15:18:09.292488 30714 net.cpp:91] Creating Layer resx14_conv3_bn
I0813 15:18:09.292492 30714 net.cpp:469] resx14_conv3_bn <- resx14_conv3
I0813 15:18:09.292497 30714 net.cpp:430] resx14_conv3_bn -> resx14_conv3 (in-place)
I0813 15:18:09.292511 30714 net.cpp:141] Setting up resx14_conv3_bn
I0813 15:18:09.292515 30714 net.cpp:148] Top shape: 70 960 7 7 (3292800)
I0813 15:18:09.292520 30714 net.cpp:156] Memory required for data: 4511465560
I0813 15:18:09.292526 30714 layer_factory.hpp:77] Creating layer resx14_conv3_scale
I0813 15:18:09.292531 30714 net.cpp:91] Creating Layer resx14_conv3_scale
I0813 15:18:09.292534 30714 net.cpp:469] resx14_conv3_scale <- resx14_conv3
I0813 15:18:09.292541 30714 net.cpp:430] resx14_conv3_scale -> resx14_conv3 (in-place)
I0813 15:18:09.292548 30714 layer_factory.hpp:77] Creating layer resx14_conv3_scale
I0813 15:18:09.292562 30714 net.cpp:141] Setting up resx14_conv3_scale
I0813 15:18:09.292567 30714 net.cpp:148] Top shape: 70 960 7 7 (3292800)
I0813 15:18:09.292569 30714 net.cpp:156] Memory required for data: 4524636760
I0813 15:18:09.292593 30714 layer_factory.hpp:77] Creating layer resx14_elewise
I0813 15:18:09.292598 30714 net.cpp:91] Creating Layer resx14_elewise
I0813 15:18:09.292603 30714 net.cpp:469] resx14_elewise <- resx13_concat_resx13_concat_relu_0_split_1
I0813 15:18:09.292606 30714 net.cpp:469] resx14_elewise <- resx14_conv3
I0813 15:18:09.292611 30714 net.cpp:443] resx14_elewise -> resx14_elewise
I0813 15:18:09.292618 30714 net.cpp:141] Setting up resx14_elewise
I0813 15:18:09.292621 30714 net.cpp:148] Top shape: 70 960 7 7 (3292800)
I0813 15:18:09.292624 30714 net.cpp:156] Memory required for data: 4537807960
I0813 15:18:09.292628 30714 layer_factory.hpp:77] Creating layer resx14_elewise_relu
I0813 15:18:09.292634 30714 net.cpp:91] Creating Layer resx14_elewise_relu
I0813 15:18:09.292637 30714 net.cpp:469] resx14_elewise_relu <- resx14_elewise
I0813 15:18:09.292641 30714 net.cpp:430] resx14_elewise_relu -> resx14_elewise (in-place)
I0813 15:18:09.292646 30714 net.cpp:141] Setting up resx14_elewise_relu
I0813 15:18:09.292650 30714 net.cpp:148] Top shape: 70 960 7 7 (3292800)
I0813 15:18:09.292654 30714 net.cpp:156] Memory required for data: 4550979160
I0813 15:18:09.292656 30714 layer_factory.hpp:77] Creating layer resx14_elewise_resx14_elewise_relu_0_split
I0813 15:18:09.292660 30714 net.cpp:91] Creating Layer resx14_elewise_resx14_elewise_relu_0_split
I0813 15:18:09.292664 30714 net.cpp:469] resx14_elewise_resx14_elewise_relu_0_split <- resx14_elewise
I0813 15:18:09.292668 30714 net.cpp:443] resx14_elewise_resx14_elewise_relu_0_split -> resx14_elewise_resx14_elewise_relu_0_split_0
I0813 15:18:09.292672 30714 net.cpp:443] resx14_elewise_resx14_elewise_relu_0_split -> resx14_elewise_resx14_elewise_relu_0_split_1
I0813 15:18:09.292681 30714 net.cpp:141] Setting up resx14_elewise_resx14_elewise_relu_0_split
I0813 15:18:09.292690 30714 net.cpp:148] Top shape: 70 960 7 7 (3292800)
I0813 15:18:09.292693 30714 net.cpp:148] Top shape: 70 960 7 7 (3292800)
I0813 15:18:09.292696 30714 net.cpp:156] Memory required for data: 4577321560
I0813 15:18:09.292699 30714 layer_factory.hpp:77] Creating layer resx15_conv1
I0813 15:18:09.292707 30714 net.cpp:91] Creating Layer resx15_conv1
I0813 15:18:09.292711 30714 net.cpp:469] resx15_conv1 <- resx14_elewise_resx14_elewise_relu_0_split_0
I0813 15:18:09.292717 30714 net.cpp:443] resx15_conv1 -> resx15_conv1
I0813 15:18:09.294641 30714 net.cpp:141] Setting up resx15_conv1
I0813 15:18:09.294649 30714 net.cpp:148] Top shape: 70 240 7 7 (823200)
I0813 15:18:09.294652 30714 net.cpp:156] Memory required for data: 4580614360
I0813 15:18:09.294657 30714 layer_factory.hpp:77] Creating layer resx15_conv1_bn
I0813 15:18:09.294664 30714 net.cpp:91] Creating Layer resx15_conv1_bn
I0813 15:18:09.294669 30714 net.cpp:469] resx15_conv1_bn <- resx15_conv1
I0813 15:18:09.294673 30714 net.cpp:430] resx15_conv1_bn -> resx15_conv1 (in-place)
I0813 15:18:09.294687 30714 net.cpp:141] Setting up resx15_conv1_bn
I0813 15:18:09.294692 30714 net.cpp:148] Top shape: 70 240 7 7 (823200)
I0813 15:18:09.294694 30714 net.cpp:156] Memory required for data: 4583907160
I0813 15:18:09.294700 30714 layer_factory.hpp:77] Creating layer resx15_conv1_scale
I0813 15:18:09.294708 30714 net.cpp:91] Creating Layer resx15_conv1_scale
I0813 15:18:09.294710 30714 net.cpp:469] resx15_conv1_scale <- resx15_conv1
I0813 15:18:09.294715 30714 net.cpp:430] resx15_conv1_scale -> resx15_conv1 (in-place)
I0813 15:18:09.294723 30714 layer_factory.hpp:77] Creating layer resx15_conv1_scale
I0813 15:18:09.294736 30714 net.cpp:141] Setting up resx15_conv1_scale
I0813 15:18:09.294741 30714 net.cpp:148] Top shape: 70 240 7 7 (823200)
I0813 15:18:09.294744 30714 net.cpp:156] Memory required for data: 4587199960
I0813 15:18:09.294749 30714 layer_factory.hpp:77] Creating layer resx15_conv1_relu
I0813 15:18:09.294754 30714 net.cpp:91] Creating Layer resx15_conv1_relu
I0813 15:18:09.294757 30714 net.cpp:469] resx15_conv1_relu <- resx15_conv1
I0813 15:18:09.294762 30714 net.cpp:430] resx15_conv1_relu -> resx15_conv1 (in-place)
I0813 15:18:09.294766 30714 net.cpp:141] Setting up resx15_conv1_relu
I0813 15:18:09.294770 30714 net.cpp:148] Top shape: 70 240 7 7 (823200)
I0813 15:18:09.294773 30714 net.cpp:156] Memory required for data: 4590492760
I0813 15:18:09.294776 30714 layer_factory.hpp:77] Creating layer shuffle15
I0813 15:18:09.294781 30714 net.cpp:91] Creating Layer shuffle15
I0813 15:18:09.294785 30714 net.cpp:469] shuffle15 <- resx15_conv1
I0813 15:18:09.294788 30714 net.cpp:430] shuffle15 -> resx15_conv1 (in-place)
I0813 15:18:09.294793 30714 net.cpp:141] Setting up shuffle15
I0813 15:18:09.294797 30714 net.cpp:148] Top shape: 70 240 7 7 (823200)
I0813 15:18:09.294800 30714 net.cpp:156] Memory required for data: 4593785560
I0813 15:18:09.294803 30714 layer_factory.hpp:77] Creating layer resx15_conv2
I0813 15:18:09.294811 30714 net.cpp:91] Creating Layer resx15_conv2
I0813 15:18:09.294814 30714 net.cpp:469] resx15_conv2 <- resx15_conv1
I0813 15:18:09.294821 30714 net.cpp:443] resx15_conv2 -> resx15_conv2
I0813 15:18:09.294911 30714 net.cpp:141] Setting up resx15_conv2
I0813 15:18:09.294919 30714 net.cpp:148] Top shape: 70 240 7 7 (823200)
I0813 15:18:09.294922 30714 net.cpp:156] Memory required for data: 4597078360
I0813 15:18:09.294927 30714 layer_factory.hpp:77] Creating layer resx15_conv2_bn
I0813 15:18:09.294934 30714 net.cpp:91] Creating Layer resx15_conv2_bn
I0813 15:18:09.294936 30714 net.cpp:469] resx15_conv2_bn <- resx15_conv2
I0813 15:18:09.294940 30714 net.cpp:430] resx15_conv2_bn -> resx15_conv2 (in-place)
I0813 15:18:09.294952 30714 net.cpp:141] Setting up resx15_conv2_bn
I0813 15:18:09.294957 30714 net.cpp:148] Top shape: 70 240 7 7 (823200)
I0813 15:18:09.294960 30714 net.cpp:156] Memory required for data: 4600371160
I0813 15:18:09.294965 30714 layer_factory.hpp:77] Creating layer resx15_conv2_scale
I0813 15:18:09.294978 30714 net.cpp:91] Creating Layer resx15_conv2_scale
I0813 15:18:09.294982 30714 net.cpp:469] resx15_conv2_scale <- resx15_conv2
I0813 15:18:09.294986 30714 net.cpp:430] resx15_conv2_scale -> resx15_conv2 (in-place)
I0813 15:18:09.294993 30714 layer_factory.hpp:77] Creating layer resx15_conv2_scale
I0813 15:18:09.295004 30714 net.cpp:141] Setting up resx15_conv2_scale
I0813 15:18:09.295011 30714 net.cpp:148] Top shape: 70 240 7 7 (823200)
I0813 15:18:09.295013 30714 net.cpp:156] Memory required for data: 4603663960
I0813 15:18:09.295018 30714 layer_factory.hpp:77] Creating layer resx15_conv3
I0813 15:18:09.295025 30714 net.cpp:91] Creating Layer resx15_conv3
I0813 15:18:09.295030 30714 net.cpp:469] resx15_conv3 <- resx15_conv2
I0813 15:18:09.295035 30714 net.cpp:443] resx15_conv3 -> resx15_conv3
I0813 15:18:09.296950 30714 net.cpp:141] Setting up resx15_conv3
I0813 15:18:09.296959 30714 net.cpp:148] Top shape: 70 960 7 7 (3292800)
I0813 15:18:09.296963 30714 net.cpp:156] Memory required for data: 4616835160
I0813 15:18:09.296967 30714 layer_factory.hpp:77] Creating layer resx15_conv3_bn
I0813 15:18:09.296972 30714 net.cpp:91] Creating Layer resx15_conv3_bn
I0813 15:18:09.296975 30714 net.cpp:469] resx15_conv3_bn <- resx15_conv3
I0813 15:18:09.296982 30714 net.cpp:430] resx15_conv3_bn -> resx15_conv3 (in-place)
I0813 15:18:09.296995 30714 net.cpp:141] Setting up resx15_conv3_bn
I0813 15:18:09.296999 30714 net.cpp:148] Top shape: 70 960 7 7 (3292800)
I0813 15:18:09.297003 30714 net.cpp:156] Memory required for data: 4630006360
I0813 15:18:09.297008 30714 layer_factory.hpp:77] Creating layer resx15_conv3_scale
I0813 15:18:09.297018 30714 net.cpp:91] Creating Layer resx15_conv3_scale
I0813 15:18:09.297020 30714 net.cpp:469] resx15_conv3_scale <- resx15_conv3
I0813 15:18:09.297026 30714 net.cpp:430] resx15_conv3_scale -> resx15_conv3 (in-place)
I0813 15:18:09.297036 30714 layer_factory.hpp:77] Creating layer resx15_conv3_scale
I0813 15:18:09.297047 30714 net.cpp:141] Setting up resx15_conv3_scale
I0813 15:18:09.297052 30714 net.cpp:148] Top shape: 70 960 7 7 (3292800)
I0813 15:18:09.297055 30714 net.cpp:156] Memory required for data: 4643177560
I0813 15:18:09.297060 30714 layer_factory.hpp:77] Creating layer resx15_elewise
I0813 15:18:09.297065 30714 net.cpp:91] Creating Layer resx15_elewise
I0813 15:18:09.297068 30714 net.cpp:469] resx15_elewise <- resx14_elewise_resx14_elewise_relu_0_split_1
I0813 15:18:09.297072 30714 net.cpp:469] resx15_elewise <- resx15_conv3
I0813 15:18:09.297086 30714 net.cpp:443] resx15_elewise -> resx15_elewise
I0813 15:18:09.297096 30714 net.cpp:141] Setting up resx15_elewise
I0813 15:18:09.297099 30714 net.cpp:148] Top shape: 70 960 7 7 (3292800)
I0813 15:18:09.297102 30714 net.cpp:156] Memory required for data: 4656348760
I0813 15:18:09.297106 30714 layer_factory.hpp:77] Creating layer resx15_elewise_relu
I0813 15:18:09.297111 30714 net.cpp:91] Creating Layer resx15_elewise_relu
I0813 15:18:09.297114 30714 net.cpp:469] resx15_elewise_relu <- resx15_elewise
I0813 15:18:09.297121 30714 net.cpp:430] resx15_elewise_relu -> resx15_elewise (in-place)
I0813 15:18:09.297125 30714 net.cpp:141] Setting up resx15_elewise_relu
I0813 15:18:09.297129 30714 net.cpp:148] Top shape: 70 960 7 7 (3292800)
I0813 15:18:09.297132 30714 net.cpp:156] Memory required for data: 4669519960
I0813 15:18:09.297135 30714 layer_factory.hpp:77] Creating layer resx15_elewise_resx15_elewise_relu_0_split
I0813 15:18:09.297139 30714 net.cpp:91] Creating Layer resx15_elewise_resx15_elewise_relu_0_split
I0813 15:18:09.297142 30714 net.cpp:469] resx15_elewise_resx15_elewise_relu_0_split <- resx15_elewise
I0813 15:18:09.297147 30714 net.cpp:443] resx15_elewise_resx15_elewise_relu_0_split -> resx15_elewise_resx15_elewise_relu_0_split_0
I0813 15:18:09.297154 30714 net.cpp:443] resx15_elewise_resx15_elewise_relu_0_split -> resx15_elewise_resx15_elewise_relu_0_split_1
I0813 15:18:09.297163 30714 net.cpp:141] Setting up resx15_elewise_resx15_elewise_relu_0_split
I0813 15:18:09.297170 30714 net.cpp:148] Top shape: 70 960 7 7 (3292800)
I0813 15:18:09.297180 30714 net.cpp:148] Top shape: 70 960 7 7 (3292800)
I0813 15:18:09.297183 30714 net.cpp:156] Memory required for data: 4695862360
I0813 15:18:09.297186 30714 layer_factory.hpp:77] Creating layer resx16_conv1
I0813 15:18:09.297194 30714 net.cpp:91] Creating Layer resx16_conv1
I0813 15:18:09.297199 30714 net.cpp:469] resx16_conv1 <- resx15_elewise_resx15_elewise_relu_0_split_0
I0813 15:18:09.297204 30714 net.cpp:443] resx16_conv1 -> resx16_conv1
I0813 15:18:09.299118 30714 net.cpp:141] Setting up resx16_conv1
I0813 15:18:09.299124 30714 net.cpp:148] Top shape: 70 240 7 7 (823200)
I0813 15:18:09.299127 30714 net.cpp:156] Memory required for data: 4699155160
I0813 15:18:09.299132 30714 layer_factory.hpp:77] Creating layer resx16_conv1_bn
I0813 15:18:09.299139 30714 net.cpp:91] Creating Layer resx16_conv1_bn
I0813 15:18:09.299142 30714 net.cpp:469] resx16_conv1_bn <- resx16_conv1
I0813 15:18:09.299149 30714 net.cpp:430] resx16_conv1_bn -> resx16_conv1 (in-place)
I0813 15:18:09.299160 30714 net.cpp:141] Setting up resx16_conv1_bn
I0813 15:18:09.299165 30714 net.cpp:148] Top shape: 70 240 7 7 (823200)
I0813 15:18:09.299167 30714 net.cpp:156] Memory required for data: 4702447960
I0813 15:18:09.299172 30714 layer_factory.hpp:77] Creating layer resx16_conv1_scale
I0813 15:18:09.299180 30714 net.cpp:91] Creating Layer resx16_conv1_scale
I0813 15:18:09.299183 30714 net.cpp:469] resx16_conv1_scale <- resx16_conv1
I0813 15:18:09.299188 30714 net.cpp:430] resx16_conv1_scale -> resx16_conv1 (in-place)
I0813 15:18:09.299196 30714 layer_factory.hpp:77] Creating layer resx16_conv1_scale
I0813 15:18:09.299207 30714 net.cpp:141] Setting up resx16_conv1_scale
I0813 15:18:09.299212 30714 net.cpp:148] Top shape: 70 240 7 7 (823200)
I0813 15:18:09.299216 30714 net.cpp:156] Memory required for data: 4705740760
I0813 15:18:09.299221 30714 layer_factory.hpp:77] Creating layer resx16_conv1_relu
I0813 15:18:09.299226 30714 net.cpp:91] Creating Layer resx16_conv1_relu
I0813 15:18:09.299229 30714 net.cpp:469] resx16_conv1_relu <- resx16_conv1
I0813 15:18:09.299233 30714 net.cpp:430] resx16_conv1_relu -> resx16_conv1 (in-place)
I0813 15:18:09.299237 30714 net.cpp:141] Setting up resx16_conv1_relu
I0813 15:18:09.299242 30714 net.cpp:148] Top shape: 70 240 7 7 (823200)
I0813 15:18:09.299244 30714 net.cpp:156] Memory required for data: 4709033560
I0813 15:18:09.299247 30714 layer_factory.hpp:77] Creating layer shuffle16
I0813 15:18:09.299253 30714 net.cpp:91] Creating Layer shuffle16
I0813 15:18:09.299257 30714 net.cpp:469] shuffle16 <- resx16_conv1
I0813 15:18:09.299262 30714 net.cpp:430] shuffle16 -> resx16_conv1 (in-place)
I0813 15:18:09.299266 30714 net.cpp:141] Setting up shuffle16
I0813 15:18:09.299270 30714 net.cpp:148] Top shape: 70 240 7 7 (823200)
I0813 15:18:09.299274 30714 net.cpp:156] Memory required for data: 4712326360
I0813 15:18:09.299278 30714 layer_factory.hpp:77] Creating layer resx16_conv2
I0813 15:18:09.299284 30714 net.cpp:91] Creating Layer resx16_conv2
I0813 15:18:09.299288 30714 net.cpp:469] resx16_conv2 <- resx16_conv1
I0813 15:18:09.299293 30714 net.cpp:443] resx16_conv2 -> resx16_conv2
I0813 15:18:09.299386 30714 net.cpp:141] Setting up resx16_conv2
I0813 15:18:09.299394 30714 net.cpp:148] Top shape: 70 240 7 7 (823200)
I0813 15:18:09.299397 30714 net.cpp:156] Memory required for data: 4715619160
I0813 15:18:09.299402 30714 layer_factory.hpp:77] Creating layer resx16_conv2_bn
I0813 15:18:09.299409 30714 net.cpp:91] Creating Layer resx16_conv2_bn
I0813 15:18:09.299413 30714 net.cpp:469] resx16_conv2_bn <- resx16_conv2
I0813 15:18:09.299417 30714 net.cpp:430] resx16_conv2_bn -> resx16_conv2 (in-place)
I0813 15:18:09.299428 30714 net.cpp:141] Setting up resx16_conv2_bn
I0813 15:18:09.299432 30714 net.cpp:148] Top shape: 70 240 7 7 (823200)
I0813 15:18:09.299435 30714 net.cpp:156] Memory required for data: 4718911960
I0813 15:18:09.299440 30714 layer_factory.hpp:77] Creating layer resx16_conv2_scale
I0813 15:18:09.299448 30714 net.cpp:91] Creating Layer resx16_conv2_scale
I0813 15:18:09.299458 30714 net.cpp:469] resx16_conv2_scale <- resx16_conv2
I0813 15:18:09.299463 30714 net.cpp:430] resx16_conv2_scale -> resx16_conv2 (in-place)
I0813 15:18:09.299469 30714 layer_factory.hpp:77] Creating layer resx16_conv2_scale
I0813 15:18:09.299481 30714 net.cpp:141] Setting up resx16_conv2_scale
I0813 15:18:09.299486 30714 net.cpp:148] Top shape: 70 240 7 7 (823200)
I0813 15:18:09.299489 30714 net.cpp:156] Memory required for data: 4722204760
I0813 15:18:09.299494 30714 layer_factory.hpp:77] Creating layer resx16_conv3
I0813 15:18:09.299500 30714 net.cpp:91] Creating Layer resx16_conv3
I0813 15:18:09.299504 30714 net.cpp:469] resx16_conv3 <- resx16_conv2
I0813 15:18:09.299509 30714 net.cpp:443] resx16_conv3 -> resx16_conv3
I0813 15:18:09.301434 30714 net.cpp:141] Setting up resx16_conv3
I0813 15:18:09.301441 30714 net.cpp:148] Top shape: 70 960 7 7 (3292800)
I0813 15:18:09.301445 30714 net.cpp:156] Memory required for data: 4735375960
I0813 15:18:09.301450 30714 layer_factory.hpp:77] Creating layer resx16_conv3_bn
I0813 15:18:09.301456 30714 net.cpp:91] Creating Layer resx16_conv3_bn
I0813 15:18:09.301460 30714 net.cpp:469] resx16_conv3_bn <- resx16_conv3
I0813 15:18:09.301465 30714 net.cpp:430] resx16_conv3_bn -> resx16_conv3 (in-place)
I0813 15:18:09.301479 30714 net.cpp:141] Setting up resx16_conv3_bn
I0813 15:18:09.301483 30714 net.cpp:148] Top shape: 70 960 7 7 (3292800)
I0813 15:18:09.301486 30714 net.cpp:156] Memory required for data: 4748547160
I0813 15:18:09.301492 30714 layer_factory.hpp:77] Creating layer resx16_conv3_scale
I0813 15:18:09.301497 30714 net.cpp:91] Creating Layer resx16_conv3_scale
I0813 15:18:09.301501 30714 net.cpp:469] resx16_conv3_scale <- resx16_conv3
I0813 15:18:09.301506 30714 net.cpp:430] resx16_conv3_scale -> resx16_conv3 (in-place)
I0813 15:18:09.301517 30714 layer_factory.hpp:77] Creating layer resx16_conv3_scale
I0813 15:18:09.301532 30714 net.cpp:141] Setting up resx16_conv3_scale
I0813 15:18:09.301535 30714 net.cpp:148] Top shape: 70 960 7 7 (3292800)
I0813 15:18:09.301538 30714 net.cpp:156] Memory required for data: 4761718360
I0813 15:18:09.301543 30714 layer_factory.hpp:77] Creating layer resx16_elewise
I0813 15:18:09.301548 30714 net.cpp:91] Creating Layer resx16_elewise
I0813 15:18:09.301551 30714 net.cpp:469] resx16_elewise <- resx15_elewise_resx15_elewise_relu_0_split_1
I0813 15:18:09.301555 30714 net.cpp:469] resx16_elewise <- resx16_conv3
I0813 15:18:09.301560 30714 net.cpp:443] resx16_elewise -> resx16_elewise
I0813 15:18:09.301565 30714 net.cpp:141] Setting up resx16_elewise
I0813 15:18:09.301569 30714 net.cpp:148] Top shape: 70 960 7 7 (3292800)
I0813 15:18:09.301573 30714 net.cpp:156] Memory required for data: 4774889560
I0813 15:18:09.301576 30714 layer_factory.hpp:77] Creating layer resx16_elewise_relu
I0813 15:18:09.301580 30714 net.cpp:91] Creating Layer resx16_elewise_relu
I0813 15:18:09.301584 30714 net.cpp:469] resx16_elewise_relu <- resx16_elewise
I0813 15:18:09.301587 30714 net.cpp:430] resx16_elewise_relu -> resx16_elewise (in-place)
I0813 15:18:09.301592 30714 net.cpp:141] Setting up resx16_elewise_relu
I0813 15:18:09.301596 30714 net.cpp:148] Top shape: 70 960 7 7 (3292800)
I0813 15:18:09.301599 30714 net.cpp:156] Memory required for data: 4788060760
I0813 15:18:09.301602 30714 layer_factory.hpp:77] Creating layer pool_ave
I0813 15:18:09.301609 30714 net.cpp:91] Creating Layer pool_ave
I0813 15:18:09.301612 30714 net.cpp:469] pool_ave <- resx16_elewise
I0813 15:18:09.301616 30714 net.cpp:443] pool_ave -> pool_ave
I0813 15:18:09.301622 30714 net.cpp:141] Setting up pool_ave
I0813 15:18:09.301628 30714 net.cpp:148] Top shape: 70 960 1 1 (67200)
I0813 15:18:09.301631 30714 net.cpp:156] Memory required for data: 4788329560
I0813 15:18:09.301635 30714 layer_factory.hpp:77] Creating layer fc1000
I0813 15:18:09.301641 30714 net.cpp:91] Creating Layer fc1000
I0813 15:18:09.301645 30714 net.cpp:469] fc1000 <- pool_ave
I0813 15:18:09.301651 30714 net.cpp:443] fc1000 -> fc1000
I0813 15:18:09.325745 30714 net.cpp:141] Setting up fc1000
I0813 15:18:09.325760 30714 net.cpp:148] Top shape: 70 1000 1 1 (70000)
I0813 15:18:09.325769 30714 net.cpp:156] Memory required for data: 4788609560
I0813 15:18:09.325775 30714 layer_factory.hpp:77] Creating layer loss
I0813 15:18:09.325783 30714 net.cpp:91] Creating Layer loss
I0813 15:18:09.325788 30714 net.cpp:469] loss <- fc1000
I0813 15:18:09.325791 30714 net.cpp:469] loss <- label
I0813 15:18:09.325798 30714 net.cpp:443] loss -> loss
I0813 15:18:09.325809 30714 layer_factory.hpp:77] Creating layer loss
…
