…
I0816 15:14:05.203474 25510 net.cpp:313] The NetState phase (0) differed from the phase (1) specified by a rule in layer accuracy
I0816 15:14:05.205282 25510 net.cpp:49] Initializing net from parameters: 
name: "shufflenet"
state {
  phase: TRAIN
}
layer {
  name: "data"
  type: "Data"
  top: "data"
  top: "label"
  include {
    phase: TRAIN
  }
  transform_param {
    scale: 0.017
    mirror: false
    crop_size: 224
    mean_value: 103.94
    mean_value: 116.78
    mean_value: 123.68
  }
  data_param {
    source: "/home/chenyao/ilsvrc12/ilsvrc12_train_lmdb"
    batch_size: 80
    backend: LMDB
  }
}
layer {
  name: "conv1"
  type: "Convolution"
  bottom: "data"
  top: "conv1"
  convolution_param {
    num_output: 24
    bias_term: false
    pad: 1
    kernel_size: 3
    stride: 2
    weight_filler {
      type: "msra"
    }
  }
}
layer {
  name: "conv1_bn"
  type: "BatchNorm"
  bottom: "conv1"
  top: "conv1"
  param {
    lr_mult: 0
    decay_mult: 0
  }
  param {
    lr_mult: 0
    decay_mult: 0
  }
  param {
    lr_mult: 0
    decay_mult: 0
  }
}
layer {
  name: "conv1_scale"
  type: "Scale"
  bottom: "conv1"
  top: "conv1"
  scale_param {
    filler {
      value: 1
    }
    bias_term: true
    bias_filler {
      value: 0
    }
  }
}
layer {
  name: "conv1_relu"
  type: "ReLU"
  bottom: "conv1"
  top: "conv1"
}
layer {
  name: "pool1"
  type: "Pooling"
  bottom: "conv1"
  top: "pool1"
  pooling_param {
    pool: MAX
    kernel_size: 3
    stride: 2
  }
}
layer {
  name: "resx1_match_conv"
  type: "Pooling"
  bottom: "pool1"
  top: "resx1_match_conv"
  pooling_param {
    pool: AVE
    kernel_size: 3
    stride: 2
  }
}
layer {
  name: "resx1_conv1"
  type: "Convolution"
  bottom: "pool1"
  top: "resx1_conv1"
  convolution_param {
    num_output: 54
    bias_term: false
    pad: 0
    kernel_size: 1
    stride: 1
    weight_filler {
      type: "msra"
    }
  }
}
layer {
  name: "resx1_conv1_bn"
  type: "BatchNorm"
  bottom: "resx1_conv1"
  top: "resx1_conv1"
  param {
    lr_mult: 0
    decay_mult: 0
  }
  param {
    lr_mult: 0
    decay_mult: 0
  }
  param {
    lr_mult: 0
    decay_mult: 0
  }
}
layer {
  name: "resx1_conv1_scale"
  type: "Scale"
  bottom: "resx1_conv1"
  top: "resx1_conv1"
  scale_param {
    filler {
      value: 1
    }
    bias_term: true
    bias_filler {
      value: 0
    }
  }
}
layer {
  name: "resx1_conv1_relu"
  type: "ReLU"
  bottom: "resx1_conv1"
  top: "resx1_conv1"
}
layer {
  name: "resx1_conv2"
  type: "ConvolutionDepthwise"
  bottom: "resx1_conv1"
  top: "resx1_conv2"
  convolution_param {
    num_output: 54
    bias_term: false
    pad: 1
    kernel_size: 3
    stride: 2
    weight_filler {
      type: "msra"
    }
  }
}
layer {
  name: "resx1_conv2_bn"
  type: "BatchNorm"
  bottom: "resx1_conv2"
  top: "resx1_conv2"
  param {
    lr_mult: 0
    decay_mult: 0
  }
  param {
    lr_mult: 0
    decay_mult: 0
  }
  param {
    lr_mult: 0
    decay_mult: 0
  }
}
layer {
  name: "resx1_conv2_scale"
  type: "Scale"
  bottom: "resx1_conv2"
  top: "resx1_conv2"
  scale_param {
    filler {
      value: 1
    }
    bias_term: true
    bias_filler {
      value: 0
    }
  }
}
layer {
  name: "resx1_conv3"
  type: "Convolution"
  bottom: "resx1_conv2"
  top: "resx1_conv3"
  convolution_param {
    num_output: 216
    bias_term: false
    pad: 0
    kernel_size: 1
    group: 3
    stride: 1
    weight_filler {
      type: "msra"
    }
  }
}
layer {
  name: "resx1_conv3_bn"
  type: "BatchNorm"
  bottom: "resx1_conv3"
  top: "resx1_conv3"
  param {
    lr_mult: 0
    decay_mult: 0
  }
  param {
    lr_mult: 0
    decay_mult: 0
  }
  param {
    lr_mult: 0
    decay_mult: 0
  }
}
layer {
  name: "resx1_conv3_scale"
  type: "Scale"
  bottom: "resx1_conv3"
  top: "resx1_conv3"
  scale_param {
    filler {
      value: 1
    }
    bias_term: true
    bias_filler {
      value: 0
    }
  }
}
layer {
  name: "resx1_concat"
  type: "Concat"
  bottom: "resx1_match_conv"
  bottom: "resx1_conv3"
  top: "resx1_concat"
}
layer {
  name: "resx1_concat_relu"
  type: "ReLU"
  bottom: "resx1_concat"
  top: "resx1_concat"
}
layer {
  name: "resx2_conv1"
  type: "Convolution"
  bottom: "resx1_concat"
  top: "resx2_conv1"
  convolution_param {
    num_output: 60
    bias_term: false
    pad: 0
    kernel_size: 1
    group: 3
    stride: 1
    weight_filler {
      type: "msra"
    }
  }
}
layer {
  name: "resx2_conv1_bn"
  type: "BatchNorm"
  bottom: "resx2_conv1"
  top: "resx2_conv1"
  param {
    lr_mult: 0
    decay_mult: 0
  }
  param {
    lr_mult: 0
    decay_mult: 0
  }
  param {
    lr_mult: 0
    decay_mult: 0
  }
}
layer {
  name: "resx2_conv1_scale"
  type: "Scale"
  bottom: "resx2_conv1"
  top: "resx2_conv1"
  scale_param {
    filler {
      value: 1
    }
    bias_term: true
    bias_filler {
      value: 0
    }
  }
}
layer {
  name: "resx2_conv1_relu"
  type: "ReLU"
  bottom: "resx2_conv1"
  top: "resx2_conv1"
}
layer {
  name: "shuffle2"
  type: "ShuffleChannel"
  bottom: "resx2_conv1"
  top: "shuffle2"
  shuffle_channel_param {
    group: 3
  }
}
layer {
  name: "resx2_conv2"
  type: "ConvolutionDepthwise"
  bottom: "shuffle2"
  top: "resx2_conv2"
  convolution_param {
    num_output: 60
    bias_term: false
    pad: 1
    kernel_size: 3
    stride: 1
    weight_filler {
      type: "msra"
    }
  }
}
layer {
  name: "resx2_conv2_bn"
  type: "BatchNorm"
  bottom: "resx2_conv2"
  top: "resx2_conv2"
  param {
    lr_mult: 0
    decay_mult: 0
  }
  param {
    lr_mult: 0
    decay_mult: 0
  }
  param {
    lr_mult: 0
    decay_mult: 0
  }
}
layer {
  name: "resx2_conv2_scale"
  type: "Scale"
  bottom: "resx2_conv2"
  top: "resx2_conv2"
  scale_param {
    filler {
      value: 1
    }
    bias_term: true
    bias_filler {
      value: 0
    }
  }
}
layer {
  name: "resx2_conv3"
  type: "Convolution"
  bottom: "resx2_conv2"
  top: "resx2_conv3"
  convolution_param {
    num_output: 240
    bias_term: false
    pad: 0
    kernel_size: 1
    group: 3
    stride: 1
    weight_filler {
      type: "msra"
    }
  }
}
layer {
  name: "resx2_conv3_bn"
  type: "BatchNorm"
  bottom: "resx2_conv3"
  top: "resx2_conv3"
  param {
    lr_mult: 0
    decay_mult: 0
  }
  param {
    lr_mult: 0
    decay_mult: 0
  }
  param {
    lr_mult: 0
    decay_mult: 0
  }
}
layer {
  name: "resx2_conv3_scale"
  type: "Scale"
  bottom: "resx2_conv3"
  top: "resx2_conv3"
  scale_param {
    filler {
      value: 1
    }
    bias_term: true
    bias_filler {
      value: 0
    }
  }
}
layer {
  name: "resx2_elewise"
  type: "Eltwise"
  bottom: "resx1_concat"
  bottom: "resx2_conv3"
  top: "resx2_elewise"
  eltwise_param {
    operation: SUM
  }
}
layer {
  name: "resx2_elewise_relu"
  type: "ReLU"
  bottom: "resx2_elewise"
  top: "resx2_elewise"
}
layer {
  name: "resx3_conv1"
  type: "Convolution"
  bottom: "resx2_elewise"
  top: "resx3_conv1"
  convolution_param {
    num_output: 60
    bias_term: false
    pad: 0
    kernel_size: 1
    group: 3
    stride: 1
    weight_filler {
      type: "msra"
    }
  }
}
layer {
  name: "resx3_conv1_bn"
  type: "BatchNorm"
  bottom: "resx3_conv1"
  top: "resx3_conv1"
  param {
    lr_mult: 0
    decay_mult: 0
  }
  param {
    lr_mult: 0
    decay_mult: 0
  }
  param {
    lr_mult: 0
    decay_mult: 0
  }
}
layer {
  name: "resx3_conv1_scale"
  type: "Scale"
  bottom: "resx3_conv1"
  top: "resx3_conv1"
  scale_param {
    filler {
      value: 1
    }
    bias_term: true
    bias_filler {
      value: 0
    }
  }
}
layer {
  name: "resx3_conv1_relu"
  type: "ReLU"
  bottom: "resx3_conv1"
  top: "resx3_conv1"
}
layer {
  name: "shuffle3"
  type: "ShuffleChannel"
  bottom: "resx3_conv1"
  top: "shuffle3"
  shuffle_channel_param {
    group: 3
  }
}
layer {
  name: "resx3_conv2"
  type: "ConvolutionDepthwise"
  bottom: "shuffle3"
  top: "resx3_conv2"
  convolution_param {
    num_output: 60
    bias_term: false
    pad: 1
    kernel_size: 3
    stride: 1
    weight_filler {
      type: "msra"
    }
  }
}
layer {
  name: "resx3_conv2_bn"
  type: "BatchNorm"
  bottom: "resx3_conv2"
  top: "resx3_conv2"
  param {
    lr_mult: 0
    decay_mult: 0
  }
  param {
    lr_mult: 0
    decay_mult: 0
  }
  param {
    lr_mult: 0
    decay_mult: 0
  }
}
layer {
  name: "resx3_conv2_scale"
  type: "Scale"
  bottom: "resx3_conv2"
  top: "resx3_conv2"
  scale_param {
    filler {
      value: 1
    }
    bias_term: true
    bias_filler {
      value: 0
    }
  }
}
layer {
  name: "resx3_conv3"
  type: "Convolution"
  bottom: "resx3_conv2"
  top: "resx3_conv3"
  convolution_param {
    num_output: 240
    bias_term: false
    pad: 0
    kernel_size: 1
    group: 3
    stride: 1
    weight_filler {
      type: "msra"
    }
  }
}
layer {
  name: "resx3_conv3_bn"
  type: "BatchNorm"
  bottom: "resx3_conv3"
  top: "resx3_conv3"
  param {
    lr_mult: 0
    decay_mult: 0
  }
  param {
    lr_mult: 0
    decay_mult: 0
  }
  param {
    lr_mult: 0
    decay_mult: 0
  }
}
layer {
  name: "resx3_conv3_scale"
  type: "Scale"
  bottom: "resx3_conv3"
  top: "resx3_conv3"
  scale_param {
    filler {
      value: 1
    }
    bias_term: true
    bias_filler {
      value: 0
    }
  }
}
layer {
  name: "resx3_elewise"
  type: "Eltwise"
  bottom: "resx2_elewise"
  bottom: "resx3_conv3"
  top: "resx3_elewise"
  eltwise_param {
    operation: SUM
  }
}
layer {
  name: "resx3_elewise_relu"
  type: "ReLU"
  bottom: "resx3_elewise"
  top: "resx3_elewise"
}
layer {
  name: "resx4_conv1"
  type: "Convolution"
  bottom: "resx3_elewise"
  top: "resx4_conv1"
  convolution_param {
    num_output: 60
    bias_term: false
    pad: 0
    kernel_size: 1
    group: 3
    stride: 1
    weight_filler {
      type: "msra"
    }
  }
}
layer {
  name: "resx4_conv1_bn"
  type: "BatchNorm"
  bottom: "resx4_conv1"
  top: "resx4_conv1"
  param {
    lr_mult: 0
    decay_mult: 0
  }
  param {
    lr_mult: 0
    decay_mult: 0
  }
  param {
    lr_mult: 0
    decay_mult: 0
  }
}
layer {
  name: "resx4_conv1_scale"
  type: "Scale"
  bottom: "resx4_conv1"
  top: "resx4_conv1"
  scale_param {
    filler {
      value: 1
    }
    bias_term: true
    bias_filler {
      value: 0
    }
  }
}
layer {
  name: "resx4_conv1_relu"
  type: "ReLU"
  bottom: "resx4_conv1"
  top: "resx4_conv1"
}
layer {
  name: "shuffle4"
  type: "ShuffleChannel"
  bottom: "resx4_conv1"
  top: "shuffle4"
  shuffle_channel_param {
    group: 3
  }
}
layer {
  name: "resx4_conv2"
  type: "ConvolutionDepthwise"
  bottom: "shuffle4"
  top: "resx4_conv2"
  convolution_param {
    num_output: 60
    bias_term: false
    pad: 1
    kernel_size: 3
    stride: 1
    weight_filler {
      type: "msra"
    }
  }
}
layer {
  name: "resx4_conv2_bn"
  type: "BatchNorm"
  bottom: "resx4_conv2"
  top: "resx4_conv2"
  param {
    lr_mult: 0
    decay_mult: 0
  }
  param {
    lr_mult: 0
    decay_mult: 0
  }
  param {
    lr_mult: 0
    decay_mult: 0
  }
}
layer {
  name: "resx4_conv2_scale"
  type: "Scale"
  bottom: "resx4_conv2"
  top: "resx4_conv2"
  scale_param {
    filler {
      value: 1
    }
    bias_term: true
    bias_filler {
      value: 0
    }
  }
}
layer {
  name: "resx4_conv3"
  type: "Convolution"
  bottom: "resx4_conv2"
  top: "resx4_conv3"
  convolution_param {
    num_output: 240
    bias_term: false
    pad: 0
    kernel_size: 1
    group: 3
    stride: 1
    weight_filler {
      type: "msra"
    }
  }
}
layer {
  name: "resx4_conv3_bn"
  type: "BatchNorm"
  bottom: "resx4_conv3"
  top: "resx4_conv3"
  param {
    lr_mult: 0
    decay_mult: 0
  }
  param {
    lr_mult: 0
    decay_mult: 0
  }
  param {
    lr_mult: 0
    decay_mult: 0
  }
}
layer {
  name: "resx4_conv3_scale"
  type: "Scale"
  bottom: "resx4_conv3"
  top: "resx4_conv3"
  scale_param {
    filler {
      value: 1
    }
    bias_term: true
    bias_filler {
      value: 0
    }
  }
}
layer {
  name: "resx4_elewise"
  type: "Eltwise"
  bottom: "resx3_elewise"
  bottom: "resx4_conv3"
  top: "resx4_elewise"
  eltwise_param {
    operation: SUM
  }
}
layer {
  name: "resx4_elewise_relu"
  type: "ReLU"
  bottom: "resx4_elewise"
  top: "resx4_elewise"
}
layer {
  name: "resx5_match_conv"
  type: "Pooling"
  bottom: "resx4_elewise"
  top: "resx5_match_conv"
  pooling_param {
    pool: AVE
    kernel_size: 3
    stride: 2
  }
}
layer {
  name: "resx5_conv1"
  type: "Convolution"
  bottom: "resx4_elewise"
  top: "resx5_conv1"
  convolution_param {
    num_output: 60
    bias_term: false
    pad: 0
    kernel_size: 1
    group: 3
    stride: 1
    weight_filler {
      type: "msra"
    }
  }
}
layer {
  name: "resx5_conv1_bn"
  type: "BatchNorm"
  bottom: "resx5_conv1"
  top: "resx5_conv1"
  param {
    lr_mult: 0
    decay_mult: 0
  }
  param {
    lr_mult: 0
    decay_mult: 0
  }
  param {
    lr_mult: 0
    decay_mult: 0
  }
}
layer {
  name: "resx5_conv1_scale"
  type: "Scale"
  bottom: "resx5_conv1"
  top: "resx5_conv1"
  scale_param {
    filler {
      value: 1
    }
    bias_term: true
    bias_filler {
      value: 0
    }
  }
}
layer {
  name: "resx5_conv1_relu"
  type: "ReLU"
  bottom: "resx5_conv1"
  top: "resx5_conv1"
}
layer {
  name: "shuffle5"
  type: "ShuffleChannel"
  bottom: "resx5_conv1"
  top: "shuffle5"
  shuffle_channel_param {
    group: 3
  }
}
layer {
  name: "resx5_conv2"
  type: "ConvolutionDepthwise"
  bottom: "shuffle5"
  top: "resx5_conv2"
  convolution_param {
    num_output: 60
    bias_term: false
    pad: 1
    kernel_size: 3
    stride: 2
    weight_filler {
      type: "msra"
    }
  }
}
layer {
  name: "resx5_conv2_bn"
  type: "BatchNorm"
  bottom: "resx5_conv2"
  top: "resx5_conv2"
  param {
    lr_mult: 0
    decay_mult: 0
  }
  param {
    lr_mult: 0
    decay_mult: 0
  }
  param {
    lr_mult: 0
    decay_mult: 0
  }
}
layer {
  name: "resx5_conv2_scale"
  type: "Scale"
  bottom: "resx5_conv2"
  top: "resx5_conv2"
  scale_param {
    filler {
      value: 1
    }
    bias_term: true
    bias_filler {
      value: 0
    }
  }
}
layer {
  name: "resx5_conv3"
  type: "Convolution"
  bottom: "resx5_conv2"
  top: "resx5_conv3"
  convolution_param {
    num_output: 240
    bias_term: false
    pad: 0
    kernel_size: 1
    group: 3
    stride: 1
    weight_filler {
      type: "msra"
    }
  }
}
layer {
  name: "resx5_conv3_bn"
  type: "BatchNorm"
  bottom: "resx5_conv3"
  top: "resx5_conv3"
  param {
    lr_mult: 0
    decay_mult: 0
  }
  param {
    lr_mult: 0
    decay_mult: 0
  }
  param {
    lr_mult: 0
    decay_mult: 0
  }
}
layer {
  name: "resx5_conv3_scale"
  type: "Scale"
  bottom: "resx5_conv3"
  top: "resx5_conv3"
  scale_param {
    filler {
      value: 1
    }
    bias_term: true
    bias_filler {
      value: 0
    }
  }
}
layer {
  name: "resx5_concat"
  type: "Concat"
  bottom: "resx5_match_conv"
  bottom: "resx5_conv3"
  top: "resx5_concat"
}
layer {
  name: "resx5_concat_relu"
  type: "ReLU"
  bottom: "resx5_concat"
  top: "resx5_concat"
}
layer {
  name: "resx6_conv1"
  type: "Convolution"
  bottom: "resx5_concat"
  top: "resx6_conv1"
  convolution_param {
    num_output: 120
    bias_term: false
    pad: 0
    kernel_size: 1
    group: 3
    stride: 1
    weight_filler {
      type: "msra"
    }
  }
}
layer {
  name: "resx6_conv1_bn"
  type: "BatchNorm"
  bottom: "resx6_conv1"
  top: "resx6_conv1"
  param {
    lr_mult: 0
    decay_mult: 0
  }
  param {
    lr_mult: 0
    decay_mult: 0
  }
  param {
    lr_mult: 0
    decay_mult: 0
  }
}
layer {
  name: "resx6_conv1_scale"
  type: "Scale"
  bottom: "resx6_conv1"
  top: "resx6_conv1"
  scale_param {
    filler {
      value: 1
    }
    bias_term: true
    bias_filler {
      value: 0
    }
  }
}
layer {
  name: "resx6_conv1_relu"
  type: "ReLU"
  bottom: "resx6_conv1"
  top: "resx6_conv1"
}
layer {
  name: "shuffle6"
  type: "ShuffleChannel"
  bottom: "resx6_conv1"
  top: "shuffle6"
  shuffle_channel_param {
    group: 3
  }
}
layer {
  name: "resx6_conv2"
  type: "ConvolutionDepthwise"
  bottom: "shuffle6"
  top: "resx6_conv2"
  convolution_param {
    num_output: 120
    bias_term: false
    pad: 1
    kernel_size: 3
    stride: 1
    weight_filler {
      type: "msra"
    }
  }
}
layer {
  name: "resx6_conv2_bn"
  type: "BatchNorm"
  bottom: "resx6_conv2"
  top: "resx6_conv2"
  param {
    lr_mult: 0
    decay_mult: 0
  }
  param {
    lr_mult: 0
    decay_mult: 0
  }
  param {
    lr_mult: 0
    decay_mult: 0
  }
}
layer {
  name: "resx6_conv2_scale"
  type: "Scale"
  bottom: "resx6_conv2"
  top: "resx6_conv2"
  scale_param {
    filler {
      value: 1
    }
    bias_term: true
    bias_filler {
      value: 0
    }
  }
}
layer {
  name: "resx6_conv3"
  type: "Convolution"
  bottom: "resx6_conv2"
  top: "resx6_conv3"
  convolution_param {
    num_output: 480
    bias_term: false
    pad: 0
    kernel_size: 1
    group: 3
    stride: 1
    weight_filler {
      type: "msra"
    }
  }
}
layer {
  name: "resx6_conv3_bn"
  type: "BatchNorm"
  bottom: "resx6_conv3"
  top: "resx6_conv3"
  param {
    lr_mult: 0
    decay_mult: 0
  }
  param {
    lr_mult: 0
    decay_mult: 0
  }
  param {
    lr_mult: 0
    decay_mult: 0
  }
}
layer {
  name: "resx6_conv3_scale"
  type: "Scale"
  bottom: "resx6_conv3"
  top: "resx6_conv3"
  scale_param {
    filler {
      value: 1
    }
    bias_term: true
    bias_filler {
      value: 0
    }
  }
}
layer {
  name: "resx6_elewise"
  type: "Eltwise"
  bottom: "resx5_concat"
  bottom: "resx6_conv3"
  top: "resx6_elewise"
  eltwise_param {
    operation: SUM
  }
}
layer {
  name: "resx6_elewise_relu"
  type: "ReLU"
  bottom: "resx6_elewise"
  top: "resx6_elewise"
}
layer {
  name: "resx7_conv1"
  type: "Convolution"
  bottom: "resx6_elewise"
  top: "resx7_conv1"
  convolution_param {
    num_output: 120
    bias_term: false
    pad: 0
    kernel_size: 1
    group: 3
    stride: 1
    weight_filler {
      type: "msra"
    }
  }
}
layer {
  name: "resx7_conv1_bn"
  type: "BatchNorm"
  bottom: "resx7_conv1"
  top: "resx7_conv1"
  param {
    lr_mult: 0
    decay_mult: 0
  }
  param {
    lr_mult: 0
    decay_mult: 0
  }
  param {
    lr_mult: 0
    decay_mult: 0
  }
}
layer {
  name: "resx7_conv1_scale"
  type: "Scale"
  bottom: "resx7_conv1"
  top: "resx7_conv1"
  scale_param {
    filler {
      value: 1
    }
    bias_term: true
    bias_filler {
      value: 0
    }
  }
}
layer {
  name: "resx7_conv1_relu"
  type: "ReLU"
  bottom: "resx7_conv1"
  top: "resx7_conv1"
}
layer {
  name: "shuffle7"
  type: "ShuffleChannel"
  bottom: "resx7_conv1"
  top: "shuffle7"
  shuffle_channel_param {
    group: 3
  }
}
layer {
  name: "resx7_conv2"
  type: "ConvolutionDepthwise"
  bottom: "shuffle7"
  top: "resx7_conv2"
  convolution_param {
    num_output: 120
    bias_term: false
    pad: 1
    kernel_size: 3
    stride: 1
    weight_filler {
      type: "msra"
    }
  }
}
layer {
  name: "resx7_conv2_bn"
  type: "BatchNorm"
  bottom: "resx7_conv2"
  top: "resx7_conv2"
  param {
    lr_mult: 0
    decay_mult: 0
  }
  param {
    lr_mult: 0
    decay_mult: 0
  }
  param {
    lr_mult: 0
    decay_mult: 0
  }
}
layer {
  name: "resx7_conv2_scale"
  type: "Scale"
  bottom: "resx7_conv2"
  top: "resx7_conv2"
  scale_param {
    filler {
      value: 1
    }
    bias_term: true
    bias_filler {
      value: 0
    }
  }
}
layer {
  name: "resx7_conv3"
  type: "Convolution"
  bottom: "resx7_conv2"
  top: "resx7_conv3"
  convolution_param {
    num_output: 480
    bias_term: false
    pad: 0
    kernel_size: 1
    group: 3
    stride: 1
    weight_filler {
      type: "msra"
    }
  }
}
layer {
  name: "resx7_conv3_bn"
  type: "BatchNorm"
  bottom: "resx7_conv3"
  top: "resx7_conv3"
  param {
    lr_mult: 0
    decay_mult: 0
  }
  param {
    lr_mult: 0
    decay_mult: 0
  }
  param {
    lr_mult: 0
    decay_mult: 0
  }
}
layer {
  name: "resx7_conv3_scale"
  type: "Scale"
  bottom: "resx7_conv3"
  top: "resx7_conv3"
  scale_param {
    filler {
      value: 1
    }
    bias_term: true
    bias_filler {
      value: 0
    }
  }
}
layer {
  name: "resx7_elewise"
  type: "Eltwise"
  bottom: "resx6_elewise"
  bottom: "resx7_conv3"
  top: "resx7_elewise"
  eltwise_param {
    operation: SUM
  }
}
layer {
  name: "resx7_elewise_relu"
  type: "ReLU"
  bottom: "resx7_elewise"
  top: "resx7_elewise"
}
layer {
  name: "resx8_conv1"
  type: "Convolution"
  bottom: "resx7_elewise"
  top: "resx8_conv1"
  convolution_param {
    num_output: 120
    bias_term: false
    pad: 0
    kernel_size: 1
    group: 3
    stride: 1
    weight_filler {
      type: "msra"
    }
  }
}
layer {
  name: "resx8_conv1_bn"
  type: "BatchNorm"
  bottom: "resx8_conv1"
  top: "resx8_conv1"
  param {
    lr_mult: 0
    decay_mult: 0
  }
  param {
    lr_mult: 0
    decay_mult: 0
  }
  param {
    lr_mult: 0
    decay_mult: 0
  }
}
layer {
  name: "resx8_conv1_scale"
  type: "Scale"
  bottom: "resx8_conv1"
  top: "resx8_conv1"
  scale_param {
    filler {
      value: 1
    }
    bias_term: true
    bias_filler {
      value: 0
    }
  }
}
layer {
  name: "resx8_conv1_relu"
  type: "ReLU"
  bottom: "resx8_conv1"
  top: "resx8_conv1"
}
layer {
  name: "shuffle8"
  type: "ShuffleChannel"
  bottom: "resx8_conv1"
  top: "shuffle8"
  shuffle_channel_param {
    group: 3
  }
}
layer {
  name: "resx8_conv2"
  type: "ConvolutionDepthwise"
  bottom: "shuffle8"
  top: "resx8_conv2"
  convolution_param {
    num_output: 120
    bias_term: false
    pad: 1
    kernel_size: 3
    stride: 1
    weight_filler {
      type: "msra"
    }
  }
}
layer {
  name: "resx8_conv2_bn"
  type: "BatchNorm"
  bottom: "resx8_conv2"
  top: "resx8_conv2"
  param {
    lr_mult: 0
    decay_mult: 0
  }
  param {
    lr_mult: 0
    decay_mult: 0
  }
  param {
    lr_mult: 0
    decay_mult: 0
  }
}
layer {
  name: "resx8_conv2_scale"
  type: "Scale"
  bottom: "resx8_conv2"
  top: "resx8_conv2"
  scale_param {
    filler {
      value: 1
    }
    bias_term: true
    bias_filler {
      value: 0
    }
  }
}
layer {
  name: "resx8_conv3"
  type: "Convolution"
  bottom: "resx8_conv2"
  top: "resx8_conv3"
  convolution_param {
    num_output: 480
    bias_term: false
    pad: 0
    kernel_size: 1
    group: 3
    stride: 1
    weight_filler {
      type: "msra"
    }
  }
}
layer {
  name: "resx8_conv3_bn"
  type: "BatchNorm"
  bottom: "resx8_conv3"
  top: "resx8_conv3"
  param {
    lr_mult: 0
    decay_mult: 0
  }
  param {
    lr_mult: 0
    decay_mult: 0
  }
  param {
    lr_mult: 0
    decay_mult: 0
  }
}
layer {
  name: "resx8_conv3_scale"
  type: "Scale"
  bottom: "resx8_conv3"
  top: "resx8_conv3"
  scale_param {
    filler {
      value: 1
    }
    bias_term: true
    bias_filler {
      value: 0
    }
  }
}
layer {
  name: "resx8_elewise"
  type: "Eltwise"
  bottom: "resx7_elewise"
  bottom: "resx8_conv3"
  top: "resx8_elewise"
  eltwise_param {
    operation: SUM
  }
}
layer {
  name: "resx8_elewise_relu"
  type: "ReLU"
  bottom: "resx8_elewise"
  top: "resx8_elewise"
}
layer {
  name: "resx9_conv1"
  type: "Convolution"
  bottom: "resx8_elewise"
  top: "resx9_conv1"
  convolution_param {
    num_output: 120
    bias_term: false
    pad: 0
    kernel_size: 1
    group: 3
    stride: 1
    weight_filler {
      type: "msra"
    }
  }
}
layer {
  name: "resx9_conv1_bn"
  type: "BatchNorm"
  bottom: "resx9_conv1"
  top: "resx9_conv1"
  param {
    lr_mult: 0
    decay_mult: 0
  }
  param {
    lr_mult: 0
    decay_mult: 0
  }
  param {
    lr_mult: 0
    decay_mult: 0
  }
}
layer {
  name: "resx9_conv1_scale"
  type: "Scale"
  bottom: "resx9_conv1"
  top: "resx9_conv1"
  scale_param {
    filler {
      value: 1
    }
    bias_term: true
    bias_filler {
      value: 0
    }
  }
}
layer {
  name: "resx9_conv1_relu"
  type: "ReLU"
  bottom: "resx9_conv1"
  top: "resx9_conv1"
}
layer {
  name: "shuffle9"
  type: "ShuffleChannel"
  bottom: "resx9_conv1"
  top: "shuffle9"
  shuffle_channel_param {
    group: 3
  }
}
layer {
  name: "resx9_conv2"
  type: "ConvolutionDepthwise"
  bottom: "shuffle9"
  top: "resx9_conv2"
  convolution_param {
    num_output: 120
    bias_term: false
    pad: 1
    kernel_size: 3
    stride: 1
    weight_filler {
      type: "msra"
    }
  }
}
layer {
  name: "resx9_conv2_bn"
  type: "BatchNorm"
  bottom: "resx9_conv2"
  top: "resx9_conv2"
  param {
    lr_mult: 0
    decay_mult: 0
  }
  param {
    lr_mult: 0
    decay_mult: 0
  }
  param {
    lr_mult: 0
    decay_mult: 0
  }
}
layer {
  name: "resx9_conv2_scale"
  type: "Scale"
  bottom: "resx9_conv2"
  top: "resx9_conv2"
  scale_param {
    filler {
      value: 1
    }
    bias_term: true
    bias_filler {
      value: 0
    }
  }
}
layer {
  name: "resx9_conv3"
  type: "Convolution"
  bottom: "resx9_conv2"
  top: "resx9_conv3"
  convolution_param {
    num_output: 480
    bias_term: false
    pad: 0
    kernel_size: 1
    group: 3
    stride: 1
    weight_filler {
      type: "msra"
    }
  }
}
layer {
  name: "resx9_conv3_bn"
  type: "BatchNorm"
  bottom: "resx9_conv3"
  top: "resx9_conv3"
  param {
    lr_mult: 0
    decay_mult: 0
  }
  param {
    lr_mult: 0
    decay_mult: 0
  }
  param {
    lr_mult: 0
    decay_mult: 0
  }
}
layer {
  name: "resx9_conv3_scale"
  type: "Scale"
  bottom: "resx9_conv3"
  top: "resx9_conv3"
  scale_param {
    filler {
      value: 1
    }
    bias_term: true
    bias_filler {
      value: 0
    }
  }
}
layer {
  name: "resx9_elewise"
  type: "Eltwise"
  bottom: "resx8_elewise"
  bottom: "resx9_conv3"
  top: "resx9_elewise"
  eltwise_param {
    operation: SUM
  }
}
layer {
  name: "resx9_elewise_relu"
  type: "ReLU"
  bottom: "resx9_elewise"
  top: "resx9_elewise"
}
layer {
  name: "resx10_conv1"
  type: "Convolution"
  bottom: "resx9_elewise"
  top: "resx10_conv1"
  convolution_param {
    num_output: 120
    bias_term: false
    pad: 0
    kernel_size: 1
    group: 3
    stride: 1
    weight_filler {
      type: "msra"
    }
  }
}
layer {
  name: "resx10_conv1_bn"
  type: "BatchNorm"
  bottom: "resx10_conv1"
  top: "resx10_conv1"
  param {
    lr_mult: 0
    decay_mult: 0
  }
  param {
    lr_mult: 0
    decay_mult: 0
  }
  param {
    lr_mult: 0
    decay_mult: 0
  }
}
layer {
  name: "resx10_conv1_scale"
  type: "Scale"
  bottom: "resx10_conv1"
  top: "resx10_conv1"
  scale_param {
    filler {
      value: 1
    }
    bias_term: true
    bias_filler {
      value: 0
    }
  }
}
layer {
  name: "resx10_conv1_relu"
  type: "ReLU"
  bottom: "resx10_conv1"
  top: "resx10_conv1"
}
layer {
  name: "shuffle10"
  type: "ShuffleChannel"
  bottom: "resx10_conv1"
  top: "shuffle10"
  shuffle_channel_param {
    group: 3
  }
}
layer {
  name: "resx10_conv2"
  type: "ConvolutionDepthwise"
  bottom: "shuffle10"
  top: "resx10_conv2"
  convolution_param {
    num_output: 120
    bias_term: false
    pad: 1
    kernel_size: 3
    stride: 1
    weight_filler {
      type: "msra"
    }
  }
}
layer {
  name: "resx10_conv2_bn"
  type: "BatchNorm"
  bottom: "resx10_conv2"
  top: "resx10_conv2"
  param {
    lr_mult: 0
    decay_mult: 0
  }
  param {
    lr_mult: 0
    decay_mult: 0
  }
  param {
    lr_mult: 0
    decay_mult: 0
  }
}
layer {
  name: "resx10_conv2_scale"
  type: "Scale"
  bottom: "resx10_conv2"
  top: "resx10_conv2"
  scale_param {
    filler {
      value: 1
    }
    bias_term: true
    bias_filler {
      value: 0
    }
  }
}
layer {
  name: "resx10_conv3"
  type: "Convolution"
  bottom: "resx10_conv2"
  top: "resx10_conv3"
  convolution_param {
    num_output: 480
    bias_term: false
    pad: 0
    kernel_size: 1
    group: 3
    stride: 1
    weight_filler {
      type: "msra"
    }
  }
}
layer {
  name: "resx10_conv3_bn"
  type: "BatchNorm"
  bottom: "resx10_conv3"
  top: "resx10_conv3"
  param {
    lr_mult: 0
    decay_mult: 0
  }
  param {
    lr_mult: 0
    decay_mult: 0
  }
  param {
    lr_mult: 0
    decay_mult: 0
  }
}
layer {
  name: "resx10_conv3_scale"
  type: "Scale"
  bottom: "resx10_conv3"
  top: "resx10_conv3"
  scale_param {
    filler {
      value: 1
    }
    bias_term: true
    bias_filler {
      value: 0
    }
  }
}
layer {
  name: "resx10_elewise"
  type: "Eltwise"
  bottom: "resx9_elewise"
  bottom: "resx10_conv3"
  top: "resx10_elewise"
  eltwise_param {
    operation: SUM
  }
}
layer {
  name: "resx10_elewise_relu"
  type: "ReLU"
  bottom: "resx10_elewise"
  top: "resx10_elewise"
}
layer {
  name: "resx11_conv1"
  type: "Convolution"
  bottom: "resx10_elewise"
  top: "resx11_conv1"
  convolution_param {
    num_output: 120
    bias_term: false
    pad: 0
    kernel_size: 1
    group: 3
    stride: 1
    weight_filler {
      type: "msra"
    }
  }
}
layer {
  name: "resx11_conv1_bn"
  type: "BatchNorm"
  bottom: "resx11_conv1"
  top: "resx11_conv1"
  param {
    lr_mult: 0
    decay_mult: 0
  }
  param {
    lr_mult: 0
    decay_mult: 0
  }
  param {
    lr_mult: 0
    decay_mult: 0
  }
}
layer {
  name: "resx11_conv1_scale"
  type: "Scale"
  bottom: "resx11_conv1"
  top: "resx11_conv1"
  scale_param {
    filler {
      value: 1
    }
    bias_term: true
    bias_filler {
      value: 0
    }
  }
}
layer {
  name: "resx11_conv1_relu"
  type: "ReLU"
  bottom: "resx11_conv1"
  top: "resx11_conv1"
}
layer {
  name: "shuffle11"
  type: "ShuffleChannel"
  bottom: "resx11_conv1"
  top: "shuffle11"
  shuffle_channel_param {
    group: 3
  }
}
layer {
  name: "resx11_conv2"
  type: "ConvolutionDepthwise"
  bottom: "shuffle11"
  top: "resx11_conv2"
  convolution_param {
    num_output: 120
    bias_term: false
    pad: 1
    kernel_size: 3
    stride: 1
    weight_filler {
      type: "msra"
    }
  }
}
layer {
  name: "resx11_conv2_bn"
  type: "BatchNorm"
  bottom: "resx11_conv2"
  top: "resx11_conv2"
  param {
    lr_mult: 0
    decay_mult: 0
  }
  param {
    lr_mult: 0
    decay_mult: 0
  }
  param {
    lr_mult: 0
    decay_mult: 0
  }
}
layer {
  name: "resx11_conv2_scale"
  type: "Scale"
  bottom: "resx11_conv2"
  top: "resx11_conv2"
  scale_param {
    filler {
      value: 1
    }
    bias_term: true
    bias_filler {
      value: 0
    }
  }
}
layer {
  name: "resx11_conv3"
  type: "Convolution"
  bottom: "resx11_conv2"
  top: "resx11_conv3"
  convolution_param {
    num_output: 480
    bias_term: false
    pad: 0
    kernel_size:
I0816 15:14:05.213999 25510 layer_factory.hpp:77] Creating layer data
I0816 15:14:05.223989 25510 net.cpp:91] Creating Layer data
I0816 15:14:05.224021 25510 net.cpp:443] data -> data
I0816 15:14:05.224093 25510 net.cpp:443] data -> label
I0816 15:14:05.279446 25532 db_lmdb.cpp:35] Opened lmdb /home/chenyao/ilsvrc12/ilsvrc12_train_lmdb
I0816 15:14:05.674870 25510 data_layer.cpp:41] output data size: 80,3,224,224
I0816 15:14:05.787936 25510 net.cpp:141] Setting up data
I0816 15:14:05.787999 25510 net.cpp:148] Top shape: 80 3 224 224 (12042240)
I0816 15:14:05.788007 25510 net.cpp:148] Top shape: 80 (80)
I0816 15:14:05.788010 25510 net.cpp:156] Memory required for data: 48169280
I0816 15:14:05.788022 25510 layer_factory.hpp:77] Creating layer conv1
I0816 15:14:05.788060 25510 net.cpp:91] Creating Layer conv1
I0816 15:14:05.788069 25510 net.cpp:469] conv1 <- data
I0816 15:14:05.788084 25510 net.cpp:443] conv1 -> conv1
I0816 15:14:07.679599 25510 net.cpp:141] Setting up conv1
I0816 15:14:07.679647 25510 net.cpp:148] Top shape: 80 24 112 112 (24084480)
I0816 15:14:07.679652 25510 net.cpp:156] Memory required for data: 144507200
I0816 15:14:07.679667 25510 layer_factory.hpp:77] Creating layer conv1_bn
I0816 15:14:07.679689 25510 net.cpp:91] Creating Layer conv1_bn
I0816 15:14:07.679695 25510 net.cpp:469] conv1_bn <- conv1
I0816 15:14:07.679702 25510 net.cpp:430] conv1_bn -> conv1 (in-place)
I0816 15:14:07.680420 25510 net.cpp:141] Setting up conv1_bn
I0816 15:14:07.680434 25510 net.cpp:148] Top shape: 80 24 112 112 (24084480)
I0816 15:14:07.680438 25510 net.cpp:156] Memory required for data: 240845120
I0816 15:14:07.680449 25510 layer_factory.hpp:77] Creating layer conv1_scale
I0816 15:14:07.680460 25510 net.cpp:91] Creating Layer conv1_scale
I0816 15:14:07.680471 25510 net.cpp:469] conv1_scale <- conv1
I0816 15:14:07.680487 25510 net.cpp:430] conv1_scale -> conv1 (in-place)
I0816 15:14:07.680531 25510 layer_factory.hpp:77] Creating layer conv1_scale
I0816 15:14:07.680622 25510 net.cpp:141] Setting up conv1_scale
I0816 15:14:07.680630 25510 net.cpp:148] Top shape: 80 24 112 112 (24084480)
I0816 15:14:07.680634 25510 net.cpp:156] Memory required for data: 337183040
I0816 15:14:07.680640 25510 layer_factory.hpp:77] Creating layer conv1_relu
I0816 15:14:07.680649 25510 net.cpp:91] Creating Layer conv1_relu
I0816 15:14:07.680652 25510 net.cpp:469] conv1_relu <- conv1
I0816 15:14:07.680656 25510 net.cpp:430] conv1_relu -> conv1 (in-place)
I0816 15:14:07.680950 25510 net.cpp:141] Setting up conv1_relu
I0816 15:14:07.680963 25510 net.cpp:148] Top shape: 80 24 112 112 (24084480)
I0816 15:14:07.680968 25510 net.cpp:156] Memory required for data: 433520960
I0816 15:14:07.680971 25510 layer_factory.hpp:77] Creating layer pool1
I0816 15:14:07.680979 25510 net.cpp:91] Creating Layer pool1
I0816 15:14:07.680984 25510 net.cpp:469] pool1 <- conv1
I0816 15:14:07.680989 25510 net.cpp:443] pool1 -> pool1
I0816 15:14:07.681037 25510 net.cpp:141] Setting up pool1
I0816 15:14:07.681044 25510 net.cpp:148] Top shape: 80 24 56 56 (6021120)
I0816 15:14:07.681048 25510 net.cpp:156] Memory required for data: 457605440
I0816 15:14:07.681051 25510 layer_factory.hpp:77] Creating layer pool1_pool1_0_split
I0816 15:14:07.692962 25510 net.cpp:91] Creating Layer pool1_pool1_0_split
I0816 15:14:07.692977 25510 net.cpp:469] pool1_pool1_0_split <- pool1
I0816 15:14:07.692984 25510 net.cpp:443] pool1_pool1_0_split -> pool1_pool1_0_split_0
I0816 15:14:07.692992 25510 net.cpp:443] pool1_pool1_0_split -> pool1_pool1_0_split_1
I0816 15:14:07.693030 25510 net.cpp:141] Setting up pool1_pool1_0_split
I0816 15:14:07.693038 25510 net.cpp:148] Top shape: 80 24 56 56 (6021120)
I0816 15:14:07.693042 25510 net.cpp:148] Top shape: 80 24 56 56 (6021120)
I0816 15:14:07.693047 25510 net.cpp:156] Memory required for data: 505774400
I0816 15:14:07.693049 25510 layer_factory.hpp:77] Creating layer resx1_match_conv
I0816 15:14:07.693058 25510 net.cpp:91] Creating Layer resx1_match_conv
I0816 15:14:07.693061 25510 net.cpp:469] resx1_match_conv <- pool1_pool1_0_split_0
I0816 15:14:07.693066 25510 net.cpp:443] resx1_match_conv -> resx1_match_conv
I0816 15:14:07.698074 25510 net.cpp:141] Setting up resx1_match_conv
I0816 15:14:07.698089 25510 net.cpp:148] Top shape: 80 24 28 28 (1505280)
I0816 15:14:07.698093 25510 net.cpp:156] Memory required for data: 511795520
I0816 15:14:07.698097 25510 layer_factory.hpp:77] Creating layer resx1_conv1
I0816 15:14:07.698110 25510 net.cpp:91] Creating Layer resx1_conv1
I0816 15:14:07.698114 25510 net.cpp:469] resx1_conv1 <- pool1_pool1_0_split_1
I0816 15:14:07.698120 25510 net.cpp:443] resx1_conv1 -> resx1_conv1
I0816 15:14:07.699502 25510 net.cpp:141] Setting up resx1_conv1
I0816 15:14:07.699517 25510 net.cpp:148] Top shape: 80 54 56 56 (13547520)
I0816 15:14:07.699522 25510 net.cpp:156] Memory required for data: 565985600
I0816 15:14:07.699527 25510 layer_factory.hpp:77] Creating layer resx1_conv1_bn
I0816 15:14:07.699534 25510 net.cpp:91] Creating Layer resx1_conv1_bn
I0816 15:14:07.699538 25510 net.cpp:469] resx1_conv1_bn <- resx1_conv1
I0816 15:14:07.699543 25510 net.cpp:430] resx1_conv1_bn -> resx1_conv1 (in-place)
I0816 15:14:07.699688 25510 net.cpp:141] Setting up resx1_conv1_bn
I0816 15:14:07.699695 25510 net.cpp:148] Top shape: 80 54 56 56 (13547520)
I0816 15:14:07.699699 25510 net.cpp:156] Memory required for data: 620175680
I0816 15:14:07.699708 25510 layer_factory.hpp:77] Creating layer resx1_conv1_scale
I0816 15:14:07.699717 25510 net.cpp:91] Creating Layer resx1_conv1_scale
I0816 15:14:07.699721 25510 net.cpp:469] resx1_conv1_scale <- resx1_conv1
I0816 15:14:07.699726 25510 net.cpp:430] resx1_conv1_scale -> resx1_conv1 (in-place)
I0816 15:14:07.699761 25510 layer_factory.hpp:77] Creating layer resx1_conv1_scale
I0816 15:14:07.699857 25510 net.cpp:141] Setting up resx1_conv1_scale
I0816 15:14:07.699870 25510 net.cpp:148] Top shape: 80 54 56 56 (13547520)
I0816 15:14:07.699879 25510 net.cpp:156] Memory required for data: 674365760
I0816 15:14:07.699885 25510 layer_factory.hpp:77] Creating layer resx1_conv1_relu
I0816 15:14:07.699892 25510 net.cpp:91] Creating Layer resx1_conv1_relu
I0816 15:14:07.699895 25510 net.cpp:469] resx1_conv1_relu <- resx1_conv1
I0816 15:14:07.699899 25510 net.cpp:430] resx1_conv1_relu -> resx1_conv1 (in-place)
I0816 15:14:07.700037 25510 net.cpp:141] Setting up resx1_conv1_relu
I0816 15:14:07.700047 25510 net.cpp:148] Top shape: 80 54 56 56 (13547520)
I0816 15:14:07.700052 25510 net.cpp:156] Memory required for data: 728555840
I0816 15:14:07.700054 25510 layer_factory.hpp:77] Creating layer resx1_conv2
I0816 15:14:07.700063 25510 net.cpp:91] Creating Layer resx1_conv2
I0816 15:14:07.700067 25510 net.cpp:469] resx1_conv2 <- resx1_conv1
I0816 15:14:07.700073 25510 net.cpp:443] resx1_conv2 -> resx1_conv2
I0816 15:14:07.700389 25510 net.cpp:141] Setting up resx1_conv2
I0816 15:14:07.700403 25510 net.cpp:148] Top shape: 80 54 28 28 (3386880)
I0816 15:14:07.700407 25510 net.cpp:156] Memory required for data: 742103360
I0816 15:14:07.700412 25510 layer_factory.hpp:77] Creating layer resx1_conv2_bn
I0816 15:14:07.700422 25510 net.cpp:91] Creating Layer resx1_conv2_bn
I0816 15:14:07.700425 25510 net.cpp:469] resx1_conv2_bn <- resx1_conv2
I0816 15:14:07.700430 25510 net.cpp:430] resx1_conv2_bn -> resx1_conv2 (in-place)
I0816 15:14:07.700579 25510 net.cpp:141] Setting up resx1_conv2_bn
I0816 15:14:07.700587 25510 net.cpp:148] Top shape: 80 54 28 28 (3386880)
I0816 15:14:07.700590 25510 net.cpp:156] Memory required for data: 755650880
I0816 15:14:07.700598 25510 layer_factory.hpp:77] Creating layer resx1_conv2_scale
I0816 15:14:07.700604 25510 net.cpp:91] Creating Layer resx1_conv2_scale
I0816 15:14:07.700608 25510 net.cpp:469] resx1_conv2_scale <- resx1_conv2
I0816 15:14:07.700613 25510 net.cpp:430] resx1_conv2_scale -> resx1_conv2 (in-place)
I0816 15:14:07.700649 25510 layer_factory.hpp:77] Creating layer resx1_conv2_scale
I0816 15:14:07.700737 25510 net.cpp:141] Setting up resx1_conv2_scale
I0816 15:14:07.700747 25510 net.cpp:148] Top shape: 80 54 28 28 (3386880)
I0816 15:14:07.700749 25510 net.cpp:156] Memory required for data: 769198400
I0816 15:14:07.700757 25510 layer_factory.hpp:77] Creating layer resx1_conv3
I0816 15:14:07.700768 25510 net.cpp:91] Creating Layer resx1_conv3
I0816 15:14:07.700773 25510 net.cpp:469] resx1_conv3 <- resx1_conv2
I0816 15:14:07.700778 25510 net.cpp:443] resx1_conv3 -> resx1_conv3
I0816 15:14:07.703097 25510 net.cpp:141] Setting up resx1_conv3
I0816 15:14:07.703112 25510 net.cpp:148] Top shape: 80 216 28 28 (13547520)
I0816 15:14:07.703116 25510 net.cpp:156] Memory required for data: 823388480
I0816 15:14:07.703121 25510 layer_factory.hpp:77] Creating layer resx1_conv3_bn
I0816 15:14:07.703132 25510 net.cpp:91] Creating Layer resx1_conv3_bn
I0816 15:14:07.703136 25510 net.cpp:469] resx1_conv3_bn <- resx1_conv3
I0816 15:14:07.703142 25510 net.cpp:430] resx1_conv3_bn -> resx1_conv3 (in-place)
I0816 15:14:07.703299 25510 net.cpp:141] Setting up resx1_conv3_bn
I0816 15:14:07.703307 25510 net.cpp:148] Top shape: 80 216 28 28 (13547520)
I0816 15:14:07.703310 25510 net.cpp:156] Memory required for data: 877578560
I0816 15:14:07.703317 25510 layer_factory.hpp:77] Creating layer resx1_conv3_scale
I0816 15:14:07.703326 25510 net.cpp:91] Creating Layer resx1_conv3_scale
I0816 15:14:07.703330 25510 net.cpp:469] resx1_conv3_scale <- resx1_conv3
I0816 15:14:07.703335 25510 net.cpp:430] resx1_conv3_scale -> resx1_conv3 (in-place)
I0816 15:14:07.703368 25510 layer_factory.hpp:77] Creating layer resx1_conv3_scale
I0816 15:14:07.703462 25510 net.cpp:141] Setting up resx1_conv3_scale
I0816 15:14:07.703469 25510 net.cpp:148] Top shape: 80 216 28 28 (13547520)
I0816 15:14:07.703472 25510 net.cpp:156] Memory required for data: 931768640
I0816 15:14:07.703478 25510 layer_factory.hpp:77] Creating layer resx1_concat
I0816 15:14:07.703594 25510 net.cpp:91] Creating Layer resx1_concat
I0816 15:14:07.703609 25510 net.cpp:469] resx1_concat <- resx1_match_conv
I0816 15:14:07.703619 25510 net.cpp:469] resx1_concat <- resx1_conv3
I0816 15:14:07.703624 25510 net.cpp:443] resx1_concat -> resx1_concat
I0816 15:14:07.703655 25510 net.cpp:141] Setting up resx1_concat
I0816 15:14:07.703662 25510 net.cpp:148] Top shape: 80 240 28 28 (15052800)
I0816 15:14:07.703665 25510 net.cpp:156] Memory required for data: 991979840
I0816 15:14:07.703670 25510 layer_factory.hpp:77] Creating layer resx1_concat_relu
I0816 15:14:07.703675 25510 net.cpp:91] Creating Layer resx1_concat_relu
I0816 15:14:07.703678 25510 net.cpp:469] resx1_concat_relu <- resx1_concat
I0816 15:14:07.703687 25510 net.cpp:430] resx1_concat_relu -> resx1_concat (in-place)
I0816 15:14:07.703835 25510 net.cpp:141] Setting up resx1_concat_relu
I0816 15:14:07.703845 25510 net.cpp:148] Top shape: 80 240 28 28 (15052800)
I0816 15:14:07.703848 25510 net.cpp:156] Memory required for data: 1052191040
I0816 15:14:07.703851 25510 layer_factory.hpp:77] Creating layer resx1_concat_resx1_concat_relu_0_split
I0816 15:14:07.703860 25510 net.cpp:91] Creating Layer resx1_concat_resx1_concat_relu_0_split
I0816 15:14:07.703863 25510 net.cpp:469] resx1_concat_resx1_concat_relu_0_split <- resx1_concat
I0816 15:14:07.703868 25510 net.cpp:443] resx1_concat_resx1_concat_relu_0_split -> resx1_concat_resx1_concat_relu_0_split_0
I0816 15:14:07.703874 25510 net.cpp:443] resx1_concat_resx1_concat_relu_0_split -> resx1_concat_resx1_concat_relu_0_split_1
I0816 15:14:07.703908 25510 net.cpp:141] Setting up resx1_concat_resx1_concat_relu_0_split
I0816 15:14:07.703915 25510 net.cpp:148] Top shape: 80 240 28 28 (15052800)
I0816 15:14:07.703918 25510 net.cpp:148] Top shape: 80 240 28 28 (15052800)
I0816 15:14:07.703922 25510 net.cpp:156] Memory required for data: 1172613440
I0816 15:14:07.703925 25510 layer_factory.hpp:77] Creating layer resx2_conv1
I0816 15:14:07.703934 25510 net.cpp:91] Creating Layer resx2_conv1
I0816 15:14:07.703938 25510 net.cpp:469] resx2_conv1 <- resx1_concat_resx1_concat_relu_0_split_0
I0816 15:14:07.703943 25510 net.cpp:443] resx2_conv1 -> resx2_conv1
I0816 15:14:07.706306 25510 net.cpp:141] Setting up resx2_conv1
I0816 15:14:07.706323 25510 net.cpp:148] Top shape: 80 60 28 28 (3763200)
I0816 15:14:07.706327 25510 net.cpp:156] Memory required for data: 1187666240
I0816 15:14:07.706332 25510 layer_factory.hpp:77] Creating layer resx2_conv1_bn
I0816 15:14:07.706343 25510 net.cpp:91] Creating Layer resx2_conv1_bn
I0816 15:14:07.706347 25510 net.cpp:469] resx2_conv1_bn <- resx2_conv1
I0816 15:14:07.706352 25510 net.cpp:430] resx2_conv1_bn -> resx2_conv1 (in-place)
I0816 15:14:07.706506 25510 net.cpp:141] Setting up resx2_conv1_bn
I0816 15:14:07.706513 25510 net.cpp:148] Top shape: 80 60 28 28 (3763200)
I0816 15:14:07.706516 25510 net.cpp:156] Memory required for data: 1202719040
I0816 15:14:07.706523 25510 layer_factory.hpp:77] Creating layer resx2_conv1_scale
I0816 15:14:07.706531 25510 net.cpp:91] Creating Layer resx2_conv1_scale
I0816 15:14:07.706534 25510 net.cpp:469] resx2_conv1_scale <- resx2_conv1
I0816 15:14:07.706538 25510 net.cpp:430] resx2_conv1_scale -> resx2_conv1 (in-place)
I0816 15:14:07.706573 25510 layer_factory.hpp:77] Creating layer resx2_conv1_scale
I0816 15:14:07.706667 25510 net.cpp:141] Setting up resx2_conv1_scale
I0816 15:14:07.706674 25510 net.cpp:148] Top shape: 80 60 28 28 (3763200)
I0816 15:14:07.706678 25510 net.cpp:156] Memory required for data: 1217771840
I0816 15:14:07.706683 25510 layer_factory.hpp:77] Creating layer resx2_conv1_relu
I0816 15:14:07.706691 25510 net.cpp:91] Creating Layer resx2_conv1_relu
I0816 15:14:07.706696 25510 net.cpp:469] resx2_conv1_relu <- resx2_conv1
I0816 15:14:07.706699 25510 net.cpp:430] resx2_conv1_relu -> resx2_conv1 (in-place)
I0816 15:14:07.706843 25510 net.cpp:141] Setting up resx2_conv1_relu
I0816 15:14:07.706853 25510 net.cpp:148] Top shape: 80 60 28 28 (3763200)
I0816 15:14:07.706856 25510 net.cpp:156] Memory required for data: 1232824640
I0816 15:14:07.706859 25510 layer_factory.hpp:77] Creating layer shuffle2
I0816 15:14:07.706876 25510 net.cpp:91] Creating Layer shuffle2
I0816 15:14:07.706887 25510 net.cpp:469] shuffle2 <- resx2_conv1
I0816 15:14:07.706892 25510 net.cpp:443] shuffle2 -> shuffle2
I0816 15:14:07.706920 25510 net.cpp:141] Setting up shuffle2
I0816 15:14:07.706928 25510 net.cpp:148] Top shape: 80 60 28 28 (3763200)
I0816 15:14:07.706930 25510 net.cpp:156] Memory required for data: 1247877440
I0816 15:14:07.706934 25510 layer_factory.hpp:77] Creating layer resx2_conv2
I0816 15:14:07.706943 25510 net.cpp:91] Creating Layer resx2_conv2
I0816 15:14:07.706948 25510 net.cpp:469] resx2_conv2 <- shuffle2
I0816 15:14:07.706953 25510 net.cpp:443] resx2_conv2 -> resx2_conv2
I0816 15:14:07.707072 25510 net.cpp:141] Setting up resx2_conv2
I0816 15:14:07.707082 25510 net.cpp:148] Top shape: 80 60 28 28 (3763200)
I0816 15:14:07.707085 25510 net.cpp:156] Memory required for data: 1262930240
I0816 15:14:07.707090 25510 layer_factory.hpp:77] Creating layer resx2_conv2_bn
I0816 15:14:07.707099 25510 net.cpp:91] Creating Layer resx2_conv2_bn
I0816 15:14:07.707103 25510 net.cpp:469] resx2_conv2_bn <- resx2_conv2
I0816 15:14:07.707108 25510 net.cpp:430] resx2_conv2_bn -> resx2_conv2 (in-place)
I0816 15:14:07.707255 25510 net.cpp:141] Setting up resx2_conv2_bn
I0816 15:14:07.707262 25510 net.cpp:148] Top shape: 80 60 28 28 (3763200)
I0816 15:14:07.707267 25510 net.cpp:156] Memory required for data: 1277983040
I0816 15:14:07.707276 25510 layer_factory.hpp:77] Creating layer resx2_conv2_scale
I0816 15:14:07.707284 25510 net.cpp:91] Creating Layer resx2_conv2_scale
I0816 15:14:07.707288 25510 net.cpp:469] resx2_conv2_scale <- resx2_conv2
I0816 15:14:07.707294 25510 net.cpp:430] resx2_conv2_scale -> resx2_conv2 (in-place)
I0816 15:14:07.707329 25510 layer_factory.hpp:77] Creating layer resx2_conv2_scale
I0816 15:14:07.707422 25510 net.cpp:141] Setting up resx2_conv2_scale
I0816 15:14:07.707429 25510 net.cpp:148] Top shape: 80 60 28 28 (3763200)
I0816 15:14:07.707432 25510 net.cpp:156] Memory required for data: 1293035840
I0816 15:14:07.707438 25510 layer_factory.hpp:77] Creating layer resx2_conv3
I0816 15:14:07.707448 25510 net.cpp:91] Creating Layer resx2_conv3
I0816 15:14:07.707451 25510 net.cpp:469] resx2_conv3 <- resx2_conv2
I0816 15:14:07.707458 25510 net.cpp:443] resx2_conv3 -> resx2_conv3
I0816 15:14:07.710036 25510 net.cpp:141] Setting up resx2_conv3
I0816 15:14:07.710054 25510 net.cpp:148] Top shape: 80 240 28 28 (15052800)
I0816 15:14:07.710059 25510 net.cpp:156] Memory required for data: 1353247040
I0816 15:14:07.710064 25510 layer_factory.hpp:77] Creating layer resx2_conv3_bn
I0816 15:14:07.710072 25510 net.cpp:91] Creating Layer resx2_conv3_bn
I0816 15:14:07.710077 25510 net.cpp:469] resx2_conv3_bn <- resx2_conv3
I0816 15:14:07.710083 25510 net.cpp:430] resx2_conv3_bn -> resx2_conv3 (in-place)
I0816 15:14:07.710238 25510 net.cpp:141] Setting up resx2_conv3_bn
I0816 15:14:07.710245 25510 net.cpp:148] Top shape: 80 240 28 28 (15052800)
I0816 15:14:07.710249 25510 net.cpp:156] Memory required for data: 1413458240
I0816 15:14:07.710256 25510 layer_factory.hpp:77] Creating layer resx2_conv3_scale
I0816 15:14:07.710263 25510 net.cpp:91] Creating Layer resx2_conv3_scale
I0816 15:14:07.710266 25510 net.cpp:469] resx2_conv3_scale <- resx2_conv3
I0816 15:14:07.710273 25510 net.cpp:430] resx2_conv3_scale -> resx2_conv3 (in-place)
I0816 15:14:07.710305 25510 layer_factory.hpp:77] Creating layer resx2_conv3_scale
I0816 15:14:07.710404 25510 net.cpp:141] Setting up resx2_conv3_scale
I0816 15:14:07.710412 25510 net.cpp:148] Top shape: 80 240 28 28 (15052800)
I0816 15:14:07.710415 25510 net.cpp:156] Memory required for data: 1473669440
I0816 15:14:07.710422 25510 layer_factory.hpp:77] Creating layer resx2_elewise
I0816 15:14:07.710439 25510 net.cpp:91] Creating Layer resx2_elewise
I0816 15:14:07.710444 25510 net.cpp:469] resx2_elewise <- resx1_concat_resx1_concat_relu_0_split_1
I0816 15:14:07.710449 25510 net.cpp:469] resx2_elewise <- resx2_conv3
I0816 15:14:07.710454 25510 net.cpp:443] resx2_elewise -> resx2_elewise
I0816 15:14:07.710489 25510 net.cpp:141] Setting up resx2_elewise
I0816 15:14:07.710502 25510 net.cpp:148] Top shape: 80 240 28 28 (15052800)
I0816 15:14:07.710505 25510 net.cpp:156] Memory required for data: 1533880640
I0816 15:14:07.710510 25510 layer_factory.hpp:77] Creating layer resx2_elewise_relu
I0816 15:14:07.710515 25510 net.cpp:91] Creating Layer resx2_elewise_relu
I0816 15:14:07.710520 25510 net.cpp:469] resx2_elewise_relu <- resx2_elewise
I0816 15:14:07.710525 25510 net.cpp:430] resx2_elewise_relu -> resx2_elewise (in-place)
I0816 15:14:07.710665 25510 net.cpp:141] Setting up resx2_elewise_relu
I0816 15:14:07.710675 25510 net.cpp:148] Top shape: 80 240 28 28 (15052800)
I0816 15:14:07.710678 25510 net.cpp:156] Memory required for data: 1594091840
I0816 15:14:07.710682 25510 layer_factory.hpp:77] Creating layer resx2_elewise_resx2_elewise_relu_0_split
I0816 15:14:07.710688 25510 net.cpp:91] Creating Layer resx2_elewise_resx2_elewise_relu_0_split
I0816 15:14:07.710691 25510 net.cpp:469] resx2_elewise_resx2_elewise_relu_0_split <- resx2_elewise
I0816 15:14:07.710698 25510 net.cpp:443] resx2_elewise_resx2_elewise_relu_0_split -> resx2_elewise_resx2_elewise_relu_0_split_0
I0816 15:14:07.710705 25510 net.cpp:443] resx2_elewise_resx2_elewise_relu_0_split -> resx2_elewise_resx2_elewise_relu_0_split_1
I0816 15:14:07.710741 25510 net.cpp:141] Setting up resx2_elewise_resx2_elewise_relu_0_split
I0816 15:14:07.710747 25510 net.cpp:148] Top shape: 80 240 28 28 (15052800)
I0816 15:14:07.710750 25510 net.cpp:148] Top shape: 80 240 28 28 (15052800)
I0816 15:14:07.710753 25510 net.cpp:156] Memory required for data: 1714514240
I0816 15:14:07.710757 25510 layer_factory.hpp:77] Creating layer resx3_conv1
I0816 15:14:07.710767 25510 net.cpp:91] Creating Layer resx3_conv1
I0816 15:14:07.710772 25510 net.cpp:469] resx3_conv1 <- resx2_elewise_resx2_elewise_relu_0_split_0
I0816 15:14:07.710777 25510 net.cpp:443] resx3_conv1 -> resx3_conv1
I0816 15:14:07.713171 25510 net.cpp:141] Setting up resx3_conv1
I0816 15:14:07.713186 25510 net.cpp:148] Top shape: 80 60 28 28 (3763200)
I0816 15:14:07.713189 25510 net.cpp:156] Memory required for data: 1729567040
I0816 15:14:07.713196 25510 layer_factory.hpp:77] Creating layer resx3_conv1_bn
I0816 15:14:07.713204 25510 net.cpp:91] Creating Layer resx3_conv1_bn
I0816 15:14:07.713208 25510 net.cpp:469] resx3_conv1_bn <- resx3_conv1
I0816 15:14:07.713215 25510 net.cpp:430] resx3_conv1_bn -> resx3_conv1 (in-place)
I0816 15:14:07.713371 25510 net.cpp:141] Setting up resx3_conv1_bn
I0816 15:14:07.713377 25510 net.cpp:148] Top shape: 80 60 28 28 (3763200)
I0816 15:14:07.713382 25510 net.cpp:156] Memory required for data: 1744619840
I0816 15:14:07.713387 25510 layer_factory.hpp:77] Creating layer resx3_conv1_scale
I0816 15:14:07.713397 25510 net.cpp:91] Creating Layer resx3_conv1_scale
I0816 15:14:07.713402 25510 net.cpp:469] resx3_conv1_scale <- resx3_conv1
I0816 15:14:07.713407 25510 net.cpp:430] resx3_conv1_scale -> resx3_conv1 (in-place)
I0816 15:14:07.713440 25510 layer_factory.hpp:77] Creating layer resx3_conv1_scale
I0816 15:14:07.713538 25510 net.cpp:141] Setting up resx3_conv1_scale
I0816 15:14:07.713546 25510 net.cpp:148] Top shape: 80 60 28 28 (3763200)
I0816 15:14:07.713548 25510 net.cpp:156] Memory required for data: 1759672640
I0816 15:14:07.713553 25510 layer_factory.hpp:77] Creating layer resx3_conv1_relu
I0816 15:14:07.713559 25510 net.cpp:91] Creating Layer resx3_conv1_relu
I0816 15:14:07.713567 25510 net.cpp:469] resx3_conv1_relu <- resx3_conv1
I0816 15:14:07.713572 25510 net.cpp:430] resx3_conv1_relu -> resx3_conv1 (in-place)
I0816 15:14:07.713709 25510 net.cpp:141] Setting up resx3_conv1_relu
I0816 15:14:07.713719 25510 net.cpp:148] Top shape: 80 60 28 28 (3763200)
I0816 15:14:07.713722 25510 net.cpp:156] Memory required for data: 1774725440
I0816 15:14:07.713726 25510 layer_factory.hpp:77] Creating layer shuffle3
I0816 15:14:07.713735 25510 net.cpp:91] Creating Layer shuffle3
I0816 15:14:07.713738 25510 net.cpp:469] shuffle3 <- resx3_conv1
I0816 15:14:07.713743 25510 net.cpp:443] shuffle3 -> shuffle3
I0816 15:14:07.713774 25510 net.cpp:141] Setting up shuffle3
I0816 15:14:07.713788 25510 net.cpp:148] Top shape: 80 60 28 28 (3763200)
I0816 15:14:07.713791 25510 net.cpp:156] Memory required for data: 1789778240
I0816 15:14:07.713794 25510 layer_factory.hpp:77] Creating layer resx3_conv2
I0816 15:14:07.713804 25510 net.cpp:91] Creating Layer resx3_conv2
I0816 15:14:07.713807 25510 net.cpp:469] resx3_conv2 <- shuffle3
I0816 15:14:07.713812 25510 net.cpp:443] resx3_conv2 -> resx3_conv2
I0816 15:14:07.713933 25510 net.cpp:141] Setting up resx3_conv2
I0816 15:14:07.713944 25510 net.cpp:148] Top shape: 80 60 28 28 (3763200)
I0816 15:14:07.713948 25510 net.cpp:156] Memory required for data: 1804831040
I0816 15:14:07.713953 25510 layer_factory.hpp:77] Creating layer resx3_conv2_bn
I0816 15:14:07.713960 25510 net.cpp:91] Creating Layer resx3_conv2_bn
I0816 15:14:07.713964 25510 net.cpp:469] resx3_conv2_bn <- resx3_conv2
I0816 15:14:07.713969 25510 net.cpp:430] resx3_conv2_bn -> resx3_conv2 (in-place)
I0816 15:14:07.714123 25510 net.cpp:141] Setting up resx3_conv2_bn
I0816 15:14:07.714129 25510 net.cpp:148] Top shape: 80 60 28 28 (3763200)
I0816 15:14:07.714133 25510 net.cpp:156] Memory required for data: 1819883840
I0816 15:14:07.714139 25510 layer_factory.hpp:77] Creating layer resx3_conv2_scale
I0816 15:14:07.714146 25510 net.cpp:91] Creating Layer resx3_conv2_scale
I0816 15:14:07.714149 25510 net.cpp:469] resx3_conv2_scale <- resx3_conv2
I0816 15:14:07.714154 25510 net.cpp:430] resx3_conv2_scale -> resx3_conv2 (in-place)
I0816 15:14:07.714190 25510 layer_factory.hpp:77] Creating layer resx3_conv2_scale
I0816 15:14:07.714284 25510 net.cpp:141] Setting up resx3_conv2_scale
I0816 15:14:07.714293 25510 net.cpp:148] Top shape: 80 60 28 28 (3763200)
I0816 15:14:07.714296 25510 net.cpp:156] Memory required for data: 1834936640
I0816 15:14:07.714301 25510 layer_factory.hpp:77] Creating layer resx3_conv3
I0816 15:14:07.714309 25510 net.cpp:91] Creating Layer resx3_conv3
I0816 15:14:07.714313 25510 net.cpp:469] resx3_conv3 <- resx3_conv2
I0816 15:14:07.714320 25510 net.cpp:443] resx3_conv3 -> resx3_conv3
I0816 15:14:07.716751 25510 net.cpp:141] Setting up resx3_conv3
I0816 15:14:07.716766 25510 net.cpp:148] Top shape: 80 240 28 28 (15052800)
I0816 15:14:07.716769 25510 net.cpp:156] Memory required for data: 1895147840
I0816 15:14:07.716775 25510 layer_factory.hpp:77] Creating layer resx3_conv3_bn
I0816 15:14:07.716784 25510 net.cpp:91] Creating Layer resx3_conv3_bn
I0816 15:14:07.716789 25510 net.cpp:469] resx3_conv3_bn <- resx3_conv3
I0816 15:14:07.716794 25510 net.cpp:430] resx3_conv3_bn -> resx3_conv3 (in-place)
I0816 15:14:07.716955 25510 net.cpp:141] Setting up resx3_conv3_bn
I0816 15:14:07.716962 25510 net.cpp:148] Top shape: 80 240 28 28 (15052800)
I0816 15:14:07.716965 25510 net.cpp:156] Memory required for data: 1955359040
I0816 15:14:07.716972 25510 layer_factory.hpp:77] Creating layer resx3_conv3_scale
I0816 15:14:07.716979 25510 net.cpp:91] Creating Layer resx3_conv3_scale
I0816 15:14:07.716984 25510 net.cpp:469] resx3_conv3_scale <- resx3_conv3
I0816 15:14:07.716989 25510 net.cpp:430] resx3_conv3_scale -> resx3_conv3 (in-place)
I0816 15:14:07.717025 25510 layer_factory.hpp:77] Creating layer resx3_conv3_scale
I0816 15:14:07.717130 25510 net.cpp:141] Setting up resx3_conv3_scale
I0816 15:14:07.717139 25510 net.cpp:148] Top shape: 80 240 28 28 (15052800)
I0816 15:14:07.717142 25510 net.cpp:156] Memory required for data: 2015570240
I0816 15:14:07.717147 25510 layer_factory.hpp:77] Creating layer resx3_elewise
I0816 15:14:07.717154 25510 net.cpp:91] Creating Layer resx3_elewise
I0816 15:14:07.717159 25510 net.cpp:469] resx3_elewise <- resx2_elewise_resx2_elewise_relu_0_split_1
I0816 15:14:07.717162 25510 net.cpp:469] resx3_elewise <- resx3_conv3
I0816 15:14:07.717170 25510 net.cpp:443] resx3_elewise -> resx3_elewise
I0816 15:14:07.717190 25510 net.cpp:141] Setting up resx3_elewise
I0816 15:14:07.717198 25510 net.cpp:148] Top shape: 80 240 28 28 (15052800)
I0816 15:14:07.717201 25510 net.cpp:156] Memory required for data: 2075781440
I0816 15:14:07.717209 25510 layer_factory.hpp:77] Creating layer resx3_elewise_relu
I0816 15:14:07.717221 25510 net.cpp:91] Creating Layer resx3_elewise_relu
I0816 15:14:07.717224 25510 net.cpp:469] resx3_elewise_relu <- resx3_elewise
I0816 15:14:07.717229 25510 net.cpp:430] resx3_elewise_relu -> resx3_elewise (in-place)
I0816 15:14:07.717375 25510 net.cpp:141] Setting up resx3_elewise_relu
I0816 15:14:07.717384 25510 net.cpp:148] Top shape: 80 240 28 28 (15052800)
I0816 15:14:07.717387 25510 net.cpp:156] Memory required for data: 2135992640
I0816 15:14:07.717391 25510 layer_factory.hpp:77] Creating layer resx3_elewise_resx3_elewise_relu_0_split
I0816 15:14:07.717397 25510 net.cpp:91] Creating Layer resx3_elewise_resx3_elewise_relu_0_split
I0816 15:14:07.717401 25510 net.cpp:469] resx3_elewise_resx3_elewise_relu_0_split <- resx3_elewise
I0816 15:14:07.717406 25510 net.cpp:443] resx3_elewise_resx3_elewise_relu_0_split -> resx3_elewise_resx3_elewise_relu_0_split_0
I0816 15:14:07.717414 25510 net.cpp:443] resx3_elewise_resx3_elewise_relu_0_split -> resx3_elewise_resx3_elewise_relu_0_split_1
I0816 15:14:07.717450 25510 net.cpp:141] Setting up resx3_elewise_resx3_elewise_relu_0_split
I0816 15:14:07.717458 25510 net.cpp:148] Top shape: 80 240 28 28 (15052800)
I0816 15:14:07.717461 25510 net.cpp:148] Top shape: 80 240 28 28 (15052800)
I0816 15:14:07.717463 25510 net.cpp:156] Memory required for data: 2256415040
I0816 15:14:07.717468 25510 layer_factory.hpp:77] Creating layer resx4_conv1
I0816 15:14:07.717478 25510 net.cpp:91] Creating Layer resx4_conv1
I0816 15:14:07.717481 25510 net.cpp:469] resx4_conv1 <- resx3_elewise_resx3_elewise_relu_0_split_0
I0816 15:14:07.717488 25510 net.cpp:443] resx4_conv1 -> resx4_conv1
I0816 15:14:07.720078 25510 net.cpp:141] Setting up resx4_conv1
I0816 15:14:07.720093 25510 net.cpp:148] Top shape: 80 60 28 28 (3763200)
I0816 15:14:07.720096 25510 net.cpp:156] Memory required for data: 2271467840
I0816 15:14:07.720101 25510 layer_factory.hpp:77] Creating layer resx4_conv1_bn
I0816 15:14:07.720110 25510 net.cpp:91] Creating Layer resx4_conv1_bn
I0816 15:14:07.720114 25510 net.cpp:469] resx4_conv1_bn <- resx4_conv1
I0816 15:14:07.720119 25510 net.cpp:430] resx4_conv1_bn -> resx4_conv1 (in-place)
I0816 15:14:07.720289 25510 net.cpp:141] Setting up resx4_conv1_bn
I0816 15:14:07.720297 25510 net.cpp:148] Top shape: 80 60 28 28 (3763200)
I0816 15:14:07.720300 25510 net.cpp:156] Memory required for data: 2286520640
I0816 15:14:07.720307 25510 layer_factory.hpp:77] Creating layer resx4_conv1_scale
I0816 15:14:07.720314 25510 net.cpp:91] Creating Layer resx4_conv1_scale
I0816 15:14:07.720319 25510 net.cpp:469] resx4_conv1_scale <- resx4_conv1
I0816 15:14:07.720322 25510 net.cpp:430] resx4_conv1_scale -> resx4_conv1 (in-place)
I0816 15:14:07.720362 25510 layer_factory.hpp:77] Creating layer resx4_conv1_scale
I0816 15:14:07.720463 25510 net.cpp:141] Setting up resx4_conv1_scale
I0816 15:14:07.720470 25510 net.cpp:148] Top shape: 80 60 28 28 (3763200)
I0816 15:14:07.720474 25510 net.cpp:156] Memory required for data: 2301573440
I0816 15:14:07.720489 25510 layer_factory.hpp:77] Creating layer resx4_conv1_relu
I0816 15:14:07.720495 25510 net.cpp:91] Creating Layer resx4_conv1_relu
I0816 15:14:07.720499 25510 net.cpp:469] resx4_conv1_relu <- resx4_conv1
I0816 15:14:07.720504 25510 net.cpp:430] resx4_conv1_relu -> resx4_conv1 (in-place)
I0816 15:14:07.720645 25510 net.cpp:141] Setting up resx4_conv1_relu
I0816 15:14:07.720657 25510 net.cpp:148] Top shape: 80 60 28 28 (3763200)
I0816 15:14:07.720660 25510 net.cpp:156] Memory required for data: 2316626240
I0816 15:14:07.720664 25510 layer_factory.hpp:77] Creating layer shuffle4
I0816 15:14:07.720670 25510 net.cpp:91] Creating Layer shuffle4
I0816 15:14:07.720674 25510 net.cpp:469] shuffle4 <- resx4_conv1
I0816 15:14:07.720679 25510 net.cpp:443] shuffle4 -> shuffle4
I0816 15:14:07.720705 25510 net.cpp:141] Setting up shuffle4
I0816 15:14:07.720712 25510 net.cpp:148] Top shape: 80 60 28 28 (3763200)
I0816 15:14:07.720715 25510 net.cpp:156] Memory required for data: 2331679040
I0816 15:14:07.720723 25510 layer_factory.hpp:77] Creating layer resx4_conv2
I0816 15:14:07.720737 25510 net.cpp:91] Creating Layer resx4_conv2
I0816 15:14:07.720741 25510 net.cpp:469] resx4_conv2 <- shuffle4
I0816 15:14:07.720746 25510 net.cpp:443] resx4_conv2 -> resx4_conv2
I0816 15:14:07.720860 25510 net.cpp:141] Setting up resx4_conv2
I0816 15:14:07.720870 25510 net.cpp:148] Top shape: 80 60 28 28 (3763200)
I0816 15:14:07.720873 25510 net.cpp:156] Memory required for data: 2346731840
I0816 15:14:07.720877 25510 layer_factory.hpp:77] Creating layer resx4_conv2_bn
I0816 15:14:07.720886 25510 net.cpp:91] Creating Layer resx4_conv2_bn
I0816 15:14:07.720891 25510 net.cpp:469] resx4_conv2_bn <- resx4_conv2
I0816 15:14:07.720896 25510 net.cpp:430] resx4_conv2_bn -> resx4_conv2 (in-place)
I0816 15:14:07.721055 25510 net.cpp:141] Setting up resx4_conv2_bn
I0816 15:14:07.721062 25510 net.cpp:148] Top shape: 80 60 28 28 (3763200)
I0816 15:14:07.721065 25510 net.cpp:156] Memory required for data: 2361784640
I0816 15:14:07.721071 25510 layer_factory.hpp:77] Creating layer resx4_conv2_scale
I0816 15:14:07.721083 25510 net.cpp:91] Creating Layer resx4_conv2_scale
I0816 15:14:07.721088 25510 net.cpp:469] resx4_conv2_scale <- resx4_conv2
I0816 15:14:07.721093 25510 net.cpp:430] resx4_conv2_scale -> resx4_conv2 (in-place)
I0816 15:14:07.721133 25510 layer_factory.hpp:77] Creating layer resx4_conv2_scale
I0816 15:14:07.721235 25510 net.cpp:141] Setting up resx4_conv2_scale
I0816 15:14:07.721243 25510 net.cpp:148] Top shape: 80 60 28 28 (3763200)
I0816 15:14:07.721246 25510 net.cpp:156] Memory required for data: 2376837440
I0816 15:14:07.721251 25510 layer_factory.hpp:77] Creating layer resx4_conv3
I0816 15:14:07.721261 25510 net.cpp:91] Creating Layer resx4_conv3
I0816 15:14:07.721266 25510 net.cpp:469] resx4_conv3 <- resx4_conv2
I0816 15:14:07.721271 25510 net.cpp:443] resx4_conv3 -> resx4_conv3
I0816 15:14:07.723520 25510 net.cpp:141] Setting up resx4_conv3
I0816 15:14:07.723533 25510 net.cpp:148] Top shape: 80 240 28 28 (15052800)
I0816 15:14:07.723537 25510 net.cpp:156] Memory required for data: 2437048640
I0816 15:14:07.723542 25510 layer_factory.hpp:77] Creating layer resx4_conv3_bn
I0816 15:14:07.723551 25510 net.cpp:91] Creating Layer resx4_conv3_bn
I0816 15:14:07.723556 25510 net.cpp:469] resx4_conv3_bn <- resx4_conv3
I0816 15:14:07.723562 25510 net.cpp:430] resx4_conv3_bn -> resx4_conv3 (in-place)
I0816 15:14:07.723722 25510 net.cpp:141] Setting up resx4_conv3_bn
I0816 15:14:07.723731 25510 net.cpp:148] Top shape: 80 240 28 28 (15052800)
I0816 15:14:07.723733 25510 net.cpp:156] Memory required for data: 2497259840
I0816 15:14:07.723740 25510 layer_factory.hpp:77] Creating layer resx4_conv3_scale
I0816 15:14:07.723758 25510 net.cpp:91] Creating Layer resx4_conv3_scale
I0816 15:14:07.723762 25510 net.cpp:469] resx4_conv3_scale <- resx4_conv3
I0816 15:14:07.723767 25510 net.cpp:430] resx4_conv3_scale -> resx4_conv3 (in-place)
I0816 15:14:07.723806 25510 layer_factory.hpp:77] Creating layer resx4_conv3_scale
I0816 15:14:07.723911 25510 net.cpp:141] Setting up resx4_conv3_scale
I0816 15:14:07.723919 25510 net.cpp:148] Top shape: 80 240 28 28 (15052800)
I0816 15:14:07.723922 25510 net.cpp:156] Memory required for data: 2557471040
I0816 15:14:07.723928 25510 layer_factory.hpp:77] Creating layer resx4_elewise
I0816 15:14:07.723935 25510 net.cpp:91] Creating Layer resx4_elewise
I0816 15:14:07.723939 25510 net.cpp:469] resx4_elewise <- resx3_elewise_resx3_elewise_relu_0_split_1
I0816 15:14:07.723944 25510 net.cpp:469] resx4_elewise <- resx4_conv3
I0816 15:14:07.723948 25510 net.cpp:443] resx4_elewise -> resx4_elewise
I0816 15:14:07.723973 25510 net.cpp:141] Setting up resx4_elewise
I0816 15:14:07.723979 25510 net.cpp:148] Top shape: 80 240 28 28 (15052800)
I0816 15:14:07.723983 25510 net.cpp:156] Memory required for data: 2617682240
I0816 15:14:07.723985 25510 layer_factory.hpp:77] Creating layer resx4_elewise_relu
I0816 15:14:07.723991 25510 net.cpp:91] Creating Layer resx4_elewise_relu
I0816 15:14:07.723997 25510 net.cpp:469] resx4_elewise_relu <- resx4_elewise
I0816 15:14:07.724022 25510 net.cpp:430] resx4_elewise_relu -> resx4_elewise (in-place)
I0816 15:14:07.724323 25510 net.cpp:141] Setting up resx4_elewise_relu
I0816 15:14:07.724334 25510 net.cpp:148] Top shape: 80 240 28 28 (15052800)
I0816 15:14:07.724339 25510 net.cpp:156] Memory required for data: 2677893440
I0816 15:14:07.724342 25510 layer_factory.hpp:77] Creating layer resx4_elewise_resx4_elewise_relu_0_split
I0816 15:14:07.724349 25510 net.cpp:91] Creating Layer resx4_elewise_resx4_elewise_relu_0_split
I0816 15:14:07.724351 25510 net.cpp:469] resx4_elewise_resx4_elewise_relu_0_split <- resx4_elewise
I0816 15:14:07.724359 25510 net.cpp:443] resx4_elewise_resx4_elewise_relu_0_split -> resx4_elewise_resx4_elewise_relu_0_split_0
I0816 15:14:07.724367 25510 net.cpp:443] resx4_elewise_resx4_elewise_relu_0_split -> resx4_elewise_resx4_elewise_relu_0_split_1
I0816 15:14:07.724614 25510 net.cpp:141] Setting up resx4_elewise_resx4_elewise_relu_0_split
I0816 15:14:07.724624 25510 net.cpp:148] Top shape: 80 240 28 28 (15052800)
I0816 15:14:07.724628 25510 net.cpp:148] Top shape: 80 240 28 28 (15052800)
I0816 15:14:07.724632 25510 net.cpp:156] Memory required for data: 2798315840
I0816 15:14:07.724635 25510 layer_factory.hpp:77] Creating layer resx5_match_conv
I0816 15:14:07.724644 25510 net.cpp:91] Creating Layer resx5_match_conv
I0816 15:14:07.724648 25510 net.cpp:469] resx5_match_conv <- resx4_elewise_resx4_elewise_relu_0_split_0
I0816 15:14:07.724653 25510 net.cpp:443] resx5_match_conv -> resx5_match_conv
I0816 15:14:07.724985 25510 net.cpp:141] Setting up resx5_match_conv
I0816 15:14:07.724998 25510 net.cpp:148] Top shape: 80 240 14 14 (3763200)
I0816 15:14:07.725002 25510 net.cpp:156] Memory required for data: 2813368640
I0816 15:14:07.725005 25510 layer_factory.hpp:77] Creating layer resx5_conv1
I0816 15:14:07.725023 25510 net.cpp:91] Creating Layer resx5_conv1
I0816 15:14:07.725028 25510 net.cpp:469] resx5_conv1 <- resx4_elewise_resx4_elewise_relu_0_split_1
I0816 15:14:07.725034 25510 net.cpp:443] resx5_conv1 -> resx5_conv1
I0816 15:14:07.727314 25510 net.cpp:141] Setting up resx5_conv1
I0816 15:14:07.727329 25510 net.cpp:148] Top shape: 80 60 28 28 (3763200)
I0816 15:14:07.727332 25510 net.cpp:156] Memory required for data: 2828421440
I0816 15:14:07.727339 25510 layer_factory.hpp:77] Creating layer resx5_conv1_bn
I0816 15:14:07.727346 25510 net.cpp:91] Creating Layer resx5_conv1_bn
I0816 15:14:07.727351 25510 net.cpp:469] resx5_conv1_bn <- resx5_conv1
I0816 15:14:07.727356 25510 net.cpp:430] resx5_conv1_bn -> resx5_conv1 (in-place)
I0816 15:14:07.727521 25510 net.cpp:141] Setting up resx5_conv1_bn
I0816 15:14:07.727530 25510 net.cpp:148] Top shape: 80 60 28 28 (3763200)
I0816 15:14:07.727532 25510 net.cpp:156] Memory required for data: 2843474240
I0816 15:14:07.727538 25510 layer_factory.hpp:77] Creating layer resx5_conv1_scale
I0816 15:14:07.727545 25510 net.cpp:91] Creating Layer resx5_conv1_scale
I0816 15:14:07.727548 25510 net.cpp:469] resx5_conv1_scale <- resx5_conv1
I0816 15:14:07.727553 25510 net.cpp:430] resx5_conv1_scale -> resx5_conv1 (in-place)
I0816 15:14:07.727591 25510 layer_factory.hpp:77] Creating layer resx5_conv1_scale
I0816 15:14:07.727696 25510 net.cpp:141] Setting up resx5_conv1_scale
I0816 15:14:07.727704 25510 net.cpp:148] Top shape: 80 60 28 28 (3763200)
I0816 15:14:07.727707 25510 net.cpp:156] Memory required for data: 2858527040
I0816 15:14:07.727712 25510 layer_factory.hpp:77] Creating layer resx5_conv1_relu
I0816 15:14:07.727718 25510 net.cpp:91] Creating Layer resx5_conv1_relu
I0816 15:14:07.727722 25510 net.cpp:469] resx5_conv1_relu <- resx5_conv1
I0816 15:14:07.727726 25510 net.cpp:430] resx5_conv1_relu -> resx5_conv1 (in-place)
I0816 15:14:07.727874 25510 net.cpp:141] Setting up resx5_conv1_relu
I0816 15:14:07.727885 25510 net.cpp:148] Top shape: 80 60 28 28 (3763200)
I0816 15:14:07.727887 25510 net.cpp:156] Memory required for data: 2873579840
I0816 15:14:07.727891 25510 layer_factory.hpp:77] Creating layer shuffle5
I0816 15:14:07.727901 25510 net.cpp:91] Creating Layer shuffle5
I0816 15:14:07.727911 25510 net.cpp:469] shuffle5 <- resx5_conv1
I0816 15:14:07.727918 25510 net.cpp:443] shuffle5 -> shuffle5
I0816 15:14:07.727944 25510 net.cpp:141] Setting up shuffle5
I0816 15:14:07.727952 25510 net.cpp:148] Top shape: 80 60 28 28 (3763200)
I0816 15:14:07.727957 25510 net.cpp:156] Memory required for data: 2888632640
I0816 15:14:07.727959 25510 layer_factory.hpp:77] Creating layer resx5_conv2
I0816 15:14:07.727967 25510 net.cpp:91] Creating Layer resx5_conv2
I0816 15:14:07.727970 25510 net.cpp:469] resx5_conv2 <- shuffle5
I0816 15:14:07.727977 25510 net.cpp:443] resx5_conv2 -> resx5_conv2
I0816 15:14:07.728087 25510 net.cpp:141] Setting up resx5_conv2
I0816 15:14:07.728099 25510 net.cpp:148] Top shape: 80 60 14 14 (940800)
I0816 15:14:07.728102 25510 net.cpp:156] Memory required for data: 2892395840
I0816 15:14:07.728107 25510 layer_factory.hpp:77] Creating layer resx5_conv2_bn
I0816 15:14:07.728114 25510 net.cpp:91] Creating Layer resx5_conv2_bn
I0816 15:14:07.728118 25510 net.cpp:469] resx5_conv2_bn <- resx5_conv2
I0816 15:14:07.728124 25510 net.cpp:430] resx5_conv2_bn -> resx5_conv2 (in-place)
I0816 15:14:07.728281 25510 net.cpp:141] Setting up resx5_conv2_bn
I0816 15:14:07.728288 25510 net.cpp:148] Top shape: 80 60 14 14 (940800)
I0816 15:14:07.728291 25510 net.cpp:156] Memory required for data: 2896159040
I0816 15:14:07.728298 25510 layer_factory.hpp:77] Creating layer resx5_conv2_scale
I0816 15:14:07.728305 25510 net.cpp:91] Creating Layer resx5_conv2_scale
I0816 15:14:07.728309 25510 net.cpp:469] resx5_conv2_scale <- resx5_conv2
I0816 15:14:07.728315 25510 net.cpp:430] resx5_conv2_scale -> resx5_conv2 (in-place)
I0816 15:14:07.728349 25510 layer_factory.hpp:77] Creating layer resx5_conv2_scale
I0816 15:14:07.728446 25510 net.cpp:141] Setting up resx5_conv2_scale
I0816 15:14:07.728452 25510 net.cpp:148] Top shape: 80 60 14 14 (940800)
I0816 15:14:07.728456 25510 net.cpp:156] Memory required for data: 2899922240
I0816 15:14:07.728461 25510 layer_factory.hpp:77] Creating layer resx5_conv3
I0816 15:14:07.728469 25510 net.cpp:91] Creating Layer resx5_conv3
I0816 15:14:07.728473 25510 net.cpp:469] resx5_conv3 <- resx5_conv2
I0816 15:14:07.728480 25510 net.cpp:443] resx5_conv3 -> resx5_conv3
I0816 15:14:07.731096 25510 net.cpp:141] Setting up resx5_conv3
I0816 15:14:07.731112 25510 net.cpp:148] Top shape: 80 240 14 14 (3763200)
I0816 15:14:07.731115 25510 net.cpp:156] Memory required for data: 2914975040
I0816 15:14:07.731120 25510 layer_factory.hpp:77] Creating layer resx5_conv3_bn
I0816 15:14:07.731130 25510 net.cpp:91] Creating Layer resx5_conv3_bn
I0816 15:14:07.731134 25510 net.cpp:469] resx5_conv3_bn <- resx5_conv3
I0816 15:14:07.731139 25510 net.cpp:430] resx5_conv3_bn -> resx5_conv3 (in-place)
I0816 15:14:07.731304 25510 net.cpp:141] Setting up resx5_conv3_bn
I0816 15:14:07.731312 25510 net.cpp:148] Top shape: 80 240 14 14 (3763200)
I0816 15:14:07.731315 25510 net.cpp:156] Memory required for data: 2930027840
I0816 15:14:07.731322 25510 layer_factory.hpp:77] Creating layer resx5_conv3_scale
I0816 15:14:07.731328 25510 net.cpp:91] Creating Layer resx5_conv3_scale
I0816 15:14:07.731333 25510 net.cpp:469] resx5_conv3_scale <- resx5_conv3
I0816 15:14:07.731336 25510 net.cpp:430] resx5_conv3_scale -> resx5_conv3 (in-place)
I0816 15:14:07.731374 25510 layer_factory.hpp:77] Creating layer resx5_conv3_scale
I0816 15:14:07.731478 25510 net.cpp:141] Setting up resx5_conv3_scale
I0816 15:14:07.731487 25510 net.cpp:148] Top shape: 80 240 14 14 (3763200)
I0816 15:14:07.731490 25510 net.cpp:156] Memory required for data: 2945080640
I0816 15:14:07.731495 25510 layer_factory.hpp:77] Creating layer resx5_concat
I0816 15:14:07.731503 25510 net.cpp:91] Creating Layer resx5_concat
I0816 15:14:07.731506 25510 net.cpp:469] resx5_concat <- resx5_match_conv
I0816 15:14:07.731510 25510 net.cpp:469] resx5_concat <- resx5_conv3
I0816 15:14:07.731514 25510 net.cpp:443] resx5_concat -> resx5_concat
I0816 15:14:07.731539 25510 net.cpp:141] Setting up resx5_concat
I0816 15:14:07.731551 25510 net.cpp:148] Top shape: 80 480 14 14 (7526400)
I0816 15:14:07.731560 25510 net.cpp:156] Memory required for data: 2975186240
I0816 15:14:07.731564 25510 layer_factory.hpp:77] Creating layer resx5_concat_relu
I0816 15:14:07.731570 25510 net.cpp:91] Creating Layer resx5_concat_relu
I0816 15:14:07.731573 25510 net.cpp:469] resx5_concat_relu <- resx5_concat
I0816 15:14:07.731577 25510 net.cpp:430] resx5_concat_relu -> resx5_concat (in-place)
I0816 15:14:07.731735 25510 net.cpp:141] Setting up resx5_concat_relu
I0816 15:14:07.731746 25510 net.cpp:148] Top shape: 80 480 14 14 (7526400)
I0816 15:14:07.731750 25510 net.cpp:156] Memory required for data: 3005291840
I0816 15:14:07.731753 25510 layer_factory.hpp:77] Creating layer resx5_concat_resx5_concat_relu_0_split
I0816 15:14:07.731760 25510 net.cpp:91] Creating Layer resx5_concat_resx5_concat_relu_0_split
I0816 15:14:07.731762 25510 net.cpp:469] resx5_concat_resx5_concat_relu_0_split <- resx5_concat
I0816 15:14:07.731767 25510 net.cpp:443] resx5_concat_resx5_concat_relu_0_split -> resx5_concat_resx5_concat_relu_0_split_0
I0816 15:14:07.731773 25510 net.cpp:443] resx5_concat_resx5_concat_relu_0_split -> resx5_concat_resx5_concat_relu_0_split_1
I0816 15:14:07.731812 25510 net.cpp:141] Setting up resx5_concat_resx5_concat_relu_0_split
I0816 15:14:07.731819 25510 net.cpp:148] Top shape: 80 480 14 14 (7526400)
I0816 15:14:07.731823 25510 net.cpp:148] Top shape: 80 480 14 14 (7526400)
I0816 15:14:07.731825 25510 net.cpp:156] Memory required for data: 3065503040
I0816 15:14:07.731829 25510 layer_factory.hpp:77] Creating layer resx6_conv1
I0816 15:14:07.731838 25510 net.cpp:91] Creating Layer resx6_conv1
I0816 15:14:07.731842 25510 net.cpp:469] resx6_conv1 <- resx5_concat_resx5_concat_relu_0_split_0
I0816 15:14:07.731849 25510 net.cpp:443] resx6_conv1 -> resx6_conv1
I0816 15:14:07.735157 25510 net.cpp:141] Setting up resx6_conv1
I0816 15:14:07.735172 25510 net.cpp:148] Top shape: 80 120 14 14 (1881600)
I0816 15:14:07.735175 25510 net.cpp:156] Memory required for data: 3073029440
I0816 15:14:07.735182 25510 layer_factory.hpp:77] Creating layer resx6_conv1_bn
I0816 15:14:07.735190 25510 net.cpp:91] Creating Layer resx6_conv1_bn
I0816 15:14:07.735194 25510 net.cpp:469] resx6_conv1_bn <- resx6_conv1
I0816 15:14:07.735200 25510 net.cpp:430] resx6_conv1_bn -> resx6_conv1 (in-place)
I0816 15:14:07.735378 25510 net.cpp:141] Setting up resx6_conv1_bn
I0816 15:14:07.735384 25510 net.cpp:148] Top shape: 80 120 14 14 (1881600)
I0816 15:14:07.735388 25510 net.cpp:156] Memory required for data: 3080555840
I0816 15:14:07.735394 25510 layer_factory.hpp:77] Creating layer resx6_conv1_scale
I0816 15:14:07.735401 25510 net.cpp:91] Creating Layer resx6_conv1_scale
I0816 15:14:07.735405 25510 net.cpp:469] resx6_conv1_scale <- resx6_conv1
I0816 15:14:07.735409 25510 net.cpp:430] resx6_conv1_scale -> resx6_conv1 (in-place)
I0816 15:14:07.735448 25510 layer_factory.hpp:77] Creating layer resx6_conv1_scale
I0816 15:14:07.735548 25510 net.cpp:141] Setting up resx6_conv1_scale
I0816 15:14:07.735556 25510 net.cpp:148] Top shape: 80 120 14 14 (1881600)
I0816 15:14:07.735559 25510 net.cpp:156] Memory required for data: 3088082240
I0816 15:14:07.735564 25510 layer_factory.hpp:77] Creating layer resx6_conv1_relu
I0816 15:14:07.735571 25510 net.cpp:91] Creating Layer resx6_conv1_relu
I0816 15:14:07.735574 25510 net.cpp:469] resx6_conv1_relu <- resx6_conv1
I0816 15:14:07.735579 25510 net.cpp:430] resx6_conv1_relu -> resx6_conv1 (in-place)
I0816 15:14:07.735723 25510 net.cpp:141] Setting up resx6_conv1_relu
I0816 15:14:07.735733 25510 net.cpp:148] Top shape: 80 120 14 14 (1881600)
I0816 15:14:07.735735 25510 net.cpp:156] Memory required for data: 3095608640
I0816 15:14:07.735739 25510 layer_factory.hpp:77] Creating layer shuffle6
I0816 15:14:07.735744 25510 net.cpp:91] Creating Layer shuffle6
I0816 15:14:07.735749 25510 net.cpp:469] shuffle6 <- resx6_conv1
I0816 15:14:07.735752 25510 net.cpp:443] shuffle6 -> shuffle6
I0816 15:14:07.735781 25510 net.cpp:141] Setting up shuffle6
I0816 15:14:07.735787 25510 net.cpp:148] Top shape: 80 120 14 14 (1881600)
I0816 15:14:07.735800 25510 net.cpp:156] Memory required for data: 3103135040
I0816 15:14:07.735803 25510 layer_factory.hpp:77] Creating layer resx6_conv2
I0816 15:14:07.735812 25510 net.cpp:91] Creating Layer resx6_conv2
I0816 15:14:07.735816 25510 net.cpp:469] resx6_conv2 <- shuffle6
I0816 15:14:07.735822 25510 net.cpp:443] resx6_conv2 -> resx6_conv2
I0816 15:14:07.735951 25510 net.cpp:141] Setting up resx6_conv2
I0816 15:14:07.735961 25510 net.cpp:148] Top shape: 80 120 14 14 (1881600)
I0816 15:14:07.735965 25510 net.cpp:156] Memory required for data: 3110661440
I0816 15:14:07.735970 25510 layer_factory.hpp:77] Creating layer resx6_conv2_bn
I0816 15:14:07.735977 25510 net.cpp:91] Creating Layer resx6_conv2_bn
I0816 15:14:07.735981 25510 net.cpp:469] resx6_conv2_bn <- resx6_conv2
I0816 15:14:07.735985 25510 net.cpp:430] resx6_conv2_bn -> resx6_conv2 (in-place)
I0816 15:14:07.736148 25510 net.cpp:141] Setting up resx6_conv2_bn
I0816 15:14:07.736155 25510 net.cpp:148] Top shape: 80 120 14 14 (1881600)
I0816 15:14:07.736158 25510 net.cpp:156] Memory required for data: 3118187840
I0816 15:14:07.736166 25510 layer_factory.hpp:77] Creating layer resx6_conv2_scale
I0816 15:14:07.736172 25510 net.cpp:91] Creating Layer resx6_conv2_scale
I0816 15:14:07.736176 25510 net.cpp:469] resx6_conv2_scale <- resx6_conv2
I0816 15:14:07.736181 25510 net.cpp:430] resx6_conv2_scale -> resx6_conv2 (in-place)
I0816 15:14:07.736222 25510 layer_factory.hpp:77] Creating layer resx6_conv2_scale
I0816 15:14:07.736328 25510 net.cpp:141] Setting up resx6_conv2_scale
I0816 15:14:07.736335 25510 net.cpp:148] Top shape: 80 120 14 14 (1881600)
I0816 15:14:07.736340 25510 net.cpp:156] Memory required for data: 3125714240
I0816 15:14:07.736344 25510 layer_factory.hpp:77] Creating layer resx6_conv3
I0816 15:14:07.736354 25510 net.cpp:91] Creating Layer resx6_conv3
I0816 15:14:07.736358 25510 net.cpp:469] resx6_conv3 <- resx6_conv2
I0816 15:14:07.736363 25510 net.cpp:443] resx6_conv3 -> resx6_conv3
I0816 15:14:07.750027 25510 net.cpp:141] Setting up resx6_conv3
I0816 15:14:07.750085 25510 net.cpp:148] Top shape: 80 480 14 14 (7526400)
I0816 15:14:07.750097 25510 net.cpp:156] Memory required for data: 3155819840
I0816 15:14:07.750113 25510 layer_factory.hpp:77] Creating layer resx6_conv3_bn
I0816 15:14:07.750136 25510 net.cpp:91] Creating Layer resx6_conv3_bn
I0816 15:14:07.750149 25510 net.cpp:469] resx6_conv3_bn <- resx6_conv3
I0816 15:14:07.750162 25510 net.cpp:430] resx6_conv3_bn -> resx6_conv3 (in-place)
I0816 15:14:07.750663 25510 net.cpp:141] Setting up resx6_conv3_bn
I0816 15:14:07.750681 25510 net.cpp:148] Top shape: 80 480 14 14 (7526400)
I0816 15:14:07.750689 25510 net.cpp:156] Memory required for data: 3185925440
I0816 15:14:07.750707 25510 layer_factory.hpp:77] Creating layer resx6_conv3_scale
I0816 15:14:07.750723 25510 net.cpp:91] Creating Layer resx6_conv3_scale
I0816 15:14:07.750732 25510 net.cpp:469] resx6_conv3_scale <- resx6_conv3
I0816 15:14:07.750746 25510 net.cpp:430] resx6_conv3_scale -> resx6_conv3 (in-place)
I0816 15:14:07.750846 25510 layer_factory.hpp:77] Creating layer resx6_conv3_scale
I0816 15:14:07.751112 25510 net.cpp:141] Setting up resx6_conv3_scale
I0816 15:14:07.751129 25510 net.cpp:148] Top shape: 80 480 14 14 (7526400)
I0816 15:14:07.751138 25510 net.cpp:156] Memory required for data: 3216031040
I0816 15:14:07.751152 25510 layer_factory.hpp:77] Creating layer resx6_elewise
I0816 15:14:07.751166 25510 net.cpp:91] Creating Layer resx6_elewise
I0816 15:14:07.751178 25510 net.cpp:469] resx6_elewise <- resx5_concat_resx5_concat_relu_0_split_1
I0816 15:14:07.751188 25510 net.cpp:469] resx6_elewise <- resx6_conv3
I0816 15:14:07.751204 25510 net.cpp:443] resx6_elewise -> resx6_elewise
I0816 15:14:07.751258 25510 net.cpp:141] Setting up resx6_elewise
I0816 15:14:07.751276 25510 net.cpp:148] Top shape: 80 480 14 14 (7526400)
I0816 15:14:07.751283 25510 net.cpp:156] Memory required for data: 3246136640
I0816 15:14:07.751291 25510 layer_factory.hpp:77] Creating layer resx6_elewise_relu
I0816 15:14:07.751315 25510 net.cpp:91] Creating Layer resx6_elewise_relu
I0816 15:14:07.751339 25510 net.cpp:469] resx6_elewise_relu <- resx6_elewise
I0816 15:14:07.751351 25510 net.cpp:430] resx6_elewise_relu -> resx6_elewise (in-place)
I0816 15:14:07.751755 25510 net.cpp:141] Setting up resx6_elewise_relu
I0816 15:14:07.751781 25510 net.cpp:148] Top shape: 80 480 14 14 (7526400)
I0816 15:14:07.751791 25510 net.cpp:156] Memory required for data: 3276242240
I0816 15:14:07.751801 25510 layer_factory.hpp:77] Creating layer resx6_elewise_resx6_elewise_relu_0_split
I0816 15:14:07.751813 25510 net.cpp:91] Creating Layer resx6_elewise_resx6_elewise_relu_0_split
I0816 15:14:07.751823 25510 net.cpp:469] resx6_elewise_resx6_elewise_relu_0_split <- resx6_elewise
I0816 15:14:07.751835 25510 net.cpp:443] resx6_elewise_resx6_elewise_relu_0_split -> resx6_elewise_resx6_elewise_relu_0_split_0
I0816 15:14:07.751852 25510 net.cpp:443] resx6_elewise_resx6_elewise_relu_0_split -> resx6_elewise_resx6_elewise_relu_0_split_1
I0816 15:14:07.751946 25510 net.cpp:141] Setting up resx6_elewise_resx6_elewise_relu_0_split
I0816 15:14:07.751961 25510 net.cpp:148] Top shape: 80 480 14 14 (7526400)
I0816 15:14:07.751971 25510 net.cpp:148] Top shape: 80 480 14 14 (7526400)
I0816 15:14:07.751979 25510 net.cpp:156] Memory required for data: 3336453440
I0816 15:14:07.751988 25510 layer_factory.hpp:77] Creating layer resx7_conv1
I0816 15:14:07.752009 25510 net.cpp:91] Creating Layer resx7_conv1
I0816 15:14:07.752019 25510 net.cpp:469] resx7_conv1 <- resx6_elewise_resx6_elewise_relu_0_split_0
I0816 15:14:07.752035 25510 net.cpp:443] resx7_conv1 -> resx7_conv1
I0816 15:14:07.758901 25510 net.cpp:141] Setting up resx7_conv1
I0816 15:14:07.758942 25510 net.cpp:148] Top shape: 80 120 14 14 (1881600)
I0816 15:14:07.758961 25510 net.cpp:156] Memory required for data: 3343979840
I0816 15:14:07.758975 25510 layer_factory.hpp:77] Creating layer resx7_conv1_bn
I0816 15:14:07.758996 25510 net.cpp:91] Creating Layer resx7_conv1_bn
I0816 15:14:07.759013 25510 net.cpp:469] resx7_conv1_bn <- resx7_conv1
I0816 15:14:07.759027 25510 net.cpp:430] resx7_conv1_bn -> resx7_conv1 (in-place)
I0816 15:14:07.759480 25510 net.cpp:141] Setting up resx7_conv1_bn
I0816 15:14:07.759498 25510 net.cpp:148] Top shape: 80 120 14 14 (1881600)
I0816 15:14:07.759507 25510 net.cpp:156] Memory required for data: 3351506240
I0816 15:14:07.759526 25510 layer_factory.hpp:77] Creating layer resx7_conv1_scale
I0816 15:14:07.759542 25510 net.cpp:91] Creating Layer resx7_conv1_scale
I0816 15:14:07.759552 25510 net.cpp:469] resx7_conv1_scale <- resx7_conv1
I0816 15:14:07.759563 25510 net.cpp:430] resx7_conv1_scale -> resx7_conv1 (in-place)
I0816 15:14:07.759655 25510 layer_factory.hpp:77] Creating layer resx7_conv1_scale
I0816 15:14:07.759909 25510 net.cpp:141] Setting up resx7_conv1_scale
I0816 15:14:07.759925 25510 net.cpp:148] Top shape: 80 120 14 14 (1881600)
I0816 15:14:07.759934 25510 net.cpp:156] Memory required for data: 3359032640
I0816 15:14:07.759948 25510 layer_factory.hpp:77] Creating layer resx7_conv1_relu
I0816 15:14:07.759965 25510 net.cpp:91] Creating Layer resx7_conv1_relu
I0816 15:14:07.759975 25510 net.cpp:469] resx7_conv1_relu <- resx7_conv1
I0816 15:14:07.759986 25510 net.cpp:430] resx7_conv1_relu -> resx7_conv1 (in-place)
I0816 15:14:07.760346 25510 net.cpp:141] Setting up resx7_conv1_relu
I0816 15:14:07.760383 25510 net.cpp:148] Top shape: 80 120 14 14 (1881600)
I0816 15:14:07.760393 25510 net.cpp:156] Memory required for data: 3366559040
I0816 15:14:07.760401 25510 layer_factory.hpp:77] Creating layer shuffle7
I0816 15:14:07.760418 25510 net.cpp:91] Creating Layer shuffle7
I0816 15:14:07.760428 25510 net.cpp:469] shuffle7 <- resx7_conv1
I0816 15:14:07.760439 25510 net.cpp:443] shuffle7 -> shuffle7
I0816 15:14:07.760504 25510 net.cpp:141] Setting up shuffle7
I0816 15:14:07.760519 25510 net.cpp:148] Top shape: 80 120 14 14 (1881600)
I0816 15:14:07.760529 25510 net.cpp:156] Memory required for data: 3374085440
I0816 15:14:07.760536 25510 layer_factory.hpp:77] Creating layer resx7_conv2
I0816 15:14:07.760565 25510 net.cpp:91] Creating Layer resx7_conv2
I0816 15:14:07.760588 25510 net.cpp:469] resx7_conv2 <- shuffle7
I0816 15:14:07.760602 25510 net.cpp:443] resx7_conv2 -> resx7_conv2
I0816 15:14:07.760936 25510 net.cpp:141] Setting up resx7_conv2
I0816 15:14:07.760958 25510 net.cpp:148] Top shape: 80 120 14 14 (1881600)
I0816 15:14:07.760967 25510 net.cpp:156] Memory required for data: 3381611840
I0816 15:14:07.760978 25510 layer_factory.hpp:77] Creating layer resx7_conv2_bn
I0816 15:14:07.760998 25510 net.cpp:91] Creating Layer resx7_conv2_bn
I0816 15:14:07.761008 25510 net.cpp:469] resx7_conv2_bn <- resx7_conv2
I0816 15:14:07.761020 25510 net.cpp:430] resx7_conv2_bn -> resx7_conv2 (in-place)
I0816 15:14:07.761577 25510 net.cpp:141] Setting up resx7_conv2_bn
I0816 15:14:07.761590 25510 net.cpp:148] Top shape: 80 120 14 14 (1881600)
I0816 15:14:07.761593 25510 net.cpp:156] Memory required for data: 3389138240
I0816 15:14:07.761600 25510 layer_factory.hpp:77] Creating layer resx7_conv2_scale
I0816 15:14:07.761608 25510 net.cpp:91] Creating Layer resx7_conv2_scale
I0816 15:14:07.761613 25510 net.cpp:469] resx7_conv2_scale <- resx7_conv2
I0816 15:14:07.761618 25510 net.cpp:430] resx7_conv2_scale -> resx7_conv2 (in-place)
I0816 15:14:07.761663 25510 layer_factory.hpp:77] Creating layer resx7_conv2_scale
I0816 15:14:07.761777 25510 net.cpp:141] Setting up resx7_conv2_scale
I0816 15:14:07.761786 25510 net.cpp:148] Top shape: 80 120 14 14 (1881600)
I0816 15:14:07.761790 25510 net.cpp:156] Memory required for data: 3396664640
I0816 15:14:07.761796 25510 layer_factory.hpp:77] Creating layer resx7_conv3
I0816 15:14:07.761804 25510 net.cpp:91] Creating Layer resx7_conv3
I0816 15:14:07.761809 25510 net.cpp:469] resx7_conv3 <- resx7_conv2
I0816 15:14:07.761816 25510 net.cpp:443] resx7_conv3 -> resx7_conv3
I0816 15:14:07.764899 25510 net.cpp:141] Setting up resx7_conv3
I0816 15:14:07.764914 25510 net.cpp:148] Top shape: 80 480 14 14 (7526400)
I0816 15:14:07.764919 25510 net.cpp:156] Memory required for data: 3426770240
I0816 15:14:07.764924 25510 layer_factory.hpp:77] Creating layer resx7_conv3_bn
I0816 15:14:07.764935 25510 net.cpp:91] Creating Layer resx7_conv3_bn
I0816 15:14:07.764938 25510 net.cpp:469] resx7_conv3_bn <- resx7_conv3
I0816 15:14:07.764945 25510 net.cpp:430] resx7_conv3_bn -> resx7_conv3 (in-place)
I0816 15:14:07.765348 25510 net.cpp:141] Setting up resx7_conv3_bn
I0816 15:14:07.765359 25510 net.cpp:148] Top shape: 80 480 14 14 (7526400)
I0816 15:14:07.765363 25510 net.cpp:156] Memory required for data: 3456875840
I0816 15:14:07.765394 25510 layer_factory.hpp:77] Creating layer resx7_conv3_scale
I0816 15:14:07.765404 25510 net.cpp:91] Creating Layer resx7_conv3_scale
I0816 15:14:07.765409 25510 net.cpp:469] resx7_conv3_scale <- resx7_conv3
I0816 15:14:07.765416 25510 net.cpp:430] resx7_conv3_scale -> resx7_conv3 (in-place)
I0816 15:14:07.765463 25510 layer_factory.hpp:77] Creating layer resx7_conv3_scale
I0816 15:14:07.765583 25510 net.cpp:141] Setting up resx7_conv3_scale
I0816 15:14:07.765590 25510 net.cpp:148] Top shape: 80 480 14 14 (7526400)
I0816 15:14:07.765594 25510 net.cpp:156] Memory required for data: 3486981440
I0816 15:14:07.765600 25510 layer_factory.hpp:77] Creating layer resx7_elewise
I0816 15:14:07.765607 25510 net.cpp:91] Creating Layer resx7_elewise
I0816 15:14:07.765611 25510 net.cpp:469] resx7_elewise <- resx6_elewise_resx6_elewise_relu_0_split_1
I0816 15:14:07.765616 25510 net.cpp:469] resx7_elewise <- resx7_conv3
I0816 15:14:07.765624 25510 net.cpp:443] resx7_elewise -> resx7_elewise
I0816 15:14:07.765651 25510 net.cpp:141] Setting up resx7_elewise
I0816 15:14:07.765658 25510 net.cpp:148] Top shape: 80 480 14 14 (7526400)
I0816 15:14:07.765661 25510 net.cpp:156] Memory required for data: 3517087040
I0816 15:14:07.765666 25510 layer_factory.hpp:77] Creating layer resx7_elewise_relu
I0816 15:14:07.765671 25510 net.cpp:91] Creating Layer resx7_elewise_relu
I0816 15:14:07.765674 25510 net.cpp:469] resx7_elewise_relu <- resx7_elewise
I0816 15:14:07.765679 25510 net.cpp:430] resx7_elewise_relu -> resx7_elewise (in-place)
I0816 15:14:07.765856 25510 net.cpp:141] Setting up resx7_elewise_relu
I0816 15:14:07.765866 25510 net.cpp:148] Top shape: 80 480 14 14 (7526400)
I0816 15:14:07.765871 25510 net.cpp:156] Memory required for data: 3547192640
I0816 15:14:07.765874 25510 layer_factory.hpp:77] Creating layer resx7_elewise_resx7_elewise_relu_0_split
I0816 15:14:07.765880 25510 net.cpp:91] Creating Layer resx7_elewise_resx7_elewise_relu_0_split
I0816 15:14:07.765884 25510 net.cpp:469] resx7_elewise_resx7_elewise_relu_0_split <- resx7_elewise
I0816 15:14:07.765892 25510 net.cpp:443] resx7_elewise_resx7_elewise_relu_0_split -> resx7_elewise_resx7_elewise_relu_0_split_0
I0816 15:14:07.765898 25510 net.cpp:443] resx7_elewise_resx7_elewise_relu_0_split -> resx7_elewise_resx7_elewise_relu_0_split_1
I0816 15:14:07.765941 25510 net.cpp:141] Setting up resx7_elewise_resx7_elewise_relu_0_split
I0816 15:14:07.765949 25510 net.cpp:148] Top shape: 80 480 14 14 (7526400)
I0816 15:14:07.765954 25510 net.cpp:148] Top shape: 80 480 14 14 (7526400)
I0816 15:14:07.765956 25510 net.cpp:156] Memory required for data: 3607403840
I0816 15:14:07.765960 25510 layer_factory.hpp:77] Creating layer resx8_conv1
I0816 15:14:07.765972 25510 net.cpp:91] Creating Layer resx8_conv1
I0816 15:14:07.765976 25510 net.cpp:469] resx8_conv1 <- resx7_elewise_resx7_elewise_relu_0_split_0
I0816 15:14:07.765982 25510 net.cpp:443] resx8_conv1 -> resx8_conv1
I0816 15:14:07.769055 25510 net.cpp:141] Setting up resx8_conv1
I0816 15:14:07.769070 25510 net.cpp:148] Top shape: 80 120 14 14 (1881600)
I0816 15:14:07.769074 25510 net.cpp:156] Memory required for data: 3614930240
I0816 15:14:07.769086 25510 layer_factory.hpp:77] Creating layer resx8_conv1_bn
I0816 15:14:07.769096 25510 net.cpp:91] Creating Layer resx8_conv1_bn
I0816 15:14:07.769101 25510 net.cpp:469] resx8_conv1_bn <- resx8_conv1
I0816 15:14:07.769109 25510 net.cpp:430] resx8_conv1_bn -> resx8_conv1 (in-place)
I0816 15:14:07.769309 25510 net.cpp:141] Setting up resx8_conv1_bn
I0816 15:14:07.769317 25510 net.cpp:148] Top shape: 80 120 14 14 (1881600)
I0816 15:14:07.769320 25510 net.cpp:156] Memory required for data: 3622456640
I0816 15:14:07.769328 25510 layer_factory.hpp:77] Creating layer resx8_conv1_scale
I0816 15:14:07.769337 25510 net.cpp:91] Creating Layer resx8_conv1_scale
I0816 15:14:07.769341 25510 net.cpp:469] resx8_conv1_scale <- resx8_conv1
I0816 15:14:07.769346 25510 net.cpp:430] resx8_conv1_scale -> resx8_conv1 (in-place)
I0816 15:14:07.769389 25510 layer_factory.hpp:77] Creating layer resx8_conv1_scale
I0816 15:14:07.769508 25510 net.cpp:141] Setting up resx8_conv1_scale
I0816 15:14:07.769518 25510 net.cpp:148] Top shape: 80 120 14 14 (1881600)
I0816 15:14:07.769522 25510 net.cpp:156] Memory required for data: 3629983040
I0816 15:14:07.769528 25510 layer_factory.hpp:77] Creating layer resx8_conv1_relu
I0816 15:14:07.769534 25510 net.cpp:91] Creating Layer resx8_conv1_relu
I0816 15:14:07.769538 25510 net.cpp:469] resx8_conv1_relu <- resx8_conv1
I0816 15:14:07.769546 25510 net.cpp:430] resx8_conv1_relu -> resx8_conv1 (in-place)
I0816 15:14:07.769706 25510 net.cpp:141] Setting up resx8_conv1_relu
I0816 15:14:07.769716 25510 net.cpp:148] Top shape: 80 120 14 14 (1881600)
I0816 15:14:07.769721 25510 net.cpp:156] Memory required for data: 3637509440
I0816 15:14:07.769724 25510 layer_factory.hpp:77] Creating layer shuffle8
I0816 15:14:07.769731 25510 net.cpp:91] Creating Layer shuffle8
I0816 15:14:07.769734 25510 net.cpp:469] shuffle8 <- resx8_conv1
I0816 15:14:07.769742 25510 net.cpp:443] shuffle8 -> shuffle8
I0816 15:14:07.769773 25510 net.cpp:141] Setting up shuffle8
I0816 15:14:07.769779 25510 net.cpp:148] Top shape: 80 120 14 14 (1881600)
I0816 15:14:07.769783 25510 net.cpp:156] Memory required for data: 3645035840
I0816 15:14:07.769786 25510 layer_factory.hpp:77] Creating layer resx8_conv2
I0816 15:14:07.769795 25510 net.cpp:91] Creating Layer resx8_conv2
I0816 15:14:07.769800 25510 net.cpp:469] resx8_conv2 <- shuffle8
I0816 15:14:07.769806 25510 net.cpp:443] resx8_conv2 -> resx8_conv2
I0816 15:14:07.770144 25510 net.cpp:141] Setting up resx8_conv2
I0816 15:14:07.770164 25510 net.cpp:148] Top shape: 80 120 14 14 (1881600)
I0816 15:14:07.770169 25510 net.cpp:156] Memory required for data: 3652562240
I0816 15:14:07.770174 25510 layer_factory.hpp:77] Creating layer resx8_conv2_bn
I0816 15:14:07.770182 25510 net.cpp:91] Creating Layer resx8_conv2_bn
I0816 15:14:07.770186 25510 net.cpp:469] resx8_conv2_bn <- resx8_conv2
I0816 15:14:07.770195 25510 net.cpp:430] resx8_conv2_bn -> resx8_conv2 (in-place)
I0816 15:14:07.770398 25510 net.cpp:141] Setting up resx8_conv2_bn
I0816 15:14:07.770406 25510 net.cpp:148] Top shape: 80 120 14 14 (1881600)
I0816 15:14:07.770409 25510 net.cpp:156] Memory required for data: 3660088640
I0816 15:14:07.770417 25510 layer_factory.hpp:77] Creating layer resx8_conv2_scale
I0816 15:14:07.770424 25510 net.cpp:91] Creating Layer resx8_conv2_scale
I0816 15:14:07.770428 25510 net.cpp:469] resx8_conv2_scale <- resx8_conv2
I0816 15:14:07.770436 25510 net.cpp:430] resx8_conv2_scale -> resx8_conv2 (in-place)
I0816 15:14:07.770478 25510 layer_factory.hpp:77] Creating layer resx8_conv2_scale
I0816 15:14:07.770597 25510 net.cpp:141] Setting up resx8_conv2_scale
I0816 15:14:07.770606 25510 net.cpp:148] Top shape: 80 120 14 14 (1881600)
I0816 15:14:07.770609 25510 net.cpp:156] Memory required for data: 3667615040
I0816 15:14:07.770615 25510 layer_factory.hpp:77] Creating layer resx8_conv3
I0816 15:14:07.770625 25510 net.cpp:91] Creating Layer resx8_conv3
I0816 15:14:07.770630 25510 net.cpp:469] resx8_conv3 <- resx8_conv2
I0816 15:14:07.770637 25510 net.cpp:443] resx8_conv3 -> resx8_conv3
I0816 15:14:07.773599 25510 net.cpp:141] Setting up resx8_conv3
I0816 15:14:07.773615 25510 net.cpp:148] Top shape: 80 480 14 14 (7526400)
I0816 15:14:07.773619 25510 net.cpp:156] Memory required for data: 3697720640
I0816 15:14:07.773627 25510 layer_factory.hpp:77] Creating layer resx8_conv3_bn
I0816 15:14:07.773635 25510 net.cpp:91] Creating Layer resx8_conv3_bn
I0816 15:14:07.773640 25510 net.cpp:469] resx8_conv3_bn <- resx8_conv3
I0816 15:14:07.773646 25510 net.cpp:430] resx8_conv3_bn -> resx8_conv3 (in-place)
I0816 15:14:07.773856 25510 net.cpp:141] Setting up resx8_conv3_bn
I0816 15:14:07.773864 25510 net.cpp:148] Top shape: 80 480 14 14 (7526400)
I0816 15:14:07.773869 25510 net.cpp:156] Memory required for data: 3727826240
I0816 15:14:07.773875 25510 layer_factory.hpp:77] Creating layer resx8_conv3_scale
I0816 15:14:07.773885 25510 net.cpp:91] Creating Layer resx8_conv3_scale
I0816 15:14:07.773890 25510 net.cpp:469] resx8_conv3_scale <- resx8_conv3
I0816 15:14:07.773895 25510 net.cpp:430] resx8_conv3_scale -> resx8_conv3 (in-place)
I0816 15:14:07.773941 25510 layer_factory.hpp:77] Creating layer resx8_conv3_scale
I0816 15:14:07.774062 25510 net.cpp:141] Setting up resx8_conv3_scale
I0816 15:14:07.774070 25510 net.cpp:148] Top shape: 80 480 14 14 (7526400)
I0816 15:14:07.774075 25510 net.cpp:156] Memory required for data: 3757931840
I0816 15:14:07.774080 25510 layer_factory.hpp:77] Creating layer resx8_elewise
I0816 15:14:07.774091 25510 net.cpp:91] Creating Layer resx8_elewise
I0816 15:14:07.774096 25510 net.cpp:469] resx8_elewise <- resx7_elewise_resx7_elewise_relu_0_split_1
I0816 15:14:07.774099 25510 net.cpp:469] resx8_elewise <- resx8_conv3
I0816 15:14:07.774104 25510 net.cpp:443] resx8_elewise -> resx8_elewise
I0816 15:14:07.774133 25510 net.cpp:141] Setting up resx8_elewise
I0816 15:14:07.774140 25510 net.cpp:148] Top shape: 80 480 14 14 (7526400)
I0816 15:14:07.774144 25510 net.cpp:156] Memory required for data: 3788037440
I0816 15:14:07.774147 25510 layer_factory.hpp:77] Creating layer resx8_elewise_relu
I0816 15:14:07.774153 25510 net.cpp:91] Creating Layer resx8_elewise_relu
I0816 15:14:07.774158 25510 net.cpp:469] resx8_elewise_relu <- resx8_elewise
I0816 15:14:07.774163 25510 net.cpp:430] resx8_elewise_relu -> resx8_elewise (in-place)
I0816 15:14:07.774494 25510 net.cpp:141] Setting up resx8_elewise_relu
I0816 15:14:07.774508 25510 net.cpp:148] Top shape: 80 480 14 14 (7526400)
I0816 15:14:07.774516 25510 net.cpp:156] Memory required for data: 3818143040
I0816 15:14:07.774528 25510 layer_factory.hpp:77] Creating layer resx8_elewise_resx8_elewise_relu_0_split
I0816 15:14:07.774534 25510 net.cpp:91] Creating Layer resx8_elewise_resx8_elewise_relu_0_split
I0816 15:14:07.774541 25510 net.cpp:469] resx8_elewise_resx8_elewise_relu_0_split <- resx8_elewise
I0816 15:14:07.774547 25510 net.cpp:443] resx8_elewise_resx8_elewise_relu_0_split -> resx8_elewise_resx8_elewise_relu_0_split_0
I0816 15:14:07.774554 25510 net.cpp:443] resx8_elewise_resx8_elewise_relu_0_split -> resx8_elewise_resx8_elewise_relu_0_split_1
I0816 15:14:07.774601 25510 net.cpp:141] Setting up resx8_elewise_resx8_elewise_relu_0_split
I0816 15:14:07.774610 25510 net.cpp:148] Top shape: 80 480 14 14 (7526400)
I0816 15:14:07.774613 25510 net.cpp:148] Top shape: 80 480 14 14 (7526400)
I0816 15:14:07.774617 25510 net.cpp:156] Memory required for data: 3878354240
I0816 15:14:07.774621 25510 layer_factory.hpp:77] Creating layer resx9_conv1
I0816 15:14:07.774631 25510 net.cpp:91] Creating Layer resx9_conv1
I0816 15:14:07.774636 25510 net.cpp:469] resx9_conv1 <- resx8_elewise_resx8_elewise_relu_0_split_0
I0816 15:14:07.774641 25510 net.cpp:443] resx9_conv1 -> resx9_conv1
I0816 15:14:07.777776 25510 net.cpp:141] Setting up resx9_conv1
I0816 15:14:07.777791 25510 net.cpp:148] Top shape: 80 120 14 14 (1881600)
I0816 15:14:07.777796 25510 net.cpp:156] Memory required for data: 3885880640
I0816 15:14:07.777801 25510 layer_factory.hpp:77] Creating layer resx9_conv1_bn
I0816 15:14:07.777812 25510 net.cpp:91] Creating Layer resx9_conv1_bn
I0816 15:14:07.777817 25510 net.cpp:469] resx9_conv1_bn <- resx9_conv1
I0816 15:14:07.777823 25510 net.cpp:430] resx9_conv1_bn -> resx9_conv1 (in-place)
I0816 15:14:07.778028 25510 net.cpp:141] Setting up resx9_conv1_bn
I0816 15:14:07.778035 25510 net.cpp:148] Top shape: 80 120 14 14 (1881600)
I0816 15:14:07.778039 25510 net.cpp:156] Memory required for data: 3893407040
I0816 15:14:07.778046 25510 layer_factory.hpp:77] Creating layer resx9_conv1_scale
I0816 15:14:07.778055 25510 net.cpp:91] Creating Layer resx9_conv1_scale
I0816 15:14:07.778060 25510 net.cpp:469] resx9_conv1_scale <- resx9_conv1
I0816 15:14:07.778065 25510 net.cpp:430] resx9_conv1_scale -> resx9_conv1 (in-place)
I0816 15:14:07.778111 25510 layer_factory.hpp:77] Creating layer resx9_conv1_scale
I0816 15:14:07.778231 25510 net.cpp:141] Setting up resx9_conv1_scale
I0816 15:14:07.778239 25510 net.cpp:148] Top shape: 80 120 14 14 (1881600)
I0816 15:14:07.778242 25510 net.cpp:156] Memory required for data: 3900933440
I0816 15:14:07.778249 25510 layer_factory.hpp:77] Creating layer resx9_conv1_relu
I0816 15:14:07.778257 25510 net.cpp:91] Creating Layer resx9_conv1_relu
I0816 15:14:07.778261 25510 net.cpp:469] resx9_conv1_relu <- resx9_conv1
I0816 15:14:07.778266 25510 net.cpp:430] resx9_conv1_relu -> resx9_conv1 (in-place)
I0816 15:14:07.778606 25510 net.cpp:141] Setting up resx9_conv1_relu
I0816 15:14:07.778620 25510 net.cpp:148] Top shape: 80 120 14 14 (1881600)
I0816 15:14:07.778623 25510 net.cpp:156] Memory required for data: 3908459840
I0816 15:14:07.778627 25510 layer_factory.hpp:77] Creating layer shuffle9
I0816 15:14:07.778635 25510 net.cpp:91] Creating Layer shuffle9
I0816 15:14:07.778640 25510 net.cpp:469] shuffle9 <- resx9_conv1
I0816 15:14:07.778646 25510 net.cpp:443] shuffle9 -> shuffle9
I0816 15:14:07.778687 25510 net.cpp:141] Setting up shuffle9
I0816 15:14:07.778697 25510 net.cpp:148] Top shape: 80 120 14 14 (1881600)
I0816 15:14:07.778699 25510 net.cpp:156] Memory required for data: 3915986240
I0816 15:14:07.778703 25510 layer_factory.hpp:77] Creating layer resx9_conv2
I0816 15:14:07.778713 25510 net.cpp:91] Creating Layer resx9_conv2
I0816 15:14:07.778718 25510 net.cpp:469] resx9_conv2 <- shuffle9
I0816 15:14:07.778726 25510 net.cpp:443] resx9_conv2 -> resx9_conv2
I0816 15:14:07.778873 25510 net.cpp:141] Setting up resx9_conv2
I0816 15:14:07.778884 25510 net.cpp:148] Top shape: 80 120 14 14 (1881600)
I0816 15:14:07.778888 25510 net.cpp:156] Memory required for data: 3923512640
I0816 15:14:07.778903 25510 layer_factory.hpp:77] Creating layer resx9_conv2_bn
I0816 15:14:07.778913 25510 net.cpp:91] Creating Layer resx9_conv2_bn
I0816 15:14:07.778918 25510 net.cpp:469] resx9_conv2_bn <- resx9_conv2
I0816 15:14:07.778924 25510 net.cpp:430] resx9_conv2_bn -> resx9_conv2 (in-place)
I0816 15:14:07.779121 25510 net.cpp:141] Setting up resx9_conv2_bn
I0816 15:14:07.779129 25510 net.cpp:148] Top shape: 80 120 14 14 (1881600)
I0816 15:14:07.779134 25510 net.cpp:156] Memory required for data: 3931039040
I0816 15:14:07.779141 25510 layer_factory.hpp:77] Creating layer resx9_conv2_scale
I0816 15:14:07.779150 25510 net.cpp:91] Creating Layer resx9_conv2_scale
I0816 15:14:07.779155 25510 net.cpp:469] resx9_conv2_scale <- resx9_conv2
I0816 15:14:07.779160 25510 net.cpp:430] resx9_conv2_scale -> resx9_conv2 (in-place)
I0816 15:14:07.779206 25510 layer_factory.hpp:77] Creating layer resx9_conv2_scale
I0816 15:14:07.779330 25510 net.cpp:141] Setting up resx9_conv2_scale
I0816 15:14:07.779338 25510 net.cpp:148] Top shape: 80 120 14 14 (1881600)
I0816 15:14:07.779342 25510 net.cpp:156] Memory required for data: 3938565440
I0816 15:14:07.779348 25510 layer_factory.hpp:77] Creating layer resx9_conv3
I0816 15:14:07.779376 25510 net.cpp:91] Creating Layer resx9_conv3
I0816 15:14:07.779381 25510 net.cpp:469] resx9_conv3 <- resx9_conv2
I0816 15:14:07.779387 25510 net.cpp:443] resx9_conv3 -> resx9_conv3
I0816 15:14:07.782407 25510 net.cpp:141] Setting up resx9_conv3
I0816 15:14:07.782423 25510 net.cpp:148] Top shape: 80 480 14 14 (7526400)
I0816 15:14:07.782426 25510 net.cpp:156] Memory required for data: 3968671040
I0816 15:14:07.782433 25510 layer_factory.hpp:77] Creating layer resx9_conv3_bn
I0816 15:14:07.782444 25510 net.cpp:91] Creating Layer resx9_conv3_bn
I0816 15:14:07.782447 25510 net.cpp:469] resx9_conv3_bn <- resx9_conv3
I0816 15:14:07.782454 25510 net.cpp:430] resx9_conv3_bn -> resx9_conv3 (in-place)
I0816 15:14:07.782675 25510 net.cpp:141] Setting up resx9_conv3_bn
I0816 15:14:07.782683 25510 net.cpp:148] Top shape: 80 480 14 14 (7526400)
I0816 15:14:07.782687 25510 net.cpp:156] Memory required for data: 3998776640
I0816 15:14:07.782694 25510 layer_factory.hpp:77] Creating layer resx9_conv3_scale
I0816 15:14:07.782703 25510 net.cpp:91] Creating Layer resx9_conv3_scale
I0816 15:14:07.782708 25510 net.cpp:469] resx9_conv3_scale <- resx9_conv3
I0816 15:14:07.782713 25510 net.cpp:430] resx9_conv3_scale -> resx9_conv3 (in-place)
I0816 15:14:07.782763 25510 layer_factory.hpp:77] Creating layer resx9_conv3_scale
I0816 15:14:07.782888 25510 net.cpp:141] Setting up resx9_conv3_scale
I0816 15:14:07.782897 25510 net.cpp:148] Top shape: 80 480 14 14 (7526400)
I0816 15:14:07.782902 25510 net.cpp:156] Memory required for data: 4028882240
I0816 15:14:07.782907 25510 layer_factory.hpp:77] Creating layer resx9_elewise
I0816 15:14:07.782914 25510 net.cpp:91] Creating Layer resx9_elewise
I0816 15:14:07.782918 25510 net.cpp:469] resx9_elewise <- resx8_elewise_resx8_elewise_relu_0_split_1
I0816 15:14:07.782923 25510 net.cpp:469] resx9_elewise <- resx9_conv3
I0816 15:14:07.782932 25510 net.cpp:443] resx9_elewise -> resx9_elewise
I0816 15:14:07.782964 25510 net.cpp:141] Setting up resx9_elewise
I0816 15:14:07.782971 25510 net.cpp:148] Top shape: 80 480 14 14 (7526400)
I0816 15:14:07.782974 25510 net.cpp:156] Memory required for data: 4058987840
I0816 15:14:07.782979 25510 layer_factory.hpp:77] Creating layer resx9_elewise_relu
I0816 15:14:07.782986 25510 net.cpp:91] Creating Layer resx9_elewise_relu
I0816 15:14:07.782990 25510 net.cpp:469] resx9_elewise_relu <- resx9_elewise
I0816 15:14:07.782995 25510 net.cpp:430] resx9_elewise_relu -> resx9_elewise (in-place)
I0816 15:14:07.783509 25510 net.cpp:141] Setting up resx9_elewise_relu
I0816 15:14:07.783521 25510 net.cpp:148] Top shape: 80 480 14 14 (7526400)
I0816 15:14:07.783525 25510 net.cpp:156] Memory required for data: 4089093440
I0816 15:14:07.783529 25510 layer_factory.hpp:77] Creating layer resx9_elewise_resx9_elewise_relu_0_split
I0816 15:14:07.783542 25510 net.cpp:91] Creating Layer resx9_elewise_resx9_elewise_relu_0_split
I0816 15:14:07.783553 25510 net.cpp:469] resx9_elewise_resx9_elewise_relu_0_split <- resx9_elewise
I0816 15:14:07.783560 25510 net.cpp:443] resx9_elewise_resx9_elewise_relu_0_split -> resx9_elewise_resx9_elewise_relu_0_split_0
I0816 15:14:07.783568 25510 net.cpp:443] resx9_elewise_resx9_elewise_relu_0_split -> resx9_elewise_resx9_elewise_relu_0_split_1
I0816 15:14:07.783618 25510 net.cpp:141] Setting up resx9_elewise_resx9_elewise_relu_0_split
I0816 15:14:07.783625 25510 net.cpp:148] Top shape: 80 480 14 14 (7526400)
I0816 15:14:07.783629 25510 net.cpp:148] Top shape: 80 480 14 14 (7526400)
I0816 15:14:07.783633 25510 net.cpp:156] Memory required for data: 4149304640
I0816 15:14:07.783637 25510 layer_factory.hpp:77] Creating layer resx10_conv1
I0816 15:14:07.783648 25510 net.cpp:91] Creating Layer resx10_conv1
I0816 15:14:07.783651 25510 net.cpp:469] resx10_conv1 <- resx9_elewise_resx9_elewise_relu_0_split_0
I0816 15:14:07.783660 25510 net.cpp:443] resx10_conv1 -> resx10_conv1
I0816 15:14:07.786898 25510 net.cpp:141] Setting up resx10_conv1
I0816 15:14:07.786929 25510 net.cpp:148] Top shape: 80 120 14 14 (1881600)
I0816 15:14:07.786933 25510 net.cpp:156] Memory required for data: 4156831040
I0816 15:14:07.786940 25510 layer_factory.hpp:77] Creating layer resx10_conv1_bn
I0816 15:14:07.786952 25510 net.cpp:91] Creating Layer resx10_conv1_bn
I0816 15:14:07.786958 25510 net.cpp:469] resx10_conv1_bn <- resx10_conv1
I0816 15:14:07.786965 25510 net.cpp:430] resx10_conv1_bn -> resx10_conv1 (in-place)
I0816 15:14:07.787192 25510 net.cpp:141] Setting up resx10_conv1_bn
I0816 15:14:07.787200 25510 net.cpp:148] Top shape: 80 120 14 14 (1881600)
I0816 15:14:07.787204 25510 net.cpp:156] Memory required for data: 4164357440
I0816 15:14:07.787211 25510 layer_factory.hpp:77] Creating layer resx10_conv1_scale
I0816 15:14:07.787221 25510 net.cpp:91] Creating Layer resx10_conv1_scale
I0816 15:14:07.787226 25510 net.cpp:469] resx10_conv1_scale <- resx10_conv1
I0816 15:14:07.787231 25510 net.cpp:430] resx10_conv1_scale -> resx10_conv1 (in-place)
I0816 15:14:07.787281 25510 layer_factory.hpp:77] Creating layer resx10_conv1_scale
I0816 15:14:07.787413 25510 net.cpp:141] Setting up resx10_conv1_scale
I0816 15:14:07.787421 25510 net.cpp:148] Top shape: 80 120 14 14 (1881600)
I0816 15:14:07.787425 25510 net.cpp:156] Memory required for data: 4171883840
I0816 15:14:07.787431 25510 layer_factory.hpp:77] Creating layer resx10_conv1_relu
I0816 15:14:07.787438 25510 net.cpp:91] Creating Layer resx10_conv1_relu
I0816 15:14:07.787441 25510 net.cpp:469] resx10_conv1_relu <- resx10_conv1
I0816 15:14:07.787446 25510 net.cpp:430] resx10_conv1_relu -> resx10_conv1 (in-place)
I0816 15:14:07.787791 25510 net.cpp:141] Setting up resx10_conv1_relu
I0816 15:14:07.787806 25510 net.cpp:148] Top shape: 80 120 14 14 (1881600)
I0816 15:14:07.787809 25510 net.cpp:156] Memory required for data: 4179410240
I0816 15:14:07.787813 25510 layer_factory.hpp:77] Creating layer shuffle10
I0816 15:14:07.787820 25510 net.cpp:91] Creating Layer shuffle10
I0816 15:14:07.787825 25510 net.cpp:469] shuffle10 <- resx10_conv1
I0816 15:14:07.787832 25510 net.cpp:443] shuffle10 -> shuffle10
I0816 15:14:07.787869 25510 net.cpp:141] Setting up shuffle10
I0816 15:14:07.787878 25510 net.cpp:148] Top shape: 80 120 14 14 (1881600)
I0816 15:14:07.787880 25510 net.cpp:156] Memory required for data: 4186936640
I0816 15:14:07.787884 25510 layer_factory.hpp:77] Creating layer resx10_conv2
I0816 15:14:07.787894 25510 net.cpp:91] Creating Layer resx10_conv2
I0816 15:14:07.787899 25510 net.cpp:469] resx10_conv2 <- shuffle10
I0816 15:14:07.787904 25510 net.cpp:443] resx10_conv2 -> resx10_conv2
I0816 15:14:07.788070 25510 net.cpp:141] Setting up resx10_conv2
I0816 15:14:07.788081 25510 net.cpp:148] Top shape: 80 120 14 14 (1881600)
I0816 15:14:07.788084 25510 net.cpp:156] Memory required for data: 4194463040
I0816 15:14:07.788090 25510 layer_factory.hpp:77] Creating layer resx10_conv2_bn
I0816 15:14:07.788100 25510 net.cpp:91] Creating Layer resx10_conv2_bn
I0816 15:14:07.788120 25510 net.cpp:469] resx10_conv2_bn <- resx10_conv2
I0816 15:14:07.788125 25510 net.cpp:430] resx10_conv2_bn -> resx10_conv2 (in-place)
I0816 15:14:07.788336 25510 net.cpp:141] Setting up resx10_conv2_bn
I0816 15:14:07.788344 25510 net.cpp:148] Top shape: 80 120 14 14 (1881600)
I0816 15:14:07.788347 25510 net.cpp:156] Memory required for data: 4201989440
I0816 15:14:07.788355 25510 layer_factory.hpp:77] Creating layer resx10_conv2_scale
I0816 15:14:07.788362 25510 net.cpp:91] Creating Layer resx10_conv2_scale
I0816 15:14:07.788367 25510 net.cpp:469] resx10_conv2_scale <- resx10_conv2
I0816 15:14:07.788372 25510 net.cpp:430] resx10_conv2_scale -> resx10_conv2 (in-place)
I0816 15:14:07.788420 25510 layer_factory.hpp:77] Creating layer resx10_conv2_scale
I0816 15:14:07.788554 25510 net.cpp:141] Setting up resx10_conv2_scale
I0816 15:14:07.788563 25510 net.cpp:148] Top shape: 80 120 14 14 (1881600)
I0816 15:14:07.788566 25510 net.cpp:156] Memory required for data: 4209515840
I0816 15:14:07.788573 25510 layer_factory.hpp:77] Creating layer resx10_conv3
I0816 15:14:07.788583 25510 net.cpp:91] Creating Layer resx10_conv3
I0816 15:14:07.788586 25510 net.cpp:469] resx10_conv3 <- resx10_conv2
I0816 15:14:07.788592 25510 net.cpp:443] resx10_conv3 -> resx10_conv3
I0816 15:14:07.791661 25510 net.cpp:141] Setting up resx10_conv3
I0816 15:14:07.791678 25510 net.cpp:148] Top shape: 80 480 14 14 (7526400)
I0816 15:14:07.791683 25510 net.cpp:156] Memory required for data: 4239621440
I0816 15:14:07.791689 25510 layer_factory.hpp:77] Creating layer resx10_conv3_bn
I0816 15:14:07.791697 25510 net.cpp:91] Creating Layer resx10_conv3_bn
I0816 15:14:07.791702 25510 net.cpp:469] resx10_conv3_bn <- resx10_conv3
I0816 15:14:07.791709 25510 net.cpp:430] resx10_conv3_bn -> resx10_conv3 (in-place)
I0816 15:14:07.791939 25510 net.cpp:141] Setting up resx10_conv3_bn
I0816 15:14:07.791949 25510 net.cpp:148] Top shape: 80 480 14 14 (7526400)
I0816 15:14:07.791951 25510 net.cpp:156] Memory required for data: 4269727040
I0816 15:14:07.791960 25510 layer_factory.hpp:77] Creating layer resx10_conv3_scale
I0816 15:14:07.791966 25510 net.cpp:91] Creating Layer resx10_conv3_scale
I0816 15:14:07.791970 25510 net.cpp:469] resx10_conv3_scale <- resx10_conv3
I0816 15:14:07.791977 25510 net.cpp:430] resx10_conv3_scale -> resx10_conv3 (in-place)
I0816 15:14:07.792026 25510 layer_factory.hpp:77] Creating layer resx10_conv3_scale
I0816 15:14:07.792155 25510 net.cpp:141] Setting up resx10_conv3_scale
I0816 15:14:07.792162 25510 net.cpp:148] Top shape: 80 480 14 14 (7526400)
I0816 15:14:07.792166 25510 net.cpp:156] Memory required for data: 4299832640
I0816 15:14:07.792172 25510 layer_factory.hpp:77] Creating layer resx10_elewise
I0816 15:14:07.792179 25510 net.cpp:91] Creating Layer resx10_elewise
I0816 15:14:07.792184 25510 net.cpp:469] resx10_elewise <- resx9_elewise_resx9_elewise_relu_0_split_1
I0816 15:14:07.792189 25510 net.cpp:469] resx10_elewise <- resx10_conv3
I0816 15:14:07.792197 25510 net.cpp:443] resx10_elewise -> resx10_elewise
I0816 15:14:07.792235 25510 net.cpp:141] Setting up resx10_elewise
I0816 15:14:07.792243 25510 net.cpp:148] Top shape: 80 480 14 14 (7526400)
I0816 15:14:07.792246 25510 net.cpp:156] Memory required for data: 4329938240
I0816 15:14:07.792249 25510 layer_factory.hpp:77] Creating layer resx10_elewise_relu
I0816 15:14:07.792256 25510 net.cpp:91] Creating Layer resx10_elewise_relu
I0816 15:14:07.792260 25510 net.cpp:469] resx10_elewise_relu <- resx10_elewise
I0816 15:14:07.792265 25510 net.cpp:430] resx10_elewise_relu -> resx10_elewise (in-place)
I0816 15:14:07.792613 25510 net.cpp:141] Setting up resx10_elewise_relu
I0816 15:14:07.792625 25510 net.cpp:148] Top shape: 80 480 14 14 (7526400)
I0816 15:14:07.792629 25510 net.cpp:156] Memory required for data: 4360043840
I0816 15:14:07.792634 25510 layer_factory.hpp:77] Creating layer resx10_elewise_resx10_elewise_relu_0_split
I0816 15:14:07.792642 25510 net.cpp:91] Creating Layer resx10_elewise_resx10_elewise_relu_0_split
I0816 15:14:07.792651 25510 net.cpp:469] resx10_elewise_resx10_elewise_relu_0_split <- resx10_elewise
I0816 15:14:07.792665 25510 net.cpp:443] resx10_elewise_resx10_elewise_relu_0_split -> resx10_elewise_resx10_elewise_relu_0_split_0
I0816 15:14:07.792672 25510 net.cpp:443] resx10_elewise_resx10_elewise_relu_0_split -> resx10_elewise_resx10_elewise_relu_0_split_1
I0816 15:14:07.792722 25510 net.cpp:141] Setting up resx10_elewise_resx10_elewise_relu_0_split
I0816 15:14:07.792729 25510 net.cpp:148] Top shape: 80 480 14 14 (7526400)
I0816 15:14:07.792734 25510 net.cpp:148] Top shape: 80 480 14 14 (7526400)
I0816 15:14:07.792737 25510 net.cpp:156] Memory required for data: 4420255040
I0816 15:14:07.792740 25510 layer_factory.hpp:77] Creating layer resx11_conv1
I0816 15:14:07.792752 25510 net.cpp:91] Creating Layer resx11_conv1
I0816 15:14:07.792755 25510 net.cpp:469] resx11_conv1 <- resx10_elewise_resx10_elewise_relu_0_split_0
I0816 15:14:07.792769 25510 net.cpp:443] resx11_conv1 -> resx11_conv1
I0816 15:14:07.795796 25510 net.cpp:141] Setting up resx11_conv1
I0816 15:14:07.795812 25510 net.cpp:148] Top shape: 80 120 14 14 (1881600)
I0816 15:14:07.795816 25510 net.cpp:156] Memory required for data: 4427781440
I0816 15:14:07.795821 25510 layer_factory.hpp:77] Creating layer resx11_conv1_bn
I0816 15:14:07.795832 25510 net.cpp:91] Creating Layer resx11_conv1_bn
I0816 15:14:07.795837 25510 net.cpp:469] resx11_conv1_bn <- resx11_conv1
I0816 15:14:07.795842 25510 net.cpp:430] resx11_conv1_bn -> resx11_conv1 (in-place)
I0816 15:14:07.796073 25510 net.cpp:141] Setting up resx11_conv1_bn
I0816 15:14:07.796082 25510 net.cpp:148] Top shape: 80 120 14 14 (1881600)
I0816 15:14:07.796085 25510 net.cpp:156] Memory required for data: 4435307840
I0816 15:14:07.796093 25510 layer_factory.hpp:77] Creating layer resx11_conv1_scale
I0816 15:14:07.796103 25510 net.cpp:91] Creating Layer resx11_conv1_scale
I0816 15:14:07.796106 25510 net.cpp:469] resx11_conv1_scale <- resx11_conv1
I0816 15:14:07.796113 25510 net.cpp:430] resx11_conv1_scale -> resx11_conv1 (in-place)
I0816 15:14:07.796161 25510 layer_factory.hpp:77] Creating layer resx11_conv1_scale
I0816 15:14:07.796293 25510 net.cpp:141] Setting up resx11_conv1_scale
I0816 15:14:07.796300 25510 net.cpp:148] Top shape: 80 120 14 14 (1881600)
I0816 15:14:07.796304 25510 net.cpp:156] Memory required for data: 4442834240
I0816 15:14:07.796310 25510 layer_factory.hpp:77] Creating layer resx11_conv1_relu
I0816 15:14:07.796317 25510 net.cpp:91] Creating Layer resx11_conv1_relu
I0816 15:14:07.796322 25510 net.cpp:469] resx11_conv1_relu <- resx11_conv1
I0816 15:14:07.796326 25510 net.cpp:430] resx11_conv1_relu -> resx11_conv1 (in-place)
I0816 15:14:07.796845 25510 net.cpp:141] Setting up resx11_conv1_relu
I0816 15:14:07.796859 25510 net.cpp:148] Top shape: 80 120 14 14 (1881600)
I0816 15:14:07.796864 25510 net.cpp:156] Memory required for data: 4450360640
I0816 15:14:07.796867 25510 layer_factory.hpp:77] Creating layer shuffle11
I0816 15:14:07.796876 25510 net.cpp:91] Creating Layer shuffle11
I0816 15:14:07.796880 25510 net.cpp:469] shuffle11 <- resx11_conv1
I0816 15:14:07.796886 25510 net.cpp:443] shuffle11 -> shuffle11
I0816 15:14:07.796926 25510 net.cpp:141] Setting up shuffle11
I0816 15:14:07.796933 25510 net.cpp:148] Top shape: 80 120 14 14 (1881600)
I0816 15:14:07.796937 25510 net.cpp:156] Memory required for data: 4457887040
I0816 15:14:07.796941 25510 layer_factory.hpp:77] Creating layer resx11_conv2
I0816 15:14:07.796950 25510 net.cpp:91] Creating Layer resx11_conv2
I0816 15:14:07.796954 25510 net.cpp:469] resx11_conv2 <- shuffle11
I0816 15:14:07.796960 25510 net.cpp:443] resx11_conv2 -> resx11_conv2
I0816 15:14:07.797289 25510 net.cpp:141] Setting up resx11_conv2
I0816 15:14:07.797303 25510 net.cpp:148] Top shape: 80 120 14 14 (1881600)
I0816 15:14:07.797307 25510 net.cpp:156] Memory required for data: 4465413440
I0816 15:14:07.797312 25510 layer_factory.hpp:77] Creating layer resx11_conv2_bn
I0816 15:14:07.797322 25510 net.cpp:91] Creating Layer resx11_conv2_bn
I0816 15:14:07.797327 25510 net.cpp:469] resx11_conv2_bn <- resx11_conv2
I0816 15:14:07.797336 25510 net.cpp:430] resx11_conv2_bn -> resx11_conv2 (in-place)
I0816 15:14:07.797560 25510 net.cpp:141] Setting up resx11_conv2_bn
I0816 15:14:07.797569 25510 net.cpp:148] Top shape: 80 120 14 14 (1881600)
I0816 15:14:07.797572 25510 net.cpp:156] Memory required for data: 4472939840
I0816 15:14:07.797580 25510 layer_factory.hpp:77] Creating layer resx11_conv2_scale
I0816 15:14:07.797590 25510 net.cpp:91] Creating Layer resx11_conv2_scale
I0816 15:14:07.797593 25510 net.cpp:469] resx11_conv2_scale <- resx11_conv2
I0816 15:14:07.797598 25510 net.cpp:430] resx11_conv2_scale -> resx11_conv2 (in-place)
I0816 15:14:07.797647 25510 layer_factory.hpp:77] Creating layer resx11_conv2_scale
I0816 15:14:07.797783 25510 net.cpp:141] Setting up resx11_conv2_scale
I0816 15:14:07.797791 25510 net.cpp:148] Top shape: 80 120 14 14 (1881600)
I0816 15:14:07.797794 25510 net.cpp:156] Memory required for data: 4480466240
I0816 15:14:07.797801 25510 layer_factory.hpp:77] Creating layer resx11_conv3
I0816 15:14:07.797813 25510 net.cpp:91] Creating Layer resx11_conv3
I0816 15:14:07.797817 25510 net.cpp:469] resx11_conv3 <- resx11_conv2
I0816 15:14:07.797823 25510 net.cpp:443] resx11_conv3 -> resx11_conv3
I0816 15:14:07.800897 25510 net.cpp:141] Setting up resx11_conv3
I0816 15:14:07.800912 25510 net.cpp:148] Top shape: 80 480 14 14 (7526400)
I0816 15:14:07.800916 25510 net.cpp:156] Memory required for data: 4510571840
I0816 15:14:07.800922 25510 layer_factory.hpp:77] Creating layer resx11_conv3_bn
I0816 15:14:07.800931 25510 net.cpp:91] Creating Layer resx11_conv3_bn
I0816 15:14:07.800936 25510 net.cpp:469] resx11_conv3_bn <- resx11_conv3
I0816 15:14:07.800943 25510 net.cpp:430] resx11_conv3_bn -> resx11_conv3 (in-place)
I0816 15:14:07.801179 25510 net.cpp:141] Setting up resx11_conv3_bn
I0816 15:14:07.801189 25510 net.cpp:148] Top shape: 80 480 14 14 (7526400)
I0816 15:14:07.801193 25510 net.cpp:156] Memory required for data: 4540677440
I0816 15:14:07.801201 25510 layer_factory.hpp:77] Creating layer resx11_conv3_scale
I0816 15:14:07.801210 25510 net.cpp:91] Creating Layer resx11_conv3_scale
I0816 15:14:07.801215 25510 net.cpp:469] resx11_conv3_scale <- resx11_conv3
I0816 15:14:07.801220 25510 net.cpp:430] resx11_conv3_scale -> resx11_conv3 (in-place)
I0816 15:14:07.801286 25510 layer_factory.hpp:77] Creating layer resx11_conv3_scale
I0816 15:14:07.801424 25510 net.cpp:141] Setting up resx11_conv3_scale
I0816 15:14:07.801434 25510 net.cpp:148] Top shape: 80 480 14 14 (7526400)
I0816 15:14:07.801439 25510 net.cpp:156] Memory required for data: 4570783040
I0816 15:14:07.801445 25510 layer_factory.hpp:77] Creating layer resx11_elewise
I0816 15:14:07.801451 25510 net.cpp:91] Creating Layer resx11_elewise
I0816 15:14:07.801456 25510 net.cpp:469] resx11_elewise <- resx10_elewise_resx10_elewise_relu_0_split_1
I0816 15:14:07.801460 25510 net.cpp:469] resx11_elewise <- resx11_conv3
I0816 15:14:07.801467 25510 net.cpp:443] resx11_elewise -> resx11_elewise
I0816 15:14:07.801497 25510 net.cpp:141] Setting up resx11_elewise
I0816 15:14:07.801506 25510 net.cpp:148] Top shape: 80 480 14 14 (7526400)
I0816 15:14:07.801508 25510 net.cpp:156] Memory required for data: 4600888640
I0816 15:14:07.801512 25510 layer_factory.hpp:77] Creating layer resx11_elewise_relu
I0816 15:14:07.801520 25510 net.cpp:91] Creating Layer resx11_elewise_relu
I0816 15:14:07.801524 25510 net.cpp:469] resx11_elewise_relu <- resx11_elewise
I0816 15:14:07.801529 25510 net.cpp:430] resx11_elewise_relu -> resx11_elewise (in-place)
I0816 15:14:07.801873 25510 net.cpp:141] Setting up resx11_elewise_relu
I0816 15:14:07.801889 25510 net.cpp:148] Top shape: 80 480 14 14 (7526400)
I0816 15:14:07.801893 25510 net.cpp:156] Memory required for data: 4630994240
I0816 15:14:07.801898 25510 layer_factory.hpp:77] Creating layer resx11_elewise_resx11_elewise_relu_0_split
I0816 15:14:07.801904 25510 net.cpp:91] Creating Layer resx11_elewise_resx11_elewise_relu_0_split
I0816 15:14:07.801909 25510 net.cpp:469] resx11_elewise_resx11_elewise_relu_0_split <- resx11_elewise
I0816 15:14:07.801919 25510 net.cpp:443] resx11_elewise_resx11_elewise_relu_0_split -> resx11_elewise_resx11_elewise_relu_0_split_0
I0816 15:14:07.801934 25510 net.cpp:443] resx11_elewise_resx11_elewise_relu_0_split -> resx11_elewise_resx11_elewise_relu_0_split_1
I0816 15:14:07.801988 25510 net.cpp:141] Setting up resx11_elewise_resx11_elewise_relu_0_split
I0816 15:14:07.801996 25510 net.cpp:148] Top shape: 80 480 14 14 (7526400)
I0816 15:14:07.802000 25510 net.cpp:148] Top shape: 80 480 14 14 (7526400)
I0816 15:14:07.802003 25510 net.cpp:156] Memory required for data: 4691205440
I0816 15:14:07.802007 25510 layer_factory.hpp:77] Creating layer resx12_conv1
I0816 15:14:07.802018 25510 net.cpp:91] Creating Layer resx12_conv1
I0816 15:14:07.802023 25510 net.cpp:469] resx12_conv1 <- resx11_elewise_resx11_elewise_relu_0_split_0
I0816 15:14:07.802034 25510 net.cpp:443] resx12_conv1 -> resx12_conv1
I0816 15:14:07.805119 25510 net.cpp:141] Setting up resx12_conv1
I0816 15:14:07.805135 25510 net.cpp:148] Top shape: 80 120 14 14 (1881600)
I0816 15:14:07.805138 25510 net.cpp:156] Memory required for data: 4698731840
I0816 15:14:07.805145 25510 layer_factory.hpp:77] Creating layer resx12_conv1_bn
I0816 15:14:07.805155 25510 net.cpp:91] Creating Layer resx12_conv1_bn
I0816 15:14:07.805160 25510 net.cpp:469] resx12_conv1_bn <- resx12_conv1
I0816 15:14:07.805164 25510 net.cpp:430] resx12_conv1_bn -> resx12_conv1 (in-place)
I0816 15:14:07.805398 25510 net.cpp:141] Setting up resx12_conv1_bn
I0816 15:14:07.805408 25510 net.cpp:148] Top shape: 80 120 14 14 (1881600)
I0816 15:14:07.805410 25510 net.cpp:156] Memory required for data: 4706258240
I0816 15:14:07.805418 25510 layer_factory.hpp:77] Creating layer resx12_conv1_scale
I0816 15:14:07.805425 25510 net.cpp:91] Creating Layer resx12_conv1_scale
I0816 15:14:07.805429 25510 net.cpp:469] resx12_conv1_scale <- resx12_conv1
I0816 15:14:07.805434 25510 net.cpp:430] resx12_conv1_scale -> resx12_conv1 (in-place)
I0816 15:14:07.805486 25510 layer_factory.hpp:77] Creating layer resx12_conv1_scale
I0816 15:14:07.805624 25510 net.cpp:141] Setting up resx12_conv1_scale
I0816 15:14:07.805632 25510 net.cpp:148] Top shape: 80 120 14 14 (1881600)
I0816 15:14:07.805636 25510 net.cpp:156] Memory required for data: 4713784640
I0816 15:14:07.805642 25510 layer_factory.hpp:77] Creating layer resx12_conv1_relu
I0816 15:14:07.805649 25510 net.cpp:91] Creating Layer resx12_conv1_relu
I0816 15:14:07.805654 25510 net.cpp:469] resx12_conv1_relu <- resx12_conv1
I0816 15:14:07.805658 25510 net.cpp:430] resx12_conv1_relu -> resx12_conv1 (in-place)
I0816 15:14:07.806079 25510 net.cpp:141] Setting up resx12_conv1_relu
I0816 15:14:07.806094 25510 net.cpp:148] Top shape: 80 120 14 14 (1881600)
I0816 15:14:07.806098 25510 net.cpp:156] Memory required for data: 4721311040
I0816 15:14:07.806102 25510 layer_factory.hpp:77] Creating layer shuffle12
I0816 15:14:07.806109 25510 net.cpp:91] Creating Layer shuffle12
I0816 15:14:07.806114 25510 net.cpp:469] shuffle12 <- resx12_conv1
I0816 15:14:07.806120 25510 net.cpp:443] shuffle12 -> shuffle12
I0816 15:14:07.806157 25510 net.cpp:141] Setting up shuffle12
I0816 15:14:07.806165 25510 net.cpp:148] Top shape: 80 120 14 14 (1881600)
I0816 15:14:07.806169 25510 net.cpp:156] Memory required for data: 4728837440
I0816 15:14:07.806172 25510 layer_factory.hpp:77] Creating layer resx12_conv2
I0816 15:14:07.806180 25510 net.cpp:91] Creating Layer resx12_conv2
I0816 15:14:07.806185 25510 net.cpp:469] resx12_conv2 <- shuffle12
I0816 15:14:07.806190 25510 net.cpp:443] resx12_conv2 -> resx12_conv2
I0816 15:14:07.806341 25510 net.cpp:141] Setting up resx12_conv2
I0816 15:14:07.806354 25510 net.cpp:148] Top shape: 80 120 14 14 (1881600)
I0816 15:14:07.806356 25510 net.cpp:156] Memory required for data: 4736363840
I0816 15:14:07.806362 25510 layer_factory.hpp:77] Creating layer resx12_conv2_bn
I0816 15:14:07.806372 25510 net.cpp:91] Creating Layer resx12_conv2_bn
I0816 15:14:07.806377 25510 net.cpp:469] resx12_conv2_bn <- resx12_conv2
I0816 15:14:07.806382 25510 net.cpp:430] resx12_conv2_bn -> resx12_conv2 (in-place)
I0816 15:14:07.806602 25510 net.cpp:141] Setting up resx12_conv2_bn
I0816 15:14:07.806617 25510 net.cpp:148] Top shape: 80 120 14 14 (1881600)
I0816 15:14:07.806622 25510 net.cpp:156] Memory required for data: 4743890240
I0816 15:14:07.806628 25510 layer_factory.hpp:77] Creating layer resx12_conv2_scale
I0816 15:14:07.806637 25510 net.cpp:91] Creating Layer resx12_conv2_scale
I0816 15:14:07.806640 25510 net.cpp:469] resx12_conv2_scale <- resx12_conv2
I0816 15:14:07.806648 25510 net.cpp:430] resx12_conv2_scale -> resx12_conv2 (in-place)
I0816 15:14:07.806700 25510 layer_factory.hpp:77] Creating layer resx12_conv2_scale
I0816 15:14:07.806839 25510 net.cpp:141] Setting up resx12_conv2_scale
I0816 15:14:07.806848 25510 net.cpp:148] Top shape: 80 120 14 14 (1881600)
I0816 15:14:07.806851 25510 net.cpp:156] Memory required for data: 4751416640
I0816 15:14:07.806857 25510 layer_factory.hpp:77] Creating layer resx12_conv3
I0816 15:14:07.806867 25510 net.cpp:91] Creating Layer resx12_conv3
I0816 15:14:07.806872 25510 net.cpp:469] resx12_conv3 <- resx12_conv2
I0816 15:14:07.806877 25510 net.cpp:443] resx12_conv3 -> resx12_conv3
I0816 15:14:07.810796 25510 net.cpp:141] Setting up resx12_conv3
I0816 15:14:07.810813 25510 net.cpp:148] Top shape: 80 480 14 14 (7526400)
I0816 15:14:07.810818 25510 net.cpp:156] Memory required for data: 4781522240
I0816 15:14:07.810823 25510 layer_factory.hpp:77] Creating layer resx12_conv3_bn
I0816 15:14:07.810833 25510 net.cpp:91] Creating Layer resx12_conv3_bn
I0816 15:14:07.810838 25510 net.cpp:469] resx12_conv3_bn <- resx12_conv3
I0816 15:14:07.810845 25510 net.cpp:430] resx12_conv3_bn -> resx12_conv3 (in-place)
I0816 15:14:07.811079 25510 net.cpp:141] Setting up resx12_conv3_bn
I0816 15:14:07.811087 25510 net.cpp:148] Top shape: 80 480 14 14 (7526400)
I0816 15:14:07.811091 25510 net.cpp:156] Memory required for data: 4811627840
I0816 15:14:07.811098 25510 layer_factory.hpp:77] Creating layer resx12_conv3_scale
I0816 15:14:07.811108 25510 net.cpp:91] Creating Layer resx12_conv3_scale
I0816 15:14:07.811113 25510 net.cpp:469] resx12_conv3_scale <- resx12_conv3
I0816 15:14:07.811118 25510 net.cpp:430] resx12_conv3_scale -> resx12_conv3 (in-place)
I0816 15:14:07.811173 25510 layer_factory.hpp:77] Creating layer resx12_conv3_scale
I0816 15:14:07.811311 25510 net.cpp:141] Setting up resx12_conv3_scale
I0816 15:14:07.811319 25510 net.cpp:148] Top shape: 80 480 14 14 (7526400)
I0816 15:14:07.811323 25510 net.cpp:156] Memory required for data: 4841733440
I0816 15:14:07.811329 25510 layer_factory.hpp:77] Creating layer resx12_elewise
I0816 15:14:07.811338 25510 net.cpp:91] Creating Layer resx12_elewise
I0816 15:14:07.811343 25510 net.cpp:469] resx12_elewise <- resx11_elewise_resx11_elewise_relu_0_split_1
I0816 15:14:07.811348 25510 net.cpp:469] resx12_elewise <- resx12_conv3
I0816 15:14:07.811353 25510 net.cpp:443] resx12_elewise -> resx12_elewise
I0816 15:14:07.811386 25510 net.cpp:141] Setting up resx12_elewise
I0816 15:14:07.811393 25510 net.cpp:148] Top shape: 80 480 14 14 (7526400)
I0816 15:14:07.811398 25510 net.cpp:156] Memory required for data: 4871839040
I0816 15:14:07.811400 25510 layer_factory.hpp:77] Creating layer resx12_elewise_relu
I0816 15:14:07.811406 25510 net.cpp:91] Creating Layer resx12_elewise_relu
I0816 15:14:07.811411 25510 net.cpp:469] resx12_elewise_relu <- resx12_elewise
I0816 15:14:07.811415 25510 net.cpp:430] resx12_elewise_relu -> resx12_elewise (in-place)
I0816 15:14:07.811604 25510 net.cpp:141] Setting up resx12_elewise_relu
I0816 15:14:07.811614 25510 net.cpp:148] Top shape: 80 480 14 14 (7526400)
I0816 15:14:07.811617 25510 net.cpp:156] Memory required for data: 4901944640
I0816 15:14:07.811621 25510 layer_factory.hpp:77] Creating layer resx12_elewise_resx12_elewise_relu_0_split
I0816 15:14:07.811627 25510 net.cpp:91] Creating Layer resx12_elewise_resx12_elewise_relu_0_split
I0816 15:14:07.811631 25510 net.cpp:469] resx12_elewise_resx12_elewise_relu_0_split <- resx12_elewise
I0816 15:14:07.811638 25510 net.cpp:443] resx12_elewise_resx12_elewise_relu_0_split -> resx12_elewise_resx12_elewise_relu_0_split_0
I0816 15:14:07.811657 25510 net.cpp:443] resx12_elewise_resx12_elewise_relu_0_split -> resx12_elewise_resx12_elewise_relu_0_split_1
I0816 15:14:07.811709 25510 net.cpp:141] Setting up resx12_elewise_resx12_elewise_relu_0_split
I0816 15:14:07.811718 25510 net.cpp:148] Top shape: 80 480 14 14 (7526400)
I0816 15:14:07.811723 25510 net.cpp:148] Top shape: 80 480 14 14 (7526400)
I0816 15:14:07.811727 25510 net.cpp:156] Memory required for data: 4962155840
I0816 15:14:07.811730 25510 layer_factory.hpp:77] Creating layer resx13_match_conv
I0816 15:14:07.811738 25510 net.cpp:91] Creating Layer resx13_match_conv
I0816 15:14:07.811741 25510 net.cpp:469] resx13_match_conv <- resx12_elewise_resx12_elewise_relu_0_split_0
I0816 15:14:07.811748 25510 net.cpp:443] resx13_match_conv -> resx13_match_conv
I0816 15:14:07.812134 25510 net.cpp:141] Setting up resx13_match_conv
I0816 15:14:07.812149 25510 net.cpp:148] Top shape: 80 480 7 7 (1881600)
I0816 15:14:07.812152 25510 net.cpp:156] Memory required for data: 4969682240
I0816 15:14:07.812156 25510 layer_factory.hpp:77] Creating layer resx13_conv1
I0816 15:14:07.812167 25510 net.cpp:91] Creating Layer resx13_conv1
I0816 15:14:07.812172 25510 net.cpp:469] resx13_conv1 <- resx12_elewise_resx12_elewise_relu_0_split_1
I0816 15:14:07.812180 25510 net.cpp:443] resx13_conv1 -> resx13_conv1
I0816 15:14:07.815302 25510 net.cpp:141] Setting up resx13_conv1
I0816 15:14:07.815318 25510 net.cpp:148] Top shape: 80 120 14 14 (1881600)
I0816 15:14:07.815322 25510 net.cpp:156] Memory required for data: 4977208640
I0816 15:14:07.815328 25510 layer_factory.hpp:77] Creating layer resx13_conv1_bn
I0816 15:14:07.815338 25510 net.cpp:91] Creating Layer resx13_conv1_bn
I0816 15:14:07.815345 25510 net.cpp:469] resx13_conv1_bn <- resx13_conv1
I0816 15:14:07.815351 25510 net.cpp:430] resx13_conv1_bn -> resx13_conv1 (in-place)
I0816 15:14:07.815585 25510 net.cpp:141] Setting up resx13_conv1_bn
I0816 15:14:07.815594 25510 net.cpp:148] Top shape: 80 120 14 14 (1881600)
I0816 15:14:07.815598 25510 net.cpp:156] Memory required for data: 4984735040
I0816 15:14:07.815608 25510 layer_factory.hpp:77] Creating layer resx13_conv1_scale
I0816 15:14:07.815615 25510 net.cpp:91] Creating Layer resx13_conv1_scale
I0816 15:14:07.815619 25510 net.cpp:469] resx13_conv1_scale <- resx13_conv1
I0816 15:14:07.815624 25510 net.cpp:430] resx13_conv1_scale -> resx13_conv1 (in-place)
I0816 15:14:07.815678 25510 layer_factory.hpp:77] Creating layer resx13_conv1_scale
I0816 15:14:07.815819 25510 net.cpp:141] Setting up resx13_conv1_scale
I0816 15:14:07.815829 25510 net.cpp:148] Top shape: 80 120 14 14 (1881600)
I0816 15:14:07.815831 25510 net.cpp:156] Memory required for data: 4992261440
I0816 15:14:07.815837 25510 layer_factory.hpp:77] Creating layer resx13_conv1_relu
I0816 15:14:07.815846 25510 net.cpp:91] Creating Layer resx13_conv1_relu
I0816 15:14:07.815850 25510 net.cpp:469] resx13_conv1_relu <- resx13_conv1
I0816 15:14:07.815855 25510 net.cpp:430] resx13_conv1_relu -> resx13_conv1 (in-place)
I0816 15:14:07.816212 25510 net.cpp:141] Setting up resx13_conv1_relu
I0816 15:14:07.816226 25510 net.cpp:148] Top shape: 80 120 14 14 (1881600)
I0816 15:14:07.816229 25510 net.cpp:156] Memory required for data: 4999787840
I0816 15:14:07.816234 25510 layer_factory.hpp:77] Creating layer shuffle13
I0816 15:14:07.816241 25510 net.cpp:91] Creating Layer shuffle13
I0816 15:14:07.816246 25510 net.cpp:469] shuffle13 <- resx13_conv1
I0816 15:14:07.816254 25510 net.cpp:443] shuffle13 -> shuffle13
I0816 15:14:07.816295 25510 net.cpp:141] Setting up shuffle13
I0816 15:14:07.816303 25510 net.cpp:148] Top shape: 80 120 14 14 (1881600)
I0816 15:14:07.816306 25510 net.cpp:156] Memory required for data: 5007314240
I0816 15:14:07.816310 25510 layer_factory.hpp:77] Creating layer resx13_conv2
I0816 15:14:07.816318 25510 net.cpp:91] Creating Layer resx13_conv2
I0816 15:14:07.816323 25510 net.cpp:469] resx13_conv2 <- shuffle13
I0816 15:14:07.816332 25510 net.cpp:443] resx13_conv2 -> resx13_conv2
I0816 15:14:07.816695 25510 net.cpp:141] Setting up resx13_conv2
I0816 15:14:07.816716 25510 net.cpp:148] Top shape: 80 120 7 7 (470400)
I0816 15:14:07.816720 25510 net.cpp:156] Memory required for data: 5009195840
I0816 15:14:07.816726 25510 layer_factory.hpp:77] Creating layer resx13_conv2_bn
I0816 15:14:07.816736 25510 net.cpp:91] Creating Layer resx13_conv2_bn
I0816 15:14:07.816741 25510 net.cpp:469] resx13_conv2_bn <- resx13_conv2
I0816 15:14:07.816747 25510 net.cpp:430] resx13_conv2_bn -> resx13_conv2 (in-place)
I0816 15:14:07.816987 25510 net.cpp:141] Setting up resx13_conv2_bn
I0816 15:14:07.816996 25510 net.cpp:148] Top shape: 80 120 7 7 (470400)
I0816 15:14:07.817000 25510 net.cpp:156] Memory required for data: 5011077440
I0816 15:14:07.817008 25510 layer_factory.hpp:77] Creating layer resx13_conv2_scale
I0816 15:14:07.817015 25510 net.cpp:91] Creating Layer resx13_conv2_scale
I0816 15:14:07.817019 25510 net.cpp:469] resx13_conv2_scale <- resx13_conv2
I0816 15:14:07.817024 25510 net.cpp:430] resx13_conv2_scale -> resx13_conv2 (in-place)
I0816 15:14:07.817085 25510 layer_factory.hpp:77] Creating layer resx13_conv2_scale
I0816 15:14:07.817230 25510 net.cpp:141] Setting up resx13_conv2_scale
I0816 15:14:07.817239 25510 net.cpp:148] Top shape: 80 120 7 7 (470400)
I0816 15:14:07.817242 25510 net.cpp:156] Memory required for data: 5012959040
I0816 15:14:07.817248 25510 layer_factory.hpp:77] Creating layer resx13_conv3
I0816 15:14:07.817260 25510 net.cpp:91] Creating Layer resx13_conv3
I0816 15:14:07.817263 25510 net.cpp:469] resx13_conv3 <- resx13_conv2
I0816 15:14:07.817271 25510 net.cpp:443] resx13_conv3 -> resx13_conv3
I0816 15:14:07.820461 25510 net.cpp:141] Setting up resx13_conv3
I0816 15:14:07.820477 25510 net.cpp:148] Top shape: 80 480 7 7 (1881600)
I0816 15:14:07.820482 25510 net.cpp:156] Memory required for data: 5020485440
I0816 15:14:07.820487 25510 layer_factory.hpp:77] Creating layer resx13_conv3_bn
I0816 15:14:07.820497 25510 net.cpp:91] Creating Layer resx13_conv3_bn
I0816 15:14:07.820502 25510 net.cpp:469] resx13_conv3_bn <- resx13_conv3
I0816 15:14:07.820508 25510 net.cpp:430] resx13_conv3_bn -> resx13_conv3 (in-place)
I0816 15:14:07.820758 25510 net.cpp:141] Setting up resx13_conv3_bn
I0816 15:14:07.820767 25510 net.cpp:148] Top shape: 80 480 7 7 (1881600)
I0816 15:14:07.820771 25510 net.cpp:156] Memory required for data: 5028011840
I0816 15:14:07.820778 25510 layer_factory.hpp:77] Creating layer resx13_conv3_scale
I0816 15:14:07.820786 25510 net.cpp:91] Creating Layer resx13_conv3_scale
I0816 15:14:07.820791 25510 net.cpp:469] resx13_conv3_scale <- resx13_conv3
I0816 15:14:07.820796 25510 net.cpp:430] resx13_conv3_scale -> resx13_conv3 (in-place)
I0816 15:14:07.820852 25510 layer_factory.hpp:77] Creating layer resx13_conv3_scale
I0816 15:14:07.821002 25510 net.cpp:141] Setting up resx13_conv3_scale
I0816 15:14:07.821012 25510 net.cpp:148] Top shape: 80 480 7 7 (1881600)
I0816 15:14:07.821015 25510 net.cpp:156] Memory required for data: 5035538240
I0816 15:14:07.821022 25510 layer_factory.hpp:77] Creating layer resx13_concat
I0816 15:14:07.821028 25510 net.cpp:91] Creating Layer resx13_concat
I0816 15:14:07.821033 25510 net.cpp:469] resx13_concat <- resx13_match_conv
I0816 15:14:07.821038 25510 net.cpp:469] resx13_concat <- resx13_conv3
I0816 15:14:07.821043 25510 net.cpp:443] resx13_concat -> resx13_concat
I0816 15:14:07.821095 25510 net.cpp:141] Setting up resx13_concat
I0816 15:14:07.821106 25510 net.cpp:148] Top shape: 80 960 7 7 (3763200)
I0816 15:14:07.821110 25510 net.cpp:156] Memory required for data: 5050591040
I0816 15:14:07.821113 25510 layer_factory.hpp:77] Creating layer resx13_concat_relu
I0816 15:14:07.821120 25510 net.cpp:91] Creating Layer resx13_concat_relu
I0816 15:14:07.821125 25510 net.cpp:469] resx13_concat_relu <- resx13_concat
I0816 15:14:07.821130 25510 net.cpp:430] resx13_concat_relu -> resx13_concat (in-place)
I0816 15:14:07.821494 25510 net.cpp:141] Setting up resx13_concat_relu
I0816 15:14:07.821507 25510 net.cpp:148] Top shape: 80 960 7 7 (3763200)
I0816 15:14:07.821511 25510 net.cpp:156] Memory required for data: 5065643840
I0816 15:14:07.821527 25510 layer_factory.hpp:77] Creating layer resx13_concat_resx13_concat_relu_0_split
I0816 15:14:07.821533 25510 net.cpp:91] Creating Layer resx13_concat_resx13_concat_relu_0_split
I0816 15:14:07.821537 25510 net.cpp:469] resx13_concat_resx13_concat_relu_0_split <- resx13_concat
I0816 15:14:07.821545 25510 net.cpp:443] resx13_concat_resx13_concat_relu_0_split -> resx13_concat_resx13_concat_relu_0_split_0
I0816 15:14:07.821553 25510 net.cpp:443] resx13_concat_resx13_concat_relu_0_split -> resx13_concat_resx13_concat_relu_0_split_1
I0816 15:14:07.821610 25510 net.cpp:141] Setting up resx13_concat_resx13_concat_relu_0_split
I0816 15:14:07.821619 25510 net.cpp:148] Top shape: 80 960 7 7 (3763200)
I0816 15:14:07.821624 25510 net.cpp:148] Top shape: 80 960 7 7 (3763200)
I0816 15:14:07.821626 25510 net.cpp:156] Memory required for data: 5095749440
I0816 15:14:07.821630 25510 layer_factory.hpp:77] Creating layer resx14_conv1
I0816 15:14:07.821642 25510 net.cpp:91] Creating Layer resx14_conv1
I0816 15:14:07.821647 25510 net.cpp:469] resx14_conv1 <- resx13_concat_resx13_concat_relu_0_split_0
I0816 15:14:07.821653 25510 net.cpp:443] resx14_conv1 -> resx14_conv1
I0816 15:14:07.827340 25510 net.cpp:141] Setting up resx14_conv1
I0816 15:14:07.827373 25510 net.cpp:148] Top shape: 80 240 7 7 (940800)
I0816 15:14:07.827376 25510 net.cpp:156] Memory required for data: 5099512640
I0816 15:14:07.827384 25510 layer_factory.hpp:77] Creating layer resx14_conv1_bn
I0816 15:14:07.827396 25510 net.cpp:91] Creating Layer resx14_conv1_bn
I0816 15:14:07.827402 25510 net.cpp:469] resx14_conv1_bn <- resx14_conv1
I0816 15:14:07.827409 25510 net.cpp:430] resx14_conv1_bn -> resx14_conv1 (in-place)
I0816 15:14:07.827664 25510 net.cpp:141] Setting up resx14_conv1_bn
I0816 15:14:07.827672 25510 net.cpp:148] Top shape: 80 240 7 7 (940800)
I0816 15:14:07.827677 25510 net.cpp:156] Memory required for data: 5103275840
I0816 15:14:07.827684 25510 layer_factory.hpp:77] Creating layer resx14_conv1_scale
I0816 15:14:07.827692 25510 net.cpp:91] Creating Layer resx14_conv1_scale
I0816 15:14:07.827697 25510 net.cpp:469] resx14_conv1_scale <- resx14_conv1
I0816 15:14:07.827704 25510 net.cpp:430] resx14_conv1_scale -> resx14_conv1 (in-place)
I0816 15:14:07.827760 25510 layer_factory.hpp:77] Creating layer resx14_conv1_scale
I0816 15:14:07.827913 25510 net.cpp:141] Setting up resx14_conv1_scale
I0816 15:14:07.827920 25510 net.cpp:148] Top shape: 80 240 7 7 (940800)
I0816 15:14:07.827924 25510 net.cpp:156] Memory required for data: 5107039040
I0816 15:14:07.827932 25510 layer_factory.hpp:77] Creating layer resx14_conv1_relu
I0816 15:14:07.827939 25510 net.cpp:91] Creating Layer resx14_conv1_relu
I0816 15:14:07.827942 25510 net.cpp:469] resx14_conv1_relu <- resx14_conv1
I0816 15:14:07.827951 25510 net.cpp:430] resx14_conv1_relu -> resx14_conv1 (in-place)
I0816 15:14:07.828325 25510 net.cpp:141] Setting up resx14_conv1_relu
I0816 15:14:07.828339 25510 net.cpp:148] Top shape: 80 240 7 7 (940800)
I0816 15:14:07.828343 25510 net.cpp:156] Memory required for data: 5110802240
I0816 15:14:07.828347 25510 layer_factory.hpp:77] Creating layer shuffle14
I0816 15:14:07.828356 25510 net.cpp:91] Creating Layer shuffle14
I0816 15:14:07.828359 25510 net.cpp:469] shuffle14 <- resx14_conv1
I0816 15:14:07.828368 25510 net.cpp:443] shuffle14 -> shuffle14
I0816 15:14:07.828408 25510 net.cpp:141] Setting up shuffle14
I0816 15:14:07.828416 25510 net.cpp:148] Top shape: 80 240 7 7 (940800)
I0816 15:14:07.828420 25510 net.cpp:156] Memory required for data: 5114565440
I0816 15:14:07.828424 25510 layer_factory.hpp:77] Creating layer resx14_conv2
I0816 15:14:07.828434 25510 net.cpp:91] Creating Layer resx14_conv2
I0816 15:14:07.828439 25510 net.cpp:469] resx14_conv2 <- shuffle14
I0816 15:14:07.828446 25510 net.cpp:443] resx14_conv2 -> resx14_conv2
I0816 15:14:07.828668 25510 net.cpp:141] Setting up resx14_conv2
I0816 15:14:07.828680 25510 net.cpp:148] Top shape: 80 240 7 7 (940800)
I0816 15:14:07.828683 25510 net.cpp:156] Memory required for data: 5118328640
I0816 15:14:07.828696 25510 layer_factory.hpp:77] Creating layer resx14_conv2_bn
I0816 15:14:07.828713 25510 net.cpp:91] Creating Layer resx14_conv2_bn
I0816 15:14:07.828718 25510 net.cpp:469] resx14_conv2_bn <- resx14_conv2
I0816 15:14:07.828725 25510 net.cpp:430] resx14_conv2_bn -> resx14_conv2 (in-place)
I0816 15:14:07.828964 25510 net.cpp:141] Setting up resx14_conv2_bn
I0816 15:14:07.828974 25510 net.cpp:148] Top shape: 80 240 7 7 (940800)
I0816 15:14:07.828976 25510 net.cpp:156] Memory required for data: 5122091840
I0816 15:14:07.828984 25510 layer_factory.hpp:77] Creating layer resx14_conv2_scale
I0816 15:14:07.828994 25510 net.cpp:91] Creating Layer resx14_conv2_scale
I0816 15:14:07.828999 25510 net.cpp:469] resx14_conv2_scale <- resx14_conv2
I0816 15:14:07.829004 25510 net.cpp:430] resx14_conv2_scale -> resx14_conv2 (in-place)
I0816 15:14:07.829057 25510 layer_factory.hpp:77] Creating layer resx14_conv2_scale
I0816 15:14:07.829216 25510 net.cpp:141] Setting up resx14_conv2_scale
I0816 15:14:07.829226 25510 net.cpp:148] Top shape: 80 240 7 7 (940800)
I0816 15:14:07.829231 25510 net.cpp:156] Memory required for data: 5125855040
I0816 15:14:07.829236 25510 layer_factory.hpp:77] Creating layer resx14_conv3
I0816 15:14:07.829247 25510 net.cpp:91] Creating Layer resx14_conv3
I0816 15:14:07.829252 25510 net.cpp:469] resx14_conv3 <- resx14_conv2
I0816 15:14:07.829259 25510 net.cpp:443] resx14_conv3 -> resx14_conv3
I0816 15:14:07.834023 25510 net.cpp:141] Setting up resx14_conv3
I0816 15:14:07.834040 25510 net.cpp:148] Top shape: 80 960 7 7 (3763200)
I0816 15:14:07.834044 25510 net.cpp:156] Memory required for data: 5140907840
I0816 15:14:07.834050 25510 layer_factory.hpp:77] Creating layer resx14_conv3_bn
I0816 15:14:07.834064 25510 net.cpp:91] Creating Layer resx14_conv3_bn
I0816 15:14:07.834069 25510 net.cpp:469] resx14_conv3_bn <- resx14_conv3
I0816 15:14:07.834074 25510 net.cpp:430] resx14_conv3_bn -> resx14_conv3 (in-place)
I0816 15:14:07.834336 25510 net.cpp:141] Setting up resx14_conv3_bn
I0816 15:14:07.834344 25510 net.cpp:148] Top shape: 80 960 7 7 (3763200)
I0816 15:14:07.834347 25510 net.cpp:156] Memory required for data: 5155960640
I0816 15:14:07.834355 25510 layer_factory.hpp:77] Creating layer resx14_conv3_scale
I0816 15:14:07.834362 25510 net.cpp:91] Creating Layer resx14_conv3_scale
I0816 15:14:07.834367 25510 net.cpp:469] resx14_conv3_scale <- resx14_conv3
I0816 15:14:07.834372 25510 net.cpp:430] resx14_conv3_scale -> resx14_conv3 (in-place)
I0816 15:14:07.834430 25510 layer_factory.hpp:77] Creating layer resx14_conv3_scale
I0816 15:14:07.834581 25510 net.cpp:141] Setting up resx14_conv3_scale
I0816 15:14:07.834590 25510 net.cpp:148] Top shape: 80 960 7 7 (3763200)
I0816 15:14:07.834594 25510 net.cpp:156] Memory required for data: 5171013440
I0816 15:14:07.834641 25510 layer_factory.hpp:77] Creating layer resx14_elewise
I0816 15:14:07.834650 25510 net.cpp:91] Creating Layer resx14_elewise
I0816 15:14:07.834656 25510 net.cpp:469] resx14_elewise <- resx13_concat_resx13_concat_relu_0_split_1
I0816 15:14:07.834661 25510 net.cpp:469] resx14_elewise <- resx14_conv3
I0816 15:14:07.834666 25510 net.cpp:443] resx14_elewise -> resx14_elewise
I0816 15:14:07.834707 25510 net.cpp:141] Setting up resx14_elewise
I0816 15:14:07.834714 25510 net.cpp:148] Top shape: 80 960 7 7 (3763200)
I0816 15:14:07.834717 25510 net.cpp:156] Memory required for data: 5186066240
I0816 15:14:07.834722 25510 layer_factory.hpp:77] Creating layer resx14_elewise_relu
I0816 15:14:07.834728 25510 net.cpp:91] Creating Layer resx14_elewise_relu
I0816 15:14:07.834733 25510 net.cpp:469] resx14_elewise_relu <- resx14_elewise
I0816 15:14:07.834738 25510 net.cpp:430] resx14_elewise_relu -> resx14_elewise (in-place)
I0816 15:14:07.835108 25510 net.cpp:141] Setting up resx14_elewise_relu
I0816 15:14:07.835122 25510 net.cpp:148] Top shape: 80 960 7 7 (3763200)
I0816 15:14:07.835126 25510 net.cpp:156] Memory required for data: 5201119040
I0816 15:14:07.835130 25510 layer_factory.hpp:77] Creating layer resx14_elewise_resx14_elewise_relu_0_split
I0816 15:14:07.835144 25510 net.cpp:91] Creating Layer resx14_elewise_resx14_elewise_relu_0_split
I0816 15:14:07.835155 25510 net.cpp:469] resx14_elewise_resx14_elewise_relu_0_split <- resx14_elewise
I0816 15:14:07.835162 25510 net.cpp:443] resx14_elewise_resx14_elewise_relu_0_split -> resx14_elewise_resx14_elewise_relu_0_split_0
I0816 15:14:07.835170 25510 net.cpp:443] resx14_elewise_resx14_elewise_relu_0_split -> resx14_elewise_resx14_elewise_relu_0_split_1
I0816 15:14:07.835227 25510 net.cpp:141] Setting up resx14_elewise_resx14_elewise_relu_0_split
I0816 15:14:07.835239 25510 net.cpp:148] Top shape: 80 960 7 7 (3763200)
I0816 15:14:07.835244 25510 net.cpp:148] Top shape: 80 960 7 7 (3763200)
I0816 15:14:07.835247 25510 net.cpp:156] Memory required for data: 5231224640
I0816 15:14:07.835252 25510 layer_factory.hpp:77] Creating layer resx15_conv1
I0816 15:14:07.835263 25510 net.cpp:91] Creating Layer resx15_conv1
I0816 15:14:07.835266 25510 net.cpp:469] resx15_conv1 <- resx14_elewise_resx14_elewise_relu_0_split_0
I0816 15:14:07.835273 25510 net.cpp:443] resx15_conv1 -> resx15_conv1
I0816 15:14:07.840175 25510 net.cpp:141] Setting up resx15_conv1
I0816 15:14:07.840191 25510 net.cpp:148] Top shape: 80 240 7 7 (940800)
I0816 15:14:07.840195 25510 net.cpp:156] Memory required for data: 5234987840
I0816 15:14:07.840200 25510 layer_factory.hpp:77] Creating layer resx15_conv1_bn
I0816 15:14:07.840214 25510 net.cpp:91] Creating Layer resx15_conv1_bn
I0816 15:14:07.840219 25510 net.cpp:469] resx15_conv1_bn <- resx15_conv1
I0816 15:14:07.840227 25510 net.cpp:430] resx15_conv1_bn -> resx15_conv1 (in-place)
I0816 15:14:07.840481 25510 net.cpp:141] Setting up resx15_conv1_bn
I0816 15:14:07.840489 25510 net.cpp:148] Top shape: 80 240 7 7 (940800)
I0816 15:14:07.840493 25510 net.cpp:156] Memory required for data: 5238751040
I0816 15:14:07.840500 25510 layer_factory.hpp:77] Creating layer resx15_conv1_scale
I0816 15:14:07.840510 25510 net.cpp:91] Creating Layer resx15_conv1_scale
I0816 15:14:07.840514 25510 net.cpp:469] resx15_conv1_scale <- resx15_conv1
I0816 15:14:07.840519 25510 net.cpp:430] resx15_conv1_scale -> resx15_conv1 (in-place)
I0816 15:14:07.840574 25510 layer_factory.hpp:77] Creating layer resx15_conv1_scale
I0816 15:14:07.840726 25510 net.cpp:141] Setting up resx15_conv1_scale
I0816 15:14:07.840735 25510 net.cpp:148] Top shape: 80 240 7 7 (940800)
I0816 15:14:07.840739 25510 net.cpp:156] Memory required for data: 5242514240
I0816 15:14:07.840745 25510 layer_factory.hpp:77] Creating layer resx15_conv1_relu
I0816 15:14:07.840751 25510 net.cpp:91] Creating Layer resx15_conv1_relu
I0816 15:14:07.840755 25510 net.cpp:469] resx15_conv1_relu <- resx15_conv1
I0816 15:14:07.840762 25510 net.cpp:430] resx15_conv1_relu -> resx15_conv1 (in-place)
I0816 15:14:07.841137 25510 net.cpp:141] Setting up resx15_conv1_relu
I0816 15:14:07.841152 25510 net.cpp:148] Top shape: 80 240 7 7 (940800)
I0816 15:14:07.841156 25510 net.cpp:156] Memory required for data: 5246277440
I0816 15:14:07.841161 25510 layer_factory.hpp:77] Creating layer shuffle15
I0816 15:14:07.841167 25510 net.cpp:91] Creating Layer shuffle15
I0816 15:14:07.841172 25510 net.cpp:469] shuffle15 <- resx15_conv1
I0816 15:14:07.841178 25510 net.cpp:443] shuffle15 -> shuffle15
I0816 15:14:07.841220 25510 net.cpp:141] Setting up shuffle15
…
I0816 15:14:08.075397 25510 net.cpp:91] Creating Layer resx11_conv1
I0816 15:14:08.075402 25510 net.cpp:469] resx11_conv1 <- resx10_elewise_resx10_elewise_relu_0_split_0
I0816 15:14:08.075408 25510 net.cpp:443] resx11_conv1 -> resx11_conv1
I0816 15:14:08.079061 25510 net.cpp:141] Setting up resx11_conv1
I0816 15:14:08.079073 25510 net.cpp:148] Top shape: 40 120 14 14 (940800)
I0816 15:14:08.079077 25510 net.cpp:156] Memory required for data: 2213891040
I0816 15:14:08.079082 25510 layer_factory.hpp:77] Creating layer resx11_conv1_bn
I0816 15:14:08.079092 25510 net.cpp:91] Creating Layer resx11_conv1_bn
I0816 15:14:08.079095 25510 net.cpp:469] resx11_conv1_bn <- resx11_conv1
I0816 15:14:08.079100 25510 net.cpp:430] resx11_conv1_bn -> resx11_conv1 (in-place)
I0816 15:14:08.079298 25510 net.cpp:141] Setting up resx11_conv1_bn
I0816 15:14:08.079305 25510 net.cpp:148] Top shape: 40 120 14 14 (940800)
I0816 15:14:08.079309 25510 net.cpp:156] Memory required for data: 2217654240
I0816 15:14:08.079315 25510 layer_factory.hpp:77] Creating layer resx11_conv1_scale
I0816 15:14:08.079322 25510 net.cpp:91] Creating Layer resx11_conv1_scale
I0816 15:14:08.079326 25510 net.cpp:469] resx11_conv1_scale <- resx11_conv1
I0816 15:14:08.079330 25510 net.cpp:430] resx11_conv1_scale -> resx11_conv1 (in-place)
I0816 15:14:08.079375 25510 layer_factory.hpp:77] Creating layer resx11_conv1_scale
I0816 15:14:08.079489 25510 net.cpp:141] Setting up resx11_conv1_scale
I0816 15:14:08.079496 25510 net.cpp:148] Top shape: 40 120 14 14 (940800)
I0816 15:14:08.079499 25510 net.cpp:156] Memory required for data: 2221417440
I0816 15:14:08.079504 25510 layer_factory.hpp:77] Creating layer resx11_conv1_relu
I0816 15:14:08.079510 25510 net.cpp:91] Creating Layer resx11_conv1_relu
I0816 15:14:08.079514 25510 net.cpp:469] resx11_conv1_relu <- resx11_conv1
I0816 15:14:08.079517 25510 net.cpp:430] resx11_conv1_relu -> resx11_conv1 (in-place)
I0816 15:14:08.079879 25510 net.cpp:141] Setting up resx11_conv1_relu
I0816 15:14:08.079890 25510 net.cpp:148] Top shape: 40 120 14 14 (940800)
I0816 15:14:08.079895 25510 net.cpp:156] Memory required for data: 2225180640
I0816 15:14:08.079897 25510 layer_factory.hpp:77] Creating layer shuffle11
I0816 15:14:08.079905 25510 net.cpp:91] Creating Layer shuffle11
I0816 15:14:08.079921 25510 net.cpp:469] shuffle11 <- resx11_conv1
I0816 15:14:08.079927 25510 net.cpp:443] shuffle11 -> shuffle11
I0816 15:14:08.079964 25510 net.cpp:141] Setting up shuffle11
I0816 15:14:08.079977 25510 net.cpp:148] Top shape: 40 120 14 14 (940800)
I0816 15:14:08.079982 25510 net.cpp:156] Memory required for data: 2228943840
I0816 15:14:08.079984 25510 layer_factory.hpp:77] Creating layer resx11_conv2
I0816 15:14:08.079993 25510 net.cpp:91] Creating Layer resx11_conv2
I0816 15:14:08.079998 25510 net.cpp:469] resx11_conv2 <- shuffle11
I0816 15:14:08.080003 25510 net.cpp:443] resx11_conv2 -> resx11_conv2
I0816 15:14:08.080163 25510 net.cpp:141] Setting up resx11_conv2
I0816 15:14:08.080173 25510 net.cpp:148] Top shape: 40 120 14 14 (940800)
I0816 15:14:08.080175 25510 net.cpp:156] Memory required for data: 2232707040
I0816 15:14:08.080180 25510 layer_factory.hpp:77] Creating layer resx11_conv2_bn
I0816 15:14:08.080188 25510 net.cpp:91] Creating Layer resx11_conv2_bn
I0816 15:14:08.080193 25510 net.cpp:469] resx11_conv2_bn <- resx11_conv2
I0816 15:14:08.080198 25510 net.cpp:430] resx11_conv2_bn -> resx11_conv2 (in-place)
I0816 15:14:08.080395 25510 net.cpp:141] Setting up resx11_conv2_bn
I0816 15:14:08.080402 25510 net.cpp:148] Top shape: 40 120 14 14 (940800)
I0816 15:14:08.080405 25510 net.cpp:156] Memory required for data: 2236470240
I0816 15:14:08.080412 25510 layer_factory.hpp:77] Creating layer resx11_conv2_scale
I0816 15:14:08.080423 25510 net.cpp:91] Creating Layer resx11_conv2_scale
I0816 15:14:08.080428 25510 net.cpp:469] resx11_conv2_scale <- resx11_conv2
I0816 15:14:08.080432 25510 net.cpp:430] resx11_conv2_scale -> resx11_conv2 (in-place)
I0816 15:14:08.080472 25510 layer_factory.hpp:77] Creating layer resx11_conv2_scale
I0816 15:14:08.080585 25510 net.cpp:141] Setting up resx11_conv2_scale
I0816 15:14:08.080591 25510 net.cpp:148] Top shape: 40 120 14 14 (940800)
I0816 15:14:08.080595 25510 net.cpp:156] Memory required for data: 2240233440
I0816 15:14:08.080600 25510 layer_factory.hpp:77] Creating layer resx11_conv3
I0816 15:14:08.080608 25510 net.cpp:91] Creating Layer resx11_conv3
I0816 15:14:08.080613 25510 net.cpp:469] resx11_conv3 <- resx11_conv2
I0816 15:14:08.080618 25510 net.cpp:443] resx11_conv3 -> resx11_conv3
I0816 15:14:08.083760 25510 net.cpp:141] Setting up resx11_conv3
I0816 15:14:08.083773 25510 net.cpp:148] Top shape: 40 480 14 14 (3763200)
I0816 15:14:08.083776 25510 net.cpp:156] Memory required for data: 2255286240
I0816 15:14:08.083781 25510 layer_factory.hpp:77] Creating layer resx11_conv3_bn
I0816 15:14:08.083791 25510 net.cpp:91] Creating Layer resx11_conv3_bn
I0816 15:14:08.083796 25510 net.cpp:469] resx11_conv3_bn <- resx11_conv3
I0816 15:14:08.083801 25510 net.cpp:430] resx11_conv3_bn -> resx11_conv3 (in-place)
I0816 15:14:08.084019 25510 net.cpp:141] Setting up resx11_conv3_bn
I0816 15:14:08.084026 25510 net.cpp:148] Top shape: 40 480 14 14 (3763200)
I0816 15:14:08.084029 25510 net.cpp:156] Memory required for data: 2270339040
I0816 15:14:08.084036 25510 layer_factory.hpp:77] Creating layer resx11_conv3_scale
I0816 15:14:08.084046 25510 net.cpp:91] Creating Layer resx11_conv3_scale
I0816 15:14:08.084050 25510 net.cpp:469] resx11_conv3_scale <- resx11_conv3
I0816 15:14:08.084055 25510 net.cpp:430] resx11_conv3_scale -> resx11_conv3 (in-place)
I0816 15:14:08.084112 25510 layer_factory.hpp:77] Creating layer resx11_conv3_scale
I0816 15:14:08.084259 25510 net.cpp:141] Setting up resx11_conv3_scale
I0816 15:14:08.084266 25510 net.cpp:148] Top shape: 40 480 14 14 (3763200)
I0816 15:14:08.084270 25510 net.cpp:156] Memory required for data: 2285391840
I0816 15:14:08.084275 25510 layer_factory.hpp:77] Creating layer resx11_elewise
I0816 15:14:08.084281 25510 net.cpp:91] Creating Layer resx11_elewise
I0816 15:14:08.084285 25510 net.cpp:469] resx11_elewise <- resx10_elewise_resx10_elewise_relu_0_split_1
I0816 15:14:08.084291 25510 net.cpp:469] resx11_elewise <- resx11_conv3
I0816 15:14:08.084296 25510 net.cpp:443] resx11_elewise -> resx11_elewise
I0816 15:14:08.084321 25510 net.cpp:141] Setting up resx11_elewise
I0816 15:14:08.084327 25510 net.cpp:148] Top shape: 40 480 14 14 (3763200)
I0816 15:14:08.084331 25510 net.cpp:156] Memory required for data: 2300444640
I0816 15:14:08.084343 25510 layer_factory.hpp:77] Creating layer resx11_elewise_relu
I0816 15:14:08.084352 25510 net.cpp:91] Creating Layer resx11_elewise_relu
I0816 15:14:08.084355 25510 net.cpp:469] resx11_elewise_relu <- resx11_elewise
I0816 15:14:08.084359 25510 net.cpp:430] resx11_elewise_relu -> resx11_elewise (in-place)
I0816 15:14:08.084738 25510 net.cpp:141] Setting up resx11_elewise_relu
I0816 15:14:08.084750 25510 net.cpp:148] Top shape: 40 480 14 14 (3763200)
I0816 15:14:08.084754 25510 net.cpp:156] Memory required for data: 2315497440
I0816 15:14:08.084758 25510 layer_factory.hpp:77] Creating layer resx11_elewise_resx11_elewise_relu_0_split
I0816 15:14:08.084764 25510 net.cpp:91] Creating Layer resx11_elewise_resx11_elewise_relu_0_split
I0816 15:14:08.084767 25510 net.cpp:469] resx11_elewise_resx11_elewise_relu_0_split <- resx11_elewise
I0816 15:14:08.084772 25510 net.cpp:443] resx11_elewise_resx11_elewise_relu_0_split -> resx11_elewise_resx11_elewise_relu_0_split_0
I0816 15:14:08.084779 25510 net.cpp:443] resx11_elewise_resx11_elewise_relu_0_split -> resx11_elewise_resx11_elewise_relu_0_split_1
I0816 15:14:08.084825 25510 net.cpp:141] Setting up resx11_elewise_resx11_elewise_relu_0_split
I0816 15:14:08.084842 25510 net.cpp:148] Top shape: 40 480 14 14 (3763200)
I0816 15:14:08.084846 25510 net.cpp:148] Top shape: 40 480 14 14 (3763200)
I0816 15:14:08.084849 25510 net.cpp:156] Memory required for data: 2345603040
I0816 15:14:08.084852 25510 layer_factory.hpp:77] Creating layer resx12_conv1
I0816 15:14:08.084862 25510 net.cpp:91] Creating Layer resx12_conv1
I0816 15:14:08.084867 25510 net.cpp:469] resx12_conv1 <- resx11_elewise_resx11_elewise_relu_0_split_0
I0816 15:14:08.084873 25510 net.cpp:443] resx12_conv1 -> resx12_conv1
I0816 15:14:08.088345 25510 net.cpp:141] Setting up resx12_conv1
I0816 15:14:08.088357 25510 net.cpp:148] Top shape: 40 120 14 14 (940800)
I0816 15:14:08.088361 25510 net.cpp:156] Memory required for data: 2349366240
I0816 15:14:08.088366 25510 layer_factory.hpp:77] Creating layer resx12_conv1_bn
I0816 15:14:08.088374 25510 net.cpp:91] Creating Layer resx12_conv1_bn
I0816 15:14:08.088378 25510 net.cpp:469] resx12_conv1_bn <- resx12_conv1
I0816 15:14:08.088385 25510 net.cpp:430] resx12_conv1_bn -> resx12_conv1 (in-place)
I0816 15:14:08.088577 25510 net.cpp:141] Setting up resx12_conv1_bn
I0816 15:14:08.088583 25510 net.cpp:148] Top shape: 40 120 14 14 (940800)
I0816 15:14:08.088587 25510 net.cpp:156] Memory required for data: 2353129440
I0816 15:14:08.088593 25510 layer_factory.hpp:77] Creating layer resx12_conv1_scale
I0816 15:14:08.088600 25510 net.cpp:91] Creating Layer resx12_conv1_scale
I0816 15:14:08.088604 25510 net.cpp:469] resx12_conv1_scale <- resx12_conv1
I0816 15:14:08.088609 25510 net.cpp:430] resx12_conv1_scale -> resx12_conv1 (in-place)
I0816 15:14:08.088650 25510 layer_factory.hpp:77] Creating layer resx12_conv1_scale
I0816 15:14:08.088765 25510 net.cpp:141] Setting up resx12_conv1_scale
I0816 15:14:08.088773 25510 net.cpp:148] Top shape: 40 120 14 14 (940800)
I0816 15:14:08.088775 25510 net.cpp:156] Memory required for data: 2356892640
I0816 15:14:08.088780 25510 layer_factory.hpp:77] Creating layer resx12_conv1_relu
I0816 15:14:08.088786 25510 net.cpp:91] Creating Layer resx12_conv1_relu
I0816 15:14:08.088789 25510 net.cpp:469] resx12_conv1_relu <- resx12_conv1
I0816 15:14:08.088795 25510 net.cpp:430] resx12_conv1_relu -> resx12_conv1 (in-place)
I0816 15:14:08.089164 25510 net.cpp:141] Setting up resx12_conv1_relu
I0816 15:14:08.089175 25510 net.cpp:148] Top shape: 40 120 14 14 (940800)
I0816 15:14:08.089179 25510 net.cpp:156] Memory required for data: 2360655840
I0816 15:14:08.089184 25510 layer_factory.hpp:77] Creating layer shuffle12
I0816 15:14:08.089188 25510 net.cpp:91] Creating Layer shuffle12
I0816 15:14:08.089192 25510 net.cpp:469] shuffle12 <- resx12_conv1
I0816 15:14:08.089197 25510 net.cpp:443] shuffle12 -> shuffle12
I0816 15:14:08.089231 25510 net.cpp:141] Setting up shuffle12
I0816 15:14:08.089236 25510 net.cpp:148] Top shape: 40 120 14 14 (940800)
I0816 15:14:08.089249 25510 net.cpp:156] Memory required for data: 2364419040
I0816 15:14:08.089252 25510 layer_factory.hpp:77] Creating layer resx12_conv2
I0816 15:14:08.089260 25510 net.cpp:91] Creating Layer resx12_conv2
I0816 15:14:08.089264 25510 net.cpp:469] resx12_conv2 <- shuffle12
I0816 15:14:08.089270 25510 net.cpp:443] resx12_conv2 -> resx12_conv2
I0816 15:14:08.089423 25510 net.cpp:141] Setting up resx12_conv2
I0816 15:14:08.089433 25510 net.cpp:148] Top shape: 40 120 14 14 (940800)
I0816 15:14:08.089437 25510 net.cpp:156] Memory required for data: 2368182240
I0816 15:14:08.089440 25510 layer_factory.hpp:77] Creating layer resx12_conv2_bn
I0816 15:14:08.089452 25510 net.cpp:91] Creating Layer resx12_conv2_bn
I0816 15:14:08.089457 25510 net.cpp:469] resx12_conv2_bn <- resx12_conv2
I0816 15:14:08.089460 25510 net.cpp:430] resx12_conv2_bn -> resx12_conv2 (in-place)
I0816 15:14:08.089648 25510 net.cpp:141] Setting up resx12_conv2_bn
I0816 15:14:08.089655 25510 net.cpp:148] Top shape: 40 120 14 14 (940800)
I0816 15:14:08.089658 25510 net.cpp:156] Memory required for data: 2371945440
I0816 15:14:08.089665 25510 layer_factory.hpp:77] Creating layer resx12_conv2_scale
I0816 15:14:08.089671 25510 net.cpp:91] Creating Layer resx12_conv2_scale
I0816 15:14:08.089675 25510 net.cpp:469] resx12_conv2_scale <- resx12_conv2
I0816 15:14:08.089679 25510 net.cpp:430] resx12_conv2_scale -> resx12_conv2 (in-place)
I0816 15:14:08.089721 25510 layer_factory.hpp:77] Creating layer resx12_conv2_scale
I0816 15:14:08.089834 25510 net.cpp:141] Setting up resx12_conv2_scale
I0816 15:14:08.089840 25510 net.cpp:148] Top shape: 40 120 14 14 (940800)
I0816 15:14:08.089843 25510 net.cpp:156] Memory required for data: 2375708640
I0816 15:14:08.089849 25510 layer_factory.hpp:77] Creating layer resx12_conv3
I0816 15:14:08.089857 25510 net.cpp:91] Creating Layer resx12_conv3
I0816 15:14:08.089861 25510 net.cpp:469] resx12_conv3 <- resx12_conv2
I0816 15:14:08.089866 25510 net.cpp:443] resx12_conv3 -> resx12_conv3
I0816 15:14:08.093019 25510 net.cpp:141] Setting up resx12_conv3
I0816 15:14:08.093032 25510 net.cpp:148] Top shape: 40 480 14 14 (3763200)
I0816 15:14:08.093036 25510 net.cpp:156] Memory required for data: 2390761440
I0816 15:14:08.093041 25510 layer_factory.hpp:77] Creating layer resx12_conv3_bn
I0816 15:14:08.093047 25510 net.cpp:91] Creating Layer resx12_conv3_bn
I0816 15:14:08.093051 25510 net.cpp:469] resx12_conv3_bn <- resx12_conv3
I0816 15:14:08.093058 25510 net.cpp:430] resx12_conv3_bn -> resx12_conv3 (in-place)
I0816 15:14:08.093309 25510 net.cpp:141] Setting up resx12_conv3_bn
I0816 15:14:08.093318 25510 net.cpp:148] Top shape: 40 480 14 14 (3763200)
I0816 15:14:08.093322 25510 net.cpp:156] Memory required for data: 2405814240
I0816 15:14:08.093328 25510 layer_factory.hpp:77] Creating layer resx12_conv3_scale
I0816 15:14:08.093335 25510 net.cpp:91] Creating Layer resx12_conv3_scale
I0816 15:14:08.093339 25510 net.cpp:469] resx12_conv3_scale <- resx12_conv3
I0816 15:14:08.093345 25510 net.cpp:430] resx12_conv3_scale -> resx12_conv3 (in-place)
I0816 15:14:08.093412 25510 layer_factory.hpp:77] Creating layer resx12_conv3_scale
I0816 15:14:08.093549 25510 net.cpp:141] Setting up resx12_conv3_scale
I0816 15:14:08.093557 25510 net.cpp:148] Top shape: 40 480 14 14 (3763200)
I0816 15:14:08.093560 25510 net.cpp:156] Memory required for data: 2420867040
I0816 15:14:08.093565 25510 layer_factory.hpp:77] Creating layer resx12_elewise
I0816 15:14:08.093571 25510 net.cpp:91] Creating Layer resx12_elewise
I0816 15:14:08.093575 25510 net.cpp:469] resx12_elewise <- resx11_elewise_resx11_elewise_relu_0_split_1
I0816 15:14:08.093580 25510 net.cpp:469] resx12_elewise <- resx12_conv3
I0816 15:14:08.093585 25510 net.cpp:443] resx12_elewise -> resx12_elewise
I0816 15:14:08.093612 25510 net.cpp:141] Setting up resx12_elewise
I0816 15:14:08.093619 25510 net.cpp:148] Top shape: 40 480 14 14 (3763200)
I0816 15:14:08.093622 25510 net.cpp:156] Memory required for data: 2435919840
I0816 15:14:08.093626 25510 layer_factory.hpp:77] Creating layer resx12_elewise_relu
I0816 15:14:08.093639 25510 net.cpp:91] Creating Layer resx12_elewise_relu
I0816 15:14:08.093643 25510 net.cpp:469] resx12_elewise_relu <- resx12_elewise
I0816 15:14:08.093648 25510 net.cpp:430] resx12_elewise_relu -> resx12_elewise (in-place)
I0816 15:14:08.094017 25510 net.cpp:141] Setting up resx12_elewise_relu
I0816 15:14:08.094030 25510 net.cpp:148] Top shape: 40 480 14 14 (3763200)
I0816 15:14:08.094034 25510 net.cpp:156] Memory required for data: 2450972640
I0816 15:14:08.094038 25510 layer_factory.hpp:77] Creating layer resx12_elewise_resx12_elewise_relu_0_split
I0816 15:14:08.094043 25510 net.cpp:91] Creating Layer resx12_elewise_resx12_elewise_relu_0_split
I0816 15:14:08.094046 25510 net.cpp:469] resx12_elewise_resx12_elewise_relu_0_split <- resx12_elewise
I0816 15:14:08.094053 25510 net.cpp:443] resx12_elewise_resx12_elewise_relu_0_split -> resx12_elewise_resx12_elewise_relu_0_split_0
I0816 15:14:08.094059 25510 net.cpp:443] resx12_elewise_resx12_elewise_relu_0_split -> resx12_elewise_resx12_elewise_relu_0_split_1
I0816 15:14:08.094105 25510 net.cpp:141] Setting up resx12_elewise_resx12_elewise_relu_0_split
I0816 15:14:08.094112 25510 net.cpp:148] Top shape: 40 480 14 14 (3763200)
I0816 15:14:08.094116 25510 net.cpp:148] Top shape: 40 480 14 14 (3763200)
I0816 15:14:08.094120 25510 net.cpp:156] Memory required for data: 2481078240
I0816 15:14:08.094122 25510 layer_factory.hpp:77] Creating layer resx13_match_conv
I0816 15:14:08.094130 25510 net.cpp:91] Creating Layer resx13_match_conv
I0816 15:14:08.094132 25510 net.cpp:469] resx13_match_conv <- resx12_elewise_resx12_elewise_relu_0_split_0
I0816 15:14:08.094137 25510 net.cpp:443] resx13_match_conv -> resx13_match_conv
I0816 15:14:08.094336 25510 net.cpp:141] Setting up resx13_match_conv
I0816 15:14:08.094347 25510 net.cpp:148] Top shape: 40 480 7 7 (940800)
I0816 15:14:08.094350 25510 net.cpp:156] Memory required for data: 2484841440
I0816 15:14:08.094353 25510 layer_factory.hpp:77] Creating layer resx13_conv1
I0816 15:14:08.094362 25510 net.cpp:91] Creating Layer resx13_conv1
I0816 15:14:08.094367 25510 net.cpp:469] resx13_conv1 <- resx12_elewise_resx12_elewise_relu_0_split_1
I0816 15:14:08.094372 25510 net.cpp:443] resx13_conv1 -> resx13_conv1
I0816 15:14:08.097707 25510 net.cpp:141] Setting up resx13_conv1
I0816 15:14:08.097719 25510 net.cpp:148] Top shape: 40 120 14 14 (940800)
I0816 15:14:08.097723 25510 net.cpp:156] Memory required for data: 2488604640
I0816 15:14:08.097728 25510 layer_factory.hpp:77] Creating layer resx13_conv1_bn
I0816 15:14:08.097736 25510 net.cpp:91] Creating Layer resx13_conv1_bn
I0816 15:14:08.097741 25510 net.cpp:469] resx13_conv1_bn <- resx13_conv1
I0816 15:14:08.097748 25510 net.cpp:430] resx13_conv1_bn -> resx13_conv1 (in-place)
I0816 15:14:08.097944 25510 net.cpp:141] Setting up resx13_conv1_bn
I0816 15:14:08.097950 25510 net.cpp:148] Top shape: 40 120 14 14 (940800)
I0816 15:14:08.097954 25510 net.cpp:156] Memory required for data: 2492367840
I0816 15:14:08.097959 25510 layer_factory.hpp:77] Creating layer resx13_conv1_scale
I0816 15:14:08.097967 25510 net.cpp:91] Creating Layer resx13_conv1_scale
I0816 15:14:08.097971 25510 net.cpp:469] resx13_conv1_scale <- resx13_conv1
I0816 15:14:08.097975 25510 net.cpp:430] resx13_conv1_scale -> resx13_conv1 (in-place)
I0816 15:14:08.098018 25510 layer_factory.hpp:77] Creating layer resx13_conv1_scale
I0816 15:14:08.098134 25510 net.cpp:141] Setting up resx13_conv1_scale
I0816 15:14:08.098141 25510 net.cpp:148] Top shape: 40 120 14 14 (940800)
I0816 15:14:08.098145 25510 net.cpp:156] Memory required for data: 2496131040
I0816 15:14:08.098150 25510 layer_factory.hpp:77] Creating layer resx13_conv1_relu
I0816 15:14:08.098155 25510 net.cpp:91] Creating Layer resx13_conv1_relu
I0816 15:14:08.098158 25510 net.cpp:469] resx13_conv1_relu <- resx13_conv1
I0816 15:14:08.098167 25510 net.cpp:430] resx13_conv1_relu -> resx13_conv1 (in-place)
I0816 15:14:08.098348 25510 net.cpp:141] Setting up resx13_conv1_relu
I0816 15:14:08.098357 25510 net.cpp:148] Top shape: 40 120 14 14 (940800)
I0816 15:14:08.098364 25510 net.cpp:156] Memory required for data: 2499894240
I0816 15:14:08.098373 25510 layer_factory.hpp:77] Creating layer shuffle13
I0816 15:14:08.098381 25510 net.cpp:91] Creating Layer shuffle13
I0816 15:14:08.098386 25510 net.cpp:469] shuffle13 <- resx13_conv1
I0816 15:14:08.098390 25510 net.cpp:443] shuffle13 -> shuffle13
I0816 15:14:08.098423 25510 net.cpp:141] Setting up shuffle13
I0816 15:14:08.098429 25510 net.cpp:148] Top shape: 40 120 14 14 (940800)
I0816 15:14:08.098433 25510 net.cpp:156] Memory required for data: 2503657440
I0816 15:14:08.098435 25510 layer_factory.hpp:77] Creating layer resx13_conv2
I0816 15:14:08.098444 25510 net.cpp:91] Creating Layer resx13_conv2
I0816 15:14:08.098448 25510 net.cpp:469] resx13_conv2 <- shuffle13
I0816 15:14:08.098453 25510 net.cpp:443] resx13_conv2 -> resx13_conv2
I0816 15:14:08.098641 25510 net.cpp:141] Setting up resx13_conv2
I0816 15:14:08.098650 25510 net.cpp:148] Top shape: 40 120 7 7 (235200)
I0816 15:14:08.098654 25510 net.cpp:156] Memory required for data: 2504598240
I0816 15:14:08.098659 25510 layer_factory.hpp:77] Creating layer resx13_conv2_bn
I0816 15:14:08.098665 25510 net.cpp:91] Creating Layer resx13_conv2_bn
I0816 15:14:08.098670 25510 net.cpp:469] resx13_conv2_bn <- resx13_conv2
I0816 15:14:08.098675 25510 net.cpp:430] resx13_conv2_bn -> resx13_conv2 (in-place)
I0816 15:14:08.098876 25510 net.cpp:141] Setting up resx13_conv2_bn
I0816 15:14:08.098884 25510 net.cpp:148] Top shape: 40 120 7 7 (235200)
I0816 15:14:08.098887 25510 net.cpp:156] Memory required for data: 2505539040
I0816 15:14:08.098893 25510 layer_factory.hpp:77] Creating layer resx13_conv2_scale
I0816 15:14:08.098901 25510 net.cpp:91] Creating Layer resx13_conv2_scale
I0816 15:14:08.098903 25510 net.cpp:469] resx13_conv2_scale <- resx13_conv2
I0816 15:14:08.098908 25510 net.cpp:430] resx13_conv2_scale -> resx13_conv2 (in-place)
I0816 15:14:08.098951 25510 layer_factory.hpp:77] Creating layer resx13_conv2_scale
I0816 15:14:08.099068 25510 net.cpp:141] Setting up resx13_conv2_scale
I0816 15:14:08.099076 25510 net.cpp:148] Top shape: 40 120 7 7 (235200)
I0816 15:14:08.099079 25510 net.cpp:156] Memory required for data: 2506479840
I0816 15:14:08.099086 25510 layer_factory.hpp:77] Creating layer resx13_conv3
I0816 15:14:08.099092 25510 net.cpp:91] Creating Layer resx13_conv3
I0816 15:14:08.099097 25510 net.cpp:469] resx13_conv3 <- resx13_conv2
I0816 15:14:08.099103 25510 net.cpp:443] resx13_conv3 -> resx13_conv3
I0816 15:14:08.102695 25510 net.cpp:141] Setting up resx13_conv3
I0816 15:14:08.102708 25510 net.cpp:148] Top shape: 40 480 7 7 (940800)
I0816 15:14:08.102712 25510 net.cpp:156] Memory required for data: 2510243040
I0816 15:14:08.102717 25510 layer_factory.hpp:77] Creating layer resx13_conv3_bn
I0816 15:14:08.102725 25510 net.cpp:91] Creating Layer resx13_conv3_bn
I0816 15:14:08.102730 25510 net.cpp:469] resx13_conv3_bn <- resx13_conv3
I0816 15:14:08.102735 25510 net.cpp:430] resx13_conv3_bn -> resx13_conv3 (in-place)
I0816 15:14:08.102967 25510 net.cpp:141] Setting up resx13_conv3_bn
I0816 15:14:08.102974 25510 net.cpp:148] Top shape: 40 480 7 7 (940800)
I0816 15:14:08.102977 25510 net.cpp:156] Memory required for data: 2514006240
I0816 15:14:08.102984 25510 layer_factory.hpp:77] Creating layer resx13_conv3_scale
I0816 15:14:08.102993 25510 net.cpp:91] Creating Layer resx13_conv3_scale
I0816 15:14:08.102996 25510 net.cpp:469] resx13_conv3_scale <- resx13_conv3
I0816 15:14:08.103000 25510 net.cpp:430] resx13_conv3_scale -> resx13_conv3 (in-place)
I0816 15:14:08.103060 25510 layer_factory.hpp:77] Creating layer resx13_conv3_scale
I0816 15:14:08.103199 25510 net.cpp:141] Setting up resx13_conv3_scale
I0816 15:14:08.103206 25510 net.cpp:148] Top shape: 40 480 7 7 (940800)
I0816 15:14:08.103209 25510 net.cpp:156] Memory required for data: 2517769440
I0816 15:14:08.103215 25510 layer_factory.hpp:77] Creating layer resx13_concat
I0816 15:14:08.103222 25510 net.cpp:91] Creating Layer resx13_concat
I0816 15:14:08.103227 25510 net.cpp:469] resx13_concat <- resx13_match_conv
I0816 15:14:08.103235 25510 net.cpp:469] resx13_concat <- resx13_conv3
I0816 15:14:08.103245 25510 net.cpp:443] resx13_concat -> resx13_concat
I0816 15:14:08.103274 25510 net.cpp:141] Setting up resx13_concat
I0816 15:14:08.103281 25510 net.cpp:148] Top shape: 40 960 7 7 (1881600)
I0816 15:14:08.103284 25510 net.cpp:156] Memory required for data: 2525295840
I0816 15:14:08.103287 25510 layer_factory.hpp:77] Creating layer resx13_concat_relu
I0816 15:14:08.103292 25510 net.cpp:91] Creating Layer resx13_concat_relu
I0816 15:14:08.103296 25510 net.cpp:469] resx13_concat_relu <- resx13_concat
I0816 15:14:08.103302 25510 net.cpp:430] resx13_concat_relu -> resx13_concat (in-place)
I0816 15:14:08.103662 25510 net.cpp:141] Setting up resx13_concat_relu
I0816 15:14:08.103673 25510 net.cpp:148] Top shape: 40 960 7 7 (1881600)
I0816 15:14:08.103677 25510 net.cpp:156] Memory required for data: 2532822240
I0816 15:14:08.103680 25510 layer_factory.hpp:77] Creating layer resx13_concat_resx13_concat_relu_0_split
I0816 15:14:08.103688 25510 net.cpp:91] Creating Layer resx13_concat_resx13_concat_relu_0_split
I0816 15:14:08.103691 25510 net.cpp:469] resx13_concat_resx13_concat_relu_0_split <- resx13_concat
I0816 15:14:08.103696 25510 net.cpp:443] resx13_concat_resx13_concat_relu_0_split -> resx13_concat_resx13_concat_relu_0_split_0
I0816 15:14:08.103703 25510 net.cpp:443] resx13_concat_resx13_concat_relu_0_split -> resx13_concat_resx13_concat_relu_0_split_1
I0816 15:14:08.103747 25510 net.cpp:141] Setting up resx13_concat_resx13_concat_relu_0_split
I0816 15:14:08.103754 25510 net.cpp:148] Top shape: 40 960 7 7 (1881600)
I0816 15:14:08.103759 25510 net.cpp:148] Top shape: 40 960 7 7 (1881600)
I0816 15:14:08.103761 25510 net.cpp:156] Memory required for data: 2547875040
I0816 15:14:08.103765 25510 layer_factory.hpp:77] Creating layer resx14_conv1
I0816 15:14:08.103773 25510 net.cpp:91] Creating Layer resx14_conv1
I0816 15:14:08.103777 25510 net.cpp:469] resx14_conv1 <- resx13_concat_resx13_concat_relu_0_split_0
I0816 15:14:08.103782 25510 net.cpp:443] resx14_conv1 -> resx14_conv1
I0816 15:14:08.109053 25510 net.cpp:141] Setting up resx14_conv1
I0816 15:14:08.109452 25510 net.cpp:148] Top shape: 40 240 7 7 (470400)
I0816 15:14:08.109460 25510 net.cpp:156] Memory required for data: 2549756640
I0816 15:14:08.109469 25510 layer_factory.hpp:77] Creating layer resx14_conv1_bn
I0816 15:14:08.109484 25510 net.cpp:91] Creating Layer resx14_conv1_bn
I0816 15:14:08.109493 25510 net.cpp:469] resx14_conv1_bn <- resx14_conv1
I0816 15:14:08.109499 25510 net.cpp:430] resx14_conv1_bn -> resx14_conv1 (in-place)
I0816 15:14:08.109906 25510 net.cpp:141] Setting up resx14_conv1_bn
I0816 15:14:08.109923 25510 net.cpp:148] Top shape: 40 240 7 7 (470400)
I0816 15:14:08.109931 25510 net.cpp:156] Memory required for data: 2551638240
I0816 15:14:08.109947 25510 layer_factory.hpp:77] Creating layer resx14_conv1_scale
I0816 15:14:08.109962 25510 net.cpp:91] Creating Layer resx14_conv1_scale
I0816 15:14:08.109972 25510 net.cpp:469] resx14_conv1_scale <- resx14_conv1
I0816 15:14:08.109982 25510 net.cpp:430] resx14_conv1_scale -> resx14_conv1 (in-place)
I0816 15:14:08.110080 25510 layer_factory.hpp:77] Creating layer resx14_conv1_scale
I0816 15:14:08.110339 25510 net.cpp:141] Setting up resx14_conv1_scale
I0816 15:14:08.110354 25510 net.cpp:148] Top shape: 40 240 7 7 (470400)
I0816 15:14:08.110363 25510 net.cpp:156] Memory required for data: 2553519840
I0816 15:14:08.110374 25510 layer_factory.hpp:77] Creating layer resx14_conv1_relu
I0816 15:14:08.110388 25510 net.cpp:91] Creating Layer resx14_conv1_relu
I0816 15:14:08.110395 25510 net.cpp:469] resx14_conv1_relu <- resx14_conv1
I0816 15:14:08.110409 25510 net.cpp:430] resx14_conv1_relu -> resx14_conv1 (in-place)
I0816 15:14:08.111095 25510 net.cpp:141] Setting up resx14_conv1_relu
I0816 15:14:08.111119 25510 net.cpp:148] Top shape: 40 240 7 7 (470400)
I0816 15:14:08.111129 25510 net.cpp:156] Memory required for data: 2555401440
I0816 15:14:08.111137 25510 layer_factory.hpp:77] Creating layer shuffle14
I0816 15:14:08.111163 25510 net.cpp:91] Creating Layer shuffle14
I0816 15:14:08.111189 25510 net.cpp:469] shuffle14 <- resx14_conv1
I0816 15:14:08.111207 25510 net.cpp:443] shuffle14 -> shuffle14
I0816 15:14:08.111274 25510 net.cpp:141] Setting up shuffle14
I0816 15:14:08.111286 25510 net.cpp:148] Top shape: 40 240 7 7 (470400)
I0816 15:14:08.111294 25510 net.cpp:156] Memory required for data: 2557283040
I0816 15:14:08.111301 25510 layer_factory.hpp:77] Creating layer resx14_conv2
I0816 15:14:08.111321 25510 net.cpp:91] Creating Layer resx14_conv2
I0816 15:14:08.111330 25510 net.cpp:469] resx14_conv2 <- shuffle14
I0816 15:14:08.111343 25510 net.cpp:443] resx14_conv2 -> resx14_conv2
I0816 15:14:08.111827 25510 net.cpp:141] Setting up resx14_conv2
I0816 15:14:08.111850 25510 net.cpp:148] Top shape: 40 240 7 7 (470400)
I0816 15:14:08.111857 25510 net.cpp:156] Memory required for data: 2559164640
I0816 15:14:08.111868 25510 layer_factory.hpp:77] Creating layer resx14_conv2_bn
I0816 15:14:08.111886 25510 net.cpp:91] Creating Layer resx14_conv2_bn
I0816 15:14:08.111893 25510 net.cpp:469] resx14_conv2_bn <- resx14_conv2
I0816 15:14:08.111907 25510 net.cpp:430] resx14_conv2_bn -> resx14_conv2 (in-place)
I0816 15:14:08.112349 25510 net.cpp:141] Setting up resx14_conv2_bn
I0816 15:14:08.112362 25510 net.cpp:148] Top shape: 40 240 7 7 (470400)
I0816 15:14:08.112370 25510 net.cpp:156] Memory required for data: 2561046240
I0816 15:14:08.112385 25510 layer_factory.hpp:77] Creating layer resx14_conv2_scale
I0816 15:14:08.112401 25510 net.cpp:91] Creating Layer resx14_conv2_scale
I0816 15:14:08.112411 25510 net.cpp:469] resx14_conv2_scale <- resx14_conv2
I0816 15:14:08.112421 25510 net.cpp:430] resx14_conv2_scale -> resx14_conv2 (in-place)
I0816 15:14:08.112512 25510 layer_factory.hpp:77] Creating layer resx14_conv2_scale
I0816 15:14:08.112771 25510 net.cpp:141] Setting up resx14_conv2_scale
I0816 15:14:08.112785 25510 net.cpp:148] Top shape: 40 240 7 7 (470400)
I0816 15:14:08.112792 25510 net.cpp:156] Memory required for data: 2562927840
I0816 15:14:08.112804 25510 layer_factory.hpp:77] Creating layer resx14_conv3
I0816 15:14:08.112823 25510 net.cpp:91] Creating Layer resx14_conv3
I0816 15:14:08.112831 25510 net.cpp:469] resx14_conv3 <- resx14_conv2
I0816 15:14:08.112845 25510 net.cpp:443] resx14_conv3 -> resx14_conv3
I0816 15:14:08.122416 25510 net.cpp:141] Setting up resx14_conv3
I0816 15:14:08.122431 25510 net.cpp:148] Top shape: 40 960 7 7 (1881600)
I0816 15:14:08.122434 25510 net.cpp:156] Memory required for data: 2570454240
I0816 15:14:08.122440 25510 layer_factory.hpp:77] Creating layer resx14_conv3_bn
I0816 15:14:08.122450 25510 net.cpp:91] Creating Layer resx14_conv3_bn
I0816 15:14:08.122455 25510 net.cpp:469] resx14_conv3_bn <- resx14_conv3
I0816 15:14:08.122462 25510 net.cpp:430] resx14_conv3_bn -> resx14_conv3 (in-place)
I0816 15:14:08.122741 25510 net.cpp:141] Setting up resx14_conv3_bn
I0816 15:14:08.122750 25510 net.cpp:148] Top shape: 40 960 7 7 (1881600)
I0816 15:14:08.122753 25510 net.cpp:156] Memory required for data: 2577980640
I0816 15:14:08.122761 25510 layer_factory.hpp:77] Creating layer resx14_conv3_scale
I0816 15:14:08.122769 25510 net.cpp:91] Creating Layer resx14_conv3_scale
I0816 15:14:08.122774 25510 net.cpp:469] resx14_conv3_scale <- resx14_conv3
I0816 15:14:08.122779 25510 net.cpp:430] resx14_conv3_scale -> resx14_conv3 (in-place)
I0816 15:14:08.122843 25510 layer_factory.hpp:77] Creating layer resx14_conv3_scale
I0816 15:14:08.123000 25510 net.cpp:141] Setting up resx14_conv3_scale
I0816 15:14:08.123010 25510 net.cpp:148] Top shape: 40 960 7 7 (1881600)
I0816 15:14:08.123013 25510 net.cpp:156] Memory required for data: 2585507040
I0816 15:14:08.123069 25510 layer_factory.hpp:77] Creating layer resx14_elewise
I0816 15:14:08.123078 25510 net.cpp:91] Creating Layer resx14_elewise
I0816 15:14:08.123083 25510 net.cpp:469] resx14_elewise <- resx13_concat_resx13_concat_relu_0_split_1
I0816 15:14:08.123088 25510 net.cpp:469] resx14_elewise <- resx14_conv3
I0816 15:14:08.123093 25510 net.cpp:443] resx14_elewise -> resx14_elewise
I0816 15:14:08.123136 25510 net.cpp:141] Setting up resx14_elewise
I0816 15:14:08.123152 25510 net.cpp:148] Top shape: 40 960 7 7 (1881600)
I0816 15:14:08.123155 25510 net.cpp:156] Memory required for data: 2593033440
I0816 15:14:08.123158 25510 layer_factory.hpp:77] Creating layer resx14_elewise_relu
I0816 15:14:08.123165 25510 net.cpp:91] Creating Layer resx14_elewise_relu
I0816 15:14:08.123169 25510 net.cpp:469] resx14_elewise_relu <- resx14_elewise
I0816 15:14:08.123173 25510 net.cpp:430] resx14_elewise_relu -> resx14_elewise (in-place)
I0816 15:14:08.123567 25510 net.cpp:141] Setting up resx14_elewise_relu
I0816 15:14:08.123580 25510 net.cpp:148] Top shape: 40 960 7 7 (1881600)
I0816 15:14:08.123584 25510 net.cpp:156] Memory required for data: 2600559840
I0816 15:14:08.123589 25510 layer_factory.hpp:77] Creating layer resx14_elewise_resx14_elewise_relu_0_split
I0816 15:14:08.123600 25510 net.cpp:91] Creating Layer resx14_elewise_resx14_elewise_relu_0_split
I0816 15:14:08.123603 25510 net.cpp:469] resx14_elewise_resx14_elewise_relu_0_split <- resx14_elewise
I0816 15:14:08.123610 25510 net.cpp:443] resx14_elewise_resx14_elewise_relu_0_split -> resx14_elewise_resx14_elewise_relu_0_split_0
I0816 15:14:08.123618 25510 net.cpp:443] resx14_elewise_resx14_elewise_relu_0_split -> resx14_elewise_resx14_elewise_relu_0_split_1
I0816 15:14:08.123668 25510 net.cpp:141] Setting up resx14_elewise_resx14_elewise_relu_0_split
I0816 15:14:08.123675 25510 net.cpp:148] Top shape: 40 960 7 7 (1881600)
I0816 15:14:08.123679 25510 net.cpp:148] Top shape: 40 960 7 7 (1881600)
I0816 15:14:08.123683 25510 net.cpp:156] Memory required for data: 2615612640
I0816 15:14:08.123687 25510 layer_factory.hpp:77] Creating layer resx15_conv1
I0816 15:14:08.123697 25510 net.cpp:91] Creating Layer resx15_conv1
I0816 15:14:08.123702 25510 net.cpp:469] resx15_conv1 <- resx14_elewise_resx14_elewise_relu_0_split_0
I0816 15:14:08.123709 25510 net.cpp:443] resx15_conv1 -> resx15_conv1
I0816 15:14:08.129757 25510 net.cpp:141] Setting up resx15_conv1
I0816 15:14:08.129772 25510 net.cpp:148] Top shape: 40 240 7 7 (470400)
I0816 15:14:08.129777 25510 net.cpp:156] Memory required for data: 2617494240
I0816 15:14:08.129783 25510 layer_factory.hpp:77] Creating layer resx15_conv1_bn
I0816 15:14:08.129792 25510 net.cpp:91] Creating Layer resx15_conv1_bn
I0816 15:14:08.129798 25510 net.cpp:469] resx15_conv1_bn <- resx15_conv1
I0816 15:14:08.129806 25510 net.cpp:430] resx15_conv1_bn -> resx15_conv1 (in-place)
I0816 15:14:08.130038 25510 net.cpp:141] Setting up resx15_conv1_bn
I0816 15:14:08.130045 25510 net.cpp:148] Top shape: 40 240 7 7 (470400)
I0816 15:14:08.130049 25510 net.cpp:156] Memory required for data: 2619375840
I0816 15:14:08.130056 25510 layer_factory.hpp:77] Creating layer resx15_conv1_scale
I0816 15:14:08.130065 25510 net.cpp:91] Creating Layer resx15_conv1_scale
I0816 15:14:08.130070 25510 net.cpp:469] resx15_conv1_scale <- resx15_conv1
I0816 15:14:08.130075 25510 net.cpp:430] resx15_conv1_scale -> resx15_conv1 (in-place)
I0816 15:14:08.130127 25510 layer_factory.hpp:77] Creating layer resx15_conv1_scale
I0816 15:14:08.130260 25510 net.cpp:141] Setting up resx15_conv1_scale
I0816 15:14:08.130269 25510 net.cpp:148] Top shape: 40 240 7 7 (470400)
I0816 15:14:08.130271 25510 net.cpp:156] Memory required for data: 2621257440
I0816 15:14:08.130277 25510 layer_factory.hpp:77] Creating layer resx15_conv1_relu
I0816 15:14:08.130285 25510 net.cpp:91] Creating Layer resx15_conv1_relu
I0816 15:14:08.130290 25510 net.cpp:469] resx15_conv1_relu <- resx15_conv1
I0816 15:14:08.130295 25510 net.cpp:430] resx15_conv1_relu -> resx15_conv1 (in-place)
I0816 15:14:08.130687 25510 net.cpp:141] Setting up resx15_conv1_relu
I0816 15:14:08.130700 25510 net.cpp:148] Top shape: 40 240 7 7 (470400)
I0816 15:14:08.130704 25510 net.cpp:156] Memory required for data: 2623139040
I0816 15:14:08.130708 25510 layer_factory.hpp:77] Creating layer shuffle15
I0816 15:14:08.130714 25510 net.cpp:91] Creating Layer shuffle15
I0816 15:14:08.130719 25510 net.cpp:469] shuffle15 <- resx15_conv1
I0816 15:14:08.130731 25510 net.cpp:443] shuffle15 -> shuffle15
I0816 15:14:08.130775 25510 net.cpp:141] Setting up shuffle15
I0816 15:14:08.130784 25510 net.cpp:148] Top shape: 40 240 7 7 (470400)
I0816 15:14:08.130786 25510 net.cpp:156] Memory required for data: 2625020640
I0816 15:14:08.130790 25510 layer_factory.hpp:77] Creating layer resx15_conv2
I0816 15:14:08.130798 25510 net.cpp:91] Creating Layer resx15_conv2
I0816 15:14:08.130802 25510 net.cpp:469] resx15_conv2 <- shuffle15
I0816 15:14:08.130810 25510 net.cpp:443] resx15_conv2 -> resx15_conv2
I0816 15:14:08.131031 25510 net.cpp:141] Setting up resx15_conv2
I0816 15:14:08.131042 25510 net.cpp:148] Top shape: 40 240 7 7 (470400)
I0816 15:14:08.131045 25510 net.cpp:156] Memory required for data: 2626902240
I0816 15:14:08.131050 25510 layer_factory.hpp:77] Creating layer resx15_conv2_bn
I0816 15:14:08.131059 25510 net.cpp:91] Creating Layer resx15_conv2_bn
I0816 15:14:08.131064 25510 net.cpp:469] resx15_conv2_bn <- resx15_conv2
I0816 15:14:08.131069 25510 net.cpp:430] resx15_conv2_bn -> resx15_conv2 (in-place)
I0816 15:14:08.131294 25510 net.cpp:141] Setting up resx15_conv2_bn
I0816 15:14:08.131304 25510 net.cpp:148] Top shape: 40 240 7 7 (470400)
I0816 15:14:08.131306 25510 net.cpp:156] Memory required for data: 2628783840
I0816 15:14:08.131314 25510 layer_factory.hpp:77] Creating layer resx15_conv2_scale
I0816 15:14:08.131323 25510 net.cpp:91] Creating Layer resx15_conv2_scale
I0816 15:14:08.131327 25510 net.cpp:469] resx15_conv2_scale <- resx15_conv2
I0816 15:14:08.131333 25510 net.cpp:430] resx15_conv2_scale -> resx15_conv2 (in-place)
I0816 15:14:08.131381 25510 layer_factory.hpp:77] Creating layer resx15_conv2_scale
I0816 15:14:08.131517 25510 net.cpp:141] Setting up resx15_conv2_scale
I0816 15:14:08.131525 25510 net.cpp:148] Top shape: 40 240 7 7 (470400)
I0816 15:14:08.131528 25510 net.cpp:156] Memory required for data: 2630665440
I0816 15:14:08.131536 25510 layer_factory.hpp:77] Creating layer resx15_conv3
I0816 15:14:08.131546 25510 net.cpp:91] Creating Layer resx15_conv3
I0816 15:14:08.131551 25510 net.cpp:469] resx15_conv3 <- resx15_conv2
I0816 15:14:08.131556 25510 net.cpp:443] resx15_conv3 -> resx15_conv3
I0816 15:14:08.136667 25510 net.cpp:141] Setting up resx15_conv3
I0816 15:14:08.136682 25510 net.cpp:148] Top shape: 40 960 7 7 (1881600)
I0816 15:14:08.136685 25510 net.cpp:156] Memory required for data: 2638191840
I0816 15:14:08.136692 25510 layer_factory.hpp:77] Creating layer resx15_conv3_bn
I0816 15:14:08.136703 25510 net.cpp:91] Creating Layer resx15_conv3_bn
I0816 15:14:08.136709 25510 net.cpp:469] resx15_conv3_bn <- resx15_conv3
I0816 15:14:08.136715 25510 net.cpp:430] resx15_conv3_bn -> resx15_conv3 (in-place)
I0816 15:14:08.136981 25510 net.cpp:141] Setting up resx15_conv3_bn
I0816 15:14:08.136989 25510 net.cpp:148] Top shape: 40 960 7 7 (1881600)
I0816 15:14:08.136992 25510 net.cpp:156] Memory required for data: 2645718240
I0816 15:14:08.137001 25510 layer_factory.hpp:77] Creating layer resx15_conv3_scale
I0816 15:14:08.137008 25510 net.cpp:91] Creating Layer resx15_conv3_scale
I0816 15:14:08.137013 25510 net.cpp:469] resx15_conv3_scale <- resx15_conv3
I0816 15:14:08.137018 25510 net.cpp:430] resx15_conv3_scale -> resx15_conv3 (in-place)
I0816 15:14:08.137096 25510 layer_factory.hpp:77] Creating layer resx15_conv3_scale
I0816 15:14:08.137259 25510 net.cpp:141] Setting up resx15_conv3_scale
I0816 15:14:08.137267 25510 net.cpp:148] Top shape: 40 960 7 7 (1881600)
I0816 15:14:08.137271 25510 net.cpp:156] Memory required for data: 2653244640
I0816 15:14:08.137277 25510 layer_factory.hpp:77] Creating layer resx15_elewise
I0816 15:14:08.137286 25510 net.cpp:91] Creating Layer resx15_elewise
I0816 15:14:08.137290 25510 net.cpp:469] resx15_elewise <- resx14_elewise_resx14_elewise_relu_0_split_1
I0816 15:14:08.137295 25510 net.cpp:469] resx15_elewise <- resx15_conv3
I0816 15:14:08.137300 25510 net.cpp:443] resx15_elewise -> resx15_elewise
I0816 15:14:08.137331 25510 net.cpp:141] Setting up resx15_elewise
I0816 15:14:08.137338 25510 net.cpp:148] Top shape: 40 960 7 7 (1881600)
I0816 15:14:08.137351 25510 net.cpp:156] Memory required for data: 2660771040
I0816 15:14:08.137356 25510 layer_factory.hpp:77] Creating layer resx15_elewise_relu
I0816 15:14:08.137362 25510 net.cpp:91] Creating Layer resx15_elewise_relu
I0816 15:14:08.137367 25510 net.cpp:469] resx15_elewise_relu <- resx15_elewise
I0816 15:14:08.137372 25510 net.cpp:430] resx15_elewise_relu -> resx15_elewise (in-place)
I0816 15:14:08.137765 25510 net.cpp:141] Setting up resx15_elewise_relu
I0816 15:14:08.137778 25510 net.cpp:148] Top shape: 40 960 7 7 (1881600)
I0816 15:14:08.137783 25510 net.cpp:156] Memory required for data: 2668297440
I0816 15:14:08.137786 25510 layer_factory.hpp:77] Creating layer resx15_elewise_resx15_elewise_relu_0_split
I0816 15:14:08.137795 25510 net.cpp:91] Creating Layer resx15_elewise_resx15_elewise_relu_0_split
I0816 15:14:08.137799 25510 net.cpp:469] resx15_elewise_resx15_elewise_relu_0_split <- resx15_elewise
I0816 15:14:08.137805 25510 net.cpp:443] resx15_elewise_resx15_elewise_relu_0_split -> resx15_elewise_resx15_elewise_relu_0_split_0
I0816 15:14:08.137812 25510 net.cpp:443] resx15_elewise_resx15_elewise_relu_0_split -> resx15_elewise_resx15_elewise_relu_0_split_1
I0816 15:14:08.137866 25510 net.cpp:141] Setting up resx15_elewise_resx15_elewise_relu_0_split
I0816 15:14:08.137872 25510 net.cpp:148] Top shape: 40 960 7 7 (1881600)
I0816 15:14:08.137876 25510 net.cpp:148] Top shape: 40 960 7 7 (1881600)
I0816 15:14:08.137881 25510 net.cpp:156] Memory required for data: 2683350240
I0816 15:14:08.137884 25510 layer_factory.hpp:77] Creating layer resx16_conv1
I0816 15:14:08.137895 25510 net.cpp:91] Creating Layer resx16_conv1
I0816 15:14:08.137900 25510 net.cpp:469] resx16_conv1 <- resx15_elewise_resx15_elewise_relu_0_split_0
I0816 15:14:08.137907 25510 net.cpp:443] resx16_conv1 -> resx16_conv1
I0816 15:14:08.143065 25510 net.cpp:141] Setting up resx16_conv1
I0816 15:14:08.143079 25510 net.cpp:148] Top shape: 40 240 7 7 (470400)
I0816 15:14:08.143084 25510 net.cpp:156] Memory required for data: 2685231840
I0816 15:14:08.143090 25510 layer_factory.hpp:77] Creating layer resx16_conv1_bn
I0816 15:14:08.143102 25510 net.cpp:91] Creating Layer resx16_conv1_bn
I0816 15:14:08.143106 25510 net.cpp:469] resx16_conv1_bn <- resx16_conv1
I0816 15:14:08.143113 25510 net.cpp:430] resx16_conv1_bn -> resx16_conv1 (in-place)
I0816 15:14:08.143350 25510 net.cpp:141] Setting up resx16_conv1_bn
I0816 15:14:08.143358 25510 net.cpp:148] Top shape: 40 240 7 7 (470400)
I0816 15:14:08.143362 25510 net.cpp:156] Memory required for data: 2687113440
I0816 15:14:08.143369 25510 layer_factory.hpp:77] Creating layer resx16_conv1_scale
I0816 15:14:08.143378 25510 net.cpp:91] Creating Layer resx16_conv1_scale
I0816 15:14:08.143381 25510 net.cpp:469] resx16_conv1_scale <- resx16_conv1
I0816 15:14:08.143388 25510 net.cpp:430] resx16_conv1_scale -> resx16_conv1 (in-place)
I0816 15:14:08.143435 25510 layer_factory.hpp:77] Creating layer resx16_conv1_scale
I0816 15:14:08.143573 25510 net.cpp:141] Setting up resx16_conv1_scale
I0816 15:14:08.143579 25510 net.cpp:148] Top shape: 40 240 7 7 (470400)
I0816 15:14:08.143584 25510 net.cpp:156] Memory required for data: 2688995040
I0816 15:14:08.143589 25510 layer_factory.hpp:77] Creating layer resx16_conv1_relu
I0816 15:14:08.143595 25510 net.cpp:91] Creating Layer resx16_conv1_relu
I0816 15:14:08.143599 25510 net.cpp:469] resx16_conv1_relu <- resx16_conv1
I0816 15:14:08.143605 25510 net.cpp:430] resx16_conv1_relu -> resx16_conv1 (in-place)
I0816 15:14:08.144009 25510 net.cpp:141] Setting up resx16_conv1_relu
I0816 15:14:08.144022 25510 net.cpp:148] Top shape: 40 240 7 7 (470400)
I0816 15:14:08.144026 25510 net.cpp:156] Memory required for data: 2690876640
I0816 15:14:08.144031 25510 layer_factory.hpp:77] Creating layer shuffle16
I0816 15:14:08.144037 25510 net.cpp:91] Creating Layer shuffle16
I0816 15:14:08.144042 25510 net.cpp:469] shuffle16 <- resx16_conv1
I0816 15:14:08.144048 25510 net.cpp:443] shuffle16 -> shuffle16
I0816 15:14:08.144085 25510 net.cpp:141] Setting up shuffle16
I0816 15:14:08.144098 25510 net.cpp:148] Top shape: 40 240 7 7 (470400)
I0816 15:14:08.144107 25510 net.cpp:156] Memory required for data: 2692758240
I0816 15:14:08.144111 25510 layer_factory.hpp:77] Creating layer resx16_conv2
I0816 15:14:08.144121 25510 net.cpp:91] Creating Layer resx16_conv2
I0816 15:14:08.144125 25510 net.cpp:469] resx16_conv2 <- shuffle16
I0816 15:14:08.144134 25510 net.cpp:443] resx16_conv2 -> resx16_conv2
I0816 15:14:08.144359 25510 net.cpp:141] Setting up resx16_conv2
I0816 15:14:08.144371 25510 net.cpp:148] Top shape: 40 240 7 7 (470400)
I0816 15:14:08.144373 25510 net.cpp:156] Memory required for data: 2694639840
I0816 15:14:08.144379 25510 layer_factory.hpp:77] Creating layer resx16_conv2_bn
I0816 15:14:08.144388 25510 net.cpp:91] Creating Layer resx16_conv2_bn
I0816 15:14:08.144392 25510 net.cpp:469] resx16_conv2_bn <- resx16_conv2
I0816 15:14:08.144400 25510 net.cpp:430] resx16_conv2_bn -> resx16_conv2 (in-place)
I0816 15:14:08.144630 25510 net.cpp:141] Setting up resx16_conv2_bn
I0816 15:14:08.144637 25510 net.cpp:148] Top shape: 40 240 7 7 (470400)
I0816 15:14:08.144641 25510 net.cpp:156] Memory required for data: 2696521440
I0816 15:14:08.144649 25510 layer_factory.hpp:77] Creating layer resx16_conv2_scale
I0816 15:14:08.144659 25510 net.cpp:91] Creating Layer resx16_conv2_scale
I0816 15:14:08.144662 25510 net.cpp:469] resx16_conv2_scale <- resx16_conv2
I0816 15:14:08.144667 25510 net.cpp:430] resx16_conv2_scale -> resx16_conv2 (in-place)
I0816 15:14:08.144717 25510 layer_factory.hpp:77] Creating layer resx16_conv2_scale
I0816 15:14:08.144853 25510 net.cpp:141] Setting up resx16_conv2_scale
I0816 15:14:08.144861 25510 net.cpp:148] Top shape: 40 240 7 7 (470400)
I0816 15:14:08.144865 25510 net.cpp:156] Memory required for data: 2698403040
I0816 15:14:08.144870 25510 layer_factory.hpp:77] Creating layer resx16_conv3
I0816 15:14:08.144881 25510 net.cpp:91] Creating Layer resx16_conv3
I0816 15:14:08.144886 25510 net.cpp:469] resx16_conv3 <- resx16_conv2
I0816 15:14:08.144891 25510 net.cpp:443] resx16_conv3 -> resx16_conv3
I0816 15:14:08.150804 25510 net.cpp:141] Setting up resx16_conv3
I0816 15:14:08.150818 25510 net.cpp:148] Top shape: 40 960 7 7 (1881600)
I0816 15:14:08.150823 25510 net.cpp:156] Memory required for data: 2705929440
I0816 15:14:08.150830 25510 layer_factory.hpp:77] Creating layer resx16_conv3_bn
I0816 15:14:08.150838 25510 net.cpp:91] Creating Layer resx16_conv3_bn
I0816 15:14:08.150843 25510 net.cpp:469] resx16_conv3_bn <- resx16_conv3
I0816 15:14:08.150851 25510 net.cpp:430] resx16_conv3_bn -> resx16_conv3 (in-place)
I0816 15:14:08.151119 25510 net.cpp:141] Setting up resx16_conv3_bn
I0816 15:14:08.151127 25510 net.cpp:148] Top shape: 40 960 7 7 (1881600)
I0816 15:14:08.151131 25510 net.cpp:156] Memory required for data: 2713455840
I0816 15:14:08.151139 25510 layer_factory.hpp:77] Creating layer resx16_conv3_scale
I0816 15:14:08.151147 25510 net.cpp:91] Creating Layer resx16_conv3_scale
I0816 15:14:08.151151 25510 net.cpp:469] resx16_conv3_scale <- resx16_conv3
I0816 15:14:08.151156 25510 net.cpp:430] resx16_conv3_scale -> resx16_conv3 (in-place)
I0816 15:14:08.151224 25510 layer_factory.hpp:77] Creating layer resx16_conv3_scale
I0816 15:14:08.151391 25510 net.cpp:141] Setting up resx16_conv3_scale
I0816 15:14:08.151398 25510 net.cpp:148] Top shape: 40 960 7 7 (1881600)
I0816 15:14:08.151402 25510 net.cpp:156] Memory required for data: 2720982240
I0816 15:14:08.151408 25510 layer_factory.hpp:77] Creating layer resx16_elewise
I0816 15:14:08.151417 25510 net.cpp:91] Creating Layer resx16_elewise
I0816 15:14:08.151422 25510 net.cpp:469] resx16_elewise <- resx15_elewise_resx15_elewise_relu_0_split_1
I0816 15:14:08.151425 25510 net.cpp:469] resx16_elewise <- resx16_conv3
I0816 15:14:08.151430 25510 net.cpp:443] resx16_elewise -> resx16_elewise
I0816 15:14:08.151468 25510 net.cpp:141] Setting up resx16_elewise
I0816 15:14:08.151476 25510 net.cpp:148] Top shape: 40 960 7 7 (1881600)
I0816 15:14:08.151479 25510 net.cpp:156] Memory required for data: 2728508640
I0816 15:14:08.151487 25510 layer_factory.hpp:77] Creating layer resx16_elewise_relu
I0816 15:14:08.151499 25510 net.cpp:91] Creating Layer resx16_elewise_relu
I0816 15:14:08.151504 25510 net.cpp:469] resx16_elewise_relu <- resx16_elewise
I0816 15:14:08.151510 25510 net.cpp:430] resx16_elewise_relu -> resx16_elewise (in-place)
I0816 15:14:08.151907 25510 net.cpp:141] Setting up resx16_elewise_relu
I0816 15:14:08.151921 25510 net.cpp:148] Top shape: 40 960 7 7 (1881600)
I0816 15:14:08.151924 25510 net.cpp:156] Memory required for data: 2736035040
I0816 15:14:08.151928 25510 layer_factory.hpp:77] Creating layer pool_ave
I0816 15:14:08.151937 25510 net.cpp:91] Creating Layer pool_ave
I0816 15:14:08.151942 25510 net.cpp:469] pool_ave <- resx16_elewise
I0816 15:14:08.151949 25510 net.cpp:443] pool_ave -> pool_ave
I0816 15:14:08.152181 25510 net.cpp:141] Setting up pool_ave
I0816 15:14:08.152192 25510 net.cpp:148] Top shape: 40 960 1 1 (38400)
I0816 15:14:08.152196 25510 net.cpp:156] Memory required for data: 2736188640
I0816 15:14:08.152199 25510 layer_factory.hpp:77] Creating layer fc1000
I0816 15:14:08.152212 25510 net.cpp:91] Creating Layer fc1000
I0816 15:14:08.152217 25510 net.cpp:469] fc1000 <- pool_ave
I0816 15:14:08.152225 25510 net.cpp:443] fc1000 -> fc1000
I0816 15:14:08.182183 25510 net.cpp:141] Setting up fc1000
I0816 15:14:08.182199 25510 net.cpp:148] Top shape: 40 1000 1 1 (40000)
I0816 15:14:08.182204 25510 net.cpp:156] Memory required for data: 2736348640
I0816 15:14:08.182210 25510 layer_factory.hpp:77] Creating layer fc1000_fc1000_0_split
I0816 15:14:08.182219 25510 net.cpp:91] Creating Layer fc1000_fc1000_0_split
I0816 15:14:08.182224 25510 net.cpp:469] fc1000_fc1000_0_split <- fc1000
I0816 15:14:08.182230 25510 net.cpp:443] fc1000_fc1000_0_split -> fc1000_fc1000_0_split_0
I0816 15:14:08.182237 25510 net.cpp:443] fc1000_fc1000_0_split -> fc1000_fc1000_0_split_1
I0816 15:14:08.182287 25510 net.cpp:141] Setting up fc1000_fc1000_0_split
I0816 15:14:08.182294 25510 net.cpp:148] Top shape: 40 1000 1 1 (40000)
I0816 15:14:08.182299 25510 net.cpp:148] Top shape: 40 1000 1 1 (40000)
I0816 15:14:08.182302 25510 net.cpp:156] Memory required for data: 2736668640
I0816 15:14:08.182307 25510 layer_factory.hpp:77] Creating layer accuracy
I0816 15:14:08.182592 25510 net.cpp:91] Creating Layer accuracy
I0816 15:14:08.182602 25510 net.cpp:469] accuracy <- fc1000_fc1000_0_split_0
I0816 15:14:08.182608 25510 net.cpp:469] accuracy <- label_data_1_split_0
I0816 15:14:08.182615 25510 net.cpp:443] accuracy -> accuracy
…
