…
I0818 11:11:35.533191 15236 net.cpp:313] The NetState phase (0) differed from the phase (1) specified by a rule in layer accuracy
I0818 11:11:35.534073 15236 net.cpp:49] Initializing net from parameters: 
name: "shufflenet"
state {
  phase: TRAIN
}
layer {
  name: "data"
  type: "Data"
  top: "data"
  top: "label"
  include {
    phase: TRAIN
  }
  transform_param {
    scale: 0.017
    mirror: false
    crop_size: 224
    mean_value: 103.94
    mean_value: 116.78
    mean_value: 123.68
  }
  data_param {
    source: "/home/chenyao/ilsvrc12/ilsvrc12_train_lmdb"
    batch_size: 80
    backend: LMDB
  }
}
layer {
  name: "conv1"
  type: "Convolution"
  bottom: "data"
  top: "conv1"
  convolution_param {
    num_output: 24
    bias_term: false
    pad: 1
    kernel_size: 3
    stride: 2
    weight_filler {
      type: "msra"
    }
  }
}
layer {
  name: "conv1_bn"
  type: "BatchNorm"
  bottom: "conv1"
  top: "conv1"
  param {
    lr_mult: 0
    decay_mult: 0
  }
  param {
    lr_mult: 0
    decay_mult: 0
  }
  param {
    lr_mult: 0
    decay_mult: 0
  }
}
layer {
  name: "conv1_scale"
  type: "Scale"
  bottom: "conv1"
  top: "conv1"
  scale_param {
    filler {
      value: 1
    }
    bias_term: true
    bias_filler {
      value: 0
    }
  }
}
layer {
  name: "conv1_relu"
  type: "ReLU"
  bottom: "conv1"
  top: "conv1"
}
layer {
  name: "pool1"
  type: "Pooling"
  bottom: "conv1"
  top: "pool1"
  pooling_param {
    pool: MAX
    kernel_size: 3
    stride: 2
  }
}
layer {
  name: "resx1_match_conv"
  type: "Pooling"
  bottom: "pool1"
  top: "resx1_match_conv"
  pooling_param {
    pool: AVE
    kernel_size: 3
    stride: 2
  }
}
layer {
  name: "resx1_conv1"
  type: "Convolution"
  bottom: "pool1"
  top: "resx1_conv1"
  convolution_param {
    num_output: 54
    bias_term: false
    pad: 0
    kernel_size: 1
    stride: 1
    weight_filler {
      type: "msra"
    }
  }
}
layer {
  name: "resx1_conv1_bn"
  type: "BatchNorm"
  bottom: "resx1_conv1"
  top: "resx1_conv1"
  param {
    lr_mult: 0
    decay_mult: 0
  }
  param {
    lr_mult: 0
    decay_mult: 0
  }
  param {
    lr_mult: 0
    decay_mult: 0
  }
}
layer {
  name: "resx1_conv1_scale"
  type: "Scale"
  bottom: "resx1_conv1"
  top: "resx1_conv1"
  scale_param {
    filler {
      value: 1
    }
    bias_term: true
    bias_filler {
      value: 0
    }
  }
}
layer {
  name: "resx1_conv1_relu"
  type: "ReLU"
  bottom: "resx1_conv1"
  top: "resx1_conv1"
}
layer {
  name: "resx1_conv2"
  type: "ConvolutionDepthwise"
  bottom: "resx1_conv1"
  top: "resx1_conv2"
  convolution_param {
    num_output: 54
    bias_term: false
    pad: 1
    kernel_size: 3
    stride: 2
    weight_filler {
      type: "msra"
    }
  }
}
layer {
  name: "resx1_conv2_bn"
  type: "BatchNorm"
  bottom: "resx1_conv2"
  top: "resx1_conv2"
  param {
    lr_mult: 0
    decay_mult: 0
  }
  param {
    lr_mult: 0
    decay_mult: 0
  }
  param {
    lr_mult: 0
    decay_mult: 0
  }
}
layer {
  name: "resx1_conv2_scale"
  type: "Scale"
  bottom: "resx1_conv2"
  top: "resx1_conv2"
  scale_param {
    filler {
      value: 1
    }
    bias_term: true
    bias_filler {
      value: 0
    }
  }
}
layer {
  name: "resx1_conv3"
  type: "Convolution"
  bottom: "resx1_conv2"
  top: "resx1_conv3"
  convolution_param {
    num_output: 216
    bias_term: false
    pad: 0
    kernel_size: 1
    group: 3
    stride: 1
    weight_filler {
      type: "msra"
    }
  }
}
layer {
  name: "resx1_conv3_bn"
  type: "BatchNorm"
  bottom: "resx1_conv3"
  top: "resx1_conv3"
  param {
    lr_mult: 0
    decay_mult: 0
  }
  param {
    lr_mult: 0
    decay_mult: 0
  }
  param {
    lr_mult: 0
    decay_mult: 0
  }
}
layer {
  name: "resx1_conv3_scale"
  type: "Scale"
  bottom: "resx1_conv3"
  top: "resx1_conv3"
  scale_param {
    filler {
      value: 1
    }
    bias_term: true
    bias_filler {
      value: 0
    }
  }
}
layer {
  name: "resx1_concat"
  type: "Concat"
  bottom: "resx1_match_conv"
  bottom: "resx1_conv3"
  top: "resx1_concat"
}
layer {
  name: "resx1_concat_relu"
  type: "ReLU"
  bottom: "resx1_concat"
  top: "resx1_concat"
}
layer {
  name: "resx2_conv1"
  type: "Convolution"
  bottom: "resx1_concat"
  top: "resx2_conv1"
  convolution_param {
    num_output: 60
    bias_term: false
    pad: 0
    kernel_size: 1
    group: 3
    stride: 1
    weight_filler {
      type: "msra"
    }
  }
}
layer {
  name: "resx2_conv1_bn"
  type: "BatchNorm"
  bottom: "resx2_conv1"
  top: "resx2_conv1"
  param {
    lr_mult: 0
    decay_mult: 0
  }
  param {
    lr_mult: 0
    decay_mult: 0
  }
  param {
    lr_mult: 0
    decay_mult: 0
  }
}
layer {
  name: "resx2_conv1_scale"
  type: "Scale"
  bottom: "resx2_conv1"
  top: "resx2_conv1"
  scale_param {
    filler {
      value: 1
    }
    bias_term: true
    bias_filler {
      value: 0
    }
  }
}
layer {
  name: "resx2_conv1_relu"
  type: "ReLU"
  bottom: "resx2_conv1"
  top: "resx2_conv1"
}
layer {
  name: "shuffle2"
  type: "ShuffleChannel"
  bottom: "resx2_conv1"
  top: "shuffle2"
  shuffle_channel_param {
    group: 3
  }
}
layer {
  name: "resx2_conv2"
  type: "ConvolutionDepthwise"
  bottom: "shuffle2"
  top: "resx2_conv2"
  convolution_param {
    num_output: 60
    bias_term: false
    pad: 1
    kernel_size: 3
    stride: 1
    weight_filler {
      type: "msra"
    }
  }
}
layer {
  name: "resx2_conv2_bn"
  type: "BatchNorm"
  bottom: "resx2_conv2"
  top: "resx2_conv2"
  param {
    lr_mult: 0
    decay_mult: 0
  }
  param {
    lr_mult: 0
    decay_mult: 0
  }
  param {
    lr_mult: 0
    decay_mult: 0
  }
}
layer {
  name: "resx2_conv2_scale"
  type: "Scale"
  bottom: "resx2_conv2"
  top: "resx2_conv2"
  scale_param {
    filler {
      value: 1
    }
    bias_term: true
    bias_filler {
      value: 0
    }
  }
}
layer {
  name: "resx2_conv3"
  type: "Convolution"
  bottom: "resx2_conv2"
  top: "resx2_conv3"
  convolution_param {
    num_output: 240
    bias_term: false
    pad: 0
    kernel_size: 1
    group: 3
    stride: 1
    weight_filler {
      type: "msra"
    }
  }
}
layer {
  name: "resx2_conv3_bn"
  type: "BatchNorm"
  bottom: "resx2_conv3"
  top: "resx2_conv3"
  param {
    lr_mult: 0
    decay_mult: 0
  }
  param {
    lr_mult: 0
    decay_mult: 0
  }
  param {
    lr_mult: 0
    decay_mult: 0
  }
}
layer {
  name: "resx2_conv3_scale"
  type: "Scale"
  bottom: "resx2_conv3"
  top: "resx2_conv3"
  scale_param {
    filler {
      value: 1
    }
    bias_term: true
    bias_filler {
      value: 0
    }
  }
}
layer {
  name: "resx2_elewise"
  type: "Eltwise"
  bottom: "resx1_concat"
  bottom: "resx2_conv3"
  top: "resx2_elewise"
  eltwise_param {
    operation: SUM
  }
}
layer {
  name: "resx2_elewise_relu"
  type: "ReLU"
  bottom: "resx2_elewise"
  top: "resx2_elewise"
}
layer {
  name: "resx3_conv1"
  type: "Convolution"
  bottom: "resx2_elewise"
  top: "resx3_conv1"
  convolution_param {
    num_output: 60
    bias_term: false
    pad: 0
    kernel_size: 1
    group: 3
    stride: 1
    weight_filler {
      type: "msra"
    }
  }
}
layer {
  name: "resx3_conv1_bn"
  type: "BatchNorm"
  bottom: "resx3_conv1"
  top: "resx3_conv1"
  param {
    lr_mult: 0
    decay_mult: 0
  }
  param {
    lr_mult: 0
    decay_mult: 0
  }
  param {
    lr_mult: 0
    decay_mult: 0
  }
}
layer {
  name: "resx3_conv1_scale"
  type: "Scale"
  bottom: "resx3_conv1"
  top: "resx3_conv1"
  scale_param {
    filler {
      value: 1
    }
    bias_term: true
    bias_filler {
      value: 0
    }
  }
}
layer {
  name: "resx3_conv1_relu"
  type: "ReLU"
  bottom: "resx3_conv1"
  top: "resx3_conv1"
}
layer {
  name: "shuffle3"
  type: "ShuffleChannel"
  bottom: "resx3_conv1"
  top: "shuffle3"
  shuffle_channel_param {
    group: 3
  }
}
layer {
  name: "resx3_conv2"
  type: "ConvolutionDepthwise"
  bottom: "shuffle3"
  top: "resx3_conv2"
  convolution_param {
    num_output: 60
    bias_term: false
    pad: 1
    kernel_size: 3
    stride: 1
    weight_filler {
      type: "msra"
    }
  }
}
layer {
  name: "resx3_conv2_bn"
  type: "BatchNorm"
  bottom: "resx3_conv2"
  top: "resx3_conv2"
  param {
    lr_mult: 0
    decay_mult: 0
  }
  param {
    lr_mult: 0
    decay_mult: 0
  }
  param {
    lr_mult: 0
    decay_mult: 0
  }
}
layer {
  name: "resx3_conv2_scale"
  type: "Scale"
  bottom: "resx3_conv2"
  top: "resx3_conv2"
  scale_param {
    filler {
      value: 1
    }
    bias_term: true
    bias_filler {
      value: 0
    }
  }
}
layer {
  name: "resx3_conv3"
  type: "Convolution"
  bottom: "resx3_conv2"
  top: "resx3_conv3"
  convolution_param {
    num_output: 240
    bias_term: false
    pad: 0
    kernel_size: 1
    group: 3
    stride: 1
    weight_filler {
      type: "msra"
    }
  }
}
layer {
  name: "resx3_conv3_bn"
  type: "BatchNorm"
  bottom: "resx3_conv3"
  top: "resx3_conv3"
  param {
    lr_mult: 0
    decay_mult: 0
  }
  param {
    lr_mult: 0
    decay_mult: 0
  }
  param {
    lr_mult: 0
    decay_mult: 0
  }
}
layer {
  name: "resx3_conv3_scale"
  type: "Scale"
  bottom: "resx3_conv3"
  top: "resx3_conv3"
  scale_param {
    filler {
      value: 1
    }
    bias_term: true
    bias_filler {
      value: 0
    }
  }
}
layer {
  name: "resx3_elewise"
  type: "Eltwise"
  bottom: "resx2_elewise"
  bottom: "resx3_conv3"
  top: "resx3_elewise"
  eltwise_param {
    operation: SUM
  }
}
layer {
  name: "resx3_elewise_relu"
  type: "ReLU"
  bottom: "resx3_elewise"
  top: "resx3_elewise"
}
layer {
  name: "resx4_conv1"
  type: "Convolution"
  bottom: "resx3_elewise"
  top: "resx4_conv1"
  convolution_param {
    num_output: 60
    bias_term: false
    pad: 0
    kernel_size: 1
    group: 3
    stride: 1
    weight_filler {
      type: "msra"
    }
  }
}
layer {
  name: "resx4_conv1_bn"
  type: "BatchNorm"
  bottom: "resx4_conv1"
  top: "resx4_conv1"
  param {
    lr_mult: 0
    decay_mult: 0
  }
  param {
    lr_mult: 0
    decay_mult: 0
  }
  param {
    lr_mult: 0
    decay_mult: 0
  }
}
layer {
  name: "resx4_conv1_scale"
  type: "Scale"
  bottom: "resx4_conv1"
  top: "resx4_conv1"
  scale_param {
    filler {
      value: 1
    }
    bias_term: true
    bias_filler {
      value: 0
    }
  }
}
layer {
  name: "resx4_conv1_relu"
  type: "ReLU"
  bottom: "resx4_conv1"
  top: "resx4_conv1"
}
layer {
  name: "shuffle4"
  type: "ShuffleChannel"
  bottom: "resx4_conv1"
  top: "shuffle4"
  shuffle_channel_param {
    group: 3
  }
}
layer {
  name: "resx4_conv2"
  type: "ConvolutionDepthwise"
  bottom: "shuffle4"
  top: "resx4_conv2"
  convolution_param {
    num_output: 60
    bias_term: false
    pad: 1
    kernel_size: 3
    stride: 1
    weight_filler {
      type: "msra"
    }
  }
}
layer {
  name: "resx4_conv2_bn"
  type: "BatchNorm"
  bottom: "resx4_conv2"
  top: "resx4_conv2"
  param {
    lr_mult: 0
    decay_mult: 0
  }
  param {
    lr_mult: 0
    decay_mult: 0
  }
  param {
    lr_mult: 0
    decay_mult: 0
  }
}
layer {
  name: "resx4_conv2_scale"
  type: "Scale"
  bottom: "resx4_conv2"
  top: "resx4_conv2"
  scale_param {
    filler {
      value: 1
    }
    bias_term: true
    bias_filler {
      value: 0
    }
  }
}
layer {
  name: "resx4_conv3"
  type: "Convolution"
  bottom: "resx4_conv2"
  top: "resx4_conv3"
  convolution_param {
    num_output: 240
    bias_term: false
    pad: 0
    kernel_size: 1
    group: 3
    stride: 1
    weight_filler {
      type: "msra"
    }
  }
}
layer {
  name: "resx4_conv3_bn"
  type: "BatchNorm"
  bottom: "resx4_conv3"
  top: "resx4_conv3"
  param {
    lr_mult: 0
    decay_mult: 0
  }
  param {
    lr_mult: 0
    decay_mult: 0
  }
  param {
    lr_mult: 0
    decay_mult: 0
  }
}
layer {
  name: "resx4_conv3_scale"
  type: "Scale"
  bottom: "resx4_conv3"
  top: "resx4_conv3"
  scale_param {
    filler {
      value: 1
    }
    bias_term: true
    bias_filler {
      value: 0
    }
  }
}
layer {
  name: "resx4_elewise"
  type: "Eltwise"
  bottom: "resx3_elewise"
  bottom: "resx4_conv3"
  top: "resx4_elewise"
  eltwise_param {
    operation: SUM
  }
}
layer {
  name: "resx4_elewise_relu"
  type: "ReLU"
  bottom: "resx4_elewise"
  top: "resx4_elewise"
}
layer {
  name: "resx5_match_conv"
  type: "Pooling"
  bottom: "resx4_elewise"
  top: "resx5_match_conv"
  pooling_param {
    pool: AVE
    kernel_size: 3
    stride: 2
  }
}
layer {
  name: "resx5_conv1"
  type: "Convolution"
  bottom: "resx4_elewise"
  top: "resx5_conv1"
  convolution_param {
    num_output: 60
    bias_term: false
    pad: 0
    kernel_size: 1
    group: 3
    stride: 1
    weight_filler {
      type: "msra"
    }
  }
}
layer {
  name: "resx5_conv1_bn"
  type: "BatchNorm"
  bottom: "resx5_conv1"
  top: "resx5_conv1"
  param {
    lr_mult: 0
    decay_mult: 0
  }
  param {
    lr_mult: 0
    decay_mult: 0
  }
  param {
    lr_mult: 0
    decay_mult: 0
  }
}
layer {
  name: "resx5_conv1_scale"
  type: "Scale"
  bottom: "resx5_conv1"
  top: "resx5_conv1"
  scale_param {
    filler {
      value: 1
    }
    bias_term: true
    bias_filler {
      value: 0
    }
  }
}
layer {
  name: "resx5_conv1_relu"
  type: "ReLU"
  bottom: "resx5_conv1"
  top: "resx5_conv1"
}
layer {
  name: "shuffle5"
  type: "ShuffleChannel"
  bottom: "resx5_conv1"
  top: "shuffle5"
  shuffle_channel_param {
    group: 3
  }
}
layer {
  name: "resx5_conv2"
  type: "ConvolutionDepthwise"
  bottom: "shuffle5"
  top: "resx5_conv2"
  convolution_param {
    num_output: 60
    bias_term: false
    pad: 1
    kernel_size: 3
    stride: 2
    weight_filler {
      type: "msra"
    }
  }
}
layer {
  name: "resx5_conv2_bn"
  type: "BatchNorm"
  bottom: "resx5_conv2"
  top: "resx5_conv2"
  param {
    lr_mult: 0
    decay_mult: 0
  }
  param {
    lr_mult: 0
    decay_mult: 0
  }
  param {
    lr_mult: 0
    decay_mult: 0
  }
}
layer {
  name: "resx5_conv2_scale"
  type: "Scale"
  bottom: "resx5_conv2"
  top: "resx5_conv2"
  scale_param {
    filler {
      value: 1
    }
    bias_term: true
    bias_filler {
      value: 0
    }
  }
}
layer {
  name: "resx5_conv3"
  type: "Convolution"
  bottom: "resx5_conv2"
  top: "resx5_conv3"
  convolution_param {
    num_output: 240
    bias_term: false
    pad: 0
    kernel_size: 1
    group: 3
    stride: 1
    weight_filler {
      type: "msra"
    }
  }
}
layer {
  name: "resx5_conv3_bn"
  type: "BatchNorm"
  bottom: "resx5_conv3"
  top: "resx5_conv3"
  param {
    lr_mult: 0
    decay_mult: 0
  }
  param {
    lr_mult: 0
    decay_mult: 0
  }
  param {
    lr_mult: 0
    decay_mult: 0
  }
}
layer {
  name: "resx5_conv3_scale"
  type: "Scale"
  bottom: "resx5_conv3"
  top: "resx5_conv3"
  scale_param {
    filler {
      value: 1
    }
    bias_term: true
    bias_filler {
      value: 0
    }
  }
}
layer {
  name: "resx5_concat"
  type: "Concat"
  bottom: "resx5_match_conv"
  bottom: "resx5_conv3"
  top: "resx5_concat"
}
layer {
  name: "resx5_concat_relu"
  type: "ReLU"
  bottom: "resx5_concat"
  top: "resx5_concat"
}
layer {
  name: "resx6_conv1"
  type: "Convolution"
  bottom: "resx5_concat"
  top: "resx6_conv1"
  convolution_param {
    num_output: 120
    bias_term: false
    pad: 0
    kernel_size: 1
    group: 3
    stride: 1
    weight_filler {
      type: "msra"
    }
  }
}
layer {
  name: "resx6_conv1_bn"
  type: "BatchNorm"
  bottom: "resx6_conv1"
  top: "resx6_conv1"
  param {
    lr_mult: 0
    decay_mult: 0
  }
  param {
    lr_mult: 0
    decay_mult: 0
  }
  param {
    lr_mult: 0
    decay_mult: 0
  }
}
layer {
  name: "resx6_conv1_scale"
  type: "Scale"
  bottom: "resx6_conv1"
  top: "resx6_conv1"
  scale_param {
    filler {
      value: 1
    }
    bias_term: true
    bias_filler {
      value: 0
    }
  }
}
layer {
  name: "resx6_conv1_relu"
  type: "ReLU"
  bottom: "resx6_conv1"
  top: "resx6_conv1"
}
layer {
  name: "shuffle6"
  type: "ShuffleChannel"
  bottom: "resx6_conv1"
  top: "shuffle6"
  shuffle_channel_param {
    group: 3
  }
}
layer {
  name: "resx6_conv2"
  type: "ConvolutionDepthwise"
  bottom: "shuffle6"
  top: "resx6_conv2"
  convolution_param {
    num_output: 120
    bias_term: false
    pad: 1
    kernel_size: 3
    stride: 1
    weight_filler {
      type: "msra"
    }
  }
}
layer {
  name: "resx6_conv2_bn"
  type: "BatchNorm"
  bottom: "resx6_conv2"
  top: "resx6_conv2"
  param {
    lr_mult: 0
    decay_mult: 0
  }
  param {
    lr_mult: 0
    decay_mult: 0
  }
  param {
    lr_mult: 0
    decay_mult: 0
  }
}
layer {
  name: "resx6_conv2_scale"
  type: "Scale"
  bottom: "resx6_conv2"
  top: "resx6_conv2"
  scale_param {
    filler {
      value: 1
    }
    bias_term: true
    bias_filler {
      value: 0
    }
  }
}
layer {
  name: "resx6_conv3"
  type: "Convolution"
  bottom: "resx6_conv2"
  top: "resx6_conv3"
  convolution_param {
    num_output: 480
    bias_term: false
    pad: 0
    kernel_size: 1
    group: 3
    stride: 1
    weight_filler {
      type: "msra"
    }
  }
}
layer {
  name: "resx6_conv3_bn"
  type: "BatchNorm"
  bottom: "resx6_conv3"
  top: "resx6_conv3"
  param {
    lr_mult: 0
    decay_mult: 0
  }
  param {
    lr_mult: 0
    decay_mult: 0
  }
  param {
    lr_mult: 0
    decay_mult: 0
  }
}
layer {
  name: "resx6_conv3_scale"
  type: "Scale"
  bottom: "resx6_conv3"
  top: "resx6_conv3"
  scale_param {
    filler {
      value: 1
    }
    bias_term: true
    bias_filler {
      value: 0
    }
  }
}
layer {
  name: "resx6_elewise"
  type: "Eltwise"
  bottom: "resx5_concat"
  bottom: "resx6_conv3"
  top: "resx6_elewise"
  eltwise_param {
    operation: SUM
  }
}
layer {
  name: "resx6_elewise_relu"
  type: "ReLU"
  bottom: "resx6_elewise"
  top: "resx6_elewise"
}
layer {
  name: "resx7_conv1"
  type: "Convolution"
  bottom: "resx6_elewise"
  top: "resx7_conv1"
  convolution_param {
    num_output: 120
    bias_term: false
    pad: 0
    kernel_size: 1
    group: 3
    stride: 1
    weight_filler {
      type: "msra"
    }
  }
}
layer {
  name: "resx7_conv1_bn"
  type: "BatchNorm"
  bottom: "resx7_conv1"
  top: "resx7_conv1"
  param {
    lr_mult: 0
    decay_mult: 0
  }
  param {
    lr_mult: 0
    decay_mult: 0
  }
  param {
    lr_mult: 0
    decay_mult: 0
  }
}
layer {
  name: "resx7_conv1_scale"
  type: "Scale"
  bottom: "resx7_conv1"
  top: "resx7_conv1"
  scale_param {
    filler {
      value: 1
    }
    bias_term: true
    bias_filler {
      value: 0
    }
  }
}
layer {
  name: "resx7_conv1_relu"
  type: "ReLU"
  bottom: "resx7_conv1"
  top: "resx7_conv1"
}
layer {
  name: "shuffle7"
  type: "ShuffleChannel"
  bottom: "resx7_conv1"
  top: "shuffle7"
  shuffle_channel_param {
    group: 3
  }
}
layer {
  name: "resx7_conv2"
  type: "ConvolutionDepthwise"
  bottom: "shuffle7"
  top: "resx7_conv2"
  convolution_param {
    num_output: 120
    bias_term: false
    pad: 1
    kernel_size: 3
    stride: 1
    weight_filler {
      type: "msra"
    }
  }
}
layer {
  name: "resx7_conv2_bn"
  type: "BatchNorm"
  bottom: "resx7_conv2"
  top: "resx7_conv2"
  param {
    lr_mult: 0
    decay_mult: 0
  }
  param {
    lr_mult: 0
    decay_mult: 0
  }
  param {
    lr_mult: 0
    decay_mult: 0
  }
}
layer {
  name: "resx7_conv2_scale"
  type: "Scale"
  bottom: "resx7_conv2"
  top: "resx7_conv2"
  scale_param {
    filler {
      value: 1
    }
    bias_term: true
    bias_filler {
      value: 0
    }
  }
}
layer {
  name: "resx7_conv3"
  type: "Convolution"
  bottom: "resx7_conv2"
  top: "resx7_conv3"
  convolution_param {
    num_output: 480
    bias_term: false
    pad: 0
    kernel_size: 1
    group: 3
    stride: 1
    weight_filler {
      type: "msra"
    }
  }
}
layer {
  name: "resx7_conv3_bn"
  type: "BatchNorm"
  bottom: "resx7_conv3"
  top: "resx7_conv3"
  param {
    lr_mult: 0
    decay_mult: 0
  }
  param {
    lr_mult: 0
    decay_mult: 0
  }
  param {
    lr_mult: 0
    decay_mult: 0
  }
}
layer {
  name: "resx7_conv3_scale"
  type: "Scale"
  bottom: "resx7_conv3"
  top: "resx7_conv3"
  scale_param {
    filler {
      value: 1
    }
    bias_term: true
    bias_filler {
      value: 0
    }
  }
}
layer {
  name: "resx7_elewise"
  type: "Eltwise"
  bottom: "resx6_elewise"
  bottom: "resx7_conv3"
  top: "resx7_elewise"
  eltwise_param {
    operation: SUM
  }
}
layer {
  name: "resx7_elewise_relu"
  type: "ReLU"
  bottom: "resx7_elewise"
  top: "resx7_elewise"
}
layer {
  name: "resx8_conv1"
  type: "Convolution"
  bottom: "resx7_elewise"
  top: "resx8_conv1"
  convolution_param {
    num_output: 120
    bias_term: false
    pad: 0
    kernel_size: 1
    group: 3
    stride: 1
    weight_filler {
      type: "msra"
    }
  }
}
layer {
  name: "resx8_conv1_bn"
  type: "BatchNorm"
  bottom: "resx8_conv1"
  top: "resx8_conv1"
  param {
    lr_mult: 0
    decay_mult: 0
  }
  param {
    lr_mult: 0
    decay_mult: 0
  }
  param {
    lr_mult: 0
    decay_mult: 0
  }
}
layer {
  name: "resx8_conv1_scale"
  type: "Scale"
  bottom: "resx8_conv1"
  top: "resx8_conv1"
  scale_param {
    filler {
      value: 1
    }
    bias_term: true
    bias_filler {
      value: 0
    }
  }
}
layer {
  name: "resx8_conv1_relu"
  type: "ReLU"
  bottom: "resx8_conv1"
  top: "resx8_conv1"
}
layer {
  name: "shuffle8"
  type: "ShuffleChannel"
  bottom: "resx8_conv1"
  top: "shuffle8"
  shuffle_channel_param {
    group: 3
  }
}
layer {
  name: "resx8_conv2"
  type: "ConvolutionDepthwise"
  bottom: "shuffle8"
  top: "resx8_conv2"
  convolution_param {
    num_output: 120
    bias_term: false
    pad: 1
    kernel_size: 3
    stride: 1
    weight_filler {
      type: "msra"
    }
  }
}
layer {
  name: "resx8_conv2_bn"
  type: "BatchNorm"
  bottom: "resx8_conv2"
  top: "resx8_conv2"
  param {
    lr_mult: 0
    decay_mult: 0
  }
  param {
    lr_mult: 0
    decay_mult: 0
  }
  param {
    lr_mult: 0
    decay_mult: 0
  }
}
layer {
  name: "resx8_conv2_scale"
  type: "Scale"
  bottom: "resx8_conv2"
  top: "resx8_conv2"
  scale_param {
    filler {
      value: 1
    }
    bias_term: true
    bias_filler {
      value: 0
    }
  }
}
layer {
  name: "resx8_conv3"
  type: "Convolution"
  bottom: "resx8_conv2"
  top: "resx8_conv3"
  convolution_param {
    num_output: 480
    bias_term: false
    pad: 0
    kernel_size: 1
    group: 3
    stride: 1
    weight_filler {
      type: "msra"
    }
  }
}
layer {
  name: "resx8_conv3_bn"
  type: "BatchNorm"
  bottom: "resx8_conv3"
  top: "resx8_conv3"
  param {
    lr_mult: 0
    decay_mult: 0
  }
  param {
    lr_mult: 0
    decay_mult: 0
  }
  param {
    lr_mult: 0
    decay_mult: 0
  }
}
layer {
  name: "resx8_conv3_scale"
  type: "Scale"
  bottom: "resx8_conv3"
  top: "resx8_conv3"
  scale_param {
    filler {
      value: 1
    }
    bias_term: true
    bias_filler {
      value: 0
    }
  }
}
layer {
  name: "resx8_elewise"
  type: "Eltwise"
  bottom: "resx7_elewise"
  bottom: "resx8_conv3"
  top: "resx8_elewise"
  eltwise_param {
    operation: SUM
  }
}
layer {
  name: "resx8_elewise_relu"
  type: "ReLU"
  bottom: "resx8_elewise"
  top: "resx8_elewise"
}
layer {
  name: "resx9_conv1"
  type: "Convolution"
  bottom: "resx8_elewise"
  top: "resx9_conv1"
  convolution_param {
    num_output: 120
    bias_term: false
    pad: 0
    kernel_size: 1
    group: 3
    stride: 1
    weight_filler {
      type: "msra"
    }
  }
}
layer {
  name: "resx9_conv1_bn"
  type: "BatchNorm"
  bottom: "resx9_conv1"
  top: "resx9_conv1"
  param {
    lr_mult: 0
    decay_mult: 0
  }
  param {
    lr_mult: 0
    decay_mult: 0
  }
  param {
    lr_mult: 0
    decay_mult: 0
  }
}
layer {
  name: "resx9_conv1_scale"
  type: "Scale"
  bottom: "resx9_conv1"
  top: "resx9_conv1"
  scale_param {
    filler {
      value: 1
    }
    bias_term: true
    bias_filler {
      value: 0
    }
  }
}
layer {
  name: "resx9_conv1_relu"
  type: "ReLU"
  bottom: "resx9_conv1"
  top: "resx9_conv1"
}
layer {
  name: "shuffle9"
  type: "ShuffleChannel"
  bottom: "resx9_conv1"
  top: "shuffle9"
  shuffle_channel_param {
    group: 3
  }
}
layer {
  name: "resx9_conv2"
  type: "ConvolutionDepthwise"
  bottom: "shuffle9"
  top: "resx9_conv2"
  convolution_param {
    num_output: 120
    bias_term: false
    pad: 1
    kernel_size: 3
    stride: 1
    weight_filler {
      type: "msra"
    }
  }
}
layer {
  name: "resx9_conv2_bn"
  type: "BatchNorm"
  bottom: "resx9_conv2"
  top: "resx9_conv2"
  param {
    lr_mult: 0
    decay_mult: 0
  }
  param {
    lr_mult: 0
    decay_mult: 0
  }
  param {
    lr_mult: 0
    decay_mult: 0
  }
}
layer {
  name: "resx9_conv2_scale"
  type: "Scale"
  bottom: "resx9_conv2"
  top: "resx9_conv2"
  scale_param {
    filler {
      value: 1
    }
    bias_term: true
    bias_filler {
      value: 0
    }
  }
}
layer {
  name: "resx9_conv3"
  type: "Convolution"
  bottom: "resx9_conv2"
  top: "resx9_conv3"
  convolution_param {
    num_output: 480
    bias_term: false
    pad: 0
    kernel_size: 1
    group: 3
    stride: 1
    weight_filler {
      type: "msra"
    }
  }
}
layer {
  name: "resx9_conv3_bn"
  type: "BatchNorm"
  bottom: "resx9_conv3"
  top: "resx9_conv3"
  param {
    lr_mult: 0
    decay_mult: 0
  }
  param {
    lr_mult: 0
    decay_mult: 0
  }
  param {
    lr_mult: 0
    decay_mult: 0
  }
}
layer {
  name: "resx9_conv3_scale"
  type: "Scale"
  bottom: "resx9_conv3"
  top: "resx9_conv3"
  scale_param {
    filler {
      value: 1
    }
    bias_term: true
    bias_filler {
      value: 0
    }
  }
}
layer {
  name: "resx9_elewise"
  type: "Eltwise"
  bottom: "resx8_elewise"
  bottom: "resx9_conv3"
  top: "resx9_elewise"
  eltwise_param {
    operation: SUM
  }
}
layer {
  name: "resx9_elewise_relu"
  type: "ReLU"
  bottom: "resx9_elewise"
  top: "resx9_elewise"
}
layer {
  name: "resx10_conv1"
  type: "Convolution"
  bottom: "resx9_elewise"
  top: "resx10_conv1"
  convolution_param {
    num_output: 120
    bias_term: false
    pad: 0
    kernel_size: 1
    group: 3
    stride: 1
    weight_filler {
      type: "msra"
    }
  }
}
layer {
  name: "resx10_conv1_bn"
  type: "BatchNorm"
  bottom: "resx10_conv1"
  top: "resx10_conv1"
  param {
    lr_mult: 0
    decay_mult: 0
  }
  param {
    lr_mult: 0
    decay_mult: 0
  }
  param {
    lr_mult: 0
    decay_mult: 0
  }
}
layer {
  name: "resx10_conv1_scale"
  type: "Scale"
  bottom: "resx10_conv1"
  top: "resx10_conv1"
  scale_param {
    filler {
      value: 1
    }
    bias_term: true
    bias_filler {
      value: 0
    }
  }
}
layer {
  name: "resx10_conv1_relu"
  type: "ReLU"
  bottom: "resx10_conv1"
  top: "resx10_conv1"
}
layer {
  name: "shuffle10"
  type: "ShuffleChannel"
  bottom: "resx10_conv1"
  top: "shuffle10"
  shuffle_channel_param {
    group: 3
  }
}
layer {
  name: "resx10_conv2"
  type: "ConvolutionDepthwise"
  bottom: "shuffle10"
  top: "resx10_conv2"
  convolution_param {
    num_output: 120
    bias_term: false
    pad: 1
    kernel_size: 3
    stride: 1
    weight_filler {
      type: "msra"
    }
  }
}
layer {
  name: "resx10_conv2_bn"
  type: "BatchNorm"
  bottom: "resx10_conv2"
  top: "resx10_conv2"
  param {
    lr_mult: 0
    decay_mult: 0
  }
  param {
    lr_mult: 0
    decay_mult: 0
  }
  param {
    lr_mult: 0
    decay_mult: 0
  }
}
layer {
  name: "resx10_conv2_scale"
  type: "Scale"
  bottom: "resx10_conv2"
  top: "resx10_conv2"
  scale_param {
    filler {
      value: 1
    }
    bias_term: true
    bias_filler {
      value: 0
    }
  }
}
layer {
  name: "resx10_conv3"
  type: "Convolution"
  bottom: "resx10_conv2"
  top: "resx10_conv3"
  convolution_param {
    num_output: 480
    bias_term: false
    pad: 0
    kernel_size: 1
    group: 3
    stride: 1
    weight_filler {
      type: "msra"
    }
  }
}
layer {
  name: "resx10_conv3_bn"
  type: "BatchNorm"
  bottom: "resx10_conv3"
  top: "resx10_conv3"
  param {
    lr_mult: 0
    decay_mult: 0
  }
  param {
    lr_mult: 0
    decay_mult: 0
  }
  param {
    lr_mult: 0
    decay_mult: 0
  }
}
layer {
  name: "resx10_conv3_scale"
  type: "Scale"
  bottom: "resx10_conv3"
  top: "resx10_conv3"
  scale_param {
    filler {
      value: 1
    }
    bias_term: true
    bias_filler {
      value: 0
    }
  }
}
layer {
  name: "resx10_elewise"
  type: "Eltwise"
  bottom: "resx9_elewise"
  bottom: "resx10_conv3"
  top: "resx10_elewise"
  eltwise_param {
    operation: SUM
  }
}
layer {
  name: "resx10_elewise_relu"
  type: "ReLU"
  bottom: "resx10_elewise"
  top: "resx10_elewise"
}
layer {
  name: "resx11_conv1"
  type: "Convolution"
  bottom: "resx10_elewise"
  top: "resx11_conv1"
  convolution_param {
    num_output: 120
    bias_term: false
    pad: 0
    kernel_size: 1
    group: 3
    stride: 1
    weight_filler {
      type: "msra"
    }
  }
}
layer {
  name: "resx11_conv1_bn"
  type: "BatchNorm"
  bottom: "resx11_conv1"
  top: "resx11_conv1"
  param {
    lr_mult: 0
    decay_mult: 0
  }
  param {
    lr_mult: 0
    decay_mult: 0
  }
  param {
    lr_mult: 0
    decay_mult: 0
  }
}
layer {
  name: "resx11_conv1_scale"
  type: "Scale"
  bottom: "resx11_conv1"
  top: "resx11_conv1"
  scale_param {
    filler {
      value: 1
    }
    bias_term: true
    bias_filler {
      value: 0
    }
  }
}
layer {
  name: "resx11_conv1_relu"
  type: "ReLU"
  bottom: "resx11_conv1"
  top: "resx11_conv1"
}
layer {
  name: "shuffle11"
  type: "ShuffleChannel"
  bottom: "resx11_conv1"
  top: "shuffle11"
  shuffle_channel_param {
    group: 3
  }
}
layer {
  name: "resx11_conv2"
  type: "ConvolutionDepthwise"
  bottom: "shuffle11"
  top: "resx11_conv2"
  convolution_param {
    num_output: 120
    bias_term: false
    pad: 1
    kernel_size: 3
    stride: 1
    weight_filler {
      type: "msra"
    }
  }
}
layer {
  name: "resx11_conv2_bn"
  type: "BatchNorm"
  bottom: "resx11_conv2"
  top: "resx11_conv2"
  param {
    lr_mult: 0
    decay_mult: 0
  }
  param {
    lr_mult: 0
    decay_mult: 0
  }
  param {
    lr_mult: 0
    decay_mult: 0
  }
}
layer {
  name: "resx11_conv2_scale"
  type: "Scale"
  bottom: "resx11_conv2"
  top: "resx11_conv2"
  scale_param {
    filler {
      value: 1
    }
    bias_term: true
    bias_filler {
      value: 0
    }
  }
}
layer {
  name: "resx11_conv3"
  type: "Convolution"
  bottom: "resx11_conv2"
  top: "resx11_conv3"
  convolution_param {
    num_output: 480
    bias_term: false
    pad: 0
    kernel_size:
I0818 11:11:35.542243 15236 layer_factory.hpp:77] Creating layer data
I0818 11:11:35.554188 15236 net.cpp:91] Creating Layer data
I0818 11:11:35.554213 15236 net.cpp:443] data -> data
I0818 11:11:35.554275 15236 net.cpp:443] data -> label
I0818 11:11:35.609329 15256 db_lmdb.cpp:35] Opened lmdb /home/chenyao/ilsvrc12/ilsvrc12_train_lmdb
I0818 11:11:35.968356 15236 data_layer.cpp:41] output data size: 80,3,224,224
I0818 11:11:36.066160 15236 net.cpp:141] Setting up data
I0818 11:11:36.066213 15236 net.cpp:148] Top shape: 80 3 224 224 (12042240)
I0818 11:11:36.066224 15236 net.cpp:148] Top shape: 80 (80)
I0818 11:11:36.066229 15236 net.cpp:156] Memory required for data: 48169280
I0818 11:11:36.066239 15236 layer_factory.hpp:77] Creating layer conv1
I0818 11:11:36.066268 15236 net.cpp:91] Creating Layer conv1
I0818 11:11:36.066275 15236 net.cpp:469] conv1 <- data
I0818 11:11:36.066288 15236 net.cpp:443] conv1 -> conv1
I0818 11:11:37.903560 15236 net.cpp:141] Setting up conv1
I0818 11:11:37.903606 15236 net.cpp:148] Top shape: 80 24 112 112 (24084480)
I0818 11:11:37.903611 15236 net.cpp:156] Memory required for data: 144507200
I0818 11:11:37.903628 15236 layer_factory.hpp:77] Creating layer conv1_bn
I0818 11:11:37.903647 15236 net.cpp:91] Creating Layer conv1_bn
I0818 11:11:37.903653 15236 net.cpp:469] conv1_bn <- conv1
I0818 11:11:37.903661 15236 net.cpp:430] conv1_bn -> conv1 (in-place)
I0818 11:11:37.904376 15236 net.cpp:141] Setting up conv1_bn
I0818 11:11:37.904388 15236 net.cpp:148] Top shape: 80 24 112 112 (24084480)
I0818 11:11:37.904392 15236 net.cpp:156] Memory required for data: 240845120
I0818 11:11:37.904404 15236 layer_factory.hpp:77] Creating layer conv1_scale
I0818 11:11:37.904417 15236 net.cpp:91] Creating Layer conv1_scale
I0818 11:11:37.904428 15236 net.cpp:469] conv1_scale <- conv1
I0818 11:11:37.904440 15236 net.cpp:430] conv1_scale -> conv1 (in-place)
I0818 11:11:37.904481 15236 layer_factory.hpp:77] Creating layer conv1_scale
I0818 11:11:37.904572 15236 net.cpp:141] Setting up conv1_scale
I0818 11:11:37.904580 15236 net.cpp:148] Top shape: 80 24 112 112 (24084480)
I0818 11:11:37.904583 15236 net.cpp:156] Memory required for data: 337183040
I0818 11:11:37.904590 15236 layer_factory.hpp:77] Creating layer conv1_relu
I0818 11:11:37.904602 15236 net.cpp:91] Creating Layer conv1_relu
I0818 11:11:37.904604 15236 net.cpp:469] conv1_relu <- conv1
I0818 11:11:37.904609 15236 net.cpp:430] conv1_relu -> conv1 (in-place)
I0818 11:11:37.904897 15236 net.cpp:141] Setting up conv1_relu
I0818 11:11:37.904909 15236 net.cpp:148] Top shape: 80 24 112 112 (24084480)
I0818 11:11:37.904913 15236 net.cpp:156] Memory required for data: 433520960
I0818 11:11:37.904919 15236 layer_factory.hpp:77] Creating layer pool1
I0818 11:11:37.904928 15236 net.cpp:91] Creating Layer pool1
I0818 11:11:37.904932 15236 net.cpp:469] pool1 <- conv1
I0818 11:11:37.904937 15236 net.cpp:443] pool1 -> pool1
I0818 11:11:37.904984 15236 net.cpp:141] Setting up pool1
I0818 11:11:37.904991 15236 net.cpp:148] Top shape: 80 24 56 56 (6021120)
I0818 11:11:37.904994 15236 net.cpp:156] Memory required for data: 457605440
I0818 11:11:37.904999 15236 layer_factory.hpp:77] Creating layer pool1_pool1_0_split
I0818 11:11:37.905009 15236 net.cpp:91] Creating Layer pool1_pool1_0_split
I0818 11:11:37.905011 15236 net.cpp:469] pool1_pool1_0_split <- pool1
I0818 11:11:37.905016 15236 net.cpp:443] pool1_pool1_0_split -> pool1_pool1_0_split_0
I0818 11:11:37.905022 15236 net.cpp:443] pool1_pool1_0_split -> pool1_pool1_0_split_1
I0818 11:11:37.905046 15236 net.cpp:141] Setting up pool1_pool1_0_split
I0818 11:11:37.905052 15236 net.cpp:148] Top shape: 80 24 56 56 (6021120)
I0818 11:11:37.905056 15236 net.cpp:148] Top shape: 80 24 56 56 (6021120)
I0818 11:11:37.905059 15236 net.cpp:156] Memory required for data: 505774400
I0818 11:11:37.905062 15236 layer_factory.hpp:77] Creating layer resx1_match_conv
I0818 11:11:37.905068 15236 net.cpp:91] Creating Layer resx1_match_conv
I0818 11:11:37.905071 15236 net.cpp:469] resx1_match_conv <- pool1_pool1_0_split_0
I0818 11:11:37.905087 15236 net.cpp:443] resx1_match_conv -> resx1_match_conv
I0818 11:11:37.913396 15236 net.cpp:141] Setting up resx1_match_conv
I0818 11:11:37.913410 15236 net.cpp:148] Top shape: 80 24 28 28 (1505280)
I0818 11:11:37.913414 15236 net.cpp:156] Memory required for data: 511795520
I0818 11:11:37.913419 15236 layer_factory.hpp:77] Creating layer resx1_conv1
I0818 11:11:37.913432 15236 net.cpp:91] Creating Layer resx1_conv1
I0818 11:11:37.913437 15236 net.cpp:469] resx1_conv1 <- pool1_pool1_0_split_1
I0818 11:11:37.913444 15236 net.cpp:443] resx1_conv1 -> resx1_conv1
I0818 11:11:37.914873 15236 net.cpp:141] Setting up resx1_conv1
I0818 11:11:37.914887 15236 net.cpp:148] Top shape: 80 54 56 56 (13547520)
I0818 11:11:37.914891 15236 net.cpp:156] Memory required for data: 565985600
I0818 11:11:37.914896 15236 layer_factory.hpp:77] Creating layer resx1_conv1_bn
I0818 11:11:37.914904 15236 net.cpp:91] Creating Layer resx1_conv1_bn
I0818 11:11:37.914908 15236 net.cpp:469] resx1_conv1_bn <- resx1_conv1
I0818 11:11:37.914916 15236 net.cpp:430] resx1_conv1_bn -> resx1_conv1 (in-place)
I0818 11:11:37.915068 15236 net.cpp:141] Setting up resx1_conv1_bn
I0818 11:11:37.915076 15236 net.cpp:148] Top shape: 80 54 56 56 (13547520)
I0818 11:11:37.915079 15236 net.cpp:156] Memory required for data: 620175680
I0818 11:11:37.915088 15236 layer_factory.hpp:77] Creating layer resx1_conv1_scale
I0818 11:11:37.915096 15236 net.cpp:91] Creating Layer resx1_conv1_scale
I0818 11:11:37.915099 15236 net.cpp:469] resx1_conv1_scale <- resx1_conv1
I0818 11:11:37.915107 15236 net.cpp:430] resx1_conv1_scale -> resx1_conv1 (in-place)
I0818 11:11:37.915140 15236 layer_factory.hpp:77] Creating layer resx1_conv1_scale
I0818 11:11:37.915231 15236 net.cpp:141] Setting up resx1_conv1_scale
I0818 11:11:37.915242 15236 net.cpp:148] Top shape: 80 54 56 56 (13547520)
I0818 11:11:37.915251 15236 net.cpp:156] Memory required for data: 674365760
I0818 11:11:37.915257 15236 layer_factory.hpp:77] Creating layer resx1_conv1_relu
I0818 11:11:37.915266 15236 net.cpp:91] Creating Layer resx1_conv1_relu
I0818 11:11:37.915268 15236 net.cpp:469] resx1_conv1_relu <- resx1_conv1
I0818 11:11:37.915273 15236 net.cpp:430] resx1_conv1_relu -> resx1_conv1 (in-place)
I0818 11:11:37.915407 15236 net.cpp:141] Setting up resx1_conv1_relu
I0818 11:11:37.915416 15236 net.cpp:148] Top shape: 80 54 56 56 (13547520)
I0818 11:11:37.915419 15236 net.cpp:156] Memory required for data: 728555840
I0818 11:11:37.915423 15236 layer_factory.hpp:77] Creating layer resx1_conv2
I0818 11:11:37.915433 15236 net.cpp:91] Creating Layer resx1_conv2
I0818 11:11:37.915437 15236 net.cpp:469] resx1_conv2 <- resx1_conv1
I0818 11:11:37.915444 15236 net.cpp:443] resx1_conv2 -> resx1_conv2
I0818 11:11:37.915760 15236 net.cpp:141] Setting up resx1_conv2
I0818 11:11:37.915771 15236 net.cpp:148] Top shape: 80 54 28 28 (3386880)
I0818 11:11:37.915776 15236 net.cpp:156] Memory required for data: 742103360
I0818 11:11:37.915781 15236 layer_factory.hpp:77] Creating layer resx1_conv2_bn
I0818 11:11:37.915788 15236 net.cpp:91] Creating Layer resx1_conv2_bn
I0818 11:11:37.915792 15236 net.cpp:469] resx1_conv2_bn <- resx1_conv2
I0818 11:11:37.915798 15236 net.cpp:430] resx1_conv2_bn -> resx1_conv2 (in-place)
I0818 11:11:37.915946 15236 net.cpp:141] Setting up resx1_conv2_bn
I0818 11:11:37.915953 15236 net.cpp:148] Top shape: 80 54 28 28 (3386880)
I0818 11:11:37.915957 15236 net.cpp:156] Memory required for data: 755650880
I0818 11:11:37.915963 15236 layer_factory.hpp:77] Creating layer resx1_conv2_scale
I0818 11:11:37.915971 15236 net.cpp:91] Creating Layer resx1_conv2_scale
I0818 11:11:37.915974 15236 net.cpp:469] resx1_conv2_scale <- resx1_conv2
I0818 11:11:37.915982 15236 net.cpp:430] resx1_conv2_scale -> resx1_conv2 (in-place)
I0818 11:11:37.916014 15236 layer_factory.hpp:77] Creating layer resx1_conv2_scale
I0818 11:11:37.916105 15236 net.cpp:141] Setting up resx1_conv2_scale
I0818 11:11:37.916112 15236 net.cpp:148] Top shape: 80 54 28 28 (3386880)
I0818 11:11:37.916115 15236 net.cpp:156] Memory required for data: 769198400
I0818 11:11:37.916126 15236 layer_factory.hpp:77] Creating layer resx1_conv3
I0818 11:11:37.916134 15236 net.cpp:91] Creating Layer resx1_conv3
I0818 11:11:37.916138 15236 net.cpp:469] resx1_conv3 <- resx1_conv2
I0818 11:11:37.916143 15236 net.cpp:443] resx1_conv3 -> resx1_conv3
I0818 11:11:37.918612 15236 net.cpp:141] Setting up resx1_conv3
I0818 11:11:37.918627 15236 net.cpp:148] Top shape: 80 216 28 28 (13547520)
I0818 11:11:37.918630 15236 net.cpp:156] Memory required for data: 823388480
I0818 11:11:37.918635 15236 layer_factory.hpp:77] Creating layer resx1_conv3_bn
I0818 11:11:37.918648 15236 net.cpp:91] Creating Layer resx1_conv3_bn
I0818 11:11:37.918653 15236 net.cpp:469] resx1_conv3_bn <- resx1_conv3
I0818 11:11:37.918658 15236 net.cpp:430] resx1_conv3_bn -> resx1_conv3 (in-place)
I0818 11:11:37.918812 15236 net.cpp:141] Setting up resx1_conv3_bn
I0818 11:11:37.918819 15236 net.cpp:148] Top shape: 80 216 28 28 (13547520)
I0818 11:11:37.918823 15236 net.cpp:156] Memory required for data: 877578560
I0818 11:11:37.918829 15236 layer_factory.hpp:77] Creating layer resx1_conv3_scale
I0818 11:11:37.918838 15236 net.cpp:91] Creating Layer resx1_conv3_scale
I0818 11:11:37.918840 15236 net.cpp:469] resx1_conv3_scale <- resx1_conv3
I0818 11:11:37.918845 15236 net.cpp:430] resx1_conv3_scale -> resx1_conv3 (in-place)
I0818 11:11:37.918879 15236 layer_factory.hpp:77] Creating layer resx1_conv3_scale
I0818 11:11:37.918969 15236 net.cpp:141] Setting up resx1_conv3_scale
I0818 11:11:37.918978 15236 net.cpp:148] Top shape: 80 216 28 28 (13547520)
I0818 11:11:37.918982 15236 net.cpp:156] Memory required for data: 931768640
I0818 11:11:37.918988 15236 layer_factory.hpp:77] Creating layer resx1_concat
I0818 11:11:37.919101 15236 net.cpp:91] Creating Layer resx1_concat
I0818 11:11:37.919114 15236 net.cpp:469] resx1_concat <- resx1_match_conv
I0818 11:11:37.919126 15236 net.cpp:469] resx1_concat <- resx1_conv3
I0818 11:11:37.919131 15236 net.cpp:443] resx1_concat -> resx1_concat
I0818 11:11:37.919163 15236 net.cpp:141] Setting up resx1_concat
I0818 11:11:37.919170 15236 net.cpp:148] Top shape: 80 240 28 28 (15052800)
I0818 11:11:37.919173 15236 net.cpp:156] Memory required for data: 991979840
I0818 11:11:37.919176 15236 layer_factory.hpp:77] Creating layer resx1_concat_relu
I0818 11:11:37.919183 15236 net.cpp:91] Creating Layer resx1_concat_relu
I0818 11:11:37.919186 15236 net.cpp:469] resx1_concat_relu <- resx1_concat
I0818 11:11:37.919193 15236 net.cpp:430] resx1_concat_relu -> resx1_concat (in-place)
I0818 11:11:37.919333 15236 net.cpp:141] Setting up resx1_concat_relu
I0818 11:11:37.919342 15236 net.cpp:148] Top shape: 80 240 28 28 (15052800)
I0818 11:11:37.919347 15236 net.cpp:156] Memory required for data: 1052191040
I0818 11:11:37.919349 15236 layer_factory.hpp:77] Creating layer resx1_concat_resx1_concat_relu_0_split
I0818 11:11:37.919356 15236 net.cpp:91] Creating Layer resx1_concat_resx1_concat_relu_0_split
I0818 11:11:37.919360 15236 net.cpp:469] resx1_concat_resx1_concat_relu_0_split <- resx1_concat
I0818 11:11:37.919366 15236 net.cpp:443] resx1_concat_resx1_concat_relu_0_split -> resx1_concat_resx1_concat_relu_0_split_0
I0818 11:11:37.919373 15236 net.cpp:443] resx1_concat_resx1_concat_relu_0_split -> resx1_concat_resx1_concat_relu_0_split_1
I0818 11:11:37.919405 15236 net.cpp:141] Setting up resx1_concat_resx1_concat_relu_0_split
I0818 11:11:37.919411 15236 net.cpp:148] Top shape: 80 240 28 28 (15052800)
I0818 11:11:37.919415 15236 net.cpp:148] Top shape: 80 240 28 28 (15052800)
I0818 11:11:37.919419 15236 net.cpp:156] Memory required for data: 1172613440
I0818 11:11:37.919421 15236 layer_factory.hpp:77] Creating layer resx2_conv1
I0818 11:11:37.919431 15236 net.cpp:91] Creating Layer resx2_conv1
I0818 11:11:37.919435 15236 net.cpp:469] resx2_conv1 <- resx1_concat_resx1_concat_relu_0_split_0
I0818 11:11:37.919440 15236 net.cpp:443] resx2_conv1 -> resx2_conv1
I0818 11:11:37.921974 15236 net.cpp:141] Setting up resx2_conv1
I0818 11:11:37.921990 15236 net.cpp:148] Top shape: 80 60 28 28 (3763200)
I0818 11:11:37.921995 15236 net.cpp:156] Memory required for data: 1187666240
I0818 11:11:37.922000 15236 layer_factory.hpp:77] Creating layer resx2_conv1_bn
I0818 11:11:37.922008 15236 net.cpp:91] Creating Layer resx2_conv1_bn
I0818 11:11:37.922010 15236 net.cpp:469] resx2_conv1_bn <- resx2_conv1
I0818 11:11:37.922018 15236 net.cpp:430] resx2_conv1_bn -> resx2_conv1 (in-place)
I0818 11:11:37.922189 15236 net.cpp:141] Setting up resx2_conv1_bn
I0818 11:11:37.922197 15236 net.cpp:148] Top shape: 80 60 28 28 (3763200)
I0818 11:11:37.922200 15236 net.cpp:156] Memory required for data: 1202719040
I0818 11:11:37.922207 15236 layer_factory.hpp:77] Creating layer resx2_conv1_scale
I0818 11:11:37.922216 15236 net.cpp:91] Creating Layer resx2_conv1_scale
I0818 11:11:37.922219 15236 net.cpp:469] resx2_conv1_scale <- resx2_conv1
I0818 11:11:37.922225 15236 net.cpp:430] resx2_conv1_scale -> resx2_conv1 (in-place)
I0818 11:11:37.922258 15236 layer_factory.hpp:77] Creating layer resx2_conv1_scale
I0818 11:11:37.922349 15236 net.cpp:141] Setting up resx2_conv1_scale
I0818 11:11:37.922356 15236 net.cpp:148] Top shape: 80 60 28 28 (3763200)
I0818 11:11:37.922359 15236 net.cpp:156] Memory required for data: 1217771840
I0818 11:11:37.922364 15236 layer_factory.hpp:77] Creating layer resx2_conv1_relu
I0818 11:11:37.922370 15236 net.cpp:91] Creating Layer resx2_conv1_relu
I0818 11:11:37.922374 15236 net.cpp:469] resx2_conv1_relu <- resx2_conv1
I0818 11:11:37.922380 15236 net.cpp:430] resx2_conv1_relu -> resx2_conv1 (in-place)
I0818 11:11:37.922526 15236 net.cpp:141] Setting up resx2_conv1_relu
I0818 11:11:37.922536 15236 net.cpp:148] Top shape: 80 60 28 28 (3763200)
I0818 11:11:37.922539 15236 net.cpp:156] Memory required for data: 1232824640
I0818 11:11:37.922544 15236 layer_factory.hpp:77] Creating layer shuffle2
I0818 11:11:37.922555 15236 net.cpp:91] Creating Layer shuffle2
I0818 11:11:37.922565 15236 net.cpp:469] shuffle2 <- resx2_conv1
I0818 11:11:37.922572 15236 net.cpp:443] shuffle2 -> shuffle2
I0818 11:11:37.922598 15236 net.cpp:141] Setting up shuffle2
I0818 11:11:37.922606 15236 net.cpp:148] Top shape: 80 60 28 28 (3763200)
I0818 11:11:37.922610 15236 net.cpp:156] Memory required for data: 1247877440
I0818 11:11:37.922613 15236 layer_factory.hpp:77] Creating layer resx2_conv2
I0818 11:11:37.922621 15236 net.cpp:91] Creating Layer resx2_conv2
I0818 11:11:37.922624 15236 net.cpp:469] resx2_conv2 <- shuffle2
I0818 11:11:37.922631 15236 net.cpp:443] resx2_conv2 -> resx2_conv2
I0818 11:11:37.922755 15236 net.cpp:141] Setting up resx2_conv2
I0818 11:11:37.922765 15236 net.cpp:148] Top shape: 80 60 28 28 (3763200)
I0818 11:11:37.922768 15236 net.cpp:156] Memory required for data: 1262930240
I0818 11:11:37.922773 15236 layer_factory.hpp:77] Creating layer resx2_conv2_bn
I0818 11:11:37.922780 15236 net.cpp:91] Creating Layer resx2_conv2_bn
I0818 11:11:37.922783 15236 net.cpp:469] resx2_conv2_bn <- resx2_conv2
I0818 11:11:37.922801 15236 net.cpp:430] resx2_conv2_bn -> resx2_conv2 (in-place)
I0818 11:11:37.922952 15236 net.cpp:141] Setting up resx2_conv2_bn
I0818 11:11:37.922960 15236 net.cpp:148] Top shape: 80 60 28 28 (3763200)
I0818 11:11:37.922962 15236 net.cpp:156] Memory required for data: 1277983040
I0818 11:11:37.922974 15236 layer_factory.hpp:77] Creating layer resx2_conv2_scale
I0818 11:11:37.922983 15236 net.cpp:91] Creating Layer resx2_conv2_scale
I0818 11:11:37.922987 15236 net.cpp:469] resx2_conv2_scale <- resx2_conv2
I0818 11:11:37.922993 15236 net.cpp:430] resx2_conv2_scale -> resx2_conv2 (in-place)
I0818 11:11:37.923027 15236 layer_factory.hpp:77] Creating layer resx2_conv2_scale
I0818 11:11:37.923131 15236 net.cpp:141] Setting up resx2_conv2_scale
I0818 11:11:37.923138 15236 net.cpp:148] Top shape: 80 60 28 28 (3763200)
I0818 11:11:37.923141 15236 net.cpp:156] Memory required for data: 1293035840
I0818 11:11:37.923146 15236 layer_factory.hpp:77] Creating layer resx2_conv3
I0818 11:11:37.923156 15236 net.cpp:91] Creating Layer resx2_conv3
I0818 11:11:37.923159 15236 net.cpp:469] resx2_conv3 <- resx2_conv2
I0818 11:11:37.923164 15236 net.cpp:443] resx2_conv3 -> resx2_conv3
I0818 11:11:37.925673 15236 net.cpp:141] Setting up resx2_conv3
I0818 11:11:37.925688 15236 net.cpp:148] Top shape: 80 240 28 28 (15052800)
I0818 11:11:37.925693 15236 net.cpp:156] Memory required for data: 1353247040
I0818 11:11:37.925698 15236 layer_factory.hpp:77] Creating layer resx2_conv3_bn
I0818 11:11:37.925705 15236 net.cpp:91] Creating Layer resx2_conv3_bn
I0818 11:11:37.925709 15236 net.cpp:469] resx2_conv3_bn <- resx2_conv3
I0818 11:11:37.925716 15236 net.cpp:430] resx2_conv3_bn -> resx2_conv3 (in-place)
I0818 11:11:37.925884 15236 net.cpp:141] Setting up resx2_conv3_bn
I0818 11:11:37.925891 15236 net.cpp:148] Top shape: 80 240 28 28 (15052800)
I0818 11:11:37.925895 15236 net.cpp:156] Memory required for data: 1413458240
I0818 11:11:37.925901 15236 layer_factory.hpp:77] Creating layer resx2_conv3_scale
I0818 11:11:37.925911 15236 net.cpp:91] Creating Layer resx2_conv3_scale
I0818 11:11:37.925915 15236 net.cpp:469] resx2_conv3_scale <- resx2_conv3
I0818 11:11:37.925920 15236 net.cpp:430] resx2_conv3_scale -> resx2_conv3 (in-place)
I0818 11:11:37.925952 15236 layer_factory.hpp:77] Creating layer resx2_conv3_scale
I0818 11:11:37.926048 15236 net.cpp:141] Setting up resx2_conv3_scale
I0818 11:11:37.926054 15236 net.cpp:148] Top shape: 80 240 28 28 (15052800)
I0818 11:11:37.926057 15236 net.cpp:156] Memory required for data: 1473669440
I0818 11:11:37.926064 15236 layer_factory.hpp:77] Creating layer resx2_elewise
I0818 11:11:37.926080 15236 net.cpp:91] Creating Layer resx2_elewise
I0818 11:11:37.926084 15236 net.cpp:469] resx2_elewise <- resx1_concat_resx1_concat_relu_0_split_1
I0818 11:11:37.926089 15236 net.cpp:469] resx2_elewise <- resx2_conv3
I0818 11:11:37.926093 15236 net.cpp:443] resx2_elewise -> resx2_elewise
I0818 11:11:37.926126 15236 net.cpp:141] Setting up resx2_elewise
I0818 11:11:37.926138 15236 net.cpp:148] Top shape: 80 240 28 28 (15052800)
I0818 11:11:37.926141 15236 net.cpp:156] Memory required for data: 1533880640
I0818 11:11:37.926146 15236 layer_factory.hpp:77] Creating layer resx2_elewise_relu
I0818 11:11:37.926151 15236 net.cpp:91] Creating Layer resx2_elewise_relu
I0818 11:11:37.926154 15236 net.cpp:469] resx2_elewise_relu <- resx2_elewise
I0818 11:11:37.926158 15236 net.cpp:430] resx2_elewise_relu -> resx2_elewise (in-place)
I0818 11:11:37.926291 15236 net.cpp:141] Setting up resx2_elewise_relu
I0818 11:11:37.926301 15236 net.cpp:148] Top shape: 80 240 28 28 (15052800)
I0818 11:11:37.926304 15236 net.cpp:156] Memory required for data: 1594091840
I0818 11:11:37.926308 15236 layer_factory.hpp:77] Creating layer resx2_elewise_resx2_elewise_relu_0_split
I0818 11:11:37.926314 15236 net.cpp:91] Creating Layer resx2_elewise_resx2_elewise_relu_0_split
I0818 11:11:37.926317 15236 net.cpp:469] resx2_elewise_resx2_elewise_relu_0_split <- resx2_elewise
I0818 11:11:37.926324 15236 net.cpp:443] resx2_elewise_resx2_elewise_relu_0_split -> resx2_elewise_resx2_elewise_relu_0_split_0
I0818 11:11:37.926331 15236 net.cpp:443] resx2_elewise_resx2_elewise_relu_0_split -> resx2_elewise_resx2_elewise_relu_0_split_1
I0818 11:11:37.926362 15236 net.cpp:141] Setting up resx2_elewise_resx2_elewise_relu_0_split
I0818 11:11:37.926370 15236 net.cpp:148] Top shape: 80 240 28 28 (15052800)
I0818 11:11:37.926374 15236 net.cpp:148] Top shape: 80 240 28 28 (15052800)
I0818 11:11:37.926378 15236 net.cpp:156] Memory required for data: 1714514240
I0818 11:11:37.926380 15236 layer_factory.hpp:77] Creating layer resx3_conv1
I0818 11:11:37.926389 15236 net.cpp:91] Creating Layer resx3_conv1
I0818 11:11:37.926393 15236 net.cpp:469] resx3_conv1 <- resx2_elewise_resx2_elewise_relu_0_split_0
I0818 11:11:37.926398 15236 net.cpp:443] resx3_conv1 -> resx3_conv1
I0818 11:11:37.928714 15236 net.cpp:141] Setting up resx3_conv1
I0818 11:11:37.928727 15236 net.cpp:148] Top shape: 80 60 28 28 (3763200)
I0818 11:11:37.928731 15236 net.cpp:156] Memory required for data: 1729567040
I0818 11:11:37.928736 15236 layer_factory.hpp:77] Creating layer resx3_conv1_bn
I0818 11:11:37.928745 15236 net.cpp:91] Creating Layer resx3_conv1_bn
I0818 11:11:37.928748 15236 net.cpp:469] resx3_conv1_bn <- resx3_conv1
I0818 11:11:37.928753 15236 net.cpp:430] resx3_conv1_bn -> resx3_conv1 (in-place)
I0818 11:11:37.928908 15236 net.cpp:141] Setting up resx3_conv1_bn
I0818 11:11:37.928915 15236 net.cpp:148] Top shape: 80 60 28 28 (3763200)
I0818 11:11:37.928918 15236 net.cpp:156] Memory required for data: 1744619840
I0818 11:11:37.928925 15236 layer_factory.hpp:77] Creating layer resx3_conv1_scale
I0818 11:11:37.928931 15236 net.cpp:91] Creating Layer resx3_conv1_scale
I0818 11:11:37.928936 15236 net.cpp:469] resx3_conv1_scale <- resx3_conv1
I0818 11:11:37.928939 15236 net.cpp:430] resx3_conv1_scale -> resx3_conv1 (in-place)
I0818 11:11:37.928979 15236 layer_factory.hpp:77] Creating layer resx3_conv1_scale
I0818 11:11:37.929086 15236 net.cpp:141] Setting up resx3_conv1_scale
I0818 11:11:37.929095 15236 net.cpp:148] Top shape: 80 60 28 28 (3763200)
I0818 11:11:37.929100 15236 net.cpp:156] Memory required for data: 1759672640
I0818 11:11:37.929105 15236 layer_factory.hpp:77] Creating layer resx3_conv1_relu
I0818 11:11:37.929112 15236 net.cpp:91] Creating Layer resx3_conv1_relu
I0818 11:11:37.929116 15236 net.cpp:469] resx3_conv1_relu <- resx3_conv1
I0818 11:11:37.929122 15236 net.cpp:430] resx3_conv1_relu -> resx3_conv1 (in-place)
I0818 11:11:37.929260 15236 net.cpp:141] Setting up resx3_conv1_relu
I0818 11:11:37.929270 15236 net.cpp:148] Top shape: 80 60 28 28 (3763200)
I0818 11:11:37.929272 15236 net.cpp:156] Memory required for data: 1774725440
I0818 11:11:37.929276 15236 layer_factory.hpp:77] Creating layer shuffle3
I0818 11:11:37.929282 15236 net.cpp:91] Creating Layer shuffle3
I0818 11:11:37.929286 15236 net.cpp:469] shuffle3 <- resx3_conv1
I0818 11:11:37.929291 15236 net.cpp:443] shuffle3 -> shuffle3
I0818 11:11:37.929322 15236 net.cpp:141] Setting up shuffle3
I0818 11:11:37.929334 15236 net.cpp:148] Top shape: 80 60 28 28 (3763200)
I0818 11:11:37.929337 15236 net.cpp:156] Memory required for data: 1789778240
I0818 11:11:37.929340 15236 layer_factory.hpp:77] Creating layer resx3_conv2
I0818 11:11:37.929347 15236 net.cpp:91] Creating Layer resx3_conv2
I0818 11:11:37.929350 15236 net.cpp:469] resx3_conv2 <- shuffle3
I0818 11:11:37.929356 15236 net.cpp:443] resx3_conv2 -> resx3_conv2
I0818 11:11:37.929467 15236 net.cpp:141] Setting up resx3_conv2
I0818 11:11:37.929477 15236 net.cpp:148] Top shape: 80 60 28 28 (3763200)
I0818 11:11:37.929481 15236 net.cpp:156] Memory required for data: 1804831040
I0818 11:11:37.929486 15236 layer_factory.hpp:77] Creating layer resx3_conv2_bn
I0818 11:11:37.929494 15236 net.cpp:91] Creating Layer resx3_conv2_bn
I0818 11:11:37.929498 15236 net.cpp:469] resx3_conv2_bn <- resx3_conv2
I0818 11:11:37.929504 15236 net.cpp:430] resx3_conv2_bn -> resx3_conv2 (in-place)
I0818 11:11:37.929656 15236 net.cpp:141] Setting up resx3_conv2_bn
I0818 11:11:37.929662 15236 net.cpp:148] Top shape: 80 60 28 28 (3763200)
I0818 11:11:37.929666 15236 net.cpp:156] Memory required for data: 1819883840
I0818 11:11:37.929672 15236 layer_factory.hpp:77] Creating layer resx3_conv2_scale
I0818 11:11:37.929679 15236 net.cpp:91] Creating Layer resx3_conv2_scale
I0818 11:11:37.929682 15236 net.cpp:469] resx3_conv2_scale <- resx3_conv2
I0818 11:11:37.929688 15236 net.cpp:430] resx3_conv2_scale -> resx3_conv2 (in-place)
I0818 11:11:37.929719 15236 layer_factory.hpp:77] Creating layer resx3_conv2_scale
I0818 11:11:37.929817 15236 net.cpp:141] Setting up resx3_conv2_scale
I0818 11:11:37.929824 15236 net.cpp:148] Top shape: 80 60 28 28 (3763200)
I0818 11:11:37.929827 15236 net.cpp:156] Memory required for data: 1834936640
I0818 11:11:37.929833 15236 layer_factory.hpp:77] Creating layer resx3_conv3
I0818 11:11:37.929841 15236 net.cpp:91] Creating Layer resx3_conv3
I0818 11:11:37.929846 15236 net.cpp:469] resx3_conv3 <- resx3_conv2
I0818 11:11:37.929852 15236 net.cpp:443] resx3_conv3 -> resx3_conv3
I0818 11:11:37.932250 15236 net.cpp:141] Setting up resx3_conv3
I0818 11:11:37.932263 15236 net.cpp:148] Top shape: 80 240 28 28 (15052800)
I0818 11:11:37.932267 15236 net.cpp:156] Memory required for data: 1895147840
I0818 11:11:37.932271 15236 layer_factory.hpp:77] Creating layer resx3_conv3_bn
I0818 11:11:37.932281 15236 net.cpp:91] Creating Layer resx3_conv3_bn
I0818 11:11:37.932284 15236 net.cpp:469] resx3_conv3_bn <- resx3_conv3
I0818 11:11:37.932289 15236 net.cpp:430] resx3_conv3_bn -> resx3_conv3 (in-place)
I0818 11:11:37.932446 15236 net.cpp:141] Setting up resx3_conv3_bn
I0818 11:11:37.932452 15236 net.cpp:148] Top shape: 80 240 28 28 (15052800)
I0818 11:11:37.932456 15236 net.cpp:156] Memory required for data: 1955359040
I0818 11:11:37.932463 15236 layer_factory.hpp:77] Creating layer resx3_conv3_scale
I0818 11:11:37.932472 15236 net.cpp:91] Creating Layer resx3_conv3_scale
I0818 11:11:37.932476 15236 net.cpp:469] resx3_conv3_scale <- resx3_conv3
I0818 11:11:37.932481 15236 net.cpp:430] resx3_conv3_scale -> resx3_conv3 (in-place)
I0818 11:11:37.932514 15236 layer_factory.hpp:77] Creating layer resx3_conv3_scale
I0818 11:11:37.932612 15236 net.cpp:141] Setting up resx3_conv3_scale
I0818 11:11:37.932620 15236 net.cpp:148] Top shape: 80 240 28 28 (15052800)
I0818 11:11:37.932622 15236 net.cpp:156] Memory required for data: 2015570240
I0818 11:11:37.932628 15236 layer_factory.hpp:77] Creating layer resx3_elewise
I0818 11:11:37.932634 15236 net.cpp:91] Creating Layer resx3_elewise
I0818 11:11:37.932637 15236 net.cpp:469] resx3_elewise <- resx2_elewise_resx2_elewise_relu_0_split_1
I0818 11:11:37.932641 15236 net.cpp:469] resx3_elewise <- resx3_conv3
I0818 11:11:37.932647 15236 net.cpp:443] resx3_elewise -> resx3_elewise
I0818 11:11:37.932668 15236 net.cpp:141] Setting up resx3_elewise
I0818 11:11:37.932674 15236 net.cpp:148] Top shape: 80 240 28 28 (15052800)
I0818 11:11:37.932677 15236 net.cpp:156] Memory required for data: 2075781440
I0818 11:11:37.932684 15236 layer_factory.hpp:77] Creating layer resx3_elewise_relu
I0818 11:11:37.932698 15236 net.cpp:91] Creating Layer resx3_elewise_relu
I0818 11:11:37.932701 15236 net.cpp:469] resx3_elewise_relu <- resx3_elewise
I0818 11:11:37.932705 15236 net.cpp:430] resx3_elewise_relu -> resx3_elewise (in-place)
I0818 11:11:37.932844 15236 net.cpp:141] Setting up resx3_elewise_relu
I0818 11:11:37.932854 15236 net.cpp:148] Top shape: 80 240 28 28 (15052800)
I0818 11:11:37.932858 15236 net.cpp:156] Memory required for data: 2135992640
I0818 11:11:37.932862 15236 layer_factory.hpp:77] Creating layer resx3_elewise_resx3_elewise_relu_0_split
I0818 11:11:37.932869 15236 net.cpp:91] Creating Layer resx3_elewise_resx3_elewise_relu_0_split
I0818 11:11:37.932873 15236 net.cpp:469] resx3_elewise_resx3_elewise_relu_0_split <- resx3_elewise
I0818 11:11:37.932878 15236 net.cpp:443] resx3_elewise_resx3_elewise_relu_0_split -> resx3_elewise_resx3_elewise_relu_0_split_0
I0818 11:11:37.932885 15236 net.cpp:443] resx3_elewise_resx3_elewise_relu_0_split -> resx3_elewise_resx3_elewise_relu_0_split_1
I0818 11:11:37.932924 15236 net.cpp:141] Setting up resx3_elewise_resx3_elewise_relu_0_split
I0818 11:11:37.932930 15236 net.cpp:148] Top shape: 80 240 28 28 (15052800)
I0818 11:11:37.932934 15236 net.cpp:148] Top shape: 80 240 28 28 (15052800)
I0818 11:11:37.932936 15236 net.cpp:156] Memory required for data: 2256415040
I0818 11:11:37.932940 15236 layer_factory.hpp:77] Creating layer resx4_conv1
I0818 11:11:37.932950 15236 net.cpp:91] Creating Layer resx4_conv1
I0818 11:11:37.932953 15236 net.cpp:469] resx4_conv1 <- resx3_elewise_resx3_elewise_relu_0_split_0
I0818 11:11:37.932960 15236 net.cpp:443] resx4_conv1 -> resx4_conv1
I0818 11:11:37.935539 15236 net.cpp:141] Setting up resx4_conv1
I0818 11:11:37.935554 15236 net.cpp:148] Top shape: 80 60 28 28 (3763200)
I0818 11:11:37.935557 15236 net.cpp:156] Memory required for data: 2271467840
I0818 11:11:37.935562 15236 layer_factory.hpp:77] Creating layer resx4_conv1_bn
I0818 11:11:37.935571 15236 net.cpp:91] Creating Layer resx4_conv1_bn
I0818 11:11:37.935575 15236 net.cpp:469] resx4_conv1_bn <- resx4_conv1
I0818 11:11:37.935580 15236 net.cpp:430] resx4_conv1_bn -> resx4_conv1 (in-place)
I0818 11:11:37.935746 15236 net.cpp:141] Setting up resx4_conv1_bn
I0818 11:11:37.935755 15236 net.cpp:148] Top shape: 80 60 28 28 (3763200)
I0818 11:11:37.935757 15236 net.cpp:156] Memory required for data: 2286520640
I0818 11:11:37.935765 15236 layer_factory.hpp:77] Creating layer resx4_conv1_scale
I0818 11:11:37.935773 15236 net.cpp:91] Creating Layer resx4_conv1_scale
I0818 11:11:37.935777 15236 net.cpp:469] resx4_conv1_scale <- resx4_conv1
I0818 11:11:37.935782 15236 net.cpp:430] resx4_conv1_scale -> resx4_conv1 (in-place)
I0818 11:11:37.935818 15236 layer_factory.hpp:77] Creating layer resx4_conv1_scale
I0818 11:11:37.935917 15236 net.cpp:141] Setting up resx4_conv1_scale
I0818 11:11:37.935925 15236 net.cpp:148] Top shape: 80 60 28 28 (3763200)
I0818 11:11:37.935927 15236 net.cpp:156] Memory required for data: 2301573440
I0818 11:11:37.935940 15236 layer_factory.hpp:77] Creating layer resx4_conv1_relu
I0818 11:11:37.935950 15236 net.cpp:91] Creating Layer resx4_conv1_relu
I0818 11:11:37.935955 15236 net.cpp:469] resx4_conv1_relu <- resx4_conv1
I0818 11:11:37.935958 15236 net.cpp:430] resx4_conv1_relu -> resx4_conv1 (in-place)
I0818 11:11:37.936096 15236 net.cpp:141] Setting up resx4_conv1_relu
I0818 11:11:37.936105 15236 net.cpp:148] Top shape: 80 60 28 28 (3763200)
I0818 11:11:37.936110 15236 net.cpp:156] Memory required for data: 2316626240
I0818 11:11:37.936112 15236 layer_factory.hpp:77] Creating layer shuffle4
I0818 11:11:37.936120 15236 net.cpp:91] Creating Layer shuffle4
I0818 11:11:37.936123 15236 net.cpp:469] shuffle4 <- resx4_conv1
I0818 11:11:37.936127 15236 net.cpp:443] shuffle4 -> shuffle4
I0818 11:11:37.936153 15236 net.cpp:141] Setting up shuffle4
I0818 11:11:37.936159 15236 net.cpp:148] Top shape: 80 60 28 28 (3763200)
I0818 11:11:37.936162 15236 net.cpp:156] Memory required for data: 2331679040
I0818 11:11:37.936169 15236 layer_factory.hpp:77] Creating layer resx4_conv2
I0818 11:11:37.936183 15236 net.cpp:91] Creating Layer resx4_conv2
I0818 11:11:37.936187 15236 net.cpp:469] resx4_conv2 <- shuffle4
I0818 11:11:37.936192 15236 net.cpp:443] resx4_conv2 -> resx4_conv2
I0818 11:11:37.936306 15236 net.cpp:141] Setting up resx4_conv2
I0818 11:11:37.936316 15236 net.cpp:148] Top shape: 80 60 28 28 (3763200)
I0818 11:11:37.936318 15236 net.cpp:156] Memory required for data: 2346731840
I0818 11:11:37.936323 15236 layer_factory.hpp:77] Creating layer resx4_conv2_bn
I0818 11:11:37.936333 15236 net.cpp:91] Creating Layer resx4_conv2_bn
I0818 11:11:37.936337 15236 net.cpp:469] resx4_conv2_bn <- resx4_conv2
I0818 11:11:37.936342 15236 net.cpp:430] resx4_conv2_bn -> resx4_conv2 (in-place)
I0818 11:11:37.936494 15236 net.cpp:141] Setting up resx4_conv2_bn
I0818 11:11:37.936501 15236 net.cpp:148] Top shape: 80 60 28 28 (3763200)
I0818 11:11:37.936504 15236 net.cpp:156] Memory required for data: 2361784640
I0818 11:11:37.936511 15236 layer_factory.hpp:77] Creating layer resx4_conv2_scale
I0818 11:11:37.936519 15236 net.cpp:91] Creating Layer resx4_conv2_scale
I0818 11:11:37.936523 15236 net.cpp:469] resx4_conv2_scale <- resx4_conv2
I0818 11:11:37.936527 15236 net.cpp:430] resx4_conv2_scale -> resx4_conv2 (in-place)
I0818 11:11:37.936561 15236 layer_factory.hpp:77] Creating layer resx4_conv2_scale
I0818 11:11:37.936659 15236 net.cpp:141] Setting up resx4_conv2_scale
I0818 11:11:37.936666 15236 net.cpp:148] Top shape: 80 60 28 28 (3763200)
I0818 11:11:37.936669 15236 net.cpp:156] Memory required for data: 2376837440
I0818 11:11:37.936674 15236 layer_factory.hpp:77] Creating layer resx4_conv3
I0818 11:11:37.936684 15236 net.cpp:91] Creating Layer resx4_conv3
I0818 11:11:37.936688 15236 net.cpp:469] resx4_conv3 <- resx4_conv2
I0818 11:11:37.936693 15236 net.cpp:443] resx4_conv3 -> resx4_conv3
I0818 11:11:37.938953 15236 net.cpp:141] Setting up resx4_conv3
I0818 11:11:37.938967 15236 net.cpp:148] Top shape: 80 240 28 28 (15052800)
I0818 11:11:37.938971 15236 net.cpp:156] Memory required for data: 2437048640
I0818 11:11:37.938977 15236 layer_factory.hpp:77] Creating layer resx4_conv3_bn
I0818 11:11:37.938985 15236 net.cpp:91] Creating Layer resx4_conv3_bn
I0818 11:11:37.938989 15236 net.cpp:469] resx4_conv3_bn <- resx4_conv3
I0818 11:11:37.938995 15236 net.cpp:430] resx4_conv3_bn -> resx4_conv3 (in-place)
I0818 11:11:37.939159 15236 net.cpp:141] Setting up resx4_conv3_bn
I0818 11:11:37.939167 15236 net.cpp:148] Top shape: 80 240 28 28 (15052800)
I0818 11:11:37.939170 15236 net.cpp:156] Memory required for data: 2497259840
I0818 11:11:37.939177 15236 layer_factory.hpp:77] Creating layer resx4_conv3_scale
I0818 11:11:37.939183 15236 net.cpp:91] Creating Layer resx4_conv3_scale
I0818 11:11:37.939188 15236 net.cpp:469] resx4_conv3_scale <- resx4_conv3
I0818 11:11:37.939193 15236 net.cpp:430] resx4_conv3_scale -> resx4_conv3 (in-place)
I0818 11:11:37.939227 15236 layer_factory.hpp:77] Creating layer resx4_conv3_scale
I0818 11:11:37.939326 15236 net.cpp:141] Setting up resx4_conv3_scale
I0818 11:11:37.939332 15236 net.cpp:148] Top shape: 80 240 28 28 (15052800)
I0818 11:11:37.939335 15236 net.cpp:156] Memory required for data: 2557471040
I0818 11:11:37.939342 15236 layer_factory.hpp:77] Creating layer resx4_elewise
I0818 11:11:37.939347 15236 net.cpp:91] Creating Layer resx4_elewise
I0818 11:11:37.939350 15236 net.cpp:469] resx4_elewise <- resx3_elewise_resx3_elewise_relu_0_split_1
I0818 11:11:37.939357 15236 net.cpp:469] resx4_elewise <- resx4_conv3
I0818 11:11:37.939362 15236 net.cpp:443] resx4_elewise -> resx4_elewise
I0818 11:11:37.939384 15236 net.cpp:141] Setting up resx4_elewise
I0818 11:11:37.939390 15236 net.cpp:148] Top shape: 80 240 28 28 (15052800)
I0818 11:11:37.939393 15236 net.cpp:156] Memory required for data: 2617682240
I0818 11:11:37.939396 15236 layer_factory.hpp:77] Creating layer resx4_elewise_relu
I0818 11:11:37.939401 15236 net.cpp:91] Creating Layer resx4_elewise_relu
I0818 11:11:37.939409 15236 net.cpp:469] resx4_elewise_relu <- resx4_elewise
I0818 11:11:37.939419 15236 net.cpp:430] resx4_elewise_relu -> resx4_elewise (in-place)
I0818 11:11:37.939718 15236 net.cpp:141] Setting up resx4_elewise_relu
I0818 11:11:37.939729 15236 net.cpp:148] Top shape: 80 240 28 28 (15052800)
I0818 11:11:37.939733 15236 net.cpp:156] Memory required for data: 2677893440
I0818 11:11:37.939736 15236 layer_factory.hpp:77] Creating layer resx4_elewise_resx4_elewise_relu_0_split
I0818 11:11:37.939741 15236 net.cpp:91] Creating Layer resx4_elewise_resx4_elewise_relu_0_split
I0818 11:11:37.939745 15236 net.cpp:469] resx4_elewise_resx4_elewise_relu_0_split <- resx4_elewise
I0818 11:11:37.939751 15236 net.cpp:443] resx4_elewise_resx4_elewise_relu_0_split -> resx4_elewise_resx4_elewise_relu_0_split_0
I0818 11:11:37.939760 15236 net.cpp:443] resx4_elewise_resx4_elewise_relu_0_split -> resx4_elewise_resx4_elewise_relu_0_split_1
I0818 11:11:37.939797 15236 net.cpp:141] Setting up resx4_elewise_resx4_elewise_relu_0_split
I0818 11:11:37.939805 15236 net.cpp:148] Top shape: 80 240 28 28 (15052800)
I0818 11:11:37.939808 15236 net.cpp:148] Top shape: 80 240 28 28 (15052800)
I0818 11:11:37.939810 15236 net.cpp:156] Memory required for data: 2798315840
I0818 11:11:37.939815 15236 layer_factory.hpp:77] Creating layer resx5_match_conv
I0818 11:11:37.939821 15236 net.cpp:91] Creating Layer resx5_match_conv
I0818 11:11:37.939826 15236 net.cpp:469] resx5_match_conv <- resx4_elewise_resx4_elewise_relu_0_split_0
I0818 11:11:37.939831 15236 net.cpp:443] resx5_match_conv -> resx5_match_conv
I0818 11:11:37.940138 15236 net.cpp:141] Setting up resx5_match_conv
I0818 11:11:37.940150 15236 net.cpp:148] Top shape: 80 240 14 14 (3763200)
I0818 11:11:37.940153 15236 net.cpp:156] Memory required for data: 2813368640
I0818 11:11:37.940158 15236 layer_factory.hpp:77] Creating layer resx5_conv1
I0818 11:11:37.940173 15236 net.cpp:91] Creating Layer resx5_conv1
I0818 11:11:37.940178 15236 net.cpp:469] resx5_conv1 <- resx4_elewise_resx4_elewise_relu_0_split_1
I0818 11:11:37.940184 15236 net.cpp:443] resx5_conv1 -> resx5_conv1
I0818 11:11:37.942653 15236 net.cpp:141] Setting up resx5_conv1
I0818 11:11:37.942667 15236 net.cpp:148] Top shape: 80 60 28 28 (3763200)
I0818 11:11:37.942672 15236 net.cpp:156] Memory required for data: 2828421440
I0818 11:11:37.942677 15236 layer_factory.hpp:77] Creating layer resx5_conv1_bn
I0818 11:11:37.942685 15236 net.cpp:91] Creating Layer resx5_conv1_bn
I0818 11:11:37.942689 15236 net.cpp:469] resx5_conv1_bn <- resx5_conv1
I0818 11:11:37.942694 15236 net.cpp:430] resx5_conv1_bn -> resx5_conv1 (in-place)
I0818 11:11:37.942860 15236 net.cpp:141] Setting up resx5_conv1_bn
I0818 11:11:37.942867 15236 net.cpp:148] Top shape: 80 60 28 28 (3763200)
I0818 11:11:37.942870 15236 net.cpp:156] Memory required for data: 2843474240
I0818 11:11:37.942878 15236 layer_factory.hpp:77] Creating layer resx5_conv1_scale
I0818 11:11:37.942888 15236 net.cpp:91] Creating Layer resx5_conv1_scale
I0818 11:11:37.942891 15236 net.cpp:469] resx5_conv1_scale <- resx5_conv1
I0818 11:11:37.942895 15236 net.cpp:430] resx5_conv1_scale -> resx5_conv1 (in-place)
I0818 11:11:37.942931 15236 layer_factory.hpp:77] Creating layer resx5_conv1_scale
I0818 11:11:37.943037 15236 net.cpp:141] Setting up resx5_conv1_scale
I0818 11:11:37.943045 15236 net.cpp:148] Top shape: 80 60 28 28 (3763200)
I0818 11:11:37.943048 15236 net.cpp:156] Memory required for data: 2858527040
I0818 11:11:37.943053 15236 layer_factory.hpp:77] Creating layer resx5_conv1_relu
I0818 11:11:37.943060 15236 net.cpp:91] Creating Layer resx5_conv1_relu
I0818 11:11:37.943064 15236 net.cpp:469] resx5_conv1_relu <- resx5_conv1
I0818 11:11:37.943069 15236 net.cpp:430] resx5_conv1_relu -> resx5_conv1 (in-place)
I0818 11:11:37.943210 15236 net.cpp:141] Setting up resx5_conv1_relu
I0818 11:11:37.943219 15236 net.cpp:148] Top shape: 80 60 28 28 (3763200)
I0818 11:11:37.943223 15236 net.cpp:156] Memory required for data: 2873579840
I0818 11:11:37.943226 15236 layer_factory.hpp:77] Creating layer shuffle5
I0818 11:11:37.943238 15236 net.cpp:91] Creating Layer shuffle5
I0818 11:11:37.943246 15236 net.cpp:469] shuffle5 <- resx5_conv1
I0818 11:11:37.943253 15236 net.cpp:443] shuffle5 -> shuffle5
I0818 11:11:37.943279 15236 net.cpp:141] Setting up shuffle5
I0818 11:11:37.943284 15236 net.cpp:148] Top shape: 80 60 28 28 (3763200)
I0818 11:11:37.943287 15236 net.cpp:156] Memory required for data: 2888632640
I0818 11:11:37.943290 15236 layer_factory.hpp:77] Creating layer resx5_conv2
I0818 11:11:37.943300 15236 net.cpp:91] Creating Layer resx5_conv2
I0818 11:11:37.943303 15236 net.cpp:469] resx5_conv2 <- shuffle5
I0818 11:11:37.943310 15236 net.cpp:443] resx5_conv2 -> resx5_conv2
I0818 11:11:37.943419 15236 net.cpp:141] Setting up resx5_conv2
I0818 11:11:37.943428 15236 net.cpp:148] Top shape: 80 60 14 14 (940800)
I0818 11:11:37.943431 15236 net.cpp:156] Memory required for data: 2892395840
I0818 11:11:37.943436 15236 layer_factory.hpp:77] Creating layer resx5_conv2_bn
I0818 11:11:37.943444 15236 net.cpp:91] Creating Layer resx5_conv2_bn
I0818 11:11:37.943447 15236 net.cpp:469] resx5_conv2_bn <- resx5_conv2
I0818 11:11:37.943454 15236 net.cpp:430] resx5_conv2_bn -> resx5_conv2 (in-place)
I0818 11:11:37.943608 15236 net.cpp:141] Setting up resx5_conv2_bn
I0818 11:11:37.943614 15236 net.cpp:148] Top shape: 80 60 14 14 (940800)
I0818 11:11:37.943617 15236 net.cpp:156] Memory required for data: 2896159040
I0818 11:11:37.943625 15236 layer_factory.hpp:77] Creating layer resx5_conv2_scale
I0818 11:11:37.943634 15236 net.cpp:91] Creating Layer resx5_conv2_scale
I0818 11:11:37.943637 15236 net.cpp:469] resx5_conv2_scale <- resx5_conv2
I0818 11:11:37.943642 15236 net.cpp:430] resx5_conv2_scale -> resx5_conv2 (in-place)
I0818 11:11:37.943677 15236 layer_factory.hpp:77] Creating layer resx5_conv2_scale
I0818 11:11:37.943773 15236 net.cpp:141] Setting up resx5_conv2_scale
I0818 11:11:37.943780 15236 net.cpp:148] Top shape: 80 60 14 14 (940800)
I0818 11:11:37.943783 15236 net.cpp:156] Memory required for data: 2899922240
I0818 11:11:37.943789 15236 layer_factory.hpp:77] Creating layer resx5_conv3
I0818 11:11:37.943797 15236 net.cpp:91] Creating Layer resx5_conv3
I0818 11:11:37.943802 15236 net.cpp:469] resx5_conv3 <- resx5_conv2
I0818 11:11:37.943806 15236 net.cpp:443] resx5_conv3 -> resx5_conv3
I0818 11:11:37.946403 15236 net.cpp:141] Setting up resx5_conv3
I0818 11:11:37.946418 15236 net.cpp:148] Top shape: 80 240 14 14 (3763200)
I0818 11:11:37.946421 15236 net.cpp:156] Memory required for data: 2914975040
I0818 11:11:37.946426 15236 layer_factory.hpp:77] Creating layer resx5_conv3_bn
I0818 11:11:37.946434 15236 net.cpp:91] Creating Layer resx5_conv3_bn
I0818 11:11:37.946439 15236 net.cpp:469] resx5_conv3_bn <- resx5_conv3
I0818 11:11:37.946444 15236 net.cpp:430] resx5_conv3_bn -> resx5_conv3 (in-place)
I0818 11:11:37.946609 15236 net.cpp:141] Setting up resx5_conv3_bn
I0818 11:11:37.946616 15236 net.cpp:148] Top shape: 80 240 14 14 (3763200)
I0818 11:11:37.946619 15236 net.cpp:156] Memory required for data: 2930027840
I0818 11:11:37.946626 15236 layer_factory.hpp:77] Creating layer resx5_conv3_scale
I0818 11:11:37.946635 15236 net.cpp:91] Creating Layer resx5_conv3_scale
I0818 11:11:37.946638 15236 net.cpp:469] resx5_conv3_scale <- resx5_conv3
I0818 11:11:37.946642 15236 net.cpp:430] resx5_conv3_scale -> resx5_conv3 (in-place)
I0818 11:11:37.946677 15236 layer_factory.hpp:77] Creating layer resx5_conv3_scale
I0818 11:11:37.946774 15236 net.cpp:141] Setting up resx5_conv3_scale
I0818 11:11:37.946781 15236 net.cpp:148] Top shape: 80 240 14 14 (3763200)
I0818 11:11:37.946784 15236 net.cpp:156] Memory required for data: 2945080640
I0818 11:11:37.946790 15236 layer_factory.hpp:77] Creating layer resx5_concat
I0818 11:11:37.946797 15236 net.cpp:91] Creating Layer resx5_concat
I0818 11:11:37.946802 15236 net.cpp:469] resx5_concat <- resx5_match_conv
I0818 11:11:37.946805 15236 net.cpp:469] resx5_concat <- resx5_conv3
I0818 11:11:37.946810 15236 net.cpp:443] resx5_concat -> resx5_concat
I0818 11:11:37.946835 15236 net.cpp:141] Setting up resx5_concat
I0818 11:11:37.946844 15236 net.cpp:148] Top shape: 80 480 14 14 (7526400)
I0818 11:11:37.946852 15236 net.cpp:156] Memory required for data: 2975186240
I0818 11:11:37.946856 15236 layer_factory.hpp:77] Creating layer resx5_concat_relu
I0818 11:11:37.946861 15236 net.cpp:91] Creating Layer resx5_concat_relu
I0818 11:11:37.946864 15236 net.cpp:469] resx5_concat_relu <- resx5_concat
I0818 11:11:37.946871 15236 net.cpp:430] resx5_concat_relu -> resx5_concat (in-place)
I0818 11:11:37.947010 15236 net.cpp:141] Setting up resx5_concat_relu
I0818 11:11:37.947018 15236 net.cpp:148] Top shape: 80 480 14 14 (7526400)
I0818 11:11:37.947021 15236 net.cpp:156] Memory required for data: 3005291840
I0818 11:11:37.947026 15236 layer_factory.hpp:77] Creating layer resx5_concat_resx5_concat_relu_0_split
I0818 11:11:37.947031 15236 net.cpp:91] Creating Layer resx5_concat_resx5_concat_relu_0_split
I0818 11:11:37.947036 15236 net.cpp:469] resx5_concat_resx5_concat_relu_0_split <- resx5_concat
I0818 11:11:37.947041 15236 net.cpp:443] resx5_concat_resx5_concat_relu_0_split -> resx5_concat_resx5_concat_relu_0_split_0
I0818 11:11:37.947046 15236 net.cpp:443] resx5_concat_resx5_concat_relu_0_split -> resx5_concat_resx5_concat_relu_0_split_1
I0818 11:11:37.947083 15236 net.cpp:141] Setting up resx5_concat_resx5_concat_relu_0_split
I0818 11:11:37.947089 15236 net.cpp:148] Top shape: 80 480 14 14 (7526400)
I0818 11:11:37.947093 15236 net.cpp:148] Top shape: 80 480 14 14 (7526400)
I0818 11:11:37.947096 15236 net.cpp:156] Memory required for data: 3065503040
I0818 11:11:37.947100 15236 layer_factory.hpp:77] Creating layer resx6_conv1
I0818 11:11:37.947108 15236 net.cpp:91] Creating Layer resx6_conv1
I0818 11:11:37.947113 15236 net.cpp:469] resx6_conv1 <- resx5_concat_resx5_concat_relu_0_split_0
I0818 11:11:37.947118 15236 net.cpp:443] resx6_conv1 -> resx6_conv1
I0818 11:11:37.950397 15236 net.cpp:141] Setting up resx6_conv1
I0818 11:11:37.950412 15236 net.cpp:148] Top shape: 80 120 14 14 (1881600)
I0818 11:11:37.950415 15236 net.cpp:156] Memory required for data: 3073029440
I0818 11:11:37.950420 15236 layer_factory.hpp:77] Creating layer resx6_conv1_bn
I0818 11:11:37.950428 15236 net.cpp:91] Creating Layer resx6_conv1_bn
I0818 11:11:37.950431 15236 net.cpp:469] resx6_conv1_bn <- resx6_conv1
I0818 11:11:37.950439 15236 net.cpp:430] resx6_conv1_bn -> resx6_conv1 (in-place)
I0818 11:11:37.950610 15236 net.cpp:141] Setting up resx6_conv1_bn
I0818 11:11:37.950618 15236 net.cpp:148] Top shape: 80 120 14 14 (1881600)
I0818 11:11:37.950621 15236 net.cpp:156] Memory required for data: 3080555840
I0818 11:11:37.950628 15236 layer_factory.hpp:77] Creating layer resx6_conv1_scale
I0818 11:11:37.950636 15236 net.cpp:91] Creating Layer resx6_conv1_scale
I0818 11:11:37.950639 15236 net.cpp:469] resx6_conv1_scale <- resx6_conv1
I0818 11:11:37.950645 15236 net.cpp:430] resx6_conv1_scale -> resx6_conv1 (in-place)
I0818 11:11:37.950682 15236 layer_factory.hpp:77] Creating layer resx6_conv1_scale
I0818 11:11:37.950780 15236 net.cpp:141] Setting up resx6_conv1_scale
I0818 11:11:37.950788 15236 net.cpp:148] Top shape: 80 120 14 14 (1881600)
I0818 11:11:37.950790 15236 net.cpp:156] Memory required for data: 3088082240
I0818 11:11:37.950795 15236 layer_factory.hpp:77] Creating layer resx6_conv1_relu
I0818 11:11:37.950803 15236 net.cpp:91] Creating Layer resx6_conv1_relu
I0818 11:11:37.950806 15236 net.cpp:469] resx6_conv1_relu <- resx6_conv1
I0818 11:11:37.950810 15236 net.cpp:430] resx6_conv1_relu -> resx6_conv1 (in-place)
I0818 11:11:37.950953 15236 net.cpp:141] Setting up resx6_conv1_relu
I0818 11:11:37.950961 15236 net.cpp:148] Top shape: 80 120 14 14 (1881600)
I0818 11:11:37.950964 15236 net.cpp:156] Memory required for data: 3095608640
I0818 11:11:37.950968 15236 layer_factory.hpp:77] Creating layer shuffle6
I0818 11:11:37.950975 15236 net.cpp:91] Creating Layer shuffle6
I0818 11:11:37.950978 15236 net.cpp:469] shuffle6 <- resx6_conv1
I0818 11:11:37.950984 15236 net.cpp:443] shuffle6 -> shuffle6
I0818 11:11:37.951010 15236 net.cpp:141] Setting up shuffle6
I0818 11:11:37.951020 15236 net.cpp:148] Top shape: 80 120 14 14 (1881600)
I0818 11:11:37.951028 15236 net.cpp:156] Memory required for data: 3103135040
I0818 11:11:37.951033 15236 layer_factory.hpp:77] Creating layer resx6_conv2
I0818 11:11:37.951042 15236 net.cpp:91] Creating Layer resx6_conv2
I0818 11:11:37.951045 15236 net.cpp:469] resx6_conv2 <- shuffle6
I0818 11:11:37.951050 15236 net.cpp:443] resx6_conv2 -> resx6_conv2
I0818 11:11:37.951176 15236 net.cpp:141] Setting up resx6_conv2
I0818 11:11:37.951185 15236 net.cpp:148] Top shape: 80 120 14 14 (1881600)
I0818 11:11:37.951189 15236 net.cpp:156] Memory required for data: 3110661440
I0818 11:11:37.951194 15236 layer_factory.hpp:77] Creating layer resx6_conv2_bn
I0818 11:11:37.951203 15236 net.cpp:91] Creating Layer resx6_conv2_bn
I0818 11:11:37.951207 15236 net.cpp:469] resx6_conv2_bn <- resx6_conv2
I0818 11:11:37.951212 15236 net.cpp:430] resx6_conv2_bn -> resx6_conv2 (in-place)
I0818 11:11:37.951376 15236 net.cpp:141] Setting up resx6_conv2_bn
I0818 11:11:37.951385 15236 net.cpp:148] Top shape: 80 120 14 14 (1881600)
I0818 11:11:37.951387 15236 net.cpp:156] Memory required for data: 3118187840
I0818 11:11:37.951393 15236 layer_factory.hpp:77] Creating layer resx6_conv2_scale
I0818 11:11:37.951401 15236 net.cpp:91] Creating Layer resx6_conv2_scale
I0818 11:11:37.951406 15236 net.cpp:469] resx6_conv2_scale <- resx6_conv2
I0818 11:11:37.951409 15236 net.cpp:430] resx6_conv2_scale -> resx6_conv2 (in-place)
I0818 11:11:37.951447 15236 layer_factory.hpp:77] Creating layer resx6_conv2_scale
I0818 11:11:37.951546 15236 net.cpp:141] Setting up resx6_conv2_scale
I0818 11:11:37.951553 15236 net.cpp:148] Top shape: 80 120 14 14 (1881600)
I0818 11:11:37.951556 15236 net.cpp:156] Memory required for data: 3125714240
I0818 11:11:37.951561 15236 layer_factory.hpp:77] Creating layer resx6_conv3
I0818 11:11:37.951572 15236 net.cpp:91] Creating Layer resx6_conv3
I0818 11:11:37.951576 15236 net.cpp:469] resx6_conv3 <- resx6_conv2
I0818 11:11:37.951581 15236 net.cpp:443] resx6_conv3 -> resx6_conv3
I0818 11:11:37.954691 15236 net.cpp:141] Setting up resx6_conv3
I0818 11:11:37.954705 15236 net.cpp:148] Top shape: 80 480 14 14 (7526400)
I0818 11:11:37.954710 15236 net.cpp:156] Memory required for data: 3155819840
I0818 11:11:37.954715 15236 layer_factory.hpp:77] Creating layer resx6_conv3_bn
I0818 11:11:37.954725 15236 net.cpp:91] Creating Layer resx6_conv3_bn
I0818 11:11:37.954728 15236 net.cpp:469] resx6_conv3_bn <- resx6_conv3
I0818 11:11:37.954733 15236 net.cpp:430] resx6_conv3_bn -> resx6_conv3 (in-place)
I0818 11:11:37.954917 15236 net.cpp:141] Setting up resx6_conv3_bn
I0818 11:11:37.954924 15236 net.cpp:148] Top shape: 80 480 14 14 (7526400)
I0818 11:11:37.954927 15236 net.cpp:156] Memory required for data: 3185925440
I0818 11:11:37.954934 15236 layer_factory.hpp:77] Creating layer resx6_conv3_scale
I0818 11:11:37.954944 15236 net.cpp:91] Creating Layer resx6_conv3_scale
I0818 11:11:37.954948 15236 net.cpp:469] resx6_conv3_scale <- resx6_conv3
I0818 11:11:37.954953 15236 net.cpp:430] resx6_conv3_scale -> resx6_conv3 (in-place)
I0818 11:11:37.954991 15236 layer_factory.hpp:77] Creating layer resx6_conv3_scale
I0818 11:11:37.955094 15236 net.cpp:141] Setting up resx6_conv3_scale
I0818 11:11:37.955116 15236 net.cpp:148] Top shape: 80 480 14 14 (7526400)
I0818 11:11:37.955119 15236 net.cpp:156] Memory required for data: 3216031040
I0818 11:11:37.955124 15236 layer_factory.hpp:77] Creating layer resx6_elewise
I0818 11:11:37.955132 15236 net.cpp:91] Creating Layer resx6_elewise
I0818 11:11:37.955135 15236 net.cpp:469] resx6_elewise <- resx5_concat_resx5_concat_relu_0_split_1
I0818 11:11:37.955139 15236 net.cpp:469] resx6_elewise <- resx6_conv3
I0818 11:11:37.955143 15236 net.cpp:443] resx6_elewise -> resx6_elewise
I0818 11:11:37.955168 15236 net.cpp:141] Setting up resx6_elewise
I0818 11:11:37.955173 15236 net.cpp:148] Top shape: 80 480 14 14 (7526400)
I0818 11:11:37.955176 15236 net.cpp:156] Memory required for data: 3246136640
I0818 11:11:37.955179 15236 layer_factory.hpp:77] Creating layer resx6_elewise_relu
I0818 11:11:37.955189 15236 net.cpp:91] Creating Layer resx6_elewise_relu
I0818 11:11:37.955199 15236 net.cpp:469] resx6_elewise_relu <- resx6_elewise
I0818 11:11:37.955204 15236 net.cpp:430] resx6_elewise_relu -> resx6_elewise (in-place)
I0818 11:11:37.955353 15236 net.cpp:141] Setting up resx6_elewise_relu
I0818 11:11:37.955361 15236 net.cpp:148] Top shape: 80 480 14 14 (7526400)
I0818 11:11:37.955365 15236 net.cpp:156] Memory required for data: 3276242240
I0818 11:11:37.955369 15236 layer_factory.hpp:77] Creating layer resx6_elewise_resx6_elewise_relu_0_split
I0818 11:11:37.955376 15236 net.cpp:91] Creating Layer resx6_elewise_resx6_elewise_relu_0_split
I0818 11:11:37.955380 15236 net.cpp:469] resx6_elewise_resx6_elewise_relu_0_split <- resx6_elewise
I0818 11:11:37.955385 15236 net.cpp:443] resx6_elewise_resx6_elewise_relu_0_split -> resx6_elewise_resx6_elewise_relu_0_split_0
I0818 11:11:37.955390 15236 net.cpp:443] resx6_elewise_resx6_elewise_relu_0_split -> resx6_elewise_resx6_elewise_relu_0_split_1
I0818 11:11:37.955430 15236 net.cpp:141] Setting up resx6_elewise_resx6_elewise_relu_0_split
I0818 11:11:37.955436 15236 net.cpp:148] Top shape: 80 480 14 14 (7526400)
I0818 11:11:37.955440 15236 net.cpp:148] Top shape: 80 480 14 14 (7526400)
I0818 11:11:37.955443 15236 net.cpp:156] Memory required for data: 3336453440
I0818 11:11:37.955446 15236 layer_factory.hpp:77] Creating layer resx7_conv1
I0818 11:11:37.955456 15236 net.cpp:91] Creating Layer resx7_conv1
I0818 11:11:37.955459 15236 net.cpp:469] resx7_conv1 <- resx6_elewise_resx6_elewise_relu_0_split_0
I0818 11:11:37.955464 15236 net.cpp:443] resx7_conv1 -> resx7_conv1
I0818 11:11:37.958375 15236 net.cpp:141] Setting up resx7_conv1
I0818 11:11:37.958391 15236 net.cpp:148] Top shape: 80 120 14 14 (1881600)
I0818 11:11:37.958395 15236 net.cpp:156] Memory required for data: 3343979840
I0818 11:11:37.958400 15236 layer_factory.hpp:77] Creating layer resx7_conv1_bn
I0818 11:11:37.958408 15236 net.cpp:91] Creating Layer resx7_conv1_bn
I0818 11:11:37.958412 15236 net.cpp:469] resx7_conv1_bn <- resx7_conv1
I0818 11:11:37.958420 15236 net.cpp:430] resx7_conv1_bn -> resx7_conv1 (in-place)
I0818 11:11:37.958595 15236 net.cpp:141] Setting up resx7_conv1_bn
I0818 11:11:37.958601 15236 net.cpp:148] Top shape: 80 120 14 14 (1881600)
I0818 11:11:37.958605 15236 net.cpp:156] Memory required for data: 3351506240
I0818 11:11:37.958611 15236 layer_factory.hpp:77] Creating layer resx7_conv1_scale
I0818 11:11:37.958617 15236 net.cpp:91] Creating Layer resx7_conv1_scale
I0818 11:11:37.958621 15236 net.cpp:469] resx7_conv1_scale <- resx7_conv1
I0818 11:11:37.958627 15236 net.cpp:430] resx7_conv1_scale -> resx7_conv1 (in-place)
I0818 11:11:37.958664 15236 layer_factory.hpp:77] Creating layer resx7_conv1_scale
I0818 11:11:37.958768 15236 net.cpp:141] Setting up resx7_conv1_scale
I0818 11:11:37.958775 15236 net.cpp:148] Top shape: 80 120 14 14 (1881600)
I0818 11:11:37.958778 15236 net.cpp:156] Memory required for data: 3359032640
I0818 11:11:37.958786 15236 layer_factory.hpp:77] Creating layer resx7_conv1_relu
I0818 11:11:37.958791 15236 net.cpp:91] Creating Layer resx7_conv1_relu
I0818 11:11:37.958793 15236 net.cpp:469] resx7_conv1_relu <- resx7_conv1
I0818 11:11:37.958801 15236 net.cpp:430] resx7_conv1_relu -> resx7_conv1 (in-place)
I0818 11:11:37.958945 15236 net.cpp:141] Setting up resx7_conv1_relu
I0818 11:11:37.958955 15236 net.cpp:148] Top shape: 80 120 14 14 (1881600)
I0818 11:11:37.958957 15236 net.cpp:156] Memory required for data: 3366559040
I0818 11:11:37.958961 15236 layer_factory.hpp:77] Creating layer shuffle7
I0818 11:11:37.958966 15236 net.cpp:91] Creating Layer shuffle7
I0818 11:11:37.958971 15236 net.cpp:469] shuffle7 <- resx7_conv1
I0818 11:11:37.958976 15236 net.cpp:443] shuffle7 -> shuffle7
I0818 11:11:37.959004 15236 net.cpp:141] Setting up shuffle7
I0818 11:11:37.959009 15236 net.cpp:148] Top shape: 80 120 14 14 (1881600)
I0818 11:11:37.959012 15236 net.cpp:156] Memory required for data: 3374085440
I0818 11:11:37.959017 15236 layer_factory.hpp:77] Creating layer resx7_conv2
I0818 11:11:37.959028 15236 net.cpp:91] Creating Layer resx7_conv2
I0818 11:11:37.959036 15236 net.cpp:469] resx7_conv2 <- shuffle7
I0818 11:11:37.959043 15236 net.cpp:443] resx7_conv2 -> resx7_conv2
I0818 11:11:37.959173 15236 net.cpp:141] Setting up resx7_conv2
I0818 11:11:37.959182 15236 net.cpp:148] Top shape: 80 120 14 14 (1881600)
I0818 11:11:37.959185 15236 net.cpp:156] Memory required for data: 3381611840
I0818 11:11:37.959190 15236 layer_factory.hpp:77] Creating layer resx7_conv2_bn
I0818 11:11:37.959197 15236 net.cpp:91] Creating Layer resx7_conv2_bn
I0818 11:11:37.959200 15236 net.cpp:469] resx7_conv2_bn <- resx7_conv2
I0818 11:11:37.959205 15236 net.cpp:430] resx7_conv2_bn -> resx7_conv2 (in-place)
I0818 11:11:37.959377 15236 net.cpp:141] Setting up resx7_conv2_bn
I0818 11:11:37.959383 15236 net.cpp:148] Top shape: 80 120 14 14 (1881600)
I0818 11:11:37.959386 15236 net.cpp:156] Memory required for data: 3389138240
I0818 11:11:37.959393 15236 layer_factory.hpp:77] Creating layer resx7_conv2_scale
I0818 11:11:37.959400 15236 net.cpp:91] Creating Layer resx7_conv2_scale
I0818 11:11:37.959403 15236 net.cpp:469] resx7_conv2_scale <- resx7_conv2
I0818 11:11:37.959409 15236 net.cpp:430] resx7_conv2_scale -> resx7_conv2 (in-place)
I0818 11:11:37.959444 15236 layer_factory.hpp:77] Creating layer resx7_conv2_scale
I0818 11:11:37.959547 15236 net.cpp:141] Setting up resx7_conv2_scale
I0818 11:11:37.959553 15236 net.cpp:148] Top shape: 80 120 14 14 (1881600)
I0818 11:11:37.959555 15236 net.cpp:156] Memory required for data: 3396664640
I0818 11:11:37.959560 15236 layer_factory.hpp:77] Creating layer resx7_conv3
I0818 11:11:37.959570 15236 net.cpp:91] Creating Layer resx7_conv3
I0818 11:11:37.959574 15236 net.cpp:469] resx7_conv3 <- resx7_conv2
I0818 11:11:37.959583 15236 net.cpp:443] resx7_conv3 -> resx7_conv3
I0818 11:11:37.962420 15236 net.cpp:141] Setting up resx7_conv3
I0818 11:11:37.962437 15236 net.cpp:148] Top shape: 80 480 14 14 (7526400)
I0818 11:11:37.962440 15236 net.cpp:156] Memory required for data: 3426770240
I0818 11:11:37.962446 15236 layer_factory.hpp:77] Creating layer resx7_conv3_bn
I0818 11:11:37.962455 15236 net.cpp:91] Creating Layer resx7_conv3_bn
I0818 11:11:37.962458 15236 net.cpp:469] resx7_conv3_bn <- resx7_conv3
I0818 11:11:37.962463 15236 net.cpp:430] resx7_conv3_bn -> resx7_conv3 (in-place)
I0818 11:11:37.962648 15236 net.cpp:141] Setting up resx7_conv3_bn
I0818 11:11:37.962656 15236 net.cpp:148] Top shape: 80 480 14 14 (7526400)
I0818 11:11:37.962659 15236 net.cpp:156] Memory required for data: 3456875840
I0818 11:11:37.962687 15236 layer_factory.hpp:77] Creating layer resx7_conv3_scale
I0818 11:11:37.962695 15236 net.cpp:91] Creating Layer resx7_conv3_scale
I0818 11:11:37.962699 15236 net.cpp:469] resx7_conv3_scale <- resx7_conv3
I0818 11:11:37.962703 15236 net.cpp:430] resx7_conv3_scale -> resx7_conv3 (in-place)
I0818 11:11:37.962748 15236 layer_factory.hpp:77] Creating layer resx7_conv3_scale
I0818 11:11:37.962867 15236 net.cpp:141] Setting up resx7_conv3_scale
I0818 11:11:37.962874 15236 net.cpp:148] Top shape: 80 480 14 14 (7526400)
I0818 11:11:37.962877 15236 net.cpp:156] Memory required for data: 3486981440
I0818 11:11:37.962884 15236 layer_factory.hpp:77] Creating layer resx7_elewise
I0818 11:11:37.962891 15236 net.cpp:91] Creating Layer resx7_elewise
I0818 11:11:37.962896 15236 net.cpp:469] resx7_elewise <- resx6_elewise_resx6_elewise_relu_0_split_1
I0818 11:11:37.962900 15236 net.cpp:469] resx7_elewise <- resx7_conv3
I0818 11:11:37.962905 15236 net.cpp:443] resx7_elewise -> resx7_elewise
I0818 11:11:37.962929 15236 net.cpp:141] Setting up resx7_elewise
I0818 11:11:37.962935 15236 net.cpp:148] Top shape: 80 480 14 14 (7526400)
I0818 11:11:37.962939 15236 net.cpp:156] Memory required for data: 3517087040
I0818 11:11:37.962941 15236 layer_factory.hpp:77] Creating layer resx7_elewise_relu
I0818 11:11:37.962949 15236 net.cpp:91] Creating Layer resx7_elewise_relu
I0818 11:11:37.962954 15236 net.cpp:469] resx7_elewise_relu <- resx7_elewise
I0818 11:11:37.962957 15236 net.cpp:430] resx7_elewise_relu -> resx7_elewise (in-place)
I0818 11:11:37.963129 15236 net.cpp:141] Setting up resx7_elewise_relu
I0818 11:11:37.963137 15236 net.cpp:148] Top shape: 80 480 14 14 (7526400)
I0818 11:11:37.963140 15236 net.cpp:156] Memory required for data: 3547192640
I0818 11:11:37.963145 15236 layer_factory.hpp:77] Creating layer resx7_elewise_resx7_elewise_relu_0_split
I0818 11:11:37.963151 15236 net.cpp:91] Creating Layer resx7_elewise_resx7_elewise_relu_0_split
I0818 11:11:37.963155 15236 net.cpp:469] resx7_elewise_resx7_elewise_relu_0_split <- resx7_elewise
I0818 11:11:37.963161 15236 net.cpp:443] resx7_elewise_resx7_elewise_relu_0_split -> resx7_elewise_resx7_elewise_relu_0_split_0
I0818 11:11:37.963167 15236 net.cpp:443] resx7_elewise_resx7_elewise_relu_0_split -> resx7_elewise_resx7_elewise_relu_0_split_1
I0818 11:11:37.963204 15236 net.cpp:141] Setting up resx7_elewise_resx7_elewise_relu_0_split
I0818 11:11:37.963210 15236 net.cpp:148] Top shape: 80 480 14 14 (7526400)
I0818 11:11:37.963214 15236 net.cpp:148] Top shape: 80 480 14 14 (7526400)
I0818 11:11:37.963217 15236 net.cpp:156] Memory required for data: 3607403840
I0818 11:11:37.963220 15236 layer_factory.hpp:77] Creating layer resx8_conv1
I0818 11:11:37.963230 15236 net.cpp:91] Creating Layer resx8_conv1
I0818 11:11:37.963234 15236 net.cpp:469] resx8_conv1 <- resx7_elewise_resx7_elewise_relu_0_split_0
I0818 11:11:37.963240 15236 net.cpp:443] resx8_conv1 -> resx8_conv1
I0818 11:11:37.966073 15236 net.cpp:141] Setting up resx8_conv1
I0818 11:11:37.966086 15236 net.cpp:148] Top shape: 80 120 14 14 (1881600)
I0818 11:11:37.966090 15236 net.cpp:156] Memory required for data: 3614930240
I0818 11:11:37.966097 15236 layer_factory.hpp:77] Creating layer resx8_conv1_bn
I0818 11:11:37.966106 15236 net.cpp:91] Creating Layer resx8_conv1_bn
I0818 11:11:37.966110 15236 net.cpp:469] resx8_conv1_bn <- resx8_conv1
I0818 11:11:37.966115 15236 net.cpp:430] resx8_conv1_bn -> resx8_conv1 (in-place)
I0818 11:11:37.966295 15236 net.cpp:141] Setting up resx8_conv1_bn
I0818 11:11:37.966302 15236 net.cpp:148] Top shape: 80 120 14 14 (1881600)
I0818 11:11:37.966305 15236 net.cpp:156] Memory required for data: 3622456640
I0818 11:11:37.966312 15236 layer_factory.hpp:77] Creating layer resx8_conv1_scale
I0818 11:11:37.966318 15236 net.cpp:91] Creating Layer resx8_conv1_scale
I0818 11:11:37.966322 15236 net.cpp:469] resx8_conv1_scale <- resx8_conv1
I0818 11:11:37.966326 15236 net.cpp:430] resx8_conv1_scale -> resx8_conv1 (in-place)
I0818 11:11:37.966367 15236 layer_factory.hpp:77] Creating layer resx8_conv1_scale
I0818 11:11:37.966470 15236 net.cpp:141] Setting up resx8_conv1_scale
I0818 11:11:37.966477 15236 net.cpp:148] Top shape: 80 120 14 14 (1881600)
I0818 11:11:37.966480 15236 net.cpp:156] Memory required for data: 3629983040
I0818 11:11:37.966485 15236 layer_factory.hpp:77] Creating layer resx8_conv1_relu
I0818 11:11:37.966490 15236 net.cpp:91] Creating Layer resx8_conv1_relu
I0818 11:11:37.966495 15236 net.cpp:469] resx8_conv1_relu <- resx8_conv1
I0818 11:11:37.966498 15236 net.cpp:430] resx8_conv1_relu -> resx8_conv1 (in-place)
I0818 11:11:37.966647 15236 net.cpp:141] Setting up resx8_conv1_relu
I0818 11:11:37.966656 15236 net.cpp:148] Top shape: 80 120 14 14 (1881600)
I0818 11:11:37.966660 15236 net.cpp:156] Memory required for data: 3637509440
I0818 11:11:37.966663 15236 layer_factory.hpp:77] Creating layer shuffle8
I0818 11:11:37.966668 15236 net.cpp:91] Creating Layer shuffle8
I0818 11:11:37.966672 15236 net.cpp:469] shuffle8 <- resx8_conv1
I0818 11:11:37.966676 15236 net.cpp:443] shuffle8 -> shuffle8
I0818 11:11:37.966706 15236 net.cpp:141] Setting up shuffle8
I0818 11:11:37.966712 15236 net.cpp:148] Top shape: 80 120 14 14 (1881600)
I0818 11:11:37.966717 15236 net.cpp:156] Memory required for data: 3645035840
I0818 11:11:37.966720 15236 layer_factory.hpp:77] Creating layer resx8_conv2
I0818 11:11:37.966728 15236 net.cpp:91] Creating Layer resx8_conv2
I0818 11:11:37.966732 15236 net.cpp:469] resx8_conv2 <- shuffle8
I0818 11:11:37.966737 15236 net.cpp:443] resx8_conv2 -> resx8_conv2
I0818 11:11:37.967051 15236 net.cpp:141] Setting up resx8_conv2
I0818 11:11:37.967069 15236 net.cpp:148] Top shape: 80 120 14 14 (1881600)
I0818 11:11:37.967073 15236 net.cpp:156] Memory required for data: 3652562240
I0818 11:11:37.967078 15236 layer_factory.hpp:77] Creating layer resx8_conv2_bn
I0818 11:11:37.967085 15236 net.cpp:91] Creating Layer resx8_conv2_bn
I0818 11:11:37.967090 15236 net.cpp:469] resx8_conv2_bn <- resx8_conv2
I0818 11:11:37.967095 15236 net.cpp:430] resx8_conv2_bn -> resx8_conv2 (in-place)
I0818 11:11:37.967273 15236 net.cpp:141] Setting up resx8_conv2_bn
I0818 11:11:37.967280 15236 net.cpp:148] Top shape: 80 120 14 14 (1881600)
I0818 11:11:37.967283 15236 net.cpp:156] Memory required for data: 3660088640
I0818 11:11:37.967289 15236 layer_factory.hpp:77] Creating layer resx8_conv2_scale
I0818 11:11:37.967299 15236 net.cpp:91] Creating Layer resx8_conv2_scale
I0818 11:11:37.967303 15236 net.cpp:469] resx8_conv2_scale <- resx8_conv2
I0818 11:11:37.967308 15236 net.cpp:430] resx8_conv2_scale -> resx8_conv2 (in-place)
I0818 11:11:37.967346 15236 layer_factory.hpp:77] Creating layer resx8_conv2_scale
I0818 11:11:37.967449 15236 net.cpp:141] Setting up resx8_conv2_scale
I0818 11:11:37.967458 15236 net.cpp:148] Top shape: 80 120 14 14 (1881600)
I0818 11:11:37.967461 15236 net.cpp:156] Memory required for data: 3667615040
I0818 11:11:37.967466 15236 layer_factory.hpp:77] Creating layer resx8_conv3
I0818 11:11:37.967478 15236 net.cpp:91] Creating Layer resx8_conv3
I0818 11:11:37.967481 15236 net.cpp:469] resx8_conv3 <- resx8_conv2
I0818 11:11:37.967486 15236 net.cpp:443] resx8_conv3 -> resx8_conv3
I0818 11:11:37.970142 15236 net.cpp:141] Setting up resx8_conv3
I0818 11:11:37.970156 15236 net.cpp:148] Top shape: 80 480 14 14 (7526400)
I0818 11:11:37.970160 15236 net.cpp:156] Memory required for data: 3697720640
I0818 11:11:37.970165 15236 layer_factory.hpp:77] Creating layer resx8_conv3_bn
I0818 11:11:37.970173 15236 net.cpp:91] Creating Layer resx8_conv3_bn
I0818 11:11:37.970178 15236 net.cpp:469] resx8_conv3_bn <- resx8_conv3
I0818 11:11:37.970183 15236 net.cpp:430] resx8_conv3_bn -> resx8_conv3 (in-place)
I0818 11:11:37.970363 15236 net.cpp:141] Setting up resx8_conv3_bn
I0818 11:11:37.970371 15236 net.cpp:148] Top shape: 80 480 14 14 (7526400)
I0818 11:11:37.970373 15236 net.cpp:156] Memory required for data: 3727826240
I0818 11:11:37.970382 15236 layer_factory.hpp:77] Creating layer resx8_conv3_scale
I0818 11:11:37.970388 15236 net.cpp:91] Creating Layer resx8_conv3_scale
I0818 11:11:37.970392 15236 net.cpp:469] resx8_conv3_scale <- resx8_conv3
I0818 11:11:37.970396 15236 net.cpp:430] resx8_conv3_scale -> resx8_conv3 (in-place)
I0818 11:11:37.970438 15236 layer_factory.hpp:77] Creating layer resx8_conv3_scale
I0818 11:11:37.970543 15236 net.cpp:141] Setting up resx8_conv3_scale
I0818 11:11:37.970551 15236 net.cpp:148] Top shape: 80 480 14 14 (7526400)
I0818 11:11:37.970553 15236 net.cpp:156] Memory required for data: 3757931840
I0818 11:11:37.970558 15236 layer_factory.hpp:77] Creating layer resx8_elewise
I0818 11:11:37.970566 15236 net.cpp:91] Creating Layer resx8_elewise
I0818 11:11:37.970571 15236 net.cpp:469] resx8_elewise <- resx7_elewise_resx7_elewise_relu_0_split_1
I0818 11:11:37.970574 15236 net.cpp:469] resx8_elewise <- resx8_conv3
I0818 11:11:37.970578 15236 net.cpp:443] resx8_elewise -> resx8_elewise
I0818 11:11:37.970603 15236 net.cpp:141] Setting up resx8_elewise
I0818 11:11:37.970609 15236 net.cpp:148] Top shape: 80 480 14 14 (7526400)
I0818 11:11:37.970612 15236 net.cpp:156] Memory required for data: 3788037440
I0818 11:11:37.970615 15236 layer_factory.hpp:77] Creating layer resx8_elewise_relu
I0818 11:11:37.970620 15236 net.cpp:91] Creating Layer resx8_elewise_relu
I0818 11:11:37.970624 15236 net.cpp:469] resx8_elewise_relu <- resx8_elewise
I0818 11:11:37.970628 15236 net.cpp:430] resx8_elewise_relu -> resx8_elewise (in-place)
I0818 11:11:37.970929 15236 net.cpp:141] Setting up resx8_elewise_relu
I0818 11:11:37.970940 15236 net.cpp:148] Top shape: 80 480 14 14 (7526400)
I0818 11:11:37.970947 15236 net.cpp:156] Memory required for data: 3818143040
I0818 11:11:37.970957 15236 layer_factory.hpp:77] Creating layer resx8_elewise_resx8_elewise_relu_0_split
I0818 11:11:37.970963 15236 net.cpp:91] Creating Layer resx8_elewise_resx8_elewise_relu_0_split
I0818 11:11:37.970968 15236 net.cpp:469] resx8_elewise_resx8_elewise_relu_0_split <- resx8_elewise
I0818 11:11:37.970973 15236 net.cpp:443] resx8_elewise_resx8_elewise_relu_0_split -> resx8_elewise_resx8_elewise_relu_0_split_0
I0818 11:11:37.970979 15236 net.cpp:443] resx8_elewise_resx8_elewise_relu_0_split -> resx8_elewise_resx8_elewise_relu_0_split_1
I0818 11:11:37.971022 15236 net.cpp:141] Setting up resx8_elewise_resx8_elewise_relu_0_split
I0818 11:11:37.971029 15236 net.cpp:148] Top shape: 80 480 14 14 (7526400)
I0818 11:11:37.971032 15236 net.cpp:148] Top shape: 80 480 14 14 (7526400)
I0818 11:11:37.971035 15236 net.cpp:156] Memory required for data: 3878354240
I0818 11:11:37.971038 15236 layer_factory.hpp:77] Creating layer resx9_conv1
I0818 11:11:37.971048 15236 net.cpp:91] Creating Layer resx9_conv1
I0818 11:11:37.971052 15236 net.cpp:469] resx9_conv1 <- resx8_elewise_resx8_elewise_relu_0_split_0
I0818 11:11:37.971057 15236 net.cpp:443] resx9_conv1 -> resx9_conv1
I0818 11:11:37.973706 15236 net.cpp:141] Setting up resx9_conv1
I0818 11:11:37.973718 15236 net.cpp:148] Top shape: 80 120 14 14 (1881600)
I0818 11:11:37.973726 15236 net.cpp:156] Memory required for data: 3885880640
I0818 11:11:37.973731 15236 layer_factory.hpp:77] Creating layer resx9_conv1_bn
I0818 11:11:37.973739 15236 net.cpp:91] Creating Layer resx9_conv1_bn
I0818 11:11:37.973743 15236 net.cpp:469] resx9_conv1_bn <- resx9_conv1
I0818 11:11:37.973750 15236 net.cpp:430] resx9_conv1_bn -> resx9_conv1 (in-place)
I0818 11:11:37.973933 15236 net.cpp:141] Setting up resx9_conv1_bn
I0818 11:11:37.973940 15236 net.cpp:148] Top shape: 80 120 14 14 (1881600)
I0818 11:11:37.973943 15236 net.cpp:156] Memory required for data: 3893407040
I0818 11:11:37.973951 15236 layer_factory.hpp:77] Creating layer resx9_conv1_scale
I0818 11:11:37.973958 15236 net.cpp:91] Creating Layer resx9_conv1_scale
I0818 11:11:37.973961 15236 net.cpp:469] resx9_conv1_scale <- resx9_conv1
I0818 11:11:37.973968 15236 net.cpp:430] resx9_conv1_scale -> resx9_conv1 (in-place)
I0818 11:11:37.974004 15236 layer_factory.hpp:77] Creating layer resx9_conv1_scale
I0818 11:11:37.974110 15236 net.cpp:141] Setting up resx9_conv1_scale
I0818 11:11:37.974117 15236 net.cpp:148] Top shape: 80 120 14 14 (1881600)
I0818 11:11:37.974119 15236 net.cpp:156] Memory required for data: 3900933440
I0818 11:11:37.974124 15236 layer_factory.hpp:77] Creating layer resx9_conv1_relu
I0818 11:11:37.974130 15236 net.cpp:91] Creating Layer resx9_conv1_relu
I0818 11:11:37.974133 15236 net.cpp:469] resx9_conv1_relu <- resx9_conv1
I0818 11:11:37.974139 15236 net.cpp:430] resx9_conv1_relu -> resx9_conv1 (in-place)
I0818 11:11:37.974443 15236 net.cpp:141] Setting up resx9_conv1_relu
I0818 11:11:37.974455 15236 net.cpp:148] Top shape: 80 120 14 14 (1881600)
I0818 11:11:37.974458 15236 net.cpp:156] Memory required for data: 3908459840
I0818 11:11:37.974462 15236 layer_factory.hpp:77] Creating layer shuffle9
I0818 11:11:37.974467 15236 net.cpp:91] Creating Layer shuffle9
I0818 11:11:37.974472 15236 net.cpp:469] shuffle9 <- resx9_conv1
I0818 11:11:37.974478 15236 net.cpp:443] shuffle9 -> shuffle9
I0818 11:11:37.974514 15236 net.cpp:141] Setting up shuffle9
I0818 11:11:37.974521 15236 net.cpp:148] Top shape: 80 120 14 14 (1881600)
I0818 11:11:37.974525 15236 net.cpp:156] Memory required for data: 3915986240
I0818 11:11:37.974529 15236 layer_factory.hpp:77] Creating layer resx9_conv2
I0818 11:11:37.974536 15236 net.cpp:91] Creating Layer resx9_conv2
I0818 11:11:37.974539 15236 net.cpp:469] resx9_conv2 <- shuffle9
I0818 11:11:37.974546 15236 net.cpp:443] resx9_conv2 -> resx9_conv2
I0818 11:11:37.974678 15236 net.cpp:141] Setting up resx9_conv2
I0818 11:11:37.974687 15236 net.cpp:148] Top shape: 80 120 14 14 (1881600)
I0818 11:11:37.974690 15236 net.cpp:156] Memory required for data: 3923512640
I0818 11:11:37.974706 15236 layer_factory.hpp:77] Creating layer resx9_conv2_bn
I0818 11:11:37.974714 15236 net.cpp:91] Creating Layer resx9_conv2_bn
I0818 11:11:37.974719 15236 net.cpp:469] resx9_conv2_bn <- resx9_conv2
I0818 11:11:37.974725 15236 net.cpp:430] resx9_conv2_bn -> resx9_conv2 (in-place)
I0818 11:11:37.974895 15236 net.cpp:141] Setting up resx9_conv2_bn
I0818 11:11:37.974902 15236 net.cpp:148] Top shape: 80 120 14 14 (1881600)
I0818 11:11:37.974905 15236 net.cpp:156] Memory required for data: 3931039040
I0818 11:11:37.974911 15236 layer_factory.hpp:77] Creating layer resx9_conv2_scale
I0818 11:11:37.974918 15236 net.cpp:91] Creating Layer resx9_conv2_scale
I0818 11:11:37.974921 15236 net.cpp:469] resx9_conv2_scale <- resx9_conv2
I0818 11:11:37.974927 15236 net.cpp:430] resx9_conv2_scale -> resx9_conv2 (in-place)
I0818 11:11:37.974963 15236 layer_factory.hpp:77] Creating layer resx9_conv2_scale
I0818 11:11:37.975069 15236 net.cpp:141] Setting up resx9_conv2_scale
I0818 11:11:37.975075 15236 net.cpp:148] Top shape: 80 120 14 14 (1881600)
I0818 11:11:37.975078 15236 net.cpp:156] Memory required for data: 3938565440
I0818 11:11:37.975083 15236 layer_factory.hpp:77] Creating layer resx9_conv3
I0818 11:11:37.975108 15236 net.cpp:91] Creating Layer resx9_conv3
I0818 11:11:37.975113 15236 net.cpp:469] resx9_conv3 <- resx9_conv2
I0818 11:11:37.975118 15236 net.cpp:443] resx9_conv3 -> resx9_conv3
I0818 11:11:37.977816 15236 net.cpp:141] Setting up resx9_conv3
I0818 11:11:37.977830 15236 net.cpp:148] Top shape: 80 480 14 14 (7526400)
I0818 11:11:37.977834 15236 net.cpp:156] Memory required for data: 3968671040
I0818 11:11:37.977839 15236 layer_factory.hpp:77] Creating layer resx9_conv3_bn
I0818 11:11:37.977847 15236 net.cpp:91] Creating Layer resx9_conv3_bn
I0818 11:11:37.977851 15236 net.cpp:469] resx9_conv3_bn <- resx9_conv3
I0818 11:11:37.977856 15236 net.cpp:430] resx9_conv3_bn -> resx9_conv3 (in-place)
I0818 11:11:37.978045 15236 net.cpp:141] Setting up resx9_conv3_bn
I0818 11:11:37.978054 15236 net.cpp:148] Top shape: 80 480 14 14 (7526400)
I0818 11:11:37.978056 15236 net.cpp:156] Memory required for data: 3998776640
I0818 11:11:37.978063 15236 layer_factory.hpp:77] Creating layer resx9_conv3_scale
I0818 11:11:37.978070 15236 net.cpp:91] Creating Layer resx9_conv3_scale
I0818 11:11:37.978075 15236 net.cpp:469] resx9_conv3_scale <- resx9_conv3
I0818 11:11:37.978078 15236 net.cpp:430] resx9_conv3_scale -> resx9_conv3 (in-place)
I0818 11:11:37.978122 15236 layer_factory.hpp:77] Creating layer resx9_conv3_scale
I0818 11:11:37.978232 15236 net.cpp:141] Setting up resx9_conv3_scale
I0818 11:11:37.978240 15236 net.cpp:148] Top shape: 80 480 14 14 (7526400)
I0818 11:11:37.978242 15236 net.cpp:156] Memory required for data: 4028882240
I0818 11:11:37.978247 15236 layer_factory.hpp:77] Creating layer resx9_elewise
I0818 11:11:37.978255 15236 net.cpp:91] Creating Layer resx9_elewise
I0818 11:11:37.978258 15236 net.cpp:469] resx9_elewise <- resx8_elewise_resx8_elewise_relu_0_split_1
I0818 11:11:37.978261 15236 net.cpp:469] resx9_elewise <- resx9_conv3
I0818 11:11:37.978266 15236 net.cpp:443] resx9_elewise -> resx9_elewise
I0818 11:11:37.978291 15236 net.cpp:141] Setting up resx9_elewise
I0818 11:11:37.978297 15236 net.cpp:148] Top shape: 80 480 14 14 (7526400)
I0818 11:11:37.978301 15236 net.cpp:156] Memory required for data: 4058987840
I0818 11:11:37.978303 15236 layer_factory.hpp:77] Creating layer resx9_elewise_relu
I0818 11:11:37.978309 15236 net.cpp:91] Creating Layer resx9_elewise_relu
I0818 11:11:37.978313 15236 net.cpp:469] resx9_elewise_relu <- resx9_elewise
I0818 11:11:37.978317 15236 net.cpp:430] resx9_elewise_relu -> resx9_elewise (in-place)
I0818 11:11:37.978818 15236 net.cpp:141] Setting up resx9_elewise_relu
I0818 11:11:37.978829 15236 net.cpp:148] Top shape: 80 480 14 14 (7526400)
I0818 11:11:37.978833 15236 net.cpp:156] Memory required for data: 4089093440
I0818 11:11:37.978837 15236 layer_factory.hpp:77] Creating layer resx9_elewise_resx9_elewise_relu_0_split
I0818 11:11:37.978847 15236 net.cpp:91] Creating Layer resx9_elewise_resx9_elewise_relu_0_split
I0818 11:11:37.978857 15236 net.cpp:469] resx9_elewise_resx9_elewise_relu_0_split <- resx9_elewise
I0818 11:11:37.978863 15236 net.cpp:443] resx9_elewise_resx9_elewise_relu_0_split -> resx9_elewise_resx9_elewise_relu_0_split_0
I0818 11:11:37.978868 15236 net.cpp:443] resx9_elewise_resx9_elewise_relu_0_split -> resx9_elewise_resx9_elewise_relu_0_split_1
I0818 11:11:37.978912 15236 net.cpp:141] Setting up resx9_elewise_resx9_elewise_relu_0_split
I0818 11:11:37.978919 15236 net.cpp:148] Top shape: 80 480 14 14 (7526400)
I0818 11:11:37.978922 15236 net.cpp:148] Top shape: 80 480 14 14 (7526400)
I0818 11:11:37.978925 15236 net.cpp:156] Memory required for data: 4149304640
I0818 11:11:37.978929 15236 layer_factory.hpp:77] Creating layer resx10_conv1
I0818 11:11:37.978937 15236 net.cpp:91] Creating Layer resx10_conv1
I0818 11:11:37.978942 15236 net.cpp:469] resx10_conv1 <- resx9_elewise_resx9_elewise_relu_0_split_0
I0818 11:11:37.978948 15236 net.cpp:443] resx10_conv1 -> resx10_conv1
I0818 11:11:37.981815 15236 net.cpp:141] Setting up resx10_conv1
I0818 11:11:37.981828 15236 net.cpp:148] Top shape: 80 120 14 14 (1881600)
I0818 11:11:37.981832 15236 net.cpp:156] Memory required for data: 4156831040
I0818 11:11:37.981837 15236 layer_factory.hpp:77] Creating layer resx10_conv1_bn
I0818 11:11:37.981847 15236 net.cpp:91] Creating Layer resx10_conv1_bn
I0818 11:11:37.981850 15236 net.cpp:469] resx10_conv1_bn <- resx10_conv1
I0818 11:11:37.981855 15236 net.cpp:430] resx10_conv1_bn -> resx10_conv1 (in-place)
I0818 11:11:37.982038 15236 net.cpp:141] Setting up resx10_conv1_bn
I0818 11:11:37.982045 15236 net.cpp:148] Top shape: 80 120 14 14 (1881600)
I0818 11:11:37.982048 15236 net.cpp:156] Memory required for data: 4164357440
I0818 11:11:37.982055 15236 layer_factory.hpp:77] Creating layer resx10_conv1_scale
I0818 11:11:37.982061 15236 net.cpp:91] Creating Layer resx10_conv1_scale
I0818 11:11:37.982064 15236 net.cpp:469] resx10_conv1_scale <- resx10_conv1
I0818 11:11:37.982069 15236 net.cpp:430] resx10_conv1_scale -> resx10_conv1 (in-place)
I0818 11:11:37.982110 15236 layer_factory.hpp:77] Creating layer resx10_conv1_scale
I0818 11:11:37.982218 15236 net.cpp:141] Setting up resx10_conv1_scale
I0818 11:11:37.982228 15236 net.cpp:148] Top shape: 80 120 14 14 (1881600)
I0818 11:11:37.982230 15236 net.cpp:156] Memory required for data: 4171883840
I0818 11:11:37.982235 15236 layer_factory.hpp:77] Creating layer resx10_conv1_relu
I0818 11:11:37.982240 15236 net.cpp:91] Creating Layer resx10_conv1_relu
I0818 11:11:37.982244 15236 net.cpp:469] resx10_conv1_relu <- resx10_conv1
I0818 11:11:37.982249 15236 net.cpp:430] resx10_conv1_relu -> resx10_conv1 (in-place)
I0818 11:11:37.982555 15236 net.cpp:141] Setting up resx10_conv1_relu
I0818 11:11:37.982566 15236 net.cpp:148] Top shape: 80 120 14 14 (1881600)
I0818 11:11:37.982569 15236 net.cpp:156] Memory required for data: 4179410240
I0818 11:11:37.982574 15236 layer_factory.hpp:77] Creating layer shuffle10
I0818 11:11:37.982583 15236 net.cpp:91] Creating Layer shuffle10
I0818 11:11:37.982586 15236 net.cpp:469] shuffle10 <- resx10_conv1
I0818 11:11:37.982591 15236 net.cpp:443] shuffle10 -> shuffle10
I0818 11:11:37.982623 15236 net.cpp:141] Setting up shuffle10
I0818 11:11:37.982630 15236 net.cpp:148] Top shape: 80 120 14 14 (1881600)
I0818 11:11:37.982632 15236 net.cpp:156] Memory required for data: 4186936640
I0818 11:11:37.982636 15236 layer_factory.hpp:77] Creating layer resx10_conv2
I0818 11:11:37.982646 15236 net.cpp:91] Creating Layer resx10_conv2
I0818 11:11:37.982650 15236 net.cpp:469] resx10_conv2 <- shuffle10
I0818 11:11:37.982656 15236 net.cpp:443] resx10_conv2 -> resx10_conv2
I0818 11:11:37.982787 15236 net.cpp:141] Setting up resx10_conv2
I0818 11:11:37.982796 15236 net.cpp:148] Top shape: 80 120 14 14 (1881600)
I0818 11:11:37.982800 15236 net.cpp:156] Memory required for data: 4194463040
I0818 11:11:37.982805 15236 layer_factory.hpp:77] Creating layer resx10_conv2_bn
I0818 11:11:37.982812 15236 net.cpp:91] Creating Layer resx10_conv2_bn
I0818 11:11:37.982825 15236 net.cpp:469] resx10_conv2_bn <- resx10_conv2
I0818 11:11:37.982830 15236 net.cpp:430] resx10_conv2_bn -> resx10_conv2 (in-place)
I0818 11:11:37.983008 15236 net.cpp:141] Setting up resx10_conv2_bn
I0818 11:11:37.983016 15236 net.cpp:148] Top shape: 80 120 14 14 (1881600)
I0818 11:11:37.983018 15236 net.cpp:156] Memory required for data: 4201989440
I0818 11:11:37.983026 15236 layer_factory.hpp:77] Creating layer resx10_conv2_scale
I0818 11:11:37.983033 15236 net.cpp:91] Creating Layer resx10_conv2_scale
I0818 11:11:37.983037 15236 net.cpp:469] resx10_conv2_scale <- resx10_conv2
I0818 11:11:37.983042 15236 net.cpp:430] resx10_conv2_scale -> resx10_conv2 (in-place)
I0818 11:11:37.983080 15236 layer_factory.hpp:77] Creating layer resx10_conv2_scale
I0818 11:11:37.983188 15236 net.cpp:141] Setting up resx10_conv2_scale
I0818 11:11:37.983196 15236 net.cpp:148] Top shape: 80 120 14 14 (1881600)
I0818 11:11:37.983198 15236 net.cpp:156] Memory required for data: 4209515840
I0818 11:11:37.983204 15236 layer_factory.hpp:77] Creating layer resx10_conv3
I0818 11:11:37.983214 15236 net.cpp:91] Creating Layer resx10_conv3
I0818 11:11:37.983218 15236 net.cpp:469] resx10_conv3 <- resx10_conv2
I0818 11:11:37.983223 15236 net.cpp:443] resx10_conv3 -> resx10_conv3
I0818 11:11:37.985908 15236 net.cpp:141] Setting up resx10_conv3
I0818 11:11:37.985920 15236 net.cpp:148] Top shape: 80 480 14 14 (7526400)
I0818 11:11:37.985924 15236 net.cpp:156] Memory required for data: 4239621440
I0818 11:11:37.985929 15236 layer_factory.hpp:77] Creating layer resx10_conv3_bn
I0818 11:11:37.985936 15236 net.cpp:91] Creating Layer resx10_conv3_bn
I0818 11:11:37.985941 15236 net.cpp:469] resx10_conv3_bn <- resx10_conv3
I0818 11:11:37.985947 15236 net.cpp:430] resx10_conv3_bn -> resx10_conv3 (in-place)
I0818 11:11:37.986140 15236 net.cpp:141] Setting up resx10_conv3_bn
I0818 11:11:37.986147 15236 net.cpp:148] Top shape: 80 480 14 14 (7526400)
I0818 11:11:37.986150 15236 net.cpp:156] Memory required for data: 4269727040
I0818 11:11:37.986157 15236 layer_factory.hpp:77] Creating layer resx10_conv3_scale
I0818 11:11:37.986166 15236 net.cpp:91] Creating Layer resx10_conv3_scale
I0818 11:11:37.986169 15236 net.cpp:469] resx10_conv3_scale <- resx10_conv3
I0818 11:11:37.986173 15236 net.cpp:430] resx10_conv3_scale -> resx10_conv3 (in-place)
I0818 11:11:37.986215 15236 layer_factory.hpp:77] Creating layer resx10_conv3_scale
I0818 11:11:37.986330 15236 net.cpp:141] Setting up resx10_conv3_scale
I0818 11:11:37.986337 15236 net.cpp:148] Top shape: 80 480 14 14 (7526400)
I0818 11:11:37.986340 15236 net.cpp:156] Memory required for data: 4299832640
I0818 11:11:37.986346 15236 layer_factory.hpp:77] Creating layer resx10_elewise
I0818 11:11:37.986351 15236 net.cpp:91] Creating Layer resx10_elewise
I0818 11:11:37.986356 15236 net.cpp:469] resx10_elewise <- resx9_elewise_resx9_elewise_relu_0_split_1
I0818 11:11:37.986359 15236 net.cpp:469] resx10_elewise <- resx10_conv3
I0818 11:11:37.986366 15236 net.cpp:443] resx10_elewise -> resx10_elewise
I0818 11:11:37.986389 15236 net.cpp:141] Setting up resx10_elewise
I0818 11:11:37.986395 15236 net.cpp:148] Top shape: 80 480 14 14 (7526400)
I0818 11:11:37.986398 15236 net.cpp:156] Memory required for data: 4329938240
I0818 11:11:37.986402 15236 layer_factory.hpp:77] Creating layer resx10_elewise_relu
I0818 11:11:37.986409 15236 net.cpp:91] Creating Layer resx10_elewise_relu
I0818 11:11:37.986413 15236 net.cpp:469] resx10_elewise_relu <- resx10_elewise
I0818 11:11:37.986416 15236 net.cpp:430] resx10_elewise_relu -> resx10_elewise (in-place)
I0818 11:11:37.986723 15236 net.cpp:141] Setting up resx10_elewise_relu
I0818 11:11:37.986737 15236 net.cpp:148] Top shape: 80 480 14 14 (7526400)
I0818 11:11:37.986739 15236 net.cpp:156] Memory required for data: 4360043840
I0818 11:11:37.986743 15236 layer_factory.hpp:77] Creating layer resx10_elewise_resx10_elewise_relu_0_split
I0818 11:11:37.986749 15236 net.cpp:91] Creating Layer resx10_elewise_resx10_elewise_relu_0_split
I0818 11:11:37.986757 15236 net.cpp:469] resx10_elewise_resx10_elewise_relu_0_split <- resx10_elewise
I0818 11:11:37.986766 15236 net.cpp:443] resx10_elewise_resx10_elewise_relu_0_split -> resx10_elewise_resx10_elewise_relu_0_split_0
I0818 11:11:37.986773 15236 net.cpp:443] resx10_elewise_resx10_elewise_relu_0_split -> resx10_elewise_resx10_elewise_relu_0_split_1
I0818 11:11:37.986816 15236 net.cpp:141] Setting up resx10_elewise_resx10_elewise_relu_0_split
I0818 11:11:37.986824 15236 net.cpp:148] Top shape: 80 480 14 14 (7526400)
I0818 11:11:37.986827 15236 net.cpp:148] Top shape: 80 480 14 14 (7526400)
I0818 11:11:37.986829 15236 net.cpp:156] Memory required for data: 4420255040
I0818 11:11:37.986834 15236 layer_factory.hpp:77] Creating layer resx11_conv1
I0818 11:11:37.986842 15236 net.cpp:91] Creating Layer resx11_conv1
I0818 11:11:37.986847 15236 net.cpp:469] resx11_conv1 <- resx10_elewise_resx10_elewise_relu_0_split_0
I0818 11:11:37.986853 15236 net.cpp:443] resx11_conv1 -> resx11_conv1
I0818 11:11:37.989543 15236 net.cpp:141] Setting up resx11_conv1
I0818 11:11:37.989557 15236 net.cpp:148] Top shape: 80 120 14 14 (1881600)
I0818 11:11:37.989562 15236 net.cpp:156] Memory required for data: 4427781440
I0818 11:11:37.989567 15236 layer_factory.hpp:77] Creating layer resx11_conv1_bn
I0818 11:11:37.989575 15236 net.cpp:91] Creating Layer resx11_conv1_bn
I0818 11:11:37.989580 15236 net.cpp:469] resx11_conv1_bn <- resx11_conv1
I0818 11:11:37.989584 15236 net.cpp:430] resx11_conv1_bn -> resx11_conv1 (in-place)
I0818 11:11:37.989775 15236 net.cpp:141] Setting up resx11_conv1_bn
I0818 11:11:37.989784 15236 net.cpp:148] Top shape: 80 120 14 14 (1881600)
I0818 11:11:37.989786 15236 net.cpp:156] Memory required for data: 4435307840
I0818 11:11:37.989794 15236 layer_factory.hpp:77] Creating layer resx11_conv1_scale
I0818 11:11:37.989800 15236 net.cpp:91] Creating Layer resx11_conv1_scale
I0818 11:11:37.989804 15236 net.cpp:469] resx11_conv1_scale <- resx11_conv1
I0818 11:11:37.989809 15236 net.cpp:430] resx11_conv1_scale -> resx11_conv1 (in-place)
I0818 11:11:37.989851 15236 layer_factory.hpp:77] Creating layer resx11_conv1_scale
I0818 11:11:37.989961 15236 net.cpp:141] Setting up resx11_conv1_scale
I0818 11:11:37.989969 15236 net.cpp:148] Top shape: 80 120 14 14 (1881600)
I0818 11:11:37.989971 15236 net.cpp:156] Memory required for data: 4442834240
I0818 11:11:37.989977 15236 layer_factory.hpp:77] Creating layer resx11_conv1_relu
I0818 11:11:37.989984 15236 net.cpp:91] Creating Layer resx11_conv1_relu
I0818 11:11:37.989987 15236 net.cpp:469] resx11_conv1_relu <- resx11_conv1
I0818 11:11:37.989992 15236 net.cpp:430] resx11_conv1_relu -> resx11_conv1 (in-place)
I0818 11:11:37.990461 15236 net.cpp:141] Setting up resx11_conv1_relu
I0818 11:11:37.990473 15236 net.cpp:148] Top shape: 80 120 14 14 (1881600)
I0818 11:11:37.990476 15236 net.cpp:156] Memory required for data: 4450360640
I0818 11:11:37.990480 15236 layer_factory.hpp:77] Creating layer shuffle11
I0818 11:11:37.990487 15236 net.cpp:91] Creating Layer shuffle11
I0818 11:11:37.990491 15236 net.cpp:469] shuffle11 <- resx11_conv1
I0818 11:11:37.990496 15236 net.cpp:443] shuffle11 -> shuffle11
I0818 11:11:37.990530 15236 net.cpp:141] Setting up shuffle11
I0818 11:11:37.990535 15236 net.cpp:148] Top shape: 80 120 14 14 (1881600)
I0818 11:11:37.990538 15236 net.cpp:156] Memory required for data: 4457887040
I0818 11:11:37.990542 15236 layer_factory.hpp:77] Creating layer resx11_conv2
I0818 11:11:37.990551 15236 net.cpp:91] Creating Layer resx11_conv2
I0818 11:11:37.990556 15236 net.cpp:469] resx11_conv2 <- shuffle11
I0818 11:11:37.990559 15236 net.cpp:443] resx11_conv2 -> resx11_conv2
I0818 11:11:37.990694 15236 net.cpp:141] Setting up resx11_conv2
I0818 11:11:37.990703 15236 net.cpp:148] Top shape: 80 120 14 14 (1881600)
I0818 11:11:37.990706 15236 net.cpp:156] Memory required for data: 4465413440
I0818 11:11:37.990711 15236 layer_factory.hpp:77] Creating layer resx11_conv2_bn
I0818 11:11:37.990720 15236 net.cpp:91] Creating Layer resx11_conv2_bn
I0818 11:11:37.990723 15236 net.cpp:469] resx11_conv2_bn <- resx11_conv2
I0818 11:11:37.990736 15236 net.cpp:430] resx11_conv2_bn -> resx11_conv2 (in-place)
I0818 11:11:37.990926 15236 net.cpp:141] Setting up resx11_conv2_bn
I0818 11:11:37.990932 15236 net.cpp:148] Top shape: 80 120 14 14 (1881600)
I0818 11:11:37.990936 15236 net.cpp:156] Memory required for data: 4472939840
I0818 11:11:37.990942 15236 layer_factory.hpp:77] Creating layer resx11_conv2_scale
I0818 11:11:37.990949 15236 net.cpp:91] Creating Layer resx11_conv2_scale
I0818 11:11:37.990953 15236 net.cpp:469] resx11_conv2_scale <- resx11_conv2
I0818 11:11:37.990957 15236 net.cpp:430] resx11_conv2_scale -> resx11_conv2 (in-place)
I0818 11:11:37.991000 15236 layer_factory.hpp:77] Creating layer resx11_conv2_scale
I0818 11:11:37.991112 15236 net.cpp:141] Setting up resx11_conv2_scale
I0818 11:11:37.991120 15236 net.cpp:148] Top shape: 80 120 14 14 (1881600)
I0818 11:11:37.991124 15236 net.cpp:156] Memory required for data: 4480466240
I0818 11:11:37.991129 15236 layer_factory.hpp:77] Creating layer resx11_conv3
I0818 11:11:37.991137 15236 net.cpp:91] Creating Layer resx11_conv3
I0818 11:11:37.991139 15236 net.cpp:469] resx11_conv3 <- resx11_conv2
I0818 11:11:37.991148 15236 net.cpp:443] resx11_conv3 -> resx11_conv3
I0818 11:11:37.993860 15236 net.cpp:141] Setting up resx11_conv3
I0818 11:11:37.993873 15236 net.cpp:148] Top shape: 80 480 14 14 (7526400)
I0818 11:11:37.993877 15236 net.cpp:156] Memory required for data: 4510571840
I0818 11:11:37.993882 15236 layer_factory.hpp:77] Creating layer resx11_conv3_bn
I0818 11:11:37.993891 15236 net.cpp:91] Creating Layer resx11_conv3_bn
I0818 11:11:37.993896 15236 net.cpp:469] resx11_conv3_bn <- resx11_conv3
I0818 11:11:37.993901 15236 net.cpp:430] resx11_conv3_bn -> resx11_conv3 (in-place)
I0818 11:11:37.994098 15236 net.cpp:141] Setting up resx11_conv3_bn
I0818 11:11:37.994107 15236 net.cpp:148] Top shape: 80 480 14 14 (7526400)
I0818 11:11:37.994109 15236 net.cpp:156] Memory required for data: 4540677440
I0818 11:11:37.994115 15236 layer_factory.hpp:77] Creating layer resx11_conv3_scale
I0818 11:11:37.994122 15236 net.cpp:91] Creating Layer resx11_conv3_scale
I0818 11:11:37.994127 15236 net.cpp:469] resx11_conv3_scale <- resx11_conv3
I0818 11:11:37.994130 15236 net.cpp:430] resx11_conv3_scale -> resx11_conv3 (in-place)
I0818 11:11:37.994177 15236 layer_factory.hpp:77] Creating layer resx11_conv3_scale
I0818 11:11:37.994294 15236 net.cpp:141] Setting up resx11_conv3_scale
I0818 11:11:37.994302 15236 net.cpp:148] Top shape: 80 480 14 14 (7526400)
I0818 11:11:37.994305 15236 net.cpp:156] Memory required for data: 4570783040
I0818 11:11:37.994310 15236 layer_factory.hpp:77] Creating layer resx11_elewise
I0818 11:11:37.994316 15236 net.cpp:91] Creating Layer resx11_elewise
I0818 11:11:37.994319 15236 net.cpp:469] resx11_elewise <- resx10_elewise_resx10_elewise_relu_0_split_1
I0818 11:11:37.994323 15236 net.cpp:469] resx11_elewise <- resx11_conv3
I0818 11:11:37.994328 15236 net.cpp:443] resx11_elewise -> resx11_elewise
I0818 11:11:37.994354 15236 net.cpp:141] Setting up resx11_elewise
I0818 11:11:37.994360 15236 net.cpp:148] Top shape: 80 480 14 14 (7526400)
I0818 11:11:37.994364 15236 net.cpp:156] Memory required for data: 4600888640
I0818 11:11:37.994366 15236 layer_factory.hpp:77] Creating layer resx11_elewise_relu
I0818 11:11:37.994374 15236 net.cpp:91] Creating Layer resx11_elewise_relu
I0818 11:11:37.994377 15236 net.cpp:469] resx11_elewise_relu <- resx11_elewise
I0818 11:11:37.994381 15236 net.cpp:430] resx11_elewise_relu -> resx11_elewise (in-place)
I0818 11:11:37.994691 15236 net.cpp:141] Setting up resx11_elewise_relu
I0818 11:11:37.994704 15236 net.cpp:148] Top shape: 80 480 14 14 (7526400)
I0818 11:11:37.994706 15236 net.cpp:156] Memory required for data: 4630994240
I0818 11:11:37.994711 15236 layer_factory.hpp:77] Creating layer resx11_elewise_resx11_elewise_relu_0_split
I0818 11:11:37.994719 15236 net.cpp:91] Creating Layer resx11_elewise_resx11_elewise_relu_0_split
I0818 11:11:37.994722 15236 net.cpp:469] resx11_elewise_resx11_elewise_relu_0_split <- resx11_elewise
I0818 11:11:37.994731 15236 net.cpp:443] resx11_elewise_resx11_elewise_relu_0_split -> resx11_elewise_resx11_elewise_relu_0_split_0
I0818 11:11:37.994742 15236 net.cpp:443] resx11_elewise_resx11_elewise_relu_0_split -> resx11_elewise_resx11_elewise_relu_0_split_1
I0818 11:11:37.994787 15236 net.cpp:141] Setting up resx11_elewise_resx11_elewise_relu_0_split
I0818 11:11:37.994793 15236 net.cpp:148] Top shape: 80 480 14 14 (7526400)
I0818 11:11:37.994797 15236 net.cpp:148] Top shape: 80 480 14 14 (7526400)
I0818 11:11:37.994801 15236 net.cpp:156] Memory required for data: 4691205440
I0818 11:11:37.994803 15236 layer_factory.hpp:77] Creating layer resx12_conv1
I0818 11:11:37.994812 15236 net.cpp:91] Creating Layer resx12_conv1
I0818 11:11:37.994817 15236 net.cpp:469] resx12_conv1 <- resx11_elewise_resx11_elewise_relu_0_split_0
I0818 11:11:37.994822 15236 net.cpp:443] resx12_conv1 -> resx12_conv1
I0818 11:11:37.997531 15236 net.cpp:141] Setting up resx12_conv1
I0818 11:11:37.997545 15236 net.cpp:148] Top shape: 80 120 14 14 (1881600)
I0818 11:11:37.997548 15236 net.cpp:156] Memory required for data: 4698731840
I0818 11:11:37.997553 15236 layer_factory.hpp:77] Creating layer resx12_conv1_bn
I0818 11:11:37.997562 15236 net.cpp:91] Creating Layer resx12_conv1_bn
I0818 11:11:37.997566 15236 net.cpp:469] resx12_conv1_bn <- resx12_conv1
I0818 11:11:37.997571 15236 net.cpp:430] resx12_conv1_bn -> resx12_conv1 (in-place)
I0818 11:11:37.997766 15236 net.cpp:141] Setting up resx12_conv1_bn
I0818 11:11:37.997772 15236 net.cpp:148] Top shape: 80 120 14 14 (1881600)
I0818 11:11:37.997776 15236 net.cpp:156] Memory required for data: 4706258240
I0818 11:11:37.997782 15236 layer_factory.hpp:77] Creating layer resx12_conv1_scale
I0818 11:11:37.997792 15236 net.cpp:91] Creating Layer resx12_conv1_scale
I0818 11:11:37.997794 15236 net.cpp:469] resx12_conv1_scale <- resx12_conv1
I0818 11:11:37.997799 15236 net.cpp:430] resx12_conv1_scale -> resx12_conv1 (in-place)
I0818 11:11:37.997841 15236 layer_factory.hpp:77] Creating layer resx12_conv1_scale
I0818 11:11:37.997961 15236 net.cpp:141] Setting up resx12_conv1_scale
I0818 11:11:37.997967 15236 net.cpp:148] Top shape: 80 120 14 14 (1881600)
I0818 11:11:37.997970 15236 net.cpp:156] Memory required for data: 4713784640
I0818 11:11:37.997977 15236 layer_factory.hpp:77] Creating layer resx12_conv1_relu
I0818 11:11:37.997984 15236 net.cpp:91] Creating Layer resx12_conv1_relu
I0818 11:11:37.997987 15236 net.cpp:469] resx12_conv1_relu <- resx12_conv1
I0818 11:11:37.997992 15236 net.cpp:430] resx12_conv1_relu -> resx12_conv1 (in-place)
I0818 11:11:37.998363 15236 net.cpp:141] Setting up resx12_conv1_relu
I0818 11:11:37.998374 15236 net.cpp:148] Top shape: 80 120 14 14 (1881600)
I0818 11:11:37.998378 15236 net.cpp:156] Memory required for data: 4721311040
I0818 11:11:37.998383 15236 layer_factory.hpp:77] Creating layer shuffle12
I0818 11:11:37.998389 15236 net.cpp:91] Creating Layer shuffle12
I0818 11:11:37.998391 15236 net.cpp:469] shuffle12 <- resx12_conv1
I0818 11:11:37.998397 15236 net.cpp:443] shuffle12 -> shuffle12
I0818 11:11:37.998427 15236 net.cpp:141] Setting up shuffle12
I0818 11:11:37.998433 15236 net.cpp:148] Top shape: 80 120 14 14 (1881600)
I0818 11:11:37.998436 15236 net.cpp:156] Memory required for data: 4728837440
I0818 11:11:37.998440 15236 layer_factory.hpp:77] Creating layer resx12_conv2
I0818 11:11:37.998446 15236 net.cpp:91] Creating Layer resx12_conv2
I0818 11:11:37.998450 15236 net.cpp:469] resx12_conv2 <- shuffle12
I0818 11:11:37.998456 15236 net.cpp:443] resx12_conv2 -> resx12_conv2
I0818 11:11:37.998586 15236 net.cpp:141] Setting up resx12_conv2
I0818 11:11:37.998595 15236 net.cpp:148] Top shape: 80 120 14 14 (1881600)
I0818 11:11:37.998598 15236 net.cpp:156] Memory required for data: 4736363840
I0818 11:11:37.998603 15236 layer_factory.hpp:77] Creating layer resx12_conv2_bn
I0818 11:11:37.998612 15236 net.cpp:91] Creating Layer resx12_conv2_bn
I0818 11:11:37.998616 15236 net.cpp:469] resx12_conv2_bn <- resx12_conv2
I0818 11:11:37.998621 15236 net.cpp:430] resx12_conv2_bn -> resx12_conv2 (in-place)
I0818 11:11:37.998813 15236 net.cpp:141] Setting up resx12_conv2_bn
I0818 11:11:37.998821 15236 net.cpp:148] Top shape: 80 120 14 14 (1881600)
I0818 11:11:37.998824 15236 net.cpp:156] Memory required for data: 4743890240
I0818 11:11:37.998831 15236 layer_factory.hpp:77] Creating layer resx12_conv2_scale
I0818 11:11:37.998839 15236 net.cpp:91] Creating Layer resx12_conv2_scale
I0818 11:11:37.998843 15236 net.cpp:469] resx12_conv2_scale <- resx12_conv2
I0818 11:11:37.998847 15236 net.cpp:430] resx12_conv2_scale -> resx12_conv2 (in-place)
I0818 11:11:37.998890 15236 layer_factory.hpp:77] Creating layer resx12_conv2_scale
I0818 11:11:37.999007 15236 net.cpp:141] Setting up resx12_conv2_scale
I0818 11:11:37.999014 15236 net.cpp:148] Top shape: 80 120 14 14 (1881600)
I0818 11:11:37.999017 15236 net.cpp:156] Memory required for data: 4751416640
I0818 11:11:37.999022 15236 layer_factory.hpp:77] Creating layer resx12_conv3
I0818 11:11:37.999029 15236 net.cpp:91] Creating Layer resx12_conv3
I0818 11:11:37.999033 15236 net.cpp:469] resx12_conv3 <- resx12_conv2
I0818 11:11:37.999039 15236 net.cpp:443] resx12_conv3 -> resx12_conv3
I0818 11:11:38.002821 15236 net.cpp:141] Setting up resx12_conv3
I0818 11:11:38.002846 15236 net.cpp:148] Top shape: 80 480 14 14 (7526400)
I0818 11:11:38.002851 15236 net.cpp:156] Memory required for data: 4781522240
I0818 11:11:38.002856 15236 layer_factory.hpp:77] Creating layer resx12_conv3_bn
I0818 11:11:38.002871 15236 net.cpp:91] Creating Layer resx12_conv3_bn
I0818 11:11:38.002876 15236 net.cpp:469] resx12_conv3_bn <- resx12_conv3
I0818 11:11:38.002883 15236 net.cpp:430] resx12_conv3_bn -> resx12_conv3 (in-place)
I0818 11:11:38.003116 15236 net.cpp:141] Setting up resx12_conv3_bn
I0818 11:11:38.003124 15236 net.cpp:148] Top shape: 80 480 14 14 (7526400)
I0818 11:11:38.003129 15236 net.cpp:156] Memory required for data: 4811627840
I0818 11:11:38.003135 15236 layer_factory.hpp:77] Creating layer resx12_conv3_scale
I0818 11:11:38.003144 15236 net.cpp:91] Creating Layer resx12_conv3_scale
I0818 11:11:38.003149 15236 net.cpp:469] resx12_conv3_scale <- resx12_conv3
I0818 11:11:38.003155 15236 net.cpp:430] resx12_conv3_scale -> resx12_conv3 (in-place)
I0818 11:11:38.003202 15236 layer_factory.hpp:77] Creating layer resx12_conv3_scale
I0818 11:11:38.003337 15236 net.cpp:141] Setting up resx12_conv3_scale
I0818 11:11:38.003345 15236 net.cpp:148] Top shape: 80 480 14 14 (7526400)
I0818 11:11:38.003347 15236 net.cpp:156] Memory required for data: 4841733440
I0818 11:11:38.003355 15236 layer_factory.hpp:77] Creating layer resx12_elewise
I0818 11:11:38.003360 15236 net.cpp:91] Creating Layer resx12_elewise
I0818 11:11:38.003365 15236 net.cpp:469] resx12_elewise <- resx11_elewise_resx11_elewise_relu_0_split_1
I0818 11:11:38.003368 15236 net.cpp:469] resx12_elewise <- resx12_conv3
I0818 11:11:38.003376 15236 net.cpp:443] resx12_elewise -> resx12_elewise
I0818 11:11:38.003401 15236 net.cpp:141] Setting up resx12_elewise
I0818 11:11:38.003409 15236 net.cpp:148] Top shape: 80 480 14 14 (7526400)
I0818 11:11:38.003412 15236 net.cpp:156] Memory required for data: 4871839040
I0818 11:11:38.003417 15236 layer_factory.hpp:77] Creating layer resx12_elewise_relu
I0818 11:11:38.003422 15236 net.cpp:91] Creating Layer resx12_elewise_relu
I0818 11:11:38.003425 15236 net.cpp:469] resx12_elewise_relu <- resx12_elewise
I0818 11:11:38.003429 15236 net.cpp:430] resx12_elewise_relu -> resx12_elewise (in-place)
I0818 11:11:38.003582 15236 net.cpp:141] Setting up resx12_elewise_relu
I0818 11:11:38.003590 15236 net.cpp:148] Top shape: 80 480 14 14 (7526400)
I0818 11:11:38.003594 15236 net.cpp:156] Memory required for data: 4901944640
I0818 11:11:38.003597 15236 layer_factory.hpp:77] Creating layer resx12_elewise_resx12_elewise_relu_0_split
I0818 11:11:38.003603 15236 net.cpp:91] Creating Layer resx12_elewise_resx12_elewise_relu_0_split
I0818 11:11:38.003607 15236 net.cpp:469] resx12_elewise_resx12_elewise_relu_0_split <- resx12_elewise
I0818 11:11:38.003612 15236 net.cpp:443] resx12_elewise_resx12_elewise_relu_0_split -> resx12_elewise_resx12_elewise_relu_0_split_0
I0818 11:11:38.003631 15236 net.cpp:443] resx12_elewise_resx12_elewise_relu_0_split -> resx12_elewise_resx12_elewise_relu_0_split_1
I0818 11:11:38.003676 15236 net.cpp:141] Setting up resx12_elewise_resx12_elewise_relu_0_split
I0818 11:11:38.003682 15236 net.cpp:148] Top shape: 80 480 14 14 (7526400)
I0818 11:11:38.003686 15236 net.cpp:148] Top shape: 80 480 14 14 (7526400)
I0818 11:11:38.003690 15236 net.cpp:156] Memory required for data: 4962155840
I0818 11:11:38.003692 15236 layer_factory.hpp:77] Creating layer resx13_match_conv
I0818 11:11:38.003701 15236 net.cpp:91] Creating Layer resx13_match_conv
I0818 11:11:38.003706 15236 net.cpp:469] resx13_match_conv <- resx12_elewise_resx12_elewise_relu_0_split_0
I0818 11:11:38.003710 15236 net.cpp:443] resx13_match_conv -> resx13_match_conv
I0818 11:11:38.004053 15236 net.cpp:141] Setting up resx13_match_conv
I0818 11:11:38.004065 15236 net.cpp:148] Top shape: 80 480 7 7 (1881600)
I0818 11:11:38.004068 15236 net.cpp:156] Memory required for data: 4969682240
I0818 11:11:38.004072 15236 layer_factory.hpp:77] Creating layer resx13_conv1
I0818 11:11:38.004084 15236 net.cpp:91] Creating Layer resx13_conv1
I0818 11:11:38.004089 15236 net.cpp:469] resx13_conv1 <- resx12_elewise_resx12_elewise_relu_0_split_1
I0818 11:11:38.004094 15236 net.cpp:443] resx13_conv1 -> resx13_conv1
I0818 11:11:38.006870 15236 net.cpp:141] Setting up resx13_conv1
I0818 11:11:38.006884 15236 net.cpp:148] Top shape: 80 120 14 14 (1881600)
I0818 11:11:38.006888 15236 net.cpp:156] Memory required for data: 4977208640
I0818 11:11:38.006893 15236 layer_factory.hpp:77] Creating layer resx13_conv1_bn
I0818 11:11:38.006901 15236 net.cpp:91] Creating Layer resx13_conv1_bn
I0818 11:11:38.006904 15236 net.cpp:469] resx13_conv1_bn <- resx13_conv1
I0818 11:11:38.006911 15236 net.cpp:430] resx13_conv1_bn -> resx13_conv1 (in-place)
I0818 11:11:38.007122 15236 net.cpp:141] Setting up resx13_conv1_bn
I0818 11:11:38.007128 15236 net.cpp:148] Top shape: 80 120 14 14 (1881600)
I0818 11:11:38.007131 15236 net.cpp:156] Memory required for data: 4984735040
I0818 11:11:38.007138 15236 layer_factory.hpp:77] Creating layer resx13_conv1_scale
I0818 11:11:38.007146 15236 net.cpp:91] Creating Layer resx13_conv1_scale
I0818 11:11:38.007150 15236 net.cpp:469] resx13_conv1_scale <- resx13_conv1
I0818 11:11:38.007156 15236 net.cpp:430] resx13_conv1_scale -> resx13_conv1 (in-place)
I0818 11:11:38.007197 15236 layer_factory.hpp:77] Creating layer resx13_conv1_scale
I0818 11:11:38.007319 15236 net.cpp:141] Setting up resx13_conv1_scale
I0818 11:11:38.007326 15236 net.cpp:148] Top shape: 80 120 14 14 (1881600)
I0818 11:11:38.007329 15236 net.cpp:156] Memory required for data: 4992261440
I0818 11:11:38.007334 15236 layer_factory.hpp:77] Creating layer resx13_conv1_relu
I0818 11:11:38.007340 15236 net.cpp:91] Creating Layer resx13_conv1_relu
I0818 11:11:38.007344 15236 net.cpp:469] resx13_conv1_relu <- resx13_conv1
I0818 11:11:38.007349 15236 net.cpp:430] resx13_conv1_relu -> resx13_conv1 (in-place)
I0818 11:11:38.007669 15236 net.cpp:141] Setting up resx13_conv1_relu
I0818 11:11:38.007680 15236 net.cpp:148] Top shape: 80 120 14 14 (1881600)
I0818 11:11:38.007684 15236 net.cpp:156] Memory required for data: 4999787840
I0818 11:11:38.007689 15236 layer_factory.hpp:77] Creating layer shuffle13
I0818 11:11:38.007695 15236 net.cpp:91] Creating Layer shuffle13
I0818 11:11:38.007699 15236 net.cpp:469] shuffle13 <- resx13_conv1
I0818 11:11:38.007706 15236 net.cpp:443] shuffle13 -> shuffle13
I0818 11:11:38.007740 15236 net.cpp:141] Setting up shuffle13
I0818 11:11:38.007745 15236 net.cpp:148] Top shape: 80 120 14 14 (1881600)
I0818 11:11:38.007748 15236 net.cpp:156] Memory required for data: 5007314240
I0818 11:11:38.007752 15236 layer_factory.hpp:77] Creating layer resx13_conv2
I0818 11:11:38.007761 15236 net.cpp:91] Creating Layer resx13_conv2
I0818 11:11:38.007764 15236 net.cpp:469] resx13_conv2 <- shuffle13
I0818 11:11:38.007771 15236 net.cpp:443] resx13_conv2 -> resx13_conv2
I0818 11:11:38.008110 15236 net.cpp:141] Setting up resx13_conv2
I0818 11:11:38.008126 15236 net.cpp:148] Top shape: 80 120 7 7 (470400)
I0818 11:11:38.008131 15236 net.cpp:156] Memory required for data: 5009195840
I0818 11:11:38.008136 15236 layer_factory.hpp:77] Creating layer resx13_conv2_bn
I0818 11:11:38.008143 15236 net.cpp:91] Creating Layer resx13_conv2_bn
I0818 11:11:38.008147 15236 net.cpp:469] resx13_conv2_bn <- resx13_conv2
I0818 11:11:38.008153 15236 net.cpp:430] resx13_conv2_bn -> resx13_conv2 (in-place)
I0818 11:11:38.008366 15236 net.cpp:141] Setting up resx13_conv2_bn
I0818 11:11:38.008374 15236 net.cpp:148] Top shape: 80 120 7 7 (470400)
I0818 11:11:38.008378 15236 net.cpp:156] Memory required for data: 5011077440
I0818 11:11:38.008384 15236 layer_factory.hpp:77] Creating layer resx13_conv2_scale
I0818 11:11:38.008390 15236 net.cpp:91] Creating Layer resx13_conv2_scale
I0818 11:11:38.008394 15236 net.cpp:469] resx13_conv2_scale <- resx13_conv2
I0818 11:11:38.008400 15236 net.cpp:430] resx13_conv2_scale -> resx13_conv2 (in-place)
I0818 11:11:38.008443 15236 layer_factory.hpp:77] Creating layer resx13_conv2_scale
I0818 11:11:38.008568 15236 net.cpp:141] Setting up resx13_conv2_scale
I0818 11:11:38.008574 15236 net.cpp:148] Top shape: 80 120 7 7 (470400)
I0818 11:11:38.008577 15236 net.cpp:156] Memory required for data: 5012959040
I0818 11:11:38.008584 15236 layer_factory.hpp:77] Creating layer resx13_conv3
I0818 11:11:38.008594 15236 net.cpp:91] Creating Layer resx13_conv3
I0818 11:11:38.008597 15236 net.cpp:469] resx13_conv3 <- resx13_conv2
I0818 11:11:38.008605 15236 net.cpp:443] resx13_conv3 -> resx13_conv3
I0818 11:11:38.011449 15236 net.cpp:141] Setting up resx13_conv3
I0818 11:11:38.011466 15236 net.cpp:148] Top shape: 80 480 7 7 (1881600)
I0818 11:11:38.011469 15236 net.cpp:156] Memory required for data: 5020485440
I0818 11:11:38.011474 15236 layer_factory.hpp:77] Creating layer resx13_conv3_bn
I0818 11:11:38.011482 15236 net.cpp:91] Creating Layer resx13_conv3_bn
I0818 11:11:38.011487 15236 net.cpp:469] resx13_conv3_bn <- resx13_conv3
I0818 11:11:38.011492 15236 net.cpp:430] resx13_conv3_bn -> resx13_conv3 (in-place)
I0818 11:11:38.011708 15236 net.cpp:141] Setting up resx13_conv3_bn
I0818 11:11:38.011714 15236 net.cpp:148] Top shape: 80 480 7 7 (1881600)
I0818 11:11:38.011718 15236 net.cpp:156] Memory required for data: 5028011840
I0818 11:11:38.011724 15236 layer_factory.hpp:77] Creating layer resx13_conv3_scale
I0818 11:11:38.011730 15236 net.cpp:91] Creating Layer resx13_conv3_scale
I0818 11:11:38.011734 15236 net.cpp:469] resx13_conv3_scale <- resx13_conv3
I0818 11:11:38.011740 15236 net.cpp:430] resx13_conv3_scale -> resx13_conv3 (in-place)
I0818 11:11:38.011785 15236 layer_factory.hpp:77] Creating layer resx13_conv3_scale
I0818 11:11:38.011910 15236 net.cpp:141] Setting up resx13_conv3_scale
I0818 11:11:38.011919 15236 net.cpp:148] Top shape: 80 480 7 7 (1881600)
I0818 11:11:38.011921 15236 net.cpp:156] Memory required for data: 5035538240
I0818 11:11:38.011926 15236 layer_factory.hpp:77] Creating layer resx13_concat
I0818 11:11:38.011932 15236 net.cpp:91] Creating Layer resx13_concat
I0818 11:11:38.011936 15236 net.cpp:469] resx13_concat <- resx13_match_conv
I0818 11:11:38.011940 15236 net.cpp:469] resx13_concat <- resx13_conv3
I0818 11:11:38.011946 15236 net.cpp:443] resx13_concat -> resx13_concat
I0818 11:11:38.011979 15236 net.cpp:141] Setting up resx13_concat
I0818 11:11:38.011986 15236 net.cpp:148] Top shape: 80 960 7 7 (3763200)
I0818 11:11:38.011988 15236 net.cpp:156] Memory required for data: 5050591040
I0818 11:11:38.011992 15236 layer_factory.hpp:77] Creating layer resx13_concat_relu
I0818 11:11:38.011998 15236 net.cpp:91] Creating Layer resx13_concat_relu
I0818 11:11:38.012002 15236 net.cpp:469] resx13_concat_relu <- resx13_concat
I0818 11:11:38.012006 15236 net.cpp:430] resx13_concat_relu -> resx13_concat (in-place)
I0818 11:11:38.012331 15236 net.cpp:141] Setting up resx13_concat_relu
I0818 11:11:38.012342 15236 net.cpp:148] Top shape: 80 960 7 7 (3763200)
I0818 11:11:38.012349 15236 net.cpp:156] Memory required for data: 5065643840
I0818 11:11:38.012358 15236 layer_factory.hpp:77] Creating layer resx13_concat_resx13_concat_relu_0_split
I0818 11:11:38.012367 15236 net.cpp:91] Creating Layer resx13_concat_resx13_concat_relu_0_split
I0818 11:11:38.012370 15236 net.cpp:469] resx13_concat_resx13_concat_relu_0_split <- resx13_concat
I0818 11:11:38.012377 15236 net.cpp:443] resx13_concat_resx13_concat_relu_0_split -> resx13_concat_resx13_concat_relu_0_split_0
I0818 11:11:38.012383 15236 net.cpp:443] resx13_concat_resx13_concat_relu_0_split -> resx13_concat_resx13_concat_relu_0_split_1
I0818 11:11:38.012429 15236 net.cpp:141] Setting up resx13_concat_resx13_concat_relu_0_split
I0818 11:11:38.012435 15236 net.cpp:148] Top shape: 80 960 7 7 (3763200)
I0818 11:11:38.012439 15236 net.cpp:148] Top shape: 80 960 7 7 (3763200)
I0818 11:11:38.012442 15236 net.cpp:156] Memory required for data: 5095749440
I0818 11:11:38.012445 15236 layer_factory.hpp:77] Creating layer resx14_conv1
I0818 11:11:38.012455 15236 net.cpp:91] Creating Layer resx14_conv1
I0818 11:11:38.012459 15236 net.cpp:469] resx14_conv1 <- resx13_concat_resx13_concat_relu_0_split_0
I0818 11:11:38.012466 15236 net.cpp:443] resx14_conv1 -> resx14_conv1
I0818 11:11:38.017427 15236 net.cpp:141] Setting up resx14_conv1
I0818 11:11:38.017441 15236 net.cpp:148] Top shape: 80 240 7 7 (940800)
I0818 11:11:38.017446 15236 net.cpp:156] Memory required for data: 5099512640
I0818 11:11:38.017451 15236 layer_factory.hpp:77] Creating layer resx14_conv1_bn
I0818 11:11:38.017458 15236 net.cpp:91] Creating Layer resx14_conv1_bn
I0818 11:11:38.017462 15236 net.cpp:469] resx14_conv1_bn <- resx14_conv1
I0818 11:11:38.017467 15236 net.cpp:430] resx14_conv1_bn -> resx14_conv1 (in-place)
I0818 11:11:38.017684 15236 net.cpp:141] Setting up resx14_conv1_bn
I0818 11:11:38.017693 15236 net.cpp:148] Top shape: 80 240 7 7 (940800)
I0818 11:11:38.017695 15236 net.cpp:156] Memory required for data: 5103275840
I0818 11:11:38.017702 15236 layer_factory.hpp:77] Creating layer resx14_conv1_scale
I0818 11:11:38.017711 15236 net.cpp:91] Creating Layer resx14_conv1_scale
I0818 11:11:38.017715 15236 net.cpp:469] resx14_conv1_scale <- resx14_conv1
I0818 11:11:38.017720 15236 net.cpp:430] resx14_conv1_scale -> resx14_conv1 (in-place)
I0818 11:11:38.017765 15236 layer_factory.hpp:77] Creating layer resx14_conv1_scale
I0818 11:11:38.017890 15236 net.cpp:141] Setting up resx14_conv1_scale
I0818 11:11:38.017897 15236 net.cpp:148] Top shape: 80 240 7 7 (940800)
I0818 11:11:38.017900 15236 net.cpp:156] Memory required for data: 5107039040
I0818 11:11:38.017906 15236 layer_factory.hpp:77] Creating layer resx14_conv1_relu
I0818 11:11:38.017912 15236 net.cpp:91] Creating Layer resx14_conv1_relu
I0818 11:11:38.017916 15236 net.cpp:469] resx14_conv1_relu <- resx14_conv1
I0818 11:11:38.017920 15236 net.cpp:430] resx14_conv1_relu -> resx14_conv1 (in-place)
I0818 11:11:38.018246 15236 net.cpp:141] Setting up resx14_conv1_relu
I0818 11:11:38.018260 15236 net.cpp:148] Top shape: 80 240 7 7 (940800)
I0818 11:11:38.018263 15236 net.cpp:156] Memory required for data: 5110802240
I0818 11:11:38.018267 15236 layer_factory.hpp:77] Creating layer shuffle14
I0818 11:11:38.018273 15236 net.cpp:91] Creating Layer shuffle14
I0818 11:11:38.018276 15236 net.cpp:469] shuffle14 <- resx14_conv1
I0818 11:11:38.018281 15236 net.cpp:443] shuffle14 -> shuffle14
I0818 11:11:38.018316 15236 net.cpp:141] Setting up shuffle14
I0818 11:11:38.018323 15236 net.cpp:148] Top shape: 80 240 7 7 (940800)
I0818 11:11:38.018326 15236 net.cpp:156] Memory required for data: 5114565440
I0818 11:11:38.018329 15236 layer_factory.hpp:77] Creating layer resx14_conv2
I0818 11:11:38.018338 15236 net.cpp:91] Creating Layer resx14_conv2
I0818 11:11:38.018342 15236 net.cpp:469] resx14_conv2 <- shuffle14
I0818 11:11:38.018347 15236 net.cpp:443] resx14_conv2 -> resx14_conv2
I0818 11:11:38.018537 15236 net.cpp:141] Setting up resx14_conv2
I0818 11:11:38.018548 15236 net.cpp:148] Top shape: 80 240 7 7 (940800)
I0818 11:11:38.018551 15236 net.cpp:156] Memory required for data: 5118328640
I0818 11:11:38.018565 15236 layer_factory.hpp:77] Creating layer resx14_conv2_bn
I0818 11:11:38.018573 15236 net.cpp:91] Creating Layer resx14_conv2_bn
I0818 11:11:38.018577 15236 net.cpp:469] resx14_conv2_bn <- resx14_conv2
I0818 11:11:38.018584 15236 net.cpp:430] resx14_conv2_bn -> resx14_conv2 (in-place)
I0818 11:11:38.018803 15236 net.cpp:141] Setting up resx14_conv2_bn
I0818 11:11:38.018810 15236 net.cpp:148] Top shape: 80 240 7 7 (940800)
I0818 11:11:38.018813 15236 net.cpp:156] Memory required for data: 5122091840
I0818 11:11:38.018821 15236 layer_factory.hpp:77] Creating layer resx14_conv2_scale
I0818 11:11:38.018827 15236 net.cpp:91] Creating Layer resx14_conv2_scale
I0818 11:11:38.018831 15236 net.cpp:469] resx14_conv2_scale <- resx14_conv2
I0818 11:11:38.018837 15236 net.cpp:430] resx14_conv2_scale -> resx14_conv2 (in-place)
I0818 11:11:38.018882 15236 layer_factory.hpp:77] Creating layer resx14_conv2_scale
I0818 11:11:38.019011 15236 net.cpp:141] Setting up resx14_conv2_scale
I0818 11:11:38.019019 15236 net.cpp:148] Top shape: 80 240 7 7 (940800)
I0818 11:11:38.019022 15236 net.cpp:156] Memory required for data: 5125855040
I0818 11:11:38.019027 15236 layer_factory.hpp:77] Creating layer resx14_conv3
I0818 11:11:38.019037 15236 net.cpp:91] Creating Layer resx14_conv3
I0818 11:11:38.019042 15236 net.cpp:469] resx14_conv3 <- resx14_conv2
I0818 11:11:38.019049 15236 net.cpp:443] resx14_conv3 -> resx14_conv3
I0818 11:11:38.023553 15236 net.cpp:141] Setting up resx14_conv3
I0818 11:11:38.023571 15236 net.cpp:148] Top shape: 80 960 7 7 (3763200)
I0818 11:11:38.023574 15236 net.cpp:156] Memory required for data: 5140907840
I0818 11:11:38.023579 15236 layer_factory.hpp:77] Creating layer resx14_conv3_bn
I0818 11:11:38.023588 15236 net.cpp:91] Creating Layer resx14_conv3_bn
I0818 11:11:38.023592 15236 net.cpp:469] resx14_conv3_bn <- resx14_conv3
I0818 11:11:38.023598 15236 net.cpp:430] resx14_conv3_bn -> resx14_conv3 (in-place)
I0818 11:11:38.023818 15236 net.cpp:141] Setting up resx14_conv3_bn
I0818 11:11:38.023824 15236 net.cpp:148] Top shape: 80 960 7 7 (3763200)
I0818 11:11:38.023828 15236 net.cpp:156] Memory required for data: 5155960640
I0818 11:11:38.023834 15236 layer_factory.hpp:77] Creating layer resx14_conv3_scale
I0818 11:11:38.023840 15236 net.cpp:91] Creating Layer resx14_conv3_scale
I0818 11:11:38.023844 15236 net.cpp:469] resx14_conv3_scale <- resx14_conv3
I0818 11:11:38.023850 15236 net.cpp:430] resx14_conv3_scale -> resx14_conv3 (in-place)
I0818 11:11:38.023895 15236 layer_factory.hpp:77] Creating layer resx14_conv3_scale
I0818 11:11:38.024024 15236 net.cpp:141] Setting up resx14_conv3_scale
I0818 11:11:38.024031 15236 net.cpp:148] Top shape: 80 960 7 7 (3763200)
I0818 11:11:38.024035 15236 net.cpp:156] Memory required for data: 5171013440
I0818 11:11:38.024077 15236 layer_factory.hpp:77] Creating layer resx14_elewise
I0818 11:11:38.024086 15236 net.cpp:91] Creating Layer resx14_elewise
I0818 11:11:38.024091 15236 net.cpp:469] resx14_elewise <- resx13_concat_resx13_concat_relu_0_split_1
I0818 11:11:38.024094 15236 net.cpp:469] resx14_elewise <- resx14_conv3
I0818 11:11:38.024099 15236 net.cpp:443] resx14_elewise -> resx14_elewise
I0818 11:11:38.024130 15236 net.cpp:141] Setting up resx14_elewise
I0818 11:11:38.024137 15236 net.cpp:148] Top shape: 80 960 7 7 (3763200)
I0818 11:11:38.024139 15236 net.cpp:156] Memory required for data: 5186066240
I0818 11:11:38.024142 15236 layer_factory.hpp:77] Creating layer resx14_elewise_relu
I0818 11:11:38.024149 15236 net.cpp:91] Creating Layer resx14_elewise_relu
I0818 11:11:38.024153 15236 net.cpp:469] resx14_elewise_relu <- resx14_elewise
I0818 11:11:38.024159 15236 net.cpp:430] resx14_elewise_relu -> resx14_elewise (in-place)
I0818 11:11:38.024487 15236 net.cpp:141] Setting up resx14_elewise_relu
I0818 11:11:38.024497 15236 net.cpp:148] Top shape: 80 960 7 7 (3763200)
I0818 11:11:38.024502 15236 net.cpp:156] Memory required for data: 5201119040
I0818 11:11:38.024504 15236 layer_factory.hpp:77] Creating layer resx14_elewise_resx14_elewise_relu_0_split
I0818 11:11:38.024515 15236 net.cpp:91] Creating Layer resx14_elewise_resx14_elewise_relu_0_split
I0818 11:11:38.024525 15236 net.cpp:469] resx14_elewise_resx14_elewise_relu_0_split <- resx14_elewise
I0818 11:11:38.024530 15236 net.cpp:443] resx14_elewise_resx14_elewise_relu_0_split -> resx14_elewise_resx14_elewise_relu_0_split_0
I0818 11:11:38.024538 15236 net.cpp:443] resx14_elewise_resx14_elewise_relu_0_split -> resx14_elewise_resx14_elewise_relu_0_split_1
I0818 11:11:38.024586 15236 net.cpp:141] Setting up resx14_elewise_resx14_elewise_relu_0_split
I0818 11:11:38.024592 15236 net.cpp:148] Top shape: 80 960 7 7 (3763200)
I0818 11:11:38.024596 15236 net.cpp:148] Top shape: 80 960 7 7 (3763200)
I0818 11:11:38.024600 15236 net.cpp:156] Memory required for data: 5231224640
I0818 11:11:38.024602 15236 layer_factory.hpp:77] Creating layer resx15_conv1
I0818 11:11:38.024611 15236 net.cpp:91] Creating Layer resx15_conv1
I0818 11:11:38.024616 15236 net.cpp:469] resx15_conv1 <- resx14_elewise_resx14_elewise_relu_0_split_0
I0818 11:11:38.024622 15236 net.cpp:443] resx15_conv1 -> resx15_conv1
I0818 11:11:38.028992 15236 net.cpp:141] Setting up resx15_conv1
I0818 11:11:38.029006 15236 net.cpp:148] Top shape: 80 240 7 7 (940800)
I0818 11:11:38.029011 15236 net.cpp:156] Memory required for data: 5234987840
I0818 11:11:38.029016 15236 layer_factory.hpp:77] Creating layer resx15_conv1_bn
I0818 11:11:38.029023 15236 net.cpp:91] Creating Layer resx15_conv1_bn
I0818 11:11:38.029028 15236 net.cpp:469] resx15_conv1_bn <- resx15_conv1
I0818 11:11:38.029033 15236 net.cpp:430] resx15_conv1_bn -> resx15_conv1 (in-place)
I0818 11:11:38.029253 15236 net.cpp:141] Setting up resx15_conv1_bn
I0818 11:11:38.029260 15236 net.cpp:148] Top shape: 80 240 7 7 (940800)
I0818 11:11:38.029263 15236 net.cpp:156] Memory required for data: 5238751040
I0818 11:11:38.029270 15236 layer_factory.hpp:77] Creating layer resx15_conv1_scale
I0818 11:11:38.029280 15236 net.cpp:91] Creating Layer resx15_conv1_scale
I0818 11:11:38.029284 15236 net.cpp:469] resx15_conv1_scale <- resx15_conv1
I0818 11:11:38.029289 15236 net.cpp:430] resx15_conv1_scale -> resx15_conv1 (in-place)
I0818 11:11:38.029336 15236 layer_factory.hpp:77] Creating layer resx15_conv1_scale
I0818 11:11:38.029464 15236 net.cpp:141] Setting up resx15_conv1_scale
I0818 11:11:38.029471 15236 net.cpp:148] Top shape: 80 240 7 7 (940800)
I0818 11:11:38.029474 15236 net.cpp:156] Memory required for data: 5242514240
I0818 11:11:38.029479 15236 layer_factory.hpp:77] Creating layer resx15_conv1_relu
I0818 11:11:38.029484 15236 net.cpp:91] Creating Layer resx15_conv1_relu
I0818 11:11:38.029489 15236 net.cpp:469] resx15_conv1_relu <- resx15_conv1
I0818 11:11:38.029492 15236 net.cpp:430] resx15_conv1_relu -> resx15_conv1 (in-place)
I0818 11:11:38.029817 15236 net.cpp:141] Setting up resx15_conv1_relu
I0818 11:11:38.029829 15236 net.cpp:148] Top shape: 80 240 7 7 (940800)
I0818 11:11:38.029832 15236 net.cpp:156] Memory required for data: 5246277440
I0818 11:11:38.029837 15236 layer_factory.hpp:77] Creating layer shuffle15
I0818 11:11:38.029844 15236 net.cpp:91] Creating Layer shuffle15
I0818 11:11:38.029848 15236 net.cpp:469] shuffle15 <- resx15_conv1
I0818 11:11:38.029855 15236 net.cpp:443] shuffle15 -> shuffle15
I0818 11:11:38.029889 15236 net.cpp:141] Setting up shuffle15
…
I0818 11:11:38.245920 15236 net.cpp:91] Creating Layer resx11_conv1
I0818 11:11:38.245924 15236 net.cpp:469] resx11_conv1 <- resx10_elewise_resx10_elewise_relu_0_split_0
I0818 11:11:38.245929 15236 net.cpp:443] resx11_conv1 -> resx11_conv1
I0818 11:11:38.249563 15236 net.cpp:141] Setting up resx11_conv1
I0818 11:11:38.249578 15236 net.cpp:148] Top shape: 40 120 14 14 (940800)
I0818 11:11:38.249583 15236 net.cpp:156] Memory required for data: 2213891040
I0818 11:11:38.249588 15236 layer_factory.hpp:77] Creating layer resx11_conv1_bn
I0818 11:11:38.249593 15236 net.cpp:91] Creating Layer resx11_conv1_bn
I0818 11:11:38.249598 15236 net.cpp:469] resx11_conv1_bn <- resx11_conv1
I0818 11:11:38.249604 15236 net.cpp:430] resx11_conv1_bn -> resx11_conv1 (in-place)
I0818 11:11:38.249807 15236 net.cpp:141] Setting up resx11_conv1_bn
I0818 11:11:38.249814 15236 net.cpp:148] Top shape: 40 120 14 14 (940800)
I0818 11:11:38.249817 15236 net.cpp:156] Memory required for data: 2217654240
I0818 11:11:38.249825 15236 layer_factory.hpp:77] Creating layer resx11_conv1_scale
I0818 11:11:38.249831 15236 net.cpp:91] Creating Layer resx11_conv1_scale
I0818 11:11:38.249835 15236 net.cpp:469] resx11_conv1_scale <- resx11_conv1
I0818 11:11:38.249840 15236 net.cpp:430] resx11_conv1_scale -> resx11_conv1 (in-place)
I0818 11:11:38.249881 15236 layer_factory.hpp:77] Creating layer resx11_conv1_scale
I0818 11:11:38.250000 15236 net.cpp:141] Setting up resx11_conv1_scale
I0818 11:11:38.250006 15236 net.cpp:148] Top shape: 40 120 14 14 (940800)
I0818 11:11:38.250010 15236 net.cpp:156] Memory required for data: 2221417440
I0818 11:11:38.250015 15236 layer_factory.hpp:77] Creating layer resx11_conv1_relu
I0818 11:11:38.250020 15236 net.cpp:91] Creating Layer resx11_conv1_relu
I0818 11:11:38.250023 15236 net.cpp:469] resx11_conv1_relu <- resx11_conv1
I0818 11:11:38.250030 15236 net.cpp:430] resx11_conv1_relu -> resx11_conv1 (in-place)
I0818 11:11:38.250392 15236 net.cpp:141] Setting up resx11_conv1_relu
I0818 11:11:38.250403 15236 net.cpp:148] Top shape: 40 120 14 14 (940800)
I0818 11:11:38.250407 15236 net.cpp:156] Memory required for data: 2225180640
I0818 11:11:38.250411 15236 layer_factory.hpp:77] Creating layer shuffle11
I0818 11:11:38.250418 15236 net.cpp:91] Creating Layer shuffle11
I0818 11:11:38.250422 15236 net.cpp:469] shuffle11 <- resx11_conv1
I0818 11:11:38.250427 15236 net.cpp:443] shuffle11 -> shuffle11
I0818 11:11:38.250461 15236 net.cpp:141] Setting up shuffle11
I0818 11:11:38.250473 15236 net.cpp:148] Top shape: 40 120 14 14 (940800)
I0818 11:11:38.250476 15236 net.cpp:156] Memory required for data: 2228943840
I0818 11:11:38.250479 15236 layer_factory.hpp:77] Creating layer resx11_conv2
I0818 11:11:38.250488 15236 net.cpp:91] Creating Layer resx11_conv2
I0818 11:11:38.250494 15236 net.cpp:469] resx11_conv2 <- shuffle11
I0818 11:11:38.250499 15236 net.cpp:443] resx11_conv2 -> resx11_conv2
I0818 11:11:38.250658 15236 net.cpp:141] Setting up resx11_conv2
I0818 11:11:38.250669 15236 net.cpp:148] Top shape: 40 120 14 14 (940800)
I0818 11:11:38.250671 15236 net.cpp:156] Memory required for data: 2232707040
I0818 11:11:38.250676 15236 layer_factory.hpp:77] Creating layer resx11_conv2_bn
I0818 11:11:38.250682 15236 net.cpp:91] Creating Layer resx11_conv2_bn
I0818 11:11:38.250687 15236 net.cpp:469] resx11_conv2_bn <- resx11_conv2
I0818 11:11:38.250692 15236 net.cpp:430] resx11_conv2_bn -> resx11_conv2 (in-place)
I0818 11:11:38.250883 15236 net.cpp:141] Setting up resx11_conv2_bn
I0818 11:11:38.250890 15236 net.cpp:148] Top shape: 40 120 14 14 (940800)
I0818 11:11:38.250893 15236 net.cpp:156] Memory required for data: 2236470240
I0818 11:11:38.250900 15236 layer_factory.hpp:77] Creating layer resx11_conv2_scale
I0818 11:11:38.250905 15236 net.cpp:91] Creating Layer resx11_conv2_scale
I0818 11:11:38.250910 15236 net.cpp:469] resx11_conv2_scale <- resx11_conv2
I0818 11:11:38.250913 15236 net.cpp:430] resx11_conv2_scale -> resx11_conv2 (in-place)
I0818 11:11:38.250955 15236 layer_factory.hpp:77] Creating layer resx11_conv2_scale
I0818 11:11:38.251068 15236 net.cpp:141] Setting up resx11_conv2_scale
I0818 11:11:38.251075 15236 net.cpp:148] Top shape: 40 120 14 14 (940800)
I0818 11:11:38.251078 15236 net.cpp:156] Memory required for data: 2240233440
I0818 11:11:38.251083 15236 layer_factory.hpp:77] Creating layer resx11_conv3
I0818 11:11:38.251092 15236 net.cpp:91] Creating Layer resx11_conv3
I0818 11:11:38.251096 15236 net.cpp:469] resx11_conv3 <- resx11_conv2
I0818 11:11:38.251106 15236 net.cpp:443] resx11_conv3 -> resx11_conv3
I0818 11:11:38.254796 15236 net.cpp:141] Setting up resx11_conv3
I0818 11:11:38.254812 15236 net.cpp:148] Top shape: 40 480 14 14 (3763200)
I0818 11:11:38.254817 15236 net.cpp:156] Memory required for data: 2255286240
I0818 11:11:38.254822 15236 layer_factory.hpp:77] Creating layer resx11_conv3_bn
I0818 11:11:38.254832 15236 net.cpp:91] Creating Layer resx11_conv3_bn
I0818 11:11:38.254837 15236 net.cpp:469] resx11_conv3_bn <- resx11_conv3
I0818 11:11:38.254842 15236 net.cpp:430] resx11_conv3_bn -> resx11_conv3 (in-place)
I0818 11:11:38.255066 15236 net.cpp:141] Setting up resx11_conv3_bn
I0818 11:11:38.255074 15236 net.cpp:148] Top shape: 40 480 14 14 (3763200)
I0818 11:11:38.255077 15236 net.cpp:156] Memory required for data: 2270339040
I0818 11:11:38.255085 15236 layer_factory.hpp:77] Creating layer resx11_conv3_scale
I0818 11:11:38.255091 15236 net.cpp:91] Creating Layer resx11_conv3_scale
I0818 11:11:38.255095 15236 net.cpp:469] resx11_conv3_scale <- resx11_conv3
I0818 11:11:38.255100 15236 net.cpp:430] resx11_conv3_scale -> resx11_conv3 (in-place)
I0818 11:11:38.255158 15236 layer_factory.hpp:77] Creating layer resx11_conv3_scale
I0818 11:11:38.255291 15236 net.cpp:141] Setting up resx11_conv3_scale
I0818 11:11:38.255300 15236 net.cpp:148] Top shape: 40 480 14 14 (3763200)
I0818 11:11:38.255302 15236 net.cpp:156] Memory required for data: 2285391840
I0818 11:11:38.255307 15236 layer_factory.hpp:77] Creating layer resx11_elewise
I0818 11:11:38.255313 15236 net.cpp:91] Creating Layer resx11_elewise
I0818 11:11:38.255317 15236 net.cpp:469] resx11_elewise <- resx10_elewise_resx10_elewise_relu_0_split_1
I0818 11:11:38.255321 15236 net.cpp:469] resx11_elewise <- resx11_conv3
I0818 11:11:38.255326 15236 net.cpp:443] resx11_elewise -> resx11_elewise
I0818 11:11:38.255352 15236 net.cpp:141] Setting up resx11_elewise
I0818 11:11:38.255358 15236 net.cpp:148] Top shape: 40 480 14 14 (3763200)
I0818 11:11:38.255362 15236 net.cpp:156] Memory required for data: 2300444640
I0818 11:11:38.255373 15236 layer_factory.hpp:77] Creating layer resx11_elewise_relu
I0818 11:11:38.255381 15236 net.cpp:91] Creating Layer resx11_elewise_relu
I0818 11:11:38.255384 15236 net.cpp:469] resx11_elewise_relu <- resx11_elewise
I0818 11:11:38.255388 15236 net.cpp:430] resx11_elewise_relu -> resx11_elewise (in-place)
I0818 11:11:38.255753 15236 net.cpp:141] Setting up resx11_elewise_relu
I0818 11:11:38.255765 15236 net.cpp:148] Top shape: 40 480 14 14 (3763200)
I0818 11:11:38.255769 15236 net.cpp:156] Memory required for data: 2315497440
I0818 11:11:38.255772 15236 layer_factory.hpp:77] Creating layer resx11_elewise_resx11_elewise_relu_0_split
I0818 11:11:38.255779 15236 net.cpp:91] Creating Layer resx11_elewise_resx11_elewise_relu_0_split
I0818 11:11:38.255781 15236 net.cpp:469] resx11_elewise_resx11_elewise_relu_0_split <- resx11_elewise
I0818 11:11:38.255789 15236 net.cpp:443] resx11_elewise_resx11_elewise_relu_0_split -> resx11_elewise_resx11_elewise_relu_0_split_0
I0818 11:11:38.255795 15236 net.cpp:443] resx11_elewise_resx11_elewise_relu_0_split -> resx11_elewise_resx11_elewise_relu_0_split_1
I0818 11:11:38.255841 15236 net.cpp:141] Setting up resx11_elewise_resx11_elewise_relu_0_split
I0818 11:11:38.255846 15236 net.cpp:148] Top shape: 40 480 14 14 (3763200)
I0818 11:11:38.255851 15236 net.cpp:148] Top shape: 40 480 14 14 (3763200)
I0818 11:11:38.255853 15236 net.cpp:156] Memory required for data: 2345603040
I0818 11:11:38.255856 15236 layer_factory.hpp:77] Creating layer resx12_conv1
I0818 11:11:38.255866 15236 net.cpp:91] Creating Layer resx12_conv1
I0818 11:11:38.255869 15236 net.cpp:469] resx12_conv1 <- resx11_elewise_resx11_elewise_relu_0_split_0
I0818 11:11:38.255874 15236 net.cpp:443] resx12_conv1 -> resx12_conv1
I0818 11:11:38.259196 15236 net.cpp:141] Setting up resx12_conv1
I0818 11:11:38.259212 15236 net.cpp:148] Top shape: 40 120 14 14 (940800)
I0818 11:11:38.259215 15236 net.cpp:156] Memory required for data: 2349366240
I0818 11:11:38.259222 15236 layer_factory.hpp:77] Creating layer resx12_conv1_bn
I0818 11:11:38.259229 15236 net.cpp:91] Creating Layer resx12_conv1_bn
I0818 11:11:38.259234 15236 net.cpp:469] resx12_conv1_bn <- resx12_conv1
I0818 11:11:38.259239 15236 net.cpp:430] resx12_conv1_bn -> resx12_conv1 (in-place)
I0818 11:11:38.259452 15236 net.cpp:141] Setting up resx12_conv1_bn
I0818 11:11:38.259459 15236 net.cpp:148] Top shape: 40 120 14 14 (940800)
I0818 11:11:38.259464 15236 net.cpp:156] Memory required for data: 2353129440
I0818 11:11:38.259469 15236 layer_factory.hpp:77] Creating layer resx12_conv1_scale
I0818 11:11:38.259476 15236 net.cpp:91] Creating Layer resx12_conv1_scale
I0818 11:11:38.259480 15236 net.cpp:469] resx12_conv1_scale <- resx12_conv1
I0818 11:11:38.259485 15236 net.cpp:430] resx12_conv1_scale -> resx12_conv1 (in-place)
I0818 11:11:38.259529 15236 layer_factory.hpp:77] Creating layer resx12_conv1_scale
I0818 11:11:38.259649 15236 net.cpp:141] Setting up resx12_conv1_scale
I0818 11:11:38.259656 15236 net.cpp:148] Top shape: 40 120 14 14 (940800)
I0818 11:11:38.259660 15236 net.cpp:156] Memory required for data: 2356892640
I0818 11:11:38.259665 15236 layer_factory.hpp:77] Creating layer resx12_conv1_relu
I0818 11:11:38.259672 15236 net.cpp:91] Creating Layer resx12_conv1_relu
I0818 11:11:38.259676 15236 net.cpp:469] resx12_conv1_relu <- resx12_conv1
I0818 11:11:38.259680 15236 net.cpp:430] resx12_conv1_relu -> resx12_conv1 (in-place)
I0818 11:11:38.260059 15236 net.cpp:141] Setting up resx12_conv1_relu
I0818 11:11:38.260071 15236 net.cpp:148] Top shape: 40 120 14 14 (940800)
I0818 11:11:38.260074 15236 net.cpp:156] Memory required for data: 2360655840
I0818 11:11:38.260077 15236 layer_factory.hpp:77] Creating layer shuffle12
I0818 11:11:38.260083 15236 net.cpp:91] Creating Layer shuffle12
I0818 11:11:38.260087 15236 net.cpp:469] shuffle12 <- resx12_conv1
I0818 11:11:38.260093 15236 net.cpp:443] shuffle12 -> shuffle12
I0818 11:11:38.260126 15236 net.cpp:141] Setting up shuffle12
I0818 11:11:38.260133 15236 net.cpp:148] Top shape: 40 120 14 14 (940800)
I0818 11:11:38.260145 15236 net.cpp:156] Memory required for data: 2364419040
I0818 11:11:38.260149 15236 layer_factory.hpp:77] Creating layer resx12_conv2
I0818 11:11:38.260154 15236 net.cpp:91] Creating Layer resx12_conv2
I0818 11:11:38.260159 15236 net.cpp:469] resx12_conv2 <- shuffle12
I0818 11:11:38.260164 15236 net.cpp:443] resx12_conv2 -> resx12_conv2
I0818 11:11:38.260320 15236 net.cpp:141] Setting up resx12_conv2
I0818 11:11:38.260330 15236 net.cpp:148] Top shape: 40 120 14 14 (940800)
I0818 11:11:38.260334 15236 net.cpp:156] Memory required for data: 2368182240
I0818 11:11:38.260339 15236 layer_factory.hpp:77] Creating layer resx12_conv2_bn
I0818 11:11:38.260344 15236 net.cpp:91] Creating Layer resx12_conv2_bn
I0818 11:11:38.260349 15236 net.cpp:469] resx12_conv2_bn <- resx12_conv2
I0818 11:11:38.260354 15236 net.cpp:430] resx12_conv2_bn -> resx12_conv2 (in-place)
I0818 11:11:38.260545 15236 net.cpp:141] Setting up resx12_conv2_bn
I0818 11:11:38.260550 15236 net.cpp:148] Top shape: 40 120 14 14 (940800)
I0818 11:11:38.260555 15236 net.cpp:156] Memory required for data: 2371945440
I0818 11:11:38.260560 15236 layer_factory.hpp:77] Creating layer resx12_conv2_scale
I0818 11:11:38.260566 15236 net.cpp:91] Creating Layer resx12_conv2_scale
I0818 11:11:38.260571 15236 net.cpp:469] resx12_conv2_scale <- resx12_conv2
I0818 11:11:38.260576 15236 net.cpp:430] resx12_conv2_scale -> resx12_conv2 (in-place)
I0818 11:11:38.260617 15236 layer_factory.hpp:77] Creating layer resx12_conv2_scale
I0818 11:11:38.260733 15236 net.cpp:141] Setting up resx12_conv2_scale
I0818 11:11:38.260740 15236 net.cpp:148] Top shape: 40 120 14 14 (940800)
I0818 11:11:38.260743 15236 net.cpp:156] Memory required for data: 2375708640
I0818 11:11:38.260749 15236 layer_factory.hpp:77] Creating layer resx12_conv3
I0818 11:11:38.260757 15236 net.cpp:91] Creating Layer resx12_conv3
I0818 11:11:38.260761 15236 net.cpp:469] resx12_conv3 <- resx12_conv2
I0818 11:11:38.260767 15236 net.cpp:443] resx12_conv3 -> resx12_conv3
I0818 11:11:38.264092 15236 net.cpp:141] Setting up resx12_conv3
I0818 11:11:38.264106 15236 net.cpp:148] Top shape: 40 480 14 14 (3763200)
I0818 11:11:38.264111 15236 net.cpp:156] Memory required for data: 2390761440
I0818 11:11:38.264116 15236 layer_factory.hpp:77] Creating layer resx12_conv3_bn
I0818 11:11:38.264123 15236 net.cpp:91] Creating Layer resx12_conv3_bn
I0818 11:11:38.264127 15236 net.cpp:469] resx12_conv3_bn <- resx12_conv3
I0818 11:11:38.264132 15236 net.cpp:430] resx12_conv3_bn -> resx12_conv3 (in-place)
I0818 11:11:38.264353 15236 net.cpp:141] Setting up resx12_conv3_bn
I0818 11:11:38.264360 15236 net.cpp:148] Top shape: 40 480 14 14 (3763200)
I0818 11:11:38.264364 15236 net.cpp:156] Memory required for data: 2405814240
I0818 11:11:38.264370 15236 layer_factory.hpp:77] Creating layer resx12_conv3_scale
I0818 11:11:38.264379 15236 net.cpp:91] Creating Layer resx12_conv3_scale
I0818 11:11:38.264382 15236 net.cpp:469] resx12_conv3_scale <- resx12_conv3
I0818 11:11:38.264386 15236 net.cpp:430] resx12_conv3_scale -> resx12_conv3 (in-place)
I0818 11:11:38.264443 15236 layer_factory.hpp:77] Creating layer resx12_conv3_scale
I0818 11:11:38.264578 15236 net.cpp:141] Setting up resx12_conv3_scale
I0818 11:11:38.264585 15236 net.cpp:148] Top shape: 40 480 14 14 (3763200)
I0818 11:11:38.264590 15236 net.cpp:156] Memory required for data: 2420867040
I0818 11:11:38.264595 15236 layer_factory.hpp:77] Creating layer resx12_elewise
I0818 11:11:38.264601 15236 net.cpp:91] Creating Layer resx12_elewise
I0818 11:11:38.264606 15236 net.cpp:469] resx12_elewise <- resx11_elewise_resx11_elewise_relu_0_split_1
I0818 11:11:38.264611 15236 net.cpp:469] resx12_elewise <- resx12_conv3
I0818 11:11:38.264616 15236 net.cpp:443] resx12_elewise -> resx12_elewise
I0818 11:11:38.264641 15236 net.cpp:141] Setting up resx12_elewise
I0818 11:11:38.264647 15236 net.cpp:148] Top shape: 40 480 14 14 (3763200)
I0818 11:11:38.264649 15236 net.cpp:156] Memory required for data: 2435919840
I0818 11:11:38.264652 15236 layer_factory.hpp:77] Creating layer resx12_elewise_relu
I0818 11:11:38.264667 15236 net.cpp:91] Creating Layer resx12_elewise_relu
I0818 11:11:38.264672 15236 net.cpp:469] resx12_elewise_relu <- resx12_elewise
I0818 11:11:38.264675 15236 net.cpp:430] resx12_elewise_relu -> resx12_elewise (in-place)
I0818 11:11:38.265038 15236 net.cpp:141] Setting up resx12_elewise_relu
I0818 11:11:38.265050 15236 net.cpp:148] Top shape: 40 480 14 14 (3763200)
I0818 11:11:38.265053 15236 net.cpp:156] Memory required for data: 2450972640
I0818 11:11:38.265058 15236 layer_factory.hpp:77] Creating layer resx12_elewise_resx12_elewise_relu_0_split
I0818 11:11:38.265064 15236 net.cpp:91] Creating Layer resx12_elewise_resx12_elewise_relu_0_split
I0818 11:11:38.265069 15236 net.cpp:469] resx12_elewise_resx12_elewise_relu_0_split <- resx12_elewise
I0818 11:11:38.265074 15236 net.cpp:443] resx12_elewise_resx12_elewise_relu_0_split -> resx12_elewise_resx12_elewise_relu_0_split_0
I0818 11:11:38.265090 15236 net.cpp:443] resx12_elewise_resx12_elewise_relu_0_split -> resx12_elewise_resx12_elewise_relu_0_split_1
I0818 11:11:38.265151 15236 net.cpp:141] Setting up resx12_elewise_resx12_elewise_relu_0_split
I0818 11:11:38.265158 15236 net.cpp:148] Top shape: 40 480 14 14 (3763200)
I0818 11:11:38.265163 15236 net.cpp:148] Top shape: 40 480 14 14 (3763200)
I0818 11:11:38.265166 15236 net.cpp:156] Memory required for data: 2481078240
I0818 11:11:38.265169 15236 layer_factory.hpp:77] Creating layer resx13_match_conv
I0818 11:11:38.265177 15236 net.cpp:91] Creating Layer resx13_match_conv
I0818 11:11:38.265180 15236 net.cpp:469] resx13_match_conv <- resx12_elewise_resx12_elewise_relu_0_split_0
I0818 11:11:38.265187 15236 net.cpp:443] resx13_match_conv -> resx13_match_conv
I0818 11:11:38.265411 15236 net.cpp:141] Setting up resx13_match_conv
I0818 11:11:38.265420 15236 net.cpp:148] Top shape: 40 480 7 7 (940800)
I0818 11:11:38.265424 15236 net.cpp:156] Memory required for data: 2484841440
I0818 11:11:38.265427 15236 layer_factory.hpp:77] Creating layer resx13_conv1
I0818 11:11:38.265436 15236 net.cpp:91] Creating Layer resx13_conv1
I0818 11:11:38.265440 15236 net.cpp:469] resx13_conv1 <- resx12_elewise_resx12_elewise_relu_0_split_1
I0818 11:11:38.265447 15236 net.cpp:443] resx13_conv1 -> resx13_conv1
I0818 11:11:38.268743 15236 net.cpp:141] Setting up resx13_conv1
I0818 11:11:38.268754 15236 net.cpp:148] Top shape: 40 120 14 14 (940800)
I0818 11:11:38.268759 15236 net.cpp:156] Memory required for data: 2488604640
I0818 11:11:38.268764 15236 layer_factory.hpp:77] Creating layer resx13_conv1_bn
I0818 11:11:38.268772 15236 net.cpp:91] Creating Layer resx13_conv1_bn
I0818 11:11:38.268776 15236 net.cpp:469] resx13_conv1_bn <- resx13_conv1
I0818 11:11:38.268781 15236 net.cpp:430] resx13_conv1_bn -> resx13_conv1 (in-place)
I0818 11:11:38.268981 15236 net.cpp:141] Setting up resx13_conv1_bn
I0818 11:11:38.268988 15236 net.cpp:148] Top shape: 40 120 14 14 (940800)
I0818 11:11:38.268991 15236 net.cpp:156] Memory required for data: 2492367840
I0818 11:11:38.268998 15236 layer_factory.hpp:77] Creating layer resx13_conv1_scale
I0818 11:11:38.269004 15236 net.cpp:91] Creating Layer resx13_conv1_scale
I0818 11:11:38.269008 15236 net.cpp:469] resx13_conv1_scale <- resx13_conv1
I0818 11:11:38.269012 15236 net.cpp:430] resx13_conv1_scale -> resx13_conv1 (in-place)
I0818 11:11:38.269057 15236 layer_factory.hpp:77] Creating layer resx13_conv1_scale
I0818 11:11:38.269181 15236 net.cpp:141] Setting up resx13_conv1_scale
I0818 11:11:38.269189 15236 net.cpp:148] Top shape: 40 120 14 14 (940800)
I0818 11:11:38.269192 15236 net.cpp:156] Memory required for data: 2496131040
I0818 11:11:38.269198 15236 layer_factory.hpp:77] Creating layer resx13_conv1_relu
I0818 11:11:38.269203 15236 net.cpp:91] Creating Layer resx13_conv1_relu
I0818 11:11:38.269207 15236 net.cpp:469] resx13_conv1_relu <- resx13_conv1
I0818 11:11:38.269212 15236 net.cpp:430] resx13_conv1_relu -> resx13_conv1 (in-place)
I0818 11:11:38.269395 15236 net.cpp:141] Setting up resx13_conv1_relu
I0818 11:11:38.269404 15236 net.cpp:148] Top shape: 40 120 14 14 (940800)
I0818 11:11:38.269420 15236 net.cpp:156] Memory required for data: 2499894240
I0818 11:11:38.269424 15236 layer_factory.hpp:77] Creating layer shuffle13
I0818 11:11:38.269430 15236 net.cpp:91] Creating Layer shuffle13
I0818 11:11:38.269434 15236 net.cpp:469] shuffle13 <- resx13_conv1
I0818 11:11:38.269439 15236 net.cpp:443] shuffle13 -> shuffle13
I0818 11:11:38.269471 15236 net.cpp:141] Setting up shuffle13
I0818 11:11:38.269477 15236 net.cpp:148] Top shape: 40 120 14 14 (940800)
I0818 11:11:38.269480 15236 net.cpp:156] Memory required for data: 2503657440
I0818 11:11:38.269484 15236 layer_factory.hpp:77] Creating layer resx13_conv2
I0818 11:11:38.269491 15236 net.cpp:91] Creating Layer resx13_conv2
I0818 11:11:38.269495 15236 net.cpp:469] resx13_conv2 <- shuffle13
I0818 11:11:38.269501 15236 net.cpp:443] resx13_conv2 -> resx13_conv2
I0818 11:11:38.269673 15236 net.cpp:141] Setting up resx13_conv2
I0818 11:11:38.269686 15236 net.cpp:148] Top shape: 40 120 7 7 (235200)
I0818 11:11:38.269690 15236 net.cpp:156] Memory required for data: 2504598240
I0818 11:11:38.269695 15236 layer_factory.hpp:77] Creating layer resx13_conv2_bn
I0818 11:11:38.269701 15236 net.cpp:91] Creating Layer resx13_conv2_bn
I0818 11:11:38.269704 15236 net.cpp:469] resx13_conv2_bn <- resx13_conv2
I0818 11:11:38.269711 15236 net.cpp:430] resx13_conv2_bn -> resx13_conv2 (in-place)
I0818 11:11:38.269908 15236 net.cpp:141] Setting up resx13_conv2_bn
I0818 11:11:38.269915 15236 net.cpp:148] Top shape: 40 120 7 7 (235200)
I0818 11:11:38.269918 15236 net.cpp:156] Memory required for data: 2505539040
I0818 11:11:38.269924 15236 layer_factory.hpp:77] Creating layer resx13_conv2_scale
I0818 11:11:38.269930 15236 net.cpp:91] Creating Layer resx13_conv2_scale
I0818 11:11:38.269934 15236 net.cpp:469] resx13_conv2_scale <- resx13_conv2
I0818 11:11:38.269943 15236 net.cpp:430] resx13_conv2_scale -> resx13_conv2 (in-place)
I0818 11:11:38.269984 15236 layer_factory.hpp:77] Creating layer resx13_conv2_scale
I0818 11:11:38.270103 15236 net.cpp:141] Setting up resx13_conv2_scale
I0818 11:11:38.270110 15236 net.cpp:148] Top shape: 40 120 7 7 (235200)
I0818 11:11:38.270113 15236 net.cpp:156] Memory required for data: 2506479840
I0818 11:11:38.270119 15236 layer_factory.hpp:77] Creating layer resx13_conv3
I0818 11:11:38.270128 15236 net.cpp:91] Creating Layer resx13_conv3
I0818 11:11:38.270131 15236 net.cpp:469] resx13_conv3 <- resx13_conv2
I0818 11:11:38.270138 15236 net.cpp:443] resx13_conv3 -> resx13_conv3
I0818 11:11:38.273483 15236 net.cpp:141] Setting up resx13_conv3
I0818 11:11:38.273495 15236 net.cpp:148] Top shape: 40 480 7 7 (940800)
I0818 11:11:38.273499 15236 net.cpp:156] Memory required for data: 2510243040
I0818 11:11:38.273504 15236 layer_factory.hpp:77] Creating layer resx13_conv3_bn
I0818 11:11:38.273515 15236 net.cpp:91] Creating Layer resx13_conv3_bn
I0818 11:11:38.273520 15236 net.cpp:469] resx13_conv3_bn <- resx13_conv3
I0818 11:11:38.273526 15236 net.cpp:430] resx13_conv3_bn -> resx13_conv3 (in-place)
I0818 11:11:38.273757 15236 net.cpp:141] Setting up resx13_conv3_bn
I0818 11:11:38.273764 15236 net.cpp:148] Top shape: 40 480 7 7 (940800)
I0818 11:11:38.273768 15236 net.cpp:156] Memory required for data: 2514006240
I0818 11:11:38.273774 15236 layer_factory.hpp:77] Creating layer resx13_conv3_scale
I0818 11:11:38.273783 15236 net.cpp:91] Creating Layer resx13_conv3_scale
I0818 11:11:38.273787 15236 net.cpp:469] resx13_conv3_scale <- resx13_conv3
I0818 11:11:38.273792 15236 net.cpp:430] resx13_conv3_scale -> resx13_conv3 (in-place)
I0818 11:11:38.273850 15236 layer_factory.hpp:77] Creating layer resx13_conv3_scale
I0818 11:11:38.273993 15236 net.cpp:141] Setting up resx13_conv3_scale
I0818 11:11:38.274001 15236 net.cpp:148] Top shape: 40 480 7 7 (940800)
I0818 11:11:38.274004 15236 net.cpp:156] Memory required for data: 2517769440
I0818 11:11:38.274009 15236 layer_factory.hpp:77] Creating layer resx13_concat
I0818 11:11:38.274018 15236 net.cpp:91] Creating Layer resx13_concat
I0818 11:11:38.274021 15236 net.cpp:469] resx13_concat <- resx13_match_conv
I0818 11:11:38.274029 15236 net.cpp:469] resx13_concat <- resx13_conv3
I0818 11:11:38.274039 15236 net.cpp:443] resx13_concat -> resx13_concat
I0818 11:11:38.274065 15236 net.cpp:141] Setting up resx13_concat
I0818 11:11:38.274071 15236 net.cpp:148] Top shape: 40 960 7 7 (1881600)
I0818 11:11:38.274075 15236 net.cpp:156] Memory required for data: 2525295840
I0818 11:11:38.274078 15236 layer_factory.hpp:77] Creating layer resx13_concat_relu
I0818 11:11:38.274085 15236 net.cpp:91] Creating Layer resx13_concat_relu
I0818 11:11:38.274088 15236 net.cpp:469] resx13_concat_relu <- resx13_concat
I0818 11:11:38.274092 15236 net.cpp:430] resx13_concat_relu -> resx13_concat (in-place)
I0818 11:11:38.274451 15236 net.cpp:141] Setting up resx13_concat_relu
I0818 11:11:38.274463 15236 net.cpp:148] Top shape: 40 960 7 7 (1881600)
I0818 11:11:38.274466 15236 net.cpp:156] Memory required for data: 2532822240
I0818 11:11:38.274471 15236 layer_factory.hpp:77] Creating layer resx13_concat_resx13_concat_relu_0_split
I0818 11:11:38.274475 15236 net.cpp:91] Creating Layer resx13_concat_resx13_concat_relu_0_split
I0818 11:11:38.274479 15236 net.cpp:469] resx13_concat_resx13_concat_relu_0_split <- resx13_concat
I0818 11:11:38.274483 15236 net.cpp:443] resx13_concat_resx13_concat_relu_0_split -> resx13_concat_resx13_concat_relu_0_split_0
I0818 11:11:38.274492 15236 net.cpp:443] resx13_concat_resx13_concat_relu_0_split -> resx13_concat_resx13_concat_relu_0_split_1
I0818 11:11:38.274536 15236 net.cpp:141] Setting up resx13_concat_resx13_concat_relu_0_split
I0818 11:11:38.274544 15236 net.cpp:148] Top shape: 40 960 7 7 (1881600)
I0818 11:11:38.274547 15236 net.cpp:148] Top shape: 40 960 7 7 (1881600)
I0818 11:11:38.274549 15236 net.cpp:156] Memory required for data: 2547875040
I0818 11:11:38.274554 15236 layer_factory.hpp:77] Creating layer resx14_conv1
I0818 11:11:38.274561 15236 net.cpp:91] Creating Layer resx14_conv1
I0818 11:11:38.274565 15236 net.cpp:469] resx14_conv1 <- resx13_concat_resx13_concat_relu_0_split_0
I0818 11:11:38.274574 15236 net.cpp:443] resx14_conv1 -> resx14_conv1
I0818 11:11:38.279145 15236 net.cpp:141] Setting up resx14_conv1
I0818 11:11:38.279158 15236 net.cpp:148] Top shape: 40 240 7 7 (470400)
I0818 11:11:38.279162 15236 net.cpp:156] Memory required for data: 2549756640
I0818 11:11:38.279167 15236 layer_factory.hpp:77] Creating layer resx14_conv1_bn
I0818 11:11:38.279176 15236 net.cpp:91] Creating Layer resx14_conv1_bn
I0818 11:11:38.279181 15236 net.cpp:469] resx14_conv1_bn <- resx14_conv1
I0818 11:11:38.279186 15236 net.cpp:430] resx14_conv1_bn -> resx14_conv1 (in-place)
I0818 11:11:38.279392 15236 net.cpp:141] Setting up resx14_conv1_bn
I0818 11:11:38.279398 15236 net.cpp:148] Top shape: 40 240 7 7 (470400)
I0818 11:11:38.279402 15236 net.cpp:156] Memory required for data: 2551638240
I0818 11:11:38.279407 15236 layer_factory.hpp:77] Creating layer resx14_conv1_scale
I0818 11:11:38.279415 15236 net.cpp:91] Creating Layer resx14_conv1_scale
I0818 11:11:38.279419 15236 net.cpp:469] resx14_conv1_scale <- resx14_conv1
I0818 11:11:38.279424 15236 net.cpp:430] resx14_conv1_scale -> resx14_conv1 (in-place)
I0818 11:11:38.279465 15236 layer_factory.hpp:77] Creating layer resx14_conv1_scale
I0818 11:11:38.279584 15236 net.cpp:141] Setting up resx14_conv1_scale
I0818 11:11:38.279592 15236 net.cpp:148] Top shape: 40 240 7 7 (470400)
I0818 11:11:38.279594 15236 net.cpp:156] Memory required for data: 2553519840
I0818 11:11:38.279599 15236 layer_factory.hpp:77] Creating layer resx14_conv1_relu
I0818 11:11:38.279606 15236 net.cpp:91] Creating Layer resx14_conv1_relu
I0818 11:11:38.279610 15236 net.cpp:469] resx14_conv1_relu <- resx14_conv1
I0818 11:11:38.279614 15236 net.cpp:430] resx14_conv1_relu -> resx14_conv1 (in-place)
I0818 11:11:38.279989 15236 net.cpp:141] Setting up resx14_conv1_relu
I0818 11:11:38.280001 15236 net.cpp:148] Top shape: 40 240 7 7 (470400)
I0818 11:11:38.280004 15236 net.cpp:156] Memory required for data: 2555401440
I0818 11:11:38.280009 15236 layer_factory.hpp:77] Creating layer shuffle14
I0818 11:11:38.280019 15236 net.cpp:91] Creating Layer shuffle14
I0818 11:11:38.280030 15236 net.cpp:469] shuffle14 <- resx14_conv1
I0818 11:11:38.280035 15236 net.cpp:443] shuffle14 -> shuffle14
I0818 11:11:38.280069 15236 net.cpp:141] Setting up shuffle14
I0818 11:11:38.280076 15236 net.cpp:148] Top shape: 40 240 7 7 (470400)
I0818 11:11:38.280079 15236 net.cpp:156] Memory required for data: 2557283040
I0818 11:11:38.280082 15236 layer_factory.hpp:77] Creating layer resx14_conv2
I0818 11:11:38.280091 15236 net.cpp:91] Creating Layer resx14_conv2
I0818 11:11:38.280094 15236 net.cpp:469] resx14_conv2 <- shuffle14
I0818 11:11:38.280099 15236 net.cpp:443] resx14_conv2 -> resx14_conv2
I0818 11:11:38.280297 15236 net.cpp:141] Setting up resx14_conv2
I0818 11:11:38.280306 15236 net.cpp:148] Top shape: 40 240 7 7 (470400)
I0818 11:11:38.280309 15236 net.cpp:156] Memory required for data: 2559164640
I0818 11:11:38.280314 15236 layer_factory.hpp:77] Creating layer resx14_conv2_bn
I0818 11:11:38.280323 15236 net.cpp:91] Creating Layer resx14_conv2_bn
I0818 11:11:38.280326 15236 net.cpp:469] resx14_conv2_bn <- resx14_conv2
I0818 11:11:38.280330 15236 net.cpp:430] resx14_conv2_bn -> resx14_conv2 (in-place)
I0818 11:11:38.280529 15236 net.cpp:141] Setting up resx14_conv2_bn
I0818 11:11:38.280536 15236 net.cpp:148] Top shape: 40 240 7 7 (470400)
I0818 11:11:38.280539 15236 net.cpp:156] Memory required for data: 2561046240
I0818 11:11:38.280546 15236 layer_factory.hpp:77] Creating layer resx14_conv2_scale
I0818 11:11:38.280552 15236 net.cpp:91] Creating Layer resx14_conv2_scale
I0818 11:11:38.280556 15236 net.cpp:469] resx14_conv2_scale <- resx14_conv2
I0818 11:11:38.280560 15236 net.cpp:430] resx14_conv2_scale -> resx14_conv2 (in-place)
I0818 11:11:38.280603 15236 layer_factory.hpp:77] Creating layer resx14_conv2_scale
I0818 11:11:38.280722 15236 net.cpp:141] Setting up resx14_conv2_scale
I0818 11:11:38.280740 15236 net.cpp:148] Top shape: 40 240 7 7 (470400)
I0818 11:11:38.280743 15236 net.cpp:156] Memory required for data: 2562927840
I0818 11:11:38.280750 15236 layer_factory.hpp:77] Creating layer resx14_conv3
I0818 11:11:38.280758 15236 net.cpp:91] Creating Layer resx14_conv3
I0818 11:11:38.280762 15236 net.cpp:469] resx14_conv3 <- resx14_conv2
I0818 11:11:38.280767 15236 net.cpp:443] resx14_conv3 -> resx14_conv3
I0818 11:11:38.285434 15236 net.cpp:141] Setting up resx14_conv3
I0818 11:11:38.285454 15236 net.cpp:148] Top shape: 40 960 7 7 (1881600)
I0818 11:11:38.285457 15236 net.cpp:156] Memory required for data: 2570454240
I0818 11:11:38.285464 15236 layer_factory.hpp:77] Creating layer resx14_conv3_bn
I0818 11:11:38.285472 15236 net.cpp:91] Creating Layer resx14_conv3_bn
I0818 11:11:38.285477 15236 net.cpp:469] resx14_conv3_bn <- resx14_conv3
I0818 11:11:38.285482 15236 net.cpp:430] resx14_conv3_bn -> resx14_conv3 (in-place)
I0818 11:11:38.285732 15236 net.cpp:141] Setting up resx14_conv3_bn
I0818 11:11:38.285738 15236 net.cpp:148] Top shape: 40 960 7 7 (1881600)
I0818 11:11:38.285742 15236 net.cpp:156] Memory required for data: 2577980640
I0818 11:11:38.285748 15236 layer_factory.hpp:77] Creating layer resx14_conv3_scale
I0818 11:11:38.285755 15236 net.cpp:91] Creating Layer resx14_conv3_scale
I0818 11:11:38.285759 15236 net.cpp:469] resx14_conv3_scale <- resx14_conv3
I0818 11:11:38.285763 15236 net.cpp:430] resx14_conv3_scale -> resx14_conv3 (in-place)
I0818 11:11:38.285826 15236 layer_factory.hpp:77] Creating layer resx14_conv3_scale
I0818 11:11:38.285969 15236 net.cpp:141] Setting up resx14_conv3_scale
I0818 11:11:38.285979 15236 net.cpp:148] Top shape: 40 960 7 7 (1881600)
I0818 11:11:38.285981 15236 net.cpp:156] Memory required for data: 2585507040
I0818 11:11:38.286026 15236 layer_factory.hpp:77] Creating layer resx14_elewise
I0818 11:11:38.286034 15236 net.cpp:91] Creating Layer resx14_elewise
I0818 11:11:38.286038 15236 net.cpp:469] resx14_elewise <- resx13_concat_resx13_concat_relu_0_split_1
I0818 11:11:38.286042 15236 net.cpp:469] resx14_elewise <- resx14_conv3
I0818 11:11:38.286047 15236 net.cpp:443] resx14_elewise -> resx14_elewise
I0818 11:11:38.286082 15236 net.cpp:141] Setting up resx14_elewise
I0818 11:11:38.286095 15236 net.cpp:148] Top shape: 40 960 7 7 (1881600)
I0818 11:11:38.286098 15236 net.cpp:156] Memory required for data: 2593033440
I0818 11:11:38.286101 15236 layer_factory.hpp:77] Creating layer resx14_elewise_relu
I0818 11:11:38.286108 15236 net.cpp:91] Creating Layer resx14_elewise_relu
I0818 11:11:38.286110 15236 net.cpp:469] resx14_elewise_relu <- resx14_elewise
I0818 11:11:38.286116 15236 net.cpp:430] resx14_elewise_relu -> resx14_elewise (in-place)
I0818 11:11:38.286494 15236 net.cpp:141] Setting up resx14_elewise_relu
I0818 11:11:38.286505 15236 net.cpp:148] Top shape: 40 960 7 7 (1881600)
I0818 11:11:38.286509 15236 net.cpp:156] Memory required for data: 2600559840
I0818 11:11:38.286512 15236 layer_factory.hpp:77] Creating layer resx14_elewise_resx14_elewise_relu_0_split
I0818 11:11:38.286520 15236 net.cpp:91] Creating Layer resx14_elewise_resx14_elewise_relu_0_split
I0818 11:11:38.286525 15236 net.cpp:469] resx14_elewise_resx14_elewise_relu_0_split <- resx14_elewise
I0818 11:11:38.286530 15236 net.cpp:443] resx14_elewise_resx14_elewise_relu_0_split -> resx14_elewise_resx14_elewise_relu_0_split_0
I0818 11:11:38.286535 15236 net.cpp:443] resx14_elewise_resx14_elewise_relu_0_split -> resx14_elewise_resx14_elewise_relu_0_split_1
I0818 11:11:38.286581 15236 net.cpp:141] Setting up resx14_elewise_resx14_elewise_relu_0_split
I0818 11:11:38.286588 15236 net.cpp:148] Top shape: 40 960 7 7 (1881600)
I0818 11:11:38.286592 15236 net.cpp:148] Top shape: 40 960 7 7 (1881600)
I0818 11:11:38.286594 15236 net.cpp:156] Memory required for data: 2615612640
I0818 11:11:38.286598 15236 layer_factory.hpp:77] Creating layer resx15_conv1
I0818 11:11:38.286607 15236 net.cpp:91] Creating Layer resx15_conv1
I0818 11:11:38.286612 15236 net.cpp:469] resx15_conv1 <- resx14_elewise_resx14_elewise_relu_0_split_0
I0818 11:11:38.286617 15236 net.cpp:443] resx15_conv1 -> resx15_conv1
I0818 11:11:38.291942 15236 net.cpp:141] Setting up resx15_conv1
I0818 11:11:38.291956 15236 net.cpp:148] Top shape: 40 240 7 7 (470400)
I0818 11:11:38.291960 15236 net.cpp:156] Memory required for data: 2617494240
I0818 11:11:38.291965 15236 layer_factory.hpp:77] Creating layer resx15_conv1_bn
I0818 11:11:38.291973 15236 net.cpp:91] Creating Layer resx15_conv1_bn
I0818 11:11:38.291978 15236 net.cpp:469] resx15_conv1_bn <- resx15_conv1
I0818 11:11:38.291982 15236 net.cpp:430] resx15_conv1_bn -> resx15_conv1 (in-place)
I0818 11:11:38.292191 15236 net.cpp:141] Setting up resx15_conv1_bn
I0818 11:11:38.292198 15236 net.cpp:148] Top shape: 40 240 7 7 (470400)
I0818 11:11:38.292201 15236 net.cpp:156] Memory required for data: 2619375840
I0818 11:11:38.292208 15236 layer_factory.hpp:77] Creating layer resx15_conv1_scale
I0818 11:11:38.292215 15236 net.cpp:91] Creating Layer resx15_conv1_scale
I0818 11:11:38.292218 15236 net.cpp:469] resx15_conv1_scale <- resx15_conv1
I0818 11:11:38.292223 15236 net.cpp:430] resx15_conv1_scale -> resx15_conv1 (in-place)
I0818 11:11:38.292268 15236 layer_factory.hpp:77] Creating layer resx15_conv1_scale
I0818 11:11:38.292387 15236 net.cpp:141] Setting up resx15_conv1_scale
I0818 11:11:38.292394 15236 net.cpp:148] Top shape: 40 240 7 7 (470400)
I0818 11:11:38.292397 15236 net.cpp:156] Memory required for data: 2621257440
I0818 11:11:38.292403 15236 layer_factory.hpp:77] Creating layer resx15_conv1_relu
I0818 11:11:38.292408 15236 net.cpp:91] Creating Layer resx15_conv1_relu
I0818 11:11:38.292412 15236 net.cpp:469] resx15_conv1_relu <- resx15_conv1
I0818 11:11:38.292417 15236 net.cpp:430] resx15_conv1_relu -> resx15_conv1 (in-place)
I0818 11:11:38.292790 15236 net.cpp:141] Setting up resx15_conv1_relu
I0818 11:11:38.292801 15236 net.cpp:148] Top shape: 40 240 7 7 (470400)
I0818 11:11:38.292805 15236 net.cpp:156] Memory required for data: 2623139040
I0818 11:11:38.292809 15236 layer_factory.hpp:77] Creating layer shuffle15
I0818 11:11:38.292816 15236 net.cpp:91] Creating Layer shuffle15
I0818 11:11:38.292820 15236 net.cpp:469] shuffle15 <- resx15_conv1
I0818 11:11:38.292831 15236 net.cpp:443] shuffle15 -> shuffle15
I0818 11:11:38.292870 15236 net.cpp:141] Setting up shuffle15
I0818 11:11:38.292876 15236 net.cpp:148] Top shape: 40 240 7 7 (470400)
I0818 11:11:38.292879 15236 net.cpp:156] Memory required for data: 2625020640
I0818 11:11:38.292882 15236 layer_factory.hpp:77] Creating layer resx15_conv2
I0818 11:11:38.292891 15236 net.cpp:91] Creating Layer resx15_conv2
I0818 11:11:38.292896 15236 net.cpp:469] resx15_conv2 <- shuffle15
I0818 11:11:38.292901 15236 net.cpp:443] resx15_conv2 -> resx15_conv2
I0818 11:11:38.293118 15236 net.cpp:141] Setting up resx15_conv2
I0818 11:11:38.293128 15236 net.cpp:148] Top shape: 40 240 7 7 (470400)
I0818 11:11:38.293131 15236 net.cpp:156] Memory required for data: 2626902240
I0818 11:11:38.293136 15236 layer_factory.hpp:77] Creating layer resx15_conv2_bn
I0818 11:11:38.293144 15236 net.cpp:91] Creating Layer resx15_conv2_bn
I0818 11:11:38.293148 15236 net.cpp:469] resx15_conv2_bn <- resx15_conv2
I0818 11:11:38.293154 15236 net.cpp:430] resx15_conv2_bn -> resx15_conv2 (in-place)
I0818 11:11:38.293352 15236 net.cpp:141] Setting up resx15_conv2_bn
I0818 11:11:38.293359 15236 net.cpp:148] Top shape: 40 240 7 7 (470400)
I0818 11:11:38.293364 15236 net.cpp:156] Memory required for data: 2628783840
I0818 11:11:38.293370 15236 layer_factory.hpp:77] Creating layer resx15_conv2_scale
I0818 11:11:38.293378 15236 net.cpp:91] Creating Layer resx15_conv2_scale
I0818 11:11:38.293382 15236 net.cpp:469] resx15_conv2_scale <- resx15_conv2
I0818 11:11:38.293386 15236 net.cpp:430] resx15_conv2_scale -> resx15_conv2 (in-place)
I0818 11:11:38.293428 15236 layer_factory.hpp:77] Creating layer resx15_conv2_scale
I0818 11:11:38.293547 15236 net.cpp:141] Setting up resx15_conv2_scale
I0818 11:11:38.293555 15236 net.cpp:148] Top shape: 40 240 7 7 (470400)
I0818 11:11:38.293557 15236 net.cpp:156] Memory required for data: 2630665440
I0818 11:11:38.293562 15236 layer_factory.hpp:77] Creating layer resx15_conv3
I0818 11:11:38.293570 15236 net.cpp:91] Creating Layer resx15_conv3
I0818 11:11:38.293575 15236 net.cpp:469] resx15_conv3 <- resx15_conv2
I0818 11:11:38.293579 15236 net.cpp:443] resx15_conv3 -> resx15_conv3
I0818 11:11:38.298156 15236 net.cpp:141] Setting up resx15_conv3
I0818 11:11:38.298168 15236 net.cpp:148] Top shape: 40 960 7 7 (1881600)
I0818 11:11:38.298172 15236 net.cpp:156] Memory required for data: 2638191840
I0818 11:11:38.298177 15236 layer_factory.hpp:77] Creating layer resx15_conv3_bn
I0818 11:11:38.298185 15236 net.cpp:91] Creating Layer resx15_conv3_bn
I0818 11:11:38.298190 15236 net.cpp:469] resx15_conv3_bn <- resx15_conv3
I0818 11:11:38.298197 15236 net.cpp:430] resx15_conv3_bn -> resx15_conv3 (in-place)
I0818 11:11:38.298434 15236 net.cpp:141] Setting up resx15_conv3_bn
I0818 11:11:38.298440 15236 net.cpp:148] Top shape: 40 960 7 7 (1881600)
I0818 11:11:38.298444 15236 net.cpp:156] Memory required for data: 2645718240
I0818 11:11:38.298450 15236 layer_factory.hpp:77] Creating layer resx15_conv3_scale
I0818 11:11:38.298460 15236 net.cpp:91] Creating Layer resx15_conv3_scale
I0818 11:11:38.298465 15236 net.cpp:469] resx15_conv3_scale <- resx15_conv3
I0818 11:11:38.298470 15236 net.cpp:430] resx15_conv3_scale -> resx15_conv3 (in-place)
I0818 11:11:38.298530 15236 layer_factory.hpp:77] Creating layer resx15_conv3_scale
I0818 11:11:38.298676 15236 net.cpp:141] Setting up resx15_conv3_scale
I0818 11:11:38.298684 15236 net.cpp:148] Top shape: 40 960 7 7 (1881600)
I0818 11:11:38.298687 15236 net.cpp:156] Memory required for data: 2653244640
I0818 11:11:38.298692 15236 layer_factory.hpp:77] Creating layer resx15_elewise
I0818 11:11:38.298701 15236 net.cpp:91] Creating Layer resx15_elewise
I0818 11:11:38.298704 15236 net.cpp:469] resx15_elewise <- resx14_elewise_resx14_elewise_relu_0_split_1
I0818 11:11:38.298708 15236 net.cpp:469] resx15_elewise <- resx15_conv3
I0818 11:11:38.298713 15236 net.cpp:443] resx15_elewise -> resx15_elewise
I0818 11:11:38.298739 15236 net.cpp:141] Setting up resx15_elewise
I0818 11:11:38.298749 15236 net.cpp:148] Top shape: 40 960 7 7 (1881600)
I0818 11:11:38.298758 15236 net.cpp:156] Memory required for data: 2660771040
I0818 11:11:38.298760 15236 layer_factory.hpp:77] Creating layer resx15_elewise_relu
I0818 11:11:38.298768 15236 net.cpp:91] Creating Layer resx15_elewise_relu
I0818 11:11:38.298771 15236 net.cpp:469] resx15_elewise_relu <- resx15_elewise
I0818 11:11:38.298775 15236 net.cpp:430] resx15_elewise_relu -> resx15_elewise (in-place)
I0818 11:11:38.299152 15236 net.cpp:141] Setting up resx15_elewise_relu
I0818 11:11:38.299163 15236 net.cpp:148] Top shape: 40 960 7 7 (1881600)
I0818 11:11:38.299167 15236 net.cpp:156] Memory required for data: 2668297440
I0818 11:11:38.299170 15236 layer_factory.hpp:77] Creating layer resx15_elewise_resx15_elewise_relu_0_split
I0818 11:11:38.299176 15236 net.cpp:91] Creating Layer resx15_elewise_resx15_elewise_relu_0_split
I0818 11:11:38.299180 15236 net.cpp:469] resx15_elewise_resx15_elewise_relu_0_split <- resx15_elewise
I0818 11:11:38.299185 15236 net.cpp:443] resx15_elewise_resx15_elewise_relu_0_split -> resx15_elewise_resx15_elewise_relu_0_split_0
I0818 11:11:38.299192 15236 net.cpp:443] resx15_elewise_resx15_elewise_relu_0_split -> resx15_elewise_resx15_elewise_relu_0_split_1
I0818 11:11:38.299240 15236 net.cpp:141] Setting up resx15_elewise_resx15_elewise_relu_0_split
I0818 11:11:38.299247 15236 net.cpp:148] Top shape: 40 960 7 7 (1881600)
I0818 11:11:38.299250 15236 net.cpp:148] Top shape: 40 960 7 7 (1881600)
I0818 11:11:38.299253 15236 net.cpp:156] Memory required for data: 2683350240
I0818 11:11:38.299257 15236 layer_factory.hpp:77] Creating layer resx16_conv1
I0818 11:11:38.299265 15236 net.cpp:91] Creating Layer resx16_conv1
I0818 11:11:38.299269 15236 net.cpp:469] resx16_conv1 <- resx15_elewise_resx15_elewise_relu_0_split_0
I0818 11:11:38.299276 15236 net.cpp:443] resx16_conv1 -> resx16_conv1
I0818 11:11:38.303894 15236 net.cpp:141] Setting up resx16_conv1
I0818 11:11:38.303907 15236 net.cpp:148] Top shape: 40 240 7 7 (470400)
I0818 11:11:38.303911 15236 net.cpp:156] Memory required for data: 2685231840
I0818 11:11:38.303917 15236 layer_factory.hpp:77] Creating layer resx16_conv1_bn
I0818 11:11:38.303925 15236 net.cpp:91] Creating Layer resx16_conv1_bn
I0818 11:11:38.303930 15236 net.cpp:469] resx16_conv1_bn <- resx16_conv1
I0818 11:11:38.303936 15236 net.cpp:430] resx16_conv1_bn -> resx16_conv1 (in-place)
I0818 11:11:38.304143 15236 net.cpp:141] Setting up resx16_conv1_bn
I0818 11:11:38.304150 15236 net.cpp:148] Top shape: 40 240 7 7 (470400)
I0818 11:11:38.304153 15236 net.cpp:156] Memory required for data: 2687113440
I0818 11:11:38.304160 15236 layer_factory.hpp:77] Creating layer resx16_conv1_scale
I0818 11:11:38.304168 15236 net.cpp:91] Creating Layer resx16_conv1_scale
I0818 11:11:38.304172 15236 net.cpp:469] resx16_conv1_scale <- resx16_conv1
I0818 11:11:38.304177 15236 net.cpp:430] resx16_conv1_scale -> resx16_conv1 (in-place)
I0818 11:11:38.304219 15236 layer_factory.hpp:77] Creating layer resx16_conv1_scale
I0818 11:11:38.304342 15236 net.cpp:141] Setting up resx16_conv1_scale
I0818 11:11:38.304349 15236 net.cpp:148] Top shape: 40 240 7 7 (470400)
I0818 11:11:38.304352 15236 net.cpp:156] Memory required for data: 2688995040
I0818 11:11:38.304358 15236 layer_factory.hpp:77] Creating layer resx16_conv1_relu
I0818 11:11:38.304364 15236 net.cpp:91] Creating Layer resx16_conv1_relu
I0818 11:11:38.304368 15236 net.cpp:469] resx16_conv1_relu <- resx16_conv1
I0818 11:11:38.304373 15236 net.cpp:430] resx16_conv1_relu -> resx16_conv1 (in-place)
I0818 11:11:38.304746 15236 net.cpp:141] Setting up resx16_conv1_relu
I0818 11:11:38.304757 15236 net.cpp:148] Top shape: 40 240 7 7 (470400)
I0818 11:11:38.304762 15236 net.cpp:156] Memory required for data: 2690876640
I0818 11:11:38.304766 15236 layer_factory.hpp:77] Creating layer shuffle16
I0818 11:11:38.304772 15236 net.cpp:91] Creating Layer shuffle16
I0818 11:11:38.304776 15236 net.cpp:469] shuffle16 <- resx16_conv1
I0818 11:11:38.304781 15236 net.cpp:443] shuffle16 -> shuffle16
I0818 11:11:38.304816 15236 net.cpp:141] Setting up shuffle16
I0818 11:11:38.304827 15236 net.cpp:148] Top shape: 40 240 7 7 (470400)
I0818 11:11:38.304839 15236 net.cpp:156] Memory required for data: 2692758240
I0818 11:11:38.304842 15236 layer_factory.hpp:77] Creating layer resx16_conv2
I0818 11:11:38.304850 15236 net.cpp:91] Creating Layer resx16_conv2
I0818 11:11:38.304854 15236 net.cpp:469] resx16_conv2 <- shuffle16
I0818 11:11:38.304859 15236 net.cpp:443] resx16_conv2 -> resx16_conv2
I0818 11:11:38.305058 15236 net.cpp:141] Setting up resx16_conv2
I0818 11:11:38.305066 15236 net.cpp:148] Top shape: 40 240 7 7 (470400)
I0818 11:11:38.305069 15236 net.cpp:156] Memory required for data: 2694639840
I0818 11:11:38.305074 15236 layer_factory.hpp:77] Creating layer resx16_conv2_bn
I0818 11:11:38.305088 15236 net.cpp:91] Creating Layer resx16_conv2_bn
I0818 11:11:38.305091 15236 net.cpp:469] resx16_conv2_bn <- resx16_conv2
I0818 11:11:38.305096 15236 net.cpp:430] resx16_conv2_bn -> resx16_conv2 (in-place)
I0818 11:11:38.305302 15236 net.cpp:141] Setting up resx16_conv2_bn
I0818 11:11:38.305310 15236 net.cpp:148] Top shape: 40 240 7 7 (470400)
I0818 11:11:38.305313 15236 net.cpp:156] Memory required for data: 2696521440
I0818 11:11:38.305320 15236 layer_factory.hpp:77] Creating layer resx16_conv2_scale
I0818 11:11:38.305326 15236 net.cpp:91] Creating Layer resx16_conv2_scale
I0818 11:11:38.305330 15236 net.cpp:469] resx16_conv2_scale <- resx16_conv2
I0818 11:11:38.305335 15236 net.cpp:430] resx16_conv2_scale -> resx16_conv2 (in-place)
I0818 11:11:38.305378 15236 layer_factory.hpp:77] Creating layer resx16_conv2_scale
I0818 11:11:38.305500 15236 net.cpp:141] Setting up resx16_conv2_scale
I0818 11:11:38.305506 15236 net.cpp:148] Top shape: 40 240 7 7 (470400)
I0818 11:11:38.305510 15236 net.cpp:156] Memory required for data: 2698403040
I0818 11:11:38.305515 15236 layer_factory.hpp:77] Creating layer resx16_conv3
I0818 11:11:38.305523 15236 net.cpp:91] Creating Layer resx16_conv3
I0818 11:11:38.305527 15236 net.cpp:469] resx16_conv3 <- resx16_conv2
I0818 11:11:38.305531 15236 net.cpp:443] resx16_conv3 -> resx16_conv3
I0818 11:11:38.310827 15236 net.cpp:141] Setting up resx16_conv3
I0818 11:11:38.310842 15236 net.cpp:148] Top shape: 40 960 7 7 (1881600)
I0818 11:11:38.310845 15236 net.cpp:156] Memory required for data: 2705929440
I0818 11:11:38.310850 15236 layer_factory.hpp:77] Creating layer resx16_conv3_bn
I0818 11:11:38.310859 15236 net.cpp:91] Creating Layer resx16_conv3_bn
I0818 11:11:38.310863 15236 net.cpp:469] resx16_conv3_bn <- resx16_conv3
I0818 11:11:38.310868 15236 net.cpp:430] resx16_conv3_bn -> resx16_conv3 (in-place)
I0818 11:11:38.311116 15236 net.cpp:141] Setting up resx16_conv3_bn
I0818 11:11:38.311125 15236 net.cpp:148] Top shape: 40 960 7 7 (1881600)
I0818 11:11:38.311128 15236 net.cpp:156] Memory required for data: 2713455840
I0818 11:11:38.311134 15236 layer_factory.hpp:77] Creating layer resx16_conv3_scale
I0818 11:11:38.311141 15236 net.cpp:91] Creating Layer resx16_conv3_scale
I0818 11:11:38.311144 15236 net.cpp:469] resx16_conv3_scale <- resx16_conv3
I0818 11:11:38.311149 15236 net.cpp:430] resx16_conv3_scale -> resx16_conv3 (in-place)
I0818 11:11:38.311213 15236 layer_factory.hpp:77] Creating layer resx16_conv3_scale
I0818 11:11:38.311363 15236 net.cpp:141] Setting up resx16_conv3_scale
I0818 11:11:38.311370 15236 net.cpp:148] Top shape: 40 960 7 7 (1881600)
I0818 11:11:38.311373 15236 net.cpp:156] Memory required for data: 2720982240
I0818 11:11:38.311379 15236 layer_factory.hpp:77] Creating layer resx16_elewise
I0818 11:11:38.311385 15236 net.cpp:91] Creating Layer resx16_elewise
I0818 11:11:38.311388 15236 net.cpp:469] resx16_elewise <- resx15_elewise_resx15_elewise_relu_0_split_1
I0818 11:11:38.311393 15236 net.cpp:469] resx16_elewise <- resx16_conv3
I0818 11:11:38.311398 15236 net.cpp:443] resx16_elewise -> resx16_elewise
I0818 11:11:38.311426 15236 net.cpp:141] Setting up resx16_elewise
I0818 11:11:38.311434 15236 net.cpp:148] Top shape: 40 960 7 7 (1881600)
I0818 11:11:38.311435 15236 net.cpp:156] Memory required for data: 2728508640
I0818 11:11:38.311442 15236 layer_factory.hpp:77] Creating layer resx16_elewise_relu
I0818 11:11:38.311455 15236 net.cpp:91] Creating Layer resx16_elewise_relu
I0818 11:11:38.311458 15236 net.cpp:469] resx16_elewise_relu <- resx16_elewise
I0818 11:11:38.311462 15236 net.cpp:430] resx16_elewise_relu -> resx16_elewise (in-place)
I0818 11:11:38.311841 15236 net.cpp:141] Setting up resx16_elewise_relu
I0818 11:11:38.311853 15236 net.cpp:148] Top shape: 40 960 7 7 (1881600)
I0818 11:11:38.311857 15236 net.cpp:156] Memory required for data: 2736035040
I0818 11:11:38.311861 15236 layer_factory.hpp:77] Creating layer pool_ave
I0818 11:11:38.311869 15236 net.cpp:91] Creating Layer pool_ave
I0818 11:11:38.311874 15236 net.cpp:469] pool_ave <- resx16_elewise
I0818 11:11:38.311879 15236 net.cpp:443] pool_ave -> pool_ave
I0818 11:11:38.312088 15236 net.cpp:141] Setting up pool_ave
I0818 11:11:38.312100 15236 net.cpp:148] Top shape: 40 960 1 1 (38400)
I0818 11:11:38.312103 15236 net.cpp:156] Memory required for data: 2736188640
I0818 11:11:38.312106 15236 layer_factory.hpp:77] Creating layer fc1000
I0818 11:11:38.312116 15236 net.cpp:91] Creating Layer fc1000
I0818 11:11:38.312120 15236 net.cpp:469] fc1000 <- pool_ave
I0818 11:11:38.312126 15236 net.cpp:443] fc1000 -> fc1000
I0818 11:11:38.338397 15236 net.cpp:141] Setting up fc1000
I0818 11:11:38.338433 15236 net.cpp:148] Top shape: 40 1000 1 1 (40000)
I0818 11:11:38.338438 15236 net.cpp:156] Memory required for data: 2736348640
I0818 11:11:38.338446 15236 layer_factory.hpp:77] Creating layer fc1000_fc1000_0_split
I0818 11:11:38.338455 15236 net.cpp:91] Creating Layer fc1000_fc1000_0_split
I0818 11:11:38.338460 15236 net.cpp:469] fc1000_fc1000_0_split <- fc1000
I0818 11:11:38.338467 15236 net.cpp:443] fc1000_fc1000_0_split -> fc1000_fc1000_0_split_0
I0818 11:11:38.338474 15236 net.cpp:443] fc1000_fc1000_0_split -> fc1000_fc1000_0_split_1
I0818 11:11:38.338522 15236 net.cpp:141] Setting up fc1000_fc1000_0_split
I0818 11:11:38.338528 15236 net.cpp:148] Top shape: 40 1000 1 1 (40000)
I0818 11:11:38.338532 15236 net.cpp:148] Top shape: 40 1000 1 1 (40000)
I0818 11:11:38.338536 15236 net.cpp:156] Memory required for data: 2736668640
I0818 11:11:38.338538 15236 layer_factory.hpp:77] Creating layer accuracy
I0818 11:11:38.343725 15236 net.cpp:91] Creating Layer accuracy
I0818 11:11:38.343735 15236 net.cpp:469] accuracy <- fc1000_fc1000_0_split_0
I0818 11:11:38.343739 15236 net.cpp:469] accuracy <- label_data_1_split_0
I0818 11:11:38.343744 15236 net.cpp:443] accuracy -> accuracy
…
