…
I0813 23:21:10.446593  6877 net.cpp:313] The NetState phase (0) differed from the phase (1) specified by a rule in layer accuracy
I0813 23:21:10.447551  6877 net.cpp:49] Initializing net from parameters: 
name: "shufflenet"
state {
  phase: TRAIN
}
layer {
  name: "data"
  type: "Data"
  top: "data"
  top: "label"
  include {
    phase: TRAIN
  }
  transform_param {
    scale: 0.017
    mirror: false
    crop_size: 224
    mean_value: 103.94
    mean_value: 116.78
    mean_value: 123.68
  }
  data_param {
    source: "/home/chenyao/ilsvrc12/ilsvrc12_train_lmdb"
    batch_size: 80
    backend: LMDB
  }
}
layer {
  name: "conv1"
  type: "Convolution"
  bottom: "data"
  top: "conv1"
  convolution_param {
    num_output: 24
    bias_term: false
    pad: 1
    kernel_size: 3
    stride: 2
    weight_filler {
      type: "msra"
    }
  }
}
layer {
  name: "conv1_bn"
  type: "BatchNorm"
  bottom: "conv1"
  top: "conv1"
  param {
    lr_mult: 0
    decay_mult: 0
  }
  param {
    lr_mult: 0
    decay_mult: 0
  }
  param {
    lr_mult: 0
    decay_mult: 0
  }
}
layer {
  name: "conv1_scale"
  type: "Scale"
  bottom: "conv1"
  top: "conv1"
  scale_param {
    filler {
      value: 1
    }
    bias_term: true
    bias_filler {
      value: 0
    }
  }
}
layer {
  name: "conv1_relu"
  type: "ReLU"
  bottom: "conv1"
  top: "conv1"
}
layer {
  name: "pool1"
  type: "Pooling"
  bottom: "conv1"
  top: "pool1"
  pooling_param {
    pool: MAX
    kernel_size: 3
    stride: 2
  }
}
layer {
  name: "resx1_match_conv"
  type: "Pooling"
  bottom: "pool1"
  top: "resx1_match_conv"
  pooling_param {
    pool: AVE
    kernel_size: 3
    stride: 2
  }
}
layer {
  name: "resx1_conv1"
  type: "Convolution"
  bottom: "pool1"
  top: "resx1_conv1"
  convolution_param {
    num_output: 54
    bias_term: false
    pad: 0
    kernel_size: 1
    stride: 1
    weight_filler {
      type: "msra"
    }
  }
}
layer {
  name: "resx1_conv1_bn"
  type: "BatchNorm"
  bottom: "resx1_conv1"
  top: "resx1_conv1"
  param {
    lr_mult: 0
    decay_mult: 0
  }
  param {
    lr_mult: 0
    decay_mult: 0
  }
  param {
    lr_mult: 0
    decay_mult: 0
  }
}
layer {
  name: "resx1_conv1_scale"
  type: "Scale"
  bottom: "resx1_conv1"
  top: "resx1_conv1"
  scale_param {
    filler {
      value: 1
    }
    bias_term: true
    bias_filler {
      value: 0
    }
  }
}
layer {
  name: "resx1_conv1_relu"
  type: "ReLU"
  bottom: "resx1_conv1"
  top: "resx1_conv1"
}
layer {
  name: "resx1_conv2"
  type: "ConvolutionDepthwise"
  bottom: "resx1_conv1"
  top: "resx1_conv2"
  convolution_param {
    num_output: 54
    bias_term: false
    pad: 1
    kernel_size: 3
    stride: 2
    weight_filler {
      type: "msra"
    }
  }
}
layer {
  name: "resx1_conv2_bn"
  type: "BatchNorm"
  bottom: "resx1_conv2"
  top: "resx1_conv2"
  param {
    lr_mult: 0
    decay_mult: 0
  }
  param {
    lr_mult: 0
    decay_mult: 0
  }
  param {
    lr_mult: 0
    decay_mult: 0
  }
}
layer {
  name: "resx1_conv2_scale"
  type: "Scale"
  bottom: "resx1_conv2"
  top: "resx1_conv2"
  scale_param {
    filler {
      value: 1
    }
    bias_term: true
    bias_filler {
      value: 0
    }
  }
}
layer {
  name: "resx1_conv3"
  type: "Convolution"
  bottom: "resx1_conv2"
  top: "resx1_conv3"
  convolution_param {
    num_output: 216
    bias_term: false
    pad: 0
    kernel_size: 1
    group: 3
    stride: 1
    weight_filler {
      type: "msra"
    }
  }
}
layer {
  name: "resx1_conv3_bn"
  type: "BatchNorm"
  bottom: "resx1_conv3"
  top: "resx1_conv3"
  param {
    lr_mult: 0
    decay_mult: 0
  }
  param {
    lr_mult: 0
    decay_mult: 0
  }
  param {
    lr_mult: 0
    decay_mult: 0
  }
}
layer {
  name: "resx1_conv3_scale"
  type: "Scale"
  bottom: "resx1_conv3"
  top: "resx1_conv3"
  scale_param {
    filler {
      value: 1
    }
    bias_term: true
    bias_filler {
      value: 0
    }
  }
}
layer {
  name: "resx1_concat"
  type: "Concat"
  bottom: "resx1_match_conv"
  bottom: "resx1_conv3"
  top: "resx1_concat"
}
layer {
  name: "resx1_concat_relu"
  type: "ReLU"
  bottom: "resx1_concat"
  top: "resx1_concat"
}
layer {
  name: "resx2_conv1"
  type: "Convolution"
  bottom: "resx1_concat"
  top: "resx2_conv1"
  convolution_param {
    num_output: 60
    bias_term: false
    pad: 0
    kernel_size: 1
    group: 3
    stride: 1
    weight_filler {
      type: "msra"
    }
  }
}
layer {
  name: "resx2_conv1_bn"
  type: "BatchNorm"
  bottom: "resx2_conv1"
  top: "resx2_conv1"
  param {
    lr_mult: 0
    decay_mult: 0
  }
  param {
    lr_mult: 0
    decay_mult: 0
  }
  param {
    lr_mult: 0
    decay_mult: 0
  }
}
layer {
  name: "resx2_conv1_scale"
  type: "Scale"
  bottom: "resx2_conv1"
  top: "resx2_conv1"
  scale_param {
    filler {
      value: 1
    }
    bias_term: true
    bias_filler {
      value: 0
    }
  }
}
layer {
  name: "resx2_conv1_relu"
  type: "ReLU"
  bottom: "resx2_conv1"
  top: "resx2_conv1"
}
layer {
  name: "shuffle2"
  type: "ShuffleChannel"
  bottom: "resx2_conv1"
  top: "shuffle2"
  shuffle_channel_param {
    group: 3
  }
}
layer {
  name: "resx2_conv2"
  type: "ConvolutionDepthwise"
  bottom: "shuffle2"
  top: "resx2_conv2"
  convolution_param {
    num_output: 60
    bias_term: false
    pad: 1
    kernel_size: 3
    stride: 1
    weight_filler {
      type: "msra"
    }
  }
}
layer {
  name: "resx2_conv2_bn"
  type: "BatchNorm"
  bottom: "resx2_conv2"
  top: "resx2_conv2"
  param {
    lr_mult: 0
    decay_mult: 0
  }
  param {
    lr_mult: 0
    decay_mult: 0
  }
  param {
    lr_mult: 0
    decay_mult: 0
  }
}
layer {
  name: "resx2_conv2_scale"
  type: "Scale"
  bottom: "resx2_conv2"
  top: "resx2_conv2"
  scale_param {
    filler {
      value: 1
    }
    bias_term: true
    bias_filler {
      value: 0
    }
  }
}
layer {
  name: "resx2_conv3"
  type: "Convolution"
  bottom: "resx2_conv2"
  top: "resx2_conv3"
  convolution_param {
    num_output: 240
    bias_term: false
    pad: 0
    kernel_size: 1
    group: 3
    stride: 1
    weight_filler {
      type: "msra"
    }
  }
}
layer {
  name: "resx2_conv3_bn"
  type: "BatchNorm"
  bottom: "resx2_conv3"
  top: "resx2_conv3"
  param {
    lr_mult: 0
    decay_mult: 0
  }
  param {
    lr_mult: 0
    decay_mult: 0
  }
  param {
    lr_mult: 0
    decay_mult: 0
  }
}
layer {
  name: "resx2_conv3_scale"
  type: "Scale"
  bottom: "resx2_conv3"
  top: "resx2_conv3"
  scale_param {
    filler {
      value: 1
    }
    bias_term: true
    bias_filler {
      value: 0
    }
  }
}
layer {
  name: "resx2_elewise"
  type: "Eltwise"
  bottom: "resx1_concat"
  bottom: "resx2_conv3"
  top: "resx2_elewise"
  eltwise_param {
    operation: SUM
  }
}
layer {
  name: "resx2_elewise_relu"
  type: "ReLU"
  bottom: "resx2_elewise"
  top: "resx2_elewise"
}
layer {
  name: "resx3_conv1"
  type: "Convolution"
  bottom: "resx2_elewise"
  top: "resx3_conv1"
  convolution_param {
    num_output: 60
    bias_term: false
    pad: 0
    kernel_size: 1
    group: 3
    stride: 1
    weight_filler {
      type: "msra"
    }
  }
}
layer {
  name: "resx3_conv1_bn"
  type: "BatchNorm"
  bottom: "resx3_conv1"
  top: "resx3_conv1"
  param {
    lr_mult: 0
    decay_mult: 0
  }
  param {
    lr_mult: 0
    decay_mult: 0
  }
  param {
    lr_mult: 0
    decay_mult: 0
  }
}
layer {
  name: "resx3_conv1_scale"
  type: "Scale"
  bottom: "resx3_conv1"
  top: "resx3_conv1"
  scale_param {
    filler {
      value: 1
    }
    bias_term: true
    bias_filler {
      value: 0
    }
  }
}
layer {
  name: "resx3_conv1_relu"
  type: "ReLU"
  bottom: "resx3_conv1"
  top: "resx3_conv1"
}
layer {
  name: "shuffle3"
  type: "ShuffleChannel"
  bottom: "resx3_conv1"
  top: "shuffle3"
  shuffle_channel_param {
    group: 3
  }
}
layer {
  name: "resx3_conv2"
  type: "ConvolutionDepthwise"
  bottom: "shuffle3"
  top: "resx3_conv2"
  convolution_param {
    num_output: 60
    bias_term: false
    pad: 1
    kernel_size: 3
    stride: 1
    weight_filler {
      type: "msra"
    }
  }
}
layer {
  name: "resx3_conv2_bn"
  type: "BatchNorm"
  bottom: "resx3_conv2"
  top: "resx3_conv2"
  param {
    lr_mult: 0
    decay_mult: 0
  }
  param {
    lr_mult: 0
    decay_mult: 0
  }
  param {
    lr_mult: 0
    decay_mult: 0
  }
}
layer {
  name: "resx3_conv2_scale"
  type: "Scale"
  bottom: "resx3_conv2"
  top: "resx3_conv2"
  scale_param {
    filler {
      value: 1
    }
    bias_term: true
    bias_filler {
      value: 0
    }
  }
}
layer {
  name: "resx3_conv3"
  type: "Convolution"
  bottom: "resx3_conv2"
  top: "resx3_conv3"
  convolution_param {
    num_output: 240
    bias_term: false
    pad: 0
    kernel_size: 1
    group: 3
    stride: 1
    weight_filler {
      type: "msra"
    }
  }
}
layer {
  name: "resx3_conv3_bn"
  type: "BatchNorm"
  bottom: "resx3_conv3"
  top: "resx3_conv3"
  param {
    lr_mult: 0
    decay_mult: 0
  }
  param {
    lr_mult: 0
    decay_mult: 0
  }
  param {
    lr_mult: 0
    decay_mult: 0
  }
}
layer {
  name: "resx3_conv3_scale"
  type: "Scale"
  bottom: "resx3_conv3"
  top: "resx3_conv3"
  scale_param {
    filler {
      value: 1
    }
    bias_term: true
    bias_filler {
      value: 0
    }
  }
}
layer {
  name: "resx3_elewise"
  type: "Eltwise"
  bottom: "resx2_elewise"
  bottom: "resx3_conv3"
  top: "resx3_elewise"
  eltwise_param {
    operation: SUM
  }
}
layer {
  name: "resx3_elewise_relu"
  type: "ReLU"
  bottom: "resx3_elewise"
  top: "resx3_elewise"
}
layer {
  name: "resx4_conv1"
  type: "Convolution"
  bottom: "resx3_elewise"
  top: "resx4_conv1"
  convolution_param {
    num_output: 60
    bias_term: false
    pad: 0
    kernel_size: 1
    group: 3
    stride: 1
    weight_filler {
      type: "msra"
    }
  }
}
layer {
  name: "resx4_conv1_bn"
  type: "BatchNorm"
  bottom: "resx4_conv1"
  top: "resx4_conv1"
  param {
    lr_mult: 0
    decay_mult: 0
  }
  param {
    lr_mult: 0
    decay_mult: 0
  }
  param {
    lr_mult: 0
    decay_mult: 0
  }
}
layer {
  name: "resx4_conv1_scale"
  type: "Scale"
  bottom: "resx4_conv1"
  top: "resx4_conv1"
  scale_param {
    filler {
      value: 1
    }
    bias_term: true
    bias_filler {
      value: 0
    }
  }
}
layer {
  name: "resx4_conv1_relu"
  type: "ReLU"
  bottom: "resx4_conv1"
  top: "resx4_conv1"
}
layer {
  name: "shuffle4"
  type: "ShuffleChannel"
  bottom: "resx4_conv1"
  top: "shuffle4"
  shuffle_channel_param {
    group: 3
  }
}
layer {
  name: "resx4_conv2"
  type: "ConvolutionDepthwise"
  bottom: "shuffle4"
  top: "resx4_conv2"
  convolution_param {
    num_output: 60
    bias_term: false
    pad: 1
    kernel_size: 3
    stride: 1
    weight_filler {
      type: "msra"
    }
  }
}
layer {
  name: "resx4_conv2_bn"
  type: "BatchNorm"
  bottom: "resx4_conv2"
  top: "resx4_conv2"
  param {
    lr_mult: 0
    decay_mult: 0
  }
  param {
    lr_mult: 0
    decay_mult: 0
  }
  param {
    lr_mult: 0
    decay_mult: 0
  }
}
layer {
  name: "resx4_conv2_scale"
  type: "Scale"
  bottom: "resx4_conv2"
  top: "resx4_conv2"
  scale_param {
    filler {
      value: 1
    }
    bias_term: true
    bias_filler {
      value: 0
    }
  }
}
layer {
  name: "resx4_conv3"
  type: "Convolution"
  bottom: "resx4_conv2"
  top: "resx4_conv3"
  convolution_param {
    num_output: 240
    bias_term: false
    pad: 0
    kernel_size: 1
    group: 3
    stride: 1
    weight_filler {
      type: "msra"
    }
  }
}
layer {
  name: "resx4_conv3_bn"
  type: "BatchNorm"
  bottom: "resx4_conv3"
  top: "resx4_conv3"
  param {
    lr_mult: 0
    decay_mult: 0
  }
  param {
    lr_mult: 0
    decay_mult: 0
  }
  param {
    lr_mult: 0
    decay_mult: 0
  }
}
layer {
  name: "resx4_conv3_scale"
  type: "Scale"
  bottom: "resx4_conv3"
  top: "resx4_conv3"
  scale_param {
    filler {
      value: 1
    }
    bias_term: true
    bias_filler {
      value: 0
    }
  }
}
layer {
  name: "resx4_elewise"
  type: "Eltwise"
  bottom: "resx3_elewise"
  bottom: "resx4_conv3"
  top: "resx4_elewise"
  eltwise_param {
    operation: SUM
  }
}
layer {
  name: "resx4_elewise_relu"
  type: "ReLU"
  bottom: "resx4_elewise"
  top: "resx4_elewise"
}
layer {
  name: "resx5_match_conv"
  type: "Pooling"
  bottom: "resx4_elewise"
  top: "resx5_match_conv"
  pooling_param {
    pool: AVE
    kernel_size: 3
    stride: 2
  }
}
layer {
  name: "resx5_conv1"
  type: "Convolution"
  bottom: "resx4_elewise"
  top: "resx5_conv1"
  convolution_param {
    num_output: 60
    bias_term: false
    pad: 0
    kernel_size: 1
    group: 3
    stride: 1
    weight_filler {
      type: "msra"
    }
  }
}
layer {
  name: "resx5_conv1_bn"
  type: "BatchNorm"
  bottom: "resx5_conv1"
  top: "resx5_conv1"
  param {
    lr_mult: 0
    decay_mult: 0
  }
  param {
    lr_mult: 0
    decay_mult: 0
  }
  param {
    lr_mult: 0
    decay_mult: 0
  }
}
layer {
  name: "resx5_conv1_scale"
  type: "Scale"
  bottom: "resx5_conv1"
  top: "resx5_conv1"
  scale_param {
    filler {
      value: 1
    }
    bias_term: true
    bias_filler {
      value: 0
    }
  }
}
layer {
  name: "resx5_conv1_relu"
  type: "ReLU"
  bottom: "resx5_conv1"
  top: "resx5_conv1"
}
layer {
  name: "shuffle5"
  type: "ShuffleChannel"
  bottom: "resx5_conv1"
  top: "shuffle5"
  shuffle_channel_param {
    group: 3
  }
}
layer {
  name: "resx5_conv2"
  type: "ConvolutionDepthwise"
  bottom: "shuffle5"
  top: "resx5_conv2"
  convolution_param {
    num_output: 60
    bias_term: false
    pad: 1
    kernel_size: 3
    stride: 2
    weight_filler {
      type: "msra"
    }
  }
}
layer {
  name: "resx5_conv2_bn"
  type: "BatchNorm"
  bottom: "resx5_conv2"
  top: "resx5_conv2"
  param {
    lr_mult: 0
    decay_mult: 0
  }
  param {
    lr_mult: 0
    decay_mult: 0
  }
  param {
    lr_mult: 0
    decay_mult: 0
  }
}
layer {
  name: "resx5_conv2_scale"
  type: "Scale"
  bottom: "resx5_conv2"
  top: "resx5_conv2"
  scale_param {
    filler {
      value: 1
    }
    bias_term: true
    bias_filler {
      value: 0
    }
  }
}
layer {
  name: "resx5_conv3"
  type: "Convolution"
  bottom: "resx5_conv2"
  top: "resx5_conv3"
  convolution_param {
    num_output: 240
    bias_term: false
    pad: 0
    kernel_size: 1
    group: 3
    stride: 1
    weight_filler {
      type: "msra"
    }
  }
}
layer {
  name: "resx5_conv3_bn"
  type: "BatchNorm"
  bottom: "resx5_conv3"
  top: "resx5_conv3"
  param {
    lr_mult: 0
    decay_mult: 0
  }
  param {
    lr_mult: 0
    decay_mult: 0
  }
  param {
    lr_mult: 0
    decay_mult: 0
  }
}
layer {
  name: "resx5_conv3_scale"
  type: "Scale"
  bottom: "resx5_conv3"
  top: "resx5_conv3"
  scale_param {
    filler {
      value: 1
    }
    bias_term: true
    bias_filler {
      value: 0
    }
  }
}
layer {
  name: "resx5_concat"
  type: "Concat"
  bottom: "resx5_match_conv"
  bottom: "resx5_conv3"
  top: "resx5_concat"
}
layer {
  name: "resx5_concat_relu"
  type: "ReLU"
  bottom: "resx5_concat"
  top: "resx5_concat"
}
layer {
  name: "resx6_conv1"
  type: "Convolution"
  bottom: "resx5_concat"
  top: "resx6_conv1"
  convolution_param {
    num_output: 120
    bias_term: false
    pad: 0
    kernel_size: 1
    group: 3
    stride: 1
    weight_filler {
      type: "msra"
    }
  }
}
layer {
  name: "resx6_conv1_bn"
  type: "BatchNorm"
  bottom: "resx6_conv1"
  top: "resx6_conv1"
  param {
    lr_mult: 0
    decay_mult: 0
  }
  param {
    lr_mult: 0
    decay_mult: 0
  }
  param {
    lr_mult: 0
    decay_mult: 0
  }
}
layer {
  name: "resx6_conv1_scale"
  type: "Scale"
  bottom: "resx6_conv1"
  top: "resx6_conv1"
  scale_param {
    filler {
      value: 1
    }
    bias_term: true
    bias_filler {
      value: 0
    }
  }
}
layer {
  name: "resx6_conv1_relu"
  type: "ReLU"
  bottom: "resx6_conv1"
  top: "resx6_conv1"
}
layer {
  name: "shuffle6"
  type: "ShuffleChannel"
  bottom: "resx6_conv1"
  top: "shuffle6"
  shuffle_channel_param {
    group: 3
  }
}
layer {
  name: "resx6_conv2"
  type: "ConvolutionDepthwise"
  bottom: "shuffle6"
  top: "resx6_conv2"
  convolution_param {
    num_output: 120
    bias_term: false
    pad: 1
    kernel_size: 3
    stride: 1
    weight_filler {
      type: "msra"
    }
  }
}
layer {
  name: "resx6_conv2_bn"
  type: "BatchNorm"
  bottom: "resx6_conv2"
  top: "resx6_conv2"
  param {
    lr_mult: 0
    decay_mult: 0
  }
  param {
    lr_mult: 0
    decay_mult: 0
  }
  param {
    lr_mult: 0
    decay_mult: 0
  }
}
layer {
  name: "resx6_conv2_scale"
  type: "Scale"
  bottom: "resx6_conv2"
  top: "resx6_conv2"
  scale_param {
    filler {
      value: 1
    }
    bias_term: true
    bias_filler {
      value: 0
    }
  }
}
layer {
  name: "resx6_conv3"
  type: "Convolution"
  bottom: "resx6_conv2"
  top: "resx6_conv3"
  convolution_param {
    num_output: 480
    bias_term: false
    pad: 0
    kernel_size: 1
    group: 3
    stride: 1
    weight_filler {
      type: "msra"
    }
  }
}
layer {
  name: "resx6_conv3_bn"
  type: "BatchNorm"
  bottom: "resx6_conv3"
  top: "resx6_conv3"
  param {
    lr_mult: 0
    decay_mult: 0
  }
  param {
    lr_mult: 0
    decay_mult: 0
  }
  param {
    lr_mult: 0
    decay_mult: 0
  }
}
layer {
  name: "resx6_conv3_scale"
  type: "Scale"
  bottom: "resx6_conv3"
  top: "resx6_conv3"
  scale_param {
    filler {
      value: 1
    }
    bias_term: true
    bias_filler {
      value: 0
    }
  }
}
layer {
  name: "resx6_elewise"
  type: "Eltwise"
  bottom: "resx5_concat"
  bottom: "resx6_conv3"
  top: "resx6_elewise"
  eltwise_param {
    operation: SUM
  }
}
layer {
  name: "resx6_elewise_relu"
  type: "ReLU"
  bottom: "resx6_elewise"
  top: "resx6_elewise"
}
layer {
  name: "resx7_conv1"
  type: "Convolution"
  bottom: "resx6_elewise"
  top: "resx7_conv1"
  convolution_param {
    num_output: 120
    bias_term: false
    pad: 0
    kernel_size: 1
    group: 3
    stride: 1
    weight_filler {
      type: "msra"
    }
  }
}
layer {
  name: "resx7_conv1_bn"
  type: "BatchNorm"
  bottom: "resx7_conv1"
  top: "resx7_conv1"
  param {
    lr_mult: 0
    decay_mult: 0
  }
  param {
    lr_mult: 0
    decay_mult: 0
  }
  param {
    lr_mult: 0
    decay_mult: 0
  }
}
layer {
  name: "resx7_conv1_scale"
  type: "Scale"
  bottom: "resx7_conv1"
  top: "resx7_conv1"
  scale_param {
    filler {
      value: 1
    }
    bias_term: true
    bias_filler {
      value: 0
    }
  }
}
layer {
  name: "resx7_conv1_relu"
  type: "ReLU"
  bottom: "resx7_conv1"
  top: "resx7_conv1"
}
layer {
  name: "shuffle7"
  type: "ShuffleChannel"
  bottom: "resx7_conv1"
  top: "shuffle7"
  shuffle_channel_param {
    group: 3
  }
}
layer {
  name: "resx7_conv2"
  type: "ConvolutionDepthwise"
  bottom: "shuffle7"
  top: "resx7_conv2"
  convolution_param {
    num_output: 120
    bias_term: false
    pad: 1
    kernel_size: 3
    stride: 1
    weight_filler {
      type: "msra"
    }
  }
}
layer {
  name: "resx7_conv2_bn"
  type: "BatchNorm"
  bottom: "resx7_conv2"
  top: "resx7_conv2"
  param {
    lr_mult: 0
    decay_mult: 0
  }
  param {
    lr_mult: 0
    decay_mult: 0
  }
  param {
    lr_mult: 0
    decay_mult: 0
  }
}
layer {
  name: "resx7_conv2_scale"
  type: "Scale"
  bottom: "resx7_conv2"
  top: "resx7_conv2"
  scale_param {
    filler {
      value: 1
    }
    bias_term: true
    bias_filler {
      value: 0
    }
  }
}
layer {
  name: "resx7_conv3"
  type: "Convolution"
  bottom: "resx7_conv2"
  top: "resx7_conv3"
  convolution_param {
    num_output: 480
    bias_term: false
    pad: 0
    kernel_size: 1
    group: 3
    stride: 1
    weight_filler {
      type: "msra"
    }
  }
}
layer {
  name: "resx7_conv3_bn"
  type: "BatchNorm"
  bottom: "resx7_conv3"
  top: "resx7_conv3"
  param {
    lr_mult: 0
    decay_mult: 0
  }
  param {
    lr_mult: 0
    decay_mult: 0
  }
  param {
    lr_mult: 0
    decay_mult: 0
  }
}
layer {
  name: "resx7_conv3_scale"
  type: "Scale"
  bottom: "resx7_conv3"
  top: "resx7_conv3"
  scale_param {
    filler {
      value: 1
    }
    bias_term: true
    bias_filler {
      value: 0
    }
  }
}
layer {
  name: "resx7_elewise"
  type: "Eltwise"
  bottom: "resx6_elewise"
  bottom: "resx7_conv3"
  top: "resx7_elewise"
  eltwise_param {
    operation: SUM
  }
}
layer {
  name: "resx7_elewise_relu"
  type: "ReLU"
  bottom: "resx7_elewise"
  top: "resx7_elewise"
}
layer {
  name: "resx8_conv1"
  type: "Convolution"
  bottom: "resx7_elewise"
  top: "resx8_conv1"
  convolution_param {
    num_output: 120
    bias_term: false
    pad: 0
    kernel_size: 1
    group: 3
    stride: 1
    weight_filler {
      type: "msra"
    }
  }
}
layer {
  name: "resx8_conv1_bn"
  type: "BatchNorm"
  bottom: "resx8_conv1"
  top: "resx8_conv1"
  param {
    lr_mult: 0
    decay_mult: 0
  }
  param {
    lr_mult: 0
    decay_mult: 0
  }
  param {
    lr_mult: 0
    decay_mult: 0
  }
}
layer {
  name: "resx8_conv1_scale"
  type: "Scale"
  bottom: "resx8_conv1"
  top: "resx8_conv1"
  scale_param {
    filler {
      value: 1
    }
    bias_term: true
    bias_filler {
      value: 0
    }
  }
}
layer {
  name: "resx8_conv1_relu"
  type: "ReLU"
  bottom: "resx8_conv1"
  top: "resx8_conv1"
}
layer {
  name: "shuffle8"
  type: "ShuffleChannel"
  bottom: "resx8_conv1"
  top: "shuffle8"
  shuffle_channel_param {
    group: 3
  }
}
layer {
  name: "resx8_conv2"
  type: "ConvolutionDepthwise"
  bottom: "shuffle8"
  top: "resx8_conv2"
  convolution_param {
    num_output: 120
    bias_term: false
    pad: 1
    kernel_size: 3
    stride: 1
    weight_filler {
      type: "msra"
    }
  }
}
layer {
  name: "resx8_conv2_bn"
  type: "BatchNorm"
  bottom: "resx8_conv2"
  top: "resx8_conv2"
  param {
    lr_mult: 0
    decay_mult: 0
  }
  param {
    lr_mult: 0
    decay_mult: 0
  }
  param {
    lr_mult: 0
    decay_mult: 0
  }
}
layer {
  name: "resx8_conv2_scale"
  type: "Scale"
  bottom: "resx8_conv2"
  top: "resx8_conv2"
  scale_param {
    filler {
      value: 1
    }
    bias_term: true
    bias_filler {
      value: 0
    }
  }
}
layer {
  name: "resx8_conv3"
  type: "Convolution"
  bottom: "resx8_conv2"
  top: "resx8_conv3"
  convolution_param {
    num_output: 480
    bias_term: false
    pad: 0
    kernel_size: 1
    group: 3
    stride: 1
    weight_filler {
      type: "msra"
    }
  }
}
layer {
  name: "resx8_conv3_bn"
  type: "BatchNorm"
  bottom: "resx8_conv3"
  top: "resx8_conv3"
  param {
    lr_mult: 0
    decay_mult: 0
  }
  param {
    lr_mult: 0
    decay_mult: 0
  }
  param {
    lr_mult: 0
    decay_mult: 0
  }
}
layer {
  name: "resx8_conv3_scale"
  type: "Scale"
  bottom: "resx8_conv3"
  top: "resx8_conv3"
  scale_param {
    filler {
      value: 1
    }
    bias_term: true
    bias_filler {
      value: 0
    }
  }
}
layer {
  name: "resx8_elewise"
  type: "Eltwise"
  bottom: "resx7_elewise"
  bottom: "resx8_conv3"
  top: "resx8_elewise"
  eltwise_param {
    operation: SUM
  }
}
layer {
  name: "resx8_elewise_relu"
  type: "ReLU"
  bottom: "resx8_elewise"
  top: "resx8_elewise"
}
layer {
  name: "resx9_conv1"
  type: "Convolution"
  bottom: "resx8_elewise"
  top: "resx9_conv1"
  convolution_param {
    num_output: 120
    bias_term: false
    pad: 0
    kernel_size: 1
    group: 3
    stride: 1
    weight_filler {
      type: "msra"
    }
  }
}
layer {
  name: "resx9_conv1_bn"
  type: "BatchNorm"
  bottom: "resx9_conv1"
  top: "resx9_conv1"
  param {
    lr_mult: 0
    decay_mult: 0
  }
  param {
    lr_mult: 0
    decay_mult: 0
  }
  param {
    lr_mult: 0
    decay_mult: 0
  }
}
layer {
  name: "resx9_conv1_scale"
  type: "Scale"
  bottom: "resx9_conv1"
  top: "resx9_conv1"
  scale_param {
    filler {
      value: 1
    }
    bias_term: true
    bias_filler {
      value: 0
    }
  }
}
layer {
  name: "resx9_conv1_relu"
  type: "ReLU"
  bottom: "resx9_conv1"
  top: "resx9_conv1"
}
layer {
  name: "shuffle9"
  type: "ShuffleChannel"
  bottom: "resx9_conv1"
  top: "shuffle9"
  shuffle_channel_param {
    group: 3
  }
}
layer {
  name: "resx9_conv2"
  type: "ConvolutionDepthwise"
  bottom: "shuffle9"
  top: "resx9_conv2"
  convolution_param {
    num_output: 120
    bias_term: false
    pad: 1
    kernel_size: 3
    stride: 1
    weight_filler {
      type: "msra"
    }
  }
}
layer {
  name: "resx9_conv2_bn"
  type: "BatchNorm"
  bottom: "resx9_conv2"
  top: "resx9_conv2"
  param {
    lr_mult: 0
    decay_mult: 0
  }
  param {
    lr_mult: 0
    decay_mult: 0
  }
  param {
    lr_mult: 0
    decay_mult: 0
  }
}
layer {
  name: "resx9_conv2_scale"
  type: "Scale"
  bottom: "resx9_conv2"
  top: "resx9_conv2"
  scale_param {
    filler {
      value: 1
    }
    bias_term: true
    bias_filler {
      value: 0
    }
  }
}
layer {
  name: "resx9_conv3"
  type: "Convolution"
  bottom: "resx9_conv2"
  top: "resx9_conv3"
  convolution_param {
    num_output: 480
    bias_term: false
    pad: 0
    kernel_size: 1
    group: 3
    stride: 1
    weight_filler {
      type: "msra"
    }
  }
}
layer {
  name: "resx9_conv3_bn"
  type: "BatchNorm"
  bottom: "resx9_conv3"
  top: "resx9_conv3"
  param {
    lr_mult: 0
    decay_mult: 0
  }
  param {
    lr_mult: 0
    decay_mult: 0
  }
  param {
    lr_mult: 0
    decay_mult: 0
  }
}
layer {
  name: "resx9_conv3_scale"
  type: "Scale"
  bottom: "resx9_conv3"
  top: "resx9_conv3"
  scale_param {
    filler {
      value: 1
    }
    bias_term: true
    bias_filler {
      value: 0
    }
  }
}
layer {
  name: "resx9_elewise"
  type: "Eltwise"
  bottom: "resx8_elewise"
  bottom: "resx9_conv3"
  top: "resx9_elewise"
  eltwise_param {
    operation: SUM
  }
}
layer {
  name: "resx9_elewise_relu"
  type: "ReLU"
  bottom: "resx9_elewise"
  top: "resx9_elewise"
}
layer {
  name: "resx10_conv1"
  type: "Convolution"
  bottom: "resx9_elewise"
  top: "resx10_conv1"
  convolution_param {
    num_output: 120
    bias_term: false
    pad: 0
    kernel_size: 1
    group: 3
    stride: 1
    weight_filler {
      type: "msra"
    }
  }
}
layer {
  name: "resx10_conv1_bn"
  type: "BatchNorm"
  bottom: "resx10_conv1"
  top: "resx10_conv1"
  param {
    lr_mult: 0
    decay_mult: 0
  }
  param {
    lr_mult: 0
    decay_mult: 0
  }
  param {
    lr_mult: 0
    decay_mult: 0
  }
}
layer {
  name: "resx10_conv1_scale"
  type: "Scale"
  bottom: "resx10_conv1"
  top: "resx10_conv1"
  scale_param {
    filler {
      value: 1
    }
    bias_term: true
    bias_filler {
      value: 0
    }
  }
}
layer {
  name: "resx10_conv1_relu"
  type: "ReLU"
  bottom: "resx10_conv1"
  top: "resx10_conv1"
}
layer {
  name: "shuffle10"
  type: "ShuffleChannel"
  bottom: "resx10_conv1"
  top: "shuffle10"
  shuffle_channel_param {
    group: 3
  }
}
layer {
  name: "resx10_conv2"
  type: "ConvolutionDepthwise"
  bottom: "shuffle10"
  top: "resx10_conv2"
  convolution_param {
    num_output: 120
    bias_term: false
    pad: 1
    kernel_size: 3
    stride: 1
    weight_filler {
      type: "msra"
    }
  }
}
layer {
  name: "resx10_conv2_bn"
  type: "BatchNorm"
  bottom: "resx10_conv2"
  top: "resx10_conv2"
  param {
    lr_mult: 0
    decay_mult: 0
  }
  param {
    lr_mult: 0
    decay_mult: 0
  }
  param {
    lr_mult: 0
    decay_mult: 0
  }
}
layer {
  name: "resx10_conv2_scale"
  type: "Scale"
  bottom: "resx10_conv2"
  top: "resx10_conv2"
  scale_param {
    filler {
      value: 1
    }
    bias_term: true
    bias_filler {
      value: 0
    }
  }
}
layer {
  name: "resx10_conv3"
  type: "Convolution"
  bottom: "resx10_conv2"
  top: "resx10_conv3"
  convolution_param {
    num_output: 480
    bias_term: false
    pad: 0
    kernel_size: 1
    group: 3
    stride: 1
    weight_filler {
      type: "msra"
    }
  }
}
layer {
  name: "resx10_conv3_bn"
  type: "BatchNorm"
  bottom: "resx10_conv3"
  top: "resx10_conv3"
  param {
    lr_mult: 0
    decay_mult: 0
  }
  param {
    lr_mult: 0
    decay_mult: 0
  }
  param {
    lr_mult: 0
    decay_mult: 0
  }
}
layer {
  name: "resx10_conv3_scale"
  type: "Scale"
  bottom: "resx10_conv3"
  top: "resx10_conv3"
  scale_param {
    filler {
      value: 1
    }
    bias_term: true
    bias_filler {
      value: 0
    }
  }
}
layer {
  name: "resx10_elewise"
  type: "Eltwise"
  bottom: "resx9_elewise"
  bottom: "resx10_conv3"
  top: "resx10_elewise"
  eltwise_param {
    operation: SUM
  }
}
layer {
  name: "resx10_elewise_relu"
  type: "ReLU"
  bottom: "resx10_elewise"
  top: "resx10_elewise"
}
layer {
  name: "resx11_conv1"
  type: "Convolution"
  bottom: "resx10_elewise"
  top: "resx11_conv1"
  convolution_param {
    num_output: 120
    bias_term: false
    pad: 0
    kernel_size: 1
    group: 3
    stride: 1
    weight_filler {
      type: "msra"
    }
  }
}
layer {
  name: "resx11_conv1_bn"
  type: "BatchNorm"
  bottom: "resx11_conv1"
  top: "resx11_conv1"
  param {
    lr_mult: 0
    decay_mult: 0
  }
  param {
    lr_mult: 0
    decay_mult: 0
  }
  param {
    lr_mult: 0
    decay_mult: 0
  }
}
layer {
  name: "resx11_conv1_scale"
  type: "Scale"
  bottom: "resx11_conv1"
  top: "resx11_conv1"
  scale_param {
    filler {
      value: 1
    }
    bias_term: true
    bias_filler {
      value: 0
    }
  }
}
layer {
  name: "resx11_conv1_relu"
  type: "ReLU"
  bottom: "resx11_conv1"
  top: "resx11_conv1"
}
layer {
  name: "shuffle11"
  type: "ShuffleChannel"
  bottom: "resx11_conv1"
  top: "shuffle11"
  shuffle_channel_param {
    group: 3
  }
}
layer {
  name: "resx11_conv2"
  type: "ConvolutionDepthwise"
  bottom: "shuffle11"
  top: "resx11_conv2"
  convolution_param {
    num_output: 120
    bias_term: false
    pad: 1
    kernel_size: 3
    stride: 1
    weight_filler {
      type: "msra"
    }
  }
}
layer {
  name: "resx11_conv2_bn"
  type: "BatchNorm"
  bottom: "resx11_conv2"
  top: "resx11_conv2"
  param {
    lr_mult: 0
    decay_mult: 0
  }
  param {
    lr_mult: 0
    decay_mult: 0
  }
  param {
    lr_mult: 0
    decay_mult: 0
  }
}
layer {
  name: "resx11_conv2_scale"
  type: "Scale"
  bottom: "resx11_conv2"
  top: "resx11_conv2"
  scale_param {
    filler {
      value: 1
    }
    bias_term: true
    bias_filler {
      value: 0
    }
  }
}
layer {
  name: "resx11_conv3"
  type: "Convolution"
  bottom: "resx11_conv2"
  top: "resx11_conv3"
  convolution_param {
    num_output: 480
    bias_term: false
    pad: 0
    kernel_size:
I0813 23:21:10.448307  6877 layer_factory.hpp:77] Creating layer data
I0813 23:21:10.448469  6877 net.cpp:91] Creating Layer data
I0813 23:21:10.448485  6877 net.cpp:443] data -> data
I0813 23:21:10.448531  6877 net.cpp:443] data -> label
I0813 23:21:10.449878  6881 db_lmdb.cpp:35] Opened lmdb /home/chenyao/ilsvrc12/ilsvrc12_train_lmdb
I0813 23:21:10.464380  6877 data_layer.cpp:41] output data size: 80,3,224,224
I0813 23:21:10.554360  6877 net.cpp:141] Setting up data
I0813 23:21:10.554417  6877 net.cpp:148] Top shape: 80 3 224 224 (12042240)
I0813 23:21:10.554425  6877 net.cpp:148] Top shape: 80 (80)
I0813 23:21:10.554428  6877 net.cpp:156] Memory required for data: 48169280
I0813 23:21:10.554440  6877 layer_factory.hpp:77] Creating layer conv1
I0813 23:21:10.554471  6877 net.cpp:91] Creating Layer conv1
I0813 23:21:10.554477  6877 net.cpp:469] conv1 <- data
I0813 23:21:10.554492  6877 net.cpp:443] conv1 -> conv1
I0813 23:21:10.759747  6877 net.cpp:141] Setting up conv1
I0813 23:21:10.759794  6877 net.cpp:148] Top shape: 80 24 112 112 (24084480)
I0813 23:21:10.759800  6877 net.cpp:156] Memory required for data: 144507200
I0813 23:21:10.759816  6877 layer_factory.hpp:77] Creating layer conv1_bn
I0813 23:21:10.759835  6877 net.cpp:91] Creating Layer conv1_bn
I0813 23:21:10.759840  6877 net.cpp:469] conv1_bn <- conv1
I0813 23:21:10.759847  6877 net.cpp:430] conv1_bn -> conv1 (in-place)
I0813 23:21:10.760588  6877 net.cpp:141] Setting up conv1_bn
I0813 23:21:10.760603  6877 net.cpp:148] Top shape: 80 24 112 112 (24084480)
I0813 23:21:10.760608  6877 net.cpp:156] Memory required for data: 240845120
I0813 23:21:10.760620  6877 layer_factory.hpp:77] Creating layer conv1_scale
I0813 23:21:10.760632  6877 net.cpp:91] Creating Layer conv1_scale
I0813 23:21:10.760635  6877 net.cpp:469] conv1_scale <- conv1
I0813 23:21:10.760658  6877 net.cpp:430] conv1_scale -> conv1 (in-place)
I0813 23:21:10.760704  6877 layer_factory.hpp:77] Creating layer conv1_scale
I0813 23:21:10.760804  6877 net.cpp:141] Setting up conv1_scale
I0813 23:21:10.760813  6877 net.cpp:148] Top shape: 80 24 112 112 (24084480)
I0813 23:21:10.760817  6877 net.cpp:156] Memory required for data: 337183040
I0813 23:21:10.760825  6877 layer_factory.hpp:77] Creating layer conv1_relu
I0813 23:21:10.760833  6877 net.cpp:91] Creating Layer conv1_relu
I0813 23:21:10.760838  6877 net.cpp:469] conv1_relu <- conv1
I0813 23:21:10.760843  6877 net.cpp:430] conv1_relu -> conv1 (in-place)
I0813 23:21:10.761158  6877 net.cpp:141] Setting up conv1_relu
I0813 23:21:10.761173  6877 net.cpp:148] Top shape: 80 24 112 112 (24084480)
I0813 23:21:10.761178  6877 net.cpp:156] Memory required for data: 433520960
I0813 23:21:10.761183  6877 layer_factory.hpp:77] Creating layer pool1
I0813 23:21:10.761190  6877 net.cpp:91] Creating Layer pool1
I0813 23:21:10.761195  6877 net.cpp:469] pool1 <- conv1
I0813 23:21:10.761200  6877 net.cpp:443] pool1 -> pool1
I0813 23:21:10.761252  6877 net.cpp:141] Setting up pool1
I0813 23:21:10.761260  6877 net.cpp:148] Top shape: 80 24 56 56 (6021120)
I0813 23:21:10.761265  6877 net.cpp:156] Memory required for data: 457605440
I0813 23:21:10.761268  6877 layer_factory.hpp:77] Creating layer pool1_pool1_0_split
I0813 23:21:10.761279  6877 net.cpp:91] Creating Layer pool1_pool1_0_split
I0813 23:21:10.761283  6877 net.cpp:469] pool1_pool1_0_split <- pool1
I0813 23:21:10.761288  6877 net.cpp:443] pool1_pool1_0_split -> pool1_pool1_0_split_0
I0813 23:21:10.761296  6877 net.cpp:443] pool1_pool1_0_split -> pool1_pool1_0_split_1
I0813 23:21:10.761322  6877 net.cpp:141] Setting up pool1_pool1_0_split
I0813 23:21:10.761329  6877 net.cpp:148] Top shape: 80 24 56 56 (6021120)
I0813 23:21:10.761333  6877 net.cpp:148] Top shape: 80 24 56 56 (6021120)
I0813 23:21:10.761337  6877 net.cpp:156] Memory required for data: 505774400
I0813 23:21:10.761340  6877 layer_factory.hpp:77] Creating layer resx1_match_conv
I0813 23:21:10.761346  6877 net.cpp:91] Creating Layer resx1_match_conv
I0813 23:21:10.761350  6877 net.cpp:469] resx1_match_conv <- pool1_pool1_0_split_0
I0813 23:21:10.761355  6877 net.cpp:443] resx1_match_conv -> resx1_match_conv
I0813 23:21:10.761508  6877 net.cpp:141] Setting up resx1_match_conv
I0813 23:21:10.761519  6877 net.cpp:148] Top shape: 80 24 28 28 (1505280)
I0813 23:21:10.761523  6877 net.cpp:156] Memory required for data: 511795520
I0813 23:21:10.761526  6877 layer_factory.hpp:77] Creating layer resx1_conv1
I0813 23:21:10.761539  6877 net.cpp:91] Creating Layer resx1_conv1
I0813 23:21:10.761543  6877 net.cpp:469] resx1_conv1 <- pool1_pool1_0_split_1
I0813 23:21:10.761549  6877 net.cpp:443] resx1_conv1 -> resx1_conv1
I0813 23:21:10.763046  6877 net.cpp:141] Setting up resx1_conv1
I0813 23:21:10.763062  6877 net.cpp:148] Top shape: 80 54 56 56 (13547520)
I0813 23:21:10.763067  6877 net.cpp:156] Memory required for data: 565985600
I0813 23:21:10.763072  6877 layer_factory.hpp:77] Creating layer resx1_conv1_bn
I0813 23:21:10.763080  6877 net.cpp:91] Creating Layer resx1_conv1_bn
I0813 23:21:10.763085  6877 net.cpp:469] resx1_conv1_bn <- resx1_conv1
I0813 23:21:10.763092  6877 net.cpp:430] resx1_conv1_bn -> resx1_conv1 (in-place)
I0813 23:21:10.763242  6877 net.cpp:141] Setting up resx1_conv1_bn
I0813 23:21:10.763249  6877 net.cpp:148] Top shape: 80 54 56 56 (13547520)
I0813 23:21:10.763252  6877 net.cpp:156] Memory required for data: 620175680
I0813 23:21:10.763263  6877 layer_factory.hpp:77] Creating layer resx1_conv1_scale
I0813 23:21:10.763272  6877 net.cpp:91] Creating Layer resx1_conv1_scale
I0813 23:21:10.763275  6877 net.cpp:469] resx1_conv1_scale <- resx1_conv1
I0813 23:21:10.763280  6877 net.cpp:430] resx1_conv1_scale -> resx1_conv1 (in-place)
I0813 23:21:10.763312  6877 layer_factory.hpp:77] Creating layer resx1_conv1_scale
I0813 23:21:10.763401  6877 net.cpp:141] Setting up resx1_conv1_scale
I0813 23:21:10.763414  6877 net.cpp:148] Top shape: 80 54 56 56 (13547520)
I0813 23:21:10.763425  6877 net.cpp:156] Memory required for data: 674365760
I0813 23:21:10.763432  6877 layer_factory.hpp:77] Creating layer resx1_conv1_relu
I0813 23:21:10.763437  6877 net.cpp:91] Creating Layer resx1_conv1_relu
I0813 23:21:10.763442  6877 net.cpp:469] resx1_conv1_relu <- resx1_conv1
I0813 23:21:10.763447  6877 net.cpp:430] resx1_conv1_relu -> resx1_conv1 (in-place)
I0813 23:21:10.763588  6877 net.cpp:141] Setting up resx1_conv1_relu
I0813 23:21:10.763598  6877 net.cpp:148] Top shape: 80 54 56 56 (13547520)
I0813 23:21:10.763602  6877 net.cpp:156] Memory required for data: 728555840
I0813 23:21:10.763607  6877 layer_factory.hpp:77] Creating layer resx1_conv2
I0813 23:21:10.763614  6877 net.cpp:91] Creating Layer resx1_conv2
I0813 23:21:10.763618  6877 net.cpp:469] resx1_conv2 <- resx1_conv1
I0813 23:21:10.763624  6877 net.cpp:443] resx1_conv2 -> resx1_conv2
I0813 23:21:10.763936  6877 net.cpp:141] Setting up resx1_conv2
I0813 23:21:10.763949  6877 net.cpp:148] Top shape: 80 54 28 28 (3386880)
I0813 23:21:10.763954  6877 net.cpp:156] Memory required for data: 742103360
I0813 23:21:10.763960  6877 layer_factory.hpp:77] Creating layer resx1_conv2_bn
I0813 23:21:10.763968  6877 net.cpp:91] Creating Layer resx1_conv2_bn
I0813 23:21:10.763972  6877 net.cpp:469] resx1_conv2_bn <- resx1_conv2
I0813 23:21:10.763978  6877 net.cpp:430] resx1_conv2_bn -> resx1_conv2 (in-place)
I0813 23:21:10.764129  6877 net.cpp:141] Setting up resx1_conv2_bn
I0813 23:21:10.764137  6877 net.cpp:148] Top shape: 80 54 28 28 (3386880)
I0813 23:21:10.764142  6877 net.cpp:156] Memory required for data: 755650880
I0813 23:21:10.764148  6877 layer_factory.hpp:77] Creating layer resx1_conv2_scale
I0813 23:21:10.764156  6877 net.cpp:91] Creating Layer resx1_conv2_scale
I0813 23:21:10.764160  6877 net.cpp:469] resx1_conv2_scale <- resx1_conv2
I0813 23:21:10.764165  6877 net.cpp:430] resx1_conv2_scale -> resx1_conv2 (in-place)
I0813 23:21:10.764202  6877 layer_factory.hpp:77] Creating layer resx1_conv2_scale
I0813 23:21:10.764292  6877 net.cpp:141] Setting up resx1_conv2_scale
I0813 23:21:10.764300  6877 net.cpp:148] Top shape: 80 54 28 28 (3386880)
I0813 23:21:10.764304  6877 net.cpp:156] Memory required for data: 769198400
I0813 23:21:10.764313  6877 layer_factory.hpp:77] Creating layer resx1_conv3
I0813 23:21:10.764322  6877 net.cpp:91] Creating Layer resx1_conv3
I0813 23:21:10.764327  6877 net.cpp:469] resx1_conv3 <- resx1_conv2
I0813 23:21:10.764333  6877 net.cpp:443] resx1_conv3 -> resx1_conv3
I0813 23:21:10.766834  6877 net.cpp:141] Setting up resx1_conv3
I0813 23:21:10.766851  6877 net.cpp:148] Top shape: 80 216 28 28 (13547520)
I0813 23:21:10.766855  6877 net.cpp:156] Memory required for data: 823388480
I0813 23:21:10.766862  6877 layer_factory.hpp:77] Creating layer resx1_conv3_bn
I0813 23:21:10.766873  6877 net.cpp:91] Creating Layer resx1_conv3_bn
I0813 23:21:10.766878  6877 net.cpp:469] resx1_conv3_bn <- resx1_conv3
I0813 23:21:10.766885  6877 net.cpp:430] resx1_conv3_bn -> resx1_conv3 (in-place)
I0813 23:21:10.767055  6877 net.cpp:141] Setting up resx1_conv3_bn
I0813 23:21:10.767065  6877 net.cpp:148] Top shape: 80 216 28 28 (13547520)
I0813 23:21:10.767068  6877 net.cpp:156] Memory required for data: 877578560
I0813 23:21:10.767076  6877 layer_factory.hpp:77] Creating layer resx1_conv3_scale
I0813 23:21:10.767086  6877 net.cpp:91] Creating Layer resx1_conv3_scale
I0813 23:21:10.767089  6877 net.cpp:469] resx1_conv3_scale <- resx1_conv3
I0813 23:21:10.767094  6877 net.cpp:430] resx1_conv3_scale -> resx1_conv3 (in-place)
I0813 23:21:10.767132  6877 layer_factory.hpp:77] Creating layer resx1_conv3_scale
I0813 23:21:10.767236  6877 net.cpp:141] Setting up resx1_conv3_scale
I0813 23:21:10.767246  6877 net.cpp:148] Top shape: 80 216 28 28 (13547520)
I0813 23:21:10.767248  6877 net.cpp:156] Memory required for data: 931768640
I0813 23:21:10.767256  6877 layer_factory.hpp:77] Creating layer resx1_concat
I0813 23:21:10.767271  6877 net.cpp:91] Creating Layer resx1_concat
I0813 23:21:10.767280  6877 net.cpp:469] resx1_concat <- resx1_match_conv
I0813 23:21:10.767290  6877 net.cpp:469] resx1_concat <- resx1_conv3
I0813 23:21:10.767297  6877 net.cpp:443] resx1_concat -> resx1_concat
I0813 23:21:10.767328  6877 net.cpp:141] Setting up resx1_concat
I0813 23:21:10.767334  6877 net.cpp:148] Top shape: 80 240 28 28 (15052800)
I0813 23:21:10.767338  6877 net.cpp:156] Memory required for data: 991979840
I0813 23:21:10.767341  6877 layer_factory.hpp:77] Creating layer resx1_concat_relu
I0813 23:21:10.767348  6877 net.cpp:91] Creating Layer resx1_concat_relu
I0813 23:21:10.767351  6877 net.cpp:469] resx1_concat_relu <- resx1_concat
I0813 23:21:10.767359  6877 net.cpp:430] resx1_concat_relu -> resx1_concat (in-place)
I0813 23:21:10.767508  6877 net.cpp:141] Setting up resx1_concat_relu
I0813 23:21:10.767518  6877 net.cpp:148] Top shape: 80 240 28 28 (15052800)
I0813 23:21:10.767523  6877 net.cpp:156] Memory required for data: 1052191040
I0813 23:21:10.767526  6877 layer_factory.hpp:77] Creating layer resx1_concat_resx1_concat_relu_0_split
I0813 23:21:10.767534  6877 net.cpp:91] Creating Layer resx1_concat_resx1_concat_relu_0_split
I0813 23:21:10.767539  6877 net.cpp:469] resx1_concat_resx1_concat_relu_0_split <- resx1_concat
I0813 23:21:10.767544  6877 net.cpp:443] resx1_concat_resx1_concat_relu_0_split -> resx1_concat_resx1_concat_relu_0_split_0
I0813 23:21:10.767550  6877 net.cpp:443] resx1_concat_resx1_concat_relu_0_split -> resx1_concat_resx1_concat_relu_0_split_1
I0813 23:21:10.767587  6877 net.cpp:141] Setting up resx1_concat_resx1_concat_relu_0_split
I0813 23:21:10.767594  6877 net.cpp:148] Top shape: 80 240 28 28 (15052800)
I0813 23:21:10.767599  6877 net.cpp:148] Top shape: 80 240 28 28 (15052800)
I0813 23:21:10.767602  6877 net.cpp:156] Memory required for data: 1172613440
I0813 23:21:10.767606  6877 layer_factory.hpp:77] Creating layer resx2_conv1
I0813 23:21:10.767616  6877 net.cpp:91] Creating Layer resx2_conv1
I0813 23:21:10.767621  6877 net.cpp:469] resx2_conv1 <- resx1_concat_resx1_concat_relu_0_split_0
I0813 23:21:10.767627  6877 net.cpp:443] resx2_conv1 -> resx2_conv1
I0813 23:21:10.770126  6877 net.cpp:141] Setting up resx2_conv1
I0813 23:21:10.770143  6877 net.cpp:148] Top shape: 80 60 28 28 (3763200)
I0813 23:21:10.770148  6877 net.cpp:156] Memory required for data: 1187666240
I0813 23:21:10.770153  6877 layer_factory.hpp:77] Creating layer resx2_conv1_bn
I0813 23:21:10.770164  6877 net.cpp:91] Creating Layer resx2_conv1_bn
I0813 23:21:10.770169  6877 net.cpp:469] resx2_conv1_bn <- resx2_conv1
I0813 23:21:10.770174  6877 net.cpp:430] resx2_conv1_bn -> resx2_conv1 (in-place)
I0813 23:21:10.770344  6877 net.cpp:141] Setting up resx2_conv1_bn
I0813 23:21:10.770352  6877 net.cpp:148] Top shape: 80 60 28 28 (3763200)
I0813 23:21:10.770356  6877 net.cpp:156] Memory required for data: 1202719040
I0813 23:21:10.770364  6877 layer_factory.hpp:77] Creating layer resx2_conv1_scale
I0813 23:21:10.770371  6877 net.cpp:91] Creating Layer resx2_conv1_scale
I0813 23:21:10.770375  6877 net.cpp:469] resx2_conv1_scale <- resx2_conv1
I0813 23:21:10.770380  6877 net.cpp:430] resx2_conv1_scale -> resx2_conv1 (in-place)
I0813 23:21:10.770417  6877 layer_factory.hpp:77] Creating layer resx2_conv1_scale
I0813 23:21:10.770519  6877 net.cpp:141] Setting up resx2_conv1_scale
I0813 23:21:10.770525  6877 net.cpp:148] Top shape: 80 60 28 28 (3763200)
I0813 23:21:10.770529  6877 net.cpp:156] Memory required for data: 1217771840
I0813 23:21:10.770535  6877 layer_factory.hpp:77] Creating layer resx2_conv1_relu
I0813 23:21:10.770545  6877 net.cpp:91] Creating Layer resx2_conv1_relu
I0813 23:21:10.770548  6877 net.cpp:469] resx2_conv1_relu <- resx2_conv1
I0813 23:21:10.770553  6877 net.cpp:430] resx2_conv1_relu -> resx2_conv1 (in-place)
I0813 23:21:10.770715  6877 net.cpp:141] Setting up resx2_conv1_relu
I0813 23:21:10.770725  6877 net.cpp:148] Top shape: 80 60 28 28 (3763200)
I0813 23:21:10.770730  6877 net.cpp:156] Memory required for data: 1232824640
I0813 23:21:10.770733  6877 layer_factory.hpp:77] Creating layer shuffle2
I0813 23:21:10.770745  6877 net.cpp:91] Creating Layer shuffle2
I0813 23:21:10.770758  6877 net.cpp:469] shuffle2 <- resx2_conv1
I0813 23:21:10.770764  6877 net.cpp:443] shuffle2 -> shuffle2
I0813 23:21:10.770793  6877 net.cpp:141] Setting up shuffle2
I0813 23:21:10.770800  6877 net.cpp:148] Top shape: 80 60 28 28 (3763200)
I0813 23:21:10.770803  6877 net.cpp:156] Memory required for data: 1247877440
I0813 23:21:10.770807  6877 layer_factory.hpp:77] Creating layer resx2_conv2
I0813 23:21:10.770817  6877 net.cpp:91] Creating Layer resx2_conv2
I0813 23:21:10.770822  6877 net.cpp:469] resx2_conv2 <- shuffle2
I0813 23:21:10.770828  6877 net.cpp:443] resx2_conv2 -> resx2_conv2
I0813 23:21:10.770944  6877 net.cpp:141] Setting up resx2_conv2
I0813 23:21:10.770956  6877 net.cpp:148] Top shape: 80 60 28 28 (3763200)
I0813 23:21:10.770959  6877 net.cpp:156] Memory required for data: 1262930240
I0813 23:21:10.770964  6877 layer_factory.hpp:77] Creating layer resx2_conv2_bn
I0813 23:21:10.770973  6877 net.cpp:91] Creating Layer resx2_conv2_bn
I0813 23:21:10.770978  6877 net.cpp:469] resx2_conv2_bn <- resx2_conv2
I0813 23:21:10.770984  6877 net.cpp:430] resx2_conv2_bn -> resx2_conv2 (in-place)
I0813 23:21:10.771149  6877 net.cpp:141] Setting up resx2_conv2_bn
I0813 23:21:10.771157  6877 net.cpp:148] Top shape: 80 60 28 28 (3763200)
I0813 23:21:10.771162  6877 net.cpp:156] Memory required for data: 1277983040
I0813 23:21:10.771174  6877 layer_factory.hpp:77] Creating layer resx2_conv2_scale
I0813 23:21:10.771181  6877 net.cpp:91] Creating Layer resx2_conv2_scale
I0813 23:21:10.771186  6877 net.cpp:469] resx2_conv2_scale <- resx2_conv2
I0813 23:21:10.771193  6877 net.cpp:430] resx2_conv2_scale -> resx2_conv2 (in-place)
I0813 23:21:10.771230  6877 layer_factory.hpp:77] Creating layer resx2_conv2_scale
I0813 23:21:10.771332  6877 net.cpp:141] Setting up resx2_conv2_scale
I0813 23:21:10.771340  6877 net.cpp:148] Top shape: 80 60 28 28 (3763200)
I0813 23:21:10.771344  6877 net.cpp:156] Memory required for data: 1293035840
I0813 23:21:10.771350  6877 layer_factory.hpp:77] Creating layer resx2_conv3
I0813 23:21:10.771360  6877 net.cpp:91] Creating Layer resx2_conv3
I0813 23:21:10.771364  6877 net.cpp:469] resx2_conv3 <- resx2_conv2
I0813 23:21:10.771370  6877 net.cpp:443] resx2_conv3 -> resx2_conv3
I0813 23:21:10.774062  6877 net.cpp:141] Setting up resx2_conv3
I0813 23:21:10.774080  6877 net.cpp:148] Top shape: 80 240 28 28 (15052800)
I0813 23:21:10.774085  6877 net.cpp:156] Memory required for data: 1353247040
I0813 23:21:10.774091  6877 layer_factory.hpp:77] Creating layer resx2_conv3_bn
I0813 23:21:10.774099  6877 net.cpp:91] Creating Layer resx2_conv3_bn
I0813 23:21:10.774103  6877 net.cpp:469] resx2_conv3_bn <- resx2_conv3
I0813 23:21:10.774111  6877 net.cpp:430] resx2_conv3_bn -> resx2_conv3 (in-place)
I0813 23:21:10.774284  6877 net.cpp:141] Setting up resx2_conv3_bn
I0813 23:21:10.774292  6877 net.cpp:148] Top shape: 80 240 28 28 (15052800)
I0813 23:21:10.774296  6877 net.cpp:156] Memory required for data: 1413458240
I0813 23:21:10.774303  6877 layer_factory.hpp:77] Creating layer resx2_conv3_scale
I0813 23:21:10.774312  6877 net.cpp:91] Creating Layer resx2_conv3_scale
I0813 23:21:10.774314  6877 net.cpp:469] resx2_conv3_scale <- resx2_conv3
I0813 23:21:10.774322  6877 net.cpp:430] resx2_conv3_scale -> resx2_conv3 (in-place)
I0813 23:21:10.774358  6877 layer_factory.hpp:77] Creating layer resx2_conv3_scale
I0813 23:21:10.774466  6877 net.cpp:141] Setting up resx2_conv3_scale
I0813 23:21:10.774473  6877 net.cpp:148] Top shape: 80 240 28 28 (15052800)
I0813 23:21:10.774477  6877 net.cpp:156] Memory required for data: 1473669440
I0813 23:21:10.774483  6877 layer_factory.hpp:77] Creating layer resx2_elewise
I0813 23:21:10.774497  6877 net.cpp:91] Creating Layer resx2_elewise
I0813 23:21:10.774500  6877 net.cpp:469] resx2_elewise <- resx1_concat_resx1_concat_relu_0_split_1
I0813 23:21:10.774505  6877 net.cpp:469] resx2_elewise <- resx2_conv3
I0813 23:21:10.774510  6877 net.cpp:443] resx2_elewise -> resx2_elewise
I0813 23:21:10.774545  6877 net.cpp:141] Setting up resx2_elewise
I0813 23:21:10.774559  6877 net.cpp:148] Top shape: 80 240 28 28 (15052800)
I0813 23:21:10.774562  6877 net.cpp:156] Memory required for data: 1533880640
I0813 23:21:10.774566  6877 layer_factory.hpp:77] Creating layer resx2_elewise_relu
I0813 23:21:10.774572  6877 net.cpp:91] Creating Layer resx2_elewise_relu
I0813 23:21:10.774576  6877 net.cpp:469] resx2_elewise_relu <- resx2_elewise
I0813 23:21:10.774582  6877 net.cpp:430] resx2_elewise_relu -> resx2_elewise (in-place)
I0813 23:21:10.774737  6877 net.cpp:141] Setting up resx2_elewise_relu
I0813 23:21:10.774749  6877 net.cpp:148] Top shape: 80 240 28 28 (15052800)
I0813 23:21:10.774751  6877 net.cpp:156] Memory required for data: 1594091840
I0813 23:21:10.774755  6877 layer_factory.hpp:77] Creating layer resx2_elewise_resx2_elewise_relu_0_split
I0813 23:21:10.774761  6877 net.cpp:91] Creating Layer resx2_elewise_resx2_elewise_relu_0_split
I0813 23:21:10.774765  6877 net.cpp:469] resx2_elewise_resx2_elewise_relu_0_split <- resx2_elewise
I0813 23:21:10.774772  6877 net.cpp:443] resx2_elewise_resx2_elewise_relu_0_split -> resx2_elewise_resx2_elewise_relu_0_split_0
I0813 23:21:10.774780  6877 net.cpp:443] resx2_elewise_resx2_elewise_relu_0_split -> resx2_elewise_resx2_elewise_relu_0_split_1
I0813 23:21:10.774816  6877 net.cpp:141] Setting up resx2_elewise_resx2_elewise_relu_0_split
I0813 23:21:10.774824  6877 net.cpp:148] Top shape: 80 240 28 28 (15052800)
I0813 23:21:10.774829  6877 net.cpp:148] Top shape: 80 240 28 28 (15052800)
I0813 23:21:10.774832  6877 net.cpp:156] Memory required for data: 1714514240
I0813 23:21:10.774837  6877 layer_factory.hpp:77] Creating layer resx3_conv1
I0813 23:21:10.774847  6877 net.cpp:91] Creating Layer resx3_conv1
I0813 23:21:10.774850  6877 net.cpp:469] resx3_conv1 <- resx2_elewise_resx2_elewise_relu_0_split_0
I0813 23:21:10.774857  6877 net.cpp:443] resx3_conv1 -> resx3_conv1
I0813 23:21:10.777403  6877 net.cpp:141] Setting up resx3_conv1
I0813 23:21:10.777420  6877 net.cpp:148] Top shape: 80 60 28 28 (3763200)
I0813 23:21:10.777423  6877 net.cpp:156] Memory required for data: 1729567040
I0813 23:21:10.777429  6877 layer_factory.hpp:77] Creating layer resx3_conv1_bn
I0813 23:21:10.777439  6877 net.cpp:91] Creating Layer resx3_conv1_bn
I0813 23:21:10.777444  6877 net.cpp:469] resx3_conv1_bn <- resx3_conv1
I0813 23:21:10.777452  6877 net.cpp:430] resx3_conv1_bn -> resx3_conv1 (in-place)
I0813 23:21:10.777626  6877 net.cpp:141] Setting up resx3_conv1_bn
I0813 23:21:10.777634  6877 net.cpp:148] Top shape: 80 60 28 28 (3763200)
I0813 23:21:10.777638  6877 net.cpp:156] Memory required for data: 1744619840
I0813 23:21:10.777645  6877 layer_factory.hpp:77] Creating layer resx3_conv1_scale
I0813 23:21:10.777657  6877 net.cpp:91] Creating Layer resx3_conv1_scale
I0813 23:21:10.777662  6877 net.cpp:469] resx3_conv1_scale <- resx3_conv1
I0813 23:21:10.777667  6877 net.cpp:430] resx3_conv1_scale -> resx3_conv1 (in-place)
I0813 23:21:10.777705  6877 layer_factory.hpp:77] Creating layer resx3_conv1_scale
I0813 23:21:10.777815  6877 net.cpp:141] Setting up resx3_conv1_scale
I0813 23:21:10.777823  6877 net.cpp:148] Top shape: 80 60 28 28 (3763200)
I0813 23:21:10.777827  6877 net.cpp:156] Memory required for data: 1759672640
I0813 23:21:10.777833  6877 layer_factory.hpp:77] Creating layer resx3_conv1_relu
I0813 23:21:10.777839  6877 net.cpp:91] Creating Layer resx3_conv1_relu
I0813 23:21:10.777843  6877 net.cpp:469] resx3_conv1_relu <- resx3_conv1
I0813 23:21:10.777849  6877 net.cpp:430] resx3_conv1_relu -> resx3_conv1 (in-place)
I0813 23:21:10.778003  6877 net.cpp:141] Setting up resx3_conv1_relu
I0813 23:21:10.778013  6877 net.cpp:148] Top shape: 80 60 28 28 (3763200)
I0813 23:21:10.778017  6877 net.cpp:156] Memory required for data: 1774725440
I0813 23:21:10.778022  6877 layer_factory.hpp:77] Creating layer shuffle3
I0813 23:21:10.778029  6877 net.cpp:91] Creating Layer shuffle3
I0813 23:21:10.778033  6877 net.cpp:469] shuffle3 <- resx3_conv1
I0813 23:21:10.778038  6877 net.cpp:443] shuffle3 -> shuffle3
I0813 23:21:10.778071  6877 net.cpp:141] Setting up shuffle3
I0813 23:21:10.778085  6877 net.cpp:148] Top shape: 80 60 28 28 (3763200)
I0813 23:21:10.778090  6877 net.cpp:156] Memory required for data: 1789778240
I0813 23:21:10.778092  6877 layer_factory.hpp:77] Creating layer resx3_conv2
I0813 23:21:10.778100  6877 net.cpp:91] Creating Layer resx3_conv2
I0813 23:21:10.778106  6877 net.cpp:469] resx3_conv2 <- shuffle3
I0813 23:21:10.778111  6877 net.cpp:443] resx3_conv2 -> resx3_conv2
I0813 23:21:10.778235  6877 net.cpp:141] Setting up resx3_conv2
I0813 23:21:10.778246  6877 net.cpp:148] Top shape: 80 60 28 28 (3763200)
I0813 23:21:10.778250  6877 net.cpp:156] Memory required for data: 1804831040
I0813 23:21:10.778255  6877 layer_factory.hpp:77] Creating layer resx3_conv2_bn
I0813 23:21:10.778264  6877 net.cpp:91] Creating Layer resx3_conv2_bn
I0813 23:21:10.778270  6877 net.cpp:469] resx3_conv2_bn <- resx3_conv2
I0813 23:21:10.778275  6877 net.cpp:430] resx3_conv2_bn -> resx3_conv2 (in-place)
I0813 23:21:10.778445  6877 net.cpp:141] Setting up resx3_conv2_bn
I0813 23:21:10.778453  6877 net.cpp:148] Top shape: 80 60 28 28 (3763200)
I0813 23:21:10.778457  6877 net.cpp:156] Memory required for data: 1819883840
I0813 23:21:10.778465  6877 layer_factory.hpp:77] Creating layer resx3_conv2_scale
I0813 23:21:10.778471  6877 net.cpp:91] Creating Layer resx3_conv2_scale
I0813 23:21:10.778475  6877 net.cpp:469] resx3_conv2_scale <- resx3_conv2
I0813 23:21:10.778481  6877 net.cpp:430] resx3_conv2_scale -> resx3_conv2 (in-place)
I0813 23:21:10.778519  6877 layer_factory.hpp:77] Creating layer resx3_conv2_scale
I0813 23:21:10.778630  6877 net.cpp:141] Setting up resx3_conv2_scale
I0813 23:21:10.778638  6877 net.cpp:148] Top shape: 80 60 28 28 (3763200)
I0813 23:21:10.778641  6877 net.cpp:156] Memory required for data: 1834936640
I0813 23:21:10.778648  6877 layer_factory.hpp:77] Creating layer resx3_conv3
I0813 23:21:10.778659  6877 net.cpp:91] Creating Layer resx3_conv3
I0813 23:21:10.778663  6877 net.cpp:469] resx3_conv3 <- resx3_conv2
I0813 23:21:10.778671  6877 net.cpp:443] resx3_conv3 -> resx3_conv3
I0813 23:21:10.781292  6877 net.cpp:141] Setting up resx3_conv3
I0813 23:21:10.781307  6877 net.cpp:148] Top shape: 80 240 28 28 (15052800)
I0813 23:21:10.781312  6877 net.cpp:156] Memory required for data: 1895147840
I0813 23:21:10.781318  6877 layer_factory.hpp:77] Creating layer resx3_conv3_bn
I0813 23:21:10.781327  6877 net.cpp:91] Creating Layer resx3_conv3_bn
I0813 23:21:10.781332  6877 net.cpp:469] resx3_conv3_bn <- resx3_conv3
I0813 23:21:10.781337  6877 net.cpp:430] resx3_conv3_bn -> resx3_conv3 (in-place)
I0813 23:21:10.781515  6877 net.cpp:141] Setting up resx3_conv3_bn
I0813 23:21:10.781524  6877 net.cpp:148] Top shape: 80 240 28 28 (15052800)
I0813 23:21:10.781527  6877 net.cpp:156] Memory required for data: 1955359040
I0813 23:21:10.781535  6877 layer_factory.hpp:77] Creating layer resx3_conv3_scale
I0813 23:21:10.781543  6877 net.cpp:91] Creating Layer resx3_conv3_scale
I0813 23:21:10.781546  6877 net.cpp:469] resx3_conv3_scale <- resx3_conv3
I0813 23:21:10.781551  6877 net.cpp:430] resx3_conv3_scale -> resx3_conv3 (in-place)
I0813 23:21:10.781591  6877 layer_factory.hpp:77] Creating layer resx3_conv3_scale
I0813 23:21:10.781703  6877 net.cpp:141] Setting up resx3_conv3_scale
I0813 23:21:10.781711  6877 net.cpp:148] Top shape: 80 240 28 28 (15052800)
I0813 23:21:10.781714  6877 net.cpp:156] Memory required for data: 2015570240
I0813 23:21:10.781720  6877 layer_factory.hpp:77] Creating layer resx3_elewise
I0813 23:21:10.781728  6877 net.cpp:91] Creating Layer resx3_elewise
I0813 23:21:10.781733  6877 net.cpp:469] resx3_elewise <- resx2_elewise_resx2_elewise_relu_0_split_1
I0813 23:21:10.781736  6877 net.cpp:469] resx3_elewise <- resx3_conv3
I0813 23:21:10.781744  6877 net.cpp:443] resx3_elewise -> resx3_elewise
I0813 23:21:10.781767  6877 net.cpp:141] Setting up resx3_elewise
I0813 23:21:10.781776  6877 net.cpp:148] Top shape: 80 240 28 28 (15052800)
I0813 23:21:10.781780  6877 net.cpp:156] Memory required for data: 2075781440
I0813 23:21:10.781788  6877 layer_factory.hpp:77] Creating layer resx3_elewise_relu
I0813 23:21:10.781800  6877 net.cpp:91] Creating Layer resx3_elewise_relu
I0813 23:21:10.781805  6877 net.cpp:469] resx3_elewise_relu <- resx3_elewise
I0813 23:21:10.781810  6877 net.cpp:430] resx3_elewise_relu -> resx3_elewise (in-place)
I0813 23:21:10.781970  6877 net.cpp:141] Setting up resx3_elewise_relu
I0813 23:21:10.781981  6877 net.cpp:148] Top shape: 80 240 28 28 (15052800)
I0813 23:21:10.781985  6877 net.cpp:156] Memory required for data: 2135992640
I0813 23:21:10.781989  6877 layer_factory.hpp:77] Creating layer resx3_elewise_resx3_elewise_relu_0_split
I0813 23:21:10.781996  6877 net.cpp:91] Creating Layer resx3_elewise_resx3_elewise_relu_0_split
I0813 23:21:10.781999  6877 net.cpp:469] resx3_elewise_resx3_elewise_relu_0_split <- resx3_elewise
I0813 23:21:10.782006  6877 net.cpp:443] resx3_elewise_resx3_elewise_relu_0_split -> resx3_elewise_resx3_elewise_relu_0_split_0
I0813 23:21:10.782011  6877 net.cpp:443] resx3_elewise_resx3_elewise_relu_0_split -> resx3_elewise_resx3_elewise_relu_0_split_1
I0813 23:21:10.782055  6877 net.cpp:141] Setting up resx3_elewise_resx3_elewise_relu_0_split
I0813 23:21:10.782063  6877 net.cpp:148] Top shape: 80 240 28 28 (15052800)
I0813 23:21:10.782066  6877 net.cpp:148] Top shape: 80 240 28 28 (15052800)
I0813 23:21:10.782069  6877 net.cpp:156] Memory required for data: 2256415040
I0813 23:21:10.782073  6877 layer_factory.hpp:77] Creating layer resx4_conv1
I0813 23:21:10.782083  6877 net.cpp:91] Creating Layer resx4_conv1
I0813 23:21:10.782088  6877 net.cpp:469] resx4_conv1 <- resx3_elewise_resx3_elewise_relu_0_split_0
I0813 23:21:10.782095  6877 net.cpp:443] resx4_conv1 -> resx4_conv1
I0813 23:21:10.784843  6877 net.cpp:141] Setting up resx4_conv1
I0813 23:21:10.784858  6877 net.cpp:148] Top shape: 80 60 28 28 (3763200)
I0813 23:21:10.784862  6877 net.cpp:156] Memory required for data: 2271467840
I0813 23:21:10.784868  6877 layer_factory.hpp:77] Creating layer resx4_conv1_bn
I0813 23:21:10.784878  6877 net.cpp:91] Creating Layer resx4_conv1_bn
I0813 23:21:10.784883  6877 net.cpp:469] resx4_conv1_bn <- resx4_conv1
I0813 23:21:10.784888  6877 net.cpp:430] resx4_conv1_bn -> resx4_conv1 (in-place)
I0813 23:21:10.785092  6877 net.cpp:141] Setting up resx4_conv1_bn
I0813 23:21:10.785104  6877 net.cpp:148] Top shape: 80 60 28 28 (3763200)
I0813 23:21:10.785109  6877 net.cpp:156] Memory required for data: 2286520640
I0813 23:21:10.785116  6877 layer_factory.hpp:77] Creating layer resx4_conv1_scale
I0813 23:21:10.785125  6877 net.cpp:91] Creating Layer resx4_conv1_scale
I0813 23:21:10.785128  6877 net.cpp:469] resx4_conv1_scale <- resx4_conv1
I0813 23:21:10.785133  6877 net.cpp:430] resx4_conv1_scale -> resx4_conv1 (in-place)
I0813 23:21:10.785179  6877 layer_factory.hpp:77] Creating layer resx4_conv1_scale
I0813 23:21:10.785293  6877 net.cpp:141] Setting up resx4_conv1_scale
I0813 23:21:10.785301  6877 net.cpp:148] Top shape: 80 60 28 28 (3763200)
I0813 23:21:10.785305  6877 net.cpp:156] Memory required for data: 2301573440
I0813 23:21:10.785320  6877 layer_factory.hpp:77] Creating layer resx4_conv1_relu
I0813 23:21:10.785327  6877 net.cpp:91] Creating Layer resx4_conv1_relu
I0813 23:21:10.785331  6877 net.cpp:469] resx4_conv1_relu <- resx4_conv1
I0813 23:21:10.785336  6877 net.cpp:430] resx4_conv1_relu -> resx4_conv1 (in-place)
I0813 23:21:10.785498  6877 net.cpp:141] Setting up resx4_conv1_relu
I0813 23:21:10.785511  6877 net.cpp:148] Top shape: 80 60 28 28 (3763200)
I0813 23:21:10.785514  6877 net.cpp:156] Memory required for data: 2316626240
I0813 23:21:10.785518  6877 layer_factory.hpp:77] Creating layer shuffle4
I0813 23:21:10.785526  6877 net.cpp:91] Creating Layer shuffle4
I0813 23:21:10.785529  6877 net.cpp:469] shuffle4 <- resx4_conv1
I0813 23:21:10.785534  6877 net.cpp:443] shuffle4 -> shuffle4
I0813 23:21:10.785564  6877 net.cpp:141] Setting up shuffle4
I0813 23:21:10.785571  6877 net.cpp:148] Top shape: 80 60 28 28 (3763200)
I0813 23:21:10.785574  6877 net.cpp:156] Memory required for data: 2331679040
I0813 23:21:10.785583  6877 layer_factory.hpp:77] Creating layer resx4_conv2
I0813 23:21:10.785598  6877 net.cpp:91] Creating Layer resx4_conv2
I0813 23:21:10.785603  6877 net.cpp:469] resx4_conv2 <- shuffle4
I0813 23:21:10.785607  6877 net.cpp:443] resx4_conv2 -> resx4_conv2
I0813 23:21:10.785733  6877 net.cpp:141] Setting up resx4_conv2
I0813 23:21:10.785744  6877 net.cpp:148] Top shape: 80 60 28 28 (3763200)
I0813 23:21:10.785748  6877 net.cpp:156] Memory required for data: 2346731840
I0813 23:21:10.785753  6877 layer_factory.hpp:77] Creating layer resx4_conv2_bn
I0813 23:21:10.785764  6877 net.cpp:91] Creating Layer resx4_conv2_bn
I0813 23:21:10.785769  6877 net.cpp:469] resx4_conv2_bn <- resx4_conv2
I0813 23:21:10.785774  6877 net.cpp:430] resx4_conv2_bn -> resx4_conv2 (in-place)
I0813 23:21:10.785951  6877 net.cpp:141] Setting up resx4_conv2_bn
I0813 23:21:10.785959  6877 net.cpp:148] Top shape: 80 60 28 28 (3763200)
I0813 23:21:10.785964  6877 net.cpp:156] Memory required for data: 2361784640
I0813 23:21:10.785970  6877 layer_factory.hpp:77] Creating layer resx4_conv2_scale
I0813 23:21:10.785977  6877 net.cpp:91] Creating Layer resx4_conv2_scale
I0813 23:21:10.785982  6877 net.cpp:469] resx4_conv2_scale <- resx4_conv2
I0813 23:21:10.785986  6877 net.cpp:430] resx4_conv2_scale -> resx4_conv2 (in-place)
I0813 23:21:10.786027  6877 layer_factory.hpp:77] Creating layer resx4_conv2_scale
I0813 23:21:10.786140  6877 net.cpp:141] Setting up resx4_conv2_scale
I0813 23:21:10.786149  6877 net.cpp:148] Top shape: 80 60 28 28 (3763200)
I0813 23:21:10.786151  6877 net.cpp:156] Memory required for data: 2376837440
I0813 23:21:10.786157  6877 layer_factory.hpp:77] Creating layer resx4_conv3
I0813 23:21:10.786167  6877 net.cpp:91] Creating Layer resx4_conv3
I0813 23:21:10.786172  6877 net.cpp:469] resx4_conv3 <- resx4_conv2
I0813 23:21:10.786178  6877 net.cpp:443] resx4_conv3 -> resx4_conv3
I0813 23:21:10.788606  6877 net.cpp:141] Setting up resx4_conv3
I0813 23:21:10.788621  6877 net.cpp:148] Top shape: 80 240 28 28 (15052800)
I0813 23:21:10.788626  6877 net.cpp:156] Memory required for data: 2437048640
I0813 23:21:10.788632  6877 layer_factory.hpp:77] Creating layer resx4_conv3_bn
I0813 23:21:10.788642  6877 net.cpp:91] Creating Layer resx4_conv3_bn
I0813 23:21:10.788647  6877 net.cpp:469] resx4_conv3_bn <- resx4_conv3
I0813 23:21:10.788652  6877 net.cpp:430] resx4_conv3_bn -> resx4_conv3 (in-place)
I0813 23:21:10.788837  6877 net.cpp:141] Setting up resx4_conv3_bn
I0813 23:21:10.788846  6877 net.cpp:148] Top shape: 80 240 28 28 (15052800)
I0813 23:21:10.788849  6877 net.cpp:156] Memory required for data: 2497259840
I0813 23:21:10.788856  6877 layer_factory.hpp:77] Creating layer resx4_conv3_scale
I0813 23:21:10.788864  6877 net.cpp:91] Creating Layer resx4_conv3_scale
I0813 23:21:10.788869  6877 net.cpp:469] resx4_conv3_scale <- resx4_conv3
I0813 23:21:10.788873  6877 net.cpp:430] resx4_conv3_scale -> resx4_conv3 (in-place)
I0813 23:21:10.788915  6877 layer_factory.hpp:77] Creating layer resx4_conv3_scale
I0813 23:21:10.789026  6877 net.cpp:141] Setting up resx4_conv3_scale
I0813 23:21:10.789036  6877 net.cpp:148] Top shape: 80 240 28 28 (15052800)
I0813 23:21:10.789041  6877 net.cpp:156] Memory required for data: 2557471040
I0813 23:21:10.789047  6877 layer_factory.hpp:77] Creating layer resx4_elewise
I0813 23:21:10.789053  6877 net.cpp:91] Creating Layer resx4_elewise
I0813 23:21:10.789057  6877 net.cpp:469] resx4_elewise <- resx3_elewise_resx3_elewise_relu_0_split_1
I0813 23:21:10.789062  6877 net.cpp:469] resx4_elewise <- resx4_conv3
I0813 23:21:10.789067  6877 net.cpp:443] resx4_elewise -> resx4_elewise
I0813 23:21:10.789099  6877 net.cpp:141] Setting up resx4_elewise
I0813 23:21:10.789108  6877 net.cpp:148] Top shape: 80 240 28 28 (15052800)
I0813 23:21:10.789113  6877 net.cpp:156] Memory required for data: 2617682240
I0813 23:21:10.789115  6877 layer_factory.hpp:77] Creating layer resx4_elewise_relu
I0813 23:21:10.789121  6877 net.cpp:91] Creating Layer resx4_elewise_relu
I0813 23:21:10.789125  6877 net.cpp:469] resx4_elewise_relu <- resx4_elewise
I0813 23:21:10.789140  6877 net.cpp:430] resx4_elewise_relu -> resx4_elewise (in-place)
I0813 23:21:10.789459  6877 net.cpp:141] Setting up resx4_elewise_relu
I0813 23:21:10.789472  6877 net.cpp:148] Top shape: 80 240 28 28 (15052800)
I0813 23:21:10.789476  6877 net.cpp:156] Memory required for data: 2677893440
I0813 23:21:10.789480  6877 layer_factory.hpp:77] Creating layer resx4_elewise_resx4_elewise_relu_0_split
I0813 23:21:10.789487  6877 net.cpp:91] Creating Layer resx4_elewise_resx4_elewise_relu_0_split
I0813 23:21:10.789491  6877 net.cpp:469] resx4_elewise_resx4_elewise_relu_0_split <- resx4_elewise
I0813 23:21:10.789499  6877 net.cpp:443] resx4_elewise_resx4_elewise_relu_0_split -> resx4_elewise_resx4_elewise_relu_0_split_0
I0813 23:21:10.789508  6877 net.cpp:443] resx4_elewise_resx4_elewise_relu_0_split -> resx4_elewise_resx4_elewise_relu_0_split_1
I0813 23:21:10.789551  6877 net.cpp:141] Setting up resx4_elewise_resx4_elewise_relu_0_split
I0813 23:21:10.789559  6877 net.cpp:148] Top shape: 80 240 28 28 (15052800)
I0813 23:21:10.789563  6877 net.cpp:148] Top shape: 80 240 28 28 (15052800)
I0813 23:21:10.789566  6877 net.cpp:156] Memory required for data: 2798315840
I0813 23:21:10.789571  6877 layer_factory.hpp:77] Creating layer resx5_match_conv
I0813 23:21:10.789578  6877 net.cpp:91] Creating Layer resx5_match_conv
I0813 23:21:10.789582  6877 net.cpp:469] resx5_match_conv <- resx4_elewise_resx4_elewise_relu_0_split_0
I0813 23:21:10.789588  6877 net.cpp:443] resx5_match_conv -> resx5_match_conv
I0813 23:21:10.789917  6877 net.cpp:141] Setting up resx5_match_conv
I0813 23:21:10.789932  6877 net.cpp:148] Top shape: 80 240 14 14 (3763200)
I0813 23:21:10.789935  6877 net.cpp:156] Memory required for data: 2813368640
I0813 23:21:10.789939  6877 layer_factory.hpp:77] Creating layer resx5_conv1
I0813 23:21:10.789955  6877 net.cpp:91] Creating Layer resx5_conv1
I0813 23:21:10.789961  6877 net.cpp:469] resx5_conv1 <- resx4_elewise_resx4_elewise_relu_0_split_1
I0813 23:21:10.789969  6877 net.cpp:443] resx5_conv1 -> resx5_conv1
I0813 23:21:10.792431  6877 net.cpp:141] Setting up resx5_conv1
I0813 23:21:10.792446  6877 net.cpp:148] Top shape: 80 60 28 28 (3763200)
I0813 23:21:10.792450  6877 net.cpp:156] Memory required for data: 2828421440
I0813 23:21:10.792457  6877 layer_factory.hpp:77] Creating layer resx5_conv1_bn
I0813 23:21:10.792466  6877 net.cpp:91] Creating Layer resx5_conv1_bn
I0813 23:21:10.792471  6877 net.cpp:469] resx5_conv1_bn <- resx5_conv1
I0813 23:21:10.792477  6877 net.cpp:430] resx5_conv1_bn -> resx5_conv1 (in-place)
I0813 23:21:10.792664  6877 net.cpp:141] Setting up resx5_conv1_bn
I0813 23:21:10.792671  6877 net.cpp:148] Top shape: 80 60 28 28 (3763200)
I0813 23:21:10.792675  6877 net.cpp:156] Memory required for data: 2843474240
I0813 23:21:10.792682  6877 layer_factory.hpp:77] Creating layer resx5_conv1_scale
I0813 23:21:10.792690  6877 net.cpp:91] Creating Layer resx5_conv1_scale
I0813 23:21:10.792695  6877 net.cpp:469] resx5_conv1_scale <- resx5_conv1
I0813 23:21:10.792699  6877 net.cpp:430] resx5_conv1_scale -> resx5_conv1 (in-place)
I0813 23:21:10.792742  6877 layer_factory.hpp:77] Creating layer resx5_conv1_scale
I0813 23:21:10.792861  6877 net.cpp:141] Setting up resx5_conv1_scale
I0813 23:21:10.792870  6877 net.cpp:148] Top shape: 80 60 28 28 (3763200)
I0813 23:21:10.792873  6877 net.cpp:156] Memory required for data: 2858527040
I0813 23:21:10.792879  6877 layer_factory.hpp:77] Creating layer resx5_conv1_relu
I0813 23:21:10.792886  6877 net.cpp:91] Creating Layer resx5_conv1_relu
I0813 23:21:10.792889  6877 net.cpp:469] resx5_conv1_relu <- resx5_conv1
I0813 23:21:10.792894  6877 net.cpp:430] resx5_conv1_relu -> resx5_conv1 (in-place)
I0813 23:21:10.793059  6877 net.cpp:141] Setting up resx5_conv1_relu
I0813 23:21:10.793071  6877 net.cpp:148] Top shape: 80 60 28 28 (3763200)
I0813 23:21:10.793073  6877 net.cpp:156] Memory required for data: 2873579840
I0813 23:21:10.793083  6877 layer_factory.hpp:77] Creating layer shuffle5
I0813 23:21:10.793094  6877 net.cpp:91] Creating Layer shuffle5
I0813 23:21:10.793104  6877 net.cpp:469] shuffle5 <- resx5_conv1
I0813 23:21:10.793112  6877 net.cpp:443] shuffle5 -> shuffle5
I0813 23:21:10.793143  6877 net.cpp:141] Setting up shuffle5
I0813 23:21:10.793151  6877 net.cpp:148] Top shape: 80 60 28 28 (3763200)
I0813 23:21:10.793155  6877 net.cpp:156] Memory required for data: 2888632640
I0813 23:21:10.793159  6877 layer_factory.hpp:77] Creating layer resx5_conv2
I0813 23:21:10.793166  6877 net.cpp:91] Creating Layer resx5_conv2
I0813 23:21:10.793170  6877 net.cpp:469] resx5_conv2 <- shuffle5
I0813 23:21:10.793177  6877 net.cpp:443] resx5_conv2 -> resx5_conv2
I0813 23:21:10.793303  6877 net.cpp:141] Setting up resx5_conv2
I0813 23:21:10.793316  6877 net.cpp:148] Top shape: 80 60 14 14 (940800)
I0813 23:21:10.793320  6877 net.cpp:156] Memory required for data: 2892395840
I0813 23:21:10.793325  6877 layer_factory.hpp:77] Creating layer resx5_conv2_bn
I0813 23:21:10.793334  6877 net.cpp:91] Creating Layer resx5_conv2_bn
I0813 23:21:10.793337  6877 net.cpp:469] resx5_conv2_bn <- resx5_conv2
I0813 23:21:10.793344  6877 net.cpp:430] resx5_conv2_bn -> resx5_conv2 (in-place)
I0813 23:21:10.793520  6877 net.cpp:141] Setting up resx5_conv2_bn
I0813 23:21:10.793529  6877 net.cpp:148] Top shape: 80 60 14 14 (940800)
I0813 23:21:10.793531  6877 net.cpp:156] Memory required for data: 2896159040
I0813 23:21:10.793539  6877 layer_factory.hpp:77] Creating layer resx5_conv2_scale
I0813 23:21:10.793545  6877 net.cpp:91] Creating Layer resx5_conv2_scale
I0813 23:21:10.793550  6877 net.cpp:469] resx5_conv2_scale <- resx5_conv2
I0813 23:21:10.793556  6877 net.cpp:430] resx5_conv2_scale -> resx5_conv2 (in-place)
I0813 23:21:10.793594  6877 layer_factory.hpp:77] Creating layer resx5_conv2_scale
I0813 23:21:10.793704  6877 net.cpp:141] Setting up resx5_conv2_scale
I0813 23:21:10.793711  6877 net.cpp:148] Top shape: 80 60 14 14 (940800)
I0813 23:21:10.793715  6877 net.cpp:156] Memory required for data: 2899922240
I0813 23:21:10.793720  6877 layer_factory.hpp:77] Creating layer resx5_conv3
I0813 23:21:10.793730  6877 net.cpp:91] Creating Layer resx5_conv3
I0813 23:21:10.793735  6877 net.cpp:469] resx5_conv3 <- resx5_conv2
I0813 23:21:10.793742  6877 net.cpp:443] resx5_conv3 -> resx5_conv3
I0813 23:21:10.796545  6877 net.cpp:141] Setting up resx5_conv3
I0813 23:21:10.796560  6877 net.cpp:148] Top shape: 80 240 14 14 (3763200)
I0813 23:21:10.796563  6877 net.cpp:156] Memory required for data: 2914975040
I0813 23:21:10.796571  6877 layer_factory.hpp:77] Creating layer resx5_conv3_bn
I0813 23:21:10.796579  6877 net.cpp:91] Creating Layer resx5_conv3_bn
I0813 23:21:10.796586  6877 net.cpp:469] resx5_conv3_bn <- resx5_conv3
I0813 23:21:10.796591  6877 net.cpp:430] resx5_conv3_bn -> resx5_conv3 (in-place)
I0813 23:21:10.796779  6877 net.cpp:141] Setting up resx5_conv3_bn
I0813 23:21:10.796788  6877 net.cpp:148] Top shape: 80 240 14 14 (3763200)
I0813 23:21:10.796792  6877 net.cpp:156] Memory required for data: 2930027840
I0813 23:21:10.796799  6877 layer_factory.hpp:77] Creating layer resx5_conv3_scale
I0813 23:21:10.796808  6877 net.cpp:91] Creating Layer resx5_conv3_scale
I0813 23:21:10.796811  6877 net.cpp:469] resx5_conv3_scale <- resx5_conv3
I0813 23:21:10.796816  6877 net.cpp:430] resx5_conv3_scale -> resx5_conv3 (in-place)
I0813 23:21:10.796857  6877 layer_factory.hpp:77] Creating layer resx5_conv3_scale
I0813 23:21:10.796968  6877 net.cpp:141] Setting up resx5_conv3_scale
I0813 23:21:10.796977  6877 net.cpp:148] Top shape: 80 240 14 14 (3763200)
I0813 23:21:10.796980  6877 net.cpp:156] Memory required for data: 2945080640
I0813 23:21:10.796986  6877 layer_factory.hpp:77] Creating layer resx5_concat
I0813 23:21:10.796993  6877 net.cpp:91] Creating Layer resx5_concat
I0813 23:21:10.796998  6877 net.cpp:469] resx5_concat <- resx5_match_conv
I0813 23:21:10.797001  6877 net.cpp:469] resx5_concat <- resx5_conv3
I0813 23:21:10.797006  6877 net.cpp:443] resx5_concat -> resx5_concat
I0813 23:21:10.797034  6877 net.cpp:141] Setting up resx5_concat
I0813 23:21:10.797045  6877 net.cpp:148] Top shape: 80 480 14 14 (7526400)
I0813 23:21:10.797055  6877 net.cpp:156] Memory required for data: 2975186240
I0813 23:21:10.797058  6877 layer_factory.hpp:77] Creating layer resx5_concat_relu
I0813 23:21:10.797066  6877 net.cpp:91] Creating Layer resx5_concat_relu
I0813 23:21:10.797070  6877 net.cpp:469] resx5_concat_relu <- resx5_concat
I0813 23:21:10.797086  6877 net.cpp:430] resx5_concat_relu -> resx5_concat (in-place)
I0813 23:21:10.797253  6877 net.cpp:141] Setting up resx5_concat_relu
I0813 23:21:10.797266  6877 net.cpp:148] Top shape: 80 480 14 14 (7526400)
I0813 23:21:10.797271  6877 net.cpp:156] Memory required for data: 3005291840
I0813 23:21:10.797274  6877 layer_factory.hpp:77] Creating layer resx5_concat_resx5_concat_relu_0_split
I0813 23:21:10.797281  6877 net.cpp:91] Creating Layer resx5_concat_resx5_concat_relu_0_split
I0813 23:21:10.797284  6877 net.cpp:469] resx5_concat_resx5_concat_relu_0_split <- resx5_concat
I0813 23:21:10.797291  6877 net.cpp:443] resx5_concat_resx5_concat_relu_0_split -> resx5_concat_resx5_concat_relu_0_split_0
I0813 23:21:10.797297  6877 net.cpp:443] resx5_concat_resx5_concat_relu_0_split -> resx5_concat_resx5_concat_relu_0_split_1
I0813 23:21:10.797340  6877 net.cpp:141] Setting up resx5_concat_resx5_concat_relu_0_split
I0813 23:21:10.797348  6877 net.cpp:148] Top shape: 80 480 14 14 (7526400)
I0813 23:21:10.797351  6877 net.cpp:148] Top shape: 80 480 14 14 (7526400)
I0813 23:21:10.797355  6877 net.cpp:156] Memory required for data: 3065503040
I0813 23:21:10.797358  6877 layer_factory.hpp:77] Creating layer resx6_conv1
I0813 23:21:10.797369  6877 net.cpp:91] Creating Layer resx6_conv1
I0813 23:21:10.797374  6877 net.cpp:469] resx6_conv1 <- resx5_concat_resx5_concat_relu_0_split_0
I0813 23:21:10.797380  6877 net.cpp:443] resx6_conv1 -> resx6_conv1
I0813 23:21:10.800922  6877 net.cpp:141] Setting up resx6_conv1
I0813 23:21:10.800937  6877 net.cpp:148] Top shape: 80 120 14 14 (1881600)
I0813 23:21:10.800942  6877 net.cpp:156] Memory required for data: 3073029440
I0813 23:21:10.800948  6877 layer_factory.hpp:77] Creating layer resx6_conv1_bn
I0813 23:21:10.800957  6877 net.cpp:91] Creating Layer resx6_conv1_bn
I0813 23:21:10.800962  6877 net.cpp:469] resx6_conv1_bn <- resx6_conv1
I0813 23:21:10.800968  6877 net.cpp:430] resx6_conv1_bn -> resx6_conv1 (in-place)
I0813 23:21:10.801168  6877 net.cpp:141] Setting up resx6_conv1_bn
I0813 23:21:10.801178  6877 net.cpp:148] Top shape: 80 120 14 14 (1881600)
I0813 23:21:10.801182  6877 net.cpp:156] Memory required for data: 3080555840
I0813 23:21:10.801189  6877 layer_factory.hpp:77] Creating layer resx6_conv1_scale
I0813 23:21:10.801198  6877 net.cpp:91] Creating Layer resx6_conv1_scale
I0813 23:21:10.801201  6877 net.cpp:469] resx6_conv1_scale <- resx6_conv1
I0813 23:21:10.801206  6877 net.cpp:430] resx6_conv1_scale -> resx6_conv1 (in-place)
I0813 23:21:10.801250  6877 layer_factory.hpp:77] Creating layer resx6_conv1_scale
I0813 23:21:10.801364  6877 net.cpp:141] Setting up resx6_conv1_scale
I0813 23:21:10.801373  6877 net.cpp:148] Top shape: 80 120 14 14 (1881600)
I0813 23:21:10.801375  6877 net.cpp:156] Memory required for data: 3088082240
I0813 23:21:10.801383  6877 layer_factory.hpp:77] Creating layer resx6_conv1_relu
I0813 23:21:10.801389  6877 net.cpp:91] Creating Layer resx6_conv1_relu
I0813 23:21:10.801393  6877 net.cpp:469] resx6_conv1_relu <- resx6_conv1
I0813 23:21:10.801398  6877 net.cpp:430] resx6_conv1_relu -> resx6_conv1 (in-place)
I0813 23:21:10.801563  6877 net.cpp:141] Setting up resx6_conv1_relu
I0813 23:21:10.801573  6877 net.cpp:148] Top shape: 80 120 14 14 (1881600)
I0813 23:21:10.801576  6877 net.cpp:156] Memory required for data: 3095608640
I0813 23:21:10.801580  6877 layer_factory.hpp:77] Creating layer shuffle6
I0813 23:21:10.801587  6877 net.cpp:91] Creating Layer shuffle6
I0813 23:21:10.801591  6877 net.cpp:469] shuffle6 <- resx6_conv1
I0813 23:21:10.801596  6877 net.cpp:443] shuffle6 -> shuffle6
I0813 23:21:10.801628  6877 net.cpp:141] Setting up shuffle6
I0813 23:21:10.801635  6877 net.cpp:148] Top shape: 80 120 14 14 (1881600)
I0813 23:21:10.801648  6877 net.cpp:156] Memory required for data: 3103135040
I0813 23:21:10.801652  6877 layer_factory.hpp:77] Creating layer resx6_conv2
I0813 23:21:10.801662  6877 net.cpp:91] Creating Layer resx6_conv2
I0813 23:21:10.801666  6877 net.cpp:469] resx6_conv2 <- shuffle6
I0813 23:21:10.801672  6877 net.cpp:443] resx6_conv2 -> resx6_conv2
I0813 23:21:10.801815  6877 net.cpp:141] Setting up resx6_conv2
I0813 23:21:10.801826  6877 net.cpp:148] Top shape: 80 120 14 14 (1881600)
I0813 23:21:10.801831  6877 net.cpp:156] Memory required for data: 3110661440
I0813 23:21:10.801836  6877 layer_factory.hpp:77] Creating layer resx6_conv2_bn
I0813 23:21:10.801844  6877 net.cpp:91] Creating Layer resx6_conv2_bn
I0813 23:21:10.801849  6877 net.cpp:469] resx6_conv2_bn <- resx6_conv2
I0813 23:21:10.801854  6877 net.cpp:430] resx6_conv2_bn -> resx6_conv2 (in-place)
I0813 23:21:10.802045  6877 net.cpp:141] Setting up resx6_conv2_bn
I0813 23:21:10.802053  6877 net.cpp:148] Top shape: 80 120 14 14 (1881600)
I0813 23:21:10.802057  6877 net.cpp:156] Memory required for data: 3118187840
I0813 23:21:10.802064  6877 layer_factory.hpp:77] Creating layer resx6_conv2_scale
I0813 23:21:10.802072  6877 net.cpp:91] Creating Layer resx6_conv2_scale
I0813 23:21:10.802075  6877 net.cpp:469] resx6_conv2_scale <- resx6_conv2
I0813 23:21:10.802080  6877 net.cpp:430] resx6_conv2_scale -> resx6_conv2 (in-place)
I0813 23:21:10.802126  6877 layer_factory.hpp:77] Creating layer resx6_conv2_scale
I0813 23:21:10.802243  6877 net.cpp:141] Setting up resx6_conv2_scale
I0813 23:21:10.802251  6877 net.cpp:148] Top shape: 80 120 14 14 (1881600)
I0813 23:21:10.802254  6877 net.cpp:156] Memory required for data: 3125714240
I0813 23:21:10.802260  6877 layer_factory.hpp:77] Creating layer resx6_conv3
I0813 23:21:10.802270  6877 net.cpp:91] Creating Layer resx6_conv3
I0813 23:21:10.802275  6877 net.cpp:469] resx6_conv3 <- resx6_conv2
I0813 23:21:10.802281  6877 net.cpp:443] resx6_conv3 -> resx6_conv3
I0813 23:21:10.805510  6877 net.cpp:141] Setting up resx6_conv3
I0813 23:21:10.805526  6877 net.cpp:148] Top shape: 80 480 14 14 (7526400)
I0813 23:21:10.805531  6877 net.cpp:156] Memory required for data: 3155819840
I0813 23:21:10.805537  6877 layer_factory.hpp:77] Creating layer resx6_conv3_bn
I0813 23:21:10.805547  6877 net.cpp:91] Creating Layer resx6_conv3_bn
I0813 23:21:10.805552  6877 net.cpp:469] resx6_conv3_bn <- resx6_conv3
I0813 23:21:10.805557  6877 net.cpp:430] resx6_conv3_bn -> resx6_conv3 (in-place)
I0813 23:21:10.805760  6877 net.cpp:141] Setting up resx6_conv3_bn
I0813 23:21:10.805769  6877 net.cpp:148] Top shape: 80 480 14 14 (7526400)
I0813 23:21:10.805773  6877 net.cpp:156] Memory required for data: 3185925440
I0813 23:21:10.805780  6877 layer_factory.hpp:77] Creating layer resx6_conv3_scale
I0813 23:21:10.805788  6877 net.cpp:91] Creating Layer resx6_conv3_scale
I0813 23:21:10.805793  6877 net.cpp:469] resx6_conv3_scale <- resx6_conv3
I0813 23:21:10.805797  6877 net.cpp:430] resx6_conv3_scale -> resx6_conv3 (in-place)
I0813 23:21:10.805843  6877 layer_factory.hpp:77] Creating layer resx6_conv3_scale
I0813 23:21:10.805963  6877 net.cpp:141] Setting up resx6_conv3_scale
I0813 23:21:10.805971  6877 net.cpp:148] Top shape: 80 480 14 14 (7526400)
I0813 23:21:10.805975  6877 net.cpp:156] Memory required for data: 3216031040
I0813 23:21:10.805981  6877 layer_factory.hpp:77] Creating layer resx6_elewise
I0813 23:21:10.805989  6877 net.cpp:91] Creating Layer resx6_elewise
I0813 23:21:10.805994  6877 net.cpp:469] resx6_elewise <- resx5_concat_resx5_concat_relu_0_split_1
I0813 23:21:10.805999  6877 net.cpp:469] resx6_elewise <- resx6_conv3
I0813 23:21:10.806004  6877 net.cpp:443] resx6_elewise -> resx6_elewise
I0813 23:21:10.806031  6877 net.cpp:141] Setting up resx6_elewise
I0813 23:21:10.806038  6877 net.cpp:148] Top shape: 80 480 14 14 (7526400)
I0813 23:21:10.806041  6877 net.cpp:156] Memory required for data: 3246136640
I0813 23:21:10.806046  6877 layer_factory.hpp:77] Creating layer resx6_elewise_relu
I0813 23:21:10.806057  6877 net.cpp:91] Creating Layer resx6_elewise_relu
I0813 23:21:10.806068  6877 net.cpp:469] resx6_elewise_relu <- resx6_elewise
I0813 23:21:10.806073  6877 net.cpp:430] resx6_elewise_relu -> resx6_elewise (in-place)
I0813 23:21:10.806242  6877 net.cpp:141] Setting up resx6_elewise_relu
I0813 23:21:10.806255  6877 net.cpp:148] Top shape: 80 480 14 14 (7526400)
I0813 23:21:10.806259  6877 net.cpp:156] Memory required for data: 3276242240
I0813 23:21:10.806263  6877 layer_factory.hpp:77] Creating layer resx6_elewise_resx6_elewise_relu_0_split
I0813 23:21:10.806270  6877 net.cpp:91] Creating Layer resx6_elewise_resx6_elewise_relu_0_split
I0813 23:21:10.806274  6877 net.cpp:469] resx6_elewise_resx6_elewise_relu_0_split <- resx6_elewise
I0813 23:21:10.806279  6877 net.cpp:443] resx6_elewise_resx6_elewise_relu_0_split -> resx6_elewise_resx6_elewise_relu_0_split_0
I0813 23:21:10.806287  6877 net.cpp:443] resx6_elewise_resx6_elewise_relu_0_split -> resx6_elewise_resx6_elewise_relu_0_split_1
I0813 23:21:10.806330  6877 net.cpp:141] Setting up resx6_elewise_resx6_elewise_relu_0_split
I0813 23:21:10.806339  6877 net.cpp:148] Top shape: 80 480 14 14 (7526400)
I0813 23:21:10.806342  6877 net.cpp:148] Top shape: 80 480 14 14 (7526400)
I0813 23:21:10.806345  6877 net.cpp:156] Memory required for data: 3336453440
I0813 23:21:10.806349  6877 layer_factory.hpp:77] Creating layer resx7_conv1
I0813 23:21:10.806360  6877 net.cpp:91] Creating Layer resx7_conv1
I0813 23:21:10.806363  6877 net.cpp:469] resx7_conv1 <- resx6_elewise_resx6_elewise_relu_0_split_0
I0813 23:21:10.806370  6877 net.cpp:443] resx7_conv1 -> resx7_conv1
I0813 23:21:10.809582  6877 net.cpp:141] Setting up resx7_conv1
I0813 23:21:10.809599  6877 net.cpp:148] Top shape: 80 120 14 14 (1881600)
I0813 23:21:10.809603  6877 net.cpp:156] Memory required for data: 3343979840
I0813 23:21:10.809609  6877 layer_factory.hpp:77] Creating layer resx7_conv1_bn
I0813 23:21:10.809619  6877 net.cpp:91] Creating Layer resx7_conv1_bn
I0813 23:21:10.809624  6877 net.cpp:469] resx7_conv1_bn <- resx7_conv1
I0813 23:21:10.809631  6877 net.cpp:430] resx7_conv1_bn -> resx7_conv1 (in-place)
I0813 23:21:10.809829  6877 net.cpp:141] Setting up resx7_conv1_bn
I0813 23:21:10.809837  6877 net.cpp:148] Top shape: 80 120 14 14 (1881600)
I0813 23:21:10.809841  6877 net.cpp:156] Memory required for data: 3351506240
I0813 23:21:10.809849  6877 layer_factory.hpp:77] Creating layer resx7_conv1_scale
I0813 23:21:10.809859  6877 net.cpp:91] Creating Layer resx7_conv1_scale
I0813 23:21:10.809862  6877 net.cpp:469] resx7_conv1_scale <- resx7_conv1
I0813 23:21:10.809867  6877 net.cpp:430] resx7_conv1_scale -> resx7_conv1 (in-place)
I0813 23:21:10.809912  6877 layer_factory.hpp:77] Creating layer resx7_conv1_scale
I0813 23:21:10.810029  6877 net.cpp:141] Setting up resx7_conv1_scale
I0813 23:21:10.810036  6877 net.cpp:148] Top shape: 80 120 14 14 (1881600)
I0813 23:21:10.810039  6877 net.cpp:156] Memory required for data: 3359032640
I0813 23:21:10.810045  6877 layer_factory.hpp:77] Creating layer resx7_conv1_relu
I0813 23:21:10.810053  6877 net.cpp:91] Creating Layer resx7_conv1_relu
I0813 23:21:10.810058  6877 net.cpp:469] resx7_conv1_relu <- resx7_conv1
I0813 23:21:10.810063  6877 net.cpp:430] resx7_conv1_relu -> resx7_conv1 (in-place)
I0813 23:21:10.810226  6877 net.cpp:141] Setting up resx7_conv1_relu
I0813 23:21:10.810236  6877 net.cpp:148] Top shape: 80 120 14 14 (1881600)
I0813 23:21:10.810240  6877 net.cpp:156] Memory required for data: 3366559040
I0813 23:21:10.810245  6877 layer_factory.hpp:77] Creating layer shuffle7
I0813 23:21:10.810252  6877 net.cpp:91] Creating Layer shuffle7
I0813 23:21:10.810257  6877 net.cpp:469] shuffle7 <- resx7_conv1
I0813 23:21:10.810262  6877 net.cpp:443] shuffle7 -> shuffle7
I0813 23:21:10.810294  6877 net.cpp:141] Setting up shuffle7
I0813 23:21:10.810302  6877 net.cpp:148] Top shape: 80 120 14 14 (1881600)
I0813 23:21:10.810305  6877 net.cpp:156] Memory required for data: 3374085440
I0813 23:21:10.810308  6877 layer_factory.hpp:77] Creating layer resx7_conv2
I0813 23:21:10.810323  6877 net.cpp:91] Creating Layer resx7_conv2
I0813 23:21:10.810333  6877 net.cpp:469] resx7_conv2 <- shuffle7
I0813 23:21:10.810339  6877 net.cpp:443] resx7_conv2 -> resx7_conv2
I0813 23:21:10.810485  6877 net.cpp:141] Setting up resx7_conv2
I0813 23:21:10.810497  6877 net.cpp:148] Top shape: 80 120 14 14 (1881600)
I0813 23:21:10.810500  6877 net.cpp:156] Memory required for data: 3381611840
I0813 23:21:10.810505  6877 layer_factory.hpp:77] Creating layer resx7_conv2_bn
I0813 23:21:10.810514  6877 net.cpp:91] Creating Layer resx7_conv2_bn
I0813 23:21:10.810518  6877 net.cpp:469] resx7_conv2_bn <- resx7_conv2
I0813 23:21:10.810523  6877 net.cpp:430] resx7_conv2_bn -> resx7_conv2 (in-place)
I0813 23:21:10.810721  6877 net.cpp:141] Setting up resx7_conv2_bn
I0813 23:21:10.810729  6877 net.cpp:148] Top shape: 80 120 14 14 (1881600)
I0813 23:21:10.810732  6877 net.cpp:156] Memory required for data: 3389138240
I0813 23:21:10.810740  6877 layer_factory.hpp:77] Creating layer resx7_conv2_scale
I0813 23:21:10.810747  6877 net.cpp:91] Creating Layer resx7_conv2_scale
I0813 23:21:10.810751  6877 net.cpp:469] resx7_conv2_scale <- resx7_conv2
I0813 23:21:10.810756  6877 net.cpp:430] resx7_conv2_scale -> resx7_conv2 (in-place)
I0813 23:21:10.810799  6877 layer_factory.hpp:77] Creating layer resx7_conv2_scale
I0813 23:21:10.810916  6877 net.cpp:141] Setting up resx7_conv2_scale
I0813 23:21:10.810926  6877 net.cpp:148] Top shape: 80 120 14 14 (1881600)
I0813 23:21:10.810930  6877 net.cpp:156] Memory required for data: 3396664640
I0813 23:21:10.810936  6877 layer_factory.hpp:77] Creating layer resx7_conv3
I0813 23:21:10.810945  6877 net.cpp:91] Creating Layer resx7_conv3
I0813 23:21:10.810948  6877 net.cpp:469] resx7_conv3 <- resx7_conv2
I0813 23:21:10.810956  6877 net.cpp:443] resx7_conv3 -> resx7_conv3
I0813 23:21:10.814218  6877 net.cpp:141] Setting up resx7_conv3
I0813 23:21:10.814234  6877 net.cpp:148] Top shape: 80 480 14 14 (7526400)
I0813 23:21:10.814239  6877 net.cpp:156] Memory required for data: 3426770240
I0813 23:21:10.814245  6877 layer_factory.hpp:77] Creating layer resx7_conv3_bn
I0813 23:21:10.814254  6877 net.cpp:91] Creating Layer resx7_conv3_bn
I0813 23:21:10.814260  6877 net.cpp:469] resx7_conv3_bn <- resx7_conv3
I0813 23:21:10.814265  6877 net.cpp:430] resx7_conv3_bn -> resx7_conv3 (in-place)
I0813 23:21:10.814474  6877 net.cpp:141] Setting up resx7_conv3_bn
I0813 23:21:10.814483  6877 net.cpp:148] Top shape: 80 480 14 14 (7526400)
I0813 23:21:10.814487  6877 net.cpp:156] Memory required for data: 3456875840
I0813 23:21:10.814507  6877 layer_factory.hpp:77] Creating layer resx7_conv3_scale
I0813 23:21:10.814517  6877 net.cpp:91] Creating Layer resx7_conv3_scale
I0813 23:21:10.814522  6877 net.cpp:469] resx7_conv3_scale <- resx7_conv3
I0813 23:21:10.814528  6877 net.cpp:430] resx7_conv3_scale -> resx7_conv3 (in-place)
I0813 23:21:10.814577  6877 layer_factory.hpp:77] Creating layer resx7_conv3_scale
I0813 23:21:10.814702  6877 net.cpp:141] Setting up resx7_conv3_scale
I0813 23:21:10.814709  6877 net.cpp:148] Top shape: 80 480 14 14 (7526400)
I0813 23:21:10.814713  6877 net.cpp:156] Memory required for data: 3486981440
I0813 23:21:10.814718  6877 layer_factory.hpp:77] Creating layer resx7_elewise
I0813 23:21:10.814725  6877 net.cpp:91] Creating Layer resx7_elewise
I0813 23:21:10.814730  6877 net.cpp:469] resx7_elewise <- resx6_elewise_resx6_elewise_relu_0_split_1
I0813 23:21:10.814734  6877 net.cpp:469] resx7_elewise <- resx7_conv3
I0813 23:21:10.814741  6877 net.cpp:443] resx7_elewise -> resx7_elewise
I0813 23:21:10.814770  6877 net.cpp:141] Setting up resx7_elewise
I0813 23:21:10.814777  6877 net.cpp:148] Top shape: 80 480 14 14 (7526400)
I0813 23:21:10.814780  6877 net.cpp:156] Memory required for data: 3517087040
I0813 23:21:10.814785  6877 layer_factory.hpp:77] Creating layer resx7_elewise_relu
I0813 23:21:10.814790  6877 net.cpp:91] Creating Layer resx7_elewise_relu
I0813 23:21:10.814795  6877 net.cpp:469] resx7_elewise_relu <- resx7_elewise
I0813 23:21:10.814800  6877 net.cpp:430] resx7_elewise_relu -> resx7_elewise (in-place)
I0813 23:21:10.814976  6877 net.cpp:141] Setting up resx7_elewise_relu
I0813 23:21:10.814987  6877 net.cpp:148] Top shape: 80 480 14 14 (7526400)
I0813 23:21:10.814991  6877 net.cpp:156] Memory required for data: 3547192640
I0813 23:21:10.814996  6877 layer_factory.hpp:77] Creating layer resx7_elewise_resx7_elewise_relu_0_split
I0813 23:21:10.815001  6877 net.cpp:91] Creating Layer resx7_elewise_resx7_elewise_relu_0_split
I0813 23:21:10.815006  6877 net.cpp:469] resx7_elewise_resx7_elewise_relu_0_split <- resx7_elewise
I0813 23:21:10.815012  6877 net.cpp:443] resx7_elewise_resx7_elewise_relu_0_split -> resx7_elewise_resx7_elewise_relu_0_split_0
I0813 23:21:10.815019  6877 net.cpp:443] resx7_elewise_resx7_elewise_relu_0_split -> resx7_elewise_resx7_elewise_relu_0_split_1
I0813 23:21:10.815064  6877 net.cpp:141] Setting up resx7_elewise_resx7_elewise_relu_0_split
I0813 23:21:10.815071  6877 net.cpp:148] Top shape: 80 480 14 14 (7526400)
I0813 23:21:10.815075  6877 net.cpp:148] Top shape: 80 480 14 14 (7526400)
I0813 23:21:10.815078  6877 net.cpp:156] Memory required for data: 3607403840
I0813 23:21:10.815083  6877 layer_factory.hpp:77] Creating layer resx8_conv1
I0813 23:21:10.815094  6877 net.cpp:91] Creating Layer resx8_conv1
I0813 23:21:10.815099  6877 net.cpp:469] resx8_conv1 <- resx7_elewise_resx7_elewise_relu_0_split_0
I0813 23:21:10.815105  6877 net.cpp:443] resx8_conv1 -> resx8_conv1
I0813 23:21:10.818181  6877 net.cpp:141] Setting up resx8_conv1
I0813 23:21:10.818197  6877 net.cpp:148] Top shape: 80 120 14 14 (1881600)
I0813 23:21:10.818202  6877 net.cpp:156] Memory required for data: 3614930240
I0813 23:21:10.818207  6877 layer_factory.hpp:77] Creating layer resx8_conv1_bn
I0813 23:21:10.818217  6877 net.cpp:91] Creating Layer resx8_conv1_bn
I0813 23:21:10.818222  6877 net.cpp:469] resx8_conv1_bn <- resx8_conv1
I0813 23:21:10.818229  6877 net.cpp:430] resx8_conv1_bn -> resx8_conv1 (in-place)
I0813 23:21:10.818431  6877 net.cpp:141] Setting up resx8_conv1_bn
I0813 23:21:10.818439  6877 net.cpp:148] Top shape: 80 120 14 14 (1881600)
I0813 23:21:10.818444  6877 net.cpp:156] Memory required for data: 3622456640
I0813 23:21:10.818450  6877 layer_factory.hpp:77] Creating layer resx8_conv1_scale
I0813 23:21:10.818459  6877 net.cpp:91] Creating Layer resx8_conv1_scale
I0813 23:21:10.818464  6877 net.cpp:469] resx8_conv1_scale <- resx8_conv1
I0813 23:21:10.818470  6877 net.cpp:430] resx8_conv1_scale -> resx8_conv1 (in-place)
I0813 23:21:10.818516  6877 layer_factory.hpp:77] Creating layer resx8_conv1_scale
I0813 23:21:10.818637  6877 net.cpp:141] Setting up resx8_conv1_scale
I0813 23:21:10.818646  6877 net.cpp:148] Top shape: 80 120 14 14 (1881600)
I0813 23:21:10.818650  6877 net.cpp:156] Memory required for data: 3629983040
I0813 23:21:10.818655  6877 layer_factory.hpp:77] Creating layer resx8_conv1_relu
I0813 23:21:10.818662  6877 net.cpp:91] Creating Layer resx8_conv1_relu
I0813 23:21:10.818666  6877 net.cpp:469] resx8_conv1_relu <- resx8_conv1
I0813 23:21:10.818673  6877 net.cpp:430] resx8_conv1_relu -> resx8_conv1 (in-place)
I0813 23:21:10.818841  6877 net.cpp:141] Setting up resx8_conv1_relu
I0813 23:21:10.818851  6877 net.cpp:148] Top shape: 80 120 14 14 (1881600)
I0813 23:21:10.818856  6877 net.cpp:156] Memory required for data: 3637509440
I0813 23:21:10.818859  6877 layer_factory.hpp:77] Creating layer shuffle8
I0813 23:21:10.818866  6877 net.cpp:91] Creating Layer shuffle8
I0813 23:21:10.818871  6877 net.cpp:469] shuffle8 <- resx8_conv1
I0813 23:21:10.818877  6877 net.cpp:443] shuffle8 -> shuffle8
I0813 23:21:10.818909  6877 net.cpp:141] Setting up shuffle8
I0813 23:21:10.818917  6877 net.cpp:148] Top shape: 80 120 14 14 (1881600)
I0813 23:21:10.818920  6877 net.cpp:156] Memory required for data: 3645035840
I0813 23:21:10.818923  6877 layer_factory.hpp:77] Creating layer resx8_conv2
I0813 23:21:10.818933  6877 net.cpp:91] Creating Layer resx8_conv2
I0813 23:21:10.818938  6877 net.cpp:469] resx8_conv2 <- shuffle8
I0813 23:21:10.818944  6877 net.cpp:443] resx8_conv2 -> resx8_conv2
I0813 23:21:10.819275  6877 net.cpp:141] Setting up resx8_conv2
I0813 23:21:10.819298  6877 net.cpp:148] Top shape: 80 120 14 14 (1881600)
I0813 23:21:10.819303  6877 net.cpp:156] Memory required for data: 3652562240
I0813 23:21:10.819308  6877 layer_factory.hpp:77] Creating layer resx8_conv2_bn
I0813 23:21:10.819315  6877 net.cpp:91] Creating Layer resx8_conv2_bn
I0813 23:21:10.819320  6877 net.cpp:469] resx8_conv2_bn <- resx8_conv2
I0813 23:21:10.819326  6877 net.cpp:430] resx8_conv2_bn -> resx8_conv2 (in-place)
I0813 23:21:10.819531  6877 net.cpp:141] Setting up resx8_conv2_bn
I0813 23:21:10.819540  6877 net.cpp:148] Top shape: 80 120 14 14 (1881600)
I0813 23:21:10.819543  6877 net.cpp:156] Memory required for data: 3660088640
I0813 23:21:10.819551  6877 layer_factory.hpp:77] Creating layer resx8_conv2_scale
I0813 23:21:10.819558  6877 net.cpp:91] Creating Layer resx8_conv2_scale
I0813 23:21:10.819562  6877 net.cpp:469] resx8_conv2_scale <- resx8_conv2
I0813 23:21:10.819569  6877 net.cpp:430] resx8_conv2_scale -> resx8_conv2 (in-place)
I0813 23:21:10.819612  6877 layer_factory.hpp:77] Creating layer resx8_conv2_scale
I0813 23:21:10.819736  6877 net.cpp:141] Setting up resx8_conv2_scale
I0813 23:21:10.819744  6877 net.cpp:148] Top shape: 80 120 14 14 (1881600)
I0813 23:21:10.819748  6877 net.cpp:156] Memory required for data: 3667615040
I0813 23:21:10.819754  6877 layer_factory.hpp:77] Creating layer resx8_conv3
I0813 23:21:10.819764  6877 net.cpp:91] Creating Layer resx8_conv3
I0813 23:21:10.819768  6877 net.cpp:469] resx8_conv3 <- resx8_conv2
I0813 23:21:10.819777  6877 net.cpp:443] resx8_conv3 -> resx8_conv3
I0813 23:21:10.822753  6877 net.cpp:141] Setting up resx8_conv3
I0813 23:21:10.822769  6877 net.cpp:148] Top shape: 80 480 14 14 (7526400)
I0813 23:21:10.822774  6877 net.cpp:156] Memory required for data: 3697720640
I0813 23:21:10.822780  6877 layer_factory.hpp:77] Creating layer resx8_conv3_bn
I0813 23:21:10.822788  6877 net.cpp:91] Creating Layer resx8_conv3_bn
I0813 23:21:10.822793  6877 net.cpp:469] resx8_conv3_bn <- resx8_conv3
I0813 23:21:10.822800  6877 net.cpp:430] resx8_conv3_bn -> resx8_conv3 (in-place)
I0813 23:21:10.823014  6877 net.cpp:141] Setting up resx8_conv3_bn
I0813 23:21:10.823022  6877 net.cpp:148] Top shape: 80 480 14 14 (7526400)
I0813 23:21:10.823025  6877 net.cpp:156] Memory required for data: 3727826240
I0813 23:21:10.823034  6877 layer_factory.hpp:77] Creating layer resx8_conv3_scale
I0813 23:21:10.823041  6877 net.cpp:91] Creating Layer resx8_conv3_scale
I0813 23:21:10.823045  6877 net.cpp:469] resx8_conv3_scale <- resx8_conv3
I0813 23:21:10.823051  6877 net.cpp:430] resx8_conv3_scale -> resx8_conv3 (in-place)
I0813 23:21:10.823099  6877 layer_factory.hpp:77] Creating layer resx8_conv3_scale
I0813 23:21:10.823225  6877 net.cpp:141] Setting up resx8_conv3_scale
I0813 23:21:10.823233  6877 net.cpp:148] Top shape: 80 480 14 14 (7526400)
I0813 23:21:10.823237  6877 net.cpp:156] Memory required for data: 3757931840
I0813 23:21:10.823243  6877 layer_factory.hpp:77] Creating layer resx8_elewise
I0813 23:21:10.823251  6877 net.cpp:91] Creating Layer resx8_elewise
I0813 23:21:10.823256  6877 net.cpp:469] resx8_elewise <- resx7_elewise_resx7_elewise_relu_0_split_1
I0813 23:21:10.823261  6877 net.cpp:469] resx8_elewise <- resx8_conv3
I0813 23:21:10.823266  6877 net.cpp:443] resx8_elewise -> resx8_elewise
I0813 23:21:10.823295  6877 net.cpp:141] Setting up resx8_elewise
I0813 23:21:10.823303  6877 net.cpp:148] Top shape: 80 480 14 14 (7526400)
I0813 23:21:10.823307  6877 net.cpp:156] Memory required for data: 3788037440
I0813 23:21:10.823310  6877 layer_factory.hpp:77] Creating layer resx8_elewise_relu
I0813 23:21:10.823315  6877 net.cpp:91] Creating Layer resx8_elewise_relu
I0813 23:21:10.823319  6877 net.cpp:469] resx8_elewise_relu <- resx8_elewise
I0813 23:21:10.823326  6877 net.cpp:430] resx8_elewise_relu -> resx8_elewise (in-place)
I0813 23:21:10.823654  6877 net.cpp:141] Setting up resx8_elewise_relu
I0813 23:21:10.823668  6877 net.cpp:148] Top shape: 80 480 14 14 (7526400)
I0813 23:21:10.823676  6877 net.cpp:156] Memory required for data: 3818143040
I0813 23:21:10.823686  6877 layer_factory.hpp:77] Creating layer resx8_elewise_resx8_elewise_relu_0_split
I0813 23:21:10.823693  6877 net.cpp:91] Creating Layer resx8_elewise_resx8_elewise_relu_0_split
I0813 23:21:10.823698  6877 net.cpp:469] resx8_elewise_resx8_elewise_relu_0_split <- resx8_elewise
I0813 23:21:10.823704  6877 net.cpp:443] resx8_elewise_resx8_elewise_relu_0_split -> resx8_elewise_resx8_elewise_relu_0_split_0
I0813 23:21:10.823712  6877 net.cpp:443] resx8_elewise_resx8_elewise_relu_0_split -> resx8_elewise_resx8_elewise_relu_0_split_1
I0813 23:21:10.823762  6877 net.cpp:141] Setting up resx8_elewise_resx8_elewise_relu_0_split
I0813 23:21:10.823770  6877 net.cpp:148] Top shape: 80 480 14 14 (7526400)
I0813 23:21:10.823774  6877 net.cpp:148] Top shape: 80 480 14 14 (7526400)
I0813 23:21:10.823777  6877 net.cpp:156] Memory required for data: 3878354240
I0813 23:21:10.823781  6877 layer_factory.hpp:77] Creating layer resx9_conv1
I0813 23:21:10.823791  6877 net.cpp:91] Creating Layer resx9_conv1
I0813 23:21:10.823796  6877 net.cpp:469] resx9_conv1 <- resx8_elewise_resx8_elewise_relu_0_split_0
I0813 23:21:10.823801  6877 net.cpp:443] resx9_conv1 -> resx9_conv1
I0813 23:21:10.826751  6877 net.cpp:141] Setting up resx9_conv1
I0813 23:21:10.826767  6877 net.cpp:148] Top shape: 80 120 14 14 (1881600)
I0813 23:21:10.826772  6877 net.cpp:156] Memory required for data: 3885880640
I0813 23:21:10.826777  6877 layer_factory.hpp:77] Creating layer resx9_conv1_bn
I0813 23:21:10.826786  6877 net.cpp:91] Creating Layer resx9_conv1_bn
I0813 23:21:10.826792  6877 net.cpp:469] resx9_conv1_bn <- resx9_conv1
I0813 23:21:10.826798  6877 net.cpp:430] resx9_conv1_bn -> resx9_conv1 (in-place)
I0813 23:21:10.827013  6877 net.cpp:141] Setting up resx9_conv1_bn
I0813 23:21:10.827021  6877 net.cpp:148] Top shape: 80 120 14 14 (1881600)
I0813 23:21:10.827025  6877 net.cpp:156] Memory required for data: 3893407040
I0813 23:21:10.827033  6877 layer_factory.hpp:77] Creating layer resx9_conv1_scale
I0813 23:21:10.827041  6877 net.cpp:91] Creating Layer resx9_conv1_scale
I0813 23:21:10.827046  6877 net.cpp:469] resx9_conv1_scale <- resx9_conv1
I0813 23:21:10.827051  6877 net.cpp:430] resx9_conv1_scale -> resx9_conv1 (in-place)
I0813 23:21:10.827100  6877 layer_factory.hpp:77] Creating layer resx9_conv1_scale
I0813 23:21:10.827222  6877 net.cpp:141] Setting up resx9_conv1_scale
I0813 23:21:10.827231  6877 net.cpp:148] Top shape: 80 120 14 14 (1881600)
I0813 23:21:10.827234  6877 net.cpp:156] Memory required for data: 3900933440
I0813 23:21:10.827241  6877 layer_factory.hpp:77] Creating layer resx9_conv1_relu
I0813 23:21:10.827249  6877 net.cpp:91] Creating Layer resx9_conv1_relu
I0813 23:21:10.827253  6877 net.cpp:469] resx9_conv1_relu <- resx9_conv1
I0813 23:21:10.827257  6877 net.cpp:430] resx9_conv1_relu -> resx9_conv1 (in-place)
I0813 23:21:10.827595  6877 net.cpp:141] Setting up resx9_conv1_relu
I0813 23:21:10.827608  6877 net.cpp:148] Top shape: 80 120 14 14 (1881600)
I0813 23:21:10.827612  6877 net.cpp:156] Memory required for data: 3908459840
I0813 23:21:10.827616  6877 layer_factory.hpp:77] Creating layer shuffle9
I0813 23:21:10.827623  6877 net.cpp:91] Creating Layer shuffle9
I0813 23:21:10.827627  6877 net.cpp:469] shuffle9 <- resx9_conv1
I0813 23:21:10.827635  6877 net.cpp:443] shuffle9 -> shuffle9
I0813 23:21:10.827674  6877 net.cpp:141] Setting up shuffle9
I0813 23:21:10.827682  6877 net.cpp:148] Top shape: 80 120 14 14 (1881600)
I0813 23:21:10.827687  6877 net.cpp:156] Memory required for data: 3915986240
I0813 23:21:10.827690  6877 layer_factory.hpp:77] Creating layer resx9_conv2
I0813 23:21:10.827699  6877 net.cpp:91] Creating Layer resx9_conv2
I0813 23:21:10.827704  6877 net.cpp:469] resx9_conv2 <- shuffle9
I0813 23:21:10.827711  6877 net.cpp:443] resx9_conv2 -> resx9_conv2
I0813 23:21:10.827862  6877 net.cpp:141] Setting up resx9_conv2
I0813 23:21:10.827872  6877 net.cpp:148] Top shape: 80 120 14 14 (1881600)
I0813 23:21:10.827877  6877 net.cpp:156] Memory required for data: 3923512640
I0813 23:21:10.827885  6877 layer_factory.hpp:77] Creating layer resx9_conv2_bn
I0813 23:21:10.827901  6877 net.cpp:91] Creating Layer resx9_conv2_bn
I0813 23:21:10.827905  6877 net.cpp:469] resx9_conv2_bn <- resx9_conv2
I0813 23:21:10.827913  6877 net.cpp:430] resx9_conv2_bn -> resx9_conv2 (in-place)
I0813 23:21:10.828117  6877 net.cpp:141] Setting up resx9_conv2_bn
I0813 23:21:10.828125  6877 net.cpp:148] Top shape: 80 120 14 14 (1881600)
I0813 23:21:10.828130  6877 net.cpp:156] Memory required for data: 3931039040
I0813 23:21:10.828137  6877 layer_factory.hpp:77] Creating layer resx9_conv2_scale
I0813 23:21:10.828145  6877 net.cpp:91] Creating Layer resx9_conv2_scale
I0813 23:21:10.828150  6877 net.cpp:469] resx9_conv2_scale <- resx9_conv2
I0813 23:21:10.828155  6877 net.cpp:430] resx9_conv2_scale -> resx9_conv2 (in-place)
I0813 23:21:10.828200  6877 layer_factory.hpp:77] Creating layer resx9_conv2_scale
I0813 23:21:10.828325  6877 net.cpp:141] Setting up resx9_conv2_scale
I0813 23:21:10.828332  6877 net.cpp:148] Top shape: 80 120 14 14 (1881600)
I0813 23:21:10.828336  6877 net.cpp:156] Memory required for data: 3938565440
I0813 23:21:10.828342  6877 layer_factory.hpp:77] Creating layer resx9_conv3
I0813 23:21:10.828363  6877 net.cpp:91] Creating Layer resx9_conv3
I0813 23:21:10.828368  6877 net.cpp:469] resx9_conv3 <- resx9_conv2
I0813 23:21:10.828374  6877 net.cpp:443] resx9_conv3 -> resx9_conv3
I0813 23:21:10.831382  6877 net.cpp:141] Setting up resx9_conv3
I0813 23:21:10.831398  6877 net.cpp:148] Top shape: 80 480 14 14 (7526400)
I0813 23:21:10.831403  6877 net.cpp:156] Memory required for data: 3968671040
I0813 23:21:10.831408  6877 layer_factory.hpp:77] Creating layer resx9_conv3_bn
I0813 23:21:10.831418  6877 net.cpp:91] Creating Layer resx9_conv3_bn
I0813 23:21:10.831423  6877 net.cpp:469] resx9_conv3_bn <- resx9_conv3
I0813 23:21:10.831430  6877 net.cpp:430] resx9_conv3_bn -> resx9_conv3 (in-place)
I0813 23:21:10.831650  6877 net.cpp:141] Setting up resx9_conv3_bn
I0813 23:21:10.831658  6877 net.cpp:148] Top shape: 80 480 14 14 (7526400)
I0813 23:21:10.831661  6877 net.cpp:156] Memory required for data: 3998776640
I0813 23:21:10.831670  6877 layer_factory.hpp:77] Creating layer resx9_conv3_scale
I0813 23:21:10.831678  6877 net.cpp:91] Creating Layer resx9_conv3_scale
I0813 23:21:10.831682  6877 net.cpp:469] resx9_conv3_scale <- resx9_conv3
I0813 23:21:10.831687  6877 net.cpp:430] resx9_conv3_scale -> resx9_conv3 (in-place)
I0813 23:21:10.831738  6877 layer_factory.hpp:77] Creating layer resx9_conv3_scale
I0813 23:21:10.831868  6877 net.cpp:141] Setting up resx9_conv3_scale
I0813 23:21:10.831876  6877 net.cpp:148] Top shape: 80 480 14 14 (7526400)
I0813 23:21:10.831881  6877 net.cpp:156] Memory required for data: 4028882240
I0813 23:21:10.831887  6877 layer_factory.hpp:77] Creating layer resx9_elewise
I0813 23:21:10.831893  6877 net.cpp:91] Creating Layer resx9_elewise
I0813 23:21:10.831897  6877 net.cpp:469] resx9_elewise <- resx8_elewise_resx8_elewise_relu_0_split_1
I0813 23:21:10.831902  6877 net.cpp:469] resx9_elewise <- resx9_conv3
I0813 23:21:10.831909  6877 net.cpp:443] resx9_elewise -> resx9_elewise
I0813 23:21:10.831936  6877 net.cpp:141] Setting up resx9_elewise
I0813 23:21:10.831943  6877 net.cpp:148] Top shape: 80 480 14 14 (7526400)
I0813 23:21:10.831946  6877 net.cpp:156] Memory required for data: 4058987840
I0813 23:21:10.831950  6877 layer_factory.hpp:77] Creating layer resx9_elewise_relu
I0813 23:21:10.831959  6877 net.cpp:91] Creating Layer resx9_elewise_relu
I0813 23:21:10.831962  6877 net.cpp:469] resx9_elewise_relu <- resx9_elewise
I0813 23:21:10.831967  6877 net.cpp:430] resx9_elewise_relu -> resx9_elewise (in-place)
I0813 23:21:10.832464  6877 net.cpp:141] Setting up resx9_elewise_relu
I0813 23:21:10.832478  6877 net.cpp:148] Top shape: 80 480 14 14 (7526400)
I0813 23:21:10.832482  6877 net.cpp:156] Memory required for data: 4089093440
I0813 23:21:10.832486  6877 layer_factory.hpp:77] Creating layer resx9_elewise_resx9_elewise_relu_0_split
I0813 23:21:10.832501  6877 net.cpp:91] Creating Layer resx9_elewise_resx9_elewise_relu_0_split
I0813 23:21:10.832512  6877 net.cpp:469] resx9_elewise_resx9_elewise_relu_0_split <- resx9_elewise
I0813 23:21:10.832518  6877 net.cpp:443] resx9_elewise_resx9_elewise_relu_0_split -> resx9_elewise_resx9_elewise_relu_0_split_0
I0813 23:21:10.832527  6877 net.cpp:443] resx9_elewise_resx9_elewise_relu_0_split -> resx9_elewise_resx9_elewise_relu_0_split_1
I0813 23:21:10.832578  6877 net.cpp:141] Setting up resx9_elewise_resx9_elewise_relu_0_split
I0813 23:21:10.832587  6877 net.cpp:148] Top shape: 80 480 14 14 (7526400)
I0813 23:21:10.832590  6877 net.cpp:148] Top shape: 80 480 14 14 (7526400)
I0813 23:21:10.832594  6877 net.cpp:156] Memory required for data: 4149304640
I0813 23:21:10.832598  6877 layer_factory.hpp:77] Creating layer resx10_conv1
I0813 23:21:10.832607  6877 net.cpp:91] Creating Layer resx10_conv1
I0813 23:21:10.832612  6877 net.cpp:469] resx10_conv1 <- resx9_elewise_resx9_elewise_relu_0_split_0
I0813 23:21:10.832620  6877 net.cpp:443] resx10_conv1 -> resx10_conv1
I0813 23:21:10.835614  6877 net.cpp:141] Setting up resx10_conv1
I0813 23:21:10.835629  6877 net.cpp:148] Top shape: 80 120 14 14 (1881600)
I0813 23:21:10.835634  6877 net.cpp:156] Memory required for data: 4156831040
I0813 23:21:10.835641  6877 layer_factory.hpp:77] Creating layer resx10_conv1_bn
I0813 23:21:10.835650  6877 net.cpp:91] Creating Layer resx10_conv1_bn
I0813 23:21:10.835655  6877 net.cpp:469] resx10_conv1_bn <- resx10_conv1
I0813 23:21:10.835661  6877 net.cpp:430] resx10_conv1_bn -> resx10_conv1 (in-place)
I0813 23:21:10.835880  6877 net.cpp:141] Setting up resx10_conv1_bn
I0813 23:21:10.835887  6877 net.cpp:148] Top shape: 80 120 14 14 (1881600)
I0813 23:21:10.835891  6877 net.cpp:156] Memory required for data: 4164357440
I0813 23:21:10.835898  6877 layer_factory.hpp:77] Creating layer resx10_conv1_scale
I0813 23:21:10.835907  6877 net.cpp:91] Creating Layer resx10_conv1_scale
I0813 23:21:10.835912  6877 net.cpp:469] resx10_conv1_scale <- resx10_conv1
I0813 23:21:10.835917  6877 net.cpp:430] resx10_conv1_scale -> resx10_conv1 (in-place)
I0813 23:21:10.835964  6877 layer_factory.hpp:77] Creating layer resx10_conv1_scale
I0813 23:21:10.836093  6877 net.cpp:141] Setting up resx10_conv1_scale
I0813 23:21:10.836102  6877 net.cpp:148] Top shape: 80 120 14 14 (1881600)
I0813 23:21:10.836105  6877 net.cpp:156] Memory required for data: 4171883840
I0813 23:21:10.836112  6877 layer_factory.hpp:77] Creating layer resx10_conv1_relu
I0813 23:21:10.836119  6877 net.cpp:91] Creating Layer resx10_conv1_relu
I0813 23:21:10.836123  6877 net.cpp:469] resx10_conv1_relu <- resx10_conv1
I0813 23:21:10.836127  6877 net.cpp:430] resx10_conv1_relu -> resx10_conv1 (in-place)
I0813 23:21:10.836469  6877 net.cpp:141] Setting up resx10_conv1_relu
I0813 23:21:10.836484  6877 net.cpp:148] Top shape: 80 120 14 14 (1881600)
I0813 23:21:10.836488  6877 net.cpp:156] Memory required for data: 4179410240
I0813 23:21:10.836493  6877 layer_factory.hpp:77] Creating layer shuffle10
I0813 23:21:10.836500  6877 net.cpp:91] Creating Layer shuffle10
I0813 23:21:10.836504  6877 net.cpp:469] shuffle10 <- resx10_conv1
I0813 23:21:10.836510  6877 net.cpp:443] shuffle10 -> shuffle10
I0813 23:21:10.836547  6877 net.cpp:141] Setting up shuffle10
I0813 23:21:10.836555  6877 net.cpp:148] Top shape: 80 120 14 14 (1881600)
I0813 23:21:10.836558  6877 net.cpp:156] Memory required for data: 4186936640
I0813 23:21:10.836562  6877 layer_factory.hpp:77] Creating layer resx10_conv2
I0813 23:21:10.836571  6877 net.cpp:91] Creating Layer resx10_conv2
I0813 23:21:10.836576  6877 net.cpp:469] resx10_conv2 <- shuffle10
I0813 23:21:10.836581  6877 net.cpp:443] resx10_conv2 -> resx10_conv2
I0813 23:21:10.836735  6877 net.cpp:141] Setting up resx10_conv2
I0813 23:21:10.836746  6877 net.cpp:148] Top shape: 80 120 14 14 (1881600)
I0813 23:21:10.836750  6877 net.cpp:156] Memory required for data: 4194463040
I0813 23:21:10.836755  6877 layer_factory.hpp:77] Creating layer resx10_conv2_bn
I0813 23:21:10.836765  6877 net.cpp:91] Creating Layer resx10_conv2_bn
I0813 23:21:10.836776  6877 net.cpp:469] resx10_conv2_bn <- resx10_conv2
I0813 23:21:10.836787  6877 net.cpp:430] resx10_conv2_bn -> resx10_conv2 (in-place)
I0813 23:21:10.837004  6877 net.cpp:141] Setting up resx10_conv2_bn
I0813 23:21:10.837013  6877 net.cpp:148] Top shape: 80 120 14 14 (1881600)
I0813 23:21:10.837015  6877 net.cpp:156] Memory required for data: 4201989440
I0813 23:21:10.837023  6877 layer_factory.hpp:77] Creating layer resx10_conv2_scale
I0813 23:21:10.837030  6877 net.cpp:91] Creating Layer resx10_conv2_scale
I0813 23:21:10.837034  6877 net.cpp:469] resx10_conv2_scale <- resx10_conv2
I0813 23:21:10.837039  6877 net.cpp:430] resx10_conv2_scale -> resx10_conv2 (in-place)
I0813 23:21:10.837095  6877 layer_factory.hpp:77] Creating layer resx10_conv2_scale
I0813 23:21:10.837400  6877 net.cpp:141] Setting up resx10_conv2_scale
I0813 23:21:10.837411  6877 net.cpp:148] Top shape: 80 120 14 14 (1881600)
I0813 23:21:10.837414  6877 net.cpp:156] Memory required for data: 4209515840
I0813 23:21:10.837421  6877 layer_factory.hpp:77] Creating layer resx10_conv3
I0813 23:21:10.837432  6877 net.cpp:91] Creating Layer resx10_conv3
I0813 23:21:10.837436  6877 net.cpp:469] resx10_conv3 <- resx10_conv2
I0813 23:21:10.837442  6877 net.cpp:443] resx10_conv3 -> resx10_conv3
I0813 23:21:10.840453  6877 net.cpp:141] Setting up resx10_conv3
I0813 23:21:10.840471  6877 net.cpp:148] Top shape: 80 480 14 14 (7526400)
I0813 23:21:10.840474  6877 net.cpp:156] Memory required for data: 4239621440
I0813 23:21:10.840481  6877 layer_factory.hpp:77] Creating layer resx10_conv3_bn
I0813 23:21:10.840488  6877 net.cpp:91] Creating Layer resx10_conv3_bn
I0813 23:21:10.840492  6877 net.cpp:469] resx10_conv3_bn <- resx10_conv3
I0813 23:21:10.840500  6877 net.cpp:430] resx10_conv3_bn -> resx10_conv3 (in-place)
I0813 23:21:10.840724  6877 net.cpp:141] Setting up resx10_conv3_bn
I0813 23:21:10.840732  6877 net.cpp:148] Top shape: 80 480 14 14 (7526400)
I0813 23:21:10.840736  6877 net.cpp:156] Memory required for data: 4269727040
I0813 23:21:10.840744  6877 layer_factory.hpp:77] Creating layer resx10_conv3_scale
I0813 23:21:10.840751  6877 net.cpp:91] Creating Layer resx10_conv3_scale
I0813 23:21:10.840755  6877 net.cpp:469] resx10_conv3_scale <- resx10_conv3
I0813 23:21:10.840764  6877 net.cpp:430] resx10_conv3_scale -> resx10_conv3 (in-place)
I0813 23:21:10.840811  6877 layer_factory.hpp:77] Creating layer resx10_conv3_scale
I0813 23:21:10.840943  6877 net.cpp:141] Setting up resx10_conv3_scale
I0813 23:21:10.840951  6877 net.cpp:148] Top shape: 80 480 14 14 (7526400)
I0813 23:21:10.840955  6877 net.cpp:156] Memory required for data: 4299832640
I0813 23:21:10.840961  6877 layer_factory.hpp:77] Creating layer resx10_elewise
I0813 23:21:10.840968  6877 net.cpp:91] Creating Layer resx10_elewise
I0813 23:21:10.840972  6877 net.cpp:469] resx10_elewise <- resx9_elewise_resx9_elewise_relu_0_split_1
I0813 23:21:10.840977  6877 net.cpp:469] resx10_elewise <- resx10_conv3
I0813 23:21:10.840984  6877 net.cpp:443] resx10_elewise -> resx10_elewise
I0813 23:21:10.841017  6877 net.cpp:141] Setting up resx10_elewise
I0813 23:21:10.841023  6877 net.cpp:148] Top shape: 80 480 14 14 (7526400)
I0813 23:21:10.841027  6877 net.cpp:156] Memory required for data: 4329938240
I0813 23:21:10.841030  6877 layer_factory.hpp:77] Creating layer resx10_elewise_relu
I0813 23:21:10.841037  6877 net.cpp:91] Creating Layer resx10_elewise_relu
I0813 23:21:10.841042  6877 net.cpp:469] resx10_elewise_relu <- resx10_elewise
I0813 23:21:10.841045  6877 net.cpp:430] resx10_elewise_relu -> resx10_elewise (in-place)
I0813 23:21:10.841395  6877 net.cpp:141] Setting up resx10_elewise_relu
I0813 23:21:10.841409  6877 net.cpp:148] Top shape: 80 480 14 14 (7526400)
I0813 23:21:10.841413  6877 net.cpp:156] Memory required for data: 4360043840
I0813 23:21:10.841418  6877 layer_factory.hpp:77] Creating layer resx10_elewise_resx10_elewise_relu_0_split
I0813 23:21:10.841426  6877 net.cpp:91] Creating Layer resx10_elewise_resx10_elewise_relu_0_split
I0813 23:21:10.841435  6877 net.cpp:469] resx10_elewise_resx10_elewise_relu_0_split <- resx10_elewise
I0813 23:21:10.841447  6877 net.cpp:443] resx10_elewise_resx10_elewise_relu_0_split -> resx10_elewise_resx10_elewise_relu_0_split_0
I0813 23:21:10.841456  6877 net.cpp:443] resx10_elewise_resx10_elewise_relu_0_split -> resx10_elewise_resx10_elewise_relu_0_split_1
I0813 23:21:10.841506  6877 net.cpp:141] Setting up resx10_elewise_resx10_elewise_relu_0_split
I0813 23:21:10.841514  6877 net.cpp:148] Top shape: 80 480 14 14 (7526400)
I0813 23:21:10.841518  6877 net.cpp:148] Top shape: 80 480 14 14 (7526400)
I0813 23:21:10.841521  6877 net.cpp:156] Memory required for data: 4420255040
I0813 23:21:10.841526  6877 layer_factory.hpp:77] Creating layer resx11_conv1
I0813 23:21:10.841536  6877 net.cpp:91] Creating Layer resx11_conv1
I0813 23:21:10.841540  6877 net.cpp:469] resx11_conv1 <- resx10_elewise_resx10_elewise_relu_0_split_0
I0813 23:21:10.841547  6877 net.cpp:443] resx11_conv1 -> resx11_conv1
I0813 23:21:10.844554  6877 net.cpp:141] Setting up resx11_conv1
I0813 23:21:10.844569  6877 net.cpp:148] Top shape: 80 120 14 14 (1881600)
I0813 23:21:10.844573  6877 net.cpp:156] Memory required for data: 4427781440
I0813 23:21:10.844579  6877 layer_factory.hpp:77] Creating layer resx11_conv1_bn
I0813 23:21:10.844589  6877 net.cpp:91] Creating Layer resx11_conv1_bn
I0813 23:21:10.844594  6877 net.cpp:469] resx11_conv1_bn <- resx11_conv1
I0813 23:21:10.844599  6877 net.cpp:430] resx11_conv1_bn -> resx11_conv1 (in-place)
I0813 23:21:10.844822  6877 net.cpp:141] Setting up resx11_conv1_bn
I0813 23:21:10.844831  6877 net.cpp:148] Top shape: 80 120 14 14 (1881600)
I0813 23:21:10.844835  6877 net.cpp:156] Memory required for data: 4435307840
I0813 23:21:10.844842  6877 layer_factory.hpp:77] Creating layer resx11_conv1_scale
I0813 23:21:10.844852  6877 net.cpp:91] Creating Layer resx11_conv1_scale
I0813 23:21:10.844856  6877 net.cpp:469] resx11_conv1_scale <- resx11_conv1
I0813 23:21:10.844861  6877 net.cpp:430] resx11_conv1_scale -> resx11_conv1 (in-place)
I0813 23:21:10.844909  6877 layer_factory.hpp:77] Creating layer resx11_conv1_scale
I0813 23:21:10.845041  6877 net.cpp:141] Setting up resx11_conv1_scale
I0813 23:21:10.845049  6877 net.cpp:148] Top shape: 80 120 14 14 (1881600)
I0813 23:21:10.845053  6877 net.cpp:156] Memory required for data: 4442834240
I0813 23:21:10.845059  6877 layer_factory.hpp:77] Creating layer resx11_conv1_relu
I0813 23:21:10.845067  6877 net.cpp:91] Creating Layer resx11_conv1_relu
I0813 23:21:10.845072  6877 net.cpp:469] resx11_conv1_relu <- resx11_conv1
I0813 23:21:10.845088  6877 net.cpp:430] resx11_conv1_relu -> resx11_conv1 (in-place)
I0813 23:21:10.845757  6877 net.cpp:141] Setting up resx11_conv1_relu
I0813 23:21:10.845770  6877 net.cpp:148] Top shape: 80 120 14 14 (1881600)
I0813 23:21:10.845774  6877 net.cpp:156] Memory required for data: 4450360640
I0813 23:21:10.845778  6877 layer_factory.hpp:77] Creating layer shuffle11
I0813 23:21:10.845789  6877 net.cpp:91] Creating Layer shuffle11
I0813 23:21:10.845795  6877 net.cpp:469] shuffle11 <- resx11_conv1
I0813 23:21:10.845801  6877 net.cpp:443] shuffle11 -> shuffle11
I0813 23:21:10.845841  6877 net.cpp:141] Setting up shuffle11
I0813 23:21:10.845849  6877 net.cpp:148] Top shape: 80 120 14 14 (1881600)
I0813 23:21:10.845852  6877 net.cpp:156] Memory required for data: 4457887040
I0813 23:21:10.845856  6877 layer_factory.hpp:77] Creating layer resx11_conv2
I0813 23:21:10.845865  6877 net.cpp:91] Creating Layer resx11_conv2
I0813 23:21:10.845870  6877 net.cpp:469] resx11_conv2 <- shuffle11
I0813 23:21:10.845875  6877 net.cpp:443] resx11_conv2 -> resx11_conv2
I0813 23:21:10.846034  6877 net.cpp:141] Setting up resx11_conv2
I0813 23:21:10.846045  6877 net.cpp:148] Top shape: 80 120 14 14 (1881600)
I0813 23:21:10.846048  6877 net.cpp:156] Memory required for data: 4465413440
I0813 23:21:10.846055  6877 layer_factory.hpp:77] Creating layer resx11_conv2_bn
I0813 23:21:10.846063  6877 net.cpp:91] Creating Layer resx11_conv2_bn
I0813 23:21:10.846068  6877 net.cpp:469] resx11_conv2_bn <- resx11_conv2
I0813 23:21:10.846077  6877 net.cpp:430] resx11_conv2_bn -> resx11_conv2 (in-place)
I0813 23:21:10.846300  6877 net.cpp:141] Setting up resx11_conv2_bn
I0813 23:21:10.846309  6877 net.cpp:148] Top shape: 80 120 14 14 (1881600)
I0813 23:21:10.846312  6877 net.cpp:156] Memory required for data: 4472939840
I0813 23:21:10.846320  6877 layer_factory.hpp:77] Creating layer resx11_conv2_scale
I0813 23:21:10.846329  6877 net.cpp:91] Creating Layer resx11_conv2_scale
I0813 23:21:10.846333  6877 net.cpp:469] resx11_conv2_scale <- resx11_conv2
I0813 23:21:10.846338  6877 net.cpp:430] resx11_conv2_scale -> resx11_conv2 (in-place)
I0813 23:21:10.846386  6877 layer_factory.hpp:77] Creating layer resx11_conv2_scale
I0813 23:21:10.846518  6877 net.cpp:141] Setting up resx11_conv2_scale
I0813 23:21:10.846525  6877 net.cpp:148] Top shape: 80 120 14 14 (1881600)
I0813 23:21:10.846529  6877 net.cpp:156] Memory required for data: 4480466240
I0813 23:21:10.846535  6877 layer_factory.hpp:77] Creating layer resx11_conv3
I0813 23:21:10.846547  6877 net.cpp:91] Creating Layer resx11_conv3
I0813 23:21:10.846551  6877 net.cpp:469] resx11_conv3 <- resx11_conv2
I0813 23:21:10.846556  6877 net.cpp:443] resx11_conv3 -> resx11_conv3
I0813 23:21:10.849789  6877 net.cpp:141] Setting up resx11_conv3
I0813 23:21:10.849805  6877 net.cpp:148] Top shape: 80 480 14 14 (7526400)
I0813 23:21:10.849809  6877 net.cpp:156] Memory required for data: 4510571840
I0813 23:21:10.849817  6877 layer_factory.hpp:77] Creating layer resx11_conv3_bn
I0813 23:21:10.849825  6877 net.cpp:91] Creating Layer resx11_conv3_bn
I0813 23:21:10.849830  6877 net.cpp:469] resx11_conv3_bn <- resx11_conv3
I0813 23:21:10.849838  6877 net.cpp:430] resx11_conv3_bn -> resx11_conv3 (in-place)
I0813 23:21:10.850066  6877 net.cpp:141] Setting up resx11_conv3_bn
I0813 23:21:10.850075  6877 net.cpp:148] Top shape: 80 480 14 14 (7526400)
I0813 23:21:10.850078  6877 net.cpp:156] Memory required for data: 4540677440
I0813 23:21:10.850086  6877 layer_factory.hpp:77] Creating layer resx11_conv3_scale
I0813 23:21:10.850095  6877 net.cpp:91] Creating Layer resx11_conv3_scale
I0813 23:21:10.850100  6877 net.cpp:469] resx11_conv3_scale <- resx11_conv3
I0813 23:21:10.850105  6877 net.cpp:430] resx11_conv3_scale -> resx11_conv3 (in-place)
I0813 23:21:10.850157  6877 layer_factory.hpp:77] Creating layer resx11_conv3_scale
I0813 23:21:10.850296  6877 net.cpp:141] Setting up resx11_conv3_scale
I0813 23:21:10.850304  6877 net.cpp:148] Top shape: 80 480 14 14 (7526400)
I0813 23:21:10.850308  6877 net.cpp:156] Memory required for data: 4570783040
I0813 23:21:10.850314  6877 layer_factory.hpp:77] Creating layer resx11_elewise
I0813 23:21:10.850322  6877 net.cpp:91] Creating Layer resx11_elewise
I0813 23:21:10.850325  6877 net.cpp:469] resx11_elewise <- resx10_elewise_resx10_elewise_relu_0_split_1
I0813 23:21:10.850330  6877 net.cpp:469] resx11_elewise <- resx11_conv3
I0813 23:21:10.850337  6877 net.cpp:443] resx11_elewise -> resx11_elewise
I0813 23:21:10.850368  6877 net.cpp:141] Setting up resx11_elewise
I0813 23:21:10.850374  6877 net.cpp:148] Top shape: 80 480 14 14 (7526400)
I0813 23:21:10.850378  6877 net.cpp:156] Memory required for data: 4600888640
I0813 23:21:10.850383  6877 layer_factory.hpp:77] Creating layer resx11_elewise_relu
I0813 23:21:10.850390  6877 net.cpp:91] Creating Layer resx11_elewise_relu
I0813 23:21:10.850394  6877 net.cpp:469] resx11_elewise_relu <- resx11_elewise
I0813 23:21:10.850399  6877 net.cpp:430] resx11_elewise_relu -> resx11_elewise (in-place)
I0813 23:21:10.850738  6877 net.cpp:141] Setting up resx11_elewise_relu
I0813 23:21:10.850754  6877 net.cpp:148] Top shape: 80 480 14 14 (7526400)
I0813 23:21:10.850757  6877 net.cpp:156] Memory required for data: 4630994240
I0813 23:21:10.850761  6877 layer_factory.hpp:77] Creating layer resx11_elewise_resx11_elewise_relu_0_split
I0813 23:21:10.850767  6877 net.cpp:91] Creating Layer resx11_elewise_resx11_elewise_relu_0_split
I0813 23:21:10.850772  6877 net.cpp:469] resx11_elewise_resx11_elewise_relu_0_split <- resx11_elewise
I0813 23:21:10.850782  6877 net.cpp:443] resx11_elewise_resx11_elewise_relu_0_split -> resx11_elewise_resx11_elewise_relu_0_split_0
I0813 23:21:10.850797  6877 net.cpp:443] resx11_elewise_resx11_elewise_relu_0_split -> resx11_elewise_resx11_elewise_relu_0_split_1
I0813 23:21:10.850852  6877 net.cpp:141] Setting up resx11_elewise_resx11_elewise_relu_0_split
I0813 23:21:10.850859  6877 net.cpp:148] Top shape: 80 480 14 14 (7526400)
I0813 23:21:10.850863  6877 net.cpp:148] Top shape: 80 480 14 14 (7526400)
I0813 23:21:10.850867  6877 net.cpp:156] Memory required for data: 4691205440
I0813 23:21:10.850870  6877 layer_factory.hpp:77] Creating layer resx12_conv1
I0813 23:21:10.850880  6877 net.cpp:91] Creating Layer resx12_conv1
I0813 23:21:10.850885  6877 net.cpp:469] resx12_conv1 <- resx11_elewise_resx11_elewise_relu_0_split_0
I0813 23:21:10.850893  6877 net.cpp:443] resx12_conv1 -> resx12_conv1
I0813 23:21:10.853920  6877 net.cpp:141] Setting up resx12_conv1
I0813 23:21:10.853935  6877 net.cpp:148] Top shape: 80 120 14 14 (1881600)
I0813 23:21:10.853940  6877 net.cpp:156] Memory required for data: 4698731840
I0813 23:21:10.853946  6877 layer_factory.hpp:77] Creating layer resx12_conv1_bn
I0813 23:21:10.853955  6877 net.cpp:91] Creating Layer resx12_conv1_bn
I0813 23:21:10.853960  6877 net.cpp:469] resx12_conv1_bn <- resx12_conv1
I0813 23:21:10.853965  6877 net.cpp:430] resx12_conv1_bn -> resx12_conv1 (in-place)
I0813 23:21:10.854193  6877 net.cpp:141] Setting up resx12_conv1_bn
I0813 23:21:10.854202  6877 net.cpp:148] Top shape: 80 120 14 14 (1881600)
I0813 23:21:10.854205  6877 net.cpp:156] Memory required for data: 4706258240
I0813 23:21:10.854213  6877 layer_factory.hpp:77] Creating layer resx12_conv1_scale
I0813 23:21:10.854220  6877 net.cpp:91] Creating Layer resx12_conv1_scale
I0813 23:21:10.854224  6877 net.cpp:469] resx12_conv1_scale <- resx12_conv1
I0813 23:21:10.854229  6877 net.cpp:430] resx12_conv1_scale -> resx12_conv1 (in-place)
I0813 23:21:10.854280  6877 layer_factory.hpp:77] Creating layer resx12_conv1_scale
I0813 23:21:10.854418  6877 net.cpp:141] Setting up resx12_conv1_scale
I0813 23:21:10.854427  6877 net.cpp:148] Top shape: 80 120 14 14 (1881600)
I0813 23:21:10.854431  6877 net.cpp:156] Memory required for data: 4713784640
I0813 23:21:10.854437  6877 layer_factory.hpp:77] Creating layer resx12_conv1_relu
I0813 23:21:10.854444  6877 net.cpp:91] Creating Layer resx12_conv1_relu
I0813 23:21:10.854447  6877 net.cpp:469] resx12_conv1_relu <- resx12_conv1
I0813 23:21:10.854452  6877 net.cpp:430] resx12_conv1_relu -> resx12_conv1 (in-place)
I0813 23:21:10.854864  6877 net.cpp:141] Setting up resx12_conv1_relu
I0813 23:21:10.854878  6877 net.cpp:148] Top shape: 80 120 14 14 (1881600)
I0813 23:21:10.854883  6877 net.cpp:156] Memory required for data: 4721311040
I0813 23:21:10.854888  6877 layer_factory.hpp:77] Creating layer shuffle12
I0813 23:21:10.854895  6877 net.cpp:91] Creating Layer shuffle12
I0813 23:21:10.854900  6877 net.cpp:469] shuffle12 <- resx12_conv1
I0813 23:21:10.854907  6877 net.cpp:443] shuffle12 -> shuffle12
I0813 23:21:10.854944  6877 net.cpp:141] Setting up shuffle12
I0813 23:21:10.854953  6877 net.cpp:148] Top shape: 80 120 14 14 (1881600)
I0813 23:21:10.854955  6877 net.cpp:156] Memory required for data: 4728837440
I0813 23:21:10.854959  6877 layer_factory.hpp:77] Creating layer resx12_conv2
I0813 23:21:10.854967  6877 net.cpp:91] Creating Layer resx12_conv2
I0813 23:21:10.854971  6877 net.cpp:469] resx12_conv2 <- shuffle12
I0813 23:21:10.854977  6877 net.cpp:443] resx12_conv2 -> resx12_conv2
I0813 23:21:10.855134  6877 net.cpp:141] Setting up resx12_conv2
I0813 23:21:10.855144  6877 net.cpp:148] Top shape: 80 120 14 14 (1881600)
I0813 23:21:10.855149  6877 net.cpp:156] Memory required for data: 4736363840
I0813 23:21:10.855154  6877 layer_factory.hpp:77] Creating layer resx12_conv2_bn
I0813 23:21:10.855167  6877 net.cpp:91] Creating Layer resx12_conv2_bn
I0813 23:21:10.855172  6877 net.cpp:469] resx12_conv2_bn <- resx12_conv2
I0813 23:21:10.855178  6877 net.cpp:430] resx12_conv2_bn -> resx12_conv2 (in-place)
I0813 23:21:10.855396  6877 net.cpp:141] Setting up resx12_conv2_bn
I0813 23:21:10.855412  6877 net.cpp:148] Top shape: 80 120 14 14 (1881600)
I0813 23:21:10.855417  6877 net.cpp:156] Memory required for data: 4743890240
I0813 23:21:10.855424  6877 layer_factory.hpp:77] Creating layer resx12_conv2_scale
I0813 23:21:10.855432  6877 net.cpp:91] Creating Layer resx12_conv2_scale
I0813 23:21:10.855437  6877 net.cpp:469] resx12_conv2_scale <- resx12_conv2
I0813 23:21:10.855442  6877 net.cpp:430] resx12_conv2_scale -> resx12_conv2 (in-place)
I0813 23:21:10.855494  6877 layer_factory.hpp:77] Creating layer resx12_conv2_scale
I0813 23:21:10.855633  6877 net.cpp:141] Setting up resx12_conv2_scale
I0813 23:21:10.855643  6877 net.cpp:148] Top shape: 80 120 14 14 (1881600)
I0813 23:21:10.855645  6877 net.cpp:156] Memory required for data: 4751416640
I0813 23:21:10.855651  6877 layer_factory.hpp:77] Creating layer resx12_conv3
I0813 23:21:10.855662  6877 net.cpp:91] Creating Layer resx12_conv3
I0813 23:21:10.855666  6877 net.cpp:469] resx12_conv3 <- resx12_conv2
I0813 23:21:10.855672  6877 net.cpp:443] resx12_conv3 -> resx12_conv3
I0813 23:21:10.859455  6877 net.cpp:141] Setting up resx12_conv3
I0813 23:21:10.859472  6877 net.cpp:148] Top shape: 80 480 14 14 (7526400)
I0813 23:21:10.859477  6877 net.cpp:156] Memory required for data: 4781522240
I0813 23:21:10.859483  6877 layer_factory.hpp:77] Creating layer resx12_conv3_bn
I0813 23:21:10.859491  6877 net.cpp:91] Creating Layer resx12_conv3_bn
I0813 23:21:10.859496  6877 net.cpp:469] resx12_conv3_bn <- resx12_conv3
I0813 23:21:10.859503  6877 net.cpp:430] resx12_conv3_bn -> resx12_conv3 (in-place)
I0813 23:21:10.859740  6877 net.cpp:141] Setting up resx12_conv3_bn
I0813 23:21:10.859750  6877 net.cpp:148] Top shape: 80 480 14 14 (7526400)
I0813 23:21:10.859752  6877 net.cpp:156] Memory required for data: 4811627840
I0813 23:21:10.859760  6877 layer_factory.hpp:77] Creating layer resx12_conv3_scale
I0813 23:21:10.859769  6877 net.cpp:91] Creating Layer resx12_conv3_scale
I0813 23:21:10.859773  6877 net.cpp:469] resx12_conv3_scale <- resx12_conv3
I0813 23:21:10.859778  6877 net.cpp:430] resx12_conv3_scale -> resx12_conv3 (in-place)
I0813 23:21:10.859830  6877 layer_factory.hpp:77] Creating layer resx12_conv3_scale
I0813 23:21:10.859973  6877 net.cpp:141] Setting up resx12_conv3_scale
I0813 23:21:10.859982  6877 net.cpp:148] Top shape: 80 480 14 14 (7526400)
I0813 23:21:10.859985  6877 net.cpp:156] Memory required for data: 4841733440
I0813 23:21:10.859992  6877 layer_factory.hpp:77] Creating layer resx12_elewise
I0813 23:21:10.860000  6877 net.cpp:91] Creating Layer resx12_elewise
I0813 23:21:10.860004  6877 net.cpp:469] resx12_elewise <- resx11_elewise_resx11_elewise_relu_0_split_1
I0813 23:21:10.860009  6877 net.cpp:469] resx12_elewise <- resx12_conv3
I0813 23:21:10.860014  6877 net.cpp:443] resx12_elewise -> resx12_elewise
I0813 23:21:10.860044  6877 net.cpp:141] Setting up resx12_elewise
I0813 23:21:10.860051  6877 net.cpp:148] Top shape: 80 480 14 14 (7526400)
I0813 23:21:10.860055  6877 net.cpp:156] Memory required for data: 4871839040
I0813 23:21:10.860059  6877 layer_factory.hpp:77] Creating layer resx12_elewise_relu
I0813 23:21:10.860066  6877 net.cpp:91] Creating Layer resx12_elewise_relu
I0813 23:21:10.860070  6877 net.cpp:469] resx12_elewise_relu <- resx12_elewise
I0813 23:21:10.860075  6877 net.cpp:430] resx12_elewise_relu -> resx12_elewise (in-place)
I0813 23:21:10.860249  6877 net.cpp:141] Setting up resx12_elewise_relu
I0813 23:21:10.860260  6877 net.cpp:148] Top shape: 80 480 14 14 (7526400)
I0813 23:21:10.860263  6877 net.cpp:156] Memory required for data: 4901944640
I0813 23:21:10.860267  6877 layer_factory.hpp:77] Creating layer resx12_elewise_resx12_elewise_relu_0_split
I0813 23:21:10.860275  6877 net.cpp:91] Creating Layer resx12_elewise_resx12_elewise_relu_0_split
I0813 23:21:10.860278  6877 net.cpp:469] resx12_elewise_resx12_elewise_relu_0_split <- resx12_elewise
I0813 23:21:10.860285  6877 net.cpp:443] resx12_elewise_resx12_elewise_relu_0_split -> resx12_elewise_resx12_elewise_relu_0_split_0
I0813 23:21:10.860301  6877 net.cpp:443] resx12_elewise_resx12_elewise_relu_0_split -> resx12_elewise_resx12_elewise_relu_0_split_1
I0813 23:21:10.860354  6877 net.cpp:141] Setting up resx12_elewise_resx12_elewise_relu_0_split
I0813 23:21:10.860363  6877 net.cpp:148] Top shape: 80 480 14 14 (7526400)
I0813 23:21:10.860368  6877 net.cpp:148] Top shape: 80 480 14 14 (7526400)
I0813 23:21:10.860371  6877 net.cpp:156] Memory required for data: 4962155840
I0813 23:21:10.860374  6877 layer_factory.hpp:77] Creating layer resx13_match_conv
I0813 23:21:10.860381  6877 net.cpp:91] Creating Layer resx13_match_conv
I0813 23:21:10.860385  6877 net.cpp:469] resx13_match_conv <- resx12_elewise_resx12_elewise_relu_0_split_0
I0813 23:21:10.860390  6877 net.cpp:443] resx13_match_conv -> resx13_match_conv
I0813 23:21:10.860756  6877 net.cpp:141] Setting up resx13_match_conv
I0813 23:21:10.860769  6877 net.cpp:148] Top shape: 80 480 7 7 (1881600)
I0813 23:21:10.860774  6877 net.cpp:156] Memory required for data: 4969682240
I0813 23:21:10.860777  6877 layer_factory.hpp:77] Creating layer resx13_conv1
I0813 23:21:10.860790  6877 net.cpp:91] Creating Layer resx13_conv1
I0813 23:21:10.860795  6877 net.cpp:469] resx13_conv1 <- resx12_elewise_resx12_elewise_relu_0_split_1
I0813 23:21:10.860800  6877 net.cpp:443] resx13_conv1 -> resx13_conv1
I0813 23:21:10.863853  6877 net.cpp:141] Setting up resx13_conv1
I0813 23:21:10.863869  6877 net.cpp:148] Top shape: 80 120 14 14 (1881600)
I0813 23:21:10.863874  6877 net.cpp:156] Memory required for data: 4977208640
I0813 23:21:10.863880  6877 layer_factory.hpp:77] Creating layer resx13_conv1_bn
I0813 23:21:10.863889  6877 net.cpp:91] Creating Layer resx13_conv1_bn
I0813 23:21:10.863895  6877 net.cpp:469] resx13_conv1_bn <- resx13_conv1
I0813 23:21:10.863903  6877 net.cpp:430] resx13_conv1_bn -> resx13_conv1 (in-place)
I0813 23:21:10.864136  6877 net.cpp:141] Setting up resx13_conv1_bn
I0813 23:21:10.864145  6877 net.cpp:148] Top shape: 80 120 14 14 (1881600)
I0813 23:21:10.864148  6877 net.cpp:156] Memory required for data: 4984735040
I0813 23:21:10.864156  6877 layer_factory.hpp:77] Creating layer resx13_conv1_scale
I0813 23:21:10.864168  6877 net.cpp:91] Creating Layer resx13_conv1_scale
I0813 23:21:10.864172  6877 net.cpp:469] resx13_conv1_scale <- resx13_conv1
I0813 23:21:10.864177  6877 net.cpp:430] resx13_conv1_scale -> resx13_conv1 (in-place)
I0813 23:21:10.864230  6877 layer_factory.hpp:77] Creating layer resx13_conv1_scale
I0813 23:21:10.864370  6877 net.cpp:141] Setting up resx13_conv1_scale
I0813 23:21:10.864378  6877 net.cpp:148] Top shape: 80 120 14 14 (1881600)
I0813 23:21:10.864382  6877 net.cpp:156] Memory required for data: 4992261440
I0813 23:21:10.864387  6877 layer_factory.hpp:77] Creating layer resx13_conv1_relu
I0813 23:21:10.864395  6877 net.cpp:91] Creating Layer resx13_conv1_relu
I0813 23:21:10.864400  6877 net.cpp:469] resx13_conv1_relu <- resx13_conv1
I0813 23:21:10.864405  6877 net.cpp:430] resx13_conv1_relu -> resx13_conv1 (in-place)
I0813 23:21:10.864751  6877 net.cpp:141] Setting up resx13_conv1_relu
I0813 23:21:10.864765  6877 net.cpp:148] Top shape: 80 120 14 14 (1881600)
I0813 23:21:10.864769  6877 net.cpp:156] Memory required for data: 4999787840
I0813 23:21:10.864773  6877 layer_factory.hpp:77] Creating layer shuffle13
I0813 23:21:10.864779  6877 net.cpp:91] Creating Layer shuffle13
I0813 23:21:10.864784  6877 net.cpp:469] shuffle13 <- resx13_conv1
I0813 23:21:10.864791  6877 net.cpp:443] shuffle13 -> shuffle13
I0813 23:21:10.864833  6877 net.cpp:141] Setting up shuffle13
I0813 23:21:10.864841  6877 net.cpp:148] Top shape: 80 120 14 14 (1881600)
I0813 23:21:10.864845  6877 net.cpp:156] Memory required for data: 5007314240
I0813 23:21:10.864848  6877 layer_factory.hpp:77] Creating layer resx13_conv2
I0813 23:21:10.864856  6877 net.cpp:91] Creating Layer resx13_conv2
I0813 23:21:10.864859  6877 net.cpp:469] resx13_conv2 <- shuffle13
I0813 23:21:10.864866  6877 net.cpp:443] resx13_conv2 -> resx13_conv2
I0813 23:21:10.865222  6877 net.cpp:141] Setting up resx13_conv2
I0813 23:21:10.865243  6877 net.cpp:148] Top shape: 80 120 7 7 (470400)
I0813 23:21:10.865247  6877 net.cpp:156] Memory required for data: 5009195840
I0813 23:21:10.865253  6877 layer_factory.hpp:77] Creating layer resx13_conv2_bn
I0813 23:21:10.865260  6877 net.cpp:91] Creating Layer resx13_conv2_bn
I0813 23:21:10.865267  6877 net.cpp:469] resx13_conv2_bn <- resx13_conv2
I0813 23:21:10.865273  6877 net.cpp:430] resx13_conv2_bn -> resx13_conv2 (in-place)
I0813 23:21:10.865514  6877 net.cpp:141] Setting up resx13_conv2_bn
I0813 23:21:10.865522  6877 net.cpp:148] Top shape: 80 120 7 7 (470400)
I0813 23:21:10.865525  6877 net.cpp:156] Memory required for data: 5011077440
I0813 23:21:10.865533  6877 layer_factory.hpp:77] Creating layer resx13_conv2_scale
I0813 23:21:10.865540  6877 net.cpp:91] Creating Layer resx13_conv2_scale
I0813 23:21:10.865545  6877 net.cpp:469] resx13_conv2_scale <- resx13_conv2
I0813 23:21:10.865550  6877 net.cpp:430] resx13_conv2_scale -> resx13_conv2 (in-place)
I0813 23:21:10.865604  6877 layer_factory.hpp:77] Creating layer resx13_conv2_scale
I0813 23:21:10.865748  6877 net.cpp:141] Setting up resx13_conv2_scale
I0813 23:21:10.865756  6877 net.cpp:148] Top shape: 80 120 7 7 (470400)
I0813 23:21:10.865761  6877 net.cpp:156] Memory required for data: 5012959040
I0813 23:21:10.865767  6877 layer_factory.hpp:77] Creating layer resx13_conv3
I0813 23:21:10.865777  6877 net.cpp:91] Creating Layer resx13_conv3
I0813 23:21:10.865782  6877 net.cpp:469] resx13_conv3 <- resx13_conv2
I0813 23:21:10.865789  6877 net.cpp:443] resx13_conv3 -> resx13_conv3
I0813 23:21:10.868929  6877 net.cpp:141] Setting up resx13_conv3
I0813 23:21:10.868947  6877 net.cpp:148] Top shape: 80 480 7 7 (1881600)
I0813 23:21:10.868952  6877 net.cpp:156] Memory required for data: 5020485440
I0813 23:21:10.868957  6877 layer_factory.hpp:77] Creating layer resx13_conv3_bn
I0813 23:21:10.868966  6877 net.cpp:91] Creating Layer resx13_conv3_bn
I0813 23:21:10.868971  6877 net.cpp:469] resx13_conv3_bn <- resx13_conv3
I0813 23:21:10.868978  6877 net.cpp:430] resx13_conv3_bn -> resx13_conv3 (in-place)
I0813 23:21:10.869240  6877 net.cpp:141] Setting up resx13_conv3_bn
I0813 23:21:10.869252  6877 net.cpp:148] Top shape: 80 480 7 7 (1881600)
I0813 23:21:10.869256  6877 net.cpp:156] Memory required for data: 5028011840
I0813 23:21:10.869263  6877 layer_factory.hpp:77] Creating layer resx13_conv3_scale
I0813 23:21:10.869271  6877 net.cpp:91] Creating Layer resx13_conv3_scale
I0813 23:21:10.869276  6877 net.cpp:469] resx13_conv3_scale <- resx13_conv3
I0813 23:21:10.869280  6877 net.cpp:430] resx13_conv3_scale -> resx13_conv3 (in-place)
I0813 23:21:10.869338  6877 layer_factory.hpp:77] Creating layer resx13_conv3_scale
I0813 23:21:10.869482  6877 net.cpp:141] Setting up resx13_conv3_scale
I0813 23:21:10.869493  6877 net.cpp:148] Top shape: 80 480 7 7 (1881600)
I0813 23:21:10.869498  6877 net.cpp:156] Memory required for data: 5035538240
I0813 23:21:10.869503  6877 layer_factory.hpp:77] Creating layer resx13_concat
I0813 23:21:10.869509  6877 net.cpp:91] Creating Layer resx13_concat
I0813 23:21:10.869514  6877 net.cpp:469] resx13_concat <- resx13_match_conv
I0813 23:21:10.869518  6877 net.cpp:469] resx13_concat <- resx13_conv3
I0813 23:21:10.869524  6877 net.cpp:443] resx13_concat -> resx13_concat
I0813 23:21:10.869559  6877 net.cpp:141] Setting up resx13_concat
I0813 23:21:10.869566  6877 net.cpp:148] Top shape: 80 960 7 7 (3763200)
I0813 23:21:10.869570  6877 net.cpp:156] Memory required for data: 5050591040
I0813 23:21:10.869573  6877 layer_factory.hpp:77] Creating layer resx13_concat_relu
I0813 23:21:10.869580  6877 net.cpp:91] Creating Layer resx13_concat_relu
I0813 23:21:10.869583  6877 net.cpp:469] resx13_concat_relu <- resx13_concat
I0813 23:21:10.869588  6877 net.cpp:430] resx13_concat_relu -> resx13_concat (in-place)
I0813 23:21:10.869940  6877 net.cpp:141] Setting up resx13_concat_relu
I0813 23:21:10.869954  6877 net.cpp:148] Top shape: 80 960 7 7 (3763200)
I0813 23:21:10.869958  6877 net.cpp:156] Memory required for data: 5065643840
I0813 23:21:10.869971  6877 layer_factory.hpp:77] Creating layer resx13_concat_resx13_concat_relu_0_split
I0813 23:21:10.869978  6877 net.cpp:91] Creating Layer resx13_concat_resx13_concat_relu_0_split
I0813 23:21:10.869983  6877 net.cpp:469] resx13_concat_resx13_concat_relu_0_split <- resx13_concat
I0813 23:21:10.869990  6877 net.cpp:443] resx13_concat_resx13_concat_relu_0_split -> resx13_concat_resx13_concat_relu_0_split_0
I0813 23:21:10.869998  6877 net.cpp:443] resx13_concat_resx13_concat_relu_0_split -> resx13_concat_resx13_concat_relu_0_split_1
I0813 23:21:10.870054  6877 net.cpp:141] Setting up resx13_concat_resx13_concat_relu_0_split
I0813 23:21:10.870061  6877 net.cpp:148] Top shape: 80 960 7 7 (3763200)
I0813 23:21:10.870065  6877 net.cpp:148] Top shape: 80 960 7 7 (3763200)
I0813 23:21:10.870069  6877 net.cpp:156] Memory required for data: 5095749440
I0813 23:21:10.870072  6877 layer_factory.hpp:77] Creating layer resx14_conv1
I0813 23:21:10.870085  6877 net.cpp:91] Creating Layer resx14_conv1
I0813 23:21:10.870090  6877 net.cpp:469] resx14_conv1 <- resx13_concat_resx13_concat_relu_0_split_0
I0813 23:21:10.870095  6877 net.cpp:443] resx14_conv1 -> resx14_conv1
I0813 23:21:10.875488  6877 net.cpp:141] Setting up resx14_conv1
I0813 23:21:10.875504  6877 net.cpp:148] Top shape: 80 240 7 7 (940800)
I0813 23:21:10.875509  6877 net.cpp:156] Memory required for data: 5099512640
I0813 23:21:10.875514  6877 layer_factory.hpp:77] Creating layer resx14_conv1_bn
I0813 23:21:10.875524  6877 net.cpp:91] Creating Layer resx14_conv1_bn
I0813 23:21:10.875530  6877 net.cpp:469] resx14_conv1_bn <- resx14_conv1
I0813 23:21:10.875535  6877 net.cpp:430] resx14_conv1_bn -> resx14_conv1 (in-place)
I0813 23:21:10.875777  6877 net.cpp:141] Setting up resx14_conv1_bn
I0813 23:21:10.875787  6877 net.cpp:148] Top shape: 80 240 7 7 (940800)
I0813 23:21:10.875790  6877 net.cpp:156] Memory required for data: 5103275840
I0813 23:21:10.875798  6877 layer_factory.hpp:77] Creating layer resx14_conv1_scale
I0813 23:21:10.875807  6877 net.cpp:91] Creating Layer resx14_conv1_scale
I0813 23:21:10.875810  6877 net.cpp:469] resx14_conv1_scale <- resx14_conv1
I0813 23:21:10.875815  6877 net.cpp:430] resx14_conv1_scale -> resx14_conv1 (in-place)
I0813 23:21:10.875869  6877 layer_factory.hpp:77] Creating layer resx14_conv1_scale
I0813 23:21:10.876019  6877 net.cpp:141] Setting up resx14_conv1_scale
I0813 23:21:10.876027  6877 net.cpp:148] Top shape: 80 240 7 7 (940800)
I0813 23:21:10.876031  6877 net.cpp:156] Memory required for data: 5107039040
I0813 23:21:10.876037  6877 layer_factory.hpp:77] Creating layer resx14_conv1_relu
I0813 23:21:10.876044  6877 net.cpp:91] Creating Layer resx14_conv1_relu
I0813 23:21:10.876047  6877 net.cpp:469] resx14_conv1_relu <- resx14_conv1
I0813 23:21:10.876052  6877 net.cpp:430] resx14_conv1_relu -> resx14_conv1 (in-place)
I0813 23:21:10.876417  6877 net.cpp:141] Setting up resx14_conv1_relu
I0813 23:21:10.876432  6877 net.cpp:148] Top shape: 80 240 7 7 (940800)
I0813 23:21:10.876437  6877 net.cpp:156] Memory required for data: 5110802240
I0813 23:21:10.876441  6877 layer_factory.hpp:77] Creating layer shuffle14
I0813 23:21:10.876448  6877 net.cpp:91] Creating Layer shuffle14
I0813 23:21:10.876452  6877 net.cpp:469] shuffle14 <- resx14_conv1
I0813 23:21:10.876461  6877 net.cpp:443] shuffle14 -> shuffle14
I0813 23:21:10.876500  6877 net.cpp:141] Setting up shuffle14
I0813 23:21:10.876508  6877 net.cpp:148] Top shape: 80 240 7 7 (940800)
I0813 23:21:10.876512  6877 net.cpp:156] Memory required for data: 5114565440
I0813 23:21:10.876515  6877 layer_factory.hpp:77] Creating layer resx14_conv2
I0813 23:21:10.876525  6877 net.cpp:91] Creating Layer resx14_conv2
I0813 23:21:10.876529  6877 net.cpp:469] resx14_conv2 <- shuffle14
I0813 23:21:10.876539  6877 net.cpp:443] resx14_conv2 -> resx14_conv2
I0813 23:21:10.876740  6877 net.cpp:141] Setting up resx14_conv2
I0813 23:21:10.876752  6877 net.cpp:148] Top shape: 80 240 7 7 (940800)
I0813 23:21:10.876756  6877 net.cpp:156] Memory required for data: 5118328640
I0813 23:21:10.876766  6877 layer_factory.hpp:77] Creating layer resx14_conv2_bn
I0813 23:21:10.876782  6877 net.cpp:91] Creating Layer resx14_conv2_bn
I0813 23:21:10.876787  6877 net.cpp:469] resx14_conv2_bn <- resx14_conv2
I0813 23:21:10.876793  6877 net.cpp:430] resx14_conv2_bn -> resx14_conv2 (in-place)
I0813 23:21:10.877029  6877 net.cpp:141] Setting up resx14_conv2_bn
I0813 23:21:10.877038  6877 net.cpp:148] Top shape: 80 240 7 7 (940800)
I0813 23:21:10.877041  6877 net.cpp:156] Memory required for data: 5122091840
I0813 23:21:10.877049  6877 layer_factory.hpp:77] Creating layer resx14_conv2_scale
I0813 23:21:10.877058  6877 net.cpp:91] Creating Layer resx14_conv2_scale
I0813 23:21:10.877063  6877 net.cpp:469] resx14_conv2_scale <- resx14_conv2
I0813 23:21:10.877068  6877 net.cpp:430] resx14_conv2_scale -> resx14_conv2 (in-place)
I0813 23:21:10.877305  6877 layer_factory.hpp:77] Creating layer resx14_conv2_scale
I0813 23:21:10.877457  6877 net.cpp:141] Setting up resx14_conv2_scale
I0813 23:21:10.877466  6877 net.cpp:148] Top shape: 80 240 7 7 (940800)
I0813 23:21:10.877470  6877 net.cpp:156] Memory required for data: 5125855040
I0813 23:21:10.877476  6877 layer_factory.hpp:77] Creating layer resx14_conv3
I0813 23:21:10.877487  6877 net.cpp:91] Creating Layer resx14_conv3
I0813 23:21:10.877492  6877 net.cpp:469] resx14_conv3 <- resx14_conv2
I0813 23:21:10.877499  6877 net.cpp:443] resx14_conv3 -> resx14_conv3
I0813 23:21:10.882383  6877 net.cpp:141] Setting up resx14_conv3
I0813 23:21:10.882400  6877 net.cpp:148] Top shape: 80 960 7 7 (3763200)
I0813 23:21:10.882403  6877 net.cpp:156] Memory required for data: 5140907840
I0813 23:21:10.882410  6877 layer_factory.hpp:77] Creating layer resx14_conv3_bn
I0813 23:21:10.882419  6877 net.cpp:91] Creating Layer resx14_conv3_bn
I0813 23:21:10.882424  6877 net.cpp:469] resx14_conv3_bn <- resx14_conv3
I0813 23:21:10.882431  6877 net.cpp:430] resx14_conv3_bn -> resx14_conv3 (in-place)
I0813 23:21:10.882683  6877 net.cpp:141] Setting up resx14_conv3_bn
I0813 23:21:10.882692  6877 net.cpp:148] Top shape: 80 960 7 7 (3763200)
I0813 23:21:10.882695  6877 net.cpp:156] Memory required for data: 5155960640
I0813 23:21:10.882704  6877 layer_factory.hpp:77] Creating layer resx14_conv3_scale
I0813 23:21:10.882712  6877 net.cpp:91] Creating Layer resx14_conv3_scale
I0813 23:21:10.882717  6877 net.cpp:469] resx14_conv3_scale <- resx14_conv3
I0813 23:21:10.882722  6877 net.cpp:430] resx14_conv3_scale -> resx14_conv3 (in-place)
I0813 23:21:10.882781  6877 layer_factory.hpp:77] Creating layer resx14_conv3_scale
I0813 23:21:10.882932  6877 net.cpp:141] Setting up resx14_conv3_scale
I0813 23:21:10.882941  6877 net.cpp:148] Top shape: 80 960 7 7 (3763200)
I0813 23:21:10.882944  6877 net.cpp:156] Memory required for data: 5171013440
I0813 23:21:10.882978  6877 layer_factory.hpp:77] Creating layer resx14_elewise
I0813 23:21:10.882988  6877 net.cpp:91] Creating Layer resx14_elewise
I0813 23:21:10.882992  6877 net.cpp:469] resx14_elewise <- resx13_concat_resx13_concat_relu_0_split_1
I0813 23:21:10.882997  6877 net.cpp:469] resx14_elewise <- resx14_conv3
I0813 23:21:10.883003  6877 net.cpp:443] resx14_elewise -> resx14_elewise
I0813 23:21:10.883043  6877 net.cpp:141] Setting up resx14_elewise
I0813 23:21:10.883050  6877 net.cpp:148] Top shape: 80 960 7 7 (3763200)
I0813 23:21:10.883054  6877 net.cpp:156] Memory required for data: 5186066240
I0813 23:21:10.883057  6877 layer_factory.hpp:77] Creating layer resx14_elewise_relu
I0813 23:21:10.883064  6877 net.cpp:91] Creating Layer resx14_elewise_relu
I0813 23:21:10.883069  6877 net.cpp:469] resx14_elewise_relu <- resx14_elewise
I0813 23:21:10.883074  6877 net.cpp:430] resx14_elewise_relu -> resx14_elewise (in-place)
I0813 23:21:10.883440  6877 net.cpp:141] Setting up resx14_elewise_relu
I0813 23:21:10.883452  6877 net.cpp:148] Top shape: 80 960 7 7 (3763200)
I0813 23:21:10.883456  6877 net.cpp:156] Memory required for data: 5201119040
I0813 23:21:10.883460  6877 layer_factory.hpp:77] Creating layer resx14_elewise_resx14_elewise_relu_0_split
I0813 23:21:10.883472  6877 net.cpp:91] Creating Layer resx14_elewise_resx14_elewise_relu_0_split
I0813 23:21:10.883482  6877 net.cpp:469] resx14_elewise_resx14_elewise_relu_0_split <- resx14_elewise
I0813 23:21:10.883491  6877 net.cpp:443] resx14_elewise_resx14_elewise_relu_0_split -> resx14_elewise_resx14_elewise_relu_0_split_0
I0813 23:21:10.883498  6877 net.cpp:443] resx14_elewise_resx14_elewise_relu_0_split -> resx14_elewise_resx14_elewise_relu_0_split_1
I0813 23:21:10.883553  6877 net.cpp:141] Setting up resx14_elewise_resx14_elewise_relu_0_split
I0813 23:21:10.883563  6877 net.cpp:148] Top shape: 80 960 7 7 (3763200)
I0813 23:21:10.883568  6877 net.cpp:148] Top shape: 80 960 7 7 (3763200)
I0813 23:21:10.883570  6877 net.cpp:156] Memory required for data: 5231224640
I0813 23:21:10.883575  6877 layer_factory.hpp:77] Creating layer resx15_conv1
I0813 23:21:10.883584  6877 net.cpp:91] Creating Layer resx15_conv1
I0813 23:21:10.883589  6877 net.cpp:469] resx15_conv1 <- resx14_elewise_resx14_elewise_relu_0_split_0
I0813 23:21:10.883595  6877 net.cpp:443] resx15_conv1 -> resx15_conv1
I0813 23:21:10.888298  6877 net.cpp:141] Setting up resx15_conv1
I0813 23:21:10.888314  6877 net.cpp:148] Top shape: 80 240 7 7 (940800)
I0813 23:21:10.888317  6877 net.cpp:156] Memory required for data: 5234987840
I0813 23:21:10.888324  6877 layer_factory.hpp:77] Creating layer resx15_conv1_bn
I0813 23:21:10.888334  6877 net.cpp:91] Creating Layer resx15_conv1_bn
I0813 23:21:10.888339  6877 net.cpp:469] resx15_conv1_bn <- resx15_conv1
I0813 23:21:10.888344  6877 net.cpp:430] resx15_conv1_bn -> resx15_conv1 (in-place)
I0813 23:21:10.888591  6877 net.cpp:141] Setting up resx15_conv1_bn
I0813 23:21:10.888599  6877 net.cpp:148] Top shape: 80 240 7 7 (940800)
I0813 23:21:10.888602  6877 net.cpp:156] Memory required for data: 5238751040
I0813 23:21:10.888610  6877 layer_factory.hpp:77] Creating layer resx15_conv1_scale
I0813 23:21:10.888619  6877 net.cpp:91] Creating Layer resx15_conv1_scale
I0813 23:21:10.888623  6877 net.cpp:469] resx15_conv1_scale <- resx15_conv1
I0813 23:21:10.888629  6877 net.cpp:430] resx15_conv1_scale -> resx15_conv1 (in-place)
I0813 23:21:10.888681  6877 layer_factory.hpp:77] Creating layer resx15_conv1_scale
I0813 23:21:10.888833  6877 net.cpp:141] Setting up resx15_conv1_scale
I0813 23:21:10.888840  6877 net.cpp:148] Top shape: 80 240 7 7 (940800)
I0813 23:21:10.888844  6877 net.cpp:156] Memory required for data: 5242514240
I0813 23:21:10.888850  6877 layer_factory.hpp:77] Creating layer resx15_conv1_relu
I0813 23:21:10.888856  6877 net.cpp:91] Creating Layer resx15_conv1_relu
I0813 23:21:10.888860  6877 net.cpp:469] resx15_conv1_relu <- resx15_conv1
I0813 23:21:10.888865  6877 net.cpp:430] resx15_conv1_relu -> resx15_conv1 (in-place)
I0813 23:21:10.889230  6877 net.cpp:141] Setting up resx15_conv1_relu
I0813 23:21:10.889245  6877 net.cpp:148] Top shape: 80 240 7 7 (940800)
I0813 23:21:10.889248  6877 net.cpp:156] Memory required for data: 5246277440
I0813 23:21:10.889252  6877 layer_factory.hpp:77] Creating layer shuffle15
I0813 23:21:10.889259  6877 net.cpp:91] Creating Layer shuffle15
I0813 23:21:10.889263  6877 net.cpp:469] shuffle15 <- resx15_conv1
I0813 23:21:10.889269  6877 net.cpp:443] shuffle15 -> shuffle15
I0813 23:21:10.889312  6877 net.cpp:141] Setting up shuffle15
…
I0813 23:21:11.123275  6877 net.cpp:91] Creating Layer resx11_conv1
I0813 23:21:11.123281  6877 net.cpp:469] resx11_conv1 <- resx10_elewise_resx10_elewise_relu_0_split_0
I0813 23:21:11.123286  6877 net.cpp:443] resx11_conv1 -> resx11_conv1
I0813 23:21:11.127336  6877 net.cpp:141] Setting up resx11_conv1
I0813 23:21:11.127351  6877 net.cpp:148] Top shape: 40 120 14 14 (940800)
I0813 23:21:11.127355  6877 net.cpp:156] Memory required for data: 2213891040
I0813 23:21:11.127362  6877 layer_factory.hpp:77] Creating layer resx11_conv1_bn
I0813 23:21:11.127372  6877 net.cpp:91] Creating Layer resx11_conv1_bn
I0813 23:21:11.127377  6877 net.cpp:469] resx11_conv1_bn <- resx11_conv1
I0813 23:21:11.127383  6877 net.cpp:430] resx11_conv1_bn -> resx11_conv1 (in-place)
I0813 23:21:11.127614  6877 net.cpp:141] Setting up resx11_conv1_bn
I0813 23:21:11.127622  6877 net.cpp:148] Top shape: 40 120 14 14 (940800)
I0813 23:21:11.127626  6877 net.cpp:156] Memory required for data: 2217654240
I0813 23:21:11.127634  6877 layer_factory.hpp:77] Creating layer resx11_conv1_scale
I0813 23:21:11.127642  6877 net.cpp:91] Creating Layer resx11_conv1_scale
I0813 23:21:11.127647  6877 net.cpp:469] resx11_conv1_scale <- resx11_conv1
I0813 23:21:11.127652  6877 net.cpp:430] resx11_conv1_scale -> resx11_conv1 (in-place)
I0813 23:21:11.127704  6877 layer_factory.hpp:77] Creating layer resx11_conv1_scale
I0813 23:21:11.127837  6877 net.cpp:141] Setting up resx11_conv1_scale
I0813 23:21:11.127847  6877 net.cpp:148] Top shape: 40 120 14 14 (940800)
I0813 23:21:11.127851  6877 net.cpp:156] Memory required for data: 2221417440
I0813 23:21:11.127857  6877 layer_factory.hpp:77] Creating layer resx11_conv1_relu
I0813 23:21:11.127864  6877 net.cpp:91] Creating Layer resx11_conv1_relu
I0813 23:21:11.127868  6877 net.cpp:469] resx11_conv1_relu <- resx11_conv1
I0813 23:21:11.127873  6877 net.cpp:430] resx11_conv1_relu -> resx11_conv1 (in-place)
I0813 23:21:11.128276  6877 net.cpp:141] Setting up resx11_conv1_relu
I0813 23:21:11.128290  6877 net.cpp:148] Top shape: 40 120 14 14 (940800)
I0813 23:21:11.128294  6877 net.cpp:156] Memory required for data: 2225180640
I0813 23:21:11.128298  6877 layer_factory.hpp:77] Creating layer shuffle11
I0813 23:21:11.128307  6877 net.cpp:91] Creating Layer shuffle11
I0813 23:21:11.128311  6877 net.cpp:469] shuffle11 <- resx11_conv1
I0813 23:21:11.128317  6877 net.cpp:443] shuffle11 -> shuffle11
I0813 23:21:11.128360  6877 net.cpp:141] Setting up shuffle11
I0813 23:21:11.128374  6877 net.cpp:148] Top shape: 40 120 14 14 (940800)
I0813 23:21:11.128378  6877 net.cpp:156] Memory required for data: 2228943840
I0813 23:21:11.128382  6877 layer_factory.hpp:77] Creating layer resx11_conv2
I0813 23:21:11.128392  6877 net.cpp:91] Creating Layer resx11_conv2
I0813 23:21:11.128397  6877 net.cpp:469] resx11_conv2 <- shuffle11
I0813 23:21:11.128403  6877 net.cpp:443] resx11_conv2 -> resx11_conv2
I0813 23:21:11.128584  6877 net.cpp:141] Setting up resx11_conv2
I0813 23:21:11.128595  6877 net.cpp:148] Top shape: 40 120 14 14 (940800)
I0813 23:21:11.128599  6877 net.cpp:156] Memory required for data: 2232707040
I0813 23:21:11.128605  6877 layer_factory.hpp:77] Creating layer resx11_conv2_bn
I0813 23:21:11.128614  6877 net.cpp:91] Creating Layer resx11_conv2_bn
I0813 23:21:11.128618  6877 net.cpp:469] resx11_conv2_bn <- resx11_conv2
I0813 23:21:11.128623  6877 net.cpp:430] resx11_conv2_bn -> resx11_conv2 (in-place)
I0813 23:21:11.128844  6877 net.cpp:141] Setting up resx11_conv2_bn
I0813 23:21:11.128852  6877 net.cpp:148] Top shape: 40 120 14 14 (940800)
I0813 23:21:11.128855  6877 net.cpp:156] Memory required for data: 2236470240
I0813 23:21:11.128865  6877 layer_factory.hpp:77] Creating layer resx11_conv2_scale
I0813 23:21:11.128873  6877 net.cpp:91] Creating Layer resx11_conv2_scale
I0813 23:21:11.128878  6877 net.cpp:469] resx11_conv2_scale <- resx11_conv2
I0813 23:21:11.128883  6877 net.cpp:430] resx11_conv2_scale -> resx11_conv2 (in-place)
I0813 23:21:11.128931  6877 layer_factory.hpp:77] Creating layer resx11_conv2_scale
I0813 23:21:11.129065  6877 net.cpp:141] Setting up resx11_conv2_scale
I0813 23:21:11.129073  6877 net.cpp:148] Top shape: 40 120 14 14 (940800)
I0813 23:21:11.129082  6877 net.cpp:156] Memory required for data: 2240233440
I0813 23:21:11.129089  6877 layer_factory.hpp:77] Creating layer resx11_conv3
I0813 23:21:11.129103  6877 net.cpp:91] Creating Layer resx11_conv3
I0813 23:21:11.129108  6877 net.cpp:469] resx11_conv3 <- resx11_conv2
I0813 23:21:11.129114  6877 net.cpp:443] resx11_conv3 -> resx11_conv3
I0813 23:21:11.132654  6877 net.cpp:141] Setting up resx11_conv3
I0813 23:21:11.132670  6877 net.cpp:148] Top shape: 40 480 14 14 (3763200)
I0813 23:21:11.132674  6877 net.cpp:156] Memory required for data: 2255286240
I0813 23:21:11.132680  6877 layer_factory.hpp:77] Creating layer resx11_conv3_bn
I0813 23:21:11.132690  6877 net.cpp:91] Creating Layer resx11_conv3_bn
I0813 23:21:11.132695  6877 net.cpp:469] resx11_conv3_bn <- resx11_conv3
I0813 23:21:11.132702  6877 net.cpp:430] resx11_conv3_bn -> resx11_conv3 (in-place)
I0813 23:21:11.132961  6877 net.cpp:141] Setting up resx11_conv3_bn
I0813 23:21:11.132971  6877 net.cpp:148] Top shape: 40 480 14 14 (3763200)
I0813 23:21:11.132973  6877 net.cpp:156] Memory required for data: 2270339040
I0813 23:21:11.132982  6877 layer_factory.hpp:77] Creating layer resx11_conv3_scale
I0813 23:21:11.132992  6877 net.cpp:91] Creating Layer resx11_conv3_scale
I0813 23:21:11.132997  6877 net.cpp:469] resx11_conv3_scale <- resx11_conv3
I0813 23:21:11.133002  6877 net.cpp:430] resx11_conv3_scale -> resx11_conv3 (in-place)
I0813 23:21:11.133070  6877 layer_factory.hpp:77] Creating layer resx11_conv3_scale
I0813 23:21:11.133247  6877 net.cpp:141] Setting up resx11_conv3_scale
I0813 23:21:11.133258  6877 net.cpp:148] Top shape: 40 480 14 14 (3763200)
I0813 23:21:11.133262  6877 net.cpp:156] Memory required for data: 2285391840
I0813 23:21:11.133270  6877 layer_factory.hpp:77] Creating layer resx11_elewise
I0813 23:21:11.133276  6877 net.cpp:91] Creating Layer resx11_elewise
I0813 23:21:11.133281  6877 net.cpp:469] resx11_elewise <- resx10_elewise_resx10_elewise_relu_0_split_1
I0813 23:21:11.133286  6877 net.cpp:469] resx11_elewise <- resx11_conv3
I0813 23:21:11.133292  6877 net.cpp:443] resx11_elewise -> resx11_elewise
I0813 23:21:11.133322  6877 net.cpp:141] Setting up resx11_elewise
I0813 23:21:11.133329  6877 net.cpp:148] Top shape: 40 480 14 14 (3763200)
I0813 23:21:11.133333  6877 net.cpp:156] Memory required for data: 2300444640
I0813 23:21:11.133347  6877 layer_factory.hpp:77] Creating layer resx11_elewise_relu
I0813 23:21:11.133355  6877 net.cpp:91] Creating Layer resx11_elewise_relu
I0813 23:21:11.133360  6877 net.cpp:469] resx11_elewise_relu <- resx11_elewise
I0813 23:21:11.133365  6877 net.cpp:430] resx11_elewise_relu -> resx11_elewise (in-place)
I0813 23:21:11.133765  6877 net.cpp:141] Setting up resx11_elewise_relu
I0813 23:21:11.133780  6877 net.cpp:148] Top shape: 40 480 14 14 (3763200)
I0813 23:21:11.133785  6877 net.cpp:156] Memory required for data: 2315497440
I0813 23:21:11.133790  6877 layer_factory.hpp:77] Creating layer resx11_elewise_resx11_elewise_relu_0_split
I0813 23:21:11.133796  6877 net.cpp:91] Creating Layer resx11_elewise_resx11_elewise_relu_0_split
I0813 23:21:11.133800  6877 net.cpp:469] resx11_elewise_resx11_elewise_relu_0_split <- resx11_elewise
I0813 23:21:11.133806  6877 net.cpp:443] resx11_elewise_resx11_elewise_relu_0_split -> resx11_elewise_resx11_elewise_relu_0_split_0
I0813 23:21:11.133813  6877 net.cpp:443] resx11_elewise_resx11_elewise_relu_0_split -> resx11_elewise_resx11_elewise_relu_0_split_1
I0813 23:21:11.133864  6877 net.cpp:141] Setting up resx11_elewise_resx11_elewise_relu_0_split
I0813 23:21:11.133872  6877 net.cpp:148] Top shape: 40 480 14 14 (3763200)
I0813 23:21:11.133877  6877 net.cpp:148] Top shape: 40 480 14 14 (3763200)
I0813 23:21:11.133880  6877 net.cpp:156] Memory required for data: 2345603040
I0813 23:21:11.133884  6877 layer_factory.hpp:77] Creating layer resx12_conv1
I0813 23:21:11.133898  6877 net.cpp:91] Creating Layer resx12_conv1
I0813 23:21:11.133903  6877 net.cpp:469] resx12_conv1 <- resx11_elewise_resx11_elewise_relu_0_split_0
I0813 23:21:11.133910  6877 net.cpp:443] resx12_conv1 -> resx12_conv1
I0813 23:21:11.137622  6877 net.cpp:141] Setting up resx12_conv1
I0813 23:21:11.137639  6877 net.cpp:148] Top shape: 40 120 14 14 (940800)
I0813 23:21:11.137642  6877 net.cpp:156] Memory required for data: 2349366240
I0813 23:21:11.137648  6877 layer_factory.hpp:77] Creating layer resx12_conv1_bn
I0813 23:21:11.137660  6877 net.cpp:91] Creating Layer resx12_conv1_bn
I0813 23:21:11.137665  6877 net.cpp:469] resx12_conv1_bn <- resx12_conv1
I0813 23:21:11.137670  6877 net.cpp:430] resx12_conv1_bn -> resx12_conv1 (in-place)
I0813 23:21:11.137892  6877 net.cpp:141] Setting up resx12_conv1_bn
I0813 23:21:11.137900  6877 net.cpp:148] Top shape: 40 120 14 14 (940800)
I0813 23:21:11.137904  6877 net.cpp:156] Memory required for data: 2353129440
I0813 23:21:11.137912  6877 layer_factory.hpp:77] Creating layer resx12_conv1_scale
I0813 23:21:11.137923  6877 net.cpp:91] Creating Layer resx12_conv1_scale
I0813 23:21:11.137928  6877 net.cpp:469] resx12_conv1_scale <- resx12_conv1
I0813 23:21:11.137933  6877 net.cpp:430] resx12_conv1_scale -> resx12_conv1 (in-place)
I0813 23:21:11.137981  6877 layer_factory.hpp:77] Creating layer resx12_conv1_scale
I0813 23:21:11.138114  6877 net.cpp:141] Setting up resx12_conv1_scale
I0813 23:21:11.138123  6877 net.cpp:148] Top shape: 40 120 14 14 (940800)
I0813 23:21:11.138126  6877 net.cpp:156] Memory required for data: 2356892640
I0813 23:21:11.138133  6877 layer_factory.hpp:77] Creating layer resx12_conv1_relu
I0813 23:21:11.138144  6877 net.cpp:91] Creating Layer resx12_conv1_relu
I0813 23:21:11.138149  6877 net.cpp:469] resx12_conv1_relu <- resx12_conv1
I0813 23:21:11.138154  6877 net.cpp:430] resx12_conv1_relu -> resx12_conv1 (in-place)
I0813 23:21:11.138557  6877 net.cpp:141] Setting up resx12_conv1_relu
I0813 23:21:11.138573  6877 net.cpp:148] Top shape: 40 120 14 14 (940800)
I0813 23:21:11.138577  6877 net.cpp:156] Memory required for data: 2360655840
I0813 23:21:11.138582  6877 layer_factory.hpp:77] Creating layer shuffle12
I0813 23:21:11.138591  6877 net.cpp:91] Creating Layer shuffle12
I0813 23:21:11.138595  6877 net.cpp:469] shuffle12 <- resx12_conv1
I0813 23:21:11.138602  6877 net.cpp:443] shuffle12 -> shuffle12
I0813 23:21:11.138640  6877 net.cpp:141] Setting up shuffle12
I0813 23:21:11.138648  6877 net.cpp:148] Top shape: 40 120 14 14 (940800)
I0813 23:21:11.138656  6877 net.cpp:156] Memory required for data: 2364419040
I0813 23:21:11.138665  6877 layer_factory.hpp:77] Creating layer resx12_conv2
I0813 23:21:11.138675  6877 net.cpp:91] Creating Layer resx12_conv2
I0813 23:21:11.138679  6877 net.cpp:469] resx12_conv2 <- shuffle12
I0813 23:21:11.138685  6877 net.cpp:443] resx12_conv2 -> resx12_conv2
I0813 23:21:11.138864  6877 net.cpp:141] Setting up resx12_conv2
I0813 23:21:11.138875  6877 net.cpp:148] Top shape: 40 120 14 14 (940800)
I0813 23:21:11.138878  6877 net.cpp:156] Memory required for data: 2368182240
I0813 23:21:11.138885  6877 layer_factory.hpp:77] Creating layer resx12_conv2_bn
I0813 23:21:11.138895  6877 net.cpp:91] Creating Layer resx12_conv2_bn
I0813 23:21:11.138900  6877 net.cpp:469] resx12_conv2_bn <- resx12_conv2
I0813 23:21:11.138905  6877 net.cpp:430] resx12_conv2_bn -> resx12_conv2 (in-place)
I0813 23:21:11.139129  6877 net.cpp:141] Setting up resx12_conv2_bn
I0813 23:21:11.139137  6877 net.cpp:148] Top shape: 40 120 14 14 (940800)
I0813 23:21:11.139142  6877 net.cpp:156] Memory required for data: 2371945440
I0813 23:21:11.139148  6877 layer_factory.hpp:77] Creating layer resx12_conv2_scale
I0813 23:21:11.139156  6877 net.cpp:91] Creating Layer resx12_conv2_scale
I0813 23:21:11.139161  6877 net.cpp:469] resx12_conv2_scale <- resx12_conv2
I0813 23:21:11.139166  6877 net.cpp:430] resx12_conv2_scale -> resx12_conv2 (in-place)
I0813 23:21:11.139215  6877 layer_factory.hpp:77] Creating layer resx12_conv2_scale
I0813 23:21:11.139348  6877 net.cpp:141] Setting up resx12_conv2_scale
I0813 23:21:11.139356  6877 net.cpp:148] Top shape: 40 120 14 14 (940800)
I0813 23:21:11.139359  6877 net.cpp:156] Memory required for data: 2375708640
I0813 23:21:11.139366  6877 layer_factory.hpp:77] Creating layer resx12_conv3
I0813 23:21:11.139375  6877 net.cpp:91] Creating Layer resx12_conv3
I0813 23:21:11.139380  6877 net.cpp:469] resx12_conv3 <- resx12_conv2
I0813 23:21:11.139389  6877 net.cpp:443] resx12_conv3 -> resx12_conv3
I0813 23:21:11.142910  6877 net.cpp:141] Setting up resx12_conv3
I0813 23:21:11.142926  6877 net.cpp:148] Top shape: 40 480 14 14 (3763200)
I0813 23:21:11.142930  6877 net.cpp:156] Memory required for data: 2390761440
I0813 23:21:11.142936  6877 layer_factory.hpp:77] Creating layer resx12_conv3_bn
I0813 23:21:11.142948  6877 net.cpp:91] Creating Layer resx12_conv3_bn
I0813 23:21:11.142953  6877 net.cpp:469] resx12_conv3_bn <- resx12_conv3
I0813 23:21:11.142959  6877 net.cpp:430] resx12_conv3_bn -> resx12_conv3 (in-place)
I0813 23:21:11.143224  6877 net.cpp:141] Setting up resx12_conv3_bn
I0813 23:21:11.143232  6877 net.cpp:148] Top shape: 40 480 14 14 (3763200)
I0813 23:21:11.143236  6877 net.cpp:156] Memory required for data: 2405814240
I0813 23:21:11.143244  6877 layer_factory.hpp:77] Creating layer resx12_conv3_scale
I0813 23:21:11.143251  6877 net.cpp:91] Creating Layer resx12_conv3_scale
I0813 23:21:11.143256  6877 net.cpp:469] resx12_conv3_scale <- resx12_conv3
I0813 23:21:11.143262  6877 net.cpp:430] resx12_conv3_scale -> resx12_conv3 (in-place)
I0813 23:21:11.143332  6877 layer_factory.hpp:77] Creating layer resx12_conv3_scale
I0813 23:21:11.143492  6877 net.cpp:141] Setting up resx12_conv3_scale
I0813 23:21:11.143501  6877 net.cpp:148] Top shape: 40 480 14 14 (3763200)
I0813 23:21:11.143504  6877 net.cpp:156] Memory required for data: 2420867040
I0813 23:21:11.143510  6877 layer_factory.hpp:77] Creating layer resx12_elewise
I0813 23:21:11.143519  6877 net.cpp:91] Creating Layer resx12_elewise
I0813 23:21:11.143524  6877 net.cpp:469] resx12_elewise <- resx11_elewise_resx11_elewise_relu_0_split_1
I0813 23:21:11.143528  6877 net.cpp:469] resx12_elewise <- resx12_conv3
I0813 23:21:11.143535  6877 net.cpp:443] resx12_elewise -> resx12_elewise
I0813 23:21:11.143566  6877 net.cpp:141] Setting up resx12_elewise
I0813 23:21:11.143575  6877 net.cpp:148] Top shape: 40 480 14 14 (3763200)
I0813 23:21:11.143579  6877 net.cpp:156] Memory required for data: 2435919840
I0813 23:21:11.143584  6877 layer_factory.hpp:77] Creating layer resx12_elewise_relu
I0813 23:21:11.143599  6877 net.cpp:91] Creating Layer resx12_elewise_relu
I0813 23:21:11.143604  6877 net.cpp:469] resx12_elewise_relu <- resx12_elewise
I0813 23:21:11.143610  6877 net.cpp:430] resx12_elewise_relu -> resx12_elewise (in-place)
I0813 23:21:11.144017  6877 net.cpp:141] Setting up resx12_elewise_relu
I0813 23:21:11.144032  6877 net.cpp:148] Top shape: 40 480 14 14 (3763200)
I0813 23:21:11.144035  6877 net.cpp:156] Memory required for data: 2450972640
I0813 23:21:11.144039  6877 layer_factory.hpp:77] Creating layer resx12_elewise_resx12_elewise_relu_0_split
I0813 23:21:11.144048  6877 net.cpp:91] Creating Layer resx12_elewise_resx12_elewise_relu_0_split
I0813 23:21:11.144053  6877 net.cpp:469] resx12_elewise_resx12_elewise_relu_0_split <- resx12_elewise
I0813 23:21:11.144058  6877 net.cpp:443] resx12_elewise_resx12_elewise_relu_0_split -> resx12_elewise_resx12_elewise_relu_0_split_0
I0813 23:21:11.144068  6877 net.cpp:443] resx12_elewise_resx12_elewise_relu_0_split -> resx12_elewise_resx12_elewise_relu_0_split_1
I0813 23:21:11.144119  6877 net.cpp:141] Setting up resx12_elewise_resx12_elewise_relu_0_split
I0813 23:21:11.144127  6877 net.cpp:148] Top shape: 40 480 14 14 (3763200)
I0813 23:21:11.144131  6877 net.cpp:148] Top shape: 40 480 14 14 (3763200)
I0813 23:21:11.144135  6877 net.cpp:156] Memory required for data: 2481078240
I0813 23:21:11.144140  6877 layer_factory.hpp:77] Creating layer resx13_match_conv
I0813 23:21:11.144148  6877 net.cpp:91] Creating Layer resx13_match_conv
I0813 23:21:11.144152  6877 net.cpp:469] resx13_match_conv <- resx12_elewise_resx12_elewise_relu_0_split_0
I0813 23:21:11.144158  6877 net.cpp:443] resx13_match_conv -> resx13_match_conv
I0813 23:21:11.144392  6877 net.cpp:141] Setting up resx13_match_conv
I0813 23:21:11.144403  6877 net.cpp:148] Top shape: 40 480 7 7 (940800)
I0813 23:21:11.144407  6877 net.cpp:156] Memory required for data: 2484841440
I0813 23:21:11.144410  6877 layer_factory.hpp:77] Creating layer resx13_conv1
I0813 23:21:11.144425  6877 net.cpp:91] Creating Layer resx13_conv1
I0813 23:21:11.144430  6877 net.cpp:469] resx13_conv1 <- resx12_elewise_resx12_elewise_relu_0_split_1
I0813 23:21:11.144436  6877 net.cpp:443] resx13_conv1 -> resx13_conv1
I0813 23:21:11.148133  6877 net.cpp:141] Setting up resx13_conv1
I0813 23:21:11.148149  6877 net.cpp:148] Top shape: 40 120 14 14 (940800)
I0813 23:21:11.148154  6877 net.cpp:156] Memory required for data: 2488604640
I0813 23:21:11.148160  6877 layer_factory.hpp:77] Creating layer resx13_conv1_bn
I0813 23:21:11.148174  6877 net.cpp:91] Creating Layer resx13_conv1_bn
I0813 23:21:11.148178  6877 net.cpp:469] resx13_conv1_bn <- resx13_conv1
I0813 23:21:11.148186  6877 net.cpp:430] resx13_conv1_bn -> resx13_conv1 (in-place)
I0813 23:21:11.148416  6877 net.cpp:141] Setting up resx13_conv1_bn
I0813 23:21:11.148424  6877 net.cpp:148] Top shape: 40 120 14 14 (940800)
I0813 23:21:11.148427  6877 net.cpp:156] Memory required for data: 2492367840
I0813 23:21:11.148440  6877 layer_factory.hpp:77] Creating layer resx13_conv1_scale
I0813 23:21:11.148450  6877 net.cpp:91] Creating Layer resx13_conv1_scale
I0813 23:21:11.148455  6877 net.cpp:469] resx13_conv1_scale <- resx13_conv1
I0813 23:21:11.148460  6877 net.cpp:430] resx13_conv1_scale -> resx13_conv1 (in-place)
I0813 23:21:11.148510  6877 layer_factory.hpp:77] Creating layer resx13_conv1_scale
I0813 23:21:11.148648  6877 net.cpp:141] Setting up resx13_conv1_scale
I0813 23:21:11.148656  6877 net.cpp:148] Top shape: 40 120 14 14 (940800)
I0813 23:21:11.148659  6877 net.cpp:156] Memory required for data: 2496131040
I0813 23:21:11.148666  6877 layer_factory.hpp:77] Creating layer resx13_conv1_relu
I0813 23:21:11.148674  6877 net.cpp:91] Creating Layer resx13_conv1_relu
I0813 23:21:11.148677  6877 net.cpp:469] resx13_conv1_relu <- resx13_conv1
I0813 23:21:11.148684  6877 net.cpp:430] resx13_conv1_relu -> resx13_conv1 (in-place)
I0813 23:21:11.148893  6877 net.cpp:141] Setting up resx13_conv1_relu
I0813 23:21:11.148905  6877 net.cpp:148] Top shape: 40 120 14 14 (940800)
I0813 23:21:11.148913  6877 net.cpp:156] Memory required for data: 2499894240
I0813 23:21:11.148923  6877 layer_factory.hpp:77] Creating layer shuffle13
I0813 23:21:11.148932  6877 net.cpp:91] Creating Layer shuffle13
I0813 23:21:11.148936  6877 net.cpp:469] shuffle13 <- resx13_conv1
I0813 23:21:11.148944  6877 net.cpp:443] shuffle13 -> shuffle13
I0813 23:21:11.148980  6877 net.cpp:141] Setting up shuffle13
I0813 23:21:11.148988  6877 net.cpp:148] Top shape: 40 120 14 14 (940800)
I0813 23:21:11.148991  6877 net.cpp:156] Memory required for data: 2503657440
I0813 23:21:11.148996  6877 layer_factory.hpp:77] Creating layer resx13_conv2
I0813 23:21:11.149006  6877 net.cpp:91] Creating Layer resx13_conv2
I0813 23:21:11.149011  6877 net.cpp:469] resx13_conv2 <- shuffle13
I0813 23:21:11.149019  6877 net.cpp:443] resx13_conv2 -> resx13_conv2
I0813 23:21:11.149260  6877 net.cpp:141] Setting up resx13_conv2
I0813 23:21:11.149272  6877 net.cpp:148] Top shape: 40 120 7 7 (235200)
I0813 23:21:11.149276  6877 net.cpp:156] Memory required for data: 2504598240
I0813 23:21:11.149282  6877 layer_factory.hpp:77] Creating layer resx13_conv2_bn
I0813 23:21:11.149291  6877 net.cpp:91] Creating Layer resx13_conv2_bn
I0813 23:21:11.149300  6877 net.cpp:469] resx13_conv2_bn <- resx13_conv2
I0813 23:21:11.149305  6877 net.cpp:430] resx13_conv2_bn -> resx13_conv2 (in-place)
I0813 23:21:11.149550  6877 net.cpp:141] Setting up resx13_conv2_bn
I0813 23:21:11.149559  6877 net.cpp:148] Top shape: 40 120 7 7 (235200)
I0813 23:21:11.149562  6877 net.cpp:156] Memory required for data: 2505539040
I0813 23:21:11.149570  6877 layer_factory.hpp:77] Creating layer resx13_conv2_scale
I0813 23:21:11.149579  6877 net.cpp:91] Creating Layer resx13_conv2_scale
I0813 23:21:11.149582  6877 net.cpp:469] resx13_conv2_scale <- resx13_conv2
I0813 23:21:11.149587  6877 net.cpp:430] resx13_conv2_scale -> resx13_conv2 (in-place)
I0813 23:21:11.149639  6877 layer_factory.hpp:77] Creating layer resx13_conv2_scale
I0813 23:21:11.149776  6877 net.cpp:141] Setting up resx13_conv2_scale
I0813 23:21:11.149785  6877 net.cpp:148] Top shape: 40 120 7 7 (235200)
I0813 23:21:11.149788  6877 net.cpp:156] Memory required for data: 2506479840
I0813 23:21:11.149794  6877 layer_factory.hpp:77] Creating layer resx13_conv3
I0813 23:21:11.149806  6877 net.cpp:91] Creating Layer resx13_conv3
I0813 23:21:11.149811  6877 net.cpp:469] resx13_conv3 <- resx13_conv2
I0813 23:21:11.149817  6877 net.cpp:443] resx13_conv3 -> resx13_conv3
I0813 23:21:11.153558  6877 net.cpp:141] Setting up resx13_conv3
I0813 23:21:11.153574  6877 net.cpp:148] Top shape: 40 480 7 7 (940800)
I0813 23:21:11.153578  6877 net.cpp:156] Memory required for data: 2510243040
I0813 23:21:11.153584  6877 layer_factory.hpp:77] Creating layer resx13_conv3_bn
I0813 23:21:11.153592  6877 net.cpp:91] Creating Layer resx13_conv3_bn
I0813 23:21:11.153597  6877 net.cpp:469] resx13_conv3_bn <- resx13_conv3
I0813 23:21:11.153605  6877 net.cpp:430] resx13_conv3_bn -> resx13_conv3 (in-place)
I0813 23:21:11.153877  6877 net.cpp:141] Setting up resx13_conv3_bn
I0813 23:21:11.153887  6877 net.cpp:148] Top shape: 40 480 7 7 (940800)
I0813 23:21:11.153890  6877 net.cpp:156] Memory required for data: 2514006240
I0813 23:21:11.153898  6877 layer_factory.hpp:77] Creating layer resx13_conv3_scale
I0813 23:21:11.153906  6877 net.cpp:91] Creating Layer resx13_conv3_scale
I0813 23:21:11.153911  6877 net.cpp:469] resx13_conv3_scale <- resx13_conv3
I0813 23:21:11.153918  6877 net.cpp:430] resx13_conv3_scale -> resx13_conv3 (in-place)
I0813 23:21:11.153988  6877 layer_factory.hpp:77] Creating layer resx13_conv3_scale
I0813 23:21:11.154155  6877 net.cpp:141] Setting up resx13_conv3_scale
I0813 23:21:11.154163  6877 net.cpp:148] Top shape: 40 480 7 7 (940800)
I0813 23:21:11.154167  6877 net.cpp:156] Memory required for data: 2517769440
I0813 23:21:11.154173  6877 layer_factory.hpp:77] Creating layer resx13_concat
I0813 23:21:11.154182  6877 net.cpp:91] Creating Layer resx13_concat
I0813 23:21:11.154186  6877 net.cpp:469] resx13_concat <- resx13_match_conv
I0813 23:21:11.154196  6877 net.cpp:469] resx13_concat <- resx13_conv3
I0813 23:21:11.154207  6877 net.cpp:443] resx13_concat -> resx13_concat
I0813 23:21:11.154242  6877 net.cpp:141] Setting up resx13_concat
I0813 23:21:11.154249  6877 net.cpp:148] Top shape: 40 960 7 7 (1881600)
I0813 23:21:11.154253  6877 net.cpp:156] Memory required for data: 2525295840
I0813 23:21:11.154256  6877 layer_factory.hpp:77] Creating layer resx13_concat_relu
I0813 23:21:11.154263  6877 net.cpp:91] Creating Layer resx13_concat_relu
I0813 23:21:11.154266  6877 net.cpp:469] resx13_concat_relu <- resx13_concat
I0813 23:21:11.154273  6877 net.cpp:430] resx13_concat_relu -> resx13_concat (in-place)
I0813 23:21:11.154676  6877 net.cpp:141] Setting up resx13_concat_relu
I0813 23:21:11.154690  6877 net.cpp:148] Top shape: 40 960 7 7 (1881600)
I0813 23:21:11.154695  6877 net.cpp:156] Memory required for data: 2532822240
I0813 23:21:11.154700  6877 layer_factory.hpp:77] Creating layer resx13_concat_resx13_concat_relu_0_split
I0813 23:21:11.154706  6877 net.cpp:91] Creating Layer resx13_concat_resx13_concat_relu_0_split
I0813 23:21:11.154711  6877 net.cpp:469] resx13_concat_resx13_concat_relu_0_split <- resx13_concat
I0813 23:21:11.154717  6877 net.cpp:443] resx13_concat_resx13_concat_relu_0_split -> resx13_concat_resx13_concat_relu_0_split_0
I0813 23:21:11.154726  6877 net.cpp:443] resx13_concat_resx13_concat_relu_0_split -> resx13_concat_resx13_concat_relu_0_split_1
I0813 23:21:11.154778  6877 net.cpp:141] Setting up resx13_concat_resx13_concat_relu_0_split
I0813 23:21:11.154788  6877 net.cpp:148] Top shape: 40 960 7 7 (1881600)
I0813 23:21:11.154793  6877 net.cpp:148] Top shape: 40 960 7 7 (1881600)
I0813 23:21:11.154795  6877 net.cpp:156] Memory required for data: 2547875040
I0813 23:21:11.154799  6877 layer_factory.hpp:77] Creating layer resx14_conv1
I0813 23:21:11.154809  6877 net.cpp:91] Creating Layer resx14_conv1
I0813 23:21:11.154814  6877 net.cpp:469] resx14_conv1 <- resx13_concat_resx13_concat_relu_0_split_0
I0813 23:21:11.154821  6877 net.cpp:443] resx14_conv1 -> resx14_conv1
I0813 23:21:11.160115  6877 net.cpp:141] Setting up resx14_conv1
I0813 23:21:11.160130  6877 net.cpp:148] Top shape: 40 240 7 7 (470400)
I0813 23:21:11.160135  6877 net.cpp:156] Memory required for data: 2549756640
I0813 23:21:11.160141  6877 layer_factory.hpp:77] Creating layer resx14_conv1_bn
I0813 23:21:11.160152  6877 net.cpp:91] Creating Layer resx14_conv1_bn
I0813 23:21:11.160157  6877 net.cpp:469] resx14_conv1_bn <- resx14_conv1
I0813 23:21:11.160163  6877 net.cpp:430] resx14_conv1_bn -> resx14_conv1 (in-place)
I0813 23:21:11.160416  6877 net.cpp:141] Setting up resx14_conv1_bn
I0813 23:21:11.160425  6877 net.cpp:148] Top shape: 40 240 7 7 (470400)
I0813 23:21:11.160429  6877 net.cpp:156] Memory required for data: 2551638240
I0813 23:21:11.160437  6877 layer_factory.hpp:77] Creating layer resx14_conv1_scale
I0813 23:21:11.160444  6877 net.cpp:91] Creating Layer resx14_conv1_scale
I0813 23:21:11.160449  6877 net.cpp:469] resx14_conv1_scale <- resx14_conv1
I0813 23:21:11.160454  6877 net.cpp:430] resx14_conv1_scale -> resx14_conv1 (in-place)
I0813 23:21:11.160504  6877 layer_factory.hpp:77] Creating layer resx14_conv1_scale
I0813 23:21:11.160645  6877 net.cpp:141] Setting up resx14_conv1_scale
I0813 23:21:11.160653  6877 net.cpp:148] Top shape: 40 240 7 7 (470400)
I0813 23:21:11.160656  6877 net.cpp:156] Memory required for data: 2553519840
I0813 23:21:11.160665  6877 layer_factory.hpp:77] Creating layer resx14_conv1_relu
I0813 23:21:11.160670  6877 net.cpp:91] Creating Layer resx14_conv1_relu
I0813 23:21:11.160676  6877 net.cpp:469] resx14_conv1_relu <- resx14_conv1
I0813 23:21:11.160679  6877 net.cpp:430] resx14_conv1_relu -> resx14_conv1 (in-place)
I0813 23:21:11.161099  6877 net.cpp:141] Setting up resx14_conv1_relu
I0813 23:21:11.161114  6877 net.cpp:148] Top shape: 40 240 7 7 (470400)
I0813 23:21:11.161118  6877 net.cpp:156] Memory required for data: 2555401440
I0813 23:21:11.161123  6877 layer_factory.hpp:77] Creating layer shuffle14
I0813 23:21:11.161135  6877 net.cpp:91] Creating Layer shuffle14
I0813 23:21:11.161146  6877 net.cpp:469] shuffle14 <- resx14_conv1
I0813 23:21:11.161152  6877 net.cpp:443] shuffle14 -> shuffle14
I0813 23:21:11.161193  6877 net.cpp:141] Setting up shuffle14
I0813 23:21:11.161201  6877 net.cpp:148] Top shape: 40 240 7 7 (470400)
I0813 23:21:11.161206  6877 net.cpp:156] Memory required for data: 2557283040
I0813 23:21:11.161209  6877 layer_factory.hpp:77] Creating layer resx14_conv2
I0813 23:21:11.161221  6877 net.cpp:91] Creating Layer resx14_conv2
I0813 23:21:11.161226  6877 net.cpp:469] resx14_conv2 <- shuffle14
I0813 23:21:11.161232  6877 net.cpp:443] resx14_conv2 -> resx14_conv2
I0813 23:21:11.161469  6877 net.cpp:141] Setting up resx14_conv2
I0813 23:21:11.161481  6877 net.cpp:148] Top shape: 40 240 7 7 (470400)
I0813 23:21:11.161485  6877 net.cpp:156] Memory required for data: 2559164640
I0813 23:21:11.161491  6877 layer_factory.hpp:77] Creating layer resx14_conv2_bn
I0813 23:21:11.161499  6877 net.cpp:91] Creating Layer resx14_conv2_bn
I0813 23:21:11.161504  6877 net.cpp:469] resx14_conv2_bn <- resx14_conv2
I0813 23:21:11.161511  6877 net.cpp:430] resx14_conv2_bn -> resx14_conv2 (in-place)
I0813 23:21:11.161741  6877 net.cpp:141] Setting up resx14_conv2_bn
I0813 23:21:11.161749  6877 net.cpp:148] Top shape: 40 240 7 7 (470400)
I0813 23:21:11.161752  6877 net.cpp:156] Memory required for data: 2561046240
I0813 23:21:11.161761  6877 layer_factory.hpp:77] Creating layer resx14_conv2_scale
I0813 23:21:11.161769  6877 net.cpp:91] Creating Layer resx14_conv2_scale
I0813 23:21:11.161774  6877 net.cpp:469] resx14_conv2_scale <- resx14_conv2
I0813 23:21:11.161779  6877 net.cpp:430] resx14_conv2_scale -> resx14_conv2 (in-place)
I0813 23:21:11.161828  6877 layer_factory.hpp:77] Creating layer resx14_conv2_scale
I0813 23:21:11.161967  6877 net.cpp:141] Setting up resx14_conv2_scale
I0813 23:21:11.161978  6877 net.cpp:148] Top shape: 40 240 7 7 (470400)
I0813 23:21:11.161981  6877 net.cpp:156] Memory required for data: 2562927840
I0813 23:21:11.161988  6877 layer_factory.hpp:77] Creating layer resx14_conv3
I0813 23:21:11.162000  6877 net.cpp:91] Creating Layer resx14_conv3
I0813 23:21:11.162004  6877 net.cpp:469] resx14_conv3 <- resx14_conv2
I0813 23:21:11.162010  6877 net.cpp:443] resx14_conv3 -> resx14_conv3
I0813 23:21:11.167284  6877 net.cpp:141] Setting up resx14_conv3
I0813 23:21:11.167301  6877 net.cpp:148] Top shape: 40 960 7 7 (1881600)
I0813 23:21:11.167305  6877 net.cpp:156] Memory required for data: 2570454240
I0813 23:21:11.167312  6877 layer_factory.hpp:77] Creating layer resx14_conv3_bn
I0813 23:21:11.167323  6877 net.cpp:91] Creating Layer resx14_conv3_bn
I0813 23:21:11.167328  6877 net.cpp:469] resx14_conv3_bn <- resx14_conv3
I0813 23:21:11.167333  6877 net.cpp:430] resx14_conv3_bn -> resx14_conv3 (in-place)
I0813 23:21:11.167620  6877 net.cpp:141] Setting up resx14_conv3_bn
I0813 23:21:11.167629  6877 net.cpp:148] Top shape: 40 960 7 7 (1881600)
I0813 23:21:11.167634  6877 net.cpp:156] Memory required for data: 2577980640
I0813 23:21:11.167641  6877 layer_factory.hpp:77] Creating layer resx14_conv3_scale
I0813 23:21:11.167651  6877 net.cpp:91] Creating Layer resx14_conv3_scale
I0813 23:21:11.167655  6877 net.cpp:469] resx14_conv3_scale <- resx14_conv3
I0813 23:21:11.167661  6877 net.cpp:430] resx14_conv3_scale -> resx14_conv3 (in-place)
I0813 23:21:11.167732  6877 layer_factory.hpp:77] Creating layer resx14_conv3_scale
I0813 23:21:11.167906  6877 net.cpp:141] Setting up resx14_conv3_scale
I0813 23:21:11.167914  6877 net.cpp:148] Top shape: 40 960 7 7 (1881600)
I0813 23:21:11.167918  6877 net.cpp:156] Memory required for data: 2585507040
I0813 23:21:11.167997  6877 layer_factory.hpp:77] Creating layer resx14_elewise
I0813 23:21:11.168007  6877 net.cpp:91] Creating Layer resx14_elewise
I0813 23:21:11.168011  6877 net.cpp:469] resx14_elewise <- resx13_concat_resx13_concat_relu_0_split_1
I0813 23:21:11.168016  6877 net.cpp:469] resx14_elewise <- resx14_conv3
I0813 23:21:11.168022  6877 net.cpp:443] resx14_elewise -> resx14_elewise
I0813 23:21:11.168062  6877 net.cpp:141] Setting up resx14_elewise
I0813 23:21:11.168077  6877 net.cpp:148] Top shape: 40 960 7 7 (1881600)
I0813 23:21:11.168081  6877 net.cpp:156] Memory required for data: 2593033440
I0813 23:21:11.168085  6877 layer_factory.hpp:77] Creating layer resx14_elewise_relu
I0813 23:21:11.168094  6877 net.cpp:91] Creating Layer resx14_elewise_relu
I0813 23:21:11.168098  6877 net.cpp:469] resx14_elewise_relu <- resx14_elewise
I0813 23:21:11.168103  6877 net.cpp:430] resx14_elewise_relu -> resx14_elewise (in-place)
I0813 23:21:11.168520  6877 net.cpp:141] Setting up resx14_elewise_relu
I0813 23:21:11.168534  6877 net.cpp:148] Top shape: 40 960 7 7 (1881600)
I0813 23:21:11.168539  6877 net.cpp:156] Memory required for data: 2600559840
I0813 23:21:11.168542  6877 layer_factory.hpp:77] Creating layer resx14_elewise_resx14_elewise_relu_0_split
I0813 23:21:11.168551  6877 net.cpp:91] Creating Layer resx14_elewise_resx14_elewise_relu_0_split
I0813 23:21:11.168555  6877 net.cpp:469] resx14_elewise_resx14_elewise_relu_0_split <- resx14_elewise
I0813 23:21:11.168561  6877 net.cpp:443] resx14_elewise_resx14_elewise_relu_0_split -> resx14_elewise_resx14_elewise_relu_0_split_0
I0813 23:21:11.168568  6877 net.cpp:443] resx14_elewise_resx14_elewise_relu_0_split -> resx14_elewise_resx14_elewise_relu_0_split_1
I0813 23:21:11.168624  6877 net.cpp:141] Setting up resx14_elewise_resx14_elewise_relu_0_split
I0813 23:21:11.168632  6877 net.cpp:148] Top shape: 40 960 7 7 (1881600)
I0813 23:21:11.168637  6877 net.cpp:148] Top shape: 40 960 7 7 (1881600)
I0813 23:21:11.168639  6877 net.cpp:156] Memory required for data: 2615612640
I0813 23:21:11.168643  6877 layer_factory.hpp:77] Creating layer resx15_conv1
I0813 23:21:11.168654  6877 net.cpp:91] Creating Layer resx15_conv1
I0813 23:21:11.168659  6877 net.cpp:469] resx15_conv1 <- resx14_elewise_resx14_elewise_relu_0_split_0
I0813 23:21:11.168665  6877 net.cpp:443] resx15_conv1 -> resx15_conv1
I0813 23:21:11.174556  6877 net.cpp:141] Setting up resx15_conv1
I0813 23:21:11.174573  6877 net.cpp:148] Top shape: 40 240 7 7 (470400)
I0813 23:21:11.174577  6877 net.cpp:156] Memory required for data: 2617494240
I0813 23:21:11.174584  6877 layer_factory.hpp:77] Creating layer resx15_conv1_bn
I0813 23:21:11.174593  6877 net.cpp:91] Creating Layer resx15_conv1_bn
I0813 23:21:11.174598  6877 net.cpp:469] resx15_conv1_bn <- resx15_conv1
I0813 23:21:11.174607  6877 net.cpp:430] resx15_conv1_bn -> resx15_conv1 (in-place)
I0813 23:21:11.174844  6877 net.cpp:141] Setting up resx15_conv1_bn
I0813 23:21:11.174852  6877 net.cpp:148] Top shape: 40 240 7 7 (470400)
I0813 23:21:11.174856  6877 net.cpp:156] Memory required for data: 2619375840
I0813 23:21:11.174865  6877 layer_factory.hpp:77] Creating layer resx15_conv1_scale
I0813 23:21:11.174875  6877 net.cpp:91] Creating Layer resx15_conv1_scale
I0813 23:21:11.174880  6877 net.cpp:469] resx15_conv1_scale <- resx15_conv1
I0813 23:21:11.174885  6877 net.cpp:430] resx15_conv1_scale -> resx15_conv1 (in-place)
I0813 23:21:11.174935  6877 layer_factory.hpp:77] Creating layer resx15_conv1_scale
I0813 23:21:11.175074  6877 net.cpp:141] Setting up resx15_conv1_scale
I0813 23:21:11.175084  6877 net.cpp:148] Top shape: 40 240 7 7 (470400)
I0813 23:21:11.175088  6877 net.cpp:156] Memory required for data: 2621257440
I0813 23:21:11.175094  6877 layer_factory.hpp:77] Creating layer resx15_conv1_relu
I0813 23:21:11.175101  6877 net.cpp:91] Creating Layer resx15_conv1_relu
I0813 23:21:11.175106  6877 net.cpp:469] resx15_conv1_relu <- resx15_conv1
I0813 23:21:11.175112  6877 net.cpp:430] resx15_conv1_relu -> resx15_conv1 (in-place)
I0813 23:21:11.175524  6877 net.cpp:141] Setting up resx15_conv1_relu
I0813 23:21:11.175539  6877 net.cpp:148] Top shape: 40 240 7 7 (470400)
I0813 23:21:11.175542  6877 net.cpp:156] Memory required for data: 2623139040
I0813 23:21:11.175546  6877 layer_factory.hpp:77] Creating layer shuffle15
I0813 23:21:11.175554  6877 net.cpp:91] Creating Layer shuffle15
I0813 23:21:11.175559  6877 net.cpp:469] shuffle15 <- resx15_conv1
I0813 23:21:11.175570  6877 net.cpp:443] shuffle15 -> shuffle15
I0813 23:21:11.175617  6877 net.cpp:141] Setting up shuffle15
I0813 23:21:11.175627  6877 net.cpp:148] Top shape: 40 240 7 7 (470400)
I0813 23:21:11.175631  6877 net.cpp:156] Memory required for data: 2625020640
I0813 23:21:11.175634  6877 layer_factory.hpp:77] Creating layer resx15_conv2
I0813 23:21:11.175642  6877 net.cpp:91] Creating Layer resx15_conv2
I0813 23:21:11.175647  6877 net.cpp:469] resx15_conv2 <- shuffle15
I0813 23:21:11.175654  6877 net.cpp:443] resx15_conv2 -> resx15_conv2
I0813 23:21:11.175889  6877 net.cpp:141] Setting up resx15_conv2
I0813 23:21:11.175900  6877 net.cpp:148] Top shape: 40 240 7 7 (470400)
I0813 23:21:11.175904  6877 net.cpp:156] Memory required for data: 2626902240
I0813 23:21:11.175909  6877 layer_factory.hpp:77] Creating layer resx15_conv2_bn
I0813 23:21:11.175917  6877 net.cpp:91] Creating Layer resx15_conv2_bn
I0813 23:21:11.175922  6877 net.cpp:469] resx15_conv2_bn <- resx15_conv2
I0813 23:21:11.175928  6877 net.cpp:430] resx15_conv2_bn -> resx15_conv2 (in-place)
I0813 23:21:11.176164  6877 net.cpp:141] Setting up resx15_conv2_bn
I0813 23:21:11.176173  6877 net.cpp:148] Top shape: 40 240 7 7 (470400)
I0813 23:21:11.176177  6877 net.cpp:156] Memory required for data: 2628783840
I0813 23:21:11.176184  6877 layer_factory.hpp:77] Creating layer resx15_conv2_scale
I0813 23:21:11.176192  6877 net.cpp:91] Creating Layer resx15_conv2_scale
I0813 23:21:11.176196  6877 net.cpp:469] resx15_conv2_scale <- resx15_conv2
I0813 23:21:11.176203  6877 net.cpp:430] resx15_conv2_scale -> resx15_conv2 (in-place)
I0813 23:21:11.176252  6877 layer_factory.hpp:77] Creating layer resx15_conv2_scale
I0813 23:21:11.176393  6877 net.cpp:141] Setting up resx15_conv2_scale
I0813 23:21:11.176403  6877 net.cpp:148] Top shape: 40 240 7 7 (470400)
I0813 23:21:11.176405  6877 net.cpp:156] Memory required for data: 2630665440
I0813 23:21:11.176411  6877 layer_factory.hpp:77] Creating layer resx15_conv3
I0813 23:21:11.176422  6877 net.cpp:91] Creating Layer resx15_conv3
I0813 23:21:11.176427  6877 net.cpp:469] resx15_conv3 <- resx15_conv2
I0813 23:21:11.176434  6877 net.cpp:443] resx15_conv3 -> resx15_conv3
I0813 23:21:11.181576  6877 net.cpp:141] Setting up resx15_conv3
I0813 23:21:11.181592  6877 net.cpp:148] Top shape: 40 960 7 7 (1881600)
I0813 23:21:11.181597  6877 net.cpp:156] Memory required for data: 2638191840
I0813 23:21:11.181603  6877 layer_factory.hpp:77] Creating layer resx15_conv3_bn
I0813 23:21:11.181612  6877 net.cpp:91] Creating Layer resx15_conv3_bn
I0813 23:21:11.181617  6877 net.cpp:469] resx15_conv3_bn <- resx15_conv3
I0813 23:21:11.181625  6877 net.cpp:430] resx15_conv3_bn -> resx15_conv3 (in-place)
I0813 23:21:11.181905  6877 net.cpp:141] Setting up resx15_conv3_bn
I0813 23:21:11.181915  6877 net.cpp:148] Top shape: 40 960 7 7 (1881600)
I0813 23:21:11.181918  6877 net.cpp:156] Memory required for data: 2645718240
I0813 23:21:11.181926  6877 layer_factory.hpp:77] Creating layer resx15_conv3_scale
I0813 23:21:11.181934  6877 net.cpp:91] Creating Layer resx15_conv3_scale
I0813 23:21:11.181938  6877 net.cpp:469] resx15_conv3_scale <- resx15_conv3
I0813 23:21:11.181946  6877 net.cpp:430] resx15_conv3_scale -> resx15_conv3 (in-place)
I0813 23:21:11.182018  6877 layer_factory.hpp:77] Creating layer resx15_conv3_scale
I0813 23:21:11.182190  6877 net.cpp:141] Setting up resx15_conv3_scale
I0813 23:21:11.182199  6877 net.cpp:148] Top shape: 40 960 7 7 (1881600)
I0813 23:21:11.182204  6877 net.cpp:156] Memory required for data: 2653244640
I0813 23:21:11.182209  6877 layer_factory.hpp:77] Creating layer resx15_elewise
I0813 23:21:11.182219  6877 net.cpp:91] Creating Layer resx15_elewise
I0813 23:21:11.182224  6877 net.cpp:469] resx15_elewise <- resx14_elewise_resx14_elewise_relu_0_split_1
I0813 23:21:11.182229  6877 net.cpp:469] resx15_elewise <- resx15_conv3
I0813 23:21:11.182234  6877 net.cpp:443] resx15_elewise -> resx15_elewise
I0813 23:21:11.182266  6877 net.cpp:141] Setting up resx15_elewise
I0813 23:21:11.182273  6877 net.cpp:148] Top shape: 40 960 7 7 (1881600)
I0813 23:21:11.182287  6877 net.cpp:156] Memory required for data: 2660771040
I0813 23:21:11.182291  6877 layer_factory.hpp:77] Creating layer resx15_elewise_relu
I0813 23:21:11.182297  6877 net.cpp:91] Creating Layer resx15_elewise_relu
I0813 23:21:11.182302  6877 net.cpp:469] resx15_elewise_relu <- resx15_elewise
I0813 23:21:11.182308  6877 net.cpp:430] resx15_elewise_relu -> resx15_elewise (in-place)
I0813 23:21:11.182719  6877 net.cpp:141] Setting up resx15_elewise_relu
I0813 23:21:11.182734  6877 net.cpp:148] Top shape: 40 960 7 7 (1881600)
I0813 23:21:11.182737  6877 net.cpp:156] Memory required for data: 2668297440
I0813 23:21:11.182741  6877 layer_factory.hpp:77] Creating layer resx15_elewise_resx15_elewise_relu_0_split
I0813 23:21:11.182749  6877 net.cpp:91] Creating Layer resx15_elewise_resx15_elewise_relu_0_split
I0813 23:21:11.182754  6877 net.cpp:469] resx15_elewise_resx15_elewise_relu_0_split <- resx15_elewise
I0813 23:21:11.182760  6877 net.cpp:443] resx15_elewise_resx15_elewise_relu_0_split -> resx15_elewise_resx15_elewise_relu_0_split_0
I0813 23:21:11.182768  6877 net.cpp:443] resx15_elewise_resx15_elewise_relu_0_split -> resx15_elewise_resx15_elewise_relu_0_split_1
I0813 23:21:11.182823  6877 net.cpp:141] Setting up resx15_elewise_resx15_elewise_relu_0_split
I0813 23:21:11.182833  6877 net.cpp:148] Top shape: 40 960 7 7 (1881600)
I0813 23:21:11.182837  6877 net.cpp:148] Top shape: 40 960 7 7 (1881600)
I0813 23:21:11.182842  6877 net.cpp:156] Memory required for data: 2683350240
I0813 23:21:11.182844  6877 layer_factory.hpp:77] Creating layer resx16_conv1
I0813 23:21:11.182853  6877 net.cpp:91] Creating Layer resx16_conv1
I0813 23:21:11.182858  6877 net.cpp:469] resx16_conv1 <- resx15_elewise_resx15_elewise_relu_0_split_0
I0813 23:21:11.182868  6877 net.cpp:443] resx16_conv1 -> resx16_conv1
I0813 23:21:11.188009  6877 net.cpp:141] Setting up resx16_conv1
I0813 23:21:11.188024  6877 net.cpp:148] Top shape: 40 240 7 7 (470400)
I0813 23:21:11.188030  6877 net.cpp:156] Memory required for data: 2685231840
I0813 23:21:11.188035  6877 layer_factory.hpp:77] Creating layer resx16_conv1_bn
I0813 23:21:11.188045  6877 net.cpp:91] Creating Layer resx16_conv1_bn
I0813 23:21:11.188050  6877 net.cpp:469] resx16_conv1_bn <- resx16_conv1
I0813 23:21:11.188055  6877 net.cpp:430] resx16_conv1_bn -> resx16_conv1 (in-place)
I0813 23:21:11.188302  6877 net.cpp:141] Setting up resx16_conv1_bn
I0813 23:21:11.188310  6877 net.cpp:148] Top shape: 40 240 7 7 (470400)
I0813 23:21:11.188314  6877 net.cpp:156] Memory required for data: 2687113440
I0813 23:21:11.188323  6877 layer_factory.hpp:77] Creating layer resx16_conv1_scale
I0813 23:21:11.188330  6877 net.cpp:91] Creating Layer resx16_conv1_scale
I0813 23:21:11.188334  6877 net.cpp:469] resx16_conv1_scale <- resx16_conv1
I0813 23:21:11.188339  6877 net.cpp:430] resx16_conv1_scale -> resx16_conv1 (in-place)
I0813 23:21:11.188392  6877 layer_factory.hpp:77] Creating layer resx16_conv1_scale
I0813 23:21:11.188537  6877 net.cpp:141] Setting up resx16_conv1_scale
I0813 23:21:11.188546  6877 net.cpp:148] Top shape: 40 240 7 7 (470400)
I0813 23:21:11.188549  6877 net.cpp:156] Memory required for data: 2688995040
I0813 23:21:11.188555  6877 layer_factory.hpp:77] Creating layer resx16_conv1_relu
I0813 23:21:11.188561  6877 net.cpp:91] Creating Layer resx16_conv1_relu
I0813 23:21:11.188566  6877 net.cpp:469] resx16_conv1_relu <- resx16_conv1
I0813 23:21:11.188570  6877 net.cpp:430] resx16_conv1_relu -> resx16_conv1 (in-place)
I0813 23:21:11.188992  6877 net.cpp:141] Setting up resx16_conv1_relu
I0813 23:21:11.189005  6877 net.cpp:148] Top shape: 40 240 7 7 (470400)
I0813 23:21:11.189009  6877 net.cpp:156] Memory required for data: 2690876640
I0813 23:21:11.189013  6877 layer_factory.hpp:77] Creating layer shuffle16
I0813 23:21:11.189023  6877 net.cpp:91] Creating Layer shuffle16
I0813 23:21:11.189028  6877 net.cpp:469] shuffle16 <- resx16_conv1
I0813 23:21:11.189033  6877 net.cpp:443] shuffle16 -> shuffle16
I0813 23:21:11.189080  6877 net.cpp:141] Setting up shuffle16
I0813 23:21:11.189095  6877 net.cpp:148] Top shape: 40 240 7 7 (470400)
I0813 23:21:11.189105  6877 net.cpp:156] Memory required for data: 2692758240
I0813 23:21:11.189108  6877 layer_factory.hpp:77] Creating layer resx16_conv2
I0813 23:21:11.189118  6877 net.cpp:91] Creating Layer resx16_conv2
I0813 23:21:11.189123  6877 net.cpp:469] resx16_conv2 <- shuffle16
I0813 23:21:11.189131  6877 net.cpp:443] resx16_conv2 -> resx16_conv2
I0813 23:21:11.189362  6877 net.cpp:141] Setting up resx16_conv2
I0813 23:21:11.189373  6877 net.cpp:148] Top shape: 40 240 7 7 (470400)
I0813 23:21:11.189376  6877 net.cpp:156] Memory required for data: 2694639840
I0813 23:21:11.189383  6877 layer_factory.hpp:77] Creating layer resx16_conv2_bn
I0813 23:21:11.189390  6877 net.cpp:91] Creating Layer resx16_conv2_bn
I0813 23:21:11.189395  6877 net.cpp:469] resx16_conv2_bn <- resx16_conv2
I0813 23:21:11.189402  6877 net.cpp:430] resx16_conv2_bn -> resx16_conv2 (in-place)
I0813 23:21:11.189641  6877 net.cpp:141] Setting up resx16_conv2_bn
I0813 23:21:11.189649  6877 net.cpp:148] Top shape: 40 240 7 7 (470400)
I0813 23:21:11.189653  6877 net.cpp:156] Memory required for data: 2696521440
I0813 23:21:11.189661  6877 layer_factory.hpp:77] Creating layer resx16_conv2_scale
I0813 23:21:11.189671  6877 net.cpp:91] Creating Layer resx16_conv2_scale
I0813 23:21:11.189676  6877 net.cpp:469] resx16_conv2_scale <- resx16_conv2
I0813 23:21:11.189680  6877 net.cpp:430] resx16_conv2_scale -> resx16_conv2 (in-place)
I0813 23:21:11.189731  6877 layer_factory.hpp:77] Creating layer resx16_conv2_scale
I0813 23:21:11.189873  6877 net.cpp:141] Setting up resx16_conv2_scale
I0813 23:21:11.189882  6877 net.cpp:148] Top shape: 40 240 7 7 (470400)
I0813 23:21:11.189885  6877 net.cpp:156] Memory required for data: 2698403040
I0813 23:21:11.189891  6877 layer_factory.hpp:77] Creating layer resx16_conv3
I0813 23:21:11.189903  6877 net.cpp:91] Creating Layer resx16_conv3
I0813 23:21:11.189906  6877 net.cpp:469] resx16_conv3 <- resx16_conv2
I0813 23:21:11.189913  6877 net.cpp:443] resx16_conv3 -> resx16_conv3
I0813 23:21:11.195849  6877 net.cpp:141] Setting up resx16_conv3
I0813 23:21:11.195865  6877 net.cpp:148] Top shape: 40 960 7 7 (1881600)
I0813 23:21:11.195870  6877 net.cpp:156] Memory required for data: 2705929440
I0813 23:21:11.195876  6877 layer_factory.hpp:77] Creating layer resx16_conv3_bn
I0813 23:21:11.195886  6877 net.cpp:91] Creating Layer resx16_conv3_bn
I0813 23:21:11.195891  6877 net.cpp:469] resx16_conv3_bn <- resx16_conv3
I0813 23:21:11.195899  6877 net.cpp:430] resx16_conv3_bn -> resx16_conv3 (in-place)
I0813 23:21:11.196187  6877 net.cpp:141] Setting up resx16_conv3_bn
I0813 23:21:11.196197  6877 net.cpp:148] Top shape: 40 960 7 7 (1881600)
I0813 23:21:11.196200  6877 net.cpp:156] Memory required for data: 2713455840
I0813 23:21:11.196208  6877 layer_factory.hpp:77] Creating layer resx16_conv3_scale
I0813 23:21:11.196218  6877 net.cpp:91] Creating Layer resx16_conv3_scale
I0813 23:21:11.196223  6877 net.cpp:469] resx16_conv3_scale <- resx16_conv3
I0813 23:21:11.196228  6877 net.cpp:430] resx16_conv3_scale -> resx16_conv3 (in-place)
I0813 23:21:11.196301  6877 layer_factory.hpp:77] Creating layer resx16_conv3_scale
I0813 23:21:11.196483  6877 net.cpp:141] Setting up resx16_conv3_scale
I0813 23:21:11.196493  6877 net.cpp:148] Top shape: 40 960 7 7 (1881600)
I0813 23:21:11.196497  6877 net.cpp:156] Memory required for data: 2720982240
I0813 23:21:11.196503  6877 layer_factory.hpp:77] Creating layer resx16_elewise
I0813 23:21:11.196512  6877 net.cpp:91] Creating Layer resx16_elewise
I0813 23:21:11.196516  6877 net.cpp:469] resx16_elewise <- resx15_elewise_resx15_elewise_relu_0_split_1
I0813 23:21:11.196521  6877 net.cpp:469] resx16_elewise <- resx16_conv3
I0813 23:21:11.196528  6877 net.cpp:443] resx16_elewise -> resx16_elewise
I0813 23:21:11.196563  6877 net.cpp:141] Setting up resx16_elewise
I0813 23:21:11.196569  6877 net.cpp:148] Top shape: 40 960 7 7 (1881600)
I0813 23:21:11.196573  6877 net.cpp:156] Memory required for data: 2728508640
I0813 23:21:11.196581  6877 layer_factory.hpp:77] Creating layer resx16_elewise_relu
I0813 23:21:11.196599  6877 net.cpp:91] Creating Layer resx16_elewise_relu
I0813 23:21:11.196604  6877 net.cpp:469] resx16_elewise_relu <- resx16_elewise
I0813 23:21:11.196609  6877 net.cpp:430] resx16_elewise_relu -> resx16_elewise (in-place)
I0813 23:21:11.197031  6877 net.cpp:141] Setting up resx16_elewise_relu
I0813 23:21:11.197046  6877 net.cpp:148] Top shape: 40 960 7 7 (1881600)
I0813 23:21:11.197051  6877 net.cpp:156] Memory required for data: 2736035040
I0813 23:21:11.197055  6877 layer_factory.hpp:77] Creating layer pool_ave
I0813 23:21:11.197063  6877 net.cpp:91] Creating Layer pool_ave
I0813 23:21:11.197067  6877 net.cpp:469] pool_ave <- resx16_elewise
I0813 23:21:11.197073  6877 net.cpp:443] pool_ave -> pool_ave
I0813 23:21:11.197326  6877 net.cpp:141] Setting up pool_ave
I0813 23:21:11.197337  6877 net.cpp:148] Top shape: 40 960 1 1 (38400)
I0813 23:21:11.197341  6877 net.cpp:156] Memory required for data: 2736188640
I0813 23:21:11.197345  6877 layer_factory.hpp:77] Creating layer fc1000
I0813 23:21:11.197357  6877 net.cpp:91] Creating Layer fc1000
I0813 23:21:11.197362  6877 net.cpp:469] fc1000 <- pool_ave
I0813 23:21:11.197371  6877 net.cpp:443] fc1000 -> fc1000
I0813 23:21:11.226037  6877 net.cpp:141] Setting up fc1000
I0813 23:21:11.226052  6877 net.cpp:148] Top shape: 40 1000 1 1 (40000)
I0813 23:21:11.226058  6877 net.cpp:156] Memory required for data: 2736348640
I0813 23:21:11.226064  6877 layer_factory.hpp:77] Creating layer fc1000_fc1000_0_split
I0813 23:21:11.226070  6877 net.cpp:91] Creating Layer fc1000_fc1000_0_split
I0813 23:21:11.226075  6877 net.cpp:469] fc1000_fc1000_0_split <- fc1000
I0813 23:21:11.226083  6877 net.cpp:443] fc1000_fc1000_0_split -> fc1000_fc1000_0_split_0
I0813 23:21:11.226090  6877 net.cpp:443] fc1000_fc1000_0_split -> fc1000_fc1000_0_split_1
I0813 23:21:11.226143  6877 net.cpp:141] Setting up fc1000_fc1000_0_split
I0813 23:21:11.226152  6877 net.cpp:148] Top shape: 40 1000 1 1 (40000)
I0813 23:21:11.226157  6877 net.cpp:148] Top shape: 40 1000 1 1 (40000)
I0813 23:21:11.226161  6877 net.cpp:156] Memory required for data: 2736668640
I0813 23:21:11.226164  6877 layer_factory.hpp:77] Creating layer accuracy
I0813 23:21:11.226181  6877 net.cpp:91] Creating Layer accuracy
I0813 23:21:11.226186  6877 net.cpp:469] accuracy <- fc1000_fc1000_0_split_0
I0813 23:21:11.226191  6877 net.cpp:469] accuracy <- label_data_1_split_0
I0813 23:21:11.226197  6877 net.cpp:443] accuracy -> accuracy
…
