…
I0813 23:19:34.576475  6049 net.cpp:313] The NetState phase (0) differed from the phase (1) specified by a rule in layer accuracy
I0813 23:19:34.577435  6049 net.cpp:49] Initializing net from parameters: 
name: "shufflenet"
state {
  phase: TRAIN
}
layer {
  name: "data"
  type: "Data"
  top: "data"
  top: "label"
  include {
    phase: TRAIN
  }
  transform_param {
    scale: 0.017
    mirror: false
    crop_size: 224
    mean_value: 103.94
    mean_value: 116.78
    mean_value: 123.68
  }
  data_param {
    source: "/home/chenyao/ilsvrc12/ilsvrc12_train_lmdb"
    batch_size: 80
    backend: LMDB
  }
}
layer {
  name: "conv1"
  type: "Convolution"
  bottom: "data"
  top: "conv1"
  convolution_param {
    num_output: 24
    bias_term: false
    pad: 1
    kernel_size: 3
    stride: 2
    weight_filler {
      type: "msra"
    }
  }
}
layer {
  name: "conv1_bn"
  type: "BatchNorm"
  bottom: "conv1"
  top: "conv1"
  param {
    lr_mult: 0
    decay_mult: 0
  }
  param {
    lr_mult: 0
    decay_mult: 0
  }
  param {
    lr_mult: 0
    decay_mult: 0
  }
}
layer {
  name: "conv1_scale"
  type: "Scale"
  bottom: "conv1"
  top: "conv1"
  scale_param {
    filler {
      value: 1
    }
    bias_term: true
    bias_filler {
      value: 0
    }
  }
}
layer {
  name: "conv1_relu"
  type: "ReLU"
  bottom: "conv1"
  top: "conv1"
}
layer {
  name: "pool1"
  type: "Pooling"
  bottom: "conv1"
  top: "pool1"
  pooling_param {
    pool: MAX
    kernel_size: 3
    stride: 2
  }
}
layer {
  name: "resx1_match_conv"
  type: "Pooling"
  bottom: "pool1"
  top: "resx1_match_conv"
  pooling_param {
    pool: AVE
    kernel_size: 3
    stride: 2
  }
}
layer {
  name: "resx1_conv1"
  type: "Convolution"
  bottom: "pool1"
  top: "resx1_conv1"
  convolution_param {
    num_output: 54
    bias_term: false
    pad: 0
    kernel_size: 1
    stride: 1
    weight_filler {
      type: "msra"
    }
  }
}
layer {
  name: "resx1_conv1_bn"
  type: "BatchNorm"
  bottom: "resx1_conv1"
  top: "resx1_conv1"
  param {
    lr_mult: 0
    decay_mult: 0
  }
  param {
    lr_mult: 0
    decay_mult: 0
  }
  param {
    lr_mult: 0
    decay_mult: 0
  }
}
layer {
  name: "resx1_conv1_scale"
  type: "Scale"
  bottom: "resx1_conv1"
  top: "resx1_conv1"
  scale_param {
    filler {
      value: 1
    }
    bias_term: true
    bias_filler {
      value: 0
    }
  }
}
layer {
  name: "resx1_conv1_relu"
  type: "ReLU"
  bottom: "resx1_conv1"
  top: "resx1_conv1"
}
layer {
  name: "resx1_conv2"
  type: "ConvolutionDepthwise"
  bottom: "resx1_conv1"
  top: "resx1_conv2"
  convolution_param {
    num_output: 54
    bias_term: false
    pad: 1
    kernel_size: 3
    stride: 2
    weight_filler {
      type: "msra"
    }
  }
}
layer {
  name: "resx1_conv2_bn"
  type: "BatchNorm"
  bottom: "resx1_conv2"
  top: "resx1_conv2"
  param {
    lr_mult: 0
    decay_mult: 0
  }
  param {
    lr_mult: 0
    decay_mult: 0
  }
  param {
    lr_mult: 0
    decay_mult: 0
  }
}
layer {
  name: "resx1_conv2_scale"
  type: "Scale"
  bottom: "resx1_conv2"
  top: "resx1_conv2"
  scale_param {
    filler {
      value: 1
    }
    bias_term: true
    bias_filler {
      value: 0
    }
  }
}
layer {
  name: "resx1_conv3"
  type: "Convolution"
  bottom: "resx1_conv2"
  top: "resx1_conv3"
  convolution_param {
    num_output: 216
    bias_term: false
    pad: 0
    kernel_size: 1
    group: 3
    stride: 1
    weight_filler {
      type: "msra"
    }
  }
}
layer {
  name: "resx1_conv3_bn"
  type: "BatchNorm"
  bottom: "resx1_conv3"
  top: "resx1_conv3"
  param {
    lr_mult: 0
    decay_mult: 0
  }
  param {
    lr_mult: 0
    decay_mult: 0
  }
  param {
    lr_mult: 0
    decay_mult: 0
  }
}
layer {
  name: "resx1_conv3_scale"
  type: "Scale"
  bottom: "resx1_conv3"
  top: "resx1_conv3"
  scale_param {
    filler {
      value: 1
    }
    bias_term: true
    bias_filler {
      value: 0
    }
  }
}
layer {
  name: "resx1_concat"
  type: "Concat"
  bottom: "resx1_match_conv"
  bottom: "resx1_conv3"
  top: "resx1_concat"
}
layer {
  name: "resx1_concat_relu"
  type: "ReLU"
  bottom: "resx1_concat"
  top: "resx1_concat"
}
layer {
  name: "resx2_conv1"
  type: "Convolution"
  bottom: "resx1_concat"
  top: "resx2_conv1"
  convolution_param {
    num_output: 60
    bias_term: false
    pad: 0
    kernel_size: 1
    group: 3
    stride: 1
    weight_filler {
      type: "msra"
    }
  }
}
layer {
  name: "resx2_conv1_bn"
  type: "BatchNorm"
  bottom: "resx2_conv1"
  top: "resx2_conv1"
  param {
    lr_mult: 0
    decay_mult: 0
  }
  param {
    lr_mult: 0
    decay_mult: 0
  }
  param {
    lr_mult: 0
    decay_mult: 0
  }
}
layer {
  name: "resx2_conv1_scale"
  type: "Scale"
  bottom: "resx2_conv1"
  top: "resx2_conv1"
  scale_param {
    filler {
      value: 1
    }
    bias_term: true
    bias_filler {
      value: 0
    }
  }
}
layer {
  name: "resx2_conv1_relu"
  type: "ReLU"
  bottom: "resx2_conv1"
  top: "resx2_conv1"
}
layer {
  name: "shuffle2"
  type: "ShuffleChannel"
  bottom: "resx2_conv1"
  top: "shuffle2"
  shuffle_channel_param {
    group: 3
  }
}
layer {
  name: "resx2_conv2"
  type: "ConvolutionDepthwise"
  bottom: "shuffle2"
  top: "resx2_conv2"
  convolution_param {
    num_output: 60
    bias_term: false
    pad: 1
    kernel_size: 3
    stride: 1
    weight_filler {
      type: "msra"
    }
  }
}
layer {
  name: "resx2_conv2_bn"
  type: "BatchNorm"
  bottom: "resx2_conv2"
  top: "resx2_conv2"
  param {
    lr_mult: 0
    decay_mult: 0
  }
  param {
    lr_mult: 0
    decay_mult: 0
  }
  param {
    lr_mult: 0
    decay_mult: 0
  }
}
layer {
  name: "resx2_conv2_scale"
  type: "Scale"
  bottom: "resx2_conv2"
  top: "resx2_conv2"
  scale_param {
    filler {
      value: 1
    }
    bias_term: true
    bias_filler {
      value: 0
    }
  }
}
layer {
  name: "resx2_conv3"
  type: "Convolution"
  bottom: "resx2_conv2"
  top: "resx2_conv3"
  convolution_param {
    num_output: 240
    bias_term: false
    pad: 0
    kernel_size: 1
    group: 3
    stride: 1
    weight_filler {
      type: "msra"
    }
  }
}
layer {
  name: "resx2_conv3_bn"
  type: "BatchNorm"
  bottom: "resx2_conv3"
  top: "resx2_conv3"
  param {
    lr_mult: 0
    decay_mult: 0
  }
  param {
    lr_mult: 0
    decay_mult: 0
  }
  param {
    lr_mult: 0
    decay_mult: 0
  }
}
layer {
  name: "resx2_conv3_scale"
  type: "Scale"
  bottom: "resx2_conv3"
  top: "resx2_conv3"
  scale_param {
    filler {
      value: 1
    }
    bias_term: true
    bias_filler {
      value: 0
    }
  }
}
layer {
  name: "resx2_elewise"
  type: "Eltwise"
  bottom: "resx1_concat"
  bottom: "resx2_conv3"
  top: "resx2_elewise"
  eltwise_param {
    operation: SUM
  }
}
layer {
  name: "resx2_elewise_relu"
  type: "ReLU"
  bottom: "resx2_elewise"
  top: "resx2_elewise"
}
layer {
  name: "resx3_conv1"
  type: "Convolution"
  bottom: "resx2_elewise"
  top: "resx3_conv1"
  convolution_param {
    num_output: 60
    bias_term: false
    pad: 0
    kernel_size: 1
    group: 3
    stride: 1
    weight_filler {
      type: "msra"
    }
  }
}
layer {
  name: "resx3_conv1_bn"
  type: "BatchNorm"
  bottom: "resx3_conv1"
  top: "resx3_conv1"
  param {
    lr_mult: 0
    decay_mult: 0
  }
  param {
    lr_mult: 0
    decay_mult: 0
  }
  param {
    lr_mult: 0
    decay_mult: 0
  }
}
layer {
  name: "resx3_conv1_scale"
  type: "Scale"
  bottom: "resx3_conv1"
  top: "resx3_conv1"
  scale_param {
    filler {
      value: 1
    }
    bias_term: true
    bias_filler {
      value: 0
    }
  }
}
layer {
  name: "resx3_conv1_relu"
  type: "ReLU"
  bottom: "resx3_conv1"
  top: "resx3_conv1"
}
layer {
  name: "shuffle3"
  type: "ShuffleChannel"
  bottom: "resx3_conv1"
  top: "shuffle3"
  shuffle_channel_param {
    group: 3
  }
}
layer {
  name: "resx3_conv2"
  type: "ConvolutionDepthwise"
  bottom: "shuffle3"
  top: "resx3_conv2"
  convolution_param {
    num_output: 60
    bias_term: false
    pad: 1
    kernel_size: 3
    stride: 1
    weight_filler {
      type: "msra"
    }
  }
}
layer {
  name: "resx3_conv2_bn"
  type: "BatchNorm"
  bottom: "resx3_conv2"
  top: "resx3_conv2"
  param {
    lr_mult: 0
    decay_mult: 0
  }
  param {
    lr_mult: 0
    decay_mult: 0
  }
  param {
    lr_mult: 0
    decay_mult: 0
  }
}
layer {
  name: "resx3_conv2_scale"
  type: "Scale"
  bottom: "resx3_conv2"
  top: "resx3_conv2"
  scale_param {
    filler {
      value: 1
    }
    bias_term: true
    bias_filler {
      value: 0
    }
  }
}
layer {
  name: "resx3_conv3"
  type: "Convolution"
  bottom: "resx3_conv2"
  top: "resx3_conv3"
  convolution_param {
    num_output: 240
    bias_term: false
    pad: 0
    kernel_size: 1
    group: 3
    stride: 1
    weight_filler {
      type: "msra"
    }
  }
}
layer {
  name: "resx3_conv3_bn"
  type: "BatchNorm"
  bottom: "resx3_conv3"
  top: "resx3_conv3"
  param {
    lr_mult: 0
    decay_mult: 0
  }
  param {
    lr_mult: 0
    decay_mult: 0
  }
  param {
    lr_mult: 0
    decay_mult: 0
  }
}
layer {
  name: "resx3_conv3_scale"
  type: "Scale"
  bottom: "resx3_conv3"
  top: "resx3_conv3"
  scale_param {
    filler {
      value: 1
    }
    bias_term: true
    bias_filler {
      value: 0
    }
  }
}
layer {
  name: "resx3_elewise"
  type: "Eltwise"
  bottom: "resx2_elewise"
  bottom: "resx3_conv3"
  top: "resx3_elewise"
  eltwise_param {
    operation: SUM
  }
}
layer {
  name: "resx3_elewise_relu"
  type: "ReLU"
  bottom: "resx3_elewise"
  top: "resx3_elewise"
}
layer {
  name: "resx4_conv1"
  type: "Convolution"
  bottom: "resx3_elewise"
  top: "resx4_conv1"
  convolution_param {
    num_output: 60
    bias_term: false
    pad: 0
    kernel_size: 1
    group: 3
    stride: 1
    weight_filler {
      type: "msra"
    }
  }
}
layer {
  name: "resx4_conv1_bn"
  type: "BatchNorm"
  bottom: "resx4_conv1"
  top: "resx4_conv1"
  param {
    lr_mult: 0
    decay_mult: 0
  }
  param {
    lr_mult: 0
    decay_mult: 0
  }
  param {
    lr_mult: 0
    decay_mult: 0
  }
}
layer {
  name: "resx4_conv1_scale"
  type: "Scale"
  bottom: "resx4_conv1"
  top: "resx4_conv1"
  scale_param {
    filler {
      value: 1
    }
    bias_term: true
    bias_filler {
      value: 0
    }
  }
}
layer {
  name: "resx4_conv1_relu"
  type: "ReLU"
  bottom: "resx4_conv1"
  top: "resx4_conv1"
}
layer {
  name: "shuffle4"
  type: "ShuffleChannel"
  bottom: "resx4_conv1"
  top: "shuffle4"
  shuffle_channel_param {
    group: 3
  }
}
layer {
  name: "resx4_conv2"
  type: "ConvolutionDepthwise"
  bottom: "shuffle4"
  top: "resx4_conv2"
  convolution_param {
    num_output: 60
    bias_term: false
    pad: 1
    kernel_size: 3
    stride: 1
    weight_filler {
      type: "msra"
    }
  }
}
layer {
  name: "resx4_conv2_bn"
  type: "BatchNorm"
  bottom: "resx4_conv2"
  top: "resx4_conv2"
  param {
    lr_mult: 0
    decay_mult: 0
  }
  param {
    lr_mult: 0
    decay_mult: 0
  }
  param {
    lr_mult: 0
    decay_mult: 0
  }
}
layer {
  name: "resx4_conv2_scale"
  type: "Scale"
  bottom: "resx4_conv2"
  top: "resx4_conv2"
  scale_param {
    filler {
      value: 1
    }
    bias_term: true
    bias_filler {
      value: 0
    }
  }
}
layer {
  name: "resx4_conv3"
  type: "Convolution"
  bottom: "resx4_conv2"
  top: "resx4_conv3"
  convolution_param {
    num_output: 240
    bias_term: false
    pad: 0
    kernel_size: 1
    group: 3
    stride: 1
    weight_filler {
      type: "msra"
    }
  }
}
layer {
  name: "resx4_conv3_bn"
  type: "BatchNorm"
  bottom: "resx4_conv3"
  top: "resx4_conv3"
  param {
    lr_mult: 0
    decay_mult: 0
  }
  param {
    lr_mult: 0
    decay_mult: 0
  }
  param {
    lr_mult: 0
    decay_mult: 0
  }
}
layer {
  name: "resx4_conv3_scale"
  type: "Scale"
  bottom: "resx4_conv3"
  top: "resx4_conv3"
  scale_param {
    filler {
      value: 1
    }
    bias_term: true
    bias_filler {
      value: 0
    }
  }
}
layer {
  name: "resx4_elewise"
  type: "Eltwise"
  bottom: "resx3_elewise"
  bottom: "resx4_conv3"
  top: "resx4_elewise"
  eltwise_param {
    operation: SUM
  }
}
layer {
  name: "resx4_elewise_relu"
  type: "ReLU"
  bottom: "resx4_elewise"
  top: "resx4_elewise"
}
layer {
  name: "resx5_match_conv"
  type: "Pooling"
  bottom: "resx4_elewise"
  top: "resx5_match_conv"
  pooling_param {
    pool: AVE
    kernel_size: 3
    stride: 2
  }
}
layer {
  name: "resx5_conv1"
  type: "Convolution"
  bottom: "resx4_elewise"
  top: "resx5_conv1"
  convolution_param {
    num_output: 60
    bias_term: false
    pad: 0
    kernel_size: 1
    group: 3
    stride: 1
    weight_filler {
      type: "msra"
    }
  }
}
layer {
  name: "resx5_conv1_bn"
  type: "BatchNorm"
  bottom: "resx5_conv1"
  top: "resx5_conv1"
  param {
    lr_mult: 0
    decay_mult: 0
  }
  param {
    lr_mult: 0
    decay_mult: 0
  }
  param {
    lr_mult: 0
    decay_mult: 0
  }
}
layer {
  name: "resx5_conv1_scale"
  type: "Scale"
  bottom: "resx5_conv1"
  top: "resx5_conv1"
  scale_param {
    filler {
      value: 1
    }
    bias_term: true
    bias_filler {
      value: 0
    }
  }
}
layer {
  name: "resx5_conv1_relu"
  type: "ReLU"
  bottom: "resx5_conv1"
  top: "resx5_conv1"
}
layer {
  name: "shuffle5"
  type: "ShuffleChannel"
  bottom: "resx5_conv1"
  top: "shuffle5"
  shuffle_channel_param {
    group: 3
  }
}
layer {
  name: "resx5_conv2"
  type: "ConvolutionDepthwise"
  bottom: "shuffle5"
  top: "resx5_conv2"
  convolution_param {
    num_output: 60
    bias_term: false
    pad: 1
    kernel_size: 3
    stride: 2
    weight_filler {
      type: "msra"
    }
  }
}
layer {
  name: "resx5_conv2_bn"
  type: "BatchNorm"
  bottom: "resx5_conv2"
  top: "resx5_conv2"
  param {
    lr_mult: 0
    decay_mult: 0
  }
  param {
    lr_mult: 0
    decay_mult: 0
  }
  param {
    lr_mult: 0
    decay_mult: 0
  }
}
layer {
  name: "resx5_conv2_scale"
  type: "Scale"
  bottom: "resx5_conv2"
  top: "resx5_conv2"
  scale_param {
    filler {
      value: 1
    }
    bias_term: true
    bias_filler {
      value: 0
    }
  }
}
layer {
  name: "resx5_conv3"
  type: "Convolution"
  bottom: "resx5_conv2"
  top: "resx5_conv3"
  convolution_param {
    num_output: 240
    bias_term: false
    pad: 0
    kernel_size: 1
    group: 3
    stride: 1
    weight_filler {
      type: "msra"
    }
  }
}
layer {
  name: "resx5_conv3_bn"
  type: "BatchNorm"
  bottom: "resx5_conv3"
  top: "resx5_conv3"
  param {
    lr_mult: 0
    decay_mult: 0
  }
  param {
    lr_mult: 0
    decay_mult: 0
  }
  param {
    lr_mult: 0
    decay_mult: 0
  }
}
layer {
  name: "resx5_conv3_scale"
  type: "Scale"
  bottom: "resx5_conv3"
  top: "resx5_conv3"
  scale_param {
    filler {
      value: 1
    }
    bias_term: true
    bias_filler {
      value: 0
    }
  }
}
layer {
  name: "resx5_concat"
  type: "Concat"
  bottom: "resx5_match_conv"
  bottom: "resx5_conv3"
  top: "resx5_concat"
}
layer {
  name: "resx5_concat_relu"
  type: "ReLU"
  bottom: "resx5_concat"
  top: "resx5_concat"
}
layer {
  name: "resx6_conv1"
  type: "Convolution"
  bottom: "resx5_concat"
  top: "resx6_conv1"
  convolution_param {
    num_output: 120
    bias_term: false
    pad: 0
    kernel_size: 1
    group: 3
    stride: 1
    weight_filler {
      type: "msra"
    }
  }
}
layer {
  name: "resx6_conv1_bn"
  type: "BatchNorm"
  bottom: "resx6_conv1"
  top: "resx6_conv1"
  param {
    lr_mult: 0
    decay_mult: 0
  }
  param {
    lr_mult: 0
    decay_mult: 0
  }
  param {
    lr_mult: 0
    decay_mult: 0
  }
}
layer {
  name: "resx6_conv1_scale"
  type: "Scale"
  bottom: "resx6_conv1"
  top: "resx6_conv1"
  scale_param {
    filler {
      value: 1
    }
    bias_term: true
    bias_filler {
      value: 0
    }
  }
}
layer {
  name: "resx6_conv1_relu"
  type: "ReLU"
  bottom: "resx6_conv1"
  top: "resx6_conv1"
}
layer {
  name: "shuffle6"
  type: "ShuffleChannel"
  bottom: "resx6_conv1"
  top: "shuffle6"
  shuffle_channel_param {
    group: 3
  }
}
layer {
  name: "resx6_conv2"
  type: "ConvolutionDepthwise"
  bottom: "shuffle6"
  top: "resx6_conv2"
  convolution_param {
    num_output: 120
    bias_term: false
    pad: 1
    kernel_size: 3
    stride: 1
    weight_filler {
      type: "msra"
    }
  }
}
layer {
  name: "resx6_conv2_bn"
  type: "BatchNorm"
  bottom: "resx6_conv2"
  top: "resx6_conv2"
  param {
    lr_mult: 0
    decay_mult: 0
  }
  param {
    lr_mult: 0
    decay_mult: 0
  }
  param {
    lr_mult: 0
    decay_mult: 0
  }
}
layer {
  name: "resx6_conv2_scale"
  type: "Scale"
  bottom: "resx6_conv2"
  top: "resx6_conv2"
  scale_param {
    filler {
      value: 1
    }
    bias_term: true
    bias_filler {
      value: 0
    }
  }
}
layer {
  name: "resx6_conv3"
  type: "Convolution"
  bottom: "resx6_conv2"
  top: "resx6_conv3"
  convolution_param {
    num_output: 480
    bias_term: false
    pad: 0
    kernel_size: 1
    group: 3
    stride: 1
    weight_filler {
      type: "msra"
    }
  }
}
layer {
  name: "resx6_conv3_bn"
  type: "BatchNorm"
  bottom: "resx6_conv3"
  top: "resx6_conv3"
  param {
    lr_mult: 0
    decay_mult: 0
  }
  param {
    lr_mult: 0
    decay_mult: 0
  }
  param {
    lr_mult: 0
    decay_mult: 0
  }
}
layer {
  name: "resx6_conv3_scale"
  type: "Scale"
  bottom: "resx6_conv3"
  top: "resx6_conv3"
  scale_param {
    filler {
      value: 1
    }
    bias_term: true
    bias_filler {
      value: 0
    }
  }
}
layer {
  name: "resx6_elewise"
  type: "Eltwise"
  bottom: "resx5_concat"
  bottom: "resx6_conv3"
  top: "resx6_elewise"
  eltwise_param {
    operation: SUM
  }
}
layer {
  name: "resx6_elewise_relu"
  type: "ReLU"
  bottom: "resx6_elewise"
  top: "resx6_elewise"
}
layer {
  name: "resx7_conv1"
  type: "Convolution"
  bottom: "resx6_elewise"
  top: "resx7_conv1"
  convolution_param {
    num_output: 120
    bias_term: false
    pad: 0
    kernel_size: 1
    group: 3
    stride: 1
    weight_filler {
      type: "msra"
    }
  }
}
layer {
  name: "resx7_conv1_bn"
  type: "BatchNorm"
  bottom: "resx7_conv1"
  top: "resx7_conv1"
  param {
    lr_mult: 0
    decay_mult: 0
  }
  param {
    lr_mult: 0
    decay_mult: 0
  }
  param {
    lr_mult: 0
    decay_mult: 0
  }
}
layer {
  name: "resx7_conv1_scale"
  type: "Scale"
  bottom: "resx7_conv1"
  top: "resx7_conv1"
  scale_param {
    filler {
      value: 1
    }
    bias_term: true
    bias_filler {
      value: 0
    }
  }
}
layer {
  name: "resx7_conv1_relu"
  type: "ReLU"
  bottom: "resx7_conv1"
  top: "resx7_conv1"
}
layer {
  name: "shuffle7"
  type: "ShuffleChannel"
  bottom: "resx7_conv1"
  top: "shuffle7"
  shuffle_channel_param {
    group: 3
  }
}
layer {
  name: "resx7_conv2"
  type: "ConvolutionDepthwise"
  bottom: "shuffle7"
  top: "resx7_conv2"
  convolution_param {
    num_output: 120
    bias_term: false
    pad: 1
    kernel_size: 3
    stride: 1
    weight_filler {
      type: "msra"
    }
  }
}
layer {
  name: "resx7_conv2_bn"
  type: "BatchNorm"
  bottom: "resx7_conv2"
  top: "resx7_conv2"
  param {
    lr_mult: 0
    decay_mult: 0
  }
  param {
    lr_mult: 0
    decay_mult: 0
  }
  param {
    lr_mult: 0
    decay_mult: 0
  }
}
layer {
  name: "resx7_conv2_scale"
  type: "Scale"
  bottom: "resx7_conv2"
  top: "resx7_conv2"
  scale_param {
    filler {
      value: 1
    }
    bias_term: true
    bias_filler {
      value: 0
    }
  }
}
layer {
  name: "resx7_conv3"
  type: "Convolution"
  bottom: "resx7_conv2"
  top: "resx7_conv3"
  convolution_param {
    num_output: 480
    bias_term: false
    pad: 0
    kernel_size: 1
    group: 3
    stride: 1
    weight_filler {
      type: "msra"
    }
  }
}
layer {
  name: "resx7_conv3_bn"
  type: "BatchNorm"
  bottom: "resx7_conv3"
  top: "resx7_conv3"
  param {
    lr_mult: 0
    decay_mult: 0
  }
  param {
    lr_mult: 0
    decay_mult: 0
  }
  param {
    lr_mult: 0
    decay_mult: 0
  }
}
layer {
  name: "resx7_conv3_scale"
  type: "Scale"
  bottom: "resx7_conv3"
  top: "resx7_conv3"
  scale_param {
    filler {
      value: 1
    }
    bias_term: true
    bias_filler {
      value: 0
    }
  }
}
layer {
  name: "resx7_elewise"
  type: "Eltwise"
  bottom: "resx6_elewise"
  bottom: "resx7_conv3"
  top: "resx7_elewise"
  eltwise_param {
    operation: SUM
  }
}
layer {
  name: "resx7_elewise_relu"
  type: "ReLU"
  bottom: "resx7_elewise"
  top: "resx7_elewise"
}
layer {
  name: "resx8_conv1"
  type: "Convolution"
  bottom: "resx7_elewise"
  top: "resx8_conv1"
  convolution_param {
    num_output: 120
    bias_term: false
    pad: 0
    kernel_size: 1
    group: 3
    stride: 1
    weight_filler {
      type: "msra"
    }
  }
}
layer {
  name: "resx8_conv1_bn"
  type: "BatchNorm"
  bottom: "resx8_conv1"
  top: "resx8_conv1"
  param {
    lr_mult: 0
    decay_mult: 0
  }
  param {
    lr_mult: 0
    decay_mult: 0
  }
  param {
    lr_mult: 0
    decay_mult: 0
  }
}
layer {
  name: "resx8_conv1_scale"
  type: "Scale"
  bottom: "resx8_conv1"
  top: "resx8_conv1"
  scale_param {
    filler {
      value: 1
    }
    bias_term: true
    bias_filler {
      value: 0
    }
  }
}
layer {
  name: "resx8_conv1_relu"
  type: "ReLU"
  bottom: "resx8_conv1"
  top: "resx8_conv1"
}
layer {
  name: "shuffle8"
  type: "ShuffleChannel"
  bottom: "resx8_conv1"
  top: "shuffle8"
  shuffle_channel_param {
    group: 3
  }
}
layer {
  name: "resx8_conv2"
  type: "ConvolutionDepthwise"
  bottom: "shuffle8"
  top: "resx8_conv2"
  convolution_param {
    num_output: 120
    bias_term: false
    pad: 1
    kernel_size: 3
    stride: 1
    weight_filler {
      type: "msra"
    }
  }
}
layer {
  name: "resx8_conv2_bn"
  type: "BatchNorm"
  bottom: "resx8_conv2"
  top: "resx8_conv2"
  param {
    lr_mult: 0
    decay_mult: 0
  }
  param {
    lr_mult: 0
    decay_mult: 0
  }
  param {
    lr_mult: 0
    decay_mult: 0
  }
}
layer {
  name: "resx8_conv2_scale"
  type: "Scale"
  bottom: "resx8_conv2"
  top: "resx8_conv2"
  scale_param {
    filler {
      value: 1
    }
    bias_term: true
    bias_filler {
      value: 0
    }
  }
}
layer {
  name: "resx8_conv3"
  type: "Convolution"
  bottom: "resx8_conv2"
  top: "resx8_conv3"
  convolution_param {
    num_output: 480
    bias_term: false
    pad: 0
    kernel_size: 1
    group: 3
    stride: 1
    weight_filler {
      type: "msra"
    }
  }
}
layer {
  name: "resx8_conv3_bn"
  type: "BatchNorm"
  bottom: "resx8_conv3"
  top: "resx8_conv3"
  param {
    lr_mult: 0
    decay_mult: 0
  }
  param {
    lr_mult: 0
    decay_mult: 0
  }
  param {
    lr_mult: 0
    decay_mult: 0
  }
}
layer {
  name: "resx8_conv3_scale"
  type: "Scale"
  bottom: "resx8_conv3"
  top: "resx8_conv3"
  scale_param {
    filler {
      value: 1
    }
    bias_term: true
    bias_filler {
      value: 0
    }
  }
}
layer {
  name: "resx8_elewise"
  type: "Eltwise"
  bottom: "resx7_elewise"
  bottom: "resx8_conv3"
  top: "resx8_elewise"
  eltwise_param {
    operation: SUM
  }
}
layer {
  name: "resx8_elewise_relu"
  type: "ReLU"
  bottom: "resx8_elewise"
  top: "resx8_elewise"
}
layer {
  name: "resx9_conv1"
  type: "Convolution"
  bottom: "resx8_elewise"
  top: "resx9_conv1"
  convolution_param {
    num_output: 120
    bias_term: false
    pad: 0
    kernel_size: 1
    group: 3
    stride: 1
    weight_filler {
      type: "msra"
    }
  }
}
layer {
  name: "resx9_conv1_bn"
  type: "BatchNorm"
  bottom: "resx9_conv1"
  top: "resx9_conv1"
  param {
    lr_mult: 0
    decay_mult: 0
  }
  param {
    lr_mult: 0
    decay_mult: 0
  }
  param {
    lr_mult: 0
    decay_mult: 0
  }
}
layer {
  name: "resx9_conv1_scale"
  type: "Scale"
  bottom: "resx9_conv1"
  top: "resx9_conv1"
  scale_param {
    filler {
      value: 1
    }
    bias_term: true
    bias_filler {
      value: 0
    }
  }
}
layer {
  name: "resx9_conv1_relu"
  type: "ReLU"
  bottom: "resx9_conv1"
  top: "resx9_conv1"
}
layer {
  name: "shuffle9"
  type: "ShuffleChannel"
  bottom: "resx9_conv1"
  top: "shuffle9"
  shuffle_channel_param {
    group: 3
  }
}
layer {
  name: "resx9_conv2"
  type: "ConvolutionDepthwise"
  bottom: "shuffle9"
  top: "resx9_conv2"
  convolution_param {
    num_output: 120
    bias_term: false
    pad: 1
    kernel_size: 3
    stride: 1
    weight_filler {
      type: "msra"
    }
  }
}
layer {
  name: "resx9_conv2_bn"
  type: "BatchNorm"
  bottom: "resx9_conv2"
  top: "resx9_conv2"
  param {
    lr_mult: 0
    decay_mult: 0
  }
  param {
    lr_mult: 0
    decay_mult: 0
  }
  param {
    lr_mult: 0
    decay_mult: 0
  }
}
layer {
  name: "resx9_conv2_scale"
  type: "Scale"
  bottom: "resx9_conv2"
  top: "resx9_conv2"
  scale_param {
    filler {
      value: 1
    }
    bias_term: true
    bias_filler {
      value: 0
    }
  }
}
layer {
  name: "resx9_conv3"
  type: "Convolution"
  bottom: "resx9_conv2"
  top: "resx9_conv3"
  convolution_param {
    num_output: 480
    bias_term: false
    pad: 0
    kernel_size: 1
    group: 3
    stride: 1
    weight_filler {
      type: "msra"
    }
  }
}
layer {
  name: "resx9_conv3_bn"
  type: "BatchNorm"
  bottom: "resx9_conv3"
  top: "resx9_conv3"
  param {
    lr_mult: 0
    decay_mult: 0
  }
  param {
    lr_mult: 0
    decay_mult: 0
  }
  param {
    lr_mult: 0
    decay_mult: 0
  }
}
layer {
  name: "resx9_conv3_scale"
  type: "Scale"
  bottom: "resx9_conv3"
  top: "resx9_conv3"
  scale_param {
    filler {
      value: 1
    }
    bias_term: true
    bias_filler {
      value: 0
    }
  }
}
layer {
  name: "resx9_elewise"
  type: "Eltwise"
  bottom: "resx8_elewise"
  bottom: "resx9_conv3"
  top: "resx9_elewise"
  eltwise_param {
    operation: SUM
  }
}
layer {
  name: "resx9_elewise_relu"
  type: "ReLU"
  bottom: "resx9_elewise"
  top: "resx9_elewise"
}
layer {
  name: "resx10_conv1"
  type: "Convolution"
  bottom: "resx9_elewise"
  top: "resx10_conv1"
  convolution_param {
    num_output: 120
    bias_term: false
    pad: 0
    kernel_size: 1
    group: 3
    stride: 1
    weight_filler {
      type: "msra"
    }
  }
}
layer {
  name: "resx10_conv1_bn"
  type: "BatchNorm"
  bottom: "resx10_conv1"
  top: "resx10_conv1"
  param {
    lr_mult: 0
    decay_mult: 0
  }
  param {
    lr_mult: 0
    decay_mult: 0
  }
  param {
    lr_mult: 0
    decay_mult: 0
  }
}
layer {
  name: "resx10_conv1_scale"
  type: "Scale"
  bottom: "resx10_conv1"
  top: "resx10_conv1"
  scale_param {
    filler {
      value: 1
    }
    bias_term: true
    bias_filler {
      value: 0
    }
  }
}
layer {
  name: "resx10_conv1_relu"
  type: "ReLU"
  bottom: "resx10_conv1"
  top: "resx10_conv1"
}
layer {
  name: "shuffle10"
  type: "ShuffleChannel"
  bottom: "resx10_conv1"
  top: "shuffle10"
  shuffle_channel_param {
    group: 3
  }
}
layer {
  name: "resx10_conv2"
  type: "ConvolutionDepthwise"
  bottom: "shuffle10"
  top: "resx10_conv2"
  convolution_param {
    num_output: 120
    bias_term: false
    pad: 1
    kernel_size: 3
    stride: 1
    weight_filler {
      type: "msra"
    }
  }
}
layer {
  name: "resx10_conv2_bn"
  type: "BatchNorm"
  bottom: "resx10_conv2"
  top: "resx10_conv2"
  param {
    lr_mult: 0
    decay_mult: 0
  }
  param {
    lr_mult: 0
    decay_mult: 0
  }
  param {
    lr_mult: 0
    decay_mult: 0
  }
}
layer {
  name: "resx10_conv2_scale"
  type: "Scale"
  bottom: "resx10_conv2"
  top: "resx10_conv2"
  scale_param {
    filler {
      value: 1
    }
    bias_term: true
    bias_filler {
      value: 0
    }
  }
}
layer {
  name: "resx10_conv3"
  type: "Convolution"
  bottom: "resx10_conv2"
  top: "resx10_conv3"
  convolution_param {
    num_output: 480
    bias_term: false
    pad: 0
    kernel_size: 1
    group: 3
    stride: 1
    weight_filler {
      type: "msra"
    }
  }
}
layer {
  name: "resx10_conv3_bn"
  type: "BatchNorm"
  bottom: "resx10_conv3"
  top: "resx10_conv3"
  param {
    lr_mult: 0
    decay_mult: 0
  }
  param {
    lr_mult: 0
    decay_mult: 0
  }
  param {
    lr_mult: 0
    decay_mult: 0
  }
}
layer {
  name: "resx10_conv3_scale"
  type: "Scale"
  bottom: "resx10_conv3"
  top: "resx10_conv3"
  scale_param {
    filler {
      value: 1
    }
    bias_term: true
    bias_filler {
      value: 0
    }
  }
}
layer {
  name: "resx10_elewise"
  type: "Eltwise"
  bottom: "resx9_elewise"
  bottom: "resx10_conv3"
  top: "resx10_elewise"
  eltwise_param {
    operation: SUM
  }
}
layer {
  name: "resx10_elewise_relu"
  type: "ReLU"
  bottom: "resx10_elewise"
  top: "resx10_elewise"
}
layer {
  name: "resx11_conv1"
  type: "Convolution"
  bottom: "resx10_elewise"
  top: "resx11_conv1"
  convolution_param {
    num_output: 120
    bias_term: false
    pad: 0
    kernel_size: 1
    group: 3
    stride: 1
    weight_filler {
      type: "msra"
    }
  }
}
layer {
  name: "resx11_conv1_bn"
  type: "BatchNorm"
  bottom: "resx11_conv1"
  top: "resx11_conv1"
  param {
    lr_mult: 0
    decay_mult: 0
  }
  param {
    lr_mult: 0
    decay_mult: 0
  }
  param {
    lr_mult: 0
    decay_mult: 0
  }
}
layer {
  name: "resx11_conv1_scale"
  type: "Scale"
  bottom: "resx11_conv1"
  top: "resx11_conv1"
  scale_param {
    filler {
      value: 1
    }
    bias_term: true
    bias_filler {
      value: 0
    }
  }
}
layer {
  name: "resx11_conv1_relu"
  type: "ReLU"
  bottom: "resx11_conv1"
  top: "resx11_conv1"
}
layer {
  name: "shuffle11"
  type: "ShuffleChannel"
  bottom: "resx11_conv1"
  top: "shuffle11"
  shuffle_channel_param {
    group: 3
  }
}
layer {
  name: "resx11_conv2"
  type: "ConvolutionDepthwise"
  bottom: "shuffle11"
  top: "resx11_conv2"
  convolution_param {
    num_output: 120
    bias_term: false
    pad: 1
    kernel_size: 3
    stride: 1
    weight_filler {
      type: "msra"
    }
  }
}
layer {
  name: "resx11_conv2_bn"
  type: "BatchNorm"
  bottom: "resx11_conv2"
  top: "resx11_conv2"
  param {
    lr_mult: 0
    decay_mult: 0
  }
  param {
    lr_mult: 0
    decay_mult: 0
  }
  param {
    lr_mult: 0
    decay_mult: 0
  }
}
layer {
  name: "resx11_conv2_scale"
  type: "Scale"
  bottom: "resx11_conv2"
  top: "resx11_conv2"
  scale_param {
    filler {
      value: 1
    }
    bias_term: true
    bias_filler {
      value: 0
    }
  }
}
layer {
  name: "resx11_conv3"
  type: "Convolution"
  bottom: "resx11_conv2"
  top: "resx11_conv3"
  convolution_param {
    num_output: 480
    bias_term: false
    pad: 0
    kernel_size:
I0813 23:19:34.578218  6049 layer_factory.hpp:77] Creating layer data
I0813 23:19:34.578395  6049 net.cpp:91] Creating Layer data
I0813 23:19:34.578410  6049 net.cpp:443] data -> data
I0813 23:19:34.578440  6049 net.cpp:443] data -> label
I0813 23:19:34.579543  6053 db_lmdb.cpp:35] Opened lmdb /home/chenyao/ilsvrc12/ilsvrc12_train_lmdb
I0813 23:19:34.593801  6049 data_layer.cpp:41] output data size: 80,3,224,224
I0813 23:19:34.691473  6049 net.cpp:141] Setting up data
I0813 23:19:34.691535  6049 net.cpp:148] Top shape: 80 3 224 224 (12042240)
I0813 23:19:34.691543  6049 net.cpp:148] Top shape: 80 (80)
I0813 23:19:34.691547  6049 net.cpp:156] Memory required for data: 48169280
I0813 23:19:34.691562  6049 layer_factory.hpp:77] Creating layer conv1
I0813 23:19:34.691596  6049 net.cpp:91] Creating Layer conv1
I0813 23:19:34.691604  6049 net.cpp:469] conv1 <- data
I0813 23:19:34.691620  6049 net.cpp:443] conv1 -> conv1
I0813 23:19:34.896953  6049 net.cpp:141] Setting up conv1
I0813 23:19:34.897004  6049 net.cpp:148] Top shape: 80 24 112 112 (24084480)
I0813 23:19:34.897011  6049 net.cpp:156] Memory required for data: 144507200
I0813 23:19:34.897027  6049 layer_factory.hpp:77] Creating layer conv1_bn
I0813 23:19:34.897045  6049 net.cpp:91] Creating Layer conv1_bn
I0813 23:19:34.897050  6049 net.cpp:469] conv1_bn <- conv1
I0813 23:19:34.897058  6049 net.cpp:430] conv1_bn -> conv1 (in-place)
I0813 23:19:34.897836  6049 net.cpp:141] Setting up conv1_bn
I0813 23:19:34.897852  6049 net.cpp:148] Top shape: 80 24 112 112 (24084480)
I0813 23:19:34.897856  6049 net.cpp:156] Memory required for data: 240845120
I0813 23:19:34.897868  6049 layer_factory.hpp:77] Creating layer conv1_scale
I0813 23:19:34.897882  6049 net.cpp:91] Creating Layer conv1_scale
I0813 23:19:34.897887  6049 net.cpp:469] conv1_scale <- conv1
I0813 23:19:34.897902  6049 net.cpp:430] conv1_scale -> conv1 (in-place)
I0813 23:19:34.897960  6049 layer_factory.hpp:77] Creating layer conv1_scale
I0813 23:19:34.898073  6049 net.cpp:141] Setting up conv1_scale
I0813 23:19:34.898082  6049 net.cpp:148] Top shape: 80 24 112 112 (24084480)
I0813 23:19:34.898087  6049 net.cpp:156] Memory required for data: 337183040
I0813 23:19:34.898094  6049 layer_factory.hpp:77] Creating layer conv1_relu
I0813 23:19:34.898106  6049 net.cpp:91] Creating Layer conv1_relu
I0813 23:19:34.898110  6049 net.cpp:469] conv1_relu <- conv1
I0813 23:19:34.898115  6049 net.cpp:430] conv1_relu -> conv1 (in-place)
I0813 23:19:34.898437  6049 net.cpp:141] Setting up conv1_relu
I0813 23:19:34.898450  6049 net.cpp:148] Top shape: 80 24 112 112 (24084480)
I0813 23:19:34.898453  6049 net.cpp:156] Memory required for data: 433520960
I0813 23:19:34.898458  6049 layer_factory.hpp:77] Creating layer pool1
I0813 23:19:34.898468  6049 net.cpp:91] Creating Layer pool1
I0813 23:19:34.898473  6049 net.cpp:469] pool1 <- conv1
I0813 23:19:34.898478  6049 net.cpp:443] pool1 -> pool1
I0813 23:19:34.898535  6049 net.cpp:141] Setting up pool1
I0813 23:19:34.898543  6049 net.cpp:148] Top shape: 80 24 56 56 (6021120)
I0813 23:19:34.898546  6049 net.cpp:156] Memory required for data: 457605440
I0813 23:19:34.898550  6049 layer_factory.hpp:77] Creating layer pool1_pool1_0_split
I0813 23:19:34.898561  6049 net.cpp:91] Creating Layer pool1_pool1_0_split
I0813 23:19:34.898566  6049 net.cpp:469] pool1_pool1_0_split <- pool1
I0813 23:19:34.898572  6049 net.cpp:443] pool1_pool1_0_split -> pool1_pool1_0_split_0
I0813 23:19:34.898579  6049 net.cpp:443] pool1_pool1_0_split -> pool1_pool1_0_split_1
I0813 23:19:34.898608  6049 net.cpp:141] Setting up pool1_pool1_0_split
I0813 23:19:34.898615  6049 net.cpp:148] Top shape: 80 24 56 56 (6021120)
I0813 23:19:34.898619  6049 net.cpp:148] Top shape: 80 24 56 56 (6021120)
I0813 23:19:34.898623  6049 net.cpp:156] Memory required for data: 505774400
I0813 23:19:34.898627  6049 layer_factory.hpp:77] Creating layer resx1_match_conv
I0813 23:19:34.898634  6049 net.cpp:91] Creating Layer resx1_match_conv
I0813 23:19:34.898638  6049 net.cpp:469] resx1_match_conv <- pool1_pool1_0_split_0
I0813 23:19:34.898644  6049 net.cpp:443] resx1_match_conv -> resx1_match_conv
I0813 23:19:34.898821  6049 net.cpp:141] Setting up resx1_match_conv
I0813 23:19:34.898833  6049 net.cpp:148] Top shape: 80 24 28 28 (1505280)
I0813 23:19:34.898836  6049 net.cpp:156] Memory required for data: 511795520
I0813 23:19:34.898840  6049 layer_factory.hpp:77] Creating layer resx1_conv1
I0813 23:19:34.898854  6049 net.cpp:91] Creating Layer resx1_conv1
I0813 23:19:34.898859  6049 net.cpp:469] resx1_conv1 <- pool1_pool1_0_split_1
I0813 23:19:34.898866  6049 net.cpp:443] resx1_conv1 -> resx1_conv1
I0813 23:19:34.900370  6049 net.cpp:141] Setting up resx1_conv1
I0813 23:19:34.900385  6049 net.cpp:148] Top shape: 80 54 56 56 (13547520)
I0813 23:19:34.900389  6049 net.cpp:156] Memory required for data: 565985600
I0813 23:19:34.900396  6049 layer_factory.hpp:77] Creating layer resx1_conv1_bn
I0813 23:19:34.900405  6049 net.cpp:91] Creating Layer resx1_conv1_bn
I0813 23:19:34.900410  6049 net.cpp:469] resx1_conv1_bn <- resx1_conv1
I0813 23:19:34.900415  6049 net.cpp:430] resx1_conv1_bn -> resx1_conv1 (in-place)
I0813 23:19:34.900580  6049 net.cpp:141] Setting up resx1_conv1_bn
I0813 23:19:34.900588  6049 net.cpp:148] Top shape: 80 54 56 56 (13547520)
I0813 23:19:34.900591  6049 net.cpp:156] Memory required for data: 620175680
I0813 23:19:34.900601  6049 layer_factory.hpp:77] Creating layer resx1_conv1_scale
I0813 23:19:34.900609  6049 net.cpp:91] Creating Layer resx1_conv1_scale
I0813 23:19:34.900614  6049 net.cpp:469] resx1_conv1_scale <- resx1_conv1
I0813 23:19:34.900619  6049 net.cpp:430] resx1_conv1_scale -> resx1_conv1 (in-place)
I0813 23:19:34.900655  6049 layer_factory.hpp:77] Creating layer resx1_conv1_scale
I0813 23:19:34.900758  6049 net.cpp:141] Setting up resx1_conv1_scale
I0813 23:19:34.900770  6049 net.cpp:148] Top shape: 80 54 56 56 (13547520)
I0813 23:19:34.900779  6049 net.cpp:156] Memory required for data: 674365760
I0813 23:19:34.900785  6049 layer_factory.hpp:77] Creating layer resx1_conv1_relu
I0813 23:19:34.900792  6049 net.cpp:91] Creating Layer resx1_conv1_relu
I0813 23:19:34.900796  6049 net.cpp:469] resx1_conv1_relu <- resx1_conv1
I0813 23:19:34.900800  6049 net.cpp:430] resx1_conv1_relu -> resx1_conv1 (in-place)
I0813 23:19:34.900951  6049 net.cpp:141] Setting up resx1_conv1_relu
I0813 23:19:34.900961  6049 net.cpp:148] Top shape: 80 54 56 56 (13547520)
I0813 23:19:34.900965  6049 net.cpp:156] Memory required for data: 728555840
I0813 23:19:34.900969  6049 layer_factory.hpp:77] Creating layer resx1_conv2
I0813 23:19:34.900979  6049 net.cpp:91] Creating Layer resx1_conv2
I0813 23:19:34.900982  6049 net.cpp:469] resx1_conv2 <- resx1_conv1
I0813 23:19:34.900990  6049 net.cpp:443] resx1_conv2 -> resx1_conv2
I0813 23:19:34.901317  6049 net.cpp:141] Setting up resx1_conv2
I0813 23:19:34.901334  6049 net.cpp:148] Top shape: 80 54 28 28 (3386880)
I0813 23:19:34.901337  6049 net.cpp:156] Memory required for data: 742103360
I0813 23:19:34.901343  6049 layer_factory.hpp:77] Creating layer resx1_conv2_bn
I0813 23:19:34.901352  6049 net.cpp:91] Creating Layer resx1_conv2_bn
I0813 23:19:34.901357  6049 net.cpp:469] resx1_conv2_bn <- resx1_conv2
I0813 23:19:34.901362  6049 net.cpp:430] resx1_conv2_bn -> resx1_conv2 (in-place)
I0813 23:19:34.901525  6049 net.cpp:141] Setting up resx1_conv2_bn
I0813 23:19:34.901532  6049 net.cpp:148] Top shape: 80 54 28 28 (3386880)
I0813 23:19:34.901536  6049 net.cpp:156] Memory required for data: 755650880
I0813 23:19:34.901543  6049 layer_factory.hpp:77] Creating layer resx1_conv2_scale
I0813 23:19:34.901551  6049 net.cpp:91] Creating Layer resx1_conv2_scale
I0813 23:19:34.901554  6049 net.cpp:469] resx1_conv2_scale <- resx1_conv2
I0813 23:19:34.901559  6049 net.cpp:430] resx1_conv2_scale -> resx1_conv2 (in-place)
I0813 23:19:34.901599  6049 layer_factory.hpp:77] Creating layer resx1_conv2_scale
I0813 23:19:34.901700  6049 net.cpp:141] Setting up resx1_conv2_scale
I0813 23:19:34.901706  6049 net.cpp:148] Top shape: 80 54 28 28 (3386880)
I0813 23:19:34.901710  6049 net.cpp:156] Memory required for data: 769198400
I0813 23:19:34.901720  6049 layer_factory.hpp:77] Creating layer resx1_conv3
I0813 23:19:34.901731  6049 net.cpp:91] Creating Layer resx1_conv3
I0813 23:19:34.901734  6049 net.cpp:469] resx1_conv3 <- resx1_conv2
I0813 23:19:34.901741  6049 net.cpp:443] resx1_conv3 -> resx1_conv3
I0813 23:19:34.904183  6049 net.cpp:141] Setting up resx1_conv3
I0813 23:19:34.904198  6049 net.cpp:148] Top shape: 80 216 28 28 (13547520)
I0813 23:19:34.904203  6049 net.cpp:156] Memory required for data: 823388480
I0813 23:19:34.904209  6049 layer_factory.hpp:77] Creating layer resx1_conv3_bn
I0813 23:19:34.904220  6049 net.cpp:91] Creating Layer resx1_conv3_bn
I0813 23:19:34.904225  6049 net.cpp:469] resx1_conv3_bn <- resx1_conv3
I0813 23:19:34.904232  6049 net.cpp:430] resx1_conv3_bn -> resx1_conv3 (in-place)
I0813 23:19:34.904397  6049 net.cpp:141] Setting up resx1_conv3_bn
I0813 23:19:34.904404  6049 net.cpp:148] Top shape: 80 216 28 28 (13547520)
I0813 23:19:34.904408  6049 net.cpp:156] Memory required for data: 877578560
I0813 23:19:34.904415  6049 layer_factory.hpp:77] Creating layer resx1_conv3_scale
I0813 23:19:34.904424  6049 net.cpp:91] Creating Layer resx1_conv3_scale
I0813 23:19:34.904428  6049 net.cpp:469] resx1_conv3_scale <- resx1_conv3
I0813 23:19:34.904433  6049 net.cpp:430] resx1_conv3_scale -> resx1_conv3 (in-place)
I0813 23:19:34.904469  6049 layer_factory.hpp:77] Creating layer resx1_conv3_scale
I0813 23:19:34.904572  6049 net.cpp:141] Setting up resx1_conv3_scale
I0813 23:19:34.904578  6049 net.cpp:148] Top shape: 80 216 28 28 (13547520)
I0813 23:19:34.904582  6049 net.cpp:156] Memory required for data: 931768640
I0813 23:19:34.904588  6049 layer_factory.hpp:77] Creating layer resx1_concat
I0813 23:19:34.904602  6049 net.cpp:91] Creating Layer resx1_concat
I0813 23:19:34.904609  6049 net.cpp:469] resx1_concat <- resx1_match_conv
I0813 23:19:34.904623  6049 net.cpp:469] resx1_concat <- resx1_conv3
I0813 23:19:34.904630  6049 net.cpp:443] resx1_concat -> resx1_concat
I0813 23:19:34.904654  6049 net.cpp:141] Setting up resx1_concat
I0813 23:19:34.904659  6049 net.cpp:148] Top shape: 80 240 28 28 (15052800)
I0813 23:19:34.904664  6049 net.cpp:156] Memory required for data: 991979840
I0813 23:19:34.904666  6049 layer_factory.hpp:77] Creating layer resx1_concat_relu
I0813 23:19:34.904675  6049 net.cpp:91] Creating Layer resx1_concat_relu
I0813 23:19:34.904678  6049 net.cpp:469] resx1_concat_relu <- resx1_concat
I0813 23:19:34.904683  6049 net.cpp:430] resx1_concat_relu -> resx1_concat (in-place)
I0813 23:19:34.904830  6049 net.cpp:141] Setting up resx1_concat_relu
I0813 23:19:34.904840  6049 net.cpp:148] Top shape: 80 240 28 28 (15052800)
I0813 23:19:34.904844  6049 net.cpp:156] Memory required for data: 1052191040
I0813 23:19:34.904848  6049 layer_factory.hpp:77] Creating layer resx1_concat_resx1_concat_relu_0_split
I0813 23:19:34.904855  6049 net.cpp:91] Creating Layer resx1_concat_resx1_concat_relu_0_split
I0813 23:19:34.904860  6049 net.cpp:469] resx1_concat_resx1_concat_relu_0_split <- resx1_concat
I0813 23:19:34.904865  6049 net.cpp:443] resx1_concat_resx1_concat_relu_0_split -> resx1_concat_resx1_concat_relu_0_split_0
I0813 23:19:34.904873  6049 net.cpp:443] resx1_concat_resx1_concat_relu_0_split -> resx1_concat_resx1_concat_relu_0_split_1
I0813 23:19:34.904908  6049 net.cpp:141] Setting up resx1_concat_resx1_concat_relu_0_split
I0813 23:19:34.904916  6049 net.cpp:148] Top shape: 80 240 28 28 (15052800)
I0813 23:19:34.904919  6049 net.cpp:148] Top shape: 80 240 28 28 (15052800)
I0813 23:19:34.904923  6049 net.cpp:156] Memory required for data: 1172613440
I0813 23:19:34.904927  6049 layer_factory.hpp:77] Creating layer resx2_conv1
I0813 23:19:34.904937  6049 net.cpp:91] Creating Layer resx2_conv1
I0813 23:19:34.904942  6049 net.cpp:469] resx2_conv1 <- resx1_concat_resx1_concat_relu_0_split_0
I0813 23:19:34.904948  6049 net.cpp:443] resx2_conv1 -> resx2_conv1
I0813 23:19:34.907444  6049 net.cpp:141] Setting up resx2_conv1
I0813 23:19:34.907460  6049 net.cpp:148] Top shape: 80 60 28 28 (3763200)
I0813 23:19:34.907464  6049 net.cpp:156] Memory required for data: 1187666240
I0813 23:19:34.907470  6049 layer_factory.hpp:77] Creating layer resx2_conv1_bn
I0813 23:19:34.907480  6049 net.cpp:91] Creating Layer resx2_conv1_bn
I0813 23:19:34.907485  6049 net.cpp:469] resx2_conv1_bn <- resx2_conv1
I0813 23:19:34.907490  6049 net.cpp:430] resx2_conv1_bn -> resx2_conv1 (in-place)
I0813 23:19:34.907655  6049 net.cpp:141] Setting up resx2_conv1_bn
I0813 23:19:34.907662  6049 net.cpp:148] Top shape: 80 60 28 28 (3763200)
I0813 23:19:34.907665  6049 net.cpp:156] Memory required for data: 1202719040
I0813 23:19:34.907673  6049 layer_factory.hpp:77] Creating layer resx2_conv1_scale
I0813 23:19:34.907680  6049 net.cpp:91] Creating Layer resx2_conv1_scale
I0813 23:19:34.907683  6049 net.cpp:469] resx2_conv1_scale <- resx2_conv1
I0813 23:19:34.907690  6049 net.cpp:430] resx2_conv1_scale -> resx2_conv1 (in-place)
I0813 23:19:34.907727  6049 layer_factory.hpp:77] Creating layer resx2_conv1_scale
I0813 23:19:34.907825  6049 net.cpp:141] Setting up resx2_conv1_scale
I0813 23:19:34.907835  6049 net.cpp:148] Top shape: 80 60 28 28 (3763200)
I0813 23:19:34.907838  6049 net.cpp:156] Memory required for data: 1217771840
I0813 23:19:34.907845  6049 layer_factory.hpp:77] Creating layer resx2_conv1_relu
I0813 23:19:34.907850  6049 net.cpp:91] Creating Layer resx2_conv1_relu
I0813 23:19:34.907855  6049 net.cpp:469] resx2_conv1_relu <- resx2_conv1
I0813 23:19:34.907860  6049 net.cpp:430] resx2_conv1_relu -> resx2_conv1 (in-place)
I0813 23:19:34.908016  6049 net.cpp:141] Setting up resx2_conv1_relu
I0813 23:19:34.908026  6049 net.cpp:148] Top shape: 80 60 28 28 (3763200)
I0813 23:19:34.908030  6049 net.cpp:156] Memory required for data: 1232824640
I0813 23:19:34.908035  6049 layer_factory.hpp:77] Creating layer shuffle2
I0813 23:19:34.908049  6049 net.cpp:91] Creating Layer shuffle2
I0813 23:19:34.908059  6049 net.cpp:469] shuffle2 <- resx2_conv1
I0813 23:19:34.908066  6049 net.cpp:443] shuffle2 -> shuffle2
I0813 23:19:34.908095  6049 net.cpp:141] Setting up shuffle2
I0813 23:19:34.908102  6049 net.cpp:148] Top shape: 80 60 28 28 (3763200)
I0813 23:19:34.908107  6049 net.cpp:156] Memory required for data: 1247877440
I0813 23:19:34.908109  6049 layer_factory.hpp:77] Creating layer resx2_conv2
I0813 23:19:34.908118  6049 net.cpp:91] Creating Layer resx2_conv2
I0813 23:19:34.908123  6049 net.cpp:469] resx2_conv2 <- shuffle2
I0813 23:19:34.908128  6049 net.cpp:443] resx2_conv2 -> resx2_conv2
I0813 23:19:34.908243  6049 net.cpp:141] Setting up resx2_conv2
I0813 23:19:34.908254  6049 net.cpp:148] Top shape: 80 60 28 28 (3763200)
I0813 23:19:34.908258  6049 net.cpp:156] Memory required for data: 1262930240
I0813 23:19:34.908263  6049 layer_factory.hpp:77] Creating layer resx2_conv2_bn
I0813 23:19:34.908275  6049 net.cpp:91] Creating Layer resx2_conv2_bn
I0813 23:19:34.908279  6049 net.cpp:469] resx2_conv2_bn <- resx2_conv2
I0813 23:19:34.908284  6049 net.cpp:430] resx2_conv2_bn -> resx2_conv2 (in-place)
I0813 23:19:34.908450  6049 net.cpp:141] Setting up resx2_conv2_bn
I0813 23:19:34.908458  6049 net.cpp:148] Top shape: 80 60 28 28 (3763200)
I0813 23:19:34.908462  6049 net.cpp:156] Memory required for data: 1277983040
I0813 23:19:34.908473  6049 layer_factory.hpp:77] Creating layer resx2_conv2_scale
I0813 23:19:34.908480  6049 net.cpp:91] Creating Layer resx2_conv2_scale
I0813 23:19:34.908484  6049 net.cpp:469] resx2_conv2_scale <- resx2_conv2
I0813 23:19:34.908491  6049 net.cpp:430] resx2_conv2_scale -> resx2_conv2 (in-place)
I0813 23:19:34.908529  6049 layer_factory.hpp:77] Creating layer resx2_conv2_scale
I0813 23:19:34.908629  6049 net.cpp:141] Setting up resx2_conv2_scale
I0813 23:19:34.908638  6049 net.cpp:148] Top shape: 80 60 28 28 (3763200)
I0813 23:19:34.908640  6049 net.cpp:156] Memory required for data: 1293035840
I0813 23:19:34.908646  6049 layer_factory.hpp:77] Creating layer resx2_conv3
I0813 23:19:34.908658  6049 net.cpp:91] Creating Layer resx2_conv3
I0813 23:19:34.908661  6049 net.cpp:469] resx2_conv3 <- resx2_conv2
I0813 23:19:34.908668  6049 net.cpp:443] resx2_conv3 -> resx2_conv3
I0813 23:19:34.911339  6049 net.cpp:141] Setting up resx2_conv3
I0813 23:19:34.911357  6049 net.cpp:148] Top shape: 80 240 28 28 (15052800)
I0813 23:19:34.911362  6049 net.cpp:156] Memory required for data: 1353247040
I0813 23:19:34.911368  6049 layer_factory.hpp:77] Creating layer resx2_conv3_bn
I0813 23:19:34.911375  6049 net.cpp:91] Creating Layer resx2_conv3_bn
I0813 23:19:34.911381  6049 net.cpp:469] resx2_conv3_bn <- resx2_conv3
I0813 23:19:34.911387  6049 net.cpp:430] resx2_conv3_bn -> resx2_conv3 (in-place)
I0813 23:19:34.911557  6049 net.cpp:141] Setting up resx2_conv3_bn
I0813 23:19:34.911566  6049 net.cpp:148] Top shape: 80 240 28 28 (15052800)
I0813 23:19:34.911568  6049 net.cpp:156] Memory required for data: 1413458240
I0813 23:19:34.911576  6049 layer_factory.hpp:77] Creating layer resx2_conv3_scale
I0813 23:19:34.911583  6049 net.cpp:91] Creating Layer resx2_conv3_scale
I0813 23:19:34.911587  6049 net.cpp:469] resx2_conv3_scale <- resx2_conv3
I0813 23:19:34.911594  6049 net.cpp:430] resx2_conv3_scale -> resx2_conv3 (in-place)
I0813 23:19:34.911629  6049 layer_factory.hpp:77] Creating layer resx2_conv3_scale
I0813 23:19:34.911732  6049 net.cpp:141] Setting up resx2_conv3_scale
I0813 23:19:34.911741  6049 net.cpp:148] Top shape: 80 240 28 28 (15052800)
I0813 23:19:34.911744  6049 net.cpp:156] Memory required for data: 1473669440
I0813 23:19:34.911751  6049 layer_factory.hpp:77] Creating layer resx2_elewise
I0813 23:19:34.911762  6049 net.cpp:91] Creating Layer resx2_elewise
I0813 23:19:34.911767  6049 net.cpp:469] resx2_elewise <- resx1_concat_resx1_concat_relu_0_split_1
I0813 23:19:34.911772  6049 net.cpp:469] resx2_elewise <- resx2_conv3
I0813 23:19:34.911777  6049 net.cpp:443] resx2_elewise -> resx2_elewise
I0813 23:19:34.911805  6049 net.cpp:141] Setting up resx2_elewise
I0813 23:19:34.911823  6049 net.cpp:148] Top shape: 80 240 28 28 (15052800)
I0813 23:19:34.911826  6049 net.cpp:156] Memory required for data: 1533880640
I0813 23:19:34.911830  6049 layer_factory.hpp:77] Creating layer resx2_elewise_relu
I0813 23:19:34.911836  6049 net.cpp:91] Creating Layer resx2_elewise_relu
I0813 23:19:34.911839  6049 net.cpp:469] resx2_elewise_relu <- resx2_elewise
I0813 23:19:34.911849  6049 net.cpp:430] resx2_elewise_relu -> resx2_elewise (in-place)
I0813 23:19:34.911999  6049 net.cpp:141] Setting up resx2_elewise_relu
I0813 23:19:34.912009  6049 net.cpp:148] Top shape: 80 240 28 28 (15052800)
I0813 23:19:34.912014  6049 net.cpp:156] Memory required for data: 1594091840
I0813 23:19:34.912017  6049 layer_factory.hpp:77] Creating layer resx2_elewise_resx2_elewise_relu_0_split
I0813 23:19:34.912025  6049 net.cpp:91] Creating Layer resx2_elewise_resx2_elewise_relu_0_split
I0813 23:19:34.912029  6049 net.cpp:469] resx2_elewise_resx2_elewise_relu_0_split <- resx2_elewise
I0813 23:19:34.912034  6049 net.cpp:443] resx2_elewise_resx2_elewise_relu_0_split -> resx2_elewise_resx2_elewise_relu_0_split_0
I0813 23:19:34.912040  6049 net.cpp:443] resx2_elewise_resx2_elewise_relu_0_split -> resx2_elewise_resx2_elewise_relu_0_split_1
I0813 23:19:34.912078  6049 net.cpp:141] Setting up resx2_elewise_resx2_elewise_relu_0_split
I0813 23:19:34.912084  6049 net.cpp:148] Top shape: 80 240 28 28 (15052800)
I0813 23:19:34.912089  6049 net.cpp:148] Top shape: 80 240 28 28 (15052800)
I0813 23:19:34.912092  6049 net.cpp:156] Memory required for data: 1714514240
I0813 23:19:34.912096  6049 layer_factory.hpp:77] Creating layer resx3_conv1
I0813 23:19:34.912106  6049 net.cpp:91] Creating Layer resx3_conv1
I0813 23:19:34.912109  6049 net.cpp:469] resx3_conv1 <- resx2_elewise_resx2_elewise_relu_0_split_0
I0813 23:19:34.912116  6049 net.cpp:443] resx3_conv1 -> resx3_conv1
I0813 23:19:34.914618  6049 net.cpp:141] Setting up resx3_conv1
I0813 23:19:34.914633  6049 net.cpp:148] Top shape: 80 60 28 28 (3763200)
I0813 23:19:34.914638  6049 net.cpp:156] Memory required for data: 1729567040
I0813 23:19:34.914644  6049 layer_factory.hpp:77] Creating layer resx3_conv1_bn
I0813 23:19:34.914654  6049 net.cpp:91] Creating Layer resx3_conv1_bn
I0813 23:19:34.914660  6049 net.cpp:469] resx3_conv1_bn <- resx3_conv1
I0813 23:19:34.914666  6049 net.cpp:430] resx3_conv1_bn -> resx3_conv1 (in-place)
I0813 23:19:34.914835  6049 net.cpp:141] Setting up resx3_conv1_bn
I0813 23:19:34.914844  6049 net.cpp:148] Top shape: 80 60 28 28 (3763200)
I0813 23:19:34.914846  6049 net.cpp:156] Memory required for data: 1744619840
I0813 23:19:34.914856  6049 layer_factory.hpp:77] Creating layer resx3_conv1_scale
I0813 23:19:34.914863  6049 net.cpp:91] Creating Layer resx3_conv1_scale
I0813 23:19:34.914867  6049 net.cpp:469] resx3_conv1_scale <- resx3_conv1
I0813 23:19:34.914872  6049 net.cpp:430] resx3_conv1_scale -> resx3_conv1 (in-place)
I0813 23:19:34.914912  6049 layer_factory.hpp:77] Creating layer resx3_conv1_scale
I0813 23:19:34.915015  6049 net.cpp:141] Setting up resx3_conv1_scale
I0813 23:19:34.915024  6049 net.cpp:148] Top shape: 80 60 28 28 (3763200)
I0813 23:19:34.915026  6049 net.cpp:156] Memory required for data: 1759672640
I0813 23:19:34.915032  6049 layer_factory.hpp:77] Creating layer resx3_conv1_relu
I0813 23:19:34.915041  6049 net.cpp:91] Creating Layer resx3_conv1_relu
I0813 23:19:34.915045  6049 net.cpp:469] resx3_conv1_relu <- resx3_conv1
I0813 23:19:34.915050  6049 net.cpp:430] resx3_conv1_relu -> resx3_conv1 (in-place)
I0813 23:19:34.915199  6049 net.cpp:141] Setting up resx3_conv1_relu
I0813 23:19:34.915210  6049 net.cpp:148] Top shape: 80 60 28 28 (3763200)
I0813 23:19:34.915212  6049 net.cpp:156] Memory required for data: 1774725440
I0813 23:19:34.915217  6049 layer_factory.hpp:77] Creating layer shuffle3
I0813 23:19:34.915225  6049 net.cpp:91] Creating Layer shuffle3
I0813 23:19:34.915230  6049 net.cpp:469] shuffle3 <- resx3_conv1
I0813 23:19:34.915235  6049 net.cpp:443] shuffle3 -> shuffle3
I0813 23:19:34.915271  6049 net.cpp:141] Setting up shuffle3
I0813 23:19:34.915283  6049 net.cpp:148] Top shape: 80 60 28 28 (3763200)
I0813 23:19:34.915287  6049 net.cpp:156] Memory required for data: 1789778240
I0813 23:19:34.915290  6049 layer_factory.hpp:77] Creating layer resx3_conv2
I0813 23:19:34.915300  6049 net.cpp:91] Creating Layer resx3_conv2
I0813 23:19:34.915304  6049 net.cpp:469] resx3_conv2 <- shuffle3
I0813 23:19:34.915309  6049 net.cpp:443] resx3_conv2 -> resx3_conv2
I0813 23:19:34.915429  6049 net.cpp:141] Setting up resx3_conv2
I0813 23:19:34.915441  6049 net.cpp:148] Top shape: 80 60 28 28 (3763200)
I0813 23:19:34.915444  6049 net.cpp:156] Memory required for data: 1804831040
I0813 23:19:34.915449  6049 layer_factory.hpp:77] Creating layer resx3_conv2_bn
I0813 23:19:34.915459  6049 net.cpp:91] Creating Layer resx3_conv2_bn
I0813 23:19:34.915463  6049 net.cpp:469] resx3_conv2_bn <- resx3_conv2
I0813 23:19:34.915468  6049 net.cpp:430] resx3_conv2_bn -> resx3_conv2 (in-place)
I0813 23:19:34.915634  6049 net.cpp:141] Setting up resx3_conv2_bn
I0813 23:19:34.915642  6049 net.cpp:148] Top shape: 80 60 28 28 (3763200)
I0813 23:19:34.915645  6049 net.cpp:156] Memory required for data: 1819883840
I0813 23:19:34.915652  6049 layer_factory.hpp:77] Creating layer resx3_conv2_scale
I0813 23:19:34.915659  6049 net.cpp:91] Creating Layer resx3_conv2_scale
I0813 23:19:34.915663  6049 net.cpp:469] resx3_conv2_scale <- resx3_conv2
I0813 23:19:34.915668  6049 net.cpp:430] resx3_conv2_scale -> resx3_conv2 (in-place)
I0813 23:19:34.915705  6049 layer_factory.hpp:77] Creating layer resx3_conv2_scale
I0813 23:19:34.915807  6049 net.cpp:141] Setting up resx3_conv2_scale
I0813 23:19:34.915815  6049 net.cpp:148] Top shape: 80 60 28 28 (3763200)
I0813 23:19:34.915819  6049 net.cpp:156] Memory required for data: 1834936640
I0813 23:19:34.915825  6049 layer_factory.hpp:77] Creating layer resx3_conv3
I0813 23:19:34.915834  6049 net.cpp:91] Creating Layer resx3_conv3
I0813 23:19:34.915838  6049 net.cpp:469] resx3_conv3 <- resx3_conv2
I0813 23:19:34.915845  6049 net.cpp:443] resx3_conv3 -> resx3_conv3
I0813 23:19:34.918438  6049 net.cpp:141] Setting up resx3_conv3
I0813 23:19:34.918455  6049 net.cpp:148] Top shape: 80 240 28 28 (15052800)
I0813 23:19:34.918460  6049 net.cpp:156] Memory required for data: 1895147840
I0813 23:19:34.918467  6049 layer_factory.hpp:77] Creating layer resx3_conv3_bn
I0813 23:19:34.918474  6049 net.cpp:91] Creating Layer resx3_conv3_bn
I0813 23:19:34.918478  6049 net.cpp:469] resx3_conv3_bn <- resx3_conv3
I0813 23:19:34.918485  6049 net.cpp:430] resx3_conv3_bn -> resx3_conv3 (in-place)
I0813 23:19:34.918659  6049 net.cpp:141] Setting up resx3_conv3_bn
I0813 23:19:34.918668  6049 net.cpp:148] Top shape: 80 240 28 28 (15052800)
I0813 23:19:34.918671  6049 net.cpp:156] Memory required for data: 1955359040
I0813 23:19:34.918678  6049 layer_factory.hpp:77] Creating layer resx3_conv3_scale
I0813 23:19:34.918685  6049 net.cpp:91] Creating Layer resx3_conv3_scale
I0813 23:19:34.918689  6049 net.cpp:469] resx3_conv3_scale <- resx3_conv3
I0813 23:19:34.918699  6049 net.cpp:430] resx3_conv3_scale -> resx3_conv3 (in-place)
I0813 23:19:34.918735  6049 layer_factory.hpp:77] Creating layer resx3_conv3_scale
I0813 23:19:34.918840  6049 net.cpp:141] Setting up resx3_conv3_scale
I0813 23:19:34.918848  6049 net.cpp:148] Top shape: 80 240 28 28 (15052800)
I0813 23:19:34.918851  6049 net.cpp:156] Memory required for data: 2015570240
I0813 23:19:34.918857  6049 layer_factory.hpp:77] Creating layer resx3_elewise
I0813 23:19:34.918864  6049 net.cpp:91] Creating Layer resx3_elewise
I0813 23:19:34.918869  6049 net.cpp:469] resx3_elewise <- resx2_elewise_resx2_elewise_relu_0_split_1
I0813 23:19:34.918874  6049 net.cpp:469] resx3_elewise <- resx3_conv3
I0813 23:19:34.918880  6049 net.cpp:443] resx3_elewise -> resx3_elewise
I0813 23:19:34.918905  6049 net.cpp:141] Setting up resx3_elewise
I0813 23:19:34.918911  6049 net.cpp:148] Top shape: 80 240 28 28 (15052800)
I0813 23:19:34.918915  6049 net.cpp:156] Memory required for data: 2075781440
I0813 23:19:34.918923  6049 layer_factory.hpp:77] Creating layer resx3_elewise_relu
I0813 23:19:34.918936  6049 net.cpp:91] Creating Layer resx3_elewise_relu
I0813 23:19:34.918941  6049 net.cpp:469] resx3_elewise_relu <- resx3_elewise
I0813 23:19:34.918944  6049 net.cpp:430] resx3_elewise_relu -> resx3_elewise (in-place)
I0813 23:19:34.919100  6049 net.cpp:141] Setting up resx3_elewise_relu
I0813 23:19:34.919111  6049 net.cpp:148] Top shape: 80 240 28 28 (15052800)
I0813 23:19:34.919114  6049 net.cpp:156] Memory required for data: 2135992640
I0813 23:19:34.919118  6049 layer_factory.hpp:77] Creating layer resx3_elewise_resx3_elewise_relu_0_split
I0813 23:19:34.919124  6049 net.cpp:91] Creating Layer resx3_elewise_resx3_elewise_relu_0_split
I0813 23:19:34.919128  6049 net.cpp:469] resx3_elewise_resx3_elewise_relu_0_split <- resx3_elewise
I0813 23:19:34.919137  6049 net.cpp:443] resx3_elewise_resx3_elewise_relu_0_split -> resx3_elewise_resx3_elewise_relu_0_split_0
I0813 23:19:34.919142  6049 net.cpp:443] resx3_elewise_resx3_elewise_relu_0_split -> resx3_elewise_resx3_elewise_relu_0_split_1
I0813 23:19:34.919181  6049 net.cpp:141] Setting up resx3_elewise_resx3_elewise_relu_0_split
I0813 23:19:34.919188  6049 net.cpp:148] Top shape: 80 240 28 28 (15052800)
I0813 23:19:34.919193  6049 net.cpp:148] Top shape: 80 240 28 28 (15052800)
I0813 23:19:34.919195  6049 net.cpp:156] Memory required for data: 2256415040
I0813 23:19:34.919198  6049 layer_factory.hpp:77] Creating layer resx4_conv1
I0813 23:19:34.919210  6049 net.cpp:91] Creating Layer resx4_conv1
I0813 23:19:34.919214  6049 net.cpp:469] resx4_conv1 <- resx3_elewise_resx3_elewise_relu_0_split_0
I0813 23:19:34.919220  6049 net.cpp:443] resx4_conv1 -> resx4_conv1
I0813 23:19:34.921958  6049 net.cpp:141] Setting up resx4_conv1
I0813 23:19:34.921974  6049 net.cpp:148] Top shape: 80 60 28 28 (3763200)
I0813 23:19:34.921978  6049 net.cpp:156] Memory required for data: 2271467840
I0813 23:19:34.921984  6049 layer_factory.hpp:77] Creating layer resx4_conv1_bn
I0813 23:19:34.921994  6049 net.cpp:91] Creating Layer resx4_conv1_bn
I0813 23:19:34.921998  6049 net.cpp:469] resx4_conv1_bn <- resx4_conv1
I0813 23:19:34.922004  6049 net.cpp:430] resx4_conv1_bn -> resx4_conv1 (in-place)
I0813 23:19:34.922188  6049 net.cpp:141] Setting up resx4_conv1_bn
I0813 23:19:34.922196  6049 net.cpp:148] Top shape: 80 60 28 28 (3763200)
I0813 23:19:34.922199  6049 net.cpp:156] Memory required for data: 2286520640
I0813 23:19:34.922207  6049 layer_factory.hpp:77] Creating layer resx4_conv1_scale
I0813 23:19:34.922214  6049 net.cpp:91] Creating Layer resx4_conv1_scale
I0813 23:19:34.922219  6049 net.cpp:469] resx4_conv1_scale <- resx4_conv1
I0813 23:19:34.922224  6049 net.cpp:430] resx4_conv1_scale -> resx4_conv1 (in-place)
I0813 23:19:34.922266  6049 layer_factory.hpp:77] Creating layer resx4_conv1_scale
I0813 23:19:34.922380  6049 net.cpp:141] Setting up resx4_conv1_scale
I0813 23:19:34.922389  6049 net.cpp:148] Top shape: 80 60 28 28 (3763200)
I0813 23:19:34.922391  6049 net.cpp:156] Memory required for data: 2301573440
I0813 23:19:34.922406  6049 layer_factory.hpp:77] Creating layer resx4_conv1_relu
I0813 23:19:34.922415  6049 net.cpp:91] Creating Layer resx4_conv1_relu
I0813 23:19:34.922417  6049 net.cpp:469] resx4_conv1_relu <- resx4_conv1
I0813 23:19:34.922422  6049 net.cpp:430] resx4_conv1_relu -> resx4_conv1 (in-place)
I0813 23:19:34.922576  6049 net.cpp:141] Setting up resx4_conv1_relu
I0813 23:19:34.922587  6049 net.cpp:148] Top shape: 80 60 28 28 (3763200)
I0813 23:19:34.922590  6049 net.cpp:156] Memory required for data: 2316626240
I0813 23:19:34.922595  6049 layer_factory.hpp:77] Creating layer shuffle4
I0813 23:19:34.922602  6049 net.cpp:91] Creating Layer shuffle4
I0813 23:19:34.922606  6049 net.cpp:469] shuffle4 <- resx4_conv1
I0813 23:19:34.922611  6049 net.cpp:443] shuffle4 -> shuffle4
I0813 23:19:34.922641  6049 net.cpp:141] Setting up shuffle4
I0813 23:19:34.922646  6049 net.cpp:148] Top shape: 80 60 28 28 (3763200)
I0813 23:19:34.922650  6049 net.cpp:156] Memory required for data: 2331679040
I0813 23:19:34.922658  6049 layer_factory.hpp:77] Creating layer resx4_conv2
I0813 23:19:34.922674  6049 net.cpp:91] Creating Layer resx4_conv2
I0813 23:19:34.922679  6049 net.cpp:469] resx4_conv2 <- shuffle4
I0813 23:19:34.922686  6049 net.cpp:443] resx4_conv2 -> resx4_conv2
I0813 23:19:34.922809  6049 net.cpp:141] Setting up resx4_conv2
I0813 23:19:34.922821  6049 net.cpp:148] Top shape: 80 60 28 28 (3763200)
I0813 23:19:34.922824  6049 net.cpp:156] Memory required for data: 2346731840
I0813 23:19:34.922830  6049 layer_factory.hpp:77] Creating layer resx4_conv2_bn
I0813 23:19:34.922839  6049 net.cpp:91] Creating Layer resx4_conv2_bn
I0813 23:19:34.922843  6049 net.cpp:469] resx4_conv2_bn <- resx4_conv2
I0813 23:19:34.922848  6049 net.cpp:430] resx4_conv2_bn -> resx4_conv2 (in-place)
I0813 23:19:34.923019  6049 net.cpp:141] Setting up resx4_conv2_bn
I0813 23:19:34.923027  6049 net.cpp:148] Top shape: 80 60 28 28 (3763200)
I0813 23:19:34.923030  6049 net.cpp:156] Memory required for data: 2361784640
I0813 23:19:34.923038  6049 layer_factory.hpp:77] Creating layer resx4_conv2_scale
I0813 23:19:34.923044  6049 net.cpp:91] Creating Layer resx4_conv2_scale
I0813 23:19:34.923048  6049 net.cpp:469] resx4_conv2_scale <- resx4_conv2
I0813 23:19:34.923053  6049 net.cpp:430] resx4_conv2_scale -> resx4_conv2 (in-place)
I0813 23:19:34.923094  6049 layer_factory.hpp:77] Creating layer resx4_conv2_scale
I0813 23:19:34.923202  6049 net.cpp:141] Setting up resx4_conv2_scale
I0813 23:19:34.923209  6049 net.cpp:148] Top shape: 80 60 28 28 (3763200)
I0813 23:19:34.923213  6049 net.cpp:156] Memory required for data: 2376837440
I0813 23:19:34.923219  6049 layer_factory.hpp:77] Creating layer resx4_conv3
I0813 23:19:34.923229  6049 net.cpp:91] Creating Layer resx4_conv3
I0813 23:19:34.923233  6049 net.cpp:469] resx4_conv3 <- resx4_conv2
I0813 23:19:34.923238  6049 net.cpp:443] resx4_conv3 -> resx4_conv3
I0813 23:19:34.925659  6049 net.cpp:141] Setting up resx4_conv3
I0813 23:19:34.925675  6049 net.cpp:148] Top shape: 80 240 28 28 (15052800)
I0813 23:19:34.925679  6049 net.cpp:156] Memory required for data: 2437048640
I0813 23:19:34.925685  6049 layer_factory.hpp:77] Creating layer resx4_conv3_bn
I0813 23:19:34.925694  6049 net.cpp:91] Creating Layer resx4_conv3_bn
I0813 23:19:34.925699  6049 net.cpp:469] resx4_conv3_bn <- resx4_conv3
I0813 23:19:34.925705  6049 net.cpp:430] resx4_conv3_bn -> resx4_conv3 (in-place)
I0813 23:19:34.925889  6049 net.cpp:141] Setting up resx4_conv3_bn
I0813 23:19:34.925897  6049 net.cpp:148] Top shape: 80 240 28 28 (15052800)
I0813 23:19:34.925901  6049 net.cpp:156] Memory required for data: 2497259840
I0813 23:19:34.925909  6049 layer_factory.hpp:77] Creating layer resx4_conv3_scale
I0813 23:19:34.925915  6049 net.cpp:91] Creating Layer resx4_conv3_scale
I0813 23:19:34.925920  6049 net.cpp:469] resx4_conv3_scale <- resx4_conv3
I0813 23:19:34.925925  6049 net.cpp:430] resx4_conv3_scale -> resx4_conv3 (in-place)
I0813 23:19:34.925966  6049 layer_factory.hpp:77] Creating layer resx4_conv3_scale
I0813 23:19:34.926074  6049 net.cpp:141] Setting up resx4_conv3_scale
I0813 23:19:34.926081  6049 net.cpp:148] Top shape: 80 240 28 28 (15052800)
I0813 23:19:34.926084  6049 net.cpp:156] Memory required for data: 2557471040
I0813 23:19:34.926090  6049 layer_factory.hpp:77] Creating layer resx4_elewise
I0813 23:19:34.926097  6049 net.cpp:91] Creating Layer resx4_elewise
I0813 23:19:34.926101  6049 net.cpp:469] resx4_elewise <- resx3_elewise_resx3_elewise_relu_0_split_1
I0813 23:19:34.926106  6049 net.cpp:469] resx4_elewise <- resx4_conv3
I0813 23:19:34.926111  6049 net.cpp:443] resx4_elewise -> resx4_elewise
I0813 23:19:34.926136  6049 net.cpp:141] Setting up resx4_elewise
I0813 23:19:34.926142  6049 net.cpp:148] Top shape: 80 240 28 28 (15052800)
I0813 23:19:34.926146  6049 net.cpp:156] Memory required for data: 2617682240
I0813 23:19:34.926151  6049 layer_factory.hpp:77] Creating layer resx4_elewise_relu
I0813 23:19:34.926158  6049 net.cpp:91] Creating Layer resx4_elewise_relu
I0813 23:19:34.926162  6049 net.cpp:469] resx4_elewise_relu <- resx4_elewise
I0813 23:19:34.926177  6049 net.cpp:430] resx4_elewise_relu -> resx4_elewise (in-place)
I0813 23:19:34.926496  6049 net.cpp:141] Setting up resx4_elewise_relu
I0813 23:19:34.926509  6049 net.cpp:148] Top shape: 80 240 28 28 (15052800)
I0813 23:19:34.926513  6049 net.cpp:156] Memory required for data: 2677893440
I0813 23:19:34.926517  6049 layer_factory.hpp:77] Creating layer resx4_elewise_resx4_elewise_relu_0_split
I0813 23:19:34.926524  6049 net.cpp:91] Creating Layer resx4_elewise_resx4_elewise_relu_0_split
I0813 23:19:34.926528  6049 net.cpp:469] resx4_elewise_resx4_elewise_relu_0_split <- resx4_elewise
I0813 23:19:34.926537  6049 net.cpp:443] resx4_elewise_resx4_elewise_relu_0_split -> resx4_elewise_resx4_elewise_relu_0_split_0
I0813 23:19:34.926547  6049 net.cpp:443] resx4_elewise_resx4_elewise_relu_0_split -> resx4_elewise_resx4_elewise_relu_0_split_1
I0813 23:19:34.926587  6049 net.cpp:141] Setting up resx4_elewise_resx4_elewise_relu_0_split
I0813 23:19:34.926594  6049 net.cpp:148] Top shape: 80 240 28 28 (15052800)
I0813 23:19:34.926599  6049 net.cpp:148] Top shape: 80 240 28 28 (15052800)
I0813 23:19:34.926602  6049 net.cpp:156] Memory required for data: 2798315840
I0813 23:19:34.926605  6049 layer_factory.hpp:77] Creating layer resx5_match_conv
I0813 23:19:34.926614  6049 net.cpp:91] Creating Layer resx5_match_conv
I0813 23:19:34.926617  6049 net.cpp:469] resx5_match_conv <- resx4_elewise_resx4_elewise_relu_0_split_0
I0813 23:19:34.926622  6049 net.cpp:443] resx5_match_conv -> resx5_match_conv
I0813 23:19:34.926959  6049 net.cpp:141] Setting up resx5_match_conv
I0813 23:19:34.926975  6049 net.cpp:148] Top shape: 80 240 14 14 (3763200)
I0813 23:19:34.926978  6049 net.cpp:156] Memory required for data: 2813368640
I0813 23:19:34.926982  6049 layer_factory.hpp:77] Creating layer resx5_conv1
I0813 23:19:34.926998  6049 net.cpp:91] Creating Layer resx5_conv1
I0813 23:19:34.927003  6049 net.cpp:469] resx5_conv1 <- resx4_elewise_resx4_elewise_relu_0_split_1
I0813 23:19:34.927012  6049 net.cpp:443] resx5_conv1 -> resx5_conv1
I0813 23:19:34.929584  6049 net.cpp:141] Setting up resx5_conv1
I0813 23:19:34.929601  6049 net.cpp:148] Top shape: 80 60 28 28 (3763200)
I0813 23:19:34.929607  6049 net.cpp:156] Memory required for data: 2828421440
I0813 23:19:34.929615  6049 layer_factory.hpp:77] Creating layer resx5_conv1_bn
I0813 23:19:34.929622  6049 net.cpp:91] Creating Layer resx5_conv1_bn
I0813 23:19:34.929627  6049 net.cpp:469] resx5_conv1_bn <- resx5_conv1
I0813 23:19:34.929635  6049 net.cpp:430] resx5_conv1_bn -> resx5_conv1 (in-place)
I0813 23:19:34.929821  6049 net.cpp:141] Setting up resx5_conv1_bn
I0813 23:19:34.929829  6049 net.cpp:148] Top shape: 80 60 28 28 (3763200)
I0813 23:19:34.929832  6049 net.cpp:156] Memory required for data: 2843474240
I0813 23:19:34.929839  6049 layer_factory.hpp:77] Creating layer resx5_conv1_scale
I0813 23:19:34.929847  6049 net.cpp:91] Creating Layer resx5_conv1_scale
I0813 23:19:34.929850  6049 net.cpp:469] resx5_conv1_scale <- resx5_conv1
I0813 23:19:34.929857  6049 net.cpp:430] resx5_conv1_scale -> resx5_conv1 (in-place)
I0813 23:19:34.929895  6049 layer_factory.hpp:77] Creating layer resx5_conv1_scale
I0813 23:19:34.930011  6049 net.cpp:141] Setting up resx5_conv1_scale
I0813 23:19:34.930018  6049 net.cpp:148] Top shape: 80 60 28 28 (3763200)
I0813 23:19:34.930022  6049 net.cpp:156] Memory required for data: 2858527040
I0813 23:19:34.930028  6049 layer_factory.hpp:77] Creating layer resx5_conv1_relu
I0813 23:19:34.930034  6049 net.cpp:91] Creating Layer resx5_conv1_relu
I0813 23:19:34.930038  6049 net.cpp:469] resx5_conv1_relu <- resx5_conv1
I0813 23:19:34.930044  6049 net.cpp:430] resx5_conv1_relu -> resx5_conv1 (in-place)
I0813 23:19:34.930207  6049 net.cpp:141] Setting up resx5_conv1_relu
I0813 23:19:34.930217  6049 net.cpp:148] Top shape: 80 60 28 28 (3763200)
I0813 23:19:34.930222  6049 net.cpp:156] Memory required for data: 2873579840
I0813 23:19:34.930225  6049 layer_factory.hpp:77] Creating layer shuffle5
I0813 23:19:34.930232  6049 net.cpp:91] Creating Layer shuffle5
I0813 23:19:34.930245  6049 net.cpp:469] shuffle5 <- resx5_conv1
I0813 23:19:34.930253  6049 net.cpp:443] shuffle5 -> shuffle5
I0813 23:19:34.930284  6049 net.cpp:141] Setting up shuffle5
I0813 23:19:34.930291  6049 net.cpp:148] Top shape: 80 60 28 28 (3763200)
I0813 23:19:34.930295  6049 net.cpp:156] Memory required for data: 2888632640
I0813 23:19:34.930299  6049 layer_factory.hpp:77] Creating layer resx5_conv2
I0813 23:19:34.930306  6049 net.cpp:91] Creating Layer resx5_conv2
I0813 23:19:34.930310  6049 net.cpp:469] resx5_conv2 <- shuffle5
I0813 23:19:34.930317  6049 net.cpp:443] resx5_conv2 -> resx5_conv2
I0813 23:19:34.930519  6049 net.cpp:141] Setting up resx5_conv2
I0813 23:19:34.930532  6049 net.cpp:148] Top shape: 80 60 14 14 (940800)
I0813 23:19:34.930536  6049 net.cpp:156] Memory required for data: 2892395840
I0813 23:19:34.930542  6049 layer_factory.hpp:77] Creating layer resx5_conv2_bn
I0813 23:19:34.930549  6049 net.cpp:91] Creating Layer resx5_conv2_bn
I0813 23:19:34.930553  6049 net.cpp:469] resx5_conv2_bn <- resx5_conv2
I0813 23:19:34.930560  6049 net.cpp:430] resx5_conv2_bn -> resx5_conv2 (in-place)
I0813 23:19:34.930734  6049 net.cpp:141] Setting up resx5_conv2_bn
I0813 23:19:34.930742  6049 net.cpp:148] Top shape: 80 60 14 14 (940800)
I0813 23:19:34.930745  6049 net.cpp:156] Memory required for data: 2896159040
I0813 23:19:34.930752  6049 layer_factory.hpp:77] Creating layer resx5_conv2_scale
I0813 23:19:34.930759  6049 net.cpp:91] Creating Layer resx5_conv2_scale
I0813 23:19:34.930763  6049 net.cpp:469] resx5_conv2_scale <- resx5_conv2
I0813 23:19:34.930770  6049 net.cpp:430] resx5_conv2_scale -> resx5_conv2 (in-place)
I0813 23:19:34.930807  6049 layer_factory.hpp:77] Creating layer resx5_conv2_scale
I0813 23:19:34.930917  6049 net.cpp:141] Setting up resx5_conv2_scale
I0813 23:19:34.930924  6049 net.cpp:148] Top shape: 80 60 14 14 (940800)
I0813 23:19:34.930927  6049 net.cpp:156] Memory required for data: 2899922240
I0813 23:19:34.930933  6049 layer_factory.hpp:77] Creating layer resx5_conv3
I0813 23:19:34.930943  6049 net.cpp:91] Creating Layer resx5_conv3
I0813 23:19:34.930948  6049 net.cpp:469] resx5_conv3 <- resx5_conv2
I0813 23:19:34.930955  6049 net.cpp:443] resx5_conv3 -> resx5_conv3
I0813 23:19:34.933792  6049 net.cpp:141] Setting up resx5_conv3
I0813 23:19:34.933810  6049 net.cpp:148] Top shape: 80 240 14 14 (3763200)
I0813 23:19:34.933815  6049 net.cpp:156] Memory required for data: 2914975040
I0813 23:19:34.933820  6049 layer_factory.hpp:77] Creating layer resx5_conv3_bn
I0813 23:19:34.933828  6049 net.cpp:91] Creating Layer resx5_conv3_bn
I0813 23:19:34.933832  6049 net.cpp:469] resx5_conv3_bn <- resx5_conv3
I0813 23:19:34.933840  6049 net.cpp:430] resx5_conv3_bn -> resx5_conv3 (in-place)
I0813 23:19:34.934026  6049 net.cpp:141] Setting up resx5_conv3_bn
I0813 23:19:34.934034  6049 net.cpp:148] Top shape: 80 240 14 14 (3763200)
I0813 23:19:34.934038  6049 net.cpp:156] Memory required for data: 2930027840
I0813 23:19:34.934046  6049 layer_factory.hpp:77] Creating layer resx5_conv3_scale
I0813 23:19:34.934052  6049 net.cpp:91] Creating Layer resx5_conv3_scale
I0813 23:19:34.934057  6049 net.cpp:469] resx5_conv3_scale <- resx5_conv3
I0813 23:19:34.934063  6049 net.cpp:430] resx5_conv3_scale -> resx5_conv3 (in-place)
I0813 23:19:34.934101  6049 layer_factory.hpp:77] Creating layer resx5_conv3_scale
I0813 23:19:34.934211  6049 net.cpp:141] Setting up resx5_conv3_scale
I0813 23:19:34.934219  6049 net.cpp:148] Top shape: 80 240 14 14 (3763200)
I0813 23:19:34.934223  6049 net.cpp:156] Memory required for data: 2945080640
I0813 23:19:34.934229  6049 layer_factory.hpp:77] Creating layer resx5_concat
I0813 23:19:34.934237  6049 net.cpp:91] Creating Layer resx5_concat
I0813 23:19:34.934240  6049 net.cpp:469] resx5_concat <- resx5_match_conv
I0813 23:19:34.934244  6049 net.cpp:469] resx5_concat <- resx5_conv3
I0813 23:19:34.934252  6049 net.cpp:443] resx5_concat -> resx5_concat
I0813 23:19:34.934276  6049 net.cpp:141] Setting up resx5_concat
I0813 23:19:34.934284  6049 net.cpp:148] Top shape: 80 480 14 14 (7526400)
I0813 23:19:34.934300  6049 net.cpp:156] Memory required for data: 2975186240
I0813 23:19:34.934304  6049 layer_factory.hpp:77] Creating layer resx5_concat_relu
I0813 23:19:34.934310  6049 net.cpp:91] Creating Layer resx5_concat_relu
I0813 23:19:34.934314  6049 net.cpp:469] resx5_concat_relu <- resx5_concat
I0813 23:19:34.934319  6049 net.cpp:430] resx5_concat_relu -> resx5_concat (in-place)
I0813 23:19:34.934481  6049 net.cpp:141] Setting up resx5_concat_relu
I0813 23:19:34.934491  6049 net.cpp:148] Top shape: 80 480 14 14 (7526400)
I0813 23:19:34.934494  6049 net.cpp:156] Memory required for data: 3005291840
I0813 23:19:34.934499  6049 layer_factory.hpp:77] Creating layer resx5_concat_resx5_concat_relu_0_split
I0813 23:19:34.934504  6049 net.cpp:91] Creating Layer resx5_concat_resx5_concat_relu_0_split
I0813 23:19:34.934509  6049 net.cpp:469] resx5_concat_resx5_concat_relu_0_split <- resx5_concat
I0813 23:19:34.934514  6049 net.cpp:443] resx5_concat_resx5_concat_relu_0_split -> resx5_concat_resx5_concat_relu_0_split_0
I0813 23:19:34.934522  6049 net.cpp:443] resx5_concat_resx5_concat_relu_0_split -> resx5_concat_resx5_concat_relu_0_split_1
I0813 23:19:34.934563  6049 net.cpp:141] Setting up resx5_concat_resx5_concat_relu_0_split
I0813 23:19:34.934571  6049 net.cpp:148] Top shape: 80 480 14 14 (7526400)
I0813 23:19:34.934576  6049 net.cpp:148] Top shape: 80 480 14 14 (7526400)
I0813 23:19:34.934578  6049 net.cpp:156] Memory required for data: 3065503040
I0813 23:19:34.934581  6049 layer_factory.hpp:77] Creating layer resx6_conv1
I0813 23:19:34.934592  6049 net.cpp:91] Creating Layer resx6_conv1
I0813 23:19:34.934597  6049 net.cpp:469] resx6_conv1 <- resx5_concat_resx5_concat_relu_0_split_0
I0813 23:19:34.934603  6049 net.cpp:443] resx6_conv1 -> resx6_conv1
I0813 23:19:34.938194  6049 net.cpp:141] Setting up resx6_conv1
I0813 23:19:34.938210  6049 net.cpp:148] Top shape: 80 120 14 14 (1881600)
I0813 23:19:34.938215  6049 net.cpp:156] Memory required for data: 3073029440
I0813 23:19:34.938221  6049 layer_factory.hpp:77] Creating layer resx6_conv1_bn
I0813 23:19:34.938231  6049 net.cpp:91] Creating Layer resx6_conv1_bn
I0813 23:19:34.938235  6049 net.cpp:469] resx6_conv1_bn <- resx6_conv1
I0813 23:19:34.938241  6049 net.cpp:430] resx6_conv1_bn -> resx6_conv1 (in-place)
I0813 23:19:34.938436  6049 net.cpp:141] Setting up resx6_conv1_bn
I0813 23:19:34.938443  6049 net.cpp:148] Top shape: 80 120 14 14 (1881600)
I0813 23:19:34.938446  6049 net.cpp:156] Memory required for data: 3080555840
I0813 23:19:34.938454  6049 layer_factory.hpp:77] Creating layer resx6_conv1_scale
I0813 23:19:34.938462  6049 net.cpp:91] Creating Layer resx6_conv1_scale
I0813 23:19:34.938465  6049 net.cpp:469] resx6_conv1_scale <- resx6_conv1
I0813 23:19:34.938470  6049 net.cpp:430] resx6_conv1_scale -> resx6_conv1 (in-place)
I0813 23:19:34.938513  6049 layer_factory.hpp:77] Creating layer resx6_conv1_scale
I0813 23:19:34.938628  6049 net.cpp:141] Setting up resx6_conv1_scale
I0813 23:19:34.938637  6049 net.cpp:148] Top shape: 80 120 14 14 (1881600)
I0813 23:19:34.938640  6049 net.cpp:156] Memory required for data: 3088082240
I0813 23:19:34.938647  6049 layer_factory.hpp:77] Creating layer resx6_conv1_relu
I0813 23:19:34.938652  6049 net.cpp:91] Creating Layer resx6_conv1_relu
I0813 23:19:34.938657  6049 net.cpp:469] resx6_conv1_relu <- resx6_conv1
I0813 23:19:34.938660  6049 net.cpp:430] resx6_conv1_relu -> resx6_conv1 (in-place)
I0813 23:19:34.938824  6049 net.cpp:141] Setting up resx6_conv1_relu
I0813 23:19:34.938834  6049 net.cpp:148] Top shape: 80 120 14 14 (1881600)
I0813 23:19:34.938838  6049 net.cpp:156] Memory required for data: 3095608640
I0813 23:19:34.938843  6049 layer_factory.hpp:77] Creating layer shuffle6
I0813 23:19:34.938848  6049 net.cpp:91] Creating Layer shuffle6
I0813 23:19:34.938853  6049 net.cpp:469] shuffle6 <- resx6_conv1
I0813 23:19:34.938859  6049 net.cpp:443] shuffle6 -> shuffle6
I0813 23:19:34.938889  6049 net.cpp:141] Setting up shuffle6
I0813 23:19:34.938897  6049 net.cpp:148] Top shape: 80 120 14 14 (1881600)
I0813 23:19:34.938910  6049 net.cpp:156] Memory required for data: 3103135040
I0813 23:19:34.938915  6049 layer_factory.hpp:77] Creating layer resx6_conv2
I0813 23:19:34.938922  6049 net.cpp:91] Creating Layer resx6_conv2
I0813 23:19:34.938926  6049 net.cpp:469] resx6_conv2 <- shuffle6
I0813 23:19:34.938933  6049 net.cpp:443] resx6_conv2 -> resx6_conv2
I0813 23:19:34.939076  6049 net.cpp:141] Setting up resx6_conv2
I0813 23:19:34.939090  6049 net.cpp:148] Top shape: 80 120 14 14 (1881600)
I0813 23:19:34.939093  6049 net.cpp:156] Memory required for data: 3110661440
I0813 23:19:34.939098  6049 layer_factory.hpp:77] Creating layer resx6_conv2_bn
I0813 23:19:34.939106  6049 net.cpp:91] Creating Layer resx6_conv2_bn
I0813 23:19:34.939110  6049 net.cpp:469] resx6_conv2_bn <- resx6_conv2
I0813 23:19:34.939117  6049 net.cpp:430] resx6_conv2_bn -> resx6_conv2 (in-place)
I0813 23:19:34.939301  6049 net.cpp:141] Setting up resx6_conv2_bn
I0813 23:19:34.939308  6049 net.cpp:148] Top shape: 80 120 14 14 (1881600)
I0813 23:19:34.939311  6049 net.cpp:156] Memory required for data: 3118187840
I0813 23:19:34.939318  6049 layer_factory.hpp:77] Creating layer resx6_conv2_scale
I0813 23:19:34.939326  6049 net.cpp:91] Creating Layer resx6_conv2_scale
I0813 23:19:34.939329  6049 net.cpp:469] resx6_conv2_scale <- resx6_conv2
I0813 23:19:34.939338  6049 net.cpp:430] resx6_conv2_scale -> resx6_conv2 (in-place)
I0813 23:19:34.939378  6049 layer_factory.hpp:77] Creating layer resx6_conv2_scale
I0813 23:19:34.939491  6049 net.cpp:141] Setting up resx6_conv2_scale
I0813 23:19:34.939499  6049 net.cpp:148] Top shape: 80 120 14 14 (1881600)
I0813 23:19:34.939503  6049 net.cpp:156] Memory required for data: 3125714240
I0813 23:19:34.939509  6049 layer_factory.hpp:77] Creating layer resx6_conv3
I0813 23:19:34.939519  6049 net.cpp:91] Creating Layer resx6_conv3
I0813 23:19:34.939523  6049 net.cpp:469] resx6_conv3 <- resx6_conv2
I0813 23:19:34.939530  6049 net.cpp:443] resx6_conv3 -> resx6_conv3
I0813 23:19:34.942829  6049 net.cpp:141] Setting up resx6_conv3
I0813 23:19:34.942845  6049 net.cpp:148] Top shape: 80 480 14 14 (7526400)
I0813 23:19:34.942850  6049 net.cpp:156] Memory required for data: 3155819840
I0813 23:19:34.942857  6049 layer_factory.hpp:77] Creating layer resx6_conv3_bn
I0813 23:19:34.942867  6049 net.cpp:91] Creating Layer resx6_conv3_bn
I0813 23:19:34.942872  6049 net.cpp:469] resx6_conv3_bn <- resx6_conv3
I0813 23:19:34.942878  6049 net.cpp:430] resx6_conv3_bn -> resx6_conv3 (in-place)
I0813 23:19:34.943084  6049 net.cpp:141] Setting up resx6_conv3_bn
I0813 23:19:34.943092  6049 net.cpp:148] Top shape: 80 480 14 14 (7526400)
I0813 23:19:34.943096  6049 net.cpp:156] Memory required for data: 3185925440
I0813 23:19:34.943104  6049 layer_factory.hpp:77] Creating layer resx6_conv3_scale
I0813 23:19:34.943110  6049 net.cpp:91] Creating Layer resx6_conv3_scale
I0813 23:19:34.943114  6049 net.cpp:469] resx6_conv3_scale <- resx6_conv3
I0813 23:19:34.943121  6049 net.cpp:430] resx6_conv3_scale -> resx6_conv3 (in-place)
I0813 23:19:34.943163  6049 layer_factory.hpp:77] Creating layer resx6_conv3_scale
I0813 23:19:34.943280  6049 net.cpp:141] Setting up resx6_conv3_scale
I0813 23:19:34.943289  6049 net.cpp:148] Top shape: 80 480 14 14 (7526400)
I0813 23:19:34.943292  6049 net.cpp:156] Memory required for data: 3216031040
I0813 23:19:34.943297  6049 layer_factory.hpp:77] Creating layer resx6_elewise
I0813 23:19:34.943305  6049 net.cpp:91] Creating Layer resx6_elewise
I0813 23:19:34.943308  6049 net.cpp:469] resx6_elewise <- resx5_concat_resx5_concat_relu_0_split_1
I0813 23:19:34.943313  6049 net.cpp:469] resx6_elewise <- resx6_conv3
I0813 23:19:34.943320  6049 net.cpp:443] resx6_elewise -> resx6_elewise
I0813 23:19:34.943346  6049 net.cpp:141] Setting up resx6_elewise
I0813 23:19:34.943356  6049 net.cpp:148] Top shape: 80 480 14 14 (7526400)
I0813 23:19:34.943358  6049 net.cpp:156] Memory required for data: 3246136640
I0813 23:19:34.943362  6049 layer_factory.hpp:77] Creating layer resx6_elewise_relu
I0813 23:19:34.943372  6049 net.cpp:91] Creating Layer resx6_elewise_relu
I0813 23:19:34.943382  6049 net.cpp:469] resx6_elewise_relu <- resx6_elewise
I0813 23:19:34.943387  6049 net.cpp:430] resx6_elewise_relu -> resx6_elewise (in-place)
I0813 23:19:34.943557  6049 net.cpp:141] Setting up resx6_elewise_relu
I0813 23:19:34.943567  6049 net.cpp:148] Top shape: 80 480 14 14 (7526400)
I0813 23:19:34.943570  6049 net.cpp:156] Memory required for data: 3276242240
I0813 23:19:34.943574  6049 layer_factory.hpp:77] Creating layer resx6_elewise_resx6_elewise_relu_0_split
I0813 23:19:34.943581  6049 net.cpp:91] Creating Layer resx6_elewise_resx6_elewise_relu_0_split
I0813 23:19:34.943585  6049 net.cpp:469] resx6_elewise_resx6_elewise_relu_0_split <- resx6_elewise
I0813 23:19:34.943590  6049 net.cpp:443] resx6_elewise_resx6_elewise_relu_0_split -> resx6_elewise_resx6_elewise_relu_0_split_0
I0813 23:19:34.943598  6049 net.cpp:443] resx6_elewise_resx6_elewise_relu_0_split -> resx6_elewise_resx6_elewise_relu_0_split_1
I0813 23:19:34.943641  6049 net.cpp:141] Setting up resx6_elewise_resx6_elewise_relu_0_split
I0813 23:19:34.943647  6049 net.cpp:148] Top shape: 80 480 14 14 (7526400)
I0813 23:19:34.943652  6049 net.cpp:148] Top shape: 80 480 14 14 (7526400)
I0813 23:19:34.943655  6049 net.cpp:156] Memory required for data: 3336453440
I0813 23:19:34.943660  6049 layer_factory.hpp:77] Creating layer resx7_conv1
I0813 23:19:34.943672  6049 net.cpp:91] Creating Layer resx7_conv1
I0813 23:19:34.943678  6049 net.cpp:469] resx7_conv1 <- resx6_elewise_resx6_elewise_relu_0_split_0
I0813 23:19:34.943683  6049 net.cpp:443] resx7_conv1 -> resx7_conv1
I0813 23:19:34.947243  6049 net.cpp:141] Setting up resx7_conv1
I0813 23:19:34.947259  6049 net.cpp:148] Top shape: 80 120 14 14 (1881600)
I0813 23:19:34.947263  6049 net.cpp:156] Memory required for data: 3343979840
I0813 23:19:34.947270  6049 layer_factory.hpp:77] Creating layer resx7_conv1_bn
I0813 23:19:34.947284  6049 net.cpp:91] Creating Layer resx7_conv1_bn
I0813 23:19:34.947289  6049 net.cpp:469] resx7_conv1_bn <- resx7_conv1
I0813 23:19:34.947295  6049 net.cpp:430] resx7_conv1_bn -> resx7_conv1 (in-place)
I0813 23:19:34.947495  6049 net.cpp:141] Setting up resx7_conv1_bn
I0813 23:19:34.947504  6049 net.cpp:148] Top shape: 80 120 14 14 (1881600)
I0813 23:19:34.947507  6049 net.cpp:156] Memory required for data: 3351506240
I0813 23:19:34.947515  6049 layer_factory.hpp:77] Creating layer resx7_conv1_scale
I0813 23:19:34.947521  6049 net.cpp:91] Creating Layer resx7_conv1_scale
I0813 23:19:34.947525  6049 net.cpp:469] resx7_conv1_scale <- resx7_conv1
I0813 23:19:34.947530  6049 net.cpp:430] resx7_conv1_scale -> resx7_conv1 (in-place)
I0813 23:19:34.947576  6049 layer_factory.hpp:77] Creating layer resx7_conv1_scale
I0813 23:19:34.947693  6049 net.cpp:141] Setting up resx7_conv1_scale
I0813 23:19:34.947703  6049 net.cpp:148] Top shape: 80 120 14 14 (1881600)
I0813 23:19:34.947706  6049 net.cpp:156] Memory required for data: 3359032640
I0813 23:19:34.947712  6049 layer_factory.hpp:77] Creating layer resx7_conv1_relu
I0813 23:19:34.947720  6049 net.cpp:91] Creating Layer resx7_conv1_relu
I0813 23:19:34.947723  6049 net.cpp:469] resx7_conv1_relu <- resx7_conv1
I0813 23:19:34.947727  6049 net.cpp:430] resx7_conv1_relu -> resx7_conv1 (in-place)
I0813 23:19:34.947887  6049 net.cpp:141] Setting up resx7_conv1_relu
I0813 23:19:34.947899  6049 net.cpp:148] Top shape: 80 120 14 14 (1881600)
I0813 23:19:34.947903  6049 net.cpp:156] Memory required for data: 3366559040
I0813 23:19:34.947907  6049 layer_factory.hpp:77] Creating layer shuffle7
I0813 23:19:34.947914  6049 net.cpp:91] Creating Layer shuffle7
I0813 23:19:34.947917  6049 net.cpp:469] shuffle7 <- resx7_conv1
I0813 23:19:34.947923  6049 net.cpp:443] shuffle7 -> shuffle7
I0813 23:19:34.947955  6049 net.cpp:141] Setting up shuffle7
I0813 23:19:34.947962  6049 net.cpp:148] Top shape: 80 120 14 14 (1881600)
I0813 23:19:34.947965  6049 net.cpp:156] Memory required for data: 3374085440
I0813 23:19:34.947969  6049 layer_factory.hpp:77] Creating layer resx7_conv2
I0813 23:19:34.947983  6049 net.cpp:91] Creating Layer resx7_conv2
I0813 23:19:34.947993  6049 net.cpp:469] resx7_conv2 <- shuffle7
I0813 23:19:34.947999  6049 net.cpp:443] resx7_conv2 -> resx7_conv2
I0813 23:19:34.948148  6049 net.cpp:141] Setting up resx7_conv2
I0813 23:19:34.948158  6049 net.cpp:148] Top shape: 80 120 14 14 (1881600)
I0813 23:19:34.948163  6049 net.cpp:156] Memory required for data: 3381611840
I0813 23:19:34.948168  6049 layer_factory.hpp:77] Creating layer resx7_conv2_bn
I0813 23:19:34.948177  6049 net.cpp:91] Creating Layer resx7_conv2_bn
I0813 23:19:34.948181  6049 net.cpp:469] resx7_conv2_bn <- resx7_conv2
I0813 23:19:34.948186  6049 net.cpp:430] resx7_conv2_bn -> resx7_conv2 (in-place)
I0813 23:19:34.948388  6049 net.cpp:141] Setting up resx7_conv2_bn
I0813 23:19:34.948396  6049 net.cpp:148] Top shape: 80 120 14 14 (1881600)
I0813 23:19:34.948400  6049 net.cpp:156] Memory required for data: 3389138240
I0813 23:19:34.948407  6049 layer_factory.hpp:77] Creating layer resx7_conv2_scale
I0813 23:19:34.948415  6049 net.cpp:91] Creating Layer resx7_conv2_scale
I0813 23:19:34.948418  6049 net.cpp:469] resx7_conv2_scale <- resx7_conv2
I0813 23:19:34.948423  6049 net.cpp:430] resx7_conv2_scale -> resx7_conv2 (in-place)
I0813 23:19:34.948467  6049 layer_factory.hpp:77] Creating layer resx7_conv2_scale
I0813 23:19:34.948587  6049 net.cpp:141] Setting up resx7_conv2_scale
I0813 23:19:34.948595  6049 net.cpp:148] Top shape: 80 120 14 14 (1881600)
I0813 23:19:34.948598  6049 net.cpp:156] Memory required for data: 3396664640
I0813 23:19:34.948604  6049 layer_factory.hpp:77] Creating layer resx7_conv3
I0813 23:19:34.948614  6049 net.cpp:91] Creating Layer resx7_conv3
I0813 23:19:34.948619  6049 net.cpp:469] resx7_conv3 <- resx7_conv2
I0813 23:19:34.948624  6049 net.cpp:443] resx7_conv3 -> resx7_conv3
I0813 23:19:34.951928  6049 net.cpp:141] Setting up resx7_conv3
I0813 23:19:34.951944  6049 net.cpp:148] Top shape: 80 480 14 14 (7526400)
I0813 23:19:34.951948  6049 net.cpp:156] Memory required for data: 3426770240
I0813 23:19:34.951956  6049 layer_factory.hpp:77] Creating layer resx7_conv3_bn
I0813 23:19:34.951964  6049 net.cpp:91] Creating Layer resx7_conv3_bn
I0813 23:19:34.951969  6049 net.cpp:469] resx7_conv3_bn <- resx7_conv3
I0813 23:19:34.951977  6049 net.cpp:430] resx7_conv3_bn -> resx7_conv3 (in-place)
I0813 23:19:34.952184  6049 net.cpp:141] Setting up resx7_conv3_bn
I0813 23:19:34.952193  6049 net.cpp:148] Top shape: 80 480 14 14 (7526400)
I0813 23:19:34.952196  6049 net.cpp:156] Memory required for data: 3456875840
I0813 23:19:34.952216  6049 layer_factory.hpp:77] Creating layer resx7_conv3_scale
I0813 23:19:34.952224  6049 net.cpp:91] Creating Layer resx7_conv3_scale
I0813 23:19:34.952229  6049 net.cpp:469] resx7_conv3_scale <- resx7_conv3
I0813 23:19:34.952235  6049 net.cpp:430] resx7_conv3_scale -> resx7_conv3 (in-place)
I0813 23:19:34.952282  6049 layer_factory.hpp:77] Creating layer resx7_conv3_scale
I0813 23:19:34.952405  6049 net.cpp:141] Setting up resx7_conv3_scale
I0813 23:19:34.952414  6049 net.cpp:148] Top shape: 80 480 14 14 (7526400)
I0813 23:19:34.952416  6049 net.cpp:156] Memory required for data: 3486981440
I0813 23:19:34.952422  6049 layer_factory.hpp:77] Creating layer resx7_elewise
I0813 23:19:34.952431  6049 net.cpp:91] Creating Layer resx7_elewise
I0813 23:19:34.952435  6049 net.cpp:469] resx7_elewise <- resx6_elewise_resx6_elewise_relu_0_split_1
I0813 23:19:34.952440  6049 net.cpp:469] resx7_elewise <- resx7_conv3
I0813 23:19:34.952445  6049 net.cpp:443] resx7_elewise -> resx7_elewise
I0813 23:19:34.952476  6049 net.cpp:141] Setting up resx7_elewise
I0813 23:19:34.952483  6049 net.cpp:148] Top shape: 80 480 14 14 (7526400)
I0813 23:19:34.952487  6049 net.cpp:156] Memory required for data: 3517087040
I0813 23:19:34.952491  6049 layer_factory.hpp:77] Creating layer resx7_elewise_relu
I0813 23:19:34.952497  6049 net.cpp:91] Creating Layer resx7_elewise_relu
I0813 23:19:34.952500  6049 net.cpp:469] resx7_elewise_relu <- resx7_elewise
I0813 23:19:34.952507  6049 net.cpp:430] resx7_elewise_relu -> resx7_elewise (in-place)
I0813 23:19:34.952687  6049 net.cpp:141] Setting up resx7_elewise_relu
I0813 23:19:34.952697  6049 net.cpp:148] Top shape: 80 480 14 14 (7526400)
I0813 23:19:34.952700  6049 net.cpp:156] Memory required for data: 3547192640
I0813 23:19:34.952704  6049 layer_factory.hpp:77] Creating layer resx7_elewise_resx7_elewise_relu_0_split
I0813 23:19:34.952711  6049 net.cpp:91] Creating Layer resx7_elewise_resx7_elewise_relu_0_split
I0813 23:19:34.952715  6049 net.cpp:469] resx7_elewise_resx7_elewise_relu_0_split <- resx7_elewise
I0813 23:19:34.952723  6049 net.cpp:443] resx7_elewise_resx7_elewise_relu_0_split -> resx7_elewise_resx7_elewise_relu_0_split_0
I0813 23:19:34.952729  6049 net.cpp:443] resx7_elewise_resx7_elewise_relu_0_split -> resx7_elewise_resx7_elewise_relu_0_split_1
I0813 23:19:34.952774  6049 net.cpp:141] Setting up resx7_elewise_resx7_elewise_relu_0_split
I0813 23:19:34.952780  6049 net.cpp:148] Top shape: 80 480 14 14 (7526400)
I0813 23:19:34.952785  6049 net.cpp:148] Top shape: 80 480 14 14 (7526400)
I0813 23:19:34.952787  6049 net.cpp:156] Memory required for data: 3607403840
I0813 23:19:34.952791  6049 layer_factory.hpp:77] Creating layer resx8_conv1
I0813 23:19:34.952803  6049 net.cpp:91] Creating Layer resx8_conv1
I0813 23:19:34.952807  6049 net.cpp:469] resx8_conv1 <- resx7_elewise_resx7_elewise_relu_0_split_0
I0813 23:19:34.952813  6049 net.cpp:443] resx8_conv1 -> resx8_conv1
I0813 23:19:34.956259  6049 net.cpp:141] Setting up resx8_conv1
I0813 23:19:34.956276  6049 net.cpp:148] Top shape: 80 120 14 14 (1881600)
I0813 23:19:34.956280  6049 net.cpp:156] Memory required for data: 3614930240
I0813 23:19:34.956286  6049 layer_factory.hpp:77] Creating layer resx8_conv1_bn
I0813 23:19:34.956296  6049 net.cpp:91] Creating Layer resx8_conv1_bn
I0813 23:19:34.956301  6049 net.cpp:469] resx8_conv1_bn <- resx8_conv1
I0813 23:19:34.956308  6049 net.cpp:430] resx8_conv1_bn -> resx8_conv1 (in-place)
I0813 23:19:34.956512  6049 net.cpp:141] Setting up resx8_conv1_bn
I0813 23:19:34.956521  6049 net.cpp:148] Top shape: 80 120 14 14 (1881600)
I0813 23:19:34.956524  6049 net.cpp:156] Memory required for data: 3622456640
I0813 23:19:34.956532  6049 layer_factory.hpp:77] Creating layer resx8_conv1_scale
I0813 23:19:34.956540  6049 net.cpp:91] Creating Layer resx8_conv1_scale
I0813 23:19:34.956544  6049 net.cpp:469] resx8_conv1_scale <- resx8_conv1
I0813 23:19:34.956549  6049 net.cpp:430] resx8_conv1_scale -> resx8_conv1 (in-place)
I0813 23:19:34.956594  6049 layer_factory.hpp:77] Creating layer resx8_conv1_scale
I0813 23:19:34.956714  6049 net.cpp:141] Setting up resx8_conv1_scale
I0813 23:19:34.956722  6049 net.cpp:148] Top shape: 80 120 14 14 (1881600)
I0813 23:19:34.956727  6049 net.cpp:156] Memory required for data: 3629983040
I0813 23:19:34.956732  6049 layer_factory.hpp:77] Creating layer resx8_conv1_relu
I0813 23:19:34.956738  6049 net.cpp:91] Creating Layer resx8_conv1_relu
I0813 23:19:34.956743  6049 net.cpp:469] resx8_conv1_relu <- resx8_conv1
I0813 23:19:34.956749  6049 net.cpp:430] resx8_conv1_relu -> resx8_conv1 (in-place)
I0813 23:19:34.956917  6049 net.cpp:141] Setting up resx8_conv1_relu
I0813 23:19:34.956928  6049 net.cpp:148] Top shape: 80 120 14 14 (1881600)
I0813 23:19:34.956930  6049 net.cpp:156] Memory required for data: 3637509440
I0813 23:19:34.956934  6049 layer_factory.hpp:77] Creating layer shuffle8
I0813 23:19:34.956943  6049 net.cpp:91] Creating Layer shuffle8
I0813 23:19:34.956948  6049 net.cpp:469] shuffle8 <- resx8_conv1
I0813 23:19:34.956954  6049 net.cpp:443] shuffle8 -> shuffle8
I0813 23:19:34.956985  6049 net.cpp:141] Setting up shuffle8
I0813 23:19:34.956995  6049 net.cpp:148] Top shape: 80 120 14 14 (1881600)
I0813 23:19:34.956997  6049 net.cpp:156] Memory required for data: 3645035840
I0813 23:19:34.957001  6049 layer_factory.hpp:77] Creating layer resx8_conv2
I0813 23:19:34.957008  6049 net.cpp:91] Creating Layer resx8_conv2
I0813 23:19:34.957015  6049 net.cpp:469] resx8_conv2 <- shuffle8
I0813 23:19:34.957020  6049 net.cpp:443] resx8_conv2 -> resx8_conv2
I0813 23:19:34.957542  6049 net.cpp:141] Setting up resx8_conv2
I0813 23:19:34.957566  6049 net.cpp:148] Top shape: 80 120 14 14 (1881600)
I0813 23:19:34.957569  6049 net.cpp:156] Memory required for data: 3652562240
I0813 23:19:34.957576  6049 layer_factory.hpp:77] Creating layer resx8_conv2_bn
I0813 23:19:34.957582  6049 net.cpp:91] Creating Layer resx8_conv2_bn
I0813 23:19:34.957587  6049 net.cpp:469] resx8_conv2_bn <- resx8_conv2
I0813 23:19:34.957595  6049 net.cpp:430] resx8_conv2_bn -> resx8_conv2 (in-place)
I0813 23:19:34.957804  6049 net.cpp:141] Setting up resx8_conv2_bn
I0813 23:19:34.957813  6049 net.cpp:148] Top shape: 80 120 14 14 (1881600)
I0813 23:19:34.957815  6049 net.cpp:156] Memory required for data: 3660088640
I0813 23:19:34.957823  6049 layer_factory.hpp:77] Creating layer resx8_conv2_scale
I0813 23:19:34.957830  6049 net.cpp:91] Creating Layer resx8_conv2_scale
I0813 23:19:34.957834  6049 net.cpp:469] resx8_conv2_scale <- resx8_conv2
I0813 23:19:34.957841  6049 net.cpp:430] resx8_conv2_scale -> resx8_conv2 (in-place)
I0813 23:19:34.957885  6049 layer_factory.hpp:77] Creating layer resx8_conv2_scale
I0813 23:19:34.958005  6049 net.cpp:141] Setting up resx8_conv2_scale
I0813 23:19:34.958014  6049 net.cpp:148] Top shape: 80 120 14 14 (1881600)
I0813 23:19:34.958017  6049 net.cpp:156] Memory required for data: 3667615040
I0813 23:19:34.958024  6049 layer_factory.hpp:77] Creating layer resx8_conv3
I0813 23:19:34.958034  6049 net.cpp:91] Creating Layer resx8_conv3
I0813 23:19:34.958037  6049 net.cpp:469] resx8_conv3 <- resx8_conv2
I0813 23:19:34.958045  6049 net.cpp:443] resx8_conv3 -> resx8_conv3
I0813 23:19:34.961025  6049 net.cpp:141] Setting up resx8_conv3
I0813 23:19:34.961040  6049 net.cpp:148] Top shape: 80 480 14 14 (7526400)
I0813 23:19:34.961045  6049 net.cpp:156] Memory required for data: 3697720640
I0813 23:19:34.961050  6049 layer_factory.hpp:77] Creating layer resx8_conv3_bn
I0813 23:19:34.961061  6049 net.cpp:91] Creating Layer resx8_conv3_bn
I0813 23:19:34.961066  6049 net.cpp:469] resx8_conv3_bn <- resx8_conv3
I0813 23:19:34.961071  6049 net.cpp:430] resx8_conv3_bn -> resx8_conv3 (in-place)
I0813 23:19:34.961287  6049 net.cpp:141] Setting up resx8_conv3_bn
I0813 23:19:34.961297  6049 net.cpp:148] Top shape: 80 480 14 14 (7526400)
I0813 23:19:34.961299  6049 net.cpp:156] Memory required for data: 3727826240
I0813 23:19:34.961308  6049 layer_factory.hpp:77] Creating layer resx8_conv3_scale
I0813 23:19:34.961316  6049 net.cpp:91] Creating Layer resx8_conv3_scale
I0813 23:19:34.961320  6049 net.cpp:469] resx8_conv3_scale <- resx8_conv3
I0813 23:19:34.961325  6049 net.cpp:430] resx8_conv3_scale -> resx8_conv3 (in-place)
I0813 23:19:34.961372  6049 layer_factory.hpp:77] Creating layer resx8_conv3_scale
I0813 23:19:34.961498  6049 net.cpp:141] Setting up resx8_conv3_scale
I0813 23:19:34.961505  6049 net.cpp:148] Top shape: 80 480 14 14 (7526400)
I0813 23:19:34.961508  6049 net.cpp:156] Memory required for data: 3757931840
I0813 23:19:34.961514  6049 layer_factory.hpp:77] Creating layer resx8_elewise
I0813 23:19:34.961527  6049 net.cpp:91] Creating Layer resx8_elewise
I0813 23:19:34.961532  6049 net.cpp:469] resx8_elewise <- resx7_elewise_resx7_elewise_relu_0_split_1
I0813 23:19:34.961537  6049 net.cpp:469] resx8_elewise <- resx8_conv3
I0813 23:19:34.961542  6049 net.cpp:443] resx8_elewise -> resx8_elewise
I0813 23:19:34.961572  6049 net.cpp:141] Setting up resx8_elewise
I0813 23:19:34.961578  6049 net.cpp:148] Top shape: 80 480 14 14 (7526400)
I0813 23:19:34.961582  6049 net.cpp:156] Memory required for data: 3788037440
I0813 23:19:34.961585  6049 layer_factory.hpp:77] Creating layer resx8_elewise_relu
I0813 23:19:34.961591  6049 net.cpp:91] Creating Layer resx8_elewise_relu
I0813 23:19:34.961596  6049 net.cpp:469] resx8_elewise_relu <- resx8_elewise
I0813 23:19:34.961602  6049 net.cpp:430] resx8_elewise_relu -> resx8_elewise (in-place)
I0813 23:19:34.961935  6049 net.cpp:141] Setting up resx8_elewise_relu
I0813 23:19:34.961947  6049 net.cpp:148] Top shape: 80 480 14 14 (7526400)
I0813 23:19:34.961956  6049 net.cpp:156] Memory required for data: 3818143040
I0813 23:19:34.961966  6049 layer_factory.hpp:77] Creating layer resx8_elewise_resx8_elewise_relu_0_split
I0813 23:19:34.961975  6049 net.cpp:91] Creating Layer resx8_elewise_resx8_elewise_relu_0_split
I0813 23:19:34.961980  6049 net.cpp:469] resx8_elewise_resx8_elewise_relu_0_split <- resx8_elewise
I0813 23:19:34.961985  6049 net.cpp:443] resx8_elewise_resx8_elewise_relu_0_split -> resx8_elewise_resx8_elewise_relu_0_split_0
I0813 23:19:34.961992  6049 net.cpp:443] resx8_elewise_resx8_elewise_relu_0_split -> resx8_elewise_resx8_elewise_relu_0_split_1
I0813 23:19:34.962041  6049 net.cpp:141] Setting up resx8_elewise_resx8_elewise_relu_0_split
I0813 23:19:34.962049  6049 net.cpp:148] Top shape: 80 480 14 14 (7526400)
I0813 23:19:34.962054  6049 net.cpp:148] Top shape: 80 480 14 14 (7526400)
I0813 23:19:34.962056  6049 net.cpp:156] Memory required for data: 3878354240
I0813 23:19:34.962060  6049 layer_factory.hpp:77] Creating layer resx9_conv1
I0813 23:19:34.962071  6049 net.cpp:91] Creating Layer resx9_conv1
I0813 23:19:34.962076  6049 net.cpp:469] resx9_conv1 <- resx8_elewise_resx8_elewise_relu_0_split_0
I0813 23:19:34.962081  6049 net.cpp:443] resx9_conv1 -> resx9_conv1
I0813 23:19:34.965046  6049 net.cpp:141] Setting up resx9_conv1
I0813 23:19:34.965064  6049 net.cpp:148] Top shape: 80 120 14 14 (1881600)
I0813 23:19:34.965067  6049 net.cpp:156] Memory required for data: 3885880640
I0813 23:19:34.965073  6049 layer_factory.hpp:77] Creating layer resx9_conv1_bn
I0813 23:19:34.965255  6049 net.cpp:91] Creating Layer resx9_conv1_bn
I0813 23:19:34.965266  6049 net.cpp:469] resx9_conv1_bn <- resx9_conv1
I0813 23:19:34.965272  6049 net.cpp:430] resx9_conv1_bn -> resx9_conv1 (in-place)
I0813 23:19:34.965487  6049 net.cpp:141] Setting up resx9_conv1_bn
I0813 23:19:34.965497  6049 net.cpp:148] Top shape: 80 120 14 14 (1881600)
I0813 23:19:34.965500  6049 net.cpp:156] Memory required for data: 3893407040
I0813 23:19:34.965507  6049 layer_factory.hpp:77] Creating layer resx9_conv1_scale
I0813 23:19:34.965514  6049 net.cpp:91] Creating Layer resx9_conv1_scale
I0813 23:19:34.965519  6049 net.cpp:469] resx9_conv1_scale <- resx9_conv1
I0813 23:19:34.965523  6049 net.cpp:430] resx9_conv1_scale -> resx9_conv1 (in-place)
I0813 23:19:34.965571  6049 layer_factory.hpp:77] Creating layer resx9_conv1_scale
I0813 23:19:34.965692  6049 net.cpp:141] Setting up resx9_conv1_scale
I0813 23:19:34.965703  6049 net.cpp:148] Top shape: 80 120 14 14 (1881600)
I0813 23:19:34.965705  6049 net.cpp:156] Memory required for data: 3900933440
I0813 23:19:34.965713  6049 layer_factory.hpp:77] Creating layer resx9_conv1_relu
I0813 23:19:34.965718  6049 net.cpp:91] Creating Layer resx9_conv1_relu
I0813 23:19:34.965723  6049 net.cpp:469] resx9_conv1_relu <- resx9_conv1
I0813 23:19:34.965726  6049 net.cpp:430] resx9_conv1_relu -> resx9_conv1 (in-place)
I0813 23:19:34.966070  6049 net.cpp:141] Setting up resx9_conv1_relu
I0813 23:19:34.966084  6049 net.cpp:148] Top shape: 80 120 14 14 (1881600)
I0813 23:19:34.966089  6049 net.cpp:156] Memory required for data: 3908459840
I0813 23:19:34.966092  6049 layer_factory.hpp:77] Creating layer shuffle9
I0813 23:19:34.966101  6049 net.cpp:91] Creating Layer shuffle9
I0813 23:19:34.966105  6049 net.cpp:469] shuffle9 <- resx9_conv1
I0813 23:19:34.966111  6049 net.cpp:443] shuffle9 -> shuffle9
I0813 23:19:34.966151  6049 net.cpp:141] Setting up shuffle9
I0813 23:19:34.966162  6049 net.cpp:148] Top shape: 80 120 14 14 (1881600)
I0813 23:19:34.966166  6049 net.cpp:156] Memory required for data: 3915986240
I0813 23:19:34.966169  6049 layer_factory.hpp:77] Creating layer resx9_conv2
I0813 23:19:34.966177  6049 net.cpp:91] Creating Layer resx9_conv2
I0813 23:19:34.966183  6049 net.cpp:469] resx9_conv2 <- shuffle9
I0813 23:19:34.966189  6049 net.cpp:443] resx9_conv2 -> resx9_conv2
I0813 23:19:34.966341  6049 net.cpp:141] Setting up resx9_conv2
I0813 23:19:34.966352  6049 net.cpp:148] Top shape: 80 120 14 14 (1881600)
I0813 23:19:34.966356  6049 net.cpp:156] Memory required for data: 3923512640
I0813 23:19:34.966367  6049 layer_factory.hpp:77] Creating layer resx9_conv2_bn
I0813 23:19:34.966380  6049 net.cpp:91] Creating Layer resx9_conv2_bn
I0813 23:19:34.966387  6049 net.cpp:469] resx9_conv2_bn <- resx9_conv2
I0813 23:19:34.966392  6049 net.cpp:430] resx9_conv2_bn -> resx9_conv2 (in-place)
I0813 23:19:34.966593  6049 net.cpp:141] Setting up resx9_conv2_bn
I0813 23:19:34.966601  6049 net.cpp:148] Top shape: 80 120 14 14 (1881600)
I0813 23:19:34.966605  6049 net.cpp:156] Memory required for data: 3931039040
I0813 23:19:34.966612  6049 layer_factory.hpp:77] Creating layer resx9_conv2_scale
I0813 23:19:34.966619  6049 net.cpp:91] Creating Layer resx9_conv2_scale
I0813 23:19:34.966624  6049 net.cpp:469] resx9_conv2_scale <- resx9_conv2
I0813 23:19:34.966629  6049 net.cpp:430] resx9_conv2_scale -> resx9_conv2 (in-place)
I0813 23:19:34.966675  6049 layer_factory.hpp:77] Creating layer resx9_conv2_scale
I0813 23:19:34.966796  6049 net.cpp:141] Setting up resx9_conv2_scale
I0813 23:19:34.966804  6049 net.cpp:148] Top shape: 80 120 14 14 (1881600)
I0813 23:19:34.966807  6049 net.cpp:156] Memory required for data: 3938565440
I0813 23:19:34.966814  6049 layer_factory.hpp:77] Creating layer resx9_conv3
I0813 23:19:34.966835  6049 net.cpp:91] Creating Layer resx9_conv3
I0813 23:19:34.966840  6049 net.cpp:469] resx9_conv3 <- resx9_conv2
I0813 23:19:34.966846  6049 net.cpp:443] resx9_conv3 -> resx9_conv3
I0813 23:19:34.970229  6049 net.cpp:141] Setting up resx9_conv3
I0813 23:19:34.970245  6049 net.cpp:148] Top shape: 80 480 14 14 (7526400)
I0813 23:19:34.970250  6049 net.cpp:156] Memory required for data: 3968671040
I0813 23:19:34.970257  6049 layer_factory.hpp:77] Creating layer resx9_conv3_bn
I0813 23:19:34.970266  6049 net.cpp:91] Creating Layer resx9_conv3_bn
I0813 23:19:34.970271  6049 net.cpp:469] resx9_conv3_bn <- resx9_conv3
I0813 23:19:34.970278  6049 net.cpp:430] resx9_conv3_bn -> resx9_conv3 (in-place)
I0813 23:19:34.970494  6049 net.cpp:141] Setting up resx9_conv3_bn
I0813 23:19:34.970502  6049 net.cpp:148] Top shape: 80 480 14 14 (7526400)
I0813 23:19:34.970506  6049 net.cpp:156] Memory required for data: 3998776640
I0813 23:19:34.970513  6049 layer_factory.hpp:77] Creating layer resx9_conv3_scale
I0813 23:19:34.970523  6049 net.cpp:91] Creating Layer resx9_conv3_scale
I0813 23:19:34.970527  6049 net.cpp:469] resx9_conv3_scale <- resx9_conv3
I0813 23:19:34.970532  6049 net.cpp:430] resx9_conv3_scale -> resx9_conv3 (in-place)
I0813 23:19:34.970585  6049 layer_factory.hpp:77] Creating layer resx9_conv3_scale
I0813 23:19:34.970713  6049 net.cpp:141] Setting up resx9_conv3_scale
I0813 23:19:34.970721  6049 net.cpp:148] Top shape: 80 480 14 14 (7526400)
I0813 23:19:34.970726  6049 net.cpp:156] Memory required for data: 4028882240
I0813 23:19:34.970731  6049 layer_factory.hpp:77] Creating layer resx9_elewise
I0813 23:19:34.970741  6049 net.cpp:91] Creating Layer resx9_elewise
I0813 23:19:34.970744  6049 net.cpp:469] resx9_elewise <- resx8_elewise_resx8_elewise_relu_0_split_1
I0813 23:19:34.970749  6049 net.cpp:469] resx9_elewise <- resx9_conv3
I0813 23:19:34.970754  6049 net.cpp:443] resx9_elewise -> resx9_elewise
I0813 23:19:34.970782  6049 net.cpp:141] Setting up resx9_elewise
I0813 23:19:34.970788  6049 net.cpp:148] Top shape: 80 480 14 14 (7526400)
I0813 23:19:34.970793  6049 net.cpp:156] Memory required for data: 4058987840
I0813 23:19:34.970795  6049 layer_factory.hpp:77] Creating layer resx9_elewise_relu
I0813 23:19:34.970803  6049 net.cpp:91] Creating Layer resx9_elewise_relu
I0813 23:19:34.970808  6049 net.cpp:469] resx9_elewise_relu <- resx9_elewise
I0813 23:19:34.970813  6049 net.cpp:430] resx9_elewise_relu -> resx9_elewise (in-place)
I0813 23:19:34.971325  6049 net.cpp:141] Setting up resx9_elewise_relu
I0813 23:19:34.971339  6049 net.cpp:148] Top shape: 80 480 14 14 (7526400)
I0813 23:19:34.971343  6049 net.cpp:156] Memory required for data: 4089093440
I0813 23:19:34.971348  6049 layer_factory.hpp:77] Creating layer resx9_elewise_resx9_elewise_relu_0_split
I0813 23:19:34.971360  6049 net.cpp:91] Creating Layer resx9_elewise_resx9_elewise_relu_0_split
I0813 23:19:34.971371  6049 net.cpp:469] resx9_elewise_resx9_elewise_relu_0_split <- resx9_elewise
I0813 23:19:34.971379  6049 net.cpp:443] resx9_elewise_resx9_elewise_relu_0_split -> resx9_elewise_resx9_elewise_relu_0_split_0
I0813 23:19:34.971387  6049 net.cpp:443] resx9_elewise_resx9_elewise_relu_0_split -> resx9_elewise_resx9_elewise_relu_0_split_1
I0813 23:19:34.971436  6049 net.cpp:141] Setting up resx9_elewise_resx9_elewise_relu_0_split
I0813 23:19:34.971444  6049 net.cpp:148] Top shape: 80 480 14 14 (7526400)
I0813 23:19:34.971448  6049 net.cpp:148] Top shape: 80 480 14 14 (7526400)
I0813 23:19:34.971451  6049 net.cpp:156] Memory required for data: 4149304640
I0813 23:19:34.971456  6049 layer_factory.hpp:77] Creating layer resx10_conv1
I0813 23:19:34.971465  6049 net.cpp:91] Creating Layer resx10_conv1
I0813 23:19:34.971470  6049 net.cpp:469] resx10_conv1 <- resx9_elewise_resx9_elewise_relu_0_split_0
I0813 23:19:34.971477  6049 net.cpp:443] resx10_conv1 -> resx10_conv1
I0813 23:19:34.974640  6049 net.cpp:141] Setting up resx10_conv1
I0813 23:19:34.974656  6049 net.cpp:148] Top shape: 80 120 14 14 (1881600)
I0813 23:19:34.974661  6049 net.cpp:156] Memory required for data: 4156831040
I0813 23:19:34.974668  6049 layer_factory.hpp:77] Creating layer resx10_conv1_bn
I0813 23:19:34.974676  6049 net.cpp:91] Creating Layer resx10_conv1_bn
I0813 23:19:34.974683  6049 net.cpp:469] resx10_conv1_bn <- resx10_conv1
I0813 23:19:34.974690  6049 net.cpp:430] resx10_conv1_bn -> resx10_conv1 (in-place)
I0813 23:19:34.974902  6049 net.cpp:141] Setting up resx10_conv1_bn
I0813 23:19:34.974911  6049 net.cpp:148] Top shape: 80 120 14 14 (1881600)
I0813 23:19:34.974915  6049 net.cpp:156] Memory required for data: 4164357440
I0813 23:19:34.974921  6049 layer_factory.hpp:77] Creating layer resx10_conv1_scale
I0813 23:19:34.974931  6049 net.cpp:91] Creating Layer resx10_conv1_scale
I0813 23:19:34.974936  6049 net.cpp:469] resx10_conv1_scale <- resx10_conv1
I0813 23:19:34.974941  6049 net.cpp:430] resx10_conv1_scale -> resx10_conv1 (in-place)
I0813 23:19:34.974987  6049 layer_factory.hpp:77] Creating layer resx10_conv1_scale
I0813 23:19:34.975116  6049 net.cpp:141] Setting up resx10_conv1_scale
I0813 23:19:34.975123  6049 net.cpp:148] Top shape: 80 120 14 14 (1881600)
I0813 23:19:34.975127  6049 net.cpp:156] Memory required for data: 4171883840
I0813 23:19:34.975133  6049 layer_factory.hpp:77] Creating layer resx10_conv1_relu
I0813 23:19:34.975139  6049 net.cpp:91] Creating Layer resx10_conv1_relu
I0813 23:19:34.975143  6049 net.cpp:469] resx10_conv1_relu <- resx10_conv1
I0813 23:19:34.975150  6049 net.cpp:430] resx10_conv1_relu -> resx10_conv1 (in-place)
I0813 23:19:34.975492  6049 net.cpp:141] Setting up resx10_conv1_relu
I0813 23:19:34.975507  6049 net.cpp:148] Top shape: 80 120 14 14 (1881600)
I0813 23:19:34.975510  6049 net.cpp:156] Memory required for data: 4179410240
I0813 23:19:34.975514  6049 layer_factory.hpp:77] Creating layer shuffle10
I0813 23:19:34.975522  6049 net.cpp:91] Creating Layer shuffle10
I0813 23:19:34.975525  6049 net.cpp:469] shuffle10 <- resx10_conv1
I0813 23:19:34.975531  6049 net.cpp:443] shuffle10 -> shuffle10
I0813 23:19:34.975569  6049 net.cpp:141] Setting up shuffle10
I0813 23:19:34.975576  6049 net.cpp:148] Top shape: 80 120 14 14 (1881600)
I0813 23:19:34.975581  6049 net.cpp:156] Memory required for data: 4186936640
I0813 23:19:34.975584  6049 layer_factory.hpp:77] Creating layer resx10_conv2
I0813 23:19:34.975592  6049 net.cpp:91] Creating Layer resx10_conv2
I0813 23:19:34.975596  6049 net.cpp:469] resx10_conv2 <- shuffle10
I0813 23:19:34.975603  6049 net.cpp:443] resx10_conv2 -> resx10_conv2
I0813 23:19:34.975755  6049 net.cpp:141] Setting up resx10_conv2
I0813 23:19:34.975769  6049 net.cpp:148] Top shape: 80 120 14 14 (1881600)
I0813 23:19:34.975772  6049 net.cpp:156] Memory required for data: 4194463040
I0813 23:19:34.975778  6049 layer_factory.hpp:77] Creating layer resx10_conv2_bn
I0813 23:19:34.975786  6049 net.cpp:91] Creating Layer resx10_conv2_bn
I0813 23:19:34.975795  6049 net.cpp:469] resx10_conv2_bn <- resx10_conv2
I0813 23:19:34.975808  6049 net.cpp:430] resx10_conv2_bn -> resx10_conv2 (in-place)
I0813 23:19:34.976016  6049 net.cpp:141] Setting up resx10_conv2_bn
I0813 23:19:34.976024  6049 net.cpp:148] Top shape: 80 120 14 14 (1881600)
I0813 23:19:34.976027  6049 net.cpp:156] Memory required for data: 4201989440
I0813 23:19:34.976035  6049 layer_factory.hpp:77] Creating layer resx10_conv2_scale
I0813 23:19:34.976042  6049 net.cpp:91] Creating Layer resx10_conv2_scale
I0813 23:19:34.976047  6049 net.cpp:469] resx10_conv2_scale <- resx10_conv2
I0813 23:19:34.976052  6049 net.cpp:430] resx10_conv2_scale -> resx10_conv2 (in-place)
I0813 23:19:34.976096  6049 layer_factory.hpp:77] Creating layer resx10_conv2_scale
I0813 23:19:34.976220  6049 net.cpp:141] Setting up resx10_conv2_scale
I0813 23:19:34.976228  6049 net.cpp:148] Top shape: 80 120 14 14 (1881600)
I0813 23:19:34.976231  6049 net.cpp:156] Memory required for data: 4209515840
I0813 23:19:34.976238  6049 layer_factory.hpp:77] Creating layer resx10_conv3
I0813 23:19:34.976248  6049 net.cpp:91] Creating Layer resx10_conv3
I0813 23:19:34.976253  6049 net.cpp:469] resx10_conv3 <- resx10_conv2
I0813 23:19:34.976258  6049 net.cpp:443] resx10_conv3 -> resx10_conv3
I0813 23:19:34.979460  6049 net.cpp:141] Setting up resx10_conv3
I0813 23:19:34.979476  6049 net.cpp:148] Top shape: 80 480 14 14 (7526400)
I0813 23:19:34.979480  6049 net.cpp:156] Memory required for data: 4239621440
I0813 23:19:34.979486  6049 layer_factory.hpp:77] Creating layer resx10_conv3_bn
I0813 23:19:34.979493  6049 net.cpp:91] Creating Layer resx10_conv3_bn
I0813 23:19:34.979498  6049 net.cpp:469] resx10_conv3_bn <- resx10_conv3
I0813 23:19:34.979506  6049 net.cpp:430] resx10_conv3_bn -> resx10_conv3 (in-place)
I0813 23:19:34.979727  6049 net.cpp:141] Setting up resx10_conv3_bn
I0813 23:19:34.979735  6049 net.cpp:148] Top shape: 80 480 14 14 (7526400)
I0813 23:19:34.979738  6049 net.cpp:156] Memory required for data: 4269727040
I0813 23:19:34.979746  6049 layer_factory.hpp:77] Creating layer resx10_conv3_scale
I0813 23:19:34.979753  6049 net.cpp:91] Creating Layer resx10_conv3_scale
I0813 23:19:34.979758  6049 net.cpp:469] resx10_conv3_scale <- resx10_conv3
I0813 23:19:34.979764  6049 net.cpp:430] resx10_conv3_scale -> resx10_conv3 (in-place)
I0813 23:19:34.979811  6049 layer_factory.hpp:77] Creating layer resx10_conv3_scale
I0813 23:19:34.979940  6049 net.cpp:141] Setting up resx10_conv3_scale
I0813 23:19:34.979948  6049 net.cpp:148] Top shape: 80 480 14 14 (7526400)
I0813 23:19:34.979953  6049 net.cpp:156] Memory required for data: 4299832640
I0813 23:19:34.979959  6049 layer_factory.hpp:77] Creating layer resx10_elewise
I0813 23:19:34.979965  6049 net.cpp:91] Creating Layer resx10_elewise
I0813 23:19:34.979969  6049 net.cpp:469] resx10_elewise <- resx9_elewise_resx9_elewise_relu_0_split_1
I0813 23:19:34.979976  6049 net.cpp:469] resx10_elewise <- resx10_conv3
I0813 23:19:34.979982  6049 net.cpp:443] resx10_elewise -> resx10_elewise
I0813 23:19:34.980012  6049 net.cpp:141] Setting up resx10_elewise
I0813 23:19:34.980020  6049 net.cpp:148] Top shape: 80 480 14 14 (7526400)
I0813 23:19:34.980023  6049 net.cpp:156] Memory required for data: 4329938240
I0813 23:19:34.980026  6049 layer_factory.hpp:77] Creating layer resx10_elewise_relu
I0813 23:19:34.980033  6049 net.cpp:91] Creating Layer resx10_elewise_relu
I0813 23:19:34.980037  6049 net.cpp:469] resx10_elewise_relu <- resx10_elewise
I0813 23:19:34.980043  6049 net.cpp:430] resx10_elewise_relu -> resx10_elewise (in-place)
I0813 23:19:34.980391  6049 net.cpp:141] Setting up resx10_elewise_relu
I0813 23:19:34.980406  6049 net.cpp:148] Top shape: 80 480 14 14 (7526400)
I0813 23:19:34.980409  6049 net.cpp:156] Memory required for data: 4360043840
I0813 23:19:34.980413  6049 layer_factory.hpp:77] Creating layer resx10_elewise_resx10_elewise_relu_0_split
I0813 23:19:34.980419  6049 net.cpp:91] Creating Layer resx10_elewise_resx10_elewise_relu_0_split
I0813 23:19:34.980429  6049 net.cpp:469] resx10_elewise_resx10_elewise_relu_0_split <- resx10_elewise
I0813 23:19:34.980443  6049 net.cpp:443] resx10_elewise_resx10_elewise_relu_0_split -> resx10_elewise_resx10_elewise_relu_0_split_0
I0813 23:19:34.980451  6049 net.cpp:443] resx10_elewise_resx10_elewise_relu_0_split -> resx10_elewise_resx10_elewise_relu_0_split_1
I0813 23:19:34.980500  6049 net.cpp:141] Setting up resx10_elewise_resx10_elewise_relu_0_split
I0813 23:19:34.980509  6049 net.cpp:148] Top shape: 80 480 14 14 (7526400)
I0813 23:19:34.980515  6049 net.cpp:148] Top shape: 80 480 14 14 (7526400)
I0813 23:19:34.980517  6049 net.cpp:156] Memory required for data: 4420255040
I0813 23:19:34.980521  6049 layer_factory.hpp:77] Creating layer resx11_conv1
I0813 23:19:34.980530  6049 net.cpp:91] Creating Layer resx11_conv1
I0813 23:19:34.980535  6049 net.cpp:469] resx11_conv1 <- resx10_elewise_resx10_elewise_relu_0_split_0
I0813 23:19:34.980541  6049 net.cpp:443] resx11_conv1 -> resx11_conv1
I0813 23:19:34.983551  6049 net.cpp:141] Setting up resx11_conv1
I0813 23:19:34.983567  6049 net.cpp:148] Top shape: 80 120 14 14 (1881600)
I0813 23:19:34.983572  6049 net.cpp:156] Memory required for data: 4427781440
I0813 23:19:34.983577  6049 layer_factory.hpp:77] Creating layer resx11_conv1_bn
I0813 23:19:34.983587  6049 net.cpp:91] Creating Layer resx11_conv1_bn
I0813 23:19:34.983592  6049 net.cpp:469] resx11_conv1_bn <- resx11_conv1
I0813 23:19:34.983597  6049 net.cpp:430] resx11_conv1_bn -> resx11_conv1 (in-place)
I0813 23:19:34.983816  6049 net.cpp:141] Setting up resx11_conv1_bn
I0813 23:19:34.983825  6049 net.cpp:148] Top shape: 80 120 14 14 (1881600)
I0813 23:19:34.983829  6049 net.cpp:156] Memory required for data: 4435307840
I0813 23:19:34.983836  6049 layer_factory.hpp:77] Creating layer resx11_conv1_scale
I0813 23:19:34.983845  6049 net.cpp:91] Creating Layer resx11_conv1_scale
I0813 23:19:34.983850  6049 net.cpp:469] resx11_conv1_scale <- resx11_conv1
I0813 23:19:34.983855  6049 net.cpp:430] resx11_conv1_scale -> resx11_conv1 (in-place)
I0813 23:19:34.983902  6049 layer_factory.hpp:77] Creating layer resx11_conv1_scale
I0813 23:19:34.984030  6049 net.cpp:141] Setting up resx11_conv1_scale
I0813 23:19:34.984038  6049 net.cpp:148] Top shape: 80 120 14 14 (1881600)
I0813 23:19:34.984041  6049 net.cpp:156] Memory required for data: 4442834240
I0813 23:19:34.984047  6049 layer_factory.hpp:77] Creating layer resx11_conv1_relu
I0813 23:19:34.984056  6049 net.cpp:91] Creating Layer resx11_conv1_relu
I0813 23:19:34.984061  6049 net.cpp:469] resx11_conv1_relu <- resx11_conv1
I0813 23:19:34.984066  6049 net.cpp:430] resx11_conv1_relu -> resx11_conv1 (in-place)
I0813 23:19:34.984578  6049 net.cpp:141] Setting up resx11_conv1_relu
I0813 23:19:34.984591  6049 net.cpp:148] Top shape: 80 120 14 14 (1881600)
I0813 23:19:34.984596  6049 net.cpp:156] Memory required for data: 4450360640
I0813 23:19:34.984599  6049 layer_factory.hpp:77] Creating layer shuffle11
I0813 23:19:34.984608  6049 net.cpp:91] Creating Layer shuffle11
I0813 23:19:34.984613  6049 net.cpp:469] shuffle11 <- resx11_conv1
I0813 23:19:34.984619  6049 net.cpp:443] shuffle11 -> shuffle11
I0813 23:19:34.984659  6049 net.cpp:141] Setting up shuffle11
I0813 23:19:34.984666  6049 net.cpp:148] Top shape: 80 120 14 14 (1881600)
I0813 23:19:34.984669  6049 net.cpp:156] Memory required for data: 4457887040
I0813 23:19:34.984673  6049 layer_factory.hpp:77] Creating layer resx11_conv2
I0813 23:19:34.984683  6049 net.cpp:91] Creating Layer resx11_conv2
I0813 23:19:34.984688  6049 net.cpp:469] resx11_conv2 <- shuffle11
I0813 23:19:34.984694  6049 net.cpp:443] resx11_conv2 -> resx11_conv2
I0813 23:19:34.984848  6049 net.cpp:141] Setting up resx11_conv2
I0813 23:19:34.984860  6049 net.cpp:148] Top shape: 80 120 14 14 (1881600)
I0813 23:19:34.984864  6049 net.cpp:156] Memory required for data: 4465413440
I0813 23:19:34.984869  6049 layer_factory.hpp:77] Creating layer resx11_conv2_bn
I0813 23:19:34.984879  6049 net.cpp:91] Creating Layer resx11_conv2_bn
I0813 23:19:34.984884  6049 net.cpp:469] resx11_conv2_bn <- resx11_conv2
I0813 23:19:34.984895  6049 net.cpp:430] resx11_conv2_bn -> resx11_conv2 (in-place)
I0813 23:19:34.985131  6049 net.cpp:141] Setting up resx11_conv2_bn
I0813 23:19:34.985141  6049 net.cpp:148] Top shape: 80 120 14 14 (1881600)
I0813 23:19:34.985143  6049 net.cpp:156] Memory required for data: 4472939840
I0813 23:19:34.985152  6049 layer_factory.hpp:77] Creating layer resx11_conv2_scale
I0813 23:19:34.985160  6049 net.cpp:91] Creating Layer resx11_conv2_scale
I0813 23:19:34.985164  6049 net.cpp:469] resx11_conv2_scale <- resx11_conv2
I0813 23:19:34.985169  6049 net.cpp:430] resx11_conv2_scale -> resx11_conv2 (in-place)
I0813 23:19:34.985218  6049 layer_factory.hpp:77] Creating layer resx11_conv2_scale
I0813 23:19:34.985349  6049 net.cpp:141] Setting up resx11_conv2_scale
I0813 23:19:34.985357  6049 net.cpp:148] Top shape: 80 120 14 14 (1881600)
I0813 23:19:34.985360  6049 net.cpp:156] Memory required for data: 4480466240
I0813 23:19:34.985366  6049 layer_factory.hpp:77] Creating layer resx11_conv3
I0813 23:19:34.985378  6049 net.cpp:91] Creating Layer resx11_conv3
I0813 23:19:34.985381  6049 net.cpp:469] resx11_conv3 <- resx11_conv2
I0813 23:19:34.985386  6049 net.cpp:443] resx11_conv3 -> resx11_conv3
I0813 23:19:34.988459  6049 net.cpp:141] Setting up resx11_conv3
I0813 23:19:34.988474  6049 net.cpp:148] Top shape: 80 480 14 14 (7526400)
I0813 23:19:34.988478  6049 net.cpp:156] Memory required for data: 4510571840
I0813 23:19:34.988484  6049 layer_factory.hpp:77] Creating layer resx11_conv3_bn
I0813 23:19:34.988493  6049 net.cpp:91] Creating Layer resx11_conv3_bn
I0813 23:19:34.988498  6049 net.cpp:469] resx11_conv3_bn <- resx11_conv3
I0813 23:19:34.988507  6049 net.cpp:430] resx11_conv3_bn -> resx11_conv3 (in-place)
I0813 23:19:34.988729  6049 net.cpp:141] Setting up resx11_conv3_bn
I0813 23:19:34.988737  6049 net.cpp:148] Top shape: 80 480 14 14 (7526400)
I0813 23:19:34.988740  6049 net.cpp:156] Memory required for data: 4540677440
I0813 23:19:34.988749  6049 layer_factory.hpp:77] Creating layer resx11_conv3_scale
I0813 23:19:34.988756  6049 net.cpp:91] Creating Layer resx11_conv3_scale
I0813 23:19:34.988761  6049 net.cpp:469] resx11_conv3_scale <- resx11_conv3
I0813 23:19:34.988766  6049 net.cpp:430] resx11_conv3_scale -> resx11_conv3 (in-place)
I0813 23:19:34.988817  6049 layer_factory.hpp:77] Creating layer resx11_conv3_scale
I0813 23:19:34.988947  6049 net.cpp:141] Setting up resx11_conv3_scale
I0813 23:19:34.988955  6049 net.cpp:148] Top shape: 80 480 14 14 (7526400)
I0813 23:19:34.988960  6049 net.cpp:156] Memory required for data: 4570783040
I0813 23:19:34.988965  6049 layer_factory.hpp:77] Creating layer resx11_elewise
I0813 23:19:34.988971  6049 net.cpp:91] Creating Layer resx11_elewise
I0813 23:19:34.988978  6049 net.cpp:469] resx11_elewise <- resx10_elewise_resx10_elewise_relu_0_split_1
I0813 23:19:34.988983  6049 net.cpp:469] resx11_elewise <- resx11_conv3
I0813 23:19:34.988988  6049 net.cpp:443] resx11_elewise -> resx11_elewise
I0813 23:19:34.989017  6049 net.cpp:141] Setting up resx11_elewise
I0813 23:19:34.989023  6049 net.cpp:148] Top shape: 80 480 14 14 (7526400)
I0813 23:19:34.989027  6049 net.cpp:156] Memory required for data: 4600888640
I0813 23:19:34.989030  6049 layer_factory.hpp:77] Creating layer resx11_elewise_relu
I0813 23:19:34.989038  6049 net.cpp:91] Creating Layer resx11_elewise_relu
I0813 23:19:34.989042  6049 net.cpp:469] resx11_elewise_relu <- resx11_elewise
I0813 23:19:34.989048  6049 net.cpp:430] resx11_elewise_relu -> resx11_elewise (in-place)
I0813 23:19:34.989413  6049 net.cpp:141] Setting up resx11_elewise_relu
I0813 23:19:34.989428  6049 net.cpp:148] Top shape: 80 480 14 14 (7526400)
I0813 23:19:34.989431  6049 net.cpp:156] Memory required for data: 4630994240
I0813 23:19:34.989435  6049 layer_factory.hpp:77] Creating layer resx11_elewise_resx11_elewise_relu_0_split
I0813 23:19:34.989442  6049 net.cpp:91] Creating Layer resx11_elewise_resx11_elewise_relu_0_split
I0813 23:19:34.989446  6049 net.cpp:469] resx11_elewise_resx11_elewise_relu_0_split <- resx11_elewise
I0813 23:19:34.989457  6049 net.cpp:443] resx11_elewise_resx11_elewise_relu_0_split -> resx11_elewise_resx11_elewise_relu_0_split_0
I0813 23:19:34.989472  6049 net.cpp:443] resx11_elewise_resx11_elewise_relu_0_split -> resx11_elewise_resx11_elewise_relu_0_split_1
I0813 23:19:34.989523  6049 net.cpp:141] Setting up resx11_elewise_resx11_elewise_relu_0_split
I0813 23:19:34.989531  6049 net.cpp:148] Top shape: 80 480 14 14 (7526400)
I0813 23:19:34.989536  6049 net.cpp:148] Top shape: 80 480 14 14 (7526400)
I0813 23:19:34.989538  6049 net.cpp:156] Memory required for data: 4691205440
I0813 23:19:34.989542  6049 layer_factory.hpp:77] Creating layer resx12_conv1
I0813 23:19:34.989552  6049 net.cpp:91] Creating Layer resx12_conv1
I0813 23:19:34.989557  6049 net.cpp:469] resx12_conv1 <- resx11_elewise_resx11_elewise_relu_0_split_0
I0813 23:19:34.989564  6049 net.cpp:443] resx12_conv1 -> resx12_conv1
I0813 23:19:34.992609  6049 net.cpp:141] Setting up resx12_conv1
I0813 23:19:34.992624  6049 net.cpp:148] Top shape: 80 120 14 14 (1881600)
I0813 23:19:34.992630  6049 net.cpp:156] Memory required for data: 4698731840
I0813 23:19:34.992635  6049 layer_factory.hpp:77] Creating layer resx12_conv1_bn
I0813 23:19:34.992645  6049 net.cpp:91] Creating Layer resx12_conv1_bn
I0813 23:19:34.992650  6049 net.cpp:469] resx12_conv1_bn <- resx12_conv1
I0813 23:19:34.992655  6049 net.cpp:430] resx12_conv1_bn -> resx12_conv1 (in-place)
I0813 23:19:34.992878  6049 net.cpp:141] Setting up resx12_conv1_bn
I0813 23:19:34.992887  6049 net.cpp:148] Top shape: 80 120 14 14 (1881600)
I0813 23:19:34.992889  6049 net.cpp:156] Memory required for data: 4706258240
I0813 23:19:34.992897  6049 layer_factory.hpp:77] Creating layer resx12_conv1_scale
I0813 23:19:34.992904  6049 net.cpp:91] Creating Layer resx12_conv1_scale
I0813 23:19:34.992908  6049 net.cpp:469] resx12_conv1_scale <- resx12_conv1
I0813 23:19:34.992913  6049 net.cpp:430] resx12_conv1_scale -> resx12_conv1 (in-place)
I0813 23:19:34.992962  6049 layer_factory.hpp:77] Creating layer resx12_conv1_scale
I0813 23:19:34.993106  6049 net.cpp:141] Setting up resx12_conv1_scale
I0813 23:19:34.993116  6049 net.cpp:148] Top shape: 80 120 14 14 (1881600)
I0813 23:19:34.993120  6049 net.cpp:156] Memory required for data: 4713784640
I0813 23:19:34.993126  6049 layer_factory.hpp:77] Creating layer resx12_conv1_relu
I0813 23:19:34.993132  6049 net.cpp:91] Creating Layer resx12_conv1_relu
I0813 23:19:34.993136  6049 net.cpp:469] resx12_conv1_relu <- resx12_conv1
I0813 23:19:34.993141  6049 net.cpp:430] resx12_conv1_relu -> resx12_conv1 (in-place)
I0813 23:19:34.993563  6049 net.cpp:141] Setting up resx12_conv1_relu
I0813 23:19:34.993577  6049 net.cpp:148] Top shape: 80 120 14 14 (1881600)
I0813 23:19:34.993582  6049 net.cpp:156] Memory required for data: 4721311040
I0813 23:19:34.993585  6049 layer_factory.hpp:77] Creating layer shuffle12
I0813 23:19:34.993592  6049 net.cpp:91] Creating Layer shuffle12
I0813 23:19:34.993597  6049 net.cpp:469] shuffle12 <- resx12_conv1
I0813 23:19:34.993603  6049 net.cpp:443] shuffle12 -> shuffle12
I0813 23:19:34.993640  6049 net.cpp:141] Setting up shuffle12
I0813 23:19:34.993647  6049 net.cpp:148] Top shape: 80 120 14 14 (1881600)
I0813 23:19:34.993651  6049 net.cpp:156] Memory required for data: 4728837440
I0813 23:19:34.993655  6049 layer_factory.hpp:77] Creating layer resx12_conv2
I0813 23:19:34.993664  6049 net.cpp:91] Creating Layer resx12_conv2
I0813 23:19:34.993667  6049 net.cpp:469] resx12_conv2 <- shuffle12
I0813 23:19:34.993672  6049 net.cpp:443] resx12_conv2 -> resx12_conv2
I0813 23:19:34.993824  6049 net.cpp:141] Setting up resx12_conv2
I0813 23:19:34.993835  6049 net.cpp:148] Top shape: 80 120 14 14 (1881600)
I0813 23:19:34.993839  6049 net.cpp:156] Memory required for data: 4736363840
I0813 23:19:34.993844  6049 layer_factory.hpp:77] Creating layer resx12_conv2_bn
I0813 23:19:34.993855  6049 net.cpp:91] Creating Layer resx12_conv2_bn
I0813 23:19:34.993860  6049 net.cpp:469] resx12_conv2_bn <- resx12_conv2
I0813 23:19:34.993865  6049 net.cpp:430] resx12_conv2_bn -> resx12_conv2 (in-place)
I0813 23:19:34.994076  6049 net.cpp:141] Setting up resx12_conv2_bn
I0813 23:19:34.994092  6049 net.cpp:148] Top shape: 80 120 14 14 (1881600)
I0813 23:19:34.994096  6049 net.cpp:156] Memory required for data: 4743890240
I0813 23:19:34.994104  6049 layer_factory.hpp:77] Creating layer resx12_conv2_scale
I0813 23:19:34.994112  6049 net.cpp:91] Creating Layer resx12_conv2_scale
I0813 23:19:34.994117  6049 net.cpp:469] resx12_conv2_scale <- resx12_conv2
I0813 23:19:34.994123  6049 net.cpp:430] resx12_conv2_scale -> resx12_conv2 (in-place)
I0813 23:19:34.994179  6049 layer_factory.hpp:77] Creating layer resx12_conv2_scale
I0813 23:19:34.994313  6049 net.cpp:141] Setting up resx12_conv2_scale
I0813 23:19:34.994320  6049 net.cpp:148] Top shape: 80 120 14 14 (1881600)
I0813 23:19:34.994324  6049 net.cpp:156] Memory required for data: 4751416640
I0813 23:19:34.994330  6049 layer_factory.hpp:77] Creating layer resx12_conv3
I0813 23:19:34.994340  6049 net.cpp:91] Creating Layer resx12_conv3
I0813 23:19:34.994345  6049 net.cpp:469] resx12_conv3 <- resx12_conv2
I0813 23:19:34.994350  6049 net.cpp:443] resx12_conv3 -> resx12_conv3
I0813 23:19:34.998235  6049 net.cpp:141] Setting up resx12_conv3
I0813 23:19:34.998251  6049 net.cpp:148] Top shape: 80 480 14 14 (7526400)
I0813 23:19:34.998256  6049 net.cpp:156] Memory required for data: 4781522240
I0813 23:19:34.998262  6049 layer_factory.hpp:77] Creating layer resx12_conv3_bn
I0813 23:19:34.998273  6049 net.cpp:91] Creating Layer resx12_conv3_bn
I0813 23:19:34.998278  6049 net.cpp:469] resx12_conv3_bn <- resx12_conv3
I0813 23:19:34.998283  6049 net.cpp:430] resx12_conv3_bn -> resx12_conv3 (in-place)
I0813 23:19:34.998517  6049 net.cpp:141] Setting up resx12_conv3_bn
I0813 23:19:34.998524  6049 net.cpp:148] Top shape: 80 480 14 14 (7526400)
I0813 23:19:34.998528  6049 net.cpp:156] Memory required for data: 4811627840
I0813 23:19:34.998535  6049 layer_factory.hpp:77] Creating layer resx12_conv3_scale
I0813 23:19:34.998543  6049 net.cpp:91] Creating Layer resx12_conv3_scale
I0813 23:19:34.998546  6049 net.cpp:469] resx12_conv3_scale <- resx12_conv3
I0813 23:19:34.998551  6049 net.cpp:430] resx12_conv3_scale -> resx12_conv3 (in-place)
I0813 23:19:34.998605  6049 layer_factory.hpp:77] Creating layer resx12_conv3_scale
I0813 23:19:34.998740  6049 net.cpp:141] Setting up resx12_conv3_scale
I0813 23:19:34.998749  6049 net.cpp:148] Top shape: 80 480 14 14 (7526400)
I0813 23:19:34.998752  6049 net.cpp:156] Memory required for data: 4841733440
I0813 23:19:34.998759  6049 layer_factory.hpp:77] Creating layer resx12_elewise
I0813 23:19:34.998767  6049 net.cpp:91] Creating Layer resx12_elewise
I0813 23:19:34.998772  6049 net.cpp:469] resx12_elewise <- resx11_elewise_resx11_elewise_relu_0_split_1
I0813 23:19:34.998776  6049 net.cpp:469] resx12_elewise <- resx12_conv3
I0813 23:19:34.998782  6049 net.cpp:443] resx12_elewise -> resx12_elewise
I0813 23:19:34.998814  6049 net.cpp:141] Setting up resx12_elewise
I0813 23:19:34.998821  6049 net.cpp:148] Top shape: 80 480 14 14 (7526400)
I0813 23:19:34.998824  6049 net.cpp:156] Memory required for data: 4871839040
I0813 23:19:34.998828  6049 layer_factory.hpp:77] Creating layer resx12_elewise_relu
I0813 23:19:34.998834  6049 net.cpp:91] Creating Layer resx12_elewise_relu
I0813 23:19:34.998838  6049 net.cpp:469] resx12_elewise_relu <- resx12_elewise
I0813 23:19:34.998842  6049 net.cpp:430] resx12_elewise_relu -> resx12_elewise (in-place)
I0813 23:19:34.999019  6049 net.cpp:141] Setting up resx12_elewise_relu
I0813 23:19:34.999030  6049 net.cpp:148] Top shape: 80 480 14 14 (7526400)
I0813 23:19:34.999033  6049 net.cpp:156] Memory required for data: 4901944640
I0813 23:19:34.999037  6049 layer_factory.hpp:77] Creating layer resx12_elewise_resx12_elewise_relu_0_split
I0813 23:19:34.999047  6049 net.cpp:91] Creating Layer resx12_elewise_resx12_elewise_relu_0_split
I0813 23:19:34.999050  6049 net.cpp:469] resx12_elewise_resx12_elewise_relu_0_split <- resx12_elewise
I0813 23:19:34.999056  6049 net.cpp:443] resx12_elewise_resx12_elewise_relu_0_split -> resx12_elewise_resx12_elewise_relu_0_split_0
I0813 23:19:34.999073  6049 net.cpp:443] resx12_elewise_resx12_elewise_relu_0_split -> resx12_elewise_resx12_elewise_relu_0_split_1
I0813 23:19:34.999125  6049 net.cpp:141] Setting up resx12_elewise_resx12_elewise_relu_0_split
I0813 23:19:34.999132  6049 net.cpp:148] Top shape: 80 480 14 14 (7526400)
I0813 23:19:34.999137  6049 net.cpp:148] Top shape: 80 480 14 14 (7526400)
I0813 23:19:34.999140  6049 net.cpp:156] Memory required for data: 4962155840
I0813 23:19:34.999143  6049 layer_factory.hpp:77] Creating layer resx13_match_conv
I0813 23:19:34.999150  6049 net.cpp:91] Creating Layer resx13_match_conv
I0813 23:19:34.999155  6049 net.cpp:469] resx13_match_conv <- resx12_elewise_resx12_elewise_relu_0_split_0
I0813 23:19:34.999163  6049 net.cpp:443] resx13_match_conv -> resx13_match_conv
I0813 23:19:34.999536  6049 net.cpp:141] Setting up resx13_match_conv
I0813 23:19:34.999549  6049 net.cpp:148] Top shape: 80 480 7 7 (1881600)
I0813 23:19:34.999553  6049 net.cpp:156] Memory required for data: 4969682240
I0813 23:19:34.999557  6049 layer_factory.hpp:77] Creating layer resx13_conv1
I0813 23:19:34.999568  6049 net.cpp:91] Creating Layer resx13_conv1
I0813 23:19:34.999574  6049 net.cpp:469] resx13_conv1 <- resx12_elewise_resx12_elewise_relu_0_split_1
I0813 23:19:34.999583  6049 net.cpp:443] resx13_conv1 -> resx13_conv1
I0813 23:19:35.002674  6049 net.cpp:141] Setting up resx13_conv1
I0813 23:19:35.002691  6049 net.cpp:148] Top shape: 80 120 14 14 (1881600)
I0813 23:19:35.002694  6049 net.cpp:156] Memory required for data: 4977208640
I0813 23:19:35.002701  6049 layer_factory.hpp:77] Creating layer resx13_conv1_bn
I0813 23:19:35.002712  6049 net.cpp:91] Creating Layer resx13_conv1_bn
I0813 23:19:35.002717  6049 net.cpp:469] resx13_conv1_bn <- resx13_conv1
I0813 23:19:35.002722  6049 net.cpp:430] resx13_conv1_bn -> resx13_conv1 (in-place)
I0813 23:19:35.002951  6049 net.cpp:141] Setting up resx13_conv1_bn
I0813 23:19:35.002959  6049 net.cpp:148] Top shape: 80 120 14 14 (1881600)
I0813 23:19:35.002962  6049 net.cpp:156] Memory required for data: 4984735040
I0813 23:19:35.002970  6049 layer_factory.hpp:77] Creating layer resx13_conv1_scale
I0813 23:19:35.002977  6049 net.cpp:91] Creating Layer resx13_conv1_scale
I0813 23:19:35.002981  6049 net.cpp:469] resx13_conv1_scale <- resx13_conv1
I0813 23:19:35.002986  6049 net.cpp:430] resx13_conv1_scale -> resx13_conv1 (in-place)
I0813 23:19:35.003037  6049 layer_factory.hpp:77] Creating layer resx13_conv1_scale
I0813 23:19:35.003173  6049 net.cpp:141] Setting up resx13_conv1_scale
I0813 23:19:35.003183  6049 net.cpp:148] Top shape: 80 120 14 14 (1881600)
I0813 23:19:35.003187  6049 net.cpp:156] Memory required for data: 4992261440
I0813 23:19:35.003193  6049 layer_factory.hpp:77] Creating layer resx13_conv1_relu
I0813 23:19:35.003201  6049 net.cpp:91] Creating Layer resx13_conv1_relu
I0813 23:19:35.003204  6049 net.cpp:469] resx13_conv1_relu <- resx13_conv1
I0813 23:19:35.003208  6049 net.cpp:430] resx13_conv1_relu -> resx13_conv1 (in-place)
I0813 23:19:35.003562  6049 net.cpp:141] Setting up resx13_conv1_relu
I0813 23:19:35.003576  6049 net.cpp:148] Top shape: 80 120 14 14 (1881600)
I0813 23:19:35.003581  6049 net.cpp:156] Memory required for data: 4999787840
I0813 23:19:35.003584  6049 layer_factory.hpp:77] Creating layer shuffle13
I0813 23:19:35.003593  6049 net.cpp:91] Creating Layer shuffle13
I0813 23:19:35.003597  6049 net.cpp:469] shuffle13 <- resx13_conv1
I0813 23:19:35.003604  6049 net.cpp:443] shuffle13 -> shuffle13
I0813 23:19:35.003644  6049 net.cpp:141] Setting up shuffle13
I0813 23:19:35.003651  6049 net.cpp:148] Top shape: 80 120 14 14 (1881600)
I0813 23:19:35.003655  6049 net.cpp:156] Memory required for data: 5007314240
I0813 23:19:35.003659  6049 layer_factory.hpp:77] Creating layer resx13_conv2
I0813 23:19:35.003669  6049 net.cpp:91] Creating Layer resx13_conv2
I0813 23:19:35.003674  6049 net.cpp:469] resx13_conv2 <- shuffle13
I0813 23:19:35.003679  6049 net.cpp:443] resx13_conv2 -> resx13_conv2
I0813 23:19:35.004032  6049 net.cpp:141] Setting up resx13_conv2
I0813 23:19:35.004055  6049 net.cpp:148] Top shape: 80 120 7 7 (470400)
I0813 23:19:35.004060  6049 net.cpp:156] Memory required for data: 5009195840
I0813 23:19:35.004065  6049 layer_factory.hpp:77] Creating layer resx13_conv2_bn
I0813 23:19:35.004076  6049 net.cpp:91] Creating Layer resx13_conv2_bn
I0813 23:19:35.004081  6049 net.cpp:469] resx13_conv2_bn <- resx13_conv2
I0813 23:19:35.004086  6049 net.cpp:430] resx13_conv2_bn -> resx13_conv2 (in-place)
I0813 23:19:35.004321  6049 net.cpp:141] Setting up resx13_conv2_bn
I0813 23:19:35.004329  6049 net.cpp:148] Top shape: 80 120 7 7 (470400)
I0813 23:19:35.004333  6049 net.cpp:156] Memory required for data: 5011077440
I0813 23:19:35.004340  6049 layer_factory.hpp:77] Creating layer resx13_conv2_scale
I0813 23:19:35.004348  6049 net.cpp:91] Creating Layer resx13_conv2_scale
I0813 23:19:35.004351  6049 net.cpp:469] resx13_conv2_scale <- resx13_conv2
I0813 23:19:35.004356  6049 net.cpp:430] resx13_conv2_scale -> resx13_conv2 (in-place)
I0813 23:19:35.004408  6049 layer_factory.hpp:77] Creating layer resx13_conv2_scale
I0813 23:19:35.004544  6049 net.cpp:141] Setting up resx13_conv2_scale
I0813 23:19:35.004554  6049 net.cpp:148] Top shape: 80 120 7 7 (470400)
I0813 23:19:35.004557  6049 net.cpp:156] Memory required for data: 5012959040
I0813 23:19:35.004564  6049 layer_factory.hpp:77] Creating layer resx13_conv3
I0813 23:19:35.004572  6049 net.cpp:91] Creating Layer resx13_conv3
I0813 23:19:35.004576  6049 net.cpp:469] resx13_conv3 <- resx13_conv2
I0813 23:19:35.004586  6049 net.cpp:443] resx13_conv3 -> resx13_conv3
I0813 23:19:35.007740  6049 net.cpp:141] Setting up resx13_conv3
I0813 23:19:35.007757  6049 net.cpp:148] Top shape: 80 480 7 7 (1881600)
I0813 23:19:35.007762  6049 net.cpp:156] Memory required for data: 5020485440
I0813 23:19:35.007768  6049 layer_factory.hpp:77] Creating layer resx13_conv3_bn
I0813 23:19:35.007778  6049 net.cpp:91] Creating Layer resx13_conv3_bn
I0813 23:19:35.007783  6049 net.cpp:469] resx13_conv3_bn <- resx13_conv3
I0813 23:19:35.007788  6049 net.cpp:430] resx13_conv3_bn -> resx13_conv3 (in-place)
I0813 23:19:35.008031  6049 net.cpp:141] Setting up resx13_conv3_bn
I0813 23:19:35.008040  6049 net.cpp:148] Top shape: 80 480 7 7 (1881600)
I0813 23:19:35.008044  6049 net.cpp:156] Memory required for data: 5028011840
I0813 23:19:35.008051  6049 layer_factory.hpp:77] Creating layer resx13_conv3_scale
I0813 23:19:35.008059  6049 net.cpp:91] Creating Layer resx13_conv3_scale
I0813 23:19:35.008062  6049 net.cpp:469] resx13_conv3_scale <- resx13_conv3
I0813 23:19:35.008067  6049 net.cpp:430] resx13_conv3_scale -> resx13_conv3 (in-place)
I0813 23:19:35.008122  6049 layer_factory.hpp:77] Creating layer resx13_conv3_scale
I0813 23:19:35.008265  6049 net.cpp:141] Setting up resx13_conv3_scale
I0813 23:19:35.008273  6049 net.cpp:148] Top shape: 80 480 7 7 (1881600)
I0813 23:19:35.008276  6049 net.cpp:156] Memory required for data: 5035538240
I0813 23:19:35.008282  6049 layer_factory.hpp:77] Creating layer resx13_concat
I0813 23:19:35.008289  6049 net.cpp:91] Creating Layer resx13_concat
I0813 23:19:35.008293  6049 net.cpp:469] resx13_concat <- resx13_match_conv
I0813 23:19:35.008298  6049 net.cpp:469] resx13_concat <- resx13_conv3
I0813 23:19:35.008303  6049 net.cpp:443] resx13_concat -> resx13_concat
I0813 23:19:35.008337  6049 net.cpp:141] Setting up resx13_concat
I0813 23:19:35.008343  6049 net.cpp:148] Top shape: 80 960 7 7 (3763200)
I0813 23:19:35.008347  6049 net.cpp:156] Memory required for data: 5050591040
I0813 23:19:35.008352  6049 layer_factory.hpp:77] Creating layer resx13_concat_relu
I0813 23:19:35.008358  6049 net.cpp:91] Creating Layer resx13_concat_relu
I0813 23:19:35.008363  6049 net.cpp:469] resx13_concat_relu <- resx13_concat
I0813 23:19:35.008368  6049 net.cpp:430] resx13_concat_relu -> resx13_concat (in-place)
I0813 23:19:35.008723  6049 net.cpp:141] Setting up resx13_concat_relu
I0813 23:19:35.008736  6049 net.cpp:148] Top shape: 80 960 7 7 (3763200)
I0813 23:19:35.008740  6049 net.cpp:156] Memory required for data: 5065643840
I0813 23:19:35.008754  6049 layer_factory.hpp:77] Creating layer resx13_concat_resx13_concat_relu_0_split
I0813 23:19:35.008761  6049 net.cpp:91] Creating Layer resx13_concat_resx13_concat_relu_0_split
I0813 23:19:35.008765  6049 net.cpp:469] resx13_concat_resx13_concat_relu_0_split <- resx13_concat
I0813 23:19:35.008774  6049 net.cpp:443] resx13_concat_resx13_concat_relu_0_split -> resx13_concat_resx13_concat_relu_0_split_0
I0813 23:19:35.008781  6049 net.cpp:443] resx13_concat_resx13_concat_relu_0_split -> resx13_concat_resx13_concat_relu_0_split_1
I0813 23:19:35.008836  6049 net.cpp:141] Setting up resx13_concat_resx13_concat_relu_0_split
I0813 23:19:35.008844  6049 net.cpp:148] Top shape: 80 960 7 7 (3763200)
I0813 23:19:35.008848  6049 net.cpp:148] Top shape: 80 960 7 7 (3763200)
I0813 23:19:35.008852  6049 net.cpp:156] Memory required for data: 5095749440
I0813 23:19:35.008855  6049 layer_factory.hpp:77] Creating layer resx14_conv1
I0813 23:19:35.008867  6049 net.cpp:91] Creating Layer resx14_conv1
I0813 23:19:35.008872  6049 net.cpp:469] resx14_conv1 <- resx13_concat_resx13_concat_relu_0_split_0
I0813 23:19:35.008877  6049 net.cpp:443] resx14_conv1 -> resx14_conv1
I0813 23:19:35.014317  6049 net.cpp:141] Setting up resx14_conv1
I0813 23:19:35.014336  6049 net.cpp:148] Top shape: 80 240 7 7 (940800)
I0813 23:19:35.014340  6049 net.cpp:156] Memory required for data: 5099512640
I0813 23:19:35.014348  6049 layer_factory.hpp:77] Creating layer resx14_conv1_bn
I0813 23:19:35.014354  6049 net.cpp:91] Creating Layer resx14_conv1_bn
I0813 23:19:35.014359  6049 net.cpp:469] resx14_conv1_bn <- resx14_conv1
I0813 23:19:35.014366  6049 net.cpp:430] resx14_conv1_bn -> resx14_conv1 (in-place)
I0813 23:19:35.014611  6049 net.cpp:141] Setting up resx14_conv1_bn
I0813 23:19:35.014619  6049 net.cpp:148] Top shape: 80 240 7 7 (940800)
I0813 23:19:35.014623  6049 net.cpp:156] Memory required for data: 5103275840
I0813 23:19:35.014631  6049 layer_factory.hpp:77] Creating layer resx14_conv1_scale
I0813 23:19:35.014637  6049 net.cpp:91] Creating Layer resx14_conv1_scale
I0813 23:19:35.014642  6049 net.cpp:469] resx14_conv1_scale <- resx14_conv1
I0813 23:19:35.014648  6049 net.cpp:430] resx14_conv1_scale -> resx14_conv1 (in-place)
I0813 23:19:35.014698  6049 layer_factory.hpp:77] Creating layer resx14_conv1_scale
I0813 23:19:35.014843  6049 net.cpp:141] Setting up resx14_conv1_scale
I0813 23:19:35.014852  6049 net.cpp:148] Top shape: 80 240 7 7 (940800)
I0813 23:19:35.014855  6049 net.cpp:156] Memory required for data: 5107039040
I0813 23:19:35.014861  6049 layer_factory.hpp:77] Creating layer resx14_conv1_relu
I0813 23:19:35.014868  6049 net.cpp:91] Creating Layer resx14_conv1_relu
I0813 23:19:35.014871  6049 net.cpp:469] resx14_conv1_relu <- resx14_conv1
I0813 23:19:35.014878  6049 net.cpp:430] resx14_conv1_relu -> resx14_conv1 (in-place)
I0813 23:19:35.015242  6049 net.cpp:141] Setting up resx14_conv1_relu
I0813 23:19:35.015256  6049 net.cpp:148] Top shape: 80 240 7 7 (940800)
I0813 23:19:35.015260  6049 net.cpp:156] Memory required for data: 5110802240
I0813 23:19:35.015264  6049 layer_factory.hpp:77] Creating layer shuffle14
I0813 23:19:35.015271  6049 net.cpp:91] Creating Layer shuffle14
I0813 23:19:35.015276  6049 net.cpp:469] shuffle14 <- resx14_conv1
I0813 23:19:35.015285  6049 net.cpp:443] shuffle14 -> shuffle14
I0813 23:19:35.015324  6049 net.cpp:141] Setting up shuffle14
I0813 23:19:35.015331  6049 net.cpp:148] Top shape: 80 240 7 7 (940800)
I0813 23:19:35.015334  6049 net.cpp:156] Memory required for data: 5114565440
I0813 23:19:35.015338  6049 layer_factory.hpp:77] Creating layer resx14_conv2
I0813 23:19:35.015348  6049 net.cpp:91] Creating Layer resx14_conv2
I0813 23:19:35.015353  6049 net.cpp:469] resx14_conv2 <- shuffle14
I0813 23:19:35.015360  6049 net.cpp:443] resx14_conv2 -> resx14_conv2
I0813 23:19:35.015560  6049 net.cpp:141] Setting up resx14_conv2
I0813 23:19:35.015573  6049 net.cpp:148] Top shape: 80 240 7 7 (940800)
I0813 23:19:35.015576  6049 net.cpp:156] Memory required for data: 5118328640
I0813 23:19:35.015590  6049 layer_factory.hpp:77] Creating layer resx14_conv2_bn
I0813 23:19:35.015606  6049 net.cpp:91] Creating Layer resx14_conv2_bn
I0813 23:19:35.015611  6049 net.cpp:469] resx14_conv2_bn <- resx14_conv2
I0813 23:19:35.015616  6049 net.cpp:430] resx14_conv2_bn -> resx14_conv2 (in-place)
I0813 23:19:35.015854  6049 net.cpp:141] Setting up resx14_conv2_bn
I0813 23:19:35.015862  6049 net.cpp:148] Top shape: 80 240 7 7 (940800)
I0813 23:19:35.015866  6049 net.cpp:156] Memory required for data: 5122091840
I0813 23:19:35.015873  6049 layer_factory.hpp:77] Creating layer resx14_conv2_scale
I0813 23:19:35.015880  6049 net.cpp:91] Creating Layer resx14_conv2_scale
I0813 23:19:35.015884  6049 net.cpp:469] resx14_conv2_scale <- resx14_conv2
I0813 23:19:35.015889  6049 net.cpp:430] resx14_conv2_scale -> resx14_conv2 (in-place)
I0813 23:19:35.015941  6049 layer_factory.hpp:77] Creating layer resx14_conv2_scale
I0813 23:19:35.016083  6049 net.cpp:141] Setting up resx14_conv2_scale
I0813 23:19:35.016090  6049 net.cpp:148] Top shape: 80 240 7 7 (940800)
I0813 23:19:35.016094  6049 net.cpp:156] Memory required for data: 5125855040
I0813 23:19:35.016100  6049 layer_factory.hpp:77] Creating layer resx14_conv3
I0813 23:19:35.016110  6049 net.cpp:91] Creating Layer resx14_conv3
I0813 23:19:35.016115  6049 net.cpp:469] resx14_conv3 <- resx14_conv2
I0813 23:19:35.016122  6049 net.cpp:443] resx14_conv3 -> resx14_conv3
I0813 23:19:35.020817  6049 net.cpp:141] Setting up resx14_conv3
I0813 23:19:35.020833  6049 net.cpp:148] Top shape: 80 960 7 7 (3763200)
I0813 23:19:35.020838  6049 net.cpp:156] Memory required for data: 5140907840
I0813 23:19:35.020844  6049 layer_factory.hpp:77] Creating layer resx14_conv3_bn
I0813 23:19:35.020854  6049 net.cpp:91] Creating Layer resx14_conv3_bn
I0813 23:19:35.020859  6049 net.cpp:469] resx14_conv3_bn <- resx14_conv3
I0813 23:19:35.020864  6049 net.cpp:430] resx14_conv3_bn -> resx14_conv3 (in-place)
I0813 23:19:35.021121  6049 net.cpp:141] Setting up resx14_conv3_bn
I0813 23:19:35.021131  6049 net.cpp:148] Top shape: 80 960 7 7 (3763200)
I0813 23:19:35.021134  6049 net.cpp:156] Memory required for data: 5155960640
I0813 23:19:35.021142  6049 layer_factory.hpp:77] Creating layer resx14_conv3_scale
I0813 23:19:35.021149  6049 net.cpp:91] Creating Layer resx14_conv3_scale
I0813 23:19:35.021153  6049 net.cpp:469] resx14_conv3_scale <- resx14_conv3
I0813 23:19:35.021158  6049 net.cpp:430] resx14_conv3_scale -> resx14_conv3 (in-place)
I0813 23:19:35.021216  6049 layer_factory.hpp:77] Creating layer resx14_conv3_scale
I0813 23:19:35.021363  6049 net.cpp:141] Setting up resx14_conv3_scale
I0813 23:19:35.021373  6049 net.cpp:148] Top shape: 80 960 7 7 (3763200)
I0813 23:19:35.021378  6049 net.cpp:156] Memory required for data: 5171013440
I0813 23:19:35.021409  6049 layer_factory.hpp:77] Creating layer resx14_elewise
I0813 23:19:35.021417  6049 net.cpp:91] Creating Layer resx14_elewise
I0813 23:19:35.021422  6049 net.cpp:469] resx14_elewise <- resx13_concat_resx13_concat_relu_0_split_1
I0813 23:19:35.021426  6049 net.cpp:469] resx14_elewise <- resx14_conv3
I0813 23:19:35.021432  6049 net.cpp:443] resx14_elewise -> resx14_elewise
I0813 23:19:35.021468  6049 net.cpp:141] Setting up resx14_elewise
I0813 23:19:35.021476  6049 net.cpp:148] Top shape: 80 960 7 7 (3763200)
I0813 23:19:35.021479  6049 net.cpp:156] Memory required for data: 5186066240
I0813 23:19:35.021483  6049 layer_factory.hpp:77] Creating layer resx14_elewise_relu
I0813 23:19:35.021489  6049 net.cpp:91] Creating Layer resx14_elewise_relu
I0813 23:19:35.021493  6049 net.cpp:469] resx14_elewise_relu <- resx14_elewise
I0813 23:19:35.021499  6049 net.cpp:430] resx14_elewise_relu -> resx14_elewise (in-place)
I0813 23:19:35.021867  6049 net.cpp:141] Setting up resx14_elewise_relu
I0813 23:19:35.021881  6049 net.cpp:148] Top shape: 80 960 7 7 (3763200)
I0813 23:19:35.021885  6049 net.cpp:156] Memory required for data: 5201119040
I0813 23:19:35.021889  6049 layer_factory.hpp:77] Creating layer resx14_elewise_resx14_elewise_relu_0_split
I0813 23:19:35.021900  6049 net.cpp:91] Creating Layer resx14_elewise_resx14_elewise_relu_0_split
I0813 23:19:35.021914  6049 net.cpp:469] resx14_elewise_resx14_elewise_relu_0_split <- resx14_elewise
I0813 23:19:35.021920  6049 net.cpp:443] resx14_elewise_resx14_elewise_relu_0_split -> resx14_elewise_resx14_elewise_relu_0_split_0
I0813 23:19:35.021927  6049 net.cpp:443] resx14_elewise_resx14_elewise_relu_0_split -> resx14_elewise_resx14_elewise_relu_0_split_1
I0813 23:19:35.021984  6049 net.cpp:141] Setting up resx14_elewise_resx14_elewise_relu_0_split
I0813 23:19:35.021991  6049 net.cpp:148] Top shape: 80 960 7 7 (3763200)
I0813 23:19:35.021996  6049 net.cpp:148] Top shape: 80 960 7 7 (3763200)
I0813 23:19:35.021999  6049 net.cpp:156] Memory required for data: 5231224640
I0813 23:19:35.022003  6049 layer_factory.hpp:77] Creating layer resx15_conv1
I0813 23:19:35.022013  6049 net.cpp:91] Creating Layer resx15_conv1
I0813 23:19:35.022018  6049 net.cpp:469] resx15_conv1 <- resx14_elewise_resx14_elewise_relu_0_split_0
I0813 23:19:35.022024  6049 net.cpp:443] resx15_conv1 -> resx15_conv1
I0813 23:19:35.026895  6049 net.cpp:141] Setting up resx15_conv1
I0813 23:19:35.026911  6049 net.cpp:148] Top shape: 80 240 7 7 (940800)
I0813 23:19:35.026916  6049 net.cpp:156] Memory required for data: 5234987840
I0813 23:19:35.026922  6049 layer_factory.hpp:77] Creating layer resx15_conv1_bn
I0813 23:19:35.026932  6049 net.cpp:91] Creating Layer resx15_conv1_bn
I0813 23:19:35.026937  6049 net.cpp:469] resx15_conv1_bn <- resx15_conv1
I0813 23:19:35.026945  6049 net.cpp:430] resx15_conv1_bn -> resx15_conv1 (in-place)
I0813 23:19:35.027186  6049 net.cpp:141] Setting up resx15_conv1_bn
I0813 23:19:35.027194  6049 net.cpp:148] Top shape: 80 240 7 7 (940800)
I0813 23:19:35.027199  6049 net.cpp:156] Memory required for data: 5238751040
I0813 23:19:35.027205  6049 layer_factory.hpp:77] Creating layer resx15_conv1_scale
I0813 23:19:35.027216  6049 net.cpp:91] Creating Layer resx15_conv1_scale
I0813 23:19:35.027220  6049 net.cpp:469] resx15_conv1_scale <- resx15_conv1
I0813 23:19:35.027225  6049 net.cpp:430] resx15_conv1_scale -> resx15_conv1 (in-place)
I0813 23:19:35.027277  6049 layer_factory.hpp:77] Creating layer resx15_conv1_scale
I0813 23:19:35.027420  6049 net.cpp:141] Setting up resx15_conv1_scale
I0813 23:19:35.027431  6049 net.cpp:148] Top shape: 80 240 7 7 (940800)
I0813 23:19:35.027436  6049 net.cpp:156] Memory required for data: 5242514240
I0813 23:19:35.027441  6049 layer_factory.hpp:77] Creating layer resx15_conv1_relu
I0813 23:19:35.027448  6049 net.cpp:91] Creating Layer resx15_conv1_relu
I0813 23:19:35.027452  6049 net.cpp:469] resx15_conv1_relu <- resx15_conv1
I0813 23:19:35.027458  6049 net.cpp:430] resx15_conv1_relu -> resx15_conv1 (in-place)
I0813 23:19:35.027819  6049 net.cpp:141] Setting up resx15_conv1_relu
I0813 23:19:35.027834  6049 net.cpp:148] Top shape: 80 240 7 7 (940800)
I0813 23:19:35.027838  6049 net.cpp:156] Memory required for data: 5246277440
I0813 23:19:35.027842  6049 layer_factory.hpp:77] Creating layer shuffle15
I0813 23:19:35.027848  6049 net.cpp:91] Creating Layer shuffle15
I0813 23:19:35.027853  6049 net.cpp:469] shuffle15 <- resx15_conv1
I0813 23:19:35.027861  6049 net.cpp:443] shuffle15 -> shuffle15
I0813 23:19:35.027901  6049 net.cpp:141] Setting up shuffle15
…
I0813 23:19:35.244145  6049 net.cpp:91] Creating Layer resx11_conv1
I0813 23:19:35.244149  6049 net.cpp:469] resx11_conv1 <- resx10_elewise_resx10_elewise_relu_0_split_0
I0813 23:19:35.244154  6049 net.cpp:443] resx11_conv1 -> resx11_conv1
I0813 23:19:35.247723  6049 net.cpp:141] Setting up resx11_conv1
I0813 23:19:35.247737  6049 net.cpp:148] Top shape: 40 120 14 14 (940800)
I0813 23:19:35.247740  6049 net.cpp:156] Memory required for data: 2213891040
I0813 23:19:35.247746  6049 layer_factory.hpp:77] Creating layer resx11_conv1_bn
I0813 23:19:35.247759  6049 net.cpp:91] Creating Layer resx11_conv1_bn
I0813 23:19:35.247763  6049 net.cpp:469] resx11_conv1_bn <- resx11_conv1
I0813 23:19:35.247768  6049 net.cpp:430] resx11_conv1_bn -> resx11_conv1 (in-place)
I0813 23:19:35.247963  6049 net.cpp:141] Setting up resx11_conv1_bn
I0813 23:19:35.247972  6049 net.cpp:148] Top shape: 40 120 14 14 (940800)
I0813 23:19:35.247974  6049 net.cpp:156] Memory required for data: 2217654240
I0813 23:19:35.247980  6049 layer_factory.hpp:77] Creating layer resx11_conv1_scale
I0813 23:19:35.247987  6049 net.cpp:91] Creating Layer resx11_conv1_scale
I0813 23:19:35.247990  6049 net.cpp:469] resx11_conv1_scale <- resx11_conv1
I0813 23:19:35.247994  6049 net.cpp:430] resx11_conv1_scale -> resx11_conv1 (in-place)
I0813 23:19:35.248037  6049 layer_factory.hpp:77] Creating layer resx11_conv1_scale
I0813 23:19:35.248149  6049 net.cpp:141] Setting up resx11_conv1_scale
I0813 23:19:35.248157  6049 net.cpp:148] Top shape: 40 120 14 14 (940800)
I0813 23:19:35.248162  6049 net.cpp:156] Memory required for data: 2221417440
I0813 23:19:35.248167  6049 layer_factory.hpp:77] Creating layer resx11_conv1_relu
I0813 23:19:35.248172  6049 net.cpp:91] Creating Layer resx11_conv1_relu
I0813 23:19:35.248175  6049 net.cpp:469] resx11_conv1_relu <- resx11_conv1
I0813 23:19:35.248179  6049 net.cpp:430] resx11_conv1_relu -> resx11_conv1 (in-place)
I0813 23:19:35.248535  6049 net.cpp:141] Setting up resx11_conv1_relu
I0813 23:19:35.248548  6049 net.cpp:148] Top shape: 40 120 14 14 (940800)
I0813 23:19:35.248550  6049 net.cpp:156] Memory required for data: 2225180640
I0813 23:19:35.248554  6049 layer_factory.hpp:77] Creating layer shuffle11
I0813 23:19:35.248561  6049 net.cpp:91] Creating Layer shuffle11
I0813 23:19:35.248565  6049 net.cpp:469] shuffle11 <- resx11_conv1
I0813 23:19:35.248570  6049 net.cpp:443] shuffle11 -> shuffle11
I0813 23:19:35.248606  6049 net.cpp:141] Setting up shuffle11
I0813 23:19:35.248618  6049 net.cpp:148] Top shape: 40 120 14 14 (940800)
I0813 23:19:35.248621  6049 net.cpp:156] Memory required for data: 2228943840
I0813 23:19:35.248626  6049 layer_factory.hpp:77] Creating layer resx11_conv2
I0813 23:19:35.248634  6049 net.cpp:91] Creating Layer resx11_conv2
I0813 23:19:35.248638  6049 net.cpp:469] resx11_conv2 <- shuffle11
I0813 23:19:35.248643  6049 net.cpp:443] resx11_conv2 -> resx11_conv2
I0813 23:19:35.248795  6049 net.cpp:141] Setting up resx11_conv2
I0813 23:19:35.248805  6049 net.cpp:148] Top shape: 40 120 14 14 (940800)
I0813 23:19:35.248807  6049 net.cpp:156] Memory required for data: 2232707040
I0813 23:19:35.248812  6049 layer_factory.hpp:77] Creating layer resx11_conv2_bn
I0813 23:19:35.248819  6049 net.cpp:91] Creating Layer resx11_conv2_bn
I0813 23:19:35.248823  6049 net.cpp:469] resx11_conv2_bn <- resx11_conv2
I0813 23:19:35.248828  6049 net.cpp:430] resx11_conv2_bn -> resx11_conv2 (in-place)
I0813 23:19:35.249019  6049 net.cpp:141] Setting up resx11_conv2_bn
I0813 23:19:35.249027  6049 net.cpp:148] Top shape: 40 120 14 14 (940800)
I0813 23:19:35.249029  6049 net.cpp:156] Memory required for data: 2236470240
I0813 23:19:35.249035  6049 layer_factory.hpp:77] Creating layer resx11_conv2_scale
I0813 23:19:35.249042  6049 net.cpp:91] Creating Layer resx11_conv2_scale
I0813 23:19:35.249047  6049 net.cpp:469] resx11_conv2_scale <- resx11_conv2
I0813 23:19:35.249050  6049 net.cpp:430] resx11_conv2_scale -> resx11_conv2 (in-place)
I0813 23:19:35.249095  6049 layer_factory.hpp:77] Creating layer resx11_conv2_scale
I0813 23:19:35.249208  6049 net.cpp:141] Setting up resx11_conv2_scale
I0813 23:19:35.249215  6049 net.cpp:148] Top shape: 40 120 14 14 (940800)
I0813 23:19:35.249218  6049 net.cpp:156] Memory required for data: 2240233440
I0813 23:19:35.249224  6049 layer_factory.hpp:77] Creating layer resx11_conv3
I0813 23:19:35.249234  6049 net.cpp:91] Creating Layer resx11_conv3
I0813 23:19:35.249238  6049 net.cpp:469] resx11_conv3 <- resx11_conv2
I0813 23:19:35.249243  6049 net.cpp:443] resx11_conv3 -> resx11_conv3
I0813 23:19:35.252310  6049 net.cpp:141] Setting up resx11_conv3
I0813 23:19:35.252322  6049 net.cpp:148] Top shape: 40 480 14 14 (3763200)
I0813 23:19:35.252326  6049 net.cpp:156] Memory required for data: 2255286240
I0813 23:19:35.252332  6049 layer_factory.hpp:77] Creating layer resx11_conv3_bn
I0813 23:19:35.252342  6049 net.cpp:91] Creating Layer resx11_conv3_bn
I0813 23:19:35.252346  6049 net.cpp:469] resx11_conv3_bn <- resx11_conv3
I0813 23:19:35.252352  6049 net.cpp:430] resx11_conv3_bn -> resx11_conv3 (in-place)
I0813 23:19:35.252568  6049 net.cpp:141] Setting up resx11_conv3_bn
I0813 23:19:35.252574  6049 net.cpp:148] Top shape: 40 480 14 14 (3763200)
I0813 23:19:35.252578  6049 net.cpp:156] Memory required for data: 2270339040
I0813 23:19:35.252583  6049 layer_factory.hpp:77] Creating layer resx11_conv3_scale
I0813 23:19:35.252593  6049 net.cpp:91] Creating Layer resx11_conv3_scale
I0813 23:19:35.252598  6049 net.cpp:469] resx11_conv3_scale <- resx11_conv3
I0813 23:19:35.252602  6049 net.cpp:430] resx11_conv3_scale -> resx11_conv3 (in-place)
I0813 23:19:35.252657  6049 layer_factory.hpp:77] Creating layer resx11_conv3_scale
I0813 23:19:35.252789  6049 net.cpp:141] Setting up resx11_conv3_scale
I0813 23:19:35.252795  6049 net.cpp:148] Top shape: 40 480 14 14 (3763200)
I0813 23:19:35.252799  6049 net.cpp:156] Memory required for data: 2285391840
I0813 23:19:35.252804  6049 layer_factory.hpp:77] Creating layer resx11_elewise
I0813 23:19:35.252810  6049 net.cpp:91] Creating Layer resx11_elewise
I0813 23:19:35.252813  6049 net.cpp:469] resx11_elewise <- resx10_elewise_resx10_elewise_relu_0_split_1
I0813 23:19:35.252817  6049 net.cpp:469] resx11_elewise <- resx11_conv3
I0813 23:19:35.252823  6049 net.cpp:443] resx11_elewise -> resx11_elewise
I0813 23:19:35.252846  6049 net.cpp:141] Setting up resx11_elewise
I0813 23:19:35.252851  6049 net.cpp:148] Top shape: 40 480 14 14 (3763200)
I0813 23:19:35.252854  6049 net.cpp:156] Memory required for data: 2300444640
I0813 23:19:35.252866  6049 layer_factory.hpp:77] Creating layer resx11_elewise_relu
I0813 23:19:35.252874  6049 net.cpp:91] Creating Layer resx11_elewise_relu
I0813 23:19:35.252877  6049 net.cpp:469] resx11_elewise_relu <- resx11_elewise
I0813 23:19:35.252882  6049 net.cpp:430] resx11_elewise_relu -> resx11_elewise (in-place)
I0813 23:19:35.253252  6049 net.cpp:141] Setting up resx11_elewise_relu
I0813 23:19:35.253267  6049 net.cpp:148] Top shape: 40 480 14 14 (3763200)
I0813 23:19:35.253270  6049 net.cpp:156] Memory required for data: 2315497440
I0813 23:19:35.253274  6049 layer_factory.hpp:77] Creating layer resx11_elewise_resx11_elewise_relu_0_split
I0813 23:19:35.253280  6049 net.cpp:91] Creating Layer resx11_elewise_resx11_elewise_relu_0_split
I0813 23:19:35.253283  6049 net.cpp:469] resx11_elewise_resx11_elewise_relu_0_split <- resx11_elewise
I0813 23:19:35.253288  6049 net.cpp:443] resx11_elewise_resx11_elewise_relu_0_split -> resx11_elewise_resx11_elewise_relu_0_split_0
I0813 23:19:35.253294  6049 net.cpp:443] resx11_elewise_resx11_elewise_relu_0_split -> resx11_elewise_resx11_elewise_relu_0_split_1
I0813 23:19:35.253338  6049 net.cpp:141] Setting up resx11_elewise_resx11_elewise_relu_0_split
I0813 23:19:35.253345  6049 net.cpp:148] Top shape: 40 480 14 14 (3763200)
I0813 23:19:35.253348  6049 net.cpp:148] Top shape: 40 480 14 14 (3763200)
I0813 23:19:35.253351  6049 net.cpp:156] Memory required for data: 2345603040
I0813 23:19:35.253355  6049 layer_factory.hpp:77] Creating layer resx12_conv1
I0813 23:19:35.253365  6049 net.cpp:91] Creating Layer resx12_conv1
I0813 23:19:35.253370  6049 net.cpp:469] resx12_conv1 <- resx11_elewise_resx11_elewise_relu_0_split_0
I0813 23:19:35.253376  6049 net.cpp:443] resx12_conv1 -> resx12_conv1
I0813 23:19:35.256639  6049 net.cpp:141] Setting up resx12_conv1
I0813 23:19:35.256652  6049 net.cpp:148] Top shape: 40 120 14 14 (940800)
I0813 23:19:35.256656  6049 net.cpp:156] Memory required for data: 2349366240
I0813 23:19:35.256661  6049 layer_factory.hpp:77] Creating layer resx12_conv1_bn
I0813 23:19:35.256670  6049 net.cpp:91] Creating Layer resx12_conv1_bn
I0813 23:19:35.256675  6049 net.cpp:469] resx12_conv1_bn <- resx12_conv1
I0813 23:19:35.256680  6049 net.cpp:430] resx12_conv1_bn -> resx12_conv1 (in-place)
I0813 23:19:35.256870  6049 net.cpp:141] Setting up resx12_conv1_bn
I0813 23:19:35.256877  6049 net.cpp:148] Top shape: 40 120 14 14 (940800)
I0813 23:19:35.256880  6049 net.cpp:156] Memory required for data: 2353129440
I0813 23:19:35.256886  6049 layer_factory.hpp:77] Creating layer resx12_conv1_scale
I0813 23:19:35.256894  6049 net.cpp:91] Creating Layer resx12_conv1_scale
I0813 23:19:35.256898  6049 net.cpp:469] resx12_conv1_scale <- resx12_conv1
I0813 23:19:35.256902  6049 net.cpp:430] resx12_conv1_scale -> resx12_conv1 (in-place)
I0813 23:19:35.256943  6049 layer_factory.hpp:77] Creating layer resx12_conv1_scale
I0813 23:19:35.257056  6049 net.cpp:141] Setting up resx12_conv1_scale
I0813 23:19:35.257063  6049 net.cpp:148] Top shape: 40 120 14 14 (940800)
I0813 23:19:35.257066  6049 net.cpp:156] Memory required for data: 2356892640
I0813 23:19:35.257073  6049 layer_factory.hpp:77] Creating layer resx12_conv1_relu
I0813 23:19:35.257086  6049 net.cpp:91] Creating Layer resx12_conv1_relu
I0813 23:19:35.257088  6049 net.cpp:469] resx12_conv1_relu <- resx12_conv1
I0813 23:19:35.257093  6049 net.cpp:430] resx12_conv1_relu -> resx12_conv1 (in-place)
I0813 23:19:35.257453  6049 net.cpp:141] Setting up resx12_conv1_relu
I0813 23:19:35.257467  6049 net.cpp:148] Top shape: 40 120 14 14 (940800)
I0813 23:19:35.257470  6049 net.cpp:156] Memory required for data: 2360655840
I0813 23:19:35.257473  6049 layer_factory.hpp:77] Creating layer shuffle12
I0813 23:19:35.257479  6049 net.cpp:91] Creating Layer shuffle12
I0813 23:19:35.257483  6049 net.cpp:469] shuffle12 <- resx12_conv1
I0813 23:19:35.257488  6049 net.cpp:443] shuffle12 -> shuffle12
I0813 23:19:35.257521  6049 net.cpp:141] Setting up shuffle12
I0813 23:19:35.257527  6049 net.cpp:148] Top shape: 40 120 14 14 (940800)
I0813 23:19:35.257534  6049 net.cpp:156] Memory required for data: 2364419040
I0813 23:19:35.257542  6049 layer_factory.hpp:77] Creating layer resx12_conv2
I0813 23:19:35.257551  6049 net.cpp:91] Creating Layer resx12_conv2
I0813 23:19:35.257555  6049 net.cpp:469] resx12_conv2 <- shuffle12
I0813 23:19:35.257560  6049 net.cpp:443] resx12_conv2 -> resx12_conv2
I0813 23:19:35.257712  6049 net.cpp:141] Setting up resx12_conv2
I0813 23:19:35.257722  6049 net.cpp:148] Top shape: 40 120 14 14 (940800)
I0813 23:19:35.257725  6049 net.cpp:156] Memory required for data: 2368182240
I0813 23:19:35.257730  6049 layer_factory.hpp:77] Creating layer resx12_conv2_bn
I0813 23:19:35.257738  6049 net.cpp:91] Creating Layer resx12_conv2_bn
I0813 23:19:35.257741  6049 net.cpp:469] resx12_conv2_bn <- resx12_conv2
I0813 23:19:35.257746  6049 net.cpp:430] resx12_conv2_bn -> resx12_conv2 (in-place)
I0813 23:19:35.257936  6049 net.cpp:141] Setting up resx12_conv2_bn
I0813 23:19:35.257942  6049 net.cpp:148] Top shape: 40 120 14 14 (940800)
I0813 23:19:35.257946  6049 net.cpp:156] Memory required for data: 2371945440
I0813 23:19:35.257952  6049 layer_factory.hpp:77] Creating layer resx12_conv2_scale
I0813 23:19:35.257959  6049 net.cpp:91] Creating Layer resx12_conv2_scale
I0813 23:19:35.257962  6049 net.cpp:469] resx12_conv2_scale <- resx12_conv2
I0813 23:19:35.257966  6049 net.cpp:430] resx12_conv2_scale -> resx12_conv2 (in-place)
I0813 23:19:35.258008  6049 layer_factory.hpp:77] Creating layer resx12_conv2_scale
I0813 23:19:35.258118  6049 net.cpp:141] Setting up resx12_conv2_scale
I0813 23:19:35.258126  6049 net.cpp:148] Top shape: 40 120 14 14 (940800)
I0813 23:19:35.258128  6049 net.cpp:156] Memory required for data: 2375708640
I0813 23:19:35.258133  6049 layer_factory.hpp:77] Creating layer resx12_conv3
I0813 23:19:35.258142  6049 net.cpp:91] Creating Layer resx12_conv3
I0813 23:19:35.258147  6049 net.cpp:469] resx12_conv3 <- resx12_conv2
I0813 23:19:35.258152  6049 net.cpp:443] resx12_conv3 -> resx12_conv3
I0813 23:19:35.261238  6049 net.cpp:141] Setting up resx12_conv3
I0813 23:19:35.261253  6049 net.cpp:148] Top shape: 40 480 14 14 (3763200)
I0813 23:19:35.261257  6049 net.cpp:156] Memory required for data: 2390761440
I0813 23:19:35.261262  6049 layer_factory.hpp:77] Creating layer resx12_conv3_bn
I0813 23:19:35.261271  6049 net.cpp:91] Creating Layer resx12_conv3_bn
I0813 23:19:35.261276  6049 net.cpp:469] resx12_conv3_bn <- resx12_conv3
I0813 23:19:35.261281  6049 net.cpp:430] resx12_conv3_bn -> resx12_conv3 (in-place)
I0813 23:19:35.261503  6049 net.cpp:141] Setting up resx12_conv3_bn
I0813 23:19:35.261510  6049 net.cpp:148] Top shape: 40 480 14 14 (3763200)
I0813 23:19:35.261513  6049 net.cpp:156] Memory required for data: 2405814240
I0813 23:19:35.261520  6049 layer_factory.hpp:77] Creating layer resx12_conv3_scale
I0813 23:19:35.261528  6049 net.cpp:91] Creating Layer resx12_conv3_scale
I0813 23:19:35.261531  6049 net.cpp:469] resx12_conv3_scale <- resx12_conv3
I0813 23:19:35.261538  6049 net.cpp:430] resx12_conv3_scale -> resx12_conv3 (in-place)
I0813 23:19:35.261591  6049 layer_factory.hpp:77] Creating layer resx12_conv3_scale
I0813 23:19:35.261726  6049 net.cpp:141] Setting up resx12_conv3_scale
I0813 23:19:35.261734  6049 net.cpp:148] Top shape: 40 480 14 14 (3763200)
I0813 23:19:35.261736  6049 net.cpp:156] Memory required for data: 2420867040
I0813 23:19:35.261742  6049 layer_factory.hpp:77] Creating layer resx12_elewise
I0813 23:19:35.261749  6049 net.cpp:91] Creating Layer resx12_elewise
I0813 23:19:35.261752  6049 net.cpp:469] resx12_elewise <- resx11_elewise_resx11_elewise_relu_0_split_1
I0813 23:19:35.261756  6049 net.cpp:469] resx12_elewise <- resx12_conv3
I0813 23:19:35.261762  6049 net.cpp:443] resx12_elewise -> resx12_elewise
I0813 23:19:35.261788  6049 net.cpp:141] Setting up resx12_elewise
I0813 23:19:35.261795  6049 net.cpp:148] Top shape: 40 480 14 14 (3763200)
I0813 23:19:35.261797  6049 net.cpp:156] Memory required for data: 2435919840
I0813 23:19:35.261801  6049 layer_factory.hpp:77] Creating layer resx12_elewise_relu
I0813 23:19:35.261816  6049 net.cpp:91] Creating Layer resx12_elewise_relu
I0813 23:19:35.261821  6049 net.cpp:469] resx12_elewise_relu <- resx12_elewise
I0813 23:19:35.261826  6049 net.cpp:430] resx12_elewise_relu -> resx12_elewise (in-place)
I0813 23:19:35.262186  6049 net.cpp:141] Setting up resx12_elewise_relu
I0813 23:19:35.262197  6049 net.cpp:148] Top shape: 40 480 14 14 (3763200)
I0813 23:19:35.262200  6049 net.cpp:156] Memory required for data: 2450972640
I0813 23:19:35.262203  6049 layer_factory.hpp:77] Creating layer resx12_elewise_resx12_elewise_relu_0_split
I0813 23:19:35.262212  6049 net.cpp:91] Creating Layer resx12_elewise_resx12_elewise_relu_0_split
I0813 23:19:35.262217  6049 net.cpp:469] resx12_elewise_resx12_elewise_relu_0_split <- resx12_elewise
I0813 23:19:35.262220  6049 net.cpp:443] resx12_elewise_resx12_elewise_relu_0_split -> resx12_elewise_resx12_elewise_relu_0_split_0
I0813 23:19:35.262229  6049 net.cpp:443] resx12_elewise_resx12_elewise_relu_0_split -> resx12_elewise_resx12_elewise_relu_0_split_1
I0813 23:19:35.262272  6049 net.cpp:141] Setting up resx12_elewise_resx12_elewise_relu_0_split
I0813 23:19:35.262279  6049 net.cpp:148] Top shape: 40 480 14 14 (3763200)
I0813 23:19:35.262282  6049 net.cpp:148] Top shape: 40 480 14 14 (3763200)
I0813 23:19:35.262285  6049 net.cpp:156] Memory required for data: 2481078240
I0813 23:19:35.262289  6049 layer_factory.hpp:77] Creating layer resx13_match_conv
I0813 23:19:35.262295  6049 net.cpp:91] Creating Layer resx13_match_conv
I0813 23:19:35.262300  6049 net.cpp:469] resx13_match_conv <- resx12_elewise_resx12_elewise_relu_0_split_0
I0813 23:19:35.262303  6049 net.cpp:443] resx13_match_conv -> resx13_match_conv
I0813 23:19:35.262500  6049 net.cpp:141] Setting up resx13_match_conv
I0813 23:19:35.262508  6049 net.cpp:148] Top shape: 40 480 7 7 (940800)
I0813 23:19:35.262511  6049 net.cpp:156] Memory required for data: 2484841440
I0813 23:19:35.262516  6049 layer_factory.hpp:77] Creating layer resx13_conv1
I0813 23:19:35.262527  6049 net.cpp:91] Creating Layer resx13_conv1
I0813 23:19:35.262531  6049 net.cpp:469] resx13_conv1 <- resx12_elewise_resx12_elewise_relu_0_split_1
I0813 23:19:35.262537  6049 net.cpp:443] resx13_conv1 -> resx13_conv1
I0813 23:19:35.265792  6049 net.cpp:141] Setting up resx13_conv1
I0813 23:19:35.265805  6049 net.cpp:148] Top shape: 40 120 14 14 (940800)
I0813 23:19:35.265810  6049 net.cpp:156] Memory required for data: 2488604640
I0813 23:19:35.265815  6049 layer_factory.hpp:77] Creating layer resx13_conv1_bn
I0813 23:19:35.265823  6049 net.cpp:91] Creating Layer resx13_conv1_bn
I0813 23:19:35.265827  6049 net.cpp:469] resx13_conv1_bn <- resx13_conv1
I0813 23:19:35.265833  6049 net.cpp:430] resx13_conv1_bn -> resx13_conv1 (in-place)
I0813 23:19:35.266029  6049 net.cpp:141] Setting up resx13_conv1_bn
I0813 23:19:35.266036  6049 net.cpp:148] Top shape: 40 120 14 14 (940800)
I0813 23:19:35.266039  6049 net.cpp:156] Memory required for data: 2492367840
I0813 23:19:35.266046  6049 layer_factory.hpp:77] Creating layer resx13_conv1_scale
I0813 23:19:35.266054  6049 net.cpp:91] Creating Layer resx13_conv1_scale
I0813 23:19:35.266057  6049 net.cpp:469] resx13_conv1_scale <- resx13_conv1
I0813 23:19:35.266062  6049 net.cpp:430] resx13_conv1_scale -> resx13_conv1 (in-place)
I0813 23:19:35.266104  6049 layer_factory.hpp:77] Creating layer resx13_conv1_scale
I0813 23:19:35.266222  6049 net.cpp:141] Setting up resx13_conv1_scale
I0813 23:19:35.266232  6049 net.cpp:148] Top shape: 40 120 14 14 (940800)
I0813 23:19:35.266234  6049 net.cpp:156] Memory required for data: 2496131040
I0813 23:19:35.266240  6049 layer_factory.hpp:77] Creating layer resx13_conv1_relu
I0813 23:19:35.266245  6049 net.cpp:91] Creating Layer resx13_conv1_relu
I0813 23:19:35.266248  6049 net.cpp:469] resx13_conv1_relu <- resx13_conv1
I0813 23:19:35.266254  6049 net.cpp:430] resx13_conv1_relu -> resx13_conv1 (in-place)
I0813 23:19:35.266430  6049 net.cpp:141] Setting up resx13_conv1_relu
I0813 23:19:35.266439  6049 net.cpp:148] Top shape: 40 120 14 14 (940800)
I0813 23:19:35.266445  6049 net.cpp:156] Memory required for data: 2499894240
I0813 23:19:35.266456  6049 layer_factory.hpp:77] Creating layer shuffle13
I0813 23:19:35.266463  6049 net.cpp:91] Creating Layer shuffle13
I0813 23:19:35.266466  6049 net.cpp:469] shuffle13 <- resx13_conv1
I0813 23:19:35.266474  6049 net.cpp:443] shuffle13 -> shuffle13
I0813 23:19:35.266504  6049 net.cpp:141] Setting up shuffle13
I0813 23:19:35.266510  6049 net.cpp:148] Top shape: 40 120 14 14 (940800)
I0813 23:19:35.266512  6049 net.cpp:156] Memory required for data: 2503657440
I0813 23:19:35.266515  6049 layer_factory.hpp:77] Creating layer resx13_conv2
I0813 23:19:35.266523  6049 net.cpp:91] Creating Layer resx13_conv2
I0813 23:19:35.266527  6049 net.cpp:469] resx13_conv2 <- shuffle13
I0813 23:19:35.266533  6049 net.cpp:443] resx13_conv2 -> resx13_conv2
I0813 23:19:35.266718  6049 net.cpp:141] Setting up resx13_conv2
I0813 23:19:35.266728  6049 net.cpp:148] Top shape: 40 120 7 7 (235200)
I0813 23:19:35.266731  6049 net.cpp:156] Memory required for data: 2504598240
I0813 23:19:35.266736  6049 layer_factory.hpp:77] Creating layer resx13_conv2_bn
I0813 23:19:35.266744  6049 net.cpp:91] Creating Layer resx13_conv2_bn
I0813 23:19:35.266749  6049 net.cpp:469] resx13_conv2_bn <- resx13_conv2
I0813 23:19:35.266754  6049 net.cpp:430] resx13_conv2_bn -> resx13_conv2 (in-place)
I0813 23:19:35.266960  6049 net.cpp:141] Setting up resx13_conv2_bn
I0813 23:19:35.266968  6049 net.cpp:148] Top shape: 40 120 7 7 (235200)
I0813 23:19:35.266970  6049 net.cpp:156] Memory required for data: 2505539040
I0813 23:19:35.266978  6049 layer_factory.hpp:77] Creating layer resx13_conv2_scale
I0813 23:19:35.266984  6049 net.cpp:91] Creating Layer resx13_conv2_scale
I0813 23:19:35.266988  6049 net.cpp:469] resx13_conv2_scale <- resx13_conv2
I0813 23:19:35.266993  6049 net.cpp:430] resx13_conv2_scale -> resx13_conv2 (in-place)
I0813 23:19:35.267035  6049 layer_factory.hpp:77] Creating layer resx13_conv2_scale
I0813 23:19:35.267151  6049 net.cpp:141] Setting up resx13_conv2_scale
I0813 23:19:35.267163  6049 net.cpp:148] Top shape: 40 120 7 7 (235200)
I0813 23:19:35.267165  6049 net.cpp:156] Memory required for data: 2506479840
I0813 23:19:35.267170  6049 layer_factory.hpp:77] Creating layer resx13_conv3
I0813 23:19:35.267179  6049 net.cpp:91] Creating Layer resx13_conv3
I0813 23:19:35.267181  6049 net.cpp:469] resx13_conv3 <- resx13_conv2
I0813 23:19:35.267189  6049 net.cpp:443] resx13_conv3 -> resx13_conv3
I0813 23:19:35.270473  6049 net.cpp:141] Setting up resx13_conv3
I0813 23:19:35.270485  6049 net.cpp:148] Top shape: 40 480 7 7 (940800)
I0813 23:19:35.270489  6049 net.cpp:156] Memory required for data: 2510243040
I0813 23:19:35.270494  6049 layer_factory.hpp:77] Creating layer resx13_conv3_bn
I0813 23:19:35.270503  6049 net.cpp:91] Creating Layer resx13_conv3_bn
I0813 23:19:35.270508  6049 net.cpp:469] resx13_conv3_bn <- resx13_conv3
I0813 23:19:35.270512  6049 net.cpp:430] resx13_conv3_bn -> resx13_conv3 (in-place)
I0813 23:19:35.270745  6049 net.cpp:141] Setting up resx13_conv3_bn
I0813 23:19:35.270752  6049 net.cpp:148] Top shape: 40 480 7 7 (940800)
I0813 23:19:35.270756  6049 net.cpp:156] Memory required for data: 2514006240
I0813 23:19:35.270761  6049 layer_factory.hpp:77] Creating layer resx13_conv3_scale
I0813 23:19:35.270769  6049 net.cpp:91] Creating Layer resx13_conv3_scale
I0813 23:19:35.270773  6049 net.cpp:469] resx13_conv3_scale <- resx13_conv3
I0813 23:19:35.270777  6049 net.cpp:430] resx13_conv3_scale -> resx13_conv3 (in-place)
I0813 23:19:35.270834  6049 layer_factory.hpp:77] Creating layer resx13_conv3_scale
I0813 23:19:35.270973  6049 net.cpp:141] Setting up resx13_conv3_scale
I0813 23:19:35.270980  6049 net.cpp:148] Top shape: 40 480 7 7 (940800)
I0813 23:19:35.270983  6049 net.cpp:156] Memory required for data: 2517769440
I0813 23:19:35.270989  6049 layer_factory.hpp:77] Creating layer resx13_concat
I0813 23:19:35.270997  6049 net.cpp:91] Creating Layer resx13_concat
I0813 23:19:35.271000  6049 net.cpp:469] resx13_concat <- resx13_match_conv
I0813 23:19:35.271008  6049 net.cpp:469] resx13_concat <- resx13_conv3
I0813 23:19:35.271018  6049 net.cpp:443] resx13_concat -> resx13_concat
I0813 23:19:35.271047  6049 net.cpp:141] Setting up resx13_concat
I0813 23:19:35.271054  6049 net.cpp:148] Top shape: 40 960 7 7 (1881600)
I0813 23:19:35.271056  6049 net.cpp:156] Memory required for data: 2525295840
I0813 23:19:35.271059  6049 layer_factory.hpp:77] Creating layer resx13_concat_relu
I0813 23:19:35.271064  6049 net.cpp:91] Creating Layer resx13_concat_relu
I0813 23:19:35.271069  6049 net.cpp:469] resx13_concat_relu <- resx13_concat
I0813 23:19:35.271073  6049 net.cpp:430] resx13_concat_relu -> resx13_concat (in-place)
I0813 23:19:35.271428  6049 net.cpp:141] Setting up resx13_concat_relu
I0813 23:19:35.271440  6049 net.cpp:148] Top shape: 40 960 7 7 (1881600)
I0813 23:19:35.271443  6049 net.cpp:156] Memory required for data: 2532822240
I0813 23:19:35.271447  6049 layer_factory.hpp:77] Creating layer resx13_concat_resx13_concat_relu_0_split
I0813 23:19:35.271453  6049 net.cpp:91] Creating Layer resx13_concat_resx13_concat_relu_0_split
I0813 23:19:35.271456  6049 net.cpp:469] resx13_concat_resx13_concat_relu_0_split <- resx13_concat
I0813 23:19:35.271463  6049 net.cpp:443] resx13_concat_resx13_concat_relu_0_split -> resx13_concat_resx13_concat_relu_0_split_0
I0813 23:19:35.271469  6049 net.cpp:443] resx13_concat_resx13_concat_relu_0_split -> resx13_concat_resx13_concat_relu_0_split_1
I0813 23:19:35.271513  6049 net.cpp:141] Setting up resx13_concat_resx13_concat_relu_0_split
I0813 23:19:35.271522  6049 net.cpp:148] Top shape: 40 960 7 7 (1881600)
I0813 23:19:35.271525  6049 net.cpp:148] Top shape: 40 960 7 7 (1881600)
I0813 23:19:35.271528  6049 net.cpp:156] Memory required for data: 2547875040
I0813 23:19:35.271531  6049 layer_factory.hpp:77] Creating layer resx14_conv1
I0813 23:19:35.271540  6049 net.cpp:91] Creating Layer resx14_conv1
I0813 23:19:35.271544  6049 net.cpp:469] resx14_conv1 <- resx13_concat_resx13_concat_relu_0_split_0
I0813 23:19:35.271549  6049 net.cpp:443] resx14_conv1 -> resx14_conv1
I0813 23:19:35.276055  6049 net.cpp:141] Setting up resx14_conv1
I0813 23:19:35.276068  6049 net.cpp:148] Top shape: 40 240 7 7 (470400)
I0813 23:19:35.276072  6049 net.cpp:156] Memory required for data: 2549756640
I0813 23:19:35.276078  6049 layer_factory.hpp:77] Creating layer resx14_conv1_bn
I0813 23:19:35.276087  6049 net.cpp:91] Creating Layer resx14_conv1_bn
I0813 23:19:35.276091  6049 net.cpp:469] resx14_conv1_bn <- resx14_conv1
I0813 23:19:35.276095  6049 net.cpp:430] resx14_conv1_bn -> resx14_conv1 (in-place)
I0813 23:19:35.276299  6049 net.cpp:141] Setting up resx14_conv1_bn
I0813 23:19:35.276306  6049 net.cpp:148] Top shape: 40 240 7 7 (470400)
I0813 23:19:35.276309  6049 net.cpp:156] Memory required for data: 2551638240
I0813 23:19:35.276316  6049 layer_factory.hpp:77] Creating layer resx14_conv1_scale
I0813 23:19:35.276322  6049 net.cpp:91] Creating Layer resx14_conv1_scale
I0813 23:19:35.276326  6049 net.cpp:469] resx14_conv1_scale <- resx14_conv1
I0813 23:19:35.276330  6049 net.cpp:430] resx14_conv1_scale -> resx14_conv1 (in-place)
I0813 23:19:35.276373  6049 layer_factory.hpp:77] Creating layer resx14_conv1_scale
I0813 23:19:35.276490  6049 net.cpp:141] Setting up resx14_conv1_scale
I0813 23:19:35.276497  6049 net.cpp:148] Top shape: 40 240 7 7 (470400)
I0813 23:19:35.276500  6049 net.cpp:156] Memory required for data: 2553519840
I0813 23:19:35.276505  6049 layer_factory.hpp:77] Creating layer resx14_conv1_relu
I0813 23:19:35.276511  6049 net.cpp:91] Creating Layer resx14_conv1_relu
I0813 23:19:35.276515  6049 net.cpp:469] resx14_conv1_relu <- resx14_conv1
I0813 23:19:35.276520  6049 net.cpp:430] resx14_conv1_relu -> resx14_conv1 (in-place)
I0813 23:19:35.276886  6049 net.cpp:141] Setting up resx14_conv1_relu
I0813 23:19:35.276897  6049 net.cpp:148] Top shape: 40 240 7 7 (470400)
I0813 23:19:35.276901  6049 net.cpp:156] Memory required for data: 2555401440
I0813 23:19:35.276904  6049 layer_factory.hpp:77] Creating layer shuffle14
I0813 23:19:35.276916  6049 net.cpp:91] Creating Layer shuffle14
I0813 23:19:35.276926  6049 net.cpp:469] shuffle14 <- resx14_conv1
I0813 23:19:35.276932  6049 net.cpp:443] shuffle14 -> shuffle14
I0813 23:19:35.276964  6049 net.cpp:141] Setting up shuffle14
I0813 23:19:35.276971  6049 net.cpp:148] Top shape: 40 240 7 7 (470400)
I0813 23:19:35.276974  6049 net.cpp:156] Memory required for data: 2557283040
I0813 23:19:35.276978  6049 layer_factory.hpp:77] Creating layer resx14_conv2
I0813 23:19:35.276986  6049 net.cpp:91] Creating Layer resx14_conv2
I0813 23:19:35.276990  6049 net.cpp:469] resx14_conv2 <- shuffle14
I0813 23:19:35.276996  6049 net.cpp:443] resx14_conv2 -> resx14_conv2
I0813 23:19:35.277376  6049 net.cpp:141] Setting up resx14_conv2
I0813 23:19:35.277390  6049 net.cpp:148] Top shape: 40 240 7 7 (470400)
I0813 23:19:35.277392  6049 net.cpp:156] Memory required for data: 2559164640
I0813 23:19:35.277397  6049 layer_factory.hpp:77] Creating layer resx14_conv2_bn
I0813 23:19:35.277406  6049 net.cpp:91] Creating Layer resx14_conv2_bn
I0813 23:19:35.277411  6049 net.cpp:469] resx14_conv2_bn <- resx14_conv2
I0813 23:19:35.277417  6049 net.cpp:430] resx14_conv2_bn -> resx14_conv2 (in-place)
I0813 23:19:35.277629  6049 net.cpp:141] Setting up resx14_conv2_bn
I0813 23:19:35.277637  6049 net.cpp:148] Top shape: 40 240 7 7 (470400)
I0813 23:19:35.277639  6049 net.cpp:156] Memory required for data: 2561046240
I0813 23:19:35.277647  6049 layer_factory.hpp:77] Creating layer resx14_conv2_scale
I0813 23:19:35.277653  6049 net.cpp:91] Creating Layer resx14_conv2_scale
I0813 23:19:35.277657  6049 net.cpp:469] resx14_conv2_scale <- resx14_conv2
I0813 23:19:35.277662  6049 net.cpp:430] resx14_conv2_scale -> resx14_conv2 (in-place)
I0813 23:19:35.277705  6049 layer_factory.hpp:77] Creating layer resx14_conv2_scale
I0813 23:19:35.277823  6049 net.cpp:141] Setting up resx14_conv2_scale
I0813 23:19:35.277830  6049 net.cpp:148] Top shape: 40 240 7 7 (470400)
I0813 23:19:35.277833  6049 net.cpp:156] Memory required for data: 2562927840
I0813 23:19:35.277839  6049 layer_factory.hpp:77] Creating layer resx14_conv3
I0813 23:19:35.277849  6049 net.cpp:91] Creating Layer resx14_conv3
I0813 23:19:35.277853  6049 net.cpp:469] resx14_conv3 <- resx14_conv2
I0813 23:19:35.277858  6049 net.cpp:443] resx14_conv3 -> resx14_conv3
I0813 23:19:35.282380  6049 net.cpp:141] Setting up resx14_conv3
I0813 23:19:35.282394  6049 net.cpp:148] Top shape: 40 960 7 7 (1881600)
I0813 23:19:35.282398  6049 net.cpp:156] Memory required for data: 2570454240
I0813 23:19:35.282404  6049 layer_factory.hpp:77] Creating layer resx14_conv3_bn
I0813 23:19:35.282413  6049 net.cpp:91] Creating Layer resx14_conv3_bn
I0813 23:19:35.282416  6049 net.cpp:469] resx14_conv3_bn <- resx14_conv3
I0813 23:19:35.282423  6049 net.cpp:430] resx14_conv3_bn -> resx14_conv3 (in-place)
I0813 23:19:35.282663  6049 net.cpp:141] Setting up resx14_conv3_bn
I0813 23:19:35.282671  6049 net.cpp:148] Top shape: 40 960 7 7 (1881600)
I0813 23:19:35.282675  6049 net.cpp:156] Memory required for data: 2577980640
I0813 23:19:35.282680  6049 layer_factory.hpp:77] Creating layer resx14_conv3_scale
I0813 23:19:35.282688  6049 net.cpp:91] Creating Layer resx14_conv3_scale
I0813 23:19:35.282692  6049 net.cpp:469] resx14_conv3_scale <- resx14_conv3
I0813 23:19:35.282696  6049 net.cpp:430] resx14_conv3_scale -> resx14_conv3 (in-place)
I0813 23:19:35.282755  6049 layer_factory.hpp:77] Creating layer resx14_conv3_scale
I0813 23:19:35.282899  6049 net.cpp:141] Setting up resx14_conv3_scale
I0813 23:19:35.282907  6049 net.cpp:148] Top shape: 40 960 7 7 (1881600)
I0813 23:19:35.282909  6049 net.cpp:156] Memory required for data: 2585507040
I0813 23:19:35.282938  6049 layer_factory.hpp:77] Creating layer resx14_elewise
I0813 23:19:35.282944  6049 net.cpp:91] Creating Layer resx14_elewise
I0813 23:19:35.282948  6049 net.cpp:469] resx14_elewise <- resx13_concat_resx13_concat_relu_0_split_1
I0813 23:19:35.282953  6049 net.cpp:469] resx14_elewise <- resx14_conv3
I0813 23:19:35.282958  6049 net.cpp:443] resx14_elewise -> resx14_elewise
I0813 23:19:35.282990  6049 net.cpp:141] Setting up resx14_elewise
I0813 23:19:35.283004  6049 net.cpp:148] Top shape: 40 960 7 7 (1881600)
I0813 23:19:35.283007  6049 net.cpp:156] Memory required for data: 2593033440
I0813 23:19:35.283011  6049 layer_factory.hpp:77] Creating layer resx14_elewise_relu
I0813 23:19:35.283016  6049 net.cpp:91] Creating Layer resx14_elewise_relu
I0813 23:19:35.283020  6049 net.cpp:469] resx14_elewise_relu <- resx14_elewise
I0813 23:19:35.283025  6049 net.cpp:430] resx14_elewise_relu -> resx14_elewise (in-place)
I0813 23:19:35.283392  6049 net.cpp:141] Setting up resx14_elewise_relu
I0813 23:19:35.283404  6049 net.cpp:148] Top shape: 40 960 7 7 (1881600)
I0813 23:19:35.283407  6049 net.cpp:156] Memory required for data: 2600559840
I0813 23:19:35.283411  6049 layer_factory.hpp:77] Creating layer resx14_elewise_resx14_elewise_relu_0_split
I0813 23:19:35.283419  6049 net.cpp:91] Creating Layer resx14_elewise_resx14_elewise_relu_0_split
I0813 23:19:35.283423  6049 net.cpp:469] resx14_elewise_resx14_elewise_relu_0_split <- resx14_elewise
I0813 23:19:35.283428  6049 net.cpp:443] resx14_elewise_resx14_elewise_relu_0_split -> resx14_elewise_resx14_elewise_relu_0_split_0
I0813 23:19:35.283434  6049 net.cpp:443] resx14_elewise_resx14_elewise_relu_0_split -> resx14_elewise_resx14_elewise_relu_0_split_1
I0813 23:19:35.283481  6049 net.cpp:141] Setting up resx14_elewise_resx14_elewise_relu_0_split
I0813 23:19:35.283488  6049 net.cpp:148] Top shape: 40 960 7 7 (1881600)
I0813 23:19:35.283491  6049 net.cpp:148] Top shape: 40 960 7 7 (1881600)
I0813 23:19:35.283494  6049 net.cpp:156] Memory required for data: 2615612640
I0813 23:19:35.283498  6049 layer_factory.hpp:77] Creating layer resx15_conv1
I0813 23:19:35.283506  6049 net.cpp:91] Creating Layer resx15_conv1
I0813 23:19:35.283510  6049 net.cpp:469] resx15_conv1 <- resx14_elewise_resx14_elewise_relu_0_split_0
I0813 23:19:35.283516  6049 net.cpp:443] resx15_conv1 -> resx15_conv1
I0813 23:19:35.288743  6049 net.cpp:141] Setting up resx15_conv1
I0813 23:19:35.288758  6049 net.cpp:148] Top shape: 40 240 7 7 (470400)
I0813 23:19:35.288760  6049 net.cpp:156] Memory required for data: 2617494240
I0813 23:19:35.288766  6049 layer_factory.hpp:77] Creating layer resx15_conv1_bn
I0813 23:19:35.288775  6049 net.cpp:91] Creating Layer resx15_conv1_bn
I0813 23:19:35.288779  6049 net.cpp:469] resx15_conv1_bn <- resx15_conv1
I0813 23:19:35.288786  6049 net.cpp:430] resx15_conv1_bn -> resx15_conv1 (in-place)
I0813 23:19:35.288990  6049 net.cpp:141] Setting up resx15_conv1_bn
I0813 23:19:35.288996  6049 net.cpp:148] Top shape: 40 240 7 7 (470400)
I0813 23:19:35.289000  6049 net.cpp:156] Memory required for data: 2619375840
I0813 23:19:35.289007  6049 layer_factory.hpp:77] Creating layer resx15_conv1_scale
I0813 23:19:35.289016  6049 net.cpp:91] Creating Layer resx15_conv1_scale
I0813 23:19:35.289019  6049 net.cpp:469] resx15_conv1_scale <- resx15_conv1
I0813 23:19:35.289023  6049 net.cpp:430] resx15_conv1_scale -> resx15_conv1 (in-place)
I0813 23:19:35.289065  6049 layer_factory.hpp:77] Creating layer resx15_conv1_scale
I0813 23:19:35.289201  6049 net.cpp:141] Setting up resx15_conv1_scale
I0813 23:19:35.289211  6049 net.cpp:148] Top shape: 40 240 7 7 (470400)
I0813 23:19:35.289213  6049 net.cpp:156] Memory required for data: 2621257440
I0813 23:19:35.289218  6049 layer_factory.hpp:77] Creating layer resx15_conv1_relu
I0813 23:19:35.289225  6049 net.cpp:91] Creating Layer resx15_conv1_relu
I0813 23:19:35.289229  6049 net.cpp:469] resx15_conv1_relu <- resx15_conv1
I0813 23:19:35.289234  6049 net.cpp:430] resx15_conv1_relu -> resx15_conv1 (in-place)
I0813 23:19:35.289604  6049 net.cpp:141] Setting up resx15_conv1_relu
I0813 23:19:35.289616  6049 net.cpp:148] Top shape: 40 240 7 7 (470400)
I0813 23:19:35.289619  6049 net.cpp:156] Memory required for data: 2623139040
I0813 23:19:35.289623  6049 layer_factory.hpp:77] Creating layer shuffle15
I0813 23:19:35.289630  6049 net.cpp:91] Creating Layer shuffle15
I0813 23:19:35.289634  6049 net.cpp:469] shuffle15 <- resx15_conv1
I0813 23:19:35.289645  6049 net.cpp:443] shuffle15 -> shuffle15
I0813 23:19:35.289685  6049 net.cpp:141] Setting up shuffle15
I0813 23:19:35.289693  6049 net.cpp:148] Top shape: 40 240 7 7 (470400)
I0813 23:19:35.289696  6049 net.cpp:156] Memory required for data: 2625020640
I0813 23:19:35.289700  6049 layer_factory.hpp:77] Creating layer resx15_conv2
I0813 23:19:35.289706  6049 net.cpp:91] Creating Layer resx15_conv2
I0813 23:19:35.289710  6049 net.cpp:469] resx15_conv2 <- shuffle15
I0813 23:19:35.289716  6049 net.cpp:443] resx15_conv2 -> resx15_conv2
I0813 23:19:35.289916  6049 net.cpp:141] Setting up resx15_conv2
I0813 23:19:35.289925  6049 net.cpp:148] Top shape: 40 240 7 7 (470400)
I0813 23:19:35.289928  6049 net.cpp:156] Memory required for data: 2626902240
I0813 23:19:35.289933  6049 layer_factory.hpp:77] Creating layer resx15_conv2_bn
I0813 23:19:35.289939  6049 net.cpp:91] Creating Layer resx15_conv2_bn
I0813 23:19:35.289943  6049 net.cpp:469] resx15_conv2_bn <- resx15_conv2
I0813 23:19:35.289950  6049 net.cpp:430] resx15_conv2_bn -> resx15_conv2 (in-place)
I0813 23:19:35.290153  6049 net.cpp:141] Setting up resx15_conv2_bn
I0813 23:19:35.290159  6049 net.cpp:148] Top shape: 40 240 7 7 (470400)
I0813 23:19:35.290163  6049 net.cpp:156] Memory required for data: 2628783840
I0813 23:19:35.290169  6049 layer_factory.hpp:77] Creating layer resx15_conv2_scale
I0813 23:19:35.290175  6049 net.cpp:91] Creating Layer resx15_conv2_scale
I0813 23:19:35.290179  6049 net.cpp:469] resx15_conv2_scale <- resx15_conv2
I0813 23:19:35.290185  6049 net.cpp:430] resx15_conv2_scale -> resx15_conv2 (in-place)
I0813 23:19:35.290227  6049 layer_factory.hpp:77] Creating layer resx15_conv2_scale
I0813 23:19:35.290349  6049 net.cpp:141] Setting up resx15_conv2_scale
I0813 23:19:35.290356  6049 net.cpp:148] Top shape: 40 240 7 7 (470400)
I0813 23:19:35.290359  6049 net.cpp:156] Memory required for data: 2630665440
I0813 23:19:35.290365  6049 layer_factory.hpp:77] Creating layer resx15_conv3
I0813 23:19:35.290376  6049 net.cpp:91] Creating Layer resx15_conv3
I0813 23:19:35.290380  6049 net.cpp:469] resx15_conv3 <- resx15_conv2
I0813 23:19:35.290386  6049 net.cpp:443] resx15_conv3 -> resx15_conv3
I0813 23:19:35.294905  6049 net.cpp:141] Setting up resx15_conv3
I0813 23:19:35.294919  6049 net.cpp:148] Top shape: 40 960 7 7 (1881600)
I0813 23:19:35.294922  6049 net.cpp:156] Memory required for data: 2638191840
I0813 23:19:35.294927  6049 layer_factory.hpp:77] Creating layer resx15_conv3_bn
I0813 23:19:35.294934  6049 net.cpp:91] Creating Layer resx15_conv3_bn
I0813 23:19:35.294939  6049 net.cpp:469] resx15_conv3_bn <- resx15_conv3
I0813 23:19:35.294947  6049 net.cpp:430] resx15_conv3_bn -> resx15_conv3 (in-place)
I0813 23:19:35.295186  6049 net.cpp:141] Setting up resx15_conv3_bn
I0813 23:19:35.295192  6049 net.cpp:148] Top shape: 40 960 7 7 (1881600)
I0813 23:19:35.295195  6049 net.cpp:156] Memory required for data: 2645718240
I0813 23:19:35.295202  6049 layer_factory.hpp:77] Creating layer resx15_conv3_scale
I0813 23:19:35.295209  6049 net.cpp:91] Creating Layer resx15_conv3_scale
I0813 23:19:35.295213  6049 net.cpp:469] resx15_conv3_scale <- resx15_conv3
I0813 23:19:35.295219  6049 net.cpp:430] resx15_conv3_scale -> resx15_conv3 (in-place)
I0813 23:19:35.295279  6049 layer_factory.hpp:77] Creating layer resx15_conv3_scale
I0813 23:19:35.295426  6049 net.cpp:141] Setting up resx15_conv3_scale
I0813 23:19:35.295433  6049 net.cpp:148] Top shape: 40 960 7 7 (1881600)
I0813 23:19:35.295436  6049 net.cpp:156] Memory required for data: 2653244640
I0813 23:19:35.295441  6049 layer_factory.hpp:77] Creating layer resx15_elewise
I0813 23:19:35.295450  6049 net.cpp:91] Creating Layer resx15_elewise
I0813 23:19:35.295454  6049 net.cpp:469] resx15_elewise <- resx14_elewise_resx14_elewise_relu_0_split_1
I0813 23:19:35.295459  6049 net.cpp:469] resx15_elewise <- resx15_conv3
I0813 23:19:35.295462  6049 net.cpp:443] resx15_elewise -> resx15_elewise
I0813 23:19:35.295491  6049 net.cpp:141] Setting up resx15_elewise
I0813 23:19:35.295497  6049 net.cpp:148] Top shape: 40 960 7 7 (1881600)
I0813 23:19:35.295509  6049 net.cpp:156] Memory required for data: 2660771040
I0813 23:19:35.295512  6049 layer_factory.hpp:77] Creating layer resx15_elewise_relu
I0813 23:19:35.295518  6049 net.cpp:91] Creating Layer resx15_elewise_relu
I0813 23:19:35.295521  6049 net.cpp:469] resx15_elewise_relu <- resx15_elewise
I0813 23:19:35.295527  6049 net.cpp:430] resx15_elewise_relu -> resx15_elewise (in-place)
I0813 23:19:35.295894  6049 net.cpp:141] Setting up resx15_elewise_relu
I0813 23:19:35.295905  6049 net.cpp:148] Top shape: 40 960 7 7 (1881600)
I0813 23:19:35.295909  6049 net.cpp:156] Memory required for data: 2668297440
I0813 23:19:35.295914  6049 layer_factory.hpp:77] Creating layer resx15_elewise_resx15_elewise_relu_0_split
I0813 23:19:35.295920  6049 net.cpp:91] Creating Layer resx15_elewise_resx15_elewise_relu_0_split
I0813 23:19:35.295924  6049 net.cpp:469] resx15_elewise_resx15_elewise_relu_0_split <- resx15_elewise
I0813 23:19:35.295930  6049 net.cpp:443] resx15_elewise_resx15_elewise_relu_0_split -> resx15_elewise_resx15_elewise_relu_0_split_0
I0813 23:19:35.295936  6049 net.cpp:443] resx15_elewise_resx15_elewise_relu_0_split -> resx15_elewise_resx15_elewise_relu_0_split_1
I0813 23:19:35.295984  6049 net.cpp:141] Setting up resx15_elewise_resx15_elewise_relu_0_split
I0813 23:19:35.295990  6049 net.cpp:148] Top shape: 40 960 7 7 (1881600)
I0813 23:19:35.295994  6049 net.cpp:148] Top shape: 40 960 7 7 (1881600)
I0813 23:19:35.295996  6049 net.cpp:156] Memory required for data: 2683350240
I0813 23:19:35.296000  6049 layer_factory.hpp:77] Creating layer resx16_conv1
I0813 23:19:35.296010  6049 net.cpp:91] Creating Layer resx16_conv1
I0813 23:19:35.296015  6049 net.cpp:469] resx16_conv1 <- resx15_elewise_resx15_elewise_relu_0_split_0
I0813 23:19:35.296020  6049 net.cpp:443] resx16_conv1 -> resx16_conv1
I0813 23:19:35.300559  6049 net.cpp:141] Setting up resx16_conv1
I0813 23:19:35.300571  6049 net.cpp:148] Top shape: 40 240 7 7 (470400)
I0813 23:19:35.300575  6049 net.cpp:156] Memory required for data: 2685231840
I0813 23:19:35.300580  6049 layer_factory.hpp:77] Creating layer resx16_conv1_bn
I0813 23:19:35.300590  6049 net.cpp:91] Creating Layer resx16_conv1_bn
I0813 23:19:35.300593  6049 net.cpp:469] resx16_conv1_bn <- resx16_conv1
I0813 23:19:35.300598  6049 net.cpp:430] resx16_conv1_bn -> resx16_conv1 (in-place)
I0813 23:19:35.300810  6049 net.cpp:141] Setting up resx16_conv1_bn
I0813 23:19:35.300817  6049 net.cpp:148] Top shape: 40 240 7 7 (470400)
I0813 23:19:35.300820  6049 net.cpp:156] Memory required for data: 2687113440
I0813 23:19:35.300828  6049 layer_factory.hpp:77] Creating layer resx16_conv1_scale
I0813 23:19:35.300834  6049 net.cpp:91] Creating Layer resx16_conv1_scale
I0813 23:19:35.300838  6049 net.cpp:469] resx16_conv1_scale <- resx16_conv1
I0813 23:19:35.300843  6049 net.cpp:430] resx16_conv1_scale -> resx16_conv1 (in-place)
I0813 23:19:35.300889  6049 layer_factory.hpp:77] Creating layer resx16_conv1_scale
I0813 23:19:35.301014  6049 net.cpp:141] Setting up resx16_conv1_scale
I0813 23:19:35.301021  6049 net.cpp:148] Top shape: 40 240 7 7 (470400)
I0813 23:19:35.301024  6049 net.cpp:156] Memory required for data: 2688995040
I0813 23:19:35.301029  6049 layer_factory.hpp:77] Creating layer resx16_conv1_relu
I0813 23:19:35.301034  6049 net.cpp:91] Creating Layer resx16_conv1_relu
I0813 23:19:35.301038  6049 net.cpp:469] resx16_conv1_relu <- resx16_conv1
I0813 23:19:35.301043  6049 net.cpp:430] resx16_conv1_relu -> resx16_conv1 (in-place)
I0813 23:19:35.301425  6049 net.cpp:141] Setting up resx16_conv1_relu
I0813 23:19:35.301437  6049 net.cpp:148] Top shape: 40 240 7 7 (470400)
I0813 23:19:35.301441  6049 net.cpp:156] Memory required for data: 2690876640
I0813 23:19:35.301445  6049 layer_factory.hpp:77] Creating layer shuffle16
I0813 23:19:35.301452  6049 net.cpp:91] Creating Layer shuffle16
I0813 23:19:35.301457  6049 net.cpp:469] shuffle16 <- resx16_conv1
I0813 23:19:35.301463  6049 net.cpp:443] shuffle16 -> shuffle16
I0813 23:19:35.301497  6049 net.cpp:141] Setting up shuffle16
I0813 23:19:35.301508  6049 net.cpp:148] Top shape: 40 240 7 7 (470400)
I0813 23:19:35.301517  6049 net.cpp:156] Memory required for data: 2692758240
I0813 23:19:35.301519  6049 layer_factory.hpp:77] Creating layer resx16_conv2
I0813 23:19:35.301528  6049 net.cpp:91] Creating Layer resx16_conv2
I0813 23:19:35.301532  6049 net.cpp:469] resx16_conv2 <- shuffle16
I0813 23:19:35.301538  6049 net.cpp:443] resx16_conv2 -> resx16_conv2
I0813 23:19:35.301735  6049 net.cpp:141] Setting up resx16_conv2
I0813 23:19:35.301744  6049 net.cpp:148] Top shape: 40 240 7 7 (470400)
I0813 23:19:35.301748  6049 net.cpp:156] Memory required for data: 2694639840
I0813 23:19:35.301754  6049 layer_factory.hpp:77] Creating layer resx16_conv2_bn
I0813 23:19:35.301761  6049 net.cpp:91] Creating Layer resx16_conv2_bn
I0813 23:19:35.301765  6049 net.cpp:469] resx16_conv2_bn <- resx16_conv2
I0813 23:19:35.301771  6049 net.cpp:430] resx16_conv2_bn -> resx16_conv2 (in-place)
I0813 23:19:35.301975  6049 net.cpp:141] Setting up resx16_conv2_bn
I0813 23:19:35.301982  6049 net.cpp:148] Top shape: 40 240 7 7 (470400)
I0813 23:19:35.301985  6049 net.cpp:156] Memory required for data: 2696521440
I0813 23:19:35.301991  6049 layer_factory.hpp:77] Creating layer resx16_conv2_scale
I0813 23:19:35.302001  6049 net.cpp:91] Creating Layer resx16_conv2_scale
I0813 23:19:35.302006  6049 net.cpp:469] resx16_conv2_scale <- resx16_conv2
I0813 23:19:35.302011  6049 net.cpp:430] resx16_conv2_scale -> resx16_conv2 (in-place)
I0813 23:19:35.302053  6049 layer_factory.hpp:77] Creating layer resx16_conv2_scale
I0813 23:19:35.302176  6049 net.cpp:141] Setting up resx16_conv2_scale
I0813 23:19:35.302183  6049 net.cpp:148] Top shape: 40 240 7 7 (470400)
I0813 23:19:35.302186  6049 net.cpp:156] Memory required for data: 2698403040
I0813 23:19:35.302191  6049 layer_factory.hpp:77] Creating layer resx16_conv3
I0813 23:19:35.302201  6049 net.cpp:91] Creating Layer resx16_conv3
I0813 23:19:35.302204  6049 net.cpp:469] resx16_conv3 <- resx16_conv2
I0813 23:19:35.302209  6049 net.cpp:443] resx16_conv3 -> resx16_conv3
I0813 23:19:35.307667  6049 net.cpp:141] Setting up resx16_conv3
I0813 23:19:35.307682  6049 net.cpp:148] Top shape: 40 960 7 7 (1881600)
I0813 23:19:35.307684  6049 net.cpp:156] Memory required for data: 2705929440
I0813 23:19:35.307690  6049 layer_factory.hpp:77] Creating layer resx16_conv3_bn
I0813 23:19:35.307699  6049 net.cpp:91] Creating Layer resx16_conv3_bn
I0813 23:19:35.307703  6049 net.cpp:469] resx16_conv3_bn <- resx16_conv3
I0813 23:19:35.307709  6049 net.cpp:430] resx16_conv3_bn -> resx16_conv3 (in-place)
I0813 23:19:35.307952  6049 net.cpp:141] Setting up resx16_conv3_bn
I0813 23:19:35.307960  6049 net.cpp:148] Top shape: 40 960 7 7 (1881600)
I0813 23:19:35.307963  6049 net.cpp:156] Memory required for data: 2713455840
I0813 23:19:35.307970  6049 layer_factory.hpp:77] Creating layer resx16_conv3_scale
I0813 23:19:35.307979  6049 net.cpp:91] Creating Layer resx16_conv3_scale
I0813 23:19:35.307983  6049 net.cpp:469] resx16_conv3_scale <- resx16_conv3
I0813 23:19:35.307987  6049 net.cpp:430] resx16_conv3_scale -> resx16_conv3 (in-place)
I0813 23:19:35.308048  6049 layer_factory.hpp:77] Creating layer resx16_conv3_scale
I0813 23:19:35.308199  6049 net.cpp:141] Setting up resx16_conv3_scale
I0813 23:19:35.308208  6049 net.cpp:148] Top shape: 40 960 7 7 (1881600)
I0813 23:19:35.308212  6049 net.cpp:156] Memory required for data: 2720982240
I0813 23:19:35.308218  6049 layer_factory.hpp:77] Creating layer resx16_elewise
I0813 23:19:35.308226  6049 net.cpp:91] Creating Layer resx16_elewise
I0813 23:19:35.308229  6049 net.cpp:469] resx16_elewise <- resx15_elewise_resx15_elewise_relu_0_split_1
I0813 23:19:35.308233  6049 net.cpp:469] resx16_elewise <- resx16_conv3
I0813 23:19:35.308239  6049 net.cpp:443] resx16_elewise -> resx16_elewise
I0813 23:19:35.308267  6049 net.cpp:141] Setting up resx16_elewise
I0813 23:19:35.308274  6049 net.cpp:148] Top shape: 40 960 7 7 (1881600)
I0813 23:19:35.308276  6049 net.cpp:156] Memory required for data: 2728508640
I0813 23:19:35.308286  6049 layer_factory.hpp:77] Creating layer resx16_elewise_relu
I0813 23:19:35.308301  6049 net.cpp:91] Creating Layer resx16_elewise_relu
I0813 23:19:35.308305  6049 net.cpp:469] resx16_elewise_relu <- resx16_elewise
I0813 23:19:35.308310  6049 net.cpp:430] resx16_elewise_relu -> resx16_elewise (in-place)
I0813 23:19:35.308681  6049 net.cpp:141] Setting up resx16_elewise_relu
I0813 23:19:35.308693  6049 net.cpp:148] Top shape: 40 960 7 7 (1881600)
I0813 23:19:35.308697  6049 net.cpp:156] Memory required for data: 2736035040
I0813 23:19:35.308701  6049 layer_factory.hpp:77] Creating layer pool_ave
I0813 23:19:35.308710  6049 net.cpp:91] Creating Layer pool_ave
I0813 23:19:35.308714  6049 net.cpp:469] pool_ave <- resx16_elewise
I0813 23:19:35.308719  6049 net.cpp:443] pool_ave -> pool_ave
I0813 23:19:35.308930  6049 net.cpp:141] Setting up pool_ave
I0813 23:19:35.308939  6049 net.cpp:148] Top shape: 40 960 1 1 (38400)
I0813 23:19:35.308943  6049 net.cpp:156] Memory required for data: 2736188640
I0813 23:19:35.308946  6049 layer_factory.hpp:77] Creating layer fc1000
I0813 23:19:35.308957  6049 net.cpp:91] Creating Layer fc1000
I0813 23:19:35.308961  6049 net.cpp:469] fc1000 <- pool_ave
I0813 23:19:35.308969  6049 net.cpp:443] fc1000 -> fc1000
I0813 23:19:35.334442  6049 net.cpp:141] Setting up fc1000
I0813 23:19:35.334456  6049 net.cpp:148] Top shape: 40 1000 1 1 (40000)
I0813 23:19:35.334460  6049 net.cpp:156] Memory required for data: 2736348640
I0813 23:19:35.334466  6049 layer_factory.hpp:77] Creating layer fc1000_fc1000_0_split
I0813 23:19:35.334473  6049 net.cpp:91] Creating Layer fc1000_fc1000_0_split
I0813 23:19:35.334476  6049 net.cpp:469] fc1000_fc1000_0_split <- fc1000
I0813 23:19:35.334483  6049 net.cpp:443] fc1000_fc1000_0_split -> fc1000_fc1000_0_split_0
I0813 23:19:35.334491  6049 net.cpp:443] fc1000_fc1000_0_split -> fc1000_fc1000_0_split_1
I0813 23:19:35.334534  6049 net.cpp:141] Setting up fc1000_fc1000_0_split
I0813 23:19:35.334542  6049 net.cpp:148] Top shape: 40 1000 1 1 (40000)
I0813 23:19:35.334547  6049 net.cpp:148] Top shape: 40 1000 1 1 (40000)
I0813 23:19:35.334549  6049 net.cpp:156] Memory required for data: 2736668640
I0813 23:19:35.334553  6049 layer_factory.hpp:77] Creating layer accuracy
I0813 23:19:35.334569  6049 net.cpp:91] Creating Layer accuracy
I0813 23:19:35.334573  6049 net.cpp:469] accuracy <- fc1000_fc1000_0_split_0
I0813 23:19:35.334578  6049 net.cpp:469] accuracy <- label_data_1_split_0
I0813 23:19:35.334583  6049 net.cpp:443] accuracy -> accuracy
…
