…
I0817 10:46:19.896136  9932 net.cpp:313] The NetState phase (0) differed from the phase (1) specified by a rule in layer accuracy
I0817 10:46:19.897264  9932 net.cpp:49] Initializing net from parameters: 
name: "shufflenet"
state {
  phase: TRAIN
}
layer {
  name: "data"
  type: "Data"
  top: "data"
  top: "label"
  include {
    phase: TRAIN
  }
  transform_param {
    scale: 0.017
    mirror: false
    crop_size: 224
    mean_value: 103.94
    mean_value: 116.78
    mean_value: 123.68
  }
  data_param {
    source: "/home/chenyao/ilsvrc12/ilsvrc12_train_lmdb"
    batch_size: 80
    backend: LMDB
  }
}
layer {
  name: "conv1"
  type: "Convolution"
  bottom: "data"
  top: "conv1"
  convolution_param {
    num_output: 24
    bias_term: false
    pad: 1
    kernel_size: 3
    stride: 2
    weight_filler {
      type: "msra"
    }
  }
}
layer {
  name: "conv1_bn"
  type: "BatchNorm"
  bottom: "conv1"
  top: "conv1"
  param {
    lr_mult: 0
    decay_mult: 0
  }
  param {
    lr_mult: 0
    decay_mult: 0
  }
  param {
    lr_mult: 0
    decay_mult: 0
  }
}
layer {
  name: "conv1_scale"
  type: "Scale"
  bottom: "conv1"
  top: "conv1"
  scale_param {
    filler {
      value: 1
    }
    bias_term: true
    bias_filler {
      value: 0
    }
  }
}
layer {
  name: "conv1_relu"
  type: "ReLU"
  bottom: "conv1"
  top: "conv1"
}
layer {
  name: "pool1"
  type: "Pooling"
  bottom: "conv1"
  top: "pool1"
  pooling_param {
    pool: MAX
    kernel_size: 3
    stride: 2
  }
}
layer {
  name: "resx1_match_conv"
  type: "Pooling"
  bottom: "pool1"
  top: "resx1_match_conv"
  pooling_param {
    pool: AVE
    kernel_size: 3
    stride: 2
  }
}
layer {
  name: "resx1_conv1"
  type: "Convolution"
  bottom: "pool1"
  top: "resx1_conv1"
  convolution_param {
    num_output: 54
    bias_term: false
    pad: 0
    kernel_size: 1
    stride: 1
    weight_filler {
      type: "msra"
    }
  }
}
layer {
  name: "resx1_conv1_bn"
  type: "BatchNorm"
  bottom: "resx1_conv1"
  top: "resx1_conv1"
  param {
    lr_mult: 0
    decay_mult: 0
  }
  param {
    lr_mult: 0
    decay_mult: 0
  }
  param {
    lr_mult: 0
    decay_mult: 0
  }
}
layer {
  name: "resx1_conv1_scale"
  type: "Scale"
  bottom: "resx1_conv1"
  top: "resx1_conv1"
  scale_param {
    filler {
      value: 1
    }
    bias_term: true
    bias_filler {
      value: 0
    }
  }
}
layer {
  name: "resx1_conv1_relu"
  type: "ReLU"
  bottom: "resx1_conv1"
  top: "resx1_conv1"
}
layer {
  name: "resx1_conv2"
  type: "ConvolutionDepthwise"
  bottom: "resx1_conv1"
  top: "resx1_conv2"
  convolution_param {
    num_output: 54
    bias_term: false
    pad: 1
    kernel_size: 3
    stride: 2
    weight_filler {
      type: "msra"
    }
  }
}
layer {
  name: "resx1_conv2_bn"
  type: "BatchNorm"
  bottom: "resx1_conv2"
  top: "resx1_conv2"
  param {
    lr_mult: 0
    decay_mult: 0
  }
  param {
    lr_mult: 0
    decay_mult: 0
  }
  param {
    lr_mult: 0
    decay_mult: 0
  }
}
layer {
  name: "resx1_conv2_scale"
  type: "Scale"
  bottom: "resx1_conv2"
  top: "resx1_conv2"
  scale_param {
    filler {
      value: 1
    }
    bias_term: true
    bias_filler {
      value: 0
    }
  }
}
layer {
  name: "resx1_conv3"
  type: "Convolution"
  bottom: "resx1_conv2"
  top: "resx1_conv3"
  convolution_param {
    num_output: 216
    bias_term: false
    pad: 0
    kernel_size: 1
    group: 3
    stride: 1
    weight_filler {
      type: "msra"
    }
  }
}
layer {
  name: "resx1_conv3_bn"
  type: "BatchNorm"
  bottom: "resx1_conv3"
  top: "resx1_conv3"
  param {
    lr_mult: 0
    decay_mult: 0
  }
  param {
    lr_mult: 0
    decay_mult: 0
  }
  param {
    lr_mult: 0
    decay_mult: 0
  }
}
layer {
  name: "resx1_conv3_scale"
  type: "Scale"
  bottom: "resx1_conv3"
  top: "resx1_conv3"
  scale_param {
    filler {
      value: 1
    }
    bias_term: true
    bias_filler {
      value: 0
    }
  }
}
layer {
  name: "resx1_concat"
  type: "Concat"
  bottom: "resx1_match_conv"
  bottom: "resx1_conv3"
  top: "resx1_concat"
}
layer {
  name: "resx1_concat_relu"
  type: "ReLU"
  bottom: "resx1_concat"
  top: "resx1_concat"
}
layer {
  name: "resx2_conv1"
  type: "Convolution"
  bottom: "resx1_concat"
  top: "resx2_conv1"
  convolution_param {
    num_output: 60
    bias_term: false
    pad: 0
    kernel_size: 1
    group: 3
    stride: 1
    weight_filler {
      type: "msra"
    }
  }
}
layer {
  name: "resx2_conv1_bn"
  type: "BatchNorm"
  bottom: "resx2_conv1"
  top: "resx2_conv1"
  param {
    lr_mult: 0
    decay_mult: 0
  }
  param {
    lr_mult: 0
    decay_mult: 0
  }
  param {
    lr_mult: 0
    decay_mult: 0
  }
}
layer {
  name: "resx2_conv1_scale"
  type: "Scale"
  bottom: "resx2_conv1"
  top: "resx2_conv1"
  scale_param {
    filler {
      value: 1
    }
    bias_term: true
    bias_filler {
      value: 0
    }
  }
}
layer {
  name: "resx2_conv1_relu"
  type: "ReLU"
  bottom: "resx2_conv1"
  top: "resx2_conv1"
}
layer {
  name: "shuffle2"
  type: "ShuffleChannel"
  bottom: "resx2_conv1"
  top: "shuffle2"
  shuffle_channel_param {
    group: 3
  }
}
layer {
  name: "resx2_conv2"
  type: "ConvolutionDepthwise"
  bottom: "shuffle2"
  top: "resx2_conv2"
  convolution_param {
    num_output: 60
    bias_term: false
    pad: 1
    kernel_size: 3
    stride: 1
    weight_filler {
      type: "msra"
    }
  }
}
layer {
  name: "resx2_conv2_bn"
  type: "BatchNorm"
  bottom: "resx2_conv2"
  top: "resx2_conv2"
  param {
    lr_mult: 0
    decay_mult: 0
  }
  param {
    lr_mult: 0
    decay_mult: 0
  }
  param {
    lr_mult: 0
    decay_mult: 0
  }
}
layer {
  name: "resx2_conv2_scale"
  type: "Scale"
  bottom: "resx2_conv2"
  top: "resx2_conv2"
  scale_param {
    filler {
      value: 1
    }
    bias_term: true
    bias_filler {
      value: 0
    }
  }
}
layer {
  name: "resx2_conv3"
  type: "Convolution"
  bottom: "resx2_conv2"
  top: "resx2_conv3"
  convolution_param {
    num_output: 240
    bias_term: false
    pad: 0
    kernel_size: 1
    group: 3
    stride: 1
    weight_filler {
      type: "msra"
    }
  }
}
layer {
  name: "resx2_conv3_bn"
  type: "BatchNorm"
  bottom: "resx2_conv3"
  top: "resx2_conv3"
  param {
    lr_mult: 0
    decay_mult: 0
  }
  param {
    lr_mult: 0
    decay_mult: 0
  }
  param {
    lr_mult: 0
    decay_mult: 0
  }
}
layer {
  name: "resx2_conv3_scale"
  type: "Scale"
  bottom: "resx2_conv3"
  top: "resx2_conv3"
  scale_param {
    filler {
      value: 1
    }
    bias_term: true
    bias_filler {
      value: 0
    }
  }
}
layer {
  name: "resx2_elewise"
  type: "Eltwise"
  bottom: "resx1_concat"
  bottom: "resx2_conv3"
  top: "resx2_elewise"
  eltwise_param {
    operation: SUM
  }
}
layer {
  name: "resx2_elewise_relu"
  type: "ReLU"
  bottom: "resx2_elewise"
  top: "resx2_elewise"
}
layer {
  name: "resx3_conv1"
  type: "Convolution"
  bottom: "resx2_elewise"
  top: "resx3_conv1"
  convolution_param {
    num_output: 60
    bias_term: false
    pad: 0
    kernel_size: 1
    group: 3
    stride: 1
    weight_filler {
      type: "msra"
    }
  }
}
layer {
  name: "resx3_conv1_bn"
  type: "BatchNorm"
  bottom: "resx3_conv1"
  top: "resx3_conv1"
  param {
    lr_mult: 0
    decay_mult: 0
  }
  param {
    lr_mult: 0
    decay_mult: 0
  }
  param {
    lr_mult: 0
    decay_mult: 0
  }
}
layer {
  name: "resx3_conv1_scale"
  type: "Scale"
  bottom: "resx3_conv1"
  top: "resx3_conv1"
  scale_param {
    filler {
      value: 1
    }
    bias_term: true
    bias_filler {
      value: 0
    }
  }
}
layer {
  name: "resx3_conv1_relu"
  type: "ReLU"
  bottom: "resx3_conv1"
  top: "resx3_conv1"
}
layer {
  name: "shuffle3"
  type: "ShuffleChannel"
  bottom: "resx3_conv1"
  top: "shuffle3"
  shuffle_channel_param {
    group: 3
  }
}
layer {
  name: "resx3_conv2"
  type: "ConvolutionDepthwise"
  bottom: "shuffle3"
  top: "resx3_conv2"
  convolution_param {
    num_output: 60
    bias_term: false
    pad: 1
    kernel_size: 3
    stride: 1
    weight_filler {
      type: "msra"
    }
  }
}
layer {
  name: "resx3_conv2_bn"
  type: "BatchNorm"
  bottom: "resx3_conv2"
  top: "resx3_conv2"
  param {
    lr_mult: 0
    decay_mult: 0
  }
  param {
    lr_mult: 0
    decay_mult: 0
  }
  param {
    lr_mult: 0
    decay_mult: 0
  }
}
layer {
  name: "resx3_conv2_scale"
  type: "Scale"
  bottom: "resx3_conv2"
  top: "resx3_conv2"
  scale_param {
    filler {
      value: 1
    }
    bias_term: true
    bias_filler {
      value: 0
    }
  }
}
layer {
  name: "resx3_conv3"
  type: "Convolution"
  bottom: "resx3_conv2"
  top: "resx3_conv3"
  convolution_param {
    num_output: 240
    bias_term: false
    pad: 0
    kernel_size: 1
    group: 3
    stride: 1
    weight_filler {
      type: "msra"
    }
  }
}
layer {
  name: "resx3_conv3_bn"
  type: "BatchNorm"
  bottom: "resx3_conv3"
  top: "resx3_conv3"
  param {
    lr_mult: 0
    decay_mult: 0
  }
  param {
    lr_mult: 0
    decay_mult: 0
  }
  param {
    lr_mult: 0
    decay_mult: 0
  }
}
layer {
  name: "resx3_conv3_scale"
  type: "Scale"
  bottom: "resx3_conv3"
  top: "resx3_conv3"
  scale_param {
    filler {
      value: 1
    }
    bias_term: true
    bias_filler {
      value: 0
    }
  }
}
layer {
  name: "resx3_elewise"
  type: "Eltwise"
  bottom: "resx2_elewise"
  bottom: "resx3_conv3"
  top: "resx3_elewise"
  eltwise_param {
    operation: SUM
  }
}
layer {
  name: "resx3_elewise_relu"
  type: "ReLU"
  bottom: "resx3_elewise"
  top: "resx3_elewise"
}
layer {
  name: "resx4_conv1"
  type: "Convolution"
  bottom: "resx3_elewise"
  top: "resx4_conv1"
  convolution_param {
    num_output: 60
    bias_term: false
    pad: 0
    kernel_size: 1
    group: 3
    stride: 1
    weight_filler {
      type: "msra"
    }
  }
}
layer {
  name: "resx4_conv1_bn"
  type: "BatchNorm"
  bottom: "resx4_conv1"
  top: "resx4_conv1"
  param {
    lr_mult: 0
    decay_mult: 0
  }
  param {
    lr_mult: 0
    decay_mult: 0
  }
  param {
    lr_mult: 0
    decay_mult: 0
  }
}
layer {
  name: "resx4_conv1_scale"
  type: "Scale"
  bottom: "resx4_conv1"
  top: "resx4_conv1"
  scale_param {
    filler {
      value: 1
    }
    bias_term: true
    bias_filler {
      value: 0
    }
  }
}
layer {
  name: "resx4_conv1_relu"
  type: "ReLU"
  bottom: "resx4_conv1"
  top: "resx4_conv1"
}
layer {
  name: "shuffle4"
  type: "ShuffleChannel"
  bottom: "resx4_conv1"
  top: "shuffle4"
  shuffle_channel_param {
    group: 3
  }
}
layer {
  name: "resx4_conv2"
  type: "ConvolutionDepthwise"
  bottom: "shuffle4"
  top: "resx4_conv2"
  convolution_param {
    num_output: 60
    bias_term: false
    pad: 1
    kernel_size: 3
    stride: 1
    weight_filler {
      type: "msra"
    }
  }
}
layer {
  name: "resx4_conv2_bn"
  type: "BatchNorm"
  bottom: "resx4_conv2"
  top: "resx4_conv2"
  param {
    lr_mult: 0
    decay_mult: 0
  }
  param {
    lr_mult: 0
    decay_mult: 0
  }
  param {
    lr_mult: 0
    decay_mult: 0
  }
}
layer {
  name: "resx4_conv2_scale"
  type: "Scale"
  bottom: "resx4_conv2"
  top: "resx4_conv2"
  scale_param {
    filler {
      value: 1
    }
    bias_term: true
    bias_filler {
      value: 0
    }
  }
}
layer {
  name: "resx4_conv3"
  type: "Convolution"
  bottom: "resx4_conv2"
  top: "resx4_conv3"
  convolution_param {
    num_output: 240
    bias_term: false
    pad: 0
    kernel_size: 1
    group: 3
    stride: 1
    weight_filler {
      type: "msra"
    }
  }
}
layer {
  name: "resx4_conv3_bn"
  type: "BatchNorm"
  bottom: "resx4_conv3"
  top: "resx4_conv3"
  param {
    lr_mult: 0
    decay_mult: 0
  }
  param {
    lr_mult: 0
    decay_mult: 0
  }
  param {
    lr_mult: 0
    decay_mult: 0
  }
}
layer {
  name: "resx4_conv3_scale"
  type: "Scale"
  bottom: "resx4_conv3"
  top: "resx4_conv3"
  scale_param {
    filler {
      value: 1
    }
    bias_term: true
    bias_filler {
      value: 0
    }
  }
}
layer {
  name: "resx4_elewise"
  type: "Eltwise"
  bottom: "resx3_elewise"
  bottom: "resx4_conv3"
  top: "resx4_elewise"
  eltwise_param {
    operation: SUM
  }
}
layer {
  name: "resx4_elewise_relu"
  type: "ReLU"
  bottom: "resx4_elewise"
  top: "resx4_elewise"
}
layer {
  name: "resx5_match_conv"
  type: "Pooling"
  bottom: "resx4_elewise"
  top: "resx5_match_conv"
  pooling_param {
    pool: AVE
    kernel_size: 3
    stride: 2
  }
}
layer {
  name: "resx5_conv1"
  type: "Convolution"
  bottom: "resx4_elewise"
  top: "resx5_conv1"
  convolution_param {
    num_output: 60
    bias_term: false
    pad: 0
    kernel_size: 1
    group: 3
    stride: 1
    weight_filler {
      type: "msra"
    }
  }
}
layer {
  name: "resx5_conv1_bn"
  type: "BatchNorm"
  bottom: "resx5_conv1"
  top: "resx5_conv1"
  param {
    lr_mult: 0
    decay_mult: 0
  }
  param {
    lr_mult: 0
    decay_mult: 0
  }
  param {
    lr_mult: 0
    decay_mult: 0
  }
}
layer {
  name: "resx5_conv1_scale"
  type: "Scale"
  bottom: "resx5_conv1"
  top: "resx5_conv1"
  scale_param {
    filler {
      value: 1
    }
    bias_term: true
    bias_filler {
      value: 0
    }
  }
}
layer {
  name: "resx5_conv1_relu"
  type: "ReLU"
  bottom: "resx5_conv1"
  top: "resx5_conv1"
}
layer {
  name: "shuffle5"
  type: "ShuffleChannel"
  bottom: "resx5_conv1"
  top: "shuffle5"
  shuffle_channel_param {
    group: 3
  }
}
layer {
  name: "resx5_conv2"
  type: "ConvolutionDepthwise"
  bottom: "shuffle5"
  top: "resx5_conv2"
  convolution_param {
    num_output: 60
    bias_term: false
    pad: 1
    kernel_size: 3
    stride: 2
    weight_filler {
      type: "msra"
    }
  }
}
layer {
  name: "resx5_conv2_bn"
  type: "BatchNorm"
  bottom: "resx5_conv2"
  top: "resx5_conv2"
  param {
    lr_mult: 0
    decay_mult: 0
  }
  param {
    lr_mult: 0
    decay_mult: 0
  }
  param {
    lr_mult: 0
    decay_mult: 0
  }
}
layer {
  name: "resx5_conv2_scale"
  type: "Scale"
  bottom: "resx5_conv2"
  top: "resx5_conv2"
  scale_param {
    filler {
      value: 1
    }
    bias_term: true
    bias_filler {
      value: 0
    }
  }
}
layer {
  name: "resx5_conv3"
  type: "Convolution"
  bottom: "resx5_conv2"
  top: "resx5_conv3"
  convolution_param {
    num_output: 240
    bias_term: false
    pad: 0
    kernel_size: 1
    group: 3
    stride: 1
    weight_filler {
      type: "msra"
    }
  }
}
layer {
  name: "resx5_conv3_bn"
  type: "BatchNorm"
  bottom: "resx5_conv3"
  top: "resx5_conv3"
  param {
    lr_mult: 0
    decay_mult: 0
  }
  param {
    lr_mult: 0
    decay_mult: 0
  }
  param {
    lr_mult: 0
    decay_mult: 0
  }
}
layer {
  name: "resx5_conv3_scale"
  type: "Scale"
  bottom: "resx5_conv3"
  top: "resx5_conv3"
  scale_param {
    filler {
      value: 1
    }
    bias_term: true
    bias_filler {
      value: 0
    }
  }
}
layer {
  name: "resx5_concat"
  type: "Concat"
  bottom: "resx5_match_conv"
  bottom: "resx5_conv3"
  top: "resx5_concat"
}
layer {
  name: "resx5_concat_relu"
  type: "ReLU"
  bottom: "resx5_concat"
  top: "resx5_concat"
}
layer {
  name: "resx6_conv1"
  type: "Convolution"
  bottom: "resx5_concat"
  top: "resx6_conv1"
  convolution_param {
    num_output: 120
    bias_term: false
    pad: 0
    kernel_size: 1
    group: 3
    stride: 1
    weight_filler {
      type: "msra"
    }
  }
}
layer {
  name: "resx6_conv1_bn"
  type: "BatchNorm"
  bottom: "resx6_conv1"
  top: "resx6_conv1"
  param {
    lr_mult: 0
    decay_mult: 0
  }
  param {
    lr_mult: 0
    decay_mult: 0
  }
  param {
    lr_mult: 0
    decay_mult: 0
  }
}
layer {
  name: "resx6_conv1_scale"
  type: "Scale"
  bottom: "resx6_conv1"
  top: "resx6_conv1"
  scale_param {
    filler {
      value: 1
    }
    bias_term: true
    bias_filler {
      value: 0
    }
  }
}
layer {
  name: "resx6_conv1_relu"
  type: "ReLU"
  bottom: "resx6_conv1"
  top: "resx6_conv1"
}
layer {
  name: "shuffle6"
  type: "ShuffleChannel"
  bottom: "resx6_conv1"
  top: "shuffle6"
  shuffle_channel_param {
    group: 3
  }
}
layer {
  name: "resx6_conv2"
  type: "ConvolutionDepthwise"
  bottom: "shuffle6"
  top: "resx6_conv2"
  convolution_param {
    num_output: 120
    bias_term: false
    pad: 1
    kernel_size: 3
    stride: 1
    weight_filler {
      type: "msra"
    }
  }
}
layer {
  name: "resx6_conv2_bn"
  type: "BatchNorm"
  bottom: "resx6_conv2"
  top: "resx6_conv2"
  param {
    lr_mult: 0
    decay_mult: 0
  }
  param {
    lr_mult: 0
    decay_mult: 0
  }
  param {
    lr_mult: 0
    decay_mult: 0
  }
}
layer {
  name: "resx6_conv2_scale"
  type: "Scale"
  bottom: "resx6_conv2"
  top: "resx6_conv2"
  scale_param {
    filler {
      value: 1
    }
    bias_term: true
    bias_filler {
      value: 0
    }
  }
}
layer {
  name: "resx6_conv3"
  type: "Convolution"
  bottom: "resx6_conv2"
  top: "resx6_conv3"
  convolution_param {
    num_output: 480
    bias_term: false
    pad: 0
    kernel_size: 1
    group: 3
    stride: 1
    weight_filler {
      type: "msra"
    }
  }
}
layer {
  name: "resx6_conv3_bn"
  type: "BatchNorm"
  bottom: "resx6_conv3"
  top: "resx6_conv3"
  param {
    lr_mult: 0
    decay_mult: 0
  }
  param {
    lr_mult: 0
    decay_mult: 0
  }
  param {
    lr_mult: 0
    decay_mult: 0
  }
}
layer {
  name: "resx6_conv3_scale"
  type: "Scale"
  bottom: "resx6_conv3"
  top: "resx6_conv3"
  scale_param {
    filler {
      value: 1
    }
    bias_term: true
    bias_filler {
      value: 0
    }
  }
}
layer {
  name: "resx6_elewise"
  type: "Eltwise"
  bottom: "resx5_concat"
  bottom: "resx6_conv3"
  top: "resx6_elewise"
  eltwise_param {
    operation: SUM
  }
}
layer {
  name: "resx6_elewise_relu"
  type: "ReLU"
  bottom: "resx6_elewise"
  top: "resx6_elewise"
}
layer {
  name: "resx7_conv1"
  type: "Convolution"
  bottom: "resx6_elewise"
  top: "resx7_conv1"
  convolution_param {
    num_output: 120
    bias_term: false
    pad: 0
    kernel_size: 1
    group: 3
    stride: 1
    weight_filler {
      type: "msra"
    }
  }
}
layer {
  name: "resx7_conv1_bn"
  type: "BatchNorm"
  bottom: "resx7_conv1"
  top: "resx7_conv1"
  param {
    lr_mult: 0
    decay_mult: 0
  }
  param {
    lr_mult: 0
    decay_mult: 0
  }
  param {
    lr_mult: 0
    decay_mult: 0
  }
}
layer {
  name: "resx7_conv1_scale"
  type: "Scale"
  bottom: "resx7_conv1"
  top: "resx7_conv1"
  scale_param {
    filler {
      value: 1
    }
    bias_term: true
    bias_filler {
      value: 0
    }
  }
}
layer {
  name: "resx7_conv1_relu"
  type: "ReLU"
  bottom: "resx7_conv1"
  top: "resx7_conv1"
}
layer {
  name: "shuffle7"
  type: "ShuffleChannel"
  bottom: "resx7_conv1"
  top: "shuffle7"
  shuffle_channel_param {
    group: 3
  }
}
layer {
  name: "resx7_conv2"
  type: "ConvolutionDepthwise"
  bottom: "shuffle7"
  top: "resx7_conv2"
  convolution_param {
    num_output: 120
    bias_term: false
    pad: 1
    kernel_size: 3
    stride: 1
    weight_filler {
      type: "msra"
    }
  }
}
layer {
  name: "resx7_conv2_bn"
  type: "BatchNorm"
  bottom: "resx7_conv2"
  top: "resx7_conv2"
  param {
    lr_mult: 0
    decay_mult: 0
  }
  param {
    lr_mult: 0
    decay_mult: 0
  }
  param {
    lr_mult: 0
    decay_mult: 0
  }
}
layer {
  name: "resx7_conv2_scale"
  type: "Scale"
  bottom: "resx7_conv2"
  top: "resx7_conv2"
  scale_param {
    filler {
      value: 1
    }
    bias_term: true
    bias_filler {
      value: 0
    }
  }
}
layer {
  name: "resx7_conv3"
  type: "Convolution"
  bottom: "resx7_conv2"
  top: "resx7_conv3"
  convolution_param {
    num_output: 480
    bias_term: false
    pad: 0
    kernel_size: 1
    group: 3
    stride: 1
    weight_filler {
      type: "msra"
    }
  }
}
layer {
  name: "resx7_conv3_bn"
  type: "BatchNorm"
  bottom: "resx7_conv3"
  top: "resx7_conv3"
  param {
    lr_mult: 0
    decay_mult: 0
  }
  param {
    lr_mult: 0
    decay_mult: 0
  }
  param {
    lr_mult: 0
    decay_mult: 0
  }
}
layer {
  name: "resx7_conv3_scale"
  type: "Scale"
  bottom: "resx7_conv3"
  top: "resx7_conv3"
  scale_param {
    filler {
      value: 1
    }
    bias_term: true
    bias_filler {
      value: 0
    }
  }
}
layer {
  name: "resx7_elewise"
  type: "Eltwise"
  bottom: "resx6_elewise"
  bottom: "resx7_conv3"
  top: "resx7_elewise"
  eltwise_param {
    operation: SUM
  }
}
layer {
  name: "resx7_elewise_relu"
  type: "ReLU"
  bottom: "resx7_elewise"
  top: "resx7_elewise"
}
layer {
  name: "resx8_conv1"
  type: "Convolution"
  bottom: "resx7_elewise"
  top: "resx8_conv1"
  convolution_param {
    num_output: 120
    bias_term: false
    pad: 0
    kernel_size: 1
    group: 3
    stride: 1
    weight_filler {
      type: "msra"
    }
  }
}
layer {
  name: "resx8_conv1_bn"
  type: "BatchNorm"
  bottom: "resx8_conv1"
  top: "resx8_conv1"
  param {
    lr_mult: 0
    decay_mult: 0
  }
  param {
    lr_mult: 0
    decay_mult: 0
  }
  param {
    lr_mult: 0
    decay_mult: 0
  }
}
layer {
  name: "resx8_conv1_scale"
  type: "Scale"
  bottom: "resx8_conv1"
  top: "resx8_conv1"
  scale_param {
    filler {
      value: 1
    }
    bias_term: true
    bias_filler {
      value: 0
    }
  }
}
layer {
  name: "resx8_conv1_relu"
  type: "ReLU"
  bottom: "resx8_conv1"
  top: "resx8_conv1"
}
layer {
  name: "shuffle8"
  type: "ShuffleChannel"
  bottom: "resx8_conv1"
  top: "shuffle8"
  shuffle_channel_param {
    group: 3
  }
}
layer {
  name: "resx8_conv2"
  type: "ConvolutionDepthwise"
  bottom: "shuffle8"
  top: "resx8_conv2"
  convolution_param {
    num_output: 120
    bias_term: false
    pad: 1
    kernel_size: 3
    stride: 1
    weight_filler {
      type: "msra"
    }
  }
}
layer {
  name: "resx8_conv2_bn"
  type: "BatchNorm"
  bottom: "resx8_conv2"
  top: "resx8_conv2"
  param {
    lr_mult: 0
    decay_mult: 0
  }
  param {
    lr_mult: 0
    decay_mult: 0
  }
  param {
    lr_mult: 0
    decay_mult: 0
  }
}
layer {
  name: "resx8_conv2_scale"
  type: "Scale"
  bottom: "resx8_conv2"
  top: "resx8_conv2"
  scale_param {
    filler {
      value: 1
    }
    bias_term: true
    bias_filler {
      value: 0
    }
  }
}
layer {
  name: "resx8_conv3"
  type: "Convolution"
  bottom: "resx8_conv2"
  top: "resx8_conv3"
  convolution_param {
    num_output: 480
    bias_term: false
    pad: 0
    kernel_size: 1
    group: 3
    stride: 1
    weight_filler {
      type: "msra"
    }
  }
}
layer {
  name: "resx8_conv3_bn"
  type: "BatchNorm"
  bottom: "resx8_conv3"
  top: "resx8_conv3"
  param {
    lr_mult: 0
    decay_mult: 0
  }
  param {
    lr_mult: 0
    decay_mult: 0
  }
  param {
    lr_mult: 0
    decay_mult: 0
  }
}
layer {
  name: "resx8_conv3_scale"
  type: "Scale"
  bottom: "resx8_conv3"
  top: "resx8_conv3"
  scale_param {
    filler {
      value: 1
    }
    bias_term: true
    bias_filler {
      value: 0
    }
  }
}
layer {
  name: "resx8_elewise"
  type: "Eltwise"
  bottom: "resx7_elewise"
  bottom: "resx8_conv3"
  top: "resx8_elewise"
  eltwise_param {
    operation: SUM
  }
}
layer {
  name: "resx8_elewise_relu"
  type: "ReLU"
  bottom: "resx8_elewise"
  top: "resx8_elewise"
}
layer {
  name: "resx9_conv1"
  type: "Convolution"
  bottom: "resx8_elewise"
  top: "resx9_conv1"
  convolution_param {
    num_output: 120
    bias_term: false
    pad: 0
    kernel_size: 1
    group: 3
    stride: 1
    weight_filler {
      type: "msra"
    }
  }
}
layer {
  name: "resx9_conv1_bn"
  type: "BatchNorm"
  bottom: "resx9_conv1"
  top: "resx9_conv1"
  param {
    lr_mult: 0
    decay_mult: 0
  }
  param {
    lr_mult: 0
    decay_mult: 0
  }
  param {
    lr_mult: 0
    decay_mult: 0
  }
}
layer {
  name: "resx9_conv1_scale"
  type: "Scale"
  bottom: "resx9_conv1"
  top: "resx9_conv1"
  scale_param {
    filler {
      value: 1
    }
    bias_term: true
    bias_filler {
      value: 0
    }
  }
}
layer {
  name: "resx9_conv1_relu"
  type: "ReLU"
  bottom: "resx9_conv1"
  top: "resx9_conv1"
}
layer {
  name: "shuffle9"
  type: "ShuffleChannel"
  bottom: "resx9_conv1"
  top: "shuffle9"
  shuffle_channel_param {
    group: 3
  }
}
layer {
  name: "resx9_conv2"
  type: "ConvolutionDepthwise"
  bottom: "shuffle9"
  top: "resx9_conv2"
  convolution_param {
    num_output: 120
    bias_term: false
    pad: 1
    kernel_size: 3
    stride: 1
    weight_filler {
      type: "msra"
    }
  }
}
layer {
  name: "resx9_conv2_bn"
  type: "BatchNorm"
  bottom: "resx9_conv2"
  top: "resx9_conv2"
  param {
    lr_mult: 0
    decay_mult: 0
  }
  param {
    lr_mult: 0
    decay_mult: 0
  }
  param {
    lr_mult: 0
    decay_mult: 0
  }
}
layer {
  name: "resx9_conv2_scale"
  type: "Scale"
  bottom: "resx9_conv2"
  top: "resx9_conv2"
  scale_param {
    filler {
      value: 1
    }
    bias_term: true
    bias_filler {
      value: 0
    }
  }
}
layer {
  name: "resx9_conv3"
  type: "Convolution"
  bottom: "resx9_conv2"
  top: "resx9_conv3"
  convolution_param {
    num_output: 480
    bias_term: false
    pad: 0
    kernel_size: 1
    group: 3
    stride: 1
    weight_filler {
      type: "msra"
    }
  }
}
layer {
  name: "resx9_conv3_bn"
  type: "BatchNorm"
  bottom: "resx9_conv3"
  top: "resx9_conv3"
  param {
    lr_mult: 0
    decay_mult: 0
  }
  param {
    lr_mult: 0
    decay_mult: 0
  }
  param {
    lr_mult: 0
    decay_mult: 0
  }
}
layer {
  name: "resx9_conv3_scale"
  type: "Scale"
  bottom: "resx9_conv3"
  top: "resx9_conv3"
  scale_param {
    filler {
      value: 1
    }
    bias_term: true
    bias_filler {
      value: 0
    }
  }
}
layer {
  name: "resx9_elewise"
  type: "Eltwise"
  bottom: "resx8_elewise"
  bottom: "resx9_conv3"
  top: "resx9_elewise"
  eltwise_param {
    operation: SUM
  }
}
layer {
  name: "resx9_elewise_relu"
  type: "ReLU"
  bottom: "resx9_elewise"
  top: "resx9_elewise"
}
layer {
  name: "resx10_conv1"
  type: "Convolution"
  bottom: "resx9_elewise"
  top: "resx10_conv1"
  convolution_param {
    num_output: 120
    bias_term: false
    pad: 0
    kernel_size: 1
    group: 3
    stride: 1
    weight_filler {
      type: "msra"
    }
  }
}
layer {
  name: "resx10_conv1_bn"
  type: "BatchNorm"
  bottom: "resx10_conv1"
  top: "resx10_conv1"
  param {
    lr_mult: 0
    decay_mult: 0
  }
  param {
    lr_mult: 0
    decay_mult: 0
  }
  param {
    lr_mult: 0
    decay_mult: 0
  }
}
layer {
  name: "resx10_conv1_scale"
  type: "Scale"
  bottom: "resx10_conv1"
  top: "resx10_conv1"
  scale_param {
    filler {
      value: 1
    }
    bias_term: true
    bias_filler {
      value: 0
    }
  }
}
layer {
  name: "resx10_conv1_relu"
  type: "ReLU"
  bottom: "resx10_conv1"
  top: "resx10_conv1"
}
layer {
  name: "shuffle10"
  type: "ShuffleChannel"
  bottom: "resx10_conv1"
  top: "shuffle10"
  shuffle_channel_param {
    group: 3
  }
}
layer {
  name: "resx10_conv2"
  type: "ConvolutionDepthwise"
  bottom: "shuffle10"
  top: "resx10_conv2"
  convolution_param {
    num_output: 120
    bias_term: false
    pad: 1
    kernel_size: 3
    stride: 1
    weight_filler {
      type: "msra"
    }
  }
}
layer {
  name: "resx10_conv2_bn"
  type: "BatchNorm"
  bottom: "resx10_conv2"
  top: "resx10_conv2"
  param {
    lr_mult: 0
    decay_mult: 0
  }
  param {
    lr_mult: 0
    decay_mult: 0
  }
  param {
    lr_mult: 0
    decay_mult: 0
  }
}
layer {
  name: "resx10_conv2_scale"
  type: "Scale"
  bottom: "resx10_conv2"
  top: "resx10_conv2"
  scale_param {
    filler {
      value: 1
    }
    bias_term: true
    bias_filler {
      value: 0
    }
  }
}
layer {
  name: "resx10_conv3"
  type: "Convolution"
  bottom: "resx10_conv2"
  top: "resx10_conv3"
  convolution_param {
    num_output: 480
    bias_term: false
    pad: 0
    kernel_size: 1
    group: 3
    stride: 1
    weight_filler {
      type: "msra"
    }
  }
}
layer {
  name: "resx10_conv3_bn"
  type: "BatchNorm"
  bottom: "resx10_conv3"
  top: "resx10_conv3"
  param {
    lr_mult: 0
    decay_mult: 0
  }
  param {
    lr_mult: 0
    decay_mult: 0
  }
  param {
    lr_mult: 0
    decay_mult: 0
  }
}
layer {
  name: "resx10_conv3_scale"
  type: "Scale"
  bottom: "resx10_conv3"
  top: "resx10_conv3"
  scale_param {
    filler {
      value: 1
    }
    bias_term: true
    bias_filler {
      value: 0
    }
  }
}
layer {
  name: "resx10_elewise"
  type: "Eltwise"
  bottom: "resx9_elewise"
  bottom: "resx10_conv3"
  top: "resx10_elewise"
  eltwise_param {
    operation: SUM
  }
}
layer {
  name: "resx10_elewise_relu"
  type: "ReLU"
  bottom: "resx10_elewise"
  top: "resx10_elewise"
}
layer {
  name: "resx11_conv1"
  type: "Convolution"
  bottom: "resx10_elewise"
  top: "resx11_conv1"
  convolution_param {
    num_output: 120
    bias_term: false
    pad: 0
    kernel_size: 1
    group: 3
    stride: 1
    weight_filler {
      type: "msra"
    }
  }
}
layer {
  name: "resx11_conv1_bn"
  type: "BatchNorm"
  bottom: "resx11_conv1"
  top: "resx11_conv1"
  param {
    lr_mult: 0
    decay_mult: 0
  }
  param {
    lr_mult: 0
    decay_mult: 0
  }
  param {
    lr_mult: 0
    decay_mult: 0
  }
}
layer {
  name: "resx11_conv1_scale"
  type: "Scale"
  bottom: "resx11_conv1"
  top: "resx11_conv1"
  scale_param {
    filler {
      value: 1
    }
    bias_term: true
    bias_filler {
      value: 0
    }
  }
}
layer {
  name: "resx11_conv1_relu"
  type: "ReLU"
  bottom: "resx11_conv1"
  top: "resx11_conv1"
}
layer {
  name: "shuffle11"
  type: "ShuffleChannel"
  bottom: "resx11_conv1"
  top: "shuffle11"
  shuffle_channel_param {
    group: 3
  }
}
layer {
  name: "resx11_conv2"
  type: "ConvolutionDepthwise"
  bottom: "shuffle11"
  top: "resx11_conv2"
  convolution_param {
    num_output: 120
    bias_term: false
    pad: 1
    kernel_size: 3
    stride: 1
    weight_filler {
      type: "msra"
    }
  }
}
layer {
  name: "resx11_conv2_bn"
  type: "BatchNorm"
  bottom: "resx11_conv2"
  top: "resx11_conv2"
  param {
    lr_mult: 0
    decay_mult: 0
  }
  param {
    lr_mult: 0
    decay_mult: 0
  }
  param {
    lr_mult: 0
    decay_mult: 0
  }
}
layer {
  name: "resx11_conv2_scale"
  type: "Scale"
  bottom: "resx11_conv2"
  top: "resx11_conv2"
  scale_param {
    filler {
      value: 1
    }
    bias_term: true
    bias_filler {
      value: 0
    }
  }
}
layer {
  name: "resx11_conv3"
  type: "Convolution"
  bottom: "resx11_conv2"
  top: "resx11_conv3"
  convolution_param {
    num_output: 480
    bias_term: false
    pad: 0
    kernel_size:
I0817 10:46:19.897964  9932 layer_factory.hpp:77] Creating layer data
I0817 10:46:19.898104  9932 net.cpp:91] Creating Layer data
I0817 10:46:19.898118  9932 net.cpp:443] data -> data
I0817 10:46:19.898142  9932 net.cpp:443] data -> label
I0817 10:46:19.898887  9936 db_lmdb.cpp:35] Opened lmdb /home/chenyao/ilsvrc12/ilsvrc12_train_lmdb
I0817 10:46:19.910490  9932 data_layer.cpp:41] output data size: 80,3,224,224
I0817 10:46:20.001754  9932 net.cpp:141] Setting up data
I0817 10:46:20.001806  9932 net.cpp:148] Top shape: 80 3 224 224 (12042240)
I0817 10:46:20.001813  9932 net.cpp:148] Top shape: 80 (80)
I0817 10:46:20.001817  9932 net.cpp:156] Memory required for data: 48169280
I0817 10:46:20.001828  9932 layer_factory.hpp:77] Creating layer conv1
I0817 10:46:20.001857  9932 net.cpp:91] Creating Layer conv1
I0817 10:46:20.001865  9932 net.cpp:469] conv1 <- data
I0817 10:46:20.001880  9932 net.cpp:443] conv1 -> conv1
I0817 10:46:20.189211  9932 net.cpp:141] Setting up conv1
I0817 10:46:20.189246  9932 net.cpp:148] Top shape: 80 24 112 112 (24084480)
I0817 10:46:20.189251  9932 net.cpp:156] Memory required for data: 144507200
I0817 10:46:20.189266  9932 layer_factory.hpp:77] Creating layer conv1_bn
I0817 10:46:20.189281  9932 net.cpp:91] Creating Layer conv1_bn
I0817 10:46:20.189286  9932 net.cpp:469] conv1_bn <- conv1
I0817 10:46:20.189292  9932 net.cpp:430] conv1_bn -> conv1 (in-place)
I0817 10:46:20.189967  9932 net.cpp:141] Setting up conv1_bn
I0817 10:46:20.189980  9932 net.cpp:148] Top shape: 80 24 112 112 (24084480)
I0817 10:46:20.189983  9932 net.cpp:156] Memory required for data: 240845120
I0817 10:46:20.189995  9932 layer_factory.hpp:77] Creating layer conv1_scale
I0817 10:46:20.190004  9932 net.cpp:91] Creating Layer conv1_scale
I0817 10:46:20.190008  9932 net.cpp:469] conv1_scale <- conv1
I0817 10:46:20.190021  9932 net.cpp:430] conv1_scale -> conv1 (in-place)
I0817 10:46:20.190070  9932 layer_factory.hpp:77] Creating layer conv1_scale
I0817 10:46:20.190160  9932 net.cpp:141] Setting up conv1_scale
I0817 10:46:20.190166  9932 net.cpp:148] Top shape: 80 24 112 112 (24084480)
I0817 10:46:20.190171  9932 net.cpp:156] Memory required for data: 337183040
I0817 10:46:20.190177  9932 layer_factory.hpp:77] Creating layer conv1_relu
I0817 10:46:20.190186  9932 net.cpp:91] Creating Layer conv1_relu
I0817 10:46:20.190188  9932 net.cpp:469] conv1_relu <- conv1
I0817 10:46:20.190193  9932 net.cpp:430] conv1_relu -> conv1 (in-place)
I0817 10:46:20.190469  9932 net.cpp:141] Setting up conv1_relu
I0817 10:46:20.190480  9932 net.cpp:148] Top shape: 80 24 112 112 (24084480)
I0817 10:46:20.190485  9932 net.cpp:156] Memory required for data: 433520960
I0817 10:46:20.190488  9932 layer_factory.hpp:77] Creating layer pool1
I0817 10:46:20.190496  9932 net.cpp:91] Creating Layer pool1
I0817 10:46:20.190500  9932 net.cpp:469] pool1 <- conv1
I0817 10:46:20.190505  9932 net.cpp:443] pool1 -> pool1
I0817 10:46:20.190551  9932 net.cpp:141] Setting up pool1
I0817 10:46:20.190557  9932 net.cpp:148] Top shape: 80 24 56 56 (6021120)
I0817 10:46:20.190560  9932 net.cpp:156] Memory required for data: 457605440
I0817 10:46:20.190564  9932 layer_factory.hpp:77] Creating layer pool1_pool1_0_split
I0817 10:46:20.190573  9932 net.cpp:91] Creating Layer pool1_pool1_0_split
I0817 10:46:20.190577  9932 net.cpp:469] pool1_pool1_0_split <- pool1
I0817 10:46:20.190582  9932 net.cpp:443] pool1_pool1_0_split -> pool1_pool1_0_split_0
I0817 10:46:20.190587  9932 net.cpp:443] pool1_pool1_0_split -> pool1_pool1_0_split_1
I0817 10:46:20.190611  9932 net.cpp:141] Setting up pool1_pool1_0_split
I0817 10:46:20.190618  9932 net.cpp:148] Top shape: 80 24 56 56 (6021120)
I0817 10:46:20.190621  9932 net.cpp:148] Top shape: 80 24 56 56 (6021120)
I0817 10:46:20.190624  9932 net.cpp:156] Memory required for data: 505774400
I0817 10:46:20.190629  9932 layer_factory.hpp:77] Creating layer resx1_match_conv
I0817 10:46:20.190634  9932 net.cpp:91] Creating Layer resx1_match_conv
I0817 10:46:20.190637  9932 net.cpp:469] resx1_match_conv <- pool1_pool1_0_split_0
I0817 10:46:20.190641  9932 net.cpp:443] resx1_match_conv -> resx1_match_conv
I0817 10:46:20.190779  9932 net.cpp:141] Setting up resx1_match_conv
I0817 10:46:20.190788  9932 net.cpp:148] Top shape: 80 24 28 28 (1505280)
I0817 10:46:20.190791  9932 net.cpp:156] Memory required for data: 511795520
I0817 10:46:20.190795  9932 layer_factory.hpp:77] Creating layer resx1_conv1
I0817 10:46:20.190806  9932 net.cpp:91] Creating Layer resx1_conv1
I0817 10:46:20.190810  9932 net.cpp:469] resx1_conv1 <- pool1_pool1_0_split_1
I0817 10:46:20.190815  9932 net.cpp:443] resx1_conv1 -> resx1_conv1
I0817 10:46:20.192085  9932 net.cpp:141] Setting up resx1_conv1
I0817 10:46:20.192098  9932 net.cpp:148] Top shape: 80 54 56 56 (13547520)
I0817 10:46:20.192102  9932 net.cpp:156] Memory required for data: 565985600
I0817 10:46:20.192108  9932 layer_factory.hpp:77] Creating layer resx1_conv1_bn
I0817 10:46:20.192116  9932 net.cpp:91] Creating Layer resx1_conv1_bn
I0817 10:46:20.192119  9932 net.cpp:469] resx1_conv1_bn <- resx1_conv1
I0817 10:46:20.192124  9932 net.cpp:430] resx1_conv1_bn -> resx1_conv1 (in-place)
I0817 10:46:20.192258  9932 net.cpp:141] Setting up resx1_conv1_bn
I0817 10:46:20.192265  9932 net.cpp:148] Top shape: 80 54 56 56 (13547520)
I0817 10:46:20.192268  9932 net.cpp:156] Memory required for data: 620175680
I0817 10:46:20.192277  9932 layer_factory.hpp:77] Creating layer resx1_conv1_scale
I0817 10:46:20.192284  9932 net.cpp:91] Creating Layer resx1_conv1_scale
I0817 10:46:20.192287  9932 net.cpp:469] resx1_conv1_scale <- resx1_conv1
I0817 10:46:20.192292  9932 net.cpp:430] resx1_conv1_scale -> resx1_conv1 (in-place)
I0817 10:46:20.192320  9932 layer_factory.hpp:77] Creating layer resx1_conv1_scale
I0817 10:46:20.192399  9932 net.cpp:141] Setting up resx1_conv1_scale
I0817 10:46:20.192410  9932 net.cpp:148] Top shape: 80 54 56 56 (13547520)
I0817 10:46:20.192418  9932 net.cpp:156] Memory required for data: 674365760
I0817 10:46:20.192425  9932 layer_factory.hpp:77] Creating layer resx1_conv1_relu
I0817 10:46:20.192430  9932 net.cpp:91] Creating Layer resx1_conv1_relu
I0817 10:46:20.192433  9932 net.cpp:469] resx1_conv1_relu <- resx1_conv1
I0817 10:46:20.192438  9932 net.cpp:430] resx1_conv1_relu -> resx1_conv1 (in-place)
I0817 10:46:20.192560  9932 net.cpp:141] Setting up resx1_conv1_relu
I0817 10:46:20.192569  9932 net.cpp:148] Top shape: 80 54 56 56 (13547520)
I0817 10:46:20.192572  9932 net.cpp:156] Memory required for data: 728555840
I0817 10:46:20.192576  9932 layer_factory.hpp:77] Creating layer resx1_conv2
I0817 10:46:20.192584  9932 net.cpp:91] Creating Layer resx1_conv2
I0817 10:46:20.192587  9932 net.cpp:469] resx1_conv2 <- resx1_conv1
I0817 10:46:20.192592  9932 net.cpp:443] resx1_conv2 -> resx1_conv2
I0817 10:46:20.192873  9932 net.cpp:141] Setting up resx1_conv2
I0817 10:46:20.192885  9932 net.cpp:148] Top shape: 80 54 28 28 (3386880)
I0817 10:46:20.192889  9932 net.cpp:156] Memory required for data: 742103360
I0817 10:46:20.192894  9932 layer_factory.hpp:77] Creating layer resx1_conv2_bn
I0817 10:46:20.192901  9932 net.cpp:91] Creating Layer resx1_conv2_bn
I0817 10:46:20.192904  9932 net.cpp:469] resx1_conv2_bn <- resx1_conv2
I0817 10:46:20.192911  9932 net.cpp:430] resx1_conv2_bn -> resx1_conv2 (in-place)
I0817 10:46:20.193054  9932 net.cpp:141] Setting up resx1_conv2_bn
I0817 10:46:20.193060  9932 net.cpp:148] Top shape: 80 54 28 28 (3386880)
I0817 10:46:20.193063  9932 net.cpp:156] Memory required for data: 755650880
I0817 10:46:20.193070  9932 layer_factory.hpp:77] Creating layer resx1_conv2_scale
I0817 10:46:20.193087  9932 net.cpp:91] Creating Layer resx1_conv2_scale
I0817 10:46:20.193094  9932 net.cpp:469] resx1_conv2_scale <- resx1_conv2
I0817 10:46:20.193099  9932 net.cpp:430] resx1_conv2_scale -> resx1_conv2 (in-place)
I0817 10:46:20.193307  9932 layer_factory.hpp:77] Creating layer resx1_conv2_scale
I0817 10:46:20.193404  9932 net.cpp:141] Setting up resx1_conv2_scale
I0817 10:46:20.193413  9932 net.cpp:148] Top shape: 80 54 28 28 (3386880)
I0817 10:46:20.193416  9932 net.cpp:156] Memory required for data: 769198400
I0817 10:46:20.193426  9932 layer_factory.hpp:77] Creating layer resx1_conv3
I0817 10:46:20.193439  9932 net.cpp:91] Creating Layer resx1_conv3
I0817 10:46:20.193444  9932 net.cpp:469] resx1_conv3 <- resx1_conv2
I0817 10:46:20.193449  9932 net.cpp:443] resx1_conv3 -> resx1_conv3
I0817 10:46:20.195621  9932 net.cpp:141] Setting up resx1_conv3
I0817 10:46:20.195634  9932 net.cpp:148] Top shape: 80 216 28 28 (13547520)
I0817 10:46:20.195638  9932 net.cpp:156] Memory required for data: 823388480
I0817 10:46:20.195644  9932 layer_factory.hpp:77] Creating layer resx1_conv3_bn
I0817 10:46:20.195658  9932 net.cpp:91] Creating Layer resx1_conv3_bn
I0817 10:46:20.195662  9932 net.cpp:469] resx1_conv3_bn <- resx1_conv3
I0817 10:46:20.195667  9932 net.cpp:430] resx1_conv3_bn -> resx1_conv3 (in-place)
I0817 10:46:20.195813  9932 net.cpp:141] Setting up resx1_conv3_bn
I0817 10:46:20.195821  9932 net.cpp:148] Top shape: 80 216 28 28 (13547520)
I0817 10:46:20.195823  9932 net.cpp:156] Memory required for data: 877578560
I0817 10:46:20.195830  9932 layer_factory.hpp:77] Creating layer resx1_conv3_scale
I0817 10:46:20.195837  9932 net.cpp:91] Creating Layer resx1_conv3_scale
I0817 10:46:20.195840  9932 net.cpp:469] resx1_conv3_scale <- resx1_conv3
I0817 10:46:20.195844  9932 net.cpp:430] resx1_conv3_scale -> resx1_conv3 (in-place)
I0817 10:46:20.195878  9932 layer_factory.hpp:77] Creating layer resx1_conv3_scale
I0817 10:46:20.195967  9932 net.cpp:141] Setting up resx1_conv3_scale
I0817 10:46:20.195976  9932 net.cpp:148] Top shape: 80 216 28 28 (13547520)
I0817 10:46:20.195979  9932 net.cpp:156] Memory required for data: 931768640
I0817 10:46:20.195984  9932 layer_factory.hpp:77] Creating layer resx1_concat
I0817 10:46:20.195994  9932 net.cpp:91] Creating Layer resx1_concat
I0817 10:46:20.196002  9932 net.cpp:469] resx1_concat <- resx1_match_conv
I0817 10:46:20.196012  9932 net.cpp:469] resx1_concat <- resx1_conv3
I0817 10:46:20.196017  9932 net.cpp:443] resx1_concat -> resx1_concat
I0817 10:46:20.196039  9932 net.cpp:141] Setting up resx1_concat
I0817 10:46:20.196045  9932 net.cpp:148] Top shape: 80 240 28 28 (15052800)
I0817 10:46:20.196048  9932 net.cpp:156] Memory required for data: 991979840
I0817 10:46:20.196051  9932 layer_factory.hpp:77] Creating layer resx1_concat_relu
I0817 10:46:20.196056  9932 net.cpp:91] Creating Layer resx1_concat_relu
I0817 10:46:20.196059  9932 net.cpp:469] resx1_concat_relu <- resx1_concat
I0817 10:46:20.196065  9932 net.cpp:430] resx1_concat_relu -> resx1_concat (in-place)
I0817 10:46:20.196193  9932 net.cpp:141] Setting up resx1_concat_relu
I0817 10:46:20.196202  9932 net.cpp:148] Top shape: 80 240 28 28 (15052800)
I0817 10:46:20.196205  9932 net.cpp:156] Memory required for data: 1052191040
I0817 10:46:20.196209  9932 layer_factory.hpp:77] Creating layer resx1_concat_resx1_concat_relu_0_split
I0817 10:46:20.196216  9932 net.cpp:91] Creating Layer resx1_concat_resx1_concat_relu_0_split
I0817 10:46:20.196219  9932 net.cpp:469] resx1_concat_resx1_concat_relu_0_split <- resx1_concat
I0817 10:46:20.196224  9932 net.cpp:443] resx1_concat_resx1_concat_relu_0_split -> resx1_concat_resx1_concat_relu_0_split_0
I0817 10:46:20.196230  9932 net.cpp:443] resx1_concat_resx1_concat_relu_0_split -> resx1_concat_resx1_concat_relu_0_split_1
I0817 10:46:20.196262  9932 net.cpp:141] Setting up resx1_concat_resx1_concat_relu_0_split
I0817 10:46:20.196267  9932 net.cpp:148] Top shape: 80 240 28 28 (15052800)
I0817 10:46:20.196271  9932 net.cpp:148] Top shape: 80 240 28 28 (15052800)
I0817 10:46:20.196274  9932 net.cpp:156] Memory required for data: 1172613440
I0817 10:46:20.196277  9932 layer_factory.hpp:77] Creating layer resx2_conv1
I0817 10:46:20.196286  9932 net.cpp:91] Creating Layer resx2_conv1
I0817 10:46:20.196290  9932 net.cpp:469] resx2_conv1 <- resx1_concat_resx1_concat_relu_0_split_0
I0817 10:46:20.196295  9932 net.cpp:443] resx2_conv1 -> resx2_conv1
I0817 10:46:20.198541  9932 net.cpp:141] Setting up resx2_conv1
I0817 10:46:20.198556  9932 net.cpp:148] Top shape: 80 60 28 28 (3763200)
I0817 10:46:20.198560  9932 net.cpp:156] Memory required for data: 1187666240
I0817 10:46:20.198565  9932 layer_factory.hpp:77] Creating layer resx2_conv1_bn
I0817 10:46:20.198572  9932 net.cpp:91] Creating Layer resx2_conv1_bn
I0817 10:46:20.198576  9932 net.cpp:469] resx2_conv1_bn <- resx2_conv1
I0817 10:46:20.198582  9932 net.cpp:430] resx2_conv1_bn -> resx2_conv1 (in-place)
I0817 10:46:20.198737  9932 net.cpp:141] Setting up resx2_conv1_bn
I0817 10:46:20.198743  9932 net.cpp:148] Top shape: 80 60 28 28 (3763200)
I0817 10:46:20.198747  9932 net.cpp:156] Memory required for data: 1202719040
I0817 10:46:20.198753  9932 layer_factory.hpp:77] Creating layer resx2_conv1_scale
I0817 10:46:20.198760  9932 net.cpp:91] Creating Layer resx2_conv1_scale
I0817 10:46:20.198763  9932 net.cpp:469] resx2_conv1_scale <- resx2_conv1
I0817 10:46:20.198770  9932 net.cpp:430] resx2_conv1_scale -> resx2_conv1 (in-place)
I0817 10:46:20.198799  9932 layer_factory.hpp:77] Creating layer resx2_conv1_scale
I0817 10:46:20.198889  9932 net.cpp:141] Setting up resx2_conv1_scale
I0817 10:46:20.198894  9932 net.cpp:148] Top shape: 80 60 28 28 (3763200)
I0817 10:46:20.198897  9932 net.cpp:156] Memory required for data: 1217771840
I0817 10:46:20.198902  9932 layer_factory.hpp:77] Creating layer resx2_conv1_relu
I0817 10:46:20.198909  9932 net.cpp:91] Creating Layer resx2_conv1_relu
I0817 10:46:20.198912  9932 net.cpp:469] resx2_conv1_relu <- resx2_conv1
I0817 10:46:20.198917  9932 net.cpp:430] resx2_conv1_relu -> resx2_conv1 (in-place)
I0817 10:46:20.199053  9932 net.cpp:141] Setting up resx2_conv1_relu
I0817 10:46:20.199061  9932 net.cpp:148] Top shape: 80 60 28 28 (3763200)
I0817 10:46:20.199064  9932 net.cpp:156] Memory required for data: 1232824640
I0817 10:46:20.199069  9932 layer_factory.hpp:77] Creating layer shuffle2
I0817 10:46:20.199079  9932 net.cpp:91] Creating Layer shuffle2
I0817 10:46:20.199087  9932 net.cpp:469] shuffle2 <- resx2_conv1
I0817 10:46:20.199095  9932 net.cpp:443] shuffle2 -> shuffle2
I0817 10:46:20.199118  9932 net.cpp:141] Setting up shuffle2
I0817 10:46:20.199126  9932 net.cpp:148] Top shape: 80 60 28 28 (3763200)
I0817 10:46:20.199128  9932 net.cpp:156] Memory required for data: 1247877440
I0817 10:46:20.199132  9932 layer_factory.hpp:77] Creating layer resx2_conv2
I0817 10:46:20.199138  9932 net.cpp:91] Creating Layer resx2_conv2
I0817 10:46:20.199141  9932 net.cpp:469] resx2_conv2 <- shuffle2
I0817 10:46:20.199147  9932 net.cpp:443] resx2_conv2 -> resx2_conv2
I0817 10:46:20.199249  9932 net.cpp:141] Setting up resx2_conv2
I0817 10:46:20.199259  9932 net.cpp:148] Top shape: 80 60 28 28 (3763200)
I0817 10:46:20.199262  9932 net.cpp:156] Memory required for data: 1262930240
I0817 10:46:20.199267  9932 layer_factory.hpp:77] Creating layer resx2_conv2_bn
I0817 10:46:20.199273  9932 net.cpp:91] Creating Layer resx2_conv2_bn
I0817 10:46:20.199277  9932 net.cpp:469] resx2_conv2_bn <- resx2_conv2
I0817 10:46:20.199283  9932 net.cpp:430] resx2_conv2_bn -> resx2_conv2 (in-place)
I0817 10:46:20.199429  9932 net.cpp:141] Setting up resx2_conv2_bn
I0817 10:46:20.199435  9932 net.cpp:148] Top shape: 80 60 28 28 (3763200)
I0817 10:46:20.199439  9932 net.cpp:156] Memory required for data: 1277983040
I0817 10:46:20.199450  9932 layer_factory.hpp:77] Creating layer resx2_conv2_scale
I0817 10:46:20.199456  9932 net.cpp:91] Creating Layer resx2_conv2_scale
I0817 10:46:20.199460  9932 net.cpp:469] resx2_conv2_scale <- resx2_conv2
I0817 10:46:20.199465  9932 net.cpp:430] resx2_conv2_scale -> resx2_conv2 (in-place)
I0817 10:46:20.199496  9932 layer_factory.hpp:77] Creating layer resx2_conv2_scale
I0817 10:46:20.199584  9932 net.cpp:141] Setting up resx2_conv2_scale
I0817 10:46:20.199589  9932 net.cpp:148] Top shape: 80 60 28 28 (3763200)
I0817 10:46:20.199592  9932 net.cpp:156] Memory required for data: 1293035840
I0817 10:46:20.199597  9932 layer_factory.hpp:77] Creating layer resx2_conv3
I0817 10:46:20.199606  9932 net.cpp:91] Creating Layer resx2_conv3
I0817 10:46:20.199610  9932 net.cpp:469] resx2_conv3 <- resx2_conv2
I0817 10:46:20.199615  9932 net.cpp:443] resx2_conv3 -> resx2_conv3
I0817 10:46:20.201982  9932 net.cpp:141] Setting up resx2_conv3
I0817 10:46:20.201997  9932 net.cpp:148] Top shape: 80 240 28 28 (15052800)
I0817 10:46:20.202000  9932 net.cpp:156] Memory required for data: 1353247040
I0817 10:46:20.202005  9932 layer_factory.hpp:77] Creating layer resx2_conv3_bn
I0817 10:46:20.202013  9932 net.cpp:91] Creating Layer resx2_conv3_bn
I0817 10:46:20.202018  9932 net.cpp:469] resx2_conv3_bn <- resx2_conv3
I0817 10:46:20.202023  9932 net.cpp:430] resx2_conv3_bn -> resx2_conv3 (in-place)
I0817 10:46:20.202172  9932 net.cpp:141] Setting up resx2_conv3_bn
I0817 10:46:20.202178  9932 net.cpp:148] Top shape: 80 240 28 28 (15052800)
I0817 10:46:20.202181  9932 net.cpp:156] Memory required for data: 1413458240
I0817 10:46:20.202188  9932 layer_factory.hpp:77] Creating layer resx2_conv3_scale
I0817 10:46:20.202196  9932 net.cpp:91] Creating Layer resx2_conv3_scale
I0817 10:46:20.202199  9932 net.cpp:469] resx2_conv3_scale <- resx2_conv3
I0817 10:46:20.202204  9932 net.cpp:430] resx2_conv3_scale -> resx2_conv3 (in-place)
I0817 10:46:20.202235  9932 layer_factory.hpp:77] Creating layer resx2_conv3_scale
I0817 10:46:20.202327  9932 net.cpp:141] Setting up resx2_conv3_scale
I0817 10:46:20.202332  9932 net.cpp:148] Top shape: 80 240 28 28 (15052800)
I0817 10:46:20.202337  9932 net.cpp:156] Memory required for data: 1473669440
I0817 10:46:20.202342  9932 layer_factory.hpp:77] Creating layer resx2_elewise
I0817 10:46:20.202352  9932 net.cpp:91] Creating Layer resx2_elewise
I0817 10:46:20.202355  9932 net.cpp:469] resx2_elewise <- resx1_concat_resx1_concat_relu_0_split_1
I0817 10:46:20.202360  9932 net.cpp:469] resx2_elewise <- resx2_conv3
I0817 10:46:20.202365  9932 net.cpp:443] resx2_elewise -> resx2_elewise
I0817 10:46:20.202389  9932 net.cpp:141] Setting up resx2_elewise
I0817 10:46:20.202404  9932 net.cpp:148] Top shape: 80 240 28 28 (15052800)
I0817 10:46:20.202407  9932 net.cpp:156] Memory required for data: 1533880640
I0817 10:46:20.202410  9932 layer_factory.hpp:77] Creating layer resx2_elewise_relu
I0817 10:46:20.202416  9932 net.cpp:91] Creating Layer resx2_elewise_relu
I0817 10:46:20.202419  9932 net.cpp:469] resx2_elewise_relu <- resx2_elewise
I0817 10:46:20.202424  9932 net.cpp:430] resx2_elewise_relu -> resx2_elewise (in-place)
I0817 10:46:20.202553  9932 net.cpp:141] Setting up resx2_elewise_relu
I0817 10:46:20.202561  9932 net.cpp:148] Top shape: 80 240 28 28 (15052800)
I0817 10:46:20.202564  9932 net.cpp:156] Memory required for data: 1594091840
I0817 10:46:20.202569  9932 layer_factory.hpp:77] Creating layer resx2_elewise_resx2_elewise_relu_0_split
I0817 10:46:20.202574  9932 net.cpp:91] Creating Layer resx2_elewise_resx2_elewise_relu_0_split
I0817 10:46:20.202576  9932 net.cpp:469] resx2_elewise_resx2_elewise_relu_0_split <- resx2_elewise
I0817 10:46:20.202586  9932 net.cpp:443] resx2_elewise_resx2_elewise_relu_0_split -> resx2_elewise_resx2_elewise_relu_0_split_0
I0817 10:46:20.202592  9932 net.cpp:443] resx2_elewise_resx2_elewise_relu_0_split -> resx2_elewise_resx2_elewise_relu_0_split_1
I0817 10:46:20.202623  9932 net.cpp:141] Setting up resx2_elewise_resx2_elewise_relu_0_split
I0817 10:46:20.202630  9932 net.cpp:148] Top shape: 80 240 28 28 (15052800)
I0817 10:46:20.202635  9932 net.cpp:148] Top shape: 80 240 28 28 (15052800)
I0817 10:46:20.202637  9932 net.cpp:156] Memory required for data: 1714514240
I0817 10:46:20.202641  9932 layer_factory.hpp:77] Creating layer resx3_conv1
I0817 10:46:20.202648  9932 net.cpp:91] Creating Layer resx3_conv1
I0817 10:46:20.202652  9932 net.cpp:469] resx3_conv1 <- resx2_elewise_resx2_elewise_relu_0_split_0
I0817 10:46:20.202657  9932 net.cpp:443] resx3_conv1 -> resx3_conv1
I0817 10:46:20.204879  9932 net.cpp:141] Setting up resx3_conv1
I0817 10:46:20.204890  9932 net.cpp:148] Top shape: 80 60 28 28 (3763200)
I0817 10:46:20.204895  9932 net.cpp:156] Memory required for data: 1729567040
I0817 10:46:20.204900  9932 layer_factory.hpp:77] Creating layer resx3_conv1_bn
I0817 10:46:20.204907  9932 net.cpp:91] Creating Layer resx3_conv1_bn
I0817 10:46:20.204911  9932 net.cpp:469] resx3_conv1_bn <- resx3_conv1
I0817 10:46:20.204916  9932 net.cpp:430] resx3_conv1_bn -> resx3_conv1 (in-place)
I0817 10:46:20.205065  9932 net.cpp:141] Setting up resx3_conv1_bn
I0817 10:46:20.205072  9932 net.cpp:148] Top shape: 80 60 28 28 (3763200)
I0817 10:46:20.205085  9932 net.cpp:156] Memory required for data: 1744619840
I0817 10:46:20.205093  9932 layer_factory.hpp:77] Creating layer resx3_conv1_scale
I0817 10:46:20.205101  9932 net.cpp:91] Creating Layer resx3_conv1_scale
I0817 10:46:20.205103  9932 net.cpp:469] resx3_conv1_scale <- resx3_conv1
I0817 10:46:20.205108  9932 net.cpp:430] resx3_conv1_scale -> resx3_conv1 (in-place)
I0817 10:46:20.205144  9932 layer_factory.hpp:77] Creating layer resx3_conv1_scale
I0817 10:46:20.205237  9932 net.cpp:141] Setting up resx3_conv1_scale
I0817 10:46:20.205245  9932 net.cpp:148] Top shape: 80 60 28 28 (3763200)
I0817 10:46:20.205247  9932 net.cpp:156] Memory required for data: 1759672640
I0817 10:46:20.205252  9932 layer_factory.hpp:77] Creating layer resx3_conv1_relu
I0817 10:46:20.205258  9932 net.cpp:91] Creating Layer resx3_conv1_relu
I0817 10:46:20.205261  9932 net.cpp:469] resx3_conv1_relu <- resx3_conv1
I0817 10:46:20.205269  9932 net.cpp:430] resx3_conv1_relu -> resx3_conv1 (in-place)
I0817 10:46:20.205400  9932 net.cpp:141] Setting up resx3_conv1_relu
I0817 10:46:20.205410  9932 net.cpp:148] Top shape: 80 60 28 28 (3763200)
I0817 10:46:20.205412  9932 net.cpp:156] Memory required for data: 1774725440
I0817 10:46:20.205416  9932 layer_factory.hpp:77] Creating layer shuffle3
I0817 10:46:20.205421  9932 net.cpp:91] Creating Layer shuffle3
I0817 10:46:20.205425  9932 net.cpp:469] shuffle3 <- resx3_conv1
I0817 10:46:20.205431  9932 net.cpp:443] shuffle3 -> shuffle3
I0817 10:46:20.205459  9932 net.cpp:141] Setting up shuffle3
I0817 10:46:20.205471  9932 net.cpp:148] Top shape: 80 60 28 28 (3763200)
I0817 10:46:20.205474  9932 net.cpp:156] Memory required for data: 1789778240
I0817 10:46:20.205477  9932 layer_factory.hpp:77] Creating layer resx3_conv2
I0817 10:46:20.205484  9932 net.cpp:91] Creating Layer resx3_conv2
I0817 10:46:20.205488  9932 net.cpp:469] resx3_conv2 <- shuffle3
I0817 10:46:20.205494  9932 net.cpp:443] resx3_conv2 -> resx3_conv2
I0817 10:46:20.205602  9932 net.cpp:141] Setting up resx3_conv2
I0817 10:46:20.205611  9932 net.cpp:148] Top shape: 80 60 28 28 (3763200)
I0817 10:46:20.205615  9932 net.cpp:156] Memory required for data: 1804831040
I0817 10:46:20.205620  9932 layer_factory.hpp:77] Creating layer resx3_conv2_bn
I0817 10:46:20.205626  9932 net.cpp:91] Creating Layer resx3_conv2_bn
I0817 10:46:20.205629  9932 net.cpp:469] resx3_conv2_bn <- resx3_conv2
I0817 10:46:20.205636  9932 net.cpp:430] resx3_conv2_bn -> resx3_conv2 (in-place)
I0817 10:46:20.205781  9932 net.cpp:141] Setting up resx3_conv2_bn
I0817 10:46:20.205787  9932 net.cpp:148] Top shape: 80 60 28 28 (3763200)
I0817 10:46:20.205790  9932 net.cpp:156] Memory required for data: 1819883840
I0817 10:46:20.205797  9932 layer_factory.hpp:77] Creating layer resx3_conv2_scale
I0817 10:46:20.205803  9932 net.cpp:91] Creating Layer resx3_conv2_scale
I0817 10:46:20.205807  9932 net.cpp:469] resx3_conv2_scale <- resx3_conv2
I0817 10:46:20.205813  9932 net.cpp:430] resx3_conv2_scale -> resx3_conv2 (in-place)
I0817 10:46:20.205842  9932 layer_factory.hpp:77] Creating layer resx3_conv2_scale
I0817 10:46:20.205935  9932 net.cpp:141] Setting up resx3_conv2_scale
I0817 10:46:20.205941  9932 net.cpp:148] Top shape: 80 60 28 28 (3763200)
I0817 10:46:20.205945  9932 net.cpp:156] Memory required for data: 1834936640
I0817 10:46:20.205950  9932 layer_factory.hpp:77] Creating layer resx3_conv3
I0817 10:46:20.205958  9932 net.cpp:91] Creating Layer resx3_conv3
I0817 10:46:20.205962  9932 net.cpp:469] resx3_conv3 <- resx3_conv2
I0817 10:46:20.205968  9932 net.cpp:443] resx3_conv3 -> resx3_conv3
I0817 10:46:20.208256  9932 net.cpp:141] Setting up resx3_conv3
I0817 10:46:20.208268  9932 net.cpp:148] Top shape: 80 240 28 28 (15052800)
I0817 10:46:20.208272  9932 net.cpp:156] Memory required for data: 1895147840
I0817 10:46:20.208277  9932 layer_factory.hpp:77] Creating layer resx3_conv3_bn
I0817 10:46:20.208286  9932 net.cpp:91] Creating Layer resx3_conv3_bn
I0817 10:46:20.208290  9932 net.cpp:469] resx3_conv3_bn <- resx3_conv3
I0817 10:46:20.208295  9932 net.cpp:430] resx3_conv3_bn -> resx3_conv3 (in-place)
I0817 10:46:20.208448  9932 net.cpp:141] Setting up resx3_conv3_bn
I0817 10:46:20.208456  9932 net.cpp:148] Top shape: 80 240 28 28 (15052800)
I0817 10:46:20.208458  9932 net.cpp:156] Memory required for data: 1955359040
I0817 10:46:20.208464  9932 layer_factory.hpp:77] Creating layer resx3_conv3_scale
I0817 10:46:20.208472  9932 net.cpp:91] Creating Layer resx3_conv3_scale
I0817 10:46:20.208477  9932 net.cpp:469] resx3_conv3_scale <- resx3_conv3
I0817 10:46:20.208480  9932 net.cpp:430] resx3_conv3_scale -> resx3_conv3 (in-place)
I0817 10:46:20.208513  9932 layer_factory.hpp:77] Creating layer resx3_conv3_scale
I0817 10:46:20.208609  9932 net.cpp:141] Setting up resx3_conv3_scale
I0817 10:46:20.208616  9932 net.cpp:148] Top shape: 80 240 28 28 (15052800)
I0817 10:46:20.208619  9932 net.cpp:156] Memory required for data: 2015570240
I0817 10:46:20.208624  9932 layer_factory.hpp:77] Creating layer resx3_elewise
I0817 10:46:20.208633  9932 net.cpp:91] Creating Layer resx3_elewise
I0817 10:46:20.208636  9932 net.cpp:469] resx3_elewise <- resx2_elewise_resx2_elewise_relu_0_split_1
I0817 10:46:20.208642  9932 net.cpp:469] resx3_elewise <- resx3_conv3
I0817 10:46:20.208647  9932 net.cpp:443] resx3_elewise -> resx3_elewise
I0817 10:46:20.208667  9932 net.cpp:141] Setting up resx3_elewise
I0817 10:46:20.208673  9932 net.cpp:148] Top shape: 80 240 28 28 (15052800)
I0817 10:46:20.208676  9932 net.cpp:156] Memory required for data: 2075781440
I0817 10:46:20.208683  9932 layer_factory.hpp:77] Creating layer resx3_elewise_relu
I0817 10:46:20.208695  9932 net.cpp:91] Creating Layer resx3_elewise_relu
I0817 10:46:20.208699  9932 net.cpp:469] resx3_elewise_relu <- resx3_elewise
I0817 10:46:20.208703  9932 net.cpp:430] resx3_elewise_relu -> resx3_elewise (in-place)
I0817 10:46:20.208839  9932 net.cpp:141] Setting up resx3_elewise_relu
I0817 10:46:20.208848  9932 net.cpp:148] Top shape: 80 240 28 28 (15052800)
I0817 10:46:20.208851  9932 net.cpp:156] Memory required for data: 2135992640
I0817 10:46:20.208854  9932 layer_factory.hpp:77] Creating layer resx3_elewise_resx3_elewise_relu_0_split
I0817 10:46:20.208861  9932 net.cpp:91] Creating Layer resx3_elewise_resx3_elewise_relu_0_split
I0817 10:46:20.208865  9932 net.cpp:469] resx3_elewise_resx3_elewise_relu_0_split <- resx3_elewise
I0817 10:46:20.208870  9932 net.cpp:443] resx3_elewise_resx3_elewise_relu_0_split -> resx3_elewise_resx3_elewise_relu_0_split_0
I0817 10:46:20.208876  9932 net.cpp:443] resx3_elewise_resx3_elewise_relu_0_split -> resx3_elewise_resx3_elewise_relu_0_split_1
I0817 10:46:20.208910  9932 net.cpp:141] Setting up resx3_elewise_resx3_elewise_relu_0_split
I0817 10:46:20.208916  9932 net.cpp:148] Top shape: 80 240 28 28 (15052800)
I0817 10:46:20.208920  9932 net.cpp:148] Top shape: 80 240 28 28 (15052800)
I0817 10:46:20.208923  9932 net.cpp:156] Memory required for data: 2256415040
I0817 10:46:20.208926  9932 layer_factory.hpp:77] Creating layer resx4_conv1
I0817 10:46:20.208935  9932 net.cpp:91] Creating Layer resx4_conv1
I0817 10:46:20.208940  9932 net.cpp:469] resx4_conv1 <- resx3_elewise_resx3_elewise_relu_0_split_0
I0817 10:46:20.208945  9932 net.cpp:443] resx4_conv1 -> resx4_conv1
I0817 10:46:20.211386  9932 net.cpp:141] Setting up resx4_conv1
I0817 10:46:20.211400  9932 net.cpp:148] Top shape: 80 60 28 28 (3763200)
I0817 10:46:20.211403  9932 net.cpp:156] Memory required for data: 2271467840
I0817 10:46:20.211408  9932 layer_factory.hpp:77] Creating layer resx4_conv1_bn
I0817 10:46:20.211417  9932 net.cpp:91] Creating Layer resx4_conv1_bn
I0817 10:46:20.211421  9932 net.cpp:469] resx4_conv1_bn <- resx4_conv1
I0817 10:46:20.211426  9932 net.cpp:430] resx4_conv1_bn -> resx4_conv1 (in-place)
I0817 10:46:20.211585  9932 net.cpp:141] Setting up resx4_conv1_bn
I0817 10:46:20.211592  9932 net.cpp:148] Top shape: 80 60 28 28 (3763200)
I0817 10:46:20.211596  9932 net.cpp:156] Memory required for data: 2286520640
I0817 10:46:20.211602  9932 layer_factory.hpp:77] Creating layer resx4_conv1_scale
I0817 10:46:20.211611  9932 net.cpp:91] Creating Layer resx4_conv1_scale
I0817 10:46:20.211614  9932 net.cpp:469] resx4_conv1_scale <- resx4_conv1
I0817 10:46:20.211618  9932 net.cpp:430] resx4_conv1_scale -> resx4_conv1 (in-place)
I0817 10:46:20.211652  9932 layer_factory.hpp:77] Creating layer resx4_conv1_scale
I0817 10:46:20.211747  9932 net.cpp:141] Setting up resx4_conv1_scale
I0817 10:46:20.211755  9932 net.cpp:148] Top shape: 80 60 28 28 (3763200)
I0817 10:46:20.211757  9932 net.cpp:156] Memory required for data: 2301573440
I0817 10:46:20.211771  9932 layer_factory.hpp:77] Creating layer resx4_conv1_relu
I0817 10:46:20.211778  9932 net.cpp:91] Creating Layer resx4_conv1_relu
I0817 10:46:20.211781  9932 net.cpp:469] resx4_conv1_relu <- resx4_conv1
I0817 10:46:20.211786  9932 net.cpp:430] resx4_conv1_relu -> resx4_conv1 (in-place)
I0817 10:46:20.211925  9932 net.cpp:141] Setting up resx4_conv1_relu
I0817 10:46:20.211933  9932 net.cpp:148] Top shape: 80 60 28 28 (3763200)
I0817 10:46:20.211937  9932 net.cpp:156] Memory required for data: 2316626240
I0817 10:46:20.211941  9932 layer_factory.hpp:77] Creating layer shuffle4
I0817 10:46:20.211947  9932 net.cpp:91] Creating Layer shuffle4
I0817 10:46:20.211951  9932 net.cpp:469] shuffle4 <- resx4_conv1
I0817 10:46:20.211956  9932 net.cpp:443] shuffle4 -> shuffle4
I0817 10:46:20.211980  9932 net.cpp:141] Setting up shuffle4
I0817 10:46:20.211987  9932 net.cpp:148] Top shape: 80 60 28 28 (3763200)
I0817 10:46:20.211989  9932 net.cpp:156] Memory required for data: 2331679040
I0817 10:46:20.211997  9932 layer_factory.hpp:77] Creating layer resx4_conv2
I0817 10:46:20.212009  9932 net.cpp:91] Creating Layer resx4_conv2
I0817 10:46:20.212013  9932 net.cpp:469] resx4_conv2 <- shuffle4
I0817 10:46:20.212018  9932 net.cpp:443] resx4_conv2 -> resx4_conv2
I0817 10:46:20.212126  9932 net.cpp:141] Setting up resx4_conv2
I0817 10:46:20.212134  9932 net.cpp:148] Top shape: 80 60 28 28 (3763200)
I0817 10:46:20.212138  9932 net.cpp:156] Memory required for data: 2346731840
I0817 10:46:20.212142  9932 layer_factory.hpp:77] Creating layer resx4_conv2_bn
I0817 10:46:20.212151  9932 net.cpp:91] Creating Layer resx4_conv2_bn
I0817 10:46:20.212154  9932 net.cpp:469] resx4_conv2_bn <- resx4_conv2
I0817 10:46:20.212159  9932 net.cpp:430] resx4_conv2_bn -> resx4_conv2 (in-place)
I0817 10:46:20.212311  9932 net.cpp:141] Setting up resx4_conv2_bn
I0817 10:46:20.212318  9932 net.cpp:148] Top shape: 80 60 28 28 (3763200)
I0817 10:46:20.212321  9932 net.cpp:156] Memory required for data: 2361784640
I0817 10:46:20.212328  9932 layer_factory.hpp:77] Creating layer resx4_conv2_scale
I0817 10:46:20.212335  9932 net.cpp:91] Creating Layer resx4_conv2_scale
I0817 10:46:20.212339  9932 net.cpp:469] resx4_conv2_scale <- resx4_conv2
I0817 10:46:20.212344  9932 net.cpp:430] resx4_conv2_scale -> resx4_conv2 (in-place)
I0817 10:46:20.212376  9932 layer_factory.hpp:77] Creating layer resx4_conv2_scale
I0817 10:46:20.212472  9932 net.cpp:141] Setting up resx4_conv2_scale
I0817 10:46:20.212479  9932 net.cpp:148] Top shape: 80 60 28 28 (3763200)
I0817 10:46:20.212482  9932 net.cpp:156] Memory required for data: 2376837440
I0817 10:46:20.212488  9932 layer_factory.hpp:77] Creating layer resx4_conv3
I0817 10:46:20.212498  9932 net.cpp:91] Creating Layer resx4_conv3
I0817 10:46:20.212502  9932 net.cpp:469] resx4_conv3 <- resx4_conv2
I0817 10:46:20.212507  9932 net.cpp:443] resx4_conv3 -> resx4_conv3
I0817 10:46:20.214648  9932 net.cpp:141] Setting up resx4_conv3
I0817 10:46:20.214660  9932 net.cpp:148] Top shape: 80 240 28 28 (15052800)
I0817 10:46:20.214664  9932 net.cpp:156] Memory required for data: 2437048640
I0817 10:46:20.214669  9932 layer_factory.hpp:77] Creating layer resx4_conv3_bn
I0817 10:46:20.214676  9932 net.cpp:91] Creating Layer resx4_conv3_bn
I0817 10:46:20.214680  9932 net.cpp:469] resx4_conv3_bn <- resx4_conv3
I0817 10:46:20.214687  9932 net.cpp:430] resx4_conv3_bn -> resx4_conv3 (in-place)
I0817 10:46:20.214845  9932 net.cpp:141] Setting up resx4_conv3_bn
I0817 10:46:20.214851  9932 net.cpp:148] Top shape: 80 240 28 28 (15052800)
I0817 10:46:20.214854  9932 net.cpp:156] Memory required for data: 2497259840
I0817 10:46:20.214861  9932 layer_factory.hpp:77] Creating layer resx4_conv3_scale
I0817 10:46:20.214867  9932 net.cpp:91] Creating Layer resx4_conv3_scale
I0817 10:46:20.214871  9932 net.cpp:469] resx4_conv3_scale <- resx4_conv3
I0817 10:46:20.214880  9932 net.cpp:430] resx4_conv3_scale -> resx4_conv3 (in-place)
I0817 10:46:20.214913  9932 layer_factory.hpp:77] Creating layer resx4_conv3_scale
I0817 10:46:20.215008  9932 net.cpp:141] Setting up resx4_conv3_scale
I0817 10:46:20.215015  9932 net.cpp:148] Top shape: 80 240 28 28 (15052800)
I0817 10:46:20.215018  9932 net.cpp:156] Memory required for data: 2557471040
I0817 10:46:20.215024  9932 layer_factory.hpp:77] Creating layer resx4_elewise
I0817 10:46:20.215030  9932 net.cpp:91] Creating Layer resx4_elewise
I0817 10:46:20.215034  9932 net.cpp:469] resx4_elewise <- resx3_elewise_resx3_elewise_relu_0_split_1
I0817 10:46:20.215039  9932 net.cpp:469] resx4_elewise <- resx4_conv3
I0817 10:46:20.215044  9932 net.cpp:443] resx4_elewise -> resx4_elewise
I0817 10:46:20.215066  9932 net.cpp:141] Setting up resx4_elewise
I0817 10:46:20.215072  9932 net.cpp:148] Top shape: 80 240 28 28 (15052800)
I0817 10:46:20.215075  9932 net.cpp:156] Memory required for data: 2617682240
I0817 10:46:20.215080  9932 layer_factory.hpp:77] Creating layer resx4_elewise_relu
I0817 10:46:20.215085  9932 net.cpp:91] Creating Layer resx4_elewise_relu
I0817 10:46:20.215087  9932 net.cpp:469] resx4_elewise_relu <- resx4_elewise
I0817 10:46:20.215102  9932 net.cpp:430] resx4_elewise_relu -> resx4_elewise (in-place)
I0817 10:46:20.215385  9932 net.cpp:141] Setting up resx4_elewise_relu
I0817 10:46:20.215396  9932 net.cpp:148] Top shape: 80 240 28 28 (15052800)
I0817 10:46:20.215400  9932 net.cpp:156] Memory required for data: 2677893440
I0817 10:46:20.215404  9932 layer_factory.hpp:77] Creating layer resx4_elewise_resx4_elewise_relu_0_split
I0817 10:46:20.215409  9932 net.cpp:91] Creating Layer resx4_elewise_resx4_elewise_relu_0_split
I0817 10:46:20.215414  9932 net.cpp:469] resx4_elewise_resx4_elewise_relu_0_split <- resx4_elewise
I0817 10:46:20.215420  9932 net.cpp:443] resx4_elewise_resx4_elewise_relu_0_split -> resx4_elewise_resx4_elewise_relu_0_split_0
I0817 10:46:20.215427  9932 net.cpp:443] resx4_elewise_resx4_elewise_relu_0_split -> resx4_elewise_resx4_elewise_relu_0_split_1
I0817 10:46:20.215466  9932 net.cpp:141] Setting up resx4_elewise_resx4_elewise_relu_0_split
I0817 10:46:20.215471  9932 net.cpp:148] Top shape: 80 240 28 28 (15052800)
I0817 10:46:20.215476  9932 net.cpp:148] Top shape: 80 240 28 28 (15052800)
I0817 10:46:20.215478  9932 net.cpp:156] Memory required for data: 2798315840
I0817 10:46:20.215481  9932 layer_factory.hpp:77] Creating layer resx5_match_conv
I0817 10:46:20.215487  9932 net.cpp:91] Creating Layer resx5_match_conv
I0817 10:46:20.215492  9932 net.cpp:469] resx5_match_conv <- resx4_elewise_resx4_elewise_relu_0_split_0
I0817 10:46:20.215497  9932 net.cpp:443] resx5_match_conv -> resx5_match_conv
I0817 10:46:20.215793  9932 net.cpp:141] Setting up resx5_match_conv
I0817 10:46:20.215804  9932 net.cpp:148] Top shape: 80 240 14 14 (3763200)
I0817 10:46:20.215808  9932 net.cpp:156] Memory required for data: 2813368640
I0817 10:46:20.215811  9932 layer_factory.hpp:77] Creating layer resx5_conv1
I0817 10:46:20.215826  9932 net.cpp:91] Creating Layer resx5_conv1
I0817 10:46:20.215831  9932 net.cpp:469] resx5_conv1 <- resx4_elewise_resx4_elewise_relu_0_split_1
I0817 10:46:20.215837  9932 net.cpp:443] resx5_conv1 -> resx5_conv1
I0817 10:46:20.218017  9932 net.cpp:141] Setting up resx5_conv1
I0817 10:46:20.218031  9932 net.cpp:148] Top shape: 80 60 28 28 (3763200)
I0817 10:46:20.218035  9932 net.cpp:156] Memory required for data: 2828421440
I0817 10:46:20.218040  9932 layer_factory.hpp:77] Creating layer resx5_conv1_bn
I0817 10:46:20.218050  9932 net.cpp:91] Creating Layer resx5_conv1_bn
I0817 10:46:20.218053  9932 net.cpp:469] resx5_conv1_bn <- resx5_conv1
I0817 10:46:20.218058  9932 net.cpp:430] resx5_conv1_bn -> resx5_conv1 (in-place)
I0817 10:46:20.218225  9932 net.cpp:141] Setting up resx5_conv1_bn
I0817 10:46:20.218231  9932 net.cpp:148] Top shape: 80 60 28 28 (3763200)
I0817 10:46:20.218235  9932 net.cpp:156] Memory required for data: 2843474240
I0817 10:46:20.218241  9932 layer_factory.hpp:77] Creating layer resx5_conv1_scale
I0817 10:46:20.218250  9932 net.cpp:91] Creating Layer resx5_conv1_scale
I0817 10:46:20.218253  9932 net.cpp:469] resx5_conv1_scale <- resx5_conv1
I0817 10:46:20.218257  9932 net.cpp:430] resx5_conv1_scale -> resx5_conv1 (in-place)
I0817 10:46:20.218293  9932 layer_factory.hpp:77] Creating layer resx5_conv1_scale
I0817 10:46:20.218390  9932 net.cpp:141] Setting up resx5_conv1_scale
I0817 10:46:20.218397  9932 net.cpp:148] Top shape: 80 60 28 28 (3763200)
I0817 10:46:20.218400  9932 net.cpp:156] Memory required for data: 2858527040
I0817 10:46:20.218406  9932 layer_factory.hpp:77] Creating layer resx5_conv1_relu
I0817 10:46:20.218413  9932 net.cpp:91] Creating Layer resx5_conv1_relu
I0817 10:46:20.218416  9932 net.cpp:469] resx5_conv1_relu <- resx5_conv1
I0817 10:46:20.218421  9932 net.cpp:430] resx5_conv1_relu -> resx5_conv1 (in-place)
I0817 10:46:20.218559  9932 net.cpp:141] Setting up resx5_conv1_relu
I0817 10:46:20.218567  9932 net.cpp:148] Top shape: 80 60 28 28 (3763200)
I0817 10:46:20.218570  9932 net.cpp:156] Memory required for data: 2873579840
I0817 10:46:20.218575  9932 layer_factory.hpp:77] Creating layer shuffle5
I0817 10:46:20.218581  9932 net.cpp:91] Creating Layer shuffle5
I0817 10:46:20.218598  9932 net.cpp:469] shuffle5 <- resx5_conv1
I0817 10:46:20.218605  9932 net.cpp:443] shuffle5 -> shuffle5
I0817 10:46:20.218629  9932 net.cpp:141] Setting up shuffle5
I0817 10:46:20.218636  9932 net.cpp:148] Top shape: 80 60 28 28 (3763200)
I0817 10:46:20.218638  9932 net.cpp:156] Memory required for data: 2888632640
I0817 10:46:20.218641  9932 layer_factory.hpp:77] Creating layer resx5_conv2
I0817 10:46:20.218649  9932 net.cpp:91] Creating Layer resx5_conv2
I0817 10:46:20.218653  9932 net.cpp:469] resx5_conv2 <- shuffle5
I0817 10:46:20.218660  9932 net.cpp:443] resx5_conv2 -> resx5_conv2
I0817 10:46:20.218767  9932 net.cpp:141] Setting up resx5_conv2
I0817 10:46:20.218776  9932 net.cpp:148] Top shape: 80 60 14 14 (940800)
I0817 10:46:20.218780  9932 net.cpp:156] Memory required for data: 2892395840
I0817 10:46:20.218785  9932 layer_factory.hpp:77] Creating layer resx5_conv2_bn
I0817 10:46:20.218792  9932 net.cpp:91] Creating Layer resx5_conv2_bn
I0817 10:46:20.218796  9932 net.cpp:469] resx5_conv2_bn <- resx5_conv2
I0817 10:46:20.218802  9932 net.cpp:430] resx5_conv2_bn -> resx5_conv2 (in-place)
I0817 10:46:20.218957  9932 net.cpp:141] Setting up resx5_conv2_bn
I0817 10:46:20.218964  9932 net.cpp:148] Top shape: 80 60 14 14 (940800)
I0817 10:46:20.218967  9932 net.cpp:156] Memory required for data: 2896159040
I0817 10:46:20.218973  9932 layer_factory.hpp:77] Creating layer resx5_conv2_scale
I0817 10:46:20.218981  9932 net.cpp:91] Creating Layer resx5_conv2_scale
I0817 10:46:20.218986  9932 net.cpp:469] resx5_conv2_scale <- resx5_conv2
I0817 10:46:20.218989  9932 net.cpp:430] resx5_conv2_scale -> resx5_conv2 (in-place)
I0817 10:46:20.219023  9932 layer_factory.hpp:77] Creating layer resx5_conv2_scale
I0817 10:46:20.219118  9932 net.cpp:141] Setting up resx5_conv2_scale
I0817 10:46:20.219125  9932 net.cpp:148] Top shape: 80 60 14 14 (940800)
I0817 10:46:20.219127  9932 net.cpp:156] Memory required for data: 2899922240
I0817 10:46:20.219133  9932 layer_factory.hpp:77] Creating layer resx5_conv3
I0817 10:46:20.219142  9932 net.cpp:91] Creating Layer resx5_conv3
I0817 10:46:20.219146  9932 net.cpp:469] resx5_conv3 <- resx5_conv2
I0817 10:46:20.219151  9932 net.cpp:443] resx5_conv3 -> resx5_conv3
I0817 10:46:20.221652  9932 net.cpp:141] Setting up resx5_conv3
I0817 10:46:20.221666  9932 net.cpp:148] Top shape: 80 240 14 14 (3763200)
I0817 10:46:20.221671  9932 net.cpp:156] Memory required for data: 2914975040
I0817 10:46:20.221676  9932 layer_factory.hpp:77] Creating layer resx5_conv3_bn
I0817 10:46:20.221684  9932 net.cpp:91] Creating Layer resx5_conv3_bn
I0817 10:46:20.221688  9932 net.cpp:469] resx5_conv3_bn <- resx5_conv3
I0817 10:46:20.221694  9932 net.cpp:430] resx5_conv3_bn -> resx5_conv3 (in-place)
I0817 10:46:20.221868  9932 net.cpp:141] Setting up resx5_conv3_bn
I0817 10:46:20.221875  9932 net.cpp:148] Top shape: 80 240 14 14 (3763200)
I0817 10:46:20.221879  9932 net.cpp:156] Memory required for data: 2930027840
I0817 10:46:20.221885  9932 layer_factory.hpp:77] Creating layer resx5_conv3_scale
I0817 10:46:20.221894  9932 net.cpp:91] Creating Layer resx5_conv3_scale
I0817 10:46:20.221897  9932 net.cpp:469] resx5_conv3_scale <- resx5_conv3
I0817 10:46:20.221902  9932 net.cpp:430] resx5_conv3_scale -> resx5_conv3 (in-place)
I0817 10:46:20.221940  9932 layer_factory.hpp:77] Creating layer resx5_conv3_scale
I0817 10:46:20.222048  9932 net.cpp:141] Setting up resx5_conv3_scale
I0817 10:46:20.222055  9932 net.cpp:148] Top shape: 80 240 14 14 (3763200)
I0817 10:46:20.222059  9932 net.cpp:156] Memory required for data: 2945080640
I0817 10:46:20.222064  9932 layer_factory.hpp:77] Creating layer resx5_concat
I0817 10:46:20.222071  9932 net.cpp:91] Creating Layer resx5_concat
I0817 10:46:20.222075  9932 net.cpp:469] resx5_concat <- resx5_match_conv
I0817 10:46:20.222079  9932 net.cpp:469] resx5_concat <- resx5_conv3
I0817 10:46:20.222084  9932 net.cpp:443] resx5_concat -> resx5_concat
I0817 10:46:20.222106  9932 net.cpp:141] Setting up resx5_concat
I0817 10:46:20.222112  9932 net.cpp:148] Top shape: 80 480 14 14 (7526400)
I0817 10:46:20.222123  9932 net.cpp:156] Memory required for data: 2975186240
I0817 10:46:20.222127  9932 layer_factory.hpp:77] Creating layer resx5_concat_relu
I0817 10:46:20.222132  9932 net.cpp:91] Creating Layer resx5_concat_relu
I0817 10:46:20.222136  9932 net.cpp:469] resx5_concat_relu <- resx5_concat
I0817 10:46:20.222142  9932 net.cpp:430] resx5_concat_relu -> resx5_concat (in-place)
I0817 10:46:20.222281  9932 net.cpp:141] Setting up resx5_concat_relu
I0817 10:46:20.222290  9932 net.cpp:148] Top shape: 80 480 14 14 (7526400)
I0817 10:46:20.222292  9932 net.cpp:156] Memory required for data: 3005291840
I0817 10:46:20.222296  9932 layer_factory.hpp:77] Creating layer resx5_concat_resx5_concat_relu_0_split
I0817 10:46:20.222303  9932 net.cpp:91] Creating Layer resx5_concat_resx5_concat_relu_0_split
I0817 10:46:20.222307  9932 net.cpp:469] resx5_concat_resx5_concat_relu_0_split <- resx5_concat
I0817 10:46:20.222311  9932 net.cpp:443] resx5_concat_resx5_concat_relu_0_split -> resx5_concat_resx5_concat_relu_0_split_0
I0817 10:46:20.222317  9932 net.cpp:443] resx5_concat_resx5_concat_relu_0_split -> resx5_concat_resx5_concat_relu_0_split_1
I0817 10:46:20.222354  9932 net.cpp:141] Setting up resx5_concat_resx5_concat_relu_0_split
I0817 10:46:20.222360  9932 net.cpp:148] Top shape: 80 480 14 14 (7526400)
I0817 10:46:20.222364  9932 net.cpp:148] Top shape: 80 480 14 14 (7526400)
I0817 10:46:20.222368  9932 net.cpp:156] Memory required for data: 3065503040
I0817 10:46:20.222370  9932 layer_factory.hpp:77] Creating layer resx6_conv1
I0817 10:46:20.222379  9932 net.cpp:91] Creating Layer resx6_conv1
I0817 10:46:20.222383  9932 net.cpp:469] resx6_conv1 <- resx5_concat_resx5_concat_relu_0_split_0
I0817 10:46:20.222388  9932 net.cpp:443] resx6_conv1 -> resx6_conv1
I0817 10:46:20.225553  9932 net.cpp:141] Setting up resx6_conv1
I0817 10:46:20.225567  9932 net.cpp:148] Top shape: 80 120 14 14 (1881600)
I0817 10:46:20.225571  9932 net.cpp:156] Memory required for data: 3073029440
I0817 10:46:20.225576  9932 layer_factory.hpp:77] Creating layer resx6_conv1_bn
I0817 10:46:20.225584  9932 net.cpp:91] Creating Layer resx6_conv1_bn
I0817 10:46:20.225587  9932 net.cpp:469] resx6_conv1_bn <- resx6_conv1
I0817 10:46:20.225594  9932 net.cpp:430] resx6_conv1_bn -> resx6_conv1 (in-place)
I0817 10:46:20.225762  9932 net.cpp:141] Setting up resx6_conv1_bn
I0817 10:46:20.225769  9932 net.cpp:148] Top shape: 80 120 14 14 (1881600)
I0817 10:46:20.225771  9932 net.cpp:156] Memory required for data: 3080555840
I0817 10:46:20.225778  9932 layer_factory.hpp:77] Creating layer resx6_conv1_scale
I0817 10:46:20.225785  9932 net.cpp:91] Creating Layer resx6_conv1_scale
I0817 10:46:20.225788  9932 net.cpp:469] resx6_conv1_scale <- resx6_conv1
I0817 10:46:20.225795  9932 net.cpp:430] resx6_conv1_scale -> resx6_conv1 (in-place)
I0817 10:46:20.225831  9932 layer_factory.hpp:77] Creating layer resx6_conv1_scale
I0817 10:46:20.225929  9932 net.cpp:141] Setting up resx6_conv1_scale
I0817 10:46:20.225935  9932 net.cpp:148] Top shape: 80 120 14 14 (1881600)
I0817 10:46:20.225939  9932 net.cpp:156] Memory required for data: 3088082240
I0817 10:46:20.225944  9932 layer_factory.hpp:77] Creating layer resx6_conv1_relu
I0817 10:46:20.225950  9932 net.cpp:91] Creating Layer resx6_conv1_relu
I0817 10:46:20.225955  9932 net.cpp:469] resx6_conv1_relu <- resx6_conv1
I0817 10:46:20.225958  9932 net.cpp:430] resx6_conv1_relu -> resx6_conv1 (in-place)
I0817 10:46:20.226100  9932 net.cpp:141] Setting up resx6_conv1_relu
I0817 10:46:20.226109  9932 net.cpp:148] Top shape: 80 120 14 14 (1881600)
I0817 10:46:20.226111  9932 net.cpp:156] Memory required for data: 3095608640
I0817 10:46:20.226115  9932 layer_factory.hpp:77] Creating layer shuffle6
I0817 10:46:20.226122  9932 net.cpp:91] Creating Layer shuffle6
I0817 10:46:20.226126  9932 net.cpp:469] shuffle6 <- resx6_conv1
I0817 10:46:20.226131  9932 net.cpp:443] shuffle6 -> shuffle6
I0817 10:46:20.226157  9932 net.cpp:141] Setting up shuffle6
I0817 10:46:20.226163  9932 net.cpp:148] Top shape: 80 120 14 14 (1881600)
I0817 10:46:20.226176  9932 net.cpp:156] Memory required for data: 3103135040
I0817 10:46:20.226179  9932 layer_factory.hpp:77] Creating layer resx6_conv2
I0817 10:46:20.226187  9932 net.cpp:91] Creating Layer resx6_conv2
I0817 10:46:20.226191  9932 net.cpp:469] resx6_conv2 <- shuffle6
I0817 10:46:20.226196  9932 net.cpp:443] resx6_conv2 -> resx6_conv2
I0817 10:46:20.226320  9932 net.cpp:141] Setting up resx6_conv2
I0817 10:46:20.226330  9932 net.cpp:148] Top shape: 80 120 14 14 (1881600)
I0817 10:46:20.226332  9932 net.cpp:156] Memory required for data: 3110661440
I0817 10:46:20.226337  9932 layer_factory.hpp:77] Creating layer resx6_conv2_bn
I0817 10:46:20.226346  9932 net.cpp:91] Creating Layer resx6_conv2_bn
I0817 10:46:20.226349  9932 net.cpp:469] resx6_conv2_bn <- resx6_conv2
I0817 10:46:20.226353  9932 net.cpp:430] resx6_conv2_bn -> resx6_conv2 (in-place)
I0817 10:46:20.226512  9932 net.cpp:141] Setting up resx6_conv2_bn
I0817 10:46:20.226519  9932 net.cpp:148] Top shape: 80 120 14 14 (1881600)
I0817 10:46:20.226522  9932 net.cpp:156] Memory required for data: 3118187840
I0817 10:46:20.226528  9932 layer_factory.hpp:77] Creating layer resx6_conv2_scale
I0817 10:46:20.226536  9932 net.cpp:91] Creating Layer resx6_conv2_scale
I0817 10:46:20.226541  9932 net.cpp:469] resx6_conv2_scale <- resx6_conv2
I0817 10:46:20.226544  9932 net.cpp:430] resx6_conv2_scale -> resx6_conv2 (in-place)
I0817 10:46:20.226580  9932 layer_factory.hpp:77] Creating layer resx6_conv2_scale
I0817 10:46:20.226680  9932 net.cpp:141] Setting up resx6_conv2_scale
I0817 10:46:20.226686  9932 net.cpp:148] Top shape: 80 120 14 14 (1881600)
I0817 10:46:20.226689  9932 net.cpp:156] Memory required for data: 3125714240
I0817 10:46:20.226694  9932 layer_factory.hpp:77] Creating layer resx6_conv3
I0817 10:46:20.226706  9932 net.cpp:91] Creating Layer resx6_conv3
I0817 10:46:20.226708  9932 net.cpp:469] resx6_conv3 <- resx6_conv2
I0817 10:46:20.226713  9932 net.cpp:443] resx6_conv3 -> resx6_conv3
I0817 10:46:20.229593  9932 net.cpp:141] Setting up resx6_conv3
I0817 10:46:20.229606  9932 net.cpp:148] Top shape: 80 480 14 14 (7526400)
I0817 10:46:20.229610  9932 net.cpp:156] Memory required for data: 3155819840
I0817 10:46:20.229615  9932 layer_factory.hpp:77] Creating layer resx6_conv3_bn
I0817 10:46:20.229624  9932 net.cpp:91] Creating Layer resx6_conv3_bn
I0817 10:46:20.229629  9932 net.cpp:469] resx6_conv3_bn <- resx6_conv3
I0817 10:46:20.229634  9932 net.cpp:430] resx6_conv3_bn -> resx6_conv3 (in-place)
I0817 10:46:20.229811  9932 net.cpp:141] Setting up resx6_conv3_bn
I0817 10:46:20.229818  9932 net.cpp:148] Top shape: 80 480 14 14 (7526400)
I0817 10:46:20.229821  9932 net.cpp:156] Memory required for data: 3185925440
I0817 10:46:20.229828  9932 layer_factory.hpp:77] Creating layer resx6_conv3_scale
I0817 10:46:20.229836  9932 net.cpp:91] Creating Layer resx6_conv3_scale
I0817 10:46:20.229840  9932 net.cpp:469] resx6_conv3_scale <- resx6_conv3
I0817 10:46:20.229845  9932 net.cpp:430] resx6_conv3_scale -> resx6_conv3 (in-place)
I0817 10:46:20.229882  9932 layer_factory.hpp:77] Creating layer resx6_conv3_scale
I0817 10:46:20.229982  9932 net.cpp:141] Setting up resx6_conv3_scale
I0817 10:46:20.229990  9932 net.cpp:148] Top shape: 80 480 14 14 (7526400)
I0817 10:46:20.229992  9932 net.cpp:156] Memory required for data: 3216031040
I0817 10:46:20.229997  9932 layer_factory.hpp:77] Creating layer resx6_elewise
I0817 10:46:20.230005  9932 net.cpp:91] Creating Layer resx6_elewise
I0817 10:46:20.230010  9932 net.cpp:469] resx6_elewise <- resx5_concat_resx5_concat_relu_0_split_1
I0817 10:46:20.230013  9932 net.cpp:469] resx6_elewise <- resx6_conv3
I0817 10:46:20.230017  9932 net.cpp:443] resx6_elewise -> resx6_elewise
I0817 10:46:20.230041  9932 net.cpp:141] Setting up resx6_elewise
I0817 10:46:20.230047  9932 net.cpp:148] Top shape: 80 480 14 14 (7526400)
I0817 10:46:20.230051  9932 net.cpp:156] Memory required for data: 3246136640
I0817 10:46:20.230053  9932 layer_factory.hpp:77] Creating layer resx6_elewise_relu
I0817 10:46:20.230063  9932 net.cpp:91] Creating Layer resx6_elewise_relu
I0817 10:46:20.230072  9932 net.cpp:469] resx6_elewise_relu <- resx6_elewise
I0817 10:46:20.230078  9932 net.cpp:430] resx6_elewise_relu -> resx6_elewise (in-place)
I0817 10:46:20.230226  9932 net.cpp:141] Setting up resx6_elewise_relu
I0817 10:46:20.230234  9932 net.cpp:148] Top shape: 80 480 14 14 (7526400)
I0817 10:46:20.230237  9932 net.cpp:156] Memory required for data: 3276242240
I0817 10:46:20.230242  9932 layer_factory.hpp:77] Creating layer resx6_elewise_resx6_elewise_relu_0_split
I0817 10:46:20.230248  9932 net.cpp:91] Creating Layer resx6_elewise_resx6_elewise_relu_0_split
I0817 10:46:20.230252  9932 net.cpp:469] resx6_elewise_resx6_elewise_relu_0_split <- resx6_elewise
I0817 10:46:20.230257  9932 net.cpp:443] resx6_elewise_resx6_elewise_relu_0_split -> resx6_elewise_resx6_elewise_relu_0_split_0
I0817 10:46:20.230262  9932 net.cpp:443] resx6_elewise_resx6_elewise_relu_0_split -> resx6_elewise_resx6_elewise_relu_0_split_1
I0817 10:46:20.230301  9932 net.cpp:141] Setting up resx6_elewise_resx6_elewise_relu_0_split
I0817 10:46:20.230307  9932 net.cpp:148] Top shape: 80 480 14 14 (7526400)
I0817 10:46:20.230311  9932 net.cpp:148] Top shape: 80 480 14 14 (7526400)
I0817 10:46:20.230314  9932 net.cpp:156] Memory required for data: 3336453440
I0817 10:46:20.230317  9932 layer_factory.hpp:77] Creating layer resx7_conv1
I0817 10:46:20.230326  9932 net.cpp:91] Creating Layer resx7_conv1
I0817 10:46:20.230330  9932 net.cpp:469] resx7_conv1 <- resx6_elewise_resx6_elewise_relu_0_split_0
I0817 10:46:20.230335  9932 net.cpp:443] resx7_conv1 -> resx7_conv1
I0817 10:46:20.233173  9932 net.cpp:141] Setting up resx7_conv1
I0817 10:46:20.233187  9932 net.cpp:148] Top shape: 80 120 14 14 (1881600)
I0817 10:46:20.233192  9932 net.cpp:156] Memory required for data: 3343979840
I0817 10:46:20.233197  9932 layer_factory.hpp:77] Creating layer resx7_conv1_bn
I0817 10:46:20.233204  9932 net.cpp:91] Creating Layer resx7_conv1_bn
I0817 10:46:20.233208  9932 net.cpp:469] resx7_conv1_bn <- resx7_conv1
I0817 10:46:20.233214  9932 net.cpp:430] resx7_conv1_bn -> resx7_conv1 (in-place)
I0817 10:46:20.233392  9932 net.cpp:141] Setting up resx7_conv1_bn
I0817 10:46:20.233398  9932 net.cpp:148] Top shape: 80 120 14 14 (1881600)
I0817 10:46:20.233402  9932 net.cpp:156] Memory required for data: 3351506240
I0817 10:46:20.233407  9932 layer_factory.hpp:77] Creating layer resx7_conv1_scale
I0817 10:46:20.233414  9932 net.cpp:91] Creating Layer resx7_conv1_scale
I0817 10:46:20.233417  9932 net.cpp:469] resx7_conv1_scale <- resx7_conv1
I0817 10:46:20.233423  9932 net.cpp:430] resx7_conv1_scale -> resx7_conv1 (in-place)
I0817 10:46:20.233459  9932 layer_factory.hpp:77] Creating layer resx7_conv1_scale
I0817 10:46:20.233561  9932 net.cpp:141] Setting up resx7_conv1_scale
I0817 10:46:20.233567  9932 net.cpp:148] Top shape: 80 120 14 14 (1881600)
I0817 10:46:20.233570  9932 net.cpp:156] Memory required for data: 3359032640
I0817 10:46:20.233575  9932 layer_factory.hpp:77] Creating layer resx7_conv1_relu
I0817 10:46:20.233580  9932 net.cpp:91] Creating Layer resx7_conv1_relu
I0817 10:46:20.233584  9932 net.cpp:469] resx7_conv1_relu <- resx7_conv1
I0817 10:46:20.233590  9932 net.cpp:430] resx7_conv1_relu -> resx7_conv1 (in-place)
I0817 10:46:20.233731  9932 net.cpp:141] Setting up resx7_conv1_relu
I0817 10:46:20.233741  9932 net.cpp:148] Top shape: 80 120 14 14 (1881600)
I0817 10:46:20.233743  9932 net.cpp:156] Memory required for data: 3366559040
I0817 10:46:20.233747  9932 layer_factory.hpp:77] Creating layer shuffle7
I0817 10:46:20.233752  9932 net.cpp:91] Creating Layer shuffle7
I0817 10:46:20.233757  9932 net.cpp:469] shuffle7 <- resx7_conv1
I0817 10:46:20.233762  9932 net.cpp:443] shuffle7 -> shuffle7
I0817 10:46:20.233789  9932 net.cpp:141] Setting up shuffle7
I0817 10:46:20.233795  9932 net.cpp:148] Top shape: 80 120 14 14 (1881600)
I0817 10:46:20.233798  9932 net.cpp:156] Memory required for data: 3374085440
I0817 10:46:20.233801  9932 layer_factory.hpp:77] Creating layer resx7_conv2
I0817 10:46:20.233814  9932 net.cpp:91] Creating Layer resx7_conv2
I0817 10:46:20.233821  9932 net.cpp:469] resx7_conv2 <- shuffle7
I0817 10:46:20.233829  9932 net.cpp:443] resx7_conv2 -> resx7_conv2
I0817 10:46:20.233954  9932 net.cpp:141] Setting up resx7_conv2
I0817 10:46:20.233964  9932 net.cpp:148] Top shape: 80 120 14 14 (1881600)
I0817 10:46:20.233968  9932 net.cpp:156] Memory required for data: 3381611840
I0817 10:46:20.233973  9932 layer_factory.hpp:77] Creating layer resx7_conv2_bn
I0817 10:46:20.233978  9932 net.cpp:91] Creating Layer resx7_conv2_bn
I0817 10:46:20.233983  9932 net.cpp:469] resx7_conv2_bn <- resx7_conv2
I0817 10:46:20.233989  9932 net.cpp:430] resx7_conv2_bn -> resx7_conv2 (in-place)
I0817 10:46:20.234158  9932 net.cpp:141] Setting up resx7_conv2_bn
I0817 10:46:20.234163  9932 net.cpp:148] Top shape: 80 120 14 14 (1881600)
I0817 10:46:20.234166  9932 net.cpp:156] Memory required for data: 3389138240
I0817 10:46:20.234174  9932 layer_factory.hpp:77] Creating layer resx7_conv2_scale
I0817 10:46:20.234179  9932 net.cpp:91] Creating Layer resx7_conv2_scale
I0817 10:46:20.234184  9932 net.cpp:469] resx7_conv2_scale <- resx7_conv2
I0817 10:46:20.234192  9932 net.cpp:430] resx7_conv2_scale -> resx7_conv2 (in-place)
I0817 10:46:20.234228  9932 layer_factory.hpp:77] Creating layer resx7_conv2_scale
I0817 10:46:20.234329  9932 net.cpp:141] Setting up resx7_conv2_scale
I0817 10:46:20.234336  9932 net.cpp:148] Top shape: 80 120 14 14 (1881600)
I0817 10:46:20.234339  9932 net.cpp:156] Memory required for data: 3396664640
I0817 10:46:20.234344  9932 layer_factory.hpp:77] Creating layer resx7_conv3
I0817 10:46:20.234354  9932 net.cpp:91] Creating Layer resx7_conv3
I0817 10:46:20.234357  9932 net.cpp:469] resx7_conv3 <- resx7_conv2
I0817 10:46:20.234364  9932 net.cpp:443] resx7_conv3 -> resx7_conv3
I0817 10:46:20.237102  9932 net.cpp:141] Setting up resx7_conv3
I0817 10:46:20.237115  9932 net.cpp:148] Top shape: 80 480 14 14 (7526400)
I0817 10:46:20.237119  9932 net.cpp:156] Memory required for data: 3426770240
I0817 10:46:20.237124  9932 layer_factory.hpp:77] Creating layer resx7_conv3_bn
I0817 10:46:20.237133  9932 net.cpp:91] Creating Layer resx7_conv3_bn
I0817 10:46:20.237138  9932 net.cpp:469] resx7_conv3_bn <- resx7_conv3
I0817 10:46:20.237143  9932 net.cpp:430] resx7_conv3_bn -> resx7_conv3 (in-place)
I0817 10:46:20.237321  9932 net.cpp:141] Setting up resx7_conv3_bn
I0817 10:46:20.237329  9932 net.cpp:148] Top shape: 80 480 14 14 (7526400)
I0817 10:46:20.237332  9932 net.cpp:156] Memory required for data: 3456875840
I0817 10:46:20.237351  9932 layer_factory.hpp:77] Creating layer resx7_conv3_scale
I0817 10:46:20.237359  9932 net.cpp:91] Creating Layer resx7_conv3_scale
I0817 10:46:20.237362  9932 net.cpp:469] resx7_conv3_scale <- resx7_conv3
I0817 10:46:20.237367  9932 net.cpp:430] resx7_conv3_scale -> resx7_conv3 (in-place)
I0817 10:46:20.237408  9932 layer_factory.hpp:77] Creating layer resx7_conv3_scale
I0817 10:46:20.237512  9932 net.cpp:141] Setting up resx7_conv3_scale
I0817 10:46:20.237519  9932 net.cpp:148] Top shape: 80 480 14 14 (7526400)
I0817 10:46:20.237522  9932 net.cpp:156] Memory required for data: 3486981440
I0817 10:46:20.237527  9932 layer_factory.hpp:77] Creating layer resx7_elewise
I0817 10:46:20.237534  9932 net.cpp:91] Creating Layer resx7_elewise
I0817 10:46:20.237537  9932 net.cpp:469] resx7_elewise <- resx6_elewise_resx6_elewise_relu_0_split_1
I0817 10:46:20.237541  9932 net.cpp:469] resx7_elewise <- resx7_conv3
I0817 10:46:20.237546  9932 net.cpp:443] resx7_elewise -> resx7_elewise
I0817 10:46:20.237568  9932 net.cpp:141] Setting up resx7_elewise
I0817 10:46:20.237574  9932 net.cpp:148] Top shape: 80 480 14 14 (7526400)
I0817 10:46:20.237577  9932 net.cpp:156] Memory required for data: 3517087040
I0817 10:46:20.237581  9932 layer_factory.hpp:77] Creating layer resx7_elewise_relu
I0817 10:46:20.237587  9932 net.cpp:91] Creating Layer resx7_elewise_relu
I0817 10:46:20.237591  9932 net.cpp:469] resx7_elewise_relu <- resx7_elewise
I0817 10:46:20.237596  9932 net.cpp:430] resx7_elewise_relu -> resx7_elewise (in-place)
I0817 10:46:20.237747  9932 net.cpp:141] Setting up resx7_elewise_relu
I0817 10:46:20.237756  9932 net.cpp:148] Top shape: 80 480 14 14 (7526400)
I0817 10:46:20.237761  9932 net.cpp:156] Memory required for data: 3547192640
I0817 10:46:20.237763  9932 layer_factory.hpp:77] Creating layer resx7_elewise_resx7_elewise_relu_0_split
I0817 10:46:20.237773  9932 net.cpp:91] Creating Layer resx7_elewise_resx7_elewise_relu_0_split
I0817 10:46:20.237777  9932 net.cpp:469] resx7_elewise_resx7_elewise_relu_0_split <- resx7_elewise
I0817 10:46:20.237783  9932 net.cpp:443] resx7_elewise_resx7_elewise_relu_0_split -> resx7_elewise_resx7_elewise_relu_0_split_0
I0817 10:46:20.237789  9932 net.cpp:443] resx7_elewise_resx7_elewise_relu_0_split -> resx7_elewise_resx7_elewise_relu_0_split_1
I0817 10:46:20.237826  9932 net.cpp:141] Setting up resx7_elewise_resx7_elewise_relu_0_split
I0817 10:46:20.237833  9932 net.cpp:148] Top shape: 80 480 14 14 (7526400)
I0817 10:46:20.237836  9932 net.cpp:148] Top shape: 80 480 14 14 (7526400)
I0817 10:46:20.237839  9932 net.cpp:156] Memory required for data: 3607403840
I0817 10:46:20.237843  9932 layer_factory.hpp:77] Creating layer resx8_conv1
I0817 10:46:20.237851  9932 net.cpp:91] Creating Layer resx8_conv1
I0817 10:46:20.237855  9932 net.cpp:469] resx8_conv1 <- resx7_elewise_resx7_elewise_relu_0_split_0
I0817 10:46:20.237862  9932 net.cpp:443] resx8_conv1 -> resx8_conv1
I0817 10:46:20.240581  9932 net.cpp:141] Setting up resx8_conv1
I0817 10:46:20.240593  9932 net.cpp:148] Top shape: 80 120 14 14 (1881600)
I0817 10:46:20.240597  9932 net.cpp:156] Memory required for data: 3614930240
I0817 10:46:20.240602  9932 layer_factory.hpp:77] Creating layer resx8_conv1_bn
I0817 10:46:20.240610  9932 net.cpp:91] Creating Layer resx8_conv1_bn
I0817 10:46:20.240614  9932 net.cpp:469] resx8_conv1_bn <- resx8_conv1
I0817 10:46:20.240619  9932 net.cpp:430] resx8_conv1_bn -> resx8_conv1 (in-place)
I0817 10:46:20.240794  9932 net.cpp:141] Setting up resx8_conv1_bn
I0817 10:46:20.240800  9932 net.cpp:148] Top shape: 80 120 14 14 (1881600)
I0817 10:46:20.240804  9932 net.cpp:156] Memory required for data: 3622456640
I0817 10:46:20.240810  9932 layer_factory.hpp:77] Creating layer resx8_conv1_scale
I0817 10:46:20.240818  9932 net.cpp:91] Creating Layer resx8_conv1_scale
I0817 10:46:20.240820  9932 net.cpp:469] resx8_conv1_scale <- resx8_conv1
I0817 10:46:20.240825  9932 net.cpp:430] resx8_conv1_scale -> resx8_conv1 (in-place)
I0817 10:46:20.240864  9932 layer_factory.hpp:77] Creating layer resx8_conv1_scale
I0817 10:46:20.240968  9932 net.cpp:141] Setting up resx8_conv1_scale
I0817 10:46:20.240975  9932 net.cpp:148] Top shape: 80 120 14 14 (1881600)
I0817 10:46:20.240978  9932 net.cpp:156] Memory required for data: 3629983040
I0817 10:46:20.240983  9932 layer_factory.hpp:77] Creating layer resx8_conv1_relu
I0817 10:46:20.240988  9932 net.cpp:91] Creating Layer resx8_conv1_relu
I0817 10:46:20.240993  9932 net.cpp:469] resx8_conv1_relu <- resx8_conv1
I0817 10:46:20.240996  9932 net.cpp:430] resx8_conv1_relu -> resx8_conv1 (in-place)
I0817 10:46:20.241154  9932 net.cpp:141] Setting up resx8_conv1_relu
I0817 10:46:20.241164  9932 net.cpp:148] Top shape: 80 120 14 14 (1881600)
I0817 10:46:20.241168  9932 net.cpp:156] Memory required for data: 3637509440
I0817 10:46:20.241173  9932 layer_factory.hpp:77] Creating layer shuffle8
I0817 10:46:20.241178  9932 net.cpp:91] Creating Layer shuffle8
I0817 10:46:20.241181  9932 net.cpp:469] shuffle8 <- resx8_conv1
I0817 10:46:20.241186  9932 net.cpp:443] shuffle8 -> shuffle8
I0817 10:46:20.241215  9932 net.cpp:141] Setting up shuffle8
I0817 10:46:20.241221  9932 net.cpp:148] Top shape: 80 120 14 14 (1881600)
I0817 10:46:20.241225  9932 net.cpp:156] Memory required for data: 3645035840
I0817 10:46:20.241227  9932 layer_factory.hpp:77] Creating layer resx8_conv2
I0817 10:46:20.241235  9932 net.cpp:91] Creating Layer resx8_conv2
I0817 10:46:20.241240  9932 net.cpp:469] resx8_conv2 <- shuffle8
I0817 10:46:20.241245  9932 net.cpp:443] resx8_conv2 -> resx8_conv2
I0817 10:46:20.241544  9932 net.cpp:141] Setting up resx8_conv2
I0817 10:46:20.241561  9932 net.cpp:148] Top shape: 80 120 14 14 (1881600)
I0817 10:46:20.241565  9932 net.cpp:156] Memory required for data: 3652562240
I0817 10:46:20.241570  9932 layer_factory.hpp:77] Creating layer resx8_conv2_bn
I0817 10:46:20.241577  9932 net.cpp:91] Creating Layer resx8_conv2_bn
I0817 10:46:20.241582  9932 net.cpp:469] resx8_conv2_bn <- resx8_conv2
I0817 10:46:20.241588  9932 net.cpp:430] resx8_conv2_bn -> resx8_conv2 (in-place)
I0817 10:46:20.241762  9932 net.cpp:141] Setting up resx8_conv2_bn
I0817 10:46:20.241770  9932 net.cpp:148] Top shape: 80 120 14 14 (1881600)
I0817 10:46:20.241772  9932 net.cpp:156] Memory required for data: 3660088640
I0817 10:46:20.241780  9932 layer_factory.hpp:77] Creating layer resx8_conv2_scale
I0817 10:46:20.241787  9932 net.cpp:91] Creating Layer resx8_conv2_scale
I0817 10:46:20.241791  9932 net.cpp:469] resx8_conv2_scale <- resx8_conv2
I0817 10:46:20.241796  9932 net.cpp:430] resx8_conv2_scale -> resx8_conv2 (in-place)
I0817 10:46:20.241833  9932 layer_factory.hpp:77] Creating layer resx8_conv2_scale
I0817 10:46:20.241937  9932 net.cpp:141] Setting up resx8_conv2_scale
I0817 10:46:20.241945  9932 net.cpp:148] Top shape: 80 120 14 14 (1881600)
I0817 10:46:20.241950  9932 net.cpp:156] Memory required for data: 3667615040
I0817 10:46:20.241955  9932 layer_factory.hpp:77] Creating layer resx8_conv3
I0817 10:46:20.241963  9932 net.cpp:91] Creating Layer resx8_conv3
I0817 10:46:20.241967  9932 net.cpp:469] resx8_conv3 <- resx8_conv2
I0817 10:46:20.241972  9932 net.cpp:443] resx8_conv3 -> resx8_conv3
I0817 10:46:20.244768  9932 net.cpp:141] Setting up resx8_conv3
I0817 10:46:20.244782  9932 net.cpp:148] Top shape: 80 480 14 14 (7526400)
I0817 10:46:20.244786  9932 net.cpp:156] Memory required for data: 3697720640
I0817 10:46:20.244791  9932 layer_factory.hpp:77] Creating layer resx8_conv3_bn
I0817 10:46:20.244799  9932 net.cpp:91] Creating Layer resx8_conv3_bn
I0817 10:46:20.244803  9932 net.cpp:469] resx8_conv3_bn <- resx8_conv3
I0817 10:46:20.244809  9932 net.cpp:430] resx8_conv3_bn -> resx8_conv3 (in-place)
I0817 10:46:20.244993  9932 net.cpp:141] Setting up resx8_conv3_bn
I0817 10:46:20.245000  9932 net.cpp:148] Top shape: 80 480 14 14 (7526400)
I0817 10:46:20.245003  9932 net.cpp:156] Memory required for data: 3727826240
I0817 10:46:20.245009  9932 layer_factory.hpp:77] Creating layer resx8_conv3_scale
I0817 10:46:20.245018  9932 net.cpp:91] Creating Layer resx8_conv3_scale
I0817 10:46:20.245021  9932 net.cpp:469] resx8_conv3_scale <- resx8_conv3
I0817 10:46:20.245026  9932 net.cpp:430] resx8_conv3_scale -> resx8_conv3 (in-place)
I0817 10:46:20.245067  9932 layer_factory.hpp:77] Creating layer resx8_conv3_scale
I0817 10:46:20.245179  9932 net.cpp:141] Setting up resx8_conv3_scale
I0817 10:46:20.245187  9932 net.cpp:148] Top shape: 80 480 14 14 (7526400)
I0817 10:46:20.245190  9932 net.cpp:156] Memory required for data: 3757931840
I0817 10:46:20.245195  9932 layer_factory.hpp:77] Creating layer resx8_elewise
I0817 10:46:20.245203  9932 net.cpp:91] Creating Layer resx8_elewise
I0817 10:46:20.245208  9932 net.cpp:469] resx8_elewise <- resx7_elewise_resx7_elewise_relu_0_split_1
I0817 10:46:20.245211  9932 net.cpp:469] resx8_elewise <- resx8_conv3
I0817 10:46:20.245216  9932 net.cpp:443] resx8_elewise -> resx8_elewise
I0817 10:46:20.245241  9932 net.cpp:141] Setting up resx8_elewise
I0817 10:46:20.245247  9932 net.cpp:148] Top shape: 80 480 14 14 (7526400)
I0817 10:46:20.245250  9932 net.cpp:156] Memory required for data: 3788037440
I0817 10:46:20.245254  9932 layer_factory.hpp:77] Creating layer resx8_elewise_relu
I0817 10:46:20.245260  9932 net.cpp:91] Creating Layer resx8_elewise_relu
I0817 10:46:20.245262  9932 net.cpp:469] resx8_elewise_relu <- resx8_elewise
I0817 10:46:20.245266  9932 net.cpp:430] resx8_elewise_relu -> resx8_elewise (in-place)
I0817 10:46:20.245560  9932 net.cpp:141] Setting up resx8_elewise_relu
I0817 10:46:20.245573  9932 net.cpp:148] Top shape: 80 480 14 14 (7526400)
I0817 10:46:20.245579  9932 net.cpp:156] Memory required for data: 3818143040
I0817 10:46:20.245589  9932 layer_factory.hpp:77] Creating layer resx8_elewise_resx8_elewise_relu_0_split
I0817 10:46:20.245594  9932 net.cpp:91] Creating Layer resx8_elewise_resx8_elewise_relu_0_split
I0817 10:46:20.245599  9932 net.cpp:469] resx8_elewise_resx8_elewise_relu_0_split <- resx8_elewise
I0817 10:46:20.245604  9932 net.cpp:443] resx8_elewise_resx8_elewise_relu_0_split -> resx8_elewise_resx8_elewise_relu_0_split_0
I0817 10:46:20.245611  9932 net.cpp:443] resx8_elewise_resx8_elewise_relu_0_split -> resx8_elewise_resx8_elewise_relu_0_split_1
I0817 10:46:20.245651  9932 net.cpp:141] Setting up resx8_elewise_resx8_elewise_relu_0_split
I0817 10:46:20.245657  9932 net.cpp:148] Top shape: 80 480 14 14 (7526400)
I0817 10:46:20.245661  9932 net.cpp:148] Top shape: 80 480 14 14 (7526400)
I0817 10:46:20.245664  9932 net.cpp:156] Memory required for data: 3878354240
I0817 10:46:20.245667  9932 layer_factory.hpp:77] Creating layer resx9_conv1
I0817 10:46:20.245678  9932 net.cpp:91] Creating Layer resx9_conv1
I0817 10:46:20.245682  9932 net.cpp:469] resx9_conv1 <- resx8_elewise_resx8_elewise_relu_0_split_0
I0817 10:46:20.245687  9932 net.cpp:443] resx9_conv1 -> resx9_conv1
I0817 10:46:20.248286  9932 net.cpp:141] Setting up resx9_conv1
I0817 10:46:20.248297  9932 net.cpp:148] Top shape: 80 120 14 14 (1881600)
I0817 10:46:20.248303  9932 net.cpp:156] Memory required for data: 3885880640
I0817 10:46:20.248309  9932 layer_factory.hpp:77] Creating layer resx9_conv1_bn
I0817 10:46:20.248316  9932 net.cpp:91] Creating Layer resx9_conv1_bn
I0817 10:46:20.248319  9932 net.cpp:469] resx9_conv1_bn <- resx9_conv1
I0817 10:46:20.248325  9932 net.cpp:430] resx9_conv1_bn -> resx9_conv1 (in-place)
I0817 10:46:20.248508  9932 net.cpp:141] Setting up resx9_conv1_bn
I0817 10:46:20.248515  9932 net.cpp:148] Top shape: 80 120 14 14 (1881600)
I0817 10:46:20.248519  9932 net.cpp:156] Memory required for data: 3893407040
I0817 10:46:20.248525  9932 layer_factory.hpp:77] Creating layer resx9_conv1_scale
I0817 10:46:20.248533  9932 net.cpp:91] Creating Layer resx9_conv1_scale
I0817 10:46:20.248536  9932 net.cpp:469] resx9_conv1_scale <- resx9_conv1
I0817 10:46:20.248543  9932 net.cpp:430] resx9_conv1_scale -> resx9_conv1 (in-place)
I0817 10:46:20.248579  9932 layer_factory.hpp:77] Creating layer resx9_conv1_scale
I0817 10:46:20.248689  9932 net.cpp:141] Setting up resx9_conv1_scale
I0817 10:46:20.248697  9932 net.cpp:148] Top shape: 80 120 14 14 (1881600)
I0817 10:46:20.248699  9932 net.cpp:156] Memory required for data: 3900933440
I0817 10:46:20.248704  9932 layer_factory.hpp:77] Creating layer resx9_conv1_relu
I0817 10:46:20.248710  9932 net.cpp:91] Creating Layer resx9_conv1_relu
I0817 10:46:20.248714  9932 net.cpp:469] resx9_conv1_relu <- resx9_conv1
I0817 10:46:20.248720  9932 net.cpp:430] resx9_conv1_relu -> resx9_conv1 (in-place)
I0817 10:46:20.249018  9932 net.cpp:141] Setting up resx9_conv1_relu
I0817 10:46:20.249029  9932 net.cpp:148] Top shape: 80 120 14 14 (1881600)
I0817 10:46:20.249033  9932 net.cpp:156] Memory required for data: 3908459840
I0817 10:46:20.249037  9932 layer_factory.hpp:77] Creating layer shuffle9
I0817 10:46:20.249043  9932 net.cpp:91] Creating Layer shuffle9
I0817 10:46:20.249047  9932 net.cpp:469] shuffle9 <- resx9_conv1
I0817 10:46:20.249053  9932 net.cpp:443] shuffle9 -> shuffle9
I0817 10:46:20.249095  9932 net.cpp:141] Setting up shuffle9
I0817 10:46:20.249105  9932 net.cpp:148] Top shape: 80 120 14 14 (1881600)
I0817 10:46:20.249109  9932 net.cpp:156] Memory required for data: 3915986240
I0817 10:46:20.249111  9932 layer_factory.hpp:77] Creating layer resx9_conv2
I0817 10:46:20.249119  9932 net.cpp:91] Creating Layer resx9_conv2
I0817 10:46:20.249122  9932 net.cpp:469] resx9_conv2 <- shuffle9
I0817 10:46:20.249130  9932 net.cpp:443] resx9_conv2 -> resx9_conv2
I0817 10:46:20.249259  9932 net.cpp:141] Setting up resx9_conv2
I0817 10:46:20.249269  9932 net.cpp:148] Top shape: 80 120 14 14 (1881600)
I0817 10:46:20.249272  9932 net.cpp:156] Memory required for data: 3923512640
I0817 10:46:20.249281  9932 layer_factory.hpp:77] Creating layer resx9_conv2_bn
I0817 10:46:20.249295  9932 net.cpp:91] Creating Layer resx9_conv2_bn
I0817 10:46:20.249300  9932 net.cpp:469] resx9_conv2_bn <- resx9_conv2
I0817 10:46:20.249303  9932 net.cpp:430] resx9_conv2_bn -> resx9_conv2 (in-place)
I0817 10:46:20.249477  9932 net.cpp:141] Setting up resx9_conv2_bn
I0817 10:46:20.249485  9932 net.cpp:148] Top shape: 80 120 14 14 (1881600)
I0817 10:46:20.249487  9932 net.cpp:156] Memory required for data: 3931039040
I0817 10:46:20.249495  9932 layer_factory.hpp:77] Creating layer resx9_conv2_scale
I0817 10:46:20.249500  9932 net.cpp:91] Creating Layer resx9_conv2_scale
I0817 10:46:20.249505  9932 net.cpp:469] resx9_conv2_scale <- resx9_conv2
I0817 10:46:20.249508  9932 net.cpp:430] resx9_conv2_scale -> resx9_conv2 (in-place)
I0817 10:46:20.249548  9932 layer_factory.hpp:77] Creating layer resx9_conv2_scale
I0817 10:46:20.249655  9932 net.cpp:141] Setting up resx9_conv2_scale
I0817 10:46:20.249661  9932 net.cpp:148] Top shape: 80 120 14 14 (1881600)
I0817 10:46:20.249665  9932 net.cpp:156] Memory required for data: 3938565440
I0817 10:46:20.249670  9932 layer_factory.hpp:77] Creating layer resx9_conv3
I0817 10:46:20.249691  9932 net.cpp:91] Creating Layer resx9_conv3
I0817 10:46:20.249696  9932 net.cpp:469] resx9_conv3 <- resx9_conv2
I0817 10:46:20.249701  9932 net.cpp:443] resx9_conv3 -> resx9_conv3
I0817 10:46:20.252327  9932 net.cpp:141] Setting up resx9_conv3
I0817 10:46:20.252341  9932 net.cpp:148] Top shape: 80 480 14 14 (7526400)
I0817 10:46:20.252344  9932 net.cpp:156] Memory required for data: 3968671040
I0817 10:46:20.252349  9932 layer_factory.hpp:77] Creating layer resx9_conv3_bn
I0817 10:46:20.252358  9932 net.cpp:91] Creating Layer resx9_conv3_bn
I0817 10:46:20.252362  9932 net.cpp:469] resx9_conv3_bn <- resx9_conv3
I0817 10:46:20.252367  9932 net.cpp:430] resx9_conv3_bn -> resx9_conv3 (in-place)
I0817 10:46:20.252558  9932 net.cpp:141] Setting up resx9_conv3_bn
I0817 10:46:20.252565  9932 net.cpp:148] Top shape: 80 480 14 14 (7526400)
I0817 10:46:20.252569  9932 net.cpp:156] Memory required for data: 3998776640
I0817 10:46:20.252575  9932 layer_factory.hpp:77] Creating layer resx9_conv3_scale
I0817 10:46:20.252583  9932 net.cpp:91] Creating Layer resx9_conv3_scale
I0817 10:46:20.252586  9932 net.cpp:469] resx9_conv3_scale <- resx9_conv3
I0817 10:46:20.252590  9932 net.cpp:430] resx9_conv3_scale -> resx9_conv3 (in-place)
I0817 10:46:20.252634  9932 layer_factory.hpp:77] Creating layer resx9_conv3_scale
I0817 10:46:20.252744  9932 net.cpp:141] Setting up resx9_conv3_scale
I0817 10:46:20.252751  9932 net.cpp:148] Top shape: 80 480 14 14 (7526400)
I0817 10:46:20.252754  9932 net.cpp:156] Memory required for data: 4028882240
I0817 10:46:20.252759  9932 layer_factory.hpp:77] Creating layer resx9_elewise
I0817 10:46:20.252765  9932 net.cpp:91] Creating Layer resx9_elewise
I0817 10:46:20.252769  9932 net.cpp:469] resx9_elewise <- resx8_elewise_resx8_elewise_relu_0_split_1
I0817 10:46:20.252774  9932 net.cpp:469] resx9_elewise <- resx9_conv3
I0817 10:46:20.252779  9932 net.cpp:443] resx9_elewise -> resx9_elewise
I0817 10:46:20.252804  9932 net.cpp:141] Setting up resx9_elewise
I0817 10:46:20.252810  9932 net.cpp:148] Top shape: 80 480 14 14 (7526400)
I0817 10:46:20.252812  9932 net.cpp:156] Memory required for data: 4058987840
I0817 10:46:20.252815  9932 layer_factory.hpp:77] Creating layer resx9_elewise_relu
I0817 10:46:20.252822  9932 net.cpp:91] Creating Layer resx9_elewise_relu
I0817 10:46:20.252825  9932 net.cpp:469] resx9_elewise_relu <- resx9_elewise
I0817 10:46:20.252830  9932 net.cpp:430] resx9_elewise_relu -> resx9_elewise (in-place)
I0817 10:46:20.253290  9932 net.cpp:141] Setting up resx9_elewise_relu
I0817 10:46:20.253303  9932 net.cpp:148] Top shape: 80 480 14 14 (7526400)
I0817 10:46:20.253306  9932 net.cpp:156] Memory required for data: 4089093440
I0817 10:46:20.253310  9932 layer_factory.hpp:77] Creating layer resx9_elewise_resx9_elewise_relu_0_split
I0817 10:46:20.253321  9932 net.cpp:91] Creating Layer resx9_elewise_resx9_elewise_relu_0_split
I0817 10:46:20.253331  9932 net.cpp:469] resx9_elewise_resx9_elewise_relu_0_split <- resx9_elewise
I0817 10:46:20.253336  9932 net.cpp:443] resx9_elewise_resx9_elewise_relu_0_split -> resx9_elewise_resx9_elewise_relu_0_split_0
I0817 10:46:20.253342  9932 net.cpp:443] resx9_elewise_resx9_elewise_relu_0_split -> resx9_elewise_resx9_elewise_relu_0_split_1
I0817 10:46:20.253386  9932 net.cpp:141] Setting up resx9_elewise_resx9_elewise_relu_0_split
I0817 10:46:20.253392  9932 net.cpp:148] Top shape: 80 480 14 14 (7526400)
I0817 10:46:20.253396  9932 net.cpp:148] Top shape: 80 480 14 14 (7526400)
I0817 10:46:20.253401  9932 net.cpp:156] Memory required for data: 4149304640
I0817 10:46:20.253403  9932 layer_factory.hpp:77] Creating layer resx10_conv1
I0817 10:46:20.253412  9932 net.cpp:91] Creating Layer resx10_conv1
I0817 10:46:20.253417  9932 net.cpp:469] resx10_conv1 <- resx9_elewise_resx9_elewise_relu_0_split_0
I0817 10:46:20.253423  9932 net.cpp:443] resx10_conv1 -> resx10_conv1
I0817 10:46:20.256042  9932 net.cpp:141] Setting up resx10_conv1
I0817 10:46:20.256053  9932 net.cpp:148] Top shape: 80 120 14 14 (1881600)
I0817 10:46:20.256057  9932 net.cpp:156] Memory required for data: 4156831040
I0817 10:46:20.256063  9932 layer_factory.hpp:77] Creating layer resx10_conv1_bn
I0817 10:46:20.256072  9932 net.cpp:91] Creating Layer resx10_conv1_bn
I0817 10:46:20.256077  9932 net.cpp:469] resx10_conv1_bn <- resx10_conv1
I0817 10:46:20.256081  9932 net.cpp:430] resx10_conv1_bn -> resx10_conv1 (in-place)
I0817 10:46:20.256266  9932 net.cpp:141] Setting up resx10_conv1_bn
I0817 10:46:20.256273  9932 net.cpp:148] Top shape: 80 120 14 14 (1881600)
I0817 10:46:20.256278  9932 net.cpp:156] Memory required for data: 4164357440
I0817 10:46:20.256283  9932 layer_factory.hpp:77] Creating layer resx10_conv1_scale
I0817 10:46:20.256290  9932 net.cpp:91] Creating Layer resx10_conv1_scale
I0817 10:46:20.256294  9932 net.cpp:469] resx10_conv1_scale <- resx10_conv1
I0817 10:46:20.256299  9932 net.cpp:430] resx10_conv1_scale -> resx10_conv1 (in-place)
I0817 10:46:20.256338  9932 layer_factory.hpp:77] Creating layer resx10_conv1_scale
I0817 10:46:20.256446  9932 net.cpp:141] Setting up resx10_conv1_scale
I0817 10:46:20.256454  9932 net.cpp:148] Top shape: 80 120 14 14 (1881600)
I0817 10:46:20.256458  9932 net.cpp:156] Memory required for data: 4171883840
I0817 10:46:20.256463  9932 layer_factory.hpp:77] Creating layer resx10_conv1_relu
I0817 10:46:20.256469  9932 net.cpp:91] Creating Layer resx10_conv1_relu
I0817 10:46:20.256472  9932 net.cpp:469] resx10_conv1_relu <- resx10_conv1
I0817 10:46:20.256476  9932 net.cpp:430] resx10_conv1_relu -> resx10_conv1 (in-place)
I0817 10:46:20.256778  9932 net.cpp:141] Setting up resx10_conv1_relu
I0817 10:46:20.256790  9932 net.cpp:148] Top shape: 80 120 14 14 (1881600)
I0817 10:46:20.256794  9932 net.cpp:156] Memory required for data: 4179410240
I0817 10:46:20.256798  9932 layer_factory.hpp:77] Creating layer shuffle10
I0817 10:46:20.256805  9932 net.cpp:91] Creating Layer shuffle10
I0817 10:46:20.256809  9932 net.cpp:469] shuffle10 <- resx10_conv1
I0817 10:46:20.256814  9932 net.cpp:443] shuffle10 -> shuffle10
I0817 10:46:20.256845  9932 net.cpp:141] Setting up shuffle10
I0817 10:46:20.256851  9932 net.cpp:148] Top shape: 80 120 14 14 (1881600)
I0817 10:46:20.256855  9932 net.cpp:156] Memory required for data: 4186936640
I0817 10:46:20.256858  9932 layer_factory.hpp:77] Creating layer resx10_conv2
I0817 10:46:20.256866  9932 net.cpp:91] Creating Layer resx10_conv2
I0817 10:46:20.256870  9932 net.cpp:469] resx10_conv2 <- shuffle10
I0817 10:46:20.256875  9932 net.cpp:443] resx10_conv2 -> resx10_conv2
I0817 10:46:20.257006  9932 net.cpp:141] Setting up resx10_conv2
I0817 10:46:20.257016  9932 net.cpp:148] Top shape: 80 120 14 14 (1881600)
I0817 10:46:20.257019  9932 net.cpp:156] Memory required for data: 4194463040
I0817 10:46:20.257025  9932 layer_factory.hpp:77] Creating layer resx10_conv2_bn
I0817 10:46:20.257031  9932 net.cpp:91] Creating Layer resx10_conv2_bn
I0817 10:46:20.257040  9932 net.cpp:469] resx10_conv2_bn <- resx10_conv2
I0817 10:46:20.257050  9932 net.cpp:430] resx10_conv2_bn -> resx10_conv2 (in-place)
I0817 10:46:20.257236  9932 net.cpp:141] Setting up resx10_conv2_bn
I0817 10:46:20.257244  9932 net.cpp:148] Top shape: 80 120 14 14 (1881600)
I0817 10:46:20.257247  9932 net.cpp:156] Memory required for data: 4201989440
I0817 10:46:20.257254  9932 layer_factory.hpp:77] Creating layer resx10_conv2_scale
I0817 10:46:20.257266  9932 net.cpp:91] Creating Layer resx10_conv2_scale
I0817 10:46:20.257269  9932 net.cpp:469] resx10_conv2_scale <- resx10_conv2
I0817 10:46:20.257273  9932 net.cpp:430] resx10_conv2_scale -> resx10_conv2 (in-place)
I0817 10:46:20.257313  9932 layer_factory.hpp:77] Creating layer resx10_conv2_scale
I0817 10:46:20.257422  9932 net.cpp:141] Setting up resx10_conv2_scale
I0817 10:46:20.257429  9932 net.cpp:148] Top shape: 80 120 14 14 (1881600)
I0817 10:46:20.257432  9932 net.cpp:156] Memory required for data: 4209515840
I0817 10:46:20.257437  9932 layer_factory.hpp:77] Creating layer resx10_conv3
I0817 10:46:20.257447  9932 net.cpp:91] Creating Layer resx10_conv3
I0817 10:46:20.257452  9932 net.cpp:469] resx10_conv3 <- resx10_conv2
I0817 10:46:20.257457  9932 net.cpp:443] resx10_conv3 -> resx10_conv3
I0817 10:46:20.260098  9932 net.cpp:141] Setting up resx10_conv3
I0817 10:46:20.260112  9932 net.cpp:148] Top shape: 80 480 14 14 (7526400)
I0817 10:46:20.260115  9932 net.cpp:156] Memory required for data: 4239621440
I0817 10:46:20.260120  9932 layer_factory.hpp:77] Creating layer resx10_conv3_bn
I0817 10:46:20.260128  9932 net.cpp:91] Creating Layer resx10_conv3_bn
I0817 10:46:20.260133  9932 net.cpp:469] resx10_conv3_bn <- resx10_conv3
I0817 10:46:20.260138  9932 net.cpp:430] resx10_conv3_bn -> resx10_conv3 (in-place)
I0817 10:46:20.260330  9932 net.cpp:141] Setting up resx10_conv3_bn
I0817 10:46:20.260337  9932 net.cpp:148] Top shape: 80 480 14 14 (7526400)
I0817 10:46:20.260341  9932 net.cpp:156] Memory required for data: 4269727040
I0817 10:46:20.260347  9932 layer_factory.hpp:77] Creating layer resx10_conv3_scale
I0817 10:46:20.260355  9932 net.cpp:91] Creating Layer resx10_conv3_scale
I0817 10:46:20.260360  9932 net.cpp:469] resx10_conv3_scale <- resx10_conv3
I0817 10:46:20.260363  9932 net.cpp:430] resx10_conv3_scale -> resx10_conv3 (in-place)
I0817 10:46:20.260406  9932 layer_factory.hpp:77] Creating layer resx10_conv3_scale
I0817 10:46:20.260520  9932 net.cpp:141] Setting up resx10_conv3_scale
I0817 10:46:20.260527  9932 net.cpp:148] Top shape: 80 480 14 14 (7526400)
I0817 10:46:20.260530  9932 net.cpp:156] Memory required for data: 4299832640
I0817 10:46:20.260535  9932 layer_factory.hpp:77] Creating layer resx10_elewise
I0817 10:46:20.260541  9932 net.cpp:91] Creating Layer resx10_elewise
I0817 10:46:20.260545  9932 net.cpp:469] resx10_elewise <- resx9_elewise_resx9_elewise_relu_0_split_1
I0817 10:46:20.260550  9932 net.cpp:469] resx10_elewise <- resx10_conv3
I0817 10:46:20.260556  9932 net.cpp:443] resx10_elewise -> resx10_elewise
I0817 10:46:20.260581  9932 net.cpp:141] Setting up resx10_elewise
I0817 10:46:20.260587  9932 net.cpp:148] Top shape: 80 480 14 14 (7526400)
I0817 10:46:20.260591  9932 net.cpp:156] Memory required for data: 4329938240
I0817 10:46:20.260593  9932 layer_factory.hpp:77] Creating layer resx10_elewise_relu
I0817 10:46:20.260601  9932 net.cpp:91] Creating Layer resx10_elewise_relu
I0817 10:46:20.260604  9932 net.cpp:469] resx10_elewise_relu <- resx10_elewise
I0817 10:46:20.260608  9932 net.cpp:430] resx10_elewise_relu -> resx10_elewise (in-place)
I0817 10:46:20.260905  9932 net.cpp:141] Setting up resx10_elewise_relu
I0817 10:46:20.260918  9932 net.cpp:148] Top shape: 80 480 14 14 (7526400)
I0817 10:46:20.260922  9932 net.cpp:156] Memory required for data: 4360043840
I0817 10:46:20.260926  9932 layer_factory.hpp:77] Creating layer resx10_elewise_resx10_elewise_relu_0_split
I0817 10:46:20.260931  9932 net.cpp:91] Creating Layer resx10_elewise_resx10_elewise_relu_0_split
I0817 10:46:20.260939  9932 net.cpp:469] resx10_elewise_resx10_elewise_relu_0_split <- resx10_elewise
I0817 10:46:20.260949  9932 net.cpp:443] resx10_elewise_resx10_elewise_relu_0_split -> resx10_elewise_resx10_elewise_relu_0_split_0
I0817 10:46:20.260957  9932 net.cpp:443] resx10_elewise_resx10_elewise_relu_0_split -> resx10_elewise_resx10_elewise_relu_0_split_1
I0817 10:46:20.261003  9932 net.cpp:141] Setting up resx10_elewise_resx10_elewise_relu_0_split
I0817 10:46:20.261009  9932 net.cpp:148] Top shape: 80 480 14 14 (7526400)
I0817 10:46:20.261013  9932 net.cpp:148] Top shape: 80 480 14 14 (7526400)
I0817 10:46:20.261016  9932 net.cpp:156] Memory required for data: 4420255040
I0817 10:46:20.261019  9932 layer_factory.hpp:77] Creating layer resx11_conv1
I0817 10:46:20.261029  9932 net.cpp:91] Creating Layer resx11_conv1
I0817 10:46:20.261034  9932 net.cpp:469] resx11_conv1 <- resx10_elewise_resx10_elewise_relu_0_split_0
I0817 10:46:20.261039  9932 net.cpp:443] resx11_conv1 -> resx11_conv1
I0817 10:46:20.263679  9932 net.cpp:141] Setting up resx11_conv1
I0817 10:46:20.263692  9932 net.cpp:148] Top shape: 80 120 14 14 (1881600)
I0817 10:46:20.263695  9932 net.cpp:156] Memory required for data: 4427781440
I0817 10:46:20.263701  9932 layer_factory.hpp:77] Creating layer resx11_conv1_bn
I0817 10:46:20.263711  9932 net.cpp:91] Creating Layer resx11_conv1_bn
I0817 10:46:20.263715  9932 net.cpp:469] resx11_conv1_bn <- resx11_conv1
I0817 10:46:20.263720  9932 net.cpp:430] resx11_conv1_bn -> resx11_conv1 (in-place)
I0817 10:46:20.263912  9932 net.cpp:141] Setting up resx11_conv1_bn
I0817 10:46:20.263919  9932 net.cpp:148] Top shape: 80 120 14 14 (1881600)
I0817 10:46:20.263922  9932 net.cpp:156] Memory required for data: 4435307840
I0817 10:46:20.263929  9932 layer_factory.hpp:77] Creating layer resx11_conv1_scale
I0817 10:46:20.263936  9932 net.cpp:91] Creating Layer resx11_conv1_scale
I0817 10:46:20.263939  9932 net.cpp:469] resx11_conv1_scale <- resx11_conv1
I0817 10:46:20.263943  9932 net.cpp:430] resx11_conv1_scale -> resx11_conv1 (in-place)
I0817 10:46:20.263986  9932 layer_factory.hpp:77] Creating layer resx11_conv1_scale
I0817 10:46:20.264097  9932 net.cpp:141] Setting up resx11_conv1_scale
I0817 10:46:20.264104  9932 net.cpp:148] Top shape: 80 120 14 14 (1881600)
I0817 10:46:20.264107  9932 net.cpp:156] Memory required for data: 4442834240
I0817 10:46:20.264112  9932 layer_factory.hpp:77] Creating layer resx11_conv1_relu
I0817 10:46:20.264120  9932 net.cpp:91] Creating Layer resx11_conv1_relu
I0817 10:46:20.264123  9932 net.cpp:469] resx11_conv1_relu <- resx11_conv1
I0817 10:46:20.264127  9932 net.cpp:430] resx11_conv1_relu -> resx11_conv1 (in-place)
I0817 10:46:20.264578  9932 net.cpp:141] Setting up resx11_conv1_relu
I0817 10:46:20.264590  9932 net.cpp:148] Top shape: 80 120 14 14 (1881600)
I0817 10:46:20.264593  9932 net.cpp:156] Memory required for data: 4450360640
I0817 10:46:20.264597  9932 layer_factory.hpp:77] Creating layer shuffle11
I0817 10:46:20.264605  9932 net.cpp:91] Creating Layer shuffle11
I0817 10:46:20.264609  9932 net.cpp:469] shuffle11 <- resx11_conv1
I0817 10:46:20.264614  9932 net.cpp:443] shuffle11 -> shuffle11
I0817 10:46:20.264647  9932 net.cpp:141] Setting up shuffle11
I0817 10:46:20.264653  9932 net.cpp:148] Top shape: 80 120 14 14 (1881600)
I0817 10:46:20.264657  9932 net.cpp:156] Memory required for data: 4457887040
I0817 10:46:20.264660  9932 layer_factory.hpp:77] Creating layer resx11_conv2
I0817 10:46:20.264668  9932 net.cpp:91] Creating Layer resx11_conv2
I0817 10:46:20.264672  9932 net.cpp:469] resx11_conv2 <- shuffle11
I0817 10:46:20.264678  9932 net.cpp:443] resx11_conv2 -> resx11_conv2
I0817 10:46:20.264811  9932 net.cpp:141] Setting up resx11_conv2
I0817 10:46:20.264820  9932 net.cpp:148] Top shape: 80 120 14 14 (1881600)
I0817 10:46:20.264823  9932 net.cpp:156] Memory required for data: 4465413440
I0817 10:46:20.264828  9932 layer_factory.hpp:77] Creating layer resx11_conv2_bn
I0817 10:46:20.264837  9932 net.cpp:91] Creating Layer resx11_conv2_bn
I0817 10:46:20.264840  9932 net.cpp:469] resx11_conv2_bn <- resx11_conv2
I0817 10:46:20.264853  9932 net.cpp:430] resx11_conv2_bn -> resx11_conv2 (in-place)
I0817 10:46:20.265046  9932 net.cpp:141] Setting up resx11_conv2_bn
I0817 10:46:20.265053  9932 net.cpp:148] Top shape: 80 120 14 14 (1881600)
I0817 10:46:20.265058  9932 net.cpp:156] Memory required for data: 4472939840
I0817 10:46:20.265064  9932 layer_factory.hpp:77] Creating layer resx11_conv2_scale
I0817 10:46:20.265070  9932 net.cpp:91] Creating Layer resx11_conv2_scale
I0817 10:46:20.265074  9932 net.cpp:469] resx11_conv2_scale <- resx11_conv2
I0817 10:46:20.265089  9932 net.cpp:430] resx11_conv2_scale -> resx11_conv2 (in-place)
I0817 10:46:20.265301  9932 layer_factory.hpp:77] Creating layer resx11_conv2_scale
I0817 10:46:20.265426  9932 net.cpp:141] Setting up resx11_conv2_scale
I0817 10:46:20.265436  9932 net.cpp:148] Top shape: 80 120 14 14 (1881600)
I0817 10:46:20.265440  9932 net.cpp:156] Memory required for data: 4480466240
I0817 10:46:20.265446  9932 layer_factory.hpp:77] Creating layer resx11_conv3
I0817 10:46:20.265455  9932 net.cpp:91] Creating Layer resx11_conv3
I0817 10:46:20.265458  9932 net.cpp:469] resx11_conv3 <- resx11_conv2
I0817 10:46:20.265467  9932 net.cpp:443] resx11_conv3 -> resx11_conv3
I0817 10:46:20.268155  9932 net.cpp:141] Setting up resx11_conv3
I0817 10:46:20.268168  9932 net.cpp:148] Top shape: 80 480 14 14 (7526400)
I0817 10:46:20.268172  9932 net.cpp:156] Memory required for data: 4510571840
I0817 10:46:20.268177  9932 layer_factory.hpp:77] Creating layer resx11_conv3_bn
I0817 10:46:20.268185  9932 net.cpp:91] Creating Layer resx11_conv3_bn
I0817 10:46:20.268189  9932 net.cpp:469] resx11_conv3_bn <- resx11_conv3
I0817 10:46:20.268194  9932 net.cpp:430] resx11_conv3_bn -> resx11_conv3 (in-place)
I0817 10:46:20.268394  9932 net.cpp:141] Setting up resx11_conv3_bn
I0817 10:46:20.268401  9932 net.cpp:148] Top shape: 80 480 14 14 (7526400)
I0817 10:46:20.268404  9932 net.cpp:156] Memory required for data: 4540677440
I0817 10:46:20.268411  9932 layer_factory.hpp:77] Creating layer resx11_conv3_scale
I0817 10:46:20.268417  9932 net.cpp:91] Creating Layer resx11_conv3_scale
I0817 10:46:20.268421  9932 net.cpp:469] resx11_conv3_scale <- resx11_conv3
I0817 10:46:20.268426  9932 net.cpp:430] resx11_conv3_scale -> resx11_conv3 (in-place)
I0817 10:46:20.268471  9932 layer_factory.hpp:77] Creating layer resx11_conv3_scale
I0817 10:46:20.268586  9932 net.cpp:141] Setting up resx11_conv3_scale
I0817 10:46:20.268592  9932 net.cpp:148] Top shape: 80 480 14 14 (7526400)
I0817 10:46:20.268596  9932 net.cpp:156] Memory required for data: 4570783040
I0817 10:46:20.268601  9932 layer_factory.hpp:77] Creating layer resx11_elewise
I0817 10:46:20.268607  9932 net.cpp:91] Creating Layer resx11_elewise
I0817 10:46:20.268611  9932 net.cpp:469] resx11_elewise <- resx10_elewise_resx10_elewise_relu_0_split_1
I0817 10:46:20.268615  9932 net.cpp:469] resx11_elewise <- resx11_conv3
I0817 10:46:20.268620  9932 net.cpp:443] resx11_elewise -> resx11_elewise
I0817 10:46:20.268646  9932 net.cpp:141] Setting up resx11_elewise
I0817 10:46:20.268653  9932 net.cpp:148] Top shape: 80 480 14 14 (7526400)
I0817 10:46:20.268656  9932 net.cpp:156] Memory required for data: 4600888640
I0817 10:46:20.268659  9932 layer_factory.hpp:77] Creating layer resx11_elewise_relu
I0817 10:46:20.268666  9932 net.cpp:91] Creating Layer resx11_elewise_relu
I0817 10:46:20.268669  9932 net.cpp:469] resx11_elewise_relu <- resx11_elewise
I0817 10:46:20.268673  9932 net.cpp:430] resx11_elewise_relu -> resx11_elewise (in-place)
I0817 10:46:20.268977  9932 net.cpp:141] Setting up resx11_elewise_relu
I0817 10:46:20.268990  9932 net.cpp:148] Top shape: 80 480 14 14 (7526400)
I0817 10:46:20.268992  9932 net.cpp:156] Memory required for data: 4630994240
I0817 10:46:20.268996  9932 layer_factory.hpp:77] Creating layer resx11_elewise_resx11_elewise_relu_0_split
I0817 10:46:20.269003  9932 net.cpp:91] Creating Layer resx11_elewise_resx11_elewise_relu_0_split
I0817 10:46:20.269007  9932 net.cpp:469] resx11_elewise_resx11_elewise_relu_0_split <- resx11_elewise
I0817 10:46:20.269016  9932 net.cpp:443] resx11_elewise_resx11_elewise_relu_0_split -> resx11_elewise_resx11_elewise_relu_0_split_0
I0817 10:46:20.269028  9932 net.cpp:443] resx11_elewise_resx11_elewise_relu_0_split -> resx11_elewise_resx11_elewise_relu_0_split_1
I0817 10:46:20.269073  9932 net.cpp:141] Setting up resx11_elewise_resx11_elewise_relu_0_split
I0817 10:46:20.269085  9932 net.cpp:148] Top shape: 80 480 14 14 (7526400)
I0817 10:46:20.269089  9932 net.cpp:148] Top shape: 80 480 14 14 (7526400)
I0817 10:46:20.269093  9932 net.cpp:156] Memory required for data: 4691205440
I0817 10:46:20.269095  9932 layer_factory.hpp:77] Creating layer resx12_conv1
I0817 10:46:20.269116  9932 net.cpp:91] Creating Layer resx12_conv1
I0817 10:46:20.269120  9932 net.cpp:469] resx12_conv1 <- resx11_elewise_resx11_elewise_relu_0_split_0
I0817 10:46:20.269126  9932 net.cpp:443] resx12_conv1 -> resx12_conv1
I0817 10:46:20.271807  9932 net.cpp:141] Setting up resx12_conv1
I0817 10:46:20.271821  9932 net.cpp:148] Top shape: 80 120 14 14 (1881600)
I0817 10:46:20.271823  9932 net.cpp:156] Memory required for data: 4698731840
I0817 10:46:20.271828  9932 layer_factory.hpp:77] Creating layer resx12_conv1_bn
I0817 10:46:20.271837  9932 net.cpp:91] Creating Layer resx12_conv1_bn
I0817 10:46:20.271842  9932 net.cpp:469] resx12_conv1_bn <- resx12_conv1
I0817 10:46:20.271847  9932 net.cpp:430] resx12_conv1_bn -> resx12_conv1 (in-place)
I0817 10:46:20.272042  9932 net.cpp:141] Setting up resx12_conv1_bn
I0817 10:46:20.272049  9932 net.cpp:148] Top shape: 80 120 14 14 (1881600)
I0817 10:46:20.272053  9932 net.cpp:156] Memory required for data: 4706258240
I0817 10:46:20.272059  9932 layer_factory.hpp:77] Creating layer resx12_conv1_scale
I0817 10:46:20.272068  9932 net.cpp:91] Creating Layer resx12_conv1_scale
I0817 10:46:20.272071  9932 net.cpp:469] resx12_conv1_scale <- resx12_conv1
I0817 10:46:20.272075  9932 net.cpp:430] resx12_conv1_scale -> resx12_conv1 (in-place)
I0817 10:46:20.272117  9932 layer_factory.hpp:77] Creating layer resx12_conv1_scale
I0817 10:46:20.272233  9932 net.cpp:141] Setting up resx12_conv1_scale
I0817 10:46:20.272240  9932 net.cpp:148] Top shape: 80 120 14 14 (1881600)
I0817 10:46:20.272244  9932 net.cpp:156] Memory required for data: 4713784640
I0817 10:46:20.272249  9932 layer_factory.hpp:77] Creating layer resx12_conv1_relu
I0817 10:46:20.272258  9932 net.cpp:91] Creating Layer resx12_conv1_relu
I0817 10:46:20.272261  9932 net.cpp:469] resx12_conv1_relu <- resx12_conv1
I0817 10:46:20.272265  9932 net.cpp:430] resx12_conv1_relu -> resx12_conv1 (in-place)
I0817 10:46:20.272629  9932 net.cpp:141] Setting up resx12_conv1_relu
I0817 10:46:20.272640  9932 net.cpp:148] Top shape: 80 120 14 14 (1881600)
I0817 10:46:20.272644  9932 net.cpp:156] Memory required for data: 4721311040
I0817 10:46:20.272647  9932 layer_factory.hpp:77] Creating layer shuffle12
I0817 10:46:20.272653  9932 net.cpp:91] Creating Layer shuffle12
I0817 10:46:20.272657  9932 net.cpp:469] shuffle12 <- resx12_conv1
I0817 10:46:20.272663  9932 net.cpp:443] shuffle12 -> shuffle12
I0817 10:46:20.272694  9932 net.cpp:141] Setting up shuffle12
I0817 10:46:20.272701  9932 net.cpp:148] Top shape: 80 120 14 14 (1881600)
I0817 10:46:20.272703  9932 net.cpp:156] Memory required for data: 4728837440
I0817 10:46:20.272707  9932 layer_factory.hpp:77] Creating layer resx12_conv2
I0817 10:46:20.272713  9932 net.cpp:91] Creating Layer resx12_conv2
I0817 10:46:20.272717  9932 net.cpp:469] resx12_conv2 <- shuffle12
I0817 10:46:20.272722  9932 net.cpp:443] resx12_conv2 -> resx12_conv2
I0817 10:46:20.272852  9932 net.cpp:141] Setting up resx12_conv2
I0817 10:46:20.272862  9932 net.cpp:148] Top shape: 80 120 14 14 (1881600)
I0817 10:46:20.272866  9932 net.cpp:156] Memory required for data: 4736363840
I0817 10:46:20.272871  9932 layer_factory.hpp:77] Creating layer resx12_conv2_bn
I0817 10:46:20.272879  9932 net.cpp:91] Creating Layer resx12_conv2_bn
I0817 10:46:20.272883  9932 net.cpp:469] resx12_conv2_bn <- resx12_conv2
I0817 10:46:20.272888  9932 net.cpp:430] resx12_conv2_bn -> resx12_conv2 (in-place)
I0817 10:46:20.273073  9932 net.cpp:141] Setting up resx12_conv2_bn
I0817 10:46:20.273103  9932 net.cpp:148] Top shape: 80 120 14 14 (1881600)
I0817 10:46:20.273262  9932 net.cpp:156] Memory required for data: 4743890240
I0817 10:46:20.273269  9932 layer_factory.hpp:77] Creating layer resx12_conv2_scale
I0817 10:46:20.273277  9932 net.cpp:91] Creating Layer resx12_conv2_scale
I0817 10:46:20.273282  9932 net.cpp:469] resx12_conv2_scale <- resx12_conv2
I0817 10:46:20.273286  9932 net.cpp:430] resx12_conv2_scale -> resx12_conv2 (in-place)
I0817 10:46:20.273339  9932 layer_factory.hpp:77] Creating layer resx12_conv2_scale
I0817 10:46:20.273464  9932 net.cpp:141] Setting up resx12_conv2_scale
I0817 10:46:20.273473  9932 net.cpp:148] Top shape: 80 120 14 14 (1881600)
I0817 10:46:20.273476  9932 net.cpp:156] Memory required for data: 4751416640
I0817 10:46:20.273481  9932 layer_factory.hpp:77] Creating layer resx12_conv3
I0817 10:46:20.273489  9932 net.cpp:91] Creating Layer resx12_conv3
I0817 10:46:20.273494  9932 net.cpp:469] resx12_conv3 <- resx12_conv2
I0817 10:46:20.273500  9932 net.cpp:443] resx12_conv3 -> resx12_conv3
I0817 10:46:20.276870  9932 net.cpp:141] Setting up resx12_conv3
I0817 10:46:20.276885  9932 net.cpp:148] Top shape: 80 480 14 14 (7526400)
I0817 10:46:20.276888  9932 net.cpp:156] Memory required for data: 4781522240
I0817 10:46:20.276893  9932 layer_factory.hpp:77] Creating layer resx12_conv3_bn
I0817 10:46:20.276901  9932 net.cpp:91] Creating Layer resx12_conv3_bn
I0817 10:46:20.276906  9932 net.cpp:469] resx12_conv3_bn <- resx12_conv3
I0817 10:46:20.276911  9932 net.cpp:430] resx12_conv3_bn -> resx12_conv3 (in-place)
I0817 10:46:20.277137  9932 net.cpp:141] Setting up resx12_conv3_bn
I0817 10:46:20.277146  9932 net.cpp:148] Top shape: 80 480 14 14 (7526400)
I0817 10:46:20.277150  9932 net.cpp:156] Memory required for data: 4811627840
I0817 10:46:20.277158  9932 layer_factory.hpp:77] Creating layer resx12_conv3_scale
I0817 10:46:20.277164  9932 net.cpp:91] Creating Layer resx12_conv3_scale
I0817 10:46:20.277168  9932 net.cpp:469] resx12_conv3_scale <- resx12_conv3
I0817 10:46:20.277173  9932 net.cpp:430] resx12_conv3_scale -> resx12_conv3 (in-place)
I0817 10:46:20.277216  9932 layer_factory.hpp:77] Creating layer resx12_conv3_scale
I0817 10:46:20.277335  9932 net.cpp:141] Setting up resx12_conv3_scale
I0817 10:46:20.277341  9932 net.cpp:148] Top shape: 80 480 14 14 (7526400)
I0817 10:46:20.277345  9932 net.cpp:156] Memory required for data: 4841733440
I0817 10:46:20.277350  9932 layer_factory.hpp:77] Creating layer resx12_elewise
I0817 10:46:20.277356  9932 net.cpp:91] Creating Layer resx12_elewise
I0817 10:46:20.277360  9932 net.cpp:469] resx12_elewise <- resx11_elewise_resx11_elewise_relu_0_split_1
I0817 10:46:20.277364  9932 net.cpp:469] resx12_elewise <- resx12_conv3
I0817 10:46:20.277370  9932 net.cpp:443] resx12_elewise -> resx12_elewise
I0817 10:46:20.277396  9932 net.cpp:141] Setting up resx12_elewise
I0817 10:46:20.277405  9932 net.cpp:148] Top shape: 80 480 14 14 (7526400)
I0817 10:46:20.277407  9932 net.cpp:156] Memory required for data: 4871839040
I0817 10:46:20.277410  9932 layer_factory.hpp:77] Creating layer resx12_elewise_relu
I0817 10:46:20.277416  9932 net.cpp:91] Creating Layer resx12_elewise_relu
I0817 10:46:20.277420  9932 net.cpp:469] resx12_elewise_relu <- resx12_elewise
I0817 10:46:20.277425  9932 net.cpp:430] resx12_elewise_relu -> resx12_elewise (in-place)
I0817 10:46:20.277575  9932 net.cpp:141] Setting up resx12_elewise_relu
I0817 10:46:20.277583  9932 net.cpp:148] Top shape: 80 480 14 14 (7526400)
I0817 10:46:20.277587  9932 net.cpp:156] Memory required for data: 4901944640
I0817 10:46:20.277590  9932 layer_factory.hpp:77] Creating layer resx12_elewise_resx12_elewise_relu_0_split
I0817 10:46:20.277596  9932 net.cpp:91] Creating Layer resx12_elewise_resx12_elewise_relu_0_split
I0817 10:46:20.277600  9932 net.cpp:469] resx12_elewise_resx12_elewise_relu_0_split <- resx12_elewise
I0817 10:46:20.277604  9932 net.cpp:443] resx12_elewise_resx12_elewise_relu_0_split -> resx12_elewise_resx12_elewise_relu_0_split_0
I0817 10:46:20.277621  9932 net.cpp:443] resx12_elewise_resx12_elewise_relu_0_split -> resx12_elewise_resx12_elewise_relu_0_split_1
I0817 10:46:20.277664  9932 net.cpp:141] Setting up resx12_elewise_resx12_elewise_relu_0_split
I0817 10:46:20.277670  9932 net.cpp:148] Top shape: 80 480 14 14 (7526400)
I0817 10:46:20.277674  9932 net.cpp:148] Top shape: 80 480 14 14 (7526400)
I0817 10:46:20.277678  9932 net.cpp:156] Memory required for data: 4962155840
I0817 10:46:20.277680  9932 layer_factory.hpp:77] Creating layer resx13_match_conv
I0817 10:46:20.277688  9932 net.cpp:91] Creating Layer resx13_match_conv
I0817 10:46:20.277691  9932 net.cpp:469] resx13_match_conv <- resx12_elewise_resx12_elewise_relu_0_split_0
I0817 10:46:20.277696  9932 net.cpp:443] resx13_match_conv -> resx13_match_conv
I0817 10:46:20.278022  9932 net.cpp:141] Setting up resx13_match_conv
I0817 10:46:20.278033  9932 net.cpp:148] Top shape: 80 480 7 7 (1881600)
I0817 10:46:20.278036  9932 net.cpp:156] Memory required for data: 4969682240
I0817 10:46:20.278040  9932 layer_factory.hpp:77] Creating layer resx13_conv1
I0817 10:46:20.278050  9932 net.cpp:91] Creating Layer resx13_conv1
I0817 10:46:20.278055  9932 net.cpp:469] resx13_conv1 <- resx12_elewise_resx12_elewise_relu_0_split_1
I0817 10:46:20.278060  9932 net.cpp:443] resx13_conv1 -> resx13_conv1
I0817 10:46:20.280737  9932 net.cpp:141] Setting up resx13_conv1
I0817 10:46:20.280752  9932 net.cpp:148] Top shape: 80 120 14 14 (1881600)
I0817 10:46:20.280756  9932 net.cpp:156] Memory required for data: 4977208640
I0817 10:46:20.280761  9932 layer_factory.hpp:77] Creating layer resx13_conv1_bn
I0817 10:46:20.280768  9932 net.cpp:91] Creating Layer resx13_conv1_bn
I0817 10:46:20.280772  9932 net.cpp:469] resx13_conv1_bn <- resx13_conv1
I0817 10:46:20.280778  9932 net.cpp:430] resx13_conv1_bn -> resx13_conv1 (in-place)
I0817 10:46:20.280982  9932 net.cpp:141] Setting up resx13_conv1_bn
I0817 10:46:20.280990  9932 net.cpp:148] Top shape: 80 120 14 14 (1881600)
I0817 10:46:20.280993  9932 net.cpp:156] Memory required for data: 4984735040
I0817 10:46:20.280999  9932 layer_factory.hpp:77] Creating layer resx13_conv1_scale
I0817 10:46:20.281006  9932 net.cpp:91] Creating Layer resx13_conv1_scale
I0817 10:46:20.281009  9932 net.cpp:469] resx13_conv1_scale <- resx13_conv1
I0817 10:46:20.281015  9932 net.cpp:430] resx13_conv1_scale -> resx13_conv1 (in-place)
I0817 10:46:20.281056  9932 layer_factory.hpp:77] Creating layer resx13_conv1_scale
I0817 10:46:20.281184  9932 net.cpp:141] Setting up resx13_conv1_scale
I0817 10:46:20.281191  9932 net.cpp:148] Top shape: 80 120 14 14 (1881600)
I0817 10:46:20.281195  9932 net.cpp:156] Memory required for data: 4992261440
I0817 10:46:20.281200  9932 layer_factory.hpp:77] Creating layer resx13_conv1_relu
I0817 10:46:20.281205  9932 net.cpp:91] Creating Layer resx13_conv1_relu
I0817 10:46:20.281209  9932 net.cpp:469] resx13_conv1_relu <- resx13_conv1
I0817 10:46:20.281215  9932 net.cpp:430] resx13_conv1_relu -> resx13_conv1 (in-place)
I0817 10:46:20.281523  9932 net.cpp:141] Setting up resx13_conv1_relu
I0817 10:46:20.281535  9932 net.cpp:148] Top shape: 80 120 14 14 (1881600)
I0817 10:46:20.281538  9932 net.cpp:156] Memory required for data: 4999787840
I0817 10:46:20.281543  9932 layer_factory.hpp:77] Creating layer shuffle13
I0817 10:46:20.281548  9932 net.cpp:91] Creating Layer shuffle13
I0817 10:46:20.281553  9932 net.cpp:469] shuffle13 <- resx13_conv1
I0817 10:46:20.281558  9932 net.cpp:443] shuffle13 -> shuffle13
I0817 10:46:20.281590  9932 net.cpp:141] Setting up shuffle13
I0817 10:46:20.281597  9932 net.cpp:148] Top shape: 80 120 14 14 (1881600)
I0817 10:46:20.281600  9932 net.cpp:156] Memory required for data: 5007314240
I0817 10:46:20.281603  9932 layer_factory.hpp:77] Creating layer resx13_conv2
I0817 10:46:20.281612  9932 net.cpp:91] Creating Layer resx13_conv2
I0817 10:46:20.281616  9932 net.cpp:469] resx13_conv2 <- shuffle13
I0817 10:46:20.281622  9932 net.cpp:443] resx13_conv2 -> resx13_conv2
I0817 10:46:20.281934  9932 net.cpp:141] Setting up resx13_conv2
I0817 10:46:20.281951  9932 net.cpp:148] Top shape: 80 120 7 7 (470400)
I0817 10:46:20.281955  9932 net.cpp:156] Memory required for data: 5009195840
I0817 10:46:20.281960  9932 layer_factory.hpp:77] Creating layer resx13_conv2_bn
I0817 10:46:20.281966  9932 net.cpp:91] Creating Layer resx13_conv2_bn
I0817 10:46:20.281970  9932 net.cpp:469] resx13_conv2_bn <- resx13_conv2
I0817 10:46:20.281977  9932 net.cpp:430] resx13_conv2_bn -> resx13_conv2 (in-place)
I0817 10:46:20.282184  9932 net.cpp:141] Setting up resx13_conv2_bn
I0817 10:46:20.282192  9932 net.cpp:148] Top shape: 80 120 7 7 (470400)
I0817 10:46:20.282196  9932 net.cpp:156] Memory required for data: 5011077440
I0817 10:46:20.282202  9932 layer_factory.hpp:77] Creating layer resx13_conv2_scale
I0817 10:46:20.282208  9932 net.cpp:91] Creating Layer resx13_conv2_scale
I0817 10:46:20.282212  9932 net.cpp:469] resx13_conv2_scale <- resx13_conv2
I0817 10:46:20.282218  9932 net.cpp:430] resx13_conv2_scale -> resx13_conv2 (in-place)
I0817 10:46:20.282261  9932 layer_factory.hpp:77] Creating layer resx13_conv2_scale
I0817 10:46:20.282382  9932 net.cpp:141] Setting up resx13_conv2_scale
I0817 10:46:20.282389  9932 net.cpp:148] Top shape: 80 120 7 7 (470400)
I0817 10:46:20.282392  9932 net.cpp:156] Memory required for data: 5012959040
I0817 10:46:20.282398  9932 layer_factory.hpp:77] Creating layer resx13_conv3
I0817 10:46:20.282407  9932 net.cpp:91] Creating Layer resx13_conv3
I0817 10:46:20.282411  9932 net.cpp:469] resx13_conv3 <- resx13_conv2
I0817 10:46:20.282418  9932 net.cpp:443] resx13_conv3 -> resx13_conv3
I0817 10:46:20.285167  9932 net.cpp:141] Setting up resx13_conv3
I0817 10:46:20.285182  9932 net.cpp:148] Top shape: 80 480 7 7 (1881600)
I0817 10:46:20.285187  9932 net.cpp:156] Memory required for data: 5020485440
I0817 10:46:20.285192  9932 layer_factory.hpp:77] Creating layer resx13_conv3_bn
I0817 10:46:20.285198  9932 net.cpp:91] Creating Layer resx13_conv3_bn
I0817 10:46:20.285203  9932 net.cpp:469] resx13_conv3_bn <- resx13_conv3
I0817 10:46:20.285209  9932 net.cpp:430] resx13_conv3_bn -> resx13_conv3 (in-place)
I0817 10:46:20.285424  9932 net.cpp:141] Setting up resx13_conv3_bn
I0817 10:46:20.285432  9932 net.cpp:148] Top shape: 80 480 7 7 (1881600)
I0817 10:46:20.285435  9932 net.cpp:156] Memory required for data: 5028011840
I0817 10:46:20.285441  9932 layer_factory.hpp:77] Creating layer resx13_conv3_scale
I0817 10:46:20.285449  9932 net.cpp:91] Creating Layer resx13_conv3_scale
I0817 10:46:20.285452  9932 net.cpp:469] resx13_conv3_scale <- resx13_conv3
I0817 10:46:20.285459  9932 net.cpp:430] resx13_conv3_scale -> resx13_conv3 (in-place)
I0817 10:46:20.285502  9932 layer_factory.hpp:77] Creating layer resx13_conv3_scale
I0817 10:46:20.285627  9932 net.cpp:141] Setting up resx13_conv3_scale
I0817 10:46:20.285634  9932 net.cpp:148] Top shape: 80 480 7 7 (1881600)
I0817 10:46:20.285639  9932 net.cpp:156] Memory required for data: 5035538240
I0817 10:46:20.285643  9932 layer_factory.hpp:77] Creating layer resx13_concat
I0817 10:46:20.285650  9932 net.cpp:91] Creating Layer resx13_concat
I0817 10:46:20.285653  9932 net.cpp:469] resx13_concat <- resx13_match_conv
I0817 10:46:20.285657  9932 net.cpp:469] resx13_concat <- resx13_conv3
I0817 10:46:20.285663  9932 net.cpp:443] resx13_concat -> resx13_concat
I0817 10:46:20.285691  9932 net.cpp:141] Setting up resx13_concat
I0817 10:46:20.285697  9932 net.cpp:148] Top shape: 80 960 7 7 (3763200)
I0817 10:46:20.285701  9932 net.cpp:156] Memory required for data: 5050591040
I0817 10:46:20.285704  9932 layer_factory.hpp:77] Creating layer resx13_concat_relu
I0817 10:46:20.285709  9932 net.cpp:91] Creating Layer resx13_concat_relu
I0817 10:46:20.285713  9932 net.cpp:469] resx13_concat_relu <- resx13_concat
I0817 10:46:20.285717  9932 net.cpp:430] resx13_concat_relu -> resx13_concat (in-place)
I0817 10:46:20.286028  9932 net.cpp:141] Setting up resx13_concat_relu
I0817 10:46:20.286039  9932 net.cpp:148] Top shape: 80 960 7 7 (3763200)
I0817 10:46:20.286043  9932 net.cpp:156] Memory required for data: 5065643840
I0817 10:46:20.286056  9932 layer_factory.hpp:77] Creating layer resx13_concat_resx13_concat_relu_0_split
I0817 10:46:20.286064  9932 net.cpp:91] Creating Layer resx13_concat_resx13_concat_relu_0_split
I0817 10:46:20.286068  9932 net.cpp:469] resx13_concat_resx13_concat_relu_0_split <- resx13_concat
I0817 10:46:20.286074  9932 net.cpp:443] resx13_concat_resx13_concat_relu_0_split -> resx13_concat_resx13_concat_relu_0_split_0
I0817 10:46:20.286082  9932 net.cpp:443] resx13_concat_resx13_concat_relu_0_split -> resx13_concat_resx13_concat_relu_0_split_1
I0817 10:46:20.286128  9932 net.cpp:141] Setting up resx13_concat_resx13_concat_relu_0_split
I0817 10:46:20.286134  9932 net.cpp:148] Top shape: 80 960 7 7 (3763200)
I0817 10:46:20.286137  9932 net.cpp:148] Top shape: 80 960 7 7 (3763200)
I0817 10:46:20.286140  9932 net.cpp:156] Memory required for data: 5095749440
I0817 10:46:20.286144  9932 layer_factory.hpp:77] Creating layer resx14_conv1
I0817 10:46:20.286152  9932 net.cpp:91] Creating Layer resx14_conv1
I0817 10:46:20.286156  9932 net.cpp:469] resx14_conv1 <- resx13_concat_resx13_concat_relu_0_split_0
I0817 10:46:20.286164  9932 net.cpp:443] resx14_conv1 -> resx14_conv1
I0817 10:46:20.290895  9932 net.cpp:141] Setting up resx14_conv1
I0817 10:46:20.290908  9932 net.cpp:148] Top shape: 80 240 7 7 (940800)
I0817 10:46:20.290912  9932 net.cpp:156] Memory required for data: 5099512640
I0817 10:46:20.290917  9932 layer_factory.hpp:77] Creating layer resx14_conv1_bn
I0817 10:46:20.290926  9932 net.cpp:91] Creating Layer resx14_conv1_bn
I0817 10:46:20.290930  9932 net.cpp:469] resx14_conv1_bn <- resx14_conv1
I0817 10:46:20.290935  9932 net.cpp:430] resx14_conv1_bn -> resx14_conv1 (in-place)
I0817 10:46:20.291152  9932 net.cpp:141] Setting up resx14_conv1_bn
I0817 10:46:20.291158  9932 net.cpp:148] Top shape: 80 240 7 7 (940800)
I0817 10:46:20.291162  9932 net.cpp:156] Memory required for data: 5103275840
I0817 10:46:20.291168  9932 layer_factory.hpp:77] Creating layer resx14_conv1_scale
I0817 10:46:20.291177  9932 net.cpp:91] Creating Layer resx14_conv1_scale
I0817 10:46:20.291180  9932 net.cpp:469] resx14_conv1_scale <- resx14_conv1
I0817 10:46:20.291184  9932 net.cpp:430] resx14_conv1_scale -> resx14_conv1 (in-place)
I0817 10:46:20.291229  9932 layer_factory.hpp:77] Creating layer resx14_conv1_scale
I0817 10:46:20.291353  9932 net.cpp:141] Setting up resx14_conv1_scale
I0817 10:46:20.291360  9932 net.cpp:148] Top shape: 80 240 7 7 (940800)
I0817 10:46:20.291364  9932 net.cpp:156] Memory required for data: 5107039040
I0817 10:46:20.291369  9932 layer_factory.hpp:77] Creating layer resx14_conv1_relu
I0817 10:46:20.291376  9932 net.cpp:91] Creating Layer resx14_conv1_relu
I0817 10:46:20.291380  9932 net.cpp:469] resx14_conv1_relu <- resx14_conv1
I0817 10:46:20.291384  9932 net.cpp:430] resx14_conv1_relu -> resx14_conv1 (in-place)
I0817 10:46:20.291699  9932 net.cpp:141] Setting up resx14_conv1_relu
I0817 10:46:20.291713  9932 net.cpp:148] Top shape: 80 240 7 7 (940800)
I0817 10:46:20.291718  9932 net.cpp:156] Memory required for data: 5110802240
I0817 10:46:20.291720  9932 layer_factory.hpp:77] Creating layer shuffle14
I0817 10:46:20.291726  9932 net.cpp:91] Creating Layer shuffle14
I0817 10:46:20.291730  9932 net.cpp:469] shuffle14 <- resx14_conv1
I0817 10:46:20.291736  9932 net.cpp:443] shuffle14 -> shuffle14
I0817 10:46:20.291770  9932 net.cpp:141] Setting up shuffle14
I0817 10:46:20.291777  9932 net.cpp:148] Top shape: 80 240 7 7 (940800)
I0817 10:46:20.291780  9932 net.cpp:156] Memory required for data: 5114565440
I0817 10:46:20.291784  9932 layer_factory.hpp:77] Creating layer resx14_conv2
I0817 10:46:20.291791  9932 net.cpp:91] Creating Layer resx14_conv2
I0817 10:46:20.291795  9932 net.cpp:469] resx14_conv2 <- shuffle14
I0817 10:46:20.291800  9932 net.cpp:443] resx14_conv2 -> resx14_conv2
I0817 10:46:20.291973  9932 net.cpp:141] Setting up resx14_conv2
I0817 10:46:20.291985  9932 net.cpp:148] Top shape: 80 240 7 7 (940800)
I0817 10:46:20.291987  9932 net.cpp:156] Memory required for data: 5118328640
I0817 10:46:20.291996  9932 layer_factory.hpp:77] Creating layer resx14_conv2_bn
I0817 10:46:20.292007  9932 net.cpp:91] Creating Layer resx14_conv2_bn
I0817 10:46:20.292011  9932 net.cpp:469] resx14_conv2_bn <- resx14_conv2
I0817 10:46:20.292018  9932 net.cpp:430] resx14_conv2_bn -> resx14_conv2 (in-place)
I0817 10:46:20.292229  9932 net.cpp:141] Setting up resx14_conv2_bn
I0817 10:46:20.292237  9932 net.cpp:148] Top shape: 80 240 7 7 (940800)
I0817 10:46:20.292239  9932 net.cpp:156] Memory required for data: 5122091840
I0817 10:46:20.292246  9932 layer_factory.hpp:77] Creating layer resx14_conv2_scale
I0817 10:46:20.292253  9932 net.cpp:91] Creating Layer resx14_conv2_scale
I0817 10:46:20.292256  9932 net.cpp:469] resx14_conv2_scale <- resx14_conv2
I0817 10:46:20.292263  9932 net.cpp:430] resx14_conv2_scale -> resx14_conv2 (in-place)
I0817 10:46:20.292304  9932 layer_factory.hpp:77] Creating layer resx14_conv2_scale
I0817 10:46:20.292428  9932 net.cpp:141] Setting up resx14_conv2_scale
I0817 10:46:20.292434  9932 net.cpp:148] Top shape: 80 240 7 7 (940800)
I0817 10:46:20.292438  9932 net.cpp:156] Memory required for data: 5125855040
I0817 10:46:20.292443  9932 layer_factory.hpp:77] Creating layer resx14_conv3
I0817 10:46:20.292453  9932 net.cpp:91] Creating Layer resx14_conv3
I0817 10:46:20.292456  9932 net.cpp:469] resx14_conv3 <- resx14_conv2
I0817 10:46:20.292462  9932 net.cpp:443] resx14_conv3 -> resx14_conv3
I0817 10:46:20.296571  9932 net.cpp:141] Setting up resx14_conv3
I0817 10:46:20.296587  9932 net.cpp:148] Top shape: 80 960 7 7 (3763200)
I0817 10:46:20.296591  9932 net.cpp:156] Memory required for data: 5140907840
I0817 10:46:20.296597  9932 layer_factory.hpp:77] Creating layer resx14_conv3_bn
I0817 10:46:20.296603  9932 net.cpp:91] Creating Layer resx14_conv3_bn
I0817 10:46:20.296607  9932 net.cpp:469] resx14_conv3_bn <- resx14_conv3
I0817 10:46:20.296614  9932 net.cpp:430] resx14_conv3_bn -> resx14_conv3 (in-place)
I0817 10:46:20.296833  9932 net.cpp:141] Setting up resx14_conv3_bn
I0817 10:46:20.296840  9932 net.cpp:148] Top shape: 80 960 7 7 (3763200)
I0817 10:46:20.296844  9932 net.cpp:156] Memory required for data: 5155960640
I0817 10:46:20.296850  9932 layer_factory.hpp:77] Creating layer resx14_conv3_scale
I0817 10:46:20.296857  9932 net.cpp:91] Creating Layer resx14_conv3_scale
I0817 10:46:20.296861  9932 net.cpp:469] resx14_conv3_scale <- resx14_conv3
I0817 10:46:20.296867  9932 net.cpp:430] resx14_conv3_scale -> resx14_conv3 (in-place)
I0817 10:46:20.296912  9932 layer_factory.hpp:77] Creating layer resx14_conv3_scale
I0817 10:46:20.297041  9932 net.cpp:141] Setting up resx14_conv3_scale
I0817 10:46:20.297049  9932 net.cpp:148] Top shape: 80 960 7 7 (3763200)
I0817 10:46:20.297051  9932 net.cpp:156] Memory required for data: 5171013440
I0817 10:46:20.297086  9932 layer_factory.hpp:77] Creating layer resx14_elewise
I0817 10:46:20.297093  9932 net.cpp:91] Creating Layer resx14_elewise
I0817 10:46:20.297097  9932 net.cpp:469] resx14_elewise <- resx13_concat_resx13_concat_relu_0_split_1
I0817 10:46:20.297102  9932 net.cpp:469] resx14_elewise <- resx14_conv3
I0817 10:46:20.297106  9932 net.cpp:443] resx14_elewise -> resx14_elewise
I0817 10:46:20.297137  9932 net.cpp:141] Setting up resx14_elewise
I0817 10:46:20.297144  9932 net.cpp:148] Top shape: 80 960 7 7 (3763200)
I0817 10:46:20.297147  9932 net.cpp:156] Memory required for data: 5186066240
I0817 10:46:20.297150  9932 layer_factory.hpp:77] Creating layer resx14_elewise_relu
I0817 10:46:20.297158  9932 net.cpp:91] Creating Layer resx14_elewise_relu
I0817 10:46:20.297161  9932 net.cpp:469] resx14_elewise_relu <- resx14_elewise
I0817 10:46:20.297166  9932 net.cpp:430] resx14_elewise_relu -> resx14_elewise (in-place)
I0817 10:46:20.297485  9932 net.cpp:141] Setting up resx14_elewise_relu
I0817 10:46:20.297497  9932 net.cpp:148] Top shape: 80 960 7 7 (3763200)
I0817 10:46:20.297500  9932 net.cpp:156] Memory required for data: 5201119040
I0817 10:46:20.297504  9932 layer_factory.hpp:77] Creating layer resx14_elewise_resx14_elewise_relu_0_split
I0817 10:46:20.297514  9932 net.cpp:91] Creating Layer resx14_elewise_resx14_elewise_relu_0_split
I0817 10:46:20.297524  9932 net.cpp:469] resx14_elewise_resx14_elewise_relu_0_split <- resx14_elewise
I0817 10:46:20.297529  9932 net.cpp:443] resx14_elewise_resx14_elewise_relu_0_split -> resx14_elewise_resx14_elewise_relu_0_split_0
I0817 10:46:20.297538  9932 net.cpp:443] resx14_elewise_resx14_elewise_relu_0_split -> resx14_elewise_resx14_elewise_relu_0_split_1
I0817 10:46:20.297585  9932 net.cpp:141] Setting up resx14_elewise_resx14_elewise_relu_0_split
I0817 10:46:20.297592  9932 net.cpp:148] Top shape: 80 960 7 7 (3763200)
I0817 10:46:20.297596  9932 net.cpp:148] Top shape: 80 960 7 7 (3763200)
I0817 10:46:20.297600  9932 net.cpp:156] Memory required for data: 5231224640
I0817 10:46:20.297602  9932 layer_factory.hpp:77] Creating layer resx15_conv1
I0817 10:46:20.297611  9932 net.cpp:91] Creating Layer resx15_conv1
I0817 10:46:20.297616  9932 net.cpp:469] resx15_conv1 <- resx14_elewise_resx14_elewise_relu_0_split_0
I0817 10:46:20.297622  9932 net.cpp:443] resx15_conv1 -> resx15_conv1
I0817 10:46:20.301729  9932 net.cpp:141] Setting up resx15_conv1
I0817 10:46:20.301743  9932 net.cpp:148] Top shape: 80 240 7 7 (940800)
I0817 10:46:20.301746  9932 net.cpp:156] Memory required for data: 5234987840
I0817 10:46:20.301753  9932 layer_factory.hpp:77] Creating layer resx15_conv1_bn
I0817 10:46:20.301760  9932 net.cpp:91] Creating Layer resx15_conv1_bn
I0817 10:46:20.301764  9932 net.cpp:469] resx15_conv1_bn <- resx15_conv1
I0817 10:46:20.301769  9932 net.cpp:430] resx15_conv1_bn -> resx15_conv1 (in-place)
I0817 10:46:20.301981  9932 net.cpp:141] Setting up resx15_conv1_bn
I0817 10:46:20.301988  9932 net.cpp:148] Top shape: 80 240 7 7 (940800)
I0817 10:46:20.301991  9932 net.cpp:156] Memory required for data: 5238751040
I0817 10:46:20.301998  9932 layer_factory.hpp:77] Creating layer resx15_conv1_scale
I0817 10:46:20.302006  9932 net.cpp:91] Creating Layer resx15_conv1_scale
I0817 10:46:20.302009  9932 net.cpp:469] resx15_conv1_scale <- resx15_conv1
I0817 10:46:20.302013  9932 net.cpp:430] resx15_conv1_scale -> resx15_conv1 (in-place)
I0817 10:46:20.302059  9932 layer_factory.hpp:77] Creating layer resx15_conv1_scale
I0817 10:46:20.302184  9932 net.cpp:141] Setting up resx15_conv1_scale
I0817 10:46:20.302192  9932 net.cpp:148] Top shape: 80 240 7 7 (940800)
I0817 10:46:20.302196  9932 net.cpp:156] Memory required for data: 5242514240
I0817 10:46:20.302201  9932 layer_factory.hpp:77] Creating layer resx15_conv1_relu
I0817 10:46:20.302207  9932 net.cpp:91] Creating Layer resx15_conv1_relu
I0817 10:46:20.302211  9932 net.cpp:469] resx15_conv1_relu <- resx15_conv1
I0817 10:46:20.302214  9932 net.cpp:430] resx15_conv1_relu -> resx15_conv1 (in-place)
I0817 10:46:20.302528  9932 net.cpp:141] Setting up resx15_conv1_relu
I0817 10:46:20.302539  9932 net.cpp:148] Top shape: 80 240 7 7 (940800)
I0817 10:46:20.302543  9932 net.cpp:156] Memory required for data: 5246277440
I0817 10:46:20.302547  9932 layer_factory.hpp:77] Creating layer shuffle15
I0817 10:46:20.302554  9932 net.cpp:91] Creating Layer shuffle15
I0817 10:46:20.302558  9932 net.cpp:469] shuffle15 <- resx15_conv1
I0817 10:46:20.302563  9932 net.cpp:443] shuffle15 -> shuffle15
I0817 10:46:20.302598  9932 net.cpp:141] Setting up shuffle15
…
I0817 10:46:20.511970  9932 net.cpp:91] Creating Layer resx11_conv1
I0817 10:46:20.511975  9932 net.cpp:469] resx11_conv1 <- resx10_elewise_resx10_elewise_relu_0_split_0
I0817 10:46:20.511981  9932 net.cpp:443] resx11_conv1 -> resx11_conv1
I0817 10:46:20.515535  9932 net.cpp:141] Setting up resx11_conv1
I0817 10:46:20.515550  9932 net.cpp:148] Top shape: 40 120 14 14 (940800)
I0817 10:46:20.515554  9932 net.cpp:156] Memory required for data: 2213891040
I0817 10:46:20.515560  9932 layer_factory.hpp:77] Creating layer resx11_conv1_bn
I0817 10:46:20.515566  9932 net.cpp:91] Creating Layer resx11_conv1_bn
I0817 10:46:20.515570  9932 net.cpp:469] resx11_conv1_bn <- resx11_conv1
I0817 10:46:20.515578  9932 net.cpp:430] resx11_conv1_bn -> resx11_conv1 (in-place)
I0817 10:46:20.515774  9932 net.cpp:141] Setting up resx11_conv1_bn
I0817 10:46:20.515782  9932 net.cpp:148] Top shape: 40 120 14 14 (940800)
I0817 10:46:20.515785  9932 net.cpp:156] Memory required for data: 2217654240
I0817 10:46:20.515792  9932 layer_factory.hpp:77] Creating layer resx11_conv1_scale
I0817 10:46:20.515799  9932 net.cpp:91] Creating Layer resx11_conv1_scale
I0817 10:46:20.515802  9932 net.cpp:469] resx11_conv1_scale <- resx11_conv1
I0817 10:46:20.515808  9932 net.cpp:430] resx11_conv1_scale -> resx11_conv1 (in-place)
I0817 10:46:20.515847  9932 layer_factory.hpp:77] Creating layer resx11_conv1_scale
I0817 10:46:20.515962  9932 net.cpp:141] Setting up resx11_conv1_scale
I0817 10:46:20.515969  9932 net.cpp:148] Top shape: 40 120 14 14 (940800)
I0817 10:46:20.515974  9932 net.cpp:156] Memory required for data: 2221417440
I0817 10:46:20.515978  9932 layer_factory.hpp:77] Creating layer resx11_conv1_relu
I0817 10:46:20.515985  9932 net.cpp:91] Creating Layer resx11_conv1_relu
I0817 10:46:20.515987  9932 net.cpp:469] resx11_conv1_relu <- resx11_conv1
I0817 10:46:20.515993  9932 net.cpp:430] resx11_conv1_relu -> resx11_conv1 (in-place)
I0817 10:46:20.516342  9932 net.cpp:141] Setting up resx11_conv1_relu
I0817 10:46:20.516353  9932 net.cpp:148] Top shape: 40 120 14 14 (940800)
I0817 10:46:20.516357  9932 net.cpp:156] Memory required for data: 2225180640
I0817 10:46:20.516361  9932 layer_factory.hpp:77] Creating layer shuffle11
I0817 10:46:20.516367  9932 net.cpp:91] Creating Layer shuffle11
I0817 10:46:20.516371  9932 net.cpp:469] shuffle11 <- resx11_conv1
I0817 10:46:20.516379  9932 net.cpp:443] shuffle11 -> shuffle11
I0817 10:46:20.516413  9932 net.cpp:141] Setting up shuffle11
I0817 10:46:20.516425  9932 net.cpp:148] Top shape: 40 120 14 14 (940800)
I0817 10:46:20.516429  9932 net.cpp:156] Memory required for data: 2228943840
I0817 10:46:20.516433  9932 layer_factory.hpp:77] Creating layer resx11_conv2
I0817 10:46:20.516440  9932 net.cpp:91] Creating Layer resx11_conv2
I0817 10:46:20.516444  9932 net.cpp:469] resx11_conv2 <- shuffle11
I0817 10:46:20.516450  9932 net.cpp:443] resx11_conv2 -> resx11_conv2
I0817 10:46:20.516600  9932 net.cpp:141] Setting up resx11_conv2
I0817 10:46:20.516609  9932 net.cpp:148] Top shape: 40 120 14 14 (940800)
I0817 10:46:20.516613  9932 net.cpp:156] Memory required for data: 2232707040
I0817 10:46:20.516618  9932 layer_factory.hpp:77] Creating layer resx11_conv2_bn
I0817 10:46:20.516625  9932 net.cpp:91] Creating Layer resx11_conv2_bn
I0817 10:46:20.516629  9932 net.cpp:469] resx11_conv2_bn <- resx11_conv2
I0817 10:46:20.516635  9932 net.cpp:430] resx11_conv2_bn -> resx11_conv2 (in-place)
I0817 10:46:20.516821  9932 net.cpp:141] Setting up resx11_conv2_bn
I0817 10:46:20.516827  9932 net.cpp:148] Top shape: 40 120 14 14 (940800)
I0817 10:46:20.516831  9932 net.cpp:156] Memory required for data: 2236470240
I0817 10:46:20.516837  9932 layer_factory.hpp:77] Creating layer resx11_conv2_scale
I0817 10:46:20.516846  9932 net.cpp:91] Creating Layer resx11_conv2_scale
I0817 10:46:20.516850  9932 net.cpp:469] resx11_conv2_scale <- resx11_conv2
I0817 10:46:20.516855  9932 net.cpp:430] resx11_conv2_scale -> resx11_conv2 (in-place)
I0817 10:46:20.516896  9932 layer_factory.hpp:77] Creating layer resx11_conv2_scale
I0817 10:46:20.517006  9932 net.cpp:141] Setting up resx11_conv2_scale
I0817 10:46:20.517014  9932 net.cpp:148] Top shape: 40 120 14 14 (940800)
I0817 10:46:20.517016  9932 net.cpp:156] Memory required for data: 2240233440
I0817 10:46:20.517022  9932 layer_factory.hpp:77] Creating layer resx11_conv3
I0817 10:46:20.517030  9932 net.cpp:91] Creating Layer resx11_conv3
I0817 10:46:20.517035  9932 net.cpp:469] resx11_conv3 <- resx11_conv2
I0817 10:46:20.517041  9932 net.cpp:443] resx11_conv3 -> resx11_conv3
I0817 10:46:20.520151  9932 net.cpp:141] Setting up resx11_conv3
I0817 10:46:20.520165  9932 net.cpp:148] Top shape: 40 480 14 14 (3763200)
I0817 10:46:20.520169  9932 net.cpp:156] Memory required for data: 2255286240
I0817 10:46:20.520174  9932 layer_factory.hpp:77] Creating layer resx11_conv3_bn
I0817 10:46:20.520182  9932 net.cpp:91] Creating Layer resx11_conv3_bn
I0817 10:46:20.520186  9932 net.cpp:469] resx11_conv3_bn <- resx11_conv3
I0817 10:46:20.520191  9932 net.cpp:430] resx11_conv3_bn -> resx11_conv3 (in-place)
I0817 10:46:20.520411  9932 net.cpp:141] Setting up resx11_conv3_bn
I0817 10:46:20.520418  9932 net.cpp:148] Top shape: 40 480 14 14 (3763200)
I0817 10:46:20.520421  9932 net.cpp:156] Memory required for data: 2270339040
I0817 10:46:20.520428  9932 layer_factory.hpp:77] Creating layer resx11_conv3_scale
I0817 10:46:20.520434  9932 net.cpp:91] Creating Layer resx11_conv3_scale
I0817 10:46:20.520438  9932 net.cpp:469] resx11_conv3_scale <- resx11_conv3
I0817 10:46:20.520443  9932 net.cpp:430] resx11_conv3_scale -> resx11_conv3 (in-place)
I0817 10:46:20.520500  9932 layer_factory.hpp:77] Creating layer resx11_conv3_scale
I0817 10:46:20.520632  9932 net.cpp:141] Setting up resx11_conv3_scale
I0817 10:46:20.520642  9932 net.cpp:148] Top shape: 40 480 14 14 (3763200)
I0817 10:46:20.520644  9932 net.cpp:156] Memory required for data: 2285391840
I0817 10:46:20.520650  9932 layer_factory.hpp:77] Creating layer resx11_elewise
I0817 10:46:20.520656  9932 net.cpp:91] Creating Layer resx11_elewise
I0817 10:46:20.520660  9932 net.cpp:469] resx11_elewise <- resx10_elewise_resx10_elewise_relu_0_split_1
I0817 10:46:20.520664  9932 net.cpp:469] resx11_elewise <- resx11_conv3
I0817 10:46:20.520669  9932 net.cpp:443] resx11_elewise -> resx11_elewise
I0817 10:46:20.520694  9932 net.cpp:141] Setting up resx11_elewise
I0817 10:46:20.520700  9932 net.cpp:148] Top shape: 40 480 14 14 (3763200)
I0817 10:46:20.520704  9932 net.cpp:156] Memory required for data: 2300444640
I0817 10:46:20.520716  9932 layer_factory.hpp:77] Creating layer resx11_elewise_relu
I0817 10:46:20.520723  9932 net.cpp:91] Creating Layer resx11_elewise_relu
I0817 10:46:20.520727  9932 net.cpp:469] resx11_elewise_relu <- resx11_elewise
I0817 10:46:20.520731  9932 net.cpp:430] resx11_elewise_relu -> resx11_elewise (in-place)
I0817 10:46:20.521090  9932 net.cpp:141] Setting up resx11_elewise_relu
I0817 10:46:20.521102  9932 net.cpp:148] Top shape: 40 480 14 14 (3763200)
I0817 10:46:20.521106  9932 net.cpp:156] Memory required for data: 2315497440
I0817 10:46:20.521109  9932 layer_factory.hpp:77] Creating layer resx11_elewise_resx11_elewise_relu_0_split
I0817 10:46:20.521116  9932 net.cpp:91] Creating Layer resx11_elewise_resx11_elewise_relu_0_split
I0817 10:46:20.521119  9932 net.cpp:469] resx11_elewise_resx11_elewise_relu_0_split <- resx11_elewise
I0817 10:46:20.521126  9932 net.cpp:443] resx11_elewise_resx11_elewise_relu_0_split -> resx11_elewise_resx11_elewise_relu_0_split_0
I0817 10:46:20.521131  9932 net.cpp:443] resx11_elewise_resx11_elewise_relu_0_split -> resx11_elewise_resx11_elewise_relu_0_split_1
I0817 10:46:20.521174  9932 net.cpp:141] Setting up resx11_elewise_resx11_elewise_relu_0_split
I0817 10:46:20.521180  9932 net.cpp:148] Top shape: 40 480 14 14 (3763200)
I0817 10:46:20.521184  9932 net.cpp:148] Top shape: 40 480 14 14 (3763200)
I0817 10:46:20.521188  9932 net.cpp:156] Memory required for data: 2345603040
I0817 10:46:20.521191  9932 layer_factory.hpp:77] Creating layer resx12_conv1
I0817 10:46:20.521203  9932 net.cpp:91] Creating Layer resx12_conv1
I0817 10:46:20.521206  9932 net.cpp:469] resx12_conv1 <- resx11_elewise_resx11_elewise_relu_0_split_0
I0817 10:46:20.521211  9932 net.cpp:443] resx12_conv1 -> resx12_conv1
I0817 10:46:20.524442  9932 net.cpp:141] Setting up resx12_conv1
I0817 10:46:20.524456  9932 net.cpp:148] Top shape: 40 120 14 14 (940800)
I0817 10:46:20.524459  9932 net.cpp:156] Memory required for data: 2349366240
I0817 10:46:20.524464  9932 layer_factory.hpp:77] Creating layer resx12_conv1_bn
I0817 10:46:20.524473  9932 net.cpp:91] Creating Layer resx12_conv1_bn
I0817 10:46:20.524478  9932 net.cpp:469] resx12_conv1_bn <- resx12_conv1
I0817 10:46:20.524483  9932 net.cpp:430] resx12_conv1_bn -> resx12_conv1 (in-place)
I0817 10:46:20.524672  9932 net.cpp:141] Setting up resx12_conv1_bn
I0817 10:46:20.524680  9932 net.cpp:148] Top shape: 40 120 14 14 (940800)
I0817 10:46:20.524683  9932 net.cpp:156] Memory required for data: 2353129440
I0817 10:46:20.524694  9932 layer_factory.hpp:77] Creating layer resx12_conv1_scale
I0817 10:46:20.524700  9932 net.cpp:91] Creating Layer resx12_conv1_scale
I0817 10:46:20.524704  9932 net.cpp:469] resx12_conv1_scale <- resx12_conv1
I0817 10:46:20.524709  9932 net.cpp:430] resx12_conv1_scale -> resx12_conv1 (in-place)
I0817 10:46:20.524750  9932 layer_factory.hpp:77] Creating layer resx12_conv1_scale
I0817 10:46:20.524863  9932 net.cpp:141] Setting up resx12_conv1_scale
I0817 10:46:20.524870  9932 net.cpp:148] Top shape: 40 120 14 14 (940800)
I0817 10:46:20.524873  9932 net.cpp:156] Memory required for data: 2356892640
I0817 10:46:20.524879  9932 layer_factory.hpp:77] Creating layer resx12_conv1_relu
I0817 10:46:20.524885  9932 net.cpp:91] Creating Layer resx12_conv1_relu
I0817 10:46:20.524889  9932 net.cpp:469] resx12_conv1_relu <- resx12_conv1
I0817 10:46:20.524894  9932 net.cpp:430] resx12_conv1_relu -> resx12_conv1 (in-place)
I0817 10:46:20.525252  9932 net.cpp:141] Setting up resx12_conv1_relu
I0817 10:46:20.525264  9932 net.cpp:148] Top shape: 40 120 14 14 (940800)
I0817 10:46:20.525269  9932 net.cpp:156] Memory required for data: 2360655840
I0817 10:46:20.525272  9932 layer_factory.hpp:77] Creating layer shuffle12
I0817 10:46:20.525279  9932 net.cpp:91] Creating Layer shuffle12
I0817 10:46:20.525282  9932 net.cpp:469] shuffle12 <- resx12_conv1
I0817 10:46:20.525288  9932 net.cpp:443] shuffle12 -> shuffle12
I0817 10:46:20.525321  9932 net.cpp:141] Setting up shuffle12
I0817 10:46:20.525327  9932 net.cpp:148] Top shape: 40 120 14 14 (940800)
I0817 10:46:20.525334  9932 net.cpp:156] Memory required for data: 2364419040
I0817 10:46:20.525342  9932 layer_factory.hpp:77] Creating layer resx12_conv2
I0817 10:46:20.525348  9932 net.cpp:91] Creating Layer resx12_conv2
I0817 10:46:20.525352  9932 net.cpp:469] resx12_conv2 <- shuffle12
I0817 10:46:20.525359  9932 net.cpp:443] resx12_conv2 -> resx12_conv2
I0817 10:46:20.525511  9932 net.cpp:141] Setting up resx12_conv2
I0817 10:46:20.525521  9932 net.cpp:148] Top shape: 40 120 14 14 (940800)
I0817 10:46:20.525523  9932 net.cpp:156] Memory required for data: 2368182240
I0817 10:46:20.525528  9932 layer_factory.hpp:77] Creating layer resx12_conv2_bn
I0817 10:46:20.525534  9932 net.cpp:91] Creating Layer resx12_conv2_bn
I0817 10:46:20.525538  9932 net.cpp:469] resx12_conv2_bn <- resx12_conv2
I0817 10:46:20.525544  9932 net.cpp:430] resx12_conv2_bn -> resx12_conv2 (in-place)
I0817 10:46:20.525732  9932 net.cpp:141] Setting up resx12_conv2_bn
I0817 10:46:20.525738  9932 net.cpp:148] Top shape: 40 120 14 14 (940800)
I0817 10:46:20.525741  9932 net.cpp:156] Memory required for data: 2371945440
I0817 10:46:20.525748  9932 layer_factory.hpp:77] Creating layer resx12_conv2_scale
I0817 10:46:20.525754  9932 net.cpp:91] Creating Layer resx12_conv2_scale
I0817 10:46:20.525758  9932 net.cpp:469] resx12_conv2_scale <- resx12_conv2
I0817 10:46:20.525764  9932 net.cpp:430] resx12_conv2_scale -> resx12_conv2 (in-place)
I0817 10:46:20.525804  9932 layer_factory.hpp:77] Creating layer resx12_conv2_scale
I0817 10:46:20.525918  9932 net.cpp:141] Setting up resx12_conv2_scale
I0817 10:46:20.525924  9932 net.cpp:148] Top shape: 40 120 14 14 (940800)
I0817 10:46:20.525928  9932 net.cpp:156] Memory required for data: 2375708640
I0817 10:46:20.525933  9932 layer_factory.hpp:77] Creating layer resx12_conv3
I0817 10:46:20.525941  9932 net.cpp:91] Creating Layer resx12_conv3
I0817 10:46:20.525945  9932 net.cpp:469] resx12_conv3 <- resx12_conv2
I0817 10:46:20.525952  9932 net.cpp:443] resx12_conv3 -> resx12_conv3
I0817 10:46:20.529009  9932 net.cpp:141] Setting up resx12_conv3
I0817 10:46:20.529022  9932 net.cpp:148] Top shape: 40 480 14 14 (3763200)
I0817 10:46:20.529026  9932 net.cpp:156] Memory required for data: 2390761440
I0817 10:46:20.529031  9932 layer_factory.hpp:77] Creating layer resx12_conv3_bn
I0817 10:46:20.529039  9932 net.cpp:91] Creating Layer resx12_conv3_bn
I0817 10:46:20.529043  9932 net.cpp:469] resx12_conv3_bn <- resx12_conv3
I0817 10:46:20.529048  9932 net.cpp:430] resx12_conv3_bn -> resx12_conv3 (in-place)
I0817 10:46:20.529281  9932 net.cpp:141] Setting up resx12_conv3_bn
I0817 10:46:20.529290  9932 net.cpp:148] Top shape: 40 480 14 14 (3763200)
I0817 10:46:20.529294  9932 net.cpp:156] Memory required for data: 2405814240
I0817 10:46:20.529301  9932 layer_factory.hpp:77] Creating layer resx12_conv3_scale
I0817 10:46:20.529309  9932 net.cpp:91] Creating Layer resx12_conv3_scale
I0817 10:46:20.529314  9932 net.cpp:469] resx12_conv3_scale <- resx12_conv3
I0817 10:46:20.529319  9932 net.cpp:430] resx12_conv3_scale -> resx12_conv3 (in-place)
I0817 10:46:20.529376  9932 layer_factory.hpp:77] Creating layer resx12_conv3_scale
I0817 10:46:20.529511  9932 net.cpp:141] Setting up resx12_conv3_scale
I0817 10:46:20.529520  9932 net.cpp:148] Top shape: 40 480 14 14 (3763200)
I0817 10:46:20.529522  9932 net.cpp:156] Memory required for data: 2420867040
I0817 10:46:20.529528  9932 layer_factory.hpp:77] Creating layer resx12_elewise
I0817 10:46:20.529536  9932 net.cpp:91] Creating Layer resx12_elewise
I0817 10:46:20.529539  9932 net.cpp:469] resx12_elewise <- resx11_elewise_resx11_elewise_relu_0_split_1
I0817 10:46:20.529543  9932 net.cpp:469] resx12_elewise <- resx12_conv3
I0817 10:46:20.529551  9932 net.cpp:443] resx12_elewise -> resx12_elewise
I0817 10:46:20.529575  9932 net.cpp:141] Setting up resx12_elewise
I0817 10:46:20.529582  9932 net.cpp:148] Top shape: 40 480 14 14 (3763200)
I0817 10:46:20.529584  9932 net.cpp:156] Memory required for data: 2435919840
I0817 10:46:20.529587  9932 layer_factory.hpp:77] Creating layer resx12_elewise_relu
I0817 10:46:20.529603  9932 net.cpp:91] Creating Layer resx12_elewise_relu
I0817 10:46:20.529606  9932 net.cpp:469] resx12_elewise_relu <- resx12_elewise
I0817 10:46:20.529613  9932 net.cpp:430] resx12_elewise_relu -> resx12_elewise (in-place)
I0817 10:46:20.529968  9932 net.cpp:141] Setting up resx12_elewise_relu
I0817 10:46:20.529979  9932 net.cpp:148] Top shape: 40 480 14 14 (3763200)
I0817 10:46:20.529983  9932 net.cpp:156] Memory required for data: 2450972640
I0817 10:46:20.529986  9932 layer_factory.hpp:77] Creating layer resx12_elewise_resx12_elewise_relu_0_split
I0817 10:46:20.529994  9932 net.cpp:91] Creating Layer resx12_elewise_resx12_elewise_relu_0_split
I0817 10:46:20.529999  9932 net.cpp:469] resx12_elewise_resx12_elewise_relu_0_split <- resx12_elewise
I0817 10:46:20.530004  9932 net.cpp:443] resx12_elewise_resx12_elewise_relu_0_split -> resx12_elewise_resx12_elewise_relu_0_split_0
I0817 10:46:20.530009  9932 net.cpp:443] resx12_elewise_resx12_elewise_relu_0_split -> resx12_elewise_resx12_elewise_relu_0_split_1
I0817 10:46:20.530053  9932 net.cpp:141] Setting up resx12_elewise_resx12_elewise_relu_0_split
I0817 10:46:20.530061  9932 net.cpp:148] Top shape: 40 480 14 14 (3763200)
I0817 10:46:20.530064  9932 net.cpp:148] Top shape: 40 480 14 14 (3763200)
I0817 10:46:20.530067  9932 net.cpp:156] Memory required for data: 2481078240
I0817 10:46:20.530071  9932 layer_factory.hpp:77] Creating layer resx13_match_conv
I0817 10:46:20.530077  9932 net.cpp:91] Creating Layer resx13_match_conv
I0817 10:46:20.530081  9932 net.cpp:469] resx13_match_conv <- resx12_elewise_resx12_elewise_relu_0_split_0
I0817 10:46:20.530087  9932 net.cpp:443] resx13_match_conv -> resx13_match_conv
I0817 10:46:20.530287  9932 net.cpp:141] Setting up resx13_match_conv
I0817 10:46:20.530295  9932 net.cpp:148] Top shape: 40 480 7 7 (940800)
I0817 10:46:20.530299  9932 net.cpp:156] Memory required for data: 2484841440
I0817 10:46:20.530303  9932 layer_factory.hpp:77] Creating layer resx13_conv1
I0817 10:46:20.530313  9932 net.cpp:91] Creating Layer resx13_conv1
I0817 10:46:20.530316  9932 net.cpp:469] resx13_conv1 <- resx12_elewise_resx12_elewise_relu_0_split_1
I0817 10:46:20.530323  9932 net.cpp:443] resx13_conv1 -> resx13_conv1
I0817 10:46:20.533570  9932 net.cpp:141] Setting up resx13_conv1
I0817 10:46:20.533582  9932 net.cpp:148] Top shape: 40 120 14 14 (940800)
I0817 10:46:20.533586  9932 net.cpp:156] Memory required for data: 2488604640
I0817 10:46:20.533591  9932 layer_factory.hpp:77] Creating layer resx13_conv1_bn
I0817 10:46:20.533601  9932 net.cpp:91] Creating Layer resx13_conv1_bn
I0817 10:46:20.533604  9932 net.cpp:469] resx13_conv1_bn <- resx13_conv1
I0817 10:46:20.533609  9932 net.cpp:430] resx13_conv1_bn -> resx13_conv1 (in-place)
I0817 10:46:20.533804  9932 net.cpp:141] Setting up resx13_conv1_bn
I0817 10:46:20.533812  9932 net.cpp:148] Top shape: 40 120 14 14 (940800)
I0817 10:46:20.533815  9932 net.cpp:156] Memory required for data: 2492367840
I0817 10:46:20.533821  9932 layer_factory.hpp:77] Creating layer resx13_conv1_scale
I0817 10:46:20.533828  9932 net.cpp:91] Creating Layer resx13_conv1_scale
I0817 10:46:20.533831  9932 net.cpp:469] resx13_conv1_scale <- resx13_conv1
I0817 10:46:20.533836  9932 net.cpp:430] resx13_conv1_scale -> resx13_conv1 (in-place)
I0817 10:46:20.533881  9932 layer_factory.hpp:77] Creating layer resx13_conv1_scale
I0817 10:46:20.533995  9932 net.cpp:141] Setting up resx13_conv1_scale
I0817 10:46:20.534003  9932 net.cpp:148] Top shape: 40 120 14 14 (940800)
I0817 10:46:20.534006  9932 net.cpp:156] Memory required for data: 2496131040
I0817 10:46:20.534013  9932 layer_factory.hpp:77] Creating layer resx13_conv1_relu
I0817 10:46:20.534018  9932 net.cpp:91] Creating Layer resx13_conv1_relu
I0817 10:46:20.534021  9932 net.cpp:469] resx13_conv1_relu <- resx13_conv1
I0817 10:46:20.534025  9932 net.cpp:430] resx13_conv1_relu -> resx13_conv1 (in-place)
I0817 10:46:20.534207  9932 net.cpp:141] Setting up resx13_conv1_relu
I0817 10:46:20.534215  9932 net.cpp:148] Top shape: 40 120 14 14 (940800)
I0817 10:46:20.534224  9932 net.cpp:156] Memory required for data: 2499894240
I0817 10:46:20.534234  9932 layer_factory.hpp:77] Creating layer shuffle13
I0817 10:46:20.534240  9932 net.cpp:91] Creating Layer shuffle13
I0817 10:46:20.534243  9932 net.cpp:469] shuffle13 <- resx13_conv1
I0817 10:46:20.534248  9932 net.cpp:443] shuffle13 -> shuffle13
I0817 10:46:20.534282  9932 net.cpp:141] Setting up shuffle13
I0817 10:46:20.534288  9932 net.cpp:148] Top shape: 40 120 14 14 (940800)
I0817 10:46:20.534291  9932 net.cpp:156] Memory required for data: 2503657440
I0817 10:46:20.534294  9932 layer_factory.hpp:77] Creating layer resx13_conv2
I0817 10:46:20.534302  9932 net.cpp:91] Creating Layer resx13_conv2
I0817 10:46:20.534307  9932 net.cpp:469] resx13_conv2 <- shuffle13
I0817 10:46:20.534312  9932 net.cpp:443] resx13_conv2 -> resx13_conv2
I0817 10:46:20.534485  9932 net.cpp:141] Setting up resx13_conv2
I0817 10:46:20.534497  9932 net.cpp:148] Top shape: 40 120 7 7 (235200)
I0817 10:46:20.534499  9932 net.cpp:156] Memory required for data: 2504598240
I0817 10:46:20.534504  9932 layer_factory.hpp:77] Creating layer resx13_conv2_bn
I0817 10:46:20.534510  9932 net.cpp:91] Creating Layer resx13_conv2_bn
I0817 10:46:20.534515  9932 net.cpp:469] resx13_conv2_bn <- resx13_conv2
I0817 10:46:20.534520  9932 net.cpp:430] resx13_conv2_bn -> resx13_conv2 (in-place)
I0817 10:46:20.534719  9932 net.cpp:141] Setting up resx13_conv2_bn
I0817 10:46:20.534726  9932 net.cpp:148] Top shape: 40 120 7 7 (235200)
I0817 10:46:20.534729  9932 net.cpp:156] Memory required for data: 2505539040
I0817 10:46:20.534735  9932 layer_factory.hpp:77] Creating layer resx13_conv2_scale
I0817 10:46:20.534742  9932 net.cpp:91] Creating Layer resx13_conv2_scale
I0817 10:46:20.534745  9932 net.cpp:469] resx13_conv2_scale <- resx13_conv2
I0817 10:46:20.534751  9932 net.cpp:430] resx13_conv2_scale -> resx13_conv2 (in-place)
I0817 10:46:20.534791  9932 layer_factory.hpp:77] Creating layer resx13_conv2_scale
I0817 10:46:20.534909  9932 net.cpp:141] Setting up resx13_conv2_scale
I0817 10:46:20.534915  9932 net.cpp:148] Top shape: 40 120 7 7 (235200)
I0817 10:46:20.534919  9932 net.cpp:156] Memory required for data: 2506479840
I0817 10:46:20.534924  9932 layer_factory.hpp:77] Creating layer resx13_conv3
I0817 10:46:20.534932  9932 net.cpp:91] Creating Layer resx13_conv3
I0817 10:46:20.534936  9932 net.cpp:469] resx13_conv3 <- resx13_conv2
I0817 10:46:20.534943  9932 net.cpp:443] resx13_conv3 -> resx13_conv3
I0817 10:46:20.538439  9932 net.cpp:141] Setting up resx13_conv3
I0817 10:46:20.538453  9932 net.cpp:148] Top shape: 40 480 7 7 (940800)
I0817 10:46:20.538457  9932 net.cpp:156] Memory required for data: 2510243040
I0817 10:46:20.538462  9932 layer_factory.hpp:77] Creating layer resx13_conv3_bn
I0817 10:46:20.538471  9932 net.cpp:91] Creating Layer resx13_conv3_bn
I0817 10:46:20.538475  9932 net.cpp:469] resx13_conv3_bn <- resx13_conv3
I0817 10:46:20.538483  9932 net.cpp:430] resx13_conv3_bn -> resx13_conv3 (in-place)
I0817 10:46:20.538712  9932 net.cpp:141] Setting up resx13_conv3_bn
I0817 10:46:20.538718  9932 net.cpp:148] Top shape: 40 480 7 7 (940800)
I0817 10:46:20.538722  9932 net.cpp:156] Memory required for data: 2514006240
I0817 10:46:20.538728  9932 layer_factory.hpp:77] Creating layer resx13_conv3_scale
I0817 10:46:20.538736  9932 net.cpp:91] Creating Layer resx13_conv3_scale
I0817 10:46:20.538741  9932 net.cpp:469] resx13_conv3_scale <- resx13_conv3
I0817 10:46:20.538745  9932 net.cpp:430] resx13_conv3_scale -> resx13_conv3 (in-place)
I0817 10:46:20.538803  9932 layer_factory.hpp:77] Creating layer resx13_conv3_scale
I0817 10:46:20.538941  9932 net.cpp:141] Setting up resx13_conv3_scale
I0817 10:46:20.538949  9932 net.cpp:148] Top shape: 40 480 7 7 (940800)
I0817 10:46:20.538952  9932 net.cpp:156] Memory required for data: 2517769440
I0817 10:46:20.538957  9932 layer_factory.hpp:77] Creating layer resx13_concat
I0817 10:46:20.538964  9932 net.cpp:91] Creating Layer resx13_concat
I0817 10:46:20.538967  9932 net.cpp:469] resx13_concat <- resx13_match_conv
I0817 10:46:20.538976  9932 net.cpp:469] resx13_concat <- resx13_conv3
I0817 10:46:20.538988  9932 net.cpp:443] resx13_concat -> resx13_concat
I0817 10:46:20.539016  9932 net.cpp:141] Setting up resx13_concat
I0817 10:46:20.539022  9932 net.cpp:148] Top shape: 40 960 7 7 (1881600)
I0817 10:46:20.539026  9932 net.cpp:156] Memory required for data: 2525295840
I0817 10:46:20.539029  9932 layer_factory.hpp:77] Creating layer resx13_concat_relu
I0817 10:46:20.539036  9932 net.cpp:91] Creating Layer resx13_concat_relu
I0817 10:46:20.539041  9932 net.cpp:469] resx13_concat_relu <- resx13_concat
I0817 10:46:20.539044  9932 net.cpp:430] resx13_concat_relu -> resx13_concat (in-place)
I0817 10:46:20.539402  9932 net.cpp:141] Setting up resx13_concat_relu
I0817 10:46:20.539414  9932 net.cpp:148] Top shape: 40 960 7 7 (1881600)
I0817 10:46:20.539418  9932 net.cpp:156] Memory required for data: 2532822240
I0817 10:46:20.539422  9932 layer_factory.hpp:77] Creating layer resx13_concat_resx13_concat_relu_0_split
I0817 10:46:20.539427  9932 net.cpp:91] Creating Layer resx13_concat_resx13_concat_relu_0_split
I0817 10:46:20.539432  9932 net.cpp:469] resx13_concat_resx13_concat_relu_0_split <- resx13_concat
I0817 10:46:20.539436  9932 net.cpp:443] resx13_concat_resx13_concat_relu_0_split -> resx13_concat_resx13_concat_relu_0_split_0
I0817 10:46:20.539443  9932 net.cpp:443] resx13_concat_resx13_concat_relu_0_split -> resx13_concat_resx13_concat_relu_0_split_1
I0817 10:46:20.539487  9932 net.cpp:141] Setting up resx13_concat_resx13_concat_relu_0_split
I0817 10:46:20.539494  9932 net.cpp:148] Top shape: 40 960 7 7 (1881600)
I0817 10:46:20.539499  9932 net.cpp:148] Top shape: 40 960 7 7 (1881600)
I0817 10:46:20.539501  9932 net.cpp:156] Memory required for data: 2547875040
I0817 10:46:20.539505  9932 layer_factory.hpp:77] Creating layer resx14_conv1
I0817 10:46:20.539513  9932 net.cpp:91] Creating Layer resx14_conv1
I0817 10:46:20.539517  9932 net.cpp:469] resx14_conv1 <- resx13_concat_resx13_concat_relu_0_split_0
I0817 10:46:20.539523  9932 net.cpp:443] resx14_conv1 -> resx14_conv1
I0817 10:46:20.545012  9932 net.cpp:141] Setting up resx14_conv1
I0817 10:46:20.545029  9932 net.cpp:148] Top shape: 40 240 7 7 (470400)
I0817 10:46:20.545033  9932 net.cpp:156] Memory required for data: 2549756640
I0817 10:46:20.545039  9932 layer_factory.hpp:77] Creating layer resx14_conv1_bn
I0817 10:46:20.545045  9932 net.cpp:91] Creating Layer resx14_conv1_bn
I0817 10:46:20.545049  9932 net.cpp:469] resx14_conv1_bn <- resx14_conv1
I0817 10:46:20.545056  9932 net.cpp:430] resx14_conv1_bn -> resx14_conv1 (in-place)
I0817 10:46:20.545276  9932 net.cpp:141] Setting up resx14_conv1_bn
I0817 10:46:20.545285  9932 net.cpp:148] Top shape: 40 240 7 7 (470400)
I0817 10:46:20.545289  9932 net.cpp:156] Memory required for data: 2551638240
I0817 10:46:20.545296  9932 layer_factory.hpp:77] Creating layer resx14_conv1_scale
I0817 10:46:20.545302  9932 net.cpp:91] Creating Layer resx14_conv1_scale
I0817 10:46:20.545306  9932 net.cpp:469] resx14_conv1_scale <- resx14_conv1
I0817 10:46:20.545313  9932 net.cpp:430] resx14_conv1_scale -> resx14_conv1 (in-place)
I0817 10:46:20.545356  9932 layer_factory.hpp:77] Creating layer resx14_conv1_scale
I0817 10:46:20.545473  9932 net.cpp:141] Setting up resx14_conv1_scale
I0817 10:46:20.545480  9932 net.cpp:148] Top shape: 40 240 7 7 (470400)
I0817 10:46:20.545483  9932 net.cpp:156] Memory required for data: 2553519840
I0817 10:46:20.545488  9932 layer_factory.hpp:77] Creating layer resx14_conv1_relu
I0817 10:46:20.545495  9932 net.cpp:91] Creating Layer resx14_conv1_relu
I0817 10:46:20.545500  9932 net.cpp:469] resx14_conv1_relu <- resx14_conv1
I0817 10:46:20.545503  9932 net.cpp:430] resx14_conv1_relu -> resx14_conv1 (in-place)
I0817 10:46:20.545867  9932 net.cpp:141] Setting up resx14_conv1_relu
I0817 10:46:20.545879  9932 net.cpp:148] Top shape: 40 240 7 7 (470400)
I0817 10:46:20.545883  9932 net.cpp:156] Memory required for data: 2555401440
I0817 10:46:20.545887  9932 layer_factory.hpp:77] Creating layer shuffle14
I0817 10:46:20.545898  9932 net.cpp:91] Creating Layer shuffle14
I0817 10:46:20.545908  9932 net.cpp:469] shuffle14 <- resx14_conv1
I0817 10:46:20.545914  9932 net.cpp:443] shuffle14 -> shuffle14
I0817 10:46:20.545948  9932 net.cpp:141] Setting up shuffle14
I0817 10:46:20.545955  9932 net.cpp:148] Top shape: 40 240 7 7 (470400)
I0817 10:46:20.545958  9932 net.cpp:156] Memory required for data: 2557283040
I0817 10:46:20.545961  9932 layer_factory.hpp:77] Creating layer resx14_conv2
I0817 10:46:20.545969  9932 net.cpp:91] Creating Layer resx14_conv2
I0817 10:46:20.545974  9932 net.cpp:469] resx14_conv2 <- shuffle14
I0817 10:46:20.545979  9932 net.cpp:443] resx14_conv2 -> resx14_conv2
I0817 10:46:20.546175  9932 net.cpp:141] Setting up resx14_conv2
I0817 10:46:20.546183  9932 net.cpp:148] Top shape: 40 240 7 7 (470400)
I0817 10:46:20.546187  9932 net.cpp:156] Memory required for data: 2559164640
I0817 10:46:20.546191  9932 layer_factory.hpp:77] Creating layer resx14_conv2_bn
I0817 10:46:20.546200  9932 net.cpp:91] Creating Layer resx14_conv2_bn
I0817 10:46:20.546203  9932 net.cpp:469] resx14_conv2_bn <- resx14_conv2
I0817 10:46:20.546208  9932 net.cpp:430] resx14_conv2_bn -> resx14_conv2 (in-place)
I0817 10:46:20.546406  9932 net.cpp:141] Setting up resx14_conv2_bn
I0817 10:46:20.546412  9932 net.cpp:148] Top shape: 40 240 7 7 (470400)
I0817 10:46:20.546416  9932 net.cpp:156] Memory required for data: 2561046240
I0817 10:46:20.546422  9932 layer_factory.hpp:77] Creating layer resx14_conv2_scale
I0817 10:46:20.546428  9932 net.cpp:91] Creating Layer resx14_conv2_scale
I0817 10:46:20.546432  9932 net.cpp:469] resx14_conv2_scale <- resx14_conv2
I0817 10:46:20.546437  9932 net.cpp:430] resx14_conv2_scale -> resx14_conv2 (in-place)
I0817 10:46:20.546479  9932 layer_factory.hpp:77] Creating layer resx14_conv2_scale
I0817 10:46:20.546598  9932 net.cpp:141] Setting up resx14_conv2_scale
I0817 10:46:20.546605  9932 net.cpp:148] Top shape: 40 240 7 7 (470400)
I0817 10:46:20.546608  9932 net.cpp:156] Memory required for data: 2562927840
I0817 10:46:20.546614  9932 layer_factory.hpp:77] Creating layer resx14_conv3
I0817 10:46:20.546622  9932 net.cpp:91] Creating Layer resx14_conv3
I0817 10:46:20.546625  9932 net.cpp:469] resx14_conv3 <- resx14_conv2
I0817 10:46:20.546631  9932 net.cpp:443] resx14_conv3 -> resx14_conv3
I0817 10:46:20.551147  9932 net.cpp:141] Setting up resx14_conv3
I0817 10:46:20.551162  9932 net.cpp:148] Top shape: 40 960 7 7 (1881600)
I0817 10:46:20.551165  9932 net.cpp:156] Memory required for data: 2570454240
I0817 10:46:20.551170  9932 layer_factory.hpp:77] Creating layer resx14_conv3_bn
I0817 10:46:20.551178  9932 net.cpp:91] Creating Layer resx14_conv3_bn
I0817 10:46:20.551183  9932 net.cpp:469] resx14_conv3_bn <- resx14_conv3
I0817 10:46:20.551188  9932 net.cpp:430] resx14_conv3_bn -> resx14_conv3 (in-place)
I0817 10:46:20.551424  9932 net.cpp:141] Setting up resx14_conv3_bn
I0817 10:46:20.551432  9932 net.cpp:148] Top shape: 40 960 7 7 (1881600)
I0817 10:46:20.551435  9932 net.cpp:156] Memory required for data: 2577980640
I0817 10:46:20.551442  9932 layer_factory.hpp:77] Creating layer resx14_conv3_scale
I0817 10:46:20.551450  9932 net.cpp:91] Creating Layer resx14_conv3_scale
I0817 10:46:20.551453  9932 net.cpp:469] resx14_conv3_scale <- resx14_conv3
I0817 10:46:20.551457  9932 net.cpp:430] resx14_conv3_scale -> resx14_conv3 (in-place)
I0817 10:46:20.551519  9932 layer_factory.hpp:77] Creating layer resx14_conv3_scale
I0817 10:46:20.551662  9932 net.cpp:141] Setting up resx14_conv3_scale
I0817 10:46:20.551671  9932 net.cpp:148] Top shape: 40 960 7 7 (1881600)
I0817 10:46:20.551674  9932 net.cpp:156] Memory required for data: 2585507040
I0817 10:46:20.551708  9932 layer_factory.hpp:77] Creating layer resx14_elewise
I0817 10:46:20.551715  9932 net.cpp:91] Creating Layer resx14_elewise
I0817 10:46:20.551720  9932 net.cpp:469] resx14_elewise <- resx13_concat_resx13_concat_relu_0_split_1
I0817 10:46:20.551724  9932 net.cpp:469] resx14_elewise <- resx14_conv3
I0817 10:46:20.551729  9932 net.cpp:443] resx14_elewise -> resx14_elewise
I0817 10:46:20.551761  9932 net.cpp:141] Setting up resx14_elewise
I0817 10:46:20.551774  9932 net.cpp:148] Top shape: 40 960 7 7 (1881600)
I0817 10:46:20.551777  9932 net.cpp:156] Memory required for data: 2593033440
I0817 10:46:20.551780  9932 layer_factory.hpp:77] Creating layer resx14_elewise_relu
I0817 10:46:20.551785  9932 net.cpp:91] Creating Layer resx14_elewise_relu
I0817 10:46:20.551789  9932 net.cpp:469] resx14_elewise_relu <- resx14_elewise
I0817 10:46:20.551795  9932 net.cpp:430] resx14_elewise_relu -> resx14_elewise (in-place)
I0817 10:46:20.552160  9932 net.cpp:141] Setting up resx14_elewise_relu
I0817 10:46:20.552172  9932 net.cpp:148] Top shape: 40 960 7 7 (1881600)
I0817 10:46:20.552175  9932 net.cpp:156] Memory required for data: 2600559840
I0817 10:46:20.552179  9932 layer_factory.hpp:77] Creating layer resx14_elewise_resx14_elewise_relu_0_split
I0817 10:46:20.552186  9932 net.cpp:91] Creating Layer resx14_elewise_resx14_elewise_relu_0_split
I0817 10:46:20.552191  9932 net.cpp:469] resx14_elewise_resx14_elewise_relu_0_split <- resx14_elewise
I0817 10:46:20.552196  9932 net.cpp:443] resx14_elewise_resx14_elewise_relu_0_split -> resx14_elewise_resx14_elewise_relu_0_split_0
I0817 10:46:20.552201  9932 net.cpp:443] resx14_elewise_resx14_elewise_relu_0_split -> resx14_elewise_resx14_elewise_relu_0_split_1
I0817 10:46:20.552248  9932 net.cpp:141] Setting up resx14_elewise_resx14_elewise_relu_0_split
I0817 10:46:20.552255  9932 net.cpp:148] Top shape: 40 960 7 7 (1881600)
I0817 10:46:20.552259  9932 net.cpp:148] Top shape: 40 960 7 7 (1881600)
I0817 10:46:20.552263  9932 net.cpp:156] Memory required for data: 2615612640
I0817 10:46:20.552265  9932 layer_factory.hpp:77] Creating layer resx15_conv1
I0817 10:46:20.552274  9932 net.cpp:91] Creating Layer resx15_conv1
I0817 10:46:20.552278  9932 net.cpp:469] resx15_conv1 <- resx14_elewise_resx14_elewise_relu_0_split_0
I0817 10:46:20.552284  9932 net.cpp:443] resx15_conv1 -> resx15_conv1
I0817 10:46:20.557505  9932 net.cpp:141] Setting up resx15_conv1
I0817 10:46:20.557519  9932 net.cpp:148] Top shape: 40 240 7 7 (470400)
I0817 10:46:20.557523  9932 net.cpp:156] Memory required for data: 2617494240
I0817 10:46:20.557528  9932 layer_factory.hpp:77] Creating layer resx15_conv1_bn
I0817 10:46:20.557538  9932 net.cpp:91] Creating Layer resx15_conv1_bn
I0817 10:46:20.557541  9932 net.cpp:469] resx15_conv1_bn <- resx15_conv1
I0817 10:46:20.557546  9932 net.cpp:430] resx15_conv1_bn -> resx15_conv1 (in-place)
I0817 10:46:20.557754  9932 net.cpp:141] Setting up resx15_conv1_bn
I0817 10:46:20.557761  9932 net.cpp:148] Top shape: 40 240 7 7 (470400)
I0817 10:46:20.557765  9932 net.cpp:156] Memory required for data: 2619375840
I0817 10:46:20.557771  9932 layer_factory.hpp:77] Creating layer resx15_conv1_scale
I0817 10:46:20.557778  9932 net.cpp:91] Creating Layer resx15_conv1_scale
I0817 10:46:20.557781  9932 net.cpp:469] resx15_conv1_scale <- resx15_conv1
I0817 10:46:20.557786  9932 net.cpp:430] resx15_conv1_scale -> resx15_conv1 (in-place)
I0817 10:46:20.557829  9932 layer_factory.hpp:77] Creating layer resx15_conv1_scale
I0817 10:46:20.557948  9932 net.cpp:141] Setting up resx15_conv1_scale
I0817 10:46:20.557955  9932 net.cpp:148] Top shape: 40 240 7 7 (470400)
I0817 10:46:20.557958  9932 net.cpp:156] Memory required for data: 2621257440
I0817 10:46:20.557965  9932 layer_factory.hpp:77] Creating layer resx15_conv1_relu
I0817 10:46:20.557970  9932 net.cpp:91] Creating Layer resx15_conv1_relu
I0817 10:46:20.557973  9932 net.cpp:469] resx15_conv1_relu <- resx15_conv1
I0817 10:46:20.557977  9932 net.cpp:430] resx15_conv1_relu -> resx15_conv1 (in-place)
I0817 10:46:20.558346  9932 net.cpp:141] Setting up resx15_conv1_relu
I0817 10:46:20.558357  9932 net.cpp:148] Top shape: 40 240 7 7 (470400)
I0817 10:46:20.558360  9932 net.cpp:156] Memory required for data: 2623139040
I0817 10:46:20.558364  9932 layer_factory.hpp:77] Creating layer shuffle15
I0817 10:46:20.558372  9932 net.cpp:91] Creating Layer shuffle15
I0817 10:46:20.558377  9932 net.cpp:469] shuffle15 <- resx15_conv1
I0817 10:46:20.558385  9932 net.cpp:443] shuffle15 -> shuffle15
I0817 10:46:20.558424  9932 net.cpp:141] Setting up shuffle15
I0817 10:46:20.558431  9932 net.cpp:148] Top shape: 40 240 7 7 (470400)
I0817 10:46:20.558434  9932 net.cpp:156] Memory required for data: 2625020640
I0817 10:46:20.558439  9932 layer_factory.hpp:77] Creating layer resx15_conv2
I0817 10:46:20.558446  9932 net.cpp:91] Creating Layer resx15_conv2
I0817 10:46:20.558450  9932 net.cpp:469] resx15_conv2 <- shuffle15
I0817 10:46:20.558456  9932 net.cpp:443] resx15_conv2 -> resx15_conv2
I0817 10:46:20.558652  9932 net.cpp:141] Setting up resx15_conv2
I0817 10:46:20.558661  9932 net.cpp:148] Top shape: 40 240 7 7 (470400)
I0817 10:46:20.558665  9932 net.cpp:156] Memory required for data: 2626902240
I0817 10:46:20.558670  9932 layer_factory.hpp:77] Creating layer resx15_conv2_bn
I0817 10:46:20.558677  9932 net.cpp:91] Creating Layer resx15_conv2_bn
I0817 10:46:20.558681  9932 net.cpp:469] resx15_conv2_bn <- resx15_conv2
I0817 10:46:20.558687  9932 net.cpp:430] resx15_conv2_bn -> resx15_conv2 (in-place)
I0817 10:46:20.558887  9932 net.cpp:141] Setting up resx15_conv2_bn
I0817 10:46:20.558894  9932 net.cpp:148] Top shape: 40 240 7 7 (470400)
I0817 10:46:20.558897  9932 net.cpp:156] Memory required for data: 2628783840
I0817 10:46:20.558904  9932 layer_factory.hpp:77] Creating layer resx15_conv2_scale
I0817 10:46:20.558914  9932 net.cpp:91] Creating Layer resx15_conv2_scale
I0817 10:46:20.558918  9932 net.cpp:469] resx15_conv2_scale <- resx15_conv2
I0817 10:46:20.558923  9932 net.cpp:430] resx15_conv2_scale -> resx15_conv2 (in-place)
I0817 10:46:20.558965  9932 layer_factory.hpp:77] Creating layer resx15_conv2_scale
I0817 10:46:20.559084  9932 net.cpp:141] Setting up resx15_conv2_scale
I0817 10:46:20.559092  9932 net.cpp:148] Top shape: 40 240 7 7 (470400)
I0817 10:46:20.559096  9932 net.cpp:156] Memory required for data: 2630665440
I0817 10:46:20.559101  9932 layer_factory.hpp:77] Creating layer resx15_conv3
I0817 10:46:20.559109  9932 net.cpp:91] Creating Layer resx15_conv3
I0817 10:46:20.559113  9932 net.cpp:469] resx15_conv3 <- resx15_conv2
I0817 10:46:20.559119  9932 net.cpp:443] resx15_conv3 -> resx15_conv3
I0817 10:46:20.563637  9932 net.cpp:141] Setting up resx15_conv3
I0817 10:46:20.563650  9932 net.cpp:148] Top shape: 40 960 7 7 (1881600)
I0817 10:46:20.563654  9932 net.cpp:156] Memory required for data: 2638191840
I0817 10:46:20.563659  9932 layer_factory.hpp:77] Creating layer resx15_conv3_bn
I0817 10:46:20.563669  9932 net.cpp:91] Creating Layer resx15_conv3_bn
I0817 10:46:20.563674  9932 net.cpp:469] resx15_conv3_bn <- resx15_conv3
I0817 10:46:20.563680  9932 net.cpp:430] resx15_conv3_bn -> resx15_conv3 (in-place)
I0817 10:46:20.563917  9932 net.cpp:141] Setting up resx15_conv3_bn
I0817 10:46:20.563925  9932 net.cpp:148] Top shape: 40 960 7 7 (1881600)
I0817 10:46:20.563928  9932 net.cpp:156] Memory required for data: 2645718240
I0817 10:46:20.563935  9932 layer_factory.hpp:77] Creating layer resx15_conv3_scale
I0817 10:46:20.563942  9932 net.cpp:91] Creating Layer resx15_conv3_scale
I0817 10:46:20.563946  9932 net.cpp:469] resx15_conv3_scale <- resx15_conv3
I0817 10:46:20.563951  9932 net.cpp:430] resx15_conv3_scale -> resx15_conv3 (in-place)
I0817 10:46:20.564012  9932 layer_factory.hpp:77] Creating layer resx15_conv3_scale
I0817 10:46:20.564157  9932 net.cpp:141] Setting up resx15_conv3_scale
I0817 10:46:20.564164  9932 net.cpp:148] Top shape: 40 960 7 7 (1881600)
I0817 10:46:20.564168  9932 net.cpp:156] Memory required for data: 2653244640
I0817 10:46:20.564173  9932 layer_factory.hpp:77] Creating layer resx15_elewise
I0817 10:46:20.564179  9932 net.cpp:91] Creating Layer resx15_elewise
I0817 10:46:20.564183  9932 net.cpp:469] resx15_elewise <- resx14_elewise_resx14_elewise_relu_0_split_1
I0817 10:46:20.564188  9932 net.cpp:469] resx15_elewise <- resx15_conv3
I0817 10:46:20.564193  9932 net.cpp:443] resx15_elewise -> resx15_elewise
I0817 10:46:20.564219  9932 net.cpp:141] Setting up resx15_elewise
I0817 10:46:20.564225  9932 net.cpp:148] Top shape: 40 960 7 7 (1881600)
I0817 10:46:20.564237  9932 net.cpp:156] Memory required for data: 2660771040
I0817 10:46:20.564240  9932 layer_factory.hpp:77] Creating layer resx15_elewise_relu
I0817 10:46:20.564247  9932 net.cpp:91] Creating Layer resx15_elewise_relu
I0817 10:46:20.564251  9932 net.cpp:469] resx15_elewise_relu <- resx15_elewise
I0817 10:46:20.564255  9932 net.cpp:430] resx15_elewise_relu -> resx15_elewise (in-place)
I0817 10:46:20.564621  9932 net.cpp:141] Setting up resx15_elewise_relu
I0817 10:46:20.564635  9932 net.cpp:148] Top shape: 40 960 7 7 (1881600)
I0817 10:46:20.564637  9932 net.cpp:156] Memory required for data: 2668297440
I0817 10:46:20.564641  9932 layer_factory.hpp:77] Creating layer resx15_elewise_resx15_elewise_relu_0_split
I0817 10:46:20.564647  9932 net.cpp:91] Creating Layer resx15_elewise_resx15_elewise_relu_0_split
I0817 10:46:20.564651  9932 net.cpp:469] resx15_elewise_resx15_elewise_relu_0_split <- resx15_elewise
I0817 10:46:20.564656  9932 net.cpp:443] resx15_elewise_resx15_elewise_relu_0_split -> resx15_elewise_resx15_elewise_relu_0_split_0
I0817 10:46:20.564662  9932 net.cpp:443] resx15_elewise_resx15_elewise_relu_0_split -> resx15_elewise_resx15_elewise_relu_0_split_1
I0817 10:46:20.564709  9932 net.cpp:141] Setting up resx15_elewise_resx15_elewise_relu_0_split
I0817 10:46:20.564716  9932 net.cpp:148] Top shape: 40 960 7 7 (1881600)
I0817 10:46:20.564720  9932 net.cpp:148] Top shape: 40 960 7 7 (1881600)
I0817 10:46:20.564723  9932 net.cpp:156] Memory required for data: 2683350240
I0817 10:46:20.564726  9932 layer_factory.hpp:77] Creating layer resx16_conv1
I0817 10:46:20.564735  9932 net.cpp:91] Creating Layer resx16_conv1
I0817 10:46:20.564740  9932 net.cpp:469] resx16_conv1 <- resx15_elewise_resx15_elewise_relu_0_split_0
I0817 10:46:20.564746  9932 net.cpp:443] resx16_conv1 -> resx16_conv1
I0817 10:46:20.569461  9932 net.cpp:141] Setting up resx16_conv1
I0817 10:46:20.569475  9932 net.cpp:148] Top shape: 40 240 7 7 (470400)
I0817 10:46:20.569479  9932 net.cpp:156] Memory required for data: 2685231840
I0817 10:46:20.569485  9932 layer_factory.hpp:77] Creating layer resx16_conv1_bn
I0817 10:46:20.569491  9932 net.cpp:91] Creating Layer resx16_conv1_bn
I0817 10:46:20.569495  9932 net.cpp:469] resx16_conv1_bn <- resx16_conv1
I0817 10:46:20.569502  9932 net.cpp:430] resx16_conv1_bn -> resx16_conv1 (in-place)
I0817 10:46:20.569711  9932 net.cpp:141] Setting up resx16_conv1_bn
I0817 10:46:20.569718  9932 net.cpp:148] Top shape: 40 240 7 7 (470400)
I0817 10:46:20.569721  9932 net.cpp:156] Memory required for data: 2687113440
I0817 10:46:20.569728  9932 layer_factory.hpp:77] Creating layer resx16_conv1_scale
I0817 10:46:20.569736  9932 net.cpp:91] Creating Layer resx16_conv1_scale
I0817 10:46:20.569738  9932 net.cpp:469] resx16_conv1_scale <- resx16_conv1
I0817 10:46:20.569744  9932 net.cpp:430] resx16_conv1_scale -> resx16_conv1 (in-place)
I0817 10:46:20.569787  9932 layer_factory.hpp:77] Creating layer resx16_conv1_scale
I0817 10:46:20.569911  9932 net.cpp:141] Setting up resx16_conv1_scale
I0817 10:46:20.569918  9932 net.cpp:148] Top shape: 40 240 7 7 (470400)
I0817 10:46:20.569921  9932 net.cpp:156] Memory required for data: 2688995040
I0817 10:46:20.569926  9932 layer_factory.hpp:77] Creating layer resx16_conv1_relu
I0817 10:46:20.569933  9932 net.cpp:91] Creating Layer resx16_conv1_relu
I0817 10:46:20.569937  9932 net.cpp:469] resx16_conv1_relu <- resx16_conv1
I0817 10:46:20.569941  9932 net.cpp:430] resx16_conv1_relu -> resx16_conv1 (in-place)
I0817 10:46:20.570304  9932 net.cpp:141] Setting up resx16_conv1_relu
I0817 10:46:20.570317  9932 net.cpp:148] Top shape: 40 240 7 7 (470400)
I0817 10:46:20.570320  9932 net.cpp:156] Memory required for data: 2690876640
I0817 10:46:20.570323  9932 layer_factory.hpp:77] Creating layer shuffle16
I0817 10:46:20.570332  9932 net.cpp:91] Creating Layer shuffle16
I0817 10:46:20.570335  9932 net.cpp:469] shuffle16 <- resx16_conv1
I0817 10:46:20.570340  9932 net.cpp:443] shuffle16 -> shuffle16
I0817 10:46:20.570374  9932 net.cpp:141] Setting up shuffle16
I0817 10:46:20.570385  9932 net.cpp:148] Top shape: 40 240 7 7 (470400)
I0817 10:46:20.570394  9932 net.cpp:156] Memory required for data: 2692758240
I0817 10:46:20.570396  9932 layer_factory.hpp:77] Creating layer resx16_conv2
I0817 10:46:20.570405  9932 net.cpp:91] Creating Layer resx16_conv2
I0817 10:46:20.570408  9932 net.cpp:469] resx16_conv2 <- shuffle16
I0817 10:46:20.570413  9932 net.cpp:443] resx16_conv2 -> resx16_conv2
I0817 10:46:20.570611  9932 net.cpp:141] Setting up resx16_conv2
I0817 10:46:20.570621  9932 net.cpp:148] Top shape: 40 240 7 7 (470400)
I0817 10:46:20.570624  9932 net.cpp:156] Memory required for data: 2694639840
I0817 10:46:20.570629  9932 layer_factory.hpp:77] Creating layer resx16_conv2_bn
I0817 10:46:20.570637  9932 net.cpp:91] Creating Layer resx16_conv2_bn
I0817 10:46:20.570641  9932 net.cpp:469] resx16_conv2_bn <- resx16_conv2
I0817 10:46:20.570646  9932 net.cpp:430] resx16_conv2_bn -> resx16_conv2 (in-place)
I0817 10:46:20.570852  9932 net.cpp:141] Setting up resx16_conv2_bn
I0817 10:46:20.570858  9932 net.cpp:148] Top shape: 40 240 7 7 (470400)
I0817 10:46:20.570861  9932 net.cpp:156] Memory required for data: 2696521440
I0817 10:46:20.570868  9932 layer_factory.hpp:77] Creating layer resx16_conv2_scale
I0817 10:46:20.570874  9932 net.cpp:91] Creating Layer resx16_conv2_scale
I0817 10:46:20.570878  9932 net.cpp:469] resx16_conv2_scale <- resx16_conv2
I0817 10:46:20.570883  9932 net.cpp:430] resx16_conv2_scale -> resx16_conv2 (in-place)
I0817 10:46:20.570925  9932 layer_factory.hpp:77] Creating layer resx16_conv2_scale
I0817 10:46:20.571048  9932 net.cpp:141] Setting up resx16_conv2_scale
I0817 10:46:20.571055  9932 net.cpp:148] Top shape: 40 240 7 7 (470400)
I0817 10:46:20.571058  9932 net.cpp:156] Memory required for data: 2698403040
I0817 10:46:20.571064  9932 layer_factory.hpp:77] Creating layer resx16_conv3
I0817 10:46:20.571072  9932 net.cpp:91] Creating Layer resx16_conv3
I0817 10:46:20.571076  9932 net.cpp:469] resx16_conv3 <- resx16_conv2
I0817 10:46:20.571081  9932 net.cpp:443] resx16_conv3 -> resx16_conv3
I0817 10:46:20.576294  9932 net.cpp:141] Setting up resx16_conv3
I0817 10:46:20.576308  9932 net.cpp:148] Top shape: 40 960 7 7 (1881600)
I0817 10:46:20.576313  9932 net.cpp:156] Memory required for data: 2705929440
I0817 10:46:20.576318  9932 layer_factory.hpp:77] Creating layer resx16_conv3_bn
I0817 10:46:20.576325  9932 net.cpp:91] Creating Layer resx16_conv3_bn
I0817 10:46:20.576330  9932 net.cpp:469] resx16_conv3_bn <- resx16_conv3
I0817 10:46:20.576335  9932 net.cpp:430] resx16_conv3_bn -> resx16_conv3 (in-place)
I0817 10:46:20.576580  9932 net.cpp:141] Setting up resx16_conv3_bn
I0817 10:46:20.576587  9932 net.cpp:148] Top shape: 40 960 7 7 (1881600)
I0817 10:46:20.576591  9932 net.cpp:156] Memory required for data: 2713455840
I0817 10:46:20.576597  9932 layer_factory.hpp:77] Creating layer resx16_conv3_scale
I0817 10:46:20.576603  9932 net.cpp:91] Creating Layer resx16_conv3_scale
I0817 10:46:20.576607  9932 net.cpp:469] resx16_conv3_scale <- resx16_conv3
I0817 10:46:20.576612  9932 net.cpp:430] resx16_conv3_scale -> resx16_conv3 (in-place)
I0817 10:46:20.576678  9932 layer_factory.hpp:77] Creating layer resx16_conv3_scale
I0817 10:46:20.576828  9932 net.cpp:141] Setting up resx16_conv3_scale
I0817 10:46:20.576835  9932 net.cpp:148] Top shape: 40 960 7 7 (1881600)
I0817 10:46:20.576838  9932 net.cpp:156] Memory required for data: 2720982240
I0817 10:46:20.576844  9932 layer_factory.hpp:77] Creating layer resx16_elewise
I0817 10:46:20.576849  9932 net.cpp:91] Creating Layer resx16_elewise
I0817 10:46:20.576854  9932 net.cpp:469] resx16_elewise <- resx15_elewise_resx15_elewise_relu_0_split_1
I0817 10:46:20.576858  9932 net.cpp:469] resx16_elewise <- resx16_conv3
I0817 10:46:20.576863  9932 net.cpp:443] resx16_elewise -> resx16_elewise
I0817 10:46:20.576891  9932 net.cpp:141] Setting up resx16_elewise
I0817 10:46:20.576897  9932 net.cpp:148] Top shape: 40 960 7 7 (1881600)
I0817 10:46:20.576901  9932 net.cpp:156] Memory required for data: 2728508640
I0817 10:46:20.576907  9932 layer_factory.hpp:77] Creating layer resx16_elewise_relu
I0817 10:46:20.576920  9932 net.cpp:91] Creating Layer resx16_elewise_relu
I0817 10:46:20.576923  9932 net.cpp:469] resx16_elewise_relu <- resx16_elewise
I0817 10:46:20.576928  9932 net.cpp:430] resx16_elewise_relu -> resx16_elewise (in-place)
I0817 10:46:20.577495  9932 net.cpp:141] Setting up resx16_elewise_relu
I0817 10:46:20.577509  9932 net.cpp:148] Top shape: 40 960 7 7 (1881600)
I0817 10:46:20.577513  9932 net.cpp:156] Memory required for data: 2736035040
I0817 10:46:20.577517  9932 layer_factory.hpp:77] Creating layer pool_ave
I0817 10:46:20.577536  9932 net.cpp:91] Creating Layer pool_ave
I0817 10:46:20.577540  9932 net.cpp:469] pool_ave <- resx16_elewise
I0817 10:46:20.577545  9932 net.cpp:443] pool_ave -> pool_ave
I0817 10:46:20.577754  9932 net.cpp:141] Setting up pool_ave
I0817 10:46:20.577764  9932 net.cpp:148] Top shape: 40 960 1 1 (38400)
I0817 10:46:20.577767  9932 net.cpp:156] Memory required for data: 2736188640
I0817 10:46:20.577771  9932 layer_factory.hpp:77] Creating layer fc1000
I0817 10:46:20.577781  9932 net.cpp:91] Creating Layer fc1000
I0817 10:46:20.577785  9932 net.cpp:469] fc1000 <- pool_ave
I0817 10:46:20.577791  9932 net.cpp:443] fc1000 -> fc1000
I0817 10:46:20.603665  9932 net.cpp:141] Setting up fc1000
I0817 10:46:20.603682  9932 net.cpp:148] Top shape: 40 1000 1 1 (40000)
I0817 10:46:20.603687  9932 net.cpp:156] Memory required for data: 2736348640
I0817 10:46:20.603693  9932 layer_factory.hpp:77] Creating layer fc1000_fc1000_0_split
I0817 10:46:20.603698  9932 net.cpp:91] Creating Layer fc1000_fc1000_0_split
I0817 10:46:20.603703  9932 net.cpp:469] fc1000_fc1000_0_split <- fc1000
I0817 10:46:20.603708  9932 net.cpp:443] fc1000_fc1000_0_split -> fc1000_fc1000_0_split_0
I0817 10:46:20.603714  9932 net.cpp:443] fc1000_fc1000_0_split -> fc1000_fc1000_0_split_1
I0817 10:46:20.603760  9932 net.cpp:141] Setting up fc1000_fc1000_0_split
I0817 10:46:20.603767  9932 net.cpp:148] Top shape: 40 1000 1 1 (40000)
I0817 10:46:20.603771  9932 net.cpp:148] Top shape: 40 1000 1 1 (40000)
I0817 10:46:20.603775  9932 net.cpp:156] Memory required for data: 2736668640
I0817 10:46:20.603778  9932 layer_factory.hpp:77] Creating layer accuracy
I0817 10:46:20.603790  9932 net.cpp:91] Creating Layer accuracy
I0817 10:46:20.603794  9932 net.cpp:469] accuracy <- fc1000_fc1000_0_split_0
I0817 10:46:20.603801  9932 net.cpp:469] accuracy <- label_data_1_split_0
I0817 10:46:20.603804  9932 net.cpp:443] accuracy -> accuracy
…
