…
I0817 23:01:25.660892 30036 net.cpp:313] The NetState phase (0) differed from the phase (1) specified by a rule in layer accuracy
I0817 23:01:25.661906 30036 net.cpp:49] Initializing net from parameters: 
name: "shufflenet"
state {
  phase: TRAIN
}
layer {
  name: "data"
  type: "Data"
  top: "data"
  top: "label"
  include {
    phase: TRAIN
  }
  transform_param {
    scale: 0.017
    mirror: false
    crop_size: 224
    mean_value: 103.94
    mean_value: 116.78
    mean_value: 123.68
  }
  data_param {
    source: "/home/chenyao/ilsvrc12/ilsvrc12_train_lmdb"
    batch_size: 80
    backend: LMDB
  }
}
layer {
  name: "conv1"
  type: "Convolution"
  bottom: "data"
  top: "conv1"
  convolution_param {
    num_output: 24
    bias_term: false
    pad: 1
    kernel_size: 3
    stride: 2
    weight_filler {
      type: "msra"
    }
  }
}
layer {
  name: "conv1_bn"
  type: "BatchNorm"
  bottom: "conv1"
  top: "conv1"
  param {
    lr_mult: 0
    decay_mult: 0
  }
  param {
    lr_mult: 0
    decay_mult: 0
  }
  param {
    lr_mult: 0
    decay_mult: 0
  }
}
layer {
  name: "conv1_scale"
  type: "Scale"
  bottom: "conv1"
  top: "conv1"
  scale_param {
    filler {
      value: 1
    }
    bias_term: true
    bias_filler {
      value: 0
    }
  }
}
layer {
  name: "conv1_relu"
  type: "ReLU"
  bottom: "conv1"
  top: "conv1"
}
layer {
  name: "pool1"
  type: "Pooling"
  bottom: "conv1"
  top: "pool1"
  pooling_param {
    pool: MAX
    kernel_size: 3
    stride: 2
  }
}
layer {
  name: "resx1_match_conv"
  type: "Pooling"
  bottom: "pool1"
  top: "resx1_match_conv"
  pooling_param {
    pool: AVE
    kernel_size: 3
    stride: 2
  }
}
layer {
  name: "resx1_conv1"
  type: "Convolution"
  bottom: "pool1"
  top: "resx1_conv1"
  convolution_param {
    num_output: 54
    bias_term: false
    pad: 0
    kernel_size: 1
    stride: 1
    weight_filler {
      type: "msra"
    }
  }
}
layer {
  name: "resx1_conv1_bn"
  type: "BatchNorm"
  bottom: "resx1_conv1"
  top: "resx1_conv1"
  param {
    lr_mult: 0
    decay_mult: 0
  }
  param {
    lr_mult: 0
    decay_mult: 0
  }
  param {
    lr_mult: 0
    decay_mult: 0
  }
}
layer {
  name: "resx1_conv1_scale"
  type: "Scale"
  bottom: "resx1_conv1"
  top: "resx1_conv1"
  scale_param {
    filler {
      value: 1
    }
    bias_term: true
    bias_filler {
      value: 0
    }
  }
}
layer {
  name: "resx1_conv1_relu"
  type: "ReLU"
  bottom: "resx1_conv1"
  top: "resx1_conv1"
}
layer {
  name: "resx1_conv2"
  type: "ConvolutionDepthwise"
  bottom: "resx1_conv1"
  top: "resx1_conv2"
  convolution_param {
    num_output: 54
    bias_term: false
    pad: 1
    kernel_size: 3
    stride: 2
    weight_filler {
      type: "msra"
    }
  }
}
layer {
  name: "resx1_conv2_bn"
  type: "BatchNorm"
  bottom: "resx1_conv2"
  top: "resx1_conv2"
  param {
    lr_mult: 0
    decay_mult: 0
  }
  param {
    lr_mult: 0
    decay_mult: 0
  }
  param {
    lr_mult: 0
    decay_mult: 0
  }
}
layer {
  name: "resx1_conv2_scale"
  type: "Scale"
  bottom: "resx1_conv2"
  top: "resx1_conv2"
  scale_param {
    filler {
      value: 1
    }
    bias_term: true
    bias_filler {
      value: 0
    }
  }
}
layer {
  name: "resx1_conv3"
  type: "Convolution"
  bottom: "resx1_conv2"
  top: "resx1_conv3"
  convolution_param {
    num_output: 216
    bias_term: false
    pad: 0
    kernel_size: 1
    group: 3
    stride: 1
    weight_filler {
      type: "msra"
    }
  }
}
layer {
  name: "resx1_conv3_bn"
  type: "BatchNorm"
  bottom: "resx1_conv3"
  top: "resx1_conv3"
  param {
    lr_mult: 0
    decay_mult: 0
  }
  param {
    lr_mult: 0
    decay_mult: 0
  }
  param {
    lr_mult: 0
    decay_mult: 0
  }
}
layer {
  name: "resx1_conv3_scale"
  type: "Scale"
  bottom: "resx1_conv3"
  top: "resx1_conv3"
  scale_param {
    filler {
      value: 1
    }
    bias_term: true
    bias_filler {
      value: 0
    }
  }
}
layer {
  name: "resx1_concat"
  type: "Concat"
  bottom: "resx1_match_conv"
  bottom: "resx1_conv3"
  top: "resx1_concat"
}
layer {
  name: "resx1_concat_relu"
  type: "ReLU"
  bottom: "resx1_concat"
  top: "resx1_concat"
}
layer {
  name: "resx2_conv1"
  type: "Convolution"
  bottom: "resx1_concat"
  top: "resx2_conv1"
  convolution_param {
    num_output: 60
    bias_term: false
    pad: 0
    kernel_size: 1
    group: 3
    stride: 1
    weight_filler {
      type: "msra"
    }
  }
}
layer {
  name: "resx2_conv1_bn"
  type: "BatchNorm"
  bottom: "resx2_conv1"
  top: "resx2_conv1"
  param {
    lr_mult: 0
    decay_mult: 0
  }
  param {
    lr_mult: 0
    decay_mult: 0
  }
  param {
    lr_mult: 0
    decay_mult: 0
  }
}
layer {
  name: "resx2_conv1_scale"
  type: "Scale"
  bottom: "resx2_conv1"
  top: "resx2_conv1"
  scale_param {
    filler {
      value: 1
    }
    bias_term: true
    bias_filler {
      value: 0
    }
  }
}
layer {
  name: "resx2_conv1_relu"
  type: "ReLU"
  bottom: "resx2_conv1"
  top: "resx2_conv1"
}
layer {
  name: "shuffle2"
  type: "ShuffleChannel"
  bottom: "resx2_conv1"
  top: "shuffle2"
  shuffle_channel_param {
    group: 3
  }
}
layer {
  name: "resx2_conv2"
  type: "ConvolutionDepthwise"
  bottom: "shuffle2"
  top: "resx2_conv2"
  convolution_param {
    num_output: 60
    bias_term: false
    pad: 1
    kernel_size: 3
    stride: 1
    weight_filler {
      type: "msra"
    }
  }
}
layer {
  name: "resx2_conv2_bn"
  type: "BatchNorm"
  bottom: "resx2_conv2"
  top: "resx2_conv2"
  param {
    lr_mult: 0
    decay_mult: 0
  }
  param {
    lr_mult: 0
    decay_mult: 0
  }
  param {
    lr_mult: 0
    decay_mult: 0
  }
}
layer {
  name: "resx2_conv2_scale"
  type: "Scale"
  bottom: "resx2_conv2"
  top: "resx2_conv2"
  scale_param {
    filler {
      value: 1
    }
    bias_term: true
    bias_filler {
      value: 0
    }
  }
}
layer {
  name: "resx2_conv3"
  type: "Convolution"
  bottom: "resx2_conv2"
  top: "resx2_conv3"
  convolution_param {
    num_output: 240
    bias_term: false
    pad: 0
    kernel_size: 1
    group: 3
    stride: 1
    weight_filler {
      type: "msra"
    }
  }
}
layer {
  name: "resx2_conv3_bn"
  type: "BatchNorm"
  bottom: "resx2_conv3"
  top: "resx2_conv3"
  param {
    lr_mult: 0
    decay_mult: 0
  }
  param {
    lr_mult: 0
    decay_mult: 0
  }
  param {
    lr_mult: 0
    decay_mult: 0
  }
}
layer {
  name: "resx2_conv3_scale"
  type: "Scale"
  bottom: "resx2_conv3"
  top: "resx2_conv3"
  scale_param {
    filler {
      value: 1
    }
    bias_term: true
    bias_filler {
      value: 0
    }
  }
}
layer {
  name: "resx2_elewise"
  type: "Eltwise"
  bottom: "resx1_concat"
  bottom: "resx2_conv3"
  top: "resx2_elewise"
  eltwise_param {
    operation: SUM
  }
}
layer {
  name: "resx2_elewise_relu"
  type: "ReLU"
  bottom: "resx2_elewise"
  top: "resx2_elewise"
}
layer {
  name: "resx3_conv1"
  type: "Convolution"
  bottom: "resx2_elewise"
  top: "resx3_conv1"
  convolution_param {
    num_output: 60
    bias_term: false
    pad: 0
    kernel_size: 1
    group: 3
    stride: 1
    weight_filler {
      type: "msra"
    }
  }
}
layer {
  name: "resx3_conv1_bn"
  type: "BatchNorm"
  bottom: "resx3_conv1"
  top: "resx3_conv1"
  param {
    lr_mult: 0
    decay_mult: 0
  }
  param {
    lr_mult: 0
    decay_mult: 0
  }
  param {
    lr_mult: 0
    decay_mult: 0
  }
}
layer {
  name: "resx3_conv1_scale"
  type: "Scale"
  bottom: "resx3_conv1"
  top: "resx3_conv1"
  scale_param {
    filler {
      value: 1
    }
    bias_term: true
    bias_filler {
      value: 0
    }
  }
}
layer {
  name: "resx3_conv1_relu"
  type: "ReLU"
  bottom: "resx3_conv1"
  top: "resx3_conv1"
}
layer {
  name: "shuffle3"
  type: "ShuffleChannel"
  bottom: "resx3_conv1"
  top: "shuffle3"
  shuffle_channel_param {
    group: 3
  }
}
layer {
  name: "resx3_conv2"
  type: "ConvolutionDepthwise"
  bottom: "shuffle3"
  top: "resx3_conv2"
  convolution_param {
    num_output: 60
    bias_term: false
    pad: 1
    kernel_size: 3
    stride: 1
    weight_filler {
      type: "msra"
    }
  }
}
layer {
  name: "resx3_conv2_bn"
  type: "BatchNorm"
  bottom: "resx3_conv2"
  top: "resx3_conv2"
  param {
    lr_mult: 0
    decay_mult: 0
  }
  param {
    lr_mult: 0
    decay_mult: 0
  }
  param {
    lr_mult: 0
    decay_mult: 0
  }
}
layer {
  name: "resx3_conv2_scale"
  type: "Scale"
  bottom: "resx3_conv2"
  top: "resx3_conv2"
  scale_param {
    filler {
      value: 1
    }
    bias_term: true
    bias_filler {
      value: 0
    }
  }
}
layer {
  name: "resx3_conv3"
  type: "Convolution"
  bottom: "resx3_conv2"
  top: "resx3_conv3"
  convolution_param {
    num_output: 240
    bias_term: false
    pad: 0
    kernel_size: 1
    group: 3
    stride: 1
    weight_filler {
      type: "msra"
    }
  }
}
layer {
  name: "resx3_conv3_bn"
  type: "BatchNorm"
  bottom: "resx3_conv3"
  top: "resx3_conv3"
  param {
    lr_mult: 0
    decay_mult: 0
  }
  param {
    lr_mult: 0
    decay_mult: 0
  }
  param {
    lr_mult: 0
    decay_mult: 0
  }
}
layer {
  name: "resx3_conv3_scale"
  type: "Scale"
  bottom: "resx3_conv3"
  top: "resx3_conv3"
  scale_param {
    filler {
      value: 1
    }
    bias_term: true
    bias_filler {
      value: 0
    }
  }
}
layer {
  name: "resx3_elewise"
  type: "Eltwise"
  bottom: "resx2_elewise"
  bottom: "resx3_conv3"
  top: "resx3_elewise"
  eltwise_param {
    operation: SUM
  }
}
layer {
  name: "resx3_elewise_relu"
  type: "ReLU"
  bottom: "resx3_elewise"
  top: "resx3_elewise"
}
layer {
  name: "resx4_conv1"
  type: "Convolution"
  bottom: "resx3_elewise"
  top: "resx4_conv1"
  convolution_param {
    num_output: 60
    bias_term: false
    pad: 0
    kernel_size: 1
    group: 3
    stride: 1
    weight_filler {
      type: "msra"
    }
  }
}
layer {
  name: "resx4_conv1_bn"
  type: "BatchNorm"
  bottom: "resx4_conv1"
  top: "resx4_conv1"
  param {
    lr_mult: 0
    decay_mult: 0
  }
  param {
    lr_mult: 0
    decay_mult: 0
  }
  param {
    lr_mult: 0
    decay_mult: 0
  }
}
layer {
  name: "resx4_conv1_scale"
  type: "Scale"
  bottom: "resx4_conv1"
  top: "resx4_conv1"
  scale_param {
    filler {
      value: 1
    }
    bias_term: true
    bias_filler {
      value: 0
    }
  }
}
layer {
  name: "resx4_conv1_relu"
  type: "ReLU"
  bottom: "resx4_conv1"
  top: "resx4_conv1"
}
layer {
  name: "shuffle4"
  type: "ShuffleChannel"
  bottom: "resx4_conv1"
  top: "shuffle4"
  shuffle_channel_param {
    group: 3
  }
}
layer {
  name: "resx4_conv2"
  type: "ConvolutionDepthwise"
  bottom: "shuffle4"
  top: "resx4_conv2"
  convolution_param {
    num_output: 60
    bias_term: false
    pad: 1
    kernel_size: 3
    stride: 1
    weight_filler {
      type: "msra"
    }
  }
}
layer {
  name: "resx4_conv2_bn"
  type: "BatchNorm"
  bottom: "resx4_conv2"
  top: "resx4_conv2"
  param {
    lr_mult: 0
    decay_mult: 0
  }
  param {
    lr_mult: 0
    decay_mult: 0
  }
  param {
    lr_mult: 0
    decay_mult: 0
  }
}
layer {
  name: "resx4_conv2_scale"
  type: "Scale"
  bottom: "resx4_conv2"
  top: "resx4_conv2"
  scale_param {
    filler {
      value: 1
    }
    bias_term: true
    bias_filler {
      value: 0
    }
  }
}
layer {
  name: "resx4_conv3"
  type: "Convolution"
  bottom: "resx4_conv2"
  top: "resx4_conv3"
  convolution_param {
    num_output: 240
    bias_term: false
    pad: 0
    kernel_size: 1
    group: 3
    stride: 1
    weight_filler {
      type: "msra"
    }
  }
}
layer {
  name: "resx4_conv3_bn"
  type: "BatchNorm"
  bottom: "resx4_conv3"
  top: "resx4_conv3"
  param {
    lr_mult: 0
    decay_mult: 0
  }
  param {
    lr_mult: 0
    decay_mult: 0
  }
  param {
    lr_mult: 0
    decay_mult: 0
  }
}
layer {
  name: "resx4_conv3_scale"
  type: "Scale"
  bottom: "resx4_conv3"
  top: "resx4_conv3"
  scale_param {
    filler {
      value: 1
    }
    bias_term: true
    bias_filler {
      value: 0
    }
  }
}
layer {
  name: "resx4_elewise"
  type: "Eltwise"
  bottom: "resx3_elewise"
  bottom: "resx4_conv3"
  top: "resx4_elewise"
  eltwise_param {
    operation: SUM
  }
}
layer {
  name: "resx4_elewise_relu"
  type: "ReLU"
  bottom: "resx4_elewise"
  top: "resx4_elewise"
}
layer {
  name: "resx5_match_conv"
  type: "Pooling"
  bottom: "resx4_elewise"
  top: "resx5_match_conv"
  pooling_param {
    pool: AVE
    kernel_size: 3
    stride: 2
  }
}
layer {
  name: "resx5_conv1"
  type: "Convolution"
  bottom: "resx4_elewise"
  top: "resx5_conv1"
  convolution_param {
    num_output: 60
    bias_term: false
    pad: 0
    kernel_size: 1
    group: 3
    stride: 1
    weight_filler {
      type: "msra"
    }
  }
}
layer {
  name: "resx5_conv1_bn"
  type: "BatchNorm"
  bottom: "resx5_conv1"
  top: "resx5_conv1"
  param {
    lr_mult: 0
    decay_mult: 0
  }
  param {
    lr_mult: 0
    decay_mult: 0
  }
  param {
    lr_mult: 0
    decay_mult: 0
  }
}
layer {
  name: "resx5_conv1_scale"
  type: "Scale"
  bottom: "resx5_conv1"
  top: "resx5_conv1"
  scale_param {
    filler {
      value: 1
    }
    bias_term: true
    bias_filler {
      value: 0
    }
  }
}
layer {
  name: "resx5_conv1_relu"
  type: "ReLU"
  bottom: "resx5_conv1"
  top: "resx5_conv1"
}
layer {
  name: "shuffle5"
  type: "ShuffleChannel"
  bottom: "resx5_conv1"
  top: "shuffle5"
  shuffle_channel_param {
    group: 3
  }
}
layer {
  name: "resx5_conv2"
  type: "ConvolutionDepthwise"
  bottom: "shuffle5"
  top: "resx5_conv2"
  convolution_param {
    num_output: 60
    bias_term: false
    pad: 1
    kernel_size: 3
    stride: 2
    weight_filler {
      type: "msra"
    }
  }
}
layer {
  name: "resx5_conv2_bn"
  type: "BatchNorm"
  bottom: "resx5_conv2"
  top: "resx5_conv2"
  param {
    lr_mult: 0
    decay_mult: 0
  }
  param {
    lr_mult: 0
    decay_mult: 0
  }
  param {
    lr_mult: 0
    decay_mult: 0
  }
}
layer {
  name: "resx5_conv2_scale"
  type: "Scale"
  bottom: "resx5_conv2"
  top: "resx5_conv2"
  scale_param {
    filler {
      value: 1
    }
    bias_term: true
    bias_filler {
      value: 0
    }
  }
}
layer {
  name: "resx5_conv3"
  type: "Convolution"
  bottom: "resx5_conv2"
  top: "resx5_conv3"
  convolution_param {
    num_output: 240
    bias_term: false
    pad: 0
    kernel_size: 1
    group: 3
    stride: 1
    weight_filler {
      type: "msra"
    }
  }
}
layer {
  name: "resx5_conv3_bn"
  type: "BatchNorm"
  bottom: "resx5_conv3"
  top: "resx5_conv3"
  param {
    lr_mult: 0
    decay_mult: 0
  }
  param {
    lr_mult: 0
    decay_mult: 0
  }
  param {
    lr_mult: 0
    decay_mult: 0
  }
}
layer {
  name: "resx5_conv3_scale"
  type: "Scale"
  bottom: "resx5_conv3"
  top: "resx5_conv3"
  scale_param {
    filler {
      value: 1
    }
    bias_term: true
    bias_filler {
      value: 0
    }
  }
}
layer {
  name: "resx5_concat"
  type: "Concat"
  bottom: "resx5_match_conv"
  bottom: "resx5_conv3"
  top: "resx5_concat"
}
layer {
  name: "resx5_concat_relu"
  type: "ReLU"
  bottom: "resx5_concat"
  top: "resx5_concat"
}
layer {
  name: "resx6_conv1"
  type: "Convolution"
  bottom: "resx5_concat"
  top: "resx6_conv1"
  convolution_param {
    num_output: 120
    bias_term: false
    pad: 0
    kernel_size: 1
    group: 3
    stride: 1
    weight_filler {
      type: "msra"
    }
  }
}
layer {
  name: "resx6_conv1_bn"
  type: "BatchNorm"
  bottom: "resx6_conv1"
  top: "resx6_conv1"
  param {
    lr_mult: 0
    decay_mult: 0
  }
  param {
    lr_mult: 0
    decay_mult: 0
  }
  param {
    lr_mult: 0
    decay_mult: 0
  }
}
layer {
  name: "resx6_conv1_scale"
  type: "Scale"
  bottom: "resx6_conv1"
  top: "resx6_conv1"
  scale_param {
    filler {
      value: 1
    }
    bias_term: true
    bias_filler {
      value: 0
    }
  }
}
layer {
  name: "resx6_conv1_relu"
  type: "ReLU"
  bottom: "resx6_conv1"
  top: "resx6_conv1"
}
layer {
  name: "shuffle6"
  type: "ShuffleChannel"
  bottom: "resx6_conv1"
  top: "shuffle6"
  shuffle_channel_param {
    group: 3
  }
}
layer {
  name: "resx6_conv2"
  type: "ConvolutionDepthwise"
  bottom: "shuffle6"
  top: "resx6_conv2"
  convolution_param {
    num_output: 120
    bias_term: false
    pad: 1
    kernel_size: 3
    stride: 1
    weight_filler {
      type: "msra"
    }
  }
}
layer {
  name: "resx6_conv2_bn"
  type: "BatchNorm"
  bottom: "resx6_conv2"
  top: "resx6_conv2"
  param {
    lr_mult: 0
    decay_mult: 0
  }
  param {
    lr_mult: 0
    decay_mult: 0
  }
  param {
    lr_mult: 0
    decay_mult: 0
  }
}
layer {
  name: "resx6_conv2_scale"
  type: "Scale"
  bottom: "resx6_conv2"
  top: "resx6_conv2"
  scale_param {
    filler {
      value: 1
    }
    bias_term: true
    bias_filler {
      value: 0
    }
  }
}
layer {
  name: "resx6_conv3"
  type: "Convolution"
  bottom: "resx6_conv2"
  top: "resx6_conv3"
  convolution_param {
    num_output: 480
    bias_term: false
    pad: 0
    kernel_size: 1
    group: 3
    stride: 1
    weight_filler {
      type: "msra"
    }
  }
}
layer {
  name: "resx6_conv3_bn"
  type: "BatchNorm"
  bottom: "resx6_conv3"
  top: "resx6_conv3"
  param {
    lr_mult: 0
    decay_mult: 0
  }
  param {
    lr_mult: 0
    decay_mult: 0
  }
  param {
    lr_mult: 0
    decay_mult: 0
  }
}
layer {
  name: "resx6_conv3_scale"
  type: "Scale"
  bottom: "resx6_conv3"
  top: "resx6_conv3"
  scale_param {
    filler {
      value: 1
    }
    bias_term: true
    bias_filler {
      value: 0
    }
  }
}
layer {
  name: "resx6_elewise"
  type: "Eltwise"
  bottom: "resx5_concat"
  bottom: "resx6_conv3"
  top: "resx6_elewise"
  eltwise_param {
    operation: SUM
  }
}
layer {
  name: "resx6_elewise_relu"
  type: "ReLU"
  bottom: "resx6_elewise"
  top: "resx6_elewise"
}
layer {
  name: "resx7_conv1"
  type: "Convolution"
  bottom: "resx6_elewise"
  top: "resx7_conv1"
  convolution_param {
    num_output: 120
    bias_term: false
    pad: 0
    kernel_size: 1
    group: 3
    stride: 1
    weight_filler {
      type: "msra"
    }
  }
}
layer {
  name: "resx7_conv1_bn"
  type: "BatchNorm"
  bottom: "resx7_conv1"
  top: "resx7_conv1"
  param {
    lr_mult: 0
    decay_mult: 0
  }
  param {
    lr_mult: 0
    decay_mult: 0
  }
  param {
    lr_mult: 0
    decay_mult: 0
  }
}
layer {
  name: "resx7_conv1_scale"
  type: "Scale"
  bottom: "resx7_conv1"
  top: "resx7_conv1"
  scale_param {
    filler {
      value: 1
    }
    bias_term: true
    bias_filler {
      value: 0
    }
  }
}
layer {
  name: "resx7_conv1_relu"
  type: "ReLU"
  bottom: "resx7_conv1"
  top: "resx7_conv1"
}
layer {
  name: "shuffle7"
  type: "ShuffleChannel"
  bottom: "resx7_conv1"
  top: "shuffle7"
  shuffle_channel_param {
    group: 3
  }
}
layer {
  name: "resx7_conv2"
  type: "ConvolutionDepthwise"
  bottom: "shuffle7"
  top: "resx7_conv2"
  convolution_param {
    num_output: 120
    bias_term: false
    pad: 1
    kernel_size: 3
    stride: 1
    weight_filler {
      type: "msra"
    }
  }
}
layer {
  name: "resx7_conv2_bn"
  type: "BatchNorm"
  bottom: "resx7_conv2"
  top: "resx7_conv2"
  param {
    lr_mult: 0
    decay_mult: 0
  }
  param {
    lr_mult: 0
    decay_mult: 0
  }
  param {
    lr_mult: 0
    decay_mult: 0
  }
}
layer {
  name: "resx7_conv2_scale"
  type: "Scale"
  bottom: "resx7_conv2"
  top: "resx7_conv2"
  scale_param {
    filler {
      value: 1
    }
    bias_term: true
    bias_filler {
      value: 0
    }
  }
}
layer {
  name: "resx7_conv3"
  type: "Convolution"
  bottom: "resx7_conv2"
  top: "resx7_conv3"
  convolution_param {
    num_output: 480
    bias_term: false
    pad: 0
    kernel_size: 1
    group: 3
    stride: 1
    weight_filler {
      type: "msra"
    }
  }
}
layer {
  name: "resx7_conv3_bn"
  type: "BatchNorm"
  bottom: "resx7_conv3"
  top: "resx7_conv3"
  param {
    lr_mult: 0
    decay_mult: 0
  }
  param {
    lr_mult: 0
    decay_mult: 0
  }
  param {
    lr_mult: 0
    decay_mult: 0
  }
}
layer {
  name: "resx7_conv3_scale"
  type: "Scale"
  bottom: "resx7_conv3"
  top: "resx7_conv3"
  scale_param {
    filler {
      value: 1
    }
    bias_term: true
    bias_filler {
      value: 0
    }
  }
}
layer {
  name: "resx7_elewise"
  type: "Eltwise"
  bottom: "resx6_elewise"
  bottom: "resx7_conv3"
  top: "resx7_elewise"
  eltwise_param {
    operation: SUM
  }
}
layer {
  name: "resx7_elewise_relu"
  type: "ReLU"
  bottom: "resx7_elewise"
  top: "resx7_elewise"
}
layer {
  name: "resx8_conv1"
  type: "Convolution"
  bottom: "resx7_elewise"
  top: "resx8_conv1"
  convolution_param {
    num_output: 120
    bias_term: false
    pad: 0
    kernel_size: 1
    group: 3
    stride: 1
    weight_filler {
      type: "msra"
    }
  }
}
layer {
  name: "resx8_conv1_bn"
  type: "BatchNorm"
  bottom: "resx8_conv1"
  top: "resx8_conv1"
  param {
    lr_mult: 0
    decay_mult: 0
  }
  param {
    lr_mult: 0
    decay_mult: 0
  }
  param {
    lr_mult: 0
    decay_mult: 0
  }
}
layer {
  name: "resx8_conv1_scale"
  type: "Scale"
  bottom: "resx8_conv1"
  top: "resx8_conv1"
  scale_param {
    filler {
      value: 1
    }
    bias_term: true
    bias_filler {
      value: 0
    }
  }
}
layer {
  name: "resx8_conv1_relu"
  type: "ReLU"
  bottom: "resx8_conv1"
  top: "resx8_conv1"
}
layer {
  name: "shuffle8"
  type: "ShuffleChannel"
  bottom: "resx8_conv1"
  top: "shuffle8"
  shuffle_channel_param {
    group: 3
  }
}
layer {
  name: "resx8_conv2"
  type: "ConvolutionDepthwise"
  bottom: "shuffle8"
  top: "resx8_conv2"
  convolution_param {
    num_output: 120
    bias_term: false
    pad: 1
    kernel_size: 3
    stride: 1
    weight_filler {
      type: "msra"
    }
  }
}
layer {
  name: "resx8_conv2_bn"
  type: "BatchNorm"
  bottom: "resx8_conv2"
  top: "resx8_conv2"
  param {
    lr_mult: 0
    decay_mult: 0
  }
  param {
    lr_mult: 0
    decay_mult: 0
  }
  param {
    lr_mult: 0
    decay_mult: 0
  }
}
layer {
  name: "resx8_conv2_scale"
  type: "Scale"
  bottom: "resx8_conv2"
  top: "resx8_conv2"
  scale_param {
    filler {
      value: 1
    }
    bias_term: true
    bias_filler {
      value: 0
    }
  }
}
layer {
  name: "resx8_conv3"
  type: "Convolution"
  bottom: "resx8_conv2"
  top: "resx8_conv3"
  convolution_param {
    num_output: 480
    bias_term: false
    pad: 0
    kernel_size: 1
    group: 3
    stride: 1
    weight_filler {
      type: "msra"
    }
  }
}
layer {
  name: "resx8_conv3_bn"
  type: "BatchNorm"
  bottom: "resx8_conv3"
  top: "resx8_conv3"
  param {
    lr_mult: 0
    decay_mult: 0
  }
  param {
    lr_mult: 0
    decay_mult: 0
  }
  param {
    lr_mult: 0
    decay_mult: 0
  }
}
layer {
  name: "resx8_conv3_scale"
  type: "Scale"
  bottom: "resx8_conv3"
  top: "resx8_conv3"
  scale_param {
    filler {
      value: 1
    }
    bias_term: true
    bias_filler {
      value: 0
    }
  }
}
layer {
  name: "resx8_elewise"
  type: "Eltwise"
  bottom: "resx7_elewise"
  bottom: "resx8_conv3"
  top: "resx8_elewise"
  eltwise_param {
    operation: SUM
  }
}
layer {
  name: "resx8_elewise_relu"
  type: "ReLU"
  bottom: "resx8_elewise"
  top: "resx8_elewise"
}
layer {
  name: "resx9_conv1"
  type: "Convolution"
  bottom: "resx8_elewise"
  top: "resx9_conv1"
  convolution_param {
    num_output: 120
    bias_term: false
    pad: 0
    kernel_size: 1
    group: 3
    stride: 1
    weight_filler {
      type: "msra"
    }
  }
}
layer {
  name: "resx9_conv1_bn"
  type: "BatchNorm"
  bottom: "resx9_conv1"
  top: "resx9_conv1"
  param {
    lr_mult: 0
    decay_mult: 0
  }
  param {
    lr_mult: 0
    decay_mult: 0
  }
  param {
    lr_mult: 0
    decay_mult: 0
  }
}
layer {
  name: "resx9_conv1_scale"
  type: "Scale"
  bottom: "resx9_conv1"
  top: "resx9_conv1"
  scale_param {
    filler {
      value: 1
    }
    bias_term: true
    bias_filler {
      value: 0
    }
  }
}
layer {
  name: "resx9_conv1_relu"
  type: "ReLU"
  bottom: "resx9_conv1"
  top: "resx9_conv1"
}
layer {
  name: "shuffle9"
  type: "ShuffleChannel"
  bottom: "resx9_conv1"
  top: "shuffle9"
  shuffle_channel_param {
    group: 3
  }
}
layer {
  name: "resx9_conv2"
  type: "ConvolutionDepthwise"
  bottom: "shuffle9"
  top: "resx9_conv2"
  convolution_param {
    num_output: 120
    bias_term: false
    pad: 1
    kernel_size: 3
    stride: 1
    weight_filler {
      type: "msra"
    }
  }
}
layer {
  name: "resx9_conv2_bn"
  type: "BatchNorm"
  bottom: "resx9_conv2"
  top: "resx9_conv2"
  param {
    lr_mult: 0
    decay_mult: 0
  }
  param {
    lr_mult: 0
    decay_mult: 0
  }
  param {
    lr_mult: 0
    decay_mult: 0
  }
}
layer {
  name: "resx9_conv2_scale"
  type: "Scale"
  bottom: "resx9_conv2"
  top: "resx9_conv2"
  scale_param {
    filler {
      value: 1
    }
    bias_term: true
    bias_filler {
      value: 0
    }
  }
}
layer {
  name: "resx9_conv3"
  type: "Convolution"
  bottom: "resx9_conv2"
  top: "resx9_conv3"
  convolution_param {
    num_output: 480
    bias_term: false
    pad: 0
    kernel_size: 1
    group: 3
    stride: 1
    weight_filler {
      type: "msra"
    }
  }
}
layer {
  name: "resx9_conv3_bn"
  type: "BatchNorm"
  bottom: "resx9_conv3"
  top: "resx9_conv3"
  param {
    lr_mult: 0
    decay_mult: 0
  }
  param {
    lr_mult: 0
    decay_mult: 0
  }
  param {
    lr_mult: 0
    decay_mult: 0
  }
}
layer {
  name: "resx9_conv3_scale"
  type: "Scale"
  bottom: "resx9_conv3"
  top: "resx9_conv3"
  scale_param {
    filler {
      value: 1
    }
    bias_term: true
    bias_filler {
      value: 0
    }
  }
}
layer {
  name: "resx9_elewise"
  type: "Eltwise"
  bottom: "resx8_elewise"
  bottom: "resx9_conv3"
  top: "resx9_elewise"
  eltwise_param {
    operation: SUM
  }
}
layer {
  name: "resx9_elewise_relu"
  type: "ReLU"
  bottom: "resx9_elewise"
  top: "resx9_elewise"
}
layer {
  name: "resx10_conv1"
  type: "Convolution"
  bottom: "resx9_elewise"
  top: "resx10_conv1"
  convolution_param {
    num_output: 120
    bias_term: false
    pad: 0
    kernel_size: 1
    group: 3
    stride: 1
    weight_filler {
      type: "msra"
    }
  }
}
layer {
  name: "resx10_conv1_bn"
  type: "BatchNorm"
  bottom: "resx10_conv1"
  top: "resx10_conv1"
  param {
    lr_mult: 0
    decay_mult: 0
  }
  param {
    lr_mult: 0
    decay_mult: 0
  }
  param {
    lr_mult: 0
    decay_mult: 0
  }
}
layer {
  name: "resx10_conv1_scale"
  type: "Scale"
  bottom: "resx10_conv1"
  top: "resx10_conv1"
  scale_param {
    filler {
      value: 1
    }
    bias_term: true
    bias_filler {
      value: 0
    }
  }
}
layer {
  name: "resx10_conv1_relu"
  type: "ReLU"
  bottom: "resx10_conv1"
  top: "resx10_conv1"
}
layer {
  name: "shuffle10"
  type: "ShuffleChannel"
  bottom: "resx10_conv1"
  top: "shuffle10"
  shuffle_channel_param {
    group: 3
  }
}
layer {
  name: "resx10_conv2"
  type: "ConvolutionDepthwise"
  bottom: "shuffle10"
  top: "resx10_conv2"
  convolution_param {
    num_output: 120
    bias_term: false
    pad: 1
    kernel_size: 3
    stride: 1
    weight_filler {
      type: "msra"
    }
  }
}
layer {
  name: "resx10_conv2_bn"
  type: "BatchNorm"
  bottom: "resx10_conv2"
  top: "resx10_conv2"
  param {
    lr_mult: 0
    decay_mult: 0
  }
  param {
    lr_mult: 0
    decay_mult: 0
  }
  param {
    lr_mult: 0
    decay_mult: 0
  }
}
layer {
  name: "resx10_conv2_scale"
  type: "Scale"
  bottom: "resx10_conv2"
  top: "resx10_conv2"
  scale_param {
    filler {
      value: 1
    }
    bias_term: true
    bias_filler {
      value: 0
    }
  }
}
layer {
  name: "resx10_conv3"
  type: "Convolution"
  bottom: "resx10_conv2"
  top: "resx10_conv3"
  convolution_param {
    num_output: 480
    bias_term: false
    pad: 0
    kernel_size: 1
    group: 3
    stride: 1
    weight_filler {
      type: "msra"
    }
  }
}
layer {
  name: "resx10_conv3_bn"
  type: "BatchNorm"
  bottom: "resx10_conv3"
  top: "resx10_conv3"
  param {
    lr_mult: 0
    decay_mult: 0
  }
  param {
    lr_mult: 0
    decay_mult: 0
  }
  param {
    lr_mult: 0
    decay_mult: 0
  }
}
layer {
  name: "resx10_conv3_scale"
  type: "Scale"
  bottom: "resx10_conv3"
  top: "resx10_conv3"
  scale_param {
    filler {
      value: 1
    }
    bias_term: true
    bias_filler {
      value: 0
    }
  }
}
layer {
  name: "resx10_elewise"
  type: "Eltwise"
  bottom: "resx9_elewise"
  bottom: "resx10_conv3"
  top: "resx10_elewise"
  eltwise_param {
    operation: SUM
  }
}
layer {
  name: "resx10_elewise_relu"
  type: "ReLU"
  bottom: "resx10_elewise"
  top: "resx10_elewise"
}
layer {
  name: "resx11_conv1"
  type: "Convolution"
  bottom: "resx10_elewise"
  top: "resx11_conv1"
  convolution_param {
    num_output: 120
    bias_term: false
    pad: 0
    kernel_size: 1
    group: 3
    stride: 1
    weight_filler {
      type: "msra"
    }
  }
}
layer {
  name: "resx11_conv1_bn"
  type: "BatchNorm"
  bottom: "resx11_conv1"
  top: "resx11_conv1"
  param {
    lr_mult: 0
    decay_mult: 0
  }
  param {
    lr_mult: 0
    decay_mult: 0
  }
  param {
    lr_mult: 0
    decay_mult: 0
  }
}
layer {
  name: "resx11_conv1_scale"
  type: "Scale"
  bottom: "resx11_conv1"
  top: "resx11_conv1"
  scale_param {
    filler {
      value: 1
    }
    bias_term: true
    bias_filler {
      value: 0
    }
  }
}
layer {
  name: "resx11_conv1_relu"
  type: "ReLU"
  bottom: "resx11_conv1"
  top: "resx11_conv1"
}
layer {
  name: "shuffle11"
  type: "ShuffleChannel"
  bottom: "resx11_conv1"
  top: "shuffle11"
  shuffle_channel_param {
    group: 3
  }
}
layer {
  name: "resx11_conv2"
  type: "ConvolutionDepthwise"
  bottom: "shuffle11"
  top: "resx11_conv2"
  convolution_param {
    num_output: 120
    bias_term: false
    pad: 1
    kernel_size: 3
    stride: 1
    weight_filler {
      type: "msra"
    }
  }
}
layer {
  name: "resx11_conv2_bn"
  type: "BatchNorm"
  bottom: "resx11_conv2"
  top: "resx11_conv2"
  param {
    lr_mult: 0
    decay_mult: 0
  }
  param {
    lr_mult: 0
    decay_mult: 0
  }
  param {
    lr_mult: 0
    decay_mult: 0
  }
}
layer {
  name: "resx11_conv2_scale"
  type: "Scale"
  bottom: "resx11_conv2"
  top: "resx11_conv2"
  scale_param {
    filler {
      value: 1
    }
    bias_term: true
    bias_filler {
      value: 0
    }
  }
}
layer {
  name: "resx11_conv3"
  type: "Convolution"
  bottom: "resx11_conv2"
  top: "resx11_conv3"
  convolution_param {
    num_output: 480
    bias_term: false
    pad: 0
    kernel_size:
I0817 23:01:25.662796 30036 layer_factory.hpp:77] Creating layer data
I0817 23:01:25.663888 30036 net.cpp:91] Creating Layer data
I0817 23:01:25.663915 30036 net.cpp:443] data -> data
I0817 23:01:25.663954 30036 net.cpp:443] data -> label
I0817 23:01:25.665107 30059 db_lmdb.cpp:35] Opened lmdb /home/chenyao/ilsvrc12/ilsvrc12_train_lmdb
I0817 23:01:25.864981 30036 data_layer.cpp:41] output data size: 80,3,224,224
I0817 23:01:25.961881 30036 net.cpp:141] Setting up data
I0817 23:01:25.961933 30036 net.cpp:148] Top shape: 80 3 224 224 (12042240)
I0817 23:01:25.961941 30036 net.cpp:148] Top shape: 80 (80)
I0817 23:01:25.961943 30036 net.cpp:156] Memory required for data: 48169280
I0817 23:01:25.961954 30036 layer_factory.hpp:77] Creating layer conv1
I0817 23:01:25.961982 30036 net.cpp:91] Creating Layer conv1
I0817 23:01:25.961989 30036 net.cpp:469] conv1 <- data
I0817 23:01:25.962002 30036 net.cpp:443] conv1 -> conv1
I0817 23:01:27.092998 30036 net.cpp:141] Setting up conv1
I0817 23:01:27.093045 30036 net.cpp:148] Top shape: 80 24 112 112 (24084480)
I0817 23:01:27.093051 30036 net.cpp:156] Memory required for data: 144507200
I0817 23:01:27.093070 30036 layer_factory.hpp:77] Creating layer conv1_bn
I0817 23:01:27.104840 30036 net.cpp:91] Creating Layer conv1_bn
I0817 23:01:27.104856 30036 net.cpp:469] conv1_bn <- conv1
I0817 23:01:27.104863 30036 net.cpp:430] conv1_bn -> conv1 (in-place)
I0817 23:01:27.105849 30036 net.cpp:141] Setting up conv1_bn
I0817 23:01:27.105865 30036 net.cpp:148] Top shape: 80 24 112 112 (24084480)
I0817 23:01:27.105870 30036 net.cpp:156] Memory required for data: 240845120
I0817 23:01:27.105882 30036 layer_factory.hpp:77] Creating layer conv1_scale
I0817 23:01:27.115150 30036 net.cpp:91] Creating Layer conv1_scale
I0817 23:01:27.115206 30036 net.cpp:469] conv1_scale <- conv1
I0817 23:01:27.115222 30036 net.cpp:430] conv1_scale -> conv1 (in-place)
I0817 23:01:27.115283 30036 layer_factory.hpp:77] Creating layer conv1_scale
I0817 23:01:27.115394 30036 net.cpp:141] Setting up conv1_scale
I0817 23:01:27.115406 30036 net.cpp:148] Top shape: 80 24 112 112 (24084480)
I0817 23:01:27.115409 30036 net.cpp:156] Memory required for data: 337183040
I0817 23:01:27.115419 30036 layer_factory.hpp:77] Creating layer conv1_relu
I0817 23:01:27.115428 30036 net.cpp:91] Creating Layer conv1_relu
I0817 23:01:27.115432 30036 net.cpp:469] conv1_relu <- conv1
I0817 23:01:27.115437 30036 net.cpp:430] conv1_relu -> conv1 (in-place)
I0817 23:01:27.115777 30036 net.cpp:141] Setting up conv1_relu
I0817 23:01:27.115793 30036 net.cpp:148] Top shape: 80 24 112 112 (24084480)
I0817 23:01:27.115797 30036 net.cpp:156] Memory required for data: 433520960
I0817 23:01:27.115802 30036 layer_factory.hpp:77] Creating layer pool1
I0817 23:01:27.115810 30036 net.cpp:91] Creating Layer pool1
I0817 23:01:27.115814 30036 net.cpp:469] pool1 <- conv1
I0817 23:01:27.115820 30036 net.cpp:443] pool1 -> pool1
I0817 23:01:27.115873 30036 net.cpp:141] Setting up pool1
I0817 23:01:27.115882 30036 net.cpp:148] Top shape: 80 24 56 56 (6021120)
I0817 23:01:27.115885 30036 net.cpp:156] Memory required for data: 457605440
I0817 23:01:27.115890 30036 layer_factory.hpp:77] Creating layer pool1_pool1_0_split
I0817 23:01:27.115900 30036 net.cpp:91] Creating Layer pool1_pool1_0_split
I0817 23:01:27.115903 30036 net.cpp:469] pool1_pool1_0_split <- pool1
I0817 23:01:27.115908 30036 net.cpp:443] pool1_pool1_0_split -> pool1_pool1_0_split_0
I0817 23:01:27.115916 30036 net.cpp:443] pool1_pool1_0_split -> pool1_pool1_0_split_1
I0817 23:01:27.115943 30036 net.cpp:141] Setting up pool1_pool1_0_split
I0817 23:01:27.115950 30036 net.cpp:148] Top shape: 80 24 56 56 (6021120)
I0817 23:01:27.115954 30036 net.cpp:148] Top shape: 80 24 56 56 (6021120)
I0817 23:01:27.115957 30036 net.cpp:156] Memory required for data: 505774400
I0817 23:01:27.115960 30036 layer_factory.hpp:77] Creating layer resx1_match_conv
I0817 23:01:27.115967 30036 net.cpp:91] Creating Layer resx1_match_conv
I0817 23:01:27.115970 30036 net.cpp:469] resx1_match_conv <- pool1_pool1_0_split_0
I0817 23:01:27.115974 30036 net.cpp:443] resx1_match_conv -> resx1_match_conv
I0817 23:01:27.120177 30036 net.cpp:141] Setting up resx1_match_conv
I0817 23:01:27.120199 30036 net.cpp:148] Top shape: 80 24 28 28 (1505280)
I0817 23:01:27.120204 30036 net.cpp:156] Memory required for data: 511795520
I0817 23:01:27.120209 30036 layer_factory.hpp:77] Creating layer resx1_conv1
I0817 23:01:27.120223 30036 net.cpp:91] Creating Layer resx1_conv1
I0817 23:01:27.120229 30036 net.cpp:469] resx1_conv1 <- pool1_pool1_0_split_1
I0817 23:01:27.120236 30036 net.cpp:443] resx1_conv1 -> resx1_conv1
I0817 23:01:27.121862 30036 net.cpp:141] Setting up resx1_conv1
I0817 23:01:27.121881 30036 net.cpp:148] Top shape: 80 54 56 56 (13547520)
I0817 23:01:27.121886 30036 net.cpp:156] Memory required for data: 565985600
I0817 23:01:27.121891 30036 layer_factory.hpp:77] Creating layer resx1_conv1_bn
I0817 23:01:27.121901 30036 net.cpp:91] Creating Layer resx1_conv1_bn
I0817 23:01:27.121906 30036 net.cpp:469] resx1_conv1_bn <- resx1_conv1
I0817 23:01:27.121912 30036 net.cpp:430] resx1_conv1_bn -> resx1_conv1 (in-place)
I0817 23:01:27.122081 30036 net.cpp:141] Setting up resx1_conv1_bn
I0817 23:01:27.122089 30036 net.cpp:148] Top shape: 80 54 56 56 (13547520)
I0817 23:01:27.122093 30036 net.cpp:156] Memory required for data: 620175680
I0817 23:01:27.122103 30036 layer_factory.hpp:77] Creating layer resx1_conv1_scale
I0817 23:01:27.122114 30036 net.cpp:91] Creating Layer resx1_conv1_scale
I0817 23:01:27.122118 30036 net.cpp:469] resx1_conv1_scale <- resx1_conv1
I0817 23:01:27.122123 30036 net.cpp:430] resx1_conv1_scale -> resx1_conv1 (in-place)
I0817 23:01:27.122164 30036 layer_factory.hpp:77] Creating layer resx1_conv1_scale
I0817 23:01:27.122263 30036 net.cpp:141] Setting up resx1_conv1_scale
I0817 23:01:27.122279 30036 net.cpp:148] Top shape: 80 54 56 56 (13547520)
I0817 23:01:27.122289 30036 net.cpp:156] Memory required for data: 674365760
I0817 23:01:27.122297 30036 layer_factory.hpp:77] Creating layer resx1_conv1_relu
I0817 23:01:27.122303 30036 net.cpp:91] Creating Layer resx1_conv1_relu
I0817 23:01:27.122306 30036 net.cpp:469] resx1_conv1_relu <- resx1_conv1
I0817 23:01:27.122313 30036 net.cpp:430] resx1_conv1_relu -> resx1_conv1 (in-place)
I0817 23:01:27.122459 30036 net.cpp:141] Setting up resx1_conv1_relu
I0817 23:01:27.122470 30036 net.cpp:148] Top shape: 80 54 56 56 (13547520)
I0817 23:01:27.122474 30036 net.cpp:156] Memory required for data: 728555840
I0817 23:01:27.122478 30036 layer_factory.hpp:77] Creating layer resx1_conv2
I0817 23:01:27.122489 30036 net.cpp:91] Creating Layer resx1_conv2
I0817 23:01:27.122493 30036 net.cpp:469] resx1_conv2 <- resx1_conv1
I0817 23:01:27.122499 30036 net.cpp:443] resx1_conv2 -> resx1_conv2
I0817 23:01:27.122839 30036 net.cpp:141] Setting up resx1_conv2
I0817 23:01:27.122855 30036 net.cpp:148] Top shape: 80 54 28 28 (3386880)
I0817 23:01:27.122859 30036 net.cpp:156] Memory required for data: 742103360
I0817 23:01:27.122865 30036 layer_factory.hpp:77] Creating layer resx1_conv2_bn
I0817 23:01:27.122875 30036 net.cpp:91] Creating Layer resx1_conv2_bn
I0817 23:01:27.122879 30036 net.cpp:469] resx1_conv2_bn <- resx1_conv2
I0817 23:01:27.122886 30036 net.cpp:430] resx1_conv2_bn -> resx1_conv2 (in-place)
I0817 23:01:27.123049 30036 net.cpp:141] Setting up resx1_conv2_bn
I0817 23:01:27.123057 30036 net.cpp:148] Top shape: 80 54 28 28 (3386880)
I0817 23:01:27.123060 30036 net.cpp:156] Memory required for data: 755650880
I0817 23:01:27.123067 30036 layer_factory.hpp:77] Creating layer resx1_conv2_scale
I0817 23:01:27.123077 30036 net.cpp:91] Creating Layer resx1_conv2_scale
I0817 23:01:27.123081 30036 net.cpp:469] resx1_conv2_scale <- resx1_conv2
I0817 23:01:27.123086 30036 net.cpp:430] resx1_conv2_scale -> resx1_conv2 (in-place)
I0817 23:01:27.123123 30036 layer_factory.hpp:77] Creating layer resx1_conv2_scale
I0817 23:01:27.123225 30036 net.cpp:141] Setting up resx1_conv2_scale
I0817 23:01:27.123234 30036 net.cpp:148] Top shape: 80 54 28 28 (3386880)
I0817 23:01:27.123237 30036 net.cpp:156] Memory required for data: 769198400
I0817 23:01:27.123246 30036 layer_factory.hpp:77] Creating layer resx1_conv3
I0817 23:01:27.123258 30036 net.cpp:91] Creating Layer resx1_conv3
I0817 23:01:27.123263 30036 net.cpp:469] resx1_conv3 <- resx1_conv2
I0817 23:01:27.123270 30036 net.cpp:443] resx1_conv3 -> resx1_conv3
I0817 23:01:27.125798 30036 net.cpp:141] Setting up resx1_conv3
I0817 23:01:27.125816 30036 net.cpp:148] Top shape: 80 216 28 28 (13547520)
I0817 23:01:27.125820 30036 net.cpp:156] Memory required for data: 823388480
I0817 23:01:27.125826 30036 layer_factory.hpp:77] Creating layer resx1_conv3_bn
I0817 23:01:27.125839 30036 net.cpp:91] Creating Layer resx1_conv3_bn
I0817 23:01:27.125844 30036 net.cpp:469] resx1_conv3_bn <- resx1_conv3
I0817 23:01:27.125851 30036 net.cpp:430] resx1_conv3_bn -> resx1_conv3 (in-place)
I0817 23:01:27.126018 30036 net.cpp:141] Setting up resx1_conv3_bn
I0817 23:01:27.126026 30036 net.cpp:148] Top shape: 80 216 28 28 (13547520)
I0817 23:01:27.126029 30036 net.cpp:156] Memory required for data: 877578560
I0817 23:01:27.126037 30036 layer_factory.hpp:77] Creating layer resx1_conv3_scale
I0817 23:01:27.126044 30036 net.cpp:91] Creating Layer resx1_conv3_scale
I0817 23:01:27.126049 30036 net.cpp:469] resx1_conv3_scale <- resx1_conv3
I0817 23:01:27.126055 30036 net.cpp:430] resx1_conv3_scale -> resx1_conv3 (in-place)
I0817 23:01:27.126091 30036 layer_factory.hpp:77] Creating layer resx1_conv3_scale
I0817 23:01:27.126191 30036 net.cpp:141] Setting up resx1_conv3_scale
I0817 23:01:27.126199 30036 net.cpp:148] Top shape: 80 216 28 28 (13547520)
I0817 23:01:27.126204 30036 net.cpp:156] Memory required for data: 931768640
I0817 23:01:27.126209 30036 layer_factory.hpp:77] Creating layer resx1_concat
I0817 23:01:27.126338 30036 net.cpp:91] Creating Layer resx1_concat
I0817 23:01:27.126354 30036 net.cpp:469] resx1_concat <- resx1_match_conv
I0817 23:01:27.126366 30036 net.cpp:469] resx1_concat <- resx1_conv3
I0817 23:01:27.126379 30036 net.cpp:443] resx1_concat -> resx1_concat
I0817 23:01:27.126416 30036 net.cpp:141] Setting up resx1_concat
I0817 23:01:27.126426 30036 net.cpp:148] Top shape: 80 240 28 28 (15052800)
I0817 23:01:27.126430 30036 net.cpp:156] Memory required for data: 991979840
I0817 23:01:27.126435 30036 layer_factory.hpp:77] Creating layer resx1_concat_relu
I0817 23:01:27.126441 30036 net.cpp:91] Creating Layer resx1_concat_relu
I0817 23:01:27.126443 30036 net.cpp:469] resx1_concat_relu <- resx1_concat
I0817 23:01:27.126448 30036 net.cpp:430] resx1_concat_relu -> resx1_concat (in-place)
I0817 23:01:27.126607 30036 net.cpp:141] Setting up resx1_concat_relu
I0817 23:01:27.126619 30036 net.cpp:148] Top shape: 80 240 28 28 (15052800)
I0817 23:01:27.126623 30036 net.cpp:156] Memory required for data: 1052191040
I0817 23:01:27.126626 30036 layer_factory.hpp:77] Creating layer resx1_concat_resx1_concat_relu_0_split
I0817 23:01:27.126634 30036 net.cpp:91] Creating Layer resx1_concat_resx1_concat_relu_0_split
I0817 23:01:27.126637 30036 net.cpp:469] resx1_concat_resx1_concat_relu_0_split <- resx1_concat
I0817 23:01:27.126642 30036 net.cpp:443] resx1_concat_resx1_concat_relu_0_split -> resx1_concat_resx1_concat_relu_0_split_0
I0817 23:01:27.126652 30036 net.cpp:443] resx1_concat_resx1_concat_relu_0_split -> resx1_concat_resx1_concat_relu_0_split_1
I0817 23:01:27.126688 30036 net.cpp:141] Setting up resx1_concat_resx1_concat_relu_0_split
I0817 23:01:27.126695 30036 net.cpp:148] Top shape: 80 240 28 28 (15052800)
I0817 23:01:27.126699 30036 net.cpp:148] Top shape: 80 240 28 28 (15052800)
I0817 23:01:27.126703 30036 net.cpp:156] Memory required for data: 1172613440
I0817 23:01:27.126706 30036 layer_factory.hpp:77] Creating layer resx2_conv1
I0817 23:01:27.126716 30036 net.cpp:91] Creating Layer resx2_conv1
I0817 23:01:27.126721 30036 net.cpp:469] resx2_conv1 <- resx1_concat_resx1_concat_relu_0_split_0
I0817 23:01:27.126729 30036 net.cpp:443] resx2_conv1 -> resx2_conv1
I0817 23:01:27.129429 30036 net.cpp:141] Setting up resx2_conv1
I0817 23:01:27.129447 30036 net.cpp:148] Top shape: 80 60 28 28 (3763200)
I0817 23:01:27.129452 30036 net.cpp:156] Memory required for data: 1187666240
I0817 23:01:27.129458 30036 layer_factory.hpp:77] Creating layer resx2_conv1_bn
I0817 23:01:27.129469 30036 net.cpp:91] Creating Layer resx2_conv1_bn
I0817 23:01:27.129473 30036 net.cpp:469] resx2_conv1_bn <- resx2_conv1
I0817 23:01:27.129479 30036 net.cpp:430] resx2_conv1_bn -> resx2_conv1 (in-place)
I0817 23:01:27.129667 30036 net.cpp:141] Setting up resx2_conv1_bn
I0817 23:01:27.129676 30036 net.cpp:148] Top shape: 80 60 28 28 (3763200)
I0817 23:01:27.129679 30036 net.cpp:156] Memory required for data: 1202719040
I0817 23:01:27.129686 30036 layer_factory.hpp:77] Creating layer resx2_conv1_scale
I0817 23:01:27.129696 30036 net.cpp:91] Creating Layer resx2_conv1_scale
I0817 23:01:27.129700 30036 net.cpp:469] resx2_conv1_scale <- resx2_conv1
I0817 23:01:27.129705 30036 net.cpp:430] resx2_conv1_scale -> resx2_conv1 (in-place)
I0817 23:01:27.129743 30036 layer_factory.hpp:77] Creating layer resx2_conv1_scale
I0817 23:01:27.129844 30036 net.cpp:141] Setting up resx2_conv1_scale
I0817 23:01:27.129853 30036 net.cpp:148] Top shape: 80 60 28 28 (3763200)
I0817 23:01:27.129856 30036 net.cpp:156] Memory required for data: 1217771840
I0817 23:01:27.129863 30036 layer_factory.hpp:77] Creating layer resx2_conv1_relu
I0817 23:01:27.129870 30036 net.cpp:91] Creating Layer resx2_conv1_relu
I0817 23:01:27.129874 30036 net.cpp:469] resx2_conv1_relu <- resx2_conv1
I0817 23:01:27.129879 30036 net.cpp:430] resx2_conv1_relu -> resx2_conv1 (in-place)
I0817 23:01:27.130038 30036 net.cpp:141] Setting up resx2_conv1_relu
I0817 23:01:27.130050 30036 net.cpp:148] Top shape: 80 60 28 28 (3763200)
I0817 23:01:27.130054 30036 net.cpp:156] Memory required for data: 1232824640
I0817 23:01:27.130058 30036 layer_factory.hpp:77] Creating layer shuffle2
I0817 23:01:27.130076 30036 net.cpp:91] Creating Layer shuffle2
I0817 23:01:27.130087 30036 net.cpp:469] shuffle2 <- resx2_conv1
I0817 23:01:27.130092 30036 net.cpp:443] shuffle2 -> shuffle2
I0817 23:01:27.130126 30036 net.cpp:141] Setting up shuffle2
I0817 23:01:27.130133 30036 net.cpp:148] Top shape: 80 60 28 28 (3763200)
I0817 23:01:27.130136 30036 net.cpp:156] Memory required for data: 1247877440
I0817 23:01:27.130141 30036 layer_factory.hpp:77] Creating layer resx2_conv2
I0817 23:01:27.130151 30036 net.cpp:91] Creating Layer resx2_conv2
I0817 23:01:27.130154 30036 net.cpp:469] resx2_conv2 <- shuffle2
I0817 23:01:27.130159 30036 net.cpp:443] resx2_conv2 -> resx2_conv2
I0817 23:01:27.130277 30036 net.cpp:141] Setting up resx2_conv2
I0817 23:01:27.130290 30036 net.cpp:148] Top shape: 80 60 28 28 (3763200)
I0817 23:01:27.130293 30036 net.cpp:156] Memory required for data: 1262930240
I0817 23:01:27.130298 30036 layer_factory.hpp:77] Creating layer resx2_conv2_bn
I0817 23:01:27.130308 30036 net.cpp:91] Creating Layer resx2_conv2_bn
I0817 23:01:27.130312 30036 net.cpp:469] resx2_conv2_bn <- resx2_conv2
I0817 23:01:27.130317 30036 net.cpp:430] resx2_conv2_bn -> resx2_conv2 (in-place)
I0817 23:01:27.130488 30036 net.cpp:141] Setting up resx2_conv2_bn
I0817 23:01:27.130496 30036 net.cpp:148] Top shape: 80 60 28 28 (3763200)
I0817 23:01:27.130499 30036 net.cpp:156] Memory required for data: 1277983040
I0817 23:01:27.130512 30036 layer_factory.hpp:77] Creating layer resx2_conv2_scale
I0817 23:01:27.130520 30036 net.cpp:91] Creating Layer resx2_conv2_scale
I0817 23:01:27.130524 30036 net.cpp:469] resx2_conv2_scale <- resx2_conv2
I0817 23:01:27.130529 30036 net.cpp:430] resx2_conv2_scale -> resx2_conv2 (in-place)
I0817 23:01:27.130568 30036 layer_factory.hpp:77] Creating layer resx2_conv2_scale
I0817 23:01:27.130666 30036 net.cpp:141] Setting up resx2_conv2_scale
I0817 23:01:27.130676 30036 net.cpp:148] Top shape: 80 60 28 28 (3763200)
I0817 23:01:27.130679 30036 net.cpp:156] Memory required for data: 1293035840
I0817 23:01:27.130686 30036 layer_factory.hpp:77] Creating layer resx2_conv3
I0817 23:01:27.130693 30036 net.cpp:91] Creating Layer resx2_conv3
I0817 23:01:27.130697 30036 net.cpp:469] resx2_conv3 <- resx2_conv2
I0817 23:01:27.130704 30036 net.cpp:443] resx2_conv3 -> resx2_conv3
I0817 23:01:27.133373 30036 net.cpp:141] Setting up resx2_conv3
I0817 23:01:27.133394 30036 net.cpp:148] Top shape: 80 240 28 28 (15052800)
I0817 23:01:27.133397 30036 net.cpp:156] Memory required for data: 1353247040
I0817 23:01:27.133404 30036 layer_factory.hpp:77] Creating layer resx2_conv3_bn
I0817 23:01:27.133412 30036 net.cpp:91] Creating Layer resx2_conv3_bn
I0817 23:01:27.133417 30036 net.cpp:469] resx2_conv3_bn <- resx2_conv3
I0817 23:01:27.133422 30036 net.cpp:430] resx2_conv3_bn -> resx2_conv3 (in-place)
I0817 23:01:27.133586 30036 net.cpp:141] Setting up resx2_conv3_bn
I0817 23:01:27.133595 30036 net.cpp:148] Top shape: 80 240 28 28 (15052800)
I0817 23:01:27.133599 30036 net.cpp:156] Memory required for data: 1413458240
I0817 23:01:27.133606 30036 layer_factory.hpp:77] Creating layer resx2_conv3_scale
I0817 23:01:27.133613 30036 net.cpp:91] Creating Layer resx2_conv3_scale
I0817 23:01:27.133617 30036 net.cpp:469] resx2_conv3_scale <- resx2_conv3
I0817 23:01:27.133621 30036 net.cpp:430] resx2_conv3_scale -> resx2_conv3 (in-place)
I0817 23:01:27.133664 30036 layer_factory.hpp:77] Creating layer resx2_conv3_scale
I0817 23:01:27.133764 30036 net.cpp:141] Setting up resx2_conv3_scale
I0817 23:01:27.133771 30036 net.cpp:148] Top shape: 80 240 28 28 (15052800)
I0817 23:01:27.133775 30036 net.cpp:156] Memory required for data: 1473669440
I0817 23:01:27.133781 30036 layer_factory.hpp:77] Creating layer resx2_elewise
I0817 23:01:27.133797 30036 net.cpp:91] Creating Layer resx2_elewise
I0817 23:01:27.133802 30036 net.cpp:469] resx2_elewise <- resx1_concat_resx1_concat_relu_0_split_1
I0817 23:01:27.133807 30036 net.cpp:469] resx2_elewise <- resx2_conv3
I0817 23:01:27.133811 30036 net.cpp:443] resx2_elewise -> resx2_elewise
I0817 23:01:27.133848 30036 net.cpp:141] Setting up resx2_elewise
I0817 23:01:27.133862 30036 net.cpp:148] Top shape: 80 240 28 28 (15052800)
I0817 23:01:27.133867 30036 net.cpp:156] Memory required for data: 1533880640
I0817 23:01:27.133869 30036 layer_factory.hpp:77] Creating layer resx2_elewise_relu
I0817 23:01:27.133875 30036 net.cpp:91] Creating Layer resx2_elewise_relu
I0817 23:01:27.133879 30036 net.cpp:469] resx2_elewise_relu <- resx2_elewise
I0817 23:01:27.133883 30036 net.cpp:430] resx2_elewise_relu -> resx2_elewise (in-place)
I0817 23:01:27.134034 30036 net.cpp:141] Setting up resx2_elewise_relu
I0817 23:01:27.134047 30036 net.cpp:148] Top shape: 80 240 28 28 (15052800)
I0817 23:01:27.134052 30036 net.cpp:156] Memory required for data: 1594091840
I0817 23:01:27.134054 30036 layer_factory.hpp:77] Creating layer resx2_elewise_resx2_elewise_relu_0_split
I0817 23:01:27.134060 30036 net.cpp:91] Creating Layer resx2_elewise_resx2_elewise_relu_0_split
I0817 23:01:27.134064 30036 net.cpp:469] resx2_elewise_resx2_elewise_relu_0_split <- resx2_elewise
I0817 23:01:27.134069 30036 net.cpp:443] resx2_elewise_resx2_elewise_relu_0_split -> resx2_elewise_resx2_elewise_relu_0_split_0
I0817 23:01:27.134075 30036 net.cpp:443] resx2_elewise_resx2_elewise_relu_0_split -> resx2_elewise_resx2_elewise_relu_0_split_1
I0817 23:01:27.134114 30036 net.cpp:141] Setting up resx2_elewise_resx2_elewise_relu_0_split
I0817 23:01:27.134121 30036 net.cpp:148] Top shape: 80 240 28 28 (15052800)
I0817 23:01:27.134125 30036 net.cpp:148] Top shape: 80 240 28 28 (15052800)
I0817 23:01:27.134129 30036 net.cpp:156] Memory required for data: 1714514240
I0817 23:01:27.134132 30036 layer_factory.hpp:77] Creating layer resx3_conv1
I0817 23:01:27.134142 30036 net.cpp:91] Creating Layer resx3_conv1
I0817 23:01:27.134146 30036 net.cpp:469] resx3_conv1 <- resx2_elewise_resx2_elewise_relu_0_split_0
I0817 23:01:27.134153 30036 net.cpp:443] resx3_conv1 -> resx3_conv1
I0817 23:01:27.136638 30036 net.cpp:141] Setting up resx3_conv1
I0817 23:01:27.136654 30036 net.cpp:148] Top shape: 80 60 28 28 (3763200)
I0817 23:01:27.136658 30036 net.cpp:156] Memory required for data: 1729567040
I0817 23:01:27.136664 30036 layer_factory.hpp:77] Creating layer resx3_conv1_bn
I0817 23:01:27.136672 30036 net.cpp:91] Creating Layer resx3_conv1_bn
I0817 23:01:27.136677 30036 net.cpp:469] resx3_conv1_bn <- resx3_conv1
I0817 23:01:27.136683 30036 net.cpp:430] resx3_conv1_bn -> resx3_conv1 (in-place)
I0817 23:01:27.136852 30036 net.cpp:141] Setting up resx3_conv1_bn
I0817 23:01:27.136860 30036 net.cpp:148] Top shape: 80 60 28 28 (3763200)
I0817 23:01:27.136863 30036 net.cpp:156] Memory required for data: 1744619840
I0817 23:01:27.136870 30036 layer_factory.hpp:77] Creating layer resx3_conv1_scale
I0817 23:01:27.136880 30036 net.cpp:91] Creating Layer resx3_conv1_scale
I0817 23:01:27.136884 30036 net.cpp:469] resx3_conv1_scale <- resx3_conv1
I0817 23:01:27.136889 30036 net.cpp:430] resx3_conv1_scale -> resx3_conv1 (in-place)
I0817 23:01:27.136929 30036 layer_factory.hpp:77] Creating layer resx3_conv1_scale
I0817 23:01:27.137038 30036 net.cpp:141] Setting up resx3_conv1_scale
I0817 23:01:27.137048 30036 net.cpp:148] Top shape: 80 60 28 28 (3763200)
I0817 23:01:27.137050 30036 net.cpp:156] Memory required for data: 1759672640
I0817 23:01:27.137056 30036 layer_factory.hpp:77] Creating layer resx3_conv1_relu
I0817 23:01:27.137064 30036 net.cpp:91] Creating Layer resx3_conv1_relu
I0817 23:01:27.137068 30036 net.cpp:469] resx3_conv1_relu <- resx3_conv1
I0817 23:01:27.137073 30036 net.cpp:430] resx3_conv1_relu -> resx3_conv1 (in-place)
I0817 23:01:27.137224 30036 net.cpp:141] Setting up resx3_conv1_relu
I0817 23:01:27.137236 30036 net.cpp:148] Top shape: 80 60 28 28 (3763200)
I0817 23:01:27.137239 30036 net.cpp:156] Memory required for data: 1774725440
I0817 23:01:27.137243 30036 layer_factory.hpp:77] Creating layer shuffle3
I0817 23:01:27.137251 30036 net.cpp:91] Creating Layer shuffle3
I0817 23:01:27.137256 30036 net.cpp:469] shuffle3 <- resx3_conv1
I0817 23:01:27.137261 30036 net.cpp:443] shuffle3 -> shuffle3
I0817 23:01:27.137295 30036 net.cpp:141] Setting up shuffle3
I0817 23:01:27.137308 30036 net.cpp:148] Top shape: 80 60 28 28 (3763200)
I0817 23:01:27.137312 30036 net.cpp:156] Memory required for data: 1789778240
I0817 23:01:27.137315 30036 layer_factory.hpp:77] Creating layer resx3_conv2
I0817 23:01:27.137325 30036 net.cpp:91] Creating Layer resx3_conv2
I0817 23:01:27.137329 30036 net.cpp:469] resx3_conv2 <- shuffle3
I0817 23:01:27.137334 30036 net.cpp:443] resx3_conv2 -> resx3_conv2
I0817 23:01:27.137454 30036 net.cpp:141] Setting up resx3_conv2
I0817 23:01:27.137467 30036 net.cpp:148] Top shape: 80 60 28 28 (3763200)
I0817 23:01:27.137470 30036 net.cpp:156] Memory required for data: 1804831040
I0817 23:01:27.137475 30036 layer_factory.hpp:77] Creating layer resx3_conv2_bn
I0817 23:01:27.137485 30036 net.cpp:91] Creating Layer resx3_conv2_bn
I0817 23:01:27.137488 30036 net.cpp:469] resx3_conv2_bn <- resx3_conv2
I0817 23:01:27.137493 30036 net.cpp:430] resx3_conv2_bn -> resx3_conv2 (in-place)
I0817 23:01:27.137651 30036 net.cpp:141] Setting up resx3_conv2_bn
I0817 23:01:27.137660 30036 net.cpp:148] Top shape: 80 60 28 28 (3763200)
I0817 23:01:27.137663 30036 net.cpp:156] Memory required for data: 1819883840
I0817 23:01:27.137670 30036 layer_factory.hpp:77] Creating layer resx3_conv2_scale
I0817 23:01:27.137678 30036 net.cpp:91] Creating Layer resx3_conv2_scale
I0817 23:01:27.137683 30036 net.cpp:469] resx3_conv2_scale <- resx3_conv2
I0817 23:01:27.137687 30036 net.cpp:430] resx3_conv2_scale -> resx3_conv2 (in-place)
I0817 23:01:27.137724 30036 layer_factory.hpp:77] Creating layer resx3_conv2_scale
I0817 23:01:27.137828 30036 net.cpp:141] Setting up resx3_conv2_scale
I0817 23:01:27.137836 30036 net.cpp:148] Top shape: 80 60 28 28 (3763200)
I0817 23:01:27.137840 30036 net.cpp:156] Memory required for data: 1834936640
I0817 23:01:27.137845 30036 layer_factory.hpp:77] Creating layer resx3_conv3
I0817 23:01:27.137862 30036 net.cpp:91] Creating Layer resx3_conv3
I0817 23:01:27.137867 30036 net.cpp:469] resx3_conv3 <- resx3_conv2
I0817 23:01:27.137872 30036 net.cpp:443] resx3_conv3 -> resx3_conv3
I0817 23:01:27.140492 30036 net.cpp:141] Setting up resx3_conv3
I0817 23:01:27.140509 30036 net.cpp:148] Top shape: 80 240 28 28 (15052800)
I0817 23:01:27.140513 30036 net.cpp:156] Memory required for data: 1895147840
I0817 23:01:27.140518 30036 layer_factory.hpp:77] Creating layer resx3_conv3_bn
I0817 23:01:27.140528 30036 net.cpp:91] Creating Layer resx3_conv3_bn
I0817 23:01:27.140534 30036 net.cpp:469] resx3_conv3_bn <- resx3_conv3
I0817 23:01:27.140540 30036 net.cpp:430] resx3_conv3_bn -> resx3_conv3 (in-place)
I0817 23:01:27.140708 30036 net.cpp:141] Setting up resx3_conv3_bn
I0817 23:01:27.140717 30036 net.cpp:148] Top shape: 80 240 28 28 (15052800)
I0817 23:01:27.140722 30036 net.cpp:156] Memory required for data: 1955359040
I0817 23:01:27.140729 30036 layer_factory.hpp:77] Creating layer resx3_conv3_scale
I0817 23:01:27.140738 30036 net.cpp:91] Creating Layer resx3_conv3_scale
I0817 23:01:27.140741 30036 net.cpp:469] resx3_conv3_scale <- resx3_conv3
I0817 23:01:27.140745 30036 net.cpp:430] resx3_conv3_scale -> resx3_conv3 (in-place)
I0817 23:01:27.140785 30036 layer_factory.hpp:77] Creating layer resx3_conv3_scale
I0817 23:01:27.140887 30036 net.cpp:141] Setting up resx3_conv3_scale
I0817 23:01:27.140895 30036 net.cpp:148] Top shape: 80 240 28 28 (15052800)
I0817 23:01:27.140898 30036 net.cpp:156] Memory required for data: 2015570240
I0817 23:01:27.140904 30036 layer_factory.hpp:77] Creating layer resx3_elewise
I0817 23:01:27.140913 30036 net.cpp:91] Creating Layer resx3_elewise
I0817 23:01:27.140918 30036 net.cpp:469] resx3_elewise <- resx2_elewise_resx2_elewise_relu_0_split_1
I0817 23:01:27.140921 30036 net.cpp:469] resx3_elewise <- resx3_conv3
I0817 23:01:27.140926 30036 net.cpp:443] resx3_elewise -> resx3_elewise
I0817 23:01:27.140954 30036 net.cpp:141] Setting up resx3_elewise
I0817 23:01:27.140959 30036 net.cpp:148] Top shape: 80 240 28 28 (15052800)
I0817 23:01:27.140962 30036 net.cpp:156] Memory required for data: 2075781440
I0817 23:01:27.140970 30036 layer_factory.hpp:77] Creating layer resx3_elewise_relu
I0817 23:01:27.140982 30036 net.cpp:91] Creating Layer resx3_elewise_relu
I0817 23:01:27.140986 30036 net.cpp:469] resx3_elewise_relu <- resx3_elewise
I0817 23:01:27.140990 30036 net.cpp:430] resx3_elewise_relu -> resx3_elewise (in-place)
I0817 23:01:27.141154 30036 net.cpp:141] Setting up resx3_elewise_relu
I0817 23:01:27.141166 30036 net.cpp:148] Top shape: 80 240 28 28 (15052800)
I0817 23:01:27.141170 30036 net.cpp:156] Memory required for data: 2135992640
I0817 23:01:27.141173 30036 layer_factory.hpp:77] Creating layer resx3_elewise_resx3_elewise_relu_0_split
I0817 23:01:27.141180 30036 net.cpp:91] Creating Layer resx3_elewise_resx3_elewise_relu_0_split
I0817 23:01:27.141183 30036 net.cpp:469] resx3_elewise_resx3_elewise_relu_0_split <- resx3_elewise
I0817 23:01:27.141191 30036 net.cpp:443] resx3_elewise_resx3_elewise_relu_0_split -> resx3_elewise_resx3_elewise_relu_0_split_0
I0817 23:01:27.141196 30036 net.cpp:443] resx3_elewise_resx3_elewise_relu_0_split -> resx3_elewise_resx3_elewise_relu_0_split_1
I0817 23:01:27.141237 30036 net.cpp:141] Setting up resx3_elewise_resx3_elewise_relu_0_split
I0817 23:01:27.141242 30036 net.cpp:148] Top shape: 80 240 28 28 (15052800)
I0817 23:01:27.141247 30036 net.cpp:148] Top shape: 80 240 28 28 (15052800)
I0817 23:01:27.141249 30036 net.cpp:156] Memory required for data: 2256415040
I0817 23:01:27.141252 30036 layer_factory.hpp:77] Creating layer resx4_conv1
I0817 23:01:27.141263 30036 net.cpp:91] Creating Layer resx4_conv1
I0817 23:01:27.141268 30036 net.cpp:469] resx4_conv1 <- resx3_elewise_resx3_elewise_relu_0_split_0
I0817 23:01:27.141273 30036 net.cpp:443] resx4_conv1 -> resx4_conv1
I0817 23:01:27.143970 30036 net.cpp:141] Setting up resx4_conv1
I0817 23:01:27.143985 30036 net.cpp:148] Top shape: 80 60 28 28 (3763200)
I0817 23:01:27.143990 30036 net.cpp:156] Memory required for data: 2271467840
I0817 23:01:27.143996 30036 layer_factory.hpp:77] Creating layer resx4_conv1_bn
I0817 23:01:27.144006 30036 net.cpp:91] Creating Layer resx4_conv1_bn
I0817 23:01:27.144009 30036 net.cpp:469] resx4_conv1_bn <- resx4_conv1
I0817 23:01:27.144017 30036 net.cpp:430] resx4_conv1_bn -> resx4_conv1 (in-place)
I0817 23:01:27.144193 30036 net.cpp:141] Setting up resx4_conv1_bn
I0817 23:01:27.144202 30036 net.cpp:148] Top shape: 80 60 28 28 (3763200)
I0817 23:01:27.144206 30036 net.cpp:156] Memory required for data: 2286520640
I0817 23:01:27.144212 30036 layer_factory.hpp:77] Creating layer resx4_conv1_scale
I0817 23:01:27.144223 30036 net.cpp:91] Creating Layer resx4_conv1_scale
I0817 23:01:27.144227 30036 net.cpp:469] resx4_conv1_scale <- resx4_conv1
I0817 23:01:27.144232 30036 net.cpp:430] resx4_conv1_scale -> resx4_conv1 (in-place)
I0817 23:01:27.144271 30036 layer_factory.hpp:77] Creating layer resx4_conv1_scale
I0817 23:01:27.144379 30036 net.cpp:141] Setting up resx4_conv1_scale
I0817 23:01:27.144387 30036 net.cpp:148] Top shape: 80 60 28 28 (3763200)
I0817 23:01:27.144390 30036 net.cpp:156] Memory required for data: 2301573440
I0817 23:01:27.144405 30036 layer_factory.hpp:77] Creating layer resx4_conv1_relu
I0817 23:01:27.144412 30036 net.cpp:91] Creating Layer resx4_conv1_relu
I0817 23:01:27.144417 30036 net.cpp:469] resx4_conv1_relu <- resx4_conv1
I0817 23:01:27.144420 30036 net.cpp:430] resx4_conv1_relu -> resx4_conv1 (in-place)
I0817 23:01:27.144573 30036 net.cpp:141] Setting up resx4_conv1_relu
I0817 23:01:27.144584 30036 net.cpp:148] Top shape: 80 60 28 28 (3763200)
I0817 23:01:27.144588 30036 net.cpp:156] Memory required for data: 2316626240
I0817 23:01:27.144592 30036 layer_factory.hpp:77] Creating layer shuffle4
I0817 23:01:27.144598 30036 net.cpp:91] Creating Layer shuffle4
I0817 23:01:27.144603 30036 net.cpp:469] shuffle4 <- resx4_conv1
I0817 23:01:27.144609 30036 net.cpp:443] shuffle4 -> shuffle4
I0817 23:01:27.144637 30036 net.cpp:141] Setting up shuffle4
I0817 23:01:27.144644 30036 net.cpp:148] Top shape: 80 60 28 28 (3763200)
I0817 23:01:27.144647 30036 net.cpp:156] Memory required for data: 2331679040
I0817 23:01:27.144655 30036 layer_factory.hpp:77] Creating layer resx4_conv2
I0817 23:01:27.144671 30036 net.cpp:91] Creating Layer resx4_conv2
I0817 23:01:27.144675 30036 net.cpp:469] resx4_conv2 <- shuffle4
I0817 23:01:27.144682 30036 net.cpp:443] resx4_conv2 -> resx4_conv2
I0817 23:01:27.144803 30036 net.cpp:141] Setting up resx4_conv2
I0817 23:01:27.144814 30036 net.cpp:148] Top shape: 80 60 28 28 (3763200)
I0817 23:01:27.144819 30036 net.cpp:156] Memory required for data: 2346731840
I0817 23:01:27.144824 30036 layer_factory.hpp:77] Creating layer resx4_conv2_bn
I0817 23:01:27.144832 30036 net.cpp:91] Creating Layer resx4_conv2_bn
I0817 23:01:27.144836 30036 net.cpp:469] resx4_conv2_bn <- resx4_conv2
I0817 23:01:27.144843 30036 net.cpp:430] resx4_conv2_bn -> resx4_conv2 (in-place)
I0817 23:01:27.145010 30036 net.cpp:141] Setting up resx4_conv2_bn
I0817 23:01:27.145020 30036 net.cpp:148] Top shape: 80 60 28 28 (3763200)
I0817 23:01:27.145022 30036 net.cpp:156] Memory required for data: 2361784640
I0817 23:01:27.145028 30036 layer_factory.hpp:77] Creating layer resx4_conv2_scale
I0817 23:01:27.145038 30036 net.cpp:91] Creating Layer resx4_conv2_scale
I0817 23:01:27.145043 30036 net.cpp:469] resx4_conv2_scale <- resx4_conv2
I0817 23:01:27.145048 30036 net.cpp:430] resx4_conv2_scale -> resx4_conv2 (in-place)
I0817 23:01:27.145093 30036 layer_factory.hpp:77] Creating layer resx4_conv2_scale
I0817 23:01:27.145205 30036 net.cpp:141] Setting up resx4_conv2_scale
I0817 23:01:27.145212 30036 net.cpp:148] Top shape: 80 60 28 28 (3763200)
I0817 23:01:27.145215 30036 net.cpp:156] Memory required for data: 2376837440
I0817 23:01:27.145221 30036 layer_factory.hpp:77] Creating layer resx4_conv3
I0817 23:01:27.145232 30036 net.cpp:91] Creating Layer resx4_conv3
I0817 23:01:27.145236 30036 net.cpp:469] resx4_conv3 <- resx4_conv2
I0817 23:01:27.145242 30036 net.cpp:443] resx4_conv3 -> resx4_conv3
I0817 23:01:27.147608 30036 net.cpp:141] Setting up resx4_conv3
I0817 23:01:27.147624 30036 net.cpp:148] Top shape: 80 240 28 28 (15052800)
I0817 23:01:27.147627 30036 net.cpp:156] Memory required for data: 2437048640
I0817 23:01:27.147634 30036 layer_factory.hpp:77] Creating layer resx4_conv3_bn
I0817 23:01:27.147644 30036 net.cpp:91] Creating Layer resx4_conv3_bn
I0817 23:01:27.147649 30036 net.cpp:469] resx4_conv3_bn <- resx4_conv3
I0817 23:01:27.147655 30036 net.cpp:430] resx4_conv3_bn -> resx4_conv3 (in-place)
I0817 23:01:27.147825 30036 net.cpp:141] Setting up resx4_conv3_bn
I0817 23:01:27.147835 30036 net.cpp:148] Top shape: 80 240 28 28 (15052800)
I0817 23:01:27.147837 30036 net.cpp:156] Memory required for data: 2497259840
I0817 23:01:27.147845 30036 layer_factory.hpp:77] Creating layer resx4_conv3_scale
I0817 23:01:27.147855 30036 net.cpp:91] Creating Layer resx4_conv3_scale
I0817 23:01:27.147858 30036 net.cpp:469] resx4_conv3_scale <- resx4_conv3
I0817 23:01:27.147863 30036 net.cpp:430] resx4_conv3_scale -> resx4_conv3 (in-place)
I0817 23:01:27.147902 30036 layer_factory.hpp:77] Creating layer resx4_conv3_scale
I0817 23:01:27.148011 30036 net.cpp:141] Setting up resx4_conv3_scale
I0817 23:01:27.148020 30036 net.cpp:148] Top shape: 80 240 28 28 (15052800)
I0817 23:01:27.148023 30036 net.cpp:156] Memory required for data: 2557471040
I0817 23:01:27.148030 30036 layer_factory.hpp:77] Creating layer resx4_elewise
I0817 23:01:27.148036 30036 net.cpp:91] Creating Layer resx4_elewise
I0817 23:01:27.148039 30036 net.cpp:469] resx4_elewise <- resx3_elewise_resx3_elewise_relu_0_split_1
I0817 23:01:27.148044 30036 net.cpp:469] resx4_elewise <- resx4_conv3
I0817 23:01:27.148051 30036 net.cpp:443] resx4_elewise -> resx4_elewise
I0817 23:01:27.148077 30036 net.cpp:141] Setting up resx4_elewise
I0817 23:01:27.148082 30036 net.cpp:148] Top shape: 80 240 28 28 (15052800)
I0817 23:01:27.148085 30036 net.cpp:156] Memory required for data: 2617682240
I0817 23:01:27.148089 30036 layer_factory.hpp:77] Creating layer resx4_elewise_relu
I0817 23:01:27.148097 30036 net.cpp:91] Creating Layer resx4_elewise_relu
I0817 23:01:27.148106 30036 net.cpp:469] resx4_elewise_relu <- resx4_elewise
I0817 23:01:27.148116 30036 net.cpp:430] resx4_elewise_relu -> resx4_elewise (in-place)
I0817 23:01:27.148435 30036 net.cpp:141] Setting up resx4_elewise_relu
I0817 23:01:27.148449 30036 net.cpp:148] Top shape: 80 240 28 28 (15052800)
I0817 23:01:27.148459 30036 net.cpp:156] Memory required for data: 2677893440
I0817 23:01:27.148464 30036 layer_factory.hpp:77] Creating layer resx4_elewise_resx4_elewise_relu_0_split
I0817 23:01:27.148470 30036 net.cpp:91] Creating Layer resx4_elewise_resx4_elewise_relu_0_split
I0817 23:01:27.148474 30036 net.cpp:469] resx4_elewise_resx4_elewise_relu_0_split <- resx4_elewise
I0817 23:01:27.148479 30036 net.cpp:443] resx4_elewise_resx4_elewise_relu_0_split -> resx4_elewise_resx4_elewise_relu_0_split_0
I0817 23:01:27.148490 30036 net.cpp:443] resx4_elewise_resx4_elewise_relu_0_split -> resx4_elewise_resx4_elewise_relu_0_split_1
I0817 23:01:27.148532 30036 net.cpp:141] Setting up resx4_elewise_resx4_elewise_relu_0_split
I0817 23:01:27.148540 30036 net.cpp:148] Top shape: 80 240 28 28 (15052800)
I0817 23:01:27.148543 30036 net.cpp:148] Top shape: 80 240 28 28 (15052800)
I0817 23:01:27.148546 30036 net.cpp:156] Memory required for data: 2798315840
I0817 23:01:27.148550 30036 layer_factory.hpp:77] Creating layer resx5_match_conv
I0817 23:01:27.148560 30036 net.cpp:91] Creating Layer resx5_match_conv
I0817 23:01:27.148563 30036 net.cpp:469] resx5_match_conv <- resx4_elewise_resx4_elewise_relu_0_split_0
I0817 23:01:27.148567 30036 net.cpp:443] resx5_match_conv -> resx5_match_conv
I0817 23:01:27.148910 30036 net.cpp:141] Setting up resx5_match_conv
I0817 23:01:27.148926 30036 net.cpp:148] Top shape: 80 240 14 14 (3763200)
I0817 23:01:27.148928 30036 net.cpp:156] Memory required for data: 2813368640
I0817 23:01:27.148932 30036 layer_factory.hpp:77] Creating layer resx5_conv1
I0817 23:01:27.148949 30036 net.cpp:91] Creating Layer resx5_conv1
I0817 23:01:27.148954 30036 net.cpp:469] resx5_conv1 <- resx4_elewise_resx4_elewise_relu_0_split_1
I0817 23:01:27.148963 30036 net.cpp:443] resx5_conv1 -> resx5_conv1
I0817 23:01:27.151582 30036 net.cpp:141] Setting up resx5_conv1
I0817 23:01:27.151597 30036 net.cpp:148] Top shape: 80 60 28 28 (3763200)
I0817 23:01:27.151602 30036 net.cpp:156] Memory required for data: 2828421440
I0817 23:01:27.151607 30036 layer_factory.hpp:77] Creating layer resx5_conv1_bn
I0817 23:01:27.151618 30036 net.cpp:91] Creating Layer resx5_conv1_bn
I0817 23:01:27.151621 30036 net.cpp:469] resx5_conv1_bn <- resx5_conv1
I0817 23:01:27.151628 30036 net.cpp:430] resx5_conv1_bn -> resx5_conv1 (in-place)
I0817 23:01:27.151803 30036 net.cpp:141] Setting up resx5_conv1_bn
I0817 23:01:27.151811 30036 net.cpp:148] Top shape: 80 60 28 28 (3763200)
I0817 23:01:27.151815 30036 net.cpp:156] Memory required for data: 2843474240
I0817 23:01:27.151823 30036 layer_factory.hpp:77] Creating layer resx5_conv1_scale
I0817 23:01:27.151831 30036 net.cpp:91] Creating Layer resx5_conv1_scale
I0817 23:01:27.151835 30036 net.cpp:469] resx5_conv1_scale <- resx5_conv1
I0817 23:01:27.151840 30036 net.cpp:430] resx5_conv1_scale -> resx5_conv1 (in-place)
I0817 23:01:27.151882 30036 layer_factory.hpp:77] Creating layer resx5_conv1_scale
I0817 23:01:27.151988 30036 net.cpp:141] Setting up resx5_conv1_scale
I0817 23:01:27.151996 30036 net.cpp:148] Top shape: 80 60 28 28 (3763200)
I0817 23:01:27.151999 30036 net.cpp:156] Memory required for data: 2858527040
I0817 23:01:27.152005 30036 layer_factory.hpp:77] Creating layer resx5_conv1_relu
I0817 23:01:27.152014 30036 net.cpp:91] Creating Layer resx5_conv1_relu
I0817 23:01:27.152017 30036 net.cpp:469] resx5_conv1_relu <- resx5_conv1
I0817 23:01:27.152021 30036 net.cpp:430] resx5_conv1_relu -> resx5_conv1 (in-place)
I0817 23:01:27.152174 30036 net.cpp:141] Setting up resx5_conv1_relu
I0817 23:01:27.152185 30036 net.cpp:148] Top shape: 80 60 28 28 (3763200)
I0817 23:01:27.152189 30036 net.cpp:156] Memory required for data: 2873579840
I0817 23:01:27.152192 30036 layer_factory.hpp:77] Creating layer shuffle5
I0817 23:01:27.152205 30036 net.cpp:91] Creating Layer shuffle5
I0817 23:01:27.152215 30036 net.cpp:469] shuffle5 <- resx5_conv1
I0817 23:01:27.152220 30036 net.cpp:443] shuffle5 -> shuffle5
I0817 23:01:27.152252 30036 net.cpp:141] Setting up shuffle5
I0817 23:01:27.152259 30036 net.cpp:148] Top shape: 80 60 28 28 (3763200)
I0817 23:01:27.152262 30036 net.cpp:156] Memory required for data: 2888632640
I0817 23:01:27.152266 30036 layer_factory.hpp:77] Creating layer resx5_conv2
I0817 23:01:27.152274 30036 net.cpp:91] Creating Layer resx5_conv2
I0817 23:01:27.152278 30036 net.cpp:469] resx5_conv2 <- shuffle5
I0817 23:01:27.152283 30036 net.cpp:443] resx5_conv2 -> resx5_conv2
I0817 23:01:27.152403 30036 net.cpp:141] Setting up resx5_conv2
I0817 23:01:27.152415 30036 net.cpp:148] Top shape: 80 60 14 14 (940800)
I0817 23:01:27.152418 30036 net.cpp:156] Memory required for data: 2892395840
I0817 23:01:27.152423 30036 layer_factory.hpp:77] Creating layer resx5_conv2_bn
I0817 23:01:27.152432 30036 net.cpp:91] Creating Layer resx5_conv2_bn
I0817 23:01:27.152436 30036 net.cpp:469] resx5_conv2_bn <- resx5_conv2
I0817 23:01:27.152441 30036 net.cpp:430] resx5_conv2_bn -> resx5_conv2 (in-place)
I0817 23:01:27.152607 30036 net.cpp:141] Setting up resx5_conv2_bn
I0817 23:01:27.152616 30036 net.cpp:148] Top shape: 80 60 14 14 (940800)
I0817 23:01:27.152619 30036 net.cpp:156] Memory required for data: 2896159040
I0817 23:01:27.152626 30036 layer_factory.hpp:77] Creating layer resx5_conv2_scale
I0817 23:01:27.152633 30036 net.cpp:91] Creating Layer resx5_conv2_scale
I0817 23:01:27.152637 30036 net.cpp:469] resx5_conv2_scale <- resx5_conv2
I0817 23:01:27.152642 30036 net.cpp:430] resx5_conv2_scale -> resx5_conv2 (in-place)
I0817 23:01:27.152683 30036 layer_factory.hpp:77] Creating layer resx5_conv2_scale
I0817 23:01:27.152784 30036 net.cpp:141] Setting up resx5_conv2_scale
I0817 23:01:27.152794 30036 net.cpp:148] Top shape: 80 60 14 14 (940800)
I0817 23:01:27.152797 30036 net.cpp:156] Memory required for data: 2899922240
I0817 23:01:27.152802 30036 layer_factory.hpp:77] Creating layer resx5_conv3
I0817 23:01:27.152811 30036 net.cpp:91] Creating Layer resx5_conv3
I0817 23:01:27.152814 30036 net.cpp:469] resx5_conv3 <- resx5_conv2
I0817 23:01:27.152822 30036 net.cpp:443] resx5_conv3 -> resx5_conv3
I0817 23:01:27.155562 30036 net.cpp:141] Setting up resx5_conv3
I0817 23:01:27.155580 30036 net.cpp:148] Top shape: 80 240 14 14 (3763200)
I0817 23:01:27.155583 30036 net.cpp:156] Memory required for data: 2914975040
I0817 23:01:27.155588 30036 layer_factory.hpp:77] Creating layer resx5_conv3_bn
I0817 23:01:27.155598 30036 net.cpp:91] Creating Layer resx5_conv3_bn
I0817 23:01:27.155602 30036 net.cpp:469] resx5_conv3_bn <- resx5_conv3
I0817 23:01:27.155609 30036 net.cpp:430] resx5_conv3_bn -> resx5_conv3 (in-place)
I0817 23:01:27.155782 30036 net.cpp:141] Setting up resx5_conv3_bn
I0817 23:01:27.155791 30036 net.cpp:148] Top shape: 80 240 14 14 (3763200)
I0817 23:01:27.155794 30036 net.cpp:156] Memory required for data: 2930027840
I0817 23:01:27.155802 30036 layer_factory.hpp:77] Creating layer resx5_conv3_scale
I0817 23:01:27.155814 30036 net.cpp:91] Creating Layer resx5_conv3_scale
I0817 23:01:27.155819 30036 net.cpp:469] resx5_conv3_scale <- resx5_conv3
I0817 23:01:27.155823 30036 net.cpp:430] resx5_conv3_scale -> resx5_conv3 (in-place)
I0817 23:01:27.155865 30036 layer_factory.hpp:77] Creating layer resx5_conv3_scale
I0817 23:01:27.155967 30036 net.cpp:141] Setting up resx5_conv3_scale
I0817 23:01:27.155975 30036 net.cpp:148] Top shape: 80 240 14 14 (3763200)
I0817 23:01:27.155978 30036 net.cpp:156] Memory required for data: 2945080640
I0817 23:01:27.155983 30036 layer_factory.hpp:77] Creating layer resx5_concat
I0817 23:01:27.155992 30036 net.cpp:91] Creating Layer resx5_concat
I0817 23:01:27.155997 30036 net.cpp:469] resx5_concat <- resx5_match_conv
I0817 23:01:27.156000 30036 net.cpp:469] resx5_concat <- resx5_conv3
I0817 23:01:27.156005 30036 net.cpp:443] resx5_concat -> resx5_concat
I0817 23:01:27.156028 30036 net.cpp:141] Setting up resx5_concat
I0817 23:01:27.156040 30036 net.cpp:148] Top shape: 80 480 14 14 (7526400)
I0817 23:01:27.156049 30036 net.cpp:156] Memory required for data: 2975186240
I0817 23:01:27.156054 30036 layer_factory.hpp:77] Creating layer resx5_concat_relu
I0817 23:01:27.156060 30036 net.cpp:91] Creating Layer resx5_concat_relu
I0817 23:01:27.156064 30036 net.cpp:469] resx5_concat_relu <- resx5_concat
I0817 23:01:27.156069 30036 net.cpp:430] resx5_concat_relu -> resx5_concat (in-place)
I0817 23:01:27.156220 30036 net.cpp:141] Setting up resx5_concat_relu
I0817 23:01:27.156230 30036 net.cpp:148] Top shape: 80 480 14 14 (7526400)
I0817 23:01:27.156234 30036 net.cpp:156] Memory required for data: 3005291840
I0817 23:01:27.156237 30036 layer_factory.hpp:77] Creating layer resx5_concat_resx5_concat_relu_0_split
I0817 23:01:27.156244 30036 net.cpp:91] Creating Layer resx5_concat_resx5_concat_relu_0_split
I0817 23:01:27.156247 30036 net.cpp:469] resx5_concat_resx5_concat_relu_0_split <- resx5_concat
I0817 23:01:27.156255 30036 net.cpp:443] resx5_concat_resx5_concat_relu_0_split -> resx5_concat_resx5_concat_relu_0_split_0
I0817 23:01:27.156260 30036 net.cpp:443] resx5_concat_resx5_concat_relu_0_split -> resx5_concat_resx5_concat_relu_0_split_1
I0817 23:01:27.156299 30036 net.cpp:141] Setting up resx5_concat_resx5_concat_relu_0_split
I0817 23:01:27.156308 30036 net.cpp:148] Top shape: 80 480 14 14 (7526400)
I0817 23:01:27.156312 30036 net.cpp:148] Top shape: 80 480 14 14 (7526400)
I0817 23:01:27.156316 30036 net.cpp:156] Memory required for data: 3065503040
I0817 23:01:27.156318 30036 layer_factory.hpp:77] Creating layer resx6_conv1
I0817 23:01:27.156327 30036 net.cpp:91] Creating Layer resx6_conv1
I0817 23:01:27.156330 30036 net.cpp:469] resx6_conv1 <- resx5_concat_resx5_concat_relu_0_split_0
I0817 23:01:27.156337 30036 net.cpp:443] resx6_conv1 -> resx6_conv1
I0817 23:01:27.159890 30036 net.cpp:141] Setting up resx6_conv1
I0817 23:01:27.159906 30036 net.cpp:148] Top shape: 80 120 14 14 (1881600)
I0817 23:01:27.159910 30036 net.cpp:156] Memory required for data: 3073029440
I0817 23:01:27.159916 30036 layer_factory.hpp:77] Creating layer resx6_conv1_bn
I0817 23:01:27.159925 30036 net.cpp:91] Creating Layer resx6_conv1_bn
I0817 23:01:27.159930 30036 net.cpp:469] resx6_conv1_bn <- resx6_conv1
I0817 23:01:27.159937 30036 net.cpp:430] resx6_conv1_bn -> resx6_conv1 (in-place)
I0817 23:01:27.160325 30036 net.cpp:141] Setting up resx6_conv1_bn
I0817 23:01:27.160336 30036 net.cpp:148] Top shape: 80 120 14 14 (1881600)
I0817 23:01:27.160339 30036 net.cpp:156] Memory required for data: 3080555840
I0817 23:01:27.160346 30036 layer_factory.hpp:77] Creating layer resx6_conv1_scale
I0817 23:01:27.160356 30036 net.cpp:91] Creating Layer resx6_conv1_scale
I0817 23:01:27.160360 30036 net.cpp:469] resx6_conv1_scale <- resx6_conv1
I0817 23:01:27.160365 30036 net.cpp:430] resx6_conv1_scale -> resx6_conv1 (in-place)
I0817 23:01:27.160408 30036 layer_factory.hpp:77] Creating layer resx6_conv1_scale
I0817 23:01:27.160531 30036 net.cpp:141] Setting up resx6_conv1_scale
I0817 23:01:27.160540 30036 net.cpp:148] Top shape: 80 120 14 14 (1881600)
I0817 23:01:27.160543 30036 net.cpp:156] Memory required for data: 3088082240
I0817 23:01:27.160549 30036 layer_factory.hpp:77] Creating layer resx6_conv1_relu
I0817 23:01:27.160555 30036 net.cpp:91] Creating Layer resx6_conv1_relu
I0817 23:01:27.160558 30036 net.cpp:469] resx6_conv1_relu <- resx6_conv1
I0817 23:01:27.160565 30036 net.cpp:430] resx6_conv1_relu -> resx6_conv1 (in-place)
I0817 23:01:27.160717 30036 net.cpp:141] Setting up resx6_conv1_relu
I0817 23:01:27.160727 30036 net.cpp:148] Top shape: 80 120 14 14 (1881600)
I0817 23:01:27.160730 30036 net.cpp:156] Memory required for data: 3095608640
I0817 23:01:27.160734 30036 layer_factory.hpp:77] Creating layer shuffle6
I0817 23:01:27.160740 30036 net.cpp:91] Creating Layer shuffle6
I0817 23:01:27.160744 30036 net.cpp:469] shuffle6 <- resx6_conv1
I0817 23:01:27.160753 30036 net.cpp:443] shuffle6 -> shuffle6
I0817 23:01:27.160782 30036 net.cpp:141] Setting up shuffle6
I0817 23:01:27.160794 30036 net.cpp:148] Top shape: 80 120 14 14 (1881600)
I0817 23:01:27.160802 30036 net.cpp:156] Memory required for data: 3103135040
I0817 23:01:27.160806 30036 layer_factory.hpp:77] Creating layer resx6_conv2
I0817 23:01:27.160815 30036 net.cpp:91] Creating Layer resx6_conv2
I0817 23:01:27.160820 30036 net.cpp:469] resx6_conv2 <- shuffle6
I0817 23:01:27.160826 30036 net.cpp:443] resx6_conv2 -> resx6_conv2
I0817 23:01:27.160962 30036 net.cpp:141] Setting up resx6_conv2
I0817 23:01:27.160974 30036 net.cpp:148] Top shape: 80 120 14 14 (1881600)
I0817 23:01:27.160977 30036 net.cpp:156] Memory required for data: 3110661440
I0817 23:01:27.160982 30036 layer_factory.hpp:77] Creating layer resx6_conv2_bn
I0817 23:01:27.160990 30036 net.cpp:91] Creating Layer resx6_conv2_bn
I0817 23:01:27.160995 30036 net.cpp:469] resx6_conv2_bn <- resx6_conv2
I0817 23:01:27.161000 30036 net.cpp:430] resx6_conv2_bn -> resx6_conv2 (in-place)
I0817 23:01:27.161177 30036 net.cpp:141] Setting up resx6_conv2_bn
I0817 23:01:27.161187 30036 net.cpp:148] Top shape: 80 120 14 14 (1881600)
I0817 23:01:27.161190 30036 net.cpp:156] Memory required for data: 3118187840
I0817 23:01:27.161197 30036 layer_factory.hpp:77] Creating layer resx6_conv2_scale
I0817 23:01:27.161211 30036 net.cpp:91] Creating Layer resx6_conv2_scale
I0817 23:01:27.161216 30036 net.cpp:469] resx6_conv2_scale <- resx6_conv2
I0817 23:01:27.161221 30036 net.cpp:430] resx6_conv2_scale -> resx6_conv2 (in-place)
I0817 23:01:27.161263 30036 layer_factory.hpp:77] Creating layer resx6_conv2_scale
I0817 23:01:27.161368 30036 net.cpp:141] Setting up resx6_conv2_scale
I0817 23:01:27.161376 30036 net.cpp:148] Top shape: 80 120 14 14 (1881600)
I0817 23:01:27.161379 30036 net.cpp:156] Memory required for data: 3125714240
I0817 23:01:27.161384 30036 layer_factory.hpp:77] Creating layer resx6_conv3
I0817 23:01:27.161394 30036 net.cpp:91] Creating Layer resx6_conv3
I0817 23:01:27.161398 30036 net.cpp:469] resx6_conv3 <- resx6_conv2
I0817 23:01:27.161406 30036 net.cpp:443] resx6_conv3 -> resx6_conv3
I0817 23:01:27.176882 30036 net.cpp:141] Setting up resx6_conv3
I0817 23:01:27.176898 30036 net.cpp:148] Top shape: 80 480 14 14 (7526400)
I0817 23:01:27.176901 30036 net.cpp:156] Memory required for data: 3155819840
I0817 23:01:27.176908 30036 layer_factory.hpp:77] Creating layer resx6_conv3_bn
I0817 23:01:27.176918 30036 net.cpp:91] Creating Layer resx6_conv3_bn
I0817 23:01:27.176921 30036 net.cpp:469] resx6_conv3_bn <- resx6_conv3
I0817 23:01:27.176928 30036 net.cpp:430] resx6_conv3_bn -> resx6_conv3 (in-place)
I0817 23:01:27.177134 30036 net.cpp:141] Setting up resx6_conv3_bn
I0817 23:01:27.177146 30036 net.cpp:148] Top shape: 80 480 14 14 (7526400)
I0817 23:01:27.177150 30036 net.cpp:156] Memory required for data: 3185925440
I0817 23:01:27.177156 30036 layer_factory.hpp:77] Creating layer resx6_conv3_scale
I0817 23:01:27.177166 30036 net.cpp:91] Creating Layer resx6_conv3_scale
I0817 23:01:27.177170 30036 net.cpp:469] resx6_conv3_scale <- resx6_conv3
I0817 23:01:27.177175 30036 net.cpp:430] resx6_conv3_scale -> resx6_conv3 (in-place)
I0817 23:01:27.177219 30036 layer_factory.hpp:77] Creating layer resx6_conv3_scale
I0817 23:01:27.177330 30036 net.cpp:141] Setting up resx6_conv3_scale
I0817 23:01:27.177337 30036 net.cpp:148] Top shape: 80 480 14 14 (7526400)
I0817 23:01:27.177340 30036 net.cpp:156] Memory required for data: 3216031040
I0817 23:01:27.177346 30036 layer_factory.hpp:77] Creating layer resx6_elewise
I0817 23:01:27.177355 30036 net.cpp:91] Creating Layer resx6_elewise
I0817 23:01:27.177358 30036 net.cpp:469] resx6_elewise <- resx5_concat_resx5_concat_relu_0_split_1
I0817 23:01:27.177363 30036 net.cpp:469] resx6_elewise <- resx6_conv3
I0817 23:01:27.177367 30036 net.cpp:443] resx6_elewise -> resx6_elewise
I0817 23:01:27.177392 30036 net.cpp:141] Setting up resx6_elewise
I0817 23:01:27.177399 30036 net.cpp:148] Top shape: 80 480 14 14 (7526400)
I0817 23:01:27.177402 30036 net.cpp:156] Memory required for data: 3246136640
I0817 23:01:27.177405 30036 layer_factory.hpp:77] Creating layer resx6_elewise_relu
I0817 23:01:27.177417 30036 net.cpp:91] Creating Layer resx6_elewise_relu
I0817 23:01:27.177428 30036 net.cpp:469] resx6_elewise_relu <- resx6_elewise
I0817 23:01:27.177433 30036 net.cpp:430] resx6_elewise_relu -> resx6_elewise (in-place)
I0817 23:01:27.177595 30036 net.cpp:141] Setting up resx6_elewise_relu
I0817 23:01:27.177606 30036 net.cpp:148] Top shape: 80 480 14 14 (7526400)
I0817 23:01:27.177609 30036 net.cpp:156] Memory required for data: 3276242240
I0817 23:01:27.177613 30036 layer_factory.hpp:77] Creating layer resx6_elewise_resx6_elewise_relu_0_split
I0817 23:01:27.177619 30036 net.cpp:91] Creating Layer resx6_elewise_resx6_elewise_relu_0_split
I0817 23:01:27.177623 30036 net.cpp:469] resx6_elewise_resx6_elewise_relu_0_split <- resx6_elewise
I0817 23:01:27.177629 30036 net.cpp:443] resx6_elewise_resx6_elewise_relu_0_split -> resx6_elewise_resx6_elewise_relu_0_split_0
I0817 23:01:27.177635 30036 net.cpp:443] resx6_elewise_resx6_elewise_relu_0_split -> resx6_elewise_resx6_elewise_relu_0_split_1
I0817 23:01:27.177676 30036 net.cpp:141] Setting up resx6_elewise_resx6_elewise_relu_0_split
I0817 23:01:27.177685 30036 net.cpp:148] Top shape: 80 480 14 14 (7526400)
I0817 23:01:27.177688 30036 net.cpp:148] Top shape: 80 480 14 14 (7526400)
I0817 23:01:27.177691 30036 net.cpp:156] Memory required for data: 3336453440
I0817 23:01:27.177695 30036 layer_factory.hpp:77] Creating layer resx7_conv1
I0817 23:01:27.177702 30036 net.cpp:91] Creating Layer resx7_conv1
I0817 23:01:27.177706 30036 net.cpp:469] resx7_conv1 <- resx6_elewise_resx6_elewise_relu_0_split_0
I0817 23:01:27.177713 30036 net.cpp:443] resx7_conv1 -> resx7_conv1
I0817 23:01:27.180812 30036 net.cpp:141] Setting up resx7_conv1
I0817 23:01:27.180827 30036 net.cpp:148] Top shape: 80 120 14 14 (1881600)
I0817 23:01:27.180831 30036 net.cpp:156] Memory required for data: 3343979840
I0817 23:01:27.180836 30036 layer_factory.hpp:77] Creating layer resx7_conv1_bn
I0817 23:01:27.180845 30036 net.cpp:91] Creating Layer resx7_conv1_bn
I0817 23:01:27.180850 30036 net.cpp:469] resx7_conv1_bn <- resx7_conv1
I0817 23:01:27.180855 30036 net.cpp:430] resx7_conv1_bn -> resx7_conv1 (in-place)
I0817 23:01:27.181038 30036 net.cpp:141] Setting up resx7_conv1_bn
I0817 23:01:27.181047 30036 net.cpp:148] Top shape: 80 120 14 14 (1881600)
I0817 23:01:27.181051 30036 net.cpp:156] Memory required for data: 3351506240
I0817 23:01:27.181057 30036 layer_factory.hpp:77] Creating layer resx7_conv1_scale
I0817 23:01:27.181066 30036 net.cpp:91] Creating Layer resx7_conv1_scale
I0817 23:01:27.181071 30036 net.cpp:469] resx7_conv1_scale <- resx7_conv1
I0817 23:01:27.181074 30036 net.cpp:430] resx7_conv1_scale -> resx7_conv1 (in-place)
I0817 23:01:27.181124 30036 layer_factory.hpp:77] Creating layer resx7_conv1_scale
I0817 23:01:27.181236 30036 net.cpp:141] Setting up resx7_conv1_scale
I0817 23:01:27.181244 30036 net.cpp:148] Top shape: 80 120 14 14 (1881600)
I0817 23:01:27.181247 30036 net.cpp:156] Memory required for data: 3359032640
I0817 23:01:27.181252 30036 layer_factory.hpp:77] Creating layer resx7_conv1_relu
I0817 23:01:27.181260 30036 net.cpp:91] Creating Layer resx7_conv1_relu
I0817 23:01:27.181264 30036 net.cpp:469] resx7_conv1_relu <- resx7_conv1
I0817 23:01:27.181268 30036 net.cpp:430] resx7_conv1_relu -> resx7_conv1 (in-place)
I0817 23:01:27.181421 30036 net.cpp:141] Setting up resx7_conv1_relu
I0817 23:01:27.181430 30036 net.cpp:148] Top shape: 80 120 14 14 (1881600)
I0817 23:01:27.181433 30036 net.cpp:156] Memory required for data: 3366559040
I0817 23:01:27.181437 30036 layer_factory.hpp:77] Creating layer shuffle7
I0817 23:01:27.181444 30036 net.cpp:91] Creating Layer shuffle7
I0817 23:01:27.181448 30036 net.cpp:469] shuffle7 <- resx7_conv1
I0817 23:01:27.181455 30036 net.cpp:443] shuffle7 -> shuffle7
I0817 23:01:27.181484 30036 net.cpp:141] Setting up shuffle7
I0817 23:01:27.181490 30036 net.cpp:148] Top shape: 80 120 14 14 (1881600)
I0817 23:01:27.181493 30036 net.cpp:156] Memory required for data: 3374085440
I0817 23:01:27.181498 30036 layer_factory.hpp:77] Creating layer resx7_conv2
I0817 23:01:27.181510 30036 net.cpp:91] Creating Layer resx7_conv2
I0817 23:01:27.181519 30036 net.cpp:469] resx7_conv2 <- shuffle7
I0817 23:01:27.181526 30036 net.cpp:443] resx7_conv2 -> resx7_conv2
I0817 23:01:27.181664 30036 net.cpp:141] Setting up resx7_conv2
I0817 23:01:27.181674 30036 net.cpp:148] Top shape: 80 120 14 14 (1881600)
I0817 23:01:27.181677 30036 net.cpp:156] Memory required for data: 3381611840
I0817 23:01:27.181682 30036 layer_factory.hpp:77] Creating layer resx7_conv2_bn
I0817 23:01:27.181691 30036 net.cpp:91] Creating Layer resx7_conv2_bn
I0817 23:01:27.181695 30036 net.cpp:469] resx7_conv2_bn <- resx7_conv2
I0817 23:01:27.181701 30036 net.cpp:430] resx7_conv2_bn -> resx7_conv2 (in-place)
I0817 23:01:27.181879 30036 net.cpp:141] Setting up resx7_conv2_bn
I0817 23:01:27.181886 30036 net.cpp:148] Top shape: 80 120 14 14 (1881600)
I0817 23:01:27.181890 30036 net.cpp:156] Memory required for data: 3389138240
I0817 23:01:27.181896 30036 layer_factory.hpp:77] Creating layer resx7_conv2_scale
I0817 23:01:27.181905 30036 net.cpp:91] Creating Layer resx7_conv2_scale
I0817 23:01:27.181908 30036 net.cpp:469] resx7_conv2_scale <- resx7_conv2
I0817 23:01:27.181913 30036 net.cpp:430] resx7_conv2_scale -> resx7_conv2 (in-place)
I0817 23:01:27.181953 30036 layer_factory.hpp:77] Creating layer resx7_conv2_scale
I0817 23:01:27.182065 30036 net.cpp:141] Setting up resx7_conv2_scale
I0817 23:01:27.182072 30036 net.cpp:148] Top shape: 80 120 14 14 (1881600)
I0817 23:01:27.182075 30036 net.cpp:156] Memory required for data: 3396664640
I0817 23:01:27.182081 30036 layer_factory.hpp:77] Creating layer resx7_conv3
I0817 23:01:27.182090 30036 net.cpp:91] Creating Layer resx7_conv3
I0817 23:01:27.182095 30036 net.cpp:469] resx7_conv3 <- resx7_conv2
I0817 23:01:27.182099 30036 net.cpp:443] resx7_conv3 -> resx7_conv3
I0817 23:01:27.185011 30036 net.cpp:141] Setting up resx7_conv3
I0817 23:01:27.185026 30036 net.cpp:148] Top shape: 80 480 14 14 (7526400)
I0817 23:01:27.185030 30036 net.cpp:156] Memory required for data: 3426770240
I0817 23:01:27.185035 30036 layer_factory.hpp:77] Creating layer resx7_conv3_bn
I0817 23:01:27.185048 30036 net.cpp:91] Creating Layer resx7_conv3_bn
I0817 23:01:27.185052 30036 net.cpp:469] resx7_conv3_bn <- resx7_conv3
I0817 23:01:27.185060 30036 net.cpp:430] resx7_conv3_bn -> resx7_conv3 (in-place)
I0817 23:01:27.185259 30036 net.cpp:141] Setting up resx7_conv3_bn
I0817 23:01:27.185268 30036 net.cpp:148] Top shape: 80 480 14 14 (7526400)
I0817 23:01:27.185272 30036 net.cpp:156] Memory required for data: 3456875840
I0817 23:01:27.185292 30036 layer_factory.hpp:77] Creating layer resx7_conv3_scale
I0817 23:01:27.185299 30036 net.cpp:91] Creating Layer resx7_conv3_scale
I0817 23:01:27.185303 30036 net.cpp:469] resx7_conv3_scale <- resx7_conv3
I0817 23:01:27.185310 30036 net.cpp:430] resx7_conv3_scale -> resx7_conv3 (in-place)
I0817 23:01:27.185358 30036 layer_factory.hpp:77] Creating layer resx7_conv3_scale
I0817 23:01:27.185470 30036 net.cpp:141] Setting up resx7_conv3_scale
I0817 23:01:27.185477 30036 net.cpp:148] Top shape: 80 480 14 14 (7526400)
I0817 23:01:27.185480 30036 net.cpp:156] Memory required for data: 3486981440
I0817 23:01:27.185487 30036 layer_factory.hpp:77] Creating layer resx7_elewise
I0817 23:01:27.185492 30036 net.cpp:91] Creating Layer resx7_elewise
I0817 23:01:27.185497 30036 net.cpp:469] resx7_elewise <- resx6_elewise_resx6_elewise_relu_0_split_1
I0817 23:01:27.185500 30036 net.cpp:469] resx7_elewise <- resx7_conv3
I0817 23:01:27.185505 30036 net.cpp:443] resx7_elewise -> resx7_elewise
I0817 23:01:27.185533 30036 net.cpp:141] Setting up resx7_elewise
I0817 23:01:27.185539 30036 net.cpp:148] Top shape: 80 480 14 14 (7526400)
I0817 23:01:27.185542 30036 net.cpp:156] Memory required for data: 3517087040
I0817 23:01:27.185545 30036 layer_factory.hpp:77] Creating layer resx7_elewise_relu
I0817 23:01:27.185551 30036 net.cpp:91] Creating Layer resx7_elewise_relu
I0817 23:01:27.185556 30036 net.cpp:469] resx7_elewise_relu <- resx7_elewise
I0817 23:01:27.185561 30036 net.cpp:430] resx7_elewise_relu -> resx7_elewise (in-place)
I0817 23:01:27.185722 30036 net.cpp:141] Setting up resx7_elewise_relu
I0817 23:01:27.185734 30036 net.cpp:148] Top shape: 80 480 14 14 (7526400)
I0817 23:01:27.185736 30036 net.cpp:156] Memory required for data: 3547192640
I0817 23:01:27.185739 30036 layer_factory.hpp:77] Creating layer resx7_elewise_resx7_elewise_relu_0_split
I0817 23:01:27.185747 30036 net.cpp:91] Creating Layer resx7_elewise_resx7_elewise_relu_0_split
I0817 23:01:27.185751 30036 net.cpp:469] resx7_elewise_resx7_elewise_relu_0_split <- resx7_elewise
I0817 23:01:27.185756 30036 net.cpp:443] resx7_elewise_resx7_elewise_relu_0_split -> resx7_elewise_resx7_elewise_relu_0_split_0
I0817 23:01:27.185762 30036 net.cpp:443] resx7_elewise_resx7_elewise_relu_0_split -> resx7_elewise_resx7_elewise_relu_0_split_1
I0817 23:01:27.185804 30036 net.cpp:141] Setting up resx7_elewise_resx7_elewise_relu_0_split
I0817 23:01:27.185811 30036 net.cpp:148] Top shape: 80 480 14 14 (7526400)
I0817 23:01:27.185814 30036 net.cpp:148] Top shape: 80 480 14 14 (7526400)
I0817 23:01:27.185817 30036 net.cpp:156] Memory required for data: 3607403840
I0817 23:01:27.185820 30036 layer_factory.hpp:77] Creating layer resx8_conv1
I0817 23:01:27.185830 30036 net.cpp:91] Creating Layer resx8_conv1
I0817 23:01:27.185834 30036 net.cpp:469] resx8_conv1 <- resx7_elewise_resx7_elewise_relu_0_split_0
I0817 23:01:27.185839 30036 net.cpp:443] resx8_conv1 -> resx8_conv1
I0817 23:01:27.188752 30036 net.cpp:141] Setting up resx8_conv1
I0817 23:01:27.188768 30036 net.cpp:148] Top shape: 80 120 14 14 (1881600)
I0817 23:01:27.188772 30036 net.cpp:156] Memory required for data: 3614930240
I0817 23:01:27.188778 30036 layer_factory.hpp:77] Creating layer resx8_conv1_bn
I0817 23:01:27.188786 30036 net.cpp:91] Creating Layer resx8_conv1_bn
I0817 23:01:27.188789 30036 net.cpp:469] resx8_conv1_bn <- resx8_conv1
I0817 23:01:27.188796 30036 net.cpp:430] resx8_conv1_bn -> resx8_conv1 (in-place)
I0817 23:01:27.188985 30036 net.cpp:141] Setting up resx8_conv1_bn
I0817 23:01:27.188993 30036 net.cpp:148] Top shape: 80 120 14 14 (1881600)
I0817 23:01:27.188997 30036 net.cpp:156] Memory required for data: 3622456640
I0817 23:01:27.189003 30036 layer_factory.hpp:77] Creating layer resx8_conv1_scale
I0817 23:01:27.189009 30036 net.cpp:91] Creating Layer resx8_conv1_scale
I0817 23:01:27.189013 30036 net.cpp:469] resx8_conv1_scale <- resx8_conv1
I0817 23:01:27.189020 30036 net.cpp:430] resx8_conv1_scale -> resx8_conv1 (in-place)
I0817 23:01:27.189059 30036 layer_factory.hpp:77] Creating layer resx8_conv1_scale
I0817 23:01:27.189184 30036 net.cpp:141] Setting up resx8_conv1_scale
I0817 23:01:27.189195 30036 net.cpp:148] Top shape: 80 120 14 14 (1881600)
I0817 23:01:27.189198 30036 net.cpp:156] Memory required for data: 3629983040
I0817 23:01:27.189204 30036 layer_factory.hpp:77] Creating layer resx8_conv1_relu
I0817 23:01:27.189210 30036 net.cpp:91] Creating Layer resx8_conv1_relu
I0817 23:01:27.189214 30036 net.cpp:469] resx8_conv1_relu <- resx8_conv1
I0817 23:01:27.189220 30036 net.cpp:430] resx8_conv1_relu -> resx8_conv1 (in-place)
I0817 23:01:27.189376 30036 net.cpp:141] Setting up resx8_conv1_relu
I0817 23:01:27.189386 30036 net.cpp:148] Top shape: 80 120 14 14 (1881600)
I0817 23:01:27.189390 30036 net.cpp:156] Memory required for data: 3637509440
I0817 23:01:27.189393 30036 layer_factory.hpp:77] Creating layer shuffle8
I0817 23:01:27.189401 30036 net.cpp:91] Creating Layer shuffle8
I0817 23:01:27.189405 30036 net.cpp:469] shuffle8 <- resx8_conv1
I0817 23:01:27.189410 30036 net.cpp:443] shuffle8 -> shuffle8
I0817 23:01:27.189442 30036 net.cpp:141] Setting up shuffle8
I0817 23:01:27.189450 30036 net.cpp:148] Top shape: 80 120 14 14 (1881600)
I0817 23:01:27.189452 30036 net.cpp:156] Memory required for data: 3645035840
I0817 23:01:27.189455 30036 layer_factory.hpp:77] Creating layer resx8_conv2
I0817 23:01:27.189462 30036 net.cpp:91] Creating Layer resx8_conv2
I0817 23:01:27.189465 30036 net.cpp:469] resx8_conv2 <- shuffle8
I0817 23:01:27.189472 30036 net.cpp:443] resx8_conv2 -> resx8_conv2
I0817 23:01:27.189798 30036 net.cpp:141] Setting up resx8_conv2
I0817 23:01:27.189818 30036 net.cpp:148] Top shape: 80 120 14 14 (1881600)
I0817 23:01:27.189822 30036 net.cpp:156] Memory required for data: 3652562240
I0817 23:01:27.189827 30036 layer_factory.hpp:77] Creating layer resx8_conv2_bn
I0817 23:01:27.189836 30036 net.cpp:91] Creating Layer resx8_conv2_bn
I0817 23:01:27.189841 30036 net.cpp:469] resx8_conv2_bn <- resx8_conv2
I0817 23:01:27.189846 30036 net.cpp:430] resx8_conv2_bn -> resx8_conv2 (in-place)
I0817 23:01:27.190037 30036 net.cpp:141] Setting up resx8_conv2_bn
I0817 23:01:27.190045 30036 net.cpp:148] Top shape: 80 120 14 14 (1881600)
I0817 23:01:27.190048 30036 net.cpp:156] Memory required for data: 3660088640
I0817 23:01:27.190055 30036 layer_factory.hpp:77] Creating layer resx8_conv2_scale
I0817 23:01:27.190062 30036 net.cpp:91] Creating Layer resx8_conv2_scale
I0817 23:01:27.190065 30036 net.cpp:469] resx8_conv2_scale <- resx8_conv2
I0817 23:01:27.190070 30036 net.cpp:430] resx8_conv2_scale -> resx8_conv2 (in-place)
I0817 23:01:27.190114 30036 layer_factory.hpp:77] Creating layer resx8_conv2_scale
I0817 23:01:27.190224 30036 net.cpp:141] Setting up resx8_conv2_scale
I0817 23:01:27.190234 30036 net.cpp:148] Top shape: 80 120 14 14 (1881600)
I0817 23:01:27.190237 30036 net.cpp:156] Memory required for data: 3667615040
I0817 23:01:27.190243 30036 layer_factory.hpp:77] Creating layer resx8_conv3
I0817 23:01:27.190250 30036 net.cpp:91] Creating Layer resx8_conv3
I0817 23:01:27.190254 30036 net.cpp:469] resx8_conv3 <- resx8_conv2
I0817 23:01:27.190261 30036 net.cpp:443] resx8_conv3 -> resx8_conv3
I0817 23:01:27.193028 30036 net.cpp:141] Setting up resx8_conv3
I0817 23:01:27.193042 30036 net.cpp:148] Top shape: 80 480 14 14 (7526400)
I0817 23:01:27.193047 30036 net.cpp:156] Memory required for data: 3697720640
I0817 23:01:27.193051 30036 layer_factory.hpp:77] Creating layer resx8_conv3_bn
I0817 23:01:27.193061 30036 net.cpp:91] Creating Layer resx8_conv3_bn
I0817 23:01:27.193065 30036 net.cpp:469] resx8_conv3_bn <- resx8_conv3
I0817 23:01:27.193070 30036 net.cpp:430] resx8_conv3_bn -> resx8_conv3 (in-place)
I0817 23:01:27.193269 30036 net.cpp:141] Setting up resx8_conv3_bn
I0817 23:01:27.193279 30036 net.cpp:148] Top shape: 80 480 14 14 (7526400)
I0817 23:01:27.193282 30036 net.cpp:156] Memory required for data: 3727826240
I0817 23:01:27.193289 30036 layer_factory.hpp:77] Creating layer resx8_conv3_scale
I0817 23:01:27.193295 30036 net.cpp:91] Creating Layer resx8_conv3_scale
I0817 23:01:27.193300 30036 net.cpp:469] resx8_conv3_scale <- resx8_conv3
I0817 23:01:27.193305 30036 net.cpp:430] resx8_conv3_scale -> resx8_conv3 (in-place)
I0817 23:01:27.193349 30036 layer_factory.hpp:77] Creating layer resx8_conv3_scale
I0817 23:01:27.193464 30036 net.cpp:141] Setting up resx8_conv3_scale
I0817 23:01:27.193470 30036 net.cpp:148] Top shape: 80 480 14 14 (7526400)
I0817 23:01:27.193473 30036 net.cpp:156] Memory required for data: 3757931840
I0817 23:01:27.193480 30036 layer_factory.hpp:77] Creating layer resx8_elewise
I0817 23:01:27.193485 30036 net.cpp:91] Creating Layer resx8_elewise
I0817 23:01:27.193490 30036 net.cpp:469] resx8_elewise <- resx7_elewise_resx7_elewise_relu_0_split_1
I0817 23:01:27.193495 30036 net.cpp:469] resx8_elewise <- resx8_conv3
I0817 23:01:27.193500 30036 net.cpp:443] resx8_elewise -> resx8_elewise
I0817 23:01:27.193526 30036 net.cpp:141] Setting up resx8_elewise
I0817 23:01:27.193534 30036 net.cpp:148] Top shape: 80 480 14 14 (7526400)
I0817 23:01:27.193537 30036 net.cpp:156] Memory required for data: 3788037440
I0817 23:01:27.193542 30036 layer_factory.hpp:77] Creating layer resx8_elewise_relu
I0817 23:01:27.193547 30036 net.cpp:91] Creating Layer resx8_elewise_relu
I0817 23:01:27.193549 30036 net.cpp:469] resx8_elewise_relu <- resx8_elewise
I0817 23:01:27.193554 30036 net.cpp:430] resx8_elewise_relu -> resx8_elewise (in-place)
I0817 23:01:27.193873 30036 net.cpp:141] Setting up resx8_elewise_relu
I0817 23:01:27.193886 30036 net.cpp:148] Top shape: 80 480 14 14 (7526400)
I0817 23:01:27.193893 30036 net.cpp:156] Memory required for data: 3818143040
I0817 23:01:27.193907 30036 layer_factory.hpp:77] Creating layer resx8_elewise_resx8_elewise_relu_0_split
I0817 23:01:27.193915 30036 net.cpp:91] Creating Layer resx8_elewise_resx8_elewise_relu_0_split
I0817 23:01:27.193919 30036 net.cpp:469] resx8_elewise_resx8_elewise_relu_0_split <- resx8_elewise
I0817 23:01:27.193924 30036 net.cpp:443] resx8_elewise_resx8_elewise_relu_0_split -> resx8_elewise_resx8_elewise_relu_0_split_0
I0817 23:01:27.193931 30036 net.cpp:443] resx8_elewise_resx8_elewise_relu_0_split -> resx8_elewise_resx8_elewise_relu_0_split_1
I0817 23:01:27.193979 30036 net.cpp:141] Setting up resx8_elewise_resx8_elewise_relu_0_split
I0817 23:01:27.193985 30036 net.cpp:148] Top shape: 80 480 14 14 (7526400)
I0817 23:01:27.193989 30036 net.cpp:148] Top shape: 80 480 14 14 (7526400)
I0817 23:01:27.193991 30036 net.cpp:156] Memory required for data: 3878354240
I0817 23:01:27.193995 30036 layer_factory.hpp:77] Creating layer resx9_conv1
I0817 23:01:27.194005 30036 net.cpp:91] Creating Layer resx9_conv1
I0817 23:01:27.194008 30036 net.cpp:469] resx9_conv1 <- resx8_elewise_resx8_elewise_relu_0_split_0
I0817 23:01:27.194013 30036 net.cpp:443] resx9_conv1 -> resx9_conv1
I0817 23:01:27.196764 30036 net.cpp:141] Setting up resx9_conv1
I0817 23:01:27.196779 30036 net.cpp:148] Top shape: 80 120 14 14 (1881600)
I0817 23:01:27.196782 30036 net.cpp:156] Memory required for data: 3885880640
I0817 23:01:27.196787 30036 layer_factory.hpp:77] Creating layer resx9_conv1_bn
I0817 23:01:27.196796 30036 net.cpp:91] Creating Layer resx9_conv1_bn
I0817 23:01:27.196801 30036 net.cpp:469] resx9_conv1_bn <- resx9_conv1
I0817 23:01:27.196806 30036 net.cpp:430] resx9_conv1_bn -> resx9_conv1 (in-place)
I0817 23:01:27.197000 30036 net.cpp:141] Setting up resx9_conv1_bn
I0817 23:01:27.197010 30036 net.cpp:148] Top shape: 80 120 14 14 (1881600)
I0817 23:01:27.197012 30036 net.cpp:156] Memory required for data: 3893407040
I0817 23:01:27.197019 30036 layer_factory.hpp:77] Creating layer resx9_conv1_scale
I0817 23:01:27.197027 30036 net.cpp:91] Creating Layer resx9_conv1_scale
I0817 23:01:27.197031 30036 net.cpp:469] resx9_conv1_scale <- resx9_conv1
I0817 23:01:27.197036 30036 net.cpp:430] resx9_conv1_scale -> resx9_conv1 (in-place)
I0817 23:01:27.197085 30036 layer_factory.hpp:77] Creating layer resx9_conv1_scale
I0817 23:01:27.197202 30036 net.cpp:141] Setting up resx9_conv1_scale
I0817 23:01:27.197211 30036 net.cpp:148] Top shape: 80 120 14 14 (1881600)
I0817 23:01:27.197213 30036 net.cpp:156] Memory required for data: 3900933440
I0817 23:01:27.197219 30036 layer_factory.hpp:77] Creating layer resx9_conv1_relu
I0817 23:01:27.197227 30036 net.cpp:91] Creating Layer resx9_conv1_relu
I0817 23:01:27.197230 30036 net.cpp:469] resx9_conv1_relu <- resx9_conv1
I0817 23:01:27.197234 30036 net.cpp:430] resx9_conv1_relu -> resx9_conv1 (in-place)
I0817 23:01:27.197553 30036 net.cpp:141] Setting up resx9_conv1_relu
I0817 23:01:27.197567 30036 net.cpp:148] Top shape: 80 120 14 14 (1881600)
I0817 23:01:27.197571 30036 net.cpp:156] Memory required for data: 3908459840
I0817 23:01:27.197576 30036 layer_factory.hpp:77] Creating layer shuffle9
I0817 23:01:27.197582 30036 net.cpp:91] Creating Layer shuffle9
I0817 23:01:27.197585 30036 net.cpp:469] shuffle9 <- resx9_conv1
I0817 23:01:27.197590 30036 net.cpp:443] shuffle9 -> shuffle9
I0817 23:01:27.197631 30036 net.cpp:141] Setting up shuffle9
I0817 23:01:27.197639 30036 net.cpp:148] Top shape: 80 120 14 14 (1881600)
I0817 23:01:27.197643 30036 net.cpp:156] Memory required for data: 3915986240
I0817 23:01:27.197645 30036 layer_factory.hpp:77] Creating layer resx9_conv2
I0817 23:01:27.197654 30036 net.cpp:91] Creating Layer resx9_conv2
I0817 23:01:27.197656 30036 net.cpp:469] resx9_conv2 <- shuffle9
I0817 23:01:27.197664 30036 net.cpp:443] resx9_conv2 -> resx9_conv2
I0817 23:01:27.197808 30036 net.cpp:141] Setting up resx9_conv2
I0817 23:01:27.197819 30036 net.cpp:148] Top shape: 80 120 14 14 (1881600)
I0817 23:01:27.197823 30036 net.cpp:156] Memory required for data: 3923512640
I0817 23:01:27.197836 30036 layer_factory.hpp:77] Creating layer resx9_conv2_bn
I0817 23:01:27.197844 30036 net.cpp:91] Creating Layer resx9_conv2_bn
I0817 23:01:27.197849 30036 net.cpp:469] resx9_conv2_bn <- resx9_conv2
I0817 23:01:27.197854 30036 net.cpp:430] resx9_conv2_bn -> resx9_conv2 (in-place)
I0817 23:01:27.198040 30036 net.cpp:141] Setting up resx9_conv2_bn
I0817 23:01:27.198048 30036 net.cpp:148] Top shape: 80 120 14 14 (1881600)
I0817 23:01:27.198051 30036 net.cpp:156] Memory required for data: 3931039040
I0817 23:01:27.198058 30036 layer_factory.hpp:77] Creating layer resx9_conv2_scale
I0817 23:01:27.198066 30036 net.cpp:91] Creating Layer resx9_conv2_scale
I0817 23:01:27.198071 30036 net.cpp:469] resx9_conv2_scale <- resx9_conv2
I0817 23:01:27.198076 30036 net.cpp:430] resx9_conv2_scale -> resx9_conv2 (in-place)
I0817 23:01:27.198117 30036 layer_factory.hpp:77] Creating layer resx9_conv2_scale
I0817 23:01:27.198230 30036 net.cpp:141] Setting up resx9_conv2_scale
I0817 23:01:27.198238 30036 net.cpp:148] Top shape: 80 120 14 14 (1881600)
I0817 23:01:27.198241 30036 net.cpp:156] Memory required for data: 3938565440
I0817 23:01:27.198246 30036 layer_factory.hpp:77] Creating layer resx9_conv3
I0817 23:01:27.198266 30036 net.cpp:91] Creating Layer resx9_conv3
I0817 23:01:27.198272 30036 net.cpp:469] resx9_conv3 <- resx9_conv2
I0817 23:01:27.198277 30036 net.cpp:443] resx9_conv3 -> resx9_conv3
I0817 23:01:27.206359 30036 net.cpp:141] Setting up resx9_conv3
I0817 23:01:27.206403 30036 net.cpp:148] Top shape: 80 480 14 14 (7526400)
I0817 23:01:27.206408 30036 net.cpp:156] Memory required for data: 3968671040
I0817 23:01:27.206423 30036 layer_factory.hpp:77] Creating layer resx9_conv3_bn
I0817 23:01:27.206437 30036 net.cpp:91] Creating Layer resx9_conv3_bn
I0817 23:01:27.206449 30036 net.cpp:469] resx9_conv3_bn <- resx9_conv3
I0817 23:01:27.206457 30036 net.cpp:430] resx9_conv3_bn -> resx9_conv3 (in-place)
I0817 23:01:27.206816 30036 net.cpp:141] Setting up resx9_conv3_bn
I0817 23:01:27.206826 30036 net.cpp:148] Top shape: 80 480 14 14 (7526400)
I0817 23:01:27.206830 30036 net.cpp:156] Memory required for data: 3998776640
I0817 23:01:27.206838 30036 layer_factory.hpp:77] Creating layer resx9_conv3_scale
I0817 23:01:27.206847 30036 net.cpp:91] Creating Layer resx9_conv3_scale
I0817 23:01:27.206851 30036 net.cpp:469] resx9_conv3_scale <- resx9_conv3
I0817 23:01:27.206857 30036 net.cpp:430] resx9_conv3_scale -> resx9_conv3 (in-place)
I0817 23:01:27.206935 30036 layer_factory.hpp:77] Creating layer resx9_conv3_scale
I0817 23:01:27.207058 30036 net.cpp:141] Setting up resx9_conv3_scale
I0817 23:01:27.207067 30036 net.cpp:148] Top shape: 80 480 14 14 (7526400)
I0817 23:01:27.207070 30036 net.cpp:156] Memory required for data: 4028882240
I0817 23:01:27.207077 30036 layer_factory.hpp:77] Creating layer resx9_elewise
I0817 23:01:27.207085 30036 net.cpp:91] Creating Layer resx9_elewise
I0817 23:01:27.207095 30036 net.cpp:469] resx9_elewise <- resx8_elewise_resx8_elewise_relu_0_split_1
I0817 23:01:27.207100 30036 net.cpp:469] resx9_elewise <- resx9_conv3
I0817 23:01:27.207105 30036 net.cpp:443] resx9_elewise -> resx9_elewise
I0817 23:01:27.207136 30036 net.cpp:141] Setting up resx9_elewise
I0817 23:01:27.207144 30036 net.cpp:148] Top shape: 80 480 14 14 (7526400)
I0817 23:01:27.207146 30036 net.cpp:156] Memory required for data: 4058987840
I0817 23:01:27.207150 30036 layer_factory.hpp:77] Creating layer resx9_elewise_relu
I0817 23:01:27.207157 30036 net.cpp:91] Creating Layer resx9_elewise_relu
I0817 23:01:27.207161 30036 net.cpp:469] resx9_elewise_relu <- resx9_elewise
I0817 23:01:27.207171 30036 net.cpp:430] resx9_elewise_relu -> resx9_elewise (in-place)
I0817 23:01:27.208029 30036 net.cpp:141] Setting up resx9_elewise_relu
I0817 23:01:27.208042 30036 net.cpp:148] Top shape: 80 480 14 14 (7526400)
I0817 23:01:27.208046 30036 net.cpp:156] Memory required for data: 4089093440
I0817 23:01:27.208050 30036 layer_factory.hpp:77] Creating layer resx9_elewise_resx9_elewise_relu_0_split
I0817 23:01:27.208065 30036 net.cpp:91] Creating Layer resx9_elewise_resx9_elewise_relu_0_split
I0817 23:01:27.208081 30036 net.cpp:469] resx9_elewise_resx9_elewise_relu_0_split <- resx9_elewise
I0817 23:01:27.208088 30036 net.cpp:443] resx9_elewise_resx9_elewise_relu_0_split -> resx9_elewise_resx9_elewise_relu_0_split_0
I0817 23:01:27.208096 30036 net.cpp:443] resx9_elewise_resx9_elewise_relu_0_split -> resx9_elewise_resx9_elewise_relu_0_split_1
I0817 23:01:27.208145 30036 net.cpp:141] Setting up resx9_elewise_resx9_elewise_relu_0_split
I0817 23:01:27.208153 30036 net.cpp:148] Top shape: 80 480 14 14 (7526400)
I0817 23:01:27.208156 30036 net.cpp:148] Top shape: 80 480 14 14 (7526400)
I0817 23:01:27.208159 30036 net.cpp:156] Memory required for data: 4149304640
I0817 23:01:27.208163 30036 layer_factory.hpp:77] Creating layer resx10_conv1
I0817 23:01:27.208175 30036 net.cpp:91] Creating Layer resx10_conv1
I0817 23:01:27.208180 30036 net.cpp:469] resx10_conv1 <- resx9_elewise_resx9_elewise_relu_0_split_0
I0817 23:01:27.208190 30036 net.cpp:443] resx10_conv1 -> resx10_conv1
I0817 23:01:27.211027 30036 net.cpp:141] Setting up resx10_conv1
I0817 23:01:27.211043 30036 net.cpp:148] Top shape: 80 120 14 14 (1881600)
I0817 23:01:27.211047 30036 net.cpp:156] Memory required for data: 4156831040
I0817 23:01:27.211052 30036 layer_factory.hpp:77] Creating layer resx10_conv1_bn
I0817 23:01:27.211060 30036 net.cpp:91] Creating Layer resx10_conv1_bn
I0817 23:01:27.211063 30036 net.cpp:469] resx10_conv1_bn <- resx10_conv1
I0817 23:01:27.211071 30036 net.cpp:430] resx10_conv1_bn -> resx10_conv1 (in-place)
I0817 23:01:27.211280 30036 net.cpp:141] Setting up resx10_conv1_bn
I0817 23:01:27.211288 30036 net.cpp:148] Top shape: 80 120 14 14 (1881600)
I0817 23:01:27.211292 30036 net.cpp:156] Memory required for data: 4164357440
I0817 23:01:27.211299 30036 layer_factory.hpp:77] Creating layer resx10_conv1_scale
I0817 23:01:27.211307 30036 net.cpp:91] Creating Layer resx10_conv1_scale
I0817 23:01:27.211309 30036 net.cpp:469] resx10_conv1_scale <- resx10_conv1
I0817 23:01:27.211315 30036 net.cpp:430] resx10_conv1_scale -> resx10_conv1 (in-place)
I0817 23:01:27.211356 30036 layer_factory.hpp:77] Creating layer resx10_conv1_scale
I0817 23:01:27.211469 30036 net.cpp:141] Setting up resx10_conv1_scale
I0817 23:01:27.211477 30036 net.cpp:148] Top shape: 80 120 14 14 (1881600)
I0817 23:01:27.211480 30036 net.cpp:156] Memory required for data: 4171883840
I0817 23:01:27.211486 30036 layer_factory.hpp:77] Creating layer resx10_conv1_relu
I0817 23:01:27.211493 30036 net.cpp:91] Creating Layer resx10_conv1_relu
I0817 23:01:27.211496 30036 net.cpp:469] resx10_conv1_relu <- resx10_conv1
I0817 23:01:27.211503 30036 net.cpp:430] resx10_conv1_relu -> resx10_conv1 (in-place)
I0817 23:01:27.211828 30036 net.cpp:141] Setting up resx10_conv1_relu
I0817 23:01:27.211841 30036 net.cpp:148] Top shape: 80 120 14 14 (1881600)
I0817 23:01:27.211845 30036 net.cpp:156] Memory required for data: 4179410240
I0817 23:01:27.211849 30036 layer_factory.hpp:77] Creating layer shuffle10
I0817 23:01:27.211855 30036 net.cpp:91] Creating Layer shuffle10
I0817 23:01:27.211859 30036 net.cpp:469] shuffle10 <- resx10_conv1
I0817 23:01:27.211866 30036 net.cpp:443] shuffle10 -> shuffle10
I0817 23:01:27.211906 30036 net.cpp:141] Setting up shuffle10
I0817 23:01:27.211915 30036 net.cpp:148] Top shape: 80 120 14 14 (1881600)
I0817 23:01:27.211917 30036 net.cpp:156] Memory required for data: 4186936640
I0817 23:01:27.211921 30036 layer_factory.hpp:77] Creating layer resx10_conv2
I0817 23:01:27.211930 30036 net.cpp:91] Creating Layer resx10_conv2
I0817 23:01:27.211935 30036 net.cpp:469] resx10_conv2 <- shuffle10
I0817 23:01:27.211941 30036 net.cpp:443] resx10_conv2 -> resx10_conv2
I0817 23:01:27.212160 30036 net.cpp:141] Setting up resx10_conv2
I0817 23:01:27.212172 30036 net.cpp:148] Top shape: 80 120 14 14 (1881600)
I0817 23:01:27.212174 30036 net.cpp:156] Memory required for data: 4194463040
I0817 23:01:27.212180 30036 layer_factory.hpp:77] Creating layer resx10_conv2_bn
I0817 23:01:27.212189 30036 net.cpp:91] Creating Layer resx10_conv2_bn
I0817 23:01:27.212203 30036 net.cpp:469] resx10_conv2_bn <- resx10_conv2
I0817 23:01:27.212208 30036 net.cpp:430] resx10_conv2_bn -> resx10_conv2 (in-place)
I0817 23:01:27.212399 30036 net.cpp:141] Setting up resx10_conv2_bn
I0817 23:01:27.212406 30036 net.cpp:148] Top shape: 80 120 14 14 (1881600)
I0817 23:01:27.212409 30036 net.cpp:156] Memory required for data: 4201989440
I0817 23:01:27.212416 30036 layer_factory.hpp:77] Creating layer resx10_conv2_scale
I0817 23:01:27.212425 30036 net.cpp:91] Creating Layer resx10_conv2_scale
I0817 23:01:27.212430 30036 net.cpp:469] resx10_conv2_scale <- resx10_conv2
I0817 23:01:27.212433 30036 net.cpp:430] resx10_conv2_scale -> resx10_conv2 (in-place)
I0817 23:01:27.212476 30036 layer_factory.hpp:77] Creating layer resx10_conv2_scale
I0817 23:01:27.212594 30036 net.cpp:141] Setting up resx10_conv2_scale
I0817 23:01:27.212602 30036 net.cpp:148] Top shape: 80 120 14 14 (1881600)
I0817 23:01:27.212605 30036 net.cpp:156] Memory required for data: 4209515840
I0817 23:01:27.212610 30036 layer_factory.hpp:77] Creating layer resx10_conv3
I0817 23:01:27.212620 30036 net.cpp:91] Creating Layer resx10_conv3
I0817 23:01:27.212625 30036 net.cpp:469] resx10_conv3 <- resx10_conv2
I0817 23:01:27.212630 30036 net.cpp:443] resx10_conv3 -> resx10_conv3
I0817 23:01:27.215453 30036 net.cpp:141] Setting up resx10_conv3
I0817 23:01:27.215467 30036 net.cpp:148] Top shape: 80 480 14 14 (7526400)
I0817 23:01:27.215471 30036 net.cpp:156] Memory required for data: 4239621440
I0817 23:01:27.215476 30036 layer_factory.hpp:77] Creating layer resx10_conv3_bn
I0817 23:01:27.215486 30036 net.cpp:91] Creating Layer resx10_conv3_bn
I0817 23:01:27.215489 30036 net.cpp:469] resx10_conv3_bn <- resx10_conv3
I0817 23:01:27.215494 30036 net.cpp:430] resx10_conv3_bn -> resx10_conv3 (in-place)
I0817 23:01:27.215697 30036 net.cpp:141] Setting up resx10_conv3_bn
I0817 23:01:27.215704 30036 net.cpp:148] Top shape: 80 480 14 14 (7526400)
I0817 23:01:27.215708 30036 net.cpp:156] Memory required for data: 4269727040
I0817 23:01:27.215715 30036 layer_factory.hpp:77] Creating layer resx10_conv3_scale
I0817 23:01:27.215721 30036 net.cpp:91] Creating Layer resx10_conv3_scale
I0817 23:01:27.215725 30036 net.cpp:469] resx10_conv3_scale <- resx10_conv3
I0817 23:01:27.215730 30036 net.cpp:430] resx10_conv3_scale -> resx10_conv3 (in-place)
I0817 23:01:27.215775 30036 layer_factory.hpp:77] Creating layer resx10_conv3_scale
I0817 23:01:27.215891 30036 net.cpp:141] Setting up resx10_conv3_scale
I0817 23:01:27.215900 30036 net.cpp:148] Top shape: 80 480 14 14 (7526400)
I0817 23:01:27.215903 30036 net.cpp:156] Memory required for data: 4299832640
I0817 23:01:27.215909 30036 layer_factory.hpp:77] Creating layer resx10_elewise
I0817 23:01:27.215915 30036 net.cpp:91] Creating Layer resx10_elewise
I0817 23:01:27.215920 30036 net.cpp:469] resx10_elewise <- resx9_elewise_resx9_elewise_relu_0_split_1
I0817 23:01:27.215924 30036 net.cpp:469] resx10_elewise <- resx10_conv3
I0817 23:01:27.215929 30036 net.cpp:443] resx10_elewise -> resx10_elewise
I0817 23:01:27.215957 30036 net.cpp:141] Setting up resx10_elewise
I0817 23:01:27.215963 30036 net.cpp:148] Top shape: 80 480 14 14 (7526400)
I0817 23:01:27.215966 30036 net.cpp:156] Memory required for data: 4329938240
I0817 23:01:27.215970 30036 layer_factory.hpp:77] Creating layer resx10_elewise_relu
I0817 23:01:27.215975 30036 net.cpp:91] Creating Layer resx10_elewise_relu
I0817 23:01:27.215978 30036 net.cpp:469] resx10_elewise_relu <- resx10_elewise
I0817 23:01:27.215983 30036 net.cpp:430] resx10_elewise_relu -> resx10_elewise (in-place)
I0817 23:01:27.216311 30036 net.cpp:141] Setting up resx10_elewise_relu
I0817 23:01:27.216325 30036 net.cpp:148] Top shape: 80 480 14 14 (7526400)
I0817 23:01:27.216328 30036 net.cpp:156] Memory required for data: 4360043840
I0817 23:01:27.216332 30036 layer_factory.hpp:77] Creating layer resx10_elewise_resx10_elewise_relu_0_split
I0817 23:01:27.216338 30036 net.cpp:91] Creating Layer resx10_elewise_resx10_elewise_relu_0_split
I0817 23:01:27.216347 30036 net.cpp:469] resx10_elewise_resx10_elewise_relu_0_split <- resx10_elewise
I0817 23:01:27.216359 30036 net.cpp:443] resx10_elewise_resx10_elewise_relu_0_split -> resx10_elewise_resx10_elewise_relu_0_split_0
I0817 23:01:27.216367 30036 net.cpp:443] resx10_elewise_resx10_elewise_relu_0_split -> resx10_elewise_resx10_elewise_relu_0_split_1
I0817 23:01:27.216413 30036 net.cpp:141] Setting up resx10_elewise_resx10_elewise_relu_0_split
I0817 23:01:27.216419 30036 net.cpp:148] Top shape: 80 480 14 14 (7526400)
I0817 23:01:27.216423 30036 net.cpp:148] Top shape: 80 480 14 14 (7526400)
I0817 23:01:27.216426 30036 net.cpp:156] Memory required for data: 4420255040
I0817 23:01:27.216430 30036 layer_factory.hpp:77] Creating layer resx11_conv1
I0817 23:01:27.216445 30036 net.cpp:91] Creating Layer resx11_conv1
I0817 23:01:27.216450 30036 net.cpp:469] resx11_conv1 <- resx10_elewise_resx10_elewise_relu_0_split_0
I0817 23:01:27.216455 30036 net.cpp:443] resx11_conv1 -> resx11_conv1
I0817 23:01:27.219262 30036 net.cpp:141] Setting up resx11_conv1
I0817 23:01:27.219276 30036 net.cpp:148] Top shape: 80 120 14 14 (1881600)
I0817 23:01:27.219280 30036 net.cpp:156] Memory required for data: 4427781440
I0817 23:01:27.219285 30036 layer_factory.hpp:77] Creating layer resx11_conv1_bn
I0817 23:01:27.219298 30036 net.cpp:91] Creating Layer resx11_conv1_bn
I0817 23:01:27.219302 30036 net.cpp:469] resx11_conv1_bn <- resx11_conv1
I0817 23:01:27.219307 30036 net.cpp:430] resx11_conv1_bn -> resx11_conv1 (in-place)
I0817 23:01:27.219506 30036 net.cpp:141] Setting up resx11_conv1_bn
I0817 23:01:27.219514 30036 net.cpp:148] Top shape: 80 120 14 14 (1881600)
I0817 23:01:27.219517 30036 net.cpp:156] Memory required for data: 4435307840
I0817 23:01:27.219524 30036 layer_factory.hpp:77] Creating layer resx11_conv1_scale
I0817 23:01:27.219532 30036 net.cpp:91] Creating Layer resx11_conv1_scale
I0817 23:01:27.219537 30036 net.cpp:469] resx11_conv1_scale <- resx11_conv1
I0817 23:01:27.219542 30036 net.cpp:430] resx11_conv1_scale -> resx11_conv1 (in-place)
I0817 23:01:27.219588 30036 layer_factory.hpp:77] Creating layer resx11_conv1_scale
I0817 23:01:27.219704 30036 net.cpp:141] Setting up resx11_conv1_scale
I0817 23:01:27.219712 30036 net.cpp:148] Top shape: 80 120 14 14 (1881600)
I0817 23:01:27.219715 30036 net.cpp:156] Memory required for data: 4442834240
I0817 23:01:27.219722 30036 layer_factory.hpp:77] Creating layer resx11_conv1_relu
I0817 23:01:27.219728 30036 net.cpp:91] Creating Layer resx11_conv1_relu
I0817 23:01:27.219732 30036 net.cpp:469] resx11_conv1_relu <- resx11_conv1
I0817 23:01:27.219736 30036 net.cpp:430] resx11_conv1_relu -> resx11_conv1 (in-place)
I0817 23:01:27.220227 30036 net.cpp:141] Setting up resx11_conv1_relu
I0817 23:01:27.220238 30036 net.cpp:148] Top shape: 80 120 14 14 (1881600)
I0817 23:01:27.220242 30036 net.cpp:156] Memory required for data: 4450360640
I0817 23:01:27.220247 30036 layer_factory.hpp:77] Creating layer shuffle11
I0817 23:01:27.220252 30036 net.cpp:91] Creating Layer shuffle11
I0817 23:01:27.220255 30036 net.cpp:469] shuffle11 <- resx11_conv1
I0817 23:01:27.220262 30036 net.cpp:443] shuffle11 -> shuffle11
I0817 23:01:27.220299 30036 net.cpp:141] Setting up shuffle11
I0817 23:01:27.220306 30036 net.cpp:148] Top shape: 80 120 14 14 (1881600)
I0817 23:01:27.220310 30036 net.cpp:156] Memory required for data: 4457887040
I0817 23:01:27.220314 30036 layer_factory.hpp:77] Creating layer resx11_conv2
I0817 23:01:27.220320 30036 net.cpp:91] Creating Layer resx11_conv2
I0817 23:01:27.220324 30036 net.cpp:469] resx11_conv2 <- shuffle11
I0817 23:01:27.220331 30036 net.cpp:443] resx11_conv2 -> resx11_conv2
I0817 23:01:27.220474 30036 net.cpp:141] Setting up resx11_conv2
I0817 23:01:27.220485 30036 net.cpp:148] Top shape: 80 120 14 14 (1881600)
I0817 23:01:27.220489 30036 net.cpp:156] Memory required for data: 4465413440
I0817 23:01:27.220494 30036 layer_factory.hpp:77] Creating layer resx11_conv2_bn
I0817 23:01:27.220499 30036 net.cpp:91] Creating Layer resx11_conv2_bn
I0817 23:01:27.220504 30036 net.cpp:469] resx11_conv2_bn <- resx11_conv2
I0817 23:01:27.220522 30036 net.cpp:430] resx11_conv2_bn -> resx11_conv2 (in-place)
I0817 23:01:27.220731 30036 net.cpp:141] Setting up resx11_conv2_bn
I0817 23:01:27.220738 30036 net.cpp:148] Top shape: 80 120 14 14 (1881600)
I0817 23:01:27.220741 30036 net.cpp:156] Memory required for data: 4472939840
I0817 23:01:27.220748 30036 layer_factory.hpp:77] Creating layer resx11_conv2_scale
I0817 23:01:27.220754 30036 net.cpp:91] Creating Layer resx11_conv2_scale
I0817 23:01:27.220758 30036 net.cpp:469] resx11_conv2_scale <- resx11_conv2
I0817 23:01:27.220764 30036 net.cpp:430] resx11_conv2_scale -> resx11_conv2 (in-place)
I0817 23:01:27.220805 30036 layer_factory.hpp:77] Creating layer resx11_conv2_scale
I0817 23:01:27.220922 30036 net.cpp:141] Setting up resx11_conv2_scale
I0817 23:01:27.220929 30036 net.cpp:148] Top shape: 80 120 14 14 (1881600)
I0817 23:01:27.220932 30036 net.cpp:156] Memory required for data: 4480466240
I0817 23:01:27.220938 30036 layer_factory.hpp:77] Creating layer resx11_conv3
I0817 23:01:27.220948 30036 net.cpp:91] Creating Layer resx11_conv3
I0817 23:01:27.220952 30036 net.cpp:469] resx11_conv3 <- resx11_conv2
I0817 23:01:27.220957 30036 net.cpp:443] resx11_conv3 -> resx11_conv3
I0817 23:01:27.223757 30036 net.cpp:141] Setting up resx11_conv3
I0817 23:01:27.223770 30036 net.cpp:148] Top shape: 80 480 14 14 (7526400)
I0817 23:01:27.223774 30036 net.cpp:156] Memory required for data: 4510571840
I0817 23:01:27.223779 30036 layer_factory.hpp:77] Creating layer resx11_conv3_bn
I0817 23:01:27.223785 30036 net.cpp:91] Creating Layer resx11_conv3_bn
I0817 23:01:27.223790 30036 net.cpp:469] resx11_conv3_bn <- resx11_conv3
I0817 23:01:27.223796 30036 net.cpp:430] resx11_conv3_bn -> resx11_conv3 (in-place)
I0817 23:01:27.224001 30036 net.cpp:141] Setting up resx11_conv3_bn
I0817 23:01:27.224009 30036 net.cpp:148] Top shape: 80 480 14 14 (7526400)
I0817 23:01:27.224012 30036 net.cpp:156] Memory required for data: 4540677440
I0817 23:01:27.224020 30036 layer_factory.hpp:77] Creating layer resx11_conv3_scale
I0817 23:01:27.224026 30036 net.cpp:91] Creating Layer resx11_conv3_scale
I0817 23:01:27.224030 30036 net.cpp:469] resx11_conv3_scale <- resx11_conv3
I0817 23:01:27.224036 30036 net.cpp:430] resx11_conv3_scale -> resx11_conv3 (in-place)
I0817 23:01:27.224081 30036 layer_factory.hpp:77] Creating layer resx11_conv3_scale
I0817 23:01:27.224200 30036 net.cpp:141] Setting up resx11_conv3_scale
I0817 23:01:27.224207 30036 net.cpp:148] Top shape: 80 480 14 14 (7526400)
I0817 23:01:27.224210 30036 net.cpp:156] Memory required for data: 4570783040
I0817 23:01:27.224216 30036 layer_factory.hpp:77] Creating layer resx11_elewise
I0817 23:01:27.224223 30036 net.cpp:91] Creating Layer resx11_elewise
I0817 23:01:27.224227 30036 net.cpp:469] resx11_elewise <- resx10_elewise_resx10_elewise_relu_0_split_1
I0817 23:01:27.224233 30036 net.cpp:469] resx11_elewise <- resx11_conv3
I0817 23:01:27.224238 30036 net.cpp:443] resx11_elewise -> resx11_elewise
I0817 23:01:27.224267 30036 net.cpp:141] Setting up resx11_elewise
I0817 23:01:27.224273 30036 net.cpp:148] Top shape: 80 480 14 14 (7526400)
I0817 23:01:27.224277 30036 net.cpp:156] Memory required for data: 4600888640
I0817 23:01:27.224279 30036 layer_factory.hpp:77] Creating layer resx11_elewise_relu
I0817 23:01:27.224284 30036 net.cpp:91] Creating Layer resx11_elewise_relu
I0817 23:01:27.224288 30036 net.cpp:469] resx11_elewise_relu <- resx11_elewise
I0817 23:01:27.224294 30036 net.cpp:430] resx11_elewise_relu -> resx11_elewise (in-place)
I0817 23:01:27.224618 30036 net.cpp:141] Setting up resx11_elewise_relu
I0817 23:01:27.224632 30036 net.cpp:148] Top shape: 80 480 14 14 (7526400)
I0817 23:01:27.224634 30036 net.cpp:156] Memory required for data: 4630994240
I0817 23:01:27.224638 30036 layer_factory.hpp:77] Creating layer resx11_elewise_resx11_elewise_relu_0_split
I0817 23:01:27.224644 30036 net.cpp:91] Creating Layer resx11_elewise_resx11_elewise_relu_0_split
I0817 23:01:27.224647 30036 net.cpp:469] resx11_elewise_resx11_elewise_relu_0_split <- resx11_elewise
I0817 23:01:27.224658 30036 net.cpp:443] resx11_elewise_resx11_elewise_relu_0_split -> resx11_elewise_resx11_elewise_relu_0_split_0
I0817 23:01:27.224670 30036 net.cpp:443] resx11_elewise_resx11_elewise_relu_0_split -> resx11_elewise_resx11_elewise_relu_0_split_1
I0817 23:01:27.224716 30036 net.cpp:141] Setting up resx11_elewise_resx11_elewise_relu_0_split
I0817 23:01:27.224725 30036 net.cpp:148] Top shape: 80 480 14 14 (7526400)
I0817 23:01:27.224728 30036 net.cpp:148] Top shape: 80 480 14 14 (7526400)
I0817 23:01:27.224731 30036 net.cpp:156] Memory required for data: 4691205440
I0817 23:01:27.224735 30036 layer_factory.hpp:77] Creating layer resx12_conv1
I0817 23:01:27.224742 30036 net.cpp:91] Creating Layer resx12_conv1
I0817 23:01:27.224746 30036 net.cpp:469] resx12_conv1 <- resx11_elewise_resx11_elewise_relu_0_split_0
I0817 23:01:27.224753 30036 net.cpp:443] resx12_conv1 -> resx12_conv1
I0817 23:01:27.227550 30036 net.cpp:141] Setting up resx12_conv1
I0817 23:01:27.227563 30036 net.cpp:148] Top shape: 80 120 14 14 (1881600)
I0817 23:01:27.227567 30036 net.cpp:156] Memory required for data: 4698731840
I0817 23:01:27.227572 30036 layer_factory.hpp:77] Creating layer resx12_conv1_bn
I0817 23:01:27.227583 30036 net.cpp:91] Creating Layer resx12_conv1_bn
I0817 23:01:27.227587 30036 net.cpp:469] resx12_conv1_bn <- resx12_conv1
I0817 23:01:27.227594 30036 net.cpp:430] resx12_conv1_bn -> resx12_conv1 (in-place)
I0817 23:01:27.227794 30036 net.cpp:141] Setting up resx12_conv1_bn
I0817 23:01:27.227803 30036 net.cpp:148] Top shape: 80 120 14 14 (1881600)
I0817 23:01:27.227807 30036 net.cpp:156] Memory required for data: 4706258240
I0817 23:01:27.227813 30036 layer_factory.hpp:77] Creating layer resx12_conv1_scale
I0817 23:01:27.227821 30036 net.cpp:91] Creating Layer resx12_conv1_scale
I0817 23:01:27.227825 30036 net.cpp:469] resx12_conv1_scale <- resx12_conv1
I0817 23:01:27.227829 30036 net.cpp:430] resx12_conv1_scale -> resx12_conv1 (in-place)
I0817 23:01:27.227874 30036 layer_factory.hpp:77] Creating layer resx12_conv1_scale
I0817 23:01:27.227995 30036 net.cpp:141] Setting up resx12_conv1_scale
I0817 23:01:27.228003 30036 net.cpp:148] Top shape: 80 120 14 14 (1881600)
I0817 23:01:27.228006 30036 net.cpp:156] Memory required for data: 4713784640
I0817 23:01:27.228011 30036 layer_factory.hpp:77] Creating layer resx12_conv1_relu
I0817 23:01:27.228018 30036 net.cpp:91] Creating Layer resx12_conv1_relu
I0817 23:01:27.228021 30036 net.cpp:469] resx12_conv1_relu <- resx12_conv1
I0817 23:01:27.228027 30036 net.cpp:430] resx12_conv1_relu -> resx12_conv1 (in-place)
I0817 23:01:27.228416 30036 net.cpp:141] Setting up resx12_conv1_relu
I0817 23:01:27.228430 30036 net.cpp:148] Top shape: 80 120 14 14 (1881600)
I0817 23:01:27.228432 30036 net.cpp:156] Memory required for data: 4721311040
I0817 23:01:27.228436 30036 layer_factory.hpp:77] Creating layer shuffle12
I0817 23:01:27.228443 30036 net.cpp:91] Creating Layer shuffle12
I0817 23:01:27.228447 30036 net.cpp:469] shuffle12 <- resx12_conv1
I0817 23:01:27.228453 30036 net.cpp:443] shuffle12 -> shuffle12
I0817 23:01:27.228487 30036 net.cpp:141] Setting up shuffle12
I0817 23:01:27.228493 30036 net.cpp:148] Top shape: 80 120 14 14 (1881600)
I0817 23:01:27.228497 30036 net.cpp:156] Memory required for data: 4728837440
I0817 23:01:27.228502 30036 layer_factory.hpp:77] Creating layer resx12_conv2
I0817 23:01:27.228508 30036 net.cpp:91] Creating Layer resx12_conv2
I0817 23:01:27.228513 30036 net.cpp:469] resx12_conv2 <- shuffle12
I0817 23:01:27.228518 30036 net.cpp:443] resx12_conv2 -> resx12_conv2
I0817 23:01:27.228652 30036 net.cpp:141] Setting up resx12_conv2
I0817 23:01:27.228662 30036 net.cpp:148] Top shape: 80 120 14 14 (1881600)
I0817 23:01:27.228665 30036 net.cpp:156] Memory required for data: 4736363840
I0817 23:01:27.228670 30036 layer_factory.hpp:77] Creating layer resx12_conv2_bn
I0817 23:01:27.228680 30036 net.cpp:91] Creating Layer resx12_conv2_bn
I0817 23:01:27.228685 30036 net.cpp:469] resx12_conv2_bn <- resx12_conv2
I0817 23:01:27.228689 30036 net.cpp:430] resx12_conv2_bn -> resx12_conv2 (in-place)
I0817 23:01:27.228888 30036 net.cpp:141] Setting up resx12_conv2_bn
I0817 23:01:27.228895 30036 net.cpp:148] Top shape: 80 120 14 14 (1881600)
I0817 23:01:27.228899 30036 net.cpp:156] Memory required for data: 4743890240
I0817 23:01:27.228905 30036 layer_factory.hpp:77] Creating layer resx12_conv2_scale
I0817 23:01:27.228911 30036 net.cpp:91] Creating Layer resx12_conv2_scale
I0817 23:01:27.228915 30036 net.cpp:469] resx12_conv2_scale <- resx12_conv2
I0817 23:01:27.228922 30036 net.cpp:430] resx12_conv2_scale -> resx12_conv2 (in-place)
I0817 23:01:27.228966 30036 layer_factory.hpp:77] Creating layer resx12_conv2_scale
I0817 23:01:27.229095 30036 net.cpp:141] Setting up resx12_conv2_scale
I0817 23:01:27.229104 30036 net.cpp:148] Top shape: 80 120 14 14 (1881600)
I0817 23:01:27.229107 30036 net.cpp:156] Memory required for data: 4751416640
I0817 23:01:27.229112 30036 layer_factory.hpp:77] Creating layer resx12_conv3
I0817 23:01:27.229122 30036 net.cpp:91] Creating Layer resx12_conv3
I0817 23:01:27.229127 30036 net.cpp:469] resx12_conv3 <- resx12_conv2
I0817 23:01:27.229133 30036 net.cpp:443] resx12_conv3 -> resx12_conv3
I0817 23:01:27.232683 30036 net.cpp:141] Setting up resx12_conv3
I0817 23:01:27.232697 30036 net.cpp:148] Top shape: 80 480 14 14 (7526400)
I0817 23:01:27.232702 30036 net.cpp:156] Memory required for data: 4781522240
I0817 23:01:27.232708 30036 layer_factory.hpp:77] Creating layer resx12_conv3_bn
I0817 23:01:27.232717 30036 net.cpp:91] Creating Layer resx12_conv3_bn
I0817 23:01:27.232722 30036 net.cpp:469] resx12_conv3_bn <- resx12_conv3
I0817 23:01:27.232727 30036 net.cpp:430] resx12_conv3_bn -> resx12_conv3 (in-place)
I0817 23:01:27.232935 30036 net.cpp:141] Setting up resx12_conv3_bn
I0817 23:01:27.232944 30036 net.cpp:148] Top shape: 80 480 14 14 (7526400)
I0817 23:01:27.232946 30036 net.cpp:156] Memory required for data: 4811627840
I0817 23:01:27.232952 30036 layer_factory.hpp:77] Creating layer resx12_conv3_scale
I0817 23:01:27.232961 30036 net.cpp:91] Creating Layer resx12_conv3_scale
I0817 23:01:27.232965 30036 net.cpp:469] resx12_conv3_scale <- resx12_conv3
I0817 23:01:27.232969 30036 net.cpp:430] resx12_conv3_scale -> resx12_conv3 (in-place)
I0817 23:01:27.233014 30036 layer_factory.hpp:77] Creating layer resx12_conv3_scale
I0817 23:01:27.233144 30036 net.cpp:141] Setting up resx12_conv3_scale
I0817 23:01:27.233151 30036 net.cpp:148] Top shape: 80 480 14 14 (7526400)
I0817 23:01:27.233155 30036 net.cpp:156] Memory required for data: 4841733440
I0817 23:01:27.233160 30036 layer_factory.hpp:77] Creating layer resx12_elewise
I0817 23:01:27.233170 30036 net.cpp:91] Creating Layer resx12_elewise
I0817 23:01:27.233173 30036 net.cpp:469] resx12_elewise <- resx11_elewise_resx11_elewise_relu_0_split_1
I0817 23:01:27.233177 30036 net.cpp:469] resx12_elewise <- resx12_conv3
I0817 23:01:27.233182 30036 net.cpp:443] resx12_elewise -> resx12_elewise
I0817 23:01:27.233212 30036 net.cpp:141] Setting up resx12_elewise
I0817 23:01:27.233219 30036 net.cpp:148] Top shape: 80 480 14 14 (7526400)
I0817 23:01:27.233222 30036 net.cpp:156] Memory required for data: 4871839040
I0817 23:01:27.233225 30036 layer_factory.hpp:77] Creating layer resx12_elewise_relu
I0817 23:01:27.233230 30036 net.cpp:91] Creating Layer resx12_elewise_relu
I0817 23:01:27.233233 30036 net.cpp:469] resx12_elewise_relu <- resx12_elewise
I0817 23:01:27.233239 30036 net.cpp:430] resx12_elewise_relu -> resx12_elewise (in-place)
I0817 23:01:27.233393 30036 net.cpp:141] Setting up resx12_elewise_relu
I0817 23:01:27.233402 30036 net.cpp:148] Top shape: 80 480 14 14 (7526400)
I0817 23:01:27.233407 30036 net.cpp:156] Memory required for data: 4901944640
I0817 23:01:27.233410 30036 layer_factory.hpp:77] Creating layer resx12_elewise_resx12_elewise_relu_0_split
I0817 23:01:27.233418 30036 net.cpp:91] Creating Layer resx12_elewise_resx12_elewise_relu_0_split
I0817 23:01:27.233422 30036 net.cpp:469] resx12_elewise_resx12_elewise_relu_0_split <- resx12_elewise
I0817 23:01:27.233427 30036 net.cpp:443] resx12_elewise_resx12_elewise_relu_0_split -> resx12_elewise_resx12_elewise_relu_0_split_0
I0817 23:01:27.233441 30036 net.cpp:443] resx12_elewise_resx12_elewise_relu_0_split -> resx12_elewise_resx12_elewise_relu_0_split_1
I0817 23:01:27.233489 30036 net.cpp:141] Setting up resx12_elewise_resx12_elewise_relu_0_split
I0817 23:01:27.233494 30036 net.cpp:148] Top shape: 80 480 14 14 (7526400)
I0817 23:01:27.233499 30036 net.cpp:148] Top shape: 80 480 14 14 (7526400)
I0817 23:01:27.233501 30036 net.cpp:156] Memory required for data: 4962155840
I0817 23:01:27.233505 30036 layer_factory.hpp:77] Creating layer resx13_match_conv
I0817 23:01:27.233511 30036 net.cpp:91] Creating Layer resx13_match_conv
I0817 23:01:27.233515 30036 net.cpp:469] resx13_match_conv <- resx12_elewise_resx12_elewise_relu_0_split_0
I0817 23:01:27.233521 30036 net.cpp:443] resx13_match_conv -> resx13_match_conv
I0817 23:01:27.233865 30036 net.cpp:141] Setting up resx13_match_conv
I0817 23:01:27.233876 30036 net.cpp:148] Top shape: 80 480 7 7 (1881600)
I0817 23:01:27.233880 30036 net.cpp:156] Memory required for data: 4969682240
I0817 23:01:27.233883 30036 layer_factory.hpp:77] Creating layer resx13_conv1
I0817 23:01:27.233894 30036 net.cpp:91] Creating Layer resx13_conv1
I0817 23:01:27.233899 30036 net.cpp:469] resx13_conv1 <- resx12_elewise_resx12_elewise_relu_0_split_1
I0817 23:01:27.233906 30036 net.cpp:443] resx13_conv1 -> resx13_conv1
I0817 23:01:27.238600 30036 net.cpp:141] Setting up resx13_conv1
I0817 23:01:27.238656 30036 net.cpp:148] Top shape: 80 120 14 14 (1881600)
I0817 23:01:27.238667 30036 net.cpp:156] Memory required for data: 4977208640
I0817 23:01:27.238683 30036 layer_factory.hpp:77] Creating layer resx13_conv1_bn
I0817 23:01:27.238708 30036 net.cpp:91] Creating Layer resx13_conv1_bn
I0817 23:01:27.238721 30036 net.cpp:469] resx13_conv1_bn <- resx13_conv1
I0817 23:01:27.238736 30036 net.cpp:430] resx13_conv1_bn -> resx13_conv1 (in-place)
I0817 23:01:27.239284 30036 net.cpp:141] Setting up resx13_conv1_bn
I0817 23:01:27.239302 30036 net.cpp:148] Top shape: 80 120 14 14 (1881600)
I0817 23:01:27.239311 30036 net.cpp:156] Memory required for data: 4984735040
I0817 23:01:27.239341 30036 layer_factory.hpp:77] Creating layer resx13_conv1_scale
I0817 23:01:27.239364 30036 net.cpp:91] Creating Layer resx13_conv1_scale
I0817 23:01:27.239374 30036 net.cpp:469] resx13_conv1_scale <- resx13_conv1
I0817 23:01:27.239387 30036 net.cpp:430] resx13_conv1_scale -> resx13_conv1 (in-place)
I0817 23:01:27.239500 30036 layer_factory.hpp:77] Creating layer resx13_conv1_scale
I0817 23:01:27.239804 30036 net.cpp:141] Setting up resx13_conv1_scale
I0817 23:01:27.239820 30036 net.cpp:148] Top shape: 80 120 14 14 (1881600)
I0817 23:01:27.239828 30036 net.cpp:156] Memory required for data: 4992261440
I0817 23:01:27.239843 30036 layer_factory.hpp:77] Creating layer resx13_conv1_relu
I0817 23:01:27.239859 30036 net.cpp:91] Creating Layer resx13_conv1_relu
I0817 23:01:27.239869 30036 net.cpp:469] resx13_conv1_relu <- resx13_conv1
I0817 23:01:27.239881 30036 net.cpp:430] resx13_conv1_relu -> resx13_conv1 (in-place)
I0817 23:01:27.240547 30036 net.cpp:141] Setting up resx13_conv1_relu
I0817 23:01:27.240577 30036 net.cpp:148] Top shape: 80 120 14 14 (1881600)
I0817 23:01:27.240587 30036 net.cpp:156] Memory required for data: 4999787840
I0817 23:01:27.240597 30036 layer_factory.hpp:77] Creating layer shuffle13
I0817 23:01:27.240623 30036 net.cpp:91] Creating Layer shuffle13
I0817 23:01:27.240635 30036 net.cpp:469] shuffle13 <- resx13_conv1
I0817 23:01:27.240650 30036 net.cpp:443] shuffle13 -> shuffle13
I0817 23:01:27.240737 30036 net.cpp:141] Setting up shuffle13
I0817 23:01:27.240754 30036 net.cpp:148] Top shape: 80 120 14 14 (1881600)
I0817 23:01:27.240762 30036 net.cpp:156] Memory required for data: 5007314240
I0817 23:01:27.240772 30036 layer_factory.hpp:77] Creating layer resx13_conv2
I0817 23:01:27.240792 30036 net.cpp:91] Creating Layer resx13_conv2
I0817 23:01:27.240802 30036 net.cpp:469] resx13_conv2 <- shuffle13
I0817 23:01:27.240815 30036 net.cpp:443] resx13_conv2 -> resx13_conv2
I0817 23:01:27.241684 30036 net.cpp:141] Setting up resx13_conv2
I0817 23:01:27.241730 30036 net.cpp:148] Top shape: 80 120 7 7 (470400)
I0817 23:01:27.241740 30036 net.cpp:156] Memory required for data: 5009195840
I0817 23:01:27.241762 30036 layer_factory.hpp:77] Creating layer resx13_conv2_bn
I0817 23:01:27.241782 30036 net.cpp:91] Creating Layer resx13_conv2_bn
I0817 23:01:27.241793 30036 net.cpp:469] resx13_conv2_bn <- resx13_conv2
I0817 23:01:27.241806 30036 net.cpp:430] resx13_conv2_bn -> resx13_conv2 (in-place)
I0817 23:01:27.242436 30036 net.cpp:141] Setting up resx13_conv2_bn
I0817 23:01:27.242456 30036 net.cpp:148] Top shape: 80 120 7 7 (470400)
I0817 23:01:27.242465 30036 net.cpp:156] Memory required for data: 5011077440
I0817 23:01:27.242482 30036 layer_factory.hpp:77] Creating layer resx13_conv2_scale
I0817 23:01:27.242509 30036 net.cpp:91] Creating Layer resx13_conv2_scale
I0817 23:01:27.242521 30036 net.cpp:469] resx13_conv2_scale <- resx13_conv2
I0817 23:01:27.242532 30036 net.cpp:430] resx13_conv2_scale -> resx13_conv2 (in-place)
I0817 23:01:27.242638 30036 layer_factory.hpp:77] Creating layer resx13_conv2_scale
I0817 23:01:27.242949 30036 net.cpp:141] Setting up resx13_conv2_scale
I0817 23:01:27.242966 30036 net.cpp:148] Top shape: 80 120 7 7 (470400)
I0817 23:01:27.242974 30036 net.cpp:156] Memory required for data: 5012959040
I0817 23:01:27.242988 30036 layer_factory.hpp:77] Creating layer resx13_conv3
I0817 23:01:27.243012 30036 net.cpp:91] Creating Layer resx13_conv3
I0817 23:01:27.243022 30036 net.cpp:469] resx13_conv3 <- resx13_conv2
I0817 23:01:27.243036 30036 net.cpp:443] resx13_conv3 -> resx13_conv3
I0817 23:01:27.249657 30036 net.cpp:141] Setting up resx13_conv3
I0817 23:01:27.249672 30036 net.cpp:148] Top shape: 80 480 7 7 (1881600)
I0817 23:01:27.249677 30036 net.cpp:156] Memory required for data: 5020485440
I0817 23:01:27.249685 30036 layer_factory.hpp:77] Creating layer resx13_conv3_bn
I0817 23:01:27.249699 30036 net.cpp:91] Creating Layer resx13_conv3_bn
I0817 23:01:27.249704 30036 net.cpp:469] resx13_conv3_bn <- resx13_conv3
I0817 23:01:27.249711 30036 net.cpp:430] resx13_conv3_bn -> resx13_conv3 (in-place)
I0817 23:01:27.249955 30036 net.cpp:141] Setting up resx13_conv3_bn
I0817 23:01:27.249964 30036 net.cpp:148] Top shape: 80 480 7 7 (1881600)
I0817 23:01:27.249967 30036 net.cpp:156] Memory required for data: 5028011840
I0817 23:01:27.249975 30036 layer_factory.hpp:77] Creating layer resx13_conv3_scale
I0817 23:01:27.249989 30036 net.cpp:91] Creating Layer resx13_conv3_scale
I0817 23:01:27.249994 30036 net.cpp:469] resx13_conv3_scale <- resx13_conv3
I0817 23:01:27.250000 30036 net.cpp:430] resx13_conv3_scale -> resx13_conv3 (in-place)
I0817 23:01:27.250051 30036 layer_factory.hpp:77] Creating layer resx13_conv3_scale
I0817 23:01:27.250191 30036 net.cpp:141] Setting up resx13_conv3_scale
I0817 23:01:27.250200 30036 net.cpp:148] Top shape: 80 480 7 7 (1881600)
I0817 23:01:27.250202 30036 net.cpp:156] Memory required for data: 5035538240
I0817 23:01:27.250208 30036 layer_factory.hpp:77] Creating layer resx13_concat
I0817 23:01:27.250214 30036 net.cpp:91] Creating Layer resx13_concat
I0817 23:01:27.250218 30036 net.cpp:469] resx13_concat <- resx13_match_conv
I0817 23:01:27.250223 30036 net.cpp:469] resx13_concat <- resx13_conv3
I0817 23:01:27.250231 30036 net.cpp:443] resx13_concat -> resx13_concat
I0817 23:01:27.250268 30036 net.cpp:141] Setting up resx13_concat
I0817 23:01:27.250275 30036 net.cpp:148] Top shape: 80 960 7 7 (3763200)
I0817 23:01:27.250279 30036 net.cpp:156] Memory required for data: 5050591040
I0817 23:01:27.250283 30036 layer_factory.hpp:77] Creating layer resx13_concat_relu
I0817 23:01:27.250290 30036 net.cpp:91] Creating Layer resx13_concat_relu
I0817 23:01:27.250294 30036 net.cpp:469] resx13_concat_relu <- resx13_concat
I0817 23:01:27.250298 30036 net.cpp:430] resx13_concat_relu -> resx13_concat (in-place)
I0817 23:01:27.250633 30036 net.cpp:141] Setting up resx13_concat_relu
I0817 23:01:27.250646 30036 net.cpp:148] Top shape: 80 960 7 7 (3763200)
I0817 23:01:27.250654 30036 net.cpp:156] Memory required for data: 5065643840
I0817 23:01:27.250664 30036 layer_factory.hpp:77] Creating layer resx13_concat_resx13_concat_relu_0_split
I0817 23:01:27.250677 30036 net.cpp:91] Creating Layer resx13_concat_resx13_concat_relu_0_split
I0817 23:01:27.250684 30036 net.cpp:469] resx13_concat_resx13_concat_relu_0_split <- resx13_concat
I0817 23:01:27.250689 30036 net.cpp:443] resx13_concat_resx13_concat_relu_0_split -> resx13_concat_resx13_concat_relu_0_split_0
I0817 23:01:27.250696 30036 net.cpp:443] resx13_concat_resx13_concat_relu_0_split -> resx13_concat_resx13_concat_relu_0_split_1
I0817 23:01:27.250751 30036 net.cpp:141] Setting up resx13_concat_resx13_concat_relu_0_split
I0817 23:01:27.250758 30036 net.cpp:148] Top shape: 80 960 7 7 (3763200)
I0817 23:01:27.250762 30036 net.cpp:148] Top shape: 80 960 7 7 (3763200)
I0817 23:01:27.250766 30036 net.cpp:156] Memory required for data: 5095749440
I0817 23:01:27.250774 30036 layer_factory.hpp:77] Creating layer resx14_conv1
I0817 23:01:27.250790 30036 net.cpp:91] Creating Layer resx14_conv1
I0817 23:01:27.250795 30036 net.cpp:469] resx14_conv1 <- resx13_concat_resx13_concat_relu_0_split_0
I0817 23:01:27.250802 30036 net.cpp:443] resx14_conv1 -> resx14_conv1
I0817 23:01:27.256060 30036 net.cpp:141] Setting up resx14_conv1
I0817 23:01:27.256075 30036 net.cpp:148] Top shape: 80 240 7 7 (940800)
I0817 23:01:27.256079 30036 net.cpp:156] Memory required for data: 5099512640
I0817 23:01:27.256085 30036 layer_factory.hpp:77] Creating layer resx14_conv1_bn
I0817 23:01:27.256094 30036 net.cpp:91] Creating Layer resx14_conv1_bn
I0817 23:01:27.256100 30036 net.cpp:469] resx14_conv1_bn <- resx14_conv1
I0817 23:01:27.256106 30036 net.cpp:430] resx14_conv1_bn -> resx14_conv1 (in-place)
I0817 23:01:27.256364 30036 net.cpp:141] Setting up resx14_conv1_bn
I0817 23:01:27.256373 30036 net.cpp:148] Top shape: 80 240 7 7 (940800)
I0817 23:01:27.256377 30036 net.cpp:156] Memory required for data: 5103275840
I0817 23:01:27.256388 30036 layer_factory.hpp:77] Creating layer resx14_conv1_scale
I0817 23:01:27.256397 30036 net.cpp:91] Creating Layer resx14_conv1_scale
I0817 23:01:27.256400 30036 net.cpp:469] resx14_conv1_scale <- resx14_conv1
I0817 23:01:27.256405 30036 net.cpp:430] resx14_conv1_scale -> resx14_conv1 (in-place)
I0817 23:01:27.256463 30036 layer_factory.hpp:77] Creating layer resx14_conv1_scale
I0817 23:01:27.256599 30036 net.cpp:141] Setting up resx14_conv1_scale
I0817 23:01:27.256606 30036 net.cpp:148] Top shape: 80 240 7 7 (940800)
I0817 23:01:27.256610 30036 net.cpp:156] Memory required for data: 5107039040
I0817 23:01:27.256616 30036 layer_factory.hpp:77] Creating layer resx14_conv1_relu
I0817 23:01:27.256629 30036 net.cpp:91] Creating Layer resx14_conv1_relu
I0817 23:01:27.256634 30036 net.cpp:469] resx14_conv1_relu <- resx14_conv1
I0817 23:01:27.256639 30036 net.cpp:430] resx14_conv1_relu -> resx14_conv1 (in-place)
I0817 23:01:27.256989 30036 net.cpp:141] Setting up resx14_conv1_relu
I0817 23:01:27.257002 30036 net.cpp:148] Top shape: 80 240 7 7 (940800)
I0817 23:01:27.257006 30036 net.cpp:156] Memory required for data: 5110802240
I0817 23:01:27.257014 30036 layer_factory.hpp:77] Creating layer shuffle14
I0817 23:01:27.257021 30036 net.cpp:91] Creating Layer shuffle14
I0817 23:01:27.257026 30036 net.cpp:469] shuffle14 <- resx14_conv1
I0817 23:01:27.257033 30036 net.cpp:443] shuffle14 -> shuffle14
I0817 23:01:27.257072 30036 net.cpp:141] Setting up shuffle14
I0817 23:01:27.257086 30036 net.cpp:148] Top shape: 80 240 7 7 (940800)
I0817 23:01:27.257095 30036 net.cpp:156] Memory required for data: 5114565440
I0817 23:01:27.257098 30036 layer_factory.hpp:77] Creating layer resx14_conv2
I0817 23:01:27.257105 30036 net.cpp:91] Creating Layer resx14_conv2
I0817 23:01:27.257110 30036 net.cpp:469] resx14_conv2 <- shuffle14
I0817 23:01:27.257117 30036 net.cpp:443] resx14_conv2 -> resx14_conv2
I0817 23:01:27.257313 30036 net.cpp:141] Setting up resx14_conv2
I0817 23:01:27.257323 30036 net.cpp:148] Top shape: 80 240 7 7 (940800)
I0817 23:01:27.257328 30036 net.cpp:156] Memory required for data: 5118328640
I0817 23:01:27.257341 30036 layer_factory.hpp:77] Creating layer resx14_conv2_bn
I0817 23:01:27.257350 30036 net.cpp:91] Creating Layer resx14_conv2_bn
I0817 23:01:27.257354 30036 net.cpp:469] resx14_conv2_bn <- resx14_conv2
I0817 23:01:27.257359 30036 net.cpp:430] resx14_conv2_bn -> resx14_conv2 (in-place)
I0817 23:01:27.257596 30036 net.cpp:141] Setting up resx14_conv2_bn
I0817 23:01:27.257604 30036 net.cpp:148] Top shape: 80 240 7 7 (940800)
I0817 23:01:27.257607 30036 net.cpp:156] Memory required for data: 5122091840
I0817 23:01:27.257616 30036 layer_factory.hpp:77] Creating layer resx14_conv2_scale
I0817 23:01:27.257629 30036 net.cpp:91] Creating Layer resx14_conv2_scale
I0817 23:01:27.257634 30036 net.cpp:469] resx14_conv2_scale <- resx14_conv2
I0817 23:01:27.257639 30036 net.cpp:430] resx14_conv2_scale -> resx14_conv2 (in-place)
I0817 23:01:27.257688 30036 layer_factory.hpp:77] Creating layer resx14_conv2_scale
I0817 23:01:27.257823 30036 net.cpp:141] Setting up resx14_conv2_scale
I0817 23:01:27.257832 30036 net.cpp:148] Top shape: 80 240 7 7 (940800)
I0817 23:01:27.257834 30036 net.cpp:156] Memory required for data: 5125855040
I0817 23:01:27.257846 30036 layer_factory.hpp:77] Creating layer resx14_conv3
I0817 23:01:27.257860 30036 net.cpp:91] Creating Layer resx14_conv3
I0817 23:01:27.257864 30036 net.cpp:469] resx14_conv3 <- resx14_conv2
I0817 23:01:27.257870 30036 net.cpp:443] resx14_conv3 -> resx14_conv3
I0817 23:01:27.262439 30036 net.cpp:141] Setting up resx14_conv3
I0817 23:01:27.262454 30036 net.cpp:148] Top shape: 80 960 7 7 (3763200)
I0817 23:01:27.262459 30036 net.cpp:156] Memory required for data: 5140907840
I0817 23:01:27.262465 30036 layer_factory.hpp:77] Creating layer resx14_conv3_bn
I0817 23:01:27.262473 30036 net.cpp:91] Creating Layer resx14_conv3_bn
I0817 23:01:27.262477 30036 net.cpp:469] resx14_conv3_bn <- resx14_conv3
I0817 23:01:27.262483 30036 net.cpp:430] resx14_conv3_bn -> resx14_conv3 (in-place)
I0817 23:01:27.262750 30036 net.cpp:141] Setting up resx14_conv3_bn
I0817 23:01:27.262760 30036 net.cpp:148] Top shape: 80 960 7 7 (3763200)
I0817 23:01:27.262764 30036 net.cpp:156] Memory required for data: 5155960640
I0817 23:01:27.262771 30036 layer_factory.hpp:77] Creating layer resx14_conv3_scale
I0817 23:01:27.262785 30036 net.cpp:91] Creating Layer resx14_conv3_scale
I0817 23:01:27.262789 30036 net.cpp:469] resx14_conv3_scale <- resx14_conv3
I0817 23:01:27.262795 30036 net.cpp:430] resx14_conv3_scale -> resx14_conv3 (in-place)
I0817 23:01:27.262848 30036 layer_factory.hpp:77] Creating layer resx14_conv3_scale
I0817 23:01:27.262994 30036 net.cpp:141] Setting up resx14_conv3_scale
I0817 23:01:27.263001 30036 net.cpp:148] Top shape: 80 960 7 7 (3763200)
I0817 23:01:27.263005 30036 net.cpp:156] Memory required for data: 5171013440
I0817 23:01:27.263370 30036 layer_factory.hpp:77] Creating layer resx14_elewise
I0817 23:01:27.263383 30036 net.cpp:91] Creating Layer resx14_elewise
I0817 23:01:27.263388 30036 net.cpp:469] resx14_elewise <- resx13_concat_resx13_concat_relu_0_split_1
I0817 23:01:27.263393 30036 net.cpp:469] resx14_elewise <- resx14_conv3
I0817 23:01:27.263398 30036 net.cpp:443] resx14_elewise -> resx14_elewise
I0817 23:01:27.263437 30036 net.cpp:141] Setting up resx14_elewise
I0817 23:01:27.263444 30036 net.cpp:148] Top shape: 80 960 7 7 (3763200)
I0817 23:01:27.263448 30036 net.cpp:156] Memory required for data: 5186066240
I0817 23:01:27.263453 30036 layer_factory.hpp:77] Creating layer resx14_elewise_relu
I0817 23:01:27.263458 30036 net.cpp:91] Creating Layer resx14_elewise_relu
I0817 23:01:27.263463 30036 net.cpp:469] resx14_elewise_relu <- resx14_elewise
I0817 23:01:27.263468 30036 net.cpp:430] resx14_elewise_relu -> resx14_elewise (in-place)
I0817 23:01:27.264967 30036 net.cpp:141] Setting up resx14_elewise_relu
I0817 23:01:27.264983 30036 net.cpp:148] Top shape: 80 960 7 7 (3763200)
I0817 23:01:27.264988 30036 net.cpp:156] Memory required for data: 5201119040
I0817 23:01:27.264992 30036 layer_factory.hpp:77] Creating layer resx14_elewise_resx14_elewise_relu_0_split
I0817 23:01:27.265003 30036 net.cpp:91] Creating Layer resx14_elewise_resx14_elewise_relu_0_split
I0817 23:01:27.265014 30036 net.cpp:469] resx14_elewise_resx14_elewise_relu_0_split <- resx14_elewise
I0817 23:01:27.265023 30036 net.cpp:443] resx14_elewise_resx14_elewise_relu_0_split -> resx14_elewise_resx14_elewise_relu_0_split_0
I0817 23:01:27.265031 30036 net.cpp:443] resx14_elewise_resx14_elewise_relu_0_split -> resx14_elewise_resx14_elewise_relu_0_split_1
I0817 23:01:27.265099 30036 net.cpp:141] Setting up resx14_elewise_resx14_elewise_relu_0_split
I0817 23:01:27.265107 30036 net.cpp:148] Top shape: 80 960 7 7 (3763200)
I0817 23:01:27.265112 30036 net.cpp:148] Top shape: 80 960 7 7 (3763200)
I0817 23:01:27.265115 30036 net.cpp:156] Memory required for data: 5231224640
I0817 23:01:27.265120 30036 layer_factory.hpp:77] Creating layer resx15_conv1
I0817 23:01:27.265136 30036 net.cpp:91] Creating Layer resx15_conv1
I0817 23:01:27.265142 30036 net.cpp:469] resx15_conv1 <- resx14_elewise_resx14_elewise_relu_0_split_0
I0817 23:01:27.265148 30036 net.cpp:443] resx15_conv1 -> resx15_conv1
I0817 23:01:27.269698 30036 net.cpp:141] Setting up resx15_conv1
I0817 23:01:27.269714 30036 net.cpp:148] Top shape: 80 240 7 7 (940800)
I0817 23:01:27.269719 30036 net.cpp:156] Memory required for data: 5234987840
I0817 23:01:27.269732 30036 layer_factory.hpp:77] Creating layer resx15_conv1_bn
I0817 23:01:27.269744 30036 net.cpp:91] Creating Layer resx15_conv1_bn
I0817 23:01:27.269749 30036 net.cpp:469] resx15_conv1_bn <- resx15_conv1
I0817 23:01:27.269757 30036 net.cpp:430] resx15_conv1_bn -> resx15_conv1 (in-place)
I0817 23:01:27.269991 30036 net.cpp:141] Setting up resx15_conv1_bn
I0817 23:01:27.270000 30036 net.cpp:148] Top shape: 80 240 7 7 (940800)
I0817 23:01:27.270004 30036 net.cpp:156] Memory required for data: 5238751040
I0817 23:01:27.270010 30036 layer_factory.hpp:77] Creating layer resx15_conv1_scale
I0817 23:01:27.270017 30036 net.cpp:91] Creating Layer resx15_conv1_scale
I0817 23:01:27.270021 30036 net.cpp:469] resx15_conv1_scale <- resx15_conv1
I0817 23:01:27.270028 30036 net.cpp:430] resx15_conv1_scale -> resx15_conv1 (in-place)
I0817 23:01:27.270073 30036 layer_factory.hpp:77] Creating layer resx15_conv1_scale
I0817 23:01:27.270212 30036 net.cpp:141] Setting up resx15_conv1_scale
I0817 23:01:27.270220 30036 net.cpp:148] Top shape: 80 240 7 7 (940800)
I0817 23:01:27.270223 30036 net.cpp:156] Memory required for data: 5242514240
I0817 23:01:27.270229 30036 layer_factory.hpp:77] Creating layer resx15_conv1_relu
I0817 23:01:27.270241 30036 net.cpp:91] Creating Layer resx15_conv1_relu
I0817 23:01:27.270246 30036 net.cpp:469] resx15_conv1_relu <- resx15_conv1
I0817 23:01:27.270251 30036 net.cpp:430] resx15_conv1_relu -> resx15_conv1 (in-place)
I0817 23:01:27.270589 30036 net.cpp:141] Setting up resx15_conv1_relu
I0817 23:01:27.270602 30036 net.cpp:148] Top shape: 80 240 7 7 (940800)
I0817 23:01:27.270606 30036 net.cpp:156] Memory required for data: 5246277440
I0817 23:01:27.270611 30036 layer_factory.hpp:77] Creating layer shuffle15
I0817 23:01:27.270617 30036 net.cpp:91] Creating Layer shuffle15
I0817 23:01:27.270620 30036 net.cpp:469] shuffle15 <- resx15_conv1
I0817 23:01:27.270635 30036 net.cpp:443] shuffle15 -> shuffle15
I0817 23:01:27.270673 30036 net.cpp:141] Setting up shuffle15
…
I0817 23:01:27.517532 30036 net.cpp:91] Creating Layer resx11_conv1
I0817 23:01:27.517537 30036 net.cpp:469] resx11_conv1 <- resx10_elewise_resx10_elewise_relu_0_split_0
I0817 23:01:27.517545 30036 net.cpp:443] resx11_conv1 -> resx11_conv1
I0817 23:01:27.521526 30036 net.cpp:141] Setting up resx11_conv1
I0817 23:01:27.521543 30036 net.cpp:148] Top shape: 40 120 14 14 (940800)
I0817 23:01:27.521548 30036 net.cpp:156] Memory required for data: 2213891040
I0817 23:01:27.521554 30036 layer_factory.hpp:77] Creating layer resx11_conv1_bn
I0817 23:01:27.521564 30036 net.cpp:91] Creating Layer resx11_conv1_bn
I0817 23:01:27.521569 30036 net.cpp:469] resx11_conv1_bn <- resx11_conv1
I0817 23:01:27.521576 30036 net.cpp:430] resx11_conv1_bn -> resx11_conv1 (in-place)
I0817 23:01:27.521797 30036 net.cpp:141] Setting up resx11_conv1_bn
I0817 23:01:27.521806 30036 net.cpp:148] Top shape: 40 120 14 14 (940800)
I0817 23:01:27.521811 30036 net.cpp:156] Memory required for data: 2217654240
I0817 23:01:27.521818 30036 layer_factory.hpp:77] Creating layer resx11_conv1_scale
I0817 23:01:27.521831 30036 net.cpp:91] Creating Layer resx11_conv1_scale
I0817 23:01:27.521836 30036 net.cpp:469] resx11_conv1_scale <- resx11_conv1
I0817 23:01:27.521842 30036 net.cpp:430] resx11_conv1_scale -> resx11_conv1 (in-place)
I0817 23:01:27.521888 30036 layer_factory.hpp:77] Creating layer resx11_conv1_scale
I0817 23:01:27.522017 30036 net.cpp:141] Setting up resx11_conv1_scale
I0817 23:01:27.522027 30036 net.cpp:148] Top shape: 40 120 14 14 (940800)
I0817 23:01:27.522029 30036 net.cpp:156] Memory required for data: 2221417440
I0817 23:01:27.522037 30036 layer_factory.hpp:77] Creating layer resx11_conv1_relu
I0817 23:01:27.522043 30036 net.cpp:91] Creating Layer resx11_conv1_relu
I0817 23:01:27.522047 30036 net.cpp:469] resx11_conv1_relu <- resx11_conv1
I0817 23:01:27.522053 30036 net.cpp:430] resx11_conv1_relu -> resx11_conv1 (in-place)
I0817 23:01:27.522449 30036 net.cpp:141] Setting up resx11_conv1_relu
I0817 23:01:27.522462 30036 net.cpp:148] Top shape: 40 120 14 14 (940800)
I0817 23:01:27.522467 30036 net.cpp:156] Memory required for data: 2225180640
I0817 23:01:27.522471 30036 layer_factory.hpp:77] Creating layer shuffle11
I0817 23:01:27.522480 30036 net.cpp:91] Creating Layer shuffle11
I0817 23:01:27.522483 30036 net.cpp:469] shuffle11 <- resx11_conv1
I0817 23:01:27.522490 30036 net.cpp:443] shuffle11 -> shuffle11
I0817 23:01:27.522532 30036 net.cpp:141] Setting up shuffle11
I0817 23:01:27.522547 30036 net.cpp:148] Top shape: 40 120 14 14 (940800)
I0817 23:01:27.522552 30036 net.cpp:156] Memory required for data: 2228943840
I0817 23:01:27.522555 30036 layer_factory.hpp:77] Creating layer resx11_conv2
I0817 23:01:27.522565 30036 net.cpp:91] Creating Layer resx11_conv2
I0817 23:01:27.522569 30036 net.cpp:469] resx11_conv2 <- shuffle11
I0817 23:01:27.522575 30036 net.cpp:443] resx11_conv2 -> resx11_conv2
I0817 23:01:27.522750 30036 net.cpp:141] Setting up resx11_conv2
I0817 23:01:27.522763 30036 net.cpp:148] Top shape: 40 120 14 14 (940800)
I0817 23:01:27.522765 30036 net.cpp:156] Memory required for data: 2232707040
I0817 23:01:27.522771 30036 layer_factory.hpp:77] Creating layer resx11_conv2_bn
I0817 23:01:27.522781 30036 net.cpp:91] Creating Layer resx11_conv2_bn
I0817 23:01:27.522786 30036 net.cpp:469] resx11_conv2_bn <- resx11_conv2
I0817 23:01:27.522792 30036 net.cpp:430] resx11_conv2_bn -> resx11_conv2 (in-place)
I0817 23:01:27.523006 30036 net.cpp:141] Setting up resx11_conv2_bn
I0817 23:01:27.523016 30036 net.cpp:148] Top shape: 40 120 14 14 (940800)
I0817 23:01:27.523020 30036 net.cpp:156] Memory required for data: 2236470240
I0817 23:01:27.523027 30036 layer_factory.hpp:77] Creating layer resx11_conv2_scale
I0817 23:01:27.523036 30036 net.cpp:91] Creating Layer resx11_conv2_scale
I0817 23:01:27.523041 30036 net.cpp:469] resx11_conv2_scale <- resx11_conv2
I0817 23:01:27.523046 30036 net.cpp:430] resx11_conv2_scale -> resx11_conv2 (in-place)
I0817 23:01:27.523094 30036 layer_factory.hpp:77] Creating layer resx11_conv2_scale
I0817 23:01:27.523223 30036 net.cpp:141] Setting up resx11_conv2_scale
I0817 23:01:27.523232 30036 net.cpp:148] Top shape: 40 120 14 14 (940800)
I0817 23:01:27.523236 30036 net.cpp:156] Memory required for data: 2240233440
I0817 23:01:27.523242 30036 layer_factory.hpp:77] Creating layer resx11_conv3
I0817 23:01:27.523252 30036 net.cpp:91] Creating Layer resx11_conv3
I0817 23:01:27.523257 30036 net.cpp:469] resx11_conv3 <- resx11_conv2
I0817 23:01:27.523263 30036 net.cpp:443] resx11_conv3 -> resx11_conv3
I0817 23:01:27.526769 30036 net.cpp:141] Setting up resx11_conv3
I0817 23:01:27.526787 30036 net.cpp:148] Top shape: 40 480 14 14 (3763200)
I0817 23:01:27.526793 30036 net.cpp:156] Memory required for data: 2255286240
I0817 23:01:27.526799 30036 layer_factory.hpp:77] Creating layer resx11_conv3_bn
I0817 23:01:27.526808 30036 net.cpp:91] Creating Layer resx11_conv3_bn
I0817 23:01:27.526813 30036 net.cpp:469] resx11_conv3_bn <- resx11_conv3
I0817 23:01:27.526820 30036 net.cpp:430] resx11_conv3_bn -> resx11_conv3 (in-place)
I0817 23:01:27.527074 30036 net.cpp:141] Setting up resx11_conv3_bn
I0817 23:01:27.527086 30036 net.cpp:148] Top shape: 40 480 14 14 (3763200)
I0817 23:01:27.527088 30036 net.cpp:156] Memory required for data: 2270339040
I0817 23:01:27.527097 30036 layer_factory.hpp:77] Creating layer resx11_conv3_scale
I0817 23:01:27.527104 30036 net.cpp:91] Creating Layer resx11_conv3_scale
I0817 23:01:27.527109 30036 net.cpp:469] resx11_conv3_scale <- resx11_conv3
I0817 23:01:27.527117 30036 net.cpp:430] resx11_conv3_scale -> resx11_conv3 (in-place)
I0817 23:01:27.527179 30036 layer_factory.hpp:77] Creating layer resx11_conv3_scale
I0817 23:01:27.527326 30036 net.cpp:141] Setting up resx11_conv3_scale
I0817 23:01:27.527335 30036 net.cpp:148] Top shape: 40 480 14 14 (3763200)
I0817 23:01:27.527339 30036 net.cpp:156] Memory required for data: 2285391840
I0817 23:01:27.527346 30036 layer_factory.hpp:77] Creating layer resx11_elewise
I0817 23:01:27.527354 30036 net.cpp:91] Creating Layer resx11_elewise
I0817 23:01:27.527359 30036 net.cpp:469] resx11_elewise <- resx10_elewise_resx10_elewise_relu_0_split_1
I0817 23:01:27.527364 30036 net.cpp:469] resx11_elewise <- resx11_conv3
I0817 23:01:27.527372 30036 net.cpp:443] resx11_elewise -> resx11_elewise
I0817 23:01:27.527402 30036 net.cpp:141] Setting up resx11_elewise
I0817 23:01:27.527410 30036 net.cpp:148] Top shape: 40 480 14 14 (3763200)
I0817 23:01:27.527413 30036 net.cpp:156] Memory required for data: 2300444640
I0817 23:01:27.527428 30036 layer_factory.hpp:77] Creating layer resx11_elewise_relu
I0817 23:01:27.527436 30036 net.cpp:91] Creating Layer resx11_elewise_relu
I0817 23:01:27.527441 30036 net.cpp:469] resx11_elewise_relu <- resx11_elewise
I0817 23:01:27.527446 30036 net.cpp:430] resx11_elewise_relu -> resx11_elewise (in-place)
I0817 23:01:27.527845 30036 net.cpp:141] Setting up resx11_elewise_relu
I0817 23:01:27.527859 30036 net.cpp:148] Top shape: 40 480 14 14 (3763200)
I0817 23:01:27.527863 30036 net.cpp:156] Memory required for data: 2315497440
I0817 23:01:27.527868 30036 layer_factory.hpp:77] Creating layer resx11_elewise_resx11_elewise_relu_0_split
I0817 23:01:27.527878 30036 net.cpp:91] Creating Layer resx11_elewise_resx11_elewise_relu_0_split
I0817 23:01:27.527882 30036 net.cpp:469] resx11_elewise_resx11_elewise_relu_0_split <- resx11_elewise
I0817 23:01:27.527889 30036 net.cpp:443] resx11_elewise_resx11_elewise_relu_0_split -> resx11_elewise_resx11_elewise_relu_0_split_0
I0817 23:01:27.527897 30036 net.cpp:443] resx11_elewise_resx11_elewise_relu_0_split -> resx11_elewise_resx11_elewise_relu_0_split_1
I0817 23:01:27.527962 30036 net.cpp:141] Setting up resx11_elewise_resx11_elewise_relu_0_split
I0817 23:01:27.527971 30036 net.cpp:148] Top shape: 40 480 14 14 (3763200)
I0817 23:01:27.527974 30036 net.cpp:148] Top shape: 40 480 14 14 (3763200)
I0817 23:01:27.527978 30036 net.cpp:156] Memory required for data: 2345603040
I0817 23:01:27.527982 30036 layer_factory.hpp:77] Creating layer resx12_conv1
I0817 23:01:27.527992 30036 net.cpp:91] Creating Layer resx12_conv1
I0817 23:01:27.527997 30036 net.cpp:469] resx12_conv1 <- resx11_elewise_resx11_elewise_relu_0_split_0
I0817 23:01:27.528005 30036 net.cpp:443] resx12_conv1 -> resx12_conv1
I0817 23:01:27.531646 30036 net.cpp:141] Setting up resx12_conv1
I0817 23:01:27.531661 30036 net.cpp:148] Top shape: 40 120 14 14 (940800)
I0817 23:01:27.531666 30036 net.cpp:156] Memory required for data: 2349366240
I0817 23:01:27.531672 30036 layer_factory.hpp:77] Creating layer resx12_conv1_bn
I0817 23:01:27.531682 30036 net.cpp:91] Creating Layer resx12_conv1_bn
I0817 23:01:27.531687 30036 net.cpp:469] resx12_conv1_bn <- resx12_conv1
I0817 23:01:27.531693 30036 net.cpp:430] resx12_conv1_bn -> resx12_conv1 (in-place)
I0817 23:01:27.531910 30036 net.cpp:141] Setting up resx12_conv1_bn
I0817 23:01:27.531919 30036 net.cpp:148] Top shape: 40 120 14 14 (940800)
I0817 23:01:27.531924 30036 net.cpp:156] Memory required for data: 2353129440
I0817 23:01:27.531931 30036 layer_factory.hpp:77] Creating layer resx12_conv1_scale
I0817 23:01:27.531939 30036 net.cpp:91] Creating Layer resx12_conv1_scale
I0817 23:01:27.531944 30036 net.cpp:469] resx12_conv1_scale <- resx12_conv1
I0817 23:01:27.531949 30036 net.cpp:430] resx12_conv1_scale -> resx12_conv1 (in-place)
I0817 23:01:27.531997 30036 layer_factory.hpp:77] Creating layer resx12_conv1_scale
I0817 23:01:27.532127 30036 net.cpp:141] Setting up resx12_conv1_scale
I0817 23:01:27.532136 30036 net.cpp:148] Top shape: 40 120 14 14 (940800)
I0817 23:01:27.532140 30036 net.cpp:156] Memory required for data: 2356892640
I0817 23:01:27.532146 30036 layer_factory.hpp:77] Creating layer resx12_conv1_relu
I0817 23:01:27.532153 30036 net.cpp:91] Creating Layer resx12_conv1_relu
I0817 23:01:27.532157 30036 net.cpp:469] resx12_conv1_relu <- resx12_conv1
I0817 23:01:27.532163 30036 net.cpp:430] resx12_conv1_relu -> resx12_conv1 (in-place)
I0817 23:01:27.532564 30036 net.cpp:141] Setting up resx12_conv1_relu
I0817 23:01:27.532579 30036 net.cpp:148] Top shape: 40 120 14 14 (940800)
I0817 23:01:27.532583 30036 net.cpp:156] Memory required for data: 2360655840
I0817 23:01:27.532588 30036 layer_factory.hpp:77] Creating layer shuffle12
I0817 23:01:27.532596 30036 net.cpp:91] Creating Layer shuffle12
I0817 23:01:27.532600 30036 net.cpp:469] shuffle12 <- resx12_conv1
I0817 23:01:27.532609 30036 net.cpp:443] shuffle12 -> shuffle12
I0817 23:01:27.532644 30036 net.cpp:141] Setting up shuffle12
I0817 23:01:27.532652 30036 net.cpp:148] Top shape: 40 120 14 14 (940800)
I0817 23:01:27.532665 30036 net.cpp:156] Memory required for data: 2364419040
I0817 23:01:27.532670 30036 layer_factory.hpp:77] Creating layer resx12_conv2
I0817 23:01:27.532680 30036 net.cpp:91] Creating Layer resx12_conv2
I0817 23:01:27.532685 30036 net.cpp:469] resx12_conv2 <- shuffle12
I0817 23:01:27.532691 30036 net.cpp:443] resx12_conv2 -> resx12_conv2
I0817 23:01:27.532866 30036 net.cpp:141] Setting up resx12_conv2
I0817 23:01:27.532878 30036 net.cpp:148] Top shape: 40 120 14 14 (940800)
I0817 23:01:27.532881 30036 net.cpp:156] Memory required for data: 2368182240
I0817 23:01:27.532887 30036 layer_factory.hpp:77] Creating layer resx12_conv2_bn
I0817 23:01:27.532896 30036 net.cpp:91] Creating Layer resx12_conv2_bn
I0817 23:01:27.532902 30036 net.cpp:469] resx12_conv2_bn <- resx12_conv2
I0817 23:01:27.532908 30036 net.cpp:430] resx12_conv2_bn -> resx12_conv2 (in-place)
I0817 23:01:27.533129 30036 net.cpp:141] Setting up resx12_conv2_bn
I0817 23:01:27.533139 30036 net.cpp:148] Top shape: 40 120 14 14 (940800)
I0817 23:01:27.533143 30036 net.cpp:156] Memory required for data: 2371945440
I0817 23:01:27.533151 30036 layer_factory.hpp:77] Creating layer resx12_conv2_scale
I0817 23:01:27.533161 30036 net.cpp:91] Creating Layer resx12_conv2_scale
I0817 23:01:27.533166 30036 net.cpp:469] resx12_conv2_scale <- resx12_conv2
I0817 23:01:27.533171 30036 net.cpp:430] resx12_conv2_scale -> resx12_conv2 (in-place)
I0817 23:01:27.533218 30036 layer_factory.hpp:77] Creating layer resx12_conv2_scale
I0817 23:01:27.533345 30036 net.cpp:141] Setting up resx12_conv2_scale
I0817 23:01:27.533355 30036 net.cpp:148] Top shape: 40 120 14 14 (940800)
I0817 23:01:27.533360 30036 net.cpp:156] Memory required for data: 2375708640
I0817 23:01:27.533366 30036 layer_factory.hpp:77] Creating layer resx12_conv3
I0817 23:01:27.533376 30036 net.cpp:91] Creating Layer resx12_conv3
I0817 23:01:27.533381 30036 net.cpp:469] resx12_conv3 <- resx12_conv2
I0817 23:01:27.533387 30036 net.cpp:443] resx12_conv3 -> resx12_conv3
I0817 23:01:27.536996 30036 net.cpp:141] Setting up resx12_conv3
I0817 23:01:27.537011 30036 net.cpp:148] Top shape: 40 480 14 14 (3763200)
I0817 23:01:27.537016 30036 net.cpp:156] Memory required for data: 2390761440
I0817 23:01:27.537022 30036 layer_factory.hpp:77] Creating layer resx12_conv3_bn
I0817 23:01:27.537032 30036 net.cpp:91] Creating Layer resx12_conv3_bn
I0817 23:01:27.537037 30036 net.cpp:469] resx12_conv3_bn <- resx12_conv3
I0817 23:01:27.537045 30036 net.cpp:430] resx12_conv3_bn -> resx12_conv3 (in-place)
I0817 23:01:27.538080 30036 net.cpp:141] Setting up resx12_conv3_bn
I0817 23:01:27.538096 30036 net.cpp:148] Top shape: 40 480 14 14 (3763200)
I0817 23:01:27.538100 30036 net.cpp:156] Memory required for data: 2405814240
I0817 23:01:27.538110 30036 layer_factory.hpp:77] Creating layer resx12_conv3_scale
I0817 23:01:27.538121 30036 net.cpp:91] Creating Layer resx12_conv3_scale
I0817 23:01:27.538126 30036 net.cpp:469] resx12_conv3_scale <- resx12_conv3
I0817 23:01:27.538132 30036 net.cpp:430] resx12_conv3_scale -> resx12_conv3 (in-place)
I0817 23:01:27.538200 30036 layer_factory.hpp:77] Creating layer resx12_conv3_scale
I0817 23:01:27.538352 30036 net.cpp:141] Setting up resx12_conv3_scale
I0817 23:01:27.538360 30036 net.cpp:148] Top shape: 40 480 14 14 (3763200)
I0817 23:01:27.538364 30036 net.cpp:156] Memory required for data: 2420867040
I0817 23:01:27.538370 30036 layer_factory.hpp:77] Creating layer resx12_elewise
I0817 23:01:27.538380 30036 net.cpp:91] Creating Layer resx12_elewise
I0817 23:01:27.538385 30036 net.cpp:469] resx12_elewise <- resx11_elewise_resx11_elewise_relu_0_split_1
I0817 23:01:27.538390 30036 net.cpp:469] resx12_elewise <- resx12_conv3
I0817 23:01:27.538395 30036 net.cpp:443] resx12_elewise -> resx12_elewise
I0817 23:01:27.538425 30036 net.cpp:141] Setting up resx12_elewise
I0817 23:01:27.538432 30036 net.cpp:148] Top shape: 40 480 14 14 (3763200)
I0817 23:01:27.538436 30036 net.cpp:156] Memory required for data: 2435919840
I0817 23:01:27.538440 30036 layer_factory.hpp:77] Creating layer resx12_elewise_relu
I0817 23:01:27.538457 30036 net.cpp:91] Creating Layer resx12_elewise_relu
I0817 23:01:27.538462 30036 net.cpp:469] resx12_elewise_relu <- resx12_elewise
I0817 23:01:27.538467 30036 net.cpp:430] resx12_elewise_relu -> resx12_elewise (in-place)
I0817 23:01:27.538885 30036 net.cpp:141] Setting up resx12_elewise_relu
I0817 23:01:27.538899 30036 net.cpp:148] Top shape: 40 480 14 14 (3763200)
I0817 23:01:27.538903 30036 net.cpp:156] Memory required for data: 2450972640
I0817 23:01:27.538908 30036 layer_factory.hpp:77] Creating layer resx12_elewise_resx12_elewise_relu_0_split
I0817 23:01:27.538915 30036 net.cpp:91] Creating Layer resx12_elewise_resx12_elewise_relu_0_split
I0817 23:01:27.538920 30036 net.cpp:469] resx12_elewise_resx12_elewise_relu_0_split <- resx12_elewise
I0817 23:01:27.538929 30036 net.cpp:443] resx12_elewise_resx12_elewise_relu_0_split -> resx12_elewise_resx12_elewise_relu_0_split_0
I0817 23:01:27.538938 30036 net.cpp:443] resx12_elewise_resx12_elewise_relu_0_split -> resx12_elewise_resx12_elewise_relu_0_split_1
I0817 23:01:27.538986 30036 net.cpp:141] Setting up resx12_elewise_resx12_elewise_relu_0_split
I0817 23:01:27.538995 30036 net.cpp:148] Top shape: 40 480 14 14 (3763200)
I0817 23:01:27.538998 30036 net.cpp:148] Top shape: 40 480 14 14 (3763200)
I0817 23:01:27.539002 30036 net.cpp:156] Memory required for data: 2481078240
I0817 23:01:27.539006 30036 layer_factory.hpp:77] Creating layer resx13_match_conv
I0817 23:01:27.539016 30036 net.cpp:91] Creating Layer resx13_match_conv
I0817 23:01:27.539021 30036 net.cpp:469] resx13_match_conv <- resx12_elewise_resx12_elewise_relu_0_split_0
I0817 23:01:27.539026 30036 net.cpp:443] resx13_match_conv -> resx13_match_conv
I0817 23:01:27.539250 30036 net.cpp:141] Setting up resx13_match_conv
I0817 23:01:27.539263 30036 net.cpp:148] Top shape: 40 480 7 7 (940800)
I0817 23:01:27.539266 30036 net.cpp:156] Memory required for data: 2484841440
I0817 23:01:27.539270 30036 layer_factory.hpp:77] Creating layer resx13_conv1
I0817 23:01:27.539281 30036 net.cpp:91] Creating Layer resx13_conv1
I0817 23:01:27.539286 30036 net.cpp:469] resx13_conv1 <- resx12_elewise_resx12_elewise_relu_0_split_1
I0817 23:01:27.539294 30036 net.cpp:443] resx13_conv1 -> resx13_conv1
I0817 23:01:27.542923 30036 net.cpp:141] Setting up resx13_conv1
I0817 23:01:27.542940 30036 net.cpp:148] Top shape: 40 120 14 14 (940800)
I0817 23:01:27.542945 30036 net.cpp:156] Memory required for data: 2488604640
I0817 23:01:27.542951 30036 layer_factory.hpp:77] Creating layer resx13_conv1_bn
I0817 23:01:27.542960 30036 net.cpp:91] Creating Layer resx13_conv1_bn
I0817 23:01:27.542965 30036 net.cpp:469] resx13_conv1_bn <- resx13_conv1
I0817 23:01:27.542973 30036 net.cpp:430] resx13_conv1_bn -> resx13_conv1 (in-place)
I0817 23:01:27.543195 30036 net.cpp:141] Setting up resx13_conv1_bn
I0817 23:01:27.543205 30036 net.cpp:148] Top shape: 40 120 14 14 (940800)
I0817 23:01:27.543208 30036 net.cpp:156] Memory required for data: 2492367840
I0817 23:01:27.543216 30036 layer_factory.hpp:77] Creating layer resx13_conv1_scale
I0817 23:01:27.543223 30036 net.cpp:91] Creating Layer resx13_conv1_scale
I0817 23:01:27.543228 30036 net.cpp:469] resx13_conv1_scale <- resx13_conv1
I0817 23:01:27.543236 30036 net.cpp:430] resx13_conv1_scale -> resx13_conv1 (in-place)
I0817 23:01:27.543283 30036 layer_factory.hpp:77] Creating layer resx13_conv1_scale
I0817 23:01:27.543414 30036 net.cpp:141] Setting up resx13_conv1_scale
I0817 23:01:27.543423 30036 net.cpp:148] Top shape: 40 120 14 14 (940800)
I0817 23:01:27.543426 30036 net.cpp:156] Memory required for data: 2496131040
I0817 23:01:27.543433 30036 layer_factory.hpp:77] Creating layer resx13_conv1_relu
I0817 23:01:27.543439 30036 net.cpp:91] Creating Layer resx13_conv1_relu
I0817 23:01:27.543444 30036 net.cpp:469] resx13_conv1_relu <- resx13_conv1
I0817 23:01:27.543450 30036 net.cpp:430] resx13_conv1_relu -> resx13_conv1 (in-place)
I0817 23:01:27.543658 30036 net.cpp:141] Setting up resx13_conv1_relu
I0817 23:01:27.543669 30036 net.cpp:148] Top shape: 40 120 14 14 (940800)
I0817 23:01:27.543682 30036 net.cpp:156] Memory required for data: 2499894240
I0817 23:01:27.543687 30036 layer_factory.hpp:77] Creating layer shuffle13
I0817 23:01:27.543694 30036 net.cpp:91] Creating Layer shuffle13
I0817 23:01:27.543699 30036 net.cpp:469] shuffle13 <- resx13_conv1
I0817 23:01:27.543707 30036 net.cpp:443] shuffle13 -> shuffle13
I0817 23:01:27.543742 30036 net.cpp:141] Setting up shuffle13
I0817 23:01:27.543751 30036 net.cpp:148] Top shape: 40 120 14 14 (940800)
I0817 23:01:27.543754 30036 net.cpp:156] Memory required for data: 2503657440
I0817 23:01:27.543758 30036 layer_factory.hpp:77] Creating layer resx13_conv2
I0817 23:01:27.543766 30036 net.cpp:91] Creating Layer resx13_conv2
I0817 23:01:27.543771 30036 net.cpp:469] resx13_conv2 <- shuffle13
I0817 23:01:27.543778 30036 net.cpp:443] resx13_conv2 -> resx13_conv2
I0817 23:01:27.543977 30036 net.cpp:141] Setting up resx13_conv2
I0817 23:01:27.543989 30036 net.cpp:148] Top shape: 40 120 7 7 (235200)
I0817 23:01:27.543993 30036 net.cpp:156] Memory required for data: 2504598240
I0817 23:01:27.543999 30036 layer_factory.hpp:77] Creating layer resx13_conv2_bn
I0817 23:01:27.544008 30036 net.cpp:91] Creating Layer resx13_conv2_bn
I0817 23:01:27.544013 30036 net.cpp:469] resx13_conv2_bn <- resx13_conv2
I0817 23:01:27.544019 30036 net.cpp:430] resx13_conv2_bn -> resx13_conv2 (in-place)
I0817 23:01:27.544239 30036 net.cpp:141] Setting up resx13_conv2_bn
I0817 23:01:27.544248 30036 net.cpp:148] Top shape: 40 120 7 7 (235200)
I0817 23:01:27.544251 30036 net.cpp:156] Memory required for data: 2505539040
I0817 23:01:27.544260 30036 layer_factory.hpp:77] Creating layer resx13_conv2_scale
I0817 23:01:27.544272 30036 net.cpp:91] Creating Layer resx13_conv2_scale
I0817 23:01:27.544277 30036 net.cpp:469] resx13_conv2_scale <- resx13_conv2
I0817 23:01:27.544283 30036 net.cpp:430] resx13_conv2_scale -> resx13_conv2 (in-place)
I0817 23:01:27.544330 30036 layer_factory.hpp:77] Creating layer resx13_conv2_scale
I0817 23:01:27.544463 30036 net.cpp:141] Setting up resx13_conv2_scale
I0817 23:01:27.544472 30036 net.cpp:148] Top shape: 40 120 7 7 (235200)
I0817 23:01:27.544476 30036 net.cpp:156] Memory required for data: 2506479840
I0817 23:01:27.544482 30036 layer_factory.hpp:77] Creating layer resx13_conv3
I0817 23:01:27.544495 30036 net.cpp:91] Creating Layer resx13_conv3
I0817 23:01:27.544500 30036 net.cpp:469] resx13_conv3 <- resx13_conv2
I0817 23:01:27.544507 30036 net.cpp:443] resx13_conv3 -> resx13_conv3
I0817 23:01:27.548183 30036 net.cpp:141] Setting up resx13_conv3
I0817 23:01:27.548199 30036 net.cpp:148] Top shape: 40 480 7 7 (940800)
I0817 23:01:27.548204 30036 net.cpp:156] Memory required for data: 2510243040
I0817 23:01:27.548210 30036 layer_factory.hpp:77] Creating layer resx13_conv3_bn
I0817 23:01:27.548221 30036 net.cpp:91] Creating Layer resx13_conv3_bn
I0817 23:01:27.548226 30036 net.cpp:469] resx13_conv3_bn <- resx13_conv3
I0817 23:01:27.548233 30036 net.cpp:430] resx13_conv3_bn -> resx13_conv3 (in-place)
I0817 23:01:27.548487 30036 net.cpp:141] Setting up resx13_conv3_bn
I0817 23:01:27.548497 30036 net.cpp:148] Top shape: 40 480 7 7 (940800)
I0817 23:01:27.548501 30036 net.cpp:156] Memory required for data: 2514006240
I0817 23:01:27.548509 30036 layer_factory.hpp:77] Creating layer resx13_conv3_scale
I0817 23:01:27.548517 30036 net.cpp:91] Creating Layer resx13_conv3_scale
I0817 23:01:27.548521 30036 net.cpp:469] resx13_conv3_scale <- resx13_conv3
I0817 23:01:27.548527 30036 net.cpp:430] resx13_conv3_scale -> resx13_conv3 (in-place)
I0817 23:01:27.548596 30036 layer_factory.hpp:77] Creating layer resx13_conv3_scale
I0817 23:01:27.548751 30036 net.cpp:141] Setting up resx13_conv3_scale
I0817 23:01:27.548760 30036 net.cpp:148] Top shape: 40 480 7 7 (940800)
I0817 23:01:27.548764 30036 net.cpp:156] Memory required for data: 2517769440
I0817 23:01:27.548771 30036 layer_factory.hpp:77] Creating layer resx13_concat
I0817 23:01:27.548779 30036 net.cpp:91] Creating Layer resx13_concat
I0817 23:01:27.548784 30036 net.cpp:469] resx13_concat <- resx13_match_conv
I0817 23:01:27.548792 30036 net.cpp:469] resx13_concat <- resx13_conv3
I0817 23:01:27.548804 30036 net.cpp:443] resx13_concat -> resx13_concat
I0817 23:01:27.548836 30036 net.cpp:141] Setting up resx13_concat
I0817 23:01:27.548844 30036 net.cpp:148] Top shape: 40 960 7 7 (1881600)
I0817 23:01:27.548848 30036 net.cpp:156] Memory required for data: 2525295840
I0817 23:01:27.548852 30036 layer_factory.hpp:77] Creating layer resx13_concat_relu
I0817 23:01:27.548859 30036 net.cpp:91] Creating Layer resx13_concat_relu
I0817 23:01:27.548864 30036 net.cpp:469] resx13_concat_relu <- resx13_concat
I0817 23:01:27.548869 30036 net.cpp:430] resx13_concat_relu -> resx13_concat (in-place)
I0817 23:01:27.549281 30036 net.cpp:141] Setting up resx13_concat_relu
I0817 23:01:27.549296 30036 net.cpp:148] Top shape: 40 960 7 7 (1881600)
I0817 23:01:27.549300 30036 net.cpp:156] Memory required for data: 2532822240
I0817 23:01:27.549305 30036 layer_factory.hpp:77] Creating layer resx13_concat_resx13_concat_relu_0_split
I0817 23:01:27.549312 30036 net.cpp:91] Creating Layer resx13_concat_resx13_concat_relu_0_split
I0817 23:01:27.549317 30036 net.cpp:469] resx13_concat_resx13_concat_relu_0_split <- resx13_concat
I0817 23:01:27.549325 30036 net.cpp:443] resx13_concat_resx13_concat_relu_0_split -> resx13_concat_resx13_concat_relu_0_split_0
I0817 23:01:27.549334 30036 net.cpp:443] resx13_concat_resx13_concat_relu_0_split -> resx13_concat_resx13_concat_relu_0_split_1
I0817 23:01:27.549386 30036 net.cpp:141] Setting up resx13_concat_resx13_concat_relu_0_split
I0817 23:01:27.549392 30036 net.cpp:148] Top shape: 40 960 7 7 (1881600)
I0817 23:01:27.549397 30036 net.cpp:148] Top shape: 40 960 7 7 (1881600)
I0817 23:01:27.549401 30036 net.cpp:156] Memory required for data: 2547875040
I0817 23:01:27.549404 30036 layer_factory.hpp:77] Creating layer resx14_conv1
I0817 23:01:27.549417 30036 net.cpp:91] Creating Layer resx14_conv1
I0817 23:01:27.549422 30036 net.cpp:469] resx14_conv1 <- resx13_concat_resx13_concat_relu_0_split_0
I0817 23:01:27.549427 30036 net.cpp:443] resx14_conv1 -> resx14_conv1
I0817 23:01:27.554509 30036 net.cpp:141] Setting up resx14_conv1
I0817 23:01:27.554525 30036 net.cpp:148] Top shape: 40 240 7 7 (470400)
I0817 23:01:27.554530 30036 net.cpp:156] Memory required for data: 2549756640
I0817 23:01:27.554536 30036 layer_factory.hpp:77] Creating layer resx14_conv1_bn
I0817 23:01:27.554548 30036 net.cpp:91] Creating Layer resx14_conv1_bn
I0817 23:01:27.554553 30036 net.cpp:469] resx14_conv1_bn <- resx14_conv1
I0817 23:01:27.554559 30036 net.cpp:430] resx14_conv1_bn -> resx14_conv1 (in-place)
I0817 23:01:27.554786 30036 net.cpp:141] Setting up resx14_conv1_bn
I0817 23:01:27.554796 30036 net.cpp:148] Top shape: 40 240 7 7 (470400)
I0817 23:01:27.554800 30036 net.cpp:156] Memory required for data: 2551638240
I0817 23:01:27.554807 30036 layer_factory.hpp:77] Creating layer resx14_conv1_scale
I0817 23:01:27.554817 30036 net.cpp:91] Creating Layer resx14_conv1_scale
I0817 23:01:27.554822 30036 net.cpp:469] resx14_conv1_scale <- resx14_conv1
I0817 23:01:27.554827 30036 net.cpp:430] resx14_conv1_scale -> resx14_conv1 (in-place)
I0817 23:01:27.554875 30036 layer_factory.hpp:77] Creating layer resx14_conv1_scale
I0817 23:01:27.555009 30036 net.cpp:141] Setting up resx14_conv1_scale
I0817 23:01:27.555021 30036 net.cpp:148] Top shape: 40 240 7 7 (470400)
I0817 23:01:27.555024 30036 net.cpp:156] Memory required for data: 2553519840
I0817 23:01:27.555030 30036 layer_factory.hpp:77] Creating layer resx14_conv1_relu
I0817 23:01:27.555037 30036 net.cpp:91] Creating Layer resx14_conv1_relu
I0817 23:01:27.555042 30036 net.cpp:469] resx14_conv1_relu <- resx14_conv1
I0817 23:01:27.555048 30036 net.cpp:430] resx14_conv1_relu -> resx14_conv1 (in-place)
I0817 23:01:27.555451 30036 net.cpp:141] Setting up resx14_conv1_relu
I0817 23:01:27.555465 30036 net.cpp:148] Top shape: 40 240 7 7 (470400)
I0817 23:01:27.555470 30036 net.cpp:156] Memory required for data: 2555401440
I0817 23:01:27.555474 30036 layer_factory.hpp:77] Creating layer shuffle14
I0817 23:01:27.555486 30036 net.cpp:91] Creating Layer shuffle14
I0817 23:01:27.555497 30036 net.cpp:469] shuffle14 <- resx14_conv1
I0817 23:01:27.555506 30036 net.cpp:443] shuffle14 -> shuffle14
I0817 23:01:27.555543 30036 net.cpp:141] Setting up shuffle14
I0817 23:01:27.555553 30036 net.cpp:148] Top shape: 40 240 7 7 (470400)
I0817 23:01:27.555557 30036 net.cpp:156] Memory required for data: 2557283040
I0817 23:01:27.555562 30036 layer_factory.hpp:77] Creating layer resx14_conv2
I0817 23:01:27.555569 30036 net.cpp:91] Creating Layer resx14_conv2
I0817 23:01:27.555574 30036 net.cpp:469] resx14_conv2 <- shuffle14
I0817 23:01:27.555583 30036 net.cpp:443] resx14_conv2 -> resx14_conv2
I0817 23:01:27.555804 30036 net.cpp:141] Setting up resx14_conv2
I0817 23:01:27.555815 30036 net.cpp:148] Top shape: 40 240 7 7 (470400)
I0817 23:01:27.555819 30036 net.cpp:156] Memory required for data: 2559164640
I0817 23:01:27.555825 30036 layer_factory.hpp:77] Creating layer resx14_conv2_bn
I0817 23:01:27.555833 30036 net.cpp:91] Creating Layer resx14_conv2_bn
I0817 23:01:27.555837 30036 net.cpp:469] resx14_conv2_bn <- resx14_conv2
I0817 23:01:27.555845 30036 net.cpp:430] resx14_conv2_bn -> resx14_conv2 (in-place)
I0817 23:01:27.556066 30036 net.cpp:141] Setting up resx14_conv2_bn
I0817 23:01:27.556076 30036 net.cpp:148] Top shape: 40 240 7 7 (470400)
I0817 23:01:27.556079 30036 net.cpp:156] Memory required for data: 2561046240
I0817 23:01:27.556087 30036 layer_factory.hpp:77] Creating layer resx14_conv2_scale
I0817 23:01:27.556095 30036 net.cpp:91] Creating Layer resx14_conv2_scale
I0817 23:01:27.556099 30036 net.cpp:469] resx14_conv2_scale <- resx14_conv2
I0817 23:01:27.556107 30036 net.cpp:430] resx14_conv2_scale -> resx14_conv2 (in-place)
I0817 23:01:27.556151 30036 layer_factory.hpp:77] Creating layer resx14_conv2_scale
I0817 23:01:27.556283 30036 net.cpp:141] Setting up resx14_conv2_scale
I0817 23:01:27.556293 30036 net.cpp:148] Top shape: 40 240 7 7 (470400)
I0817 23:01:27.556295 30036 net.cpp:156] Memory required for data: 2562927840
I0817 23:01:27.556303 30036 layer_factory.hpp:77] Creating layer resx14_conv3
I0817 23:01:27.556313 30036 net.cpp:91] Creating Layer resx14_conv3
I0817 23:01:27.556318 30036 net.cpp:469] resx14_conv3 <- resx14_conv2
I0817 23:01:27.556325 30036 net.cpp:443] resx14_conv3 -> resx14_conv3
I0817 23:01:27.561720 30036 net.cpp:141] Setting up resx14_conv3
I0817 23:01:27.561739 30036 net.cpp:148] Top shape: 40 960 7 7 (1881600)
I0817 23:01:27.561744 30036 net.cpp:156] Memory required for data: 2570454240
I0817 23:01:27.561750 30036 layer_factory.hpp:77] Creating layer resx14_conv3_bn
I0817 23:01:27.561758 30036 net.cpp:91] Creating Layer resx14_conv3_bn
I0817 23:01:27.561764 30036 net.cpp:469] resx14_conv3_bn <- resx14_conv3
I0817 23:01:27.561771 30036 net.cpp:430] resx14_conv3_bn -> resx14_conv3 (in-place)
I0817 23:01:27.562048 30036 net.cpp:141] Setting up resx14_conv3_bn
I0817 23:01:27.562058 30036 net.cpp:148] Top shape: 40 960 7 7 (1881600)
I0817 23:01:27.562062 30036 net.cpp:156] Memory required for data: 2577980640
I0817 23:01:27.562070 30036 layer_factory.hpp:77] Creating layer resx14_conv3_scale
I0817 23:01:27.562078 30036 net.cpp:91] Creating Layer resx14_conv3_scale
I0817 23:01:27.562083 30036 net.cpp:469] resx14_conv3_scale <- resx14_conv3
I0817 23:01:27.562090 30036 net.cpp:430] resx14_conv3_scale -> resx14_conv3 (in-place)
I0817 23:01:27.562156 30036 layer_factory.hpp:77] Creating layer resx14_conv3_scale
I0817 23:01:27.562319 30036 net.cpp:141] Setting up resx14_conv3_scale
I0817 23:01:27.562330 30036 net.cpp:148] Top shape: 40 960 7 7 (1881600)
I0817 23:01:27.562332 30036 net.cpp:156] Memory required for data: 2585507040
I0817 23:01:27.562378 30036 layer_factory.hpp:77] Creating layer resx14_elewise
I0817 23:01:27.562387 30036 net.cpp:91] Creating Layer resx14_elewise
I0817 23:01:27.562392 30036 net.cpp:469] resx14_elewise <- resx13_concat_resx13_concat_relu_0_split_1
I0817 23:01:27.562397 30036 net.cpp:469] resx14_elewise <- resx14_conv3
I0817 23:01:27.562403 30036 net.cpp:443] resx14_elewise -> resx14_elewise
I0817 23:01:27.562444 30036 net.cpp:141] Setting up resx14_elewise
I0817 23:01:27.562458 30036 net.cpp:148] Top shape: 40 960 7 7 (1881600)
I0817 23:01:27.562463 30036 net.cpp:156] Memory required for data: 2593033440
I0817 23:01:27.562466 30036 layer_factory.hpp:77] Creating layer resx14_elewise_relu
I0817 23:01:27.562475 30036 net.cpp:91] Creating Layer resx14_elewise_relu
I0817 23:01:27.562479 30036 net.cpp:469] resx14_elewise_relu <- resx14_elewise
I0817 23:01:27.562486 30036 net.cpp:430] resx14_elewise_relu -> resx14_elewise (in-place)
I0817 23:01:27.562898 30036 net.cpp:141] Setting up resx14_elewise_relu
I0817 23:01:27.562912 30036 net.cpp:148] Top shape: 40 960 7 7 (1881600)
I0817 23:01:27.562917 30036 net.cpp:156] Memory required for data: 2600559840
I0817 23:01:27.562922 30036 layer_factory.hpp:77] Creating layer resx14_elewise_resx14_elewise_relu_0_split
I0817 23:01:27.562928 30036 net.cpp:91] Creating Layer resx14_elewise_resx14_elewise_relu_0_split
I0817 23:01:27.562933 30036 net.cpp:469] resx14_elewise_resx14_elewise_relu_0_split <- resx14_elewise
I0817 23:01:27.562939 30036 net.cpp:443] resx14_elewise_resx14_elewise_relu_0_split -> resx14_elewise_resx14_elewise_relu_0_split_0
I0817 23:01:27.562948 30036 net.cpp:443] resx14_elewise_resx14_elewise_relu_0_split -> resx14_elewise_resx14_elewise_relu_0_split_1
I0817 23:01:27.563000 30036 net.cpp:141] Setting up resx14_elewise_resx14_elewise_relu_0_split
I0817 23:01:27.563007 30036 net.cpp:148] Top shape: 40 960 7 7 (1881600)
I0817 23:01:27.563012 30036 net.cpp:148] Top shape: 40 960 7 7 (1881600)
I0817 23:01:27.563016 30036 net.cpp:156] Memory required for data: 2615612640
I0817 23:01:27.563020 30036 layer_factory.hpp:77] Creating layer resx15_conv1
I0817 23:01:27.563031 30036 net.cpp:91] Creating Layer resx15_conv1
I0817 23:01:27.563036 30036 net.cpp:469] resx15_conv1 <- resx14_elewise_resx14_elewise_relu_0_split_0
I0817 23:01:27.563045 30036 net.cpp:443] resx15_conv1 -> resx15_conv1
I0817 23:01:27.568963 30036 net.cpp:141] Setting up resx15_conv1
I0817 23:01:27.568986 30036 net.cpp:148] Top shape: 40 240 7 7 (470400)
I0817 23:01:27.568991 30036 net.cpp:156] Memory required for data: 2617494240
I0817 23:01:27.569000 30036 layer_factory.hpp:77] Creating layer resx15_conv1_bn
I0817 23:01:27.569008 30036 net.cpp:91] Creating Layer resx15_conv1_bn
I0817 23:01:27.569015 30036 net.cpp:469] resx15_conv1_bn <- resx15_conv1
I0817 23:01:27.569022 30036 net.cpp:430] resx15_conv1_bn -> resx15_conv1 (in-place)
I0817 23:01:27.569270 30036 net.cpp:141] Setting up resx15_conv1_bn
I0817 23:01:27.569281 30036 net.cpp:148] Top shape: 40 240 7 7 (470400)
I0817 23:01:27.569285 30036 net.cpp:156] Memory required for data: 2619375840
I0817 23:01:27.569293 30036 layer_factory.hpp:77] Creating layer resx15_conv1_scale
I0817 23:01:27.569303 30036 net.cpp:91] Creating Layer resx15_conv1_scale
I0817 23:01:27.569308 30036 net.cpp:469] resx15_conv1_scale <- resx15_conv1
I0817 23:01:27.569314 30036 net.cpp:430] resx15_conv1_scale -> resx15_conv1 (in-place)
I0817 23:01:27.569365 30036 layer_factory.hpp:77] Creating layer resx15_conv1_scale
I0817 23:01:27.569499 30036 net.cpp:141] Setting up resx15_conv1_scale
I0817 23:01:27.569507 30036 net.cpp:148] Top shape: 40 240 7 7 (470400)
I0817 23:01:27.569510 30036 net.cpp:156] Memory required for data: 2621257440
I0817 23:01:27.569517 30036 layer_factory.hpp:77] Creating layer resx15_conv1_relu
I0817 23:01:27.569525 30036 net.cpp:91] Creating Layer resx15_conv1_relu
I0817 23:01:27.569530 30036 net.cpp:469] resx15_conv1_relu <- resx15_conv1
I0817 23:01:27.569535 30036 net.cpp:430] resx15_conv1_relu -> resx15_conv1 (in-place)
I0817 23:01:27.569952 30036 net.cpp:141] Setting up resx15_conv1_relu
I0817 23:01:27.569967 30036 net.cpp:148] Top shape: 40 240 7 7 (470400)
I0817 23:01:27.569970 30036 net.cpp:156] Memory required for data: 2623139040
I0817 23:01:27.569975 30036 layer_factory.hpp:77] Creating layer shuffle15
I0817 23:01:27.569984 30036 net.cpp:91] Creating Layer shuffle15
I0817 23:01:27.569990 30036 net.cpp:469] shuffle15 <- resx15_conv1
I0817 23:01:27.570003 30036 net.cpp:443] shuffle15 -> shuffle15
I0817 23:01:27.570050 30036 net.cpp:141] Setting up shuffle15
I0817 23:01:27.570058 30036 net.cpp:148] Top shape: 40 240 7 7 (470400)
I0817 23:01:27.570062 30036 net.cpp:156] Memory required for data: 2625020640
I0817 23:01:27.570066 30036 layer_factory.hpp:77] Creating layer resx15_conv2
I0817 23:01:27.570080 30036 net.cpp:91] Creating Layer resx15_conv2
I0817 23:01:27.570085 30036 net.cpp:469] resx15_conv2 <- shuffle15
I0817 23:01:27.570091 30036 net.cpp:443] resx15_conv2 -> resx15_conv2
I0817 23:01:27.570353 30036 net.cpp:141] Setting up resx15_conv2
I0817 23:01:27.570364 30036 net.cpp:148] Top shape: 40 240 7 7 (470400)
I0817 23:01:27.570369 30036 net.cpp:156] Memory required for data: 2626902240
I0817 23:01:27.570374 30036 layer_factory.hpp:77] Creating layer resx15_conv2_bn
I0817 23:01:27.570384 30036 net.cpp:91] Creating Layer resx15_conv2_bn
I0817 23:01:27.570389 30036 net.cpp:469] resx15_conv2_bn <- resx15_conv2
I0817 23:01:27.570394 30036 net.cpp:430] resx15_conv2_bn -> resx15_conv2 (in-place)
I0817 23:01:27.570623 30036 net.cpp:141] Setting up resx15_conv2_bn
I0817 23:01:27.570633 30036 net.cpp:148] Top shape: 40 240 7 7 (470400)
I0817 23:01:27.570636 30036 net.cpp:156] Memory required for data: 2628783840
I0817 23:01:27.570644 30036 layer_factory.hpp:77] Creating layer resx15_conv2_scale
I0817 23:01:27.570652 30036 net.cpp:91] Creating Layer resx15_conv2_scale
I0817 23:01:27.570657 30036 net.cpp:469] resx15_conv2_scale <- resx15_conv2
I0817 23:01:27.570662 30036 net.cpp:430] resx15_conv2_scale -> resx15_conv2 (in-place)
I0817 23:01:27.570713 30036 layer_factory.hpp:77] Creating layer resx15_conv2_scale
I0817 23:01:27.570849 30036 net.cpp:141] Setting up resx15_conv2_scale
I0817 23:01:27.570858 30036 net.cpp:148] Top shape: 40 240 7 7 (470400)
I0817 23:01:27.570863 30036 net.cpp:156] Memory required for data: 2630665440
I0817 23:01:27.570868 30036 layer_factory.hpp:77] Creating layer resx15_conv3
I0817 23:01:27.570878 30036 net.cpp:91] Creating Layer resx15_conv3
I0817 23:01:27.570883 30036 net.cpp:469] resx15_conv3 <- resx15_conv2
I0817 23:01:27.570891 30036 net.cpp:443] resx15_conv3 -> resx15_conv3
I0817 23:01:27.576005 30036 net.cpp:141] Setting up resx15_conv3
I0817 23:01:27.576021 30036 net.cpp:148] Top shape: 40 960 7 7 (1881600)
I0817 23:01:27.576025 30036 net.cpp:156] Memory required for data: 2638191840
I0817 23:01:27.576032 30036 layer_factory.hpp:77] Creating layer resx15_conv3_bn
I0817 23:01:27.576042 30036 net.cpp:91] Creating Layer resx15_conv3_bn
I0817 23:01:27.576047 30036 net.cpp:469] resx15_conv3_bn <- resx15_conv3
I0817 23:01:27.576053 30036 net.cpp:430] resx15_conv3_bn -> resx15_conv3 (in-place)
I0817 23:01:27.576329 30036 net.cpp:141] Setting up resx15_conv3_bn
I0817 23:01:27.576339 30036 net.cpp:148] Top shape: 40 960 7 7 (1881600)
I0817 23:01:27.576344 30036 net.cpp:156] Memory required for data: 2645718240
I0817 23:01:27.576350 30036 layer_factory.hpp:77] Creating layer resx15_conv3_scale
I0817 23:01:27.576359 30036 net.cpp:91] Creating Layer resx15_conv3_scale
I0817 23:01:27.576364 30036 net.cpp:469] resx15_conv3_scale <- resx15_conv3
I0817 23:01:27.576370 30036 net.cpp:430] resx15_conv3_scale -> resx15_conv3 (in-place)
I0817 23:01:27.576441 30036 layer_factory.hpp:77] Creating layer resx15_conv3_scale
I0817 23:01:27.576607 30036 net.cpp:141] Setting up resx15_conv3_scale
I0817 23:01:27.576617 30036 net.cpp:148] Top shape: 40 960 7 7 (1881600)
I0817 23:01:27.576620 30036 net.cpp:156] Memory required for data: 2653244640
I0817 23:01:27.576627 30036 layer_factory.hpp:77] Creating layer resx15_elewise
I0817 23:01:27.576635 30036 net.cpp:91] Creating Layer resx15_elewise
I0817 23:01:27.576640 30036 net.cpp:469] resx15_elewise <- resx14_elewise_resx14_elewise_relu_0_split_1
I0817 23:01:27.576645 30036 net.cpp:469] resx15_elewise <- resx15_conv3
I0817 23:01:27.576650 30036 net.cpp:443] resx15_elewise -> resx15_elewise
I0817 23:01:27.576684 30036 net.cpp:141] Setting up resx15_elewise
I0817 23:01:27.576699 30036 net.cpp:148] Top shape: 40 960 7 7 (1881600)
I0817 23:01:27.576709 30036 net.cpp:156] Memory required for data: 2660771040
I0817 23:01:27.576712 30036 layer_factory.hpp:77] Creating layer resx15_elewise_relu
I0817 23:01:27.576720 30036 net.cpp:91] Creating Layer resx15_elewise_relu
I0817 23:01:27.576725 30036 net.cpp:469] resx15_elewise_relu <- resx15_elewise
I0817 23:01:27.576730 30036 net.cpp:430] resx15_elewise_relu -> resx15_elewise (in-place)
I0817 23:01:27.577154 30036 net.cpp:141] Setting up resx15_elewise_relu
I0817 23:01:27.577169 30036 net.cpp:148] Top shape: 40 960 7 7 (1881600)
I0817 23:01:27.577174 30036 net.cpp:156] Memory required for data: 2668297440
I0817 23:01:27.577178 30036 layer_factory.hpp:77] Creating layer resx15_elewise_resx15_elewise_relu_0_split
I0817 23:01:27.577186 30036 net.cpp:91] Creating Layer resx15_elewise_resx15_elewise_relu_0_split
I0817 23:01:27.577191 30036 net.cpp:469] resx15_elewise_resx15_elewise_relu_0_split <- resx15_elewise
I0817 23:01:27.577199 30036 net.cpp:443] resx15_elewise_resx15_elewise_relu_0_split -> resx15_elewise_resx15_elewise_relu_0_split_0
I0817 23:01:27.577208 30036 net.cpp:443] resx15_elewise_resx15_elewise_relu_0_split -> resx15_elewise_resx15_elewise_relu_0_split_1
I0817 23:01:27.577263 30036 net.cpp:141] Setting up resx15_elewise_resx15_elewise_relu_0_split
I0817 23:01:27.577271 30036 net.cpp:148] Top shape: 40 960 7 7 (1881600)
I0817 23:01:27.577275 30036 net.cpp:148] Top shape: 40 960 7 7 (1881600)
I0817 23:01:27.577280 30036 net.cpp:156] Memory required for data: 2683350240
I0817 23:01:27.577283 30036 layer_factory.hpp:77] Creating layer resx16_conv1
I0817 23:01:27.577294 30036 net.cpp:91] Creating Layer resx16_conv1
I0817 23:01:27.577299 30036 net.cpp:469] resx16_conv1 <- resx15_elewise_resx15_elewise_relu_0_split_0
I0817 23:01:27.577306 30036 net.cpp:443] resx16_conv1 -> resx16_conv1
I0817 23:01:27.582625 30036 net.cpp:141] Setting up resx16_conv1
I0817 23:01:27.582643 30036 net.cpp:148] Top shape: 40 240 7 7 (470400)
I0817 23:01:27.582646 30036 net.cpp:156] Memory required for data: 2685231840
I0817 23:01:27.582653 30036 layer_factory.hpp:77] Creating layer resx16_conv1_bn
I0817 23:01:27.582662 30036 net.cpp:91] Creating Layer resx16_conv1_bn
I0817 23:01:27.582669 30036 net.cpp:469] resx16_conv1_bn <- resx16_conv1
I0817 23:01:27.582675 30036 net.cpp:430] resx16_conv1_bn -> resx16_conv1 (in-place)
I0817 23:01:27.582908 30036 net.cpp:141] Setting up resx16_conv1_bn
I0817 23:01:27.582918 30036 net.cpp:148] Top shape: 40 240 7 7 (470400)
I0817 23:01:27.582922 30036 net.cpp:156] Memory required for data: 2687113440
I0817 23:01:27.582931 30036 layer_factory.hpp:77] Creating layer resx16_conv1_scale
I0817 23:01:27.582939 30036 net.cpp:91] Creating Layer resx16_conv1_scale
I0817 23:01:27.582944 30036 net.cpp:469] resx16_conv1_scale <- resx16_conv1
I0817 23:01:27.582950 30036 net.cpp:430] resx16_conv1_scale -> resx16_conv1 (in-place)
I0817 23:01:27.583001 30036 layer_factory.hpp:77] Creating layer resx16_conv1_scale
I0817 23:01:27.583142 30036 net.cpp:141] Setting up resx16_conv1_scale
I0817 23:01:27.583150 30036 net.cpp:148] Top shape: 40 240 7 7 (470400)
I0817 23:01:27.583153 30036 net.cpp:156] Memory required for data: 2688995040
I0817 23:01:27.583160 30036 layer_factory.hpp:77] Creating layer resx16_conv1_relu
I0817 23:01:27.583168 30036 net.cpp:91] Creating Layer resx16_conv1_relu
I0817 23:01:27.583171 30036 net.cpp:469] resx16_conv1_relu <- resx16_conv1
I0817 23:01:27.583178 30036 net.cpp:430] resx16_conv1_relu -> resx16_conv1 (in-place)
I0817 23:01:27.583606 30036 net.cpp:141] Setting up resx16_conv1_relu
I0817 23:01:27.583619 30036 net.cpp:148] Top shape: 40 240 7 7 (470400)
I0817 23:01:27.583623 30036 net.cpp:156] Memory required for data: 2690876640
I0817 23:01:27.583628 30036 layer_factory.hpp:77] Creating layer shuffle16
I0817 23:01:27.583636 30036 net.cpp:91] Creating Layer shuffle16
I0817 23:01:27.583640 30036 net.cpp:469] shuffle16 <- resx16_conv1
I0817 23:01:27.583649 30036 net.cpp:443] shuffle16 -> shuffle16
I0817 23:01:27.583689 30036 net.cpp:141] Setting up shuffle16
I0817 23:01:27.583704 30036 net.cpp:148] Top shape: 40 240 7 7 (470400)
I0817 23:01:27.583714 30036 net.cpp:156] Memory required for data: 2692758240
I0817 23:01:27.583719 30036 layer_factory.hpp:77] Creating layer resx16_conv2
I0817 23:01:27.583726 30036 net.cpp:91] Creating Layer resx16_conv2
I0817 23:01:27.583731 30036 net.cpp:469] resx16_conv2 <- shuffle16
I0817 23:01:27.583739 30036 net.cpp:443] resx16_conv2 -> resx16_conv2
I0817 23:01:27.583966 30036 net.cpp:141] Setting up resx16_conv2
I0817 23:01:27.583979 30036 net.cpp:148] Top shape: 40 240 7 7 (470400)
I0817 23:01:27.583982 30036 net.cpp:156] Memory required for data: 2694639840
I0817 23:01:27.583988 30036 layer_factory.hpp:77] Creating layer resx16_conv2_bn
I0817 23:01:27.583997 30036 net.cpp:91] Creating Layer resx16_conv2_bn
I0817 23:01:27.584002 30036 net.cpp:469] resx16_conv2_bn <- resx16_conv2
I0817 23:01:27.584008 30036 net.cpp:430] resx16_conv2_bn -> resx16_conv2 (in-place)
I0817 23:01:27.584239 30036 net.cpp:141] Setting up resx16_conv2_bn
I0817 23:01:27.584249 30036 net.cpp:148] Top shape: 40 240 7 7 (470400)
I0817 23:01:27.584252 30036 net.cpp:156] Memory required for data: 2696521440
I0817 23:01:27.584259 30036 layer_factory.hpp:77] Creating layer resx16_conv2_scale
I0817 23:01:27.584267 30036 net.cpp:91] Creating Layer resx16_conv2_scale
I0817 23:01:27.584272 30036 net.cpp:469] resx16_conv2_scale <- resx16_conv2
I0817 23:01:27.584280 30036 net.cpp:430] resx16_conv2_scale -> resx16_conv2 (in-place)
I0817 23:01:27.584327 30036 layer_factory.hpp:77] Creating layer resx16_conv2_scale
I0817 23:01:27.584465 30036 net.cpp:141] Setting up resx16_conv2_scale
I0817 23:01:27.584473 30036 net.cpp:148] Top shape: 40 240 7 7 (470400)
I0817 23:01:27.584477 30036 net.cpp:156] Memory required for data: 2698403040
I0817 23:01:27.584483 30036 layer_factory.hpp:77] Creating layer resx16_conv3
I0817 23:01:27.584496 30036 net.cpp:91] Creating Layer resx16_conv3
I0817 23:01:27.584501 30036 net.cpp:469] resx16_conv3 <- resx16_conv2
I0817 23:01:27.584507 30036 net.cpp:443] resx16_conv3 -> resx16_conv3
I0817 23:01:27.590464 30036 net.cpp:141] Setting up resx16_conv3
I0817 23:01:27.590482 30036 net.cpp:148] Top shape: 40 960 7 7 (1881600)
I0817 23:01:27.590487 30036 net.cpp:156] Memory required for data: 2705929440
I0817 23:01:27.590493 30036 layer_factory.hpp:77] Creating layer resx16_conv3_bn
I0817 23:01:27.590502 30036 net.cpp:91] Creating Layer resx16_conv3_bn
I0817 23:01:27.590507 30036 net.cpp:469] resx16_conv3_bn <- resx16_conv3
I0817 23:01:27.590514 30036 net.cpp:430] resx16_conv3_bn -> resx16_conv3 (in-place)
I0817 23:01:27.590798 30036 net.cpp:141] Setting up resx16_conv3_bn
I0817 23:01:27.590808 30036 net.cpp:148] Top shape: 40 960 7 7 (1881600)
I0817 23:01:27.590812 30036 net.cpp:156] Memory required for data: 2713455840
I0817 23:01:27.590821 30036 layer_factory.hpp:77] Creating layer resx16_conv3_scale
I0817 23:01:27.590828 30036 net.cpp:91] Creating Layer resx16_conv3_scale
I0817 23:01:27.590833 30036 net.cpp:469] resx16_conv3_scale <- resx16_conv3
I0817 23:01:27.590842 30036 net.cpp:430] resx16_conv3_scale -> resx16_conv3 (in-place)
I0817 23:01:27.590911 30036 layer_factory.hpp:77] Creating layer resx16_conv3_scale
I0817 23:01:27.591084 30036 net.cpp:141] Setting up resx16_conv3_scale
I0817 23:01:27.591094 30036 net.cpp:148] Top shape: 40 960 7 7 (1881600)
I0817 23:01:27.591099 30036 net.cpp:156] Memory required for data: 2720982240
I0817 23:01:27.591104 30036 layer_factory.hpp:77] Creating layer resx16_elewise
I0817 23:01:27.591112 30036 net.cpp:91] Creating Layer resx16_elewise
I0817 23:01:27.591117 30036 net.cpp:469] resx16_elewise <- resx15_elewise_resx15_elewise_relu_0_split_1
I0817 23:01:27.591123 30036 net.cpp:469] resx16_elewise <- resx16_conv3
I0817 23:01:27.591130 30036 net.cpp:443] resx16_elewise -> resx16_elewise
I0817 23:01:27.591164 30036 net.cpp:141] Setting up resx16_elewise
I0817 23:01:27.591173 30036 net.cpp:148] Top shape: 40 960 7 7 (1881600)
I0817 23:01:27.591176 30036 net.cpp:156] Memory required for data: 2728508640
I0817 23:01:27.591184 30036 layer_factory.hpp:77] Creating layer resx16_elewise_relu
I0817 23:01:27.591197 30036 net.cpp:91] Creating Layer resx16_elewise_relu
I0817 23:01:27.591202 30036 net.cpp:469] resx16_elewise_relu <- resx16_elewise
I0817 23:01:27.591210 30036 net.cpp:430] resx16_elewise_relu -> resx16_elewise (in-place)
I0817 23:01:27.591637 30036 net.cpp:141] Setting up resx16_elewise_relu
I0817 23:01:27.591652 30036 net.cpp:148] Top shape: 40 960 7 7 (1881600)
I0817 23:01:27.591656 30036 net.cpp:156] Memory required for data: 2736035040
I0817 23:01:27.591660 30036 layer_factory.hpp:77] Creating layer pool_ave
I0817 23:01:27.591670 30036 net.cpp:91] Creating Layer pool_ave
I0817 23:01:27.591675 30036 net.cpp:469] pool_ave <- resx16_elewise
I0817 23:01:27.591683 30036 net.cpp:443] pool_ave -> pool_ave
I0817 23:01:27.591928 30036 net.cpp:141] Setting up pool_ave
I0817 23:01:27.591939 30036 net.cpp:148] Top shape: 40 960 1 1 (38400)
I0817 23:01:27.591943 30036 net.cpp:156] Memory required for data: 2736188640
I0817 23:01:27.591948 30036 layer_factory.hpp:77] Creating layer fc1000
I0817 23:01:27.591960 30036 net.cpp:91] Creating Layer fc1000
I0817 23:01:27.591966 30036 net.cpp:469] fc1000 <- pool_ave
I0817 23:01:27.591974 30036 net.cpp:443] fc1000 -> fc1000
I0817 23:01:27.620851 30036 net.cpp:141] Setting up fc1000
I0817 23:01:27.620894 30036 net.cpp:148] Top shape: 40 1000 1 1 (40000)
I0817 23:01:27.620899 30036 net.cpp:156] Memory required for data: 2736348640
I0817 23:01:27.620909 30036 layer_factory.hpp:77] Creating layer fc1000_fc1000_0_split
I0817 23:01:27.620921 30036 net.cpp:91] Creating Layer fc1000_fc1000_0_split
I0817 23:01:27.620928 30036 net.cpp:469] fc1000_fc1000_0_split <- fc1000
I0817 23:01:27.620937 30036 net.cpp:443] fc1000_fc1000_0_split -> fc1000_fc1000_0_split_0
I0817 23:01:27.620949 30036 net.cpp:443] fc1000_fc1000_0_split -> fc1000_fc1000_0_split_1
I0817 23:01:27.621003 30036 net.cpp:141] Setting up fc1000_fc1000_0_split
I0817 23:01:27.621014 30036 net.cpp:148] Top shape: 40 1000 1 1 (40000)
I0817 23:01:27.621018 30036 net.cpp:148] Top shape: 40 1000 1 1 (40000)
I0817 23:01:27.621022 30036 net.cpp:156] Memory required for data: 2736668640
I0817 23:01:27.621026 30036 layer_factory.hpp:77] Creating layer accuracy
I0817 23:01:27.631446 30036 net.cpp:91] Creating Layer accuracy
I0817 23:01:27.631474 30036 net.cpp:469] accuracy <- fc1000_fc1000_0_split_0
I0817 23:01:27.631489 30036 net.cpp:469] accuracy <- label_data_1_split_0
I0817 23:01:27.631510 30036 net.cpp:443] accuracy -> accuracy
…
