…
I0228 17:54:07.837419 32650 net.cpp:315] The NetState phase (0) differed from the phase (1) specified by a rule in layer mnist
I0228 17:54:07.837458 32650 net.cpp:315] The NetState phase (0) differed from the phase (1) specified by a rule in layer accuracy
I0228 17:54:07.837582 32650 net.cpp:51] Initializing net from parameters: 
name: "LeNet"
state {
  phase: TRAIN
}
layer {
  name: "mnist"
  type: "Data"
  top: "data"
  top: "label"
  include {
    phase: TRAIN
  }
  transform_param {
    scale: 0.00390625
  }
  data_param {
    source: "mnist_train_lmdb"
    batch_size: 64
    backend: LMDB
  }
}
layer {
  name: "conv1"
  type: "Convolution"
  bottom: "data"
  top: "conv1"
  param {
    lr_mult: 1
  }
  param {
    lr_mult: 2
  }
  convolution_param {
    num_output: 20
    kernel_size: 5
    stride: 1
    weight_filler {
      type: "xavier"
    }
    bias_filler {
      type: "constant"
    }
  }
}
layer {
  name: "pool1"
  type: "Pooling"
  bottom: "conv1"
  top: "pool1"
  pooling_param {
    pool: MAX
    kernel_size: 2
    stride: 2
  }
}
layer {
  name: "conv2"
  type: "Convolution"
  bottom: "pool1"
  top: "conv2"
  param {
    lr_mult: 1
  }
  param {
    lr_mult: 2
  }
  convolution_param {
    num_output: 50
    kernel_size: 5
    stride: 1
    weight_filler {
      type: "xavier"
    }
    bias_filler {
      type: "constant"
    }
  }
}
layer {
  name: "pool2"
  type: "Pooling"
  bottom: "conv2"
  top: "pool2"
  pooling_param {
    pool: MAX
    kernel_size: 2
    stride: 2
  }
}
layer {
  name: "ip1"
  type: "InnerProduct"
  bottom: "pool2"
  top: "ip1"
  param {
    lr_mult: 1
  }
  param {
    lr_mult: 2
  }
  inner_product_param {
    num_output: 500
    weight_filler {
      type: "xavier"
    }
    bias_filler {
      type: "constant"
    }
  }
}
layer {
  name: "relu1"
  type: "ReLU"
  bottom: "ip1"
  top: "ip1"
}
layer {
  name: "ip2"
  type: "InnerProduct"
  bottom: "ip1"
  top: "ip2"
  param {
    lr_mult: 1
  }
  param {
    lr_mult: 2
  }
  inner_product_param {
    num_output: 10
    weight_filler {
      type: "xavier"
    }
    bias_filler {
      type: "constant"
    }
  }
}
layer {
  name: "loss"
  type: "SoftmaxWithLoss"
  bottom: "ip2"
  bottom: "label"
  top: "loss"
}
I0228 17:54:07.837668 32650 layer_factory.hpp:77] Creating layer mnist
I0228 17:54:07.838292 32650 net.cpp:93] Creating Layer mnist
I0228 17:54:07.838321 32650 net.cpp:401] mnist -> data
I0228 17:54:07.838367 32650 net.cpp:401] mnist -> label
I0228 17:54:07.839534 32677 db_lmdb.cpp:35] Opened lmdb mnist_train_lmdb
I0228 17:54:07.861115 32650 data_layer.cpp:41] output data size: 64,1,28,28
I0228 17:54:07.862527 32650 net.cpp:143] Setting up mnist
I0228 17:54:07.862551 32650 net.cpp:150] Top shape: 64 1 28 28 (50176)
I0228 17:54:07.862566 32650 net.cpp:150] Top shape: 64 (64)
I0228 17:54:07.862570 32650 net.cpp:158] Memory required for data: 200960
I0228 17:54:07.862577 32650 layer_factory.hpp:77] Creating layer conv1
I0228 17:54:07.862607 32650 net.cpp:93] Creating Layer conv1
I0228 17:54:07.862615 32650 net.cpp:427] conv1 <- data
I0228 17:54:07.862634 32650 net.cpp:401] conv1 -> conv1
I0228 17:54:07.863545 32650 net.cpp:143] Setting up conv1
I0228 17:54:07.863598 32650 net.cpp:150] Top shape: 64 20 24 24 (737280)
I0228 17:54:07.863656 32650 net.cpp:158] Memory required for data: 3150080
I0228 17:54:07.863700 32650 layer_factory.hpp:77] Creating layer pool1
I0228 17:54:07.863741 32650 net.cpp:93] Creating Layer pool1
I0228 17:54:07.863764 32650 net.cpp:427] pool1 <- conv1
I0228 17:54:07.863785 32650 net.cpp:401] pool1 -> pool1
I0228 17:54:07.863927 32650 net.cpp:143] Setting up pool1
I0228 17:54:07.863955 32650 net.cpp:150] Top shape: 64 20 12 12 (184320)
I0228 17:54:07.863976 32650 net.cpp:158] Memory required for data: 3887360
I0228 17:54:07.863996 32650 layer_factory.hpp:77] Creating layer conv2
I0228 17:54:07.864032 32650 net.cpp:93] Creating Layer conv2
I0228 17:54:07.864050 32650 net.cpp:427] conv2 <- pool1
I0228 17:54:07.864070 32650 net.cpp:401] conv2 -> conv2
I0228 17:54:07.864650 32650 net.cpp:143] Setting up conv2
I0228 17:54:07.864699 32650 net.cpp:150] Top shape: 64 50 8 8 (204800)
I0228 17:54:07.864717 32650 net.cpp:158] Memory required for data: 4706560
I0228 17:54:07.864748 32650 layer_factory.hpp:77] Creating layer pool2
I0228 17:54:07.864778 32650 net.cpp:93] Creating Layer pool2
I0228 17:54:07.864797 32650 net.cpp:427] pool2 <- conv2
I0228 17:54:07.864825 32650 net.cpp:401] pool2 -> pool2
I0228 17:54:07.864902 32650 net.cpp:143] Setting up pool2
I0228 17:54:07.864926 32650 net.cpp:150] Top shape: 64 50 4 4 (51200)
I0228 17:54:07.864941 32650 net.cpp:158] Memory required for data: 4911360
I0228 17:54:07.864951 32650 layer_factory.hpp:77] Creating layer ip1
I0228 17:54:07.864989 32650 net.cpp:93] Creating Layer ip1
I0228 17:54:07.864995 32650 net.cpp:427] ip1 <- pool2
I0228 17:54:07.865015 32650 net.cpp:401] ip1 -> ip1
I0228 17:54:07.874547 32650 net.cpp:143] Setting up ip1
I0228 17:54:07.874590 32650 net.cpp:150] Top shape: 64 500 (32000)
I0228 17:54:07.874596 32650 net.cpp:158] Memory required for data: 5039360
I0228 17:54:07.874616 32650 layer_factory.hpp:77] Creating layer relu1
I0228 17:54:07.874631 32650 net.cpp:93] Creating Layer relu1
I0228 17:54:07.874639 32650 net.cpp:427] relu1 <- ip1
I0228 17:54:07.874652 32650 net.cpp:388] relu1 -> ip1 (in-place)
I0228 17:54:07.874667 32650 net.cpp:143] Setting up relu1
I0228 17:54:07.874675 32650 net.cpp:150] Top shape: 64 500 (32000)
I0228 17:54:07.874681 32650 net.cpp:158] Memory required for data: 5167360
I0228 17:54:07.874688 32650 layer_factory.hpp:77] Creating layer ip2
I0228 17:54:07.874701 32650 net.cpp:93] Creating Layer ip2
I0228 17:54:07.874707 32650 net.cpp:427] ip2 <- ip1
I0228 17:54:07.874718 32650 net.cpp:401] ip2 -> ip2
I0228 17:54:07.875531 32650 net.cpp:143] Setting up ip2
I0228 17:54:07.875546 32650 net.cpp:150] Top shape: 64 10 (640)
I0228 17:54:07.875552 32650 net.cpp:158] Memory required for data: 5169920
I0228 17:54:07.875563 32650 layer_factory.hpp:77] Creating layer loss
I0228 17:54:07.875583 32650 net.cpp:93] Creating Layer loss
I0228 17:54:07.875589 32650 net.cpp:427] loss <- ip2
I0228 17:54:07.875597 32650 net.cpp:427] loss <- label
I0228 17:54:07.875610 32650 net.cpp:401] loss -> loss
I0228 17:54:07.875630 32650 layer_factory.hpp:77] Creating layer loss
…
I0228 17:54:07.876150 32650 solver.cpp:186] Creating test net (#0) specified by net file: lenet_train_test.prototxt
I0228 17:54:07.876184 32650 net.cpp:315] The NetState phase (1) differed from the phase (0) specified by a rule in layer mnist
I0228 17:54:07.876302 32650 net.cpp:51] Initializing net from parameters: 
name: "LeNet"
state {
  phase: TEST
}
layer {
  name: "mnist"
  type: "Data"
  top: "data"
  top: "label"
  include {
    phase: TEST
  }
  transform_param {
    scale: 0.00390625
  }
  data_param {
    source: "mnist_test_lmdb"
    batch_size: 100
    backend: LMDB
  }
}
layer {
  name: "conv1"
  type: "Convolution"
  bottom: "data"
  top: "conv1"
  param {
    lr_mult: 1
  }
  param {
    lr_mult: 2
  }
  convolution_param {
    num_output: 20
    kernel_size: 5
    stride: 1
    weight_filler {
      type: "xavier"
    }
    bias_filler {
      type: "constant"
    }
  }
}
layer {
  name: "pool1"
  type: "Pooling"
  bottom: "conv1"
  top: "pool1"
  pooling_param {
    pool: MAX
    kernel_size: 2
    stride: 2
  }
}
layer {
  name: "conv2"
  type: "Convolution"
  bottom: "pool1"
  top: "conv2"
  param {
    lr_mult: 1
  }
  param {
    lr_mult: 2
  }
  convolution_param {
    num_output: 50
    kernel_size: 5
    stride: 1
    weight_filler {
      type: "xavier"
    }
    bias_filler {
      type: "constant"
    }
  }
}
layer {
  name: "pool2"
  type: "Pooling"
  bottom: "conv2"
  top: "pool2"
  pooling_param {
    pool: MAX
    kernel_size: 2
    stride: 2
  }
}
layer {
  name: "ip1"
  type: "InnerProduct"
  bottom: "pool2"
  top: "ip1"
  param {
    lr_mult: 1
  }
  param {
    lr_mult: 2
  }
  inner_product_param {
    num_output: 500
    weight_filler {
      type: "xavier"
    }
    bias_filler {
      type: "constant"
    }
  }
}
layer {
  name: "relu1"
  type: "ReLU"
  bottom: "ip1"
  top: "ip1"
}
layer {
  name: "ip2"
  type: "InnerProduct"
  bottom: "ip1"
  top: "ip2"
  param {
    lr_mult: 1
  }
  param {
    lr_mult: 2
  }
  inner_product_param {
    num_output: 10
    weight_filler {
      type: "xavier"
    }
    bias_filler {
      type: "constant"
    }
  }
}
layer {
  name: "accuracy"
  type: "Accuracy"
  bottom: "ip2"
  bottom: "label"
  top: "accuracy"
  include {
    phase: TEST
  }
}
layer {
  name: "loss"
  type: "SoftmaxWithLoss"
  bottom: "ip2"
  bottom: "label"
  top: "loss"
}
I0228 17:54:07.876408 32650 layer_factory.hpp:77] Creating layer mnist
I0228 17:54:07.876607 32650 net.cpp:93] Creating Layer mnist
I0228 17:54:07.876638 32650 net.cpp:401] mnist -> data
I0228 17:54:07.876667 32650 net.cpp:401] mnist -> label
I0228 17:54:07.879511 32682 db_lmdb.cpp:35] Opened lmdb mnist_test_lmdb
I0228 17:54:07.879700 32650 data_layer.cpp:41] output data size: 100,1,28,28
I0228 17:54:07.882692 32650 net.cpp:143] Setting up mnist
I0228 17:54:07.882731 32650 net.cpp:150] Top shape: 100 1 28 28 (78400)
I0228 17:54:07.882742 32650 net.cpp:150] Top shape: 100 (100)
I0228 17:54:07.882750 32650 net.cpp:158] Memory required for data: 314000
I0228 17:54:07.882761 32650 layer_factory.hpp:77] Creating layer label_mnist_1_split
I0228 17:54:07.882781 32650 net.cpp:93] Creating Layer label_mnist_1_split
I0228 17:54:07.882789 32650 net.cpp:427] label_mnist_1_split <- label
I0228 17:54:07.882802 32650 net.cpp:401] label_mnist_1_split -> label_mnist_1_split_0
I0228 17:54:07.882818 32650 net.cpp:401] label_mnist_1_split -> label_mnist_1_split_1
I0228 17:54:07.882877 32650 net.cpp:143] Setting up label_mnist_1_split
I0228 17:54:07.882890 32650 net.cpp:150] Top shape: 100 (100)
I0228 17:54:07.882899 32650 net.cpp:150] Top shape: 100 (100)
I0228 17:54:07.882905 32650 net.cpp:158] Memory required for data: 314800
I0228 17:54:07.882913 32650 layer_factory.hpp:77] Creating layer conv1
I0228 17:54:07.882937 32650 net.cpp:93] Creating Layer conv1
I0228 17:54:07.882946 32650 net.cpp:427] conv1 <- data
I0228 17:54:07.882959 32650 net.cpp:401] conv1 -> conv1
I0228 17:54:07.883214 32650 net.cpp:143] Setting up conv1
I0228 17:54:07.883242 32650 net.cpp:150] Top shape: 100 20 24 24 (1152000)
I0228 17:54:07.883247 32650 net.cpp:158] Memory required for data: 4922800
I0228 17:54:07.883260 32650 layer_factory.hpp:77] Creating layer pool1
I0228 17:54:07.883268 32650 net.cpp:93] Creating Layer pool1
I0228 17:54:07.883273 32650 net.cpp:427] pool1 <- conv1
I0228 17:54:07.883281 32650 net.cpp:401] pool1 -> pool1
I0228 17:54:07.883318 32650 net.cpp:143] Setting up pool1
I0228 17:54:07.883327 32650 net.cpp:150] Top shape: 100 20 12 12 (288000)
I0228 17:54:07.883330 32650 net.cpp:158] Memory required for data: 6074800
I0228 17:54:07.883335 32650 layer_factory.hpp:77] Creating layer conv2
I0228 17:54:07.883348 32650 net.cpp:93] Creating Layer conv2
I0228 17:54:07.883353 32650 net.cpp:427] conv2 <- pool1
I0228 17:54:07.883360 32650 net.cpp:401] conv2 -> conv2
I0228 17:54:07.883839 32650 net.cpp:143] Setting up conv2
I0228 17:54:07.883853 32650 net.cpp:150] Top shape: 100 50 8 8 (320000)
I0228 17:54:07.883857 32650 net.cpp:158] Memory required for data: 7354800
I0228 17:54:07.883870 32650 layer_factory.hpp:77] Creating layer pool2
I0228 17:54:07.883882 32650 net.cpp:93] Creating Layer pool2
I0228 17:54:07.883888 32650 net.cpp:427] pool2 <- conv2
I0228 17:54:07.883895 32650 net.cpp:401] pool2 -> pool2
I0228 17:54:07.883929 32650 net.cpp:143] Setting up pool2
I0228 17:54:07.883936 32650 net.cpp:150] Top shape: 100 50 4 4 (80000)
I0228 17:54:07.883942 32650 net.cpp:158] Memory required for data: 7674800
I0228 17:54:07.883949 32650 layer_factory.hpp:77] Creating layer ip1
I0228 17:54:07.883960 32650 net.cpp:93] Creating Layer ip1
I0228 17:54:07.883965 32650 net.cpp:427] ip1 <- pool2
I0228 17:54:07.883975 32650 net.cpp:401] ip1 -> ip1
I0228 17:54:07.892146 32650 net.cpp:143] Setting up ip1
I0228 17:54:07.892195 32650 net.cpp:150] Top shape: 100 500 (50000)
I0228 17:54:07.892201 32650 net.cpp:158] Memory required for data: 7874800
I0228 17:54:07.892222 32650 layer_factory.hpp:77] Creating layer relu1
I0228 17:54:07.892241 32650 net.cpp:93] Creating Layer relu1
I0228 17:54:07.892251 32650 net.cpp:427] relu1 <- ip1
I0228 17:54:07.892262 32650 net.cpp:388] relu1 -> ip1 (in-place)
I0228 17:54:07.892279 32650 net.cpp:143] Setting up relu1
I0228 17:54:07.892289 32650 net.cpp:150] Top shape: 100 500 (50000)
I0228 17:54:07.892297 32650 net.cpp:158] Memory required for data: 8074800
I0228 17:54:07.892303 32650 layer_factory.hpp:77] Creating layer ip2
I0228 17:54:07.892326 32650 net.cpp:93] Creating Layer ip2
I0228 17:54:07.892335 32650 net.cpp:427] ip2 <- ip1
I0228 17:54:07.892346 32650 net.cpp:401] ip2 -> ip2
I0228 17:54:07.892518 32650 net.cpp:143] Setting up ip2
I0228 17:54:07.892526 32650 net.cpp:150] Top shape: 100 10 (1000)
I0228 17:54:07.892531 32650 net.cpp:158] Memory required for data: 8078800
I0228 17:54:07.892537 32650 layer_factory.hpp:77] Creating layer ip2_ip2_0_split
I0228 17:54:07.892546 32650 net.cpp:93] Creating Layer ip2_ip2_0_split
I0228 17:54:07.892554 32650 net.cpp:427] ip2_ip2_0_split <- ip2
I0228 17:54:07.892561 32650 net.cpp:401] ip2_ip2_0_split -> ip2_ip2_0_split_0
I0228 17:54:07.892570 32650 net.cpp:401] ip2_ip2_0_split -> ip2_ip2_0_split_1
I0228 17:54:07.892619 32650 net.cpp:143] Setting up ip2_ip2_0_split
I0228 17:54:07.892629 32650 net.cpp:150] Top shape: 100 10 (1000)
I0228 17:54:07.892637 32650 net.cpp:150] Top shape: 100 10 (1000)
I0228 17:54:07.892642 32650 net.cpp:158] Memory required for data: 8086800
I0228 17:54:07.892647 32650 layer_factory.hpp:77] Creating layer accuracy
I0228 17:54:07.892670 32650 net.cpp:93] Creating Layer accuracy
I0228 17:54:07.892676 32650 net.cpp:427] accuracy <- ip2_ip2_0_split_0
I0228 17:54:07.892683 32650 net.cpp:427] accuracy <- label_mnist_1_split_0
I0228 17:54:07.892691 32650 net.cpp:401] accuracy -> accuracy
…
