…
I0228 16:01:39.593613 26658 net.cpp:315] The NetState phase (0) differed from the phase (1) specified by a rule in layer mnist
I0228 16:01:39.593636 26658 net.cpp:315] The NetState phase (0) differed from the phase (1) specified by a rule in layer accuracy
I0228 16:01:39.593747 26658 net.cpp:51] Initializing net from parameters: 
name: "LeNet"
state {
  phase: TRAIN
}
layer {
  name: "mnist"
  type: "Data"
  top: "data"
  top: "label"
  include {
    phase: TRAIN
  }
  transform_param {
    scale: 0.00390625
  }
  data_param {
    source: "mnist_train_lmdb"
    batch_size: 50
    backend: LMDB
  }
}
layer {
  name: "conv1"
  type: "Convolution"
  bottom: "data"
  top: "conv1"
  param {
    lr_mult: 1
  }
  param {
    lr_mult: 2
  }
  convolution_param {
    num_output: 32
    kernel_size: 5
    stride: 1
    weight_filler {
      type: "xavier"
    }
    bias_filler {
      type: "constant"
    }
  }
}
layer {
  name: "conv1_bn"
  type: "BatchNorm"
  bottom: "conv1"
  top: "conv1"
  batch_norm_param {
    use_global_stats: false
  }
}
layer {
  name: "conv1_scale"
  type: "Scale"
  bottom: "conv1"
  top: "conv1"
  scale_param {
    bias_term: true
  }
}
layer {
  name: "conv1_relu"
  type: "ReLU"
  bottom: "conv1"
  top: "conv1"
}
layer {
  name: "pool1"
  type: "Pooling"
  bottom: "conv1"
  top: "pool1"
  pooling_param {
    pool: MAX
    kernel_size: 2
    stride: 2
  }
}
layer {
  name: "conv2"
  type: "Convolution"
  bottom: "pool1"
  top: "conv2"
  param {
    lr_mult: 1
  }
  param {
    lr_mult: 2
  }
  convolution_param {
    num_output: 64
    kernel_size: 5
    stride: 1
    weight_filler {
      type: "xavier"
    }
    bias_filler {
      type: "constant"
    }
  }
}
layer {
  name: "conv2_bn"
  type: "BatchNorm"
  bottom: "conv2"
  top: "conv2"
  batch_norm_param {
    use_global_stats: false
  }
}
layer {
  name: "conv2_scale"
  type: "Scale"
  bottom: "conv2"
  top: "conv2"
  scale_param {
    bias_term: true
  }
}
layer {
  name: "conv2_relu"
  type: "ReLU"
  bottom: "conv2"
  top: "conv2"
}
layer {
  name: "pool2"
  type: "Pooling"
  bottom: "conv2"
  top: "pool2"
  pooling_param {
    pool: MAX
    kernel_size: 2
    stride: 2
  }
}
layer {
  name: "ip1"
  type: "InnerProduct"
  bottom: "pool2"
  top: "ip1"
  param {
    lr_mult: 1
  }
  param {
    lr_mult: 2
  }
  inner_product_param {
    num_output: 512
    weight_filler {
      type: "xavier"
    }
    bias_filler {
      type: "constant"
    }
  }
}
layer {
  name: "ip1_bn"
  type: "BatchNorm"
  bottom: "ip1"
  top: "ip1"
  batch_norm_param {
    use_global_stats: false
  }
}
layer {
  name: "ip1_scale"
  type: "Scale"
  bottom: "ip1"
  top: "ip1"
  scale_param {
    bias_term: true
  }
}
layer {
  name: "ip1_relu"
  type: "ReLU"
  bottom: "ip1"
  top: "ip1"
}
layer {
  name: "ip2"
  type: "InnerProduct"
  bottom: "ip1"
  top: "ip2"
  param {
    lr_mult: 1
  }
  param {
    lr_mult: 2
  }
  inner_product_param {
    num_output: 10
    weight_filler {
      type: "xavier"
    }
    bias_filler {
      type: "constant"
    }
  }
}
layer {
  name: "loss"
  type: "SoftmaxWithLoss"
  bottom: "ip2"
  bottom: "label"
  top: "loss"
}
I0228 16:01:39.593842 26658 layer_factory.hpp:77] Creating layer mnist
I0228 16:01:39.594354 26658 net.cpp:93] Creating Layer mnist
I0228 16:01:39.594382 26658 net.cpp:401] mnist -> data
I0228 16:01:39.594430 26658 net.cpp:401] mnist -> label
I0228 16:01:39.595834 26686 db_lmdb.cpp:35] Opened lmdb mnist_train_lmdb
I0228 16:01:39.640592 26658 data_layer.cpp:41] output data size: 50,1,28,28
I0228 16:01:39.643812 26658 net.cpp:143] Setting up mnist
I0228 16:01:39.643849 26658 net.cpp:150] Top shape: 50 1 28 28 (39200)
I0228 16:01:39.643857 26658 net.cpp:150] Top shape: 50 (50)
I0228 16:01:39.643862 26658 net.cpp:158] Memory required for data: 157000
I0228 16:01:39.643872 26658 layer_factory.hpp:77] Creating layer conv1
I0228 16:01:39.643906 26658 net.cpp:93] Creating Layer conv1
I0228 16:01:39.643914 26658 net.cpp:427] conv1 <- data
I0228 16:01:39.643929 26658 net.cpp:401] conv1 -> conv1
I0228 16:01:39.646530 26658 net.cpp:143] Setting up conv1
I0228 16:01:39.646574 26658 net.cpp:150] Top shape: 50 32 24 24 (921600)
I0228 16:01:39.646582 26658 net.cpp:158] Memory required for data: 3843400
I0228 16:01:39.646607 26658 layer_factory.hpp:77] Creating layer conv1_bn
I0228 16:01:39.646634 26658 net.cpp:93] Creating Layer conv1_bn
I0228 16:01:39.646644 26658 net.cpp:427] conv1_bn <- conv1
I0228 16:01:39.646658 26658 net.cpp:388] conv1_bn -> conv1 (in-place)
I0228 16:01:39.646948 26658 net.cpp:143] Setting up conv1_bn
I0228 16:01:39.646965 26658 net.cpp:150] Top shape: 50 32 24 24 (921600)
I0228 16:01:39.646971 26658 net.cpp:158] Memory required for data: 7529800
I0228 16:01:39.646991 26658 layer_factory.hpp:77] Creating layer conv1_scale
I0228 16:01:39.647003 26658 net.cpp:93] Creating Layer conv1_scale
I0228 16:01:39.647009 26658 net.cpp:427] conv1_scale <- conv1
I0228 16:01:39.647017 26658 net.cpp:388] conv1_scale -> conv1 (in-place)
I0228 16:01:39.647083 26658 layer_factory.hpp:77] Creating layer conv1_scale
I0228 16:01:39.647259 26658 net.cpp:143] Setting up conv1_scale
I0228 16:01:39.647279 26658 net.cpp:150] Top shape: 50 32 24 24 (921600)
I0228 16:01:39.647290 26658 net.cpp:158] Memory required for data: 11216200
I0228 16:01:39.647305 26658 layer_factory.hpp:77] Creating layer conv1_relu
I0228 16:01:39.647320 26658 net.cpp:93] Creating Layer conv1_relu
I0228 16:01:39.647326 26658 net.cpp:427] conv1_relu <- conv1
I0228 16:01:39.647333 26658 net.cpp:388] conv1_relu -> conv1 (in-place)
I0228 16:01:39.647343 26658 net.cpp:143] Setting up conv1_relu
I0228 16:01:39.647349 26658 net.cpp:150] Top shape: 50 32 24 24 (921600)
I0228 16:01:39.647357 26658 net.cpp:158] Memory required for data: 14902600
I0228 16:01:39.647372 26658 layer_factory.hpp:77] Creating layer pool1
I0228 16:01:39.647389 26658 net.cpp:93] Creating Layer pool1
I0228 16:01:39.647395 26658 net.cpp:427] pool1 <- conv1
I0228 16:01:39.647404 26658 net.cpp:401] pool1 -> pool1
I0228 16:01:39.647487 26658 net.cpp:143] Setting up pool1
I0228 16:01:39.647505 26658 net.cpp:150] Top shape: 50 32 12 12 (230400)
I0228 16:01:39.647514 26658 net.cpp:158] Memory required for data: 15824200
I0228 16:01:39.647524 26658 layer_factory.hpp:77] Creating layer conv2
I0228 16:01:39.647545 26658 net.cpp:93] Creating Layer conv2
I0228 16:01:39.647558 26658 net.cpp:427] conv2 <- pool1
I0228 16:01:39.647577 26658 net.cpp:401] conv2 -> conv2
I0228 16:01:39.648270 26658 net.cpp:143] Setting up conv2
I0228 16:01:39.648294 26658 net.cpp:150] Top shape: 50 64 8 8 (204800)
I0228 16:01:39.648304 26658 net.cpp:158] Memory required for data: 16643400
I0228 16:01:39.648325 26658 layer_factory.hpp:77] Creating layer conv2_bn
I0228 16:01:39.648341 26658 net.cpp:93] Creating Layer conv2_bn
I0228 16:01:39.648355 26658 net.cpp:427] conv2_bn <- conv2
I0228 16:01:39.648363 26658 net.cpp:388] conv2_bn -> conv2 (in-place)
I0228 16:01:39.648588 26658 net.cpp:143] Setting up conv2_bn
I0228 16:01:39.648607 26658 net.cpp:150] Top shape: 50 64 8 8 (204800)
I0228 16:01:39.648615 26658 net.cpp:158] Memory required for data: 17462600
I0228 16:01:39.648633 26658 layer_factory.hpp:77] Creating layer conv2_scale
I0228 16:01:39.648649 26658 net.cpp:93] Creating Layer conv2_scale
I0228 16:01:39.648676 26658 net.cpp:427] conv2_scale <- conv2
I0228 16:01:39.648707 26658 net.cpp:388] conv2_scale -> conv2 (in-place)
I0228 16:01:39.648767 26658 layer_factory.hpp:77] Creating layer conv2_scale
I0228 16:01:39.648883 26658 net.cpp:143] Setting up conv2_scale
I0228 16:01:39.648898 26658 net.cpp:150] Top shape: 50 64 8 8 (204800)
I0228 16:01:39.648910 26658 net.cpp:158] Memory required for data: 18281800
I0228 16:01:39.648926 26658 layer_factory.hpp:77] Creating layer conv2_relu
I0228 16:01:39.648941 26658 net.cpp:93] Creating Layer conv2_relu
I0228 16:01:39.648949 26658 net.cpp:427] conv2_relu <- conv2
I0228 16:01:39.648962 26658 net.cpp:388] conv2_relu -> conv2 (in-place)
I0228 16:01:39.648977 26658 net.cpp:143] Setting up conv2_relu
I0228 16:01:39.648988 26658 net.cpp:150] Top shape: 50 64 8 8 (204800)
I0228 16:01:39.648994 26658 net.cpp:158] Memory required for data: 19101000
I0228 16:01:39.649003 26658 layer_factory.hpp:77] Creating layer pool2
I0228 16:01:39.649022 26658 net.cpp:93] Creating Layer pool2
I0228 16:01:39.649046 26658 net.cpp:427] pool2 <- conv2
I0228 16:01:39.649058 26658 net.cpp:401] pool2 -> pool2
I0228 16:01:39.649122 26658 net.cpp:143] Setting up pool2
I0228 16:01:39.649137 26658 net.cpp:150] Top shape: 50 64 4 4 (51200)
I0228 16:01:39.649145 26658 net.cpp:158] Memory required for data: 19305800
I0228 16:01:39.649154 26658 layer_factory.hpp:77] Creating layer ip1
I0228 16:01:39.649175 26658 net.cpp:93] Creating Layer ip1
I0228 16:01:39.649184 26658 net.cpp:427] ip1 <- pool2
I0228 16:01:39.649204 26658 net.cpp:401] ip1 -> ip1
I0228 16:01:39.658370 26658 net.cpp:143] Setting up ip1
I0228 16:01:39.658417 26658 net.cpp:150] Top shape: 50 512 (25600)
I0228 16:01:39.658422 26658 net.cpp:158] Memory required for data: 19408200
I0228 16:01:39.658433 26658 layer_factory.hpp:77] Creating layer ip1_bn
I0228 16:01:39.658448 26658 net.cpp:93] Creating Layer ip1_bn
I0228 16:01:39.658453 26658 net.cpp:427] ip1_bn <- ip1
I0228 16:01:39.658463 26658 net.cpp:388] ip1_bn -> ip1 (in-place)
I0228 16:01:39.658612 26658 net.cpp:143] Setting up ip1_bn
I0228 16:01:39.658622 26658 net.cpp:150] Top shape: 50 512 (25600)
I0228 16:01:39.658625 26658 net.cpp:158] Memory required for data: 19510600
I0228 16:01:39.658638 26658 layer_factory.hpp:77] Creating layer ip1_scale
I0228 16:01:39.658646 26658 net.cpp:93] Creating Layer ip1_scale
I0228 16:01:39.658651 26658 net.cpp:427] ip1_scale <- ip1
I0228 16:01:39.658658 26658 net.cpp:388] ip1_scale -> ip1 (in-place)
I0228 16:01:39.658692 26658 layer_factory.hpp:77] Creating layer ip1_scale
I0228 16:01:39.658780 26658 net.cpp:143] Setting up ip1_scale
I0228 16:01:39.658792 26658 net.cpp:150] Top shape: 50 512 (25600)
I0228 16:01:39.658798 26658 net.cpp:158] Memory required for data: 19613000
I0228 16:01:39.658808 26658 layer_factory.hpp:77] Creating layer ip1_relu
I0228 16:01:39.658819 26658 net.cpp:93] Creating Layer ip1_relu
I0228 16:01:39.658826 26658 net.cpp:427] ip1_relu <- ip1
I0228 16:01:39.658834 26658 net.cpp:388] ip1_relu -> ip1 (in-place)
I0228 16:01:39.658845 26658 net.cpp:143] Setting up ip1_relu
I0228 16:01:39.658854 26658 net.cpp:150] Top shape: 50 512 (25600)
I0228 16:01:39.658861 26658 net.cpp:158] Memory required for data: 19715400
I0228 16:01:39.658869 26658 layer_factory.hpp:77] Creating layer ip2
I0228 16:01:39.658895 26658 net.cpp:93] Creating Layer ip2
I0228 16:01:39.658905 26658 net.cpp:427] ip2 <- ip1
I0228 16:01:39.658918 26658 net.cpp:401] ip2 -> ip2
I0228 16:01:39.660023 26658 net.cpp:143] Setting up ip2
I0228 16:01:39.660048 26658 net.cpp:150] Top shape: 50 10 (500)
I0228 16:01:39.660054 26658 net.cpp:158] Memory required for data: 19717400
I0228 16:01:39.660065 26658 layer_factory.hpp:77] Creating layer loss
I0228 16:01:39.660094 26658 net.cpp:93] Creating Layer loss
I0228 16:01:39.660101 26658 net.cpp:427] loss <- ip2
I0228 16:01:39.660109 26658 net.cpp:427] loss <- label
I0228 16:01:39.660123 26658 net.cpp:401] loss -> loss
I0228 16:01:39.660151 26658 layer_factory.hpp:77] Creating layer loss
…
I0228 16:01:39.661214 26658 solver.cpp:186] Creating test net (#0) specified by net file: lenet_tn.prototxt
I0228 16:01:39.661273 26658 net.cpp:315] The NetState phase (1) differed from the phase (0) specified by a rule in layer mnist
I0228 16:01:39.661466 26658 net.cpp:51] Initializing net from parameters: 
name: "LeNet"
state {
  phase: TEST
}
layer {
  name: "mnist"
  type: "Data"
  top: "data"
  top: "label"
  include {
    phase: TEST
  }
  transform_param {
    scale: 0.00390625
  }
  data_param {
    source: "mnist_test_lmdb"
    batch_size: 100
    backend: LMDB
  }
}
layer {
  name: "conv1"
  type: "Convolution"
  bottom: "data"
  top: "conv1"
  param {
    lr_mult: 1
  }
  param {
    lr_mult: 2
  }
  convolution_param {
    num_output: 32
    kernel_size: 5
    stride: 1
    weight_filler {
      type: "xavier"
    }
    bias_filler {
      type: "constant"
    }
  }
}
layer {
  name: "conv1_bn"
  type: "BatchNorm"
  bottom: "conv1"
  top: "conv1"
  batch_norm_param {
    use_global_stats: false
  }
}
layer {
  name: "conv1_scale"
  type: "Scale"
  bottom: "conv1"
  top: "conv1"
  scale_param {
    bias_term: true
  }
}
layer {
  name: "conv1_relu"
  type: "ReLU"
  bottom: "conv1"
  top: "conv1"
}
layer {
  name: "pool1"
  type: "Pooling"
  bottom: "conv1"
  top: "pool1"
  pooling_param {
    pool: MAX
    kernel_size: 2
    stride: 2
  }
}
layer {
  name: "conv2"
  type: "Convolution"
  bottom: "pool1"
  top: "conv2"
  param {
    lr_mult: 1
  }
  param {
    lr_mult: 2
  }
  convolution_param {
    num_output: 64
    kernel_size: 5
    stride: 1
    weight_filler {
      type: "xavier"
    }
    bias_filler {
      type: "constant"
    }
  }
}
layer {
  name: "conv2_bn"
  type: "BatchNorm"
  bottom: "conv2"
  top: "conv2"
  batch_norm_param {
    use_global_stats: false
  }
}
layer {
  name: "conv2_scale"
  type: "Scale"
  bottom: "conv2"
  top: "conv2"
  scale_param {
    bias_term: true
  }
}
layer {
  name: "conv2_relu"
  type: "ReLU"
  bottom: "conv2"
  top: "conv2"
}
layer {
  name: "pool2"
  type: "Pooling"
  bottom: "conv2"
  top: "pool2"
  pooling_param {
    pool: MAX
    kernel_size: 2
    stride: 2
  }
}
layer {
  name: "ip1"
  type: "InnerProduct"
  bottom: "pool2"
  top: "ip1"
  param {
    lr_mult: 1
  }
  param {
    lr_mult: 2
  }
  inner_product_param {
    num_output: 512
    weight_filler {
      type: "xavier"
    }
    bias_filler {
      type: "constant"
    }
  }
}
layer {
  name: "ip1_bn"
  type: "BatchNorm"
  bottom: "ip1"
  top: "ip1"
  batch_norm_param {
    use_global_stats: false
  }
}
layer {
  name: "ip1_scale"
  type: "Scale"
  bottom: "ip1"
  top: "ip1"
  scale_param {
    bias_term: true
  }
}
layer {
  name: "ip1_relu"
  type: "ReLU"
  bottom: "ip1"
  top: "ip1"
}
layer {
  name: "ip2"
  type: "InnerProduct"
  bottom: "ip1"
  top: "ip2"
  param {
    lr_mult: 1
  }
  param {
    lr_mult: 2
  }
  inner_product_param {
    num_output: 10
    weight_filler {
      type: "xavier"
    }
    bias_filler {
      type: "constant"
    }
  }
}
layer {
  name: "accuracy"
  type: "Accuracy"
  bottom: "ip2"
  bottom: "label"
  top: "accuracy"
  include {
    phase: TEST
  }
}
layer {
  name: "loss"
  type: "SoftmaxWithLoss"
  bottom: "ip2"
  bottom: "label"
  top: "loss"
}
I0228 16:01:39.661563 26658 layer_factory.hpp:77] Creating layer mnist
I0228 16:01:39.661684 26658 net.cpp:93] Creating Layer mnist
I0228 16:01:39.661705 26658 net.cpp:401] mnist -> data
I0228 16:01:39.661721 26658 net.cpp:401] mnist -> label
I0228 16:01:39.662793 26688 db_lmdb.cpp:35] Opened lmdb mnist_test_lmdb
I0228 16:01:39.662945 26658 data_layer.cpp:41] output data size: 100,1,28,28
I0228 16:01:39.664248 26658 net.cpp:143] Setting up mnist
I0228 16:01:39.664265 26658 net.cpp:150] Top shape: 100 1 28 28 (78400)
I0228 16:01:39.664271 26658 net.cpp:150] Top shape: 100 (100)
I0228 16:01:39.664275 26658 net.cpp:158] Memory required for data: 314000
I0228 16:01:39.664279 26658 layer_factory.hpp:77] Creating layer label_mnist_1_split
I0228 16:01:39.664288 26658 net.cpp:93] Creating Layer label_mnist_1_split
I0228 16:01:39.664291 26658 net.cpp:427] label_mnist_1_split <- label
I0228 16:01:39.664297 26658 net.cpp:401] label_mnist_1_split -> label_mnist_1_split_0
I0228 16:01:39.664305 26658 net.cpp:401] label_mnist_1_split -> label_mnist_1_split_1
I0228 16:01:39.664408 26658 net.cpp:143] Setting up label_mnist_1_split
I0228 16:01:39.664417 26658 net.cpp:150] Top shape: 100 (100)
I0228 16:01:39.664422 26658 net.cpp:150] Top shape: 100 (100)
I0228 16:01:39.664425 26658 net.cpp:158] Memory required for data: 314800
I0228 16:01:39.664429 26658 layer_factory.hpp:77] Creating layer conv1
I0228 16:01:39.664446 26658 net.cpp:93] Creating Layer conv1
I0228 16:01:39.664451 26658 net.cpp:427] conv1 <- data
I0228 16:01:39.664458 26658 net.cpp:401] conv1 -> conv1
I0228 16:01:39.664660 26658 net.cpp:143] Setting up conv1
I0228 16:01:39.664670 26658 net.cpp:150] Top shape: 100 32 24 24 (1843200)
I0228 16:01:39.664674 26658 net.cpp:158] Memory required for data: 7687600
I0228 16:01:39.664683 26658 layer_factory.hpp:77] Creating layer conv1_bn
I0228 16:01:39.664692 26658 net.cpp:93] Creating Layer conv1_bn
I0228 16:01:39.664697 26658 net.cpp:427] conv1_bn <- conv1
I0228 16:01:39.664703 26658 net.cpp:388] conv1_bn -> conv1 (in-place)
I0228 16:01:39.664845 26658 net.cpp:143] Setting up conv1_bn
I0228 16:01:39.664852 26658 net.cpp:150] Top shape: 100 32 24 24 (1843200)
I0228 16:01:39.664856 26658 net.cpp:158] Memory required for data: 15060400
I0228 16:01:39.664866 26658 layer_factory.hpp:77] Creating layer conv1_scale
I0228 16:01:39.664875 26658 net.cpp:93] Creating Layer conv1_scale
I0228 16:01:39.664878 26658 net.cpp:427] conv1_scale <- conv1
I0228 16:01:39.664886 26658 net.cpp:388] conv1_scale -> conv1 (in-place)
I0228 16:01:39.664921 26658 layer_factory.hpp:77] Creating layer conv1_scale
I0228 16:01:39.665015 26658 net.cpp:143] Setting up conv1_scale
I0228 16:01:39.665024 26658 net.cpp:150] Top shape: 100 32 24 24 (1843200)
I0228 16:01:39.665315 26658 net.cpp:158] Memory required for data: 22433200
I0228 16:01:39.665447 26658 layer_factory.hpp:77] Creating layer conv1_relu
I0228 16:01:39.665457 26658 net.cpp:93] Creating Layer conv1_relu
I0228 16:01:39.665462 26658 net.cpp:427] conv1_relu <- conv1
I0228 16:01:39.665467 26658 net.cpp:388] conv1_relu -> conv1 (in-place)
I0228 16:01:39.665477 26658 net.cpp:143] Setting up conv1_relu
I0228 16:01:39.665483 26658 net.cpp:150] Top shape: 100 32 24 24 (1843200)
I0228 16:01:39.665493 26658 net.cpp:158] Memory required for data: 29806000
I0228 16:01:39.665505 26658 layer_factory.hpp:77] Creating layer pool1
I0228 16:01:39.665513 26658 net.cpp:93] Creating Layer pool1
I0228 16:01:39.665516 26658 net.cpp:427] pool1 <- conv1
I0228 16:01:39.665521 26658 net.cpp:401] pool1 -> pool1
I0228 16:01:39.665565 26658 net.cpp:143] Setting up pool1
I0228 16:01:39.665572 26658 net.cpp:150] Top shape: 100 32 12 12 (460800)
I0228 16:01:39.665576 26658 net.cpp:158] Memory required for data: 31649200
I0228 16:01:39.665580 26658 layer_factory.hpp:77] Creating layer conv2
I0228 16:01:39.665591 26658 net.cpp:93] Creating Layer conv2
I0228 16:01:39.665596 26658 net.cpp:427] conv2 <- pool1
I0228 16:01:39.665602 26658 net.cpp:401] conv2 -> conv2
I0228 16:01:39.666473 26658 net.cpp:143] Setting up conv2
I0228 16:01:39.666491 26658 net.cpp:150] Top shape: 100 64 8 8 (409600)
I0228 16:01:39.666496 26658 net.cpp:158] Memory required for data: 33287600
I0228 16:01:39.666509 26658 layer_factory.hpp:77] Creating layer conv2_bn
I0228 16:01:39.666525 26658 net.cpp:93] Creating Layer conv2_bn
I0228 16:01:39.666532 26658 net.cpp:427] conv2_bn <- conv2
I0228 16:01:39.666541 26658 net.cpp:388] conv2_bn -> conv2 (in-place)
I0228 16:01:39.666741 26658 net.cpp:143] Setting up conv2_bn
I0228 16:01:39.666754 26658 net.cpp:150] Top shape: 100 64 8 8 (409600)
I0228 16:01:39.666759 26658 net.cpp:158] Memory required for data: 34926000
I0228 16:01:39.666771 26658 layer_factory.hpp:77] Creating layer conv2_scale
I0228 16:01:39.666780 26658 net.cpp:93] Creating Layer conv2_scale
I0228 16:01:39.666786 26658 net.cpp:427] conv2_scale <- conv2
I0228 16:01:39.666795 26658 net.cpp:388] conv2_scale -> conv2 (in-place)
I0228 16:01:39.666841 26658 layer_factory.hpp:77] Creating layer conv2_scale
I0228 16:01:39.666966 26658 net.cpp:143] Setting up conv2_scale
I0228 16:01:39.666978 26658 net.cpp:150] Top shape: 100 64 8 8 (409600)
I0228 16:01:39.666985 26658 net.cpp:158] Memory required for data: 36564400
I0228 16:01:39.666993 26658 layer_factory.hpp:77] Creating layer conv2_relu
I0228 16:01:39.667001 26658 net.cpp:93] Creating Layer conv2_relu
I0228 16:01:39.667007 26658 net.cpp:427] conv2_relu <- conv2
I0228 16:01:39.667017 26658 net.cpp:388] conv2_relu -> conv2 (in-place)
I0228 16:01:39.667026 26658 net.cpp:143] Setting up conv2_relu
I0228 16:01:39.667034 26658 net.cpp:150] Top shape: 100 64 8 8 (409600)
I0228 16:01:39.667040 26658 net.cpp:158] Memory required for data: 38202800
I0228 16:01:39.667047 26658 layer_factory.hpp:77] Creating layer pool2
I0228 16:01:39.667055 26658 net.cpp:93] Creating Layer pool2
I0228 16:01:39.667062 26658 net.cpp:427] pool2 <- conv2
I0228 16:01:39.667071 26658 net.cpp:401] pool2 -> pool2
I0228 16:01:39.667114 26658 net.cpp:143] Setting up pool2
I0228 16:01:39.667124 26658 net.cpp:150] Top shape: 100 64 4 4 (102400)
I0228 16:01:39.667129 26658 net.cpp:158] Memory required for data: 38612400
I0228 16:01:39.667135 26658 layer_factory.hpp:77] Creating layer ip1
I0228 16:01:39.667147 26658 net.cpp:93] Creating Layer ip1
I0228 16:01:39.667153 26658 net.cpp:427] ip1 <- pool2
I0228 16:01:39.667165 26658 net.cpp:401] ip1 -> ip1
I0228 16:01:39.676345 26658 net.cpp:143] Setting up ip1
I0228 16:01:39.676368 26658 net.cpp:150] Top shape: 100 512 (51200)
I0228 16:01:39.676375 26658 net.cpp:158] Memory required for data: 38817200
I0228 16:01:39.676386 26658 layer_factory.hpp:77] Creating layer ip1_bn
I0228 16:01:39.676398 26658 net.cpp:93] Creating Layer ip1_bn
I0228 16:01:39.676404 26658 net.cpp:427] ip1_bn <- ip1
I0228 16:01:39.676415 26658 net.cpp:388] ip1_bn -> ip1 (in-place)
I0228 16:01:39.676614 26658 net.cpp:143] Setting up ip1_bn
I0228 16:01:39.676625 26658 net.cpp:150] Top shape: 100 512 (51200)
I0228 16:01:39.676632 26658 net.cpp:158] Memory required for data: 39022000
I0228 16:01:39.676651 26658 layer_factory.hpp:77] Creating layer ip1_scale
I0228 16:01:39.676661 26658 net.cpp:93] Creating Layer ip1_scale
I0228 16:01:39.676667 26658 net.cpp:427] ip1_scale <- ip1
I0228 16:01:39.676676 26658 net.cpp:388] ip1_scale -> ip1 (in-place)
I0228 16:01:39.676728 26658 layer_factory.hpp:77] Creating layer ip1_scale
I0228 16:01:39.676862 26658 net.cpp:143] Setting up ip1_scale
I0228 16:01:39.676873 26658 net.cpp:150] Top shape: 100 512 (51200)
I0228 16:01:39.676879 26658 net.cpp:158] Memory required for data: 39226800
I0228 16:01:39.676888 26658 layer_factory.hpp:77] Creating layer ip1_relu
I0228 16:01:39.676898 26658 net.cpp:93] Creating Layer ip1_relu
I0228 16:01:39.676903 26658 net.cpp:427] ip1_relu <- ip1
I0228 16:01:39.676914 26658 net.cpp:388] ip1_relu -> ip1 (in-place)
I0228 16:01:39.676923 26658 net.cpp:143] Setting up ip1_relu
I0228 16:01:39.676931 26658 net.cpp:150] Top shape: 100 512 (51200)
I0228 16:01:39.676937 26658 net.cpp:158] Memory required for data: 39431600
I0228 16:01:39.676944 26658 layer_factory.hpp:77] Creating layer ip2
I0228 16:01:39.676955 26658 net.cpp:93] Creating Layer ip2
I0228 16:01:39.676961 26658 net.cpp:427] ip2 <- ip1
I0228 16:01:39.676972 26658 net.cpp:401] ip2 -> ip2
I0228 16:01:39.680860 26658 net.cpp:143] Setting up ip2
I0228 16:01:39.680877 26658 net.cpp:150] Top shape: 100 10 (1000)
I0228 16:01:39.680883 26658 net.cpp:158] Memory required for data: 39435600
I0228 16:01:39.680894 26658 layer_factory.hpp:77] Creating layer ip2_ip2_0_split
I0228 16:01:39.680904 26658 net.cpp:93] Creating Layer ip2_ip2_0_split
I0228 16:01:39.680912 26658 net.cpp:427] ip2_ip2_0_split <- ip2
I0228 16:01:39.680923 26658 net.cpp:401] ip2_ip2_0_split -> ip2_ip2_0_split_0
I0228 16:01:39.680933 26658 net.cpp:401] ip2_ip2_0_split -> ip2_ip2_0_split_1
I0228 16:01:39.680984 26658 net.cpp:143] Setting up ip2_ip2_0_split
I0228 16:01:39.680996 26658 net.cpp:150] Top shape: 100 10 (1000)
I0228 16:01:39.681005 26658 net.cpp:150] Top shape: 100 10 (1000)
I0228 16:01:39.681010 26658 net.cpp:158] Memory required for data: 39443600
I0228 16:01:39.681016 26658 layer_factory.hpp:77] Creating layer accuracy
I0228 16:01:39.681164 26658 net.cpp:93] Creating Layer accuracy
I0228 16:01:39.681175 26658 net.cpp:427] accuracy <- ip2_ip2_0_split_0
I0228 16:01:39.681183 26658 net.cpp:427] accuracy <- label_mnist_1_split_0
I0228 16:01:39.681191 26658 net.cpp:401] accuracy -> accuracy
…
