…
I0228 16:17:33.722576  4227 net.cpp:315] The NetState phase (0) differed from the phase (1) specified by a rule in layer mnist
I0228 16:17:33.722599  4227 net.cpp:315] The NetState phase (0) differed from the phase (1) specified by a rule in layer accuracy
I0228 16:17:33.722718  4227 net.cpp:51] Initializing net from parameters: 
name: "LeNet"
state {
  phase: TRAIN
}
layer {
  name: "mnist"
  type: "Data"
  top: "data"
  top: "label"
  include {
    phase: TRAIN
  }
  transform_param {
    scale: 0.00390625
  }
  data_param {
    source: "mnist_train_lmdb"
    batch_size: 50
    backend: LMDB
  }
}
layer {
  name: "conv1"
  type: "Convolution"
  bottom: "data"
  top: "conv1"
  param {
    lr_mult: 1
  }
  param {
    lr_mult: 2
  }
  convolution_param {
    num_output: 32
    kernel_size: 5
    stride: 1
    weight_filler {
      type: "xavier"
    }
    bias_filler {
      type: "constant"
    }
  }
}
layer {
  name: "conv1_bn"
  type: "BatchNorm"
  bottom: "conv1"
  top: "conv1"
  batch_norm_param {
    use_global_stats: false
  }
}
layer {
  name: "conv1_scale"
  type: "Scale"
  bottom: "conv1"
  top: "conv1"
  scale_param {
    bias_term: true
  }
}
layer {
  name: "conv1_relu"
  type: "ReLU"
  bottom: "conv1"
  top: "conv1"
}
layer {
  name: "pool1"
  type: "Pooling"
  bottom: "conv1"
  top: "pool1"
  pooling_param {
    pool: MAX
    kernel_size: 2
    stride: 2
  }
}
layer {
  name: "conv2"
  type: "Convolution"
  bottom: "pool1"
  top: "conv2"
  param {
    lr_mult: 1
  }
  param {
    lr_mult: 2
  }
  convolution_param {
    num_output: 64
    kernel_size: 5
    stride: 1
    weight_filler {
      type: "xavier"
    }
    bias_filler {
      type: "constant"
    }
  }
}
layer {
  name: "conv2_bn"
  type: "BatchNorm"
  bottom: "conv2"
  top: "conv2"
  batch_norm_param {
    use_global_stats: false
  }
}
layer {
  name: "conv2_scale"
  type: "Scale"
  bottom: "conv2"
  top: "conv2"
  scale_param {
    bias_term: true
  }
}
layer {
  name: "conv2_relu"
  type: "ReLU"
  bottom: "conv2"
  top: "conv2"
}
layer {
  name: "pool2"
  type: "Pooling"
  bottom: "conv2"
  top: "pool2"
  pooling_param {
    pool: MAX
    kernel_size: 2
    stride: 2
  }
}
layer {
  name: "ip1"
  type: "InnerProduct"
  bottom: "pool2"
  top: "ip1"
  param {
    lr_mult: 1
  }
  param {
    lr_mult: 2
  }
  inner_product_param {
    num_output: 512
    weight_filler {
      type: "xavier"
    }
    bias_filler {
      type: "constant"
    }
  }
}
layer {
  name: "ip1_bn"
  type: "BatchNorm"
  bottom: "ip1"
  top: "ip1"
  batch_norm_param {
    use_global_stats: false
  }
}
layer {
  name: "ip1_scale"
  type: "Scale"
  bottom: "ip1"
  top: "ip1"
  scale_param {
    bias_term: true
  }
}
layer {
  name: "ip1_relu"
  type: "ReLU"
  bottom: "ip1"
  top: "ip1"
}
layer {
  name: "ip2"
  type: "InnerProduct"
  bottom: "ip1"
  top: "ip2"
  param {
    lr_mult: 1
  }
  param {
    lr_mult: 2
  }
  inner_product_param {
    num_output: 10
    weight_filler {
      type: "xavier"
    }
    bias_filler {
      type: "constant"
    }
  }
}
layer {
  name: "loss"
  type: "SoftmaxWithLoss"
  bottom: "ip2"
  bottom: "label"
  top: "loss"
}
I0228 16:17:33.722856  4227 layer_factory.hpp:77] Creating layer mnist
I0228 16:17:33.723460  4227 net.cpp:93] Creating Layer mnist
I0228 16:17:33.723529  4227 net.cpp:401] mnist -> data
I0228 16:17:33.723582  4227 net.cpp:401] mnist -> label
I0228 16:17:33.724810  4262 db_lmdb.cpp:35] Opened lmdb mnist_train_lmdb
I0228 16:17:33.743959  4227 data_layer.cpp:41] output data size: 50,1,28,28
I0228 16:17:33.745513  4227 net.cpp:143] Setting up mnist
I0228 16:17:33.745563  4227 net.cpp:150] Top shape: 50 1 28 28 (39200)
I0228 16:17:33.745579  4227 net.cpp:150] Top shape: 50 (50)
I0228 16:17:33.745591  4227 net.cpp:158] Memory required for data: 157000
I0228 16:17:33.745609  4227 layer_factory.hpp:77] Creating layer conv1
I0228 16:17:33.745646  4227 net.cpp:93] Creating Layer conv1
I0228 16:17:33.745661  4227 net.cpp:427] conv1 <- data
I0228 16:17:33.745689  4227 net.cpp:401] conv1 -> conv1
I0228 16:17:33.746690  4227 net.cpp:143] Setting up conv1
I0228 16:17:33.746719  4227 net.cpp:150] Top shape: 50 32 24 24 (921600)
I0228 16:17:33.746731  4227 net.cpp:158] Memory required for data: 3843400
I0228 16:17:33.746753  4227 layer_factory.hpp:77] Creating layer conv1_bn
I0228 16:17:33.746780  4227 net.cpp:93] Creating Layer conv1_bn
I0228 16:17:33.746793  4227 net.cpp:427] conv1_bn <- conv1
I0228 16:17:33.746805  4227 net.cpp:388] conv1_bn -> conv1 (in-place)
I0228 16:17:33.747052  4227 net.cpp:143] Setting up conv1_bn
I0228 16:17:33.747072  4227 net.cpp:150] Top shape: 50 32 24 24 (921600)
I0228 16:17:33.747084  4227 net.cpp:158] Memory required for data: 7529800
I0228 16:17:33.747107  4227 layer_factory.hpp:77] Creating layer conv1_scale
I0228 16:17:33.747123  4227 net.cpp:93] Creating Layer conv1_scale
I0228 16:17:33.747133  4227 net.cpp:427] conv1_scale <- conv1
I0228 16:17:33.747146  4227 net.cpp:388] conv1_scale -> conv1 (in-place)
I0228 16:17:33.747287  4227 layer_factory.hpp:77] Creating layer conv1_scale
I0228 16:17:33.747440  4227 net.cpp:143] Setting up conv1_scale
I0228 16:17:33.747464  4227 net.cpp:150] Top shape: 50 32 24 24 (921600)
I0228 16:17:33.747475  4227 net.cpp:158] Memory required for data: 11216200
I0228 16:17:33.747493  4227 layer_factory.hpp:77] Creating layer conv1_relu
I0228 16:17:33.747573  4227 net.cpp:93] Creating Layer conv1_relu
I0228 16:17:33.747586  4227 net.cpp:427] conv1_relu <- conv1
I0228 16:17:33.747603  4227 net.cpp:388] conv1_relu -> conv1 (in-place)
I0228 16:17:33.747659  4227 net.cpp:143] Setting up conv1_relu
I0228 16:17:33.747687  4227 net.cpp:150] Top shape: 50 32 24 24 (921600)
I0228 16:17:33.747725  4227 net.cpp:158] Memory required for data: 14902600
I0228 16:17:33.747740  4227 layer_factory.hpp:77] Creating layer pool1
I0228 16:17:33.747756  4227 net.cpp:93] Creating Layer pool1
I0228 16:17:33.747777  4227 net.cpp:427] pool1 <- conv1
I0228 16:17:33.747792  4227 net.cpp:401] pool1 -> pool1
I0228 16:17:33.747911  4227 net.cpp:143] Setting up pool1
I0228 16:17:33.747975  4227 net.cpp:150] Top shape: 50 32 12 12 (230400)
I0228 16:17:33.747997  4227 net.cpp:158] Memory required for data: 15824200
I0228 16:17:33.748019  4227 layer_factory.hpp:77] Creating layer conv2
I0228 16:17:33.748054  4227 net.cpp:93] Creating Layer conv2
I0228 16:17:33.748077  4227 net.cpp:427] conv2 <- pool1
I0228 16:17:33.748108  4227 net.cpp:401] conv2 -> conv2
I0228 16:17:33.748808  4227 net.cpp:143] Setting up conv2
I0228 16:17:33.748847  4227 net.cpp:150] Top shape: 50 64 8 8 (204800)
I0228 16:17:33.748968  4227 net.cpp:158] Memory required for data: 16643400
I0228 16:17:33.748986  4227 layer_factory.hpp:77] Creating layer conv2_bn
I0228 16:17:33.749003  4227 net.cpp:93] Creating Layer conv2_bn
I0228 16:17:33.749014  4227 net.cpp:427] conv2_bn <- conv2
I0228 16:17:33.749174  4227 net.cpp:388] conv2_bn -> conv2 (in-place)
I0228 16:17:33.752792  4227 net.cpp:143] Setting up conv2_bn
I0228 16:17:33.752816  4227 net.cpp:150] Top shape: 50 64 8 8 (204800)
I0228 16:17:33.752828  4227 net.cpp:158] Memory required for data: 17462600
I0228 16:17:33.752846  4227 layer_factory.hpp:77] Creating layer conv2_scale
I0228 16:17:33.752873  4227 net.cpp:93] Creating Layer conv2_scale
I0228 16:17:33.752885  4227 net.cpp:427] conv2_scale <- conv2
I0228 16:17:33.752912  4227 net.cpp:388] conv2_scale -> conv2 (in-place)
I0228 16:17:33.752972  4227 layer_factory.hpp:77] Creating layer conv2_scale
I0228 16:17:33.753104  4227 net.cpp:143] Setting up conv2_scale
I0228 16:17:33.753125  4227 net.cpp:150] Top shape: 50 64 8 8 (204800)
I0228 16:17:33.753136  4227 net.cpp:158] Memory required for data: 18281800
I0228 16:17:33.753151  4227 layer_factory.hpp:77] Creating layer conv2_relu
I0228 16:17:33.753166  4227 net.cpp:93] Creating Layer conv2_relu
I0228 16:17:33.753177  4227 net.cpp:427] conv2_relu <- conv2
I0228 16:17:33.753190  4227 net.cpp:388] conv2_relu -> conv2 (in-place)
I0228 16:17:33.753202  4227 net.cpp:143] Setting up conv2_relu
I0228 16:17:33.753214  4227 net.cpp:150] Top shape: 50 64 8 8 (204800)
I0228 16:17:33.753224  4227 net.cpp:158] Memory required for data: 19101000
I0228 16:17:33.753234  4227 layer_factory.hpp:77] Creating layer pool2
I0228 16:17:33.753247  4227 net.cpp:93] Creating Layer pool2
I0228 16:17:33.753257  4227 net.cpp:427] pool2 <- conv2
I0228 16:17:33.753271  4227 net.cpp:401] pool2 -> pool2
I0228 16:17:33.753315  4227 net.cpp:143] Setting up pool2
I0228 16:17:33.753331  4227 net.cpp:150] Top shape: 50 64 4 4 (51200)
I0228 16:17:33.753341  4227 net.cpp:158] Memory required for data: 19305800
I0228 16:17:33.753351  4227 layer_factory.hpp:77] Creating layer ip1
I0228 16:17:33.753376  4227 net.cpp:93] Creating Layer ip1
I0228 16:17:33.753387  4227 net.cpp:427] ip1 <- pool2
I0228 16:17:33.753399  4227 net.cpp:401] ip1 -> ip1
I0228 16:17:33.758677  4227 net.cpp:143] Setting up ip1
I0228 16:17:33.758708  4227 net.cpp:150] Top shape: 50 512 (25600)
I0228 16:17:33.758721  4227 net.cpp:158] Memory required for data: 19408200
I0228 16:17:33.758738  4227 layer_factory.hpp:77] Creating layer ip1_bn
I0228 16:17:33.758759  4227 net.cpp:93] Creating Layer ip1_bn
I0228 16:17:33.758771  4227 net.cpp:427] ip1_bn <- ip1
I0228 16:17:33.758785  4227 net.cpp:388] ip1_bn -> ip1 (in-place)
I0228 16:17:33.758994  4227 net.cpp:143] Setting up ip1_bn
I0228 16:17:33.759018  4227 net.cpp:150] Top shape: 50 512 (25600)
I0228 16:17:33.759032  4227 net.cpp:158] Memory required for data: 19510600
I0228 16:17:33.759053  4227 layer_factory.hpp:77] Creating layer ip1_scale
I0228 16:17:33.759073  4227 net.cpp:93] Creating Layer ip1_scale
I0228 16:17:33.759085  4227 net.cpp:427] ip1_scale <- ip1
I0228 16:17:33.759099  4227 net.cpp:388] ip1_scale -> ip1 (in-place)
I0228 16:17:33.759155  4227 layer_factory.hpp:77] Creating layer ip1_scale
I0228 16:17:33.759312  4227 net.cpp:143] Setting up ip1_scale
I0228 16:17:33.759341  4227 net.cpp:150] Top shape: 50 512 (25600)
I0228 16:17:33.759353  4227 net.cpp:158] Memory required for data: 19613000
I0228 16:17:33.759371  4227 layer_factory.hpp:77] Creating layer ip1_relu
I0228 16:17:33.759392  4227 net.cpp:93] Creating Layer ip1_relu
I0228 16:17:33.759410  4227 net.cpp:427] ip1_relu <- ip1
I0228 16:17:33.759430  4227 net.cpp:388] ip1_relu -> ip1 (in-place)
I0228 16:17:33.759447  4227 net.cpp:143] Setting up ip1_relu
I0228 16:17:33.759461  4227 net.cpp:150] Top shape: 50 512 (25600)
I0228 16:17:33.759472  4227 net.cpp:158] Memory required for data: 19715400
I0228 16:17:33.759483  4227 layer_factory.hpp:77] Creating layer ip2
I0228 16:17:33.759501  4227 net.cpp:93] Creating Layer ip2
I0228 16:17:33.759516  4227 net.cpp:427] ip2 <- ip1
I0228 16:17:33.759529  4227 net.cpp:401] ip2 -> ip2
I0228 16:17:33.760582  4227 net.cpp:143] Setting up ip2
I0228 16:17:33.760622  4227 net.cpp:150] Top shape: 50 10 (500)
I0228 16:17:33.760637  4227 net.cpp:158] Memory required for data: 19717400
I0228 16:17:33.760654  4227 layer_factory.hpp:77] Creating layer loss
I0228 16:17:33.760679  4227 net.cpp:93] Creating Layer loss
I0228 16:17:33.760692  4227 net.cpp:427] loss <- ip2
I0228 16:17:33.760706  4227 net.cpp:427] loss <- label
I0228 16:17:33.760726  4227 net.cpp:401] loss -> loss
I0228 16:17:33.760777  4227 layer_factory.hpp:77] Creating layer loss
…
I0228 16:17:33.765166  4227 solver.cpp:186] Creating test net (#0) specified by net file: lenet_tn.prototxt
I0228 16:17:33.765208  4227 net.cpp:315] The NetState phase (1) differed from the phase (0) specified by a rule in layer mnist
I0228 16:17:33.765342  4227 net.cpp:51] Initializing net from parameters: 
name: "LeNet"
state {
  phase: TEST
}
layer {
  name: "mnist"
  type: "Data"
  top: "data"
  top: "label"
  include {
    phase: TEST
  }
  transform_param {
    scale: 0.00390625
  }
  data_param {
    source: "mnist_test_lmdb"
    batch_size: 100
    backend: LMDB
  }
}
layer {
  name: "conv1"
  type: "Convolution"
  bottom: "data"
  top: "conv1"
  param {
    lr_mult: 1
  }
  param {
    lr_mult: 2
  }
  convolution_param {
    num_output: 32
    kernel_size: 5
    stride: 1
    weight_filler {
      type: "xavier"
    }
    bias_filler {
      type: "constant"
    }
  }
}
layer {
  name: "conv1_bn"
  type: "BatchNorm"
  bottom: "conv1"
  top: "conv1"
  batch_norm_param {
    use_global_stats: false
  }
}
layer {
  name: "conv1_scale"
  type: "Scale"
  bottom: "conv1"
  top: "conv1"
  scale_param {
    bias_term: true
  }
}
layer {
  name: "conv1_relu"
  type: "ReLU"
  bottom: "conv1"
  top: "conv1"
}
layer {
  name: "pool1"
  type: "Pooling"
  bottom: "conv1"
  top: "pool1"
  pooling_param {
    pool: MAX
    kernel_size: 2
    stride: 2
  }
}
layer {
  name: "conv2"
  type: "Convolution"
  bottom: "pool1"
  top: "conv2"
  param {
    lr_mult: 1
  }
  param {
    lr_mult: 2
  }
  convolution_param {
    num_output: 64
    kernel_size: 5
    stride: 1
    weight_filler {
      type: "xavier"
    }
    bias_filler {
      type: "constant"
    }
  }
}
layer {
  name: "conv2_bn"
  type: "BatchNorm"
  bottom: "conv2"
  top: "conv2"
  batch_norm_param {
    use_global_stats: false
  }
}
layer {
  name: "conv2_scale"
  type: "Scale"
  bottom: "conv2"
  top: "conv2"
  scale_param {
    bias_term: true
  }
}
layer {
  name: "conv2_relu"
  type: "ReLU"
  bottom: "conv2"
  top: "conv2"
}
layer {
  name: "pool2"
  type: "Pooling"
  bottom: "conv2"
  top: "pool2"
  pooling_param {
    pool: MAX
    kernel_size: 2
    stride: 2
  }
}
layer {
  name: "ip1"
  type: "InnerProduct"
  bottom: "pool2"
  top: "ip1"
  param {
    lr_mult: 1
  }
  param {
    lr_mult: 2
  }
  inner_product_param {
    num_output: 512
    weight_filler {
      type: "xavier"
    }
    bias_filler {
      type: "constant"
    }
  }
}
layer {
  name: "ip1_bn"
  type: "BatchNorm"
  bottom: "ip1"
  top: "ip1"
  batch_norm_param {
    use_global_stats: false
  }
}
layer {
  name: "ip1_scale"
  type: "Scale"
  bottom: "ip1"
  top: "ip1"
  scale_param {
    bias_term: true
  }
}
layer {
  name: "ip1_relu"
  type: "ReLU"
  bottom: "ip1"
  top: "ip1"
}
layer {
  name: "ip2"
  type: "InnerProduct"
  bottom: "ip1"
  top: "ip2"
  param {
    lr_mult: 1
  }
  param {
    lr_mult: 2
  }
  inner_product_param {
    num_output: 10
    weight_filler {
      type: "xavier"
    }
    bias_filler {
      type: "constant"
    }
  }
}
layer {
  name: "accuracy"
  type: "Accuracy"
  bottom: "ip2"
  bottom: "label"
  top: "accuracy"
  include {
    phase: TEST
  }
}
layer {
  name: "loss"
  type: "SoftmaxWithLoss"
  bottom: "ip2"
  bottom: "label"
  top: "loss"
}
I0228 16:17:33.765452  4227 layer_factory.hpp:77] Creating layer mnist
I0228 16:17:33.765569  4227 net.cpp:93] Creating Layer mnist
I0228 16:17:33.765580  4227 net.cpp:401] mnist -> data
I0228 16:17:33.765594  4227 net.cpp:401] mnist -> label
I0228 16:17:33.766800  4267 db_lmdb.cpp:35] Opened lmdb mnist_test_lmdb
I0228 16:17:33.767277  4227 data_layer.cpp:41] output data size: 100,1,28,28
I0228 16:17:33.768597  4227 net.cpp:143] Setting up mnist
I0228 16:17:33.768613  4227 net.cpp:150] Top shape: 100 1 28 28 (78400)
I0228 16:17:33.768618  4227 net.cpp:150] Top shape: 100 (100)
I0228 16:17:33.768621  4227 net.cpp:158] Memory required for data: 314000
I0228 16:17:33.768625  4227 layer_factory.hpp:77] Creating layer label_mnist_1_split
I0228 16:17:33.768635  4227 net.cpp:93] Creating Layer label_mnist_1_split
I0228 16:17:33.768641  4227 net.cpp:427] label_mnist_1_split <- label
I0228 16:17:33.768649  4227 net.cpp:401] label_mnist_1_split -> label_mnist_1_split_0
I0228 16:17:33.768659  4227 net.cpp:401] label_mnist_1_split -> label_mnist_1_split_1
I0228 16:17:33.768734  4227 net.cpp:143] Setting up label_mnist_1_split
I0228 16:17:33.768751  4227 net.cpp:150] Top shape: 100 (100)
I0228 16:17:33.768756  4227 net.cpp:150] Top shape: 100 (100)
I0228 16:17:33.768760  4227 net.cpp:158] Memory required for data: 314800
I0228 16:17:33.768764  4227 layer_factory.hpp:77] Creating layer conv1
I0228 16:17:33.768796  4227 net.cpp:93] Creating Layer conv1
I0228 16:17:33.768805  4227 net.cpp:427] conv1 <- data
I0228 16:17:33.768813  4227 net.cpp:401] conv1 -> conv1
I0228 16:17:33.769125  4227 net.cpp:143] Setting up conv1
I0228 16:17:33.769142  4227 net.cpp:150] Top shape: 100 32 24 24 (1843200)
I0228 16:17:33.769146  4227 net.cpp:158] Memory required for data: 7687600
I0228 16:17:33.769158  4227 layer_factory.hpp:77] Creating layer conv1_bn
I0228 16:17:33.769173  4227 net.cpp:93] Creating Layer conv1_bn
I0228 16:17:33.769178  4227 net.cpp:427] conv1_bn <- conv1
I0228 16:17:33.769183  4227 net.cpp:388] conv1_bn -> conv1 (in-place)
I0228 16:17:33.769337  4227 net.cpp:143] Setting up conv1_bn
I0228 16:17:33.769347  4227 net.cpp:150] Top shape: 100 32 24 24 (1843200)
I0228 16:17:33.769351  4227 net.cpp:158] Memory required for data: 15060400
I0228 16:17:33.769362  4227 layer_factory.hpp:77] Creating layer conv1_scale
I0228 16:17:33.769374  4227 net.cpp:93] Creating Layer conv1_scale
I0228 16:17:33.769381  4227 net.cpp:427] conv1_scale <- conv1
I0228 16:17:33.769384  4227 net.cpp:388] conv1_scale -> conv1 (in-place)
I0228 16:17:33.769430  4227 layer_factory.hpp:77] Creating layer conv1_scale
I0228 16:17:33.769534  4227 net.cpp:143] Setting up conv1_scale
I0228 16:17:33.769543  4227 net.cpp:150] Top shape: 100 32 24 24 (1843200)
I0228 16:17:33.769546  4227 net.cpp:158] Memory required for data: 22433200
I0228 16:17:33.769552  4227 layer_factory.hpp:77] Creating layer conv1_relu
I0228 16:17:33.769559  4227 net.cpp:93] Creating Layer conv1_relu
I0228 16:17:33.769564  4227 net.cpp:427] conv1_relu <- conv1
I0228 16:17:33.769570  4227 net.cpp:388] conv1_relu -> conv1 (in-place)
I0228 16:17:33.769579  4227 net.cpp:143] Setting up conv1_relu
I0228 16:17:33.769585  4227 net.cpp:150] Top shape: 100 32 24 24 (1843200)
I0228 16:17:33.769588  4227 net.cpp:158] Memory required for data: 29806000
I0228 16:17:33.769623  4227 layer_factory.hpp:77] Creating layer pool1
I0228 16:17:33.769634  4227 net.cpp:93] Creating Layer pool1
I0228 16:17:33.769639  4227 net.cpp:427] pool1 <- conv1
I0228 16:17:33.769646  4227 net.cpp:401] pool1 -> pool1
I0228 16:17:33.769680  4227 net.cpp:143] Setting up pool1
I0228 16:17:33.769687  4227 net.cpp:150] Top shape: 100 32 12 12 (460800)
I0228 16:17:33.769690  4227 net.cpp:158] Memory required for data: 31649200
I0228 16:17:33.769695  4227 layer_factory.hpp:77] Creating layer conv2
I0228 16:17:33.769714  4227 net.cpp:93] Creating Layer conv2
I0228 16:17:33.769719  4227 net.cpp:427] conv2 <- pool1
I0228 16:17:33.769726  4227 net.cpp:401] conv2 -> conv2
I0228 16:17:33.770390  4227 net.cpp:143] Setting up conv2
I0228 16:17:33.770409  4227 net.cpp:150] Top shape: 100 64 8 8 (409600)
I0228 16:17:33.770414  4227 net.cpp:158] Memory required for data: 33287600
I0228 16:17:33.770427  4227 layer_factory.hpp:77] Creating layer conv2_bn
I0228 16:17:33.770444  4227 net.cpp:93] Creating Layer conv2_bn
I0228 16:17:33.770452  4227 net.cpp:427] conv2_bn <- conv2
I0228 16:17:33.770458  4227 net.cpp:388] conv2_bn -> conv2 (in-place)
I0228 16:17:33.770635  4227 net.cpp:143] Setting up conv2_bn
I0228 16:17:33.770653  4227 net.cpp:150] Top shape: 100 64 8 8 (409600)
I0228 16:17:33.770658  4227 net.cpp:158] Memory required for data: 34926000
I0228 16:17:33.770668  4227 layer_factory.hpp:77] Creating layer conv2_scale
I0228 16:17:33.770681  4227 net.cpp:93] Creating Layer conv2_scale
I0228 16:17:33.770689  4227 net.cpp:427] conv2_scale <- conv2
I0228 16:17:33.770696  4227 net.cpp:388] conv2_scale -> conv2 (in-place)
I0228 16:17:33.770750  4227 layer_factory.hpp:77] Creating layer conv2_scale
I0228 16:17:33.770865  4227 net.cpp:143] Setting up conv2_scale
I0228 16:17:33.770879  4227 net.cpp:150] Top shape: 100 64 8 8 (409600)
I0228 16:17:33.770884  4227 net.cpp:158] Memory required for data: 36564400
I0228 16:17:33.770910  4227 layer_factory.hpp:77] Creating layer conv2_relu
I0228 16:17:33.770920  4227 net.cpp:93] Creating Layer conv2_relu
I0228 16:17:33.770936  4227 net.cpp:427] conv2_relu <- conv2
I0228 16:17:33.770944  4227 net.cpp:388] conv2_relu -> conv2 (in-place)
I0228 16:17:33.770952  4227 net.cpp:143] Setting up conv2_relu
I0228 16:17:33.770956  4227 net.cpp:150] Top shape: 100 64 8 8 (409600)
I0228 16:17:33.770961  4227 net.cpp:158] Memory required for data: 38202800
I0228 16:17:33.770964  4227 layer_factory.hpp:77] Creating layer pool2
I0228 16:17:33.770972  4227 net.cpp:93] Creating Layer pool2
I0228 16:17:33.770975  4227 net.cpp:427] pool2 <- conv2
I0228 16:17:33.770980  4227 net.cpp:401] pool2 -> pool2
I0228 16:17:33.771024  4227 net.cpp:143] Setting up pool2
I0228 16:17:33.771034  4227 net.cpp:150] Top shape: 100 64 4 4 (102400)
I0228 16:17:33.771036  4227 net.cpp:158] Memory required for data: 38612400
I0228 16:17:33.771039  4227 layer_factory.hpp:77] Creating layer ip1
I0228 16:17:33.771054  4227 net.cpp:93] Creating Layer ip1
I0228 16:17:33.771059  4227 net.cpp:427] ip1 <- pool2
I0228 16:17:33.771066  4227 net.cpp:401] ip1 -> ip1
I0228 16:17:33.778453  4227 net.cpp:143] Setting up ip1
I0228 16:17:33.778488  4227 net.cpp:150] Top shape: 100 512 (51200)
I0228 16:17:33.778493  4227 net.cpp:158] Memory required for data: 38817200
I0228 16:17:33.778503  4227 layer_factory.hpp:77] Creating layer ip1_bn
I0228 16:17:33.778518  4227 net.cpp:93] Creating Layer ip1_bn
I0228 16:17:33.778523  4227 net.cpp:427] ip1_bn <- ip1
I0228 16:17:33.778530  4227 net.cpp:388] ip1_bn -> ip1 (in-place)
I0228 16:17:33.778681  4227 net.cpp:143] Setting up ip1_bn
I0228 16:17:33.778688  4227 net.cpp:150] Top shape: 100 512 (51200)
I0228 16:17:33.778692  4227 net.cpp:158] Memory required for data: 39022000
I0228 16:17:33.778707  4227 layer_factory.hpp:77] Creating layer ip1_scale
I0228 16:17:33.778715  4227 net.cpp:93] Creating Layer ip1_scale
I0228 16:17:33.778722  4227 net.cpp:427] ip1_scale <- ip1
I0228 16:17:33.778725  4227 net.cpp:388] ip1_scale -> ip1 (in-place)
I0228 16:17:33.778758  4227 layer_factory.hpp:77] Creating layer ip1_scale
I0228 16:17:33.778872  4227 net.cpp:143] Setting up ip1_scale
I0228 16:17:33.778880  4227 net.cpp:150] Top shape: 100 512 (51200)
I0228 16:17:33.778884  4227 net.cpp:158] Memory required for data: 39226800
I0228 16:17:33.778890  4227 layer_factory.hpp:77] Creating layer ip1_relu
I0228 16:17:33.778898  4227 net.cpp:93] Creating Layer ip1_relu
I0228 16:17:33.778903  4227 net.cpp:427] ip1_relu <- ip1
I0228 16:17:33.778910  4227 net.cpp:388] ip1_relu -> ip1 (in-place)
I0228 16:17:33.778918  4227 net.cpp:143] Setting up ip1_relu
I0228 16:17:33.778923  4227 net.cpp:150] Top shape: 100 512 (51200)
I0228 16:17:33.778926  4227 net.cpp:158] Memory required for data: 39431600
I0228 16:17:33.778931  4227 layer_factory.hpp:77] Creating layer ip2
I0228 16:17:33.778942  4227 net.cpp:93] Creating Layer ip2
I0228 16:17:33.778947  4227 net.cpp:427] ip2 <- ip1
I0228 16:17:33.778954  4227 net.cpp:401] ip2 -> ip2
I0228 16:17:33.779072  4227 net.cpp:143] Setting up ip2
I0228 16:17:33.779078  4227 net.cpp:150] Top shape: 100 10 (1000)
I0228 16:17:33.779083  4227 net.cpp:158] Memory required for data: 39435600
I0228 16:17:33.779088  4227 layer_factory.hpp:77] Creating layer ip2_ip2_0_split
I0228 16:17:33.779096  4227 net.cpp:93] Creating Layer ip2_ip2_0_split
I0228 16:17:33.779103  4227 net.cpp:427] ip2_ip2_0_split <- ip2
I0228 16:17:33.779108  4227 net.cpp:401] ip2_ip2_0_split -> ip2_ip2_0_split_0
I0228 16:17:33.779114  4227 net.cpp:401] ip2_ip2_0_split -> ip2_ip2_0_split_1
I0228 16:17:33.779145  4227 net.cpp:143] Setting up ip2_ip2_0_split
I0228 16:17:33.779151  4227 net.cpp:150] Top shape: 100 10 (1000)
I0228 16:17:33.779157  4227 net.cpp:150] Top shape: 100 10 (1000)
I0228 16:17:33.779160  4227 net.cpp:158] Memory required for data: 39443600
I0228 16:17:33.779165  4227 layer_factory.hpp:77] Creating layer accuracy
I0228 16:17:33.779172  4227 net.cpp:93] Creating Layer accuracy
I0228 16:17:33.779176  4227 net.cpp:427] accuracy <- ip2_ip2_0_split_0
I0228 16:17:33.779181  4227 net.cpp:427] accuracy <- label_mnist_1_split_0
I0228 16:17:33.779189  4227 net.cpp:401] accuracy -> accuracy
…
